cheakpoint/training_epochs_100_stepsize_7_gamma_0.75/model_epoch100.pth (torch, 117574 bytes, 10 tensors)

lstm.weight_ih_l0 f4 [192, 2]
0	0x3d89aa3e	0.06721924
1	0xbdc0b783	-0.09410002
2	0x3e30fa87	0.17283069
3	0xbd2d8bc3	-0.042369615
4	0xbed35dde	-0.41282552
5	0xbcb327a6	-0.021869492
6	0x3c630238	0.013855509
7	0x3d1951d2	0.037431546
8	0x3e1090d3	0.14117746
9	0x3dcabfba	0.0989985
10	0xbe08361f	-0.13301896
11	0x3d8d2552	0.06891884
12	0x3d2838e3	0.041069876
13	0x3e2e9caf	0.17051958
14	0xbe04c2d4	-0.12964946
15	0xbe2b7e03	-0.16747288
16	0x3c69fc49	0.014281341
17	0x3da0f53b	0.07859274
18	0x3d10a3bc	0.0353124
19	0xbc4dc433	-0.012558985
20	0xbeba1063	-0.36340627
21	0xbe154ca7	-0.14580022
22	0x3e49e99f	0.19718026
23	0x3e34948d	0.17634793
24	0xbd89cfe3	-0.06729104
25	0xbcd58a56	-0.02606694
26	0xbd852f7a	-0.06503196
27	0xbd451f37	-0.048125472
28	0x3e969333	0.2940918
29	0xbcd5c1c4	-0.026093371
30	0xbe7c982e	-0.24667427
31	0x3e146da3	0.14494948
32	0x3e8e5d72	0.27805668
33	0x3d5bca7e	0.05365991
34	0x3c73d1d7	0.014881573
35	0xbe683f57	-0.22680412
36	0xbdf22b7e	-0.11824702
37	0xbd91f25b	-0.07126304
38	0x3e6a8def	0.22905706
39	0x3ed402df	0.4140844
40	0xbe18f868	-0.1493851
41	0xbce7b781	-0.028285744
42	0x3e958b44	0.29207814
43	0x3e6beff9	0.23040761
44	0x3e7e115f	0.24811314
45	0x3ec46da3	0.38364896
46	0xbca690a9	-0.020332651
47	0x3ce1e95d	0.027577097
48	0xbde4c3df	-0.11170172
49	0xbe39a73c	-0.18130201
50	0xbdcdfef1	-0.10058392
51	0xbe1a1500	-0.15047073
52	0x3d9a3a1d	0.075306155
53	0xbd06db17	-0.032923784
54	0xbd7f1ec9	-0.06228522
55	0xbdb4c1d5	-0.08826033
56	0xbd8fa878	-0.07014555
57	0x3e06f68b	0.13179986
58	0x3ec7763f	0.38957402
59	0x3e88a616	0.26689214
60	0xbd319b4a	-0.043360986
61	0xbe4cabc4	-0.19987398
62	0x3eaaedc0	0.33384514
63	0x3e26ac03	0.16276555
64	0x3de6ee47	0.112759165
65	0xbd833da3	-0.06408241
66	0xbcfdcc06	-0.030981075
67	0xbc81448d	-0.015779758
68	0x3ee1ce6c	0.441028
69	0x3eeb414b	0.45948252
70	0xbe257983	-0.16159634
71	0xbe46a697	-0.19399486
72	0x3d111f2a	0.03543011
73	0xbde5a4bf	-0.112130634
74	0x3eb528e2	0.35382754
75	0xbdd70f7b	-0.105009995
76	0xbeadb878	-0.339298
77	0x3e0de901	0.13858415
78	0x3da7659e	0.08173679
79	0x3e77fe90	0.24218202
80	0x3e15f647	0.14644729
81	0xbda2645a	-0.07929297
82	0x3e14fb1f	0.1454892
83	0x3d32ab4e	0.0436204
84	0x3d67031d	0.056399453
85	0x3e52c9dc	0.20584816
86	0xbe3fbcb0	-0.18724322
87	0xbbde98c7	-0.006793115
88	0xbe66b72f	-0.22530816
89	0xbe78ab80	-0.24284172
90	0x3ed56103	0.41675577
91	0xbca3baba	-0.0199865
92	0xbe6b7a70	-0.22995925
93	0xbea1e700	-0.31621552
94	0x3dcb19aa	0.099170044
95	0x3e63059d	0.2217011
96	0x3e36894f	0.17825817
97	0x3e5ad4a2	0.21370175
98	0x3cc2cd91	0.023779662
99	0xbd8fefe9	-0.07028181
100	0xbedf8718	-0.43657756
101	0x3d9ff91a	0.07811184
102	0xbe0bc099	-0.13647689
103	0x3d91fe09	0.071285315
104	0x3e19c3df	0.15016125
105	0x3ea613f2	0.32437092
106	0xbe75ee48	-0.24016678
107	0xbdbecb1c	-0.09316084
108	0xbb1e29d4	-0.0024133818
109	0xbd05bf74	-0.032653287
110	0xbe42d60e	-0.19026968
111	0xbe2dcc9a	-0.1697258
112	0x3e8162c4	0.25270665
113	0x3e831054	0.25598395
114	0xbe62e9e2	-0.22159532
115	0xbdee1b37	-0.116262846
116	0xbe3bd30e	-0.1834223
117	0x3dae24f4	0.08503142
118	0x3e19c4c0	0.1501646
119	0x3e0b12b7	0.13581358
120	0x3ca7aa00	0.020466805
121	0x3e184011	0.1486819
122	0xbe2c69bc	-0.1683721
123	0xbdb3d5ec	-0.08781037
124	0x3e8421fb	0.25807175
125	0xbe1c8ec9	-0.15288843
126	0xbd875f9a	-0.066100314
127	0x3d492700	0.04910946
128	0x3da1a24d	0.078922845
129	0xbd924391	-0.071417935
130	0xbcca70fe	-0.024712082
131	0xbce0d413	-0.027444875
132	0x3dce3823	0.10069301
133	0xbe06a842	-0.13150123
134	0x3d97d7bc	0.07414195
135	0x3e4abf7a	0.19799605
136	0xbe4383de	-0.19093272
137	0x3db8b6bf	0.09019231
138	0x3e9240e5	0.28565136
139	0x3e8a9d5d	0.27073184
140	0x3d89c2dd	0.0672662
141	0xbd2079ef	-0.039178785
142	0xbdfba761	-0.12287784
143	0x3d0764dc	0.03305517
144	0xbc7182b2	-0.014740633
145	0xbbf2fcb2	-0.0074153775
146	0xbdbc3f3c	-0.091917485
147	0xbd6d6cf9	-0.057965253
148	0x3db5a776	0.08869831
149	0x3d4fda5d	0.050745357
150	0xbd1538d7	-0.03643116
151	0xbdab62c1	-0.08368445
152	0xbd819a41	-0.0632825
153	0x3eb22909	0.34796932
154	0x3dda9f2b	0.1067489
155	0x3d1b26c6	0.037878774
156	0x3ce00930	0.027348131
157	0xbe721f54	-0.23644763
158	0xbc85d5e1	-0.016337337
159	0xbd8606fc	-0.06544301
160	0x3d380b48	0.044932634
161	0xbe9badeb	-0.30406126
162	0x3d02c030	0.031921566
163	0x3dd08391	0.10181344
164	0x3df196b6	0.11796324
165	0x3d7a906c	0.061172888
166	0x3dfef073	0.12448206
167	0xbd49d850	-0.049278557
168	0xbe4c70c7	-0.19964896
169	0xbe873552	-0.26407868
170	0x3e432d2b	0.19060199
171	0xbe0b2a8b	-0.13590448
172	0xbeff92b1	-0.49916604
173	0x3e49b0a2	0.19696286
174	0xbd0fcb65	-0.03510608
175	0x3c9bbe7a	0.019011725
176	0xbd2f4f63	-0.04280032
177	0x3e3df52f	0.18550561
178	0x3db6da06	0.089283034
179	0xbdc54b62	-0.09633519
180	0xbd11b4e6	-0.03557291
181	0x3e70d0cb	0.23517148
182	0x3da85dec	0.08221039
183	0x3e2150a8	0.15753424
184	0xbe2d4bd5	-0.16923459
185	0xbe8089fc	-0.25105274
186	0xbe0afdaf	-0.13573335
187	0x3d656503	0.056004535
188	0xbe09eeb1	-0.1346996
189	0x3b81412d	0.003944537
190	0x3d579480	0.052631855
191	0x3d9541cb	0.0728794
192	0x3e6469bb	0.22305958
193	0x3da53799	0.08067245
194	0x3ea830a4	0.3284961
195	0xbe81a6ff	-0.2532272
196	0x3eacebf3	0.33773765
197	0x3e2d7f10	0.16943002
198	0xbe869e7c	-0.2629279
199	0x3e558478	0.20851314
200	0x3ca233e6	0.019800138
201	0xbebc569f	-0.36784837
202	0xbe81c9e6	-0.2534935
203	0xbec35f8d	-0.38158837
204	0x3e47a1a7	0.19495259
205	0x3e8e4549	0.27787235
206	0x3da11371	0.07865036
207	0x3d700f99	0.058608625
208	0xbe8d9a37	-0.2765672
209	0xbe11bb58	-0.14231622
210	0xbe9bdc86	-0.30441684
211	0x3e3527a1	0.17690898
212	0x3e54137e	0.2071056
213	0x3df51b28	0.1196807
214	0x3e8fa269	0.28053597
215	0x3dfd7600	0.12376022
216	0x3d15582c	0.03646104
217	0xbe114832	-0.14187697
218	0xbe7291ad	-0.23688383
219	0x3e9dfb3f	0.30855748
220	0xbeb3bc7c	-0.3510474
221	0x3df92a05	0.12166218
222	0xbe7c7ec4	-0.24657732
223	0xbe8318a2	-0.2560473
224	0xbea699b7	-0.3253915
225	0x3ea3a864	0.3196441
226	0xbebe35d6	-0.3715045
227	0xbcdf8ace	-0.027287867
228	0xbe8b0b97	-0.2715728
229	0x3e5b3da7	0.21410237
230	0x3e965fb4	0.2936989
231	0xbec52aad	-0.38509122
232	0x3dba1cca	0.09087522
233	0x3e3b2e23	0.18279319
234	0x3ea3254f	0.31864402
235	0x3e9942a8	0.29933667
236	0xbe3c1dc2	-0.18370727
237	0xbe717535	-0.23579867
238	0x3d7c85a2	0.06165088
239	0x3e98cc97	0.2984359
240	0x3da997b0	0.08280885
241	0xbeb6d479	-0.3570898
242	0x3e5670a9	0.20941414
243	0xbe93dad2	-0.28877884
244	0x3ecc2419	0.3987129
245	0x3e59ad88	0.21257603
246	0xbe841765	-0.257991
247	0x3e843bc2	0.25826842
248	0xbd7f7401	-0.06236649
249	0x3e6c5e9a	0.23082963
250	0xbefdb0da	-0.4954899
251	0x3cec814c	0.028870247
252	0xbd9828d1	-0.0742966
253	0x3e5d9f89	0.21642889
254	0x3e98ca38	0.2984178
255	0xbeacc6c4	-0.33745396

lstm.weight_hh_l0 f4 [192, 48]
0	0xbdb2b590	-0.087260365
1	0x39ddb315	0.0004228583
2	0x3eaad6c1	0.3336697
3	0x3df2a772	0.11848344
4	0x3d37c57e	0.044866078
5	0xbe04fee9	-0.12987866
6	0xbcb7fa79	-0.022458302
7	0x3cf47dc9	0.029845135
8	0x3d43248f	0.047642287
9	0xbc382e17	-0.011241457
10	0x3dbdbb1e	0.092642054
11	0x3da57d2d	0.08080516
12	0x3dba5e54	0.09100023
13	0xbe1b3454	-0.1515668
14	0x3e13fe39	0.14452447
15	0xbc9cc2cd	-0.019135857
16	0x3e963cf6	0.29343385
17	0x3defac16	0.11702745
18	0x3e08c871	0.13357712
19	0xbea53e8a	-0.32274276
20	0x3dd226b1	0.10261286
21	0xbc4833f9	-0.0122194225
22	0xbe4d505c	-0.20050186
23	0x3d96afc9	0.07357747
24	0x3d14912e	0.036271267
25	0xbc8d202e	-0.017227259
26	0xbdfe35e5	-0.12412623
27	0x3e740975	0.23831733
28	0x3c0358b9	0.008016759
29	0x3dd2ac3f	0.102867596
30	0x3d6f117b	0.05836628
31	0xbe4eaac4	-0.2018233
32	0x3baba589	0.005238239
33	0xbe187d93	-0.14891653
34	0xbca847e6	-0.020542096
35	0x3d7ce2da	0.06173978
36	0xbc8a619c	-0.016892247
37	0xbdc9436a	-0.09827311
38	0xbe1ba482	-0.15199474
39	0x3d59bb3b	0.053157073
40	0xbdc6800f	-0.09692394
41	0xbd5fc918	-0.054635137
42	0xbcfc75b3	-0.030817842
43	0xbe77648b	-0.24159448
44	0x3dbcf09d	0.09225581
45	0xbe5bb4bc	-0.21455663
46	0xbe4bfdfa	-0.19921103
47	0xbe94c185	-0.29053894
48	0x3d2135f1	0.039358083
49	0x3e139ab9	0.14414491
50	0xbe612394	-0.21986228
51	0xbeb35ef0	-0.3503337
52	0xbba36287	-0.0049861106
53	0x3dd6ea3e	0.10493897
54	0x3e82d3cc	0.25552213
55	0x3e11d4cf	0.14241336
56	0xbdea2e54	-0.11434618
57	0xbdf0de50	-0.11761153
58	0xbe166566	-0.14687118
59	0xbe0e0ef2	-0.13872889
60	0xbcacbf27	-0.021087242
61	0xbcd6bea9	-0.02621396
62	0xbd596207	-0.053072
63	0xbd84c73c	-0.064833134
64	0xbeaf31f1	-0.3421779
65	0xbe64957c	-0.22322649
66	0xbddf42d4	-0.10901418
67	0x3ea577d8	0.32317996
68	0xbd8cd550	-0.06876624
69	0xbe165555	-0.14680989
70	0x3def9c36	0.11699717
71	0x3c77ef5e	0.015132753
72	0x3db10e3f	0.08645295
73	0x3dce748c	0.10080823
74	0x3e6ed90a	0.23324981
75	0xbded8c68	-0.11599046
76	0xbc63c729	-0.013902464
77	0xbe38fd21	-0.18065311
78	0xbd75377c	-0.059867367
79	0x3ee492e2	0.44643313
80	0x3e098038	0.13427818
81	0x3e88990c	0.26679265
82	0xbe44412f	-0.1916549
83	0x3e0430e2	0.12909272
84	0x3dd28131	0.102785476
85	0x3d317f3c	0.04333423
86	0x3e23b394	0.15986472
87	0xbe071b7f	-0.13194083
88	0x3d38947b	0.045063477
89	0x3b96b24c	0.0045988914
90	0x3d7b4d8e	0.06135326
91	0x3e816764	0.25274193
92	0x3cf96b6b	0.030446729
93	0x3e0d8849	0.1382152
94	0x3e6a53a4	0.22883469
95	0x3e920319	0.28517988
96	0xbdcc938c	-0.0998908
97	0xbd58fac2	-0.052973516
98	0xbebab88a	-0.36468917
99	0x3eda61d0	0.4265275
100	0x3dbdc93c	0.09266898
101	0x3e417207	0.18891154
102	0xbdca6e0a	-0.098842695
103	0xbe985114	-0.29749358
104	0x3e9533f3	0.29141197
105	0x3ebec568	0.37259984
106	0xbd4873cb	-0.048938554
107	0xbedf2791	-0.43584874
108	0x3ca498ac	0.02009233
109	0x3ed28210	0.41114855
110	0x3eb8e367	0.36110994
111	0x3eb46e70	0.35240507
112	0x3f002f7d	0.5007246
113	0x3eb37648	0.3505118
114	0x3e7f00c9	0.24902643
115	0xbe5f8520	-0.21828127
116	0xbdfb6d3e	-0.12276696
117	0xbecb4e7c	-0.39708316
118	0x3e856e47	0.26060697
119	0x3cddc1e8	0.02707
120	0xbe5afde9	-0.21385922
121	0xbe686412	-0.22694424
122	0xbee2f3d9	-0.44326666
123	0x3e0ce9f5	0.13761123
124	0x3d578e82	0.05262614
125	0x3f55738c	0.83379436
126	0x3eaded97	0.3397033
127	0xbf0f6fdc	-0.5603006
128	0xbea1a0a8	-0.31567883
129	0x3e583307	0.21113215
130	0x3e4ba069	0.1988541
131	0xbe476055	-0.19470342
132	0xbeb07ab6	-0.3446862
133	0xbf206d05	-0.6266635
134	0xbe2d8716	-0.16946062
135	0xbd3315ba	-0.043721892
136	0x3d3aa152	0.045564003
137	0xbdda4864	-0.10658339
138	0xbeb367e0	-0.35040188
139	0x3ceca411	0.028886827
140	0xbd822973	-0.06355562
141	0xbe7ed7b1	-0.24886967
142	0xbe631c64	-0.22178799
143	0xbe6c502c	-0.23077458
144	0xbdbe7394	-0.092993885
145	0x3e6b9430	0.23005748
146	0xbe64f9b5	-0.2236088
147	0x3cc9bb29	0.024625378
148	0x3cec35ae	0.02883419
149	0xbd534415	-0.0515786
150	0x3d944644	0.072399646
151	0xbd48eb0b	-0.04905228
152	0xbca69627	-0.02033527
153	0xbd7fcf0a	-0.062453307
154	0xbe23bb87	-0.15989505
155	0x3b765248	0.0037585665
156	0xbb9bb936	-0.0047523035
157	0x3d51c2f1	0.0512113
158	0xbd9d912d	-0.07693706
159	0xbcae2733	-0.021258926
160	0xbe4601e2	-0.19336656
161	0xbe19a027	-0.150025
162	0xbe4078b5	-0.18796046
163	0x3ee668e2	0.45001894
164	0xbdb891b3	-0.09012165
165	0xbe50fe4c	-0.20409507
166	0x3e2187df	0.15774487
167	0x3ddd5246	0.10806708
168	0xbdfcdcef	-0.12346827
169	0xbe060e22	-0.13091329
170	0xbd9db94a	-0.07701357
171	0x3d795208	0.060869247
172	0xbe5025fb	-0.20326988
173	0xbd1fa1c7	-0.038972642
174	0xbdc7093a	-0.09718557
175	0x3e6ad3e9	0.229324
176	0xbd2ada62	-0.041712172
177	0x3e69b2a7	0.22822057
178	0x3e7985c9	0.24367441
179	0x3e46133e	0.19343278
180	0x3cd1fee3	0.025634235
181	0x3d5e5314	0.05427845
182	0x3dd87d33	0.10570755
183	0xbe97fb2d	-0.2968382
184	0xbdafc644	-0.08582738
185	0x3e26f203	0.16303258
186	0x3e0f5c7f	0.14000128
187	0x3e052c0a	0.13005081
188	0x3de5c87f	0.11219882
189	0x3e348b83	0.17631344
190	0x3e2b16de	0.16707942
191	0x3e99e44a	0.30056983
192	0x3e65de67	0.22448121
193	0x3da527e4	0.08064249
194	0x3ee2eefe	0.44322962
195	0xbda651cc	-0.0812107
196	0x3e33cbb3	0.17558174
197	0x3e343cb3	0.1760128
198	0xbe096e1c	-0.1342091
199	0x3e07877b	0.13235275
200	0x3d895be5	0.067069806
201	0xbeaae317	-0.3337638
202	0x3dbc1ea7	0.09185534
203	0x3d8aa203	0.067691825
204	0xbd717173	-0.058946084
205	0xbe99d019	-0.30041578
206	0xbe0ed9c1	-0.13950254
207	0x3bef6428	0.0073056407
208	0x3bcb78b1	0.006209456
209	0xbd1adda9	-0.037809048
210	0xbe2c7cd0	-0.16844487
211	0x3e4f6ed4	0.20257121
212	0x3e0e7efa	0.13915625
213	0xbdf6836d	-0.12036786
214	0x3eb0faad	0.3456625
215	0xbdb9e364	-0.090765744
216	0xbd316f0e	-0.0433188
217	0x3e887b41	0.26656535
218	0xbcca9b47	-0.024732245
219	0xbddb5d44	-0.107111484
220	0xbe158064	-0.14599758
221	0xbddba83c	-0.107254475
222	0xbd9467f4	-0.0724639
223	0x3e2e242b	0.17005984
224	0x3e9b471c	0.3032769
225	0xbd8df8d6	-0.06932227
226	0x3df71980	0.120654106
227	0x3e05fe44	0.13085276
228	0x3d7c5053	0.06160004
229	0x3e87e5ee	0.2654261
230	0x3edb34c9	0.4281371
231	0xbdbb2501	-0.09137917
232	0x3e252aab	0.16129558
233	0x3bb0925f	0.0053885425
234	0xbdb12cb8	-0.086511075
235	0x3ca3dc65	0.020002553
236	0xbca0f61c	-0.019648604
237	0x3de9bf39	0.11413426
238	0xbd067cf0	-0.032833993
239	0x3e9b7bed	0.30367985
240	0x3ede4b18	0.43416667
241	0x3e97a214	0.29615843
242	0x3f1921d7	0.5981726
243	0x3d8be275	0.068303026
244	0xbd44966a	-0.04799501
245	0x3e8681bf	0.26270863
246	0xbdbc6167	-0.091982655
247	0xbd815eeb	-0.06316932
248	0xbea00a7b	-0.31257996
249	0xbee7391e	-0.45160764
250	0x3e2adb9e	0.1668534
251	0x3dfc8127	0.12329321
252	0xbe465f2f	-0.19372247
253	0xbdaf445e	-0.08557962
254	0xbdaebcf3	-0.08532133
255	0xbe4fd0d9	-0.20294513

lstm.bias_ih_l0 f4 [192]
0	0x3db02e8a	0.086026266
1	0xbcc171e6	-0.023613881
2	0xbe83897b	-0.25690827
3	0xbdbf67fe	-0.09346007
4	0x3e25626d	0.16150828
5	0xbd5a6eed	-0.053328443
6	0xbdc584fc	-0.096445054
7	0xbe1002e7	-0.14063607
8	0x3d788fc2	0.060683973
9	0x3d848215	0.06470124
10	0xbe5ae4ed	-0.21376391
11	0x3c151f88	0.009101756
12	0xbdcc6bf3	-0.09981527
13	0x3cf6d058	0.030128643
14	0xbd4e4609	-0.05035976
15	0xbcf1f110	-0.029533893
16	0xbc626139	-0.013817125
17	0xbdea877f	-0.11451625
18	0xbcb6416a	-0.022247989
19	0x3e79f91e	0.24411437
20	0xbe591126	-0.21197948
21	0x3d755431	0.059894744
22	0x3e77664d	0.24160118
23	0x3d75b27e	0.059984677
24	0xbdd0aeaa	-0.101895645
25	0xbb941e53	-0.0045202165
26	0x3e486118	0.19568288
27	0xbc54abf3	-0.012980449
28	0xbe5cd9c5	-0.21567447
29	0x3ebb5fed	0.36596623
30	0xbd237f25	-0.039916176
31	0xbcb4b080	-0.022056818
32	0x3dd53e91	0.10412324
33	0xbd5ba3ba	-0.05362294
34	0x3e48069d	0.19533773
35	0xbe0d9b77	-0.13828836
36	0xbe4e1621	-0.20125629
37	0xbd70cc21	-0.058788422
38	0xbdd6dc35	-0.1049122
39	0xbe15ddfe	-0.14635465
40	0xbe1ad456	-0.15120062
41	0x3e0e47fb	0.13894646
42	0x3e209e40	0.15685368
43	0xbe231685	-0.1592656
44	0xbe7bfee4	-0.24608952
45	0x3e9d6e44	0.30748188
46	0xbe69b8b9	-0.22824372
47	0xbdd8142e	-0.10550724
48	0x3e839c41	0.2570515
49	0xbe3638f8	-0.1779517
50	0xbd57ba6d	-0.052668024
51	0xbc7e09b4	-0.015505243
52	0x3ea91a94	0.3302809
53	0x3e12fd25	0.1435438
54	0xbe5c2cf6	-0.21501526
55	0xbd7e3b09	-0.06206802
56	0x3e1fa15b	0.15588896
57	0xbe5eb350	-0.2174809
58	0x3d61f8a3	0.05516876
59	0x3de694a3	0.11258819
60	0x3da2efb0	0.07955873
61	0xbce2b258	-0.027672932
62	0xbe1a2415	-0.15052827
63	0xbd8132ef	-0.06308543
64	0xbd1be0be	-0.038056128
65	0xbd6c0c5c	-0.057628974
66	0xbe402855	-0.18765385
67	0x3daac3a8	0.083381
68	0xbde317b8	-0.11088508
69	0xbe1a98b4	-0.15097314
70	0xbdf737d0	-0.12071192
71	0xbda60667	-0.0810669
72	0xbd5d3549	-0.054005895
73	0xbddb1e5e	-0.106991515
74	0xbc2e9b04	-0.010657076
75	0x3e18d381	0.14924432
76	0x3dbf56ae	0.09342705
77	0xbd68ae23	-0.056806695
78	0xbdb4255d	-0.08796189
79	0xbb4e12e4	-0.0031444365
80	0xbd9885fe	-0.07447432
81	0x3e041779	0.12899579
82	0xbd7e4eae	-0.062086754
83	0xbd5a6cf8	-0.053326577
84	0xbe7af04b	-0.24505727
85	0xbe16f85b	-0.14743178
86	0x3d11f296	0.03563174
87	0x3d4f1d3a	0.050564982
88	0xbe10eb71	-0.14152314
89	0x3da1eea1	0.07906843
90	0xbda6056e	-0.081065044
91	0x3c1b5cd6	0.009482583
92	0xbeaaecfe	-0.33383936
93	0xbc21dca2	-0.009879263
94	0x3dada56f	0.084788196
95	0xbde7a8b6	-0.11311476
96	0xbd2529dc	-0.040323123
97	0xbbc61b6e	-0.0060457503
98	0xbe38a1c4	-0.18030459
99	0xbd879fa5	-0.06622247
100	0x3c1e3f33	0.009658623
101	0x3df5e42a	0.120064095
102	0xbdc2ab45	-0.09505323
103	0xbd1c53a8	-0.03816572
104	0x3c979f2c	0.018508516
105	0x3d1759fa	0.036951043
106	0xbe0ad272	-0.13556841
107	0xbdad06a8	-0.08448535
108	0x3d840940	0.06447077
109	0xbddc0b61	-0.10744358
110	0x3de8b835	0.1136326
111	0xbc6fc899	-0.014635229
112	0x3dab4e79	0.08364577
113	0x3e086c97	0.13322674
114	0xbcc36278	-0.023850664
115	0x3aba106b	0.0014195567
116	0xbc5eb161	-0.013592095
117	0xbe283d71	-0.16429688
118	0x3d4c6080	0.049896717
119	0xbd3eb321	-0.04655755
120	0x3df90f78	0.121611536
121	0xbd1cbdf7	-0.038267102
122	0xbe5e06d5	-0.21682294
123	0xbbed48ad	-0.0072413296
124	0xbd8803f4	-0.06641379
125	0x3e028f5f	0.12750004
126	0xbd155811	-0.03646094
127	0x3dc48e87	0.095974974
128	0x3ce6d91c	0.028179698
129	0x3d4e4f13	0.05036838
130	0x3e13592f	0.1438949
131	0xbc11ea38	-0.00890594
132	0x3bd0b665	0.0063693994
133	0x3a9ae6fb	0.0011818105
134	0xbdffc9be	-0.12489651
135	0xbd8ac05f	-0.06774973
136	0x3e2e1f6b	0.17004173
137	0xbe8698aa	-0.26288348
138	0xbe354c9a	-0.17705002
139	0x3c76951e	0.015050201
140	0x3d9927ac	0.0747827
141	0x3d7d187f	0.06179094
142	0xbe1bb2c1	-0.15204908
143	0xbc78169d	-0.01514211
144	0x3d8e60fc	0.06952092
145	0xbd9a9108	-0.07547194
146	0xbd81b6f8	-0.06333727
147	0x3deb2277	0.11481183
148	0xbcf3c9fa	-0.029759396
149	0x3e41d4ea	0.18928877
150	0xbe38167c	-0.17977327
151	0xbdedf7ea	-0.116195515
152	0x3e2015ac	0.15633267
153	0xbda51a43	-0.0806165
154	0xbdbc62a1	-0.091984995
155	0x3dbb1189	0.09134204
156	0xbe42db4f	-0.19028972
157	0x3e0ff01d	0.1405644
158	0x3cbf66bf	0.023364423
159	0xbda48ce6	-0.08034687
160	0x3e95a84f	0.29229972
161	0xbde30151	-0.110842355
162	0xbd746eea	-0.05967609
163	0x3dd587d0	0.10426295
164	0xbde7b2bf	-0.1131339
165	0x3df66e1a	0.12032719
166	0x3e71c182	0.23608974
167	0x3d8b62f4	0.06805983
168	0xbe44d1b9	-0.19220628
169	0x3d432e47	0.047651555
170	0x3e4eeeb0	0.2020824
171	0x3e1a7cca	0.15086666
172	0xbd715879	-0.058922265
173	0x3ecaaa9a	0.39583284
174	0x3cee7fbe	0.029113647
175	0x3e65316e	0.22382137
176	0xbdcb8638	-0.099377096
177	0xbd9b04df	-0.075692885
178	0x3e30eb48	0.17277253
179	0xbe2a64cc	-0.16640013
180	0xbd956a1f	-0.072956316
181	0x3dd5b413	0.10434737
182	0xbd88fb15	-0.06688515
183	0xbc9e7da2	-0.019347016
184	0x3cad6805	0.021167764
185	0x3d9c719f	0.07638859
186	0x3e153b42	0.14573386
187	0xbe4bea65	-0.19913633
188	0xbe80dfda	-0.25170785
189	0x3ea99529	0.33121613
190	0xbe95fed0	-0.2929597
191	0x3def3c78	0.116814554

lstm.bias_hh_l0 f4 [192]
0	0xbd04c249	-0.032411847
1	0x3dace842	0.08442737
2	0xbe925848	-0.28582978
3	0xbdef4179	-0.1168241
4	0x3e312dea	0.17302671
5	0x3e2134bc	0.15742773
6	0xbdae75aa	-0.085185364
7	0xbe990699	-0.29887846
8	0x3db55d75	0.08855716
9	0x3defc730	0.11707914
10	0xbd56f655	-0.052481014
11	0x3e17f773	0.14840488
12	0xbe23a606	-0.15981302
13	0xbc6d447a	-0.014481658
14	0xbdc5c03a	-0.09655805
15	0xbe0811fd	-0.13288112
16	0x3d5cd36c	0.053912565
17	0x3c3a6d05	0.011378531
18	0xbe2c82df	-0.16846798
19	0x3e688401	0.22706605
20	0xbe2f5e06	-0.17125711
21	0x3b8b0f7a	0.0042437883
22	0x3da96bc4	0.08272508
23	0xbc923a75	-0.01785014
24	0xbbaae005	-0.0052146935
25	0xbe278da2	-0.16362622
26	0x3e106d31	0.14104153
27	0xbe244595	-0.16042168
28	0xbddd8e74	-0.108181864
29	0x3ee7922a	0.45228702
30	0xbe77c91d	-0.24197812
31	0x3e0175de	0.12642619
32	0xbb28f090	-0.0025778152
33	0xbe31f01c	-0.1737675
34	0x3ddd697d	0.10811136
35	0xbe5d30c8	-0.2160064
36	0x3d190dfa	0.037366845
37	0xbc97b7bd	-0.01852023
38	0xbe11f4fe	-0.14253613
39	0x3b2b3524	0.0026124204
40	0x3d33cd87	0.043897178
41	0x3e01f169	0.12689747
42	0x3d701434	0.058613017
43	0xbe0e0613	-0.13869505
44	0xbe4173c5	-0.18891819
45	0x3e5495c6	0.20760259
46	0xbe375330	-0.17902827
47	0x3d9c6a19	0.07637424
48	0x3e7a9e0e	0.24474356
49	0xbe4afb37	-0.19822393
50	0xbdf8cf93	-0.12148967
51	0x3d57acdf	0.052655097
52	0x3e3d6f30	0.18499446
53	0x3d97da09	0.07414634
54	0xbe6a58e5	-0.22885473
55	0xbe0be1b3	-0.13660316
56	0x3e5bd052	0.21466187
57	0xbd060ec8	-0.03272894
58	0xbd45837e	-0.048221104
59	0xbd0ec083	-0.034851562
60	0x3e665b27	0.2249571
61	0x3cfcad8a	0.030844469
62	0xbe01a106	-0.12659082
63	0x3d0efffa	0.034912087
64	0x3b2c6be6	0.002630943
65	0xbd48df86	-0.049041294
66	0xbe8856f8	-0.26628852
67	0x3d82ee96	0.06393163
68	0x3c757dcb	0.014983605
69	0xbd8ac253	-0.06775346
70	0xbbf566a9	-0.0074890447
71	0xbbc6af34	-0.0060633663
72	0xbe03c4bd	-0.12868018
73	0xbd8ceffd	-0.06881712
74	0x3dce29c0	0.10066557
75	0x3e2f9d3b	0.17149822
76	0x3e257029	0.16156067
77	0x3db30435	0.08741037
78	0x3c4676e5	0.012113308
79	0xbe3cd9c9	-0.18442453
80	0xbdd97cbe	-0.10619496
81	0xbb2db9ec	-0.0026508523
82	0xbe034a36	-0.12821278
83	0x3da4cb80	0.08046627
84	0xbe5e9eb7	-0.21740232
85	0xbd805b71	-0.06267441
86	0xbdd2794c	-0.10277042
87	0xbd637e5e	-0.055540435
88	0x3d923c03	0.071403526
89	0xbe37792e	-0.1791732
90	0xbd198c1b	-0.03748713
91	0xbd001f9e	-0.031280152
92	0xbe35169c	-0.17684406
93	0x3db07d3b	0.08617636
94	0xbcf78807	-0.03021623
95	0xbd335c46	-0.04378917
96	0xbdf26ea2	-0.11837508
97	0xbc80f24d	-0.015740538
98	0x3cd4a55e	0.02595776
99	0x3d966775	0.073439516
100	0x3da87c73	0.08226862
101	0x3e0fcc0c	0.14042681
102	0xbddca0d1	-0.10772861
103	0x3c993704	0.018702991
104	0x3de47853	0.111557625
105	0xbbb780f0	-0.0056000873
106	0x3d2741a7	0.040834095
107	0xbe11c00d	-0.14233418
108	0x3cf7885e	0.030216392
109	0x3daed2a6	0.08536272
110	0xbc89222e	-0.016739931
111	0x3e7c1df5	0.24620803
112	0xbdf98344	-0.1218324
113	0x3dc248cd	0.09486542
114	0xbc4a9a00	-0.012365818
115	0x3d4af361	0.04954851
116	0xbe0c0700	-0.13674545
117	0xbde31c77	-0.110894136
118	0x3e0b001e	0.13574263
119	0xbddecd50	-0.10879004
120	0x3cebd7d5	0.02878944
121	0x3d53c185	0.051698226
122	0xbd3f0721	-0.046637658
123	0x3d3596b7	0.044333186
124	0xbc320f1d	-0.010867861
125	0x3db666d5	0.089063324
126	0xbd3b0cf4	-0.04566665
127	0xbd20c5af	-0.039251026
128	0x3d5b1121	0.053483132
129	0x3d439922	0.04775346
130	0x3de9e07c	0.1141977
131	0x3d1ab4db	0.037770133
132	0x3cf7c8df	0.03024715
133	0x3cf4aeb0	0.029868454
134	0xbe1608f0	-0.14651847
135	0xbd8a82bf	-0.06763219
136	0xb976f2a5	-0.0002355078
137	0x3ba44564	0.005013155
138	0xbd89e0a9	-0.06732304
139	0x3dcfd8ba	0.10148759
140	0xbd67894a	-0.056527413
141	0x3dbbb915	0.09166161
142	0x3d8c2052	0.06842102
143	0x3bdf20c2	0.006809325
144	0x3e6ac0b4	0.22925073
145	0x3ddfb62a	0.10923417
146	0xbe9280eb	-0.28613982
147	0x3def03a6	0.11670618
148	0x3df37bfd	0.11888883
149	0x3e9a4475	0.30130354
150	0xbe05383e	-0.13009736
151	0xbe19aec6	-0.15008077
152	0x3d15118e	0.036393695
153	0xbe0e8215	-0.1391681
154	0xbe7c1a63	-0.2461944
155	0x3d46fe99	0.048582647
156	0xbd89228a	-0.06696041
157	0x3d3d6e18	0.04624757
158	0x3c5be4c0	0.0134212375
159	0xbd8d237b	-0.06891533
160	0x3e2109db	0.15726416
161	0xbc24f1f0	-0.010067448
162	0xbdd1904e	-0.10232602
163	0x3e6cb2c6	0.23115072
164	0xbdf41923	-0.11918857
165	0xbc380ce4	-0.011233542
166	0x3bfb35d9	0.0076663313
167	0xbd4a5d75	-0.049405534
168	0x3c3a0ad9	0.011355125
169	0x3c55f0df	0.013057916
170	0x3e9cbfda	0.3061512
171	0x3e2d9564	0.16951519
172	0xbd4a9761	-0.049460772
173	0x3ecfa6df	0.40557
174	0xbe513c5b	-0.2043318
175	0x3e27bed2	0.16381386
176	0x3d860c83	0.06545355
177	0xbd7c516e	-0.061601095
178	0x3ea42424	0.32058823
179	0xbe0a70a4	-0.13519531
180	0xbe2c7705	-0.16842277
181	0x3e1334ae	0.14375564
182	0x3dc10292	0.094243184
183	0xbccdb4b0	-0.025110573
184	0xbdbc3d02	-0.09191324
185	0xbd2c3b98	-0.04204902
186	0x3e10d3ba	0.14143267
187	0xbe9ede3e	-0.31028932
188	0xbec52c01	-0.38510135
189	0x3e6fc024	0.2341314
190	0xbe150eb3	-0.14556389
191	0xbc345e99	-0.011008882

lstm.weight_ih_l1 f4 [192, 48]
0	0xbd25c7c2	-0.040473707
1	0xbcc69599	-0.024241256
2	0x3c706002	0.014671328
3	0x3e6c027c	0.23047823
4	0xbe393640	-0.18087101
5	0xbddee109	-0.10882766
6	0xbde260a9	-0.11053593
7	0xbd61f6c0	-0.05516696
8	0x3e3d3a5b	0.18479292
9	0x3c08cd46	0.008349722
10	0x3d7379d5	0.05944236
11	0xbe53ca3a	-0.20682612
12	0x3cbdba76	0.0231602
13	0x3dc7f0be	0.09762715
14	0x3dee37d8	0.11631745
15	0x3dae78c4	0.08519128
16	0x3e795e09	0.24352278
17	0x3e62e29f	0.22156762
18	0xbd90a9ca	-0.07063635
19	0xbdded4a0	-0.10880399
20	0xbcf431b9	-0.029808866
21	0xbe660782	-0.22463802
22	0x3dda5698	0.10661048
23	0x3c98ee9b	0.018668463
24	0x3de4b82d	0.11167941
25	0x3c3d2b21	0.011545927
26	0xbe12b5f3	-0.1432722
27	0x3e17fb09	0.14841856
28	0x3e06a379	0.13148297
29	0x3f0a9078	0.5412669
30	0xbe1787bb	-0.14797871
31	0xbe90709a	-0.28210908
32	0x3c6fc04d	0.01463325
33	0x3e52e52b	0.20595233
34	0x3e3fe34d	0.18739052
35	0xbd57cb8c	-0.05268435
36	0xbddba5f1	-0.1072501
37	0xbd9afc80	-0.07567692
38	0xbdeb80df	-0.114991896
39	0xbda50147	-0.08056884
40	0xbd9ae8cc	-0.07563934
41	0xbe26952c	-0.16267842
42	0x3b6d0417	0.0036165768
43	0xbe1f0f2a	-0.15533128
44	0x3dce1bb4	0.10063878
45	0xbdbe7573	-0.092997454
46	0xbe0e5343	-0.1389895
47	0xbd8a2880	-0.06746006
48	0x3e836b80	0.25667953
49	0x3cebf5dc	0.028803758
50	0x3e62125d	0.22077318
51	0xbd478c7b	-0.048717957
52	0xbde61c5a	-0.112358764
53	0xbe073322	-0.132031
54	0x3e658e7e	0.22417638
55	0x3e82f3ff	0.2557678
56	0xbe86212c	-0.26197183
57	0xbdab65d0	-0.083690286
58	0x3d12c6e4	0.035834208
59	0xbd59a238	-0.05313322
60	0xbdc3192a	-0.09526284
61	0x3da87fbb	0.08227488
62	0xbc39e9aa	-0.011347214
63	0xbe8c0c8a	-0.27353317
64	0xbcef6c7b	-0.029226532
65	0x3ca4dd10	0.020124942
66	0xbe50efe5	-0.20404013
67	0xbdf794d2	-0.12088932
68	0x3d75e8e0	0.06003654
69	0xbc956b18	-0.018239543
70	0xbe01156f	-0.12605833
71	0x3e2bdefd	0.16784282
72	0xbe05fcac	-0.13084668
73	0x3d89de79	0.067318864
74	0x3e12892f	0.14310144
75	0xbe156eb7	-0.14593016
76	0xbd9a449f	-0.0753262
77	0x3c25a6da	0.010110581
78	0x3ddd1e94	0.10796848
79	0xbd8c6a48	-0.06856209
80	0xb8043dbb	-3.1528743e-05
81	0xbde31312	-0.11087622
82	0xbea0183b	-0.31268486
83	0x3d963383	0.07334044
84	0xbe292618	-0.16518438
85	0xbd2a7d6e	-0.041623525
86	0x3e987daf	0.2978339
87	0x3df079e4	0.11741999
88	0xbde5ec2b	-0.11226686
89	0x3e43bc82	0.19114879
90	0x3d92f3f3	0.07175436
91	0xbd2220f0	-0.039582193
92	0x3e00e5b8	0.12587631
93	0x3c30d8e8	0.010793902
94	0xbe001734	-0.12508851
95	0xbd0c2fac	-0.03422515
96	0x3d09e864	0.03366889
97	0xbe55951b	-0.2085766
98	0xbe4e34dd	-0.20137353
99	0x3e614be2	0.22001603
100	0xbe1b114f	-0.15143321
101	0xbed56632	-0.4167953
102	0x3d662271	0.05618519
103	0xbe336c2a	-0.1752173
104	0xbd82b3fc	-0.063819855
105	0x3e4c30a5	0.19940431
106	0xbd4da715	-0.05020817
107	0xbe68c293	-0.22730474
108	0x3d94ebbf	0.072715275
109	0x3e4e09eb	0.20120971
110	0x3e07bfa9	0.13256706
111	0x3e9f1f7c	0.31078708
112	0x3e81bd9a	0.25339967
113	0x3e466742	0.19375327
114	0x3d9432a3	0.07236221
115	0x3d4d52b7	0.05012771
116	0xbe2f6d46	-0.17131528
117	0x3c138316	0.009003421
118	0xbded4a47	-0.11586433
119	0x3df899d4	0.121387154
120	0xbb39d5c9	-0.0028356186
121	0xbe9dd1d0	-0.30824137
122	0xbe993bc4	-0.2992841
123	0x3ee44f78	0.4459188
124	0xbcc0e072	-0.023544524
125	0x3ea10097	0.31445763
126	0xbd0d41f4	-0.034486726
127	0xbd961b49	-0.07329423
128	0xbe2978f5	-0.16550048
129	0x3e9bed1e	0.30454344
130	0xbda648d1	-0.081193574
131	0x3d14bb7c	0.03631161
132	0x3da5c921	0.08095003
133	0xbe1bb080	-0.15204048
134	0xbdbbe2fe	-0.09174155
135	0xbd9f7a4e	-0.07787
136	0xbe845b70	-0.2585101
137	0x3cc258dc	0.023724012
138	0x3cfea036	0.031082254
139	0x3d77363e	0.060354464
140	0x3e674207	0.22583781
141	0xbecc08c5	-0.3985044
142	0xbe02e69d	-0.12783284
143	0xbd905151	-0.0704676
144	0xbe4da561	-0.20082618
145	0xbdf5d91a	-0.120042995
146	0xbe3d01af	-0.18457673
147	0x3e07e5dd	0.1327128
148	0xbe0f1227	-0.13971768
149	0xbebbb5ed	-0.36662236
150	0x3d7f56dc	0.062338695
151	0x3d1ac6a0	0.03778708
152	0x3e4df06f	0.2011125
153	0x3cb3d352	0.021951351
154	0xbd680ec1	-0.056654695
155	0xbe3d36c9	-0.1847793
156	0xbdecb66b	-0.11558231
157	0x3e9956fe	0.29949182
158	0x3eadbd30	0.339334
159	0x3a40b29e	0.0007350835
160	0x3e17dcd4	0.14830333
161	0x3e970deb	0.29502806
162	0x3d3aeb43	0.04563452
163	0xbd8f0bcd	-0.06984673
164	0x3d426c93	0.047466826
165	0xbdca88c7	-0.098893695
166	0xbe3b97f0	-0.18319678
167	0xbc1ffc4b	-0.009764741
168	0xbdef7e0a	-0.11693962
169	0xbe6af75a	-0.2294592
170	0xbde734ed	-0.11289392
171	0x3ebe108e	0.37122005
172	0xbd002e35	-0.031294066
173	0x3e740598	0.23830259
174	0xbe4fedcf	-0.2030556
175	0xbe6d4789	-0.2317182
176	0xbda7fc2e	-0.08202396
177	0x3e40c355	0.18824513
178	0x3c926a21	0.017872872
179	0xbdb94975	-0.09047214
180	0xbbe8061e	-0.0070808074
181	0xbe652b33	-0.2237976
182	0xbdee0b6b	-0.116232716
183	0x3c907be8	0.017637208
184	0xbd8ef947	-0.0698114
185	0xbe1f10f1	-0.15533806
186	0x3c71b68e	0.014752997
187	0x3d3644e5	0.044499297
188	0x3e618a88	0.22025502
189	0xbdb9f36d	-0.09079633
190	0xbeabd050	-0.33557367
191	0xbe3c2298	-0.18372571
192	0x3dfbe5de	0.12299703
193	0xbd658a69	-0.0560402
194	0x3e9e7b21	0.30953315
195	0x3e381545	0.17976864
196	0xbe9026a5	-0.28154483
197	0xbec11af2	-0.3771587
198	0x3c89697a	0.016773928
199	0x3e24b8b7	0.16086088
200	0xbea6ca46	-0.32576197
201	0x3d904243	0.070438884
202	0x3e541992	0.2071288
203	0x3da8b3e3	0.08237436
204	0x3d3ab982	0.04558707
205	0x3e0b2a11	0.13590266
206	0xbe5edd6e	-0.21764156
207	0xbe23b8ed	-0.15988512
208	0x3e42bd68	0.19017565
209	0xbe4f7314	-0.20258743
210	0x3da67a77	0.08128827
211	0xbddaa914	-0.1067678
212	0x3e18c198	0.149176
213	0x3e018771	0.12649323
214	0xbeb6b70c	-0.3568653
215	0x3e35059a	0.17677918
216	0xbe15d92e	-0.14633629
217	0xbd9da591	-0.07697595
218	0x3e412436	0.1886147
219	0x3daf371b	0.085554324
220	0x3dceef65	0.10104255
221	0xbe9a2744	-0.30108082
222	0x3e08062f	0.13283609
223	0xbe9542bb	-0.29152474
224	0xbddc80de	-0.10766767
225	0x3c3d4718	0.011552595
226	0xbe9487a6	-0.29009742
227	0xbcf6e170	-0.030136794
228	0xbdb8756f	-0.09006774
229	0xbd0f0a51	-0.034921948
230	0x3e0a4a54	0.13504916
231	0x3e922bd7	0.28549072
232	0xbea79a2a	-0.32734805
233	0x3e212651	0.15737273
234	0x3ee7c738	0.4526918
235	0xbe9612ce	-0.29311222
236	0x3d5eb533	0.054372024
237	0xbe15222a	-0.14563814
238	0x3e39f0cf	0.18158267
239	0xbdd2d51e	-0.10294555
240	0xbcf8324c	-0.03029742
241	0x3e2b9b36	0.16758427
242	0x3e1e2760	0.15444708
243	0x3a581ed6	0.0008244341
244	0xbd478291	-0.048708502
245	0x3d14259e	0.036168687
246	0x3e75ad60	0.23991919
247	0x3e79205c	0.2432875
248	0xbd9bab33	-0.07601013
249	0x3d419680	0.04726267
250	0x3d5db28e	0.05412536
251	0xbeaae565	-0.3337814
252	0x3c1c1ff4	0.009529103
253	0xbce554bb	-0.027994504
254	0x3d167634	0.03673382
255	0x3d54984d	0.051903058

lstm.weight_hh_l1 f4 [192, 48]
0	0x3dab4c62	0.08364178
1	0x3e0152f8	0.12629306
2	0xbd2a20c2	-0.041535147
3	0x3dd11312	0.102087155
4	0x3da50329	0.080572434
5	0x3e0e10f1	0.1387365
6	0xbe7efa44	-0.24900156
7	0xbb2a05bf	-0.0025943366
8	0xbc4f3813	-0.0126476465
9	0xbea0afb9	-0.31384066
10	0xbd85ee13	-0.0653955
11	0x3e4b6065	0.1986099
12	0x3e28c0e9	0.1647984
13	0x3dddf65e	0.108380064
14	0x3e0f9b3c	0.14024061
15	0x3da4637d	0.080267884
16	0xbd753e43	-0.05987383
17	0xbd208d74	-0.0391974
18	0x3e44b4b1	0.19209553
19	0x3e893911	0.2680135
20	0x3daf7e60	0.08569026
21	0x3d25b19c	0.040452585
22	0x3bab50a7	0.0052281204
23	0x3d987bd2	0.07445492
24	0xbd94c74d	-0.07264576
25	0xbcfa21bc	-0.030533664
26	0xbdd1d2a9	-0.10245258
27	0xbe8ca9d2	-0.27473313
28	0x3e841f07	0.25804922
29	0xbe52b8b2	-0.20578268
30	0x3dccda96	0.100026295
31	0xbdc391ca	-0.095492914
32	0xbe684cfd	-0.22685619
33	0xbd8168d1	-0.0631882
34	0x3dc6c0e8	0.09704763
35	0x3e6dbf55	0.23217519
36	0x3d87f9ef	0.06639468
37	0xbe426968	-0.18985522
38	0x3dde41b2	0.10852374
39	0xbe4603e7	-0.19337426
40	0x3dec0f7b	0.1152639
41	0xbd10a282	-0.03531123
42	0x3e49d01d	0.19708295
43	0xbbac9a72	-0.0052674348
44	0xbeb2e75b	-0.34942135
45	0x3d90bf9b	0.07067796
46	0xbe712b5e	-0.235517
47	0xbd0b04c2	-0.033940084
48	0x3e250fcd	0.16119309
49	0x3e31c4c2	0.17360213
50	0x3d895910	0.067064404
51	0x3e1a011e	0.15039489
52	0x3a04aeb5	0.0005061434
53	0x3e2596d5	0.16170819
54	0xbd0f7aa3	-0.035029065
55	0xbd92fb5f	-0.071768515
56	0x3d6adfaa	0.05734221
57	0xbe47a02c	-0.19494694
58	0x3d5463c4	0.051852956
59	0x3e1f53ea	0.15559354
60	0x3e5343d8	0.20631349
61	0xbd431ecd	-0.047636796
62	0x3b607003	0.0034246452
63	0xbd8186ea	-0.06324561
64	0xbd09a17c	-0.03360127
65	0xbc3963fe	-0.011315344
66	0x3db6293e	0.08894585
67	0x3de5d7b4	0.11222783
68	0x3e6116a1	0.21981288
69	0x3e707887	0.23483478
70	0x3dcce039	0.100037046
71	0xbc3aed7e	-0.011409162
72	0xbe06f90b	-0.1318094
73	0xbd43ec30	-0.047832668
74	0xbd95b56c	-0.07309994
75	0xbd110c21	-0.035411958
76	0x3cb1ea93	0.021718299
77	0x3b57bb9c	0.003291822
78	0x3df1a824	0.117996484
79	0x3df540fe	0.11975287
80	0xbc4d2a0b	-0.012522231
81	0x3e161b96	0.1465896
82	0xbcce196c	-0.025158606
83	0x3db0115e	0.085970625
84	0xbd2f50d0	-0.04280168
85	0xbd825f9d	-0.06365893
86	0x3e5e38c0	0.21701336
87	0xbe5351c5	-0.20636661
88	0x3e5156b9	0.20443238
89	0xbdd1308b	-0.10214337
90	0x3e8b1cfc	0.2717055
91	0xbd6f7f75	-0.058471162
92	0xbe6814f5	-0.22664244
93	0x3e66c7fc	0.22537225
94	0xbb8135f2	-0.0039431984
95	0xbe632189	-0.22180761
96	0x3e276057	0.16345344
97	0xbd609074	-0.05482526
98	0xbe2ec494	-0.17067176
99	0x3dac3522	0.08408572
100	0x3de4ca78	0.1117143
101	0x3dd537fd	0.104110695
102	0x3bfe8244	0.0077669937
103	0xbd053eeb	-0.032530706
104	0xbe0a9e19	-0.13536872
105	0x3d9cab48	0.07649857
106	0xbe6e2a3e	-0.23258302
107	0xbbe92fa7	-0.0071162763
108	0x3d9d8b14	0.07692543
109	0xbd9a3f38	-0.07531589
110	0xbd214ab1	-0.039377872
111	0x3bef13ce	0.007296062
112	0x3e171fe3	0.14758258
113	0xbd88ab44	-0.06673291
114	0x3e16df49	0.14733614
115	0x3e841930	0.25800467
116	0x3e2f5b98	0.17124784
117	0x3e0acf2d	0.13555594
118	0x3d6058e2	0.054772265
119	0x3e089edf	0.13341855
120	0xbd4b9a91	-0.049707953
121	0x3df69f8f	0.12042152
122	0xbde84ddf	-0.11342978
123	0xbe2c3628	-0.16817534
124	0x3ea3e208	0.32008386
125	0xbec412f1	-0.382957
126	0xbe9119f5	-0.28340116
127	0xbc835eab	-0.016036352
128	0xbe8251d2	-0.2545305
129	0x3dc3605c	0.095398635
130	0xbcf23eba	-0.029570926
131	0x3ec21258	0.3790462
132	0xbd73c3e3	-0.059512984
133	0xbd55956b	-0.05214445
134	0xbd071e41	-0.032987837
135	0x3c9e686f	0.019336907
136	0x3e6aca7f	0.22928809
137	0xbd113078	-0.035446614
138	0x3e76c7d1	0.24099661
139	0x3df48997	0.11940306
140	0xbdf9a925	-0.12190465
141	0x3c85afb1	0.016319128
142	0x3c504452	0.012711601
143	0x3d0111da	0.031511165
144	0x3dbd558d	0.09244833
145	0x3e698107	0.22803126
146	0xbe4625eb	-0.19350402
147	0xbd8d6b11	-0.06905187
148	0x3dcdcaee	0.100484714
149	0x3d07a7db	0.033119064
150	0xbdec5af6	-0.11540787
151	0xbe02c3cf	-0.12770008
152	0xbe145487	-0.1448537
153	0xbe42b1ff	-0.19013213
154	0xbe4507ea	-0.192413
155	0x3d956c85	0.07296089
156	0x3d9834ea	0.074319676
157	0x3e019fe0	0.12658644
158	0x3dca7926	0.098863885
159	0x3d88ef0d	0.0668622
160	0xbd37fa78	-0.0449166
161	0xbd4201a7	-0.047364857
162	0x3e179e44	0.14806467
163	0x3ea2e9e7	0.31819078
164	0x3e19556d	0.14973994
165	0x3e7284fe	0.23683545
166	0xbe0211d4	-0.12702113
167	0x3ceebd07	0.02914287
168	0x3e0bbbc0	0.1364584
169	0xbdb4036c	-0.08789715
170	0xbc19b4f8	-0.009381525
171	0xbe800250	-0.25001764
172	0x3e51298e	0.20426008
173	0xbde537cd	-0.11192284
174	0xbbb7a16a	-0.005603959
175	0xbdf9c214	-0.121952206
176	0xbe22e993	-0.15909414
177	0x3e51eab5	0.2049969
178	0x3d157940	0.036492586
179	0x3dfa8563	0.12232473
180	0xbe1f18d7	-0.1553682
181	0xbe8ebe86	-0.27879733
182	0x3e07292d	0.13199301
183	0xbdc480b0	-0.09594858
184	0x3e85e7f6	0.26153535
185	0xbc8db5b7	-0.017298562
186	0x3e1ba7ef	0.1520078
187	0x394f469a	0.0001976736
188	0xbe00da25	-0.12583216
189	0x3c874946	0.016514432
190	0xbe91749e	-0.28409284
191	0xbdb8ccf0	-0.09023464
192	0xbda4e04e	-0.08050595
193	0x3d14cbbe	0.036327116
194	0x3d7ea87b	0.062172394
195	0x3bc8be3a	0.0061261924
196	0x3d819aaa	0.06328328
197	0xbd507984	-0.050897136
198	0xbc6d4158	-0.014480911
199	0x3ddb9f00	0.10723686
200	0x3d778381	0.060428146
201	0xbe52b3c5	-0.20576389
202	0x3cd41eb1	0.025893541
203	0x3d811045	0.06301931
204	0xbda02022	-0.07818629
205	0x3cc43c96	0.02395467
206	0x3e00336e	0.12519619
207	0xbdd2cf76	-0.10293476
208	0x3d333537	0.04375192
209	0xbe3cbf2b	-0.184323
210	0x3d13b87d	0.036064614
211	0xbdd99d1f	-0.106256716
212	0x3e707bf1	0.2348478
213	0x3e30b6e6	0.1725727
214	0xbe04cb4f	-0.12968181
215	0xbd905f53	-0.07049432
216	0x3e00d645	0.12581737
217	0xbcfcfefc	-0.030883305
218	0xbe1bc5ea	-0.15212217
219	0x3da046ac	0.078259796
220	0xbdcb8bf3	-0.099388026
221	0xbdee752b	-0.11643442
222	0xbde787b2	-0.11305179
223	0xbdcaca23	-0.09901836
224	0xbe52e59e	-0.20595405
225	0xbe1e6bbe	-0.15470788
226	0x3c3cc90a	0.011522541
227	0xbdd93dbb	-0.10607477
228	0xbd0a539a	-0.033771135
229	0x3df282b1	0.11841334
230	0x3de24d1f	0.11049866
231	0xbab84c51	-0.001406083
232	0x3deda9ae	0.116046295
233	0xbd2bc1b6	-0.041932784
234	0x3e6f86f3	0.23391323
235	0xbe620210	-0.220711
236	0xbe2bd4f2	-0.16780451
237	0xbd5cc97b	-0.053903084
238	0x3da45e5c	0.0802581
239	0xbe68dbac	-0.22740048
240	0x3e9725a7	0.29520914
241	0x3dd421e8	0.103580296
242	0x3e4c73ab	0.19965999
243	0xbe0e0948	-0.13870728
244	0xbd7e7467	-0.06212273
245	0x3d8feb65	0.0702732
246	0x3ddf2535	0.108957686
247	0x3d954ebc	0.07290408
248	0x3e6a3815	0.22872956
249	0x3dc8f1fe	0.09811781
250	0x3c2d285e	0.010568706
251	0xbd2c8391	-0.04211766
252	0xbe5ca80b	-0.21548478
253	0x3da3c99c	0.07997438
254	0x3dbb8b71	0.09157456
255	0xbe29890b	-0.16556184

lstm.bias_ih_l1 f4 [192]
0	0xbced8e13	-0.02899841
1	0xbdf95fe9	-0.121764965
2	0xbc01a9bc	-0.007914003
3	0x3d138c5b	0.036022525
4	0x3d8db1e9	0.06918699
5	0xbd180754	-0.037116364
6	0x3e1ab272	0.15107134
7	0x3d618492	0.05505807
8	0xbe0d015e	-0.13770053
9	0xbd21e69b	-0.039526563
10	0xbd6852b3	-0.056719493
11	0x3ca85aa6	0.020551037
12	0xbc33f8ca	-0.010984609
13	0xbe50f83c	-0.20407194
14	0x3df5f474	0.12009516
15	0x3d2f6966	0.042825125
16	0xbde3f926	-0.11131506
17	0x3cfda044	0.03096021
18	0x3e5e01e9	0.21680416
19	0x3c7b1c6c	0.0153266005
20	0x3e64b98a	0.22336403
21	0x3e1fd2aa	0.15607706
22	0x3d761f45	0.060088415
23	0x3cd86599	0.026415633
24	0x3db63133	0.08896103
25	0xbd7a6e25	-0.0611402
26	0xbc9285d0	-0.017886072
27	0xbceb3f78	-0.028716788
28	0xbe0fc3e4	-0.1403957
29	0x3e8a7d0b	0.27048525
30	0xbccc2706	-0.024920952
31	0xbd9e28e7	-0.07722645
32	0x3e87bc2c	0.2651075
33	0x3c54a0a1	0.01297775
34	0xbd24b544	-0.04021193
35	0x3d79b1c3	0.060960542
36	0x3d46e06e	0.048553877
37	0xbdfbafd3	-0.12289395
38	0x3e22b928	0.15890944
39	0x3e22faa6	0.15915927
40	0x3d0308fd	0.031990994
41	0x3e0c6618	0.1371082
42	0x3e31b217	0.17353092
43	0xbd4a685b	-0.049415927
44	0x3e713350	0.2355473
45	0xbd653888	-0.055962116
46	0xbdb19466	-0.08670883
47	0x3e434f88	0.19073308
48	0xbd5e7449	-0.054310117
49	0xbd88b9aa	-0.066760376
50	0xbe0fb00a	-0.14031997
51	0xbe1f24fb	-0.1554145
52	0x3d3525d8	0.044225544
53	0xbd8a99b8	-0.06767601
54	0xbe2d2621	-0.16909076
55	0xbdd39fb8	-0.10333198
56	0x3be27729	0.0069111777
57	0xbd323f88	-0.04351762
58	0xbd8075e7	-0.06272488
59	0xbe0d6701	-0.13808824
60	0xbd225fb6	-0.03964206
61	0xbdf19ff6	-0.11798088
62	0xbe57bf88	-0.21069157
63	0xbdd9e556	-0.106394455
64	0xbe3f0d8c	-0.18657511
65	0x3cd96ca6	0.026541065
66	0x3c8cd6a8	0.0171922
67	0x3cc9a6c6	0.024615657
68	0xbd609452	-0.05482895
69	0x3af80e2a	0.001892512
70	0xbdb9bc68	-0.09069139
71	0xbe7db4f4	-0.2477606
72	0x3d331539	0.04372141
73	0xbe0dc1b5	-0.13843425
74	0x3da3ae83	0.0799227
75	0xbe3e9067	-0.18609773
76	0xbe5a27d1	-0.21304251
77	0xbe26db07	-0.1629449
78	0xbe385798	-0.18002164
79	0x3c0e5827	0.008688009
80	0x3d4e2ae1	0.05033386
81	0xbe11a70d	-0.14223881
82	0xbe026142	-0.12732413
83	0xbe71be47	-0.23607741
84	0xbca337d8	-0.01992409
85	0x3beea005	0.0072822594
86	0xbe12684c	-0.14297599
87	0xbe241078	-0.16021907
88	0xbba07f5e	-0.004897996
89	0xbe18f9dd	-0.14939065
90	0xbe1a8005	-0.15087898
91	0x3c0e0aa7	0.008669532
92	0xbe349c44	-0.17637736
93	0xbe3ab33e	-0.18232438
94	0xbc813f29	-0.015777187
95	0xbe4348bf	-0.19070719
96	0xbd5781ee	-0.052614145
97	0xbd2d3dac	-0.042295143
98	0xbcf9cc84	-0.030493028
99	0xbcc1f454	-0.023676075
100	0xbd3134eb	-0.043263357
101	0xbd71abc4	-0.0590017
102	0xbbf267c3	-0.0073976233
103	0x3d676a70	0.05649799
104	0x3be5e970	0.0070163533
105	0xbd931d7b	-0.07183357
106	0x3d8074c5	0.06272272
107	0xbe2c8302	-0.1684685
108	0x3df5e8c5	0.12007288
109	0xbd87ab0c	-0.066244215
110	0x3e078383	0.13233761
111	0xbc23e662	-0.010003658
112	0x3e187901	0.1488991
113	0x3d1a178d	0.037620116
114	0x3e06d8c7	0.13168631
115	0x3dd502cd	0.10400925
116	0xbd64b83b	-0.05583976
117	0xbe31e8f7	-0.17374025
118	0x3e250aa6	0.16117343
119	0x3d367133	0.04454155
120	0x3e6f1bff	0.23350523
121	0x3e04962b	0.1294791
122	0x3e2ba8d5	0.16763623
123	0x3d22d2fe	0.039752
124	0xbd0bae4e	-0.034101777
125	0x3cc7a3ae	0.02437004
126	0x3cef1972	0.029186938
127	0xbdb31771	-0.087447055
128	0xbdd08829	-0.101822205
129	0xbdb33704	-0.08750728
130	0xbd0539df	-0.032525893
131	0xbdceafa0	-0.100920916
132	0x3e1e8a6a	0.15482488
133	0x3d6606e5	0.05615892
134	0xbd875bac	-0.06609282
135	0x3d1055fb	0.035238247
136	0x3d6eba84	0.058283344
137	0xbe179b28	-0.14805281
138	0x3c82bdf9	0.015959727
139	0xbdd7a2d7	-0.10529106
140	0x3df93ef0	0.121702075
141	0xbd1f42f9	-0.03888223
142	0x3d74fffd	0.059814442
143	0x3c908a6d	0.017644132
144	0x3d3f2f64	0.046676055
145	0x3de01081	0.10940648
146	0x3d252064	0.040314093
147	0x3e1c77dc	0.15280098
148	0x3db9a88a	0.090653494
149	0x3c8cea37	0.017201526
150	0x3d6fb9a8	0.058526665
151	0x3e690721	0.22756626
152	0xbe0aa6d6	-0.13540205
153	0xbde95579	-0.11393256
154	0x3dbbeb05	0.09175686
155	0xbcc6802a	-0.024231035
156	0x3df688c5	0.120378055
157	0xbe65d425	-0.22444208
158	0x3d1ca26f	0.038240846
159	0x3de5cd53	0.11220803
160	0x3e0281c4	0.12744814
161	0x3e33e301	0.17567064
162	0x3e2c773c	0.1684236
163	0x3db3a9d8	0.087726295
164	0x3d49282d	0.04911058
165	0x3de998d1	0.114061005
166	0x3d1811a6	0.037126206
167	0xbe1be3f5	-0.15223677
168	0xbc0d0bd6	-0.008608779
169	0x3dd92de4	0.10604456
170	0x3da1351b	0.07871457
171	0x3c385205	0.011250024
172	0x3da1f772	0.079085246
173	0x3dd7c3a4	0.10535362
174	0xbbe7aae1	-0.007069931
175	0xbe030341	-0.1279421
176	0x3dac9505	0.08426861
177	0x3d1a42eb	0.037661474
178	0xbcbf96c0	-0.023387313
179	0x3dc0b6fb	0.09409901
180	0x3defeb24	0.117147714
181	0xbe857df3	-0.26072654
182	0x3e24695d	0.16055818
183	0x3b881afc	0.0041536074
184	0x3e02e5b3	0.12782936
185	0x3d7a340b	0.06108479
186	0x3d5fd3b5	0.05464526
187	0xbd55559b	-0.052083593
188	0x3e537645	0.20650585
189	0x3d8e1abf	0.06938695
190	0xbd38bcfa	-0.045102097
191	0x3e07cf7c	0.13262743

lstm.bias_hh_l1 f4 [192]
0	0xbd3bef86	-0.045882724
1	0xbde687b1	-0.1125635
2	0x3bfe37df	0.007758125
3	0x3dc7218f	0.09723198
4	0xbd29843e	-0.04138588
5	0x3c88c4fe	0.016695496
6	0x3e356758	0.17715204
7	0x3e3c8d8c	0.18413371
8	0x3d90ab57	0.070639305
9	0xbe44f3c1	-0.1923361
10	0x3e0f1f9c	0.13976902
11	0xbd6de8ed	-0.058083463
12	0xb6d39675	-6.3058055e-06
13	0xbe33518d	-0.17511578
14	0xbb822eb8	-0.0039728545
15	0xbbf34d76	-0.0074250055
16	0xbcca2c7d	-0.024679417
17	0x3e5ef3f0	0.21772742
18	0x3e95e4f4	0.2927624
19	0x3e32552d	0.17415304
20	0x3e4317e3	0.19052081
21	0x3e300003	0.17187504
22	0x3d84d790	0.06486428
23	0xbcef7a10	-0.029233009
24	0x3e0009fc	0.12503809
25	0x3de02256	0.10944049
26	0x3ce7263b	0.028216472
27	0x3debae32	0.115078345
28	0xbc5938f3	-0.013258207
29	0x3d9114d6	0.07084052
30	0x3c785d68	0.015158989
31	0x3ce4ea3a	0.02794372
32	0x3e776771	0.24160554
33	0xbe109b0f	-0.1412165
34	0xbda6919f	-0.08133244
35	0x3e0c83d2	0.1372216
36	0xbc62abcd	-0.013834906
37	0xbe73b2a1	-0.2379861
38	0x3e1955df	0.14974163
39	0xbda43061	-0.0801704
40	0x3cc13a09	0.023587244
41	0x3d3964e1	0.04526222
42	0x3db7e427	0.089790635
43	0xbda1718b	-0.07882985
44	0x3c3451b6	0.0110058095
45	0x3ada5086	0.0016656078
46	0xbdab3ce2	-0.08361222
47	0x3e067cad	0.13133498
48	0xbe3127f2	-0.17300394
49	0x3c93d192	0.018044267
50	0xbdcb5d7b	-0.09929939
51	0x3d2145c2	0.039373167
52	0x3d7eedf7	0.06223866
53	0xbe8b98e2	-0.27265078
54	0xbd948893	-0.07252612
55	0x3dab06e7	0.08350926
56	0xbdf8a206	-0.121402785
57	0xbcae5e77	-0.021285279
58	0xbd9b8b65	-0.07594947
59	0xbdeeda7f	-0.116627686
60	0xbdbdd0ed	-0.09268365
61	0xbe73f549	-0.23824038
62	0x3d287294	0.041124895
63	0xbe4eb21a	-0.20185128
64	0xbe1c0ebf	-0.1524
65	0xbdc171c4	-0.09445527
66	0xbdc374e7	-0.09543782
67	0xbdbb65af	-0.09150254
68	0xbc270f0b	-0.010196458
69	0xbdf1dd47	-0.118097834
70	0x3d922440	0.071358204
71	0xbe22790e	-0.15866491
72	0xbd3a8036	-0.045532428
73	0xbd251e3e	-0.040312044
74	0xbd48685b	-0.048927646
75	0xbe21c131	-0.15796353
76	0xbcbb7c15	-0.022886315
77	0xbe58599d	-0.21127935
78	0xbd0fd56a	-0.035115637
79	0xbe6d35f4	-0.23165113
80	0xbd8454e2	-0.064615026
81	0xbe28b2de	-0.16474482
82	0xbe2c9a4f	-0.16855739
83	0xbdcfcb98	-0.10146254
84	0xbd8d4fbd	-0.068999745
85	0xbdedc4bd	-0.116097905
86	0xbe8b2b78	-0.27181602
87	0x3ca74228	0.020417288
88	0xbe36ec40	-0.1786356
89	0x3dbbebe8	0.09175855
90	0xbd21faed	-0.039545942
91	0xbe51b013	-0.20477323
92	0x3cd59fce	0.026077177
93	0xbe51bdad	-0.20482512
94	0x3d68a232	0.056795307
95	0xbdcb0800	-0.09913635
96	0x3ca8d694	0.020610131
97	0xbdf299d9	-0.1184575
98	0xbceb1b47	-0.02869953
99	0x3c1f4ece	0.009723378
100	0xbe651893	-0.22372656
101	0xbb8d2839	-0.0043077734
102	0xbd78a6bd	-0.06070589
103	0xbd1ce41d	-0.038303483
104	0x3dc84fb7	0.097808294
105	0xbde94199	-0.11389465
106	0x3d2556f2	0.04036612
107	0x3d3a7234	0.04551907
108	0xbdca6079	-0.09881682
109	0xbde3913a	-0.11111684
110	0x3e19cf83	0.15020566
111	0x3da29c13	0.07939925
112	0xbd3b22ec	-0.0456876
113	0x3cb6f4c3	0.022333508
114	0x3c91c420	0.017793715
115	0xbe27b927	-0.16379224
116	0x3b0119c5	0.0019699198
117	0x3dc091c7	0.09402805
118	0x3e3598bc	0.17734045
119	0x3c7c9ab7	0.015417746
120	0x3e897fca	0.26855308
121	0x3e265f8f	0.1624739
122	0x3dbcabef	0.09212481
123	0xbd98de8e	-0.07464324
124	0xbd04cc49	-0.032421384
125	0x3a92ca40	0.0011199191
126	0x3ccc83d5	0.024965206
127	0xbdd0d937	-0.101976804
128	0xbdfe7568	-0.12424737
129	0xbdce730c	-0.10080537
130	0x3d952bde	0.072837576
131	0xbc77f976	-0.01513516
132	0x3e36acdd	0.1783938
133	0xbd124394	-0.03570898
134	0x3d39f1f7	0.04539677
135	0x3e00219f	0.12512825
136	0xbe06bf99	-0.13159026
137	0x3dca6f6e	0.09884535
138	0x3d15649c	0.0364729
139	0x3ca7d5aa	0.020487625
140	0x3c6658d9	0.014059269
141	0xbd868206	-0.06567769
142	0xbd60659f	-0.054784413
143	0x3dcf1e78	0.10113233
144	0x3c5c97b5	0.013463904
145	0xbd2d20cb	-0.042267602
146	0x3d53bca2	0.051693566
147	0xbdd803c9	-0.10547597
148	0x3df9d622	0.12199046
149	0xbde59e11	-0.112117894
150	0x3bbb8265	0.0057223313
151	0x3d8749d2	0.06605877
152	0x3d489be2	0.048976786
153	0xbe460fc7	-0.19341956
154	0x3d80e846	0.06294303
155	0x3e4afc36	0.19822773
156	0x3dae65e2	0.08515526
157	0xbe21aa3f	-0.157876
158	0xbc131163	-0.008976313
159	0xbd9c3cee	-0.07628809
160	0x3dadb5b3	0.08481922
161	0x3e2f73a6	0.1713396
162	0x3e742be9	0.23844875
163	0xba8e6102	-0.0010862651
164	0x3d4608ec	0.048348352
165	0xbda386c6	-0.0798469
166	0x3cd1c104	0.025604732
167	0xbba33f0a	-0.00498188
168	0x3de34d9a	0.11098786
169	0x3e238410	0.15968347
170	0xbe163aa5	-0.14670809
171	0xbdcd8cc3	-0.10036614
172	0x3d638db9	0.05555508
173	0x3e5bc1ce	0.2146065
174	0xbd729c50	-0.059231102
175	0xbdd1e855	-0.10249392
176	0x3e44fa84	0.19236189
177	0x3cf1c6d6	0.029513758
178	0x3e05497a	0.1301631
179	0x3e3250d5	0.17413647
180	0x3d4a4fcc	0.049392506
181	0xbdb64525	-0.08899907
182	0x3e1d01d0	0.15332723
183	0x3d8d7745	0.069075145
184	0x3e3c0e5c	0.18364853
185	0x3ad84650	0.0016500447
186	0x3cac6411	0.02104381
187	0x3d92ee83	0.07174399
188	0x3e1067a8	0.14102042
189	0x3c466fac	0.012111586
190	0x3d93db77	0.07219594
191	0x3c812773	0.015765881

linear.weight f4 [2, 48]
0	0xbd9e85b0	-0.077403426
1	0xbe4bf20f	-0.19916557
2	0xbd2a1f90	-0.041534007
3	0x3db0081b	0.08595296
4	0xbe326acd	-0.17423554
5	0xbe6773ec	-0.22602814
6	0x3e9b876f	0.30376765
7	0xbdc9232e	-0.09821163
8	0x3e96eeb7	0.29479
9	0x3e607d66	0.21922836
10	0x3e4bd7d2	0.19906548
11	0xbd435d6a	-0.04769651
12	0xbe91d74b	-0.28484568
13	0x3d4d7947	0.050164487
14	0x3d80da10	0.06291592
15	0xbe265faa	-0.1624743
16	0xbbd122d8	-0.0063823275
17	0x3d64cd08	0.055859596
18	0xbe616eaf	-0.22014879
19	0xbe9d7e24	-0.307603
20	0xbd93c98d	-0.07216177
21	0xbdf374f9	-0.11887545
22	0x3d4d00e0	0.050049663
23	0xbd31f311	-0.043444697
24	0x3de2efbf	0.11080884
25	0x3d0dfb96	0.03466376
26	0x3e7fcaa3	0.24979644
27	0x3e5ddd70	0.21666503
28	0xbe397541	-0.18111135
29	0x3ea3d064	0.31994927
30	0x3e54059a	0.20705262
31	0x3dcdaa7c	0.10042283
32	0x3e5d3dfe	0.2160568
33	0xbe6b794a	-0.22995487
34	0xbe3a2949	-0.18179812
35	0xbe7819fc	-0.24228662
36	0x3e5e4e99	0.2170967
37	0xbd350950	-0.044198334
38	0xbe7f3514	-0.24922591
39	0x3e3abbb6	0.18235669
40	0xbe79aa2f	-0.24381326
41	0xbc9dcb67	-0.019262029
42	0xbe3d72e1	-0.18500854
43	0x3e59858d	0.21242352
44	0x3e6218e7	0.22079812
45	0xbe5fc8f4	-0.21854001
46	0x3e2723b4	0.16322213
47	0x3e3bf2c6	0.1835433
48	0xbe233774	-0.15939122
49	0xbde86dfb	-0.11349102
50	0xbe5dd32b	-0.21662585
51	0x3e48a62f	0.19594644
52	0xbe5a0867	-0.21292268
53	0xbcc1e08d	-0.023666644
54	0xbe061e39	-0.13097467
55	0xbe40c40a	-0.18824783
56	0xbd0783bc	-0.033084616
57	0xbd219b41	-0.039454702
58	0x3e2d415e	0.16919467
59	0xbe7b6a05	-0.24552162
60	0x3d8b94b7	0.068154745
61	0xbe34d946	-0.17661008
62	0x3e484940	0.19559193
63	0x3e61e1aa	0.2205874
64	0x3e6e6da5	0.23284014
65	0x3e389ce7	0.18028603
66	0xbd8e58fd	-0.06950567
67	0x3c1ace5f	0.009448617
68	0xbe395be7	-0.18101464
69	0xbe30a053	-0.17248659
70	0x3e73cecb	0.23809354
71	0x3e6551bc	0.2239446
72	0x3e8e742f	0.27823016
73	0x3e739e7e	0.23790929
74	0xbd0ac5a4	-0.03387989
75	0xbd9bf37b	-0.076147996
76	0x3c94c849	0.01816191
77	0xbe2e92e8	-0.17048228
78	0xbe49a5b0	-0.19692111
79	0xbe3ba3a7	-0.18324147
80	0xbea0fe2b	-0.31443915
81	0xbd1b13a5	-0.03786053
82	0x3dac82f7	0.08423417
83	0x3ce366ed	0.02775904
84	0x3d7f6960	0.062356353
85	0x3d9b3b82	0.075797096
86	0x3daeb4db	0.08530589
87	0x3d8047c9	0.06263692
88	0xbce9f62d	-0.028559769
89	0xbe57f9a2	-0.21091321
90	0xbdc70ed0	-0.09719622
91	0x3bb0ef68	0.005399633
92	0x3e0240bc	0.12720007
93	0xbdd38a7d	-0.10329149
94	0x3dc1ace4	0.094568044
95	0x3e2f0959	0.1709341

linear.bias f4 [2]
0	0x3e512ff7	0.20428453
1	0x3e3ff46b	0.18745582
