cheakpoint/training_epochs_100_stepsize_7_gamma_0.75/model_epoch90.pth (torch, 117569 bytes, 10 tensors)

lstm.weight_ih_l0 f4 [192, 2]
0	0x3d87d2b1	0.06631983
1	0xbdc1f77c	-0.09471032
2	0x3e2c6eb1	0.168391
3	0xbd314028	-0.043274075
4	0xbed3f718	-0.41399455
5	0xbc9e2af4	-0.019307591
6	0x3c1ab1ad	0.009441775
7	0x3d0ca8bb	0.0343406
8	0x3e0f722d	0.14008398
9	0x3dcadead	0.09905753
10	0xbe0cabc3	-0.13737397
11	0x3d83ebff	0.06441497
12	0x3d201010	0.03907782
13	0x3e2beab2	0.16788748
14	0xbe0cbc86	-0.13743791
15	0xbe3055ae	-0.17220184
16	0x3c6ba7a7	0.014383233
17	0x3da1ba08	0.07896811
18	0x3d0358d3	0.03206713
19	0xbc650fa6	-0.013980782
20	0xbeba1895	-0.3634688
21	0xbe144566	-0.14479598
22	0x3e446901	0.19180681
23	0x3e3157ac	0.173186
24	0xbd899e12	-0.06719603
25	0xbcd74d85	-0.026282081
26	0xbd884c23	-0.06655147
27	0xbd483717	-0.048880663
28	0x3e943f6a	0.2895463
29	0xbcf92691	-0.030413898
30	0xbe7e86e8	-0.2485615
31	0x3e1361a0	0.1439271
32	0x3e8c57c4	0.2741071
33	0x3d49b1b6	0.049241744
34	0x3c13c468	0.009018995
35	0xbe6d86a9	-0.231959
36	0xbe003807	-0.12521373
37	0xbd95fdae	-0.07323776
38	0x3e6b2b05	0.2296563
39	0x3ed467b7	0.41485378
40	0xbe1b903e	-0.15191743
41	0xbcf1bd17	-0.02950911
42	0x3e946bb1	0.28988412
43	0x3e677dd1	0.22606589
44	0x3e776c64	0.24162441
45	0x3ec26c9e	0.37973493
46	0xbcd3adcc	-0.025839709
47	0x3cbd4fdb	0.023109367
48	0xbde5ab2f	-0.11214291
49	0xbe39fb2c	-0.1816222
50	0xbddcb112	-0.10775961
51	0xbe1f4905	-0.15555198
52	0x3d966315	0.07343117
53	0xbd113458	-0.03545031
54	0xbd8241e0	-0.06360221
55	0xbdb60c7a	-0.088890985
56	0xbd915154	-0.0709559
57	0x3e0622b8	0.13099182
58	0x3ec6dc2f	0.38839862
59	0x3e877f41	0.26464275
60	0xbd32477a	-0.043525197
61	0xbe4d512a	-0.20050493
62	0x3ea93ebe	0.3305568
63	0x3e23f061	0.16009666
64	0x3ddea343	0.108709835
65	0xbd87a035	-0.06622354
66	0xbcffb8d6	-0.031216066
67	0xbc84b04f	-0.016197352
68	0x3edf5ac3	0.43623933
69	0x3ee9a770	0.45635557
70	0xbe23b033	-0.15985183
71	0xbe43c0e2	-0.19116548
72	0x3d0c53fa	0.034259774
73	0xbde4e136	-0.11175768
74	0x3eb35654	0.350268
75	0xbdddab79	-0.108237214
76	0xbeaf2a02	-0.34211737
77	0x3e0e672f	0.13906549
78	0x3da5e8dc	0.08101055
79	0x3e778b78	0.24174297
80	0x3e1046d1	0.14089514
81	0xbdaa91bc	-0.08328578
82	0x3e10ecab	0.14152782
83	0x3d249ba5	0.040187497
84	0x3d5ed429	0.05440155
85	0x3e518416	0.20460543
86	0xbe3f6ae5	-0.18693121
87	0xbbc5e532	-0.006039285
88	0xbe7067e2	-0.23477128
89	0xbe7e0692	-0.24807194
90	0x3ed3c28f	0.41359374
91	0xbcbd702e	-0.02312478
92	0xbe6c6902	-0.23086932
93	0xbea2b76c	-0.31780565
94	0x3dc9957a	0.098429635
95	0x3e64033f	0.22266863
96	0x3e36118e	0.17780134
97	0x3e5b6445	0.21424969
98	0x3ccbec8b	0.024893066
99	0xbd8a2129	-0.06744606
100	0xbedf32d2	-0.4359346
101	0x3da5efa9	0.08102352
102	0xbe102350	-0.1407597
103	0x3d8ebbb1	0.06969393
104	0x3e19a0b5	0.15002711
105	0x3ea6c31a	0.32570726
106	0xbe75e0e9	-0.24011578
107	0xbdc0a26b	-0.09405979
108	0xbb7ebc31	-0.0038869495
109	0xbd0c9330	-0.034320056
110	0xbe4c6ac4	-0.19962603
111	0xbe33a52c	-0.17543477
112	0x3e81cdaa	0.25352222
113	0x3e83b786	0.25725955
114	0xbe614880	-0.22000313
115	0xbdea080a	-0.114273146
116	0xbe3c9d30	-0.18419337
117	0x3daed5d5	0.08536879
118	0x3e1574a0	0.1459527
119	0x3e08e2c4	0.13367754
120	0x3ca40cf9	0.020025717
121	0x3e17d4b7	0.14827238
122	0xbe2be653	-0.1678708
123	0xbdb3d29c	-0.08780405
124	0x3e8288b9	0.25494936
125	0xbe1fccc3	-0.15605454
126	0xbd884a78	-0.06654829
127	0x3d47ffe9	0.04882804
128	0x3d9fdb64	0.07805517
129	0xbd91edb0	-0.071254134
130	0xbcddfa6f	-0.027096955
131	0xbcf6c9f9	-0.030125605
132	0x3dc77852	0.09739746
133	0xbe05297d	-0.13004108
134	0x3d9c242a	0.07624085
135	0x3e4caafe	0.19987103
136	0xbe4599ae	-0.19296905
137	0x3db6fd65	0.0893505
138	0x3e929617	0.28630134
139	0x3e8a3757	0.26995346
140	0x3d844904	0.06459239
141	0xbd29addb	-0.041425567
142	0xbdfbf59a	-0.12302704
143	0x3d064dff	0.032789227
144	0xbc65dfc5	-0.014030402
145	0xbbea0bba	-0.007142511
146	0xbdbcb94f	-0.09215032
147	0xbd700447	-0.05859783
148	0x3db69da8	0.08916789
149	0x3d4d5740	0.050132036
150	0xbd180bf7	-0.037120786
151	0xbdae4281	-0.08508778
152	0xbd82ee93	-0.06393161
153	0x3eb18064	0.34668267
154	0x3ddaf58a	0.10691364
155	0x3d1b67e2	0.037940867
156	0x3cdc7b72	0.026914332
157	0xbe72104a	-0.23639026
158	0xbc882aa9	-0.016621904
159	0xbd85b5de	-0.06528829
160	0x3d332237	0.0437338
161	0xbe9c0646	-0.30473536
162	0x3cfbbe8f	0.030730514
163	0x3dceb54f	0.100931756
164	0x3def6e14	0.116909176
165	0x3d77ada2	0.060468324
166	0x3dfd6cc4	0.12374261
167	0xbd427ec8	-0.04748419
168	0xbe4bf3ba	-0.19917193
169	0xbe865135	-0.2623383
170	0x3e40c9c0	0.18826962
171	0xbe0d2b31	-0.13786007
172	0xbf003640	-0.5008278
173	0x3e4c0130	0.19922328
174	0xbd0fd284	-0.035112873
175	0x3c9b148b	0.018930694
176	0xbd320534	-0.043461993
177	0x3e3de94a	0.18546024
178	0x3db1aca7	0.08675509
179	0xbdc9b741	-0.09849406
180	0xbd174ec6	-0.03694036
181	0x3e706491	0.23475863
182	0x3daab17c	0.08334634
183	0x3e223946	0.1584216
184	0xbe352dff	-0.17693327
185	0xbe82f4b8	-0.2557733
186	0xbe0ab8b8	-0.13547027
187	0x3d666b58	0.056254715
188	0xbe094dc8	-0.13408577
189	0x3b0573fa	0.0020363317
190	0x3d5cb3c6	0.053882383
191	0x3d9accc1	0.07558585
192	0x3e63d472	0.2224901
193	0x3da456b1	0.080243476
194	0x3ea7bb86	0.32760257
195	0xbe819727	-0.25310633
196	0x3eaca3cb	0.33718714
197	0x3e2c2416	0.1681064
198	0xbe867d04	-0.26267254
199	0x3e560117	0.20898853
200	0x3cafd717	0.021464868
201	0xbebb7a5b	-0.36616787
202	0xbe8174c2	-0.25284392
203	0xbec321cb	-0.3811172
204	0x3e46e4b9	0.19423188
205	0x3e8e4c41	0.27792552
206	0x3d998f89	0.0749808
207	0x3d6a7aba	0.057245947
208	0xbe8d7c66	-0.2763397
209	0xbe11dbb9	-0.14243974
210	0xbe9b2d3f	-0.30307958
211	0x3e35c1c4	0.17749697
212	0x3e52d2cf	0.2058823
213	0x3df17391	0.11789621
214	0x3e8fb55c	0.28068054
215	0x3dfbedfb	0.123012505
216	0x3d16eacd	0.036845017
217	0xbe117107	-0.14203273
218	0xbe726e90	-0.23674989
219	0x3e9dcb9c	0.30819404
220	0xbeb3259b	-0.34989628
221	0x3dfbc110	0.12292683
222	0xbe7b5232	-0.24543074
223	0xbe82be3e	-0.25535768
224	0xbea5da45	-0.3239309
225	0x3ea40d01	0.3204117
226	0xbebd29a2	-0.36945826
227	0xbcdd94dd	-0.027048523
228	0xbe87f2c3	-0.265524
229	0x3e5c5b9c	0.21519321
230	0x3e960758	0.29302478
231	0xbec5903a	-0.385866
232	0x3db90a64	0.09035185
233	0x3e3a1a70	0.18174148
234	0x3ea2e09e	0.31811994
235	0x3e9927b8	0.29913116
236	0xbe3ba908	-0.18326199
237	0xbe714755	-0.23562367
238	0x3d7b3755	0.061332066
239	0x3e9874f2	0.29776722
240	0x3daa4844	0.08314565
241	0xbeb68dff	-0.3565521
242	0x3e52e513	0.20595197
243	0xbe92d564	-0.2867843
244	0x3ecbd5f6	0.39811677
245	0x3e59c36d	0.21265955
246	0xbe83e436	-0.2576005
247	0x3e83e841	0.25763133
248	0xbd7f4b1e	-0.062327497
249	0x3e6c1c30	0.23057628
250	0xbefd7c99	-0.49509123
251	0x3cea5528	0.028605059
252	0xbd979934	-0.07402268
253	0x3e5c7515	0.21529038
254	0x3e984075	0.29736677
255	0xbeacc8bc	-0.33746898

lstm.weight_hh_l0 f4 [192, 48]
0	0xbdb28a63	-0.087178014
1	0x3a9a17cf	0.0011756363
2	0x3eaa8d80	0.3331108
3	0x3df406fe	0.11915396
4	0x3d422460	0.04739797
5	0xbe038c24	-0.12846428
6	0xbcb65323	-0.02225644
7	0x3ce3abfb	0.027791968
8	0x3d476074	0.04867597
9	0xbc1da662	-0.009622188
10	0x3dbd71c2	0.09250213
11	0x3da4add7	0.0804097
12	0x3db9a242	0.09064151
13	0xbe1c6045	-0.15271099
14	0x3e14edcf	0.14543842
15	0xbc9aa453	-0.018877184
16	0x3e96dcfe	0.2946548
17	0x3defd4e7	0.1171053
18	0x3e0a1694	0.13485175
19	0xbea5e748	-0.32403016
20	0x3dcf958b	0.10135945
21	0xbc544210	-0.012955204
22	0xbe4f7737	-0.2026032
23	0x3d939d52	0.07207741
24	0x3d1c066d	0.038092066
25	0xbc8a7eb1	-0.016906114
26	0xbdfe90c3	-0.12429955
27	0x3e70cf48	0.23516572
28	0x3bddd0d1	0.0067692776
29	0x3dd0967e	0.10184954
30	0x3d64c5ae	0.055852585
31	0xbe50834a	-0.20362583
32	0x3bba7db4	0.0056912545
33	0xbe184b6f	-0.14872526
34	0xbca9b4b8	-0.020716056
35	0x3d811f9d	0.06304858
36	0xbc88906b	-0.016670426
37	0xbdcc734c	-0.09982929
38	0xbe1af48d	-0.15132351
39	0x3d5a259e	0.05325853
40	0xbdc41a36	-0.09575312
41	0xbd65a3d2	-0.056064434
42	0xbd053dda	-0.03252969
43	0xbe765246	-0.24054822
44	0x3dc0433d	0.09387825
45	0xbe5b276f	-0.21401761
46	0xbe4f1c0d	-0.20225544
47	0xbe95adc8	-0.29234147
48	0x3d276d57	0.04087576
49	0x3e11a1d3	0.14221887
50	0xbe6761d8	-0.22595918
51	0xbeb2c668	-0.34916997
52	0xbb8daed8	-0.0043238215
53	0x3dd600f7	0.10449403
54	0x3e85c212	0.26124626
55	0x3e08fafe	0.13376996
56	0xbdeee31c	-0.116644114
57	0xbddaf24f	-0.10690748
58	0xbe1c5cce	-0.15269777
59	0xbe0ea38c	-0.13929576
60	0xbc893215	-0.016747514
61	0xbcb8577f	-0.022502659
62	0xbd5122dc	-0.051058635
63	0xbd7bbe95	-0.06146105
64	0xbeaa7fce	-0.33300632
65	0xbe64e79d	-0.22353978
66	0xbdc8e31f	-0.09808945
67	0x3ea05501	0.31314853
68	0xbd93bba0	-0.07213521
69	0xbe1bbd31	-0.1520889
70	0x3de80ecc	0.11330947
71	0x3c45b473	0.012066948
72	0x3db60ead	0.08889518
73	0x3dbf2fb1	0.09335268
74	0x3e688a82	0.22709087
75	0xbdf6a09d	-0.12042353
76	0xbc7092da	-0.01468345
77	0xbe3c1fad	-0.18371458
78	0xbd533ead	-0.051573444
79	0x3ede7003	0.43444833
80	0x3e00e08a	0.12585655
81	0x3e8ae591	0.2712827
82	0xbe42331b	-0.18964808
83	0x3df571c2	0.11984588
84	0x3dc0308e	0.09384261
85	0x3d1c3648	0.038137704
86	0x3e1f4461	0.15553428
87	0xbe073592	-0.13204029
88	0x3d2c1054	0.04200776
89	0x3a3f7405	0.000730336
90	0x3d6295b9	0.055318568
91	0x3e845399	0.2584503
92	0x3cb318a4	0.021862336
93	0x3e08ba81	0.13352396
94	0x3e6af34b	0.22944371
95	0x3e8e2153	0.277598
96	0xbdd014ae	-0.10160194
97	0xbd7ba5d2	-0.061437435
98	0xbebd16ee	-0.36931556
99	0x3edb05f7	0.42777988
100	0x3db8f94f	0.09031927
101	0x3e3d732d	0.18500967
102	0xbdc33a88	-0.09532648
103	0xbe99c1f4	-0.30030787
104	0x3e940d25	0.28916278
105	0x3ec1b784	0.37835324
106	0xbd52e984	-0.05149223
107	0xbedfa2d1	-0.43678907
108	0x3ca7c86b	0.020481309
109	0x3ed4d8dd	0.41571704
110	0x3eb9984f	0.36249015
111	0x3eb57672	0.3544193
112	0x3f017b4f	0.5057878
113	0x3eb50a7d	0.35359564
114	0x3e81a38f	0.25320098
115	0xbe6372c1	-0.22211744
116	0xbdfc615a	-0.12323256
117	0xbecb838b	-0.39748797
118	0x3e836853	0.2566553
119	0x3cf6b1d6	0.030114096
120	0xbe5d64b1	-0.21620442
121	0xbe6e62c7	-0.23279868
122	0xbee43a57	-0.4457576
123	0x3e13bd8b	0.14427774
124	0x3d5bf9a8	0.053704888
125	0x3f55a3e3	0.83453196
126	0x3eaec2b6	0.34132928
127	0xbf110ed2	-0.5666324
128	0xbea4ab54	-0.32161963
129	0x3e5afe6b	0.21386115
130	0x3e4c1226	0.19928798
131	0xbe47e54d	-0.19521065
132	0xbeb18a10	-0.34675646
133	0xbf21b801	-0.6317139
134	0xbe31d274	-0.17365438
135	0xbd312bd4	-0.04325469
136	0x3d2c1fba	0.042022444
137	0xbddcd549	-0.107828684
138	0xbeb51111	-0.35364583
139	0x3cf3d0b9	0.029762613
140	0xbd8aaf97	-0.06771772
141	0xbe828de5	-0.25498882
142	0xbe613463	-0.2199264
143	0xbe703f47	-0.23461638
144	0xbdc460ae	-0.09588753
145	0x3e6a6711	0.22890879
146	0xbe6acc6e	-0.22929546
147	0x3cb74ed9	0.022376465
148	0x3cf41abd	0.029797906
149	0xbd4e8d0b	-0.050427478
150	0x3d998ea5	0.074979104
151	0xbd4ef972	-0.05053086
152	0xbca9dfb7	-0.020736558
153	0xbd713951	-0.05889255
154	0xbe28463c	-0.16433042
155	0x3b607e4c	0.0034254966
156	0xbb95e79a	-0.004574728
157	0x3d5b9211	0.053606097
158	0xbd9704b9	-0.07373948
159	0xbc94b3a2	-0.018152062
160	0xbe43854f	-0.19093822
161	0xbe185e6d	-0.1487977
162	0xbe3bf53a	-0.18355265
163	0x3ee5492e	0.44782394
164	0xbdb7fb48	-0.08983475
165	0xbe55b26e	-0.20868847
166	0x3e203035	0.1564339
167	0x3dd8f1f1	0.10593022
168	0xbdf76be1	-0.12081123
169	0xbe04618d	-0.12927838
170	0xbda65f09	-0.08123595
171	0x3d77093f	0.060311552
172	0xbe525ef7	-0.20544039
173	0xbd28cecf	-0.041212853
174	0xbdcad373	-0.09903612
175	0x3e67d2c4	0.22638994
176	0xbd31ef4a	-0.043441094
177	0x3e6cc1cb	0.23120801
178	0x3e7cb80b	0.24679582
179	0x3e4674ff	0.19380568
180	0x3cd9803f	0.02655041
181	0x3d46ee4c	0.0485671
182	0x3dd32948	0.10310608
183	0xbe99f5aa	-0.3007024
184	0xbdabe343	-0.08392956
185	0x3e224bba	0.158492
186	0x3e0843c5	0.13307102
187	0x3e08a99e	0.13345954
188	0x3ddc5e69	0.10760195
189	0x3e36b3c7	0.17842017
190	0x3e2cf382	0.16889766
191	0x3e9799fd	0.2960967
192	0x3e66ba36	0.22531971
193	0x3d9b7b32	0.07591857
194	0x3ee37d86	0.44431704
195	0xbda764e7	-0.081735425
196	0x3e31eb68	0.17374957
197	0x3e3282d6	0.17432722
198	0xbe089b8a	-0.13340583
199	0x3e079262	0.13239434
200	0x3d8537a1	0.06504751
201	0xbea9e8ea	-0.33185512
202	0x3dbb922e	0.09158741
203	0x3d8cfef4	0.06884566
204	0xbd70854c	-0.05872087
205	0xbe99947d	-0.299961
206	0xbe0fdf24	-0.14049965
207	0x3bec19fa	0.007205245
208	0x3c21edea	0.009883383
209	0xbd1ea58f	-0.038732108
210	0xbe27cb70	-0.16386199
211	0x3e4b8d22	0.19878057
212	0x3e0fa471	0.14027573
213	0xbdf74c2b	-0.12075075
214	0x3eb10aa9	0.34578446
215	0xbdb76a67	-0.089558415
216	0xbd36bab4	-0.044611648
217	0x3e87252d	0.2639555
218	0xbccfd0ab	-0.025368055
219	0xbddc879e	-0.107680544
220	0xbe15292b	-0.14566486
221	0xbddc814e	-0.107668504
222	0xbd8d0c4a	-0.068871096
223	0x3e2a9d52	0.16661575
224	0x3e9a1bfc	0.30099475
225	0xbd8e4a86	-0.06947808
226	0x3df686eb	0.12037452
227	0x3e03b8cd	0.12863465
228	0x3d7cd659	0.061727855
229	0x3e8708c7	0.26373884
230	0x3edbf14e	0.42957538
231	0xbdbb9d97	-0.09160917
232	0x3e2251da	0.15851536
233	0x3b9aaa76	0.0047200276
234	0xbdb31962	-0.08745076
235	0x3ca2a53d	0.019854182
236	0xbcc31294	-0.02381257
237	0x3de2a3be	0.110663876
238	0xbcefb248	-0.029259816
239	0x3e99ff77	0.30077717
240	0x3edd30bc	0.43201244
241	0x3e999308	0.29994988
242	0x3f19e793	0.6011898
243	0x3d900c9b	0.07033654
244	0xbd3f6a43	-0.0467322
245	0x3e88f993	0.2675291
246	0xbdcab35d	-0.09897492
247	0xbd8bc372	-0.068243876
248	0xbe9dfd6a	-0.30857402
249	0xbee68e95	-0.45030656
250	0x3e2c6151	0.16833998
251	0x3df939b0	0.12169206
252	0xbe467cb7	-0.19383512
253	0xbdb93f80	-0.09045315
254	0xbda936e0	-0.0826242
255	0xbe4e52f3	-0.2014883

lstm.bias_ih_l0 f4 [192]
0	0x3dae93e4	0.08524302
1	0xbce2818b	-0.027649662
2	0xbe82e98b	-0.25568804
3	0xbdc5a49c	-0.09650537
4	0x3e250279	0.16114224
5	0xbd66f891	-0.056389395
6	0xbdca9f51	-0.098936684
7	0xbe161de5	-0.14659841
8	0x3d7966b6	0.06088897
9	0x3d7aa613	0.061193537
10	0xbe5af5c8	-0.2138282
11	0x3bc7625c	0.0060847234
12	0xbdcc5895	-0.09977833
13	0x3cf1f4ab	0.029535612
14	0xbd5a7801	-0.0533371
15	0xbcfced79	-0.030874955
16	0xbc90fd6b	-0.017698964
17	0xbdf72da9	-0.12069256
18	0xbce8da99	-0.028424548
19	0x3e7a4cb9	0.2444333
20	0xbe5a8d12	-0.21342877
21	0x3d670d44	0.056409135
22	0x3e72e440	0.23719883
23	0x3d6001ce	0.05468922
24	0xbdd0d926	-0.10197668
25	0xbc350e3e	-0.011050759
26	0x3e454229	0.1926352
27	0xbc72d26b	-0.014820675
28	0xbe5d294f	-0.21597789
29	0x3eba3345	0.3636724
30	0xbd223d1d	-0.039609063
31	0xbcce7ddd	-0.0252065
32	0x3dcda365	0.10040931
33	0xbd5e18d0	-0.05422288
34	0x3e4417a9	0.1914965
35	0xbe0c242c	-0.13685673
36	0xbe4fc8ed	-0.20291491
37	0xbd7c63fc	-0.06161879
38	0xbdd7ffa6	-0.10546808
39	0xbe160687	-0.14650927
40	0xbe2041a7	-0.15650044
41	0x3e0a7ee5	0.13524969
42	0x3e1f1f61	0.15539314
43	0xbe231281	-0.15925027
44	0xbe839532	-0.25699764
45	0x3e9bcc5a	0.30429345
46	0xbe694ba6	-0.22782764
47	0xbdd96711	-0.106153615
48	0x3e83b5e3	0.25724706
49	0xbe3530e6	-0.17694435
50	0xbd528e44	-0.051405206
51	0xbc915491	-0.01774052
52	0x3ea95815	0.33075014
53	0x3e1453a5	0.14485033
54	0xbe5cb335	-0.21552737
55	0xbd8c2682	-0.06843282
56	0x3e20e41f	0.15712021
57	0xbe5da875	-0.21646293
58	0x3d5e9ad5	0.054346878
59	0x3de34143	0.11096432
60	0x3da21697	0.07914465
61	0xbcddad41	-0.027060153
62	0xbe1bd404	-0.15217596
63	0xbd80c29f	-0.06287121
64	0xbd1c3f50	-0.038146317
65	0xbd77de6a	-0.060514845
66	0xbe41bfaf	-0.18920778
67	0x3daf0177	0.08545201
68	0xbde50aee	-0.11183725
69	0xbe1ad678	-0.15120876
70	0xbdfae01b	-0.12249776
71	0xbda45d94	-0.08025661
72	0xbd5742ed	-0.05255406
73	0xbddb7b54	-0.10716882
74	0xbc31e794	-0.010858435
75	0x3e16787d	0.146944
76	0x3dbf5ea1	0.09344221
77	0xbd6a756e	-0.057240896
78	0xbdb3015b	-0.08740493
79	0xbb332f6c	-0.0027341498
80	0xbd99b342	-0.07504894
81	0x3e0308af	0.12796281
82	0xbd80cb1c	-0.0628874
83	0xbd602bfa	-0.05472944
84	0xbe7ae183	-0.24500088
85	0xbe185fe4	-0.1488033
86	0x3d1630ca	0.036667623
87	0x3d53ec60	0.051739097
88	0xbe11eb97	-0.14250027
89	0x3d9fcdc6	0.0780292
90	0xbda73d9f	-0.0816605
91	0x3c222a03	0.009897712
92	0xbeae8fb7	-0.3409402
93	0xbc1a81c0	-0.009430349
94	0x3daf90d9	0.085725494
95	0xbde37558	-0.11106366
96	0xbd265418	-0.04060754
97	0xbbd39036	-0.0064564003
98	0xbe392bcf	-0.18083118
99	0xbd870dc9	-0.06594426
100	0x3c352b1e	0.011057643
101	0x3df5f38b	0.12009343
102	0xbdc1a506	-0.09455304
103	0xbd29323a	-0.041307665
104	0x3c972bde	0.018453535
105	0x3d1c8fde	0.03822314
106	0xbe0cbdc1	-0.1374426
107	0xbdacbcdf	-0.08434462
108	0x3d848c61	0.06472088
109	0xbddc2628	-0.10749465
110	0x3dea00f5	0.11425964
111	0xbc6f6291	-0.014610902
112	0x3dac9cfc	0.0842838
113	0x3e07bf19	0.13256492
114	0xbca8778f	-0.020564822
115	0x39f963d0	0.00047567347
116	0xbc65334f	-0.013989284
117	0xbe27ba13	-0.16379575
118	0x3d499d6c	0.049222395
119	0xbd3dd63d	-0.04634689
120	0x3df9a107	0.12188917
121	0xbd1dcb8c	-0.038524196
122	0xbe5da036	-0.21643147
123	0xbbfd0158	-0.0077211075
124	0xbd888955	-0.06666819
125	0x3e02123f	0.12702273
126	0xbd1542f8	-0.03644082
127	0x3dc3be97	0.095578365
128	0x3ce51ac5	0.027966866
129	0x3d4efed5	0.050535996
130	0x3e133137	0.14374243
131	0xbc298ace	-0.010348035
132	0x3bc707b7	0.0060739177
133	0x3717afcf	9.041235e-06
134	0xbdff03fe	-0.12451933
135	0xbd8a2858	-0.06745976
136	0x3e2d8800	0.16946411
137	0xbe8685fe	-0.26274103
138	0xbe35464b	-0.17702596
139	0x3c78fdbc	0.015197214
140	0x3d8e256b	0.06940731
141	0x3d7c6f1b	0.061629396
142	0xbe1cc875	-0.15310843
143	0xbc94e867	-0.018177224
144	0x3d8df9c6	0.06932406
145	0xbda3281f	-0.07966637
146	0xbd7f4930	-0.062325656
147	0x3de51962	0.11186482
148	0xbcf8f635	-0.030390838
149	0x3e3e8b67	0.18607865
150	0xbe3a9805	-0.18222053
151	0xbdf98cd3	-0.12185063
152	0x3e207401	0.15669252
153	0xbdac4552	-0.08411659
154	0xbdbc8017	-0.09204119
155	0x3db44908	0.08802992
156	0xbe42991b	-0.19003718
157	0x3e0f520e	0.13996145
158	0x3ca61ca3	0.020277327
159	0xbda67eb0	-0.081296325
160	0x3e93bf78	0.28857017
161	0xbdef58b1	-0.116868384
162	0xbd86ca21	-0.06581522
163	0x3dd66aeb	0.10469612
164	0xbdea6e8f	-0.11446869
165	0x3df00e6a	0.11721499
166	0x3e6d4186	0.23169526
167	0x3d8054ce	0.06266175
168	0xbe44e712	-0.19228771
169	0x3d28ae2e	0.041181736
170	0x3e4bf10f	0.19916175
171	0x3e188fc0	0.14898586
172	0xbd722986	-0.05912163
173	0x3ec986a7	0.39360544
174	0x3cf16ceb	0.029470881
175	0x3e61e870	0.22061324
176	0xbdd3b9dc	-0.10338184
177	0xbd9bef3f	-0.07613992
178	0x3e2ce8de	0.16885707
179	0xbe29266e	-0.16518566
180	0xbd98ce2c	-0.07461199
181	0x3dcfe757	0.101515464
182	0xbd89b549	-0.067240305
183	0xbc9e124a	-0.01929583
184	0x3c8001eb	0.015625915
185	0x3d9521a0	0.07281804
186	0x3e13bac6	0.14426717
187	0xbe4bfbcb	-0.1992027
188	0xbe866f87	-0.26256964
189	0x3ea7dd7d	0.3278617
190	0xbe95c631	-0.2925277
191	0x3ded9e93	0.11602511

lstm.bias_hh_l0 f4 [192]
0	0xbd07f771	-0.033194963
1	0x3da4a457	0.08039158
2	0xbe91b858	-0.28460956
3	0xbdf57e17	-0.1198694
4	0x3e30cdf6	0.17266068
5	0x3e1e124c	0.15436667
6	0xbdb38fff	-0.087676995
7	0xbe9c1415	-0.3048407
8	0x3db5c8cf	0.08876192
9	0x3de89815	0.11357132
10	0xbd573a02	-0.052545555
11	0x3e14e09d	0.14538808
12	0xbe239c32	-0.15977553
13	0xbc76fbbb	-0.015074666
14	0xbdcbd938	-0.099535406
15	0xbe09719a	-0.13422242
16	0x3d4ced11	0.05003077
17	0x3baa75b7	0.005202021
18	0xbe32d609	-0.1746446
19	0x3e68d79c	0.22738498
20	0xbe30d9f2	-0.1727064
21	0x3a46bf13	0.0007581573
22	0x3da067b1	0.078322776
23	0xbcbd9c15	-0.023145715
24	0xbbad8859	-0.005295795
25	0xbe2e3d90	-0.17015672
26	0x3e0d4e42	0.13799384
27	0xbe2627d9	-0.16226138
28	0xbdde2d75	-0.10848514
29	0x3ee66582	0.4499932
30	0xbe77788a	-0.24167076
31	0x3dfc7851	0.12327636
32	0xbbce2b32	-0.0062917704
33	0xbe328d7b	-0.17436783
34	0x3dd58b9b	0.10427018
35	0xbe5bb97d	-0.21457477
36	0x3d1242b6	0.03570815
37	0xbcaee79b	-0.021350672
38	0xbe1286a6	-0.14309177
39	0x3b21161e	0.0024579833
40	0x3d1e1867	0.03859749
41	0x3dfc508e	0.12320052
42	0x3d6a18e8	0.05715266
43	0xbe0e020f	-0.13867973
44	0xbe4c9f2a	-0.19982591
45	0x3e515203	0.20441441
46	0xbe36e61d	-0.17861219
47	0x3d9b1736	0.075727865
48	0x3e7ad16a	0.24493948
49	0xbe49f325	-0.19721659
50	0xbdf63945	-0.12022642
51	0x3d4e84f9	0.05041978
52	0x3e3dea1b	0.18546335
53	0x3d9a872d	0.07545314
54	0xbe6adf24	-0.22936684
55	0xbe12663c	-0.14296812
56	0x3e5d1316	0.21589312
57	0xbd01e39c	-0.031711206
58	0xbd48e14c	-0.049042985
59	0xbd15670d	-0.03647523
60	0x3e65ee99	0.22454299
61	0x3d00d95d	0.031457294
62	0xbe0350f5	-0.12823851
63	0x3d0fe07c	0.035126194
64	0x3b26829e	0.0025407444
65	0xbd54b194	-0.051927164
66	0xbe892294	-0.26784194
67	0x3d872c65	0.066002645
68	0x3c65e4aa	0.014031569
69	0xbd8b3db8	-0.06798881
70	0xbc17f503	-0.009274724
71	0xbbac2285	-0.0052531385
72	0xbe02481d	-0.12722822
73	0xbd8d4cf3	-0.068994425
74	0x3dcdc002	0.10046388
75	0x3e2d4237	0.1691979
76	0x3e257435	0.1615761
77	0x3db2207b	0.086976014
78	0x3c4f96ac	0.0126702
79	0xbe3c6e3a	-0.18401423
80	0xbddaaa02	-0.10676958
81	0xbb7169b9	-0.0036836697
82	0xbe041c32	-0.1290138
83	0x3da1ec05	0.07906345
84	0xbe5e8fef	-0.21734594
85	0xbd832a8a	-0.06404598
86	0xbdd05a3f	-0.10173463
87	0xbd5eaf38	-0.05436632
88	0x3d903b96	0.07042615
89	0xbe388966	-0.18021163
90	0xbd1bfc8d	-0.038082648
91	0xbcfcd8ca	-0.030865092
92	0xbe3c5c08	-0.18394482
93	0x3db1688a	0.08662517
94	0xbcefda80	-0.029278994
95	0xbd2af58e	-0.041738085
96	0xbdf303ad	-0.118659355
97	0xbc844f6a	-0.016151149
98	0x3cd0545f	0.025430856
99	0x3d96f951	0.07371772
100	0x3dab59ec	0.083667606
101	0x3e0fd392	0.14045551
102	0xbddb9a92	-0.10722841
103	0x3c7ef43d	0.015561161
104	0x3de45b7e	0.11150263
105	0xbb8dd0cc	-0.004327869
106	0x3d1f9489	0.038960014
107	0xbe119b25	-0.14219339
108	0x3cf994b2	0.030466411
109	0x3daeb7df	0.085311644
110	0xbc83ff62	-0.016112987
111	0x3e7c243a	0.24623194
112	0xbdf834c1	-0.12119437
113	0x3dc0edb3	0.094203375
114	0xbc14c457	-0.009080014
115	0x3d4715a7	0.048604634
116	0xbe0c6f40	-0.13714314
117	0xbde215cf	-0.11039316
118	0x3e0a4f46	0.13506803
119	0xbdde5efc	-0.108579606
120	0x3cee1e2b	0.02906712
121	0x3d52b3f0	0.051441133
122	0xbd3d6ca3	-0.046246182
123	0x3d339f9a	0.04385338
124	0xbc363a7b	-0.011122341
125	0x3db56cc4	0.08858636
126	0xbd3af7db	-0.04564653
127	0xbd226586	-0.0396476
128	0x3d5a3200	0.05327034
129	0x3d4448e4	0.047921076
130	0x3de9905d	0.11404488
131	0x3d14cc9f	0.036327954
132	0x3cf55d3f	0.02995169
133	0x3ceb1320	0.028695643
134	0xbe15a62b	-0.1461417
135	0xbd89eab8	-0.06734222
136	0xba5535e9	-0.00081333384
137	0x3ba8e672	0.0051544243
138	0xbd89d3f4	-0.0672988
139	0x3dd025cf	0.101634614
140	0xbd7d8df8	-0.06190297
141	0x3dbb6454	0.091499954
142	0x3d89f4f0	0.06736171
143	0x3b77594c	0.0037742434
144	0x3e6a8d2a	0.22905412
145	0x3dd71f13	0.10503974
146	0xbe91fc69	-0.28512886
147	0x3de8fa91	0.11375917
148	0x3df230d9	0.11825723
149	0x3e989fb2	0.29809338
150	0xbe07b9c7	-0.13254462
151	0xbe1f794a	-0.15573612
152	0x3d168b01	0.03675366
153	0xbe121788	-0.14266789
154	0xbe7c2930	-0.24625087
155	0x3d396db0	0.04527062
156	0xbd889e1d	-0.06670783
157	0x3d3af5df	0.045644637
158	0x3c295070	0.010334119
159	0xbd8f1545	-0.06986479
160	0x3e1d386c	0.15353554
161	0xbc83d642	-0.016093377
162	0xbdde22ff	-0.10846519
163	0x3e6d243f	0.23158358
164	0xbdf6d4f3	-0.120523356
165	0xbc6b0a05	-0.014345651
166	0x3b566406	0.0032713427
167	0xbd6079e5	-0.054803748
168	0x3c38b482	0.011273505
169	0x3bd7e170	0.0065881535
170	0x3e9b410e	0.3032307
171	0x3e2ba85a	0.1676344
172	0xbd4b686e	-0.04966014
173	0x3ece82ec	0.4033426
174	0xbe50deab	-0.20397441
175	0x3e2475d4	0.16060573
176	0x3d7bb1c1	0.061448816
177	0xbd7e263b	-0.06204818
178	0x3ea222da	0.31667215
179	0xbe093246	-0.13398084
180	0xbe2e2906	-0.17007837
181	0x3e104e61	0.14092399
182	0x3dc0485e	0.09388803
183	0xbccd4958	-0.025059387
184	0xbdc79693	-0.09745517
185	0xbd3adb8f	-0.045619544
186	0x3e0f533e	0.13996598
187	0xbe9ee6ef	-0.31035563
188	0xbecabbae	-0.39596313
189	0x3e6c5097	0.23077618
190	0xbe149d17	-0.1451305
191	0xbc414e54	-0.01179846

lstm.weight_ih_l1 f4 [192, 48]
0	0xbd2e4f6d	-0.042556215
1	0xbcd22335	-0.025651554
2	0x3c7427d2	0.014902072
3	0x3e691b8b	0.22764413
4	0xbe3650fb	-0.17804329
5	0xbde574be	-0.112039074
6	0xbde4afe5	-0.11166362
7	0xbd6eed86	-0.05833199
8	0x3e4203e0	0.1894679
9	0x3c184fe2	0.009296389
10	0x3d70507b	0.058670502
11	0xbe50d04c	-0.20391959
12	0x3cb6a020	0.02229315
13	0x3dbd366d	0.092388965
14	0x3df20006	0.11816411
15	0x3dace679	0.08442397
16	0x3e7c11ca	0.24616161
17	0x3e6095fb	0.21932213
18	0xbd884e19	-0.06655521
19	0xbddf2288	-0.10895258
20	0xbce033eb	-0.027368506
21	0xbe642229	-0.22278656
22	0x3ddb39ab	0.10704359
23	0x3cac1b62	0.02100915
24	0x3de82efd	0.11337087
25	0x3c3f0f23	0.011661324
26	0xbe10028d	-0.14063473
27	0x3e17f179	0.14838208
28	0x3e05f91d	0.1308331
29	0x3f09f947	0.5389599
30	0xbe1811ab	-0.1485049
31	0xbe911563	-0.2833663
32	0x3c652a81	0.0139871845
33	0x3e506028	0.2034918
34	0x3e417a49	0.18894304
35	0xbd587f1e	-0.052855603
36	0xbddc4a2e	-0.10756336
37	0xbd9f6750	-0.07783377
38	0xbde84af2	-0.1134242
39	0xbda62faf	-0.08114564
40	0xbd9e343a	-0.07724805
41	0xbe27baeb	-0.16379897
42	0x3ade9567	0.0016981781
43	0xbe213c3c	-0.15745634
44	0x3dc7df00	0.09759331
45	0xbdc0d89c	-0.09416315
46	0xbe0ee611	-0.13954951
47	0xbd8d13ec	-0.068885654
48	0x3e83004a	0.25586158
49	0x3d037efe	0.03210353
50	0x3e60c57a	0.21950331
51	0xbd4fb56d	-0.05071013
52	0xbde5efdb	-0.112273894
53	0xbe046c14	-0.12931854
54	0x3e62d7ce	0.22152635
55	0x3e813977	0.25239155
56	0xbe85bfe8	-0.26122975
57	0xbda787ea	-0.081802204
58	0x3d058bd7	0.032604065
59	0xbd575eea	-0.05258075
60	0xbdb9519c	-0.09048769
61	0x3da5d97e	0.08098124
62	0xbc1720b9	-0.00922411
63	0xbe8a8964	-0.27057946
64	0xbcdd4be1	-0.027013721
65	0x3cb24096	0.021759313
66	0xbe4e47f5	-0.20144637
67	0xbdfa6fa6	-0.122283265
68	0x3d6968c4	0.056984678
69	0xbcad363d	-0.021144027
70	0xbdfa7924	-0.12230137
71	0x3e27d7d2	0.16390923
72	0xbe021b49	-0.12705721
73	0x3d8b1225	0.0679057
74	0x3e0edaa3	0.13950591
75	0xbe15371b	-0.14571802
76	0xbd9d4a15	-0.07680146
77	0x3bf7ccb7	0.0075622457
78	0x3ddb3f88	0.10705477
79	0xbd907461	-0.070534475
80	0xbacc9571	-0.0015608502
81	0xbdded961	-0.108813055
82	0xbe9f3984	-0.31098568
83	0x3d8ecb8d	0.06972418
84	0xbe2da47e	-0.1695728
85	0xbd314ff5	-0.043289144
86	0x3e9729ea	0.29524165
87	0x3decb667	0.11558228
88	0xbde7264a	-0.112866
89	0x3e3fbcaa	0.18724313
90	0x3d8babcb	0.06819876
91	0xbd0ec4af	-0.03485554
92	0x3e04d48c	0.12971705
93	0x3c468e93	0.012118953
94	0xbe04cc20	-0.12968493
95	0xbd1a4d44	-0.037671342
96	0x3d07e28f	0.033175047
97	0xbe54cbb2	-0.20780829
98	0xbe4dd38f	-0.20100234
99	0x3e60061b	0.21877329
100	0xbe1791c6	-0.14801702
101	0xbed58720	-0.41704655
102	0x3d67071a	0.056403257
103	0xbe333d8d	-0.17503949
104	0xbd7d6323	-0.061862122
105	0x3e4a4a9f	0.19755028
106	0xbd4ad9bd	-0.049524058
107	0xbe68d274	-0.22736531
108	0x3d905337	0.07047122
109	0x3e4b53e9	0.19856228
110	0x3e07e72d	0.1327178
111	0x3e9e7fc3	0.3095685
112	0x3e811a25	0.2521526
113	0x3e449bdd	0.19200082
114	0x3d95857b	0.0730085
115	0x3d5668a8	0.0523459
116	0xbe2d781c	-0.1694035
117	0x3c075fab	0.008262555
118	0xbdeb515e	-0.11490129
119	0x3df8255f	0.12116503
120	0xbb3f63ee	-0.002920385
121	0xbe9c7aef	-0.3056254
122	0xbe988f7b	-0.29796967
123	0x3ee2f67a	0.44328672
124	0xbcbfe255	-0.023423353
125	0x3ea11691	0.3146253
126	0xbd0ffe3a	-0.03515456
127	0xbd915bea	-0.07097609
128	0xbe278d85	-0.16362579
129	0x3e9af734	0.30266726
130	0xbda229b4	-0.079181105
131	0x3d198476	0.03747984
132	0x3da9a70e	0.08283816
133	0xbe1b391d	-0.15158506
134	0xbdb95a05	-0.09050373
135	0xbda0164a	-0.07816751
136	0xbe830a8d	-0.25593987
137	0x3cc7c08f	0.024383811
138	0x3cf6d79f	0.030132113
139	0x3d71b0e3	0.059006583
140	0x3e62ff87	0.22167788
141	0xbeca70ab	-0.39539084
142	0xbe00b783	-0.12570004
143	0xbd8dbc8e	-0.069207296
144	0xbe4eb5cc	-0.20186538
145	0xbdf5eabf	-0.12007665
146	0xbe3b60b6	-0.18298611
147	0x3e077e8d	0.13231869
148	0xbe0bd02b	-0.13653629
149	0xbebc2514	-0.36747038
150	0x3d759332	0.05995483
151	0x3d0b40c3	0.03399731
152	0x3e51d614	0.2049182
153	0x3cb0cdc2	0.021582488
154	0xbd6461a1	-0.05575717
155	0xbe3c6455	-0.18397649
156	0xbdf1175b	-0.11772033
157	0x3e9734a0	0.29532337
158	0x3eae580a	0.34051543
159	0xba24dd60	-0.0006289091
160	0x3e18e9b6	0.14932904
161	0x3e96ae08	0.2942965
162	0x3d4390b9	0.04774544
163	0xbd8b924b	-0.068150125
164	0x3d4b0599	0.049565885
165	0xbdc974da	-0.09836741
166	0xbe387e5f	-0.18016957
167	0xbc209c1e	-0.009802846
168	0xbdec6763	-0.11543157
169	0xbe699527	-0.22810803
170	0xbde28528	-0.11060554
171	0x3ebd3104	0.36951458
172	0xbd023ff3	-0.031799268
173	0x3e74822c	0.23877782
174	0xbe51a733	-0.20473938
175	0xbe6c9db4	-0.23107034
176	0xbda5702f	-0.08078038
177	0x3e3dd4b1	0.18538167
178	0x3cace715	0.021106282
179	0xbdb66747	-0.08906417
180	0xbbc3bc39	-0.0059733656
181	0xbe65a68c	-0.22426814
182	0xbdea824d	-0.11450634
183	0x3c8d63d2	0.017259512
184	0xbd8dd13f	-0.06924676
185	0xbe20743d	-0.15669341
186	0x3c579781	0.01315868
187	0x3d2ec9e3	0.042673003
188	0x3e5fa2a6	0.21839389
189	0xbdb6d40c	-0.089271635
190	0xbeac3509	-0.33634213
191	0xbe3b5c89	-0.18297018
192	0x3dfb14b0	0.12259805
193	0xbd5e42eb	-0.054263037
194	0x3e9ea118	0.3098228
195	0x3e37a70d	0.17934819
196	0xbe9082a9	-0.28224686
197	0xbec075a0	-0.3758974
198	0x3c62bc88	0.013838895
199	0x3e22d737	0.1590241
200	0xbea6b87e	-0.3256263
201	0x3d91c19d	0.07117007
202	0x3e53c2d1	0.20679785
203	0x3da8b10e	0.082368955
204	0x3d3e33fb	0.04643629
205	0x3e0ab1a5	0.13544329
206	0xbe5e8a24	-0.21732384
207	0xbe22869a	-0.15871659
208	0x3e42ed26	0.19035777
209	0xbe4e6588	-0.20155919
210	0x3da74831	0.08168066
211	0xbdd9d0b1	-0.10635508
212	0x3e1763dc	0.14784187
213	0x3e0081c3	0.125495
214	0xbeb526af	-0.35381076
215	0x3e331ae8	0.17490733
216	0xbe1476f9	-0.1449851
217	0xbd9cc052	-0.0765387
218	0x3e400af9	0.18754186
219	0x3dafdd5a	0.08587141
220	0x3dcdd68b	0.100506864
221	0xbe9a55f6	-0.30143708
222	0x3e070653	0.13186006
223	0xbe95240e	-0.2912907
224	0xbddbcaa4	-0.1073201
225	0x3c3e454d	0.011613202
226	0xbe93b43d	-0.28848448
227	0xbcf56bae	-0.029958572
228	0xbdb7d6ed	-0.08976541
229	0xbd0ef05e	-0.0348972
230	0x3e099279	0.13434781
231	0x3e91b6fa	0.28459913
232	0xbea7b3e2	-0.32754427
233	0x3e1f93f3	0.15583782
234	0x3ee761da	0.45191842
235	0xbe95554a	-0.29166633
236	0x3d63a236	0.05557462
237	0xbe146b1a	-0.14493981
238	0x3e38645e	0.18007037
239	0xbdd3d9fd	-0.10344312
240	0xbd08c657	-0.033392277
241	0x3e2da697	0.1695808
242	0x3e1adf24	0.15124184
243	0xba7854f1	-0.00094731065
244	0xbd37e35a	-0.044894554
245	0x3d1dcfbe	0.038528197
246	0x3e741909	0.23837675
247	0x3e751063	0.23932032
248	0xbd93208b	-0.071839415
249	0x3d4a2fee	0.049362116
250	0x3d4db60b	0.050222438
251	0xbeab12bc	-0.3341273
252	0x3c2c3937	0.010511688
253	0xbd01f727	-0.031729843
254	0x3d25b8f7	0.0404596
255	0x3d5ce34c	0.053927705

lstm.weight_hh_l1 f4 [192, 48]
0	0x3da246c7	0.07923656
1	0x3e064c3c	0.13115019
2	0xbd1760b6	-0.036957465
3	0x3dcef35a	0.101050094
4	0x3daf3d83	0.08556654
5	0x3e09d49c	0.1346001
6	0xbe7f9e19	-0.24962653
7	0x3965fe00	0.00021933764
8	0xbc819622	-0.01581866
9	0xbe9fe4b8	-0.31229186
10	0xbd8fd5a8	-0.070231736
11	0x3e48b96a	0.1960198
12	0x3e29c08e	0.1657736
13	0x3de0ab47	0.109701686
14	0x3e0af3d9	0.13569583
15	0x3da5e4b0	0.08100259
16	0xbd77e087	-0.06051686
17	0xbd234689	-0.03986219
18	0x3e4448e2	0.19168428
19	0x3e89f8f8	0.2694776
20	0x3daaad8c	0.08333883
21	0x3d28d2ad	0.04121654
22	0x3aad326f	0.0013213883
23	0x3d9b497a	0.07582374
24	0xbd9e6035	-0.07733194
25	0xbd113284	-0.035448566
26	0xbddabc02	-0.10680391
27	0xbe8ba4cd	-0.2727417
28	0x3e83f372	0.25771672
29	0xbe52a701	-0.2057152
30	0x3dcbea3f	0.09956788
31	0xbdbf39ea	-0.09337218
32	0xbe65cc2e	-0.2244117
33	0xbd72f704	-0.059317604
34	0x3dbf2b3a	0.09334417
35	0x3e6e33a4	0.23261887
36	0x3d7d274d	0.06180506
37	0xbe3da756	-0.18520865
38	0x3ddab925	0.10679845
39	0xbe489d36	-0.19591221
40	0x3def3eaf	0.11681878
41	0xbd06dfe2	-0.032928355
42	0x3e4c69fa	0.19962302
43	0x39879d6b	0.00025866492
44	0xbeb10326	-0.34572715
45	0x3d96c10e	0.07361041
46	0xbe6dafcb	-0.23211591
47	0xbd19878f	-0.037482794
48	0x3e26fe2f	0.16307901
49	0x3e340f1c	0.17583889
50	0x3d8cc458	0.06873387
51	0x3e1784a8	0.14796698
52	0x3b0c96c2	0.0021452163
53	0x3e26261b	0.16225474
54	0xbd1b6b0e	-0.037943892
55	0xbd92c134	-0.07165757
56	0x3d61c49f	0.055119153
57	0xbe4d6c9a	-0.2006096
58	0x3d4e3187	0.0503402
59	0x3e21890e	0.15774938
60	0x3e561d25	0.20909555
61	0xbd48d129	-0.049027596
62	0x3b3219fe	0.0027176137
63	0xbd813525	-0.06308965
64	0xbd105613	-0.035238337
65	0xbc5e38de	-0.013563363
66	0x3db6c045	0.08923391
67	0x3de70044	0.112793475
68	0x3e63cae0	0.2224536
69	0x3e72f940	0.23727894
70	0x3dcc3ab6	0.09972136
71	0xbc4335c0	-0.0119146705
72	0xbe07f48f	-0.13276885
73	0xbd48ebe7	-0.0490531
74	0xbd9b66b2	-0.07587947
75	0xbd1d66e8	-0.038428217
76	0x3cae76cb	0.02129688
77	0x3b3a589c	0.0028434163
78	0x3df2f164	0.11862448
79	0x3df7cf40	0.12100077
80	0xbc609f34	-0.013709832
81	0x3e16267c	0.14663118
82	0xbccd390c	-0.025051616
83	0x3dac7e9b	0.084225856
84	0xbd38324d	-0.044969846
85	0xbd94315a	-0.072359756
86	0x3e5f9c88	0.21837056
87	0xbe54fdda	-0.20799962
88	0x3e53d00f	0.20684837
89	0xbdccc6c2	-0.099988475
90	0x3e8b1762	0.27166277
91	0xbd706dae	-0.05869835
92	0xbe67338b	-0.22578256
93	0x3e68dc93	0.22740392
94	0xbbc086df	-0.005875453
95	0xbe647c08	-0.22312939
96	0x3e25af3c	0.16180128
97	0xbd5aa2f4	-0.05337806
98	0xbe2cdafc	-0.16880411
99	0x3dab3df2	0.083614245
100	0x3de9146e	0.1138085
101	0x3dd5396a	0.104113415
102	0x3c381154	0.0112346
103	0xbcf12c2c	-0.029440008
104	0xbe0b8b23	-0.13627295
105	0x3da4d45a	0.08048315
106	0xbe70d818	-0.23519933
107	0xbbd3e1c1	-0.006466121
108	0x3d995f72	0.07488908
109	0xbd92951e	-0.07157348
110	0xbd2e6851	-0.042579953
111	0x3b910337	0.004425432
112	0x3e1541d6	0.14575896
113	0xbd89d2c5	-0.06729654
114	0x3e17ce24	0.1482473
115	0x3e84ba95	0.259236
116	0x3e2e336d	0.17011805
117	0x3e0bf0b4	0.1366604
118	0x3d5599a7	0.052148487
119	0x3e058f68	0.13042986
120	0xbd566a6b	-0.05234758
121	0x3df12138	0.11773914
122	0xbdeb2a50	-0.1148268
123	0xbe29f744	-0.1659823
124	0x3ea4983b	0.32147393
125	0xbec3ac4c	-0.3821739
126	0xbe911ab3	-0.28340682
127	0xbc481271	-0.012211428
128	0xbe817bcf	-0.2528977
129	0x3dc9d46b	0.09854969
130	0xbd041c61	-0.032253627
131	0x3ec2d554	0.3805338
132	0xbd7bd7e0	-0.06148517
133	0xbd3d91e2	-0.046281703
134	0xbd0ee0cd	-0.034882355
135	0x3c98729b	0.018609336
136	0x3e6aaddb	0.22917883
137	0xbd0d183b	-0.034446936
138	0x3e78f0a1	0.24310543
139	0x3df6ef71	0.120573886
140	0xbdfcd63f	-0.12345552
141	0x3c8e0c58	0.01733987
142	0x3c6d1448	0.014470167
143	0x3cf1f644	0.029536374
144	0x3db9e655	0.090771355
145	0x3e6dac0c	0.23210162
146	0xbe4278aa	-0.18991342
147	0xbd912bd7	-0.0708844
148	0x3dd54a49	0.104145594
149	0x3cfec15b	0.031098058
150	0xbded033e	-0.11572884
151	0xbdffda82	-0.12492849
152	0xbe15d2d2	-0.14631203
153	0xbe4269ff	-0.18985747
154	0xbe48862c	-0.19582433
155	0x3d902abe	0.070394024
156	0x3d982247	0.07428413
157	0x3e01ddf6	0.12682328
158	0x3dc4a31f	0.096014254
159	0x3d875dcc	0.06609687
160	0xbd3ae068	-0.045624167
161	0xbd489883	-0.04897357
162	0x3e17e37a	0.14832869
163	0x3ea3a46c	0.3196138
164	0x3e18e207	0.14929973
165	0x3e73e6ef	0.23818563
166	0xbe043542	-0.12910941
167	0x3cf85b45	0.030316958
168	0x3e08b71f	0.13351105
169	0xbdbb4b60	-0.09145236
170	0xbc460755	-0.012086709
171	0xbe7e6a13	-0.24845152
172	0x3e512fd5	0.20428403
173	0xbde28eb6	-0.11062376
174	0xbb9fa331	-0.004871749
175	0xbdf7d59e	-0.12101291
176	0xbe209d41	-0.15684988
177	0x3e53ff0d	0.20702763
178	0x3d07c15a	0.03314338
179	0x3df95527	0.12174445
180	0xbe22025f	-0.15821217
181	0xbe8d041e	-0.27542204
182	0x3e050647	0.12990676
183	0xbdc91998	-0.09819335
184	0x3e868a30	0.26277304
185	0xbc723be6	-0.014784789
186	0x3e1dffa5	0.15429552
187	0x3bc0402c	0.005867025
188	0xbdfe33d3	-0.124122284
189	0x3c99ace5	0.0187592
190	0xbe90eae1	-0.28304198
191	0xbdbf4bc1	-0.09340621
192	0xbda3e992	-0.080035344
193	0x3d18f39a	0.03734169
194	0x3d7fd875	0.06246229
195	0x3bab931b	0.005236042
196	0x3d829f20	0.06378007
197	0xbd4ffd55	-0.050778706
198	0xbc661b2e	-0.014044566
199	0x3ddadbb2	0.10686435
200	0x3d73c982	0.059518345
201	0xbe544d83	-0.20732693
202	0x3cd04108	0.025421634
203	0x3d83863b	0.06422087
204	0xbd9f2513	-0.07770743
205	0x3cc3b165	0.0238883
206	0x3dff8e3f	0.12478303
207	0xbdd3f109	-0.10348708
208	0x3d316ea1	0.043318395
209	0xbe3d0dc7	-0.18462287
210	0x3d13f5be	0.03612303
211	0xbdd7b9bc	-0.10533473
212	0x3e719dea	0.23595396
213	0x3e315b09	0.17319883
214	0xbe04973d	-0.12948318
215	0xbd92e01a	-0.0717165
216	0x3e00ac5e	0.12565753
217	0xbcfeb37a	-0.03109144
218	0xbe1ca6dc	-0.15298027
219	0x3d9de86e	0.07710348
220	0xbdcaefcd	-0.099090196
221	0xbdeeae3e	-0.11654328
222	0xbde83e66	-0.113400266
223	0xbdc88737	-0.09791415
224	0xbe5337cf	-0.20626758
225	0xbe1d2c1c	-0.15348858
226	0x3c41b4ce	0.011822892
227	0xbdd80dc8	-0.105495036
228	0xbd0d65fd	-0.03452109
229	0x3df096f9	0.11747546
230	0x3de3aa7b	0.11116501
231	0xbaf5190a	-0.0018699479
232	0x3deebe61	0.11657406
233	0xbd2b5ddd	-0.041837562
234	0x3e6f0a58	0.2334379
235	0xbe60e364	-0.21961743
236	0xbe2c4b0f	-0.16825508
237	0xbd5a7362	-0.053332694
238	0x3da4da23	0.08049419
239	0xbe6943df	-0.22779797
240	0x3e952ab6	0.29134148
241	0x3ddc0b2e	0.1074432
242	0x3e512317	0.20423542
243	0xbe105a7c	-0.14097017
244	0xbd66e018	-0.056366056
245	0x3d8974e8	0.06711751
246	0x3dd9dcba	0.106378034
247	0x3d9e582c	0.07731661
248	0x3e6424d4	0.22279674
249	0x3dd0fd1a	0.10204525
250	0x3bb70c3e	0.005586176
251	0xbd1eb7a1	-0.03874934
252	0xbe58055e	-0.21095797
253	0x3db084c2	0.086190715
254	0x3dadf8da	0.0849473
255	0xbe2e0fa7	-0.16998158

lstm.bias_ih_l1 f4 [192]
0	0xbd0bfe71	-0.0341782
1	0xbdfd149f	-0.12357449
2	0xbc248a61	-0.010042758
3	0x3d06bdf7	0.03289601
4	0x3d8cc08c	0.06872663
5	0xbd31deab	-0.043425243
6	0x3e16d5f3	0.14730053
7	0x3d4fc7f6	0.050727807
8	0xbe0e8dd4	-0.1392129
9	0xbd21af03	-0.039473545
10	0xbd6e4156	-0.058167778
11	0x3c8e0618	0.01733689
12	0xbc757f61	-0.014983983
13	0xbe529f85	-0.20568664
14	0x3df52cd9	0.11971445
15	0x3d1cf20b	0.038316768
16	0xbdea7d4c	-0.1144968
17	0x3ce2236d	0.027604783
18	0x3e5bdfca	0.21472088
19	0x3c5de56d	0.013543469
20	0x3e5fe6ea	0.2186543
21	0x3e1bcb49	0.15214266
22	0x3d750ea0	0.0598284
23	0x3cc158d1	0.023601921
24	0x3db6b8ce	0.089219674
25	0xbd7d422c	-0.061830685
26	0xbc940d9f	-0.018072901
27	0xbd1c7499	-0.038197134
28	0xbe122fe2	-0.14276078
29	0x3e889996	0.26679677
30	0xbce0a06e	-0.027420249
31	0xbda1b946	-0.07896666
32	0x3e8780e4	0.26465523
33	0x3c454e36	0.012042573
34	0xbd2e8b33	-0.04261322
35	0x3d7623c5	0.060092706
36	0x3d450184	0.04809715
37	0xbe03e34d	-0.12879677
38	0x3e1ac585	0.1511441
39	0x3e1c833e	0.1528444
40	0x3cbcb2fc	0.023034565
41	0x3e082f27	0.13299237
42	0x3e317a43	0.17331795
43	0xbd816427	-0.06317931
44	0x3e6d3efe	0.23168561
45	0xbd6a59d3	-0.05721457
46	0xbdbefeb4	-0.093259245
47	0x3e41a865	0.18911894
48	0xbd6758c9	-0.056481156
49	0xbd8ada2e	-0.06779896
50	0xbe10e6a5	-0.14150484
51	0xbe20a8b1	-0.1568935
52	0x3d34f18b	0.044175666
53	0xbd90e128	-0.07074195
54	0xbe2e2508	-0.17006314
55	0xbdd76f19	-0.10519237
56	0x3bcabcf6	0.0061870767
57	0xbd2b5898	-0.041832536
58	0xbd814216	-0.06311433
59	0xbe0e736c	-0.13911217
60	0xbd28bc5d	-0.041195262
61	0xbdf3217a	-0.118716195
62	0xbe57d1e0	-0.21076155
63	0xbddf481a	-0.10902424
64	0xbe400970	-0.187536
65	0x3cd3e3f6	0.025865536
66	0x3c8dd263	0.017312234
67	0x3cbf1d5d	0.023329431
68	0xbd620a7e	-0.055185787
69	0x3aafaf1f	0.0013403631
70	0xbdb90c7a	-0.09035583
71	0xbe7ec9c9	-0.24881662
72	0x3d363d77	0.04449221
73	0xbe0dc50b	-0.13844697
74	0x3da4707c	0.08029267
75	0xbe43335f	-0.19062565
76	0xbe5b45e1	-0.21413375
77	0xbe295122	-0.16534856
78	0xbe391c34	-0.18077165
79	0x3c068837	0.008211187
80	0x3d502954	0.050820664
81	0xbe12786c	-0.1430375
82	0xbe014782	-0.12624934
83	0xbe72988c	-0.23691005
84	0xbca4a01b	-0.020095875
85	0x3aaa4cd3	0.0012992866
86	0xbe173d03	-0.14769368
87	0xbe269cc9	-0.16270746
88	0xbc15d257	-0.009144387
89	0xbe1a37a2	-0.15060285
90	0xbe199a8b	-0.1500036
91	0xb95050d0	-0.00019866531
92	0xbe36620e	-0.17810842
93	0xbe3ae892	-0.18252781
94	0xbc8d9db4	-0.017287113
95	0xbe43f56c	-0.1913659
96	0xbd5b3514	-0.053517416
97	0xbd2f1581	-0.042745117
98	0xbcf15def	-0.029463736
99	0xbcb683a8	-0.022279575
100	0xbd33288f	-0.04373985
101	0xbd7347ec	-0.059394762
102	0xbbee1e2f	-0.0072667818
103	0x3d6a5e9e	0.05721914
104	0x3be6e04b	0.007045781
105	0xbd93d9ac	-0.07219252
106	0x3d811418	0.06302661
107	0xbe2c77a5	-0.16842516
108	0x3df54471	0.11975945
109	0xbd875e7b	-0.066098176
110	0x3e07cc60	0.13261557
111	0xbc24fa36	-0.010069421
112	0x3e182e6c	0.14861459
113	0x3d1c969d	0.038229574
114	0x3e05b6e7	0.13058053
115	0x3dd4d92d	0.103929855
116	0xbd672c3d	-0.056438673
117	0xbe32e4f1	-0.17470147
118	0x3e252096	0.16125712
119	0x3d36e25c	0.044649467
120	0x3e6f8d19	0.23393668
121	0x3e04e959	0.1297964
122	0x3e2bf5a8	0.16792929
123	0x3d2756b4	0.04085417
124	0xbd0d51f0	-0.03450197
125	0x3cc90bbf	0.024541734
126	0x3cf4bead	0.029876078
127	0xbdb35f92	-0.08758463
128	0xbdd0c9d6	-0.10194747
129	0xbdb39ea6	-0.08770494
130	0xbcfe5f1a	-0.031051207
131	0xbdcf8b33	-0.10133972
132	0x3e1f0604	0.15529639
133	0x3d6dc124	0.05804552
134	0xbd8858ef	-0.06657588
135	0x3d11d29b	0.03560124
136	0x3d6c7b59	0.05773482
137	0xbe16d10c	-0.14728183
138	0x3c77caab	0.015124003
139	0xbdd8558b	-0.10563191
140	0x3df90e33	0.121609114
141	0xbd21a716	-0.039465986
142	0x3d766ef2	0.0601644
143	0x3c939e8d	0.018019939
144	0x3d2a5bb4	0.04159136
145	0x3ddcaa91	0.107747205
146	0x3d1b12f3	0.03785987
147	0x3e18c34a	0.14918247
148	0x3db8bb3d	0.09020088
149	0x3c32c7cb	0.010911892
150	0x3d614eba	0.05500672
151	0x3e64119a	0.2227234
152	0xbe0c355a	-0.13692227
153	0xbde96ca6	-0.11397676
154	0x3db92882	0.090409294
155	0xbce0f1d0	-0.027459055
156	0x3dee9081	0.11648656
157	0xbe677917	-0.22604786
158	0x3d1addbf	0.03780913
159	0x3ddc5095	0.10757557
160	0x3dfe5c09	0.12419898
161	0x3e2fedd3	0.17180566
162	0x3e299bc6	0.16563329
163	0x3dafa5ca	0.08576544
164	0x3d354592	0.0442558
165	0x3de141cd	0.10998879
166	0x3d174c8c	0.036938235
167	0xbe1ed9a8	-0.15512717
168	0xbc08c1ea	-0.008347014
169	0x3dd7cc4f	0.10537016
170	0x3da0f43d	0.07859085
171	0x3ade7e3c	0.0016974877
172	0x3d9d248a	0.07672985
173	0x3dd00fd5	0.1015927
174	0xbc1a99eb	-0.009436111
175	0xbe04db8b	-0.12974374
176	0x3daabb53	0.083365105
177	0x3d15fcd5	0.036618073
178	0xbcd5c036	-0.02609263
179	0x3dbf49f2	0.09340276
180	0x3def10f1	0.11673153
181	0xbe887c0f	-0.2665715
182	0x3e1bd037	0.15216146
183	0xbb0d6641	-0.002157584
184	0x3df37277	0.11887067
185	0x3d66f4a8	0.056385666
186	0x3d5ccb4b	0.053904813
187	0xbd871722	-0.06596209
188	0x3e4f8b23	0.2026792
189	0x3d8b5dc4	0.06804994
190	0xbd5363bb	-0.051608782
191	0x3e0610d3	0.13092355

lstm.bias_hh_l1 f4 [192]
0	0xbd5126ea	-0.051062502
1	0xbdea3c67	-0.11437302
2	0x3bb87688	0.0056293644
3	0x3dc0ba4d	0.09410534
4	0xbd2b673f	-0.04184651
5	0x3c2a2c77	0.010386578
6	0x3e318ad9	0.17338122
7	0x3e381e5e	0.17980334
8	0x3d8d9241	0.06912661
9	0xbe44e5ca	-0.19228283
10	0x3e0da3c8	0.13832009
11	0xbd7b131b	-0.061297517
12	0xbb834230	-0.004005693
13	0xbe34f8d6	-0.17673048
14	0xbb8ea99d	-0.0043537156
15	0xbc43847f	-0.011933445
16	0xbce43cde	-0.027861055
17	0x3e5b8436	0.21437153
18	0x3e94d3dd	0.2906789
19	0x3e3081ca	0.1723701
20	0x3e3e4543	0.18581109
21	0x3e2bf8a2	0.16794065
22	0x3d844f35	0.0646042
23	0xbd03436e	-0.032046728
24	0x3e004db6	0.12529644
25	0x3ddeb847	0.10874992
26	0x3ce59e6c	0.028029643
27	0x3dd843ac	0.105597824
28	0xbc7ff715	-0.015622874
29	0x3d898741	0.06715251
30	0x3c4f6ab3	0.012659716
31	0x3cd6a95e	0.026203807
32	0x3e76f10a	0.24115387
33	0xbe11901c	-0.1421513
34	0xbdab7c7c	-0.08373353
35	0x3e0ba047	0.1363536
36	0xbc6a27e4	-0.014291737
37	0xbe79bdf4	-0.24388868
38	0x3e11623c	0.1419763
39	0xbdb11f62	-0.08648564
40	0x3c6fb63d	0.014630851
41	0x3d28887a	0.04114578
42	0x3db77476	0.0895776
43	0xbdbda177	-0.092593126
44	0x3bea1c55	0.0071444907
45	0x39d8a1b9	0.00041319223
46	0xbdb8a730	-0.090162635
47	0x3e04d58a	0.12972084
48	0xbe336128	-0.17517531
49	0x3c8b4fae	0.017005768
50	0xbdcdcaf1	-0.100484736
51	0x3d1b36dc	0.037894115
52	0x3d7eb9aa	0.06218878
53	0xbe8d2ae4	-0.27571785
54	0xbd96863c	-0.07349822
55	0x3da73786	0.08164887
56	0xbdfa1da6	-0.12212686
57	0xbca090c7	-0.019600285
58	0xbd9c5794	-0.07633892
59	0xbdf0f3a4	-0.11765221
60	0xbdc0ff39	-0.0942368
61	0xbe74b608	-0.23897564
62	0x3d28297f	0.0410552
63	0xbe51636f	-0.20448087
64	0xbe1d0aa3	-0.15336089
65	0xbdc2d3f5	-0.09513084
66	0xbdc33603	-0.09531786
67	0xbdbe07f9	-0.092788644
68	0xbc2ce7af	-0.010553285
69	0xbdf2feb6	-0.118649885
70	0x3d92d42e	0.07169376
71	0xbe238de3	-0.15972094
72	0xbd3757f8	-0.044761628
73	0xbd252b5e	-0.04032456
74	0xbd46e44f	-0.048557576
75	0xbe266429	-0.16249146
76	0xbcc46c9d	-0.023977572
77	0xbe5acfb8	-0.21368301
78	0xbd12e79c	-0.03586541
79	0xbe6db2e3	-0.23212771
80	0xbd8355c6	-0.06412844
81	0xbe29843d	-0.16554351
82	0xbe2b808f	-0.1674826
83	0xbdd17fe0	-0.10229468
84	0xbd8da9cf	-0.06917154
85	0xbdfa059b	-0.122081004
86	0xbe8d95ef	-0.27653453
87	0x3c92df2d	0.017928684
88	0xbe3b4565	-0.1828819
89	0x3db9703e	0.090546116
90	0xbd1e6545	-0.038670797
91	0xbe5ac4d0	-0.2136414
92	0x3cc77190	0.024346143
93	0xbe51f301	-0.20502855
94	0x3d6272ee	0.055285387
95	0xbdcc6135	-0.09979478
96	0x3ca1703f	0.019706843
97	0xbdf385b0	-0.11890733
98	0xbce2acb2	-0.027670238
99	0x3c36307c	0.011119958
100	0xbe659582	-0.22420314
101	0xbb9a08da	-0.004700762
102	0xbd781d9b	-0.06057511
103	0xbd19efef	-0.037582334
104	0x3dc85f2d	0.09783778
105	0xbde9fdca	-0.114253595
106	0x3d26956b	0.04066984
107	0x3d3a9fcc	0.04556255
108	0xbdcb04cd	-0.09913025
109	0xbde344a9	-0.1109708
110	0x3e1a1860	0.15048361
111	0x3da2797f	0.0793333
112	0xbd3c4d38	-0.04597208
113	0x3cbbf29a	0.02294283
114	0x3c88b491	0.016687663
115	0xbe27cdef	-0.16387151
116	0x3ab3b1cd	0.0013709605
117	0x3dbe99d4	0.09306684
118	0x3e35aeac	0.17742413
119	0x3c7e5fc9	0.015525767
120	0x3e89b871	0.2689853
121	0x3e26b2bd	0.1627912
122	0x3dbd455b	0.09241744
123	0xbd969cc1	-0.07354117
124	0xbd066feb	-0.032821577
125	0x3aa94b88	0.0012916187
126	0x3cd22910	0.025654346
127	0xbdd12158	-0.10211438
128	0xbdfeb715	-0.12437264
129	0xbdcedaae	-0.101003036
130	0x3d9830e7	0.074312024
131	0xbc7ed5c8	-0.015553899
132	0x3e372877	0.1788653
133	0xbd0a8955	-0.033822376
134	0x3d37f7ce	0.04491406
135	0x3e0080d5	0.12549146
136	0xbe074f52	-0.13213852
137	0x3dcc03a7	0.09961634
138	0x3d11f843	0.03563715
139	0x3ca50ac4	0.020146735
140	0x3c64d490	0.0139666945
141	0xbd87b40b	-0.06626137
142	0xbd5ef6aa	-0.054434456
143	0x3dcfe375	0.10150806
144	0x3c09486c	0.008379083
145	0xbd33ec3e	-0.04392647
146	0x3d49af31	0.04923934
147	0xbddf6ce3	-0.1090944
148	0x3df8e8d5	0.12153784
149	0xbdf27faa	-0.11840756
150	0x3b10545e	0.0022022943
151	0x3d7abd66	0.06121578
152	0x3d4261cb	0.047456544
153	0xbe461b50	-0.19346356
154	0x3d7c4b4c	0.061595246
155	0x3e47ae15	0.19500001
156	0x3da66d9e	0.081263766
157	0xbe234f31	-0.15948178
158	0xbc1a2479	-0.00940811
159	0xbda5b9ac	-0.08092055
160	0x3da70e63	0.08157041
161	0x3e2b7e78	0.16747463
162	0x3e715073	0.23565845
163	0xbb47b46b	-0.0030472528
164	0x3d322651	0.043493573
165	0xbdabddca	-0.08391912
166	0x3cd036a0	0.025416672
167	0xbc00f8c7	-0.007871813
168	0x3de3d6e6	0.11124973
169	0x3e22d31a	0.15900841
170	0xbe165af8	-0.1468314
171	0xbde11cfc	-0.109918565
172	0x3d59e7bd	0.05319952
173	0x3e57e7ea	0.21084562
174	0xbd7c4d5c	-0.061597213
175	0xbdd5991a	-0.104295924
176	0x3e440da4	0.19145828
177	0x3ce93a7e	0.028470274
178	0x3e028436	0.12745747
179	0x3e319a47	0.17344008
180	0x3d489b6f	0.048976358
181	0xbdc23de7	-0.09484463
182	0x3e1468aa	0.14493051
183	0x3d808a65	0.06276397
184	0x3e32e1eb	0.17468993
185	0xbb47d2a6	-0.0030490546
186	0x3ca6531d	0.020303303
187	0x3d6d046b	0.05786554
188	0x3e0c7c86	0.13719377
189	0x3c308779	0.010774487
190	0x3d868820	0.065689325
191	0x3c666540	0.014062226

linear.weight f4 [2, 48]
0	0xbd9b8911	-0.07594503
1	0xbe4ad99f	-0.19809578
2	0xbd2b90ee	-0.041886263
3	0x3daf4364	0.085577756
4	0xbe32273e	-0.17397782
5	0xbe6392d8	-0.22223985
6	0x3e9ab1e6	0.3021385
7	0xbdc82a2c	-0.09773669
8	0x3e96445e	0.29349035
9	0x3e60e0ea	0.21960798
10	0x3e4aed97	0.19817196
11	0xbd3e459a	-0.046453096
12	0xbe91269d	-0.28349772
13	0x3d4cd2c6	0.050005697
14	0x3d815050	0.063141465
15	0xbe24547c	-0.16047853
16	0xbbd680ce	-0.0065461164
17	0x3d640ba8	0.05567518
18	0xbe5f87a4	-0.21829087
19	0xbe9cad4b	-0.30600962
20	0xbd90e5df	-0.070750944
21	0xbdf05af6	-0.117360994
22	0x3d4f6761	0.0506357
23	0xbd35f6a4	-0.044424668
24	0x3de3f656	0.11130969
25	0x3d0fac0d	0.03507619
26	0x3e7f8dbb	0.2495641
27	0x3e5b3314	0.21406204
28	0xbe3810a0	-0.17975092
29	0x3ea2b777	0.31780598
30	0x3e530b75	0.2060984
31	0x3dcbfe30	0.09960592
32	0x3e5bda04	0.21469885
33	0xbe6a4ba4	-0.22880417
34	0xbe37d1ef	-0.17951177
35	0xbe76dbbe	-0.24107262
36	0x3e5dcf3f	0.2166109
37	0xbd3158a1	-0.043297414
38	0xbe7d1fed	-0.2471921
39	0x3e394eb6	0.18096432
40	0xbe77821e	-0.2417073
41	0xbca22e1b	-0.019797375
42	0xbe3c7a66	-0.18406066
43	0x3e539862	0.20663598
44	0x3e6094d3	0.21931772
45	0xbe5eacb6	-0.21745571
46	0x3e244881	0.16043283
47	0x3e3af627	0.18257962
48	0xbe2231bf	-0.15839289
49	0xbde69a2f	-0.11259877
50	0xbe5d703b	-0.21624844
51	0x3e47c070	0.19507003
52	0xbe599c54	-0.2125104
53	0xbcc1d4fa	-0.023661125
54	0xbe048917	-0.1294292
55	0xbe4030c6	-0.18768606
56	0xbd078ef9	-0.033095334
57	0xbd25e416	-0.040500723
58	0x3e2c764b	0.16842
59	0xbe78ec1b	-0.24308817
60	0x3d8a5f6d	0.06756482
61	0xbe33ef23	-0.17571692
62	0x3e4799d1	0.1949227
63	0x3e5ef3a9	0.21772636
64	0x3e6d081a	0.23147622
65	0x3e37fe73	0.17968158
66	0xbd8cfbdd	-0.068839766
67	0x3c1e6b26	0.009669101
68	0xbe37ab77	-0.17936502
69	0xbe2f7a03	-0.17136388
70	0x3e73ac2b	0.23796146
71	0x3e621dba	0.22081652
72	0x3e8e57f5	0.2780148
73	0x3e7318fd	0.23740001
74	0xbd0b6f13	-0.034041476
75	0xbd9aeb51	-0.07564414
76	0x3c94d1a3	0.018166369
77	0xbe2da5c2	-0.16957763
78	0xbe49168d	-0.19637509
79	0xbe3a2b78	-0.18180645
80	0xbea0d286	-0.31410617
81	0xbd19c8e3	-0.037545096
82	0x3daca0b5	0.0842909
83	0x3ce39370	0.027780265
84	0x3d7e7115	0.062119562
85	0x3d9be9b5	0.076129355
86	0x3daefc0a	0.085441664
87	0x3d7ec2b7	0.062197413
88	0xbce95821	-0.028484406
89	0xbe578d4c	-0.21049994
90	0xbdc76048	-0.09735161
91	0x3bd5bec4	0.006522985
92	0x3e00830d	0.12549992
93	0xbdd28487	-0.10279184
94	0x3dbf7b7a	0.09349723
95	0x3e2e6343	0.17030053

linear.bias f4 [2]
0	0x3e517245	0.20453747
1	0x3e3ff485	0.1874562
