cheakpoint/training_epochs_100_stepsize_7_gamma_0.75/model_epoch80.pth (torch, 117569 bytes, 10 tensors)

lstm.weight_ih_l0 f4 [192, 2]
0	0x3d8649a7	0.06557017
1	0xbdc3928c	-0.09549436
2	0x3e272da0	0.16325998
3	0xbd37ab5d	-0.04484116
4	0xbed527b2	-0.41631848
5	0xbc808ec0	-0.015693069
6	0x3b0760c3	0.002065704
7	0x3cee7343	0.029107695
8	0x3e0e1e6a	0.1387879
9	0x3dcc0c31	0.09963263
10	0xbe12b056	-0.1432508
11	0x3d70894e	0.058724694
12	0x3d11f203	0.03563119
13	0x3e2743f6	0.16334519
14	0xbe1b87c9	-0.15188517
15	0xbe3ab73d	-0.18233962
16	0x3c77d3ee	0.015126212
17	0x3da2493e	0.07924126
18	0x3ce88d48	0.02838768
19	0xbc8aaadd	-0.016927177
20	0xbeba96f5	-0.36443296
21	0xbe13bef1	-0.14428307
22	0x3e3a6490	0.18202424
23	0x3e2af131	0.1669357
24	0xbd880fd5	-0.06643645
25	0xbcdb6852	-0.026783142
26	0xbd8dbd47	-0.069208674
27	0xbd4f7642	-0.05064989
28	0x3e909699	0.28239897
29	0xbd17557e	-0.036946766
30	0xbe80a6fe	-0.25127405
31	0x3e11574c	0.14193457
32	0x3e893604	0.26799023
33	0x3d2ce382	0.042209156
34	0x39958ad3	0.00028522927
35	0xbe754da1	-0.23955394
36	0xbe098f21	-0.13433506
37	0xbd99c54e	-0.07508336
38	0x3e6c2d6f	0.23064207
39	0x3ed4a839	0.41534594
40	0xbe1fede4	-0.15618092
41	0xbd03a2e7	-0.032137778
42	0x3e9312f3	0.28725395
43	0x3e61a264	0.22034603
44	0x3e6bafae	0.23016235
45	0x3ebf3f51	0.37352994
46	0xbd05f290	-0.03270203
47	0x3c8d41db	0.017243316
48	0xbde573f7	-0.11203759
49	0xbe39f46c	-0.18159646
50	0xbdf0759b	-0.117411815
51	0xbe2675ed	-0.16255923
52	0x3d9154f2	0.0709628
53	0xbd20445e	-0.0391277
54	0xbd849cba	-0.06475206
55	0xbdbc1d64	-0.09185293
56	0xbd93be4e	-0.07214032
57	0x3e044101	0.12915422
58	0x3ec5a8d3	0.38605365
59	0x3e85de77	0.2614629
60	0xbd33b2d1	-0.043871704
61	0xbe4db22a	-0.20087495
62	0x3ea6dad4	0.32588828
63	0x3e1feb97	0.15617214
64	0x3dd35aab	0.10320028
65	0xbd8cc425	-0.06873349
66	0xbd028a40	-0.031870127
67	0xbc92063d	-0.01782524
68	0x3edb96e1	0.4288855
69	0x3ee72ea0	0.4515276
70	0xbe219eae	-0.15783188
71	0xbe4020aa	-0.1876246
72	0x3d0554b0	0.032551467
73	0xbde45bb5	-0.11150304
74	0x3eb0b936	0.34516305
75	0xbde81bdf	-0.11333441
76	0xbeb0c82c	-0.3452772
77	0x3e0f0294	0.13965827
78	0x3da593bb	0.08084818
79	0x3e765290	0.24054933
80	0x3e08faaa	0.13376871
81	0xbdb3644b	-0.08759364
82	0x3e0ba590	0.13637376
83	0x3d101ac0	0.03518176
84	0x3d5332e7	0.051562216
85	0x3e4f6227	0.20252286
86	0xbe3e1f44	-0.18566614
87	0xbb9a8ebe	-0.004716723
88	0xbe7d0af1	-0.24711205
89	0xbe82177a	-0.25408536
90	0x3ed15268	0.40883183
91	0xbce05211	-0.027382882
92	0xbe6dcc5a	-0.23222485
93	0xbea3ec3d	-0.32016173
94	0x3dc8bf09	0.09802062
95	0x3e65582f	0.2239692
96	0x3e366bf5	0.1781462
97	0x3e5cebf2	0.21574381
98	0x3ce6196b	0.028088292
99	0xbd82931f	-0.06375717
100	0xbedf34ef	-0.43595073
101	0x3dad6d8b	0.08468159
102	0xbe177246	-0.14789686
103	0x3d8809bf	0.06642484
104	0x3e1a934e	0.15095255
105	0x3ea8423d	0.32863036
106	0xbe7535c3	-0.2394629
107	0xbdc12d0f	-0.09432422
108	0xbbd74273	-0.0065692007
109	0xbd19c4e5	-0.03754129
110	0xbe5b5aad	-0.21421309
111	0xbe3b2138	-0.1827439
112	0x3e82aabd	0.25520888
113	0x3e8490c2	0.2589169
114	0xbe5e4b98	-0.21708524
115	0xbde4dab5	-0.111745276
116	0xbe3f78b5	-0.1869839
117	0x3dae461c	0.08509466
118	0x3e0dd395	0.13850243
119	0x3e04613f	0.12927721
120	0x3ca15cfb	0.019697657
121	0x3e16ed17	0.1473888
122	0xbe2b2215	-0.1671222
123	0xbdb5f3f0	-0.08884418
124	0x3e801998	0.25019526
125	0xbe244d9b	-0.16045229
126	0xbd896c4b	-0.06710108
127	0x3d464b54	0.048411682
128	0x3d9ca539	0.07648701
129	0xbd92028b	-0.07129391
130	0xbcf55380	-0.029947042
131	0xbd07c1bf	-0.033143755
132	0x3dbfeb68	0.09371072
133	0xbe020a7a	-0.12699309
134	0x3da14a59	0.07875509
135	0x3e4ecf87	0.20196353
136	0xbe494f40	-0.19659138
137	0x3db4290f	0.08796894
138	0x3e934ae3	0.28768072
139	0x3e89fc76	0.26950425
140	0x3d7388d7	0.059456673
141	0xbd39c710	-0.045355856
142	0xbdfb464a	-0.12269266
143	0x3d062e5f	0.032759067
144	0xbc471618	-0.012151264
145	0xbbd01d43	-0.0063511445
146	0xbdbc79e3	-0.092029355
147	0xbd72a00f	-0.059234675
148	0x3db8ce27	0.090236954
149	0x3d4b5f65	0.049651522
150	0xbd1b1bbd	-0.03786825
151	0xbdb814da	-0.08988352
152	0xbd847a05	-0.06468586
153	0x3eb05393	0.34438762
154	0x3ddb89b7	0.107196264
155	0x3d204dd6	0.03913673
156	0x3cd4e2a0	0.02598697
157	0xbe711b4f	-0.23545574
158	0xbc8c92bb	-0.01715981
159	0xbd864bda	-0.06557436
160	0x3d2d543d	0.042316664
161	0xbe9c4e73	-0.30528602
162	0x3ce84f3a	0.02835809
163	0x3dca4bb1	0.09877718
164	0x3debdab5	0.115163244
165	0x3d7255cf	0.059163865
166	0x3dfa257d	0.122141816
167	0xbd371778	-0.044700116
168	0xbe4a9288	-0.1978246
169	0xbe84d6c6	-0.2594511
170	0x3e3d8ed7	0.1851152
171	0xbe1080b7	-0.14111601
172	0xbf00ace6	-0.5026382
173	0x3e4e6d56	0.20158896
174	0xbd0bcd75	-0.034131486
175	0x3c94998e	0.018139627
176	0xbd3287e9	-0.043586645
177	0x3e3f0fca	0.18658367
178	0x3dac10ce	0.08401643
179	0xbdcff646	-0.10154395
180	0xbd1e927d	-0.03871392
181	0x3e6f6384	0.23377806
182	0x3daedd76	0.08538334
183	0x3e23bca0	0.15989923
184	0xbe3ecf95	-0.18633874
185	0xbe85d00a	-0.26135284
186	0xbe0ac43f	-0.13551424
187	0x3d68f7b7	0.056876864
188	0xbe087075	-0.13324149
189	0xb954a569	-0.00020279516
190	0x3d64e243	0.055879842
191	0x3da2474f	0.07923757
192	0x3e632f70	0.22186065
193	0x3da29181	0.07937909
194	0x3ea74305	0.3266832
195	0xbe817b63	-0.2528945
196	0x3eac536e	0.33657402
197	0x3e2a5129	0.16632523
198	0xbe862955	-0.2620341
199	0x3e568c86	0.20952043
200	0x3cc34d6d	0.02384063
201	0xbeba7189	-0.36414745
202	0xbe80f8ba	-0.25189763
203	0xbec2c5b4	-0.3804146
204	0x3e45c705	0.19314201
205	0x3e8e2c56	0.277682
206	0x3d8dca43	0.06923344
207	0x3d661e3c	0.056181177
208	0xbe8d7513	-0.27628383
209	0xbe11f87c	-0.14254946
210	0xbe9a3ebb	-0.30125985
211	0x3e362bbb	0.1779012
212	0x3e50fd21	0.20409061
213	0x3dee132d	0.11624751
214	0x3e8f9c75	0.28049055
215	0x3dfa45ea	0.12220366
216	0x3d19ca07	0.037546184
217	0xbe11717e	-0.1420345
218	0xbe72699f	-0.23673104
219	0x3e9d5b59	0.30733755
220	0xbeb246de	-0.34819692
221	0x3dfeb9e3	0.12437799
222	0xbe797bba	-0.24363604
223	0xbe824d01	-0.25449374
224	0xbea4d9c9	-0.32197407
225	0x3ea466b3	0.32109603
226	0xbebb97a4	-0.3663913
227	0xbcd8c9b0	-0.02646336
228	0xbe83d1f9	-0.25746134
229	0x3e5d25f5	0.2159651
230	0x3e95b4fe	0.2923965
231	0xbec5cf26	-0.38634604
232	0x3db728c5	0.08943323
233	0x3e38e49b	0.18055956
234	0x3ea27ee8	0.31737447
235	0x3e98e482	0.29861838
236	0xbe3ad9be	-0.18247125
237	0xbe708231	-0.23487164
238	0x3d7865df	0.060644027
239	0x3e97e8c8	0.29669785
240	0x3dab1790	0.083541036
241	0xbeb63820	-0.35589695
242	0x3e4f3a3e	0.20237061
243	0xbe9139d0	-0.2836442
244	0x3ecb67cd	0.3972763
245	0x3e59c0fb	0.21265022
246	0xbe83b51b	-0.2572411
247	0x3e83907c	0.2569617
248	0xbd7fb313	-0.062426638
249	0x3e6be64b	0.23037069
250	0xbefd431d	-0.49465266
251	0x3ce97c8c	0.028501771
252	0xbd9616b1	-0.07328547
253	0x3e5aec9b	0.2137932
254	0x3e979488	0.29605508
255	0xbeac9fcb	-0.33715662

lstm.weight_hh_l0 f4 [192, 48]
0	0xbdb096b9	-0.08622498
1	0x3ad0ef0a	0.001594038
2	0x3eaa3a70	0.3324771
3	0x3df7ac49	0.12093408
4	0x3d549b50	0.05190593
5	0xbe015911	-0.12631632
6	0xbcb54f2e	-0.022132482
7	0x3cd356b9	0.025798189
8	0x3d4d4d26	0.050122403
9	0xbc033f81	-0.008010746
10	0x3dbf5a98	0.09343451
11	0x3da3a74a	0.07990892
12	0x3db4910e	0.088167295
13	0xbe1df528	-0.15425551
14	0x3e158061	0.14599754
15	0xbca0d0e2	-0.019630853
16	0x3e97b63c	0.2963122
17	0x3def91c4	0.116977245
18	0x3e0b65f0	0.13613105
19	0xbea69d55	-0.3254191
20	0x3dcd7ec5	0.10033945
21	0xbc61195d	-0.013738957
22	0xbe50d569	-0.2039391
23	0x3d8f43b7	0.069953375
24	0x3d222705	0.039587993
25	0xbc8a07b8	-0.016849384
26	0xbdfe426c	-0.12415013
27	0x3e6c2192	0.23059681
28	0x3bbf5498	0.005838942
29	0x3dd232cb	0.10263594
30	0x3d58bc24	0.0529138
31	0xbe52c6a2	-0.20583585
32	0x3be1e951	0.0068942686
33	0xbe198711	-0.1499293
34	0xbca8134e	-0.020517018
35	0x3d85d2d6	0.065343544
36	0xbc7d08ed	-0.015444023
37	0xbdcfb4dc	-0.10141918
38	0xbe1923ba	-0.14955035
39	0x3d5d9416	0.054096304
40	0xbdbeb39e	-0.09311603
41	0xbd6978a3	-0.056999814
42	0xbd0ae287	-0.03390744
43	0xbe75f988	-0.2402097
44	0x3dc4ed47	0.096155696
45	0xbe5ac148	-0.21362793
46	0xbe525329	-0.20539536
47	0xbe962021	-0.29321387
48	0x3d345fd0	0.044036686
49	0x3e0da4ee	0.13832447
50	0xbe6bc6cf	-0.23025058
51	0xbeaf473c	-0.34234035
52	0xbb00e5cc	-0.001966822
53	0x3dd5493b	0.10414358
54	0x3e8939f8	0.2680204
55	0x3dfa3bc0	0.12218428
56	0xbdf3e41b	-0.11908742
57	0xbdba8cda	-0.091088966
58	0xbe2034f5	-0.15645202
59	0xbe120d67	-0.14262925
60	0xbc5d0178	-0.01348912
61	0xbc8936d5	-0.016749779
62	0xbd4731d6	-0.04863151
63	0xbd6ecafd	-0.058299053
64	0xbea345f3	-0.31889305
65	0xbe64c424	-0.22340447
66	0xbda95704	-0.0826855
67	0x3e9a632a	0.3015378
68	0xbd9bb3c5	-0.07602648
69	0xbe23d8c6	-0.16000661
70	0x3de2f46e	0.110817775
71	0x3c0a5969	0.008444169
72	0x3db6756e	0.08909117
73	0x3da75098	0.08169669
74	0x3e600a65	0.21878965
75	0xbe065675	-0.13118918
76	0xbc7bb4c3	-0.015362921
77	0xbe3b9dcb	-0.18321912
78	0xbd1fa2f2	-0.038973756
79	0x3ed5ad4c	0.41733778
80	0x3df0c0b8	0.11755508
81	0x3e8cb061	0.27478316
82	0xbe3e2a4d	-0.18570824
83	0x3dddbd7f	0.10827159
84	0x3da9c9c3	0.08290436
85	0x3cffcd83	0.031225925
86	0x3e1b9375	0.15192969
87	0xbe061d51	-0.13097121
88	0x3d22c6a8	0.039740235
89	0xbb3430c1	-0.002749488
90	0x3d4872b2	0.048937507
91	0x3e86edc8	0.26353288
92	0x3c0d6257	0.008629403
93	0x3e01d463	0.12678675
94	0x3e6d5af9	0.23179235
95	0x3e8a223b	0.2697924
96	0xbdd545e8	-0.10413724
97	0xbd9b23b5	-0.0757517
98	0xbec0b96d	-0.3764147
99	0x3edbd95c	0.4293927
100	0x3db22ff3	0.08700552
101	0x3e3587af	0.1772754
102	0xbdb76ecc	-0.0895668
103	0xbe9bec6f	-0.30453822
104	0x3e927648	0.28605866
105	0x3ec629ea	0.38703853
106	0xbd63f1f0	-0.05565065
107	0xbee003e2	-0.43752962
108	0x3cac7a5b	0.021054437
109	0x3ed8407f	0.42236707
110	0x3ebaa27c	0.3645209
111	0x3eb6e92f	0.3572478
112	0x3f038ece	0.5138978
113	0x3eb72746	0.3577215
114	0x3e864ed5	0.2623202
115	0xbe6a64e9	-0.22890057
116	0xbdfd67db	-0.123733245
117	0xbecb8688	-0.39751077
118	0x3e800407	0.25003073
119	0x3d11e905	0.035622615
120	0xbe610fc1	-0.21978666
121	0xbe77fb88	-0.24217045
122	0xbee5de95	-0.4489638
123	0x3e1dcb55	0.15409596
124	0x3d64ff54	0.055907562
125	0x3f55db36	0.83537614
126	0x3eb01733	0.343927
127	0xbf13b0eb	-0.5769183
128	0xbea9b845	-0.331484
129	0x3e5f2799	0.21792449
130	0x3e4c5bc0	0.19956875
131	0xbe4931a2	-0.1964784
132	0xbeb39ec1	-0.35082057
133	0xbf23b3e9	-0.63946396
134	0xbe38361a	-0.17989388
135	0xbd2a43c1	-0.04156852
136	0x3d140f8a	0.03614763
137	0xbde0a302	-0.10968591
138	0xbeb819da	-0.35957223
139	0x3cfd54aa	0.03092416
140	0xbd9ccdad	-0.07656417
141	0xbe8778bf	-0.2645931
142	0xbe5eed95	-0.21770318
143	0xbe7769eb	-0.24161498
144	0xbdcb872f	-0.099378936
145	0x3e6855ed	0.22689028
146	0xbe734b2a	-0.23759142
147	0x3ca23f3b	0.019805541
148	0x3d0528ff	0.0325098
149	0xbd420fe7	-0.047378447
150	0x3da262a1	0.07928968
151	0xbd564ff6	-0.05232235
152	0xbcaf81aa	-0.021424133
153	0xbd5e791f	-0.05431473
154	0xbe2e7d98	-0.17040098
155	0x3b547850	0.0032420345
156	0xbbb88ce7	-0.0056320312
157	0x3d6b8cb6	0.05750724
158	0xbd8e985e	-0.069626555
159	0xbc6e359a	-0.014539147
160	0xbe3fe34c	-0.1873905
161	0xbe1757da	-0.14779606
162	0xbe34d17b	-0.17658035
163	0x3ee3ced4	0.44493735
164	0xbdb5e832	-0.08882178
165	0xbe5da2db	-0.21644156
166	0x3e1dea01	0.15421297
167	0x3dd189ca	0.10231359
168	0xbdf12cb6	-0.11776106
169	0xbe00f825	-0.1259466
170	0xbdb24138	-0.08703846
171	0x3d6b717d	0.057481278
172	0xbe5569c4	-0.20841128
173	0xbd308c40	-0.043102503
174	0xbdd0922d	-0.10184131
175	0x3e62f5a7	0.22164021
176	0xbd3b0b29	-0.04566494
177	0x3e70d15e	0.23517367
178	0x3e810c73	0.2520481
179	0x3e48094c	0.19534796
180	0x3ce8b081	0.028404476
181	0x3d254a4e	0.040354066
182	0x3dcbee97	0.09957617
183	0xbe9cd0b5	-0.3062798
184	0xbda0f960	-0.078600645
185	0x3e1c348e	0.15254423
186	0x3dfca3e7	0.123359494
187	0x3e0d394f	0.13791393
188	0x3dcba2ab	0.09943136
189	0x3e3a7d2e	0.18211815
190	0x3e2fbed7	0.17162643
191	0x3e94b2d6	0.2904269
192	0x3e65fc11	0.22459437
193	0x3d8bdaed	0.06828866
194	0x3ee3cdf7	0.44493076
195	0xbda8e6c8	-0.08247143
196	0x3e2e2ad0	0.17008519
197	0x3e2f37b6	0.17111096
198	0xbe07cef5	-0.13262542
199	0x3e06d534	0.13167268
200	0x3d7e803f	0.062134024
201	0xbea82e45	-0.328478
202	0x3db9d23a	0.09073301
203	0x3d8f1447	0.069862895
204	0xbd6ea15a	-0.058259346
205	0xbe98e38a	-0.298611
206	0xbe11174b	-0.14169042
207	0x3c01a9da	0.007914031
208	0x3c825244	0.015908368
209	0xbd20d01a	-0.03926096
210	0xbe214014	-0.157471
211	0x3e4710f1	0.19440056
212	0x3e107691	0.1410773
213	0xbdf751eb	-0.120761715
214	0x3eb07735	0.34465948
215	0xbdb1e4e0	-0.086862326
216	0xbd3f5af7	-0.04671761
217	0x3e84b17c	0.2591666
218	0xbcd778dc	-0.026302747
219	0xbdd92c25	-0.10604123
220	0xbe154994	-0.14578849
221	0xbdde2a81	-0.10847951
222	0xbd824a9d	-0.063618876
223	0x3e2543d8	0.16139162
224	0x3e98649a	0.29764253
225	0xbd8cfd1b	-0.068842135
226	0x3df6532c	0.120275825
227	0x3e01fe19	0.12694587
228	0x3d8170ef	0.063203685
229	0x3e8558eb	0.26044402
230	0x3edc4819	0.43023756
231	0xbdbdcef3	-0.09267988
232	0x3e1ddf08	0.15417111
233	0x3b758a61	0.0037466513
234	0xbdb3e74e	-0.08784352
235	0x3ca41f95	0.02003459
236	0xbcf7018c	-0.030152105
237	0x3dd47ee4	0.10375765
238	0xbcc80c59	-0.02441995
239	0x3e981dba	0.2971018
240	0x3edbda5c	0.42940032
241	0x3e9bc5f7	0.30424473
242	0x3f1b2e3d	0.6061743
243	0x3d92aae4	0.07161501
244	0xbd3caba6	-0.046062134
245	0x3e8bef47	0.27330992
246	0xbddda1ce	-0.108218774
247	0xbd98ae44	-0.074551135
248	0xbe9bcbd1	-0.30428937
249	0xbee5ee60	-0.44908428
250	0x3e2de3de	0.16981456
251	0x3df7cdc4	0.120997936
252	0xbe4635b9	-0.19356431
253	0xbdc6c4f6	-0.09705536
254	0xbda2cebd	-0.079495884
255	0xbe4c3cb3	-0.1994503

lstm.bias_ih_l0 f4 [192]
0	0x3dace3c8	0.08441883
1	0xbd04ca16	-0.032419287
2	0xbe822f24	-0.2542659
3	0xbdd031ef	-0.10165774
4	0x3e25043d	0.16114898
5	0xbd79acbe	-0.060955755
6	0xbdd2ddd6	-0.10296218
7	0xbe225b12	-0.15855053
8	0x3d79a39c	0.060947046
9	0x3d685482	0.056721218
10	0xbe5bd6e1	-0.21468689
11	0xb7bc5a4d	-2.2453396e-05
12	0xbdcc2368	-0.09967691
13	0x3ce74d3f	0.028235076
14	0xbd6db777	-0.058036294
15	0xbd07195c	-0.03298317
16	0xbcc118f0	-0.023571461
17	0xbe04712a	-0.12933794
18	0xbd14ec1e	-0.03635799
19	0x3e7a793a	0.24460307
20	0xbe5d4ce9	-0.2161137
21	0x3d53d41a	0.051715948
22	0x3e6bab8d	0.2301466
23	0x3d41e9a3	0.047341954
24	0xbdd060bf	-0.10174703
25	0xbca032b9	-0.019555436
26	0x3e40f18b	0.18842141
27	0xbc912597	-0.01771812
28	0xbe5ddcaa	-0.21666208
29	0x3eb83c12	0.3598333
30	0xbd20ea96	-0.03928622
31	0xbcf2a741	-0.029620769
32	0x3dc33c10	0.095329404
33	0xbd64449c	-0.055729493
34	0x3e3dd7ed	0.185394
35	0xbe0a8208	-0.13526165
36	0xbe51b7d1	-0.20480277
37	0xbd87b48d	-0.06626234
38	0xbdd972fb	-0.10617634
39	0xbe15ca11	-0.14627863
40	0xbe274e3c	-0.16338438
41	0x3e04e26f	0.12977003
42	0x3e1cd2dd	0.15314813
43	0xbe22ca2d	-0.15897436
44	0xbe8a6727	-0.27031824
45	0x3e99393a	0.29926473
46	0xbe68cc22	-0.2273412
47	0xbddb363f	-0.10703706
48	0x3e845f92	0.25854164
49	0xbe32025b	-0.17383711
50	0xbd4e52fb	-0.050372105
51	0xbcb270ca	-0.021782298
52	0x3eaa344d	0.33243027
53	0x3e169a69	0.1470734
54	0xbe5da6a1	-0.21645595
55	0xbd9db35d	-0.077002265
56	0x3e22a096	0.15881571
57	0xbe5b1a68	-0.21396792
58	0x3d570fa0	0.052505136
59	0x3ddc4eca	0.10757215
60	0x3da0ca50	0.07851088
61	0xbcdaea7f	-0.026723145
62	0xbe1e5905	-0.15463646
63	0xbd802961	-0.062578924
64	0xbd1c3d6f	-0.038144525
65	0xbd81bc52	-0.063347474
66	0xbe42dc3a	-0.19029322
67	0x3db3c2ba	0.087773755
68	0xbde88076	-0.11352627
69	0xbe1abf5a	-0.15112057
70	0xbe009245	-0.12555797
71	0xbda1ba1c	-0.07896826
72	0xbd4d52ed	-0.050127912
73	0xbddabec8	-0.1068092
74	0xbc3003aa	-0.010743061
75	0x3e122bc9	0.14274515
76	0x3dbf26b1	0.09333552
77	0xbd6c6fc4	-0.057723776
78	0xbdb211c7	-0.08694797
79	0xbafff675	-0.0019528406
80	0xbd9b48c9	-0.07582242
81	0x3e00ebf4	0.12590009
82	0xbd83cc94	-0.064355046
83	0xbd6a2e55	-0.057173092
84	0xbe79c1a1	-0.2439027
85	0xbe1ad543	-0.15120415
86	0x3d198d25	0.03748812
87	0x3d5c87e6	0.05384054
88	0xbe12ce3e	-0.14336488
89	0x3d9d5255	0.07681719
90	0xbda8e388	-0.08246523
91	0x3c315db2	0.010825561
92	0xbeb3615d	-0.3503522
93	0xbc1110ed	-0.008854133
94	0x3db22d87	0.0870009
95	0xbdddefb3	-0.108367346
96	0xbd28963c	-0.0411589
97	0xbbe27335	-0.0069107064
98	0xbe39e380	-0.1815319
99	0xbd864b33	-0.06557312
100	0x3c544c85	0.012957697
101	0x3df5eaa8	0.12007648
102	0xbdc0506f	-0.093903415
103	0xbd38c3c2	-0.045108564
104	0x3c962755	0.018329302
105	0x3d23881e	0.039924733
106	0xbe0f1326	-0.13972148
107	0xbdabafef	-0.08383166
108	0x3d85f30c	0.06540498
109	0xbddc5715	-0.10758797
110	0x3deba723	0.11506488
111	0xbc726cfd	-0.014796493
112	0x3dadef48	0.08492905
113	0x3e06f8a6	0.1318079
114	0xbc838f26	-0.01605947
115	0xba65bed5	-0.0008764093
116	0xbc68b875	-0.014204134
117	0xbe2714c1	-0.1631651
118	0x3d466383	0.048434746
119	0xbd3c6990	-0.04599911
120	0x3dfa02e2	0.12207581
121	0xbd1e7d3c	-0.03869365
122	0xbe5d1df5	-0.21593459
123	0xbc05bfee	-0.008163435
124	0xbd892152	-0.066958085
125	0x3e0172e8	0.1264149
126	0xbd140148	-0.036134034
127	0x3dc2ce5c	0.09512016
128	0x3ce0edff	0.027457235
129	0x3d4efa04	0.050531402
130	0x3e12fb5e	0.14353701
131	0xbc582c07	-0.013194091
132	0x3bb979d8	0.005660277
133	0xbaaf0bd0	-0.0013354961
134	0xbdfe7925	-0.1242545
135	0xbd8956e8	-0.06706029
136	0x3e2cc627	0.16872464
137	0xbe866bef	-0.26254222
138	0xbe355f03	-0.17712025
139	0x3c7ca14f	0.015419318
140	0x3d82fea0	0.06396222
141	0x3d7b36e5	0.06133165
142	0xbe1e08a1	-0.15432979
143	0xbcba9ce4	-0.02277989
144	0x3d8ddf09	0.06927306
145	0xbdad497f	-0.08461284
146	0xbd7ab89a	-0.061211206
147	0x3ddafa5d	0.10692284
148	0xbcfc694f	-0.030811934
149	0x3e39b54c	0.18135566
150	0xbe3eac5e	-0.1862044
151	0xbe086e83	-0.13323407
152	0x3e20928a	0.156809
153	0xbdb56df4	-0.088588625
154	0xbdbe370f	-0.09287845
155	0x3da6febf	0.08154058
156	0xbe421c5c	-0.1895613
157	0x3e0e01e8	0.13867915
158	0x3c7d334e	0.0154541265
159	0xbda97bf5	-0.08275596
160	0x3e90e64a	0.28300697
161	0xbe003eca	-0.12523952
162	0xbd96e3ad	-0.073676445
163	0x3dd72fbf	0.10507154
164	0xbdefa603	-0.11701586
165	0x3de77b0e	0.11302768
166	0x3e65e5a2	0.22450879
167	0x3d62133a	0.055194117
168	0xbe44a44f	-0.19203304
169	0x3d061ace	0.032740407
170	0x3e47d3b4	0.19514352
171	0x3e15830d	0.14600773
172	0xbd749d14	-0.059720114
173	0x3ec79489	0.3898051
174	0x3cf4a919	0.029865788
175	0x3e5d5a06	0.21616372
176	0xbdded146	-0.108797595
177	0xbd9e3fe4	-0.0772703
178	0x3e26949b	0.16267626
179	0xbe27d643	-0.16390328
180	0xbd9caafb	-0.076497994
181	0x3dc66db4	0.09688893
182	0xbd8aa170	-0.06769073
183	0xbc999848	-0.018749371
184	0x3c08c9c4	0.008348886
185	0x3d8a3b27	0.06749564
186	0x3e1176ed	0.14205523
187	0xbe4bd92d	-0.19907065
188	0xbe8d4693	-0.27592906
189	0x3ea528e5	0.32257763
190	0xbe9582d6	-0.29201382
191	0x3deb834e	0.11499654

lstm.bias_hh_l0 f4 [192]
0	0xbd0b57c2	-0.03401924
1	0x3d9adfbf	0.075622074
2	0xbe90fdf1	-0.28318742
3	0xbe0005b4	-0.12502176
4	0x3e30cfba	0.17266741
5	0x3e19654a	0.14980045
6	0xbdbbce84	-0.09170249
7	0xbea23291	-0.31679204
8	0x3db5e73f	0.08881997
9	0x3ddf6f48	0.10909897
10	0xbd5abe99	-0.053404424
11	0x3e0e9fa8	0.13928092
12	0xbe2381ad	-0.15967436
13	0xbc862560	-0.016375244
14	0xbdd57905	-0.10423473
15	0xbe0b9a2e	-0.13633034
16	0x3d34df6e	0.04415839
17	0xbb61a893	-0.0034432753
18	0xbe3af5b3	-0.1825779
19	0x3e69041d	0.22755475
20	0xbe3399c9	-0.17539133
21	0xbb80f108	-0.003934983
22	0x3d91f62c	0.07127032
23	0xbcf9ccba	-0.030493129
24	0xbba602ce	-0.0050662523
25	0xbe36f31a	-0.17866173
26	0x3e08fda4	0.13378006
27	0xbe291f48	-0.16515839
28	0xbddf9437	-0.109169416
29	0x3ee46e4f	0.4461541
30	0xbe7723e4	-0.24134785
31	0x3df36de3	0.118861936
32	0xbc3a5068	-0.011371709
33	0xbe341862	-0.17587426
34	0x3dc90c09	0.09816749
35	0xbe5a1759	-0.21297969
36	0x3d0a86b8	0.033819884
37	0xbcd4f196	-0.025994103
38	0xbe13404c	-0.14379996
39	0x3b3030c1	0.0026884528
40	0x3d01e60d	0.031713534
41	0x3df117c6	0.117721125
42	0x3d60e6b1	0.054907504
43	0xbe0db9bb	-0.13840382
44	0xbe5a42d7	-0.2131456
45	0x3e4c2ba1	0.19938518
46	0xbe366699	-0.17812575
47	0x3d994808	0.07484442
48	0x3e7c24ba	0.24623385
49	0xbe46c49a	-0.19410935
50	0xbdf41b80	-0.11919308
51	0x3d3df6ea	0.046378054
52	0x3e3fa29b	0.18714373
53	0x3d9f14a5	0.077676095
54	0xbe6bd290	-0.23029542
55	0xbe1b2cb9	-0.15153779
56	0x3e5ecf8d	0.21758862
57	0xbcef5748	-0.029216424
58	0xbd506c81	-0.050884727
59	0xbd234c44	-0.039867654
60	0x3e65488d	0.22390957
61	0x3d023ae2	0.031794436
62	0xbe05d5f6	-0.13069901
63	0x3d1112ef	0.035418447
64	0x3b26a0ff	0.002542555
65	0xbd604bc7	-0.054759767
66	0xbe89b0e3	-0.26892766
67	0x3d8beda8	0.06832439
68	0x3c4a382c	0.012342494
69	0xbd8b0f7b	-0.06790062
70	0xbc4a185b	-0.012334908
71	0xbb81ea63	-0.0039647087
72	0xbdff9825	-0.12480191
73	0xbd8c9067	-0.0686348
74	0x3dcdfc86	0.10057931
75	0x3e28f583	0.16499905
76	0x3e255834	0.16146928
77	0x3db1235e	0.08649324
78	0x3c5713de	0.013127295
79	0xbe3ba144	-0.18323237
80	0xbddc3f89	-0.10754306
81	0xbbbc4c87	-0.0057464275
82	0xbe059cf0	-0.13048148
83	0x3d9ceaaf	0.0766195
84	0xbe5d700d	-0.21624775
85	0xbd881590	-0.06644738
86	0xbdceac31	-0.10091437
87	0xbd5613b2	-0.052264877
88	0x3d8e7652	0.069561616
89	0xbe39c6f7	-0.18142305
90	0xbd1f4880	-0.0388875
91	0xbcf53f07	-0.02993728
92	0xbe45ff39	-0.19335641
93	0x3db296b9	0.08720154
94	0xbce56820	-0.028003752
95	0xbd1fea02	-0.039041527
96	0xbdf424d0	-0.11921084
97	0xbc880837	-0.01660548
98	0x3cca9654	0.024729885
99	0x3d97bbe7	0.074088864
100	0x3daf3e0d	0.08556757
101	0x3e0fcf14	0.14043838
102	0xbdda45fb	-0.10657879
103	0x3c40ae3e	0.011760293
104	0x3de41a69	0.1113785
105	0xbb2c1e57	-0.00262632
106	0x3d163edf	0.036681052
107	0xbe1114c8	-0.14168084
108	0x3cff2ef8	0.031150326
109	0x3dae86f2	0.085218325
110	0xbc7acdba	-0.015307838
111	0x3e7bf390	0.2460463
112	0xbdf6e275	-0.12054912
113	0x3dbf610e	0.093446836
114	0xbb95e733	-0.0045746802
115	0x3d418bcf	0.047252472
116	0xbe0ca7a5	-0.13735826
117	0xbde0cb29	-0.1097625
118	0x3e0980d4	0.1342805
119	0xbddda8b3	-0.108231924
120	0x3cefa578	0.029253706
121	0x3d520240	0.051271677
122	0xbd3b63a2	-0.045749314
123	0x3d31cfb0	0.043410957
124	0xbc3afa6b	-0.011412243
125	0x3db42e4d	0.08797894
126	0xbd39b62b	-0.045339745
127	0xbd244643	-0.04010607
128	0x3d581b9b	0.0527607
129	0x3d444413	0.047916483
130	0x3de92493	0.11383929
131	0x3d092448	0.033481866
132	0x3cf1f9bc	0.029538028
133	0x3ce00f86	0.027351152
134	0xbe1560b9	-0.14587678
135	0xbd891948	-0.06694275
136	0xbacb8124	-0.0015526158
137	0x3baf6ab3	0.0053532957
138	0xbd8a0555	-0.06739298
139	0x3dd09a38	0.10185665
140	0xbd89edc3	-0.067348026
141	0x3dbac82c	0.09120211
142	0x3d8774b2	0.06614055
143	0xba59269c	-0.00082836463
144	0x3e6a7fc3	0.229003
145	0x3dccfdb3	0.10009327
146	0xbe916a87	-0.28401586
147	0x3ddedb8c	0.10881719
148	0x3df153ee	0.117835864
149	0x3e96347e	0.29336923
150	0xbe0bce20	-0.13652849
151	0xbe2b2169	-0.16711964
152	0x3d170562	0.036870368
153	0xbe16abcf	-0.14713977
154	0xbe7d04c4	-0.24708849
155	0x3d1ed8f2	0.038781114
156	0xbd87a4f5	-0.0662326
157	0x3d35b548	0.044362336
158	0x3bb49514	0.0055109356
159	0xbd92128a	-0.07132442
160	0x3e1785d7	0.1479715
161	0xbcc869f5	-0.024464587
162	0xbdee3c8b	-0.116326414
163	0x3e6d8699	0.23195876
164	0xbdfc0c71	-0.123070605
165	0xbc97d252	-0.018532906
166	0xbb804b00	-0.0039151907
167	0xbd7f1052	-0.062271424
168	0x3c3ce090	0.011528149
169	0xbaf2e731	-0.0018532035
170	0x3e993268	0.2992127
171	0x3e289ba7	0.16465627
172	0xbd4ddbfc	-0.05025862
173	0x3ecc90ce	0.39954227
174	0xbe50770e	-0.20357916
175	0x3e1fe76a	0.15615621
176	0x3d658314	0.05603321
177	0xbd8163d0	-0.06317866
178	0x3e9ef8d7	0.31049225
179	0xbe07e21b	-0.13269846
180	0xbe301767	-0.17196427
181	0x3e0b9177	0.13629709
182	0x3dbf5c37	0.093437605
183	0xbcc8cf56	-0.024512928
184	0xbdd67dbb	-0.104732
185	0xbd50a83d	-0.050941695
186	0x3e0d0f65	0.13775404
187	0xbe9ed595	-0.31022325
188	0xbed192ba	-0.40932256
189	0x3e66e794	0.22549278
190	0xbe141675	-0.14461692
191	0xbc5228e0	-0.012827128

lstm.weight_ih_l1 f4 [192, 48]
0	0xbd398b5e	-0.045298927
1	0xbce9f1bc	-0.02855765
2	0x3c84e97b	0.016224613
3	0x3e63b481	0.22236826
4	0xbe32fc51	-0.17479064
5	0xbdefc8c7	-0.11708217
6	0xbde6be91	-0.112668164
7	0xbd7ab873	-0.06121106
8	0x3e479db0	0.19493747
9	0x3c2f15a5	0.010686313
10	0x3d6d640f	0.05795675
11	0xbe4c16bb	-0.19930546
12	0x3cb1451a	0.021639396
13	0x3db00651	0.08594955
14	0x3df7352c	0.120706886
15	0x3daa6e60	0.083218336
16	0x3e801407	0.2501528
17	0x3e5c66e2	0.21523622
18	0xbd75e71d	-0.06003486
19	0xbde0aa36	-0.10969965
20	0xbcbed398	-0.023294255
21	0xbe620f60	-0.22076178
22	0x3ddc1f38	0.10748142
23	0x3ccba47a	0.024858702
24	0x3debe7e9	0.11518843
25	0x3c43d413	0.011952418
26	0xbe0cca76	-0.13749108
27	0x3e17b433	0.14814834
28	0x3e05496a	0.13016286
29	0x3f08e298	0.53470755
30	0xbe175ca4	-0.14781433
31	0xbe923c67	-0.28561708
32	0x3c4d3de4	0.012526963
33	0x3e4d1d8d	0.20030804
34	0x3e42fa16	0.19040713
35	0xbd5dd4c0	-0.054157972
36	0xbdded2bd	-0.10880039
37	0xbda64bc2	-0.081199184
38	0xbde311d1	-0.110873826
39	0xbda81116	-0.08206384
40	0xbda42111	-0.080141194
41	0xbe290500	-0.16505814
42	0xbacffe71	-0.0015868676
43	0xbe249906	-0.16073999
44	0x3dbddab6	0.092702314
45	0xbdc556ac	-0.09635672
46	0xbe0e5ab4	-0.13901788
47	0xbd919024	-0.07107571
48	0x3e826a08	0.2547152
49	0x3d168cb8	0.036755294
50	0x3e60ea50	0.21964383
51	0xbd62d33e	-0.055377237
52	0xbde5ba90	-0.112172246
53	0xbe00fd21	-0.12596561
54	0x3e5e7502	0.21724322
55	0x3e7e3299	0.24823989
56	0xbe851f98	-0.26000667
57	0xbda68c36	-0.08132212
58	0x3ceee7a8	0.029163197
59	0xbd4ec7a2	-0.050483353
60	0xbdade0e4	-0.0849016
61	0x3d9fa46a	0.07795031
62	0xbbdc7ecd	-0.006728983
63	0xbe88e8a3	-0.26739988
64	0xbcce4146	-0.02517761
65	0x3cbaa8d2	0.022785578
66	0xbe4b35b2	-0.19844702
67	0xbdfd0dc0	-0.12356138
68	0x3d5d7a51	0.05407173
69	0xbcbf9c26	-0.023389887
70	0xbdeff984	-0.11717513
71	0x3e230160	0.15918493
72	0xbdf8c748	-0.12147385
73	0x3d8e1f08	0.069395125
74	0x3e0bbd19	0.13646354
75	0xbe12c31d	-0.14332242
76	0xbda04494	-0.0782558
77	0x3b470c08	0.0030372161
78	0x3dd7637d	0.10517023
79	0xbd92c67d	-0.07166765
80	0xbb57971e	-0.003289647
81	0xbddba278	-0.10724348
82	0xbe9e056b	-0.3086351
83	0x3d87b98a	0.06627186
84	0xbe31cb97	-0.1736282
85	0xbd36e67b	-0.044653397
86	0x3e95c214	0.29249632
87	0x3de7c57b	0.11316963
88	0xbde89543	-0.113565944
89	0x3e3a8f14	0.18218642
90	0x3d824276	0.06360333
91	0xbcf4f006	-0.029899608
92	0x3e0b98cd	0.13632508
93	0x3c6cf32a	0.014462272
94	0xbe0b6722	-0.13613561
95	0xbd2a8fa0	-0.041640878
96	0x3d08b462	0.03337515
97	0xbe5436a9	-0.20723976
98	0xbe4b2fba	-0.19842425
99	0x3e60bfda	0.21948186
100	0xbe12aa43	-0.14322762
101	0xbed5797f	-0.41694257
102	0x3d675a15	0.056482393
103	0xbe31b8bb	-0.17355625
104	0xbd7412a4	-0.05958809
105	0x3e49535e	0.19660708
106	0xbd3e39a6	-0.046441697
107	0xbe6a954c	-0.22908515
108	0x3d898dc7	0.06716495
109	0x3e484439	0.19557275
110	0x3e080ade	0.13285396
111	0x3e9d86dd	0.30766955
112	0x3e80b706	0.25139636
113	0x3e4256b3	0.18978386
114	0x3d970c98	0.07375449
115	0x3d63ce82	0.055616863
116	0xbe2a75b2	-0.1664646
117	0x3baa3e6c	0.0051954295
118	0xbde3cc4f	-0.11122953
119	0x3df658bb	0.12028643
120	0xbb9ec221	-0.0048449193
121	0xbe9afbd8	-0.30270267
122	0xbe988c8c	-0.2979473
123	0x3edf8c23	0.43661603
124	0xbcbf7e85	-0.023375759
125	0x3ea26ceb	0.31723723
126	0xbd0bdc6c	-0.034145758
127	0xbd8c6b91	-0.06856454
128	0xbe241d04	-0.16026694
129	0x3e990637	0.29887554
130	0xbd9b5e58	-0.07586354
131	0x3d1ba930	0.038003147
132	0x3dae729a	0.08517952
133	0xbe1ab493	-0.15107946
134	0xbdb20bc6	-0.08693652
135	0xbda1806d	-0.078858234
136	0xbe8120c0	-0.252203
137	0x3cd44d6c	0.025915824
138	0x3cf0bf05	0.02938796
139	0x3d655a51	0.055994336
140	0x3e5b646e	0.2142503
141	0xbec8647b	-0.3913916
142	0xbdf7768c	-0.12083158
143	0xbd87c483	-0.066292785
144	0xbe500933	-0.20316009
145	0xbdf70713	-0.12061896
146	0xbe374def	-0.17900823
147	0x3e08208e	0.13293669
148	0xbe077720	-0.13229036
149	0xbebc9209	-0.36830166
150	0x3d65ca1a	0.056100942
151	0x3cf6fefa	0.03015088
152	0x3e570dfe	0.21001431
153	0x3cac3511	0.021021398
154	0xbd589098	-0.05287227
155	0xbe3c4581	-0.18385889
156	0xbdf77580	-0.12082958
157	0x3e944f06	0.2896654
158	0x3eaf48c7	0.34235212
159	0xbb2fd0de	-0.0026827375
160	0x3e1a6e97	0.15081249
161	0x3e963dc5	0.29344
162	0x3d4e762c	0.050405666
163	0xbd852f57	-0.0650317
164	0x3d58818d	0.052857924
165	0xbdca3c85	-0.098748244
166	0xbe330d06	-0.17485437
167	0xbc210780	-0.009828448
168	0xbdeb02ec	-0.11475167
169	0xbe67b748	-0.2262851
170	0xbddd7bd4	-0.10814634
171	0x3ebbab9b	0.36654362
172	0xbd05eebd	-0.03269838
173	0x3e7686b2	0.2407482
174	0xbe536314	-0.20643264
175	0xbe6b8036	-0.22998127
176	0xbda09de6	-0.07842617
177	0x3e38e96e	0.18057796
178	0x3cd4de6d	0.025984967
179	0xbdb2b224	-0.08725384
180	0xbb9237b9	-0.004462209
181	0xbe661113	-0.22467451
182	0xbde3dd07	-0.11126142
183	0x3c842b5e	0.01613396
184	0xbd8baa80	-0.0681963
185	0xbe21b660	-0.15792227
186	0x3c3fff7c	0.011718627
187	0x3d1f8f5b	0.038955074
188	0x3e5c5430	0.2151649
189	0xbdb2f407	-0.08737951
190	0xbeac3ec0	-0.33641624
191	0xbe391282	-0.18073466
192	0x3df9bf33	0.121946715
193	0xbd546ff3	-0.051864576
194	0x3e9f09c6	0.31062144
195	0x3e362bfb	0.17790215
196	0xbe9148cb	-0.2837585
197	0xbebfc57d	-0.3745536
198	0x3c1ed62d	0.009694618
199	0x3e202d8a	0.15642372
200	0xbea6b934	-0.32563174
201	0x3d9305f1	0.071788676
202	0x3e537a8c	0.20652217
203	0x3da93dc2	0.082637325
204	0x3d4381ec	0.047731325
205	0x3e09f238	0.13471305
206	0xbe5e42f3	-0.21705227
207	0xbe20e79d	-0.15713353
208	0x3e42cc2a	0.19023195
209	0xbe4d3ac1	-0.20041944
210	0x3da7f99b	0.08201905
211	0xbdd86fb1	-0.105681784
212	0x3e15f748	0.14645112
213	0x3dfef0ea	0.124482945
214	0xbeb2f658	-0.3495357
215	0x3e30e023	0.17273001
216	0xbe127500	-0.14302444
217	0xbd9b93c3	-0.07596543
218	0x3e3eaf13	0.18621473
219	0x3db30b27	0.087423615
220	0x3dccf102	0.10006906
221	0xbe9ac857	-0.30230972
222	0x3e05d672	0.13070086
223	0xbe94c669	-0.29057625
224	0xbddb4391	-0.10706247
225	0x3c3e6e78	0.0116230175
226	0xbe928175	-0.28614393
227	0xbcf4e822	-0.029895846
228	0xbdb68fc6	-0.08914141
229	0xbd0d5cb9	-0.034512255
230	0x3e087bed	0.13328524
231	0x3e90f6b0	0.28313208
232	0xbea7fcb2	-0.3280998
233	0x3e1d5e5f	0.15368031
234	0x3ee6ce88	0.45079446
235	0xbe9479ae	-0.28999084
236	0x3d6a56ff	0.057211872
237	0xbe1369eb	-0.14395873
238	0x3e369af1	0.17832543
239	0xbdd52d20	-0.104089975
240	0xbd1c60cd	-0.038178254
241	0x3e2f225d	0.17102952
242	0x3e125d78	0.14293468
243	0xbb8380fc	-0.004013179
244	0xbd23667d	-0.039892662
245	0x3d2b574a	0.041831292
246	0x3e7444c5	0.23854358
247	0x3e6e61e3	0.23279528
248	0xbd880be6	-0.066428944
249	0x3d633e3f	0.055479284
250	0x3d27f66a	0.041006483
251	0xbeaab368	-0.3334
252	0x3c5afcbe	0.0133659225
253	0xbd0e7dad	-0.034787823
254	0x3d413187	0.047166374
255	0x3d6eaa86	0.058268093

lstm.weight_hh_l1 f4 [192, 48]
0	0x3d940789	0.07228
1	0x3e0d6aff	0.13810347
2	0xbcffa926	-0.031208586
3	0x3dcc3148	0.09970337
4	0x3dbe6cdd	0.09298108
5	0x3e02df32	0.12780455
6	0xbe801139	-0.2501314
7	0x3b6ffb84	0.003661842
8	0xbca7276a	-0.020404536
9	0xbe9e25de	-0.30888265
10	0xbd9d4f8c	-0.07681188
11	0x3e449f1a	0.19201317
12	0x3e2b5ad0	0.16733861
13	0x3de4d709	0.11173827
14	0x3e044f9f	0.12920998
15	0x3daa1668	0.08305055
16	0xbd78dbd2	-0.060756512
17	0xbd25a835	-0.040443618
18	0x3e43cafa	0.19120398
19	0x3e8add8f	0.2712216
20	0x3da24c69	0.0792473
21	0x3d2d7edd	0.042357314
22	0xbb926a74	-0.0044682566
23	0x3da2b857	0.07945316
24	0xbdac0e87	-0.08401208
25	0xbd2be3f7	-0.04196545
26	0xbde85e78	-0.113461435
27	0xbe8a3418	-0.2699287
28	0x3e83dbe4	0.257537
29	0xbe531c59	-0.20616283
30	0x3dc95f5e	0.09832643
31	0xbdb88315	-0.09009377
32	0xbe62273d	-0.2208528
33	0xbd5bda84	-0.05367519
34	0x3db3f5d4	0.08787122
35	0x3e6f21df	0.23352765
36	0x3d6059ca	0.05477313
37	0xbe375ca3	-0.17906432
38	0x3dd59a0b	0.10429772
39	0xbe4c6328	-0.199597
40	0x3df39086	0.118928
41	0xbcf7484a	-0.030185837
42	0x3e50ab55	0.20377858
43	0x3bf87370	0.0075821206
44	0xbead8154	-0.33887732
45	0x3d9f7180	0.0778532
46	0xbe67b899	-0.22629012
47	0xbd2f2727	-0.042761948
48	0x3e295cf0	0.16539359
49	0x3e373280	0.17890358
50	0x3d923de4	0.07140711
51	0x3e136d74	0.14397222
52	0x3b874c18	0.004128944
53	0x3e26c6b5	0.16286738
54	0xbd28898a	-0.041146792
55	0xbd922358	-0.071356475
56	0x3d564bd2	0.0523184
57	0xbe55f767	-0.20895158
58	0x3d4600e5	0.048340697
59	0x3e233ffd	0.15942378
60	0x3e594080	0.21216011
61	0xbd545229	-0.051836167
62	0x3ad5d7d0	0.0016314927
63	0xbd7e15c1	-0.062032465
64	0xbd182311	-0.037142817
65	0xbc8d544f	-0.017252116
66	0x3db61138	0.08890003
67	0x3de8a1b8	0.113589704
68	0x3e677fa5	0.22607286
69	0x3e7592e3	0.23981814
70	0x3dca5a34	0.09880486
71	0xbc3f44ec	-0.011674147
72	0xbe09a364	-0.13441235
73	0xbd51272a	-0.05106274
74	0xbda2a8a5	-0.07942323
75	0xbd241462	-0.0400585
76	0x3ca82df2	0.020529721
77	0x3b446eb6	0.0029973215
78	0x3df55486	0.11979012
79	0x3dfa652d	0.12226329
80	0xbc641ace	-0.013922406
81	0x3e15a9f1	0.14615609
82	0xbcde2974	-0.027119376
83	0x3da7049e	0.081551775
84	0xbd439d6c	-0.04775755
85	0xbdb1a6e2	-0.086744085
86	0x3e5fb7f2	0.21847513
87	0xbe56b30a	-0.20966735
88	0x3e56579d	0.2093186
89	0xbdc57887	-0.096421294
90	0x3e8adac1	0.2712002
91	0xbd674294	-0.05645998
92	0xbe65776b	-0.22408836
93	0x3e6b3a88	0.22971547
94	0xbc10b5ff	-0.008832454
95	0xbe65c5e2	-0.22438768
96	0x3e2412e2	0.16022828
97	0xbd54229b	-0.051790815
98	0xbe2ad29e	-0.16681907
99	0x3dac0054	0.083985
100	0x3def4cd9	0.116845794
101	0x3dd9b2d4	0.10629812
102	0x3c8324dd	0.016008789
103	0xbcca7e71	-0.024718495
104	0xbe0c8699	-0.1372322
105	0x3db362b7	0.08759063
106	0xbe742170	-0.2384088
107	0xbba5b75f	-0.00505726
108	0x3d941505	0.07230572
109	0xbd861f48	-0.06548935
110	0xbd41e6cf	-0.047339257
111	0xba1b1906	-0.00059165095
112	0x3e12b90b	0.14328401
113	0xbd8959d3	-0.06706586
114	0x3e1a58ee	0.15072986
115	0x3e859dd9	0.2609699
116	0x3e2b936c	0.16755456
117	0x3e0dd285	0.13849838
118	0x3d4556a0	0.048178315
119	0x3e01870b	0.12649171
120	0xbd66c7f7	-0.056343045
121	0x3de98fc1	0.11404372
122	0xbdee8f02	-0.1164837
123	0xbe296e3b	-0.16545956
124	0x3ea5c0db	0.323737
125	0xbec35c49	-0.38156345
126	0xbe91579a	-0.28387147
127	0xbbc51242	-0.0060141394
128	0xbe801bd6	-0.25021237
129	0x3dd44bd2	0.10366024
130	0xbd0a5d66	-0.033780478
131	0x3ec41264	0.3829528
132	0xbd837388	-0.0641852
133	0xbd184369	-0.037173662
134	0xbd154456	-0.036442123
135	0x3c8e7a2c	0.01739224
136	0x3e6abcc0	0.22923565
137	0xbd0b0ab8	-0.03394577
138	0x3e7cec3f	0.24699496
139	0x3df6b8a5	0.12046937
140	0xbe01e644	-0.12685496
141	0x3c98a9d8	0.018635675
142	0x3c961065	0.018318364
143	0x3cd74529	0.026278095
144	0x3db64235	0.08899347
145	0x3e736d53	0.23772173
146	0xbe3d59d8	-0.18491304
147	0xbd97259e	-0.07380222
148	0x3ddf28bb	0.108964406
149	0x3cf04b25	0.029332707
150	0xbdeeb041	-0.116547115
151	0xbdf6f500	-0.12058449
152	0xbe174e8a	-0.14776054
153	0xbe41791a	-0.18893853
154	0xbe4cc498	-0.1999687
155	0x3d891c9c	0.0669491
156	0x3d9853d2	0.074378625
157	0x3e018c26	0.12651119
158	0x3dbd5afb	0.09245869
159	0x3d86d8aa	0.06584294
160	0xbd3c6984	-0.045999065
161	0xbd52999f	-0.051416036
162	0x3e19786f	0.14987348
163	0x3ea43b63	0.32076558
164	0x3e184838	0.148713
165	0x3e760b79	0.24027814
166	0xbe07169f	-0.13192223
167	0x3d0a834f	0.033816632
168	0x3e049f4d	0.12951393
169	0xbdc4f4ce	-0.09617005
170	0xbc7ece70	-0.015552148
171	0xbe7c8e82	-0.24663737
172	0x3e50c6c6	0.20388326
173	0xbdddc760	-0.108290434
174	0xbb6b0d50	-0.003586609
175	0xbdf5d20a	-0.120029524
176	0xbe1d8ab0	-0.15384936
177	0x3e565a6c	0.2093293
178	0x3ce74550	0.028231293
179	0x3df6686b	0.12031635
180	0xbe25d5e3	-0.16194873
181	0xbe8acb0f	-0.27108046
182	0x3e023f04	0.12719351
183	0xbdcfc9ee	-0.10145937
184	0x3e878330	0.26467276
185	0xbc384a4b	-0.011248182
186	0x3e222b89	0.1583692
187	0x3c487952	0.012235956
188	0xbdf83bf1	-0.12120808
189	0x3caebbe3	0.021329826
190	0xbe900493	-0.2812849
191	0xbdc847c7	-0.097793154
192	0xbda2a45f	-0.079415075
193	0x3d1e3bdf	0.038631316
194	0x3d804922	0.06263949
195	0x3b8bd91e	0.0042678257
196	0x3d838b3a	0.0642304
197	0xbd4e4dba	-0.050367095
198	0xbc4f1ece	-0.012641622
199	0x3dd9d8d8	0.10637063
200	0x3d6e6e64	0.058210745
201	0xbe554e67	-0.2083069
202	0x3ccad4ab	0.024759611
203	0x3d85e2a5	0.0653737
204	0xbd9e8347	-0.07739883
205	0x3cc49651	0.023997458
206	0x3dfe75b0	0.12424791
207	0xbdd3e957	-0.103472404
208	0x3d30b64a	0.043142594
209	0xbe3d413e	-0.18481919
210	0x3d12b681	0.03581858
211	0xbdd42465	-0.10358504
212	0x3e729db0	0.23692966
213	0x3e31c363	0.1735969
214	0xbe045987	-0.12924777
215	0xbd95911e	-0.073030695
216	0x3e007ccf	0.1254761
217	0xbd002108	-0.0312815
218	0xbe1dcd73	-0.15410404
219	0x3d9b41cc	0.07580909
220	0xbdc8a686	-0.09797387
221	0xbdefe14d	-0.117128946
222	0xbdea8ffa	-0.114532426
223	0xbdc58a4d	-0.096455194
224	0xbe53a263	-0.20667414
225	0xbe1aff7a	-0.15136519
226	0x3c416350	0.011803463
227	0xbdd49fe8	-0.10382062
228	0xbd1180ae	-0.03552311
229	0x3dedb8de	0.11607526
230	0x3de4dc22	0.111747995
231	0xbb0d445e	-0.0021555643
232	0x3def949a	0.116982654
233	0xbd2bb57c	-0.041921124
234	0x3e6e1fba	0.2325429
235	0xbe5e498f	-0.21707748
236	0xbe2dd9bd	-0.16977592
237	0xbd585e3f	-0.052824255
238	0x3da64918	0.0811941
239	0xbe697a0e	-0.22800466
240	0x3e90bb8f	0.28268096
241	0x3de95fdc	0.11395237
242	0x3e56f2f9	0.20991124
243	0xbe119551	-0.14217116
244	0xbd3d1439	-0.046161864
245	0x3d7e8f17	0.06214818
246	0x3dd0c788	0.101943076
247	0x3da99380	0.082800865
248	0x3e58ba90	0.21164918
249	0x3ddf5988	0.109057486
250	0xbb40d389	-0.002942296
251	0xbd04218b	-0.03225855
252	0xbe4ed592	-0.20198658
253	0x3dc85445	0.09781698
254	0x3d96adf7	0.073574
255	0xbe34d65e	-0.176599

lstm.bias_ih_l1 f4 [192]
0	0xbd2c5340	-0.04207158
1	0xbe01304c	-0.1261608
2	0xbc5651a1	-0.013080985
3	0x3ce96db2	0.02849469
4	0x3d8b85de	0.068126425
5	0xbd5e3207	-0.05424693
6	0x3e120079	0.14257993
7	0x3d351082	0.044205196
8	0xbe10b32d	-0.1413085
9	0xbd2276f3	-0.03966422
10	0xbd77ad6d	-0.060468126
11	0x3c473219	0.01215794
12	0xbca7e201	-0.02049351
13	0xbe55294a	-0.20816532
14	0x3df43836	0.11924784
15	0x3d016e26	0.031599186
16	0xbdf47008	-0.11935431
17	0x3cbb7464	0.022882648
18	0x3e57d5b0	0.21077609
19	0x3c2dff4b	0.010619949
20	0x3e5921e5	0.21204336
21	0x3e159308	0.14606869
22	0x3d737704	0.059439674
23	0x3c9c6128	0.019089296
24	0x3db756f6	0.08952133
25	0xbd80e4ec	-0.062936634
26	0xbc94c2a7	-0.018159224
27	0xbd50f009	-0.051010165
28	0xbe165637	-0.14681326
29	0x3e85f6c5	0.26164833
30	0xbcfe808a	-0.031067152
31	0xbda70e68	-0.08157045
32	0x3e874bf5	0.26425138
33	0x3c2e7410	0.010647789
34	0xbd40a4dc	-0.047032222
35	0x3d6f76a9	0.058462773
36	0x3d42a1fb	0.047517758
37	0xbe0cf785	-0.13766296
38	0x3e0e5473	0.13899402
39	0x3e140b64	0.1445747
40	0x3c3b4985	0.011431103
41	0x3e023306	0.12714776
42	0x3e303fde	0.17211863
43	0xbda8d952	-0.082445756
44	0x3e65f0aa	0.22455087
45	0xbd715c33	-0.05892582
46	0xbdd1f70d	-0.10252199
47	0x3e3f83d2	0.18702629
48	0xbd737119	-0.05943403
49	0xbd8deec5	-0.06930307
50	0xbe120e6f	-0.14263318
51	0xbe226ca5	-0.15861757
52	0x3d355e98	0.044279665
53	0xbd9a9291	-0.075474866
54	0xbe2f42e8	-0.17115366
55	0xbddc431a	-0.10754986
56	0x3baa8d23	0.005204813
57	0xbd2129b1	-0.0393464
58	0xbd82c82f	-0.06385838
59	0xbe107a24	-0.14109093
60	0xbd306390	-0.0430637
61	0xbdf55709	-0.11979491
62	0xbe57c6c0	-0.21071911
63	0xbde71a2c	-0.11284289
64	0xbe417af7	-0.18894564
65	0x3cd2e492	0.025743756
66	0x3c8a5ca3	0.016889876
67	0x3caf6c90	0.021414071
68	0xbd633174	-0.055467084
69	0x39ba2efb	0.00035511688
70	0xbdb7e72c	-0.089796394
71	0xbe803193	-0.25037822
72	0x3d3b06e7	0.04566088
73	0xbe0dc995	-0.13846429
74	0x3da5e8ed	0.08101068
75	0xbe488da5	-0.19585283
76	0xbe5d1448	-0.21589768
77	0xbe2c5818	-0.1683048
78	0xbe3a075d	-0.18166871
79	0x3bf8aed2	0.0075891996
80	0x3d54cdc3	0.051954042
81	0xbe13b502	-0.14424518
82	0xbe009795	-0.12557824
83	0xbe73ffeb	-0.23828094
84	0xbca5f575	-0.020258645
85	0xbbc9d623	-0.0061595603
86	0xbe1e3a85	-0.15452011
87	0xbe294627	-0.16530667
88	0xbc668866	-0.014070606
89	0xbe1b2d15	-0.15153916
90	0xbe1929b3	-0.14957313
91	0xbc487792	-0.012235539
92	0xbe39d3d9	-0.1814722
93	0xbe3ae016	-0.18249545
94	0xbc991588	-0.018687025
95	0xbe448069	-0.1918961
96	0xbd5f4c57	-0.054516163
97	0xbd310c71	-0.043224756
98	0xbce5cd11	-0.028051885
99	0xbca5b371	-0.020227166
100	0xbd35c61e	-0.044378392
101	0xbd75328b	-0.059862655
102	0xbbe71f3c	-0.007053284
103	0x3d6d1d6e	0.057889394
104	0x3be614d9	0.007021528
105	0xbd948f3f	-0.072538845
106	0x3d81d996	0.06340329
107	0xbe2c6b25	-0.16837747
108	0x3df408d9	0.1191575
109	0xbd872a29	-0.06599838
110	0x3e083f4a	0.13305393
111	0xbc253428	-0.010083236
112	0x3e17fe0a	0.14843002
113	0x3d1f5169	0.038896
114	0x3e046249	0.12928118
115	0x3dd4bf1c	0.10388014
116	0xbd69e751	-0.057105366
117	0xbe3428c5	-0.17593677
118	0x3e254005	0.16137703
119	0x3d37a99a	0.04483948
120	0x3e700e35	0.2344292
121	0x3e055f8c	0.1302473
122	0x3e2c3ba8	0.16819632
123	0x3d2c7542	0.042104013
124	0xbd0efb7c	-0.034907803
125	0x3cca896b	0.02472373
126	0x3cfc203c	0.03077709
127	0xbdb3d741	-0.08781291
128	0xbdd12014	-0.102111965
129	0xbdb41f37	-0.08795016
130	0xbcef52b2	-0.029214237
131	0xbdd0afdc	-0.101897925
132	0x3e1fa887	0.15591632
133	0x3d78c8c3	0.060738336
134	0xbd89db16	-0.067312405
135	0x3d16328e	0.036669306
136	0x3d69cea6	0.05708184
137	0xbe157e4b	-0.14598958
138	0x3c66a742	0.014077963
139	0xbdd94dbd	-0.106105305
140	0x3df8873f	0.12135171
141	0xbd24f7ff	-0.04027557
142	0x3d7809aa	0.06055609
143	0x3c971988	0.018444791
144	0x3d0a6fb7	0.033797946
145	0x3dd7a1ed	0.10528932
146	0x3d0c34b3	0.034229945
147	0x3e1359cd	0.14389725
148	0x3db7994c	0.08964786
149	0x39460fab	0.00018888588
150	0x3d4f0ba4	0.05054821
151	0x3e5c7f22	0.21532872
152	0xbe0e694a	-0.13907352
153	0xbde8dcb9	-0.113702245
154	0x3db47017	0.08810442
155	0xbd05d596	-0.032674395
156	0x3de3a81e	0.1111605
157	0xbe69fd4e	-0.22850534
158	0x3d18a777	0.037269082
159	0x3dce6826	0.100784585
160	0x3df432e8	0.11923772
161	0x3e2a5514	0.16634017
162	0x3e24d0c2	0.1609526
163	0x3da92279	0.08258528
164	0x3d1951d9	0.03743157
165	0x3dd486fd	0.103773095
166	0x3d1627b7	0.03665897
167	0xbe238229	-0.15967621
168	0xbc01a5a5	-0.007913028
169	0x3dd59de7	0.10430508
170	0x3da0e6fa	0.07856555
171	0xbc375cb4	-0.011191536
172	0x3d94d2d0	0.07266772
173	0x3dc57b64	0.096426755
174	0xbc550212	-0.013000982
175	0xbe079ca1	-0.13243343
176	0x3da88b22	0.082296625
177	0x3d0f8dfc	0.035047516
178	0xbcfe6b99	-0.031057166
179	0x3dbc824c	0.0920454
180	0x3dedfe10	0.11620724
181	0xbe8cf06a	-0.2752717
182	0x3e0e88ae	0.13919327
183	0xbc2bf145	-0.010494535
184	0x3ddbd3a4	0.107337266
185	0x3d4b913f	0.049699064
186	0x3d560e64	0.052259818
187	0xbdaee88a	-0.08540447
188	0x3e485122	0.195622
189	0x3d879c82	0.06621648
190	0xbd78afb1	-0.060714427
191	0x3e03bef1	0.12865807

lstm.bias_hh_l1 f4 [192]
0	0xbd717bb9	-0.05895588
1	0xbdef8861	-0.11695934
2	0x3b29cff1	0.0025911296
3	0x3db7b6d7	0.08970421
4	0xbd2ddc70	-0.042446554
5	0xb9e416b0	-0.00043504452
6	0x3e2cb55f	0.16866063
7	0x3e317099	0.17328109
8	0x3d8947c7	0.067031436
9	0xbe4517c5	-0.19247349
10	0x3e0b48b6	0.13601956
11	0xbd8824ca	-0.06647642
12	0xbc1be5d7	-0.009515247
13	0xbe37829b	-0.17920916
14	0xbb9df3c3	-0.0048203184
15	0xbc98ca06	-0.01865102
16	0xbd0603fd	-0.032718647
17	0x3e56ae57	0.20964943
18	0x3e92ceb6	0.28673333
19	0x3e2d836b	0.16944663
20	0x3e37803e	0.17920014
21	0x3e25c061	0.16186668
22	0x3d83837c	0.06421563
23	0xbd15bf3d	-0.036559332
24	0x3e009cd4	0.12559825
25	0x3ddc747c	0.10764405
26	0x3ce4e964	0.02794332
27	0x3dbe05e1	0.09278465
28	0xbca12db7	-0.019675119
29	0x3d7df8c7	0.06200483
30	0x3c13aac7	0.009012884
31	0x3cc1543c	0.023599736
32	0x3e76872a	0.24074998
33	0xbe12fdcb	-0.14354627
34	0xbdb48973	-0.08815279
35	0x3e09f4fb	0.13472359
36	0xbc73a63c	-0.014871176
37	0xbe81691c	-0.25275505
38	0x3e04f12a	0.12982622
39	0xbdc20ed3	-0.09475484
40	0x3b466690	0.0030273534
41	0x3d10984d	0.035301495
42	0x3db4ffc2	0.088378444
43	0xbde516a2	-0.111859575
44	0x37270836	9.955887e-06
45	0xbaaa2982	-0.0012982341
46	0xbdcb9f89	-0.09942538
47	0x3e02b0f7	0.12762819
48	0xbe36674a	-0.17812839
49	0x3c7dfa7b	0.015501614
50	0xbdd01a29	-0.1016124
51	0x3d1426c5	0.036169786
52	0x3d7f26b8	0.062292784
53	0xbe8f976e	-0.2804522
54	0xbd98c21b	-0.07458898
55	0x3da26385	0.07929138
56	0xbdfc20ab	-0.123109184
57	0xbc8c32f4	-0.01711414
58	0xbd9dddad	-0.07708297
59	0xbdf500fd	-0.11963079
60	0xbdc4d2d2	-0.09610523
61	0xbe75d0cb	-0.2400543
62	0x3d2855bf	0.0410974
63	0xbe554c66	-0.20829925
64	0xbe1e7c2a	-0.15477052
65	0xbdc313f1	-0.09525288
66	0xbdc41375	-0.09574024
67	0xbdc1f445	-0.09470419
68	0xbc31839b	-0.0108346
69	0xbdf50350	-0.119635224
70	0x3d93f97c	0.0722532
71	0xbe252759	-0.16128291
72	0xbd328e88	-0.04359296
73	0xbd253d01	-0.04034138
74	0xbd43f3b9	-0.047839854
75	0xbe2bbe6f	-0.16771863
76	0xbcd2df1f	-0.025741158
77	0xbe5dd6ae	-0.21663925
78	0xbd1694ac	-0.03676288
79	0xbe6e55f4	-0.23274976
80	0xbd810390	-0.062995076
81	0xbe2ac0d3	-0.16675119
82	0xbe2ad0a2	-0.1668115
83	0xbdd44eaa	-0.103665665
84	0xbd8dff25	-0.069334306
85	0xbe04a612	-0.12953976
86	0xbe9114aa	-0.28336078
87	0x3c7b295d	0.015329686
88	0xbe4050c4	-0.1878081
89	0x3db78565	0.0896099
90	0xbd1ca1a1	-0.03824008
91	0xbe67184a	-0.2256786
92	0x3cabe2da	0.020982195
93	0xbe51ea85	-0.20499618
94	0x3d5cb70a	0.053885497
95	0xbdcd7744	-0.10032514
96	0x3c9941bc	0.018708102
97	0xbdf48116	-0.11938684
98	0xbcd71bd4	-0.026258387
99	0x3c57d0ee	0.013172371
100	0xbe663cef	-0.22484182
101	0xbba95e27	-0.0051686945
102	0xbd773dca	-0.06036166
103	0xbd17311f	-0.03691208
104	0x3dc85266	0.09781341
105	0xbdeab35d	-0.11459992
106	0x3d28209b	0.04104672
107	0x3d3ad133	0.045609664
108	0xbdcc4065	-0.0997322
109	0xbde31057	-0.11087101
110	0x3e1a8b4a	0.15092197
111	0x3da27224	0.07931927
112	0xbd3d0ee0	-0.046156764
113	0x3cc16838	0.023609266
114	0x3c7c1fc1	0.01538843
115	0xbe27db29	-0.16392197
116	0x3a3898d5	0.0007041817
117	0x3dbc1211	0.091831334
118	0x3e35ce1b	0.17754404
119	0x3c80be47	0.015715731
120	0x3e89f8e8	0.26947713
121	0x3e2728f0	0.1632421
122	0x3dbdd177	0.09268468
123	0xbd940d90	-0.07229149
124	0xbd081977	-0.03322741
125	0x3ac125ca	0.0014735993
126	0x3cd98a9f	0.026555358
127	0xbdd19907	-0.10234266
128	0xbdff0d53	-0.12453713
129	0xbdcf5b3f	-0.10124826
130	0x3d9bf408	0.07614905
131	0xbc83fd97	-0.016112132
132	0x3e37cafa	0.17948523
133	0xbcff0375	-0.031129578
134	0x3d34f378	0.044177502
135	0x3e0198ce	0.12655947
136	0xbe07fa84	-0.13279158
137	0x3dcea97b	0.100909196
138	0x3d0daf6a	0.034591116
139	0x3ca129cd	0.019673252
140	0x3c609e17	0.013709567
141	0xbd895c6c	-0.06707081
142	0xbd5d5bf2	-0.054042764
143	0x3dd0c228	0.10193282
144	0x3a19801b	0.0005855576
145	0xbd3dfd41	-0.0463841
146	0x3d3ad0f1	0.04560942
147	0xbdea3fe3	-0.11437967
148	0x3df7c6e4	0.12098482
149	0xbe043ac2	-0.1291304
150	0xbb13ddc4	-0.0022562603
151	0x3d5c734d	0.053820897
152	0x3d39925c	0.045305595
153	0xbe45d362	-0.19318917
154	0x3d72da92	0.059290476
155	0x3e4256ee	0.18978474
156	0x3d9b853b	0.07593771
157	0xbe25d368	-0.16193926
158	0xbc22fe1d	-0.009948281
159	0xbdb3a21b	-0.087711535
160	0x3d9ce542	0.07660915
161	0x3e25e5b9	0.16200913
162	0x3e6c856f	0.23097776
163	0xbbcc0fe7	-0.0062274816
164	0x3d163298	0.036669344
165	0xbdb8989a	-0.090134814
166	0x3ccded46	0.025137555
167	0xbc4b8094	-0.012420792
168	0x3de4ba5b	0.11168357
169	0x3e21bbed	0.15794344
170	0xbe1661a9	-0.14685692
171	0xbdfb828c	-0.12280759
172	0x3d49447a	0.04913757
173	0x3e529da1	0.20567943
174	0xbd8573ab	-0.065162025
175	0xbddb1b63	-0.10698583
176	0x3e42f58e	0.19038984
177	0x3cdc5c99	0.026899623
178	0x3dfadd53	0.122492455
179	0x3e303662	0.17208245
180	0x3d4675d3	0.04845221
181	0xbdd40f5b	-0.10354491
182	0x3e072121	0.13196231
183	0x3d5eeedd	0.054427017
184	0x3e271288	0.16315663
185	0xbc1f829d	-0.0097357305
186	0x3c98d929	0.018658238
187	0x3d1d61c0	0.0384233
188	0x3e054285	0.13013656
189	0x3c127cea	0.008940915
190	0x3d67c43e	0.056583636
191	0x3c414880	0.0117970705

linear.weight f4 [2, 48]
0	0xbd971672	-0.07377328
1	0xbe493a7e	-0.19651219
2	0xbd2cce2d	-0.042188812
3	0x3dadefd6	0.08493011
4	0xbe31e94b	-0.1737415
5	0xbe5c41ed	-0.21509524
6	0x3e99a715	0.30010286
7	0xbdc688ee	-0.09694086
8	0x3e954935	0.29157415
9	0x3e61c5f2	0.22048166
10	0x3e49746f	0.19673322
11	0xbd3965bc	-0.045263037
12	0xbe905190	-0.28187227
13	0x3d4bd72a	0.049765743
14	0x3d81db3b	0.06340643
15	0xbe20d407	-0.15705882
16	0xbbd67f2c	-0.006545922
17	0x3d61ceb8	0.055128783
18	0xbe5d1f90	-0.21594071
19	0xbe9b5785	-0.3034021
20	0xbd8ce446	-0.06879477
21	0xbded0ee4	-0.11575106
22	0x3d523805	0.051322956
23	0xbd3b1b42	-0.045680292
24	0x3de538dc	0.11192486
25	0x3d1189fc	0.035531983
26	0x3e7f53c6	0.24934301
27	0x3e57d0b5	0.21075709
28	0xbe35a6ac	-0.17739362
29	0x3ea12745	0.31475273
30	0x3e518d8e	0.20464155
31	0x3dc95b85	0.09831909
32	0x3e59eeef	0.21282552
33	0xbe687e47	-0.22704421
34	0xbe355df5	-0.17711623
35	0xbe74b3e2	-0.23896745
36	0x3e5d1c06	0.21592721
37	0xbd2bd08f	-0.041946944
38	0xbe7a958b	-0.24471109
39	0x3e37ae65	0.1793762
40	0xbe74daef	-0.23911642
41	0xbca74464	-0.020418353
42	0xbe3b37e0	-0.18283033
43	0x3e4c53dd	0.19953866
44	0x3e5dae06	0.21648416
45	0xbe5d53f8	-0.21614063
46	0x3e206eb9	0.15667237
47	0x3e39e0cd	0.18152161
48	0xbe1fbd0a	-0.15599456
49	0xbde36776	-0.11103718
50	0xbe5ceca0	-0.2157464
51	0x3e463824	0.19357353
52	0xbe58fb9d	-0.21189733
53	0xbcbd0634	-0.023074247
54	0xbe0245ce	-0.12721941
55	0xbe3f37d0	-0.18673635
56	0xbd081b6a	-0.03322927
57	0xbd2f0ad1	-0.042734925
58	0x3e2b03c6	0.16700658
59	0xbe74fd5b	-0.23924772
60	0x3d88c129	0.066774674
61	0xbe327b63	-0.17429881
62	0x3e469994	0.19394523
63	0x3e5aff50	0.21386456
64	0x3e6ad60f	0.2293322
65	0x3e36d435	0.17854388
66	0xbd8b043b	-0.06787916
67	0x3c23ecad	0.010005158
68	0xbe34ca59	-0.17655315
69	0xbe2d974e	-0.1695225
70	0x3e738665	0.23781736
71	0x3e5d61ed	0.21619387
72	0x3e8e3634	0.2777573
73	0x3e725153	0.23663835
74	0xbd0cdeed	-0.034392286
75	0xbd999d87	-0.07500749
76	0x3c97df5b	0.018539121
77	0xbe2c6012	-0.16833523
78	0xbe4852f9	-0.19562902
79	0xbe3812e4	-0.17975956
80	0xbea0bceb	-0.31394133
81	0xbd187ef3	-0.037230443
82	0x3dacae4a	0.084316805
83	0x3ce3c73f	0.027804969
84	0x3d7ca5a9	0.061681423
85	0x3d9ad80b	0.07560738
86	0x3daf7af5	0.08568374
87	0x3d7b40a6	0.06134095
88	0xbce58e07	-0.028021825
89	0xbe56b806	-0.20968637
90	0xbdc80515	-0.09766594
91	0x3bf7304d	0.0075435997
92	0x3df8e0c2	0.12152244
93	0xbdd0a2b6	-0.10187285
94	0x3dba9d5c	0.09112045
95	0x3e2d668c	0.1693365

linear.bias f4 [2]
0	0x3e51bb7b	0.20481674
1	0x3e3ff35e	0.18745181
