cheakpoint/training_epochs_100_stepsize_7_gamma_0.75/model_epoch40.pth (torch, 117569 bytes, 10 tensors)

lstm.weight_ih_l0 f4 [192, 2]
00000000: 73f5 9f3d d5b1 9bbd 811c 043e d716 b8bd
00000010: 056c e5be 1337 633b 2a86 00bd 216b 373c
00000020: a2ce 143e aacf ea3d fece 40be 08f5 c83c
00000030: 84cc 0abb aa32 c13d 76a9 46be 44ab 8ebe
00000040: 83e5 c03c 2c93 bf3d 0e7a 7b3c 3943 58bd
00000050: ca0b c0be b69f 35be 7f3d f23c 9fee 5f3d
00000060: 3a55 5cbd ae00 cfbc 41c9 bfbd 1f12 a6bd
00000070: 8d01 563e ceac d1bd e4cf 85be 6f01 ec3d
00000080: fdc5 543e 9579 efbc 5651 0dbd 835e 8fbe
00000090: 1bcd 36be 61ef ecbd e93a 603e 8e46 c43e
000000a0: 0dee 41be 44d0 90bd 911e 883e 98db 3a3e
000000b0: 2b6c 573d 3ad8 793e 6b69 d1bd 858c 5bbd
000000c0: e138 f1bd 7ebf 4cbe 69fd 16be 1ef5 5ebe
000000d0: b5f7 573d e235 94bd b4b6 80bd 22a0 e7bd
000000e0: ffe9 a3bd d022 cc3d d036 a53e 9d19 5a3e
000000f0: e07c 64bd 64c6 43be 8669 923e 99a3 d73d
00000100: 6b99 b63c 5501 fbbd a807 e9bc 3cc3 77bd
00000110: 60b3 a23e 0ce1 be3e e695 29be 5ce4 23be
00000120: b2c5 f63c 8181 ecbd 104c 953e 1a78 40be
00000130: 580e bcbe daa4 0f3e 5227 aa3d b545 5a3e
00000140: 22ec 9b3d edc8 dcbd bbc3 c23d 86b1 27bd
00000150: 9029 d33c 3e7a 343e 96a0 33be 689f d9bc
00000160: 6a30 80be bba3 54be 2d1e b23e 88a2 97bd
00000170: 2826 75be c2d3 a5be 0714 a33d 1833 423e
00000180: 8efa 473e 19f9 743e fb25 653d 11fd 68bd
00000190: 79cc e7be b9c1 c73d 6724 3cbe 0bda 753d
000001a0: df7c 453e ad9e b83e 3f15 68be 3f41 a0bd
000001b0: 1fc9 a0bc df17 afbd ecde 57be bc22 78be
000001c0: 2ee8 8b3e 3ac3 8e3e 8d2c 4bbe 5f3c babd
000001d0: 02a8 6cbe 4d12 243d 7320 113d a54a 433d
000001e0: 308c de3b 08ec 163e c147 16be f8e4 d8bd
000001f0: 8113 443e 7264 53be e94b 65bd 9998 6a3d
00000200: 834e 7e3d 6d9d 6abd 5bfc 2e3b 302a 59bc
00000210: a8ca c93d 27ce e9bd 91c4 c13d 396a 603e
00000220: 21c8 57be 7a8b aa3d f043 9f3e 3571 933e
00000230: fd1a 25bc 37db f3bd 1d7c f9bd 41fc c03c
00000240: 66e6 acb9 9468 35bc 7462 6abd d1e9 2ebd
00000250: ac45 ea3d f3ec 913d 4c9d 74bc 2cd0 dabd
00000260: 8692 86bd 6a0e a83e de9b bc3d 6ac1 593d
00000270: 586f 6c3c 2383 51be c5bf ecbb eb0c 5abd
00000280: 74bb 1a3d 74c6 99be c775 3b3c 9b9b 373d
00000290: 9d2e af3d d561 043d 65ba bc3d 6b80 7c3c
000002a0: 2300 33be 40ab 5ebe 34f6 1a3e d80c 3cbe
000002b0: 88e2 04bf 9ce0 4b3e 7b8f 46bc 819f 903c
000002c0: 25eb 32bd d39f 513e 31b1 ab3d 9c1f 09be
000002d0: 5d0d 14bd d420 683e 070b e13d 829b 223e
000002e0: 159e 38be 1246 80be acbc 16be 2d4c 843d
000002f0: 68e6 10be 35e4 d43b f2bf 423d 3170 883d
00000300: 0f3c 683e c135 a83d 8f1b a33e f875 7ebe
00000310: 54f8 b03e 7bb3 213e a889 81be 4062 4f3e
00000320: e43a 1a3d a686 b5be 59b4 78be 7588 bcbe
00000330: 6927 303e 5d31 803e 5e2e ae3c 096c 753d
00000340: 7bf3 8bbe 23a7 13be 37bf 8ebe 798f 1b3e
00000350: 9f54 3c3e 331a f53d 1755 7c3e 5652 d23d
00000360: 8955 363d 896e 0bbe 74a6 78be a2cf 903e
00000370: 31b0 a6be 4d99 fc3d 20e0 64be d7ad 6ebe
00000380: 3be5 9cbe bf69 9d3e 6638 abbe ad4f 25bc
00000390: 6c0b 6bbe 8040 4c3e 784d 923e 976a b7be
000003a0: 0f46 923d 5aa2 283e 2ed7 a03e 984c 933e
000003b0: 0e1c 2bbe 9155 59be e820 5a3d 3ecf 8e3e
000003c0: efb7 ae3d 39f5 aebe 3c03 4d3e 53c6 81be
000003d0: 6fe5 c63e 0c3f 4f3e 995e 83be 533c 823e
000003e0: ed7d 86bd cb75 633e 7af7 f9be eaf3 053d
000003f0: da9c 8dbd dc07 4b3e 30e1 943e 78c7 9fbe
0.078104876 -0.07602278 0.12901498 -0.08988731 -0.44808975 0.0034670278 -0.03137795 0.011194975
0.14531949 0.1146539 -0.18828961 0.024530903 -0.002117903 0.094334915 -0.19400582 -0.2786504
0.02354694 0.09354243 0.015348924 -0.052798484 -0.37508994 -0.17736706 0.02957034 0.054670926
-0.053792216 -0.025268879 -0.09364558 -0.08108925 0.20899029 -0.10238038 -0.2613517 0.11523711
0.20778652 -0.02923278 -0.034501396 -0.28001794 -0.17851679 -0.115690954 0.21897472 0.3833508
-0.18938465 -0.070709735 0.2658582 0.18247831 0.05259339 0.2439889 -0.10225185 -0.053600807
-0.11778427 -0.19994923 -0.14745106 -0.21773192 0.052726466 -0.0723684 -0.06284848 -0.1130984
-0.080036156 0.099675775 0.3226838 0.21298833 -0.055783153 -0.19118649 0.28596133 0.10529251
0.022289952 -0.122561134 -0.028446034 -0.060488924 0.31777477 0.37281072 -0.16561088 -0.16005081
0.030123565 -0.115481384 0.29159594 -0.18795815 -0.36729693 0.1402773 0.08308281 0.21315654
0.07613398 -0.10780511 0.09509989 -0.040940784 0.025776654 0.17624757 -0.17541727 -0.026565269
-0.25036937 -0.20765583 0.34788647 -0.07404047 -0.23940337 -0.3238812 0.07962804 0.18964803
0.19529173 0.23923148 0.055944424 -0.056881968 -0.45273188 0.097537465 -0.18373261 0.060022395
0.19285916 0.3605856 -0.22664355 -0.07824945 -0.019627152 -0.08549475 -0.21081132 -0.24232
0.27325577 0.2788332 -0.19841214 -0.09093546 -0.23110965 0.040056515 0.035431337 0.04767861
0.006791614 0.14738476 -0.1467581 -0.10590547 0.19148065 -0.20643786 -0.055980597 0.057274435
0.062086593 -0.05727904 0.0026700709 -0.013254687 0.09853107 -0.114162736 0.0946132 0.2191552
-0.21072437 0.08327384 0.3110652 0.28797308 -0.010077235 -0.11907046 -0.12181876 0.023557784
-0.00032978057 -0.011072297 -0.0572228 -0.042703453 0.1143907 0.071252726 -0.014930081 -0.10684237
-0.06570916 0.32823497 0.09209417 0.05316297 0.014430843 -0.20460181 -0.007225009 -0.053234976
0.037776425 -0.3003422 0.0114416545 0.04482613 0.08553813 0.032319862 0.092152394 0.015411477
-0.17480521 -0.21745014 0.15132982 -0.18364275 -0.5190816 0.199099 -0.012119169 0.017654182
-0.043681283 0.20471124 0.08383406 -0.13390964 -0.036145557 0.22668773 0.109884314 0.15879634
-0.18029054 -0.2505346 -0.1472041 0.06459842 -0.14150393 0.006496931 0.047546335 0.06662024
0.2267916 0.08213378 0.31856963 -0.24849689 0.3456446 0.15791123 -0.25300336 0.20252323
0.03765382 -0.3545429 -0.24287547 -0.36822858 0.17202534 0.2503766 0.021262344 0.059917483
-0.27334198 -0.14419226 -0.2788026 0.15191449 0.18391655 0.11967888 0.24641834 0.102696106
0.044515166 -0.13616385 -0.24282247 0.2828341 -0.32556298 0.12333927 -0.22351122 -0.23308502
-0.3064364 0.3074474 -0.33441466 -0.010089797 -0.22953576 0.1994648 0.2857473 -0.3582351
0.07142269 0.16468182 0.3141417 0.28769374 -0.16709921 -0.21224047 0.053254038 0.27892488
0.08531176 -0.34171465 0.20020765 -0.25346622 0.3884692 0.20238894 -0.2565811 0.2543665
-0.06566987 0.22212903 -0.48821622 0.032703318 -0.06914683 0.19827217 0.29078054 -0.3120687

lstm.weight_hh_l0 f4 [192, 48]
00000000: 8d96 b0bd 29a5 85bc e1fb 7a3e 95b5 063e
00000010: b5de 9b3d 505c f9bd 2dbf 973b 1313 63bb
00000020: 75b9 3a3d 0d06 cb3c dbde 133d 55c0 503d
00000030: 77e3 ba3d 20ed e1bd 9cf6 2a3e 87c3 18bb
00000040: af53 993e 6ebf 143e 4c5a 2b3e 20f7 adbe
00000050: 756c 903d 5dc6 2fbc 6036 6ebe 02c7 593d
00000060: 60a2 233d 6091 26bd 066a 0dbe 3848 703e
00000070: c10e 423c 0e8c dc3d 73de 783d b8ee 67be
00000080: 8bab 75bc 7087 e5bd 0523 90bc 023a 6c3d
00000090: c017 13bd f126 01be 1357 5abe 278a 883d
000000a0: a5b2 afbd 8ffa 8ebd 0cf4 8bbd c32e 51be
000000b0: fc47 253d af38 4fbe a83f 56be 5cea 9dbe
000000c0: 9158 113c b966 143e 84d1 41be 8fc1 8ebe
000000d0: df33 043d 211e f33d 137b 4b3e fe47 bb3c
000000e0: f8c2 53bd cfcb 7ebd cb86 bcbd f4e2 33be
000000f0: f78b 32bd 4b8e 1abd 5fb6 3abc a709 59bd
00000100: 896b 88be aa2c 2ebe e965 31bd 4246 a23e
00000110: 64ab babd 5132 3fbe 0a63 253e 6646 3dbb
00000120: 6a36 be3d 323a 603d 8a09 4b3e b843 0abe
00000130: 85d3 1cbd a84a b9bd db21 65bd 3fbc c73e
00000140: 7048 073e 26fd 673e 42dc e5bd a690 223e
00000150: 1d49 043e 7f10 14bc 1c39 123e 2bf9 14be
00000160: b1ba 8c3d 5242 efbc 4ecc 053d 4529 6c3e
00000170: 5f04 8ebc 87e3 f73d 6918 443e 8690 923e
00000180: 23d9 aebd e8d3 12be 4bc7 dbbe ab9c e63e
00000190: 8b36 8f3d 08c0 233e 77f2 7bbc 1e37 9bbe
000001a0: bb1f 813e eeda db3e 566a ecbd 0d54 e4be
000001b0: 0aaf 0d3d ae58 f33e 05e3 c83e 133b c43e
000001c0: 98cd 0f3f eca5 bb3e 960d ab3e 4d75 91be
000001d0: 3a46 08be 950b d1be 207c 1d3e 1502 393d
000001e0: 4ae8 67be ee56 8dbe 1899 eebe bf91 193e
000001f0: 85ec 573d fdda 4d3f 5ed8 b53e 0896 26bf
00000200: efd7 cebe 89fa 863e 16ee 1f3e 3bf7 63be
00000210: 4dbf d7be 9e33 32bf ae9b 5ebe fd30 b2bc
00000220: 8d5b b83c 6851 02be 2437 d5be c550 8a3d
00000230: 9666 0dbe da0b 96be 3eac 5abe 3071 97be
00000240: 890a 0abe 285e 613e f838 9abe c21f c53a
00000250: 2fbf 063d 3a28 b6bc 28af c73d 8f31 35bd
00000260: aefd 32bc f76b 54bd 5a4f 59be 895b 51bc
00000270: 0dda b237 240b ba3d 35fa 63bc 91c5 6e3c
00000280: 74d0 2bbe f79d 01be f68a 23be f68f e63e
00000290: efb0 b2bd 8e0e 82be b96f 033e 79a1 c23d
000002a0: 6938 cbbd 5ca3 cfbd 7dd8 d4bd 4f85 913d
000002b0: e68c 7cbe a827 13bd 9592 0fbe b328 4d3e
000002c0: 1b36 90bd 7d33 853e 69ab 8b3e c8ae 643e
000002d0: 97e0 1c3d 8283 56bc 96bf 6d3d 8f60 aebe
000002e0: 8640 27bd 8c8f fe3d b4e9 933d db57 1d3e
000002f0: 54ff b43d 1baf 433e cfbc 1c3e 686e 8c3e
00000300: 481f 353e 4c24 263d c9c8 ba3e d151 2dbe
00000310: 74c2 213e 9e87 023e 74a8 b0bd 9d73 f43d
00000320: abba 303d 3020 a8be c805 073d 54fb 9f3d
00000330: 2e45 6bbd 1136 88be e1f5 0ebe 198d 033d
00000340: cbcf 78bb 6b1c 12bd c9d7 1dbe 37c8 503e
00000350: e3a9 073e 6427 c4bd 9b8c 7f3e b0ab 73bd
00000360: fe2d 1ebd e1c7 853e 046b 5abc 4b2a 62bd
00000370: cbc8 11be e79d 2ebe 4b63 aebd 92c1 333e
00000380: 0774 8a3e f740 8bbc 77c6 de3d 3e2d 1a3e
00000390: 29d4 8b3d fc41 7e3e 8916 c23e 1d74 cabd
000003a0: bb78 113e 5466 2c3b 675b c2bd c85e 483d
000003b0: 5b17 0ebd 7ebf b83d 0a22 62bc bba9 8d3e
000003c0: 5002 d13e c460 913e 70d6 0b3f af0b b9b8
000003d0: 2b1c 60bd dd3c 8a3e c12d d1bd 91a1 abbd
000003e0: 7ba1 9cbe a07c eabe bd0d c13d effa 423e
000003f0: 60fd 63be 3e41 c2bd 62ff c1bd 385d 3abe
-0.08622465 -0.016314106 0.24510147 0.13155206 0.07610837 -0.1217581 0.004630944 -0.003464882
0.04558702 0.024783159 0.036101203 0.050964672 0.09125417 -0.11031556 0.16695637 -0.0023309903
0.29946658 0.1452615 0.16733664 -0.33977604 0.070519365 -0.010728446 -0.2326293 0.053168304
0.039949775 -0.040665984 -0.13809976 0.2346505 0.011844338 0.10768901 0.06075902 -0.22649658
-0.014994512 -0.11207473 -0.017594824 0.057672508 -0.03591132 -0.12612511 -0.21322279 0.066669755
-0.085789956 -0.06981384 -0.068336576 -0.20427994 0.040351853 -0.20236467 -0.2092272 -0.30842865
0.0088712135 0.1449231 -0.1892758 -0.27882048 0.03227603 0.11870981 0.19871168 0.022861477
-0.05169961 -0.062206086 -0.09205397 -0.17567044 -0.043590512 -0.037733357 -0.01139602 -0.05298772
-0.26644543 -0.17009225 -0.04331008 0.31694227 -0.091147214 -0.18671538 0.16151062 -0.0028881072
0.092877224 0.054743 0.19827858 -0.13502395 -0.03828766 -0.09047443 -0.05594049 0.39010808
0.13211226 0.22655162 -0.112236515 0.15875491 0.12918516 -0.009037136 0.14279598 -0.14548175
0.06871546 -0.029206429 0.032665543 0.23062618 -0.017336069 0.12103944 0.19149937 0.28625888
-0.08537509 -0.14338648 -0.42925486 0.45041403 0.06992825 0.15991223 -0.015377632 -0.3031549
0.2521952 0.42940468 -0.115437195 -0.44595376 0.03459076 0.47528595 0.39235702 0.3832632
0.56173086 0.36650026 0.33408803 -0.28409806 -0.1330804 -0.4082915 0.15379381 0.045168
-0.22647205 -0.27605385 -0.46601176 0.14997004 0.052715797 0.80412275 0.35516638 -0.6507268
-0.4039912 0.26363018 0.15618166 -0.2226228 -0.42138138 -0.6961001 -0.21739075 -0.021751875
0.022504592 -0.12726367 -0.4164363 0.06753687 -0.13808665 -0.29305917 -0.21354768 -0.29578543
-0.13480581 0.22008574 -0.3012159 0.0015039372 0.03289717 -0.022235978 0.09750205 -0.044236716
-0.01092474 -0.051860776 -0.21221676 -0.012778171 2.1320791e-05 0.09084156 -0.0139146345 0.014573471
-0.16778737 -0.12657915 -0.15970978 0.45031708 -0.08725154 -0.2540173 0.12835588 0.09503455
-0.09922869 -0.1013858 -0.10392854 0.07105505 -0.24663123 -0.03592649 -0.1402076 0.20035057
-0.0704157 0.26015845 0.27279213 0.22332299 0.038300123 -0.013092877 0.05804404 -0.34058043
-0.04083302 0.12429723 0.0722231 0.15365545 0.088377625 0.19109766 0.153064 0.27427983
0.17687714 0.04056196 0.36481312 -0.16925742 0.15796834 0.12747046 -0.0862588 0.11936114
0.04314677 -0.32837057 0.032964498 0.07811609 -0.05743902 -0.2660375 -0.13960983 0.032116983
-0.003796565 -0.035671633 -0.15414347 0.20388876 0.132484 -0.09577826 0.2495598 -0.059489906
-0.03861808 0.26129058 -0.013331179 -0.055216115 -0.14236753 -0.17052422 -0.085150324 0.1755431
0.27041647 -0.016998751 0.10877698 0.15056321 0.06827576 0.24829859 0.37907818 -0.09885428
0.14206211 0.002630611 -0.0949009 0.048918515 -0.034690242 0.09020899 -0.013802061 0.27668557
0.40822077 0.2839414 0.5462408 -8.823664e-05 -0.054714363 0.2699956 -0.10213805 -0.08380426
-0.3059195 -0.45798206 0.094264485 0.19041036 -0.22264624 -0.094851 -0.094725385 -0.18199623

lstm.bias_ih_l0 f4 [192]
00000000: 73f4 d73d 48bd 7ebd 02a0 82be 7d93 f5bd
00000010: 609c 363e 5715 d4bd eac0 2fbe a481 72be
00000020: 0122 8c3d b413 033d cfe0 74be a54c 0fbe
00000030: 0a7a bcbd 4896 81b8 2d87 00be cd73 5ebd
00000040: 19a8 aebd e888 31be 2d9a babd 1130 663e
00000050: b65f 81be b03b 8a3c 56fe a43d db7b ddbc
00000060: 8ce9 e9bd 4a98 86bd b561 203e 835b c0bc
00000070: 6bf5 6bbe fead 9a3e 79c7 22bd e063 9ebd
00000080: 8560 523c f2f0 a1bd 0902 a43d 6c33 0ebe
00000090: 7d13 59be 02a9 0bbe a927 e6bd 2dd6 1abe
000000a0: 5d7a 4fbe d83a 6d3d 97d7 043e 0491 2fbe
000000b0: 15f1 92be 47a7 763e b57f 6cbe 0447 0abe
000000c0: 9d6f 903e 2b49 14be 6d68 6bbd 97ab 1dbd
000000d0: eefa bc3e eacb 283e a650 7cbe 108a d5bd
000000e0: e6f8 363e 2595 48be bc83 523c 2856 303c
000000f0: 15ab 863d f4d8 ecbc 8115 4abe 1617 53bd
00000100: a6ab 00bd 9022 21bd c0ac 34be 1801 cd3d
00000110: 0ad8 fdbd 8830 0abe f91f 47be 504f a3bd
00000120: b0a1 3cbd 4f25 a0bd 158a e43b 2458 103e
00000130: a8e8 af3d d163 75bd b014 b3bd beb8 0d3c
00000140: f7e6 a8bd e649 c03d 504f bcbd 9ec1 b0bd
00000150: f3ef 5abe fa73 3fbe 44f6 063d fbc2 923d
00000160: cff2 09be e587 673d dbb6 9bbd 3b19 7f3c
00000170: 098b babe 3ed1 ffbb 4604 a43d 8e15 f3bd
00000180: b53a 2fbd 3ef6 7ebc f55b 35be 60ad 81bd
00000190: 2eff 953c a244 e93d ce56 b9bd d531 51bd
000001a0: a1dc b03c 35d7 7c3d 36e0 11be 05b3 59bd
000001b0: 9354 943d 907d e3bd dca9 f03d f9f9 d0bc
000001c0: da74 b43d c3d8 043e 7ce1 bb3b 133e 8abc
000001d0: f531 fbbb 6348 17be 3132 093d 3661 06bd
000001e0: a404 e83d 824b 43bd bc15 55be 674f 8fbb
000001f0: 0172 85bd ab19 f83d c441 07bd d337 ba3d
00000200: 56b0 a93c 4770 303d 6ef0 0b3e 7d3d 0ebd
00000210: 6203 833b 5b3c 29bc 2209 fdbd ed08 68bd
00000220: b039 213e 112a 81be da68 31be dc9d 4a3b
00000230: 10ad 653d f7aa 5b3d 108e 23be 4263 48bd
00000240: badb b03d 97f2 e7bd 65cd 80bd 1794 b83d
00000250: 4f8d 2cbc 1c0f 0e3e 289f 84be fbd2 55be
00000260: db7a 243e 9994 e7bd 72fa f3bd 0764 7ebd
00000270: d615 38be 4345 e33d 20dd 5bbd ab95 cbbd
00000280: 3c01 653e 4050 2bbe 1eac 02be a1b4 ab3d
00000290: ca5c 1cbe fd3b a53d e036 913d a68b 9cbc
000002a0: 49dd 4fbe 222b 45bc 2f92 283e 31b0 0d3e
000002b0: 39f9 97bd ee20 a93e 4bb8 f63c efa4 2b3e
000002c0: 3d9c 47be 2269 cbbd a09d 6b3d 844e 2cbe
000002d0: 671d afbd a177 dd3c 0af9 91bd 10be b2bc
000002e0: d7df 09bd 1f8f 8dbb a02f f63d 4a17 5abe
000002f0: 85cf 95be 2ec4 853e 573a 97be bd34 b23d
0.10544672 -0.06219223 -0.255127 -0.11991022 0.1783309 -0.10355633 -0.17163435 -0.23682266
0.06842423 0.032001212 -0.23913883 -0.13994081 -0.092029646 -6.1791914e-05 -0.12551565 -0.054309655
-0.08528156 -0.17337382 -0.09111438 0.22479273 -0.25268334 0.016874164 0.08056323 -0.027036598
-0.11421499 -0.065720156 0.15662272 -0.023481136 -0.23042838 0.3021087 -0.039741013 -0.077338934
0.012840395 -0.07907285 0.08008201 -0.13886803 -0.2119884 -0.1363869 -0.11238033 -0.15120764
-0.20261522 0.057917446 0.12972866 -0.17145163 -0.28699556 0.24087249 -0.23095591 -0.13503653
0.28210154 -0.14481036 -0.057472635 -0.03849372 0.36910194 0.16484037 -0.2464014 -0.10426724
0.17868385 -0.19588144 0.012848791 0.010762729 0.065756 -0.028912045 -0.19734766 -0.05153569
-0.031413697 -0.039339602 -0.17644024 0.10009974 -0.12394722 -0.13495076 -0.1944579 -0.07974112
-0.046052635 -0.07819616 0.0069744685 0.14096123 0.085892975 -0.059909645 -0.0874418 0.008650003
-0.08247178 0.09389095 -0.09194815 -0.086306795 -0.21380596 -0.18696585 0.0329497 0.07166096
-0.1347153 0.056526083 -0.07603236 0.01556998 -0.364342 -0.007806926 0.080086276 -0.118693456
-0.042780597 -0.015561638 -0.1771086 -0.06331897 0.018310156 0.11390044 -0.0904976 -0.051072914
0.021589579 0.061728675 -0.14245686 -0.053149242 0.07242694 -0.111079335 0.11751148 -0.025509821
0.0881135 0.12973313 0.005733667 -0.016875302 -0.0076658675 -0.14773707 0.033495132 -0.03280755
0.1132901 -0.04767943 -0.20809072 -0.004373479 -0.06515885 0.12114271 -0.033021703 0.09092679
0.020713966 0.043075826 0.13665935 -0.03472661 0.003998206 -0.010329331 -0.123552576 -0.056649137
0.15744662 -0.25227407 -0.17325154 0.0030916845 0.05607325 0.05362984 -0.15972161 -0.048922785
0.086356595 -0.11325567 -0.06289176 0.09012621 -0.0105317375 0.13872951 -0.25902677 -0.20881264
0.1606249 -0.1130764 -0.11913003 -0.062107112 -0.1797708 0.11097195 -0.053677678 -0.09940656
0.22363752 -0.16729832 -0.1276097 0.083840616 -0.15269771 0.080680825 0.07090545 -0.019109558
-0.20299257 -0.012034209 0.16462015 0.13836743 -0.07420582 0.33032936 0.030117175 0.16762136
-0.19493194 -0.09932162 0.05752337 -0.16826826 -0.0855053 0.027034583 -0.071275786 -0.021819144
-0.033660736 -0.00432004 0.120208025 -0.21297947 -0.29259887 0.26126236 -0.29536697 0.08701465

lstm.bias_hh_l0 f4 [192]
00000000: f3d9 54bc f8cb 3b3d cf6e 91be 3cb6 12be
00000010: dd67 423e 0a8c db3d 5339 24be e445 cabe
00000020: 6037 c53d f6ce ac3d 8373 9fbd fc1d 27ba
00000030: 00ad 1bbe 25fa 36bd d2d5 2fbe d270 21be
00000040: 9ac8 8fbc 0379 42bd 9f07 73be f4ba 543e
00000050: 470c 59be 68d4 1ebd de62 a0bd dcc6 d6bd
00000060: eda3 8fbc d638 66be ecdb d03d 6d06 2fbe
00000070: cbc5 fbbd 3be0 c63e 159b 77be cab3 913d
00000080: f339 c0bd 9fff 4bbe 8923 eabb bdc8 5dbe
00000090: 8630 da3c efd9 c4bd af9a 19be efdc 12bb
000000a0: d15a f6bb 93e0 3b3d 05fa 003d 9280 1abe
000000b0: 0157 6bbe d560 103e 2c1a 3abe 54e0 3f3d
000000c0: 7622 8a3e 6a0b 29be 2b53 01be 7f07 f33c
000000d0: ed2f 653e b277 c33d 3f3e 85be 2718 37be
000000e0: dd27 733e f758 36bc c06d b9bd 32f5 0bbe
000000f0: dc38 583e 1787 f23c 7292 31be c64e 3e3d
00000100: deef 173c 6aea fbbc f198 82be 062c a53d
00000110: 21e6 fb3a a9e3 53bd 105e a6bd 793f 9bbb
00000120: 7d3f f7bd 38ee 23bd b345 f23d de21 273e
00000130: 4cb9 1d3e 65a9 ac3d 16fc 4e3c a0c5 30be
00000140: b7dd e9bd 89a5 1abd a3de 21be 8780 423d
00000150: 5f9e 3ebe 5853 d1bd 9bf7 d7bd 7315 0dbd
00000160: 982d a03d 2c8e 4ebe e4ee 04bd 0861 cebc
00000170: 8a52 54be 96bb b43d f105 0fbd 4836 4abd
00000180: 3977 f7bd abe6 cebc dfd2 ee3c bb59 9c3d
00000190: 4734 ba3d 1a7c 093e 5a4c d3bd aeeb bd3b
000001a0: 88c7 ea3d 541a 9d3c d80a 0b3d 8353 e3bd
000001b0: ed5a 1c3d 7760 a73d 7bb7 52bc 07fb 703e
000001c0: e35c f0bd 0221 bb3d aa0d 8d3c d803 003d
000001d0: 9df5 05be 7032 c1bd 6c68 f43d 9fa4 c2bd
000001e0: bcad a73c fa33 2d3d b142 1bbd d155 413d
000001f0: 5a7f 1dbc 1662 a93d b0f6 2cbd e373 35bd
00000200: f67c 3c3d 56ba 253d 120e db3d 18c7 433c
00000210: 2c5c e43c 1f62 963c ada8 14be b98d 67bd
00000220: 9938 52bc baf9 7f3c 9318 82bd 1b5b b73d
00000230: d615 9abd f401 ab3d 4ed3 783d fdf1 dcbc
00000240: 06fe 7b3e 9b54 923d 7846 92be 4675 bc3d
00000250: 696e 0d3e 5361 803e 0c60 56be f985 78be
00000260: ffa6 263d 1fbf 2fbe 38f3 8bbe 51c4 d6bd
00000270: e82f 67bd bf6e 883c b54b 82bd 402c b4bd
00000280: cd74 b53d 7d3d 88bd 9658 2ebe d8c8 573e
00000290: 2c90 22be 7d67 50bd ae4c 21be 57da 0bbe
000002a0: 504d 153a d1fc 3ebd 6191 893e cbc8 203e
000002b0: 9598 84bd 331d ae3e 4c35 50be b664 dc3d
000002c0: af96 f6bc 0e8d aebd c644 523e 5c5a 0cbe
000002d0: 8950 39be bc12 883d 9d04 b83d 1ef5 e1bc
000002e0: 5b43 16be 5068 fbbd 7a60 ed3d a4f4 a5be
000002f0: ac1b dabe 0d1e 283e 8485 17be 5b27 27bd
-0.012991416 0.045848817 -0.28404853 -0.1432733 0.18984933 0.1072007 -0.16037492 -0.39506447
0.096297026 0.08437912 -0.07785704 -0.00063750125 -0.15202713 -0.04467215 -0.1717141 -0.15765694
-0.017551709 -0.047478687 -0.23733376 0.20774442 -0.2119609 -0.038776785 -0.078313574 -0.10487148
-0.01753422 -0.22482619 0.10198197 -0.17092295 -0.122935854 0.3884295 -0.24180253 0.0711437
-0.09386053 -0.1992173 -0.0071453494 -0.21658607 0.026634466 -0.0961188 -0.15000413 -0.0022409519
-0.0075181504 0.045868468 0.031488437 -0.15088108 -0.22982408 0.14099438 -0.18174046 0.046844795
0.26979417 -0.1650826 -0.12629382 0.02966666 0.22381563 0.095443144 -0.26024053 -0.17880307
0.23745675 -0.011129609 -0.09054136 -0.13667753 0.2111544 0.029605431 -0.1734102 0.046461843
0.009273497 -0.030751426 -0.2550731 0.080650374 0.0019218364 -0.051730786 -0.0812341 -0.004737791
-0.12072656 -0.040022105 0.118297 0.16321513 0.15402716 0.08430747 0.012633344 -0.17262888
-0.11419242 -0.037755523 -0.15807585 0.047485854 -0.18615101 -0.10220975 -0.10545274 -0.034444284
0.07821196 -0.20171422 -0.032454386 -0.025192752 -0.20734611 0.08824842 -0.034917776 -0.049368173
-0.12083287 -0.025256475 0.029153286 0.07634302 0.09092002 0.13426247 -0.10317297 0.0057959175
0.11463839 0.019177593 0.03394589 -0.11099913 0.03817265 0.08172696 -0.012861128 0.2353326
-0.11736467 0.09137155 0.01721843 0.031253666 -0.13081975 -0.09433448 0.119339794 -0.09504055
0.020468585 0.042285897 -0.0379054 0.04720098 -0.0096128825 0.082706615 -0.042227447 -0.04429997
0.04601761 0.040460907 0.10696043 0.011949323 0.027875982 0.018357335 -0.1451747 -0.05653164
-0.012830877 0.015623504 -0.063523434 0.08952924 -0.07523696 0.08349982 0.06074839 -0.026970858
0.24608621 0.071450435 -0.28569388 0.09202056 0.1381165 0.25074252 -0.20935076 -0.24269857
0.040686604 -0.1716275 -0.27334 -0.10486663 -0.05644217 0.01665437 -0.06362096 -0.087975025
0.088601686 -0.06652353 -0.1702598 0.2107271 -0.1587531 -0.050879944 -0.15751907 -0.13657509
0.00056954194 -0.046627823 0.26868728 0.15701596 -0.06474415 0.34006652 -0.20332831 0.107613966
-0.030101148 -0.08522998 0.20534047 -0.13706344 -0.18097128 0.06644198 0.08985255 -0.027582701
-0.14674132 -0.122757554 0.11590667 -0.32413208 -0.42599237 0.16417713 -0.14797026 -0.040809017

lstm.weight_ih_l1 f4 [192, 48]
00000000: 89f4 6ebd b0b0 97bd f98b 193d 3ea0 0f3e
00000010: 5284 15be 59bb 1dbe 0f2a b7bd 4a94 57bd
00000020: 33a1 603e 96ea a33c 53df 823d 6cef 08be
00000030: e08b bb3c edf4 443d ef94 fc3d 6fef 8f3d
00000040: 0226 933e a8e1 1a3e 423f 2b3c 2fea 05be
00000050: 7c92 8c3c 1b9d 51be 74c8 af3d 91ab 513d
00000060: 319c df3d e005 1c3c 66dd f4bd 4adc 063e
00000070: 8b04 0f3e f703 e63e 4434 e7bd 81b6 a8be
00000080: 6a5f 7bbc e511 313e c55e 413e de3a bdbd
00000090: b9ed 17be 42c6 05be 67b1 96bd 3b62 b8bd
000000a0: f596 c7bd f081 25be c026 57bd 17cd 3dbe
000000b0: e182 263d cab0 f8bd ce4d edbd b31f cebd
000000c0: 54d0 823e 0e82 1f3d d474 733e d623 b5bd
000000d0: 98c8 eebd 76b2 e2bd 2b24 443e 42c2 823e
000000e0: ee29 86be bca5 c3bd b588 ca3c 67e1 fcbc
000000f0: 4362 cebd 46fe 823d b57c 82bc baff 86be
00000100: 33a0 a6bc b516 65bc 14e5 3dbe 54d1 ffbd
00000110: 427a 973d a796 babc d40c adbd 36af 153e
00000120: 2ce1 e5bd 0838 9d3d 7f58 0c3e 1139 0ebe
00000130: 6040 8ebd cd8a 86bc 9edc d23d 5805 98bd
00000140: ee78 27bc d9b1 e4bd 6f12 92be 74cb 933d
00000150: 3f80 30be e984 36bd 5e0e 9a3e fd9c d33d
00000160: 2d76 dbbd da88 2f3e 10c0 423d 7b7f a7bc
00000170: eebc 173e 1476 b73c 8a4b ffbd d2b9 3dbd
00000180: 20f8 fd3c 9b59 44be 0ada 1ebe 7ca7 7e3e
00000190: 61af c7bd 716e bebe 8094 1a3d 5ef6 31be
000001a0: d9b3 1cbd b870 603e d324 c4bb dfd2 83be
000001b0: 62db 7b3d f2ed 333e 6131 183e b35e 9c3e
000001c0: c714 8c3e 0fbf 383e 8b31 be3d acb4 7a3d
000001d0: a831 26be 74c6 3abd a637 eabc f46c 963d
000001e0: 836b c2ba 4098 97be 0e49 afbe 934b c23e
000001f0: e156 10bd 915d b33e b018 12bc c48b b9bd
00000200: 9893 04be a00c 863e 3bb3 c2bc def2 7c3c
00000210: 1dc7 c13d cea1 34be 5a1f 4dbd d7a4 d2bd
00000220: 70a7 57be 766b 793b df7d aabc 960d 4f3d
00000230: de7f 1d3e 1ff3 b7be 53e2 bfbd 178e 72bd
00000240: 2e95 52be 1924 13be fcd3 01be 8293 163e
00000250: 00ef bbbd 999d b6be b555 423d 28bf 333d
00000260: 6257 6e3e 9ad7 163d 8e84 12bc ef75 3bbe
00000270: fc97 19be c9aa 883e d579 b33e 3b3d b2bc
00000280: ff36 313e bf3b 893e 2ee3 b63d ce1e 80bd
00000290: 3905 ad3d e141 f1bd a88e f1bd 0f95 b8bc
000002a0: 21e1 01be 05f0 69be f561 f2bd a97f a93e
000002b0: 79d5 d3bc eceb 803e 7966 3bbe 967e 81be
000002c0: b401 91bd 032f 093e 9937 8b3d 7fb6 d9bd
000002d0: a353 91bc 635f 81be b162 85bd be6a a03b
000002e0: 3a02 4abd 3c83 25be f6b7 ffbc b064 263c
000002f0: 5c68 1c3e f0dc 9fbd 7180 9abe 3959 35be
00000300: 1252 f53d 0170 01bd 42a1 973e 2f8c 253e
00000310: b8cd 93be 5718 b1be c8b4 babc 6d44 033e
00000320: b4cf a7be 0010 8f3d 751f 423e d8ee 893d
00000330: de54 383d 7c8d 0a3e f7dd 5dbe 4bfa 11be
00000340: 6475 423e 79c2 50be af3c a33d 9441 d0bd
00000350: aa69 063e c287 e33d 766b a1be 169d 153e
00000360: a6ee fdbd f98a 8abd 28cc 2d3e 6bf7 ab3d
00000370: bd75 ca3d 894d 9dbe 7466 ea3d d0e6 92be
00000380: 6f34 d0bd 504b e83c 0c2b 7ebe 25b6 8fbc
00000390: eb3b 9abd de6a 06bd f1e2 e23d fdc1 893e
000003a0: 7498 9ebe af76 023e bb3d db3e b497 86be
000003b0: 7924 7e3d e839 00be fafa 2d3e 648e e3bd
000003c0: 5a9b 19be f4ec e63d d973 f53c 7797 23bc
000003d0: 41bb babc d3b3 113d af25 7b3e c986 263e
000003e0: d07e 96ba 7120 d33d cc6d b2bc b05f 8bbe
000003f0: 269b 36bc 7469 e43b 31e1 c53d 544f db3d
-0.058338676 -0.07406747 0.037487004 0.14025971 -0.14601257 -0.15403499 -0.08943569 -0.052631654
0.21936493 0.02000932 0.06390252 -0.13372582 0.022893846 0.048085142 0.12333094 0.0702809
0.28739935 0.15125144 0.010452094 -0.13077615 0.017159693 -0.20470087 0.08583155 0.05118901
0.10918463 0.009522885 -0.11956291 0.13169971 0.13966577 0.449249 -0.11289266 -0.3295174
-0.015342573 0.17291982 0.18883808 -0.09239744 -0.14836778 -0.1306391 -0.073580556 -0.09003111
-0.0974559 -0.16162848 -0.05252719 -0.18535267 0.04065216 -0.12143095 -0.11587106 -0.1006464
0.25549567 0.03894239 0.23775035 -0.08844726 -0.11659354 -0.11069195 0.19154422 0.25538832
-0.26203865 -0.09553096 0.02472339 -0.030869199 -0.10077336 0.06396155 -0.015928606 -0.2636698
-0.02034006 -0.013982465 -0.18544418 -0.12491098 0.07396366 -0.022776915 -0.084497124 0.14617619
-0.11224589 0.07676703 0.13705634 -0.13888957 -0.06945872 -0.016423607 0.10295986 -0.07422894
-0.010221703 -0.11166734 -0.2852969 0.0721654 -0.17236422 -0.044560347 0.30089086 0.103326775
-0.107158996 0.17142048 0.047546446 -0.02044653 0.14818165 0.022395171 -0.1246558 -0.04631979
0.031002104 -0.19174807 -0.15512863 0.24868578 -0.09750248 -0.37193635 0.037739277 -0.17379138
-0.038257454 0.21917999 -0.005985835 -0.2574682 0.061488517 0.17571238 0.14862587 0.30541
0.27359602 0.18041633 0.09286793 0.06120746 -0.1622988 -0.045599416 -0.028590988 0.07345
-0.0014833066 -0.29608345 -0.34235424 0.37948284 -0.035239104 0.35032323 -0.008917019 -0.09059861
-0.12946928 0.26181507 -0.023767104 0.015438763 0.09461806 -0.17639849 -0.050078727 -0.10285347
-0.21059966 0.0038058436 -0.020811973 0.050550066 0.15380809 -0.35927674 -0.0936934 -0.05921754
-0.2056472 -0.14369239 -0.12678522 0.14704707 -0.09176445 -0.35667112 0.047445018 0.043883473
0.23275521 0.036826707 -0.008942736 -0.18306707 -0.14999384 0.266928 0.35053888 -0.021757713
0.17306136 0.26803395 0.0893005 -0.062558755 0.08448262 -0.117801435 -0.11794788 -0.022532014
-0.12683536 -0.22845466 -0.1183509 0.3310521 -0.025858628 0.25179994 -0.18300809 -0.2529189
-0.07080403 0.1339684 0.06797714 -0.106305115 -0.017740076 -0.25268087 -0.065129645 0.004895537
-0.04931853 -0.16163343 -0.03121565 0.010155842 0.15274185 -0.07805812 -0.30176118 -0.17709817
0.11978544 -0.031600956 0.29615217 0.16166757 -0.28867888 -0.34588882 -0.022791281 0.12819071
-0.32775652 0.06985474 0.18957312 0.06735009 0.04500281 0.13530535 -0.21666704 -0.14255635
0.18990093 -0.20386685 0.07970559 -0.10168758 0.13126245 0.11109878 -0.315273 0.14610705
-0.12399034 -0.06764788 0.1697241 0.083968006 0.09885738 -0.30723217 0.11445323 -0.2869172
-0.10166251 0.028356224 -0.24821109 -0.017542908 -0.0753096 -0.03281676 0.11078442 0.26905814
-0.30975688 0.12740587 0.42820534 -0.26287615 0.0620465 -0.1252209 0.16990271 -0.11111143
-0.15000668 0.11275664 0.029962467 -0.0099848425 -0.022794368 0.035571884 0.24526094 0.16262354
-0.0011481885 0.10308922 -0.02178087 -0.2722144 -0.011145389 0.006970579 0.096620925 0.1070849

lstm.weight_hh_l1 f4 [192, 48]
00000000: 50de 923b 706e 453e c05e c53b d1ac d03d
00000010: 28d6 3e3e b8c1 6d3d 93c8 6abe 1ffd ce3c
00000020: c371 a8bd c78e 89be 206f 07be 94d6 3d3e
00000030: 3e7c 463e 3e0d 283e 9ee9 103d ef94 613d
00000040: e894 ccbd f537 19bd 1616 343e 1ee9 943e
00000050: ef24 0e3d f400 9b3d 05fb bbbd 236e b63d
00000060: 5381 35be 4e95 f9bd 37d0 5ebe 1232 7abe
00000070: 028b 823e f59e 69be 190c 8c3d 0929 00bd
00000080: e483 2cbe 7a7c 923c 2ba6 0d3d 4706 893e
00000090: cd49 41bd 9482 d0bd 14ee ac3d 0aec 83be
000000a0: 0127 0e3e c327 acbc 7fc0 723e 0258 4b3d
000000b0: d79a 67be b478 123e e434 25be a27c c9bd
000000c0: 8d11 2e3e 613e 3c3e f08b a13d 8a68 093e
000000d0: 20fb 0a3c e226 fb3d 9b75 9bbc ddf3 81bd
000000e0: e9d0 1d3d 3dad 4cbe 2464 363d 22b2 183e
000000f0: 8cc2 543e 387c 2abd 75fc 8bbc 4213 81bd
00000100: e746 23bd 713f c1bc 1989 8c3d e989 123e
00000110: c43e 633e 2b7d 6f3e 1c65 983d fd3b 8eb9
00000120: 017c 1fbe 0298 85bd 7bb3 c5bd f47e f8b9
00000130: b936 323d 694e e1bb 4e1f d63d b565 1a3e
00000140: b56d 9e3c 83d2 2a3e 1fe1 7cbd a9c1 e63d
00000150: 9556 7dbd cbe7 28be f2c1 433e b1fb 54be
00000160: dee0 503e 2335 b8bd 1daf 833e cb50 13bc
00000170: 810d 5ebe f7f6 693e d3bd 17bb 5635 5ebe
00000180: 88eb 1c3e 0e8e bebc e2e3 23be ce2c d43d
00000190: ce14 2b3e 6176 1e3e 1116 ee3c 6890 7ebc
000001a0: 22a7 38be da80 003e 36aa 89be 5944 0e3d
000001b0: 9512 d03d aea0 a93b 53aa efbd ae62 97bd
000001c0: 7e29 c83d 4d58 6cbd 23a4 413e be74 983e
000001d0: c640 1d3e 0f20 383e 8db0 18bb 248d ae3d
000001e0: dd98 edbd 0183 823d c17e 32be 8ae7 66be
000001f0: 385a b23e fbc2 cebe 7039 99be d7aa 773d
00000200: b78e 66be 7f04 3a3e de00 b7ba caf1 d43e
00000210: ccbb f5bd e29e 773d 1dd7 22bc aa52 bcbc
00000220: b22a 863e f73d 1abd ff70 913e d5bc ba3d
00000230: 63a7 1ebe d086 803d 7b46 0c3d bd53 97bc
00000240: 2e29 7b3d 7dcf 893e 5eb0 2fbe 79fe 7fbd
00000250: b22e 223e 9508 1b3d 6c00 d4bd 459e e1bd
00000260: 2032 39be 4d4e 24be 6cf2 66be a9ed 853d
00000270: 27db be3d 926f 2c3e dcfa d93c bfbf b43c
00000280: cfb7 90bd f8af 39bd b44c 2c3e dfd9 b43e
00000290: f22e 023e 93f6 883e 30cc 3dbe e77d 343d
000002a0: 59f2 853d 9d7f 18be 46b8 9cbd 2979 85be
000002b0: 6bf6 623e 8580 f6bd 6398 b4bc d4e5 97bd
000002c0: 8de3 e3bd 692b 873e 1f0c 233c 9c66 143e
000002d0: 022f 5fbe ec13 47be 3b36 f53d d6f7 0bbe
000002e0: 85a8 923e f9e4 24bc ad05 413e ffad e03c
000002f0: a612 babd 77ec 653d 2f9d 81be b05a 08be
00000300: 68fb a1bd 8c9a 233d 8408 743d 526d ce3b
00000310: 34b6 7d3d b19e 6abd 8d5c e63b 5b38 d63d
00000320: bd99 403d 4430 4bbe 23c0 cb3c 108c 823d
00000330: c3e4 9cbd ba71 0f3d 2232 ee3d b318 d0bd
00000340: 3768 4a3d b5bf 3abe d6ed d43c 3bcb 99bd
00000350: 63ca 6b3e c3ec 283e dd40 08be 3257 9ebd
00000360: 4727 f83d 1fb4 01bd ac64 26be 6ca3 9e3d
00000370: a822 86bd f9a7 0cbe 9c40 0ebe a6bb b0bd
00000380: 33df 51be ebe5 f7bd a1cb ba3b 31f6 80bd
00000390: 5d57 2ebd 99db d83d c7a0 e43d 6582 96b9
000003a0: 0b7f ee3d 5b07 4dbd a7a7 613e d6b6 4cbe
000003b0: 819b 3bbe d3a6 61bd ac16 a93d 45f7 60be
000003c0: 8fe4 3b3e 204e 753e 33cb 683e 8bf8 fabd
000003d0: f363 d83d 8c7c d93b ffd8 853d b442 9e3d
000003e0: 29e4 d23c 2922 d13d 1815 0cbe a0cf 8d3d
000003f0: 72c8 bebd 3cb8 2d3e 93d9 18bd cc15 54be
0.004482068 0.1928041 0.006023258 0.10189212 0.18636382 0.058046073 -0.22928075 0.025267182
-0.08224823 -0.26866743 -0.13225985 0.18538886 0.19383332 0.16411301 0.035379045 0.055073675
-0.09989339 -0.03740688 0.1758655 0.29084104 0.03470319 0.07568541 -0.091787376 0.08907726
-0.17725115 -0.12186681 -0.21759115 -0.24433163 0.2549668 -0.22814544 0.06838245 -0.031289134
-0.16847187 0.01788162 0.0345823 0.26762602 -0.047189523 -0.10181156 0.08443847 -0.2576602
0.13882066 -0.021015054 0.23706244 0.049644478 -0.2261766 0.14303857 -0.16133457 -0.09838225
0.16998883 0.1838317 0.07888019 0.13418785 0.008482724 0.12263276 -0.018976977 -0.06345341
0.03852931 -0.1998796 0.044529095 0.14911702 0.20777339 -0.04162237 -0.017088154 -0.06302501
-0.03986254 -0.023589822 0.06862087 0.14310421 0.22191912 0.23387592 0.0744116 -0.00027129045
-0.15574647 -0.06523134 -0.09653374 -0.00047396834 0.04350922 -0.0068758023 0.1045519 0.1507786
0.019339422 0.16681866 -0.06173813 0.112674065 -0.06185015 -0.16494672 0.19116953 -0.20799138
0.2039828 -0.0899451 0.25719538 -0.0089914305 -0.21684839 0.22848116 -0.0023153916 -0.21700034
0.15324223 -0.023261096 -0.16004899 0.10360108 0.16707155 0.15474845 0.029063256 -0.015537359
-0.18032506 0.12549153 -0.26887673 0.03473315 0.10159794 0.005176625 -0.11702409 -0.073918685
0.09773539 -0.057701398 0.1891027 0.29776567 0.1535674 0.1798098 -0.0023298592 0.08523014
-0.11601422 0.06372643 -0.17431165 -0.22549263 0.34834456 -0.40383133 -0.29926634 0.06046566
-0.22515379 0.18165778 -0.001396205 0.4159072 -0.1199871 0.060454257 -0.009938982 -0.022988636
0.2620445 -0.03765675 0.28406522 0.09118048 -0.1549354 0.062757134 0.034246903 -0.018472547
0.06131857 0.26916113 -0.17157122 -0.062498543 0.15838125 0.03784998 -0.10351643 -0.11016516
-0.18085527 -0.16045494 -0.22553414 0.06539471 0.09319144 0.16839436 0.026608877 0.022064088
-0.07066309 -0.045333833 0.16826135 0.35322472 0.1271322 0.2675062 -0.18534923 0.044065382
0.06540365 -0.1489243 -0.07652335 -0.26069 0.22164313 -0.12036232 -0.02204532 -0.07416883
-0.11127386 0.26400307 0.00995162 0.14492267 -0.21795276 -0.19441193 0.11973234 -0.1366876
0.28644195 -0.010064357 0.18849821 0.027426718 -0.09085588 0.056133714 -0.25315234 -0.13315845
-0.0790928 0.03994231 0.059578434 0.006299653 0.06194134 -0.057280246 0.007030076 0.10459968
0.047021616 -0.1984263 0.024871891 0.06374371 -0.0766082 0.035020567 0.11630656 -0.10160961
0.049415793 -0.18237193 0.025992315 -0.07509466 0.23026423 0.16496567 -0.13305993 -0.07731475
0.121168666 -0.031665917 -0.16249341 0.07746014 -0.06549579 -0.13735951 -0.13891834 -0.08629541
-0.204953 -0.121044 0.005700544 -0.06296957 -0.042563785 0.1058876 0.11163478 -0.0002870738
0.11645325 -0.050055843 0.2203661 -0.19991621 -0.18321039 -0.055090737 0.082562774 -0.21969326
0.18348907 0.23955584 0.22733764 -0.12254437 0.10565939 0.0066371616 0.06535529 0.07727566
0.02574356 0.10211594 -0.13679922 0.06924367 -0.09315576 0.16964811 -0.03731687 -0.2071144

lstm.bias_ih_l1 f4 [192]
00000000: 7968 1dbe 5f93 17be eeeb 89bd b180 0bbd
00000010: 2c32 7f3d cf8d 4dbe 4879 c03d f5f0 3abd
00000020: 1678 20be 6768 53bd 3281 abbd ccc3 3cbd
00000030: 0274 7ebd 48d3 63be edd2 ef3d 769f bfbc
00000040: 913b 23be e12f 2ebd 04ad e63d 151a 0dbd
00000050: 8a82 013e c7b0 be3d 82a8 723d 22b2 02bd
00000060: 2853 b93d 6414 97bd f2c6 96bc 3a7a 0abe
00000070: 59b7 53be cf22 4d3e f2dc adbd 1a40 c5bd
00000080: e9d2 873e f8fc 6dbc d138 fbbd c175 cf3c
00000090: 9bdb 3b3d 53d3 88be 86ee 5a3d c5b6 e93d
000000a0: dbf1 43bd 6d4a 513d 701e 043e bf25 6abe
000000b0: 4230 953d df4d 95bd 3e2a 38be c065 2c3e
000000c0: cf68 d4bd a72c 91bd a6cf 1fbe 097e 37be
000000d0: d6a8 563d 8204 d8bd 1561 3bbe 7abe 04be
000000e0: ee53 303b 0018 4dbd fde0 82bd a8eb 20be
000000f0: c86a 44bd b828 fabd fce9 51be a9a4 06be
00000100: 51a7 46be 56d6 903c aedf babc f50f b23b
00000110: 07ee 99bd 187a 8fba e1f3 a8bd be76 85be
00000120: 8647 643d 0ac2 08be 1616 b03d 1f72 56be
00000130: be89 73be 7a43 3fbe 0b00 52be ba09 7b3c
00000140: f345 923d 6d7d 27be 3bc3 30be 9b26 86be
00000150: a528 84bc 5cf9 d4bd f535 40be bf90 25be
00000160: 0011 d0bc b5c8 29be bac9 26be 7e93 a8bd
00000170: 4d03 78be 0c7f 31be 5a69 f9bc d28d 3bbe
00000180: f4c0 87bd 7e79 41bd 4e0d b6bc c661 08bc
00000190: 85eb 4bbd 7661 82bd 2cca 26bc fdf1 403d
000001a0: f5e3 a63b ee98 9ebd 1f6a 883d 440e 36be
000001b0: 015d ee3d 0af3 9cbd 231a 0f3e 9c08 f5ba
000001c0: 0a07 213e 6f21 513d 8d01 e63d 6dab d73d
000001d0: 3f90 84bd 11cd 42be 68fe 293e 0b3f 6f3d
000001e0: 7b0e 723e 8d23 0b3e d790 2a3e 62e2 433d
000001f0: 90bd 18bd cbdf cd3c 0a90 0f3d 16ff c5bd
00000200: 1aa8 d1bd a1b8 babd 6fa9 0abd 3abf dabd
00000210: 9309 263e e95e 973d ea63 abbd f721 753d
00000220: 4061 493d e344 15be cfe1 053b 2646 d8bd
00000230: 05a9 ee3d e499 43bd ae8f 803d 899a ba3c
00000240: a694 a0bd 9fa2 aa3d cfed b4bc d247 993d
00000250: 96a4 b03d 9bbd 13be 3e60 443b db6a f63d
00000260: 1d74 1ebe 4cca f2bd 43ab 823d 586e babd
00000270: a842 903d a439 79be 940c 0d3d bb3f 403d
00000280: 85c4 9f3d 671f c53d 760d 783d 44af 163d
00000290: 2d3d 4ebd 4e72 573d d3c5 133d b9cd 58be
000002a0: efc7 27bb 24ff c03d 3b86 a03d ae79 c0bd
000002b0: 473d 5a3c c283 113d 515c 88bd 9f53 17be
000002c0: 5442 9e3d ffc1 173c 4af5 debd 0842 803d
000002d0: 0f2d eb3d b22b cebe e68b 4a3d e7ae 21bd
000002e0: 9ed7 493d 6392 febc f9b8 713b 97c1 6cbe
000002f0: f5bf 333d eff5 563d b3a2 0bbe 0a99 e13d
-0.15371884 -0.14802311 -0.06734453 -0.034058277 0.062303707 -0.20073627 0.093981326 -0.04563995
-0.15670809 -0.051613238 -0.083742514 -0.046085164 -0.062122352 -0.22248566 0.11710153 -0.023391467
-0.15940692 -0.04252613 0.11263469 -0.034448702 0.12647453 0.09311061 0.059242733 -0.031908162
0.09049064 -0.07376936 -0.018405411 -0.13523188 -0.2067541 0.2003281 -0.084894076 -0.09631367
0.265281 -0.0145256445 -0.12266696 0.025324704 0.04586373 -0.26723728 0.05345013 0.11411814
-0.047838073 0.05109637 0.12902236 -0.22865961 0.07284595 -0.07290243 -0.17984864 0.1683569
-0.10371553 -0.07088595 -0.15606555 -0.17919172 0.05240711 -0.10547735 -0.18298753 -0.12963286
0.0026905495 -0.050071716 -0.06390569 -0.15714896 -0.047953397 -0.12214798 -0.20499414 -0.1314875
-0.19399764 0.017680328 -0.022811737 0.005434031 -0.07516103 -0.0010946421 -0.08249641 -0.26067156
0.055732273 -0.1335527 0.085979626 -0.20941971 -0.23783013 -0.18678084 -0.20507829 0.015322143
0.07142248 -0.1635644 -0.17261975 -0.2620133 -0.016132662 -0.10399124 -0.18770583 -0.16168498
-0.025398731 -0.1658047 -0.1628789 -0.08231257 -0.24220009 -0.17333621 -0.030445743 -0.18315819
-0.066286 -0.047235005 -0.022223141 -0.008324092 -0.049785156 -0.063662454 -0.0101800375 0.047105778
0.0050930926 -0.07744013 0.06660866 -0.1777888 0.11638833 -0.076635435 0.13974814 -0.0018694582
0.15725341 0.051057275 0.112307645 0.10530744 -0.06472825 -0.19023539 0.16600955 0.05840973
0.23638336 0.1358778 0.16656815 0.047823317 -0.037290156 0.025131127 0.035049476 -0.096677944
-0.10237141 -0.091172464 -0.03385299 -0.10681005 0.1621459 0.073911496 -0.083686665 0.059846845
0.04916501 -0.1457706 0.0020428782 -0.10560255 0.11653332 -0.047754183 0.06277405 0.022778766
-0.078408524 0.08331799 -0.022086052 0.07484402 0.08625142 -0.14427797 0.0029964591 0.120321
-0.15473981 -0.11854991 0.06380322 -0.09103078 0.07043964 -0.24338394 0.034435824 0.046935778
0.07801155 0.0962513 0.060559712 0.03678824 -0.05035131 0.052599244 0.03607733 -0.21172227
-0.0025601347 0.09423664 0.078381024 -0.093982086 0.013320274 0.035526045 -0.06658233 -0.14777993
0.07727495 0.009262561 -0.10886629 0.062625945 0.114832036 -0.40267712 0.049449824 -0.03947344
0.049277894 -0.031075662 0.0036883934 -0.23120724 0.043884236 0.052480634 -0.13636284 0.11015518

lstm.bias_hh_l1 f4 [192]
00000000: 9fb2 2ebe 3e27 0ebe 7ba6 53bd 686b de3c
00000010: 69b6 45bd 2973 16be d7e2 f53d c0e0 aa3d
00000020: 667c 533d 0754 51be a0e6 e63d cf6c ffbd
00000030: 797c 51bd 992c 46be ec45 e4bb 7bd1 96bd
00000040: 0409 95bd fbb3 133e 271e 413e 75b9 fe3d
00000050: 7cc1 bf3d 570b df3d 471c 833d f450 b3bd
00000060: de9a 013e 0445 c63d 19e5 e23c 504d 0c3c
00000070: 700d a3bd 4f5c 333a ce8e 37bd a11b 113c
00000080: df94 773e e6c4 2cbe dfb7 27be 260c d03d
00000090: a75f 87bc 76c0 c3be d460 353d 8537 00be
000000a0: b15d 66bd 69e9 26bd c57a 393d 2b22 84be
000000b0: 0456 1bbe 3843 7abc 80fe 34be fd25 df3d
000000c0: 30bf 63be 4d08 643c 619c ebbd 7c7e 7f3c
000000d0: 8538 903d d1f3 9ebe 6dfe b0bd 6553 6a3d
000000e0: 6da3 00be 2f0f e4bc 7af6 9dbd 04f2 0abe
000000f0: 69d6 cebd d039 78be cfc9 3f3d de63 68be
00000100: 84a8 23be 5397 d3bd 66b1 0abe 74ae e2bd
00000110: 4317 fabc 8efb f7bd c7ec a23d ccb1 2fbe
00000120: e94d 09bd ff1e 11bd d599 2fbd e9a2 39be
00000130: e144 43bd 10c2 70be 4d76 76bd d46a 66be
00000140: 3d49 32bd 3e89 3ebe 48fc 5abe b474 02be
00000150: e28b 85bd 0dd4 68be 3412 a2be fc3e 9b3c
00000160: 44ea 4bbe 2c4e 9a3d 6b21 53bd 156d 97be
00000170: 03cc 22bd 7b89 48be 248d 2c3d 1392 bbbd
00000180: a35a e33b c3b7 fcbd 115c a7bc 3d6b cd3c
00000190: 58c6 6bbe f2ef 12bc 2a06 82bd 905c 43bd
000001a0: 975f c43d 0cbd f4bd 5f41 353d 4c45 143d
000001b0: 3dec d1bd 38d9 f8bd 2366 213e 7344 b33d
000001c0: dbea 18bd 3284 123d 10b9 cfba f064 26be
000001d0: 85b4 e2bb a2c9 9e3d 7e8c 3a3e bee8 ef3c
000001e0: d4f8 8a3e f1ec 2c3e 057c ba3d 6d57 88bd
000001f0: 8bdb 11bd a48c f63a 778a fc3c dcc0 e3bd
00000200: b295 ffbd a9f4 d5bd 1774 923d f33a acbc
00000210: 062c 3e3e fd19 93bc 30c3 e33c 8454 193e
00000220: f715 10be 211c cf3d 74c7 b83c 8e48 a53c
00000230: 8fad 113c 58ad 98bd 7746 54bd 2fa2 d93d
00000240: 6599 e4bd aefd 8bbd db6a 2fbc add5 3bbe
00000250: 2ed2 f03d fd14 8cbe 7203 4cbd d5b4 28bd
00000260: c5ce f23c 75ca 4abe 2450 0f3d 7695 063e
00000270: 223f 103d be0f 35be 6a69 51bc 3df5 10be
00000280: 73ed 103d c640 bc3d f3b7 053e a817 55bd
00000290: 6e5c 51bd 40b3 10be 1a29 c93c a307 84bd
000002a0: 94b0 ef3d 496c 173e ea91 16be 4b88 52be
000002b0: 8747 27bc af40 143e 8f2f f3bd 6089 fabd
000002c0: ecd0 3d3e 0f15 923a cb05 373d 4416 123e
000002d0: ffd2 403d 077e 6cbe 89ed 2c3d fd78 d03c
000002e0: cb3d d73d 6f5d b9bd fe0c f5bc 53e9 dbbd
000002f0: 19f5 b0bc fa1c 9dbb c22e 9cbc 12b9 dbbb
-0.17060326 -0.13882157 -0.05167244 0.027150825 -0.048269663 -0.14692368 0.12006157 0.08343649
0.051632307 -0.2044221 0.11274457 -0.124719255 -0.051144097 -0.1935295 -0.006966343 -0.07364174
-0.0727711 0.14424126 0.18859158 0.12437717 0.09363076 0.10890835 0.06401878 -0.08755675
0.12656733 0.096811324 0.027697133 0.008563355 -0.079615474 0.0006842063 -0.044813924 0.008856685
0.24177884 -0.16871986 -0.16378735 0.10158567 -0.016525103 -0.38232774 0.044281796 -0.12521179
-0.056241695 -0.04074994 0.045283098 -0.25807318 -0.15169531 -0.015274815 -0.17675209 0.108959176
-0.22240901 0.013917995 -0.11504436 0.015594121 0.0704203 -0.31045392 -0.08642278 0.057208437
-0.12562342 -0.027839271 -0.07713027 -0.13568884 -0.10099489 -0.24240804 0.04682332 -0.22694346
-0.15982252 -0.10331597 -0.13544235 -0.110684305 -0.03052867 -0.12108527 0.07955318 -0.17157668
-0.033521567 -0.03542995 -0.042871315 -0.18128552 -0.04767311 -0.23511529 -0.060171414 -0.22501689
-0.043526877 -0.18607041 -0.213853 -0.12739831 -0.06520821 -0.22737141 -0.31654513 0.018950932
-0.19913584 0.07534441 -0.05154554 -0.2957541 -0.039745342 -0.19583695 0.04212679 -0.09158721
0.006938295 -0.12339737 -0.020429643 0.02507555 -0.23024881 -0.00896834 -0.06348832 -0.047695696
0.09588545 -0.1195012 0.044251796 0.0361989 -0.10250137 -0.12150806 0.15761618 0.0875329
-0.03733335 0.035770603 -0.0015848 -0.16249442 -0.0069184923 0.07753302 0.18217656 0.029285785
0.27142966 0.16887261 0.09105686 -0.066573 -0.035609763 0.0018810225 0.030827744 -0.111207694
-0.12479724 -0.10447056 0.07151049 -0.021024203 0.18571481 -0.017956728 0.027803034 0.14973646
-0.14070879 0.10112787 0.022556044 0.020176198 0.008891477 -0.07454938 -0.051825013 0.10626637
-0.1116207 -0.06835495 -0.010706629 -0.1834323 0.117588386 -0.27359763 -0.049807973 -0.04118808
0.029639611 -0.19803794 0.034988537 0.13142952 0.03521646 -0.17681786 -0.01278148 -0.14156051
0.0353827 0.09192042 0.13058452 -0.052024513 -0.05111354 -0.14130878 0.024555732 -0.06446769
0.117036015 0.14787401 -0.147041 -0.20559804 -0.010209925 0.144778 -0.118743055 -0.122332335
0.18536729 0.0011145192 0.04468326 0.14266306 0.04707622 -0.2309495 0.04221872 0.025448317
0.10509833 -0.09051024 -0.029913422 -0.107378624 -0.021601247 -0.004794714 -0.019065265 -0.0067054117

linear.weight f4 [2, 48]
00000000: 2f78 6bbd 246f 39be 4e22 2ebd b8f1 a23d
00000010: e4e3 30be 8f8c 10be 6615 8b3e c2ff b7bd
00000020: cf15 8b3e 42e5 5d3e 5716 3c3e 2912 23bd
00000030: acb7 87be 7c03 393d 9e41 7a3d fcf2 02be
00000040: 96c1 373a 59f9 3d3d 0f1e 4bbe 7ac9 82be
00000050: 94c5 76bd 7407 e0bd 13a5 533d f9bd 3dbd
00000060: c143 e53d 03cc 1a3d a6b6 773e 6b57 3c3e
00000070: c29b 08be de4c 8e3e 6e50 3b3e 3ca9 b33d
00000080: fe53 4e3e 012a 49be 7fab 26be 012e 50be
00000090: 76f4 533e bd0e 0dbd 3e07 62be 421e 2e3e
000000a0: 75fe 5ebe 8479 c9bc 25c3 33be e479 213e
000000b0: 8d33 213e 4e1c 54be eae4 063e 4bad 353e
000000c0: 5274 c8bd 1fc6 c1bd d63b 4dbe 3a3f 2e3e
000000d0: 8c15 52be 8ac1 a63c 2c79 e8bd 66f2 23be
000000e0: 9422 29bd bfce 75bd 267b 193e c119 4dbe
000000f0: 213d 8e3d 8634 1ebe bb13 393e 0002 3c3e
00000100: 9636 533e 4512 1d3e 9054 42bd 0a36 403c
00000110: 2e69 0dbe 1916 1bbe 5860 6e3e 58bb 293e
00000120: da1d 8c3e 5694 663e b86e 13bd c6f0 9bbd
00000130: 8592 0a3d b837 23be 3d5a 39be 5daf 25be
00000140: c904 a1be f396 b4bc 9d1b a73d 971b 083d
00000150: f7da 643d 2c8a 483d 9b88 b53d 072b 4f3d
00000160: 4e69 86bc 5e1e 43be fc0a b9bd 913c 59bc
00000170: 3862 163d c067 b9bd c9f5 3c3d 76ef 213e
-0.057487663 -0.18108803 -0.042513184 0.079562604 -0.17274433 -0.14116119 0.27164763 -0.08984329
0.27165076 0.21669486 0.18367897 -0.03981224 -0.26507318 0.04516934 0.061097734 -0.12788004
0.00070097425 0.046380375 -0.19835685 -0.2554434 -0.06024702 -0.109389216 0.0516711 -0.04632375
0.11194564 0.037792217 0.24190769 0.18392722 -0.13340667 0.2779302 0.182924 0.08772513
0.20149228 -0.1964493 -0.16276358 -0.20330049 0.20698723 -0.034437884 -0.22073075 0.1700373
-0.21776755 -0.024594076 -0.1755491 0.15769154 0.15742321 -0.20713922 0.13173261 0.17741887
-0.09787811 -0.09461617 -0.20042357 0.17016307 -0.20516032 0.020355958 -0.11351237 -0.16010436
-0.041292742 -0.06001162 0.14988384 -0.20029356 0.06945253 -0.15449724 0.18073933 0.18360138
0.20626292 0.15339 -0.047443926 0.011731634 -0.13809654 -0.15145148 0.2327894 0.16575372
0.27366525 0.22517523 -0.03599426 -0.07614283 0.03383114 -0.15939224 -0.1810083 -0.16180177
-0.31448963 -0.022044634 0.08159564 0.033229437 0.055872884 0.048959896 0.08863946 0.050578143
-0.016407635 -0.19054553 -0.09035298 -0.013259069 0.036714762 -0.09052992 0.046132836 0.15814003

linear.bias f4 [2]
00000000: 8daa 4f3e d3c9 403e
0.20279904 0.1882699
