checkpoint/training_epochs_200_stepsize_7_gamma_0.75/model_epoch130.pth (torch, 117574 bytes, 10 tensors)

lstm.weight_ih_l0 f4 [192, 2]
00000000: def8 f0bd d293 1a3e e788 8bbe 84cf 08be
00000010: cf4c a73d 864b d53c da0a 223e f986 4c3e
00000020: ded6 a63e 1850 323e 0a92 94be e82c ec3c
00000030: 581d 913e d5c8 833e af98 2a3e b1c3 6e3e
00000040: 0351 bb3e a903 c43e 1b0b 17be 18b2 d13d
00000050: d88b 123e 063e aebc 371e c03d a9ed 273e
00000060: 9300 1e3e f7ac f6bc f27f 213d dee6 c4bd
00000070: 727b b33e 1aad b13d 292a cf3e ea07 853e
00000080: 6175 183c 8556 11bd 1988 a83e 56ef ac3e
00000090: 3dda 2c3e 9a60 1e3e bde5 1fbe 5b95 3cbe
000000a0: db3c 353b 2b5d 33be b2aa 19be 05c5 a93c
000000b0: af5f 833e 9a54 bf3d a259 983e d2d5 9a3e
000000c0: fed0 523d 40dc 293e efcb ed3d 6eca 5f3e
000000d0: 6063 cebc fb81 523e 6df3 e53d 767a 303e
000000e0: 778e d93d a69a 80be 42c4 d33e 6a50 a23c
000000f0: 68af 25be 43ce f0bd 76b1 e53d 4a1b 553d
00000100: d9ee a4be 0e56 9abe 33cc c4be 47e1 d2be
00000110: 53ea f3bd f90c 343e cd37 923d 8bc8 283d
00000120: 8ab8 5c3e be77 3a3d 9d08 d5bd 94f6 98be
00000130: 7171 4fbe 24a5 93be 750f 7b3d bcb4 863e
00000140: 3a5f 80be 75db 2fbe 7e9e 343e 165f 463e
00000150: ec9a d53d 601d ee3c d7ed c7bd 7113 6dbe
00000160: ad7e 61be ec3b 39bd c2d1 873e 194e 4c3e
00000170: 1744 413e 921a 9b3e 848c 203d 6c95 ecbc
00000180: 4660 42bd 2f99 1f3e 450a db3d 2990 d43d
00000190: 0e52 66be e7c2 a5bd 85a6 bebd 645b d83d
000001a0: e58e ffbb e1ca 543e f131 12be 6f28 e93d
000001b0: 0fe8 76be c95b ef3c 34ee 07be e274 723a
000001c0: cc5b 503e 8231 a23e 16b9 e4ba ec48 55bc
000001d0: 090d 6d3e 6e30 4d3e 07b9 8abd 3393 ad3d
000001e0: d7a8 ffbd 5f18 c53d 9435 a53e 6746 92bd
000001f0: 5b05 603e 939e 813e a398 043c 94d1 98bd
00000200: f899 72be aac1 67be 0f3a 553d 1a31 593d
00000210: d8ee 003d 4cca cf39 76b8 4d3e ad4b 3e3e
00000220: d9fa 20be 17dd 09be 8b3d 5fbe a475 403d
00000230: 9c0e 06bd 9c43 463d 4ab4 933e 5b80 983e
00000240: d4a9 ab3d 373c e83c c126 123e 01a8 ad3e
00000250: 7f04 01be f272 233e 05ac 323e 4840 4ebe
00000260: 95c6 a13e f99d 103e 662b 6b3e f7d1 b4bd
00000270: eab8 6b3d f9d8 50bd d70c 2b3e fb19 a73e
00000280: 80ea 87bd b172 01be e7bc 453d 6682 613c
00000290: 63bb ea3d cc5b 973d f834 40be 4e8c 79bd
000002a0: 0acb 683e 78e4 9e3d f0c4 0f3c 2747 f5bd
000002b0: 90cb 0e3b de2c 59be 110a 0a3e 3878 49ba
000002c0: b296 11bd f16c 48be 2830 0b3d dc4d 1b3e
000002d0: 83da c43c 8382 8b3e 382e 26be a35e 43be
000002e0: 710f f43d 40fd 01be f409 6e3e 1906 0b3e
000002f0: bdcb 843d 10b5 a83e c31b 863d bc6f b9be
00000300: bae8 f03d eb04 c1be b628 043e ba12 963e
00000310: 2729 193e 6f17 c13e 8578 c1bd 60d2 073f
00000320: ea91 883e 01e3 ab3e a39b cc3c cd4b 883e
00000330: 4e8e 0abf fe21 1c3d f610 5cbd 0a80 b33e
00000340: 5172 ff3e c55e 923e 70b6 b73e ad28 fd3d
00000350: 4b71 19bd 79e9 9bbe a3bf 02be fc2a dabe
00000360: 40a7 89be cc38 babe 764b b8be 3170 103d
00000370: 58dd eb3d 8cc7 edbe 148f 40be 8b19 b0be
00000380: 95b8 c83e c477 98bd e7eb d13e 503e bfbe
00000390: 1e75 573e f5c0 a13e f8c4 893e 222d 5c3e
000003a0: 72cd 71be 5a05 3dbe ac99 963e 575a 48bd
000003b0: 37d7 50be 6774 b6be f8b6 3cbe d9eb b7be
000003c0: f3ea ad3e c51e 41be 19b7 b4bd a7bc bdbe
000003d0: bc43 473e 418c c7be 2497 05bf 3986 3f3c
000003e0: cdeb 7ebe 61ed ab3d 208b f83e 6737 aabe
000003f0: 5949 b4be ba23 10be c159 643d 5563 cfbe
-0.11766218 0.15095451 -0.27252886 -0.13360411 0.08168947 0.026036989 0.15824452 0.19973363
0.32585806 0.17413366 -0.2901767 0.028830007 0.283427 0.2573916 0.16659807 0.23316838
0.36585245 0.38284042 -0.1475033 0.10239047 0.14311159 -0.02126981 0.09380763 0.16399254
0.15429907 -0.030111773 0.03942866 -0.09614347 0.3505512 0.08675595 0.40461853 0.259826
0.009305329 -0.035482902 0.32916334 0.3377635 0.16880126 0.15466538 -0.15614982 -0.1841635
0.002765468 -0.1751601 -0.15006521 0.020723829 0.25658938 0.09342308 0.29755884 0.30241257
0.05146884 0.16587925 0.11611163 0.21854565 -0.02519387 0.20557396 0.112280704 0.17234215
0.10622876 -0.25117987 0.4136067 0.019813735 -0.16180193 -0.11758091 0.112154886 0.052027978
-0.32213476 -0.3014378 -0.38437042 -0.41187498 -0.11909928 0.17583074 0.071395494 0.041206878
0.21554771 0.04552435 -0.104020335 -0.29875624 -0.20258118 -0.2883693 0.061294038 0.26309764
-0.25072652 -0.1717356 0.17638585 0.1937221 0.1042994 0.029066741 -0.09762161 -0.23151948
-0.22020979 -0.04522316 0.2652722 0.19951667 0.1887363 0.3029371 0.039196506 -0.028879844
-0.047455095 0.15585779 0.10695318 0.10379059 -0.22492239 -0.08093815 -0.09309105 0.105643064
-0.007799017 0.20780517 -0.14276864 0.11384665 -0.24111961 0.029218571 -0.13274461 0.0009248984
0.20347518 0.31678396 -0.001745018 -0.013017874 0.23149504 0.20038006 -0.067735724 0.08475342
-0.124833755 0.09623789 0.3226744 -0.071423344 0.21877043 0.25316295 0.008093032 -0.07461849
-0.23691547 -0.2263247 0.052057322 0.053025343 0.03147778 0.0003963284 0.20089898 0.18583556
-0.15720691 -0.13463245 -0.2180082 0.04698719 -0.032728776 0.04840432 0.28848487 0.29785427
0.083820015 0.028349025 0.14272596 0.3391724 -0.12599371 0.15961817 0.17448433 -0.20141709
0.3159682 0.14122762 0.22965774 -0.0882911 0.057549395 -0.05098817 0.16704117 0.3263701
-0.06636524 -0.12641408 0.048275854 0.013764 0.114615224 0.07390556 -0.18770206 -0.06092482
0.22733703 0.07758421 0.008774981 -0.11976462 0.0021788813 -0.21208522 0.13480403 -0.00076854555
-0.035544105 -0.19572808 0.033981472 0.1516642 0.024029976 0.2724801 -0.16228569 -0.1907907
0.11917008 -0.12694263 0.23245984 0.13576545 0.064841725 0.3295064 0.06548264 -0.3621806
0.11763139 -0.37699065 0.12906155 0.29311162 0.14957105 0.3771319 -0.094468154 0.5305538
0.26673824 0.33571628 0.024976557 0.2662033 -0.5412339 0.038118355 -0.053727113 0.35058624
0.49891904 0.28587928 0.35881376 0.12361274 -0.03746156 -0.30451563 -0.12768416 -0.4261092
-0.26885414 -0.36371458 -0.35995072 0.035263244 0.11516827 -0.46441305 -0.1880458 -0.34394488
0.39203325 -0.074447185 0.41000292 -0.37352228 0.2104077 0.31592527 0.26908088 0.21501592
-0.23613527 -0.18459073 0.29414117 -0.04891428 -0.20394598 -0.35635683 -0.18429172 -0.35922125
0.33968315 -0.18859394 -0.088239856 -0.37057993 0.19459432 -0.38974193 -0.5218375 0.011689716
-0.24894638 0.08394886 0.48543644 -0.33245394 -0.3521221 -0.14076129 0.05574966 -0.40505472

lstm.weight_hh_l0 f4 [192, 48]
00000000: f01c 89bd fdb8 8d3e 8899 c3bd 117a 0abd
00000010: 5f1b f4bc 7d22 85bb b565 ad3d 654b 993d
00000020: c31a 70bd 33a3 85bd 28bb 28be 2778 fbbc
00000030: 0bcc a43c cf97 063e ba2b 80bd 42ba 13be
00000040: f83b 0d3b 5cda 0fbe c9b5 b3bd d652 403e
00000050: e13a 52bd 94b5 bebc c08b c63c e4ff d83d
00000060: 603d 8abe 222c 98bc ed65 11be 1a97 4c3c
00000070: 8004 3dbe abdc 62be ba35 793d 500d ed3c
00000080: ac29 c0bd cc60 953b 7603 8c3e 113b ff3d
00000090: cf2c 99bc 22c8 6c3e 98b0 27be fec4 4dbd
000000a0: 4c65 c33d 95fe 5ebe 617b cbbd 3874 123e
000000b0: 4903 933c d0fe 263e 4456 bd3d 87d4 6c3d
000000c0: 883e e53c 9b58 fcbd fbf3 17bd 48c7 80be
000000d0: 9b04 5cbe 8a44 03be 2c22 d93e de22 04be
000000e0: 5f8b b0be ae89 35be 475a 1c3f 8cc4 913e
000000f0: 5ee2 8a3e ad11 ed3e 5aea e43e 72ac 9b3e
00000100: c17c b2ba 2b55 52be 985a 9fbe ca2a 93be
00000110: ad1a 843e b835 213d dab4 893e 5a64 923e
00000120: e3ed 16bf a6e2 193f 5a88 2fbe 782d a13e
00000130: 8cde 5e3e 897e 96be ec76 8c3e 066c 7c3e
00000140: 1b01 41be d11c d93d 8950 923e f6dc b1be
00000150: 7972 093f e71b a3bd c4d6 833d d68c e8bd
00000160: b578 f93d 4411 16bf 5836 4c3e 90e7 21bc
00000170: 0e89 1dbd 2e6a b7be 1a10 a83e cc8f 8bbd
00000180: d7ee 243d 71e5 91bd 0df8 45bc 13a1 e3bd
00000190: 0979 9dbd e056 dcbd 69e1 c4bd 8d55 a6be
000001a0: e409 e03c c62b 37bd 3a8d 163e d011 093e
000001b0: 21d9 05bd 5bab 9c3d b362 973e b2d6 2c3e
000001c0: 4633 fa3d 2616 c9bd b6ad 8fbd 1f68 37bd
000001d0: 67d0 2abe 0f75 c43d 7b35 8cbd 8529 3e3e
000001e0: 65fd 1ebe 35bd ba3d 0ddc 1ebe ca27 1ebe
000001f0: b45b 5ebe 3195 493d 4bbf 0ebc f31b d6bb
00000200: 78e5 b43c 4fa6 3a3d d881 24bd e48f 103d
00000210: 5af6 ebbc 5269 bc3d 0a66 623e b6c9 cd3d
00000220: 22cd 1cbe c188 babd 2915 dcbc 11bf b13e
00000230: 1eeb 9ebe d350 c5be d3c8 2a3e 1b5e 983e
00000240: 7372 1d3e c4d5 193f 586b d63d 20b6 28bd
00000250: 7161 723d e2a5 f23c 1721 7abe bf1f 00be
00000260: fe69 babc 7c69 623e 9265 ba3d 0cce 423e
00000270: f8ec c3bd a999 02be 4073 ed3d 5483 ea3b
00000280: 0c21 c43e df68 483e 64c2 77bd 9608 29bd
00000290: 8324 d0bd 1c14 ad3e acfe 51bd a608 ee3d
000002a0: 69ef 993d 90ad 1ebe 648e cdbc e2a9 e4bd
000002b0: 6d51 dbbe a2c0 683e c09b e9bd 726c 2d3e
000002c0: 3d7f 7a3e 8a85 ea3d 3b6a 1c3e 4f64 d53d
000002d0: 3bb0 64be 5148 d93d f39c 0e3e 95b1 9a3e
000002e0: e288 6abe dafc e33b 3b10 bf3d f6ad c43d
000002f0: 4d41 d7bd fa05 cc3c a7ae 753d 8365 ee3e
00000300: 9d83 39be cec7 b83e 8bff 3e3e 4ea0 8d3d
00000310: e7ad 293e 89f0 0ebd 4d60 bd3c 4dda 7c3b
00000320: ce3c fc3d ad10 b6bd 61b4 0d3e 819c 843d
00000330: a4e6 bbbd bb1a 0d3e 5e71 df3b 99b2 06be
00000340: 4f41 08bb 1308 77be 0307 49bd 2605 c03d
00000350: 5422 0cbe 94a8 b53c 3ccf 5d3d daaf 02be
00000360: 420f 183c 278f cc3d a20b d2be ffe3 493c
00000370: ce07 29be 34de 03be d5d6 61be 8412 843c
00000380: 506c ad3c 4f59 843e bd0e 31be f227 fc3c
00000390: 5d9e 9e3d dc33 c03d c77e dbbc dc35 32be
000003a0: 0acf 89be b071 82bc da89 12bc c1ac ea3d
000003b0: 364f 90bd 8cb3 533e 62fb 45be afce de3d
000003c0: 6e53 28be a00f 003e db37 993e 32cd 3ebe
000003d0: 824c 00bd c24d 1e3c 73db 803d fbe8 fc3d
000003e0: 44ed 94be 38f8 bebd f593 8dbd c83e 0d3e
000003f0: 7d99 ca3d ec5d 58be f7f8 a4bd 166b 743d
-0.066949725 0.27680197 -0.09550768 -0.033807818 -0.029798208 -0.004062949 0.08466665 0.074850835
-0.058619272 -0.065252684 -0.16477644 -0.030696942 0.020116827 0.13143848 -0.0625834 -0.1442652
0.0021550637 -0.14048141 -0.08774907 0.187816 -0.051325683 -0.023279943 0.02423656 0.10595682
-0.2699995 -0.018575732 -0.14199038 0.012487197 -0.18458748 -0.2215449 0.060842253 0.028937012
-0.09382948 0.004558658 0.2734639 0.12462438 -0.018698124 0.2312322 -0.16375959 -0.050236695
0.09540805 -0.21776803 -0.09935642 0.14302146 0.017945902 0.16308141 0.092449695 0.05781987
0.027983919 -0.12321588 -0.037097912 -0.2515204 -0.21486132 -0.12819114 0.42408884 -0.12903926
-0.34481332 -0.17728302 0.6107525 0.28470266 0.2712583 0.46302548 0.44710046 0.30405003
-0.0013617502 -0.20540302 -0.31123805 -0.28743583 0.25801602 0.03935787 0.2689579 0.28592187
-0.58956736 0.60111463 -0.17141858 0.31480002 0.21764582 -0.29393414 0.2743448 0.24650583
-0.18848078 0.106011994 0.28577068 -0.34738892 0.53690296 -0.07964306 0.06437448 -0.11354987
0.12181226 -0.58620095 0.19942605 -0.009881869 -0.038460784 -0.35823196 0.32824785 -0.068145365
0.040266838 -0.071238406 -0.012083066 -0.11114707 -0.07689101 -0.107587576 -0.09613306 -0.32487145
0.027348466 -0.04471948 0.14702311 0.13385701 -0.032677773 0.07649871 0.2956749 0.16878775
0.12216811 -0.098186776 -0.070155546 -0.044777032 -0.16681062 0.0959264 -0.06846138 0.18570526
-0.1552635 0.091181196 -0.1551363 -0.15444866 -0.2171467 0.049214546 -0.0087126 -0.0065340935
0.022082075 0.04556876 -0.04016289 0.035293475 -0.028803993 0.09199776 0.22109237 0.10048239
-0.15312627 -0.09108115 -0.026865559 0.34716085 -0.31038755 -0.38538226 0.16678171 0.29759297
0.1537569 0.60091805 0.10469693 -0.041189313 0.05917496 0.029620115 -0.24426685 -0.1251211
-0.02275562 0.22110552 0.09101404 0.19023913 -0.095666826 -0.12753929 0.11594248 0.007156769
0.38306463 0.19571255 -0.06048812 -0.041267954 -0.10163214 0.33804405 -0.051268265 0.11622743
0.07516367 -0.15495896 -0.025092311 -0.11165215 -0.4283556 0.22729734 -0.1140666 0.169359
0.244626 0.11451252 0.15274899 0.10419523 -0.22332852 0.106094964 0.13927059 0.3021361
-0.22903779 0.0069576325 0.093292676 0.09603493 -0.10510502 0.024905194 0.059981015 0.46561822
-0.18116613 0.3608994 0.1865217 0.06915341 0.16570245 -0.03489736 0.023117209 0.0038582266
0.12316285 -0.088898994 0.1383834 0.06475163 -0.091748506 0.13779728 0.0068189343 -0.13154067
-0.002079088 -0.24124174 -0.049078953 0.09375982 -0.1368497 0.02217511 0.054152712 -0.12762395
0.0092809815 0.09988242 -0.410245 0.012322425 -0.16506884 -0.12877733 -0.22054608 0.01612211
0.021169811 0.25849387 -0.17290778 0.030780766 0.07745049 0.093848914 -0.02679385 -0.17403358
-0.2691577 -0.015923351 -0.008943999 0.114587314 -0.07046358 0.2067396 -0.19334176 0.108792655
-0.16438076 0.1250596 0.29925427 -0.18632963 -0.031322964 0.009662094 0.062918566 0.12349125
-0.2908727 -0.09324688 -0.06912986 0.1379348 0.09892557 -0.21129578 -0.08055299 0.059672438

lstm.bias_ih_l0 f4 [192]
00000000: 71c7 1e3e 22a2 7abe 4b1d dcbd eba0 c53d
00000010: 8322 edbd 9598 8ebe 15b8 263e a9b0 babd
00000020: d379 be3d 6d31 26bc 32e7 38be b961 433c
00000030: 3e6e 06bd 3e8a b43d 2682 703e dc53 263e
00000040: aa73 00bd fb00 783e a71e 5b3d 440b 13be
00000050: ff8d 95bd 7c2f 24bd ed97 023e ee7a 453d
00000060: eb16 923e 23de 403c d940 24be 5f2e 893e
00000070: 43a0 56bd 271d ed3d 6c46 6ebe b537 913c
00000080: b501 7cbe f577 37be 09f9 a4be a4e7 8abd
00000090: 6a5a d03d 03bf c0be 26c1 77be b9b9 293e
000000a0: 937e 8bbd eb22 713e f86b dcbd 113a 04bc
000000b0: dd24 93be 302b d33d 1816 da3d c749 cc3d
000000c0: 41fa 40be 17ae 463e e072 97bd 3c42 06be
000000d0: a626 6dbd 9064 0fbe a4d2 b5b9 f0fb 2cbe
000000e0: 82d7 2abd 67ee 973c 6002 303e b819 6a3d
000000f0: 9da5 2cbe 1d26 653c d01a 293e 890a c3bd
00000100: 5455 29be 69da 4d3e d838 aa3c b9da a53e
00000110: 0e20 cabd c999 62be b4d2 6c3d 3167 00be
00000120: 8023 d9bc 6477 123e 3db7 e53d 0756 a13d
00000130: b3bf c13e 96b7 12be 5b6f c33d 1f95 813d
00000140: 665a b9bd 6901 5d3d 6b4c bcbd e10b e7bd
00000150: 3329 383e ca81 20be b5cc 30be d2a4 1f3e
00000160: 9fc7 113e eef4 b73d 1481 c8bd fd9d 92be
00000170: 70d9 4abe b77c acbd 6792 c0bd e23e f2bd
00000180: 52e0 063d 3f5a d4bb 966f d1bd 3d89 98bd
00000190: c7ef 04be 12a1 01be ef48 873d 3ff6 4cbd
000001a0: 13f0 c1bc 3ff1 0bbe 1e98 6fba 55b6 7e3e
000001b0: b1fd 343e 218a 97bc 4f90 61bc 8150 433e
000001c0: a85a 1fbd 6af3 e9bd b54a d6bd bda8 28be
000001d0: be94 573d f044 b9bb 178e 803d 321d d13d
000001e0: 223d 21bd 754f 693d b5c1 953d 48ed 073e
000001f0: a42b 683c 30b2 093d d262 453e ded9 e83d
00000200: 6d42 5dbd f2c6 f6bc 8a54 ae3d daaa eabd
00000210: 85b0 2e3e c19b 24bc 9bc8 c0bd 2e7e 48bc
00000220: aadc 87bd ce4c 0ebe 460d 003e cfb1 6f3d
00000230: 907f 0e3d c292 1cbe 8d45 acbb 936d 623d
00000240: 5451 fabc 829c 5bbe 3823 2fbe ad85 4c3e
00000250: dec1 01be 46c6 52be 836a e43d 1803 0c3e
00000260: 4969 d03c 750d 13be 67c8 63bb f2b8 d23d
00000270: c97b f4bd 32c2 113d 91bc bf3e acc3 383e
00000280: cef6 c4bd 2bee cb3e 1a96 173d 46d7 b3bc
00000290: bb80 33bc 215b 42bd 1f81 0dbd 9159 9d3d
000002a0: 3a90 3f3e 69c6 02be eef9 913c 72a8 e93d
000002b0: 4d83 763d bb32 0a3e 391a 15be 8c78 09bc
000002c0: 1a79 85be 24e0 87be 1efd e2bd 17b8 30bb
000002d0: 6049 b53d 6734 0dbe ae40 93be 5fa4 293d
000002e0: 4912 69be 025c 003e 7c81 0ebc 45d0 52be
000002f0: 59df 88be 4196 ce3c 50bd 243d b592 71bd
0.15505768 -0.24475911 -0.10747775 0.09649833 -0.11578848 -0.27850786 0.16281159 -0.091157265
0.0930058 -0.01014362 -0.18056944 0.011925154 -0.03281998 0.0881543 0.23487148 0.16242927
-0.031360306 0.24219124 0.05349603 -0.14359766 -0.07302474 -0.040084347 0.12753268 0.048212938
0.2853311 0.0117717115 -0.16040362 0.2679319 -0.05239893 0.11577826 -0.23269051 0.017726758
-0.24610026 -0.17916854 -0.3222125 -0.06782463 0.10173495 -0.3764573 -0.24194774 0.16574754
-0.068112515 0.23548476 -0.10762781 -0.008070485 -0.28739062 0.10310972 0.10648745 0.099750094
-0.18845464 0.19402348 -0.073949575 -0.13111204 -0.057898186 -0.14003205 -0.0003467995 -0.16892982
-0.04170943 0.018546296 0.17188406 0.057153434 -0.16860051 0.013986138 0.16514134 -0.09523494
-0.16536456 0.20102848 0.020779058 0.32393435 -0.09869395 -0.22128977 0.05781813 -0.12539364
-0.026506186 0.14303356 0.112165906 0.078777365 0.37841567 -0.14327845 0.09542724 0.06327271
-0.09050445 0.053956423 -0.09194263 -0.112815626 0.17984466 -0.1567451 -0.1726559 0.15590218
0.14236306 0.089822635 -0.09790245 -0.2863616 -0.19809508 -0.08422225 -0.09402924 -0.118284
0.032928772 -0.0064804847 -0.102263615 -0.07448051 -0.12982093 -0.126591 0.06605708 -0.050039526
-0.023674047 -0.13666247 -0.00091397937 0.24874242 0.176749 -0.018498482 -0.013767316 0.19073679
-0.038904816 -0.11423381 -0.10463468 -0.16470619 0.052632086 -0.00565397 0.062771015 0.10210647
-0.03936494 0.05696054 0.07312337 0.1327411 0.014170561 0.0336172 0.19275978 0.1136968
-0.054018427 -0.030124161 0.08512218 -0.114583686 0.17059524 -0.0100469 -0.094132625 -0.012237115
-0.06633885 -0.13896486 0.12505063 0.05851918 0.03478962 -0.15290359 -0.0052573145 0.05528028
-0.030556358 -0.21446422 -0.17103279 0.19972868 -0.1267161 -0.20583448 0.11153128 0.13673055
0.025440829 -0.14360602 -0.00347569 0.10289182 -0.11937673 0.03558559 0.37448552 0.18043393
-0.09617387 0.39830145 0.037008382 -0.021953236 -0.010955985 -0.04745019 -0.034546968 0.07683099
0.18707362 -0.12771 0.017819371 0.114090815 0.060183812 0.13495915 -0.14560784 -0.008390557
-0.26068956 -0.26538193 -0.110834345 -0.0026965195 0.08851886 -0.13789521 -0.28760284 0.041416522
-0.22760881 0.12535098 -0.008697864 -0.20587261 -0.267329 0.025218131 0.040219605 -0.0589778

lstm.bias_hh_l0 f4 [192]
00000000: 3a09 a93d 49d6 3bbe 8a6a a63d 3eb3 053d
00000010: 5d81 8ebd fe06 86be 4252 6f3e f5d8 0dbe
00000020: ed79 263e ea88 3a3d 845c 493d 59cc 7d3e
00000030: d733 ba3d 0e8a 143e 3111 0a3e a48a 8c3e
00000040: f122 a03c 2a9e 7f3e bd33 5ebd dcff 423d
00000050: ffd3 68bd a4ee 6abe 1af2 39bd e31e 043e
00000060: 484d 883e ce08 93bb ef81 f5bd 420f 993e
00000070: 8e45 573d 4ab3 623e 8a03 b2bd a2e3 a1bd
00000080: 1fc2 7bbe d6ee 37be ed89 8dbe 53a0 603d
00000090: 1322 0e3e 473f 04be 0ec5 06be f4dd 523d
000000a0: 62ce 97be 6cac 613e e22d debd a721 56bc
000000b0: aaf8 26be b40a 803e fedb 323d f227 fbbd
000000c0: a553 8dbd 73f6 1bbd a639 e8bd aa1d 7fbd
000000d0: 490f 46be 1bee 99bd 7f89 bbbc ab7e aabd
000000e0: 4218 13be d2ea 9dbd 82da 4a3e 1c48 dabd
000000f0: 457d 47be 2d8f 03bd 8405 2a3e 856d 82bd
00000100: 3c38 88bd 021c 153e c5d6 14bc 093f 893e
00000110: 53b3 e2bd e7d3 38bd 8a2f 2e3c 20b8 173e
00000120: 7d1f 26bd 3ff0 253d 2747 8e3d 854d f0bd
00000130: 4a7c 8a3e 4203 b3bd f1b8 173d 7304 873c
00000140: e38d 873c 07d0 02be 1b96 743d bc4c 15be
00000150: d810 0e3e c358 003d 3e75 e43c 5ce2 8dbd
00000160: b121 013e 9a9e 283e d9c3 733c 368c 2ebe
00000170: 033d f8bc 40b2 e4bd 7686 8d3d 678e 05be
00000180: f829 553d bf06 893d b6ed 1abe d0a0 e3bd
00000190: 37ee aabd a3de 103d e509 133e 2066 b9bd
000001a0: 5d58 8abe 927d c2bd 59be 273d 98e7 abbc
000001b0: 403a 373d 2684 043e 4a52 fc3c d6ca e43c
000001c0: dc79 77bb 77b2 c43d 42b8 00be afdb a93b
000001d0: acec 1c3e 8523 29bd cc17 543e dc93 ab3c
000001e0: 7cf5 08bd 3242 99bd 2df0 733b eb48 503d
000001f0: 54b5 683d dcb1 32bd 1870 90bc b5a5 3b3d
00000200: b444 803d 8698 b0bd 7919 0d3d bfad ffbd
00000210: fbac 88bd a58a a73c faaa cf3d 303b 1e3d
00000220: e0ba 273c 3792 02be 049b 8c3d a192 8dbd
00000230: f674 7ebc eeda 9fbc 3609 693e d179 0e3d
00000240: 8cf7 823d d4a8 44be 0a47 41bd 70b2 bd3c
00000250: d5f1 c3bd 2945 22be 873f 4f3e f40e acbd
00000260: 1fc1 6c3e 2993 1dbe 2618 1bbe 61e8 863e
00000270: d26a c43b 9162 583c 4dc4 993e 5990 0a3e
00000280: 11d6 d13c cfc0 3c3e 38f2 e2bd 8ed5 7abb
00000290: 13a9 1a3d 16fc 403b 22bf a43d 2e41 b0bb
000002a0: 01ac ea3d 2467 b23c c8b4 f53d e172 873d
000002b0: 1f73 603e cb06 183e 548f 43be a1f4 333d
000002c0: 0f0b 88be 6cf3 94bd 91e7 6abe 4a50 523c
000002d0: c03d 6f3e eb14 4fbe ea82 80be d5d2 053e
000002e0: a05a 5abe 0176 323e 6956 8fbd 01dd c4bc
000002f0: be08 debd 57c7 d03c 96f2 f33d 7521 253d
0.08253713 -0.18343462 0.081257895 0.03264164 -0.06958268 -0.2617721 0.23371223 -0.13852294
0.16257448 0.045540728 0.049160495 0.24784984 0.09091919 0.14505789 0.1348312 0.27449524
0.019547911 0.24962679 -0.05424856 0.047607288 -0.0568428 -0.22942597 -0.0453969 0.12902407
0.2662146 -0.0044871336 -0.119876735 0.29894453 0.052556567 0.22138706 -0.08692081 -0.07904746
-0.2458577 -0.17962202 -0.27644292 0.054840397 0.13880186 -0.12914763 -0.13161108 0.051481202
-0.29649645 0.2203843 -0.10848595 -0.013069547 -0.16305795 0.25008166 0.043666832 -0.12263478
-0.069007196 -0.03807683 -0.113391206 -0.06228415 -0.19341768 -0.07516118 -0.022892712 -0.08324941
-0.14364722 -0.07710804 0.19809917 -0.10658285 -0.1948138 -0.032118965 0.16603667 -0.063685454
-0.06651351 0.14561465 -0.009084408 0.26805905 -0.1106936 -0.04512396 0.010631451 0.14816332
-0.040557373 0.04051232 0.06947165 -0.11733536 0.2704795 -0.08740856 0.03704161 0.016481614
0.016547149 -0.12774669 0.059713464 -0.14580053 0.13873613 0.03133465 0.027887937 -0.0692794
0.12610509 0.16466752 0.014878237 -0.17045674 -0.03030253 -0.11166811 0.06910412 -0.13042603
0.052041978 0.0669074 -0.15129742 -0.11114657 -0.08346217 0.035368573 0.14359243 -0.09052682
-0.2702054 -0.09496607 0.040953014 -0.020984456 0.044733286 0.12941036 0.030800957 0.027928751
-0.0037761843 0.09604352 -0.12570289 0.005183659 0.15324658 -0.04129364 0.20712203 0.020944528
-0.033437237 -0.07483329 0.0037222013 0.05085079 0.056813553 -0.04362665 -0.017631575 0.045812327
0.06263104 -0.086228415 0.03444812 -0.12484311 -0.066736184 0.020451853 0.10140033 0.038630664
0.010237426 -0.12751089 0.068655044 -0.06912733 -0.015530815 -0.019513573 0.2275742 0.034784142
0.06394872 -0.19205028 -0.04718689 0.023156375 -0.0956761 -0.15846695 0.20239078 -0.084012896
0.23120545 -0.15388168 -0.1514593 0.26349166 0.0059941793 0.013207094 0.30032578 0.13531627
0.02561477 0.18432926 -0.11081356 -0.0038274261 0.037758898 0.002944713 0.08044268 -0.005378864
0.114585884 0.021777697 0.11997372 0.06613708 0.21918915 0.14846341 -0.19097644 0.04393447
-0.26570937 -0.072729915 -0.22939898 0.012836525 0.233634 -0.20222823 -0.2509988 0.13068707
-0.21323633 0.17427827 -0.06998903 -0.024031164 -0.10841511 0.025485678 0.11911504 0.04031511

lstm.weight_ih_l1 f4 [192, 48]
00000000: 1388 083d 05f2 ba3e 2527 5e3e d5aa aebd
00000010: 7ce7 813d 8c5f 613d 1c53 37be daa3 99be
00000020: f07a d6bd 04db fc3d 5c0f febd 244c a23d
00000030: 404a c4be 1ec4 773d 6983 923d e33d 54bc
00000040: 6859 c63e f6e6 613d f811 103e 2cd9 873e
00000050: e958 233b 7d41 973e 2feb 053e 5e1f c2bd
00000060: 8c5b 7dbd 26fc 96bd a481 9dbc dc1b a6bd
00000070: b3ac dcbd 1f2b 4a3d 6f24 163d 768b 9bbd
00000080: 6057 c83e fcb4 803e 5180 4b3e f9fb ba3e
00000090: 8711 26bc eaff af3e 75d2 b43d c9cb a63e
000000a0: c9dd 73be 4999 5cbd 0b43 a4bd f7c9 9d3e
000000b0: c8e8 19be ea0d da3d 1ad0 e83d 80d2 a63e
000000c0: f712 03be 50a7 1c3e c86f ac3e 3404 4c3e
000000d0: 98ff 893e 717e 683d b0c5 a7be f666 ee3d
000000e0: 570e 463e 586d 00bd b9c6 253c 7585 e4bd
000000f0: 4c01 95be 8c7f e5bd 9826 2cbe 7ab8 99be
00000100: 68a4 75bc b6ca 6dbe e523 b83d 7162 2d3d
00000110: d783 77be a4ad a13d a277 a5be 2b54 8fbe
00000120: dec3 94bd 4888 6dbe 5a6c a7be 9a6f 2cbd
00000130: 6577 ef3c 48b2 043d 2e5f 6fbd 3d1f 31be
00000140: 8838 ae3d 9a8f a83d 7b03 7fbe c850 b13e
00000150: 89a3 14be 81fd b7bc 9101 63bc f825 4ebe
00000160: 734c 9e3c 24f3 9c3e 1495 39be 03e0 ce3d
00000170: 74d5 a8bd 5ac6 a53e 4ce7 bfbe 995b 0dbd
00000180: a56e 4dbe d8f8 a93e 77c1 ac3d 39ca de3c
00000190: 3270 ab3b 6281 053e cab7 433e b6ce 423e
000001a0: 43ba 073e 6e50 7dbe 60fb d7bc 3319 97bd
000001b0: fc1c 923d d581 87bd c769 1fbe 39aa b6bd
000001c0: bc0c a4bd e244 68bd 9959 e5bd af54 c33c
000001d0: d71d 3c3c 526c c93d cdf5 543d b4fb dcbd
000001e0: 16ff d1bd f975 a4bd 9c7c 92be fb19 593b
000001f0: 5283 ca3c a37c 4bbe 1248 3bbe 8615 783d
00000200: 66fd 293d 1a81 9c3e abfa 2c3c 2dd7 753d
00000210: 6ed7 ef3d 6387 173e 11d9 b6ba 0e97 febd
00000220: a370 68be 3fde 61be 76c9 03be 4187 b43d
00000230: 6b67 d7bb 556d 353e fcd9 22be 5eda 18bc
00000240: f3ab 0ebe 8b68 db3d 4d77 673d 4dc2 0dbe
00000250: df80 9abd 914a cf3d e186 2d3d 8e03 72be
00000260: 3a7a 76bb 2d1b 2ebd 9e06 493d 9537 c4bd
00000270: 9be6 31bc 81ec 59bd b1e0 3d3d 497b 9abd
00000280: 94c3 053e 06ed 42be fe1c 60be a1a8 0d3e
00000290: 40ce 55ba 838d 6d3e 973d d53d ebec 033d
000002a0: a1c5 bbbd e7de 0fbe 056d edbd 75af e6bc
000002b0: 7c66 02bd e46d f73c ed2f f83d 3aee d5bd
000002c0: a031 0f3e caba 213e 16a5 6a3c d923 163c
000002d0: 9b3e ab3d a6bb 333d bb6c b0bd 0b92 28be
000002e0: 4779 a7bd 05ed 76bd f137 a83d 949a a33d
000002f0: c729 58be af19 963d 793b 0fbe b7c0 373e
00000300: f289 81bd 7c5f 433e f3f8 173d 4b07 263d
00000310: 18e1 ad3e 3ee0 dd3d 09e9 55bd 8140 983d
00000320: c607 963d a834 08be 4c9e d83d 2560 dcbd
00000330: aa82 87be 66c3 003c 0d19 57be cff7 17be
00000340: 3fd5 073e 6483 04be b440 07be d8cc 10bc
00000350: 0d8a d23d 3a1b 9bbd 723c 53be 08e1 05be
00000360: 0bde 59be f8fe 78bd d4f5 29be 61da 843c
00000370: 26a3 2e3e 2f3d 9c3d 1712 90be fdec 58bd
00000380: 87c5 1cbc c413 043e 2c96 d8bc 13d2 eb3d
00000390: bb05 55bd 768f 503d a3c8 0dbe 6a66 05bd
000003a0: 3c7d 39be 2e4d 1b3c 3ef1 e8bd a7f0 e83d
000003b0: 5fe1 b83d 38e3 593d a91e 86be e7bd a03d
000003c0: 49b0 01be 23c0 5ebd 3184 a73d 10f5 153e
000003d0: 859b f2bc c5dd 2f3c d5ea 593e a6c7 293e
000003e0: a164 603d 49b2 2d3d 54bb eabc 7d50 fdbd
000003f0: e548 46be 8fa2 f33c 60c5 a6be dd5c 5cbe
0.033332895 0.3651277 0.2169462 -0.085286774 0.0634298 0.05502276 -0.17902797 -0.3000782
-0.10472667 0.123464614 -0.12405273 0.07924679 -0.38337898 0.060489766 0.07153971 -0.012954208
0.38740087 0.055151902 0.14069355 0.26532876 0.002492482 0.2954215 0.13077997 -0.09478639
-0.061854884 -0.07372312 -0.019226857 -0.081107825 -0.10775127 0.04935753 0.03665584 -0.075949594
0.39129162 0.2513808 0.19873168 0.36520365 -0.010136015 0.34374934 0.08829204 0.3257735
-0.23815073 -0.05385712 -0.080206 0.3081815 -0.15030205 0.10647185 0.11367817 0.32582474
-0.12800203 0.152982 0.33679032 0.19923478 0.26952815 0.05676121 -0.3276801 0.11640732
0.19341408 -0.03135428 0.01011818 -0.111582674 -0.29102552 -0.11205968 -0.16811597 -0.30023557
-0.014992811 -0.2322186 0.08991221 0.04233021 -0.24171387 0.078944474 -0.32317835 -0.27993903
-0.07263921 -0.23196518 -0.32699853 -0.04209862 0.029231736 0.032396585 -0.05844038 -0.17297073
0.08506876 0.08230515 -0.24903671 0.34631944 -0.14515509 -0.022459747 -0.013855354 -0.20131671
0.019323563 0.30654252 -0.18123275 0.101013206 -0.08243838 0.32377893 -0.37481153 -0.034511182
-0.20061739 0.33197665 0.08435338 0.027196037 0.0052318806 0.13037637 0.19113079 0.19024166
0.13254647 -0.24737713 -0.026364982 -0.07377853 0.071344346 -0.0661656 -0.15567695 -0.08919186
-0.080102414 -0.056706317 -0.1119873 0.023844091 0.011481724 0.098351136 0.051992226 -0.10790196
-0.10253732 -0.08030314 -0.28610694 0.0033127058 0.024720822 -0.19871764 -0.18289211 0.0605674
0.041501425 0.30567247 0.010557811 0.06001966 0.11711012 0.1479774 -0.0013950189 -0.12431155
-0.22699217 -0.22057436 -0.1286982 0.0881486 -0.0065736077 0.17717488 -0.15903467 -0.009329407
-0.13932781 0.10713299 0.05651026 -0.13843651 -0.075441115 0.10121644 0.04236496 -0.23634169
-0.0037609474 -0.042506386 0.049078576 -0.09580914 -0.010858203 -0.053204063 0.04635686 -0.07543046
0.13062888 -0.1903573 -0.2188606 0.13833858 -0.0008156039 0.23198514 0.10412138 0.032208364
-0.09168554 -0.14049874 -0.115930595 -0.028159836 -0.031836018 0.030203767 0.12118516 -0.10445829
0.13983774 0.1579391 0.014321586 0.00916382 0.083615504 0.043880127 -0.08614489 -0.16461961
-0.08177429 -0.060284633 0.08213795 0.07988468 -0.21109687 0.073291175 -0.13987531 0.17944609
-0.06325139 0.19079393 0.03710265 0.0405343 0.33960795 0.108337864 -0.052224193 0.07434178
0.073257014 -0.13301337 0.10577068 -0.107605256 -0.26466876 0.007859087 -0.2100565 -0.14840625
0.1326494 -0.12940747 -0.13208276 -0.008837901 0.10280237 -0.075735524 -0.20628527 -0.13074124
-0.21276109 -0.060790032 -0.16597682 0.016217412 0.17054424 0.07628857 -0.281388 -0.052960385
-0.009568579 0.12898165 -0.026438795 0.11514678 -0.052007418 0.050918065 -0.13846068 -0.032568373
-0.1811418 0.00947885 -0.11374138 0.11374026 0.09027361 0.05319521 -0.26195267 0.07848721
-0.12664904 -0.054382455 0.081795104 0.14644265 -0.029615173 0.010734026 0.21280988 0.16580066
0.054783467 0.042406354 -0.028653778 -0.123688675 -0.19363745 0.0297406 -0.3257246 -0.215198

lstm.weight_hh_l1 f4 [192, 48]
00000000: 4f97 423d bbbd c1bd 167a f4bc a579 b7be
00000010: f9d4 37be daf2 de3d 3ad4 26bd 1113 47bc
00000020: 342e 283d 319c 80be 02c2 c3bd bdcd fd3d
00000030: 5c5f 403e 91d6 e2bc 73ef babe b10b 383d
00000040: a2bc 89bd 2559 933d cfcb 003e 971d 04be
00000050: e856 063e 5546 3c3d 8c5d 0ebd 9321 d0bd
00000060: 0889 13be c6f1 efbd 2886 0bbe 7c29 2e3b
00000070: a7f5 d33d 1f04 be3b 2357 1a3e 4bec e4bc
00000080: 74f6 ca3c 2ce7 6ebe 47ef 743d b424 b83d
00000090: 29f0 443e 0c69 043e 2942 5b3e ceb5 123e
000000a0: ad63 2a3d 0089 3ebd f030 58bb e4d1 9c3d
000000b0: 921f b5bd 51ef 64be 51ce 1f3e ffe3 123d
000000c0: 3ab2 763d d636 12be cd71 e9bd b5d8 b6bd
000000d0: 32cd d73c aa10 393e bd71 04be 48fd 38bc
000000e0: 51e6 a53d c9b5 483e 90a1 1a3d d867 d53c
000000f0: 8722 b53d 5026 82bd 40e3 81bd ddb3 93bd
00000100: fdca 0dbe 007f 7a3d a4a5 123e 4e6b 103e
00000110: 2942 b43d 65a6 c9bd a110 b33d 6e65 d03d
00000120: d8c5 503d 3a49 ae3d c0a9 7fbd ced4 943c
00000130: c523 063e e3bf 16be 18ae c83c fe15 f5bc
00000140: 180a 303e 0611 95bd 5825 abbd 31a6 acbd
00000150: a686 7dbd 757d c73d c518 2a3e 0b96 d6bd
00000160: 35e1 063e 4c49 b7bd 1571 6e3e f00a 99bd
00000170: 15c7 eb3d 4ced 93bd e839 8abd 1199 13be
00000180: 7a9e b9bd f288 4cbd c0fa 56be 7218 39bd
00000190: 3bc2 ffbd f369 1ebe c3a2 b43c b7af 90bd
000001a0: a5b8 603d 7782 21bd 8983 483c 4666 d3bc
000001b0: acb9 f7bb 6a98 bc3d c9c2 b13c fbe6 aabd
000001c0: 8b09 2abe 4fe6 debd 2a76 563c a351 6e3e
000001d0: d74d 2bbd e4d6 8dbc f23d 8cbd 9249 eabc
000001e0: 53cd 353c 0b69 07be 120f 9abd 11d1 003d
000001f0: 8a46 623e 5e88 e6bc b402 4a3e 611a 8ebc
00000200: 2d29 b43d 227a 5b3d 41cc 223d 7dcc cfbd
00000210: a2b5 163e 62fa d7bd ddd5 983d ab0e 96bc
00000220: 19c0 f5bc 97f9 7dbd 97eb 723e 95bb 44be
00000230: d500 3a3e 018c ecbd e90e 50bd 3bc6 05be
00000240: ad3a 543d af55 0d3d 6275 133d ebf0 97be
00000250: a698 d7bd a8bb 133e acc6 a43d c6ec 3abd
00000260: 09c2 a2bc fe6f 42be d38d 2dbe 4758 ba3d
00000270: 9839 033e 641f b7bd 4191 54be d45f ba3d
00000280: 6aee 4abe af81 2c3e ded7 d03d a867 27be
00000290: 67c4 323d 7b01 8ebd b365 703d ee42 a43d
000002a0: 3d3f 68be 6301 083a b039 e9bd c738 e1bc
000002b0: d8d5 1ebd 3c5f 043e a861 6a3d 2fb0 fe3d
000002c0: 4468 e23d 1cf1 f73d 4e93 86bb d948 10bc
000002d0: 2b83 19be 6a44 0c3e 7f54 cabd 54ed efbd
000002e0: d28d b93c 3023 4a3d eb60 b5bd 4fd2 b93d
000002f0: 11cb 9e3d 5caa 15be 8469 073d 2b62 06bd
00000300: 2882 78be e679 1dbe 1255 0dbc aa19 203d
00000310: a624 21be 84b7 343e d93a 75be 37b1 fdbd
00000320: 9c9f ad3d 959e a23e 5702 c33d 6546 493d
00000330: 8349 3ebd 14ea 2b3e 600c 4e3d e9d8 0bbe
00000340: 0c3d 8c3b 5260 87be 694f 553d 7dae 80bd
00000350: dc82 593c 3e41 4c3d 7f32 21bd 6519 e63d
00000360: ca87 3f3d ce09 aa3d ea4e a3bd 4268 00be
00000370: 2f3e 0b3e 7753 89bc 1388 f13c c48e 873d
00000380: 0726 383e 5823 7abd 8f5a ea3d e7ca c93c
00000390: b6e7 ad3d 512f fbbd 995a 423c 27fe 98bd
000003a0: df64 dabd 1858 cebe 2e05 9b3d 308d 103d
000003b0: 310d 76bd c549 3abd 13e5 b83c 24c2 263c
000003c0: 8840 7dbd beb0 3dbe 3b0d 84be 0f16 a1bd
000003d0: 1f2a 0a3d e9e9 223d 30cc 21be bccd 9d3c
000003e0: b855 af3d 22a5 32bd 8c16 8d3d f01e 2dbb
000003f0: 0903 0c3d 62f9 163e 2932 4abd 6203 aebd
0.04750758 -0.09460016 -0.029843371 -0.35834995 -0.17952336 0.10886164 -0.04072974 -0.012150542
0.041059688 -0.25119165 -0.095584884 0.12392757 0.18786377 -0.027690204 -0.3651081 0.044933025
-0.06725432 0.07194737 0.12577747 -0.12901913 0.1311909 0.04596551 -0.034757182 -0.10162654
-0.14407742 -0.117160365 -0.13625395 0.002657502 0.10349589 0.005798831 0.15072303 -0.027944705
0.024775721 -0.23330373 0.059798505 0.089913756 0.19232239 0.12930697 0.21411957 0.14327165
0.041598964 -0.046517372 -0.0032988153 0.07657221 -0.08843912 -0.22356917 0.15606047 0.035861965
0.060228564 -0.14278731 -0.11398659 -0.08928052 0.026342962 0.18072763 -0.12934013 -0.011290856
0.0810057 0.19600596 0.037751734 0.026050493 0.08844476 -0.06354964 -0.063421726 -0.072120406
-0.13846965 0.061156273 0.14321 0.14103433 0.088016815 -0.0984619 0.08743406 0.10175596
0.05096993 0.085100606 -0.062417746 0.01816788 0.13099582 -0.14721636 0.024497077 -0.029917713
0.1719135 -0.072786376 -0.08356732 -0.08430136 -0.06189599 0.09740726 0.16611011 -0.10477837
0.13171847 -0.08949527 0.23285325 -0.07472789 0.11512581 -0.07222995 -0.06749326 -0.14413859
-0.0906343 -0.04993529 -0.20994091 -0.04518933 -0.124882184 -0.15470104 0.022050267 -0.07064765
0.05486359 -0.03943106 0.012238392 -0.025805604 -0.0075599756 0.09208758 0.021699326 -0.08344837
-0.16605203 -0.10883772 0.013089696 0.2327333 -0.04182228 -0.017314382 -0.06847753 -0.028599534
0.011096316 -0.13223664 -0.07522406 0.03144938 0.22097221 -0.028141197 0.19727594 -0.017346563
0.08796916 0.05358327 0.039745573 -0.10146425 0.14717725 -0.105458036 0.07462666 -0.018317541
-0.029998826 -0.062005606 0.23722683 -0.19212182 0.1816438 -0.11550141 -0.05079547 -0.130639
0.05181377 0.034505542 0.036000617 -0.29675993 -0.10527162 0.14427054 0.08045706 -0.04563596
-0.019867914 -0.18988034 -0.16948633 0.09098869 0.12814939 -0.08941534 -0.20758535 0.09100309
-0.1981751 0.16846345 0.101974234 -0.16348135 0.043644335 -0.06933876 0.058690738 0.08020578
-0.22680373 0.0005188195 -0.11387956 -0.027492894 -0.038778156 0.12926954 0.05722204 0.12435948
0.11055043 0.12106535 -0.0041069156 -0.008806431 -0.14991443 0.13697973 -0.098793976 -0.117151886
0.022650633 0.049349964 -0.08856376 0.09073316 0.077535756 -0.14615768 0.033059612 -0.032808464
-0.242684 -0.15378532 -0.008626239 0.039086975 -0.15736637 0.1764813 -0.2394823 -0.12387317
0.08477709 0.31761613 0.09521931 0.0491394 -0.046456825 0.16788512 0.05030477 -0.13656963
0.0042797383 -0.26440674 0.052077685 -0.06283281 0.013275828 0.049866907 -0.039354797 0.11235312
0.046760358 0.08302651 -0.07974036 -0.12539771 0.1359794 -0.016763432 0.02948383 0.06619027
0.17983256 -0.061068863 0.11443054 0.024632884 0.08491461 -0.12264884 0.0118624205 -0.07470351
-0.10663771 -0.40301585 0.07569347 0.035290897 -0.060071174 -0.04548051 0.022570169 0.010178123
-0.06182912 -0.18524453 -0.25791344 -0.078655355 0.033731576 0.039773855 -0.15800548 0.01926314
0.085612714 -0.043614514 0.06889066 -0.0026416145 0.034182582 0.1474357 -0.049364243 -0.08496739

lstm.bias_ih_l1 f4 [192]
00000000: 40fd b1bd 273d 5dbb d848 253e 925a c73c
00000010: 83c9 a13d 54e6 60bd fe42 e13d 63a0 073e
00000020: 2595 6abc 9ae0 06be bfd3 1a3d 41aa 2abe
00000030: 85d8 3b3e ccf5 303e c934 243e ca56 ba3d
00000040: bea0 623d 2359 11be 6a86 043e 027d 04bd
00000050: 8f3a db3c 64c3 e13d bdf4 4f3e 7273 693e
00000060: 6e4a 283e 012b 90bd 3176 4b3e e630 f83d
00000070: 32ed 51bd ae77 043e 658e cc3e 1f38 2b3e
00000080: e409 9bbd ec11 453e 35c1 f73d 4685 4b3e
00000090: bfae 053d f9fe 79be c49b cd3d d43f 58be
000000a0: 727c 603e 6e8e 93bd 7aee b3bd 063b 843e
000000b0: d9cd 1cbd aff2 e23d 0bd4 a03c 35c1 ddbc
000000c0: 36f3 fcbc d304 43be c945 8ebd 2cf1 77be
000000d0: 05ea 00be 236b 993d 228e c3bd 9da9 f53c
000000e0: de92 bd3c 85fa 9ebd bddf bf3c edd1 4d3b
000000f0: 2b6d d8bc 09b4 55be 6aff 2bbe 35d7 f23c
00000100: ca7f 47bd 5cde 5ebe f6c7 29be 160b a4bd
00000110: 31ac b93d 1add fabd 114e 2cbe 04f9 03bd
00000120: 7bd0 b5bd 979c 2cbd 6afd e9bd fd57 803c
00000130: 7a38 27be 7c63 5ebe 49b7 9dbd f98f 003e
00000140: a7b5 19be a075 22be 1341 cdbc 54d3 64bc
00000150: f6e6 2d3d b4b5 9ebc 3037 06be 209f 51bd
00000160: fe91 0dbe 1cef a83d 6077 813d 87c8 c5bd
00000170: 307d ec3d 82e6 e1bd ec26 3bbe 528b 23be
00000180: 40e8 f03d ab85 563d 2446 983d 6310 ea3c
00000190: 5092 81bd 4bbe ba3d 024a 973c 738c 903c
000001a0: c983 f2bd 452e e93d c7ac 52be af26 78bd
000001b0: 9808 fd3d c029 aa3d 64a1 55bc 2ae4 8c3d
000001c0: a946 583d 34bd 13be 0ecf 08bd a0e3 17be
000001d0: 1e38 d33d fd7d d3bc 659a cf3d 0898 893e
000001e0: 5166 393d 3f07 97bd afe3 b63d 72d4 1bbe
000001f0: a9e4 5d3d 0df8 9ebc 7d32 89bd c43a 0fbe
00000200: 4497 0bbe 2e60 8abd 253c cabd d7fb 8f3d
00000210: fe6a 31be 472a 6bbd ab99 5ebd c478 d6bd
00000220: 8a11 033c c927 a6bd def4 033d 6901 813c
00000230: 8569 b0bd e445 bd3d 3b4c 47bd d367 88bd
00000240: c770 053e 1b87 72bd cbb9 613d e53a 9b3d
00000250: 5234 e93d f261 df3d 3b66 15bd 8060 323d
00000260: 87db aa3c ec78 79bd 34cd e73d 1b9a 243d
00000270: 6785 6a3e d3ba 8b3c 3112 25bd d67b 8c3d
00000280: c87b cabd cf20 e93d 3a10 b63d dea9 c8bd
00000290: 91f2 1b3b 158f 313d 276a 2c3e 1396 943d
000002a0: 185a 873e 6b58 273e d6e6 563c 8ad8 67bc
000002b0: 36b7 3f3b 1ea4 e3bd 6bcc 8a3e b88c 073e
000002c0: ad8a 3b3c 2fdc 033e 37fc bdbd 4d4a 2e3e
000002d0: 06c5 e03d 287b 2abe 7408 e23d 515b 0cbe
000002e0: bca5 3fbc 64a1 1fbe 7e26 f63d 7464 4f3e
000002f0: cb83 d0bd fda2 783d fb7b 48bd 1138 4d3c
-0.08690882 -0.0033758373 0.16141069 0.02433518 0.078997634 -0.054907158 0.10999106 0.13244776
-0.014317785 -0.13171616 0.037799593 -0.16666509 0.18344314 0.17281264 0.16035761 0.09098585
0.055329077 -0.14194159 0.129419 -0.03234578 0.026761321 0.11023596 0.20308204 0.22797945
0.16434643 -0.07039452 0.19869305 0.12118702 -0.051251598 0.12936279 0.39952388 0.16720627
-0.07570246 0.19245118 0.12097398 0.19875059 0.032637354 -0.2441367 0.100394756 -0.21118098
0.21922472 -0.07204901 -0.0878572 0.2582628 -0.03828225 0.110814445 0.01963236 -0.027069667
-0.03087769 -0.19044809 -0.06946904 -0.24213094 -0.12589271 0.07491138 -0.09548594 0.029988104
0.02314132 -0.077626266 0.023422116 0.0031405643 -0.026419243 -0.20869459 -0.16796651 0.029643634
-0.048705854 -0.21764511 -0.16580185 -0.08009927 0.09066046 -0.12249203 -0.16826655 -0.0322199
-0.08877655 -0.042141523 -0.11425288 0.015666956 -0.16330138 -0.21717638 -0.077009745 0.12554921
-0.15010701 -0.15865183 -0.025055444 -0.0139664 0.04245659 -0.019373752 -0.1310699 -0.051177144
-0.13825223 0.082487315 0.06321597 -0.09657388 0.11547315 -0.11030294 -0.18276566 -0.15971115
0.11763048 0.05237357 0.07435253 0.028572267 -0.06326735 0.09118327 0.018467907 0.017645096
-0.11841542 0.11385778 -0.20573722 -0.060583767 0.12355155 0.083087444 -0.013038967 0.06879456
0.05280176 -0.14427644 -0.033400588 -0.14832926 0.10313438 -0.025816912 0.1013687 0.26873803
0.045263592 -0.07374429 0.08930146 -0.1521776 0.054173145 -0.01940539 -0.06699083 -0.13987261
-0.13631922 -0.06756626 -0.09874753 0.070304565 -0.1732597 -0.057413366 -0.054345768 -0.10472253
0.007999787 -0.08113057 0.032215945 0.015747743 -0.08613876 0.09241846 -0.048656683 -0.06660428
0.13031302 -0.059210878 0.055108827 0.075795926 0.113869324 0.109073535 -0.036474448 0.04354906
0.020856632 -0.060906336 0.11318436 0.04018603 0.22902451 0.017056858 -0.04030055 0.06859557
-0.09886891 0.11383211 0.08889814 -0.097980246 0.0023795704 0.043349344 0.16837369 0.07255187
0.26435924 0.16342323 0.013116559 -0.014150748 0.002925349 -0.11115287 0.27109084 0.13237274
0.011446637 0.12876962 -0.09276622 0.17020531 0.10975079 -0.16648543 0.110367686 -0.1370671
-0.011697229 -0.1558891 0.120190606 0.20253164 -0.101813875 0.060702313 -0.048946362 0.012525574

lstm.bias_hh_l1 f4 [192]
00000000: 449b d63d bd27 3abd d6cd 913d eb8f 903e
00000010: 963f 39bd 69c5 a2bc 0600 343e 502d 1e3e
00000020: 5399 f2bd 0d67 59bc cfc1 003e 8ac7 f33c
00000030: 5925 713e 2b5c 73bd 52cd 3b3e bb7e 383e
00000040: 1b12 8a3c e84a eebd e078 9f3e 1954 09be
00000050: 6f11 d03d 7714 823d 35b5 253e bb35 173d
00000060: f6bf 953e 538f 53bb 4ec6 e33b 68d6 363e
00000070: e716 d7bd 0e1a cbbd 8cf2 a63e bf0f b63d
00000080: 869b 24bd 4d05 76bd d084 233e dc6b f0bc
00000090: b1f2 163d 9f91 91be e68b 493e 9cf2 7fbe
000000a0: 18f1 1e3d 0a65 3a3d fe8c 033c e658 e83d
000000b0: 9de9 b2bd 625c 9ebc 25c9 d03d a727 d3bd
000000c0: 9d9f 56be 17d5 c7bd 0745 6bbd b3e7 423a
000000d0: 6641 d13d 3b2f 2a3d ba34 6e3d 01a0 17be
000000e0: db92 e7bc 0a88 c7bd cfbe b8bd 5f9f 0fbe
000000f0: 8c12 7db9 9760 2fbd b791 0dbe 9a90 d4bd
00000100: 2297 bbbd f2c0 e7bd 4d2b 05be 3092 9cbd
00000110: 332c 3ebd b7ae 8dbe bd7d 05be 2461 923d
00000120: 8782 bf39 2970 19be 8c9e e23d 3cb9 063d
00000130: b691 253d 7948 6bbe c3fd b4bd b7f8 ee3d
00000140: 149e 8fbd aa56 e5ba e67d c13d a43a c8bd
00000150: a01a aa3a def9 4fbd 4967 51be 88e7 52be
00000160: fa65 183d 65c0 f7bd efaf ccbd a73b 20be
00000170: ea8f 6c3d d25b dabd 2cac eabd a3f6 8c3c
00000180: 9edc 81bd 13c7 ec3d 1dcd 483b f859 e9bd
00000190: f775 dc3d 31ae da3d c345 a4bd a8bb 453e
000001a0: f4eb 1dbe 60d8 5cbd 947a 66be f659 e2bd
000001b0: d4c0 b7bd 3ca6 8a3d 0753 fa3d 9f27 343e
000001c0: 0d2c 983d 9f42 d53d 2a8c acbd e761 4f3b
000001d0: 8f34 ed3d f8f3 633d 5406 9cbd 2a3f 953e
000001e0: 9b3d b03c 2150 023e 5feb ad3d cc1d 13be
000001f0: 3a52 3f3d 335d 133a 062f 49bd fd7d 54be
00000200: 2b0f 93bd b4d3 ef3c 4a73 5dbe 94e3 3e3a
00000210: 1808 00be 55e6 aabd e7be 043d b44e b6bc
00000220: 3908 523d ba9c e3bd 831e bebc 3b68 74bd
00000230: 863a 7d3c 1ef6 9cbc 67d6 34bd 61b7 ecbd
00000240: 167a e0bd d374 0dbc 9978 1e3e fcbe 593e
00000250: db16 2b3e c078 8f3d 842d 43bd 59ef ce3d
00000260: 6e3b 19be 442b 933d 2699 773d d197 62bc
00000270: 47f3 b13d 1602 1dbd e5e5 cb3d f050 a9bd
00000280: 6d0f 133d f59b edbd 9ec9 763e c7f6 60bd
00000290: 2c8b 1e3e 54a7 c83d 0f04 57bc abde 203e
000002a0: 8ed8 563e fe3d a23d 1f6a 513e c2c3 efbd
000002b0: 32d7 113e 234a c8bb fdc2 a83e bea1 afbd
000002c0: ed29 1bbb 0584 2f3e e6a1 f83d 6b6d c3bd
000002d0: 7432 923d de95 a3be 13c8 563d 1935 adbe
000002e0: c4b4 e03d 354c 38be 1133 a7bd ba63 8d3d
000002f0: 3244 6abe 3b04 e73d f821 183d 544c 01be
0.10478833 -0.045448054 0.07119338 0.282348 -0.045226656 -0.019869523 0.17578134 0.15446973
-0.118456505 -0.013269198 0.12573932 0.029758234 0.23549403 -0.05941407 0.18340042 0.18017094
0.016854336 -0.11635381 0.31146908 -0.13410987 0.10159575 0.063515596 0.16182406 0.036916476
0.29248017 -0.0032281473 0.00695113 0.17855227 -0.10502415 -0.09917079 0.32606924 0.08889722
-0.04018738 -0.06006365 0.15968633 -0.029348306 0.036852542 -0.28431413 0.19682273 -0.24994892
0.038804144 0.045506515 0.008029221 0.11345081 -0.087359644 -0.019331161 0.10194615 -0.103102975
-0.20959325 -0.097574405 -0.057438876 0.00074350386 0.10217552 0.04154895 0.058155753 -0.1480713
-0.028268268 -0.09742744 -0.09020769 -0.14025639 -0.0002413487 -0.042816725 -0.13825117 -0.10379143
-0.09159686 -0.11316098 -0.13004799 -0.076450706 -0.04642887 -0.2767236 -0.13036247 0.07147434
0.0003652761 -0.14984192 0.11065397 0.032891497 0.040422164 -0.22976865 -0.08837464 0.11668532
-0.07012573 -0.0017497141 0.09447841 -0.0977681 0.0012977906 -0.0507754 -0.20449556 -0.20596135
0.037206627 -0.12097243 -0.09994494 -0.15647756 0.057754435 -0.106620446 -0.114586204 0.01720745
-0.063409075 0.11561408 0.0030639835 -0.11394113 0.107646875 0.106777556 -0.080211185 0.19309866
-0.1542204 -0.05391729 -0.22507697 -0.11052315 -0.08972326 0.06769988 0.122228675 0.17593239
0.07430277 0.104130976 -0.08425172 0.0031644048 0.115822904 0.05565259 -0.076183945 0.29149753
0.02151375 0.12725879 0.08492159 -0.14366835 0.046709277 0.0005621493 -0.04911711 -0.20751186
-0.071806274 0.029275753 -0.2162601 0.00072818366 -0.12503088 -0.083447136 0.03240862 -0.022254325
0.051277373 -0.111138776 -0.023207908 -0.059669714 0.015455848 -0.019160327 -0.044149783 -0.11558414
-0.10960786 -0.00863381 0.15475692 0.21264261 0.16707937 0.07005453 -0.04765083 0.10104246
-0.14964077 0.07185987 0.060448788 -0.013830141 0.086889796 -0.038332067 0.09955958 -0.08267391
0.035903383 -0.11602012 0.24100348 -0.054922845 0.15482777 0.0979754 -0.013123526 0.15709941
0.20981047 0.0792198 0.20450638 -0.1170726 0.14242247 -0.0061123534 0.32961264 -0.08575772
-0.0023676113 0.17140205 0.12140255 -0.09542354 0.071385294 -0.31950277 0.0524369 -0.33829573
0.10971978 -0.1799782 -0.08164037 0.06903787 -0.22877577 0.11280104 0.03714177 -0.12626773

linear.weight f4 [2, 48]
00000000: a8e0 5a3e a4e9 173e 01f9 833d 9f4b 9bbe
00000010: c228 e33d ff3f 40bd 3c88 ae3d 6f14 103e
00000020: d995 083d 05a2 b03d ec5c a2bd cb85 eebb
00000030: 8bff 843e b27f 0f3e a174 093e 342d 2f3e
00000040: 7bdc 043e 445c 093e 9eaa 82be 7e38 8d3c
00000050: 9024 843e 8f6d 373e 9cc6 95be 2d04 623e
00000060: d75e 82be 86a7 13be 29a9 803e ee6b 74be
00000070: 36c5 2cbe 9e40 08be 57f1 8abe bebd 1f3c
00000080: ef2d a4bd 7c94 cd3d 7094 9bbd e625 113e
00000090: 2905 d0bd 1164 d5bb ddfe 473c cb08 a93d
000000a0: c486 b63e c473 1e3e 89d5 46be 27fe 8d3e
000000b0: f304 2dbd 16f1 71be 4c1a 38be 48e6 e53d
000000c0: 59e5 fcbc 58ab e73d 5849 3d3e 36df 243e
000000d0: 560c 043e 2834 553e 2da7 473e 571a 073e
000000e0: 2757 66be 01c6 003e 7ca5 77be 2e63 23be
000000f0: 7996 2abd d85a 1b3e a54c 2d3e 0375 de3d
00000100: bd98 bb3d 80c3 3dbd 57f9 d83b 5841 22be
00000110: c09a b3bc 631e 57be f0da 6f3e ea1a 0f3e
00000120: 2374 f43c 8a74 5f3e f643 003e db7d 88bd
00000130: 0f30 b6bd 2ed1 463e d7af 9e3d bb37 86be
00000140: ac43 14be b058 173e c170 69be 21ca 723e
00000150: d7c3 5dbe 3cd4 6eba 87b5 63be 790f e53c
00000160: a6d3 f1bd bcde a53d b553 d5bd 33c0 f9bc
00000170: fb60 073e 9312 6f3d a963 06be feae 5fbe
0.21374762 0.1483522 0.06443978 -0.30331132 0.11091758 -0.04693603 0.085220784 0.14070295
0.03334603 0.08624653 -0.0792788 -0.007279133 0.25976214 0.14013556 0.13423397 0.17107087
0.12974732 0.13414103 -0.25520796 0.017238852 0.25809145 0.17912887 -0.2925309 0.22071905
-0.25462982 -0.14419374 0.2512906 -0.23869297 -0.16872105 -0.133059 -0.27137253 0.009749828
-0.08016574 0.10038087 -0.075966716 0.14174613 -0.10157234 -0.006512173 0.01220676 0.0825363
0.35649693 0.15473849 -0.19417395 0.27732965 -0.042241048 -0.23627123 -0.17978781 0.11225563
-0.03087108 0.11311978 0.1848501 0.16100773 0.12895331 0.20820677 0.19497366 0.13193642
-0.22494183 0.12575532 -0.24184221 -0.15955803 -0.04164741 0.15171373 0.16923769 0.10862162
0.09159992 -0.04632902 0.0066215205 -0.15845239 -0.021924376 -0.21007685 0.23423362 0.1397511
0.029840535 0.218218 0.12525925 -0.0666463 -0.08895885 0.19415733 0.077483825 -0.26214394
-0.1447894 0.14779925 -0.22796918 0.23709919 -0.21656738 -0.0009110605 -0.22237216 0.02796148
-0.11807947 0.08099124 -0.104163565 -0.030487156 0.13220589 0.058367323 -0.13123955 -0.21844098

linear.bias f4 [2]
00000000: 2f1b 473e dd35 943d
0.19443963 0.07236836
