checkpoint/training_epochs_200_stepsize_7_gamma_0.75/model_epoch100.pth (torch, 117574 bytes, 10 tensors)

lstm.weight_ih_l0 f4 [192, 2]
00000000: 6f38 fbbd c18e 153e 5d4a 8dbe 07c1 0bbe
00000010: f98d 9c3d c9c6 ab3c 9bbd 1e3e cb39 493e
00000020: 9861 a53e 0280 2c3e 0959 96be 3d9b 993c
00000030: 398f 8e3e d8bb 813e 2210 243e 701c 663e
00000040: 3e01 ba3e 08f3 c13e 776e 1abe d36b cb3d
00000050: 3780 123e a47b c2bc 877e b23d 7374 203e
00000060: 8370 1c3e c924 0bbd 2aea 1a3d e23b c7bd
00000070: 70ae b43e e55b af3d b800 cc3e eced 7f3e
00000080: e960 c13b 40dc 21bd 746b a73e 27c3 ab3e
00000090: 894f 243e 32b3 153e e509 21be b3b4 3dbe
000000a0: 2cc7 c8bb 905c 3bbe 2bea 1cbe 936a 8c3c
000000b0: b8fd 813e 0b42 b83d fdf6 953e 39d0 983e
000000c0: 4fb1 3d3d 681b 243e a07d ec3d ca0e 5e3e
000000d0: 05d2 d5bc b059 523e 0df0 db3d 97e0 283e
000000e0: 47c2 dc3d fc20 80be 7af7 d03e 0c90 513c
000000f0: 1112 27be 8442 f1bd 88f5 e23d 7d54 543d
00000100: 504b a3be f104 9abe 075a c6be 3152 d5be
00000110: 18d2 f4bd 396c 313e b3df 8d3d fd0b 1d3d
00000120: c4c7 5a3e 98d0 363d 9836 d7bd dd5a 99be
00000130: e0e5 53be 968b 96be 81bb 723d 3968 843e
00000140: db21 81be 9f04 33be 4887 2f3e a96f 433e
00000150: e7c3 ce3d 62e6 dc3c 649e d3bd c08c 72be
00000160: 923d 67be c285 42bd 03d5 853e e989 453e
00000170: bd8d 3e3e 7a8a 983e cc5a 003d c8d1 1fbd
00000180: 932d 43bd 27c8 1d3e 1c42 d63d d569 ce3d
00000190: 097f 68be 15ec a7bd fa9f bebd 17bf d73d
000001a0: 14d5 5cbb 76ee 563e b559 17be d3c1 d13d
000001b0: 3733 77be 9c9b ef3c 8409 0bbe 7898 9dbb
000001c0: 4bb5 513e be79 a23e 84f7 a2b9 c815 36bc
000001d0: 8dca 6d3e 125c 4b3e f0f0 8cbd 2d30 a63d
000001e0: ab2f fcbd 71b1 c43d ccce a43e cfc5 92bd
000001f0: 9317 633e 8373 823e 8bc4 4c3c 8827 99bd
00000200: fc63 73be 05ff 67be a5eb 583d 0681 583d
00000210: 60ce 0a3d f4b0 54b7 d95c 4d3e 2015 3e3e
00000220: 0030 23be 6612 0dbe 8fce 59be 3099 503d
00000230: da2a febc d58a 4b3d ce88 933e dfdb 973e
00000240: a4b7 a33d 5760 dd3c 1cc2 113e b320 ad3e
00000250: c325 01be f1bb 223e 8db3 323e 9a2a 50be
00000260: 6e5b a23e a057 113e 118f 693e 5a20 b7bd
00000270: 6641 6d3d 90f6 49bd b1c0 2b3e bdf7 a73e
00000280: 6211 81bd c6ca febd 33a2 233d 625c b13b
00000290: 637e eb3d a9b5 943d 10d8 40be 4c77 7ebd
000002a0: c8ff 683e 0a08 a23d 0207 173c b3f0 f5bd
000002b0: df91 09b8 ad0a 5fbe 86e9 0d3e 7958 653a
000002c0: af62 17bd 6030 4cbe 9409 093d 014e 1c3e
000002d0: c95b bf3c 42cb 8b3e b2a5 2bbe 580b 49be
000002e0: 8729 f23d 1ef3 fbbd 168b 6c3e 1853 073e
000002f0: fac2 8a3d c13d a93e e276 843d 3c07 bbbe
00000300: b722 f13d 5e19 c1be e8a1 ff3d 168b 943e
00000310: 4d9f 173e 1c2b c03e 1b6a c2bd 31a7 073f
00000320: 3f92 883e 3f97 ab3e 86bc c83c 155f 853e
00000330: 6e72 0abf 0f25 1c3d 1b48 59bd e2ce b33e
00000340: f953 ff3e 5c36 923e bbb0 b73e a2b7 fc3d
00000350: ebed 19bd 20b9 9bbe a7e6 01be 6e15 d9be
00000360: 686d 89be f0fb b9be 9335 b8be e061 123d
00000370: 10ee ec3d 44c3 edbe eaa9 3fbe b4fc adbe
00000380: 6ba7 c73e 0dd8 99bd c7bf d13e 3117 bfbe
00000390: 9dca 573e 7e72 a13e a916 893e 0a18 5b3e
000003a0: dd71 71be 1878 3cbe 2577 953e 3557 4fbd
000003b0: 1f31 50be ee0f b6be 524d 3cbe ec3e b7be
000003c0: 41a4 ad3e 4094 42be 14e8 afbd db9e bcbe
000003d0: bfc8 473e 41b9 c7be 66de 04bf b2be 4c3c
000003e0: 20ba 7ebe b696 aa3d 5115 f73e fe65 aabe
000003f0: da40 b4be 62a3 10be 4c74 653d a129 cfbe
-0.12266623 0.14605238 -0.27595797 -0.13647853 0.07644267 0.020968812 0.15502016 0.19650953
0.3230102 0.16845706 -0.29364803 0.018750781 0.27843645 0.25338626 0.16021779 0.22471786
0.36329073 0.3788073 -0.15081201 0.09932675 0.14306723 -0.023740597 0.087155394 0.15669422
0.15277295 -0.033970628 0.037820973 -0.097282186 0.35289335 0.08562449 0.39844298 0.24993104
0.005901445 -0.039516687 0.32699168 0.33547327 0.16045965 0.14619139 -0.1572643 -0.18525963
-0.0061272588 -0.18297029 -0.15323703 0.017140662 0.25388885 0.08996972 0.2929 0.2984636
0.046311673 0.1602608 0.115473986 0.21685329 -0.026101122 0.20542026 0.107391454 0.16491924
0.10779243 -0.25025165 0.4081381 0.012790691 -0.16315486 -0.11780265 0.110819876 0.051838387
-0.31893396 -0.30081895 -0.3874056 -0.4166427 -0.11954135 0.1732644 0.06927433 0.03834151
0.21365267 0.044632524 -0.1050846 -0.29952136 -0.20693159 -0.2940337 0.05926085 0.25860766
-0.25221142 -0.17482232 0.1714145 0.19085564 0.10095959 0.026965324 -0.10332945 -0.23686504
-0.22582081 -0.047490843 0.26139078 0.1929089 0.18608756 0.2979315 0.03133659 -0.039018422
-0.047650885 0.15408383 0.10461828 0.100787796 -0.2270471 -0.08199326 -0.09307857 0.10534494
-0.003369634 0.20989403 -0.14780314 0.10242047 -0.2414063 0.029249005 -0.13577849 -0.0048094355
0.20479314 0.31733507 -0.0003108346 -0.0111135915 0.23221798 0.19859341 -0.06881893 0.081146576
-0.123137794 0.09604157 0.32189023 -0.07166635 0.22176962 0.25478753 0.012498031 -0.07478243
-0.2376861 -0.22655876 0.052959103 0.05285742 0.03388822 -1.2677385e-05 0.2005495 0.18562746
-0.1593628 -0.1377655 -0.21270202 0.05092734 -0.031026293 0.049692947 0.2881531 0.29659936
0.07994011 0.027023477 0.14234203 0.3381401 -0.12612061 0.15892006 0.17451306 -0.20328751
0.3171038 0.14193583 0.22808482 -0.089417174 0.057923697 -0.049307406 0.16772725 0.32806197
-0.06302144 -0.1244102 0.039949607 0.005412624 0.11498716 0.072612114 -0.18832421 -0.06212549
0.22753823 0.079116896 0.009217979 -0.120088 -3.27992e-05 -0.21781416 0.13858613 0.000874884
-0.036959346 -0.19940329 0.0334564 0.15264131 0.023359196 0.2730351 -0.16762426 -0.19633234
0.11824327 -0.1230223 0.23099932 0.13215292 0.0677547 0.33054927 0.064679876 -0.36528957
0.117741995 -0.37714666 0.12482053 0.29012364 0.14806862 0.3753289 -0.09492894 0.5298949
0.26674077 0.3351383 0.024503957 0.26049104 -0.54080856 0.03812128 -0.05304728 0.35118777
0.49868754 0.28557098 0.35877022 0.12339713 -0.037580412 -0.30414677 -0.12685643 -0.42399162
-0.26841283 -0.36325026 -0.35978374 0.035737872 0.11568844 -0.46438038 -0.18717161 -0.3398186
0.38994917 -0.075119115 0.40966627 -0.3732238 0.21073385 0.31532663 0.267751 0.21395889
-0.23578592 -0.18405187 0.29192463 -0.050620276 -0.20331238 -0.35559028 -0.1838887 -0.35790193
0.33914378 -0.19001865 -0.08589187 -0.36839947 0.19510172 -0.39008525 -0.51901853 0.012496637
-0.24875689 0.08329527 0.4825845 -0.3328094 -0.35205728 -0.14124826 0.056019112 -0.40461448

lstm.weight_hh_l0 f4 [192, 48]
00000000: e131 82bd dc83 8c3e 599a cdbd 95df 20bd
00000010: 44c3 efbc 2ff4 e3bb f1a4 ab3d e5d6 9d3d
00000020: 2660 79bd c9bb 82bd 1922 24be 53df d9bc
00000030: afd9 a03c f6db 0a3e 83e6 7bbd f2b1 10be
00000040: 0097 153b ab79 0dbe 7c17 bdbd 03ef 3a3e
00000050: e1ba 4cbd 7b5c d8bc a96c d73c ef1b dd3d
00000060: 7b63 89be 7ef7 33bc ba49 12be abd3 7d3c
00000070: 8173 37be becb 66be 804d 703d 137c 053d
00000080: 0e83 c9bd 6892 bf3b 9068 8b3e 3b02 f73d
00000090: 7e56 5ebc 32b1 673e e309 28be 0b94 45bd
000000a0: 4f63 c53d 8ff3 5cbe f5da c9bd c925 0d3e
000000b0: 6fba 9d3c 9510 263e e791 c23d ca6c 643d
000000c0: f992 ca3c 2808 ffbd 9740 14bd c52c 81be
000000d0: 8a58 59be 59d2 02be 6570 da3e 05f2 febd
000000e0: 6561 b1be 2e95 33be 9cc7 1c3f 66d4 913e
000000f0: e777 893e 966f ee3e c695 e43e 356b 9c3e
00000100: 772e 56bb 5063 52be 576b 9fbe 213e 94be
00000110: f02d 843e 11b9 233d 694c 8a3e dcd8 923e
00000120: 05c3 17bf 4f42 1b3f 65f5 2ebe a02a a23e
00000130: 12fd 623e 9f57 98be fde6 8c3e 0166 7e3e
00000140: b0bf 41be 8f22 d53d 6e5c 933e f3ba b2be
00000150: 491d 0a3f 0b52 a9bd 685c 8c3d 6275 e7bd
00000160: fc4e fe3d 103d 16bf 636c 4d3e a729 96bc
00000170: a537 27bd 3eeb b6be de64 a83e f732 8dbd
00000180: 4577 273d 4ee7 a3bd 5f2f 63bc a15a ddbd
00000190: 0abe a7bd b1ca e2bd af92 ccbd d0c4 a2be
000001a0: 3a27 043d 1a94 45bd 495e 183e da23 063e
000001b0: c71a cabc 33c1 9c3d 5908 993e b56a 233e
000001c0: 6b3a ea3d 9f67 d1bd 910a 87bd b7eb 50bd
000001d0: a5a1 2dbe b467 b03d a416 90bd 69d6 423e
000001e0: 53d4 19be 87da c53d a099 19be 5d5a 1ebe
000001f0: 7332 5bbe 7a35 3b3d dc31 acbb 4e8b ccbb
00000200: 99b7 813c 40f5 4e3d 1ab9 1dbd 4d1a fd3c
00000210: 1450 06bd 8864 ad3d 1bd5 5d3e 1bd5 ba3d
00000220: d438 13be 0e8e b5bd 6070 b6bc d87a ad3e
00000230: f98e 98be c38d c5be 2517 263e d977 933e
00000240: f40c 223e a97f 183f 6c3c d53d cad2 27bd
00000250: a06b 643d 2f0e e73c eafd 7abe f189 f5bd
00000260: c0c3 aebc 5050 5e3e c408 be3d 6252 413e
00000270: d718 b9bd 5ceb 00be a3f0 f33d 3862 443b
00000280: 3183 c33e 0a15 4b3e 2358 76bd 7c7f 34bd
00000290: 3dcc cbbd 2a5f a93e 9166 56bd bcdc ed3d
000002a0: 3d1c 9c3d 95c7 1bbe 7d7f acbc 402e e8bd
000002b0: 706d d9be 07c4 673e 4977 e6bd 446e 2d3e
000002c0: 0014 783e 123e f53d 70de 1e3e 8296 d03d
000002d0: be23 63be 5908 cf3d dd83 0f3e f51b 993e
000002e0: 0a94 63be 1bd0 1b3c f205 c33d 2f32 b83d
000002f0: 289e cbbd 5420 d83c 24da 723d d450 ec3e
00000300: a3ab 38be 6002 b83e f5f1 393e 4e13 873d
00000310: 2d5f 223e feaf 26bd 21c9 a83c 22e6 273c
00000320: c14b 033e c40c cbbd 3098 153e 0d38 903d
00000330: b533 b1bd a2f6 133e ab12 863c 8a62 08be
00000340: d436 59bb c6fb 7abe 81cd 66bd 18b1 aa3d
00000350: 97a1 09be a5b6 963c 1d63 5c3d 39f0 f9bd
00000360: 921e 903b a3ff d83d ca41 d2be faff 3d3c
00000370: 8ea2 23be d4f3 05be ba45 62be 7c5c 8a3c
00000380: 7d8c 803c e380 843e 9b04 32be a79f ce3c
00000390: 58d2 a53d 4194 b93d 6369 cfbc b2cd 35be
000003a0: 6ca0 88be 1c41 69bc 57c0 abbb 99bf e23d
000003b0: d523 84bd 24b6 513e 6492 4abe 2273 db3d
000003c0: e379 25be 0408 f73d b774 973e 3334 45be
000003d0: aa26 cfbc c150 6fb9 5f83 643d b4d0 023e
000003e0: 3513 92be 0df4 acbd 2770 6bbd f7e3 143e
000003f0: 45e2 be3d b81a 4bbe a27e 92bd a0e1 773d
-0.0635717 0.2744435 -0.10039205 -0.039275724 -0.029267915 -0.006956599 0.083810695 0.077070035
-0.06088271 -0.063834734 -0.16028632 -0.026595747 0.01963505 0.13560471 -0.06149913 -0.14130381
0.0022825599 -0.13815944 -0.09232995 0.18255238 -0.04998291 -0.026411286 0.02629693 0.107963435
-0.2683371 -0.0109843 -0.14285937 0.01549236 -0.17915155 -0.22538659 0.05866766 0.03258903
-0.0983945 0.0058463104 0.27228212 0.12060972 -0.013570426 0.22626188 -0.16410021 -0.048236888
0.09638082 -0.21577285 -0.09856216 0.13783945 0.019253938 0.16217263 0.09500485 0.05576781
0.024728285 -0.124527276 -0.03619441 -0.2522947 -0.21225181 -0.12775554 0.42663875 -0.12448505
-0.3464462 -0.17537376 0.6124208 0.2848236 0.2684929 0.46569508 0.44645518 0.30550542
-0.0032681504 -0.20545697 -0.3113658 -0.2895365 0.25816298 0.039971415 0.2701142 0.28681076
-0.5928195 0.60648054 -0.17085798 0.31673145 0.22166851 -0.2975435 0.2751998 0.24843599
-0.18920779 0.10406982 0.28781456 -0.34908256 0.53950936 -0.082676016 0.068535626 -0.11301686
0.12417409 -0.58686924 0.20060878 -0.018330408 -0.04082455 -0.3572635 0.32889456 -0.068944864
0.04088523 -0.08003102 -0.013866275 -0.10808302 -0.08190544 -0.110738166 -0.09988915 -0.3179078
0.032263972 -0.048236944 0.14879717 0.13099614 -0.024670972 0.07654037 0.2988918 0.15958674
0.114369236 -0.10224842 -0.06593812 -0.051006045 -0.16956194 0.0861353 -0.07035568 0.19027103
-0.15022402 0.096608214 -0.1500001 -0.15464158 -0.21405964 0.045705296 -0.005254967 -0.0062421924
0.015834616 0.050526857 -0.038506605 0.03089633 -0.032791212 0.084664404 0.21663325 0.09122678
-0.14377147 -0.088649854 -0.022270381 0.33882785 -0.2979658 -0.38584718 0.16219766 0.28802374
0.15825254 0.59569794 0.10411915 -0.04097251 0.0557667 0.028205005 -0.24510923 -0.11989201
-0.021333575 0.21710324 0.09279016 0.18879083 -0.09037941 -0.12589782 0.11911132 0.002996577
0.3818603 0.19832245 -0.060142647 -0.04406689 -0.09951065 0.33080417 -0.05234391 0.11614367
0.076225735 -0.15212853 -0.021056885 -0.113369465 -0.42466307 0.22633372 -0.112532206 0.16936594
0.2422638 0.119747296 0.1551454 0.10184957 -0.22181603 0.10109014 0.14015146 0.29904142
-0.22224441 0.009510065 0.09522618 0.08993947 -0.09942275 0.026382603 0.059290066 0.46155417
-0.18034224 0.35939312 0.18158706 0.06595479 0.15856619 -0.040695183 0.020603718 0.010247739
0.12821867 -0.09914544 0.14608836 0.07041941 -0.086524405 0.14449552 0.016366323 -0.1331884
-0.0033144252 -0.24510106 -0.056348328 0.08334559 -0.13440548 0.018397639 0.05380546 -0.12204022
0.0043981755 0.10595634 -0.41065818 0.011596674 -0.15979978 -0.13081294 -0.22096911 0.016889803
0.01569199 0.25879583 -0.1738457 0.025222613 0.080967605 0.0906148 -0.025318807 -0.17754248
-0.26684892 -0.014236715 -0.0052414346 0.110717006 -0.06452147 0.20479637 -0.19782406 0.10715319
-0.16159777 0.12062076 0.29581234 -0.19258194 -0.025286991 -0.000228229 0.055789348 0.12774926
-0.2853028 -0.084449865 -0.057480004 0.14540087 0.09320501 -0.19834411 -0.071530595 0.060517907

lstm.bias_ih_l0 f4 [192]
00000000: 07ab 193e a90c 7fbe 3e4f eebd 891d bc3d
00000010: cc22 f4bd 44c5 91be 27c3 213e a88f cbbd
00000020: 5e6e b63d f4f0 5bbc b8e3 39be 2fea 8c3b
00000030: 2a96 0ebd bd72 b23d 45cc 713e d12c 1c3e
00000040: 9d5b 14bd 2272 743e 7714 373d 9d4d 13be
00000050: 3298 a6bd 7343 34bd 1e24 fe3d 6f17 393d
00000060: ab61 8f3e 0cde 2d3c bc79 24be a5c1 853e
00000070: a24d 51bd a642 df3d ef0e 6fbe a8c1 863c
00000080: 85de 7abe dade 3abe 51bc a5be baba 8fbd
00000090: 0039 ce3d c618 c1be 43a0 7dbe d2f2 253e
000000a0: 1f36 93bd 7798 6c3e c4a0 e1bd d398 84bc
000000b0: a88f 95be 142c ca3d 1874 cf3d 86c3 b83d
000000c0: e74b 41be 1dbd 413e b148 9fbd 9b13 06be
000000d0: 1438 5ebd 06ba 17be aa81 83ba f543 32be
000000e0: 0a64 28bd 8f86 a23c 07cb 2f3e b633 613d
000000f0: 070d 2bbe 9a14 673c bcf8 2b3e 949d c0bd
00000100: 8a36 2abe 6c88 4e3e 03a1 aa3c 9cd4 a53e
00000110: 99f1 ccbd 6e96 5fbe ea98 733d c3a6 00be
00000120: 87de e5bc 2710 123e 103c e73d 399f a13d
00000130: b232 c23e 4cf4 12be ade3 c53d 2649 843d
00000140: 0e72 b6bd c35d 3e3d d546 bebd 86df e7bd
00000150: 45bb 393e ca65 1fbe 2b24 34be 4fb6 233e
00000160: 7a19 0d3e bd29 b83d e03e c8bd 929d 96be
00000170: 6a90 4abe 662b afbd 54c9 bdbd fd9f f3bd
00000180: fe28 053d b1e9 3cbc 4620 d3bd 7edc 97bd
00000190: dfa8 04be 4865 03be 1e99 863d aee8 48bd
000001a0: be97 bebc 1b80 0bbe 88e8 51ba 0043 7e3e
000001b0: d617 353e b9c0 95bc 1224 61bc d875 413e
000001c0: ca67 24bd fd3d eabd e968 d4bd d9e0 29be
000001d0: 3c13 543d 399f 05bc d042 7c3d ceac d13d
000001e0: da2f 20bd 772b 723d 9a98 953d c515 083e
000001f0: 000f 6b3c 9ac0 043d 6880 443e 6f29 e83d
00000200: 8acf 63bd 9156 02bd b2ef ad3d 7408 ecbd
00000210: 4cd4 2e3e 0b91 3dbc 9744 bebd 8c34 5fbc
00000220: b453 82bd 4b00 0dbe 6f26 003e 2ab6 653d
00000230: 58e7 173d 8862 1cbe c852 b6bb ad31 483d
00000240: db77 11bd 90ae 5fbe cd28 38be 4da2 473e
00000250: 9224 05be f7e9 58be 72d7 da3d 3a9a 033e
00000260: 01a4 b03c d66a 16be 46a1 98bb b553 c33d
00000270: 0d0b f8bd cd9f 0d3d c1df bf3e f172 2f3e
00000280: dd5c cfbd 1420 ca3e d544 e63c 8143 b5bc
00000290: 6cd7 9dbc 1f5c 52bd 7c68 1abd 02bc 973d
000002a0: 1f1c 3a3e 9cf0 03be 373f 8f3c 35f5 db3d
000002b0: 9e29 783d 5be2 023e 89e2 15be 5524 21bc
000002c0: 69cb 84be bdc0 89be 6608 e6bd 5648 a8bb
000002d0: 4951 b43d 90d7 0dbe e42c 96be a014 1c3d
000002e0: 6902 6dbe 7f24 f73d 2f4d 3dbc 0c3f 5bbe
000002f0: 304b 8bbe 0dd3 aa3c baa9 113d 6a50 8cbd
0.15006648 -0.24907173 -0.11636208 0.09185321 -0.119206995 -0.28470814 0.15797101 -0.0993951
0.089077696 -0.013424147 -0.18153274 0.004300378 -0.034811176 0.08713291 0.23613079 0.15251471
-0.03622018 0.23871663 0.04469725 -0.14385076 -0.08134498 -0.044009637 0.124092326 0.045188364
0.28004202 0.010612022 -0.16062063 0.26124302 -0.051099427 0.10901384 -0.2334554 0.016449764
-0.24498947 -0.18249074 -0.32370237 -0.07018037 0.10069466 -0.37714213 -0.24768166 0.1620591
-0.07188057 0.23105036 -0.11016992 -0.016186154 -0.29211164 0.098716885 0.10129565 0.09021668
-0.1887661 0.18919797 -0.07777537 -0.13093416 -0.0542527 -0.14817056 -0.001003315 -0.17408736
-0.04111103 0.019839553 0.17167293 0.054980956 -0.16704188 0.014104033 0.16794103 -0.09405056
-0.16622368 0.20169228 0.02082873 0.3238877 -0.100070186 -0.21834728 0.059472002 -0.12563615
-0.02806021 0.14263974 0.11290753 0.078916974 0.37929302 -0.14351004 0.09662566 0.064592645
-0.08908473 0.046476137 -0.09290854 -0.113219306 0.18137844 -0.15566173 -0.17591922 0.15987514
0.1377925 0.08992336 -0.097776175 -0.29417092 -0.19781652 -0.085531995 -0.09266916 -0.1189575
0.032509796 -0.011530326 -0.1030889 -0.074151024 -0.12955044 -0.12831604 0.065721735 -0.049050026
-0.023265716 -0.13623087 -0.0008007367 0.24830246 0.17684874 -0.018280374 -0.01374151 0.1889261
-0.040138043 -0.114376046 -0.103715725 -0.16589679 0.051776156 -0.008155637 0.061587155 0.10238038
-0.039108135 0.059123483 0.07304497 0.13289554 0.014346838 0.03241024 0.19189608 0.11336028
-0.055617847 -0.031820837 0.08492984 -0.1152505 0.17073172 -0.0115702255 -0.09290426 -0.013623368
-0.06363621 -0.13769643 0.12514661 0.05608193 0.03708586 -0.15271962 -0.0055640675 0.0488755
-0.035514694 -0.21843934 -0.17984314 0.19495507 -0.13002232 -0.21183 0.10685624 0.12851802
0.021562578 -0.14689192 -0.004657897 0.0953745 -0.12111483 0.034576226 0.37475398 0.1713369
-0.10125134 0.394776 0.028108994 -0.022126915 -0.01926776 -0.051357385 -0.0376973 0.074089065
0.1817479 -0.12884754 0.017486198 0.10740129 0.060586564 0.1278166 -0.14637198 -0.009835322
-0.2593644 -0.2690486 -0.112320706 -0.0051355762 0.088045664 -0.13851762 -0.29331124 0.038105607
-0.2314545 0.12067508 -0.0115540465 -0.21410769 -0.272058 0.02085259 0.035562254 -0.06851275

lstm.bias_hh_l0 f4 [192]
00000000: 75d0 9e3d d040 40be 9738 943d 0b59 e53c
00000010: a681 95bd ad33 89be 545d 6a3e 3a48 16be
00000020: 0974 223e ff18 2d3d d16a 453d 4cfd 753e
00000030: e71f b63d 377e 133e 505b 0b3e 7f77 873e
00000040: f7a6 703c 510f 7c3e ef1e 81bd a8f6 413d
00000050: ff73 85bd b0f3 6ebe da09 48bd 0406 013e
00000060: 0898 853e af08 b9bb d8f3 f5bd 88a2 953e
00000070: 2f98 5c3d 1bc6 5b3e 0395 b3bd 0581 a4bd
00000080: ef9e 7abe bb55 3bbe 354d 8ebe 4afa 563d
00000090: 4e11 0d3e 0ff3 04be 2ba4 0cbe 69c2 433d
000000a0: 35bc 99be f821 5d3e ae62 e3bd a48c adbc
000000b0: 6ace 2bbe f495 7b3e 2398 1d3d 0c57 07be
000000c0: 6af7 8dbd 1fba 2fbd 770f f0bd 4862 7ebd
000000d0: 9253 42be d998 aabd 4fea c0bc d10e b5bd
000000e0: 707b 12be 9f44 9bbd 29a3 4a3e fcba debd
000000f0: afe4 45be a113 03bd 70e3 2c3e 8d00 80bd
00000100: 12fb 89bd 05ca 153e 6306 14bc ec38 893e
00000110: de84 e5bd 17c6 2cbd 2148 493c 8e78 173e
00000120: 417d 2cbd 7753 243d facb 8f3d 5304 f0bd
00000130: 49ef 8a3e b47c b3bd 94a1 1c3d 70d4 913c
00000140: df2f 933c 1279 0abe 1ea1 703d 9eb6 15be
00000150: eaa2 0f3e ecc8 043d 43bb c93c a7bf 85bd
00000160: 17e7 f83d edb8 283e 4ad6 753c c48b 36be
00000170: 11f5 f5bc ef60 e7bd 894f 903d 1a3f 06be
00000180: a472 533d 545e 7d3d 1cc6 1bbe 11f4 e2bd
00000190: d560 aabd c2cd 093d 1eb2 123e 4d5f b7bd
000001a0: be22 8abe 059b c1bd 2f35 283d 5c81 afbc
000001b0: 6fa2 373d 2ebd 043e 6888 fc3c 01f6 d53c
000001c0: f125 a4bb e467 c43d 038e ffbd 5ae3 823b
000001d0: 4d0c 1c3e d962 33bd 6ae1 523e 19d2 ad3c
000001e0: 34e8 07bd 01d4 94bd dbc6 6e3b 0aeb 503d
000001f0: 346e 693d 72a3 37bd 8a82 97bc 5045 3a3d
00000200: 7cfc 793d 3612 b4bd 8c4f 0c3d 0086 00be
00000210: 4d65 88bd 2810 9b3c fe2e d23d ad8d 183d
00000220: b802 543c b445 01be 44cd 8c3d 8990 92bd
00000230: a8d5 58bc 055a 9ebc a5b8 683e 1c7c e83c
00000240: 19a0 713d e2ba 48be cd5d 65bd ff96 963c
00000250: 56b7 cabd da68 28be d975 4a3e ace0 bcbd
00000260: 83c8 683e 8af0 20be 2e4e 1cbe 3f0f 833e
00000270: 2573 8b3b 25d9 473c 7de7 993e 9e3f 013e
00000280: 623d a83c c924 393e 272c f5bd 591c 83bb
00000290: 493b f13c 2450 7cba 334b 9e3d 360c 05bc
000002a0: e8c3 df3d fd14 a93c f305 f53d fd7e 733d
000002b0: cddc 603e 6bb6 103e a457 44be 060a 2e3d
000002c0: 5e5d 87be 1975 9cbd ff6c 6cbe fb59 2a3c
000002d0: b3c1 6e3e 14b8 4fbe 206f 83be a56e 023e
000002e0: c04a 5ebe ffab 2d3e df2f 95bd 682a 04bd
000002f0: 09b8 e7bd 2304 ad3c 8a68 ea3d eb26 fc3c
0.07754604 -0.18774724 0.07237356 0.02799656 -0.07300119 -0.26797238 0.22887164 -0.1467599
0.15864576 0.042260166 0.04819757 0.24022406 0.08892804 0.14403616 0.13609052 0.26458356
0.014688245 0.24615218 -0.06304728 0.04735437 -0.06516265 -0.23335147 -0.04883752 0.12599951
0.26092553 -0.005646787 -0.120094 0.29225564 0.05385607 0.2146229 -0.08768656 -0.08032421
-0.24474691 -0.18294422 -0.2779328 0.052484788 0.13776132 -0.12983344 -0.137345 0.047792826
-0.30026403 0.2159499 -0.11102806 -0.021185227 -0.1677796 0.24568921 0.038475167 -0.132168
-0.06931956 -0.04290211 -0.117217 -0.062105447 -0.18977192 -0.083299346 -0.023549227 -0.08840717
-0.143049 -0.07581448 0.19788803 -0.10875508 -0.19325517 -0.03200114 0.16883636 -0.06250105
-0.06737341 0.14627846 -0.009034726 0.2680124 -0.11206983 -0.0421811 0.012285263 0.14792082
-0.04211164 0.04011866 0.07021327 -0.11719575 0.27135685 -0.087640196 0.03824003 0.017801493
0.017967163 -0.13522747 0.058747403 -0.14620444 0.1402699 0.032418177 0.024625426 -0.065306954
0.12153452 0.16476794 0.015004704 -0.17826754 -0.030024083 -0.112977855 0.0704642 -0.13110009
0.051623 0.061857536 -0.15212291 -0.11081708 -0.083192505 0.03364349 0.14325759 -0.08953724
-0.2697963 -0.09453396 0.041066345 -0.021423988 0.044832643 0.12962791 0.030826762 0.02611828
-0.005009406 0.09590128 -0.124782585 0.0039943876 0.15239067 -0.04379544 0.20593801 0.021218346
-0.03318043 -0.07266999 0.0036434445 0.0510054 0.056989864 -0.044833608 -0.018494863 0.045476258
0.061031803 -0.08792536 0.03425555 -0.12551117 -0.066599466 0.018928602 0.10262869 0.037244488
0.012940101 -0.12624246 0.06875089 -0.07156474 -0.013234533 -0.019330034 0.22726686 0.028379492
0.05899057 -0.1960254 -0.05599766 0.018382547 -0.0989825 -0.16446248 0.19771518 -0.0922254
0.22732739 -0.15716758 -0.15264198 0.2559757 0.0042556697 0.012197767 0.30059424 0.12621924
0.020537082 0.18080439 -0.11971312 -0.004001182 0.029447215 -0.0009624979 0.07729187 -0.008120587
0.10926038 0.02063989 0.11964025 0.059447277 0.21959229 0.14132087 -0.19174057 0.042490028
-0.2643842 -0.07639522 -0.23088454 0.01039743 0.23316078 -0.20285064 -0.2567072 0.1273752
-0.21708202 0.16960143 -0.07284521 -0.032267004 -0.11314399 0.021120137 0.114457205 0.030780276

lstm.weight_ih_l1 f4 [192, 48]
00000000: a041 353d ce55 b73e c900 583e 6e9b bcbd
00000010: 5081 713d 1a15 403d ba7c 37be de85 9abe
00000020: 32e1 e8bd 2fa5 033e 168d f0bd 0825 ab3d
00000030: 76e3 c2be b44f 8a3d c0ca 8f3d 84a6 9abb
00000040: c0ce c73e 16e7 7e3d 5dc2 0d3e 31ca 883e
00000050: 84db 1c3c 29af 973e ef8a 0d3e 78ae babd
00000060: 2e20 68bd 20c4 87bd be16 25bc 542f 98bd
00000070: 72b2 cdbd c8a6 3c3d bdc3 0f3d d78e 8abd
00000080: 788a c93e 84a4 803e f4f2 503e f365 b63e
00000090: 4684 aabb dc10 ac3e d9d8 c13d ba19 aa3e
000000a0: 421f 70be 0ccb 5ebd a123 96bd f215 9b3e
000000b0: 78ba 20be 05ef ca3d 7fa7 fa3d 6d34 a53e
000000c0: 3b63 f1bd ee1c 143e 6208 ac3e cb11 4c3e
000000d0: dce4 843e e041 523d 1102 a9be 55af ea3d
000000e0: fbb0 453e 1a06 08bd d3f6 583c 4859 e6bd
000000f0: ee9c 90be 9a38 e1bd 5e6b 26be 66cd 97be
00000100: ca27 9ebc 0c00 6ebe 8326 b43d 10f6 1c3d
00000110: 6f20 76be b325 943d fdb6 a5be 1baf 8bbe
00000120: cbad 8abd b6e4 68be f77e a5be f808 31bd
00000130: 0167 fa3c 0bb5 013d 76e9 64bd 5e8a 30be
00000140: b598 ac3d 0017 9c3d 306c 79be 0554 ae3e
00000150: 9c60 15be 3572 eabc cfd1 06bc 94b7 4fbe
00000160: d983 d43c 773d 9e3e 66cc 34be 3e15 c53d
00000170: ee7b a5bd 5e12 9f3e fde4 bfbe 34dc 1cbd
00000180: 38af 4abe d535 a43e 14b4 ac3d dd46 f03c
00000190: 0d99 f3ba 83ef ff3d 7ca6 3f3e 1dec 473e
000001a0: bc4f 083e 950d 7ebe 0811 b7bc 56da 9dbd
000001b0: ff2f a13d ca99 81bd 96fb 19be f990 bbbd
000001c0: 9bad afbd 51fb 6dbd a1d2 e1bd 3c5d 953c
000001d0: f73d 153c bb83 b63d eef8 4a3d 5351 d0bd
000001e0: ae56 c8bd b165 96bd d364 92be 6dfc 613b
000001f0: 6366 e63c ba40 4fbe 9541 3bbe 6f67 773d
00000200: 9181 103d 50d3 9b3e c536 3b3c ba57 5a3d
00000210: 8945 f23d 0a2a 0e3e c7b0 40bb a13a 02be
00000220: 78a7 5ebe 4142 5abe 484e 00be 94bb a13d
00000230: a25d 7eba b025 2b3e 499a 24be 97aa 90bc
00000240: ff0f 0dbe 96cf cf3d 844f 5e3d 1590 0cbe
00000250: 73be 9fbd f750 cb3d 26af 243d 23af 6fbe
00000260: 68fd a9bb c38e 31bd c9bc 513d 4fb0 cabd
00000270: 56c1 b4bb 2256 55bd 5c1c 333d b741 abbd
00000280: 2192 ff3d 3f38 41be ceea 5bbe e3de 093e
00000290: 2664 84bb b41a 633e cf3a d43d 6188 0c3d
000002a0: 2309 afbd fc8c 0abe a2c7 e7bd 4d34 d1bc
000002b0: e403 e4bc 0083 ce3c dfde fa3d 32ae d0bd
000002c0: 0e4e 0e3e ce4d 1e3e 506c 863c 9dda d13b
000002d0: e062 ae3d 9c31 233d e60d afbd a4c3 2ebe
000002e0: 7d42 9bbd 5b9a 68bd 18bf ae3d 936d 973d
000002f0: e2ff 51be 1e3e 943d 8df4 0dbe f42b 2f3e
00000300: db1d 7abd 43fc 3a3e ff19 073d af3b 1d3d
00000310: 51b3 ab3e 97a0 cb3d 0b33 65bd 04b3 a83d
00000320: 9b4d 983d d668 07be 1df8 ea3d ced6 dabd
00000330: ec99 85be e5a9 783c 18d5 4ebe 0e45 18be
00000340: ebb9 053e c82a 04be 5136 0abe fff1 82bc
00000350: 004f d53d 89f9 a3bd 2c1c 54be 1ee0 00be
00000360: 5cb5 59be 7901 4cbd 51de 28be 2d04 863c
00000370: 97f4 353e 353a 963d c5cc 90be fa3c 52bd
00000380: 6bcf a3bc a425 083e 41a4 ddbc bfe7 d53d
00000390: b5de 40bd 4fb8 283d 2c18 10be 03af 03bd
000003a0: 2251 31be e26a 783c 07ae e1bd f2a4 d73d
000003b0: bd2b c13d d7ef 3f3d d5db 86be 9d03 963d
000003c0: 59b8 fcbd 5307 60bd e8be 9f3d 504f 133e
000003d0: fae8 01bd 9611 243c d20c 5a3e 879d 2c3e
000003e0: 0311 623d cda7 213d 0b45 e2bc 76ff f8bd
000003f0: 0f64 44be 98eb f73c ba92 a6be 3b4e 5dbe
0.044252038 0.3580765 0.2109405 -0.09209333 0.058961213 0.046895124 -0.17918673 -0.30180258
-0.113710776 0.12855981 -0.1174566 0.083566725 -0.38064164 0.067534834 0.07021093 -0.0047195572
0.39024925 0.0622321 0.13843675 0.2671676 0.009573821 0.29625824 0.1382253 -0.091153085
-0.056671314 -0.06629205 -0.010076223 -0.07430902 -0.10043801 0.046057492 0.03509878 -0.06765526
0.39363456 0.25125515 0.2040518 0.35624656 -0.0052037565 0.33606613 0.094651885 0.33222753
-0.23449424 -0.05439286 -0.073310144 0.3029018 -0.15696132 0.099088706 0.122389786 0.3226656
-0.11786505 0.14464161 0.33600146 0.19928662 0.25955856 0.051332355 -0.3300939 0.11459223
0.19305794 -0.033208944 0.013242441 -0.11247498 -0.28244728 -0.10997124 -0.16251895 -0.29648894
-0.019306082 -0.23242205 0.08796408 0.0383206 -0.2403581 0.07233753 -0.3236617 -0.27282032
-0.0677143 -0.22743496 -0.3232343 -0.043221444 0.030566694 0.031666797 -0.05588671 -0.17240283
0.08427564 0.076215744 -0.24357677 0.34048477 -0.14587635 -0.028618911 -0.008228733 -0.20284873
0.025941776 0.3090627 -0.17656097 0.09623192 -0.08080278 0.310687 -0.37479392 -0.03829594
-0.19793403 0.3207232 0.08432785 0.029330665 -0.0018585041 0.12496855 0.18715852 0.19523664
0.13311666 -0.24809869 -0.022346988 -0.0770766 0.07870483 -0.06328161 -0.15037379 -0.09158511
-0.085780345 -0.058101002 -0.110265024 0.018232934 0.009109012 0.08911844 0.049553804 -0.10171761
-0.09782158 -0.07343615 -0.28592548 0.0034482733 0.028124994 -0.20239535 -0.18286736 0.060401376
0.035279814 0.30434656 0.011426632 0.05330632 0.11829669 0.13883224 -0.0029402243 -0.12717678
-0.21743572 -0.21314336 -0.12529862 0.07897106 -0.00097032834 0.16713595 -0.1607448 -0.017659469
-0.13775633 0.10147016 0.05427505 -0.13726838 -0.07799997 0.09927552 0.040206097 -0.23406653
-0.005187679 -0.04334904 0.05120543 -0.098969094 -0.0055162115 -0.052084096 0.043728217 -0.083621435
0.12479044 -0.18869112 -0.2147629 0.13463931 -0.004040259 0.22178155 0.10362779 0.03430975
-0.085466646 -0.13530344 -0.11317374 -0.025537634 -0.027833886 0.02520895 0.122495405 -0.10189475
0.13896963 0.15459368 0.01640907 0.0064042346 0.08514953 0.039842233 -0.08547573 -0.17066818
-0.07581041 -0.05678783 0.08532542 0.073939465 -0.20507768 0.072384104 -0.1386282 0.1710661
-0.06106363 0.18260293 0.032983776 0.038386997 0.33535245 0.099427395 -0.05595688 0.082372695
0.07436677 -0.13223585 0.11473105 -0.10685502 -0.26093996 0.015177225 -0.20198476 -0.14870092
0.13059203 -0.12906945 -0.13497283 -0.015984533 0.10415459 -0.080065794 -0.20713872 -0.12585494
-0.2126059 -0.049806092 -0.16491057 0.016359413 0.17769085 0.07335321 -0.28281227 -0.051327683
-0.019996366 0.13295609 -0.027055861 0.10444593 -0.04708739 0.041191395 -0.14071721 -0.032149326
-0.17316106 0.015162202 -0.11019521 0.10529508 0.094321705 0.04685959 -0.26339594 0.07324908
-0.12339849 -0.054694485 0.07800084 0.14385724 -0.031716324 0.010013958 0.21293953 0.16856967
0.055192005 0.039466668 -0.027620813 -0.121581 -0.19178794 0.030263707 -0.32533818 -0.21611874

lstm.weight_hh_l1 f4 [192, 48]
00000000: f52b 283d ba31 d0bd 9ade 14bd c835 b9be
00000010: 102c 3fbe 7da6 d53d 2af5 41bd 155f b2bc
00000020: 7cdb 433d 1550 82be c80b b5bd d59a 003e
00000030: bdb7 3c3e 34e7 1bbd 3d87 bdbe b6d9 193d
00000040: c0a9 94bd 023a 843d 3d05 043e e30b ffbd
00000050: c4bb 073e ae43 523d 9f3d 1ebd 6827 dfbd
00000060: 995d 0ebe 056b f7bd a389 0abe bd20 1a3c
00000070: b9c1 e23d d18a 2738 fbe7 133e cef2 a9bc
00000080: f063 093d aab7 75be 2438 893d b223 a63d
00000090: e957 4d3e 6e5b f73d 1587 633e d2de 1b3e
000000a0: afff 1b3d 487e 5abd 5102 653b 2dc3 9e3d
000000b0: 98b7 c8bd 155b 5ebe e4c4 283e c20d 2a3d
000000c0: 18d7 803d 9967 13be 478e eabd cc43 bcbd
000000d0: d027 ce3c a128 2f3e 0155 05be 61db 77bc
000000e0: 234a b33d 2c1b 423e a250 303d f803 033d
000000f0: cdde ba3d 7929 97bd 4a9b 85bd e2c7 9dbd
00000100: d5c6 0ebe a6d1 873d 8d38 113e ca05 163e
00000110: 6d23 a43d 1c05 c6bd dbb5 a73d 50c3 c53d
00000120: d8db 5b3d fd4c a03d 9fdb 8bbd a15b bc3c
00000130: 8812 033e 225d 1bbe de10 b23c 4474 cabc
00000140: 7bf5 343e f0b8 93bd 9869 9fbd ae18 b4bd
00000150: 1e0e 6cbd 3fce bf3d 5368 2d3e 4de8 d0bd
00000160: d328 033e 6773 afbd 4af1 6c3e 8f21 8cbd
00000170: 1d62 e33d 0f0f 9abd 4150 82bd fdb7 0cbe
00000180: dda3 b0bd 2f3b 4ebd ac6a 53be 411d 32bd
00000190: 14f6 f5bd 1db7 28be 0059 bc3c c875 9cbd
000001a0: 7f68 833d c344 25bd e1a2 a93c 5f70 8dbc
000001b0: d0b6 11bb 4ffb b83d fcad f13c c7fa bbbd
000001c0: 6e0c 25be 03d2 d5bd 11fc bb3b 01c4 763e
000001d0: 22bf 4cbd d4bb 87bc d42f 94bd 9374 1abd
000001e0: bf3d 823c 8af5 0dbe ed93 a1bd 757f 263d
000001f0: 4b3f 5d3e 3e6f 03bd 8f99 473e e251 17bc
00000200: 63de be3d 2e87 6a3d 244d 463d 3110 dbbd
00000210: c606 1e3e f3cf d7bd 770b 9b3d 81fd 9dbc
00000220: 8a87 20bd 86e2 6abd b522 6e3e 9b37 38be
00000230: 9c93 393e 5ab8 eebd cd22 34bd f585 fbbd
00000240: 3322 6a3d ef6b 063d 9366 263d 4f37 95be
00000250: 2f90 cabd 0dc3 0d3e ecf0 a73d 4ffb 4bbd
00000260: 2795 7cbc 6025 43be 10f8 27be c1ab c63d
00000270: b442 033e 1600 acbd f000 50be 8719 ad3d
00000280: 0743 46be 0fb8 293e be3d c33d 7f79 23be
00000290: 8d62 1b3d ac2b 8ebd 8ed1 713d e451 973d
000002a0: 9bda 64be 26cb 87bb d57c ebbd 0eaa a8bc
000002b0: 4213 2fbd e368 013e 3ea1 6b3d a326 023e
000002c0: c2b5 e83d 6f8e 013e 01be 8b3a 1c02 51bc
000002d0: 4b47 14be 12bf 103e 1173 c9bd 78eb f3bd
000002e0: 7c2f 613c 0190 643d b007 c0bd c00e c93d
000002f0: 113d a03d 4c86 10be 32e6 1b3d cd74 e6bc
00000300: 9db2 78be 4a5d 20be 01b9 fbbb de89 283d
00000310: d6b4 1fbe 7ef8 2e3e 4d07 78be 7478 06be
00000320: e44a bb3d 4aff 9f3e a7ba d53d e552 563d
00000330: a970 21bd db94 263e 42b5 653d 580e 13be
00000340: 95bc 853b 1bc7 86be 4541 173d d663 72bd
00000350: 5b6a 123c c5dd 583d 640c 33bd 3f20 d43d
00000360: c3e3 523d d3d7 a63d 3743 a3bd a349 f0bd
00000370: 049f 093e 288a bbbc 22af a73c e5a5 943d
00000380: 4abe 3e3e 84b1 76bd 6931 fc3d 338d 853c
00000390: 11c9 c03d e1be 02be fe91 893c 45dc 8fbd
000003a0: aec3 eabd b353 cebe 7f07 9a3d 8e85 353d
000003b0: 4ecb 84bd a33a 45bd 146c ff3c 6f23 7b3c
000003c0: 169d 7dbd 0be1 3ebe 1b24 84be 6ed9 99bd
000003d0: b829 0f3d ed95 233d 5068 20be 26e0 943c
000003e0: 7855 b03d a4bb 2cbd 2fda 8e3d af6a 1dbb
000003f0: 223e 0b3d d56c 153e b654 43bd 00a8 b0bd
0.041057546 -0.101657346 -0.036345102 -0.36173844 -0.18669152 0.10432146 -0.047352947 -0.021773854
0.04781674 -0.25451723 -0.08840138 0.12559064 0.18429466 -0.03806229 -0.3701724 0.03756114
-0.0725894 0.064563766 0.12892623 -0.12453439 0.1325522 0.051334076 -0.038632985 -0.10896188
-0.13902892 -0.12080959 -0.13529067 0.0094072195 0.11072106 3.9945186e-05 0.14443962 -0.020745661
0.033542573 -0.23995844 0.06700161 0.08112277 0.20053066 0.12077986 0.22219498 0.15221718
0.038085636 -0.053343087 0.0034944008 0.077520706 -0.09800643 -0.21714433 0.16481358 0.041517027
0.06291026 -0.14394988 -0.114529185 -0.09192619 0.025165468 0.17105342 -0.13020708 -0.015127988
0.08754375 0.18955678 0.043045647 0.031986207 0.09124527 -0.07380957 -0.0652376 -0.0770414
-0.13943036 0.06631784 0.14181729 0.14650646 0.080145694 -0.09668943 0.08188983 0.096563935
0.053676456 0.07827184 -0.06828999 0.02299291 0.12800038 -0.15172246 0.021736559 -0.024713643
0.17671768 -0.072130084 -0.07783812 -0.0879377 -0.05763065 0.0936551 0.16934328 -0.10200558
0.12808542 -0.08566933 0.2313892 -0.06842338 0.11102698 -0.075224034 -0.063629635 -0.13742061
-0.086250044 -0.05034941 -0.20646161 -0.04348493 -0.12009826 -0.16476102 0.022991657 -0.076396525
0.064164154 -0.04034878 0.02070755 -0.017265497 -0.002223421 0.09032308 0.029501908 -0.09178691
-0.16118023 -0.10440447 0.0057368358 0.24098207 -0.049986966 -0.016569056 -0.07235685 -0.03770883
0.015898583 -0.13863197 -0.07889543 0.040648896 0.21606176 -0.03208851 0.19492172 -0.009235831
0.09319761 0.057257824 0.04841341 -0.10696448 0.15432271 -0.1053771 0.07570546 -0.01928592
-0.03919176 -0.057344936 0.23255427 -0.17989962 0.18122715 -0.11656256 -0.0439785 -0.1228141
0.05716152 0.032817777 0.040625166 -0.2914376 -0.09890782 0.13843937 0.08200249 -0.049800213
-0.01541642 -0.19057226 -0.16403222 0.09700728 0.12818414 -0.08398454 -0.20312858 0.084521346
-0.19361506 0.16574119 0.09533261 -0.15964316 0.037935782 -0.069419235 0.059037738 0.07388666
-0.22349016 -0.00414409 -0.11498419 -0.0205889 -0.042742975 0.12637667 0.05752682 0.12710051
0.113627926 0.1265199 0.0010661484 -0.012756851 -0.14480321 0.14135388 -0.098364 -0.119101465
0.013744231 0.055801395 -0.09376466 0.098172665 0.078241475 -0.1411373 0.03806133 -0.028131867
-0.24286886 -0.15660587 -0.0076819663 0.041147105 -0.15596327 0.1708698 -0.24221535 -0.13131887
0.09145144 0.31249458 0.10435992 0.052325148 -0.03941408 0.16267721 0.056081064 -0.1436094
0.0040813186 -0.2632378 0.03692748 -0.059177242 0.00893649 0.05294587 -0.04371299 0.10357713
0.05148674 0.08146634 -0.079718046 -0.11732795 0.13439566 -0.022893026 0.020469252 0.07258204
0.18627277 -0.060227886 0.12314112 0.01630268 0.094133504 -0.12768127 0.016793247 -0.07024435
-0.11463104 -0.40298232 0.07520961 0.04431682 -0.0648409 -0.048151623 0.031179465 0.015328272
-0.061917387 -0.18640535 -0.25808796 -0.075121745 0.034951895 0.039937902 -0.15664792 0.018173289
0.08610052 -0.042171136 0.06975209 -0.0024019887 0.0339948 0.14592297 -0.04768821 -0.086257935

lstm.bias_ih_l1 f4 [192]
00000000: 842b c0bd 57f3 1cbc ea1c 1b3e 0d07 933c
00000010: 44d4 8e3d b78c 63bd aabc d53d d690 063e
00000020: e999 71bc 4e3b 07be 2bf7 1a3d c0c8 2abe
00000030: f23d 2d3e 8142 233e 9d68 1e3e 09c4 b63d
00000040: 8712 483d 3e78 1cbe 05c9 e63d bbc4 0bbd
00000050: 78bb ca3c 5150 d33d a7f2 4c3e 9498 693e
00000060: f5be 263e 1b7a 92bd 6b79 483e fe39 f73d
00000070: f3db 6ebd 40cb 013e d741 c83e e015 2c3e
00000080: ac60 9fbd 3371 403e 4c28 f83d e4ec 493e
00000090: 2d41 023d c57a 7abe 2d4e c33d 706c 59be
000000a0: 9415 5c3e 9e9e 97bd 6802 babd d455 803e
000000b0: 2077 14bd e108 d53d 4e92 943c db04 e9bc
000000c0: 1cc8 f5bc 2b71 44be 9a5e 94bd 33c1 7abe
000000d0: 2355 01be 2dda 993d af04 cabd 712b f73c
000000e0: 761f bd3c 92c0 9cbd 4e15 c13c 581c 683b
000000f0: b7b0 08bd c7da 59be bb89 2dbe bb14 ef3c
00000100: 88d6 4fbd 6143 65be 863d 32be 3541 a5bd
00000110: 0dba b33d 16cc ffbd 2493 2cbe 6a80 03bd
00000120: 3d47 b5bd 4ee5 2cbd 59f1 edbd c3c4 7c3c
00000130: 093a 29be 6a2b 5fbe 6a50 a4bd 748a 013e
00000140: cc46 1abe 109c 22be e289 c8bc f783 68bc
00000150: f196 2c3d 48fe a6bc e14c 07be de43 56bd
00000160: 8e40 11be 1d62 a63d 05c1 823d ba05 cebd
00000170: f29a f43d 016f e8bd 8961 3bbe 88ec 23be
00000180: 4d21 f03d 604b 573d 0594 9a3d 0ce0 ed3c
00000190: 5f3d 81bd 56f6 b93d 7b9e 943c d926 933c
000001a0: 9916 f3bd fe95 e83d eb36 53be 7b33 79bd
000001b0: 9281 fd3d a968 aa3d 5d44 4bbc 9b01 8d3d
000001c0: 7758 633d 1323 14be fff5 0dbd b32c 18be
000001d0: 818a d33d a31b d3bc 0491 cf3d f6f1 893e
000001e0: 59db 403d 9e97 96bd 9363 b73d 670a 1cbe
000001f0: 9cc4 553d 7aa5 9dbc 364e 8abd a614 10be
00000200: ce35 0cbe d0d3 86bd e23e cbbd a4b1 903d
00000210: a0ea 31be 45a7 68bd ece3 5ebd 30aa d4bd
00000220: 5bfa 033c feca a3bd 489f fd3c 142f 863c
00000230: c0ad acbd 9f83 bc3d e47e 4abd 2a19 88bd
00000240: 29aa fc3d 187b 85bd 4edd 383d 945d 8e3d
00000250: 8a69 d63d 5b4a de3d 9d7b 2dbd 41b1 2d3d
00000260: 997e a63c 8274 7cbd 1815 e73d 7ce0 233d
00000270: d0ee 5b3e d77f 6b3b b1af 3bbd 9283 883d
00000280: d2bd d7bd dc8e d23d f07d 933d 6d6d ccbd
00000290: 9738 173a 1515 143d 0f56 293e db56 943d
000002a0: 07fb 863e 1b27 263e 4073 263c 639d 72bc
000002b0: a452 76bb 0fd4 e8bd 576e 863e 4333 073e
000002c0: f16a 163c 87f1 fd3d 6f31 bebd 637a 2c3e
000002d0: 00f0 de3d a4c9 2abe c000 d73d d53a 0dbe
000002e0: 2c3e 82bc e173 21be 7954 f03d 5093 473e
000002f0: a746 cbbd 7e7d 543d e836 4fbd a33d 363c
-0.093833 -0.009579501 0.15147749 0.017947698 0.0697408 -0.055554118 0.104363754 0.13141188
-0.014746168 -0.13206217 0.037833374 -0.16678143 0.16918162 0.15943338 0.15469594 0.089241095
0.048845794 -0.15280244 0.1126881 -0.034123164 0.024747595 0.103180535 0.2001444 0.2281211
0.16283782 -0.07152196 0.19577567 0.12071608 -0.05831523 0.1267519 0.39112732 0.1680522
-0.077821106 0.18793182 0.12117061 0.19719273 0.031800438 -0.24460895 0.09536395 -0.21232772
0.21492606 -0.07403301 -0.0908249 0.25065482 -0.03624642 0.10402084 0.01813617 -0.028444698
-0.030002646 -0.19183795 -0.07244606 -0.24487762 -0.12630133 0.07512317 -0.098641746 0.030172082
0.02308629 -0.07653917 0.02356973 0.0035417285 -0.033371653 -0.21274863 -0.16947071 0.02918469
-0.050741702 -0.22388984 -0.17406282 -0.08069078 0.08775721 -0.12490098 -0.16853005 -0.032104887
-0.08851478 -0.04221087 -0.11618299 0.015427771 -0.16526045 -0.21793905 -0.0802315 0.12650472
-0.1506607 -0.15879846 -0.02447981 -0.014191619 0.042136136 -0.020384923 -0.1321292 -0.052310817
-0.14184782 0.081241824 0.06384472 -0.10059686 0.11943616 -0.11349297 -0.18298925 -0.16008198
0.117251016 0.052562118 0.07547764 0.029037498 -0.06310534 0.09080188 0.018141976 0.01796286
-0.118695445 0.11356734 -0.20626418 -0.06084011 0.12378229 0.083207436 -0.012406436 0.06885072
0.05550429 -0.14466505 -0.03465843 -0.14860801 0.10329152 -0.025770014 0.101350814 0.26942414
0.047084186 -0.073531374 0.08954539 -0.15238343 0.052189454 -0.019243944 -0.06753199 -0.14070377
-0.136924 -0.06583369 -0.09924103 0.07065132 -0.17374659 -0.056800146 -0.054416582 -0.10384023
0.008055295 -0.07997702 0.03095974 0.01637987 -0.08431578 0.09204792 -0.04943742 -0.06645425
0.12337143 -0.06517619 0.045132928 0.06951442 0.10469349 0.10854026 -0.042354215 0.04240537
0.020324038 -0.061634548 0.1128332 0.040009007 0.21477818 0.0035934353 -0.04582185 0.0666572
-0.10534252 0.102811545 0.07201755 -0.09981809 0.00057686254 0.036152918 0.16536735 0.07243129
0.26363394 0.16225855 0.010159314 -0.014808032 -0.0037585879 -0.11368572 0.26256058 0.13203149
0.00918077 0.12399583 -0.092867725 0.16843562 0.1088562 -0.16678482 0.1049819 -0.13791974
-0.015898786 -0.1576686 0.11734862 0.19489789 -0.09925585 0.05187749 -0.050589472 0.011123094

lstm.bias_hh_l1 f4 [192]
00000000: 006d c83d 9390 53bd 54eb 7a3d c74a 8d3e
00000010: e329 5fbd 1112 a8bc f63c 2e3e c31d 1d3e
00000020: f079 f3bd 8511 5fbc aaca 003e edd3 f23c
00000030: c68a 623e 6115 95bd 2601 363e 11b5 363e
00000040: ebea 293c 7b44 02be afe7 963e 1426 0bbe
00000050: cdf1 cb3d 9a42 673d 1fb3 223e 85cb 173d
00000060: 42fa 943e c2b9 8ebb 2528 843b 055b 363e
00000070: 658e e5bd 0c73 d0bd fea5 a23e 64cb b73d
00000080: e648 2dbd d843 84bd 50b8 233e 622f fdbc
00000090: 1f85 133d 81cf 91be 4f65 443e 7b8f 80be
000000a0: a954 0d3d a644 323d 81db a53b d9c3 d83d
000000b0: 0dbe aebd 5303 d6bc 9eb8 cd3d 88f8 d5bd
000000c0: 61ba 55be 40ae cabd d376 77bd 5546 03bb
000000d0: 736b d03d 970d 2b3d a947 613d 536f 17be
000000e0: 4306 e8bc 174e c5bd 3571 b8bd 7036 0fbe
000000f0: ecb8 ebbb 2bfb 3fbd 081c 0fbe 5181 d5bd
00000100: 49c2 bfbd 4c8b f4bd dda0 0dbe 4fc8 9dbd
00000110: 7910 4abd 8fea 8ebe d0c2 05be 669d 923d
00000120: 644c 243a 7f82 19be 9daa de3d 56be 053d
00000130: 9d8b 1d3d 6710 6cbe e496 bbbd 8aed f03d
00000140: 65c0 90bd cba4 f8ba d6ab c23d bdb0 c8bd
00000150: 601d 803a 181e 54bd fa7c 52be be10 54be
00000160: 33ac 093d 644d fabd 4a66 cbbd 505a 24be
00000170: 6bcb 7c3d 51e4 e0bd 6a21 ebbd 83ed 893c
00000180: 91a3 82bd 012a ed3d 8b48 893b 0c66 e8bd
00000190: e8ca dc3d 3ce6 d93d b3f0 a4bd d10e 463e
000001a0: 5735 1ebe 1209 5ebd b804 67be 70e0 e2bd
000001b0: da47 b7bd 25e5 8a3d 809e fb3d 4b36 343e
000001c0: 18b5 9d3d dc76 d43d c01f afbd c51a 3d3b
000001d0: f286 ed3d 0925 643d b50f 9cbd 1899 953e
000001e0: ac27 bf3c ca87 023e 436b ae3d c153 13be
000001f0: 2d32 373d daae 3d3a 2866 4bbd df57 55be
00000200: 184c 94bd 6905 fe3c bcf4 5dbe 76e9 8c3a
00000210: ba87 00be e1a4 a9bd a674 043d f914 afbc
00000220: 6542 523d ef3f e1bd 3b69 c8bc 52d1 71bd
00000230: e28c 8d3c 14ff 9fbc 1009 38bd b868 ecbd
00000240: 4eb1 eebd b931 6fbc 7d41 143e 6a50 533e
00000250: 68b1 213e 2961 8e3d e642 5bbd cc97 cc3d
00000260: 18c7 19be aead 913d e228 763d e87d 65bc
00000270: d1c5 943d a327 54bd 3097 c03d 3449 adbd
00000280: 4016 f13c 0617 02be 6680 653e 797d 68bd
00000290: 92b2 1c3e 29ea b93d 1322 84bc e8be 203e
000002a0: d619 563e 66db 9f3d 0863 4e3e 461c f1bd
000002b0: e4fe 0a3e bba3 0dbc e964 a43e ad54 b0bd
000002c0: 40d4 97bb a8a0 2a3e ae6c f83d a20c c7bd
000002d0: 6e5d 903d 17bd a3be 7eb8 403d f4a4 adbe
000002e0: fa19 d83d b21e 3abe 1605 adbd fd81 7b3d
000002f0: cca5 67be 95f1 d43d 0b67 113d d6bb 02be
0.09786415 -0.05165155 0.061259583 0.27596113 -0.054483306 -0.020516427 0.17015442 0.15343384
-0.11888492 -0.013615017 0.1257731 0.02964207 0.2212325 -0.07279468 0.17773876 0.17842509
0.01037095 -0.12721436 0.29473636 -0.13588744 0.09958229 0.05646 0.15888642 0.037059326
0.29097182 -0.00435564 0.004033106 0.17808159 -0.112088 -0.101781934 0.31767267 0.089743406
-0.04230585 -0.06458253 0.15988278 -0.030906383 0.036015626 -0.28478625 0.19179271 -0.25109467
0.034504566 0.0435225 0.0050615673 0.1058423 -0.08532343 -0.026124632 0.100449786 -0.10447794
-0.20871879 -0.09896517 -0.060416054 -0.0020030935 0.10176744 0.041761007 0.05499998 -0.1478856
-0.028323298 -0.09634035 -0.090059675 -0.1398561 -0.0071936753 -0.04687039 -0.13975537 -0.10425056
-0.09363229 -0.11940631 -0.13830896 -0.077042215 -0.049332116 -0.2791333 -0.13062596 0.071589276
0.00062674866 -0.14991187 0.10872386 0.03265222 0.038463224 -0.23053132 -0.091596395 0.11764057
-0.07067946 -0.001897001 0.09505431 -0.09799335 0.000977438 -0.051786512 -0.20555487 -0.20709512
0.033611488 -0.12221792 -0.099316195 -0.16050076 0.061717432 -0.10981048 -0.114809826 0.016836887
-0.06378854 0.11580277 0.004189556 -0.11347589 0.10780889 0.10639617 -0.08053722 0.1934159
-0.15450035 -0.05420787 -0.22560394 -0.11077964 -0.089492515 0.06781987 0.12286091 0.17598836
0.077005565 0.10374233 -0.08550978 0.0028855067 0.115980044 0.055699382 -0.076201834 0.29218364
0.023334347 0.12747112 0.08516552 -0.14387418 0.044725586 0.0007235833 -0.04965797 -0.20834301
-0.07241076 0.03100844 -0.2167539 0.0010750729 -0.12551776 -0.08283401 0.032337807 -0.021372305
0.05133285 -0.109985225 -0.02446424 -0.059037514 0.017279092 -0.01953081 -0.044930518 -0.11543411
-0.11654912 -0.014599257 0.14478107 0.20636144 0.15790331 0.069521256 -0.053530596 0.099898905
-0.15017354 0.07113205 0.060097583 -0.014007069 0.07264293 -0.051795613 0.09403837 -0.08461228
0.029429555 -0.12704095 0.22412261 -0.056760285 0.15302494 0.09077866 -0.01612953 0.15697825
0.20908293 0.07805519 0.20154965 -0.11772971 0.13573796 -0.008644993 0.32108238 -0.086099006
-0.0046334565 0.16662848 0.12130104 -0.097192064 0.0704907 -0.31980202 0.047050945 -0.33914912
0.1055183 -0.18175772 -0.08448236 0.061403263 -0.2262184 0.103976406 0.03549866 -0.12766966

linear.weight f4 [2, 48]
00000000: dd8e 583e 63a5 163e 21fd 813d 3974 9abe
00000010: 2f5a de3d 135a 42bd 3f64 ae3d e88e 0f3e
00000020: fdc0 073d d11d ae3d 4fca a2bd 5344 dabb
00000030: 5ca9 823e f757 083e f86d 063e 3993 2e3e
00000040: 575a 043e 9820 093e 2759 80be 266d 923c
00000050: e0e5 823e 0ad7 353e 314d 95be 8dec 613e
00000060: 83c0 81be 7d7e 13be bc72 7e3e b112 74be
00000070: 9295 2bbe d05e 07be 3f57 89be 3396 1a3c
00000080: 9ee3 a2bd e05b cb3d 69cf 9bbd 8fd3 103e
00000090: 74e6 cfbd 13ec d9bb 5f7b 4a3c f492 a23d
000000a0: 94e9 b43e 1f66 1d3e e11d 46be 7382 8c3e
000000b0: a25c 29bd 43bb 71be 9c40 37be ba3b e53d
000000c0: 495a f8bc d00b e73d 49ed 3a3e 3227 223e
000000d0: a0da 013e a497 543e e94e 473e c277 063e
000000e0: ffa4 65be d9f0 003e 6c64 77be 7cd2 22be
000000f0: 36cc 29bd 9bfb 113e 80b2 2a3e 067c dd3d
00000100: ecd7 b73d b25f 2cbd ac56 003c 87e1 1fbe
00000110: c7e1 bfbc 2ea3 55be 6569 6e3e 92e9 0e3e
00000120: 5e9e f73c 0453 5e3e 3036 fe3d 5f28 88bd
00000130: 6335 b5bd 500f 453e aaae 9d3d b1e0 85be
00000140: 438d 12be cbc6 153e 4207 69be fee8 713e
00000150: e81b 5dbe 9b88 5fba fe57 62be 0ce8 ec3c
00000160: 1ed4 f1bd 50ac a33d c146 d3bd d920 f6bc
00000170: a2b7 053e 9448 6c3d 94d4 05be 0bec 5ebe
0.21148248 0.14711528 0.06347109 -0.30166796 0.10857045 -0.047449183 0.08515214 0.14019358
0.033143032 0.08501781 -0.079487436 -0.006660977 0.25519836 0.13314806 0.13127887 0.17048348
0.12925087 0.1339134 -0.25068018 0.017874312 0.25566006 0.17757812 -0.29160455 0.22062893
-0.25342187 -0.1440372 0.24848455 -0.23835255 -0.16756275 -0.13219762 -0.26824376 0.009435224
-0.07953571 0.09929633 -0.0760792 0.14143203 -0.10151377 -0.0066504567 0.0123585155 0.07938185
0.35334456 0.15370987 -0.19347335 0.27443275 -0.041348107 -0.23606591 -0.1789574 0.111930326
-0.030316489 0.1128155 0.1825458 0.15835264 0.12681055 0.20760971 0.19463696 0.13131621
-0.22426222 0.12591876 -0.24159402 -0.15900606 -0.041454516 0.14256136 0.16669655 0.10814671
0.08976731 -0.04208345 0.007833164 -0.15613376 -0.023423089 -0.2086303 0.23282392 0.13956288
0.030226883 0.21711355 0.12412679 -0.06648325 -0.08848073 0.19244123 0.0769933 -0.26147988
-0.143117 0.14626615 -0.22756675 0.23624036 -0.21592677 -0.00085271307 -0.22103879 0.028919242
-0.11808036 0.079918504 -0.103162296 -0.03004496 0.13058332 0.057686403 -0.13069373 -0.21769731

linear.bias f4 [2]
00000000: 0959 473e 7649 943d
0.19467558 0.07240574
