checkpoint/training_epochs_200_stepsize_7_gamma_0.75/model_epoch110.pth (torch, 117574 bytes, 10 tensors)

lstm.weight_ih_l0 f4 [192, 2]
00000000: 4d9a f6bd f5f1 173e fc82 8cbe 4778 0abe
00000010: 12fd a13d b507 bf3c a24e 203e e7b9 4a3e
00000020: a8ff a53e 2fdf 2e3e 3297 95be fea9 c23c
00000030: 5ed6 8f3e cbc2 823e 6a47 273e e87e 6a3e
00000040: 4f9d ba3e 53e6 c23e 0fdc 18be afcf cd3d
00000050: 9874 123e 73c8 b8bc e914 b93d 3d3c 243e
00000060: be29 1d3e af8e 04bd c22c 1e3d ba0e c6bd
00000070: 0d2c b43e 3995 b03d cc54 cd3e 861c 823e
00000080: cda6 fb3b c7aa 19bd a1fb a73e d660 ac3e
00000090: 4713 283e 7b8f 193e 2655 20be 0a10 3dbe
000000a0: 1ade 0bbb 08cd 37be 5fa2 1bbe fbc6 973c
000000b0: a49c 823e 6c60 bb3d 2417 973e 85d8 993e
000000c0: 8175 493d c350 273e c105 ed3d 7acf 5e3e
000000d0: ae59 d2bc 9186 523e 1121 e13d 829e 2c3e
000000e0: d26d db3d d64d 80be b15d d23e f1a6 843c
000000f0: 7577 26be 563f f1bd 954a e43d 03fe 543d
00000100: 5611 a4be e025 9abe 5d9b c5be f12a d4be
00000110: 904f f4bd a2b5 323e 6000 903d d669 223d
00000120: 2086 5b3e 04e0 383d 745f d6bd 7932 99be
00000130: 39d1 51be 420f 95be 7100 763d 806f 853e
00000140: 15cc 80be c289 31be 50f8 313e e6b7 443e
00000150: db01 d23d bedb e53c f4bf cdbd 3cbb 6fbe
00000160: 453b 64be 2348 3cbd afda 863e a3d6 483e
00000170: 3bab 3f3e dfb9 993e 6026 0f3d 0216 0cbd
00000180: 4ffd 42bd d7a9 1e3e 468d d83d 6547 d13d
00000190: 7d8c 67be f467 a7bd ad6e bebd f0ff d73d
000001a0: eb63 afbb bdbc 553e d3f6 14be c775 dd3d
000001b0: d414 77be 66b1 ef3c f07f 09be 21c1 f3ba
000001c0: e434 513e e070 a23e 7d5b 70ba 41ca 49bc
000001d0: 806c 6d3e 1036 4c3e 334d 8bbd 8651 aa3d
000001e0: 57ce fdbd 226d c43d 32f9 a43e 5aa2 92bd
000001f0: 56c4 613e 8c05 823e 176a 2f3c 8c30 99bd
00000200: ddf7 72be e808 68be 5339 573d bd11 593d
00000210: f466 063d b2fb 4a38 4b9f 4d3e 4c37 3e3e
00000220: 1130 22be baaf 0bbe 2d7d 5cbe 0cd2 473d
00000230: c9e1 01bd 0c79 493d 22bc 933e db57 983e
00000240: 1264 a73d f084 e23c 88f7 113e a658 ad3e
00000250: 2f1f 01be ec39 233e 3fc3 323e 5231 4fbe
00000260: 4a1f a23e 130f 113e c945 6a3e 8b32 b6bd
00000270: f479 6c3d d147 4dbd c588 2b3e 45a4 a73e
00000280: b4e5 83bd 9044 00be b4fa 343d f4b3 1c3c
00000290: 2d79 eb3d 4d76 963d 628c 40be 2c2f 7cbd
000002a0: e3eb 683e fce2 a03d 4e48 113c 3ce2 f5bd
000002b0: cf8e 023a fa64 5cbe 0322 0c3e fdbd 8e38
000002c0: 759b 14bd 695c 4abe 55dd 093d 2bda 1b3e
000002d0: d589 c23c 0ec8 8b3e 9d0d 29be 9246 46be
000002e0: 177b f33d 5385 febd 0292 6d3e 5828 093e
000002f0: dce9 873d 8708 a93e 621e 853d ef5d babe
00000300: 97f4 f03d b70e c1be 5ad4 013e 2029 953e
00000310: 735a 183e 0898 c03e a9fe c1bd 83bb 073f
00000320: 8592 883e 75b8 ab3e 5925 c93c 81c2 863e
00000330: 9b83 0abf ac1c 1c3d db63 5abd 0ea8 b33e
00000340: 1469 ff3e 4848 923e e9b2 b73e 7ceb fc3d
00000350: f886 19bd 78cc 9bbe 334b 02be fb98 d9be
00000360: b788 89be 1a17 babe b145 b8be e85d 113d
00000370: ee7a ec3d faba edbe 491c 40be 4bfc aebe
00000380: 202c c83e ea2f 99bd ffd0 d13e 7529 bfbe
00000390: 25b2 573e 1a97 a13e da64 893e 7a90 5b3e
000003a0: 90a6 71be aebf 3cbe d3fa 953e 752e 4cbd
000003b0: 257c 50be f43e b6be 7869 3cbe 5285 b7be
000003c0: 4bcc ad3e 1cd1 41be ed1d b2bd 1e1f bdbe
000003d0: ee8f 473e dba0 c7be 543c 05bf 973c 463c
000003e0: 4bde 7ebe 1d3c ab3d 90c9 f73e 954b aabe
000003f0: e047 b4be cc67 10be 50e5 643d 7546 cfbe
-0.12041149 0.14838393 -0.27443683 -0.13522445 0.079095975 0.023319105 0.15654996 0.19797479
0.32421613 0.17077325 -0.29216915 0.0237627 0.28093237 0.2553924 0.16335836 0.22899973
0.36448142 0.38066348 -0.14927696 0.10049378 0.1430229 -0.02255652 0.090371914 0.16038604
0.15347955 -0.032362636 0.038616903 -0.096707776 0.35189858 0.08622212 0.40103757 0.25412387
0.0076797963 -0.03751638 0.32809165 0.3366763 0.16413604 0.1499614 -0.15657482 -0.1846315
-0.00213421 -0.17949307 -0.15198658 0.018527498 0.25510132 0.091492504 0.29509842 0.30048004
0.049184326 0.16339402 0.11573363 0.21758834 -0.025677528 0.20559146 0.10992635 0.16857341
0.10714306 -0.25059384 0.41087106 0.016192885 -0.16256507 -0.117796585 0.11147038 0.052000057
-0.32044476 -0.3010702 -0.38595095 -0.41439012 -0.11929238 0.174521 0.070313215 0.039651714
0.21437883 0.045135513 -0.10467425 -0.2992132 -0.20489968 -0.29113203 0.060059015 0.2606163
-0.25155702 -0.17337707 0.1737988 0.19210777 0.1025426 0.028058883 -0.10046378 -0.23411268
-0.22288235 -0.045967232 0.26338717 0.19613127 0.18717663 0.3002462 0.034948707 -0.034200676
-0.047604855 0.15494476 0.10573821 0.102186956 -0.22612186 -0.08174124 -0.092984535 0.10546863
-0.0053524873 0.20872779 -0.14547281 0.1081348 -0.24129039 0.029259395 -0.1342771 -0.0018596986
0.20430332 0.31726742 -0.0009168906 -0.0123162875 0.2318592 0.19942498 -0.06801834 0.083163306
-0.12392872 0.09591128 0.3222137 -0.07159872 0.22047552 0.25394857 0.010706446 -0.07479963
-0.23727365 -0.22659647 0.052544903 0.052995432 0.032813028 4.8394963e-05 0.20080297 0.18575782
-0.15838648 -0.13641253 -0.21532126 0.0487843 -0.031709466 0.049187705 0.2885447 0.29754528
0.08173384 0.02765128 0.14254582 0.33856696 -0.12609552 0.15940064 0.17457293 -0.20233658
0.31664497 0.14165907 0.22878183 -0.08896359 0.05773349 -0.050117318 0.16751392 0.32742515
-0.06440297 -0.12526155 0.0441844 0.009564389 0.11497722 0.07346783 -0.18803552 -0.061568424
0.22746234 0.07855794 0.008867336 -0.120060414 0.00049803866 -0.21522895 0.1368485 6.806476e-05
-0.036281068 -0.19761814 0.033658344 0.15219943 0.023747364 0.27301067 -0.165091 -0.19362858
0.11888712 -0.12427773 0.23200229 0.13394296 0.06636402 0.33014318 0.06499936 -0.3639979
0.11765402 -0.3770654 0.12678662 0.29132938 0.14878254 0.3761599 -0.09472401 0.53020495
0.26674286 0.33539167 0.024553942 0.2632027 -0.54107064 0.03811328 -0.053317886 0.35089153
0.49884856 0.2857077 0.35878685 0.123496026 -0.03748223 -0.30429435 -0.12723999 -0.42499527
-0.26862118 -0.3634575 -0.3599067 0.035489947 0.115468845 -0.46431714 -0.1876079 -0.3417686
0.39096165 -0.07479842 0.40979764 -0.37336317 0.2106405 0.31560594 0.26834756 0.21441832
-0.23598695 -0.18432495 0.29292926 -0.049848992 -0.20359857 -0.35594904 -0.18399608 -0.35843903
0.33944926 -0.18927425 -0.08697114 -0.36937803 0.19488499 -0.3898991 -0.5204518 0.012099407
-0.24889486 0.08361075 0.48395967 -0.3326079 -0.35211086 -0.14102095 0.055882752 -0.40483442

lstm.weight_hh_l0 f4 [192, 48]
00000000: 1a01 86bd 452d 8d3e 9707 cabd d4d0 16bd
00000010: c1e9 f3bc f5e2 b4bb eed5 ac3d 129e 9c3d
00000020: 3f23 75bd 02de 84bd a94c 26be 98a0 e7bc
00000030: 4d41 a63c 98c6 083e 2e9a 7ebd f768 12be
00000040: 7518 ef3a 49e1 0ebe 25d3 b8bd 5449 3d3e
00000050: 55e3 4ebd af2d cfbc 061a d13c d085 db3d
00000060: bde7 89be 23fb 6cbc 3e03 12be 6bb7 6d3c
00000070: ce08 3abe c971 65be 0123 753d f031 fd3c
00000080: a358 c5bd 8448 ab3b d9a2 8b3e f4b5 fa3d
00000090: ef9a 82bc 9b4f 6a3e 686f 28be dcaa 4abd
000000a0: 27b1 c43d 491b 5ebe cd90 cabd 6988 0f3e
000000b0: 0ba3 9e3c 84c7 263e aa22 c03d 2a93 663d
000000c0: 452f d43c db79 fdbd acaf 16bd 0b06 81be
000000d0: 9836 5abe f306 03be dbdf d93e 7415 01be
000000e0: 40fb b0be c461 34be c09d 1c3f 74d8 913e
000000f0: de0e 8a3e 75e0 ed3e 6fbb e43e 0301 9c3e
00000100: df9e 26bb ea60 52be b368 9fbe a9d5 93be
00000110: 5e2b 843e 22c7 213d 6901 8a3e 6792 923e
00000120: 0873 17bf 77a6 1a3f 5570 2fbe 75c3 a13e
00000130: 5433 613e ef8d 97be d5ab 8c3e 6565 7d3e
00000140: c4ab 41be 58da d73d 07c5 923e 7658 b2be
00000150: fbe1 093f 54f0 a5bd 397b 873d 98ef e7bd
00000160: e81d fc3d f025 16bf a2ab 4c3e 2034 70bc
00000170: e34d 21bd 2810 b7be d02f a83e 97e1 8cbd
00000180: 046b 283d a1e5 9bbd b5cf 52bc 1e03 e0bd
00000190: 19b6 a2bd aee0 dfbd dd38 cabd ff82 a4be
000001a0: f988 f73c d858 3ebd 4d88 173e 4f4b 073e
000001b0: e126 e9bc dd93 9c3d 1459 983e 768c 273e
000001c0: 5be1 f13d dbf7 ccbd 4fc2 8abd 6041 45bd
000001d0: 0584 2cbe 015e b93d 5bab 8ebd e975 403e
000001e0: 5eab 1bbe a083 c03d ea06 1cbe 03a6 1ebe
000001f0: 88c4 5cbe 9a58 433d f967 e6bb 1730 d5bb
00000200: 0cf1 993c 7c14 463d 613f 21bd 234f 073d
00000210: efd1 fdbc 8fd2 b33d 740e 603e 41bb c33d
00000220: 5c8b 17be 72e2 b6bd 1d3b c9bc c27d af3e
00000230: 4f70 9bbe cb7a c5be a640 283e f6d1 953e
00000240: 7532 203e 1911 193f 0e45 d63d 3b85 27bd
00000250: 0d12 6b3d 54b8 ec3c e2db 7abe 6eb2 fabd
00000260: df60 b3bc 6f50 603e e572 bc3d edc0 413e
00000270: 587d bebd 2bb2 01be 3554 f13d dd00 9b3b
00000280: 44c8 c33e d8ea 493e bb1c 77bd 93f7 2fbd
00000290: d3f1 cdbd bef5 aa3e a128 55bd cb87 ed3d
000002a0: de74 9b3d b2fd 1cbe ba30 bdbc 724d e7bd
000002b0: 2251 dabe 337f 683e e050 e8bd 904b 2d3e
000002c0: af21 793e cf67 f03d c4a0 1d3e 0bb5 d23d
000002d0: ebbc 63be 59fc d23d 0b0f 0f3e 06db 993e
000002e0: c0ab 66be 3704 103c bcdc c03d 7e91 bd3d
000002f0: bb16 d1bd 983b d13c 95ef 733d a854 ed3e
00000300: 73a5 38be 825b b83e 95fe 3b3e d57c 893d
00000310: e5f0 253e 0007 1dbd 1fca b03c 3b37 f33b
00000320: 629e 003e 546f c0bd 8752 123e b329 8b3d
00000330: 8176 b6bd a554 113e 29de 443c 0746 07be
00000340: 2c36 2fbb 3598 78be 3733 5abd 113b b43d
00000350: db73 0abe 87cf a53c f9e5 5d3d e37a ffbd
00000360: 0267 d93b 79a1 d33d 182d d2be 2faa 453c
00000370: ddc9 25be bcf7 04be 306a 62be ffc3 883c
00000380: 8db5 933c ab9b 843e 31c3 31be 471f e23c
00000390: 23c5 a33d 0b88 bc3d 41e9 d8bc 7aba 33be
000003a0: a430 89be 5ad9 71bc 871a e5bb ad23 e63d
000003b0: b1af 89bd bf80 523e a113 48be c7c0 dc3d
000003c0: dbef 26be 02d9 fb3d b531 983e a134 42be
000003d0: fe5d e4bc 8ea0 9e3b a75e 743d 7cf6 003e
000003e0: c2bb 93be fa18 b5bd a2c5 81bd f80a 113e
000003f0: e05f c43d 469c 51be c643 9cbd cef5 763d
-0.06543179 0.275736 -0.09864729 -0.036820248 -0.029774548 -0.0055202194 0.08439241 0.07647337
-0.059848066 -0.06487657 -0.16240181 -0.02827482 0.02029481 0.13357008 -0.062158756 -0.14297853
0.0018241542 -0.13953127 -0.090246476 0.18485004 -0.05050977 -0.025290338 0.025525104 0.10718882
-0.26934615 -0.014464173 -0.1425905 0.014509062 -0.18167421 -0.22406687 0.059847835 0.030907601
-0.09636047 0.0052271504 0.2727268 0.12241736 -0.015943019 0.2288193 -0.16448748 -0.04947935
0.09604102 -0.21690096 -0.098909 0.1401688 0.019364854 0.16287047 0.09381612 0.05629269
0.025901446 -0.12376758 -0.036788628 -0.25199923 -0.21309888 -0.1279562 0.425536 -0.1260584
-0.3456669 -0.1761542 0.6117821 0.28485453 0.26964468 0.4646031 0.4467425 0.30469522
-0.0025424284 -0.20544782 -0.31134567 -0.28873947 0.25814337 0.03949655 0.269542 0.2862732
-0.591599 0.60410255 -0.17132695 0.31594434 0.21992236 -0.29600474 0.27474847 0.2474571
-0.1891318 0.10539693 0.28665945 -0.34833115 0.53860444 -0.081024796 0.066153 -0.11324996
0.12310392 -0.5865164 0.19987348 -0.014660865 -0.03938092 -0.35754514 0.32848978 -0.06878965
0.041117683 -0.076121576 -0.012866904 -0.109380946 -0.079448886 -0.10931526 -0.09874127 -0.32131192
0.03021668 -0.046471447 0.14798088 0.13212322 -0.028460922 0.0764539 0.2975546 0.16362175
0.11810561 -0.10008212 -0.06775343 -0.04815805 -0.16847236 0.09051133 -0.06966277 0.18794979
-0.1520209 0.094001055 -0.15237013 -0.15493016 -0.21559346 0.04769192 -0.0070314375 -0.006505977
0.018791698 0.04835938 -0.039367083 0.033034455 -0.030983893 0.08780395 0.21880513 0.095572
-0.14799255 -0.0892991 -0.02456432 0.34275633 -0.30359122 -0.38570246 0.16430911 0.2926175
0.15644248 0.59791714 0.1046239 -0.040898543 0.05739026 0.028896488 -0.24497941 -0.12241064
-0.021896778 0.21905683 0.09201602 0.18921252 -0.09301251 -0.12665622 0.11783639 0.0047303275
0.38238728 0.19718492 -0.060330134 -0.042960715 -0.1005589 0.3339061 -0.0520407 0.11598166
0.0759065 -0.15331152 -0.023094524 -0.112940684 -0.42640024 0.22704773 -0.11343551 0.16923356
0.24329256 0.1173855 0.15393358 0.102884375 -0.22240035 0.10302038 0.13970582 0.30049914
-0.22526455 0.008790067 0.09417102 0.09256266 -0.102094136 0.025541112 0.059554655 0.4635365
-0.18031864 0.36007315 0.18358834 0.06713263 0.16205175 -0.038336754 0.021580754 0.0074223555
0.12560418 -0.09396234 0.14289294 0.06795063 -0.089093216 0.14192446 0.012015858 -0.13210307
-0.002673517 -0.24276812 -0.0532715 0.088003285 -0.13520758 0.020240558 0.054174397 -0.12474611
0.006634594 0.10333533 -0.4105003 0.012064501 -0.16190286 -0.12985128 -0.2211082 0.01669502
0.018030906 0.25900015 -0.17359616 0.027602805 0.07996585 0.09205636 -0.026478412 -0.17551604
-0.26794922 -0.014761293 -0.0069916877 0.11237273 -0.067229636 0.20556925 -0.19538738 0.10778957
-0.16302435 0.1229725 0.29725423 -0.18965389 -0.02787685 0.004840917 0.05966058 0.12594026
-0.28854185 -0.088426545 -0.063365236 0.1416434 0.09588599 -0.2046977 -0.07630114 0.06029301

lstm.bias_ih_l0 f4 [192]
00000000: e914 1c3e 190f 7dbe 0eb7 e5bd ba58 c03d
00000010: 8030 f1bd 7a2b 90be 0a52 243e f52f c3bd
00000020: 0851 ba3d 2794 43bc a66f 39be d1f2 043c
00000030: e821 0bbd fc9a b33d 564d 713e 417d 203e
00000040: 44c5 0abd 5d34 763e a880 473d 6a00 13be
00000050: 1dcd 9ebd fdac 2dbd 259e 003e e389 3f3d
00000060: 6ef2 903e 2ea2 353c 2159 24be ec87 873e
00000070: ea69 53bd c449 e63d 80c3 6ebe 34a4 8b3c
00000080: 516b 7bbe 4b42 39be f04f a5be ea4d 8dbd
00000090: fc38 cf3d e8fd c0be 8dd4 7abe b693 273e
000000a0: 6fa1 8fbd e5c1 6e3e aa18 dfbd 5eb0 46bc
000000b0: a43c 94be 7596 ce3d 4040 d43d 9bb8 c13d
000000c0: 251b 41be 8124 443e 2548 9cbd 963d 06be
000000d0: 3f26 65bd 0a7d 13be 0b24 2cba 75a1 2fbe
000000e0: 7bcb 28bd 8761 9d3c b8e4 2f3e 0172 663d
000000f0: f2e0 2bbe b00d 663c 0aaa 2a3e d0a6 c1bd
00000100: c6f0 29be 4544 4e3e da80 aa3c cde5 a53e
00000110: ba9b cbbd 4238 61be d1e0 703d 8634 00be
00000120: 9483 dfbc 153b 123e bfc0 e63d f7ab a13d
00000130: 8304 c23e 0dda 12be e8c4 c43d 483b 833d
00000140: b3a5 b7bd 57cc 4d3d 68b2 bcbd a95e e7bd
00000150: 1a24 393e a310 20be c2fc 32be e4e5 213e
00000160: 415a 0f3e 0d23 b83d af06 c8bd 89c4 94be
00000170: e95d 4abe b692 adbd 73fd bebd ab2c f3bd
00000180: 13ee 053d 598b 18bc 325b d2bd f736 98bd
00000190: a3ca 04be 1c9a 02be c2d9 863d 08c2 4abd
000001a0: e8e9 bfbc afb3 0bbe 3b08 59ba 7588 7e3e
000001b0: 360c 353e 03dd 96bc 65df 60bc 4446 423e
000001c0: 7803 22bd 8524 eabd 9a3b d5bd 7a50 29be
000001d0: 27b9 553d 9224 e5bb b5c2 7e3d cf8e d13d
000001e0: 2d5a 20bd be1d 6e3d 37c8 953d e105 083e
000001f0: a4db 693c 08f0 063d f3ec 443e 807d e83d
00000200: 25e3 60bd f2ed ffbc 0e31 ae3d f17c ebbd
00000210: 1abf 2e3e 724f 32bc cf5b bfbd be02 56bc
00000220: 1ca3 84bd d9a0 0dbe ea22 003e b9ed 693d
00000230: 2a0b 143d 686f 1cbe 34be b2bb d52d 543d
00000240: cae4 07bd 47d8 5dbe c6e0 33be d4cf 493e
00000250: abb6 03be 9bcd 55be d6c8 df3d e7c4 073e
00000260: bef4 bf3c cbe5 14be 3ca5 86bb a906 cb3d
00000270: 9f89 f6bd 15e3 0f3d 3de7 bf3e c668 333e
00000280: 5a5b cabd f803 cb3e e8c2 033d c852 b3bc
00000290: 8d51 7dbc 86cf 4bbd 8fba 14bd 4aba 9a3d
000002a0: 7446 3d3e 0778 03be aa9c 903c a20b e33d
000002b0: adcc 773d bd90 063e b396 15be f0e1 15bc
000002c0: ad1f 85be d1dc 88be 7a53 e4bd 6e55 80bb
000002d0: 24dd b43d 3aa9 0dbe b9ca 94be 3fc4 213d
000002e0: cf2a 6bbe d9aa fb3d f051 26bc 8007 57be
000002f0: f3f8 89be b256 bc3c d629 1a3d c273 83bd
0.15242352 -0.2471279 -0.112165555 0.09391923 -0.11776829 -0.2815817 0.1604692 -0.095306315
0.09097487 -0.011937178 -0.18108997 0.008114533 -0.033967882 0.08769795 0.23564658 0.1567278
-0.033879533 0.24043413 0.04870668 -0.14355627 -0.07753966 -0.042401303 0.12560327 0.04676236
0.2830996 0.01108603 -0.16049625 0.26470888 -0.05161468 0.112445384 -0.23316765 0.017046072
-0.24552657 -0.18091695 -0.3228755 -0.068996266 0.10118291 -0.37693715 -0.24495144 0.16364941
-0.07013213 0.23316152 -0.10893376 -0.01212701 -0.28952515 0.10087291 0.10363817 0.09459039
-0.18858011 0.1915455 -0.07630948 -0.1310943 -0.055944677 -0.14403167 -0.000656665 -0.17151435
-0.04120968 0.019211544 0.17177093 0.056261066 -0.16785029 0.014041349 0.16666427 -0.09455645
-0.16595754 0.2014323 0.020813394 0.32401887 -0.09941812 -0.21994117 0.05880815 -0.12520036
-0.027284421 0.1428035 0.11267232 0.07894128 0.37894067 -0.14340992 0.096078694 0.064077914
-0.089671515 0.0502437 -0.09213716 -0.11297352 0.18080178 -0.15631346 -0.17479232 0.15810353
0.13999273 0.089910604 -0.097669 -0.29056194 -0.19762386 -0.084752485 -0.09325685 -0.11873754
0.03269775 -0.009310567 -0.102713004 -0.07432359 -0.12967925 -0.127541 0.06584503 -0.04950145
-0.023426965 -0.13642763 -0.00082791195 0.24856742 0.1768044 -0.018415933 -0.013725136 0.18972117
-0.03955409 -0.11432747 -0.10411759 -0.16534606 0.05217853 -0.006992885 0.062197406 0.10232317
-0.0391485 0.058133833 0.073135786 0.13283493 0.014273558 0.032943755 0.19231014 0.11352062
-0.054904122 -0.03124139 0.0850545 -0.1149844 0.17065087 -0.010883199 -0.09343683 -0.013062177
-0.06476423 -0.1383089 0.12513319 0.057111476 0.03614346 -0.15276873 -0.005454803 0.05180152
-0.033177175 -0.21664535 -0.17566213 0.19708186 -0.12862651 -0.20879214 0.10926978 0.13258706
0.023432132 -0.14540784 -0.004109053 0.0991338 -0.12037968 0.03512867 0.37481108 0.17520437
-0.09880705 0.39651465 0.0321683 -0.02189006 -0.015461338 -0.049758457 -0.03631073 0.07555063
0.18483907 -0.12838756 0.017652828 0.11086203 0.06049793 0.13141151 -0.14608268 -0.009148106
-0.2600073 -0.2673097 -0.111487344 -0.003916434 0.08831242 -0.13834086 -0.29060915 0.039493795
-0.22965549 0.12288446 -0.010151371 -0.20998955 -0.26947746 0.022990558 0.037637554 -0.064185634

lstm.bias_hh_l0 f4 [192]
00000000: 42a4 a33d 4043 3ebe c7d0 9c3d b045 f63c
00000010: 5a8f 92bd e399 87be 37ec 6c3e 7018 12be
00000020: 6365 243e 2330 333d 173b 473d 3ee5 793e
00000030: 08da b73d 7112 143e 61dc 0a3e 959f 893e
00000040: 1e80 8b3c 8cd1 7d3e bcd1 71bd 952b 433d
00000050: f751 7bbd 1d4e 6dbe acd9 41bd 9ca2 023e
00000060: cb28 873e 9d80 a9bb 7eb2 f5bd cf68 973e
00000070: e77b 5a3d 7a49 5f3e fcfd b2bd 5548 a3bd
00000080: bb2b 7bbe 2cb9 39be d4e0 8dbe c8d3 5b3d
00000090: 6291 0d3e 44bd 04be 75d8 09be d945 4a3d
000000a0: e9d6 98be 664b 5f3e 94da e0bd 104c 8cbc
000000b0: 4428 29be 0ccb 7d3e 6330 273d 87dc 02be
000000c0: c395 8dbd 961c 26bd eb0e edbd 040a 7fbd
000000d0: 320f 44be dc1e a2bd 6413 bebc c9c9 afbd
000000e0: 3395 12be 038e 9cbd dabc 4a3e db1b dcbd
000000f0: 9ab8 46be 4855 03bd be94 2b3e cc09 81bd
00000100: 5a6f 89bd de85 153e ad46 14bc 1d4a 893e
00000110: ff2e e4bd 9e4d 33bd db67 3e3c ccea 173e
00000120: d94f 29bd 3bff 243d a950 8f3d 95f7 efbd
00000130: 1ac1 8a3e 4b48 b3bd 1b64 1a3d e99c 8d3c
00000140: 2e61 8e3c 379d 06be cbc9 733d 3676 15be
00000150: bf0b 0f3e d11d 023d 2af6 d23c 6a60 89bd
00000160: ad68 fd3d afb5 283e cf97 773c 53d9 32be
00000170: 5760 f4bc 3fc8 e5bd 6a1b 8f3d 6405 06be
00000180: b937 543d fd3a 833d 8e63 1bbe 8a4e e3bd
00000190: 42a4 aabd 9efa 0c3d 48d2 123e 0a4c b8bd
000001a0: db37 8abe 5202 c2bd be18 283d a455 adbc
000001b0: 1874 373d 8999 043e d5aa fc3c 3079 dc3c
000001c0: 7d03 91bb 5c81 c43d 5830 00be 73ec 943b
000001d0: c775 1c3e 8a9f 2ebd 6d81 533e 9b5a ad3c
000001e0: 8712 08bd ebda 96bd acbc 743b d7ab 503d
000001f0: 5021 693d 0474 35bd fe1e 94bc 6ced 3a3d
00000200: e1e8 7c3d 54e2 b2bd 49d2 0c3d 1e40 00be
00000210: e08f 88bd eeb0 a03c c617 d13d 2ada 1a3d
00000220: 2a87 413c 42e6 01be 3ac6 8c3d c374 90bd
00000230: c046 68bc 3dc0 9ebc 50d5 683e 133a 003d
00000240: 2a33 7b3d 99e4 46be 053d 54bd 1703 a83c
00000250: b6db c7bd 7e4c 25be 85ee 4c3e 338b b4bd
00000260: 99b2 6a3e 7f6b 1fbe 3abe 1bbe e4fb 843e
00000270: 478b a33b 98e6 503c f9ee 993e 7335 053e
00000280: 7544 bc3c 6fec 3a3e dbdb ecbd 9fb2 76bb
00000290: f534 083d d8da 263a 5122 a13d 8635 dabb
000002a0: 7a18 e63d 21da ac3c 545d f53d 11d6 803d
000002b0: 79c5 603e cd64 143e ce0b 44be 98da 303d
000002c0: a2b1 87be 82e5 98bd 9792 6bbe 8653 3e3c
000002d0: 9307 6f3e be89 4fbe f50c 82be a4da 033e
000002e0: 2673 5cbe 5bef 2f3e 8650 92bd 6997 e6bc
000002f0: 3d6f e2bd c887 be3c b1a8 ee3d becc 0f3d
0.07990314 -0.18580341 0.076570086 0.030062526 -0.071562484 -0.26484594 0.23136984 -0.14267135
0.16054301 0.04374708 0.048640337 0.24403855 0.08977133 0.1446016 0.1356063 0.26879564
0.017028864 0.24786967 -0.05903791 0.047648985 -0.061357465 -0.23174329 -0.04732673 0.12757343
0.2639831 -0.0051728026 -0.11996935 0.2957215 0.05334082 0.21805373 -0.0873985 -0.079727806
-0.245284 -0.18137044 -0.27710593 0.053668767 0.1382499 -0.12962824 -0.13461478 0.04938302
-0.29851463 0.21806106 -0.109791905 -0.017126113 -0.16519266 0.24784487 0.04081763 -0.12779437
-0.069133304 -0.040554605 -0.11575111 -0.06226541 -0.19146422 -0.07916042 -0.023202606 -0.08583409
-0.14314727 -0.07644274 0.19798604 -0.107475005 -0.19406357 -0.032063752 0.1675596 -0.06300697
-0.06710692 0.14601848 -0.009050054 0.26814356 -0.11141776 -0.043775193 0.011621441 0.14835662
-0.041335914 0.04028247 0.069978066 -0.117171444 0.2710045 -0.08754023 0.037693124 0.017286735
0.017380323 -0.1314591 0.059518617 -0.14595875 0.13969325 0.031766716 0.025752146 -0.06707843
0.12373481 0.16475557 0.015111878 -0.17465715 -0.029831095 -0.112198345 0.06987651 -0.13087994
0.051810954 0.064077355 -0.15174696 -0.110989645 -0.08332111 0.034418695 0.14338028 -0.08998878
-0.2699574 -0.09473099 0.04103922 -0.021159 0.04478845 0.12949194 0.030843178 0.026913255
-0.0044254647 0.09594986 -0.12518442 0.0045447885 0.15279303 -0.042632617 0.20654841 0.021161368
-0.033220794 -0.07365974 0.0037343903 0.05094513 0.056916535 -0.044300094 -0.018081184 0.04563658
0.061745528 -0.08734575 0.03438023 -0.12524459 -0.06668067 0.019615617 0.102096125 0.037805714
0.011812011 -0.12685493 0.06873746 -0.070535205 -0.014177024 -0.019378776 0.22737622 0.031305384
0.06132809 -0.1942314 -0.051816005 0.020509286 -0.097587034 -0.1614246 0.20012863 -0.08815613
0.22919692 -0.1556835 -0.15209284 0.25973427 0.0049909684 0.01275029 0.30065134 0.1300867
0.022981862 0.18254255 -0.115653716 -0.0037643088 0.03325363 0.0006365008 0.078678735 -0.0066592125
0.11235137 0.021100106 0.119806916 0.0629083 0.2195033 0.14491577 -0.19145128 0.043177217
-0.2650271 -0.0746565 -0.23005138 0.011616593 0.23342733 -0.20267388 -0.2540051 0.12876374
-0.215283 0.1718115 -0.07144265 -0.02814837 -0.11056373 0.023258105 0.11653269 0.035107367

lstm.weight_ih_l1 f4 [192, 48]
00000000: d00c 203d 4328 b93e 3189 5a3e 8dcd b6bd
00000010: 91a0 783d ba5c 4e3d 1e77 37be fae9 99be
00000020: 2f3d e0bd 78d1 003e 5344 f6bd 0624 a83d
00000030: fc71 c3be d74c 843d 9bcc 913d 1301 03bc
00000040: e841 c73e d9ab 713d 7f70 0e3e 7347 883e
00000050: 611e d53b 7d99 973e ec2b 0a3e c847 bdbd
00000060: 98db 73bd 02ca 8ebd 6fb7 6cbc 4584 9ebd
00000070: b871 d4bd a6c7 423d dd21 123d 664b 92bd
00000080: 5105 c93e b0a8 803e c84a 4e3e 1a78 b83e
00000090: afcd ecbb 550d ae3e baed bb3d e5a5 a83e
000000a0: c82a 72be f9de 5ebd c490 9cbd 8982 9c3e
000000b0: 807d 1dbe e927 d23d 0e66 f23d 3100 a63e
000000c0: e175 fabd c513 183e 1627 ac3e 74ee 4b3e
000000d0: 8f3b 873e b111 5c3d ca6d a8be b608 ed3d
000000e0: 0adb 453e 51ea 04bd 4fad 433c 0c3b e5bd
000000f0: 2c9f 92be 87d6 e2bd e5f8 28be 7e8a 98be
00000100: ebf1 8cbc 16d3 6dbe 948f b53d 5e7e 243d
00000110: bb83 76be c4a6 9a3d 6e93 a5be 645f 8dbe
00000120: bde3 8fbd 3903 6bbe d259 a6be a4bd 2ebd
00000130: 5913 f63c 66da 023d e80d 6abd f4d2 30be
00000140: 5977 ad3d 4919 a23d d0f3 7bbe eda3 af3e
00000150: 02cf 14be a04b d3bc 3aa6 30bc e6f2 4ebe
00000160: 9f12 bc3c 94a6 9d3e 770f 37be 2545 c93d
00000170: 69e0 a6bd b63f a23e f3e3 bfbe dbef 15bd
00000180: 1c5e 4cbe 7dee a63e dadb ab3d 554a e73c
00000190: 4ce8 903a 6a56 023e 719b 413e c86a 463e
000001a0: 6f56 083e a86f 7ebe 00a0 c4bc d61c 9abd
000001b0: b8dd 9a3d 1109 84bd 2116 1cbe 5f7a b9bd
000001c0: 9cad aabd e4c0 6cbd ca19 e4bd 38d2 a63c
000001d0: 6631 2a3c 13f3 be3d 3a93 4f3d b180 d5bd
000001e0: af93 cebd 5e71 9cbd 5783 92be 1efc 623b
000001f0: bf57 da3c 9bcd 4dbe 552d 3bbe d142 773d
00000200: bce9 1a3d cc35 9c3e e2e1 313c 3dc1 653d
00000210: 4d78 f13d 4f54 123e 263a 1ebb 3227 01be
00000220: d11a 63be 98d0 5dbe 09e5 01be b413 aa3d
00000230: 4c85 4dbb 5d13 303e 031c 24be f783 63bc
00000240: a8c2 0dbe eb72 d53d d79d 633d 58be 0cbe
00000250: a655 9dbd 8182 cd3d bd76 273d 6e61 71be
00000260: 0bfd 89bb d1bf 30bd 153f 4d3d d12b c8bd
00000270: b5a4 05bc 9d23 58bd ff25 393d b23d a4bd
00000280: f6a4 023e 7227 42be aee6 5dbe f558 0b3e
00000290: 7713 39bb 9017 683e b168 d43d 3568 083d
000002a0: 4975 b4bd b706 0dbe 04a5 eabd c7a1 debc
000002b0: a132 f5bc 826b e43c 68c8 f93d 6140 d3bd
000002c0: 8f8f 0e3e 4d60 1f3e 5345 7e3c d05b fd3b
000002d0: fff5 ab3d 392c 2a3d a924 afbd 2124 2cbe
000002e0: 4bea a0bd 252f 6ebd 630f ac3d 67b2 9d3d
000002f0: 8bc9 54be 84c3 943d bfc4 0ebe b09a 333e
00000300: 199b 7fbd dfb3 3e3e 3052 0c3d 1f1b 203d
00000310: c587 ac3e dc1b d33d ad2d 5ebd 75ab a23d
00000320: 2d75 973d 8855 08be 2c84 e33d 78bd dabd
00000330: a64e 86be 1f7d 483c 8f48 52be 9c27 18be
00000340: ea93 063e 7f80 04be 7134 09be 4e76 57bc
00000350: 3578 d43d 004d a0bd 078e 53be 39da 02be
00000360: 023c 5abe 3ea8 5ebd d94c 29be 509c 873c
00000370: 7c01 333e 3f3c 983d fe76 90be 1ab7 54bd
00000380: 86d7 80bc 9964 063e 2722 dcbc d1d9 de3d
00000390: 3897 48bd fdc0 393d a423 0fbe a40f 05bd
000003a0: d7e2 34be 027c 4d3c aa9a e4bd cd13 df3d
000003b0: 6a1f be3d 563d 4c3d fb94 86be e75f 9a3d
000003c0: 08a1 ffbd 1052 5fbd 1f86 a33d 5086 143e
000003d0: 8b09 fbbc 09c5 293c 8906 5a3e fb26 2b3e
000003e0: d7bc 603d 3eb1 273d 495d e6bc 1925 fbbd
000003f0: b959 45be 9f1d f63c 85af a6be eebb 5cbe
0.03907472 0.3616353 0.21341397 -0.089259245 0.060700003 0.0503814 -0.17916533 -0.30061322
-0.1094917 0.12579906 -0.120247506 0.08209996 -0.381729 0.064599685 0.071191035 -0.007995862
0.3891747 0.059001777 0.13910101 0.2661701 0.0065038656 0.2960929 0.13493317 -0.09242207
-0.059535593 -0.06972124 -0.014448031 -0.07740072 -0.10373253 0.04755368 0.035676826 -0.07143287
0.3926187 0.25128698 0.20145714 0.3602913 -0.007226668 0.33994547 0.09176202 0.32939067
-0.23649132 -0.054411862 -0.07644799 0.3056834 -0.15379906 0.102615185 0.11835872 0.3242202
-0.12229515 0.14851291 0.3362357 0.19915181 0.26412627 0.05372781 -0.32896262 0.11573927
0.19321838 -0.032450024 0.011943175 -0.11192903 -0.28637064 -0.11076074 -0.16501196 -0.2979316
-0.0172052 -0.23225054 0.08865276 0.040159576 -0.24073689 0.07551339 -0.32339042 -0.2761184
-0.070258595 -0.22950448 -0.32490402 -0.042661324 0.030038523 0.031946562 -0.05714217 -0.17267972
0.084700294 0.07914979 -0.24604726 0.34304753 -0.14532092 -0.025792897 -0.010781819 -0.20209846
0.022958098 0.30791152 -0.17876993 0.098276414 -0.081482716 0.31689233 -0.374786 -0.036605697
-0.19957775 0.32603827 0.08391543 0.028233686 0.0011055558 0.12728277 0.18906952 0.19376671
0.13314222 -0.24847281 -0.024002075 -0.07525031 0.07561821 -0.06447042 -0.15242817 -0.090565436
-0.083338946 -0.057801142 -0.111377314 0.020363912 0.010387754 0.093237065 0.050677516 -0.104249366
-0.10086762 -0.076388106 -0.2861583 0.0034635137 0.026653169 -0.20097964 -0.18279012 0.060366455
0.037820563 0.30509794 0.010857077 0.05609249 0.11790524 0.14289974 -0.0024143546 -0.12612608
-0.22178198 -0.21661603 -0.12685026 0.08304539 -0.0031359969 0.17194887 -0.1602631 -0.013886443
-0.13843787 0.104223095 0.05557045 -0.13744485 -0.07682352 0.10034657 0.040884722 -0.23572323
-0.0042110733 -0.04315168 0.050108988 -0.09773982 -0.008156945 -0.05276834 0.04520225 -0.0801958
0.1275824 -0.1896036 -0.21670029 0.13608153 -0.0028240362 0.22665238 0.10371531 0.033302505
-0.08811433 -0.13772093 -0.114572555 -0.02717675 -0.029931368 0.027883295 0.121964276 -0.10315014
0.13921951 0.1556408 0.015519458 0.007731892 0.083965294 0.04154608 -0.08551914 -0.16810657
-0.07857188 -0.05815043 0.08401372 0.07700043 -0.20780008 0.07263854 -0.1394224 0.17539477
-0.062403772 0.18623303 0.034258068 0.039088365 0.33697334 0.10308048 -0.05424278 0.07942859
0.073953964 -0.13313878 0.11109194 -0.106806695 -0.2623188 0.012236862 -0.20535491 -0.1485886
0.13142362 -0.12939642 -0.13398911 -0.013150765 0.1037449 -0.078271866 -0.20659648 -0.12778558
-0.21311954 -0.054359667 -0.16533221 0.016554028 0.17481035 0.07433366 -0.28215784 -0.05193243
-0.01572777 0.13124312 -0.026871754 0.10881389 -0.04897234 0.045350064 -0.1397844 -0.03248562
-0.17664658 0.012541773 -0.11162312 0.108924486 0.092833355 0.049863182 -0.26285538 0.07537823
-0.12481886 -0.05452162 0.07984566 0.14504361 -0.030644199 0.010361918 0.21291555 0.16714089
0.05486759 0.040940516 -0.028120654 -0.12262935 -0.19272508 0.030043421 -0.32555786 -0.21556064

lstm.weight_hh_l1 f4 [192, 48]
00000000: 805e 323d 5107 cabd 48f5 09bd da3e b8be
00000010: 2b33 3cbe 2e95 d93d 1406 36bd 9177 8fbc
00000020: 1f79 373d 4263 81be bebe bbbd 47c3 ff3d
00000030: 62dc 3d3e f8e2 09bd 749a bcbe e609 273d
00000040: 92e9 8fbd 906f 8a3d 2079 033e 5527 01be
00000050: 690d 073e 48f0 483d 392b 17bd ef26 d8bd
00000060: 6ec1 10be 360a f4bd 525c 0bbe 16f3 cb3b
00000070: 76ff db3d 828d 2e3b 6b48 173e e15c c3bc
00000080: f039 f43c 85a7 72be c888 823d ecf6 ad3d
00000090: 9387 493e ed62 ff3d 5ee9 5f3e 949b 173e
000000a0: c46b 233d 436e 4dbd f3e3 043a adbb 9c3d
000000b0: 5ecb bfbd 5e48 61be e7b5 243e 3c6e 1f3d
000000c0: 4bd9 7b3d a0f7 12be ba95 eabd 06db b9bd
000000d0: 1e9d cf3c 1abe 333e 9a14 05be db4d 5cbc
000000e0: f518 ad3d 44ff 443e cf8b 263d fd9b ed3c
000000f0: 84a3 b73d d9a3 8dbd 9acb 84bd b759 99bd
00000100: 998b 0ebe 9885 823d bd19 123e 2c6c 133e
00000110: 6ff6 ab3d 936c c7bd 77da ac3d c291 ca3d
00000120: 9134 573d efae a63d 5932 86bd 7d72 aa3c
00000130: 5bae 043e 2f54 19be dff5 bc3c 53af ddbc
00000140: 62db 323e 8fa3 94bd 5cb9 a4bd c1f8 b0bd
00000150: c1d1 73bd 0a78 c23d 2c1a 2c3e aecc d2bd
00000160: 92dc 043e d88d b3bd 47e4 6d3e d9ec 92bd
00000170: aecb e63d 501d 97bd 26c0 85bd cfe4 0fbe
00000180: f73b b5bd 759e 4dbd 7ff9 54be bcbf 33bd
00000190: 7333 fabd b73e 24be b9c2 b93c 3c45 97bd
000001a0: b85a 763d a9e2 23bd d337 8b3c 8796 abbc
000001b0: c817 a0bb 721b ba3d 6ff0 d33c 3499 b4bd
000001c0: d732 27be 3b3c dabd c6f8 1c3c 3f49 733e
000001d0: 0621 3ebd 6dc6 8bbc 59a0 90bd 4dce 09bd
000001e0: e0c2 633c 6e32 0bbe 1b98 9ebd 9dbb 153d
000001f0: 9668 5f3e 2221 f8bc 1fe3 483e 9db0 50bc
00000200: c46e ba3d 59c5 643d c0e0 363d 7664 d6bd
00000210: dbd0 1a3e bc7d d8bd 07fe 993d 6d11 9bbc
00000220: 22ab 10bd 2f70 73bd 153e 703e 0efa 3dbe
00000230: a0e1 393e ddbf edbd 8c50 40bd d744 01be
00000240: 125b 623d 2ed5 0a3d 74cb 1e3d 1796 96be
00000250: aeb7 cfbd e573 103e b0da a63d 2f47 43bd
00000260: 4c6b 8fbc 7dd9 42be 95b6 2abe faa3 c13d
00000270: bdeb 033e 6187 b1bd 6613 52be 49c9 b33d
00000280: 3f13 48be 1aae 2b3e a606 c93d 6c23 25be
00000290: 5d6d 243d b328 8ebd 1e0a 703d 30c3 9d3d
000002a0: 2aa5 66be 98c6 09bb 5782 ebbd efa6 c4bc
000002b0: a0b7 29bd 05b5 023e 95cb 6b3d 04be 003e
000002c0: a896 e53d d979 fe3d 8cc7 b9ba b7a8 30bc
000002d0: dce6 16be 2006 0f3e 1a22 cabd 351d f3bd
000002e0: c92a 943c f817 5a3d b8d1 bbbd d7ee c23d
000002f0: 687c a03d 0686 13be 358d 113d 4888 f7bc
00000300: 58b3 78be f63d 1fbe 63a9 03bc 7cb5 263d
00000310: 5e2c 20be c14b 313e 13ac 76be e572 03be
00000320: 09bc b53d 943d a13e 5ffe cd3d 3171 513d
00000330: dce0 2ebd 899a 283e c9f8 5b3d 2339 10be
00000340: 0872 8d3b 3136 87be d9f6 343d e44f 77bd
00000350: b57b 2f3c f5d3 523d df39 2bbd d891 db3d
00000360: e384 4b3d e6f3 a73d 2573 a3bd 730d f7bd
00000370: 4540 0a3e 80cf a5bc 29ac ca3c 0f3e 8f3d
00000380: df39 3c3e 6a39 77bd 0fe1 f43d 6a52 a03c
00000390: 5c08 b93d e97d 00be 7545 6f3c 4021 94bd
000003a0: a336 e4bd 7153 cebe 7b52 9a3d 4ce5 253d
000003b0: 8400 80bd f24f 3fbd baff e23c e68b 583c
000003c0: 562a 7dbd 6556 3ebe 3623 84be aba3 9dbd
000003d0: 9f99 0c3d ec63 233d 8924 21be 93fa 983c
000003e0: cdd3 af3d dfa5 2fbd 37fe 8d3d a894 26bb
000003f0: 0bd6 0b3d 701e 163e f3d3 46bd c857 afbd
0.043547153 -0.09864677 -0.033681184 -0.35985452 -0.18378894 0.10624157 -0.04443939 -0.017513068
0.044793244 -0.2527104 -0.091672406 0.12488418 0.185411 -0.03366372 -0.36836588 0.040780924
-0.07026972 0.0675956 0.12839174 -0.1261266 0.1318871 0.049057275 -0.036906455 -0.10554301
-0.14136288 -0.1191601 -0.13609436 0.0062240465 0.10742085 0.0026634638 0.14773719 -0.023847999
0.029812783 -0.23696716 0.06373745 0.08494362 0.19680624 0.124700405 0.21866366 0.14805442
0.039897695 -0.050153982 0.00050693675 0.07652984 -0.09364961 -0.22000262 0.16085015 0.038923487
0.061486524 -0.14352274 -0.11454339 -0.090749785 0.025343474 0.17552987 -0.1299614 -0.013446297
0.08452026 0.19238001 0.040660676 0.029005045 0.08966735 -0.06916017 -0.064841464 -0.07487815
-0.1392044 0.06373137 0.14267631 0.14396733 0.08396613 -0.09737506 0.08440106 0.09891082
0.052540366 0.08138835 -0.06552572 0.020806545 0.12957136 -0.1497352 0.02306646 -0.02706114
0.174665 -0.07257759 -0.08043167 -0.08641196 -0.05952621 0.09495552 0.16806859 -0.10292946
0.12974766 -0.08767289 0.23231612 -0.07174081 0.112693176 -0.07378638 -0.0653079 -0.14052127
-0.08849328 -0.050199945 -0.207983 -0.043884024 -0.122168444 -0.16039549 0.022675859 -0.07386252
0.06014511 -0.04001108 0.016994392 -0.0209458 -0.0048856474 0.09087266 0.025871484 -0.08818284
-0.16327988 -0.10656019 0.009580797 0.2375841 -0.046418212 -0.01706239 -0.07061834 -0.03364401
0.013901442 -0.13593456 -0.077438556 0.036555875 0.2181724 -0.030289236 0.1961789 -0.01273742
0.09103158 0.055852268 0.044647932 -0.1046838 0.15118735 -0.10570857 0.07519155 -0.018929208
-0.035319455 -0.05943316 0.23461182 -0.1855242 0.18152475 -0.11608861 -0.046951815 -0.12623917
0.055262633 0.03389471 0.038768247 -0.29411384 -0.10142456 0.1410671 0.0814718 -0.047675308
-0.017507218 -0.19028278 -0.16671212 0.09455104 0.12882896 -0.086683996 -0.20515212 0.087786265
-0.19538592 0.16765633 0.09815721 -0.16126794 0.04014336 -0.069413565 0.0586034 0.07703245
-0.22523943 -0.0021022912 -0.1149947 -0.024005381 -0.041434884 0.12764366 0.057567198 0.12572485
0.11210376 0.12425584 -0.001417385 -0.010782412 -0.14736503 0.1396718 -0.098697856 -0.11870805
0.018086808 0.053245515 -0.0917086 0.09518211 0.078362286 -0.14406595 0.035535056 -0.030216351
-0.24287164 -0.1555098 -0.00803599 0.04070042 -0.15641925 0.17314054 -0.24089079 -0.12836798
0.088737555 0.31492293 0.10058283 0.05113334 -0.04269491 0.164652 0.053704057 -0.14084296
0.004316572 -0.26408532 0.044180725 -0.060378924 0.010710646 0.05147167 -0.041803237 0.10721177
0.049687278 0.08200817 -0.079809465 -0.12063112 0.1350108 -0.020240545 0.024740295 0.069942586
0.18381451 -0.06035749 0.11956989 0.019570548 0.090347975 -0.12548031 0.014603962 -0.072329044
-0.111432336 -0.40298036 0.07535263 0.040501878 -0.06250098 -0.0467071 0.02770983 0.013216948
-0.061807953 -0.18587644 -0.25808114 -0.07697233 0.034326192 0.039890215 -0.15736593 0.01867417
0.0858532 -0.042882796 0.06933253 -0.0025418196 0.034139674 0.14660048 -0.048541974 -0.08561665

lstm.bias_ih_l1 f4 [192]
00000000: d656 b9bd 79c2 dcbb 89bf 1f3e de0a ad3c
00000010: 99e6 963d 0d40 62bd e962 db3d 5b11 073e
00000020: c182 6ebc f336 07be 32d2 1a3d dac1 2abe
00000030: 6921 343e 598b 293e ae27 213e 1963 b83d
00000040: 5944 543d aeff 16be 1470 f73d 628a 08bd
00000050: 43cd d23c 4e0c da3d 005c 4e3e 138d 693e
00000060: 125e 273e be68 91bd 51f4 493e 04ba f73d
00000070: 1bb1 60bd 9404 033e b363 ca3e 5ca5 2b3e
00000080: 9c61 9dbd b790 423e 0700 f83d d4ac 4a3e
00000090: 13b1 033d 2431 7abe 4eeb c73d 67a8 58be
000000a0: 2b3c 5e3e 7481 95bd 1b11 b7bd ef3a 823e
000000b0: f783 17bd 06f1 db3d 1c48 9a3c 2bf1 e3bc
000000c0: c738 f7bc b9cd 43be 0363 91bd c72a 79be
000000d0: 2274 01be c1b1 993d a70a c7bd 739a f63c
000000e0: b349 bd3c 1039 9ebd 386a c03c 1544 5a3b
000000f0: 9780 f5bc 1ad9 57be 28b8 2cbe 24d3 f03c
00000100: 1b34 4cbd 7e02 62be 1f21 2ebe 55b5 a4bd
00000110: 65a3 b63d fe80 fdbd 6f6f 2cbe 90b1 03bd
00000120: 5393 b5bd 0bd7 2cbd 0bf6 ebbd 9cf8 7e3c
00000130: 771d 28be 98df 5ebe d3ff a0bd 290b 013e
00000140: 0707 1abe c171 22be 4ceb cabc 90e3 66bc
00000150: 2a10 2d3d aa64 a2bc 7ce0 06be 4915 53bd
00000160: 9d7e 0fbe 5fbd a73d 7775 823d 381d cabd
00000170: 6f4d f13d a8f2 e4bd 2f42 3bbe 5fc3 23be
00000180: a49b f03d 00c1 563d 8e70 993d 3ddf eb3c
00000190: af63 81bd 9e55 ba3d 7709 963c 622f 923c
000001a0: 34cb f2bd 3ce3 e83d 0df9 52be 98b5 78bd
000001b0: 0461 fd3d a34f aa3d 0a8e 4fbc b2e8 8c3d
000001c0: 0d49 5e3d 09f8 13be 8359 0bbd 9d0e 18be
000001d0: b679 d33d 940e d3bc db96 cf3d 61cc 893e
000001e0: 58cb 3d3d 3ed0 96bd b13f b73d 06fc 1bbe
000001f0: 156f 593d 2466 9ebc e3da 89bd a0ab 0fbe
00000200: a4ed 0bbe 2a6d 88bd 82d2 cabd e764 903d
00000210: 88a6 31be 8412 6abd 12cc 5ebd ec8b d5bd
00000220: d93a 043c d9dd a4bd 5e05 013d a3f3 833c
00000230: ba63 aebd 6eeb bc3d fb21 49bd 833b 88bd
00000240: 08c0 013e 75ce 7fbd ac7a 4b3d c6bd 943d
00000250: 0268 de3d ccd4 de3d b9a6 21bd fdd3 2f3d
00000260: 6b82 a83c 5daa 7bbd 0761 e73d a316 243d
00000270: 5cda 623e 6e43 203c 55eb 30bd 0a51 8a3d
00000280: 16a2 d1bd f5ab dd3d 7444 a43d 9fc5 cabd
00000290: c74d bf3a 58cf 213d 3acb 2a3e bb72 943d
000002a0: e624 873e 22b3 263e eba4 3e3c 197c 6dbc
000002b0: b221 eab9 c96d e6bd 619a 883e 9d5a 073e
000002c0: b058 273c 1c36 013e db22 bebd e04c 2d3e
000002d0: 92ba df3d 998b 2abe 5ced db3d bd9d 0cbe
000002e0: 26df 62bc 3576 20be a53a f33d f461 4b3e
000002f0: 465b cdbd 8a3c 663d 4b1c 4cbd 65c0 403c
-0.09049766 -0.00673705 0.15600409 0.021123346 0.07368202 -0.055236865 0.10712225 0.13190214
-0.014557541 -0.13204555 0.037798114 -0.16675511 0.1759087 0.16557063 0.15737793 0.090032764
0.051822994 -0.14745972 0.12081924 -0.033335097 0.025732642 0.10646878 0.20152283 0.22807722
0.16344479 -0.07100056 0.19722106 0.120960265 -0.0548564 0.12794715 0.3952919 0.16762298
-0.07684633 0.19000517 0.1210938 0.19792491 0.032151293 -0.24432808 0.09761678 -0.2115799
0.2170264 -0.07300082 -0.089388095 0.25435588 -0.036991086 0.10739331 0.018833213 -0.027824959
-0.03017844 -0.19121446 -0.07098963 -0.24332725 -0.12641957 0.07504607 -0.09718829 0.030102944
0.023106432 -0.077257276 0.023488149 0.003330474 -0.029968543 -0.21078911 -0.16867125 0.029397555
-0.04985438 -0.22071263 -0.17004822 -0.08042399 0.08917884 -0.12378119 -0.16839384 -0.03215176
-0.088659905 -0.04219727 -0.11521538 0.015562203 -0.1641749 -0.21764982 -0.078612946 0.12601914
-0.15041743 -0.15863706 -0.024770401 -0.014092341 0.042251743 -0.019823391 -0.13171571 -0.05153397
-0.14013143 0.081904165 0.06370061 -0.09868854 0.117823474 -0.111790955 -0.18286966 -0.15992497
0.11748436 0.052430153 0.07492171 0.028792972 -0.06317841 0.090983614 0.01831506 0.01784486
-0.11855164 0.113714665 -0.20602818 -0.060720056 0.1237202 0.08315971 -0.012668142 0.068803206
0.054268885 -0.14450087 -0.034020912 -0.14849325 0.10325949 -0.025763787 0.10136195 0.2691374
0.0463365 -0.07363938 0.08947695 -0.15232858 0.05308445 -0.019335814 -0.067312025 -0.14030313
-0.13664871 -0.066614464 -0.099034324 0.070504956 -0.17348683 -0.057146564 -0.054393835 -0.104270786
0.008070671 -0.080501266 0.03149926 0.016107386 -0.08515115 0.09224592 -0.049104672 -0.06651976
0.1267091 -0.062452752 0.049677536 0.07262759 0.10859682 0.108804315 -0.03946564 0.042926777
0.02057 -0.061441768 0.11297803 0.04006065 0.2215361 0.0097817015 -0.04319318 0.06753738
-0.102359936 0.10823814 0.08020869 -0.099009745 0.0014595323 0.03950438 0.16679087 0.072484456
0.2639534 0.16279271 0.011635999 -0.014494919 -0.00044657063 -0.112514086 0.26680282 0.1321816
0.010214016 0.12618297 -0.09283992 0.16923857 0.10924257 -0.16654815 0.10738632 -0.13732047
-0.013847148 -0.15670092 0.1187642 0.19861585 -0.10027175 0.05621008 -0.04983167 0.01176462

lstm.bias_hh_l1 f4 [192]
00000000: ae41 cf3d 2aec 47bd f0ba 863d e7ea 8e3e
00000010: fc04 4fbd 0a79 a5bc 1e10 313e 489e 1d3e
00000020: 0917 f3bd d0cc 5ebc 55c1 003e 060b f33c
00000030: 3d6e 693e 7b83 88bd 37c0 383e b784 373e
00000040: b1b2 5a3c da97 f9bd 8711 9b3e 6957 0abe
00000050: 34f6 cd3d e8ba 743d 781c 243e 2d9d 173d
00000060: d849 953e 1747 7bbb 2b83 b33b 239b 363e
00000070: f978 debd 4a00 cebd dac7 a43e 5dea b63d
00000080: af4a 29bd b604 80bd 20a4 233e 812f f7bc
00000090: 05f5 143d b3aa 91be beb3 463e 832d 80be
000000a0: 8eef 153d 337f 363d 0bf1 d43b 8d58 e03d
000000b0: 8b44 b0bd 8562 babc 3726 cf3d adb3 d4bd
000000c0: 78e8 55be 3e67 c9bd 3b7f 71bd ad3e edb9
000000d0: 0e2d d03d d6bc 2a3d d63b 673d 9081 17be
000000e0: 06dc e7bc 95c6 c6bd 109c b8bd a26d 0fbe
000000f0: fb6a 78bb bff4 37bd 754a 0ebe bb11 d5bd
00000100: 31f1 bdbd 5609 eebd 7684 09be 6f3c 9dbd
00000110: ba3d 44bd c957 8ebe 1b9f 05be db84 923d
00000120: 3c83 fc39 e87e 19be eba5 e03d 554b 063d
00000130: dffd 213d 95c4 6bbe 4d46 b8bd 1def ef3d
00000140: ef40 90bd 8776 e3ba 7113 c23d ac7c c8bd
00000150: eb42 8f3a 2fd1 51bd 9510 52be 2145 53be
00000160: 6cb3 103d 22f2 f8bd d8b1 cbbd 0c66 22be
00000170: 7530 763d f867 ddbd 8ee2 eabd 6c37 8b3c
00000180: 3a29 82bd cfe4 ec3d 9f20 6e3b 51e6 e8bd
00000190: 98a4 dc3d 8445 da3d e695 a4bd deef 453e
000001a0: c20f 1ebe 5b6e 5dbd dac6 66be 65a1 e2bd
000001b0: 6868 b7bd 1fcc 8a3d 4215 fb3d c929 343e
000001c0: 712d 9b3d c2cc d43d 6bd1 adbd 52a1 443b
000001d0: 2776 ed3d 9a2b 643d de09 9cbd 8373 953e
000001e0: df07 b93c 926b 023e 6147 ae3d 6045 13be
000001f0: a6dc 3a3d 1897 253a a77f 4abd d9ee 54be
00000200: 12bc 93bd 4da0 f73c 77be 5dbe fc78 733a
00000210: a243 00be 635a aabd 808c 043d 569b b2bc
00000220: 6752 523d ca52 e2bd c6fd c3bc 03ef 72bd
00000230: 7cb4 863c e75f 9ebc 27ac 36bd 118b ecbd
00000240: 78db e7bd 6892 42bc e4e8 183e 9480 563e
00000250: b9b0 253e 9aeb 8e3d 026e 4fbd 17a9 cd3d
00000260: 9286 19be be12 923d b8c0 763d a2a5 64bc
00000270: 399d a23d c2ce 3abd 60f9 c53d bc7b abbd
00000280: bfc2 043d cf10 f9bd afe3 6d3e 512e 65bd
00000290: da99 1d3e 45c7 c03d c3f1 70bc decc 203e
000002a0: 026e 563e 9bf3 a03d 10e6 4f3e 1f78 f0bd
000002b0: 2763 0e3e ace4 f4bb f390 a63e fe05 b0bd
000002c0: e3f1 6bbb f2dd 2c3e 427b f83d 9b67 c5bd
000002d0: 0028 913d 0d9e a3be e491 4a3d 6056 adbe
000002e0: a54d dc3d 0621 39be ea1e aabd 715e 853d
000002f0: 1bb0 68be 1bd1 dd3d a881 143d c113 02be
0.10119949 -0.048809208 0.06578624 0.2791359 -0.050541863 -0.020199317 0.17291304 0.15392411
-0.11869628 -0.013598636 0.1257375 0.029668342 0.22795959 -0.06665703 0.18042074 0.1792172
0.013348267 -0.121871665 0.3028681 -0.13509907 0.10056725 0.05974856 0.16026485 0.03701513
0.291579 -0.0038341933 0.005478283 0.17832617 -0.108629175 -0.10058649 0.32183725 0.0893142
-0.04133099 -0.062508985 0.15980577 -0.030174019 0.03636648 -0.28450546 0.19404504 -0.25034723
0.03660541 0.0445549 0.006498461 0.1095439 -0.086068235 -0.022752056 0.10114711 -0.10385833
-0.20889461 -0.09834145 -0.058959227 -0.0004525086 0.101648435 0.041683994 0.05645355 -0.14795518
-0.028303158 -0.09705845 -0.090141416 -0.14006665 -0.0037905562 -0.044911142 -0.1389559 -0.104037724
-0.09274519 -0.116228744 -0.13429436 -0.076775424 -0.04791043 -0.2780135 -0.13048975 0.071542464
0.00048162963 -0.14989817 0.10969146 0.032786686 0.03954875 -0.23024209 -0.08997784 0.11715529
-0.07043635 -0.001735405 0.094763644 -0.09789404 0.0010929977 -0.051224884 -0.20514138 -0.2063184
0.03532736 -0.12155558 -0.099460304 -0.1585924 0.060104806 -0.10810846 -0.11468993 0.0169942
-0.063555196 0.11567079 0.0036335362 -0.11372054 0.10773581 0.1065779 -0.08036403 0.19329783
-0.15435699 -0.05406032 -0.22536793 -0.1106594 -0.08955461 0.06777214 0.12259914 0.17594065
0.07577027 0.10390617 -0.08487209 0.003000338 0.115948014 0.055705644 -0.076190695 0.2918969
0.022586761 0.12736347 0.08509708 -0.14381933 0.045620583 0.0006316765 -0.049438145 -0.20794238
-0.07213606 0.030227805 -0.21654688 0.00092877424 -0.125258 -0.08318021 0.032360554 -0.021802586
0.051348116 -0.11050947 -0.02392472 -0.05930997 0.016443484 -0.01933284 -0.04459777 -0.11549962
-0.11321157 -0.011875726 0.1493259 0.20947486 0.16180696 0.06978531 -0.05064202 0.10042017
-0.14992741 0.07132481 0.060242385 -0.013955506 0.07940144 -0.045607336 0.09666705 -0.0837321
0.032412287 -0.12161409 0.23231386 -0.055952374 0.15390721 0.09413008 -0.014706078 0.1570315
0.20940402 0.07858964 0.20302606 -0.11741661 0.13905011 -0.007473549 0.32532462 -0.08594893
-0.003600233 0.1688154 0.121328846 -0.09638902 0.070877075 -0.3195652 0.04945554 -0.3385496
0.10756997 -0.18079004 -0.08306678 0.06512154 -0.22723429 0.10830899 0.036256462 -0.12702848

linear.weight f4 [2, 48]
00000000: b297 593e e643 173e a60b 833d 57f4 9abe
00000010: 7794 e03d b881 41bd 287c ae3d 3dd3 0f3e
00000020: 6b3c 083d 4ea0 af3d 1f9d a2bd f055 e4bb
00000030: c7dc 833e fc6a 0b3e 62fd 073e 38ec 2e3e
00000040: 48a2 043e e6b1 093e 6a63 81be 2c3d 903c
00000050: f27c 833e bca1 363e ec93 95be a9ff 613e
00000060: 7007 82be 7692 13be 81d8 7f3e 3948 74be
00000070: 5520 2cbe e8ca 07be dc27 8abe 1e04 1e3c
00000080: 6181 a3bd a44f cc3d d2b9 9bbd c8ff 103e
00000090: fef8 cfbd 5ddf d9bb 135a 493c 0eeb a53d
000000a0: 01b0 b53e 83dd 1d3e e67d 46be 9741 8d3e
000000b0: 6f14 2bbd 29f0 71be 8dac 37be fb8d e53d
000000c0: 279c f9bc 2844 e73d 63fe 3b3e 785c 233e
000000d0: 57d6 023e d8de 543e 5b6e 473e 05bf 063e
000000e0: 7af9 65be d7be 003e 0e81 77be 1a16 23be
000000f0: 8541 2abd 7e46 163e 32e6 2b3e b2ed dd3d
00000100: 2585 b93d 018b 34bd c5b3 ee3b ccff 20be
00000110: 1695 b9bc 1d50 56be 6d08 6f3e 53ff 0e3e
00000120: b19f f63c 9bd2 5e3e f082 ff3d c04c 88bd
00000130: 688c b5bd a4d6 453e 33fa 9d3d a90c 86be
00000140: 1051 13be 647f 163e f035 69be f04a 723e
00000150: b765 5dbe 4347 60ba 7ee5 62be bb06 e93c
00000160: 1ed0 f1bd fd91 a43d f224 d4bd f67a f7bc
00000170: 3a92 063e 29a2 6d3d 4e0f 06be e040 5fbe
0.21249273 0.14771995 0.06398706 -0.30264542 0.109658174 -0.04724285 0.08519775 0.14045425
0.033260744 0.085754976 -0.07940125 -0.0069682524 0.25754377 0.1361503 0.13280252 0.17082298
0.1295253 0.13446769 -0.2527116 0.017607294 0.25681263 0.17835134 -0.29214418 0.22070183
-0.253963 -0.14411339 0.24984933 -0.23855676 -0.16809209 -0.13260996 -0.26983535 0.009644536
-0.079836614 0.09976128 -0.07603802 0.14160073 -0.10154913 -0.0066489414 0.012289542 0.08101474
0.35485843 0.15416531 -0.19383964 0.27589104 -0.041767534 -0.2362677 -0.17936917 0.11208721
-0.030469967 0.11292297 0.1835876 0.15953243 0.12777077 0.20788133 0.19475691 0.13158806
-0.22458449 0.125728 -0.24170324 -0.159264 -0.04156639 0.14675328 0.16787031 0.108363524
0.090585984 -0.044077877 0.007284614 -0.15722579 -0.022654098 -0.20928998 0.23343058 0.13964586
0.030105444 0.21760027 0.12476146 -0.06655264 -0.08864671 0.1932016 0.07713737 -0.26181534
-0.14386392 0.14697033 -0.22774482 0.23661399 -0.21620832 -0.00085555407 -0.22157857 0.028445592
-0.11807273 0.080356576 -0.10358609 -0.03021 0.13141719 0.058015976 -0.13091776 -0.21802092

linear.bias f4 [2]
00000000: ba45 473e a144 943d
0.19460192 0.072396524
