checkpoint/training_epochs_200_stepsize_7_gamma_0.75/model_epoch180.pth (torch, 117574 bytes, 10 tensors)

lstm.weight_ih_l0 f4 [192, 2]
-0.115729265 0.15268923 -0.27105007 -0.13238266 0.08301482 0.027856292 0.15938391 0.20103408
0.3271919 0.17669949 -0.2887459 0.03186566 0.28465363 0.25828522 0.16844043 0.23564239
0.36673912 0.3843523 -0.14637539 0.10373787 0.1432409 -0.020467192 0.09604318 0.16624032
0.15488318 -0.028550968 0.039839752 -0.09578295 0.34959403 0.087213516 0.4076297 0.26450893
0.010015114 -0.034686025 0.32976532 0.33829382 0.17234918 0.15835072 -0.15603627 -0.18374766
0.0062553547 -0.1719294 -0.14838463 0.022544175 0.25784776 0.09502284 0.29927054 0.30357325
0.051960494 0.16646235 0.11641979 0.2193011 -0.024810055 0.20551072 0.11336013 0.17435066
0.1055452 -0.251695 0.41506293 0.02194699 -0.16123262 -0.11748884 0.11275164 0.052065697
-0.32321522 -0.3016124 -0.38323897 -0.41013318 -0.118975066 0.17659852 0.07196848 0.04236024
0.21661441 0.04581367 -0.103439815 -0.29844636 -0.20164584 -0.28702056 0.06234401 0.26495072
-0.2500592 -0.17056437 0.17796253 0.19469577 0.10558967 0.029805131 -0.095981106 -0.23015301
-0.21902283 -0.045032203 0.26645917 0.20177847 0.19005866 0.30497605 0.04193986 -0.025693309
-0.04737551 0.15643074 0.10777723 0.10489097 -0.22422221 -0.08015959 -0.09334909 0.105800726
-0.009553483 0.2073124 -0.14108342 0.117146395 -0.2411524 0.028990272 -0.13193657 0.002556934
0.2026372 0.31618208 -0.0024563284 -0.013307823 0.23125349 0.20100409 -0.06790498 0.08546825
-0.12544715 0.09656471 0.32297146 -0.071218014 0.21749246 0.25284323 0.0059467508 -0.074143164
-0.2368712 -0.22636344 0.051717054 0.05288309 0.030482482 0.0009987985 0.20087309 0.18613373
-0.15646337 -0.13329047 -0.21956488 0.046161562 -0.03345118 0.047753654 0.28797245 0.2974039
0.08488518 0.028587809 0.14279704 0.33968672 -0.12579443 0.15962785 0.17423823 -0.20103326
0.315353 0.14077666 0.23031987 -0.08774455 0.057484478 -0.051661864 0.16669796 0.32542852
-0.06796293 -0.1271236 0.05052625 0.016512498 0.11414348 0.07382355 -0.18756665 -0.060394138
0.22732554 0.07684756 0.009032617 -0.11941033 0.003334307 -0.20994459 0.13364461 -0.0010520173
-0.03502937 -0.1945215 0.03428108 0.15114284 0.02415751 0.27180004 -0.16063544 -0.18925056
0.11862352 -0.12971099 0.23244143 0.13700908 0.06384512 0.3290403 0.06574407 -0.36103156
0.11765377 -0.37696165 0.13073905 0.29467016 0.15007302 0.37776983 -0.094282985 0.53075254
0.26673636 0.33602083 0.025279397 0.26808378 -0.5412772 0.038069673 -0.05404346 0.3504699
0.498909 0.2860777 0.35886005 0.12379051 -0.03748492 -0.30469638 -0.12791032 -0.42678866
-0.26900563 -0.36395502 -0.35989517 0.035130285 0.114954926 -0.4646077 -0.18833297 -0.34545293
0.39275584 -0.07413869 0.41015664 -0.37359512 0.210161 0.31617156 0.26962012 0.2155529
-0.2362413 -0.18480234 0.29502025 -0.048128154 -0.2042181 -0.3566498 -0.18460226 -0.35988033
0.33970365 -0.1882666 -0.089017004 -0.371385 0.19433437 -0.3896784 -0.5226733 0.011330182
-0.24894089 0.084128544 0.48636302 -0.3324202 -0.3521325 -0.14064372 0.055659156 -0.40517074
00000000: 7703 edbd 915a 1c3e 13c7 8abe 528f 07be
00000010: ad03 aa3d e132 e43c 8935 233e e1db 4d3e
00000020: b285 a73e b6f0 343e 81d6 93be 9185 023d
00000030: 1fbe 913e f63d 843e a67b 2c3e 3d4c 713e
00000040: 3bc5 bb3e d3c9 c43e 6ee3 15be 8574 d43d
00000050: bead 123e d0aa a7bc 49b2 c43d e73a 2a3e
00000060: b299 1e3e b8e3 e9bc 022f 233d da29 c4bd
00000070: fdfd b23e 009d b23d d7b4 d03e b76d 873e
00000080: 6f16 243c ef12 0ebd 00d7 a83e d934 ad3e
00000090: 4e7c 303e b126 223e f9c7 1fbe 5928 3cbe
000000a0: b8f9 cc3b 430e 30be 24f2 17be 90ae b83c
000000b0: 9f04 843e 569b c23d fd39 993e f46d 9b3e
000000c0: 87d4 543d 1b75 2a3e 806d ee3d 7890 603e
000000d0: 753e cbbc 6771 523e 5b29 e83d fb88 323e
000000e0: 1528 d83d 2bde 80be 2183 d43e 2dca b33c
000000f0: 2a1a 25be fd9d f0bd 55ea e63d d742 553d
00000100: 777c a5be f16c 9abe e637 c4be fafc d1be
00000110: 33a9 f3bd 3ed6 343e 3664 933d ee81 2d3d
00000120: 2bd0 5d3e 1da7 3b3d 41d8 d3bd f6cd 98be
00000130: 3f7c 4ebe 5cf4 92be 6f5c 7f3d 9fa7 873e
00000140: c207 80be 6da8 2ebe cf3b 363e 545e 473e
00000150: 663f d83d e429 f43c be91 c4bd 3bad 6bbe
00000160: 8547 60be b073 38bd 566d 883e 049f 4e3e
00000170: bd9e 423e d225 9c3e 21c9 2b3d c67a d2bc
00000180: d30c 42bd 612f 203e 4fba dc3d 14d1 d63d
00000190: 829a 65be b62a a4bd cf2d bfbd 0dae d83d
000001a0: 3686 1cbc b449 543e 2c78 10be 73ea ef3d
000001b0: a8f0 76be 027d ed3c 611a 07be 3c92 273b
000001c0: 2080 4f3e 9ee2 a13e 5afa 20bb 0e09 5abc
000001d0: b7cd 6c3e 04d4 4d3e c411 8bbd fa09 af3d
000001e0: 3875 00be b8c3 c53d 845c a53e c0da 91bd
000001f0: 58b6 5e3e ab74 813e f6dc c23b 5fd8 97bd
00000200: 5d8e 72be d1cb 67be 43d5 533d f09b 583d
00000210: 66b6 f93c 1eea 823a adb1 4d3e d799 3e3e
00000220: ef37 20be 4c7d 08be 9ed5 60be e813 3d3d
00000230: 1b04 09bd 5699 433d 2071 933e 5345 983e
00000240: 48d8 ad3d fb30 ea3c 6339 123e 6beb ad3e
00000250: 41d0 00be 7c75 233e 826b 323e aadb 4dbe
00000260: f375 a13e c227 103e f9d8 6b3e 6ab3 b3bd
00000270: d874 6b3d 649b 53bd dfb2 2a3e 919e a63e
00000280: 2630 8bbd b02c 02be 9df4 4e3d 3845 873c
00000290: 0fc4 e93d cd30 973d 7911 40be d85f 77bd
000002a0: 07c8 683e 4162 9d3d 8bfd 133c 678d f4bd
000002b0: 6484 5a3b b7fb 56be 22da 083e d8e3 89ba
000002c0: f57a 0fbd a530 47be 516a 0c3d 30c5 1a3e
000002d0: f8e5 c53c 6029 8b3e 9e7d 24be e6ca 41be
000002e0: e3f0 f23d f5d2 04be 2005 6e3e 1c4c 0c3e
000002f0: 3bc1 823d f877 a83e d4a4 863d 21d9 b8be
00000300: 76f4 f03d 1e01 c1be 75e0 053e 02df 963e
00000310: beac 193e 0c6b c13e 7017 c1bd 66df 073f
00000320: ab91 883e ec0a ac3e bd16 cf3c 4742 893e
00000330: 2591 0abf f2ee 1b3d ad5c 5dbd ca70 b33e
00000340: 0071 ff3e c778 923e 81bc b73e e185 fd3d
00000350: ca89 19bd 2a01 9cbe ecfa 02be 0b84 dabe
00000360: 1bbb 89be 5058 babe 2e44 b8be c6e4 0f3d
00000370: 7d6d eb3d 0fe1 edbe 5cda 40be 35df b0be
00000380: 4b17 c93e 07d6 97bd 0d00 d23e dc47 bfbe
00000390: 7234 573e 3de1 a13e a60b 8a3e e6b9 5c3e
000003a0: 3de9 71be d33c 3dbe e50c 973e 0722 45bd
000003b0: 8d1e 51be cd9a b6be 6008 3dbe 3c42 b8be
000003c0: a3ed ad3e f6c8 40be 8c4e b6bd 2d26 bebe
000003d0: 97ff 463e ed83 c7be ebcd 05bf 3aa2 393c
000003e0: 5cea 7ebe 964b ac3d 9304 f93e fb32 aabe
000003f0: b64a b4be e804 10be dbfa 633d 8a72 cfbe

lstm.weight_hh_l0 f4 [192, 48]
-0.06749323 0.27727935 -0.09266561 -0.031415425 -0.029391078 -0.0031177348 0.0848101 0.0731504
-0.05796347 -0.065057166 -0.16645691 -0.03290045 0.019406766 0.1301139 -0.0628379 -0.14474346
0.0027828438 -0.14071167 -0.085889265 0.1901638 -0.051820155 -0.021724578 0.023171853 0.104664624
-0.2701865 -0.021474648 -0.14130177 0.010653517 -0.18656528 -0.2192756 0.06138421 0.027587147
-0.09205248 0.0042478666 0.2742666 0.1261704 -0.020599836 0.23256327 -0.16267769 -0.05038755
0.0950746 -0.21806882 -0.099661864 0.14485633 0.01613741 0.16274169 0.091621414 0.05926194
0.03004744 -0.122963496 -0.03706309 -0.25111613 -0.21660526 -0.12832199 0.42297953 -0.13199526
-0.34425247 -0.17835635 0.6099441 0.28450382 0.27245042 0.46186766 0.4474038 0.30384886
-0.00017730698 -0.2052451 -0.31125423 -0.28641617 0.25798434 0.03962392 0.2686505 0.2858147
-0.58785987 0.59899014 -0.17112568 0.31377614 0.21597353 -0.292211 0.2741423 0.24602446
-0.1877881 0.105944045 0.28554058 -0.34676322 0.5353563 -0.079119265 0.064034134 -0.11365315
0.12087318 -0.58604413 0.19947189 -0.00629238 -0.038574144 -0.35893053 0.32829085 -0.06721399
0.03900101 -0.067878634 -0.011902589 -0.11247264 -0.07524849 -0.106283985 -0.09302722 -0.326897
0.024759294 -0.04373288 0.14632593 0.13520022 -0.03526569 0.07671866 0.2939194 0.17276807
0.12426515 -0.097223386 -0.072075255 -0.042322855 -0.16510575 0.099566355 -0.06740625 0.18410288
-0.15841307 0.08934635 -0.1572238 -0.15336177 -0.21799344 0.049567424 -0.009683374 -0.006505669
0.024426375 0.04380327 -0.0406154 0.03660466 -0.026850872 0.0952901 0.22187346 0.103609964
-0.1566168 -0.092988424 -0.028441766 0.34948286 -0.3147843 -0.38520467 0.16865289 0.30032948
0.15181185 0.6030834 0.104472786 -0.04144515 0.06051571 0.030100005 -0.24324596 -0.12689918
-0.023650043 0.22245252 0.090206355 0.19110975 -0.09725887 -0.12809339 0.11421626 0.009157399
0.38329276 0.19474633 -0.06061626 -0.039842494 -0.10214685 0.340898 -0.050582636 0.116287075
0.07435256 -0.15637065 -0.026510311 -0.11022433 -0.42973167 0.22717562 -0.114426024 0.16942921
0.24572968 0.11259338 0.15195467 0.10514132 -0.2237181 0.108865194 0.1386721 0.30316
-0.23170552 0.005241601 0.09263535 0.0983067 -0.10681233 0.024386754 0.060391136 0.46667
-0.18213196 0.36168283 0.18871877 0.07061573 0.16794361 -0.03232648 0.024302827 0.0014383266
0.12202586 -0.086266756 0.13520306 0.06275983 -0.0934938 0.13471076 0.003456299 -0.13133183
-0.0014139526 -0.24081087 -0.046392187 0.097543396 -0.13808237 0.02357193 0.05398021 -0.12941116
0.010676649 0.09752315 -0.41018325 0.012206628 -0.16740003 -0.12789243 -0.22010027 0.015646076
0.023355374 0.25822803 -0.1725514 0.033010565 0.07520088 0.09504892 -0.02628339 -0.1732285
-0.27021843 -0.016911006 -0.010166836 0.11637603 -0.07286418 0.20775783 -0.19245954 0.10991772
-0.16499987 0.1261138 0.3010177 -0.18410511 -0.033847634 0.012331086 0.06447186 0.12141585
-0.29178125 -0.096492976 -0.07238841 0.13573122 0.100599214 -0.21506938 -0.08281149 0.058987744
00000000: e439 8abd 8ff7 8d3e 78c7 bdbd 76ad 00bd
00000010: 8fc5 f0bc e952 4cbb ebb0 ad3d e0cf 953d
00000020: 1b6b 6dbd b13c 85bd ae73 2abe 9fc2 06bd
00000030: f0fa 9e3c 943c 053e 28b1 80bd a137 14be
00000040: 5f60 363b b816 10be b6e6 afbd 4dba 423e
00000050: 5f41 54bd bef7 b1bc e6d2 bd3c 685a d63d
00000060: e355 8abe 9aeb afbc 69b1 10be 178c 2e3c
00000070: f80a 3fbe c889 60be 026e 7b3d 71fe e13c
00000080: 0386 bcbd b031 8b3b ac6c 8c3e d032 013e
00000090: fdc0 a8bc 1125 6e3e fb94 26be 2d63 4ebd
000000a0: 79b6 c23d 6f4d 5fbe 851b ccbd 3855 143e
000000b0: 9a32 843c c2a5 263e 02a4 bb3d a6bc 723d
000000c0: 0d26 f63c 49d4 fbbd 77cf 17bd 4b92 80be
000000d0: c5cd 5dbe d766 03be c690 d83e c429 07be
000000e0: dc41 b0be 0ca3 36be 4c25 1c3f 7caa 913e
000000f0: 9f7e 8b3e eb79 ec3e 1c12 e53e 1492 9b3e
00000100: 7beb 39b9 c62b 52be b75c 9fbe 24a5 92be
00000110: 8616 843e b14c 223d 8f8c 893e 4e56 923e
00000120: fc7d 16bf 6b57 193f 923b 2fbe 44a7 a03e
00000130: 2a28 5d3e ae9c 95be 615c 8c3e d6ed 7b3e
00000140: 864b 40be 31f9 d83d 6032 923e f38a b1be
00000150: 1c0d 093f 4809 a2bd 5424 833d fcc2 e8bd
00000160: 5c8c f73d fd06 16bf 5c42 4c3e 4f30 cebb
00000170: ecff 1dbd bec5 b7be bd15 a83e 7da7 89bd
00000180: 86bf 1f3d f403 8bbd 1403 43bc 0e58 e6bd
00000190: e11b 9abd 6bab d9bd 0e85 bebd 0b5f a7be
000001a0: 01d4 ca3c 4021 33bd 77d6 153e ed71 0a3e
000001b0: c272 10bd ac1e 9d3d 9b7c 963e 1dea 303e
000001c0: ba7e fe3d 0e1d c7bd 319c 93bd bb5a 2dbd
000001d0: 7b11 29be 72e9 cb3d 4a0c 8abd 7785 3c3e
000001e0: 0937 22be 38fb b63d 47ff 20be de0a 1dbe
000001f0: ac39 5fbe 3607 4b3d 04a7 1ebc 822d d5bb
00000200: d219 c83c 0f6b 333d 555c 26bd c5ee 153d
00000210: 5cf6 dbbc 7527 c33d cc32 633e 7631 d43d
00000220: 2860 20be b770 bebd b5fe e8bc 6bef b23e
00000230: 682b a1be 8c39 c5be 58b3 2c3e c9c4 993e
00000240: 9174 1b3e ac63 1a3f d4f5 d53d 64c2 29bd
00000250: 52df 773d 4994 f63c 7815 79be dcf1 01be
00000260: bcbd c1bc 98ca 633e 1cbe b83d 46b2 433e
00000270: a92f c7bd ea2a 03be 37ea e93d ea08 163c
00000280: f33e c43e 956b 473e c148 78bd e231 23bd
00000290: 5e32 d1bd 2f8a ae3e bd2f 4fbd eb27 ee3d
000002a0: 2846 983d a11f 20be 272c d9bc 4bbd e1bd
000002b0: ca05 dcbe baa0 683e 3158 eabd da7e 2d3e
000002c0: 90a0 7b3e 5c97 e63d 019a 1b3e 5554 d73d
000002d0: 5c16 65be b7f4 de3d 0f00 0e3e ca37 9b3e
000002e0: 3644 6dbe bcc1 ab3b 9ab7 bd3d 0655 c93d
000002f0: 6cc0 dabd bbc6 c73c b25c 773d 5fef ee3e
00000300: cd80 3abe 7e2e b93e 7e3f 413e fb9e 903d
00000310: 69f9 2b3e c568 04bd b916 c73c 3b86 bc3a
00000320: b2e8 f93d a0ac b0bd ac72 0a3e 3a88 803d
00000330: ad79 bfbd 9ef1 093e 1383 623b da7b 06be
00000340: 6054 b9ba 2097 76be bc05 3ebd d5c4 c73d
00000350: 7765 0dbe ec19 c13c 5a1a 5d3d 5c84 04be
00000360: 1ded 2e3c 38ba c73d 8a03 d2be 4ffe 473c
00000370: ea6a 2bbe 3cf6 02be f761 61be 332c 803c
00000380: c553 bf3c 7736 843e 50b1 30be 1636 073d
00000390: eb02 9a3d 02a9 c23d 4450 d7bc d062 31be
000003a0: 125a 8abe f388 8abc cd92 26bc 8e56 ee3d
000003b0: d139 95bd 78be 543e 1d14 45be 8b1c e13d
000003c0: baf5 28be fa23 013e fe1e 9a3e 0d86 3cbe
000003d0: d1a3 0abd 5308 4a3c d309 843d e0a8 f83d
000003e0: 5a64 95be 1c9e c5bd 6040 94bd 20fd 0a3e
000003f0: f606 ce3d 263b 5cbe 1299 a9bd 229d 713d

lstm.bias_ih_l0 f4 [192]
0.15680856 -0.2429761 -0.10454263 0.098354965 -0.114180446 -0.2766659 0.1639711 -0.088677816
0.0943508 -0.008961819 -0.18021406 0.014322303 -0.031920977 0.088344954 0.2343722 0.16713473
-0.029970063 0.2432323 0.057023615 -0.14369151 -0.06978894 -0.038166583 0.12913927 0.04909133
0.28568557 0.012334021 -0.16030084 0.26958546 -0.052986737 0.11760641 -0.23231469 0.01828406
-0.24650912 -0.17791739 -0.32182205 -0.06704904 0.102195986 -0.37605014 -0.24046542 0.16728668
-0.066684574 0.23694097 -0.10661436 -0.0056935046 -0.28646034 0.10462744 0.10866346 0.103111334
-0.18846306 0.19566475 -0.07218583 -0.1311054 -0.059175797 -0.1377538 -0.00027660385 -0.16741873
-0.042303804 0.01807819 0.17196654 0.057446066 -0.16898373 0.013942404 0.16417055 -0.095686756
-0.16496603 0.2006372 0.020814251 0.32391563 -0.098251164 -0.22184831 0.057063423 -0.12607361
-0.02637466 0.14322141 0.11175061 0.078542076 0.3779445 -0.1431326 0.09497319 0.06259938
-0.091279455 0.056251615 -0.09217333 -0.11268345 0.17910516 -0.1568478 -0.1712036 0.15449518
0.14391463 0.08972346 -0.09825528 -0.283712 -0.19912477 -0.08398971 -0.09456668 -0.11801423
0.033094496 -0.004195915 -0.10196883 -0.07459351 -0.12985632 -0.1259594 0.06618619 -0.050347444
-0.023822729 -0.13674296 -0.0009947108 0.24887064 0.17666449 -0.018519137 -0.0138759995 0.19149093
-0.038413055 -0.11411157 -0.10499225 -0.16419214 0.05288713 -0.004601511 0.063059784 0.101782456
-0.039623033 0.056192365 0.07303123 0.1325527 0.014064698 0.034110807 0.1929996 0.11381223
-0.053407267 -0.028924633 0.08503675 -0.11416225 0.1705833 -0.009471632 -0.094818294 -0.011398591
-0.067662306 -0.13934344 0.12487407 0.059648614 0.033650126 -0.1529823 -0.0050914246 0.057614412
-0.028810091 -0.21281552 -0.16817491 0.20162018 -0.12516099 -0.2040623 0.112634026 0.13920482
0.026763896 -0.14241216 -0.0030587083 0.10528424 -0.118567705 0.035797354 0.37415937 0.18475872
-0.09470642 0.39935344 0.040583033 -0.022061357 -0.0077321157 -0.045534875 -0.033071704 0.077574596
0.18739657 -0.12713134 0.017978203 0.11571627 0.059871845 0.13693978 -0.14522123 -0.007775627
-0.26117256 -0.26402315 -0.11045965 -0.0018844629 0.088711426 -0.13751312 -0.2860981 0.042866204
-0.22618228 0.12691431 -0.007616543 -0.20345841 -0.26637024 0.026730182 0.042220052 -0.055542678
00000000: 6c92 203e bace 78be 721a d6bd 546e c93d
00000010: 70d7 e9bd 27a7 8dbe 0ae8 273e b79c b5bd
00000020: fe3a c13d 98d4 12bc 098a 38be 18a8 6a3c
00000030: 92bf 02bd 33ee b43d 44ff 6f3e 5e25 2b3e
00000040: c783 f5bc e311 793e 9891 693d de23 13be
00000050: 81ed 8ebd 9054 1cbd 163d 043e fe13 493d
00000060: 6145 923e a214 4a3c e725 24be 1b07 8a3e
00000070: 9f08 59bd a1db f03d e7e3 6dbe 74c8 953c
00000080: e36c 7cbe fa2f 36be dcc5 a4be 0251 89bd
00000090: 214c d13d a589 c0be 913c 76be 334d 2b3e
000000a0: ec91 88bd a7a0 723e a158 dabd 9490 babb
000000b0: eeaa 92be e946 d63d f38a de3d 092c d33d
000000c0: 76fc 40be 575c 483e 2ad6 93bd 7e40 06be
000000d0: 5262 72bd 550f 0dbe 2405 91b9 d16f 2bbe
000000e0: c146 2dbd b618 943c ff17 303e 914c 6b3d
000000f0: 120a 2dbe ae6e 643c 531c 283e 6bf7 c3bd
00000100: dbec 28be d773 4d3e a682 aa3c 45d8 a53e
00000110: e837 c9bd 342c 63be 56bb 693d 7119 01be
00000120: ac0f d8bc a2a8 123e 81dd e43d abda a03d
00000130: f181 c13e 5a91 12be 4e81 c23d 1b34 803d
00000140: b9f0 babd 1868 663d 5fc5 bcbd 95c6 e6bd
00000150: 5867 373e b69c 20be ff4f 2fbe fc33 1e3e
00000160: 5b5e 133e efc0 b73d 103a c9bd b342 91be
00000170: 5de7 4bbe cc02 acbd 2dac c1bd 72b1 f1bd
00000180: 188e 073d e37d 89bb 09d5 d0bd 7bc4 98bd
00000190: 0ef9 04be 80fb 00be a08c 873d 1f39 4ebd
000001a0: e227 c3bc 5906 0cbe f560 82ba f2d7 7e3e
000001b0: 89e7 343e 72b5 97bc 2958 63bc 3316 443e
000001c0: 0257 1dbd 54b3 e9bd 2d06 d7bd fc21 28be
000001d0: 2da0 583d 46c8 96bb 7d25 813d 5273 d03d
000001e0: c34b 22bd f729 663d 6691 953d e5bb 073e
000001f0: 9e6f 663c c6b7 0b3d b0a1 453e 6316 e93d
00000200: 94c1 5abd 5af3 ecbc bf27 ae3d e6cd e9bd
00000210: 63ad 2e3e e72e 1bbc 1830 c2bd 28c1 3abc
00000220: 8992 8abd 0cb0 0ebe fabd ff3d 1b52 743d
00000230: b7d4 093d 64a7 1cbe f7d5 a6bb 17fd 6b3d
00000240: 2403 ecbc 50ec 59be 0b36 2cbe 8575 4e3e
00000250: 342a 00be b5f5 50be abac e63d b58b 0e3e
00000260: f53f db3c 7ed4 11be 9c74 48bb 439f d73d
00000270: a0d3 f2bd 3fa0 123d d191 bf3e 6431 3d3e
00000280: 71f5 c1bd 0e78 cc3e 653a 263d 05ba b4bc
00000290: b05d fdbb c782 3abd 3276 07bd 6edf 9e3d
000002a0: e3e4 3f3e b82e 02be 0647 933c a7fc ec3d
000002b0: 2e3c 753d f139 0c3e e0b4 14be b0ca febb
000002c0: 69b8 85be 0b2e 87be ab38 e2bd 1500 f7ba
000002d0: 56ae b53d 3dd0 0cbe 737b 92be 7994 2f3d
000002e0: 549c 67be d3f5 013e 3294 f9bb 6757 50be
000002f0: ae61 88be 41f9 da3c efee 2c3d b880 63bd

lstm.bias_hh_l0 f4 [192]
0.08428929 -0.1816516 0.08419301 0.03449793 -0.06797464 -0.25993013 0.23487173 -0.13604268
0.16391824 0.04672287 0.049517043 0.25024435 0.091818415 0.14524858 0.13433193 0.27920365
0.020938143 0.25067016 -0.050720975 0.04751375 -0.053606004 -0.22750665 -0.043790225 0.12990169
0.26656908 -0.0039248965 -0.11977403 0.30059808 0.05196876 0.2232147 -0.0865444 -0.07848977
-0.24626656 -0.17837088 -0.27605247 0.055616055 0.139263 -0.12874039 -0.13012876 0.053018723
-0.29506788 0.2218405 -0.1074725 -0.010692581 -0.16212855 0.25160235 0.045842975 -0.11927354
-0.06901552 -0.036436312 -0.11162746 -0.0622772 -0.19469461 -0.07288346 -0.022822483 -0.08173843
-0.14424077 -0.07757653 0.19818164 -0.10629067 -0.19519702 -0.032162435 0.16506587 -0.06413727
-0.066115476 0.14522338 -0.009049109 0.26804033 -0.11025081 -0.045681797 0.009876454 0.14748335
-0.040425677 0.040698145 0.069056354 -0.117570646 0.27000833 -0.08726195 0.036588024 0.01580815
0.015772456 -0.12545261 0.059482355 -0.14566933 0.13799663 0.031233124 0.02934109 -0.07068548
0.12765665 0.16457003 0.0145251695 -0.1678084 -0.0313315 -0.11143557 0.06856668 -0.13015419
0.0522077 0.069192395 -0.1510037 -0.111259565 -0.08349596 0.035999987 0.14371979 -0.09083426
-0.270352 -0.09504775 0.04087222 -0.020858293 0.044649076 0.12939088 0.030692428 0.028683353
-0.003284324 0.096165754 -0.12606128 0.0056993766 0.15350136 -0.040241256 0.20741099 0.020620666
-0.03369533 -0.07560132 0.003629949 0.050662115 0.056707874 -0.043133043 -0.017391864 0.045927886
0.06324234 -0.085028686 0.034361947 -0.12442168 -0.066748425 0.021027084 0.10071466 0.03946909
0.008914239 -0.12788947 0.06847808 -0.06799799 -0.016670613 -0.019592104 0.22774081 0.037118275
0.06569475 -0.19040158 -0.044328365 0.025048139 -0.094121315 -0.15669477 0.20349243 -0.08153833
0.23252709 -0.15268782 -0.15104127 0.26588732 0.0068038236 0.013418829 0.29999962 0.13964106
0.027082728 0.18538463 -0.10723967 -0.003935687 0.040982984 0.0048599467 0.08191832 -0.004635014
0.11491016 0.022356076 0.12013237 0.06776254 0.21887839 0.15044405 -0.19058983 0.044549357
-0.26619238 -0.07137241 -0.22902444 0.0136485165 0.23382634 -0.20184614 -0.24949645 0.1321367
-0.2118098 0.1758416 -0.06890845 -0.021617627 -0.1074581 0.026997728 0.12111544 0.043750234
00000000: dd9f ac3d e102 3abe 636d ac3d b44d 0d3d
00000010: 4a36 8bbd 9015 85be 3782 703e c64e 0bbe
00000020: 2fda 273e 7b60 3f3d 62d2 4a3d 0720 803e
00000030: 4b0b bc3d 0bbc 143e 4f8e 093e c8f3 8e3e
00000040: 7886 ab3c d757 803e ccc0 4fbd c79d 423d
00000050: f891 5bbd 81f7 68be 615d 33bd f304 053e
00000060: be7b 883e 6b9c 80bb 164c f5bd fee7 993e
00000070: 32dd 543d 6592 643e 313e b1bd 3fbf a0bd
00000080: 4d2d 7cbe dba6 36be c056 8dbe a9cd 633d
00000090: f69a 0e3e 85d4 03be 7940 05be 292a 593d
000000a0: 2313 97be 282a 633e 8b1a dcbd ef2f 2fbc
000000b0: 0705 26be 06d2 803e d8c5 3b3d b045 f4bd
000000c0: 0258 8dbd 3e3e 15bd f09c e4bd 6116 7fbd
000000d0: 065e 47be ec43 95bd 37f6 babc 7a66 a7bd
000000e0: dab3 13be 72e0 9ebd 21f0 4a3e ecae d9bd
000000f0: bae1 47be c2bc 03bd 0707 293e 675a 83bd
00000100: 8d67 87bd 70b5 143e b742 14bc 953c 893e
00000110: 2dcb e1bd d61c 3bbd dad0 213c e005 173e
00000120: 6595 25bd 19b3 263d 6b6d 8d3d e1c8 f0bd
00000130: 883e 8a3e 65b6 b2bd 53dd 153d 1880 813c
00000140: 3d35 813c a676 00be c5a3 733d 572a 15be
00000150: fd4e 0d3e 9cdc ff3c ba5c f03c 8dc3 90bd
00000160: 6db8 023e 0c85 283e fafa 6d3c f7d5 2bbe
00000170: 7555 00bd 5538 e4bd b06c 8c3d 2447 05be
00000180: bed7 553d beb4 8d3d b7a0 1abe 0edc e3bd
00000190: eeff aabd b974 133d 482b 133e 5007 babd
000001a0: 946b 8abe 65a8 c2bd a169 273d 03df aabc
000001b0: f3e1 363d 0b7f 043e b06e fb3c 5af9 ea3c
000001c0: d03d 57bb 8df2 c43d 3516 01be d6c1 ba3b
000001d0: 762f 1d3e 04d4 24bd 8c63 543e acec a83c
000001e0: 1d04 0abd ddd4 9abd 70e4 6d3b 1483 4f3d
000001f0: 8446 683d 46ac 30bd 6279 8ebc e11e 3c3d
00000200: 3385 813d 8523 aebd 1dbf 0c3d cbd0 febd
00000210: 66b3 88bd fe40 ac3c 7d43 ce3d 57aa 213d
00000220: 070d 123c 75f5 02be 3c3e 8c3d 8842 8bbd
00000230: cf90 88bc 9f7f a0bc e334 693e 5509 183d
00000240: f88a 863d a2f8 42be a991 35bd c131 cd3c
00000250: adc2 c0bd 9874 20be 5260 503e 91fd a6bd
00000260: 951b 6e3e 325a 1cbe 90aa 1abe 6222 883e
00000270: 9cf2 de3b a6da 5b3c 8d99 993e 11fe 0e3e
00000280: 99dc dd3c 78d5 3d3e 79a0 dbbd eff6 80bb
00000290: c6dd 273d 3040 9f3b cbc4 a73d 51e1 97bb
000002a0: 0556 eb3d 1724 b73c f607 f63d 16c7 8a3d
000002b0: a821 603e 010e 1a3e fb29 43be 6379 363d
000002c0: 5e4a 88be b32b 92bd 6285 6abe 079e 5f3c
000002d0: 2c70 6f3e c1b0 4ebe ff7b 7fbe d84e 073e
000002e0: abe4 58be d20f 343e e01f 8dbd 7317 b1bc
000002f0: fe12 dcbd 572a dd3c 5f0b f83d 7233 333d

lstm.weight_ih_l1 f4 [192, 48]
0.029518297 0.3669998 0.21953799 -0.08216899 0.0654133 0.058554705 -0.17855324 -0.30000162
-0.10190606 0.121985264 -0.12697715 0.076679245 -0.38439637 0.05734975 0.07115867 -0.016936976
0.3857424 0.052449383 0.14222233 0.26495606 -0.00028052434 0.2945062 0.12796621 -0.09681165
-0.06306165 -0.076400734 -0.022166751 -0.08328961 -0.110435 0.050250627 0.037783816 -0.07898298
0.3901722 0.25139973 0.19732603 0.36849558 -0.012283517 0.3458917 0.085764274 0.32313892
-0.23855714 -0.05347661 -0.08263424 0.309135 -0.14788558 0.109202586 0.11067256 0.32654315
-0.1324675 0.15608658 0.33725134 0.19939786 0.27325484 0.058966566 -0.3268512 0.11661109
0.19358665 -0.030593498 0.008721652 -0.111399226 -0.2942217 -0.11315143 -0.17042617 -0.30228746
-0.013695018 -0.23239368 0.090960585 0.04368766 -0.24278003 0.08111078 -0.32308337 -0.28248346
-0.07404721 -0.23364238 -0.3286717 -0.041709244 0.02855944 0.032733176 -0.059262685 -0.17313941
0.08520686 0.08426235 -0.25129884 0.3486855 -0.14531146 -0.020166943 -0.016124586 -0.20085429
0.01663844 0.30554062 -0.1828514 0.10318485 -0.08305929 0.32838693 -0.37488145 -0.032985505
-0.20080785 0.33617896 0.08522292 0.026693128 0.008552155 0.13304329 0.19284208 0.18671454
0.1316688 -0.2457944 -0.028548272 -0.07318234 0.068043455 -0.06772055 -0.1586899 -0.08799066
-0.07771762 -0.055562302 -0.11195154 0.02720879 0.0120291 0.102108255 0.05290492 -0.11102705
-0.10285417 -0.08364157 -0.2860703 0.003201852 0.023040758 -0.19681643 -0.18297449 0.060727037
0.04465444 0.30587795 0.010568988 0.063351266 0.116272345 0.15204254 -0.00062933296 -0.12271319
-0.23078439 -0.2235956 -0.1301822 0.091989234 -0.009457318 0.18059178 -0.15776473 -0.006048352
-0.1396854 0.10900621 0.056739144 -0.14001557 -0.07432246 0.10127087 0.04360134 -0.23600003
-0.0038260468 -0.04155845 0.048858993 -0.09377367 -0.012772614 -0.052917663 0.047209594 -0.07106045
0.13309976 -0.19022311 -0.22076708 0.14006965 0.0013023986 0.23571713 0.1046595 0.03130378
-0.09461553 -0.14227204 -0.11668977 -0.028505366 -0.032678362 0.031593055 0.12018112 -0.1052523
0.14042448 0.16028967 0.013353433 0.009908692 0.08444321 0.045584597 -0.08670791 -0.1613543
-0.08406616 -0.06187274 0.08062319 0.08159301 -0.21373115 0.07386481 -0.13985895 0.18188606
-0.063272916 0.19406684 0.039954867 0.041990824 0.34181792 0.11268596 -0.050897308 0.06973245
0.072575435 -0.13236105 0.10137108 -0.108688086 -0.26668268 0.004216701 -0.21384284 -0.14830528
0.13356711 -0.12918262 -0.13035497 -0.005329561 0.1016904 -0.07387 -0.20627245 -0.13325912
-0.21200381 -0.06596467 -0.16677877 0.015617555 0.16697106 0.07821491 -0.28094777 -0.053865142
-0.004725097 0.12726207 -0.02608984 0.120249376 -0.054634236 0.055050243 -0.13746038 -0.032391056
-0.18446293 0.007469018 -0.1154846 0.11740822 0.088124774 0.055336487 -0.26109573 0.081054136
-0.12800962 -0.05430794 0.08293822 0.14736554 -0.029069006 0.010957557 0.21266972 0.16504948
0.054961905 0.04309909 -0.028976137 -0.12424716 -0.19414756 0.02951358 -0.32579258 -0.21513166
00000000: 5bd0 f13c 66e7 bb3e 91ce 603e 3748 a8bd
00000010: 69f7 853d 0fd7 6f3d a9d6 36be d099 99be
00000020: 20b4 d0bd 69d3 f93d 4c06 02be 020a 9d3d
00000030: 9acf c4be 92e7 6a3d a3bb 913d 6abf 8abc
00000040: 0780 c53e 2ad5 563d bba2 113e 52a8 873e
00000050: 5713 93b9 84c9 963e 9309 033e 3045 c6bd
00000060: 7726 81bd fd77 9cbd 0c97 b5bc be93 aabd
00000070: bf2b e2bd 9ad3 4d3d 34c3 1a3d d4c1 a1bd
00000080: a7c4 c73e 77b7 803e d60f 4a3e 74ab bc3e
00000090: ce40 49bc b818 b13e 2ea5 af3d 7772 a53e
000000a0: 5348 74be 4a0a 5bbd 243c a9bd f146 9e3e
000000b0: 516f 17be 9ba5 df3d 4ca8 e23d aa30 a73e
000000c0: 8fa5 07be 29d5 1f3e 35ac ac3e f42e 4c3e
000000d0: 0fe8 8b3e ed86 713d 0a59 a7be ccd1 ee3d
000000e0: 943b 463e 379f fabc 43e5 0e3c 4725 e4bd
000000f0: 3aa4 96be f0bb e7bd 3384 2ebe 6cc5 9abe
00000100: 1261 60bc 9cf8 6dbe 8b49 ba3d d5f1 323d
00000110: 549b 78be 691d a63d 2f6b a5be aca1 90be
00000120: 10a6 97bd f33f 6fbe a847 a8be 50d7 2abd
00000130: 7df5 e93c 3913 063d 6ebd 72bd 754b 31be
00000140: ef80 ae3d bd91 ac3d 3eaa 80be e886 b23e
00000150: 87cc 14be 2535 a5bc b517 84bc bfac 4dbe
00000160: 564d 883c d26f 9c3e 663d 3bbe 9452 d33d
00000170: fd1a aabd 5522 a83e 76f0 bfbe cf1b 07bd
00000180: 93a0 4dbe a61f ac3e 5b89 ae3d 8cab da3c
00000190: 571e 0c3c 803c 083e 6578 453e 1932 3f3e
000001a0: 30d4 063e 87b1 7bbe 11de e9bc 9fe0 95bd
000001b0: 5e5a 8b3d 12b1 8abd 9b7f 22be 7234 b4bd
000001c0: 6a2a 9fbd 4c95 63bd d946 e5bd f8e4 de3c
000001d0: b415 453c 221e d13d d4b2 583d 2662 e3bd
000001e0: 35a5 d2bd 454c abbd ce77 92be 2ad6 513b
000001f0: f9bf bc3c 3f8a 49be aa5d 3bbe eabc 783d
00000200: 93e7 363d 099c 9c3e 8c29 2d3c 4fbe 813d
00000210: 3220 ee3d 0ab1 1b3e d2f9 24ba 0e51 fbbd
00000220: be52 6cbe 3ff6 64be 7c4e 05be da64 bc3d
00000230: def2 1abc 0ded 383e 148d 21be 4131 c6bb
00000240: b109 0fbe a63e df3d 4e67 683d 3e60 0fbe
00000250: 6036 98bd 1a67 cf3d 5297 323d fea9 71be
00000260: 6abe 7abb 3139 2abd 5e20 483d 690c c0bd
00000270: 3a44 51bc 31c0 58bd d95e 413d 2488 91bd
00000280: 4e4b 083e d9c9 42be c410 62be 6b6e 0f3e
00000290: 3fb5 aa3a d55f 713e b857 d63d 6438 003d
000002a0: c9c5 c1bd c3af 11be 0cfb eebd 1684 e9bc
000002b0: bfd9 05bd b867 013d 8521 f63d 858e d7bd
000002c0: 6fcb 0f3e fa22 243e 5cc8 5a3c 1158 223c
000002d0: 90f0 ac3d eab6 3a3d eb93 b1bd 103a 25be
000002e0: e12a acbd 456e 7dbd c51d a53d 3c1a a73d
000002f0: 57dc 5abe 6f46 973d 2f37 0fbe 5740 3a3e
00000300: 3b95 81bd 75b9 463e b7a7 233d 92fe 2b3d
00000310: c202 af3e e6c7 e63d b279 50bd e3cf 8e3d
00000320: 6ea2 943d a889 07be a49b cf3d dc97 debd
00000330: a28a 88be 402c 8a3b 9ef9 5abe 57dd 17be
00000340: d1c5 083e 7348 04be c67b 05be 99a3 aebb
00000350: 0e43 d03d 2849 97bd 1639 53be 1475 08be
00000360: 8717 59be 7c18 87bd 0ec8 2abe c6e0 7f3c
00000370: 76fa 2a3e 242f a03d 63d8 8fbe b2a1 5cbd
00000380: fdd4 9abb fd50 023e 5cba d5bc 4e45 f63d
00000390: 26c8 5fbd 5d7c 613d 6ac2 0cbe 7cac 04bd
000003a0: dae3 3cbe aabe f43b 3183 ecbd b973 f03d
000003b0: c37a b43d 83a8 623d 57ae 85be b6ff a53d
000003c0: f414 03be 0172 5ebd 83db a93d fee6 163e
000003d0: 2022 eebc 5387 333c 17c6 593e bb02 293e
000003e0: bc1f 613d ac88 303d 5d5f edbc 4c75 febd
000003f0: 9ece 46be 77c6 f13c 49ce a6be 794b 5cbe

lstm.weight_hh_l1 f4 [192, 48]
0.050591774 -0.09161929 -0.026810395 -0.3574925 -0.17620318 0.11072025 -0.037960287 -0.008296874
0.038430195 -0.2506134 -0.098193504 0.12333008 0.18990582 -0.023564223 -0.36223018 0.047783747
-0.06519049 0.07515069 0.123348005 -0.13154891 0.13072994 0.043381967 -0.03305455 -0.09919997
-0.14558165 -0.115798645 -0.13598564 0.000552521 0.100822814 0.008069361 0.15239947 -0.031064086
0.020865923 -0.23075321 0.057127647 0.09357227 0.18929395 0.13248573 0.21063927 0.13999161
0.04227056 -0.04407241 -0.0060365987 0.07718848 -0.08485766 -0.2258337 0.15285046 0.033737678
0.05956521 -0.14215009 -0.11320811 -0.08817811 0.027596345 0.18418323 -0.12863894 -0.009709934
0.07871127 0.19886471 0.035705604 0.024445876 0.08791135 -0.05937082 -0.06185318 -0.07015494
-0.13761064 0.059544865 0.14363892 0.13916142 0.090646975 -0.09947607 0.08964359 0.10376807
0.049741246 0.0875428 -0.06027847 0.016311666 0.13171206 -0.14533585 0.025585072 -0.03181319
0.16982868 -0.07262555 -0.085747145 -0.082692645 -0.063602485 0.09974281 0.16438678 -0.10671328
0.13324912 -0.090371184 0.23278008 -0.07638625 0.11718935 -0.07109779 -0.069133155 -0.14659622
-0.09189 -0.049641166 -0.21149944 -0.04657389 -0.1270956 -0.15016235 0.021569725 -0.068042636
0.05046377 -0.03874673 0.008362748 -0.029741986 -0.009659322 0.093192615 0.01847986 -0.07969435
-0.16838172 -0.110363655 0.015636833 0.22864416 -0.038333867 -0.017482817 -0.066620566 -0.024661604
0.008808938 -0.1291155 -0.07336659 0.027483918 0.22319491 -0.026327316 0.19828597 -0.021199705
0.08526342 0.051565398 0.03567761 -0.09863717 0.14391273 -0.10469198 0.07408054 -0.017956415
-0.02572308 -0.063860156 0.23918171 -0.19730861 0.18161397 -0.11493712 -0.053905625 -0.1343332
0.04842327 0.034358557 0.033164594 -0.2985705 -0.10876438 0.14670569 0.07898159 -0.04458037
-0.021423087 -0.18984114 -0.17115141 0.087970324 0.12694491 -0.091262855 -0.20943308 0.09290248
-0.20079477 0.1679495 0.10444051 -0.16516732 0.046879377 -0.06870527 0.05886053 0.082134776
-0.22773656 0.0026499336 -0.11247089 -0.029678643 -0.035958976 0.13021825 0.056373376 0.12368253
0.10982512 0.11809794 -0.0057793795 -0.0078051193 -0.15137035 0.1342708 -0.0981598 -0.115091026
0.02581839 0.04576771 -0.085530415 0.08718224 0.075937465 -0.14700392 0.031645026 -0.034665957
-0.24236588 -0.1522581 -0.0090311235 0.0371055 -0.1580802 0.17910929 -0.23840381 -0.12015874
0.08167833 0.319857 0.09092823 0.047671355 -0.04893441 0.1705547 0.04771432 -0.13307177
0.0043285773 -0.26404613 0.057746284 -0.064896815 0.015226896 0.048793934 -0.037634052 0.11644026
0.04423997 0.08377224 -0.079925254 -0.12920508 0.13667734 -0.01409734 0.033159014 0.063338086
0.17645901 -0.061826345 0.11032825 0.028881922 0.08051942 -0.120111644 0.009640614 -0.07675705
-0.102680445 -0.40285307 0.075814806 0.031244287 -0.05820563 -0.044934254 0.018328771 0.00784757
-0.06201011 -0.18483126 -0.25776553 -0.079537675 0.033357147 0.039647873 -0.15837374 0.019640442
0.085472666 -0.044082657 0.068631105 -0.0026793822 0.034137692 0.14817275 -0.04982438 -0.08456927
00000000: 5239 4f3d e5a2 bbbd 79a1 dbbc 4209 b7be
00000010: 9b6e 34be 4cc1 e23d 3f7c 1bbd 9def 07bc
00000020: fb68 1d3d 6650 80be ad19 c9bd 7b94 fc3d
00000030: ac76 423e c209 c1bc 3c76 b9be e4b8 433d
00000040: 9782 85bd 9be8 993d e19d fc3d c2b4 06be
00000050: 12de 053e 4ab1 313d 3564 07bd 5b29 cbbd
00000060: 5b13 15be d727 edbd d23f 0bbe 0fd7 103a
00000070: 317c ce3d 5a35 043c 9b0e 1c3e 1c7a febc
00000080: 03ef aa3c 924a 6cbe aefe 693d d1a2 bf3d
00000090: 46d6 413e 57aa 073e d2b1 573e f659 0f3e
000000a0: e523 2d3d 4585 34bd a9ce c5bb fe14 9e3d
000000b0: dac9 adbd f340 67be d584 1c3e 8530 0a3d
000000c0: a6fa 733d cb8f 11be a7d9 e7bd ba96 b4bd
000000d0: bb11 e23c 879a 3c3e edb9 03be 6a16 1fbc
000000e0: 6033 a13d 31a3 4b3e 0a40 123d b842 c83c
000000f0: de0a b43d d12e 73bd c359 7dbd 65ad 8fbd
00000100: cee9 0cbe 51e5 733d 1516 133e 5580 0e3e
00000110: 1fa5 b93d 1cba cbbd 0f97 b73d 5b84 d43d
00000120: 7abd 4b3d a449 b33d 8fe6 76bd 0ba0 853c
00000130: 87df 063e ecd2 14be c997 d13c 8c4e 02bd
00000140: 92e7 2d3e b4bc 94bd 339c afbd c35a a9bd
00000150: 0542 82bd f545 cc3d 0255 283e 7e8c dabd
00000160: 7572 083e 8714 b9bd e75d 6e3e 6570 9cbd
00000170: f800 f03d b89b 91bd af95 8dbd 521d 16be
00000180: d330 bcbd 8954 4bbd 4f93 58be 43c4 3ebd
00000190: 5925 02be 29c4 19be feb2 b03c f059 8bbd
000001a0: 19b3 4e3d e4b4 1ebd e803 093c 77a5 f3bc
000001b0: 2242 1ebc c5db be3d 1363 973c cb36 a3bd
000001c0: 426c 2cbe 5706 e2bd d118 803c b221 6a3e
000001d0: f903 1dbd 2038 8fbc 5d70 88bd 2207 cabc
000001e0: 5d53 103c db36 04be 3941 96bd f425 e13c
000001f0: 358d 643e 62ac d7bc 7a0b 4b3e 01ab adbc
00000200: 979e ae3d 3d36 533d b022 123d 4902 cabd
00000210: dc5d 133e c068 d6bd 8ab7 973d 5519 93bc
00000220: 35b9 d2bc 1dc9 82bd 0dec 743e 450b 4abe
00000230: 03f9 393e 2764 ebbd 25cc 5cbd a48e 09be
00000240: 7b57 463d 8fbb 0c3d 99d7 073d 3cde 98be
00000250: dcbf debd 043a 163e 1ac1 a13d e899 36bd
00000260: 787f afbc b765 42be 5142 2fbe c929 b43d
00000270: d9fd 013e 05e8 babd a075 56be a843 be3d
00000280: 259d 4dbe f4fa 2b3e e8e4 d53d 9f21 29be
00000290: 9704 403d 59b5 8cbd bd17 713d 4736 a83d
000002a0: c633 69be 82aa 2d3b 2357 e6bd a020 f3bc
000002b0: b849 13bd ef57 053e c5e7 663d 444d fd3d
000002c0: feeb e03d 55dd f13d f360 bdbb 16c2 ffbb
000002d0: d400 1bbe 497e 093e 0108 c9bd d8b4 ebbd
000002e0: 1781 d33c ec76 3b3d 922a afbd 9a8c b23d
000002f0: 1a85 9b3d 3288 16be 379e 013d e4fd 0dbd
00000300: c32e 78be 8ce9 1bbe 47f7 13bc f0fb 173d
00000310: c7df 21be 6d68 373e 2120 74be c915 f6bd
00000320: f846 a73d 4cc4 a33e 9438 ba3d 0a43 433d
00000330: 736f 48bd e4a5 2e3e 1770 433d f743 08be
00000340: bdd6 8d3b 0e31 87be 5e87 6c3d 9fe8 84bd
00000350: 3b7a 793c 26dc 473d 2a26 1abd 3b78 ee3d
00000360: f934 353d c890 ab3d daaf a3bd 564e 04be
00000370: 25f5 0b3e 88f8 66bc bfd1 073d 66b7 813d
00000380: acb1 343e 9f3d 7dbd c7f3 e13d c899 ec3c
00000390: 5ee7 a43d 18fd f5bd aaf3 1d3c cd32 9dbd
000003a0: 204a d2bd c242 cebe cb44 9b3d 05f4 ff3c
000003b0: 0769 6ebd fb0c 38bd 3826 963c 1893 003c
000003c0: 50fe 7dbd 6844 3dbe d8f9 83be a6e4 a2bd
000003d0: 81a1 083d cf65 223d ba2c 22be fee4 a03c
000003e0: 4b0c af3d 0490 34bd 778e 8c3d 9398 2fbb
000003f0: f7d3 0b3d 99ba 173e a614 4cbd a732 adbd

lstm.bias_ih_l1 f4 [192]
-0.08478846 -0.0010093375 0.16553627 0.02628417 0.0831482 -0.054696415 0.11182258 0.13283706
-0.0141178295 -0.1314112 0.03783643 -0.16656417 0.18833214 0.17807248 0.16239277 0.09172928
0.05784561 -0.13832499 0.13462153 -0.031566318 0.027498243 0.11281533 0.20406863 0.22792524
0.16491748 -0.06992803 0.19977462 0.1213695 -0.048861675 0.13030075 0.4020827 0.16700906
-0.0748207 0.19426921 0.12090774 0.19932531 0.033001374 -0.24414742 0.10247208 -0.21119232
0.22072935 -0.07148133 -0.08681541 0.26062882 -0.039376434 0.1129686 0.020219076 -0.02654245
-0.031854264 -0.18993296 -0.06834763 -0.24174987 -0.12520464 0.074782945 -0.094350524 0.029902644
0.023183677 -0.077768214 0.02338601 0.0030398644 -0.024210205 -0.20709568 -0.16758077 0.029873775
-0.047803473 -0.21573067 -0.16342418 -0.07984458 0.09168713 -0.12170116 -0.16828732 -0.032246
-0.088915266 -0.04206022 -0.113528445 0.015765544 -0.16296828 -0.21686432 -0.076153904 0.1252771
-0.14980689 -0.15871868 -0.025197472 -0.013879899 0.04261562 -0.019328652 -0.13054365 -0.051344812
-0.13689446 0.08274512 0.0626487 -0.09522648 0.1136562 -0.10953756 -0.18268302 -0.15956394
0.11767836 0.052399606 0.07399188 0.02842261 -0.06334341 0.09132977 0.018524637 0.017534554
-0.11836045 0.11397851 -0.20556773 -0.060523286 0.12343622 0.08305964 -0.013291253 0.06886808
0.0518069 -0.14413743 -0.033123627 -0.14822575 0.10304709 -0.025846502 0.10137203 0.26848215
0.044455077 -0.073801 0.089175545 -0.15207744 0.05499034 -0.019453133 -0.06679198 -0.13963531
-0.1361338 -0.06821248 -0.09856198 0.07018551 -0.1731399 -0.057574145 -0.054287072 -0.10507194
0.007943367 -0.08162693 0.03273617 0.0155019965 -0.08694452 0.09255304 -0.048366267 -0.06667875
0.1324465 -0.056920473 0.05926586 0.077723086 0.117981754 0.10924984 -0.03455478 0.044007514
0.021072747 -0.060449988 0.1133411 0.0403089 0.23385899 0.022327177 -0.03833277 0.06940066
-0.09638688 0.11749219 0.09417395 -0.0971701 0.003051144 0.04599415 0.16935436 0.07263009
0.2645733 0.16391467 0.014152118 -0.013873422 0.005117684 -0.11025603 0.2736631 0.13254493
0.012394171 0.13070205 -0.09266549 0.17089815 0.11011973 -0.16667855 0.11260348 -0.13717969
-0.010218752 -0.15545169 0.12112216 0.20489545 -0.10305274 0.06354721 -0.048294034 0.01305049
00000000: 92a5 adbd bf4b 84ba 5782 293e e651 d73c
00000010: 9a49 aa3d 5909 60bd 3d03 e53d 7006 083e
00000020: 784e 67bc a890 06be 5ffa 1a3d cc8f 2abe
00000030: 24da 403e a258 363e 4a4a 263e 90dc bb3d
00000040: 85ef 6c3d 11a5 0dbe 3ada 093e af4b 01bd
00000050: ff43 e13c b90b e73d 5ef7 503e 3c65 693e
00000060: 21e0 283e 6d36 8fbd b891 4c3e 9390 f83d
00000070: 2e23 48bd 8f6d 053e c9dd cd3e 6c04 2b3e
00000080: 983b 99bd 82ee 463e 7a9e f73d ef1b 4c3e
00000090: 732c 073d c801 7abe e2dc d13d cd42 58be
000000a0: e006 623e ce64 92bd 47cc b1bd 2471 853e
000000b0: 2f49 21bd 155c e73d 7aa2 a53c 8d6f d9bc
000000c0: 9e79 02bd c97d 42be d8f9 8bbd 478d 77be
000000d0: a535 00be cd27 993d d93a c1bd 64f6 f43c
000000e0: b2eb bd3c f144 9fbd 0594 bf3c 7638 473b
000000f0: 7b54 c6bc e410 54be 4b9a 2bbe d9b9 f43c
00000100: 93cd 43bd 80e8 5cbe ab58 27be 8e85 a3bd
00000110: 76c6 bb3d 753e f9bd 8353 2cbe 6214 04bd
00000120: 3519 b6bd 5647 2cbd 9a81 e8bd be26 813c
00000130: 28e1 26be ae11 5ebe 94f6 9bbd a448 003e
00000140: fa66 19be 2687 22be ee6a cebc 8468 63bc
00000150: b78d 2e3d 1f57 9ebc 3cad 05be f04e 52bd
00000160: 102e 0cbe 4676 a93d f64d 803d 1a06 c3bd
00000170: 95c4 e83d 3a55 e0bd 4211 3bbe bb64 23be
00000180: 5a01 f13d f8a0 563d 0e89 973d 89d6 e83c
00000190: 31ba 81bd 1a0b bb3d fbc0 973c a0a4 8f3c
000001a0: f766 f2bd 916d e93d 5980 52be 44e7 77bd
000001b0: 21cc fc3d 2c1b aa3d 8ec3 59bc b50a 8d3d
000001c0: 7933 543d c398 13be a4ac 07bd 7ec8 17be
000001d0: 5a0a d33d 0bbc d3bc 249c cf3d 7e76 893e
000001e0: 8716 363d fb24 97bd aba1 b63d 30ba 1bbe
000001f0: 8d3d 613d 2d5c 9fbc 3cca 88bd 8ffc 0ebe
00000200: a966 0bbe fcb2 8bbd ddda c9bd 6cbd 8f3d
00000210: 964b 31be ded2 6bbd 1f5c 5ebd f52f d7bd
00000220: e524 023c 052c a7bd 5d16 063d 16fc 7d3c
00000230: f80f b2bd 738c bd3d b51b 46bd de8e 88bd
00000240: 0ea0 073e 7125 69bd c2c0 723d 482d 9f3d
00000250: 6ba0 f13d 61be df3d 5089 0dbd 3941 343d
00000260: c1a0 ac3c 689a 77bd 611f e83d f21a 253d
00000270: bb78 6f3e 7ce7 b63c d302 1dbd ef21 8e3d
00000280: 7c66 c5bd bf9f f03d 46de c03d 1e01 c7bd
00000290: b4f5 473b 5d64 3c3d 3b6b 2d3e 16bf 943d
000002a0: 2776 873e 3fd9 273e 49de 673c 594d 63bc
000002b0: 3fb2 a73b eacd e1bd 921d 8c3e dcb9 073e
000002c0: ec10 4b3c c2d6 053e 68c7 bdbd edff 2e3e
000002d0: 7486 e13d c8ad 2abe a79c e63d d578 0cbe
000002e0: 8d6c 27bc ba2e 1fbe e50e f83d 1dd0 513e
000002f0: 510d d3bd 0a25 823d f7cf 45bd b9d1 553c

lstm.bias_hh_l1 f4 [192]
0.106908694 -0.043081336 0.075319916 0.2842965 -0.041075435 -0.019658942 0.17761481 0.15485902
-0.11825644 -0.012964057 0.12577635 0.029857818 0.24038303 -0.05415379 0.18543558 0.18091483
0.019370923 -0.11273942 0.3166723 -0.13333066 0.102333285 0.066094965 0.16281065 0.03686166
0.2930546 -0.0027608823 0.008033071 0.17873284 -0.102633156 -0.0982309 0.32862806 0.08870121
-0.039305918 -0.058245372 0.15961942 -0.028772863 0.037216563 -0.2843253 0.19889972 -0.24996023
0.040309783 0.04607407 0.009071633 0.11581458 -0.08845405 -0.017177405 0.10253262 -0.10257593
-0.21056919 -0.09705793 -0.056316324 0.0011233323 0.102865435 0.0414212 0.05929179 -0.14815465
-0.028225912 -0.09756939 -0.09024364 -0.14035694 0.0019676988 -0.041216493 -0.13786542 -0.103561014
-0.09069473 -0.11124603 -0.12767032 -0.076196015 -0.045401912 -0.27593088 -0.13038324 0.07144846
0.00022663323 -0.14975932 0.1113784 0.03299005 0.04075422 -0.22945659 -0.0875188 0.11641301
-0.06982435 -0.0018168701 0.09433631 -0.09768238 0.0014566106 -0.05073056 -0.20396931 -0.20613159
0.038564134 -0.12071463 -0.100512214 -0.15513137 0.05593725 -0.10585506 -0.11450373 0.017354403
-0.0633612 0.11564008 0.0027024955 -0.114090465 0.10757081 0.10692406 -0.08015423 0.19298679
-0.15416528 -0.053796876 -0.22490749 -0.11046232 -0.08983859 0.067672074 0.12197708 0.17600682
0.07330865 0.1042714 -0.083975226 0.0032669138 0.11573561 0.05562301 -0.076180615 0.29124165
0.020705247 0.12720399 0.084795676 -0.14356819 0.04752647 0.000514341 -0.048917912 -0.20727456
-0.07161957 0.028630028 -0.21607246 0.0006086912 -0.124911584 -0.08360844 0.032467317 -0.022603707
0.051221065 -0.11163513 -0.02268791 -0.059915796 0.014650008 -0.019026095 -0.043859366 -0.11565861
-0.10747291 -0.0063430783 0.15891461 0.21456908 0.17118976 0.070230834 -0.04573116 0.10150082
-0.14942464 0.072316796 0.060605418 -0.013707326 0.0917243 -0.033061925 0.10152711 -0.08186882
0.03838545 -0.11236004 0.24627984 -0.054113418 0.15549788 0.100620024 -0.012142644 0.15717787
0.21002606 0.07971178 0.20554261 -0.11679494 0.14461504 -0.00521568 0.3321849 -0.0855862
-0.0014200348 0.17333448 0.12150327 -0.09473126 0.07175423 -0.3196905 0.054673783 -0.3384089
0.111198455 -0.1795408 -0.08070882 0.07140314 -0.23001462 0.11564603 0.0377941 -0.1257426
00000000: f2f2 da3d 0e76 30bd 5441 9a3d 508f 913e
00000010: b73e 28bd ca0b a1bc a8e0 353e 5d93 1e3e
00000020: 6f30 f2bd 3267 54bc 84cb 003e 6298 f43c
00000030: f826 763e 5dd0 5dbd d3e2 3d3e bd41 393e
00000040: c5af 9e3c ede3 e6bd df22 a23e d587 08be
00000050: 1d94 d13d cc5c 873d d6b7 263e 41fc 163d
00000060: 410b 963e ebef 34bb 249d 033c be05 373e
00000070: 5531 d2bd 482d c9bd f041 a83e fba8 b53d
00000080: 3eff 20bd b392 6ebd 4673 233e 11b5 ebbc
00000090: 6570 183d 1693 91be 5eac 4b3e 93f5 7fbe
000000a0: df1b 253d 2ab8 3c3d 30a1 143c 3230 ed3d
000000b0: 6627 b5bd a1b7 8cbc 9ffc d13d 5413 d2bd
000000c0: 739f 57be 4fc6 c6bd f2ab 66bd c73c 933a
000000d0: 1dab d23d 47a9 293d f3db 723d dab5 17be
000000e0: 073a e7bc 76d2 c7bd a8d1 b8bd bbb9 0fbe
000000f0: 82f4 003b a0d2 28bd 982c 0dbe cc17 d4bd
00000100: 29be b9bd f5d4 e3bd 02bc 02be a80c 9cbd
00000110: 5bf7 39bd d046 8dbe 2f83 05be 9253 923d
00000120: 65a4 6d39 825a 19be 5c1a e43d 9320 073d
00000130: e6ed 263d abf6 6abe 0e3d b3bd f269 ee3d
00000140: 1200 8fbd 0b24 eeba 6533 c13d b30d c8bd
00000150: beeb be3a d9ca 4fbd 55dd 50be 2914 53be
00000160: 6df5 1d3d 3b39 f7bd 59d9 cdbd c2da 1ebe
00000170: 751e 653d 8aca d8bd ee80 eabd d22a 8e3c
00000180: 84c3 81bd b5d4 ec3d 5a1c 313b 43a8 e9bd
00000190: 164e dc3d 00fb da3d e727 a4bd 549e 453e
000001a0: 81dd 1dbe 1d5a 5cbd 264e 66be 123a e2bd
000001b0: 4bfd b7bd a897 8a3d 1fcf f93d 223b 343e
000001c0: d822 963d 3e8c d53d 34fb abbd b819 563b
000001d0: cb06 ed3d f4d4 633d 9504 9cbd a01d 953e
000001e0: 0d9e a93c c341 023e 5ba9 ad3d 8a03 13be
000001f0: 1eab 423d d7d4 063a 265e 48bd c83f 54be
00000200: 48ad 92bd 8589 ea3c 1942 5dbe 9390 1f3a
00000210: a5d1 ffbd e73a abbd 73fc 043d 692b b9bc
00000220: 2ecd 513d f6a0 e4bd ffdb b9bc 446a 75bd
00000230: 9606 703c 9ddc 9bbc e1a5 33bd 6cde ecbd
00000240: c21a dcbd 99d9 cfbb 83ba 223e ffb7 5b3e
00000250: 5e4c 2f3e 2fd5 8f3d 9950 3bbd a9df cf3d
00000260: c602 19be d41a 943d 633d 783d b194 60bc
00000270: f3d9 bb3d f16b 07bd 72ed cf3d d7aa a7bd
00000280: 103a 1d3d 051d e6bd c830 7c3e 08a6 5dbd
00000290: d63a 1f3e df11 ce3d f1f1 46bc 3cf3 203e
000002a0: 1211 573e ee3f a33d c379 523e 2f32 efbd
000002b0: f715 143e 4ce8 aabb 2414 aa3e d147 afbd
000002c0: 7620 baba 987e 313e b5d6 f83d 7602 c2bd
000002d0: e2f3 923d 79ae a3be 9ef1 5f3d ee43 adbe
000002e0: 04bc e33d 8bd9 37be aa4a a5bd cf3b 923d
000002f0: f488 6bbe d3d7 ec3d fccd 1a3d abc2 00be

linear.weight f4 [2, 48]
0.21446764 0.1487237 0.06463639 -0.3034977 0.1117169 -0.04668587 0.085328445 0.14085053
0.03336046 0.08659744 -0.07923072 -0.007455838 0.26089245 0.1432953 0.13504124 0.17118378
0.12994279 0.13318525 -0.256616 0.01694764 0.25902942 0.1794255 -0.29255378 0.22073075
-0.25514036 -0.14431685 0.25235033 -0.23877913 -0.16910242 -0.13323179 -0.27205157 0.009739352
-0.08043716 0.10092217 -0.0759588 0.14185761 -0.101609185 -0.0062063066 0.012018406 0.08335516
0.35772184 0.15505241 -0.19435365 0.27810413 -0.04237877 -0.23599297 -0.18007374 0.11230607
-0.03135855 0.11329202 0.18572912 0.16206689 0.12978503 0.2084423 0.19520257 0.13218036
-0.22519009 0.12598044 -0.24194902 -0.15976317 -0.04162923 0.15535125 0.17021608 0.10882278
0.092353396 -0.047921512 0.0062666303 -0.15929797 -0.02145047 -0.2106917 0.23486476 0.1398339
0.029596828 0.2186512 0.12559922 -0.06673154 -0.08921275 0.19487973 0.077850014 -0.2623422
-0.1454721 0.14839762 -0.22814405 0.23744419 -0.21682471 -0.00084449374 -0.22304633 0.027652577
-0.11803422 0.08142764 -0.10457515 -0.03069348 0.1328151 0.05861954 -0.13149118 -0.2187766
00000000: 689d 5b3e 074b 183e 1560 843d 0d64 9bbe
00000010: d4cb e43d af39 3fbd aec0 ae3d 1f3b 103e
00000020: faa4 083d 005a b13d b743 a2bd 1a50 f4bb
00000030: b293 853e 01bc 123e 4048 0a3e cd4a 2f3e
00000040: b90f 053e b761 083e 2c63 83be c7d5 8a3c
00000050: 819f 843e 51bb 373e 9cc9 95be 3e07 623e
00000060: c2a1 82be ccc7 13be 1034 813e 8482 74be
00000070: 2f29 2dbe ea6d 08be 584a 8bbe ce91 1f3c
00000080: 3dbc a4bd 48b0 ce3d 4a90 9bbd 1f43 113e
00000090: 7a18 d0bd 465e cbbb d9e8 443c 1cb6 aa3d
000000a0: 5127 b73e 0fc6 1e3e a504 47be aa63 8e3e
000000b0: 5c95 2dbd 24a8 71be 4065 38be ba00 e63d
000000c0: d371 00bd a605 e83d c62f 3e3e ddf4 253e
000000d0: 5ee6 043e e671 553e 2fe3 473e 4a5a 073e
000000e0: 3b98 66be 0401 013e 7cc1 77be f598 23be
000000f0: 6983 2abd 6614 1f3e 204d 2e3e 7ade de3d
00000100: c723 bd3d 5949 44bd 4e58 cd3b 021f 23be
00000110: e5b8 afbc 91bf 57be 6380 703e 9e30 0f3e
00000120: 0c75 f23c 1ae6 5f3e 159d 003e 8caa 88bd
00000130: 2db5 b6bd 8d8e 473e d46f 9f3d b851 86be
00000140: a3f6 14be 8cf5 173e 989e 69be 9224 733e
00000150: 4c07 5ebe 0461 5dba 4266 64be a887 e23c
00000160: edbb f1bd 89c3 a63d 7f2b d6bd e570 fbbc
00000170: ae00 083e 0b1b 703d a0a5 06be f906 60be

linear.bias f4 [2]
0.19433329 0.07235505
00000000: 4eff 463e e22e 943d
