checkpoint/training_epochs_200_stepsize_7_gamma_0.75/model_epoch120.pth (torch, 117574 bytes, 10 tensors)

lstm.weight_ih_l0 f4 [192, 2]
-0.11877616 0.14995858 -0.27331463 -0.13426048 0.08074056 0.024971077 0.15758708 0.19903526
0.32517797 0.17270577 -0.29102162 0.02690182 0.28256223 0.2566843 0.16535805 0.23160525
0.36533278 0.3819778 -0.14818132 0.10158758 0.14304446 -0.021769153 0.09246231 0.16264027
0.15399401 -0.031043146 0.039113015 -0.09637008 0.35108984 0.08653906 0.40307546 0.25739655
0.008779409 -0.036194526 0.32876995 0.33738542 0.16684043 0.1527131 -0.1562952 -0.18434806
0.0007873089 -0.17692652 -0.15087874 0.01978303 0.25595826 0.09260955 0.2965903 0.30169737
0.0507134 0.16507047 0.115939684 0.21814694 -0.025395311 0.20560682 0.11144655 0.17091879
0.10660656 -0.25092447 0.41259715 0.018419616 -0.16210169 -0.1176775 0.11187315 0.052036125
-0.32149717 -0.3012944 -0.38499767 -0.41286474 -0.119152464 0.17533697 0.0709922 0.040567607
0.21501401 0.04537519 -0.1043142 -0.2989381 -0.20346175 -0.28938866 0.060768694 0.26209417
-0.25107914 -0.17238933 0.1753947 0.19306798 0.1036022 0.028694702 -0.09866542 -0.23245136
-0.22115067 -0.045393955 0.26456943 0.19819255 0.18807088 0.30186048 0.037536804 -0.030934772
-0.047532037 0.15551277 0.10647502 0.103166975 -0.2253939 -0.08131301 -0.093014784 0.10556957
-0.006806728 0.20810246 -0.1438596 0.11168433 -0.24113216 0.029279316 -0.13333294 -0.00010622207
0.20386988 0.31704772 -0.0013826414 -0.012822272 0.23162271 0.19999892 -0.06777832 0.08420861
-0.12445858 0.09604876 0.3224751 -0.07151956 0.21945965 0.25342944 0.009183485 -0.07476399
-0.2369882 -0.22642742 0.052254222 0.053041466 0.031984303 0.00018597867 0.20086922 0.18578164
-0.15766917 -0.13536504 -0.21697581 0.047604583 -0.032313615 0.0487282 0.28859153 0.29785424
0.08300349 0.028089607 0.14265619 0.33891243 -0.12606114 0.15957175 0.17456208 -0.20175281
0.316261 0.14141709 0.22930662 -0.08858715 0.05762292 -0.050639097 0.16724521 0.32683688
-0.06556087 -0.12595691 0.046752516 0.012168728 0.11482492 0.0738251 -0.18781719 -0.06119308
0.22737685 0.07800014 0.008745249 -0.119911924 0.0014050956 -0.2133567 0.13559814 -0.00047070588
-0.035840217 -0.1964582 0.033846635 0.15188897 0.023935486 0.27276438 -0.16333479 -0.1918337
0.1191667 -0.12566778 0.232353 0.13504611 0.065435246 0.32978112 0.065305054 -0.36292356
0.117622 -0.3770237 0.12814282 0.29234812 0.14926544 0.37675527 -0.09458136 0.5304224
0.26675305 0.3355776 0.024757799 0.26502857 -0.54120123 0.038125318 -0.053542156 0.3506934
0.49891788 0.28579807 0.35881543 0.123559654 -0.03745637 -0.30441907 -0.12749971 -0.42567882
-0.26877433 -0.3636072 -0.35995227 0.03535451 0.11528154 -0.46435207 -0.18787996 -0.34306827
0.39163253 -0.074592315 0.40991727 -0.37347117 0.21053617 0.31579646 0.2688007 0.21476327
-0.23609997 -0.18449394 0.29366094 -0.049307242 -0.20379567 -0.35620046 -0.18415827 -0.3588896
0.33960953 -0.18885483 -0.08773878 -0.37009403 0.19472018 -0.38980383 -0.52132565 0.011859302
-0.2489329 0.083822235 0.48486346 -0.33251265 -0.35213017 -0.14085932 0.055812236 -0.4049795
00000000: ea40 f3bd be8e 193e e5ef 8bbe 947b 09be
00000010: 4f5b a53d 2590 cc3c 825e 213e e6cf 4b3e
00000020: ba7d a63e c8d9 303e c900 95be 3561 dc3c
00000030: ffab 903e 206c 833e 9f53 293e ed29 6d3e
00000040: e60c bb3e 9892 c33e d8bc 17be 260d d03d
00000050: 3f7a 123e 3955 b2bc e15c bd3d 2c8b 263e
00000060: 9bb0 1d3e 324e febc f834 203d ad5d c5bd
00000070: 0cc2 b33e 643b b13d e85f ce3e 7bc9 833e
00000080: 83d7 0f3c b640 14bd 8954 a83e c8bd ac3e
00000090: 38d8 2a3e d360 1c3e d90b 20be bdc5 3cbe
000000a0: 6863 4e3a 3a2c 35be f57f 1abe 0510 a23c
000000b0: f60c 833e 13aa bd3d afda 973e 1478 9a3e
000000c0: dbb8 4f3d 3c08 293e c971 ed3d e961 5f3e
000000d0: d409 d0bc 988a 523e 173e e43d 5605 2f3e
000000e0: 8a54 da3d 2c79 80be ef3f d33e bce4 963c
000000f0: fcfd 25be e700 f1bd c01d e53d d523 553d
00000100: 479b a4be 4243 9abe 6a1e c5be 0263 d3be
00000110: 3506 f4bd 898b 333e 5c64 913d 382a 263d
00000120: a22c 5c3e 56db 393d afa2 d5bd 6a0e 99be
00000130: 4758 50be c02a 94be 98e8 783d 3531 863e
00000140: 728d 80be d486 30be ab9a 333e 9db3 453e
00000150: 642d d43d 2711 eb3c 1911 cabd bb07 6ebe
00000160: 5275 62be 03ef 39bd a575 873e fdf2 4a3e
00000170: a795 403e 758d 9a3e 31c0 193d eb6a fdbc
00000180: f4b0 42bd bd3e 1f3e 930f da3d 3549 d33d
00000190: a9cd 66be 6f87 a6bd 897e bebd dc34 d83d
000001a0: f90a dfbb d018 553e ee4f 13be c1ba e43d
000001b0: 59eb 76be 2ddb ef3c 6e88 08be 8ac3 deb8
000001c0: 44c3 503e 1454 a23e bf39 b5ba 8214 52bc
000001d0: 812e 6d3e 84cc 4c3e 5ccf 8abd 9075 ac3d
000001e0: 24e4 febd 36b5 c43d 751b a53e d978 92bd
000001f0: 08ba 603e 81c1 813e 5476 163c dd1d 99bd
00000200: 09ad 72be 97dc 67be 8608 563d 0242 593d
00000210: f901 033d 4503 4339 a9b0 4d3e 8b3d 3e3e
00000220: 0774 21be 229d 0abe e82e 5ebe 06fd 423d
00000230: 485b 04bd 3997 473d 45c2 933e 5a80 983e
00000240: bcfd a93d 2d1c e63c 7714 123e ee85 ad3e
00000250: 2c16 01be c766 233e 67c0 323e 4a98 4ebe
00000260: f6ec a13e a4cf 103e 5bcf 6a3e 2e6d b5bd
00000270: 0306 6c3d f16a 4fbd 5442 2b3e 2a57 a73e
00000280: c744 86bd d9fa 00be 917f 3f3d 585f 473c
00000290: 5429 eb3d 9d31 973d 2653 40be 98a5 7abd
000002a0: 7ad5 683e 8abe 9f3d 3c48 0f3c 6294 f5bd
000002b0: 2f2b b83a 2e7a 5abe 3dda 0a3e 13c9 f6b9
000002c0: 31cd 12bd 572c 49be c5a2 0a3d c888 1b3e
000002d0: 5a14 c43c c6a7 8b3e 3c41 27be 0e70 44be
000002e0: ac0d f43d 0eaf 00be f2ed 6d3e 8749 0a3e
000002f0: ea02 863d 12d9 a83e a8be 853d 1ed1 b9be
00000300: cee3 f03d 4009 c1be df37 033e a7ae 953e
00000310: 0ad9 183e 11e6 c03e dfb3 c1bd c3c9 073f
00000320: db93 883e d4d0 ab3e ded0 ca3c d3b1 873e
00000330: 2a8c 0abf 4b29 1c3d 054f 5bbd 168e b33e
00000340: 2a72 ff3e 2054 923e a8b6 b73e d80c fd3d
00000350: da6b 19bd d1dc 9bbe 498f 02be 93f2 d9be
00000360: ca9c 89be b92a babe aa4b b8be e4cf 103d
00000370: ba18 ec3d 8ebf edbe 9b63 40be a5a6 afbe
00000380: 0f84 c83e dbc3 98bd ade0 d13e 9d37 bfbe
00000390: cb96 573e 13b0 a13e 3fa0 893e e7ea 5b3e
000003a0: 31c4 71be fbeb 3cbe ba5a 963e 64f6 49bd
000003b0: d0af 50be e85f b6be fc93 3cbe 61c0 b7be
000003c0: 4de1 ad3e 2963 41be 64b0 b3bd f77c bdbe
000003d0: ba64 473e 5e94 c7be 9975 05bf 854d 423c
000003e0: 44e8 7ebe feaa ab3d 0640 f83e 193f aabe
000003f0: 684a b4be 6d3d 10be 5f9b 643d 7959 cfbe

lstm.weight_hh_l0 f4 [192, 48]
-0.066457614 0.27643186 -0.09689895 -0.035033528 -0.029875666 -0.0046043927 0.08461937 0.07563194
-0.059104506 -0.065218925 -0.16385314 -0.0296708 0.020331636 0.13223991 -0.062467232 -0.14386486
0.0018944503 -0.14020097 -0.088736705 0.18660893 -0.050987344 -0.024162792 0.024794057 0.10650113
-0.2698074 -0.016942881 -0.14226967 0.013416348 -0.18343335 -0.22269116 0.060508214 0.029717214
-0.094837405 0.0048108674 0.27313325 0.123746164 -0.0176069 0.23035935 -0.1642124 -0.0500396
0.09568209 -0.2174983 -0.09917931 0.14187163 0.018716825 0.16310203 0.0929862 0.0570886
0.027039573 -0.123399846 -0.03702575 -0.25172013 -0.21406181 -0.12808527 0.42469332 -0.12767899
-0.3451451 -0.17680609 0.6111799 0.28477737 0.27060455 0.463666 0.44694275 0.30424
-0.0019056081 -0.20544386 -0.31126395 -0.28798586 0.25806051 0.039329782 0.26917696 0.2860322
-0.5904392 0.6023165 -0.1714432 0.31529808 0.2185759 -0.2948124 0.2745026 0.24685615
-0.18880032 0.10588989 0.28605822 -0.34775278 0.53764635 -0.08010234 0.06490561 -0.11345363
0.12234162 -0.58632034 0.1995462 -0.011847591 -0.038682323 -0.3578996 0.3283086 -0.068493254
0.04073515 -0.07316827 -0.012354718 -0.1104326 -0.07787355 -0.10828195 -0.09736612 -0.32350263
0.028581643 -0.045391534 0.14740151 0.13314189 -0.031040458 0.076444015 0.29649007 0.16668014
0.12064345 -0.098869875 -0.06917338 -0.046140753 -0.16752934 0.09377295 -0.06898186 0.18657306
-0.15382735 0.092274316 -0.15403043 -0.15476118 -0.21656911 0.048721857 -0.008083311 -0.006549944
0.020774214 0.046688594 -0.03988037 0.034436665 -0.029705193 0.090275116 0.22025831 0.09856592
-0.15108447 -0.09024959 -0.025986101 0.3455039 -0.30767778 -0.38550738 0.165781 0.2957196
0.15487306 0.5997065 0.10473146 -0.04103523 0.058484863 0.02935593 -0.2446246 -0.12405711
-0.022375297 0.22031319 0.09142124 0.18976833 -0.09468439 -0.12719688 0.116758905 0.006137357
0.3828087 0.19630782 -0.0604348 -0.041995227 -0.101223804 0.33636597 -0.051627044 0.11608589
0.07549446 -0.15426497 -0.024339182 -0.11227467 -0.42758396 0.22727004 -0.11386353 0.16927797
0.24406546 0.11567234 0.15318596 0.10367127 -0.22294165 0.10476803 0.13943343 0.3014966
-0.22751917 0.0078071384 0.09359925 0.09462659 -0.103937864 0.025143454 0.05979113 0.46484727
-0.18071195 0.36056405 0.18528818 0.06826171 0.16431975 -0.03636376 0.02243901 0.005317316
0.12405278 -0.09074855 0.14028633 0.066060774 -0.09074721 0.13959786 0.008925476 -0.13165666
-0.0022958296 -0.24166371 -0.050835315 0.09143161 -0.13609833 0.021434285 0.054199014 -0.12652996
0.00821616 0.101300195 -0.410373 0.012240838 -0.16371904 -0.12918788 -0.22087649 0.016373292
0.019884458 0.25878266 -0.17323996 0.02947221 0.07866996 0.09313932 -0.026824677 -0.1744892
-0.26868367 -0.015368445 -0.008202196 0.1136687 -0.06917072 0.20622832 -0.19405067 0.108359315
-0.16385734 0.12432 0.29837608 -0.18766582 -0.0298966 0.007882819 0.06180225 0.12453976
-0.29015777 -0.09131726 -0.06697288 0.13934098 0.09774643 -0.20877315 -0.07902731 0.059994075
00000000: ee1a 88bd 7a88 8d3e f572 c6bd 517f 0fbd
00000010: d0bd f4bc 72e0 96bb ec4c ad3d ebe4 9a3d
00000020: 9117 72bd 8091 85bd 1ec9 27be 2d10 f3bc
00000030: 888e a63c e669 073e a4dd 7fbd 4f51 13be
00000040: 344f f83a d890 0fbe 97bb b5bd 6916 3f3e
00000050: 1bd8 50bd 0cf1 c5bc e81c cb3c 441d da3d
00000060: 3224 8abe cccb 8abc 24af 11be 3ed0 5b3c
00000070: f4d5 3bbe 2709 64be 76d7 773d 8471 f33c
00000080: 1d3a c2bd 7ba4 9d3b 1fd8 8b3e a16e fd3d
00000090: 583c 90bc 52e3 6b3e 4c27 28be 53f6 4cbd
000000a0: f9f4 c33d e0b7 5ebe 861e cbbd cc46 113e
000000b0: 0754 993c 3804 273e 8c6f be3d bcd5 693d
000000c0: 1882 dd3c 0fb9 fcbd 50a8 17bd 76e1 80be
000000d0: 0533 5bbe c928 03be 6771 d93e 48be 02be
000000e0: dcb6 b0be a80c 35be 4976 1c3f 57ce 913e
000000f0: ae8c 8a3e a165 ed3e aed5 e43e 58c5 9b3e
00000100: 99c5 f9ba e05f 52be fd5d 9fbe e272 93be
00000110: 8220 843e 4418 213d 90d1 893e d072 923e
00000120: 0627 17bf 6a31 1a3f ce8e 2fbe c06e a13e
00000130: 5cd2 5f3e a7f1 96be 9b8b 8c3e dcc7 7c3e
00000140: df54 41be ccdc d83d 3976 923e a70c b2be
00000150: 31a3 093f b20c a4bd 3ced 843d 605a e8bd
00000160: 3e8e fa3d 1719 16bf d755 4c3e 661c 42bc
00000170: 5b71 1ebd 9e3e b7be 1118 a83e 3146 8cbd
00000180: e7d9 263d 3fd9 95bd 716b 4abc 7d2a e2bd
00000190: 2b7c 9fbd edc2 ddbd e367 c7bd 23a2 a5be
000001a0: 0d24 ea3c 79ec 39bd 6cf0 163e 5956 083e
000001b0: 8f48 febc ae8e 9c3d 8ccd 973e 33ae 2a3e
000001c0: ea13 f73d 4a7c cabd c6aa 8dbd 16fe 3cbd
000001d0: d08c 2bbe 080c c03d 5d46 8dbd 020d 3f3e
000001e0: eb84 1dbe 51fa bc3d 27ba 1dbe b779 1ebe
000001f0: 4bc4 5dbe 9290 473d dd6f 04bc eaa0 d6bb
00000200: af2e aa3c 8a3c 3f3d 9959 23bd 760d 0d3d
00000210: 4e58 f3bc 29e2 b83d 658b 613e eedc c93d
00000220: e3b5 1abe c7d4 b8bd cee0 d4bc e3e5 b03e
00000230: f187 9dbe 3961 c5be 7fc2 293e 8f68 973e
00000240: 0b97 1e3e 5d86 193f 737d d63d 8f14 28bd
00000250: d38d 6f3d d97b f03c df7e 7abe a711 febd
00000260: 664c b7bc c899 613e 0f3b bb3d a152 423e
00000270: e4e9 c1bd e63f 02be 4b1f ef3d e21b c93b
00000280: 80ff c33e eb04 493e 7b8a 77bd 3003 2cbd
00000290: 6d4e cfbd 2938 ac3e e176 53bd 70be ed3d
000002a0: d79c 9a3d a3f7 1dbe f762 c7bc 43f0 e5bd
000002b0: 49ec dabe 7ab9 683e 4831 e9bd 3457 2d3e
000002c0: 4cec 793e 9fe5 ec3d c8dc 1c3e 9a51 d43d
000002d0: d14a 64be 9f90 d63d a3c7 0e3e c35d 9a3e
000002e0: c9fa 68be 06d3 ff3b f7b0 bf3d 96cb c13d
000002f0: 60dd d4bd a5f9 cd3c 8be7 743d 7600 ee3e
00000300: 8e0c 39be da9b b83e 2fbc 3d3e cccc 8b3d
00000310: 7043 283e 2af2 14bd 04d2 b73c e13c ae3b
00000320: 620f fe3d 60da b9bd 38a7 0f3e df4a 873d
00000330: acd9 b9bd bef2 0e3e 293c 123c 01d1 06be
00000340: a175 16bb b176 77be b138 50bd 7f40 bb3d
00000350: 5c5d 0bbe f496 af3c c9ff 5d3d 1291 01be
00000360: 139d 063c 7a76 cf3d 691c d2be cc8d 483c
00000370: f7a5 27be d449 04be 722d 62be 4821 863c
00000380: bbe4 a23c 297f 843e d165 31be b46f f13c
00000390: b71d a13d d4bf be3d 6dbf dbbc 4cad 32be
000003a0: e890 89be eecb 7bbc 8162 06bc 23cb e83d
000003b0: 61a9 8dbd 842d 533e 38b5 46be 7deb dd3d
000003c0: 38ca 27be 7c9b fe3d c0c4 983e 782b 40be
000003d0: b7e9 f4bc f026 013c 5b24 7d3d b40e ff3d
000003e0: 8f8f 94be 8b04 bbbd 1429 89bd 67af 0e3e
000003f0: 482f c83d a1c8 55be 12d9 a1bd 59bc 753d

lstm.bias_ih_l0 f4 [192]
0.15402487 -0.24572219 -0.10928348 0.09546467 -0.116618074 -0.27966762 0.1619926 -0.09273521
0.09223663 -0.010840556 -0.18077977 0.010484337 -0.03328517 0.087986544 0.23518233 0.16000357
-0.03228241 0.24152908 0.051530752 -0.14355643 -0.07482994 -0.041054986 0.1267173 0.047689132
0.28463188 0.011475156 -0.16044143 0.2667705 -0.052070618 0.114543736 -0.23288679 0.017448416
-0.24589181 -0.17985718 -0.32243076 -0.06827062 0.101492345 -0.3766763 -0.24308781 0.16488437
-0.06891843 0.23458448 -0.108136825 -0.00957342 -0.28810775 0.1022334 0.10533433 0.09772427
-0.1884938 0.19306403 -0.074938975 -0.13112034 -0.057130665 -0.14152917 -0.00042237516 -0.16991134
-0.041435268 0.018817775 0.17183447 0.056864228 -0.16832045 0.013995932 0.16573247 -0.09498296
-0.16559839 0.20120761 0.020763632 0.32397878 -0.09896872 -0.22081824 0.058221783 -0.12520432
-0.02678708 0.14293283 0.112386756 0.078878194 0.3786416 -0.14333819 0.09569494 0.06361497
-0.090161294 0.052566446 -0.09190866 -0.112863496 0.18024729 -0.15662271 -0.1735786 0.15677178
0.14144269 0.08986877 -0.09776239 -0.28798413 -0.19777553 -0.08441155 -0.093711875 -0.11846457
0.032830134 -0.0076608085 -0.10243708 -0.07442233 -0.12976356 -0.12697232 0.06596314 -0.04982707
-0.02356875 -0.1365654 -0.0008718084 0.2486837 0.17676903 -0.01847285 -0.013747027 0.1903237
-0.03915807 -0.1142811 -0.10441451 -0.16495842 0.0524466 -0.0061945734 0.06256288 0.102209665
-0.039259136 0.057430375 0.073143765 0.13278568 0.0142196845 0.033340707 0.192585 0.11363214
-0.05437797 -0.030626394 0.08511227 -0.11475363 0.17061219 -0.010388871 -0.09383876 -0.012609897
-0.06566903 -0.13871011 0.12509128 0.05793311 0.03536158 -0.15284048 -0.005348844 0.053901438
-0.031585827 -0.215352 -0.17280987 0.19866951 -0.12751544 -0.2069468 0.11074319 0.135153
0.024679633 -0.1443084 -0.003728429 0.10147008 -0.11978183 0.035414487 0.37463957 0.178205
-0.09714015 0.39762747 0.035025902 -0.021908386 -0.012755596 -0.048417505 -0.035292566 0.076380245
0.18637961 -0.12800361 0.017748881 0.11292832 0.0603311 0.13363712 -0.14580354 -0.00869753
-0.26043952 -0.26614052 -0.1110459 -0.0031617759 0.088426016 -0.1381001 -0.28874838 0.040615592
-0.22842102 0.12439102 -0.009258941 -0.20739777 -0.26805422 0.024344333 0.03916702 -0.06103435
00000000: b2b8 1d3e 999e 7bbe 04d0 dfbd fb82 c33d
00000010: 75d5 eebd 9830 8fbe 63e1 253e f5eb bdbd
00000020: 8fe6 bc3d 969c 31bc 551e 39be 7fc6 2b3c
00000030: 0856 08bd 4a32 b43d a3d3 703e fad7 233e
00000040: 8f3a 04bd 6653 773e e911 533d 7500 13be
00000050: 7140 99bd 4629 28bd 2ec2 013e ae55 433d
00000060: 45bb 913e 4b02 3c3c c24a 24be 2596 883e
00000070: 0048 55bd e895 ea3d e079 6ebe fbef 8e3c
00000080: 10cb 7bbe 7b2c 38be a515 a5be 78d1 8bbd
00000090: 38db cf3d b7db c0be 03ec 78be 73d7 283e
000000a0: 1b25 8dbd ea36 703e d776 ddbd d5d9 1cbc
000000b0: dc82 93be bf5f d13d 86b9 d73d a923 c83d
000000c0: 8504 41be 94b2 453e 9b79 99bd 6944 06be
000000d0: d801 6abd 06ed 10be 3c72 ddb9 3dfd 2dbe
000000e0: 07b8 29bd bc27 9a3c 60f5 2f3e 77ea 683d
000000f0: 325c 2cbe 324f 653c c6b5 293e 6d86 c2bd
00000100: a092 29be 5e09 4e3e 7e18 aa3c 8ce0 a53e
00000110: 1db0 cabd 2d1e 62be f779 6e3d 9035 00be
00000120: 9470 dbbc fc5c 123e 072b e63d e48a a13d
00000130: 50dd c13e 3fc7 12be b5fb c33d 9148 823d
00000140: 7ca6 b8bd ea4f 573d 9c3a bcbd fa24 e7bd
00000150: bf92 383e b461 20be 97be 31be c888 203e
00000160: 5ad6 103e 1e0d b83d a637 c8bd a872 93be
00000170: ab85 4abe f6df acbd 03ec bfbd 8d9d f2bd
00000180: e478 063d 8507 fbbb 88ca d1bd bc6a 98bd
00000190: bde0 04be 0805 02be af17 873d 7817 4cbd
000001a0: 4013 c1bc cdd7 0bbe 128a 64ba f1a6 7e3e
000001b0: f102 353e 6054 97bc 363b 61bc 37e4 423e
000001c0: 3664 20bd 360c eabd 46d7 d5bd dcea 28be
000001d0: 3fd2 563d d9fb cabb f820 803d 4d53 d13d
000001e0: 30ce 20bd 1d3c 6b3d 66cc 953d f8f8 073e
000001f0: aef9 683c 4490 083d 0135 453e f8b7 e83d
00000200: 6fbb 5ebd 34e4 fabc 584f ae3d f303 ebbd
00000210: f6b4 2e3e 1536 2abc 892e c0bd be99 4ebc
00000220: 7c7d 86bd 060a 0ebe ee17 003e 454b 6d3d
00000230: 4ed7 103d 3782 1cbe 5b45 afbb c1c7 5c3d
00000240: 2460 01bd 3c85 5cbe 12f5 30be 0570 4b3e
00000250: 6893 02be dde9 53be 53cd e23d 8c65 0a3e
00000260: f12c ca3c 95c5 13be a958 74bb 8ccf cf3d
00000270: 2d50 f5bd c80e 113d c2d0 bf3e 5f7b 363e
00000280: 6af1 c6bd d495 cb3e 5277 0f3d 3779 b3bc
00000290: d9fc 50bc 6f51 46bd f08e 10bd 3f6d 9c3d
000002a0: 4cda 3e3e 6113 03be 1a66 913c f746 e73d
000002b0: be1d 773d 2bd8 083e 864d 15be 1680 0ebc
000002c0: 5458 85be 9243 88be 086c e3bd cc35 4fbb
000002d0: b318 b53d 1d6a 0dbe d4d6 93be 895c 263d
000002e0: 33e7 69be b8c0 fe3d d0b2 17bc 1560 54be
000002f0: 673e 89be c46d c73c 996d 203d 28ff 79bd

lstm.bias_hh_l0 f4 [192]
0.08150441 -0.1843977 0.079452164 0.03160801 -0.07041227 -0.26293185 0.23289323 -0.14010082
0.16180484 0.04484377 0.048950307 0.24640882 0.09045392 0.14489017 0.13514206 0.27207047
0.018625917 0.24896462 -0.056213837 0.04764837 -0.058648124 -0.23039721 -0.04621206 0.12850028
0.2655154 -0.004783662 -0.1199148 0.29778314 0.05288488 0.22015215 -0.08711733 -0.07932564
-0.24564925 -0.18031067 -0.2766612 0.05439464 0.13855955 -0.12936659 -0.13275115 0.05061823
-0.29730135 0.21948402 -0.10899497 -0.014572482 -0.16377509 0.2492053 0.042513594 -0.12466061
-0.06904663 -0.039036095 -0.114380606 -0.062292125 -0.1926497 -0.0766581 -0.0229683 -0.08423078
-0.14337315 -0.07683646 0.19804958 -0.106871895 -0.19453374 -0.032109212 0.1666278 -0.063433476
-0.066747814 0.14579378 -0.0090998495 0.26810348 -0.110968366 -0.044652436 0.011035177 0.14835264
-0.040838398 0.04041159 0.0696925 -0.11723453 0.27070543 -0.08746885 0.03730933 0.016823718
0.016890384 -0.1291369 0.059747506 -0.14584874 0.13913876 0.03145698 0.026965622 -0.068410076
0.12518471 0.16471337 0.015018329 -0.17207944 -0.029982902 -0.11185741 0.069421485 -0.13060679
0.05194334 0.06572709 -0.15147096 -0.11108839 -0.08340502 0.034986913 0.1434985 -0.09031445
-0.27009976 -0.094869256 0.040995277 -0.021042775 0.044753194 0.12943557 0.030821243 0.027515901
-0.004029524 0.09599622 -0.1254824 0.0049318965 0.15306082 -0.041834354 0.20691414 0.021047793
-0.03333143 -0.074363336 0.0037426034 0.05089555 0.056862682 -0.043903142 -0.017806282 0.045747954
0.06227168 -0.08673063 0.034438018 -0.12501304 -0.06671909 0.02010993 0.1016942 0.038257856
0.010907408 -0.12725614 0.068695635 -0.069713384 -0.014958821 -0.019450221 0.22748251 0.0334053
0.062919244 -0.19293806 -0.04896371 0.022097182 -0.09647551 -0.15957928 0.20160212 -0.08559037
0.2304442 -0.15458407 -0.15171157 0.2620702 0.005588888 0.013036047 0.30047983 0.13308734
0.02464852 0.1836548 -0.11279602 -0.003782622 0.035959277 0.0019773268 0.079697154 -0.0058296504
0.11389217 0.021483986 0.11990301 0.06497459 0.21933612 0.14714138 -0.19117214 0.04362762
-0.26545933 -0.073487885 -0.22960982 0.012371254 0.2335409 -0.20243312 -0.25214434 0.12988612
-0.21404853 0.17331837 -0.07055024 -0.02555657 -0.109140314 0.02461188 0.11806239 0.03825856
00000000: c9eb a63d c0d2 3cbe d1b7 a23d 6777 013d
00000010: 4f34 90bd 019f 86be 907b 6e3e 9776 0fbe
00000020: 2bb0 253e 1aae 373d 1e80 483d 9852 7c3e
00000030: e83f b93d 175e 143e ae62 0a3e d24c 8b3e
00000040: 6195 983c 95f0 7e3e 7b40 66bd f02a 433d
00000050: 0439 70bd 3fed 6bbe db48 3dbd 9495 033e
00000060: a2f1 873e 44c0 9cbb e495 f5bd 0877 983e
00000070: d19d 583d 916f 613e 926a b2bd 7b75 a2bd
00000080: 7a8b 7bbe 5ca3 38be 89a6 8dbe eacc 5e3d
00000090: 8ee2 0d3e ad78 04be ebef 07be 1055 4f3d
000000a0: e237 98be 6bc0 603e c138 dfbd 6bc1 6ebc
000000b0: a8b4 27be ad2f 7f3e bc22 2e3d 104e ffbd
000000c0: 5268 8dbd 50e4 1fbd 6140 eabd 0726 7fbd
000000d0: f745 45be ecfe 9cbd 0428 bcbc 3081 acbd
000000e0: 69d0 12be 6f5c 9dbd 82cd 4a3e a7df dabd
000000f0: da33 47be f384 03bd 7aa0 2a3e 69e9 81bd
00000100: 14b3 88bd f74a 153e 8917 15bc dc44 893e
00000110: 6243 e3bd 79e5 36bd e3cc 343c c1e9 173e
00000120: 2a46 27bd a086 253d f1ba 8e3d a818 f0bd
00000130: e799 8a3e de22 b3bd abd1 183d e5d1 893c
00000140: b45d 8a3c 773c 04be cdb9 743d 5f59 15be
00000150: 647a 0e3e 09d9 003d 02e7 dc3c 951a 8cbd
00000160: 6c30 003e 9faa 283e 700f 763c 9835 30be
00000170: b49e f5bc 7f15 e5bd da2c 8e3d c9bd 05be
00000180: 8ac2 543d ed9b 863d 341b 1bbe 4f82 e3bd
00000190: 40d0 aabd 704e 0f3d 45f1 123e c8f6 b8bd
000001a0: 844a 8abe d04a c2bd aaea 273d e661 acbc
000001b0: 204f 373d c28a 043e d57c fc3c 0769 e13c
000001c0: 190a 84bb ab99 c43d 757e 00be bf9b a13b
000001d0: fabb 1c3e 805a 2bbd 4de1 533e 6c6c ac3c
000001e0: 8a86 08bd ce4b 98bd 7746 753b da77 503d
000001f0: d8e8 683d c8d3 33bd 7bde 91bc 3562 3b3d
00000200: 9710 7f3d d49f b1bd e10e 0d3d 6b03 00be
00000210: 05a4 88bd 94bd a43c 0c45 d03d 45b4 1c3d
00000220: fcb4 323c 6f4f 02be 4cb0 8c3d e4c5 8ebd
00000230: d815 75bc 1256 9fbc 2df1 683e ffd3 083d
00000240: cedb 803d 8e91 45be 2c8e 48bd 2605 b53c
00000250: f494 c5bd c068 23be c970 4e3e 014a afbd
00000260: 90f9 6b3e 494b 1ebe 475a 1bbe 112e 863e
00000270: fe22 b73b 2595 553c 7ed8 993e 0c48 083e
00000280: b1eb c93c 0110 3c3e 9a01 e7bd dee5 77bb
00000290: 094a 133d 0a96 013b 4338 a33d a706 bfbb
000002a0: 4c40 e93d 2fff af3c b68f f53d 6611 853d
000002b0: a699 603e 3bac 163e a1c2 43be e0b2 323d
000002c0: 49ea 87be d180 96bd d61e 6bbe cdb0 4a3c
000002d0: 5825 6f3e a14a 4fbe 1019 81be de00 053e
000002e0: 8a2f 5bbe 5f7a 313e a57c 90bd 035c d1bc
000002f0: f584 dfbd da9e c93c b2ca f13d 02b5 1c3d

lstm.weight_ih_l1 f4 [192, 48]
0.035573322 0.36381114 0.2154345 -0.08697606 0.06223077 0.053070504 -0.17913054 -0.30015957
-0.106585994 0.12428664 -0.12244612 0.08055358 -0.38265532 0.062223226 0.07152192 -0.010839345
0.38817272 0.05668455 0.13995357 0.2656007 0.0041245837 0.29574832 0.1324811 -0.09368908
-0.06103819 -0.07210927 -0.017352061 -0.07961875 -0.1061199 0.04862436 0.036215346 -0.074117705
0.39183947 0.25133845 0.19976239 0.36321115 -0.0089155305 0.34231383 0.08969884 0.32723904
-0.23759352 -0.054144137 -0.0786753 0.3073014 -0.15165499 0.10494555 0.115533985 0.3252
-0.12565199 0.15120882 0.33652532 0.19915695 0.26735583 0.055511706 -0.32818544 0.11623324
0.19333246 -0.031825468 0.010894887 -0.11166889 -0.28915453 -0.11148614 -0.16683869 -0.2992166
-0.015827172 -0.23220278 0.08933805 0.041455567 -0.2412427 0.07762234 -0.32324043 -0.27840546
-0.07177016 -0.23097111 -0.3261322 -0.042310122 0.029585274 0.03219751 -0.057942405 -0.17285064
0.08492477 0.081091866 -0.24782519 0.34497368 -0.14515361 -0.023794191 -0.012606611 -0.20160857
0.020791817 0.3070818 -0.18025643 0.09987761 -0.082042664 0.32108486 -0.3747921 -0.035358794
-0.20033859 0.32964456 0.08403718 0.027556447 0.0034853427 0.12906574 0.19031367 0.19190103
0.1328732 -0.24803363 -0.025337867 -0.07425275 0.07313519 -0.065429114 -0.1542462 -0.08977002
-0.08143017 -0.057238653 -0.11185573 0.022286668 0.011105942 0.096280925 0.05148159 -0.10632995
-0.10212711 -0.07864882 -0.28615728 0.003398417 0.025544247 -0.19970609 -0.18283267 0.060476065
0.039912984 0.30549973 0.010617608 0.05834741 0.117484026 0.14588922 -0.0018468358 -0.12510979
-0.22490089 -0.2190067 -0.12793407 0.08606983 -0.0050821723 0.17516816 -0.15961003 -0.011162017
-0.1389707 0.10603187 0.056259394 -0.13788821 -0.07599525 0.10096821 0.041681793 -0.23632272
-0.0038243074 -0.04283201 0.049414076 -0.09668955 -0.009847946 -0.053126935 0.04596676 -0.077461
0.1294456 -0.19013502 -0.21798591 0.13738212 -0.00173451 0.22992997 0.10388898 0.03264702
-0.09017676 -0.13943098 -0.115436174 -0.027923299 -0.031192413 0.029413354 0.12153768 -0.1039781
0.13956766 0.15684915 0.014823239 0.008650745 0.0835429 0.04293119 -0.08580515 -0.16609666
-0.080526106 -0.05937308 0.08291973 0.07886102 -0.20978607 0.07298366 -0.13977705 0.17800222
-0.06302376 0.18893026 0.035767917 0.039857816 0.33844548 0.10608359 -0.05304669 0.07661017
0.07357821 -0.13322426 0.10806559 -0.10715759 -0.26362553 0.00975256 -0.20805262 -0.14849328
0.13212958 -0.12945645 -0.13295552 -0.010721017 0.10324375 -0.076805584 -0.20636521 -0.12944438
-0.21302326 -0.05804616 -0.165693 0.016427146 0.17238848 0.075389944 -0.2817015 -0.05249729
-0.012184603 0.12991159 -0.02665213 0.112445496 -0.050672274 0.048599347 -0.13901207 -0.032580674
-0.17930259 0.010707149 -0.112823896 0.11174411 0.091406636 0.051893804 -0.2623584 0.07715692
-0.12590016 -0.054422636 0.08105408 0.14588109 -0.029983582 0.010599674 0.21287 0.16628894
0.054765046 0.041876715 -0.02845227 -0.123291165 -0.19330747 0.029866884 -0.3256759 -0.21529618
00000000: 55b5 113d 7445 ba3e dd9a 5c3e 8120 b2bd
00000010: b1e5 7e3d 7560 593d ff6d 37be 84ae 99be
00000020: c249 dabd fe89 fe3d 08c5 fabd 46f9 a43d
00000030: 66eb c3be c8dd 7e3d 167a 923d 8297 31bc
00000040: 93be c63e 0f2e 683d fd4f 0f3e d1fc 873e
00000050: 8427 873b 536c 973e 20a9 073e 0fe0 bfbd
00000060: 2e03 7abd 06ae 93bd e925 8ebc 280f a3bd
00000070: 6455 d9bd 562a 473d 8b56 143d 06cb 97bd
00000080: 2f9f c83e 6faf 803e 838e 4c3e d0f6 b93e
00000090: 7212 12bc c243 af3e 07b4 b73d e08b a73e
000000a0: b74b 73be 3ec6 5dbd 8420 a1bd 9c56 9d3e
000000b0: 724b 1bbe b1ed d63d 159d ec3d 9d80 a63e
000000c0: eaaa 00be 7cd6 1a3e 0c4d ac3e cdef 4b3e
000000d0: dde2 883e 3e60 633d ec07 a8be b10b ee3d
000000e0: f2f8 453e 6c5b 02bd 7880 323c a9b2 e4bd
000000f0: 100c 94be d852 e4bd c3d7 2abe eb32 99be
00000100: fca7 81bc 91c6 6dbe def6 b63d 50cd 293d
00000110: 5408 77be 76f8 9e3d c57f a5be 298b 8ebe
00000120: 3cfc 92bd b183 6cbe cdfa a6be 614d 2dbd
00000130: d15c f23c 89e1 033d 0455 6dbd c2ff 30be
00000140: 0aed ad3d 7e13 a63d e3c5 7dbe 64a0 b03e
00000150: 26a3 14be 09ec c2bc f58b 4ebc 7a72 4ebe
00000160: 9a53 aa3c d339 9d3e 2495 38be a28c cc3d
00000170: fc05 a8bd 3c65 a43e c0e4 bfbe 62d4 10bd
00000180: 8f25 4dbe 2cc7 a83e af1b ac3d 0fbe e13c
00000190: 596a 643b cf29 043e 96e1 423e b481 443e
000001a0: ea0f 083e 87fc 7dbe 5c91 cfbc d311 98bd
000001b0: e7c7 953d b3ff 85bd b7f2 1dbe 58d9 b7bd
000001c0: dcc4 a6bd 1473 6abd 9e14 e5bd 8892 b63c
000001d0: b2f5 353c ef2e c53d 5cde 523d 84c3 d9bd
000001e0: 0528 d1bd a212 a1bd 3583 92be fab7 5e3b
000001f0: 2b42 d13c c17f 4cbe 7d38 3bbe c0b5 773d
00000200: cc7b 233d 766a 9c3e 7af5 2d3c b2fd 6e3d
00000210: 779b f03d fc63 153e 8711 f2ba c81c 00be
00000220: 6b4c 66be 4b43 60be 2601 03be 6145 b03d
00000230: 5a88 a6bb 485f 333e d070 23be e4e0 36bc
00000240: 564e 0ebe 3d27 d93d 4070 663d 9132 0dbe
00000250: 66a3 9bbd 6cc8 ce3d 87ba 2a3d 95fe 71be
00000260: 3ba1 7abb 9e70 2fbd 6a66 4a3d 2c05 c6bd
00000270: 4859 21bc a19b 59bd a447 3c3d dfa3 9ebd
00000280: 638d 043e c1b2 42be b337 5fbe e6ad 0c3e
00000290: 7f58 e3ba c372 6b3e bfc3 d43d e2b8 053d
000002a0: 98ae b8bd ffc6 0ebe cd69 ecbd 67bf e4bc
000002b0: 3b87 ffbc 46f4 f03c bfe8 f83d 78f2 d4bd
000002c0: d3ea 0e3e 109d 203e 2cdd 723c dbbb 0d3c
000002d0: 8a18 ab3d 9ed8 2f3d 9cba afbd 3e15 2abe
000002e0: dfea a4bd 3031 73bd d2d1 a93d e381 a13d
000002f0: 29d2 56be 7578 953d b721 0fbe 3746 363e
00000300: 9a12 81bd ef76 413e 6181 123d f341 233d
00000310: ba48 ad3e 5a42 d93d 7c47 59bd cbe5 9c3d
00000320: 2cb0 963d f16b 08be 7e51 dd3d 7075 dbbd
00000330: edf9 86be 34c9 1f3c bf0b 55be 9f0e 18be
00000340: fa4c 073e 3b90 04be 7e25 08be 34a7 2fbc
00000350: 7671 d33d 3f4c 9dbd 6751 53be 118d 04be
00000360: c522 5abe cfc1 6dbd 6dab 29be 3992 863c
00000370: 9b86 303e 0b66 9a3d 2e3b 90be 6607 57bd
00000380: eea1 47bc 8b07 053e 9155 dabc d349 e63d
00000390: bb8d 4fbd 1c10 473d 2e59 0ebe 5073 05bd
000003a0: 199b 37be 0a6d 2f3c 3710 e7bd 19da e43d
000003b0: 6733 bb3d 998e 543d d753 86be 7304 9e3d
000003c0: f9eb 00be 45ea 5ebd aeff a53d da61 153e
000003d0: 21a0 f5bc 41aa 2d3c 98fa 593e a647 2a3e
000003e0: 5051 603d eb86 2b3d bc14 e9bc 1480 fcbd
000003f0: 65f2 45be 65ab f43c febe a6be 9a76 5cbe

lstm.weight_hh_l1 f4 [192, 48]
0.045832787 -0.09629233 -0.03146477 -0.35887185 -0.1813161 0.10774355 -0.04225467 -0.014362993
0.04260549 -0.2517043 -0.09398905 0.1243398 0.18674996 -0.030094199 -0.36652318 0.043205887
-0.06846993 0.07009237 0.1270593 -0.12771474 0.13147329 0.047271714 -0.035646573 -0.103195034
-0.14299187 -0.11801017 -0.13624308 0.0040730787 0.10505871 0.0045129214 0.14963003 -0.026217837
0.02690147 -0.23475203 0.061408684 0.08784364 0.19414996 0.12748858 0.21599965 0.14514899
0.041008785 -0.04794315 -0.001765316 0.07642556 -0.09050469 -0.2220902 0.15801021 0.03711771
0.060671356 -0.14312015 -0.11429676 -0.08988619 0.02582458 0.17866059 -0.12964676 -0.01218029
0.082401834 0.19450279 0.038932905 0.027149407 0.08885912 -0.065813035 -0.06410463 -0.073248535
-0.13883728 0.062130615 0.14303741 0.14218734 0.0864633 -0.09797852 0.08619771 0.10060423
0.05163555 0.083613336 -0.06363109 0.01923332 0.13049042 -0.14825775 0.023913344 -0.028770152
0.17306244 -0.072755605 -0.082299575 -0.0851907 -0.060924165 0.0962981 0.16696852 -0.10391535
0.13093571 -0.08885294 0.23272583 -0.07363408 0.11408458 -0.072842106 -0.06658595 -0.14269407
-0.08984997 -0.05006882 -0.20913865 -0.044553258 -0.12375814 -0.15706398 0.02231979 -0.07198179
0.057071608 -0.03969914 0.014215734 -0.0237844 -0.0065172883 0.09153457 0.02338415 -0.08541836
-0.16490483 -0.10796183 0.011784624 0.2347929 -0.043704 -0.017243322 -0.06936362 -0.030669121
0.012288713 -0.13380332 -0.07615879 0.03354465 0.21981183 -0.029027708 0.19684653 -0.015419304
0.08928376 0.05457425 0.041793644 -0.10284695 0.14884743 -0.10566681 0.074864276 -0.018565597
-0.032230243 -0.06097213 0.23616128 -0.18944421 0.18161955 -0.115737274 -0.04919221 -0.12880826
0.053356085 0.034380894 0.037209384 -0.29579157 -0.1036206 0.14298551 0.08093934 -0.04635448
-0.01896672 -0.19003898 -0.1684619 0.09249166 0.1286444 -0.08841528 -0.20662588 0.089843735
-0.19695848 0.16839883 0.100404784 -0.16258378 0.04210535 -0.06940333 0.058571294 0.0790421
-0.22626975 -0.0005511048 -0.114504024 -0.026204789 -0.040011637 0.12862703 0.057428654 0.12483874
0.11109762 0.12241081 -0.0030959586 -0.009508157 -0.1489938 0.13817018 -0.09882522 -0.117929585
0.020932082 0.051042352 -0.08992592 0.09260763 0.07801555 -0.14555106 0.033946928 -0.03177105
-0.24277921 -0.1545445 -0.00836814 0.039881464 -0.15692696 0.17504328 -0.24003498 -0.12582727
0.08648172 0.31654152 0.09751134 0.050019655 -0.044949334 0.16649622 0.051756527 -0.13843171
0.0043363892 -0.26437554 0.048973486 -0.06170599 0.012191492 0.050504677 -0.040374674 0.11016294
0.04804939 0.08255241 -0.07977323 -0.123358496 0.13555388 -0.018227968 0.027590604 0.06779176
0.18159407 -0.06069972 0.11663405 0.022421317 0.087242246 -0.12382358 0.012996635 -0.07375667
-0.10868515 -0.40299997 0.07553219 0.037493415 -0.06100683 -0.04589876 0.024785144 0.011485455
-0.061800454 -0.18550052 -0.25800642 -0.07805445 0.033946514 0.039837584 -0.15778074 0.019034851
0.085695416 -0.04333274 0.06905255 -0.0026168898 0.034176614 0.14708029 -0.04906701 -0.085207336
00000000: 29bb 3b3d ea34 c5bd 34e1 00bd 0dbe b7be
00000010: edaa 39be a6a8 dc3d 3c13 2dbd c252 6bbc
00000020: 1883 2e3d 63df 80be 557d c0bd dda5 fe3d
00000030: 623b 3f3e 1c88 f6bc eda8 bbbe a8f8 303d
00000040: f639 8cbd 978c 8f3d d51b 023e a7c7 02be
00000050: efa0 063e fc9f 413d 2402 12bd eb57 d3bd
00000060: 766c 12be 51af f1bd 4e83 0bbe 7677 853b
00000070: 0529 d73d 21e1 933b 9d38 193e cac6 d6bc
00000080: 7960 dc3c d662 70be ac87 7b3d 5ee7 b33d
00000090: 3fcf 463e 5e8c 023e 032f 5d3e f0a1 143e
000000a0: d4f8 273d 0960 44bd 2d62 e7ba 0185 9c3d
000000b0: 865a b9bd 9d6b 63be 6ecd 213e bd08 183d
000000c0: 8782 783d 178e 12be 6b14 eabd 4016 b8bd
000000d0: 128e d33c cdf2 363e 1fc2 04be d78f 47bc
000000e0: 4bc2 a83d bd2b 473e 1c78 1f3d 6f68 de3c
000000f0: c5fb b53d fcc8 86bd 4a49 83bd 5403 96bd
00000100: 5c2b 0ebe ac7c 7e3d 6678 123e 8f99 113e
00000110: ac13 b13d f6a8 c8bd 6d88 b03d 9709 ce3d
00000120: cc7f 533d 783d ab3d 0451 82bd 328f 9d3c
00000130: 489f 053e e1d0 17be ebe5 c33c 62af ebbc
00000140: 4837 313e e400 95bd ae8c a8bd 7678 aebd
00000150: 9e8b 79bd f037 c53d ccf9 2a3e 92d1 d4bd
00000160: 0314 063e 88f8 b5bd ae4f 6e3e 77cd 96bd
00000170: 2da5 e93d 3e2e 95bd 375e 88bd 651e 12be
00000180: 4303 b8bd f714 4dbd 7128 56be 7a7d 36bd
00000190: e874 fdbd 61d5 20be fed7 b63c 306b 93bd
000001a0: ebc3 693d 919b 22bd 1ce9 683c 81d7 c2bc
000001b0: fa8e d5bb 7a76 bb3d 1e90 bf3c d2ef aebd
000001c0: d0dc 28be 181b ddbd 4c14 413c 8d6d 703e
000001d0: f702 33bd de41 8dbc 830e 8ebd cf3d fbbc
000001e0: 9956 493c bd03 09be 24f9 9bbd 1d66 093d
000001f0: 5a16 613e 84cb edbc 2392 493e 40a1 7cbc
00000200: 67da b63d 4089 5f3d d02f 2b3d 6ca1 d2bd
00000210: 766b 183e d767 d8bd 7152 993d e116 98bc
00000220: dc03 04bd eabd 79bd 43d4 713e aafd 41be
00000230: 7afa 393e aa07 edbd c57d 49bd 50e6 03be
00000240: e98b 5a3d fbd2 0c3d de68 183d fe71 97be
00000250: 0a37 d4bd cb6a 123e 86c3 a53d 32de 3dbd
00000260: 1860 9bbc 9499 42be 4781 2cbe 446c bd3d
00000270: 5cbb 033e 1213 b5bd bc95 53be feff b73d
00000280: 7caf 49be be70 2c3e 06a1 cd3d 5d7c 26be
00000290: a976 2c3d 5523 8ebd 74e8 6f3d d3e0 a13d
000002a0: 42b3 67be 0478 10ba 1681 eabd 6dab d6bc
000002b0: 3ee3 23bd ceb6 033e 4f3a 6b3d 74ab ff3d
000002c0: 2687 e33d 85b2 fa3d 91e5 4abb 1ac8 1bbc
000002d0: d591 18be 7c7c 0d3e e064 cabd 1185 f1bd
000002e0: c279 ab3c c911 513d 152b b8bd 12a9 bd3d
000002f0: 9ec6 9f3d 560b 15be ef0b 0b3d 5c22 02bd
00000300: 1d9b 78be ea40 1ebe 861a 09bc bf5a 233d
00000310: 76b1 20be 8c3e 333e bbcb 75be ddd8 00be
00000320: 541d b13d bb11 a23e 07b4 c73d 69e1 4c3d
00000330: cb1c 38bd fc7d 2a3e a7fe 533d 0bc1 0dbe
00000340: 4518 8e3b 3b5c 87be 6c98 483d 6cbf 7cbd
00000350: d3be 473c fedd 4e3d ea5f 25bd 1c9d e13d
00000360: 70cf 443d 3d11 a93d 2660 a3bd 61a3 fcbd
00000370: a3ce 0a3e d252 95bc b105 e23c 68d6 8a3d
00000380: ccf3 393e 45a0 78bd d5dd ee3d e9ac b73c
00000390: 10ac b23d 3897 fdbd d7ef 543c bd0d 97bd
000003a0: 5296 debd 0356 cebe 9fb0 9a3d b292 193d
000003b0: 4ce2 79bd 5700 3cbd 370a cb3c 7d2d 3c3c
000003c0: 7922 7dbd d9f3 3dbe 6b19 84be 03db 9fbd
000003d0: 800b 0b3d bc2c 233d 4691 21be faee 9b3c
000003e0: 1481 af3d ac7d 31bd 6c6b 8d3d 2080 2bbb
000003f0: c7fc 0b3d 379c 163e 7dfa 48bd 2f81 aebd

lstm.bias_ih_l1 f4 [192]
-0.0883176 -0.0047261924 0.15922171 0.02315106 0.07676184 -0.055027265 0.10889128 0.13223328
-0.014413083 -0.13189173 0.03779858 -0.1667041 0.18050696 0.16987348 0.15917964 0.09060006
0.05391488 -0.14409593 0.12613523 -0.0327552 0.026365617 0.10873533 0.2024808 0.22802933
0.16394646 -0.07063316 0.19809337 0.12111009 -0.05263477 0.12881492 0.39792854 0.16736014
-0.07616866 0.19146386 0.12102935 0.19842888 0.032439917 -0.2441927 0.09926613 -0.21127304
0.21839225 -0.07239665 -0.08845202 0.25676927 -0.037711 0.10946484 0.019322077 -0.027368234
-0.030545963 -0.19075955 -0.0700537 -0.24247515 -0.12621166 0.074978665 -0.096162915 0.030039093
0.023128757 -0.077547945 0.023451105 0.003211312 -0.027749995 -0.20955011 -0.1682194 0.029543743
-0.04918656 -0.21881746 -0.1674089 -0.08023658 0.09008747 -0.122993164 -0.16829498 -0.032185763
-0.08875195 -0.04216402 -0.11465599 0.015639618 -0.1635798 -0.21736285 -0.077596776 0.12572068
-0.15024322 -0.15862297 -0.024948023 -0.014012901 0.042372122 -0.019524597 -0.13134465 -0.051235195
-0.13896683 0.08229093 0.06346007 -0.0973964 0.116465025 -0.110876486 -0.18279274 -0.15979248
0.11759577 0.05238561 0.07456642 0.02864859 -0.06322063 0.091108754 0.01841251 0.017734924
-0.118467756 0.11380651 -0.20585638 -0.060637757 0.12363015 0.08312262 -0.012881146 0.06879158
0.053392574 -0.14438017 -0.033624012 -0.14839959 0.10320297 -0.025793277 0.1013713 0.26890695
0.0457166 -0.07370401 0.08939033 -0.15225504 0.053734362 -0.019381853 -0.06712234 -0.14004219
-0.13645308 -0.06718363 -0.098871104 0.0703946 -0.17334415 -0.057316314 -0.05437574 -0.10454583
0.008046848 -0.08087338 0.031914722 0.0158929 -0.085730776 0.09237382 -0.048847675 -0.06657191
0.12889695 -0.060516797 0.052908033 0.07462475 0.11165254 0.10897682 -0.037621506 0.043296304
0.020744834 -0.06116476 0.11310385 0.04013169 0.22611682 0.014107723 -0.041440837 0.068167165
-0.10027271 0.11164976 0.08557553 -0.09840786 0.0020252634 0.04181692 0.16776758 0.07252861
0.2641734 0.16317299 0.0125181265 -0.014280455 0.0016431111 -0.111675836 0.26947755 0.13228732
0.010941616 0.12772346 -0.09280178 0.16981702 0.10954723 -0.16647552 0.10915416 -0.13710478
-0.012511641 -0.15617271 0.11964914 0.20103571 -0.10115094 0.058928512 -0.049293775 0.012227112
00000000: dcdf b4bd 2dde 9abb 040b 233e 4ba7 bd3c
00000010: 5035 9d3d 4564 61bd 6402 df3d 2968 073e
00000020: da24 6cbc a00e 07be afd2 1a3d 7bb4 2abe
00000030: d1d6 383e 50f3 2d3e fdff 223e 868c b93d
00000040: d9d5 5c3d e28d 13be 9829 013e 512a 06bd
00000050: b5fc d73c a1b0 de3d 2057 4f3e 8580 693e
00000060: 95e1 273e 1ea8 90bd fdd8 4a3e 9108 f83d
00000070: 8e97 57bd 0fe8 033e 4abd cb3e 7560 2b3e
00000080: 50fe 9bbd 1a0f 443e 3cde f73d f130 4b3e
00000090: b8df 043d a70d 7abe 0a4c cb3d f657 58be
000000a0: 38a2 5f3e b244 94bd 5526 b5bd 4377 833e
000000b0: d976 1abd 1a2f e03d 5549 9e3c 5933 e0bc
000000c0: 873b fabc 7956 43be 5078 8fbd 684b 78be
000000d0: a13d 01be 6a8e 993d 10f1 c4bd 8b14 f63c
000000e0: 8578 bd3c 75d1 9ebd 881c c03c e074 523b
000000f0: f553 e3bc 4e94 56be b541 2cbe b805 f23c
00000100: d977 49bd af11 60be 3d6d 2bbe 1353 a4bd
00000110: c87f b83d d7e3 fbbd 8555 2cbe 38d5 03bd
00000120: 95c3 b5bd 2eb4 2cbd c2d0 eabd a81e 803c
00000130: 7781 27be 5e94 5ebe 0feb 9ebd ecbc 003e
00000140: 5cd9 19be 0f6e 22be cc5f ccbc 5e96 65bc
00000150: 648e 2d3d 0cf2 9fbc 367f 06be ffdb 51bd
00000160: 524d 0ebe 2688 a83d 5af7 813d c477 c7bd
00000170: 3785 ee3d 3613 e3bd 052e 3bbe a4a0 23be
00000180: 0dd6 f03d 4b92 563d 47b6 983d 73b0 ea3c
00000190: d179 81bd 3a97 ba3d d5d5 963c d548 913c
000001a0: 399f f2bd 6313 e93d 04cc 52be 4c5f 78bd
000001b0: ce31 fd3d 313c aa3d 710b 53bc 9ae2 8c3d
000001c0: 2cb2 5a3d 65d8 13be 55b9 09bd 10f6 17be
000001d0: 145c d33d 6c4c d3bc c29b cf3d 2cae 893e
000001e0: 5441 3b3d 21f2 96bd 4712 b73d bfe8 1bbe
000001f0: 9018 5c3d b1c6 9ebc 7077 89bd 3867 0fbe
00000200: 5bba 0bbe 9297 89bd ef7c cabd 0b2b 903d
00000210: 2181 31be 83c4 6abd 19b9 5ebd 201c d6bd
00000220: edd6 033c f1a0 a5bd 03b9 023d d431 823c
00000230: 9e93 afbd 7c2e bd3d 8014 48bd db56 88bd
00000240: 90fd 033e 76e0 77bd 18b6 583d dcd4 983d
00000250: 16aa e43d 3d2f df3d 0219 1abd 7757 313d
00000260: 12f1 a93c e687 7abd fea2 e73d 2161 243d
00000270: 2b8b 673e 1424 673c debd 29bd 3a9b 8b3d
00000280: c75b cdbd a1a8 e43d 3942 af3d 0f8a c9bd
00000290: 48ba 043b 3848 2b3d 44cb 2b3e e189 943d
000002a0: bc41 873e d216 273e d418 4d3c 92f8 69bc
000002b0: a95d d73a 4db6 e4bd f6f8 893e 5476 073e
000002c0: 7744 333c f0c9 023e dc0e bebd 83e4 2d3e
000002d0: 4c5a e03d 8f78 2abe 378c df3d 3265 0cbe
000002e0: a0fd 4cbc bdeb 1fbe 9c0a f53d 4edc 4d3e
000002f0: 3928 cfbd 065f 713d 45e8 49bd 3a54 483c

lstm.bias_hh_l1 f4 [192]
0.10337955 -0.04679836 0.06900405 0.28116384 -0.04746252 -0.019989619 0.17468204 0.15425524
-0.11855184 -0.013444774 0.12573805 0.029719368 0.23255785 -0.06235422 0.18222246 0.1797846
0.015440151 -0.118508086 0.30818495 -0.13451919 0.10120012 0.062015124 0.16122282 0.036966756
0.2920811 -0.0034667964 0.006350729 0.17847559 -0.10640739 -0.099718325 0.3244739 0.08905108
-0.040653214 -0.06105072 0.15974154 -0.029670266 0.036655106 -0.28437075 0.19569361 -0.25004107
0.037971664 0.04515909 0.0074344417 0.11195698 -0.08678832 -0.020680698 0.101635784 -0.10340153
-0.20926173 -0.09788549 -0.058023285 0.00039940875 0.101856485 0.041616324 0.057478588 -0.14801964
-0.028280832 -0.09734912 -0.09017839 -0.14018574 -0.001572041 -0.0436723 -0.13850406 -0.10389142
-0.09207753 -0.11433379 -0.13165504 -0.07658801 -0.047001746 -0.27722475 -0.1303909 0.07150858
0.00038973184 -0.14986429 0.11025086 0.03286418 0.040143773 -0.22995512 -0.08896167 0.11685652
-0.07026208 -0.001720848 0.094585866 -0.09781459 0.0012133253 -0.05092628 -0.20477031 -0.20601942
0.036491945 -0.121168815 -0.099700846 -0.15729994 0.058746457 -0.10719399 -0.114613466 0.017126203
-0.06344379 0.11562628 0.003278008 -0.11386481 0.1076936 0.10670304 -0.080266625 0.19318825
-0.15427262 -0.05396842 -0.22519614 -0.11057717 -0.089644656 0.06773505 0.12238624 0.17592949
0.0748939 0.104027346 -0.08447518 0.003094021 0.115891494 0.055676147 -0.076181345 0.29166645
0.02196678 0.1272994 0.08501046 -0.1437458 0.046270493 0.0005856461 -0.049248498 -0.20768143
-0.071940206 0.029658537 -0.2163835 0.00081829523 -0.12511532 -0.08335014 0.032378647 -0.02207762
0.051324423 -0.11088158 -0.023509119 -0.059524473 0.015863689 -0.019204902 -0.044340774 -0.11555178
-0.11102402 -0.0099398475 0.15255643 0.21147187 0.16486278 0.069957815 -0.048797887 0.100789875
-0.14975291 0.07160158 0.060368046 -0.013884516 0.08398227 -0.041281212 0.098419346 -0.083102316
0.034499235 -0.11820247 0.23768046 -0.05535043 0.15447305 0.09644288 -0.013729478 0.15707606
0.20962466 0.078969344 0.20390782 -0.11720218 0.14114007 -0.006635257 0.32799935 -0.085843235
-0.002872624 0.17035589 0.121366985 -0.095811315 0.07118173 -0.31949294 0.051223453 -0.33833346
0.10890555 -0.18026182 -0.08218183 0.0675415 -0.22811322 0.111027464 0.036794357 -0.12656616
00000000: a8b8 d33d a3af 3fbd ff51 8d3d b5f4 8f3e
00000010: 0f68 42bd 45c1 a3bc d9df 323e 16f5 1d3e
00000020: 4fcb f2bd 7847 5cbc 7ac1 003e 0876 f33c
00000030: a523 6e3e 2367 7fbd 8698 3a3e 7419 383e
00000040: b0f8 7c3c 5eb4 f2bd 6bca 9d3e 66bf 09be
00000050: 0242 cf3d 9203 7e3d 9817 253e 746a 173d
00000060: a78b 953e 3133 63bb c719 d03b 4ec2 363e
00000070: 1eec d9bd 1f39 ccbd 7121 a63e 6a60 b63d
00000080: fc83 26bd 5210 7abd 4993 233e 0f0f f3bc
00000090: aa23 163d 0b99 91be e863 483e 6205 80be
000000a0: 2d88 1b3d bdf8 383d 9e9c f33b b349 e53d
000000b0: 13be b1bd 916a a9bc 6c26 d03d 2ec4 d3bd
000000c0: b548 56be 3078 c8bd d3a9 6dbd bc67 d139
000000d0: 229a d03d e175 2a3d ab6e 6b3d 7692 17be
000000e0: 34ad e7bc fa5e c7bd 73af b8bd da8c 0fbe
000000f0: f10c ceba bae1 32bd 02d4 0dbe 06c5 d4bd
00000100: 2593 bcbd d627 eabd 94d0 06be 2dda 9cbd
00000110: e784 40bd 67f0 8dbe 3185 05be 1773 923d
00000120: ec54 cc39 0676 19be 34cb e13d 979c 063d
00000130: cc6d 243d 5b79 6bbe 8931 b6bd 7952 ef3d
00000140: 91e5 8fbd 148e e1ba 3cb6 c13d 0453 c8bd
00000150: 7108 9f3a 1398 50bd 4faf 51be c1f6 52be
00000160: 9478 153d 5b27 f8bd f52f ccbd 3c13 21be
00000170: 20a0 703d 8688 dbbd 77ba eabd 404c 8c3c
00000180: d1ee 81bd 79cd ec3d d9d3 563b f431 e9bd
00000190: 768e dc3d 2087 da3d d462 a4bd 24d3 453e
000001a0: a4f9 1dbe fd0d 5dbd d199 66be 4976 e2bd
000001b0: 9e97 b7bd adb8 8a3d a3a5 fa3d dc26 343e
000001c0: f961 993d 4a0c d53d 5301 adbd 0fc5 4a3b
000001d0: 8558 ed3d ac0c 643d f704 9cbd 4e55 953e
000001e0: adf3 b33c c65a 023e f719 ae3d 1932 13be
000001f0: 2186 3d3d 0b86 193a cbb8 49bd 71aa 54be
00000200: 6355 93bd 76f6 f23c a393 5dbe dd82 563a
00000210: 3b1e 00be 7ab3 aabd 799f 043d 20dc b4bc
00000220: 8f39 523d e215 e3bd 3296 c0bc efcf 73bd
00000230: 91f4 813c 9953 9dbc ac9e 35bd 69a6 ecbd
00000240: 9060 e3bd beda 22bc c137 1c3e 158c 583e
00000250: cad1 283e 0b46 8f3d 4be0 47bd ec6a ce3d
00000260: d458 19be d9a3 923d 7c44 773d e27b 63bc
00000270: e5fe ab3d 7d16 29bd 1590 c93d 8c31 aabd
00000280: 124f 0d3d 2314 f2bd 8262 733e 22b7 62bd
00000290: 2f2e 1e3e d883 c53d 9bf1 60bc 8cd8 203e
000002a0: d9a7 563e aeba a13d 36cd 503e b207 f0bd
000002b0: 0687 103e 926c d9bb 88ef a73e 94ce afbd
000002c0: a242 3cbb c671 2e3e 418f f83d b938 c4bd
000002d0: bac7 913d 9494 a3be afcf 513d 0b3a adbe
000002e0: df09 df3d 8e96 38be f34e a8bd 3353 8a3d
000002f0: 8396 69be 5e62 e33d aeb5 163d 8f9a 01be

linear.weight f4 [2, 48]
0.2132198 0.14811586 0.0642719 -0.3031479 0.110412955 -0.04706989 0.08519885 0.14061
0.0333293 0.08610656 -0.0793262 -0.0071602506 0.258992 0.13843086 0.1337087 0.17099711
0.12966956 0.13445096 -0.25422546 0.017406303 0.25758877 0.17887123 -0.29244637 0.22072406
-0.25437286 -0.14416122 0.25069705 -0.2386583 -0.16847335 -0.13290507 -0.27081788 0.009743013
-0.08002403 0.100108415 -0.07599076 0.14168805 -0.101564154 -0.0065937443 0.012261341 0.08198767
0.35587484 0.15450226 -0.19404925 0.27679852 -0.042068686 -0.23634976 -0.17963472 0.11220159
-0.030684993 0.11303756 0.18433847 0.16039433 0.12846863 0.20807974 0.19487363 0.13179818
-0.22480305 0.12572108 -0.2417903 -0.1594466 -0.041619197 0.14970545 0.16868629 0.10852368
0.09118641 -0.04542294 0.0068840166 -0.15796918 -0.022194646 -0.20975181 0.23389396 0.13971369
0.029953364 0.21796915 0.12507486 -0.0666138 -0.08881798 0.19376913 0.077326834 -0.26201978
-0.14441448 0.14746101 -0.22788101 0.23690581 -0.21642634 -0.0008906768 -0.22203152 0.028153053
-0.11806637 0.08072237 -0.10392086 -0.030373175 0.13190515 0.058218114 -0.13111162 -0.2182688
00000000: 4b56 5a3e afab 173e fca0 833d 3436 9bbe
00000010: 3020 e23d 5bcc 40bd bc7c ae3d 11fc 0f3e
00000020: 4e84 083d a358 b03d c675 a2bd 89a0 eabb
00000030: 999a 843e d2c0 0d3e efea 083e de19 2f3e
00000040: 19c8 043e 83ad 093e d729 82be aa97 8e3c
00000050: ade2 833e 052a 373e 88bb 95be 7d05 623e
00000060: 293d 82be 009f 13be 5d5b 803e d762 74be
00000070: 4784 2cbe 4418 08be a4a8 8abe 29a1 1f3c
00000080: a3e3 a3bd a405 cd3d 0ba1 9bbd ac16 113e
00000090: de00 d0bd 5610 d8bb cbe3 483c 27e9 a73d
000000a0: 3a35 b63e d735 1e3e d9b4 46be 89b8 8d3e
000000b0: 3750 2cbd ac05 72be 2af2 37be f2c9 e53d
000000c0: 185f fbbc 3c80 e73d 39c3 3c3e 693e 243e
000000d0: 488d 033e db12 553e f48c 473e 1af6 063e
000000e0: c532 66be 07bd 003e e097 77be f845 23be
000000f0: e478 2abd 634c 193e 19bc 2c3e aa41 de3d
00000100: f1bf ba3d 680d 3abd 5193 e13b acc2 21be
00000110: 8cd1 b5bc 2ec9 56be e681 6f3e 1b11 0f3e
00000120: c260 f53c 4e33 5f3e a013 003e d16c 88bd
00000130: 33e6 b5bd 6a6b 463e 885d 9e3d 7527 86be
00000140: 64e1 13be 0500 173e a459 69be 7097 723e
00000150: de9e 5dbe 4f7c 69ba 3b5c 63be 3ba1 e63c
00000160: c8cc f1bd c551 a53d 76d4 d4bd 2ad1 f8bc
00000170: 2512 073e 1e76 6e3d 2042 06be db81 5fbe

linear.bias f4 [2]
0.19451597 0.072386175
00000000: 322f 473e 343f 943d
