checkpoint/training_epochs_200_stepsize_7_gamma_0.75/model_epoch10.pth (torch, 117569 bytes, 10 tensors)

lstm.weight_ih_l0 f4 [192, 2]
-0.15029654 -0.0819385 -0.17757918 -0.044028584 0.054944593 0.004714201 0.0915885 0.085955665
0.23495509 0.031025117 -0.10928461 0.055221293 0.1503174 0.120005734 0.13495773 0.10657842
0.20630346 0.13114266 -0.13566612 0.1075393 0.15277196 0.04325305 -0.037576724 0.027329523
0.12195706 -0.13488379 0.030421937 -0.019997666 0.38063207 0.1463359 0.18625706 0.05284797
-0.05681697 -0.056803737 0.14808275 -0.039889652 0.050615087 0.121024445 -0.086132005 -0.12720892
-0.042240787 -0.1896675 -0.10197592 0.0019579814 0.19550224 0.044507075 0.22329596 0.22007109
-0.11810789 -0.035801563 0.0868423 0.2749112 0.016969636 0.07118454 0.017994044 0.05433012
0.1938966 -0.12479722 0.21000142 -0.15646909 -0.091662936 -0.1276822 0.08920664 0.01308079
-0.22058356 -0.2760134 -0.21249275 -0.30328044 0.00860462 0.19483417 0.1645792 0.073496066
0.16205393 0.08693645 0.041184198 -0.18481556 -0.030152082 -0.18866001 -0.043066893 -0.0656377
-0.15707234 -0.0593098 0.12670892 0.038576618 0.05731961 0.038296275 -0.0077272104 -0.13708301
-0.1681268 0.08014834 -0.0032375958 0.0073013855 0.1367899 0.04534082 -0.13224661 -0.020716205
0.07273787 0.05994914 0.059812203 0.036589894 -0.1802116 -0.048511393 -0.028915225 0.092829004
0.032595843 0.19008096 0.002675748 0.067955196 -0.14666016 0.08037311 -0.052887782 -0.01686078
0.21152149 0.21260117 0.08070403 0.029729813 0.20074646 0.22912249 -0.06281637 0.03214663
-0.049513 0.08255693 0.32811 0.018354652 0.21110179 0.21367575 0.026438348 -0.09733694
-0.22297913 -0.16444772 -0.08574053 -0.15802863 0.033230554 0.069129676 0.17600963 0.13684212
-0.06474154 -0.07152227 -0.14688101 0.044400077 -0.008342682 0.039448213 0.21843833 0.20023258
0.11355039 -0.003303811 0.066303596 0.3478207 -0.12822448 0.004576771 0.17747755 -0.19025552
0.25147036 0.10367531 0.16299172 -0.007171584 0.06824399 -0.1313472 0.14142103 0.24354817
-0.07342694 -0.1380302 0.10606614 -0.014322111 0.15259571 0.017119085 -0.066830695 -0.0070417915
0.19995403 0.12455486 0.08197298 -0.06989753 0.07117984 -0.20011203 0.060849868 -0.2234664
-0.07160315 -0.24457808 0.056749135 0.059533473 0.03511855 0.2766044 -0.06768059 -0.0854186
0.12990102 -0.03498963 0.15975602 0.08212764 0.100899264 0.10812284 -0.018221308 -0.15285099
0.013923757 -0.20158173 0.06834924 0.20666684 0.09028411 0.29511374 -0.016344193 0.35185683
0.17468011 0.24248107 0.03699753 0.21712554 -0.29183474 0.08237925 -0.008047753 0.28819948
0.33012605 0.19326647 0.23170267 0.11337657 -0.001286204 -0.30344495 -0.09013563 -0.32871905
-0.1746909 -0.2570952 -0.26339576 0.02950707 0.104721755 -0.43730515 -0.100794405 -0.22830643
0.22982873 -0.0667705 0.20894666 -0.26697645 0.1366378 0.26802358 0.17523788 0.23298612
-0.12490761 -0.092210874 0.1814957 -0.048845798 -0.15327144 -0.29167098 -0.1404285 -0.30725643
0.12952577 -0.13477263 -0.01422045 -0.32487532 0.09055858 -0.21421985 -0.3023876 0.08323816
-0.21832645 0.0962289 0.2356802 -0.29835436 -0.2650213 -0.06496999 0.015986234 -0.3503312
00000000: 56e7 19be 5fcf a7bd 51d7 35be 5157 34bd
00000010: 950d 613d 9679 9a3b c092 bb3d 8609 b03d
00000020: 1198 703e 6328 fe3c 9cd0 dfbd b92f 623d
00000030: ceec 193e 91c5 f53d 5c32 0a3e c945 da3d
00000040: 3741 533e 434a 063e 0fec 0abe 913d dc3d
00000050: 4170 1c3e 1c2a 313d 0dea 19bd 2ae2 df3c
00000060: a0c4 f93d fa1e 0abe 6d37 f93c 25d2 a3bc
00000070: 35e2 c23e 14d9 153e 2cba 3e3e 1d77 583d
00000080: e9b8 68bd 09ab 68bd 01a3 173e 5563 23bd
00000090: c451 4f3d aadb f73d fa65 b0bd 0e43 02be
000000a0: ad04 2dbd 3238 42be c0d8 d0bd 7a51 003b
000000b0: bd31 483e 0d4d 363d b2a7 643e 515a 613e
000000c0: 8de2 f1bd a9a4 12bd 60da b13d 29c1 8c3e
000000d0: e803 8b3c 33c9 913d 3f68 933c 4389 5e3d
000000e0: d58c 463e af95 ffbd 9d0a 573e 6f39 20be
000000f0: c7b9 bbbd 1fbf 02be f9b1 b63d cf50 563c
00000100: a8e0 61be a151 8dbe b397 59be 9347 9bbe
00000110: 64fa 0c3c 9c82 473e 7387 283e 1b85 963d
00000120: 77f1 253e bd0b b23d c3b0 283d 4a40 3dbe
00000130: 8001 f7bc 1730 41be e966 30bd 0f6d 86bd
00000140: 92d7 20be d5ee 72bd fcbf 013e 8402 1e3d
00000150: f8c7 6a3d 8edc 1c3d 8a34 fdbb 7d5f 0cbe
00000160: 6f29 2cbe d024 a43d d82d 54bb 7640 ef3b
00000170: a712 0c3e 4cb7 393d a86b 07be 08b5 a9bc
00000180: 98f7 943d 3b8d 753d a4fd 743d 49df 153d
00000190: 6489 38be e2b3 46bd 9fdf ecbc 221d be3d
000001a0: 3883 053d 95a4 423e 9a5b 2f3b 182c 8b3d
000001b0: 152e 16be a89a a43d dca0 58bd 9e1f 8abc
000001c0: 1799 583e 1fb4 593e 2848 a53d f08b f33c
000001d0: 7b90 4d3e 169f 6a3e dea5 80bd 2fac 033d
000001e0: 25ce 4abd 9c13 a93d 09fe a73e 7f5c 963c
000001f0: 112b 583e d1cd 5a3e 3c95 d83c 9758 c7bd
00000200: a454 64be fc64 28be bb98 afbd 42d2 21be
00000210: c31c 083d dc93 8d3d de3b 343e 5720 0c3e
00000220: 3697 84bd 457a 92bd fa67 16be dbdc 353d
00000230: bfaf 08bc 7394 213d 4cae 5f3e c509 4d3e
00000240: 1b8d e83d c084 58bb 2eca 873d 8e15 b23e
00000250: 474d 03be bdf8 953b adbc 353e 58d2 42be
00000260: b9c0 803e b953 d43d 4de7 263e 9bff eabb
00000270: 81c3 8b3d e17f 06be add0 103e b164 793e
00000280: dd60 96bd ca57 0dbe 3439 d93d 4aa7 6abc
00000290: 0d42 1c3e 533d 8c3c 88de 88bd d4be e6bb
000002a0: c0c0 4c3e 9e16 ff3d 73e1 a73d 7026 8fbd
000002b0: bcc6 913d 2bea 4cbe b63d 793d 60d4 64be
000002c0: aca4 92bd ad72 7abe c871 683d 5fd9 733d
000002d0: 78d8 0f3d 189f 8d3e 1f9c 8abd f2ef aebd
000002e0: c604 053e 4951 0fbd 1597 233e 8932 a83d
000002f0: 46a4 ce3d 826f dd3d da44 95bc f884 1cbe
00000300: 7820 643c 716b 4ebe b0fa 8b3d 79a0 533e
00000310: e0e6 b83d 2619 973e 42e4 85bc 9426 b43e
00000320: 58df 323e f54c 783e b98a 173d 2856 5e3e
00000330: 5d6b 95be 74b6 a83d b9da 03bc e28e 933e
00000340: 4806 a93e a5e7 453e 7743 6d3e fa31 e83d
00000350: d895 a8ba 235d 9bbe 0799 b8bd dd4d a8be
00000360: 2ce2 32be fba1 83be cfdb 86be d0b8 f13c
00000370: 5c78 d63d 76e6 dfbe 4c6d cebd 29c9 69be
00000380: 3958 6b3e f9be 88bd 1df6 553e 23b1 88be
00000390: c8ea 0b3e 633a 893e 8f71 333e ea93 6e3e
000003a0: 90cf ffbd 0ed9 bcbd 02da 393e 8812 48bd
000003b0: 30f3 1cbe e655 95be 7dcc 0fbe b750 9dbe
000003c0: 67a2 043e d601 0abe e4fc 68bc 0f56 a6be
000003d0: c776 b93d 735c 5bbe 8cd2 9abe c578 aa3d
000003e0: f890 5fbe a813 c53d 2656 713e e7c1 98be
000003f0: dfb0 87be fc0e 85bd 90f5 823c 9c5e b3be

lstm.weight_hh_l0 f4 [192, 48]
0.10071222 0.050187755 -0.060428564 -0.074628785 -0.014401002 -0.07843912 -0.080020614 -0.020252204
-0.012930799 0.04895203 -0.07100475 -0.024969151 0.014736957 0.16672707 -0.01967605 -0.11838149
0.08848606 0.002930008 -0.14168978 0.10753527 -0.02103309 0.031829797 -0.059694767 0.082512446
-0.0973209 0.10988942 -0.069523804 -0.050429124 -0.05287074 -0.11289893 -0.056918003 0.0029720846
-0.0651235 0.09266649 0.16533758 0.06595613 0.008450997 0.09203463 -0.13617034 0.06775639
0.036500685 -0.019083267 -0.09996749 0.19146673 -0.10759363 -0.02214366 0.08865955 0.06408442
0.07236882 -0.12770224 0.01796912 -0.101334624 -0.11069395 -0.06644349 0.23972493 -0.08911558
-0.17510386 -0.094712354 0.39699167 0.1452266 0.113315076 0.28200954 0.33825848 0.2008873
0.07570656 -0.14574191 -0.1463516 -0.12314207 0.18655218 0.07415517 0.13845702 0.15503225
-0.36666507 0.37800577 -0.07488864 0.17874356 0.09583954 -0.2152853 0.16198803 0.11235177
-0.08901616 0.063762486 0.19888008 -0.26688576 0.27830502 -0.13187268 0.096399084 -0.19225158
0.024381384 -0.41505536 0.14715265 0.09726448 -0.090532035 -0.24447715 0.21676691 -0.026867755
-0.024070663 -0.1572384 -0.11658562 -0.05149517 -0.06795308 -0.04392692 -0.04631451 -0.23196647
0.028359303 -0.10620101 0.109608375 0.093235716 -0.04645886 0.079116926 0.16062126 0.13771267
0.009439353 -0.097226225 -0.065346204 -0.04874731 -0.10355871 -0.004505806 -0.05825472 0.10400507
-0.19325526 0.082966045 -0.15357287 -0.10834913 -0.1149114 -0.044024643 0.017948195 -0.007431645
-0.061722204 0.0053397394 -0.030124191 -0.048677556 -0.00911266 0.037597355 0.1735489 -0.046822913
-0.061526816 -0.025759833 -0.027611906 0.22392176 -0.21355793 -0.25912347 0.15853955 0.17462808
0.14245573 0.32187966 -0.005275028 0.052688222 -0.009113654 0.006702739 -0.11727735 -0.073420554
-0.037133556 0.16450095 0.07085096 0.16910599 0.058247633 -0.11358465 -0.00040785113 0.015643567
0.14062814 -0.04477964 -0.00870529 -0.09311408 -0.06306519 0.16739026 -0.057536546 0.17592092
0.0603831 -0.10862286 -0.014815116 0.024542764 -0.27825713 -0.0339356 0.029741412 0.12886591
0.21510434 0.102647364 0.15939617 -0.0050455737 -0.21895209 0.11425161 0.04629085 -0.018324153
-0.02311681 0.025684277 0.114450425 -0.03661057 0.00823361 -0.07624532 -0.03469488 0.17902668
-0.06611831 0.16026628 0.19625299 0.00075861416 0.093657844 -0.09351915 -0.013982628 -0.020627411
0.061446913 -0.021334108 0.13031763 0.044273414 -0.033672143 0.09107434 -0.06631001 -0.06856633
-0.028086593 -0.07861672 0.020761978 0.16435601 -0.16811773 0.061767153 0.074569315 -0.08091153
0.045315396 0.10739343 -0.1526955 0.03921444 -0.14988178 -0.20803103 -0.12347893 0.060442124
0.14390925 0.0657565 0.028876074 0.0278549 -0.013937732 0.05179851 -0.013718328 -0.14272597
-0.1258317 -0.03501312 -0.027960725 0.018398859 -0.045872677 0.11313297 -0.061461963 0.006402147
-0.11059548 0.033039313 0.21838637 -0.18839379 0.04471714 -0.036976513 -0.07859655 0.06404126
-0.11806433 -0.09164907 -0.01704939 0.13602407 -0.023120163 -0.1293868 0.022044286 0.09516418
00000000: 3542 ce3d ad91 4d3d f183 77bd fad6 98bd
00000010: 2ef2 6bbc b0a4 a0bd d9e1 a3bd f3e7 a5bc
00000020: b4db 53bc ec81 483d f06a 91bd 1b8c ccbc
00000030: 4773 713c 80ba 2a3e ab2f a1bc ff71 f2bd
00000040: 2e38 b53d 6105 403b 2017 11be 743b dc3d
00000050: 964d acbc f65f 023d 8082 74bd 49fc a83d
00000060: 2e50 c7bd b40d e13d 7f62 8ebd c58e 4ebd
00000070: fd8e 58bd 8e37 e7bd da22 69bd 4ec7 423b
00000080: 785f 85bd eec7 bd3d 414e 293e 0214 873d
00000090: 0d76 0a3c a77c bc3d 3d70 0bbe ddc3 8a3d
000000a0: be81 153d 8354 9cbc c1bb ccbd db0f 443e
000000b0: 0d5a dcbd 9f66 b5bc 2393 b53d b13e 833d
000000c0: 1b36 943d 60c4 02be fa33 933c 8788 cfbd
000000d0: 82b3 e2bd 8613 88bd 747a 753e 3b82 b6bd
000000e0: 6d4e 33be 8df8 c1bd 7e42 cb3e 48b6 143e
000000f0: bc11 e83d 8e63 903e 3730 ad3e 66b5 4d3e
00000100: 0a0c 9b3d 5e3d 15be 32dd 15be e931 fcbd
00000110: 8907 3f3e aade 973d adc7 0d3e c6c0 1e3e
00000120: 86bb bbbe f989 c13e 375f 99bd 8d08 373e
00000130: 8547 c43d c073 5cbe 31e0 253e af18 e63d
00000140: 1b4e b6bd e895 823d 38a7 4b3e 40a5 88be
00000150: ff7d 8e3e a209 07be e26c c53d 99dd 44be
00000160: 78bb c73c 2382 d4be 2faf 163e 9a32 c73d
00000170: dc68 b9bd 3858 7abe 25f8 5d3e c419 dcbc
00000180: d72f c5bc 1a03 21be 71c4 eebd 99ec 52bd
00000190: fc2a 8bbd b7ec 33bd 49b4 3dbd 9e88 6dbe
000001a0: c551 e83c ea7f d9bd 5b7a e03d 5ef2 be3d
000001b0: a54b 3ebd 0e08 a23d e679 243e 8d04 0d3e
000001c0: 84a7 1a3c 8b1e c7bd 3bd4 85bd 42ab 47bd
000001d0: 9716 d4bd 71a5 93bb 809c 6ebd 9c00 d53d
000001e0: b5e4 45be 1aea a93d 3542 1dbe 26e6 ddbd
000001f0: ab56 ebbd 2f53 34bd 1808 933c 2885 f3bb
00000200: 6cd0 7cbd fbf8 ae3b 02c7 f6bc 1e62 47bd
00000210: 444d 15bc afff 193d ceb6 313e 62c9 3fbd
00000220: 8b03 7cbd 4906 d3bc 5d32 e2bc bf4b 653e
00000230: eeae 5abe d5ab 84be 3158 223e b4d1 323e
00000240: eadf 113e 69cd a43e 24da acbb 9bcf 573d
00000250: 6f51 15bc a6a2 db3b 1b2f f0bd 845d 96bd
00000260: 5b19 18bd f072 283e 4f1a 913d 1f2a 2d3e
00000270: 1295 6e3d 129f e8bd dad4 d5b9 f026 803c
00000280: d300 103e db6a 37bd a2a0 0ebc 98b2 bebd
00000290: 5328 81bd 5a68 2b3e 71ab 6bbd 9d24 343e
000002a0: 4554 773d a975 debd 1abb 72bc e80d c93c
000002b0: b877 8ebe 0e00 0bbd 43a4 f33c 6df5 033e
000002c0: 5044 5c3e c838 d23d c038 233e 5755 a5bb
000002d0: fa34 60be c0fc e93d 799b 3d3d 891c 96bc
000002e0: 775f bdbc d567 d23c fc64 ea3d f7f4 15bd
000002f0: 43e6 063c 8226 9cbd 381c 0ebd c552 373e
00000300: 0969 87bd d81c 243e 8bf6 483e bcdd 463a
00000310: afcf bf3d f886 bfbd 6417 65bc d1fa a8bc
00000320: c2af 7b3d dec4 aebc fc71 053e 0a58 353d
00000330: cdeb 09bd 2f85 ba3d 8bcd 87bd 816c 8cbd
00000340: db15 e6bc ce01 a1bd 0615 aa3c f14c 283e
00000350: 0e27 2cbe 8eff 7c3d ccb7 983d f2b4 a5bd
00000360: a39c 393d 16f1 db3d 365c 1cbe 529f 203d
00000370: 9c7a 19be 1606 55be 85e2 fcbd 2992 773d
00000380: f25c 133e 58ab 863d 848d ec3c f62f e43c
00000390: 165b 64bc ad2a 543d d7c2 60bc c226 12be
000003a0: 06da 00be eb69 0fbd e40d e5bc 34b9 963c
000003b0: fde4 3bbd 42b2 e73d 8abf 7bbd 1ac9 d13b
000003c0: e27f e2bd 3b54 073d ada0 5f3e 4dea 40be
000003d0: 5229 373d af74 17bd 3af7 a0bd 1028 833d
000003e0: b6cb f1bd 82b2 bbbd 2aab 8bbc e549 0b3e
000003f0: 7f66 bdbc f97d 04be 3896 b43c 70e5 c23d

lstm.bias_ih_l0 f4 [192]
0.030233946 -0.15089332 -0.10868152 -0.003613633 -0.18748736 -0.16815607 -0.038841646 -0.14971216
-0.07200584 -0.002202372 -0.12879762 -0.112605534 -0.083106175 0.12677653 0.27038786 -0.068715975
-0.123875104 -0.02795088 -0.014695972 -0.07849076 -0.12850773 -0.017827943 0.12250934 0.032338623
0.053817183 0.04645621 -0.2179312 0.15323733 0.015183921 -0.093557715 -0.23012424 0.028485354
-0.16154787 -0.040157873 -0.21696019 -0.01756184 0.069188856 -0.23610853 -0.10070499 -0.009633779
-0.022153422 0.06914964 -0.09214639 0.07153079 -0.20064344 -0.06252789 0.043260105 0.009098315
-0.17843838 0.09937297 0.008229366 -0.118758425 -0.013698544 -0.08903714 0.028649775 -0.15158592
-0.006173098 0.07734773 0.1894277 0.058356464 -0.14096206 0.07147713 0.11850688 -0.14397569
-0.17507258 0.039654523 0.08471181 0.28576398 -0.05700497 -0.18129675 0.10694173 -0.12350377
-0.04731197 0.1329299 -0.0035657967 0.11550405 0.30897415 -0.1273476 0.03089704 0.021445286
-0.081222825 0.076561704 -0.0876025 -0.014757921 0.18654107 -0.10631751 -0.11974527 0.0350688
0.056652762 0.011822238 -0.070236504 -0.16658355 -0.15220416 -0.095543735 -0.10267405 -0.09266149
-0.021971872 -0.12331283 -0.098651 -0.009963291 -0.061704148 -0.07065685 0.020938968 0.02208083
0.063342154 -0.10334811 -0.03024875 0.17688748 0.12455146 -0.034748513 -0.04680819 0.1131788
-0.01741939 -0.09013092 -0.042012867 -0.15413065 0.006618908 -0.054762233 -0.02423627 0.02061682
0.02044176 0.07001589 0.09429078 0.059215866 0.045501933 0.061882902 0.12838645 0.061112896
-0.092785425 -0.024970371 0.012309548 -0.11983002 0.13087742 -0.06099151 -0.058040094 -0.010620691
-0.020520927 -0.08603989 0.055286583 0.03251509 0.073776774 -0.06711307 -0.0616767 0.0072183115
-0.16565391 -0.15352678 -0.18220669 0.09418392 -0.1958148 -0.10670695 -0.08459337 0.07197411
-0.12049448 -0.13630016 0.052975263 -0.03044303 -0.16463819 0.060083885 0.34474215 -0.06240555
-0.18415368 0.13447255 -0.022014543 0.011924147 -0.074293815 -0.033132955 -0.04029238 0.060277436
-0.054721028 -0.060690906 -0.039447866 -0.011368679 0.074813716 -0.08085813 -0.14605892 -0.007591597
-0.20156024 -0.16319382 -0.016678084 0.031481385 0.06059912 -0.03445816 -0.1940592 -0.14885531
-0.18780138 -0.02296709 -0.0047758915 -0.13708867 -0.18950954 -0.14024438 -0.031688694 -0.1372765
00000000: 2ead f73c c783 1abe 6b94 debd b4d2 6cbb
00000010: b0fc 3fbe 1b31 2cbe 6b18 1fbd 254e 19be
00000020: cc77 93bd ac55 10bb 86e3 03be bb9d e6bd
00000030: 9233 aabd b5d1 013e 4770 8a3e f6ba 8cbd
00000040: 3bb2 fdbd 3ef9 e4bc 60c7 70bc c3bf a0bd
00000050: 8897 03be e80b 92bc 2de6 fa3d 8175 043d
00000060: 686f 5c3d de48 3e3d 5b29 5fbe 3fea 1c3e
00000070: fbc5 783c 309b bfbd b0a5 6bbe 1e5a e93c
00000080: ce6c 25be 957c 24bd d02a 5ebe d9dd 8fbc
00000090: e3b2 8d3d 6fc6 71be 6b3e cebd ffd6 1dbc
000000a0: 187b b5bc 549e 8d3d 3fb7 bcbd bc7e 923d
000000b0: 7975 4dbe 9f0e 80bd 8231 313d 1911 153c
000000c0: 8db8 36be 0e84 cb3d 76d4 063c 9e37 f3bd
000000d0: dc6f 60bc 1b59 b6bd efb2 ea3c 5739 1bbe
000000e0: b347 cabb 7d68 9e3d 56f9 413e 3007 6f3d
000000f0: 5c58 10be 9a62 923d bcb3 f23d 5d6e 13be
00000100: 3a46 33be c86c 223d 637d ad3d a84f 923e
00000110: 0b7e 69bd dba5 39be 4404 db3d 8bef fcbd
00000120: 32ca 41bd c71e 083e 24b0 69bb 638d ec3d
00000130: dc31 9e3e 6967 02be ca1b fd3c 06ae af3c
00000140: 2758 a6bd 62cc 9c3d f168 b3bd 35cb 71bc
00000150: 9f04 3f3e ffbc d9bd 023d f5bd 4da4 0f3d
00000160: ba0c 683d 0fb2 413c 28d8 8fbd e194 2abe
00000170: 68db 1bbe 6fac c3bd c646 d2bd 4fc5 bdbd
00000180: 5bfe b3bc 708b fcbd 8909 cabd 123d 23bc
00000190: 7dbd 7cbd 8ab4 90bd 3388 ab3c dbe2 b43c
000001a0: 88b9 813d 2da8 d3bd 3acc f7bc fe21 353e
000001b0: d614 ff3d 7554 0ebd f2b9 3fbd 49ca e73d
000001c0: 1cb3 8ebc 8f96 b8bd af15 2cbd 6dd4 1dbe
000001d0: 6de3 d83b 5d4e 60bd 248b c6bc 9be4 a83c
000001e0: 7a75 a73c 7e64 8f3d 861b c13d 568c 723d
000001f0: 3c60 3a3d ed78 7d3d bd77 033e 8451 7a3d
00000200: 4906 bebd aa8e ccbc fdad 493c 7169 f5bd
00000210: bb04 063e 3cd2 79bd 73bb 6dbd 6802 2ebc
00000220: 811b a8bc af35 b0bd 2f74 623d 8b2e 053d
00000230: 4718 973d 9472 89bd b5a0 7cbd 9687 ec3b
00000240: 2ea1 29be 2036 1dbe 6494 3abe 80e3 c03d
00000250: ad83 48be 2c89 dabd 4a3f adbd 2a67 933d
00000260: cfc5 f6bd 4592 0bbe 97fc 583d a963 f9bc
00000270: ea96 28be 851a 763d 0b82 b03e f69c 7fbd
00000280: c892 3cbe 2cb3 093e d857 b4bc 7f5d 433c
00000290: 5b27 98bd 6cb6 07bd 9f09 25bd 79e5 763d
000002a0: 2823 60bd 0797 78bd 1694 21bd b243 3abc
000002b0: ef37 993d f298 a5bd 7890 15be eec2 f8bb
000002c0: cf65 4ebe 481c 27be 7aa0 88bc a0f2 003d
000002d0: c836 783d 0024 0dbd 74b7 46be 876d 18be
000002e0: 014f 40be 7b25 bcbc 157f 9cbb f960 0cbe
000002f0: ca0e 42be 399c 0fbe 01cc 01bd 3692 0cbe

lstm.bias_hh_l0 f4 [192]
-0.04228656 -0.08956417 0.08005363 -0.06747026 -0.1412813 -0.15142038 0.032059133 -0.19707614
-0.0024371736 0.053482268 0.10093218 0.12331773 0.040633187 0.18367967 0.17034774 0.0433525
-0.0729668 -0.020515364 -0.122439794 0.11271426 -0.11232558 -0.20716938 -0.05042056 0.11315036
0.0347016 0.030197414 -0.17740534 0.18425055 0.12013885 0.012051245 -0.08435655 -0.06828855
-0.16130535 -0.040611375 -0.17119077 0.10510316 0.106254734 0.011197669 0.009631127 -0.12390015
-0.2505353 0.054049104 -0.09300455 0.066531785 -0.07631173 0.084444925 -0.019560702 -0.2132863
-0.05899037 -0.13272662 -0.031212289 -0.0499288 -0.14921673 -0.024165543 0.006104082 -0.065906286
-0.10811084 -0.018306127 0.21564281 -0.1053791 -0.16717537 0.025372094 0.1194021 -0.11242614
-0.07622409 -0.015759474 0.054848295 0.22988896 -0.06900454 -0.005129906 0.059754983 0.15005407
-0.06136362 0.030407185 -0.046260756 -0.08060872 0.20103753 -0.07147708 -0.027488815 -0.025345791
0.025829384 -0.10514223 0.06405386 -0.04774306 0.14543247 0.081763014 0.080799155 -0.1901144
0.04039512 0.08666703 0.042544294 -0.05067859 0.015588645 -0.122988924 0.060459286 -0.104803644
-0.0028589175 -0.049924515 -0.14768384 -0.04662955 -0.015348189 0.09130323 0.09847472 -0.0184057
-0.1831879 -0.06165296 0.0116184 -0.09283917 -0.007465547 0.113159865 -0.002240029 -0.04962973
0.017709412 0.120146364 -0.06307969 0.015760032 0.10723424 -0.09040211 0.12011254 -0.060545113
0.026369354 -0.06177806 0.024889274 -0.02267287 0.088145725 -0.015360905 -0.08200426 -0.0067707202
0.023864014 -0.081074305 -0.038364302 -0.13009071 -0.10645428 -0.030492866 0.13749324 0.040247045
0.05605524 -0.07458547 -0.0011094268 -0.09513218 0.023456441 0.06627635 0.17115493 -0.013277646
-0.0711491 -0.13111211 -0.05836253 -0.08238957 -0.1647748 -0.05933955 0.0062643313 -0.14877023
0.08527056 -0.14657582 -0.095008485 0.13015814 -0.039268006 0.037705563 0.27058208 -0.10752336
-0.062363952 -0.07949889 -0.16983649 0.030049982 -0.025578149 0.017262299 0.07469701 -0.021932231
-0.12720963 0.0887959 0.06270596 -0.059322342 0.23381889 -0.06735411 -0.19142753 0.044733558
-0.20658095 0.029460339 -0.1352415 0.047014534 0.20571345 -0.09879125 -0.15745422 -0.059585143
-0.17342862 0.025960913 -0.06606662 0.04475163 -0.030593324 -0.1399768 0.0472064 -0.037983067
00000000: ac34 2dbd 6b6d b7bd 28f3 a33d d92d 8abd
00000010: 0cac 10be f20d 1bbe 7050 033d 54ce 49be
00000020: fdb8 1fbb 3910 5b3d 88b5 ce3d 028e fc3d
00000030: fc6e 263d 8616 3c3e a36f 2e3e 6492 313d
00000040: 9e6f 95bd d60f a8bc b7c1 fabd bcd6 e63d
00000050: f40a e6bd 3624 54be ca85 4ebd 60bb e73d
00000060: 4423 0e3d 9160 f73c bfa9 35be 2dac 3c3e
00000070: 5b0b f63d 9672 453c 20c3 acbd deda 8bbd
00000080: 3b2d 25be 1d58 26bd a24c 2fbe 5340 d73d
00000090: 159c d93d 6e76 373c e0cb 1d3c 5dbf fdbd
000000a0: 2a46 80be 9862 5d3d 2b79 bebd d141 883d
000000b0: 5349 9cbd 76f1 ac3d c43d a0bc b967 5abe
000000c0: e39f 71bd 7de9 07be eab0 ffbc 2482 4cbd
000000d0: 45cc 18be d1f6 c5bc c004 c83b e0f9 86bd
000000e0: 3769 ddbd bbf6 95bc 78d1 5c3e ffd0 d7bd
000000f0: 0530 2bbe 23d9 cf3c 1789 f43d ad3f e6bd
00000100: 601b 9cbd 031a 81bc 9ba8 603d 0368 6b3e
00000110: 4152 8dbd c518 a8bb a4c1 743d c6a7 193e
00000120: 6b58 7bbd 7d18 f93c eb7b 3dbd 2f16 a5bd
00000130: c8dc 4d3e 9362 92bd 3930 e1bc faa1 cfbc
00000140: 2598 d33c cf54 d7bd ac2e 833d 3a8e 43bd
00000150: 40ec 143e 5e73 a73d 077a a53d 59ad 42be
00000160: 5a75 253d 7c7e b13d ed42 2e3d 5a94 4fbd
00000170: 8467 7f3c 9ee1 fbbd 28a4 773d 4ba3 d6bd
00000180: ad5c 3bbb a67d 4cbd 6f3a 17be a1fe 3ebd
00000190: f876 7bbc 30fd ba3d 1dad c93d 8dc7 96bc
000001a0: 9c95 3bbe d087 7cbd 1a5b 3e3c 7622 bebd
000001b0: 8ca1 f4bb 5cc0 e73d 73cd 12bb 8b48 4bbd
000001c0: 5413 913c 4c0f f63d ed2f 81bd 2f1b 813c
000001d0: a09d db3d be24 b9bd 90fd f53d 27fe 77bd
000001e0: 8b04 d83c fe0a 7dbd 97e4 cb3c 74bc b9bc
000001f0: bf85 b43d 4eac 7bbc d9f1 a7bd ebdc ddbb
00000200: 777e c33c 490a a6bd e323 1dbd 8036 05be
00000210: b404 dabd 2dcc f9bc 07cb 0c3e 16da 243d
00000220: 2e9a 653d 44c0 98bd 306a 91ba a9d4 c2bd
00000230: b927 c03c e5bb 873d 3d43 2f3e 7c8a 59bc
00000240: 9fb6 91bd 4142 06be 8c0d 6fbd ddbb a8bd
00000250: baba 28be 070e 73bd 0545 cd3b 3957 18be
00000260: 55a2 ae3d f917 16be cf93 c2bd 2d48 053e
00000270: 7dd7 20bd 2671 1a3d bc89 8a3e 3535 dcbd
00000280: 5871 7fbd 50d0 a2bd 9ee9 2dbe 612b f63c
00000290: 4489 d1bc aa69 8d3c bffa 983d 39ab b3bc
000002a0: 3e43 02be a0da b53d fb6b 803d fcfb 72bd
000002b0: 386e 6f3e f4f0 89bd 9405 44be 893a 373d
000002c0: f589 53be cf56 f13c bf7c 0abe 5092 403d
000002d0: 8ca6 523e 1153 cabd ae3b 21be 8d0f 74bd
000002e0: 4697 31be fbab d43c f04d 87bd 7c4d 373d
000002f0: da9e fabc 1456 0fbe 805b 413d 2294 1bbd

lstm.weight_ih_l1 f4 [192, 48]
-0.053198498 0.12900464 0.023518158 -0.04485264 -0.096723124 -0.034358405 -0.06265169 -0.06521629
-0.13599862 -0.03704391 -0.026896369 0.15552652 -0.1101175 0.14567651 0.082453944 -0.06433638
0.16048661 -0.17044042 0.047982078 0.018646516 0.07113948 0.09090418 0.14721164 -0.021057187
-0.11339207 0.10453952 -0.123520084 0.042369798 0.028263057 -0.10745856 0.1497559 -0.04170868
0.13365124 0.22750172 0.20006734 0.13948394 0.087632135 0.10686795 0.033891283 0.0095934095
-0.05376198 -0.09652589 0.028543929 0.14842 -0.0144846635 0.020384882 0.020799244 0.05661771
0.08210946 -0.015194164 0.18191598 0.04062672 0.04421898 -0.043366153 -0.2749411 -0.030356156
0.025008673 -0.0523785 0.07340301 0.0032315082 -0.061431248 -0.05488494 -0.15494525 -0.10398005
0.028081479 0.013195058 0.022066543 0.010728231 -0.18813457 0.11793002 -0.19883855 -0.12948272
0.01102737 -0.16177249 -0.07447208 0.011977595 0.04804983 0.04530037 -0.028377049 -0.033055644
0.1332307 -0.036541358 -0.07440039 0.21752788 -0.1334019 -0.07269692 0.02221439 -0.001552306
0.054802377 0.20049554 -0.06585846 0.079621315 -0.1198405 0.07448576 -0.15755643 -0.082209505
-0.06883044 0.111976594 0.13337429 0.007013058 -0.03363548 0.063678645 0.07049173 0.063025504
0.13601698 -0.088186644 -0.018394617 -0.079453245 0.07306917 -0.1023624 -0.15743731 -0.029118402
-0.053393986 0.08172405 -0.039240822 0.07607915 -0.018671753 0.122381635 0.07957588 -0.073298864
0.10224256 -0.05276078 -0.042077955 -0.038225923 0.02863535 -0.12695628 -0.18445064 0.10503777
0.13393985 0.19245274 0.09913533 0.037064888 0.011027782 0.13649777 0.03086759 0.01622321
-0.075071804 -0.07927318 -0.07051873 0.018728763 -0.035588644 0.052958805 -0.11674081 -0.055578396
-0.098871715 -0.077453054 0.0011919 -0.14394046 -0.11308777 0.14491776 0.09753602 -0.10811598
-0.08209462 -0.09049073 0.12431397 -0.11407304 0.018198572 0.01805609 -0.09962146 -0.08156305
0.017229158 -0.08649575 -0.19482152 0.09136127 0.07351729 0.11485643 0.11635891 0.03326569
-0.16626163 -0.040788956 -0.06923483 0.11588809 0.1389947 -0.13374884 0.117962986 -0.0625381
0.04034178 0.1790873 0.046374094 -0.06834424 0.177799 0.022450242 -0.062828004 -0.18286364
0.09614734 -0.009851556 0.065932035 -0.07309536 -0.14315464 0.09642418 -0.051961925 -0.051002305
0.016377809 0.1150509 0.07576924 -0.030371312 0.19095615 -0.015389472 -0.10728596 0.03801402
0.0006573351 -0.020544728 0.123278275 -0.074644625 -0.08598294 0.009639624 -0.1616564 -0.09411711
0.10775377 -0.024411213 -0.099401675 0.04798875 0.0062027527 -0.04414677 -0.16164404 0.032545988
-0.08444173 -0.042637575 0.012919869 0.007085283 0.16160457 0.029287035 -0.14975515 0.028394474
0.12769993 0.07194857 0.10221473 0.14883709 -0.11027526 0.15372822 -0.24325593 0.057766013
-0.10249335 -0.061057787 -0.039885335 0.081687525 0.039082702 -0.07380327 -0.17572474 -0.005900368
-0.003868009 -0.11687242 0.024819247 0.094188526 0.007973634 -0.0027273474 0.09358593 0.11319073
0.14269628 0.05847422 -0.034365203 -0.119151466 -0.23282762 -0.035817765 -0.3351979 -0.19331549
00000000: abe6 59bd cb19 043e 27a9 c03c 67b7 37bd
00000010: c616 c6bd 66bb 0cbd 874f 80bd 1e90 85bd
00000020: 3943 0bbe 5bbb 17bd c655 dcbc 5842 1f3e
00000030: 4985 e1bd 392c 153e 9ddd a83d cbc2 83bd
00000040: 9a56 243e ef87 2ebe db88 443d 94c0 983c
00000050: 93b1 913d f92b ba3d a6be 163e 1f80 acbc
00000060: 1a3a e8bd d118 d63d 19f8 fcbd f48b 2d3d
00000070: ed87 e73c 3c13 dcbd 9c59 193e b9d6 2abd
00000080: dfdb 083e 36f6 683e 74de 4c3e e1d4 0e3e
00000090: 7a78 b33d 95dd da3d 96d1 0a3d ad2d 1d3c
000000a0: 8635 5cbd 5eaf c5bd f5d4 e93c 6afb 173e
000000b0: 1551 6dbc 32fe a63c 2d63 aa3c f9e7 673d
000000c0: 0129 a83d f1f0 78bc 2f48 3a3e 3468 263d
000000d0: f61e 353d b5a0 31bd 14c5 8cbe 79ad f8bc
000000e0: fdde cc3c d78a 56bd 5154 963d b6c7 533b
000000f0: 559f 7bbd 08cf 60bd f8a9 1ebe 7ef3 d4bd
00000100: 210b e63c 1630 583c e5c4 b43c 76c5 2f3c
00000110: 59a6 40be 4b85 f13d 559c 4bbe 1e97 04be
00000120: 24ac 343c b0a7 25be d184 98bd ad3d 443c
00000130: e6cf 443d e18c 393d fc76 e8bc 5b65 07bd
00000140: a16d 083e 64ac 15bd 3b5f 98bd a1bf 5e3e
00000150: 829a 08be 1fe2 94bd f4fa b53c bf76 cbba
00000160: 7578 603d b44e 4d3e cde0 86bd 8010 a33d
00000170: f06e f5bd fd8b 983d 7956 21be 755d a8bd
00000180: f9f6 8cbd fc53 e53d 4593 083e cbcd e53b
00000190: 5bc5 09bd f369 823d f85d 903d 8413 813d
000001a0: 0948 0b3e 339b b4bd 4fb0 96bc 62b8 a2bd
000001b0: 4aa5 953d 61a3 d1bd 3f37 21be b789 eebc
000001c0: a7b3 5abd f05e a73d fcba 20bd 63cf 9b3d
000001d0: 81f5 98bc 39a3 fa3d aef8 a23d b71d 96bd
000001e0: 8c64 d13d b01b 58bd ef59 2cbd c992 1cbd
000001f0: ae94 ea3c d400 02be a1e0 3cbe 0b1e d73d
00000200: 8727 093e 5512 453e 7707 cb3d 5ad1 173d
00000210: dfad 343c 12c6 0b3e 07de fc3c 8ae6 843c
00000220: 3fbf 99bd fa59 a2bd 206c 90bd 106d 993c
00000230: 66c5 11bd 55eb 583d ce15 efbd 2ca6 63bd
00000240: 417d cabd b59f 9ebd 8739 9c3a 2165 13be
00000250: 909a e7bd 5265 143e f7c0 c73d e96b ddbd
00000260: 3921 a8bd 3453 b9bd 5398 fe3d 209f e9bd
00000270: 2c15 953c 5eea 933c 5606 ccbd 870a a7bd
00000280: 2a24 8d3c af24 b1bd 4b7f 47be 9e1b bb3d
00000290: 3c90 963d d939 eb3d 954d ee3d 9b41 083d
000002a0: 7d40 2abe 5212 27bd feca 8dbd bc56 ed3d
000002b0: a054 0e3e 75f5 08be 9496 f13d fa13 80bd
000002c0: 6c3d 253d a962 373e c3f2 3d3d 11f8 8bbd
000002d0: f110 363e 92e9 b73c f8ab 80bd 9b40 3bbe
000002e0: e6e8 c43d 6c68 21bc 6007 873d 05b3 95bd
000002f0: 2197 12be 0a7a c53d 07d6 54bd cbe7 50bd
00000300: c12a 863c ce9f eb3d e72c 9b3d 42cd f8bc
00000310: 028a 433e 2024 7cbc beb8 dbbd 97b4 1b3d
00000320: 0351 2c3a 6b4d a8bc 5279 fc3d 48df 98bd
00000330: d317 b0bd 83ef 1d3c 4189 25be 79c0 c0bd
00000340: 02ae dc3d 06fa c7bc 1b93 cbbd da8f 443d
00000350: 7640 cb3b 3ed3 34bd 0486 25be f14e 053d
00000360: c9ef acbd bda4 2ebd dcad 533c a92b e83b
00000370: ab7b 253e 5deb ef3c 6a59 19be 879b e83c
00000380: c5c3 023e c659 933d f555 d13d c068 183e
00000390: ffd7 e1bd ee6a 1d3e 1518 79be 0e9c 6c3d
000003a0: 09e8 d1bd bb17 7abd ce5e 23bd ca4b a73d
000003b0: 2f15 203d 2b26 97bd 30f1 33be e057 c1bb
000003c0: 6c7e 7dbb cf5a efbd bc51 cb3c eae5 c03d
000003d0: d8a3 023c 4cbd 32bb fba9 bf3d 8bd0 e73d
000003e0: f91e 123e aa82 6f3d 87c2 0cbd af05 f4bd
000003f0: 5d6a 6ebe a6b5 12bd 0f9f abbe 7ff4 45be

lstm.weight_hh_l1 f4 [192, 48]
-0.052584168 -0.11539891 0.04275785 -0.13927643 -0.0050979108 0.057008352 0.009827559 -0.09162899
0.14061922 -0.115920246 -0.010315756 0.19851245 0.080823205 0.078565285 -0.16529551 -0.058546007
-0.04291587 -0.09375947 0.027490875 -0.022504129 0.0039041147 0.0026027136 0.06479209 -0.20706914
-0.06394937 -0.12767157 0.029709958 0.12987904 0.1533644 0.041761685 0.22315851 0.047422413
0.115497686 -0.14543375 0.16626127 -0.009778647 0.26926923 0.076475 0.14810275 0.14365791
-0.18326919 -0.11904469 -0.04018061 0.058445882 0.008091035 -0.004799065 0.26532492 0.06644291
0.032812074 -0.1445691 -0.113542005 -0.13714816 0.0018904982 0.061498117 -0.16677937 -0.03157321
0.14056174 0.0072475844 0.06595336 0.0801693 0.011966207 -0.17174534 -0.11380792 -0.09793461
-0.17049682 0.02834743 0.15957916 0.15360513 0.017879698 -0.046544794 0.0033110345 0.06592383
0.067717366 -0.0012887002 -0.14034812 0.05455694 0.12554814 -0.201834 -0.008138771 0.013775655
0.18388033 -0.075538926 -0.061940223 -0.08341172 -0.03972456 0.08175321 0.20774283 -0.12937683
0.099331886 -0.036523804 0.2060079 -0.07247454 0.019744594 -0.020434357 -0.05513082 -0.054149482
0.041152358 -0.034177963 -0.18528865 -0.16029713 -0.12779707 -0.21666247 -0.01930133 -0.07894767
0.07614995 -0.16759278 0.050352518 -0.0024136472 0.01490123 0.07800265 0.01044985 -0.08964168
-0.131372 -0.024926253 -0.086506985 0.20444562 0.060157247 -0.02160441 -0.104732536 -0.07777568
0.037931062 -0.21211217 -0.029668273 0.084987156 0.23478393 -0.109693095 0.031402875 -0.020144168
0.07591957 0.053910177 0.052581776 -0.08067226 0.16523905 -0.063721105 0.079262346 -0.025336294
0.0010654442 -0.022450007 0.20584378 -0.085788876 0.10383438 -0.081190094 -0.031410195 -0.06172443
-0.12477124 -0.0600182 0.029052958 -0.14578849 -0.12821637 0.080858 0.04422707 -0.1780053
0.0451859 -0.1296573 -0.039380413 0.13057818 -0.010918369 -0.109021604 -0.1805498 -0.05443948
-0.088708155 0.0034111447 0.07162481 -0.11955363 -0.028093606 -0.08167228 0.13815442 -0.09483665
-0.09183594 -0.025131792 -0.10168576 0.17381665 0.1817084 0.13435039 0.04593469 0.15322225
0.19356357 0.061978668 0.08705525 -0.14346255 -0.0041796314 -0.11824681 -0.049167026 -0.10654052
-0.19549869 -0.17161825 0.07040426 -0.013066328 0.061599415 0.08107319 0.19848832 0.00432622
-0.06158188 -0.19485933 0.020631693 -0.09331797 -0.12164978 0.014033831 -0.25484285 -0.16593656
0.15826654 0.07156687 0.16430296 0.13285722 -0.05642885 0.10511794 0.04369424 -0.19180836
0.0031622755 -0.15058361 0.052347627 -0.062344838 -0.017451072 0.09227021 -0.17223907 0.03776161
0.122023754 -0.06755995 -0.13120365 -0.05765011 0.044764854 -0.12805001 -0.036155663 0.123926654
0.19978045 -0.01980694 0.17147458 0.02316467 0.14019594 0.13904679 0.043438952 -0.10834295
-0.052783232 -0.22684893 -0.021096863 0.058182675 -0.058028676 -0.020458605 0.06990282 0.15465382
-0.00014884412 -0.116423294 -0.1623063 -0.027012328 0.07277649 0.0675299 -0.123456284 0.081341386
0.031307824 -0.08363828 0.022073645 -0.046658285 -0.0006826164 0.14611465 -0.0024695355 -0.037539642
00000000: 7f62 57bd 4456 ecbd db22 2f3d 7b9e 0ebe
00000010: 600c a7bb 9781 693d c503 213c fba7 bbbd
00000020: 7cfe 0f3e 9867 edbd 6b03 29bc d946 4b3e
00000030: a386 a53d d6e6 a03d 3a43 29be f0cd 6fbd
00000040: 8dc8 2fbd f704 c0bd 8b34 e13c 945a b8bc
00000050: 2ddc 7f3b 4a92 2a3b b7b1 843d ef09 54be
00000060: e3f7 82bd 56bc 02be 4c62 f33c 03ff 043e
00000070: 8f0b 1d3e 4d0e 2b3d aa83 643e 013e 423d
00000080: 0d8a ec3d 96ec 14be 6540 2a3e 9e36 20bc
00000090: a8dd 893e ed9e 9c3d 3fa8 173e 0f1b 133e
000000a0: ebaa 3bbe b4cd f3bd 6c94 24bd f364 6f3d
000000b0: 4390 043c 7a41 9dbb abd8 873e 3813 883d
000000c0: f465 063d ec09 14be b688 e8bd 9170 0cbe
000000d0: 98ca f73a 73e5 7b3d 36c8 2abe e952 01bd
000000e0: 6bef 0f3e 257d ed3b 8e12 873d cd2f a43d
000000f0: e90d 443c 03de 2fbe 2014 e9bd f191 c8bd
00000100: b896 2ebe df38 e83c b868 233e aa4a 1d3e
00000110: 7278 923c c1a5 3ebd f1fd 583b 1303 873d
00000120: 67af 8a3d 9ae9 a8ba 6bb7 0fbe 1977 5f3d
00000130: b18f 003e 92ad 4ebe 7b58 05bc 49b3 613c
00000140: 204b 3c3e 27b4 9abd 08b5 7dbd c4d3 aabd
00000150: 38b6 22bd 3a6e a73d 89ba 543e 5c7b 04be
00000160: 846e cb3d fc99 15bd bcf3 523e 886d 94bd
00000170: 6abf a13c f465 a7bc dbd0 61bd d9cb 5dbd
00000180: 608f 283d 31fe 0bbd 4fbc 3dbe ee24 24be
00000190: 3cdd 02be c4dc 5dbe d31d 9ebc 51af a1bd
000001a0: 81f4 9b3d 719d 2bbe 713e 4e3d 482e 1ebb
000001b0: 4a24 743c dabf 9f3d d935 2b3c 0f96 b7bd
000001c0: 6286 06be 2432 ccbc 932a b1bd 315a 513e
000001d0: 7267 763d bbfb b0bc 037e d6bd db48 9fbd
000001e0: 9a5d 1b3d ef33 59be e10a f3bc bf0d ae3d
000001f0: 336b 703e c6a6 e0bd 4da0 003d 6205 a5bc
00000200: b87b 9b3d ebd0 5c3d fd5f 573d 7f37 a5bd
00000210: 6d34 293e 3680 82bd 4c54 a23d 0f8e cfbc
00000220: 60a6 8b3a 14e9 b7bc b6c8 523e 14b2 afbd
00000230: 1fa7 d43d fe46 a6bd faa7 00bd c2d2 7cbd
00000240: 1088 ffbd a5d5 75bd 7800 ee3c 9449 15be
00000250: 274b 03be e198 a53d 7227 353d 0547 36be
00000260: da14 393d e2c4 04be 5b4d 21bd 49b6 053e
00000270: f5e2 32bc b846 dfbd 0ce2 38be effb 5ebd
00000280: 9fac b5bd 838d 5f3b 07b0 923d 89d8 f4bd
00000290: 9024 e6bc cc43 a7bd 5a78 0d3e b839 c2bd
000002a0: 7b14 bcbd 30e1 cdbc a040 d0bd fefc 313e
000002b0: c411 3a3e 2693 093e 0326 3c3d 4be6 1c3e
000002c0: 8735 463e 58dd 7d3d 064a b23d d9e7 12be
000002d0: 4af5 88bb 622b f2bd 5d63 49bd eb31 dabd
000002e0: cf30 48be b2bc 2fbe 1c30 903d 2714 56bc
000002f0: ab4f 7c3d b309 a63d 8640 4b3e f7c2 8d3b
00000300: 483d 7cbd 3489 47be cc03 a93c 7e1d bfbd
00000310: 8523 f9bd 27ee 653c c37a 82be 46eb 29be
00000320: a010 223e a791 923d 093f 283e b90b 083e
00000330: f021 67bd 1348 d73d bbf8 323d 6969 44be
00000340: 2e3e 4f3b 9732 1abe 776a 563d 4d5d 7fbd
00000350: 8df5 8ebc 2af8 bc3d 705f 30be ebab 1a3d
00000360: 97e7 f93d df5c 8abd 405a 06be 8622 6cbd
00000370: 5a5b 373d 8b1f 03be f617 14bd 42cd fd3d
00000380: 3f93 4c3e 2a42 a2bc 0897 2f3e d6c3 bd3c
00000390: 868f 0f3e 4862 0e3e 0bed 313d e9e2 ddbd
000003a0: 3b33 58bd 164b 68be 54d3 acbc f550 6e3d
000003b0: 7aaf 6dbd ce98 a7bc 3629 8f3d 925d 1e3e
000003c0: 0a13 1cb9 566f eebd 9f33 26be f548 ddbc
000003d0: d70b 953d 1e4d 8a3d a6d6 fcbd 5096 a63d
000003e0: a23c 003d 8c4a abbd cad3 b43c c21c 3fbd
000003f0: 9cf1 32ba 149f 153e eed7 21bb 2bc3 19bd

lstm.bias_ih_l1 f4 [192]
-0.18835942 -0.065133065 0.064868115 -0.15463051 -0.029249512 -0.040034063 -0.04160379 0.13719659
0.0028844383 -0.0993312 0.036985442 -0.10956348 -0.046759788 0.030000972 0.08554025 0.085124515
0.0013716258 -0.22611997 -0.15016758 0.028714612 -0.0410377 -0.05915919 0.05872443 0.21253778
0.00261208 -0.08624595 0.063728094 0.121475786 -0.117460735 0.08068809 0.11840633 0.18936059
-0.061082702 0.08596541 0.13924219 0.15150361 0.01996578 -0.14941844 0.014103329 -0.0983504
0.11467728 -0.0912319 -0.18103606 0.06165205 0.01885085 -0.07716796 0.019264508 -0.031461816
0.051761642 -0.13886347 -0.031888578 -0.25274596 -0.13108641 0.08901873 -0.19381955 0.10759838
0.06538152 -0.14877713 0.05241939 0.069264 -0.043175597 -0.19900648 -0.1292928 0.078732975
0.017152488 -0.15368015 -0.22415717 -0.011340353 0.05210354 -0.12659308 -0.16052392 0.004421086
-0.10228322 -0.013916486 -0.15242381 0.068053804 -0.14318724 -0.17445236 -0.12273014 0.16355217
-0.07079081 -0.19745173 0.02920997 0.046963546 0.088719316 -0.09897487 -0.09421733 -0.021188179
-0.14858682 0.09194539 0.055399984 -0.08931133 0.057766493 -0.14162204 -0.10563708 -0.11439151
0.119081736 0.10784657 0.1012671 0.019697718 -0.05067731 0.10953404 0.020303365 0.042717457
-0.118982814 0.09876749 -0.19550224 -0.099778935 0.11818014 0.10900994 -0.012954437 0.097803794
0.066641234 -0.14640257 -0.05174217 -0.17482989 0.12723064 -0.012923948 0.07314554 0.23411246
0.038570184 -0.051239155 0.09623449 -0.14486472 0.028926075 0.0050825803 -0.11132754 -0.15242696
-0.19624923 -0.04840509 -0.09726173 0.071448684 -0.18475273 -0.06451341 -0.07011158 -0.106767654
0.02565088 -0.067623004 0.032008912 -0.0012872589 -0.09728396 0.07451511 -0.06401263 -0.07628052
0.03181651 -0.115571216 -0.03812112 -0.09320615 0.007158111 0.13190724 -0.1998449 0.047779676
0.04546029 -0.02323922 0.12737955 0.09264967 -0.0063491287 -0.1274133 -0.12140342 0.06507214
-0.15470299 0.03030875 -0.1985881 -0.03767159 -0.05838053 -0.1273095 0.03733741 0.101701364
0.11182651 0.15271069 -0.12408623 0.0010798302 -0.07028652 -0.16040476 -0.012723781 0.13464504
0.027567673 0.027373672 -0.07001928 0.14010093 0.107792065 -0.06820038 0.025347145 -0.0249471
-0.117798135 -0.17428738 0.029537722 -0.00036995643 -0.038516045 -0.14830324 -0.043692242 0.016611898
00000000: 4be1 40be 7c64 85bd 93d9 843d 7657 1ebe
00000010: ac9c efbc c2fa 23bd bc68 2abd 437d 0c3e
00000020: d808 3d3b 286e cbbd 0c7e 173d d162 e0bd
00000030: 3187 3fbd 99c4 f53c ba2f af3d c355 ae3d
00000040: 20c8 b33a fe8b 67be 88c5 19be e83a eb3c
00000050: 2617 28bd e850 72bd 0789 703d 81a3 593e
00000060: 6e2f 2b3b b7a1 b0bd e083 823d 4cc8 f83d
00000070: 418f f0bd cc3f a53d 057f f23d bee7 413e
00000080: db31 7abd a20e b03d 8195 0e3e c323 1b3e
00000090: 478f a33c 2601 19be a611 673c ef6b c9bd
000000a0: ecdb ea3d cad7 babd 8461 39be dc86 7c3d
000000b0: 196d 9a3c 3c0a 9ebd 9ad0 9d3c 1bde 00bd
000000c0: 0404 543d 3a32 0ebe 999d 02bd eb67 81be
000000d0: 843b 06be 744f b63d a278 46be 8a5c dc3d
000000e0: bfe6 853d 0859 18be b7b5 563d 49da 8d3d
000000f0: e5d8 30bd 5bc8 4bbe 5565 04be c13e a13d
00000100: 6083 8c3c 545e 1dbe 7589 65be e3cc 39bc
00000110: 866a 553d 9ea1 01be 6260 24be c2de 903b
00000120: dd79 d1bd f901 64bc fd14 1cbe cb5f 8b3d
00000130: ad9f 12be a4a3 32be f159 fbbd 387a 273e
00000140: c6fa 90bd c930 4abe bf49 ef3c d95c 403d
00000150: 79b2 b53d 56b3 cabd 04f5 c0bd d592 adbc
00000160: 2527 18be dd4d bc3d 18eb 623d dce8 b6bd
00000170: 8f9c 6c3d 5e05 11be 4158 d8bd 1946 eabd
00000180: 20e1 f33d aade dc3d 2065 cf3d 1c5d a13c
00000190: 0393 4fbd 6253 e03d 3e53 a63c 80f8 2e3d
000001a0: 43ad f3bd 9c46 ca3d bd31 48be e658 ccbd
000001b0: 6e08 f23d 9a40 df3d d93e 54bc 5b4d c83d
000001c0: 337b 883d 8eea 15be 99ef 53bd 9b06 33be
000001d0: c048 023e f7be 53bc 54cd 953d 2dbb 6f3e
000001e0: c5fb 1d3d 26e0 51bd 9716 c53d 6b57 14be
000001f0: 60f6 ec3c c68b a63b b1ff e3bd d015 1cbe
00000200: 8ff5 48be 6a44 46bd 2831 c7bd b053 923d
00000210: d22f 3dbe 9b1f 84bd a996 8fbd 00a9 dabd
00000220: cb21 d23c ee7d 8abd c71b 033d 3eb9 a8ba
00000230: d03c c7bd 619b 983d 0e19 83bd f638 9cbd
00000240: 0752 023d 9ab0 ecbd e424 1cbd dee2 bebd
00000250: 968e ea3b b112 073e 24a4 4cbe 9fb4 433d
00000260: 9234 3a3d 2d60 bebc c96f 023e 1cbf bd3d
00000270: 5a0c d0bb a278 02be 5ba2 f8bd 8b44 853d
00000280: 766a 1ebe 0e4a f83c ae5a 4bbe 864d 1abd
00000290: 6c20 6fbd 6c5d 02be 1def 183d ce48 d03d
000002a0: 4c05 e53d 3160 1c3e ec20 febd 1789 8d3a
000002b0: 61f2 8fbd 2541 24be 6877 50bc 64e0 093e
000002c0: 9ad5 e13c c03e e03c 4566 8fbd 9e76 0f3e
000002d0: 16c2 dc3d a4ac 8bbd d1a4 cf3c dc5d ccbc
000002e0: 2640 f1bd 6478 32be 18f9 f13c b6f6 c1b9
000002f0: 00c3 1dbd cedc 17be a3f6 32bd ad15 883c

lstm.bias_hh_l1 f4 [192]
0.0033378405 -0.107205756 -0.025350174 0.10338028 -0.15347223 -0.004995858 0.024188079 0.15921904
-0.10125451 0.019116487 0.12492516 0.08685917 0.005291038 -0.20222755 0.10858334 0.17430888
-0.037103135 -0.2005314 0.031877454 -0.07304824 0.033796962 -0.105879664 0.017466301 0.021474868
0.13074303 -0.019078674 -0.12801312 0.17884263 -0.17123418 -0.14784679 0.04495112 0.11105181
-0.025568558 -0.16654864 0.1779545 -0.07659592 0.024180798 -0.18959406 0.11053198 -0.13711606
-0.06574583 0.026324086 -0.08514832 -0.08316054 -0.030226057 -0.20731406 0.101577125 -0.10749524
-0.1269549 -0.04599204 -0.019858595 -0.009870444 0.09698077 0.0556561 -0.040177375 -0.07045922
0.013972004 -0.16857879 -0.06120986 -0.07413279 -0.016997498 -0.033128902 -0.09957722 -0.05470235
-0.025738377 -0.04919666 -0.18840429 -0.00769178 -0.084985614 -0.28082383 -0.12261917 0.108115055
-0.013142282 -0.12161782 0.07248259 0.08527849 0.06053677 -0.18704464 -0.13409495 0.15468751
0.009188869 -0.040550157 0.1487449 -0.036838755 0.047561012 -0.13037692 -0.16764326 -0.17597134
0.02687241 -0.11151448 -0.10776116 -0.14921445 4.8263242e-05 -0.13793921 -0.0374563 0.06252773
-0.06195769 0.17108741 0.029978802 -0.12281557 0.12023724 0.12512834 -0.07837575 0.21817128
-0.15478663 -0.06900793 -0.21484199 -0.1497185 -0.09509445 0.09362237 0.12231347 0.20494162
0.08814229 0.1020052 -0.10259387 -0.023337118 0.13991846 0.068545476 -0.1044071 0.25687227
0.0148204835 0.14976284 0.091854624 -0.13635547 0.021462383 0.025049968 -0.09345378 -0.2200662
-0.13173589 0.04843769 -0.21477602 0.0018725623 -0.1365239 -0.09054702 0.016643042 -0.024299785
0.0689281 -0.09763097 -0.023415 -0.07670467 0.004311322 -0.037062965 -0.059505545 -0.12526038
-0.2081051 -0.06499515 0.061527602 0.043641493 0.060367033 0.09288799 -0.21102098 0.105273
-0.12503566 0.10952838 0.074643634 0.03863335 -0.14848486 -0.18280347 0.01845703 -0.086197816
-0.019929975 -0.19954436 -0.046483543 0.005386945 0.09406784 -0.07268394 -0.14415954 0.18624882
0.05727458 0.0685083 0.06730473 -0.101841316 0.06921042 -0.05536315 0.04579934 -0.08348549
0.013753407 0.07000711 0.14414875 -0.12552747 0.069426134 -0.22121651 -0.032582913 -0.2261755
0.00361831 -0.19837649 -0.17229368 -0.13386527 -0.16547792 -0.09620399 0.042396367 -0.12218107
00000000: acbf 5a3b b18e dbbd 2bab cfbc 0ab9 d33d
00000010: d327 1dbe 4bb4 a3bb 1426 c63c 510a 233e
00000020: 865e cfbd 2e9a 9c3c c3d8 ff3d 38e3 b13d
00000030: 7260 ad3b bd14 4fbe f160 de3d 077e 323e
00000040: 75f9 17bd 1a58 4dbe ef91 023d 519a 95bd
00000050: af6e 0a3d 70d7 d8bd 7d15 8f3c 10ec af3c
00000060: 80e1 053e e14a 9cbc df15 03be 8622 373e
00000070: 0358 2fbe 2665 17be aa1e 383d 226f e33d
00000080: 2775 d1bc ba8b 2abe b439 363e 52de 9cbd
00000090: cf16 c63c f224 42be 975e e23d 2768 0cbe
000000a0: c0a5 86bd 9ca5 d73c 3e62 aebd 1350 aabd
000000b0: a39c f7bc 234a 54be ab07 d03d 7726 dcbd
000000c0: 7700 02be 2662 3cbd 7eae a2bc a5b7 21bc
000000d0: db9d c63d a7f7 633d 0891 24bd ec4c 90bd
000000e0: d5ea 643c eb9f 2cbe 31b7 7abd efd2 97bd
000000f0: 563e 8bbc 2cb2 07bd 24ef cbbd 920f 60bd
00000100: 4ad9 d2bc 7082 49bd 0eed 40be 540b fcbb
00000110: f00c aebd 24c8 8fbe c21f fbbd 6d6b dd3d
00000120: ba52 57bc c312 f9bd c171 943d 7da6 ae3d
00000130: 67f5 773d a188 3fbe 3050 09be 6766 1e3e
00000140: e98c 163c ec17 26bd 9550 183e 3ce4 16bd
00000150: 56cf 423d 8781 05be adaa 2bbe d531 34be
00000160: 8723 dc3c b461 e4bd e2b1 dcbd accb 18be
00000170: 436e 4a38 f03f 0dbe c76b 19bd 8a0e 803d
00000180: 59c7 7dbd 8a31 2f3e 1b96 f53c bb86 fbbd
00000190: f13e f63d a521 003e 7783 a0bd 4b68 5f3e
000001a0: 6380 1ebe 0854 8dbd 8aff 5bbe ce4f 19be
000001b0: e1c0 c2bd 16bd bf3d 7c7f fa3d 37dc 513e
000001c0: f283 b43d 1ae8 d03d bc1c d2bd 7c2d bfbc
000001d0: c946 0f3e 9261 8c3d 64d3 d5bd c384 833e
000001e0: 9dd1 723c 6e5b 193e 471e bc3d c5a0 0bbe
000001f0: e1d1 af3c 9735 cd3c b264 bfbd 0959 61be
00000200: c6e5 06be 9966 463d 3fee 5bbe c470 f53a
00000210: eccc 0bbe b770 b9bd fd56 883c 5810 c7bc
00000220: 2d2a 8d3d bff2 c7bd d0d0 bfbc 5717 9dbd
00000230: fd45 8d3b 56cf 17bd 16bc 73bd 4244 00be
00000240: 8119 55be 2d1c 85bd 5e04 7c3d 6cc1 323d
00000250: 6c43 773d 0f3c be3d e215 58be 5f99 d73d
00000260: 5909 00be 6a50 e03d c3de 983d 013e 1e3d
00000270: 6a0c 18be d530 3bbe 3333 973c 7b88 b0bd
00000280: 3044 a3bc 5b55 4cbe 8765 3ebd f884 b03b
00000290: a4a6 c03d 51db 94bd 8f9e 13be 03b8 3e3e
000002a0: c098 6a3d 144e 8c3d 10d7 893d 2e92 d0bd
000002b0: 31be 8d3d 78c4 62bd 1798 3b3d 71fa aabd
000002c0: f855 613c e35f 8f3d bb9b 133e 468a 00be
000002d0: 4a2f 8e3d 9586 62be a975 05bd 8d9a 67be
000002e0: 2b21 6d3b 3523 4bbe c16d 30be fa13 09be
000002f0: 0b73 29be 9906 c5bd d0a7 2d3d 123a fabd

linear.weight f4 [2, 48]
0.04720939 0.07202382 0.008763998 -0.19057736 0.025112737 -0.07199258 0.038813457 0.09048749
0.042169914 0.0083263675 -0.0651602 0.0065810587 0.09755065 0.027993277 0.023300884 0.11404772
0.05553163 0.060475055 -0.09058111 0.019635111 0.14952713 0.119306795 -0.21846947 0.18655486
-0.1791213 -0.14343847 0.11486507 -0.19242744 -0.115705736 -0.09487179 -0.08124366 0.026958153
-0.050648104 0.053904008 -0.059677277 0.11332362 -0.07740031 -0.02093449 0.035208076 0.0344419
0.23974785 0.11907284 -0.12292916 0.13021852 -0.044309746 -0.14978136 -0.14775072 0.11313548
-0.0166225 0.09840446 0.12738098 0.0698626 0.07544749 0.14208078 0.11576802 0.10191585
-0.16281988 0.08284731 -0.1926865 -0.11820627 -0.018917795 0.04255755 0.088345416 0.08637698
0.043340776 -0.013400468 -0.004013622 -0.11725291 -0.018745568 -0.1119881 0.12149374 0.1156764
-0.0022317185 0.14074758 0.06615754 -0.05159374 -0.059388254 0.11291428 0.029372241 -0.18888491
-0.0957479 0.08576899 -0.18807581 0.18500379 -0.169604 0.028539643 -0.15095553 0.011636713
-0.08512126 0.05724192 -0.069178596 -0.0020852515 0.06683068 0.02948291 -0.113385156 -0.14667907
00000000: a25e 413d 3981 933d df96 0f3c b626 43be
00000010: 3ab9 cd3c d970 93bd dcfa 1e3d 8151 b93d
00000020: 5cba 2c3d 516b 083c b672 85bd eca5 d73b
00000030: a3c8 c73d 2852 e53c 7fe1 be3c da91 e93d
00000040: 2275 633d b1b4 773d 9782 b9bd d0d9 a03c
00000050: a41d 193e 1f57 f43d 76b6 5fbe 3d08 3f3e
00000060: 936b 37be 89e1 12be 613e eb3d b30b 45be
00000070: 21f7 ecbd 244c c2bd 1363 a6bd 58d7 dc3c
00000080: 6374 4fbd 73ca 5c3d 2970 74bd 3716 e83d
00000090: 0e84 9ebd cf7e abbc 5836 103d f312 0d3d
000000a0: 7680 753e 76dc f33d 49c2 fbbd 0158 053e
000000b0: 237e 35bd 4960 19be f74b 17be 93b3 e73d
000000c0: e92b 88bc 4788 c93d 2970 023e 1f14 8f3d
000000d0: 3784 9a3d a07d 113e c917 ed3d 42b9 d03d
000000e0: 41ba 26be daab a93d 9c4f 45be 2116 f2bd
000000f0: 7ef9 9abc d350 2e3d 71ee b43d 6ae6 b03d
00000100: 1986 313d a38d 5bbc b484 83bb 4b22 f0bd
00000110: 4e90 99bc 045a e5bd b6d1 f83d c0e7 ec3d
00000120: 0642 12bb 2220 103e 9b7d 873d f553 53bd
00000130: 1941 73bd 9a3f e73d 0e9e f03c 0c6b 41be
00000140: 7a17 c4bd a7a7 af3d f296 40be a271 3d3e
00000150: acac 2dbe f8cb e93c 1694 1abe e9a7 3e3c
00000160: 0e54 aebd 8176 6a3d 82ad 8dbd b7a8 08bb
00000170: 86de 883d 2586 f13c 7a36 e8bd 0a33 16be

linear.bias f4 [2]
0.16091968 0.041635342
00000000: 21c8 243e d289 2a3d
