checkpoint/training_epochs_200_stepsize_7_gamma_0.75/model_epoch90.pth (torch, 117569 bytes, 10 tensors)

lstm.weight_ih_l0 f4 [192, 2]
0	0xbe0065c1	-0.12538816
1	0x3e124e6b	0.14287727
2	0xbe8e555d	-0.27799502
3	0xbe0d6360	-0.1380744
4	0x3d93e5cf	0.07221567
5	0x3c922ac8	0.017842665
6	0x3e1c4b36	0.15263066
7	0x3e4720cc	0.19446105
8	0x3ea47cdb	0.32126507
9	0x3e29b93c	0.16574568
10	0xbe973fa1	-0.29540733
11	0x3c2b57f3	0.01045798
12	0x3e8ca98f	0.27473113
13	0x3e801b6b	0.25020918
14	0x3e1f30ee	0.15546009
15	0x3e5ed1e5	0.21759756
16	0x3eb90cec	0.3614267
17	0x3ec08a03	0.37605295
18	0xbe1cb4ed	-0.15303393
19	0x3dc92d9f	0.09823155
20	0x3e12bd9b	0.14330141
21	0xbcd07ce1	-0.025450172
22	0x3da7e07b	0.08197113
23	0x3e19fe16	0.15038332
24	0x3e1b3d41	0.15160085
25	0xbd135d6b	-0.035977762
26	0x3d16022e	0.036623172
27	0xbdc8efaa	-0.09811337
28	0x3eb572ff	0.35439298
29	0x3dade499	0.08490867
30	0x3eca14ee	0.39469093
31	0x3e7a8512	0.24464825
32	0x3b557fed	0.003257747
33	0xbd2de236	-0.04245206
34	0x3ea6b556	0.32560223
35	0x3eaad11b	0.3336266
36	0x3e1f7207	0.15570842
37	0x3e10d967	0.14145432
38	0xbe223189	-0.15839209
39	0xbe3ea566	-0.18617782
40	0xbc3b06ec	-0.0114152245
41	0xbe3fcf86	-0.18731508
42	0xbe1e6dec	-0.1547162
43	0x3c7f6880	0.01558888
44	0x3e811c47	0.25216886
45	0x3db45329	0.08804924
46	0x3e9463e7	0.2898247
47	0x3e972156	0.2951762
48	0x3d2b4281	0.04181147
49	0x3e1ee84f	0.15518306
50	0x3debf294	0.115208775
51	0x3e5d3219	0.21601142
52	0xbcda1203	-0.026619917
53	0x3e51da6d	0.20493479
54	0x3dd3d910	0.10344136
55	0x3e234346	0.15943632
56	0x3dde47fa	0.10853572
57	0xbe7fffd8	-0.2499994
58	0x3ecf1704	0.40447247
59	0x3c042e22	0.00806764
60	0xbe27f000	-0.16400146
61	0xbdf0e0e6	-0.11761646
62	0x3de12862	0.109940305
63	0x3d53447a	0.051578976
64	0xbea21c7b	-0.31662354
65	0xbe99da2c	-0.30049264
66	0xbec7caba	-0.39021856
67	0xbed751dc	-0.4205464
68	0xbdf5e1e2	-0.12005974
69	0x3e2f6568	0.17128527
70	0x3d8a363e	0.06748627
71	0x3d154f9e	0.036452882
72	0x3e5a1d09	0.21300139
73	0x3d333b0e	0.04375749
74	0xbdd7c114	-0.105348736
75	0xbe997352	-0.29970795
76	0xbe564fa1	-0.20928814
77	0xbe990716	-0.2988822
78	0x3d6fc42c	0.058536693
79	0x3e830b2e	0.25594467
80	0xbe817499	-0.2528427
81	0xbe3506ec	-0.17678422
82	0x3e2bc928	0.16775954
83	0x3e41df49	0.18932833
84	0x3dc9c8da	0.098527625
85	0x3ccc2c0f	0.024923353
86	0xbddc9338	-0.10770267
87	0xbe76fa92	-0.24119022
88	0xbe6b9045	-0.23004253
89	0xbd4e0fb4	-0.050307944
90	0x3e840824	0.2578746
91	0x3e406246	0.18787488
92	0x3e3d3aa7	0.18479405
93	0x3e96d908	0.29462457
94	0x3cdd5c07	0.027021421
95	0xbd3abdbf	-0.045591112
96	0xbd42123a	-0.047380663
97	0x3e1ca2e3	0.15296511
98	0x3dd2b5a7	0.10288554
99	0x3dca2274	0.09869853
100	0xbe698bfa	-0.22807303
101	0xbda73042	-0.08163501
102	0xbdbf7864	-0.093491346
103	0x3dd770db	0.10519572
104	0xbab46f36	-0.0013766054
105	0x3e589e87	0.21154223
106	0xbe1a966f	-0.15096448
107	0x3dbe6fdb	0.092986785
108	0xbe775235	-0.24152453
109	0x3cedbf38	0.029021844
110	0xbe0d2e32	-0.13787153
111	0xbc1e17af	-0.009649201
112	0x3e51fbeb	0.20506255
113	0x3ea236f1	0.31682542
114	0x37409f2b	1.1481151e-05
115	0xbc14fa77	-0.009092919
116	0x3e6e625d	0.2327971
117	0x3e4a3148	0.19745362
118	0xbd90c0b0	-0.07068002
119	0x3d9e6ddc	0.07735798
120	0xbdfa8bcb	-0.12233695
121	0x3dc56f1c	0.09640333
122	0x3ea4ae0d	0.3216404
123	0xbd9274fe	-0.07151221
124	0x3e64ea6b	0.22355048
125	0x3e834c91	0.25644353
126	0x3c672da6	0.0141100045
127	0xbd993412	-0.07480635
128	0xbe74004e	-0.23828241
129	0xbe679843	-0.22616677
130	0x3d5c0e2c	0.053724453
131	0x3d57a532	0.052647777
132	0x3d0fb452	0.035084076
133	0x396136e5	0.00021478122
134	0x3e4cfe85	0.20018966
135	0x3e3dfc09	0.18553175
136	0xbe248c76	-0.16069207
137	0xbe0e9424	-0.13923699
138	0xbe565366	-0.20930251
139	0x3d5d5387	0.054034736
140	0xbcf8003f	-0.030273555
141	0x3d4defa8	0.050277382
142	0x3e9300b7	0.28711483
143	0x3e96c41c	0.29446495
144	0x3d9fcb6a	0.0780247
145	0x3cd81db0	0.026381344
146	0x3e1166a8	0.14199317
147	0x3eace9ba	0.3377207
148	0xbe0106a9	-0.12600197
149	0x3e2199c9	0.1578132
150	0x3e3292a1	0.17438747
151	0xbe51cf44	-0.20489222
152	0x3ea2a8ee	0.31769508
153	0x3e11ae3b	0.1422662
154	0x3e68f5ca	0.22750011
155	0xbdb7a876	-0.08967678
156	0x3d6dcb16	0.058055006
157	0xbd457deb	-0.048215788
158	0x3e2bfd21	0.1679578
159	0x3ea85d4b	0.32883677
160	0xbd7b3bad	-0.061336208
161	0xbdfca059	-0.123352714
162	0x3d05adea	0.03263656
163	0xbaf5caf8	-0.0018752506
164	0x3deac7ec	0.11463913
165	0x3d90f102	0.070772186
166	0xbe415c78	-0.1888293
167	0xbd810365	-0.062994756
168	0x3e69197b	0.22763626
169	0x3da307c9	0.07960469
170	0x3c219e34	0.009864379
171	0xbdf55108	-0.11978346
172	0x3a509eda	0.0007958241
173	0xbe62b643	-0.2213984
174	0x3e0feea0	0.14055872
175	0x3aef3cee	0.0018252411
176	0xbd1aafcb	-0.037765305
177	0xbe4ee174	-0.20203191
178	0x3d07ee2a	0.033186115
179	0x3e1ce104	0.15320212
180	0x3cb997b2	0.022655342
181	0x3e8b7eff	0.27245328
182	0xbe2ef001	-0.17083742
183	0xbe4cc199	-0.19995727
184	0x3df07bdc	0.11742374
185	0xbdf98f50	-0.12185538
186	0x3e6a3c59	0.22874583
187	0x3e048cf2	0.12944391
188	0x3d8ee6b1	0.06977595
189	0x3ea969c2	0.330885
190	0x3d845fd8	0.06463593
191	0xbebb93ce	-0.36636204
192	0x3df19694	0.117962986
193	0xbec128e9	-0.37726524
194	0x3df9f6c9	0.12205274
195	0x3e93d2b7	0.288717
196	0x3e16a127	0.14709912
197	0x3ebf9a50	0.3742242
198	0xbdc2c67e	-0.09510516
199	0x3f078858	0.5294242
200	0x3e88840a	0.26663238
201	0x3eab6346	0.33474177
202	0x3ccc245b	0.02491968
203	0x3e83408d	0.25635186
204	0xbf0a4a4f	-0.54019636
205	0x3d1c5740	0.038169146
206	0xbd58a6b9	-0.052893374
207	0x3eb402b7	0.3515832
208	0x3eff1bd4	0.4982592
209	0x3e921d77	0.28538105
210	0x3eb79f17	0.35863563
211	0x3dfc52c5	0.123204745
212	0xbd1ab06b	-0.0377659
213	0xbe9ba16a	-0.30396587
214	0xbe0167ac	-0.12637204
215	0xbed8443f	-0.42239568
216	0xbe893e51	-0.26805356
217	0xbeb9d5a0	-0.36295795
218	0xbeb8054e	-0.35941547
219	0x3d140c41	0.0361445
220	0x3dedd77f	0.11613368
221	0xbeedd892	-0.46454293
222	0xbe3ef1d7	-0.18646942
223	0xbeac89e3	-0.3369895
224	0x3ec6d774	0.38836253
225	0xbd9ab05a	-0.07553168
226	0x3ed1a6d0	0.4094758
227	0xbebefb99	-0.3730133
228	0x3e57a7bd	0.21060081
229	0x3ea1351a	0.31485826
230	0x3e889bae	0.26681274
231	0x3e5a803c	0.2133798
232	0xbe7111ac	-0.23541898
233	0xbe3c0a6f	-0.18363355
234	0x3e94b869	0.29046944
235	0xbd5354ac	-0.05159442
236	0xbe4febb7	-0.20304762
237	0xbeb5c90c	-0.3550495
238	0xbe3c4756	-0.18386588
239	0xbeb6e666	-0.35722655
240	0x3ead5aad	0.33858243
241	0xbe43cd67	-0.19121324
242	0xbdacec10	-0.08443463
243	0xbebbfca8	-0.367162
244	0x3e47fb25	0.19529398
245	0xbec7da20	-0.39033604
246	0xbf04494e	-0.51674354
247	0x3c569c64	0.01309881
248	0xbe7e5920	-0.24838686
249	0x3da9bc10	0.08287823
250	0x3ef615e6	0.48063582
251	0xbeaa8743	-0.33306322
252	0xbeb42a21	-0.35188392
253	0xbe10e977	-0.1415156
254	0x3d65b271	0.056078378
255	0xbecf0492	-0.40433174

lstm.weight_hh_l0 f4 [192, 48]
0	0xbd7754fd	-0.060383786
1	0x3e8b4755	0.2720286
2	0xbdcec318	-0.10095805
3	0xbd2d5473	-0.042316865
4	0xbce73086	-0.02822138
5	0xbc15554f	-0.009114577
6	0x3da8e633	0.08247032
7	0x3d9c5f1d	0.07635329
8	0xbd7e2600	-0.06204796
9	0xbd7beb3e	-0.06150364
10	0xbe213e87	-0.15746509
11	0xbcccacaa	-0.024984676
12	0x3c9200ec	0.017822705
13	0x3e0dbcb9	0.13841523
14	0xbd7702a8	-0.060305268
15	0xbe0dcc9b	-0.13847582
16	0x3b8027a3	0.003910975
17	0xbe0ad4f6	-0.135578
18	0xbdc227e7	-0.09480267
19	0x3e382edd	0.17986627
20	0xbd4c323c	-0.049852595
21	0xbcdc4769	-0.02688952
22	0x3cdbbf5c	0.026824646
23	0x3ddec540	0.10877466
24	0xbe8829c1	-0.26594356
25	0xbbd6f45c	-0.0065598916
26	0xbe123192	-0.14276722
27	0x3c807855	0.015682379
28	0xbe3419fa	-0.17588034
29	0xbe675dc5	-0.22594364
30	0x3d68404a	0.056701936
31	0x3d0ed690	0.03487259
32	0xbdce111a	-0.100618556
33	0x3bd4a6ab	0.006489595
34	0x3e8b3252	0.2718683
35	0x3df294c3	0.1184478
36	0xbc2f18f5	-0.010687103
37	0x3e637842	0.22213843
38	0xbe26022b	-0.16211765
39	0xbd3bda4b	-0.045862477
40	0x3dc55885	0.096360244
41	0xbe5af5cd	-0.21382828
42	0xbdc89ed5	-0.0979592
43	0x3e0a87a9	0.13528313
44	0x3c8cd3bd	0.017190808
45	0x3e248862	0.16067651
46	0x3dc5beae	0.0965551
47	0x3d66b574	0.05632539
48	0x3cc4bbed	0.024015391
49	0xbe0163ff	-0.12635802
50	0xbd0e14c2	-0.034687765
51	0xbe813338	-0.2523439
52	0xbe5934f4	-0.21211606
53	0xbe029e9e	-0.1275582
54	0x3edb09f5	0.42781034
55	0xbdfd7a64	-0.1237686
56	0xbeb1f13e	-0.34754366
57	0xbe32a614	-0.17446166
58	0x3f1ce797	0.6129088
59	0x3e918d16	0.28427953
60	0x3e88f324	0.26748002
61	0x3eeeee1a	0.46666032
62	0x3ee45efb	0.44603714
63	0x3e9cff89	0.30663708
64	0xbb83357a	-0.0040041776
65	0xbe526fc1	-0.20550443
66	0xbe9f3cc0	-0.31101036
67	0xbe94856d	-0.29008046
68	0x3e83f61d	0.25773707
69	0x3d265dc8	0.04061678
70	0x3e8ab204	0.2708894
71	0x3e936a09	0.28791836
72	0xbf17e5a3	-0.5933477
73	0x3f1c000e	0.60937583
74	0xbe2daabc	-0.16959661
75	0x3ea29486	0.3175394
76	0x3e650da3	0.22368483
77	0xbe9943bb	-0.29934487
78	0x3e8d4285	0.27589813
79	0x3e7fff83	0.24999814
80	0xbe40d0da	-0.1882967
81	0x3dcf072a	0.10108788
82	0x3e9468f6	0.2898633
83	0xbeb32638	-0.34990096
84	0x3f0a2f69	0.5397859
85	0xbdaf75f9	-0.085674234
86	0x3d94be45	0.072628535
87	0xbde74432	-0.11292304
88	0x3e009e0a	0.12560287
89	0xbf165a7f	-0.58731836
90	0x3e4ef9c2	0.20212463
91	0xbcba346f	-0.02273008
92	0xbd31aa07	-0.04337504
93	0xbeb6f7d5	-0.35735956
94	0x3ea8c8d0	0.32965708
95	0xbd8d143a	-0.068886235
96	0x3d209819	0.03920755
97	0xbdacd7d3	-0.08439603
98	0xbc82f276	-0.015984755
99	0xbddad444	-0.10685018
100	0xbdafc7c3	-0.085830234
101	0xbde69861	-0.11259533
102	0xbdccb6d1	-0.09995807
103	0xbea012b3	-0.31264266
104	0x3d0ce927	0.03440204
105	0xbd51af42	-0.05119253
106	0x3e195c24	0.14976555
107	0x3e056241	0.13025762
108	0xbc9d1779	-0.019176232
109	0x3d9cf046	0.07663016
110	0x3e99d5d4	0.3004595
111	0x3e1ead9f	0.15495919
112	0x3ddfa831	0.10920752
113	0xbdd90fb2	-0.10598697
114	0xbd830f46	-0.063993976
115	0xbd606a99	-0.05478916
116	0xbe2e7e6d	-0.17040415
117	0x3da5afdd	0.08090184
118	0xbd90c2a3	-0.07068374
119	0x3e46f65e	0.19429919
120	0xbe18f059	-0.14935435
121	0x3dcd7dac	0.10033736
122	0xbe165728	-0.14681685
123	0xbe1ce415	-0.15321381
124	0xbe58e27e	-0.2118015
125	0x3d2bf38a	0.041980304
126	0xbb0f452d	-0.00218613
127	0xbbb3dcb7	-0.0054889577
128	0x3c3f1cd4	0.011664588
129	0x3d573a03	0.05254556
130	0xbd17df51	-0.037078205
131	0x3ce2e9f7	0.027699454
132	0xbd102245	-0.035188932
133	0x3da6d7fc	0.081466645
134	0x3e5aa15a	0.21350613
135	0x3daea49c	0.085274905
136	0xbe0dda47	-0.13852797
137	0xbdb6b02d	-0.089203216
138	0xbc98753d	-0.018610591
139	0x3eaae6c1	0.33379176
140	0xbe94e101	-0.29077914
141	0xbec58cde	-0.38584036
142	0x3e232951	0.1593373
143	0x3e903e56	0.2817256
144	0x3e24111c	0.16022152
145	0x3f17e1d1	0.59328943
146	0x3dd28175	0.10278598
147	0xbd2a97f6	-0.041648827
148	0x3d5a0184	0.0532241
149	0x3cddc6a1	0.027072253
150	0xbe7a7492	-0.2445853
151	0xbdedd206	-0.116123244
152	0xbcac3297	-0.021020217
153	0x3e5b77ff	0.21432494
154	0x3dbff86b	0.09373554
155	0x3e416e8a	0.18889824
156	0xbdb08a86	-0.08620171
157	0xbdff86ed	-0.12476907
158	0x3df69874	0.12040797
159	0x3acec05e	0.0015773883
160	0x3ec3332c	0.3812498
161	0x3e4ca819	0.19985999
162	0xbd74f5d9	-0.05980477
163	0xbd37b6fd	-0.044852246
164	0xbdc8274a	-0.09773119
165	0x3ea7acf5	0.32749143
166	0xbd55cba4	-0.05219616
167	0x3defc9de	0.11708425
168	0x3d9c31f6	0.07626717
169	0xbe1a8512	-0.15089825
170	0xbc904ed8	-0.01761572
171	0xbde74ff4	-0.11294547
172	0xbed81eeb	-0.4221109
173	0x3e65ee7c	0.22454256
174	0xbde2d4ac	-0.1107572
175	0x3e2e01ee	0.16992924
176	0x3e771a35	0.24131091
177	0x3dfabe48	0.122433245
178	0x3e210320	0.15723848
179	0x3dcdf74f	0.10056936
180	0xbe627676	-0.22115502
181	0x3dcc3323	0.09970691
182	0x3e103b05	0.14085014
183	0x3e982060	0.297122
184	0xbe5faeec	-0.21844071
185	0x3c1777d7	0.009244881
186	0x3dc6f049	0.097137995
187	0x3db1d6a7	0.0868352
188	0xbdc4cce1	-0.0960939
189	0x3ce455d0	0.02787295
190	0x3d7290e7	0.05922022
191	0x3eeac0eb	0.4585031
192	0xbe39f51e	-0.18159911
193	0x3eb76239	0.35817125
194	0x3e37bc13	0.17942838
195	0x3d84f749	0.064924784
196	0x3e1cf3e8	0.15327418
197	0xbd311075	-0.043228585
198	0x3ca3d2e9	0.01999803
199	0x3c67c9f8	0.014147274
200	0x3e0734f4	0.13203794
201	0xbddb6358	-0.10712308
202	0x3e1944b2	0.14967611
203	0x3d963637	0.073345594
204	0xbda8f9d6	-0.082507774
205	0x3e1670e3	0.146915
206	0x3cb5cf47	0.022193564
207	0xbe0abe2f	-0.13549112
208	0xbb98abe9	-0.004659165
209	0xbe7f7408	-0.24946606
210	0xbd74ef87	-0.059798744
211	0x3d9e73dc	0.07736942
212	0xbe09268d	-0.13393612
213	0x3c7be594	0.01537456
214	0x3d5846a8	0.052801758
215	0xbdf1aa13	-0.11800017
216	0x3a9e07e1	0.0012056791
217	0x3ddfcd36	0.10927813
218	0xbed246f8	-0.4106977
219	0x3c317f6e	0.010833604
220	0xbe213c32	-0.15745619
221	0xbe07abf6	-0.13249192
222	0xbe610e50	-0.21978116
223	0x3c89b5c9	0.016810315
224	0x3c57b88c	0.013166558
225	0x3e83b8d1	0.2572694
226	0xbe319bf8	-0.17344654
227	0x3cb6a188	0.022293821
228	0x3da6a640	0.081371784
229	0x3db5b7da	0.088729575
230	0xbcb8d11a	-0.022560645
231	0xbe39a121	-0.18127872
232	0xbe87a1df	-0.26490685
233	0xbc686720	-0.014184743
234	0xbb33a39f	-0.0027410758
235	0x3dddf2cd	0.10837326
236	0xbd799e0b	-0.060941737
237	0x3e50e346	0.20399198
238	0xbe4ea0f4	-0.20178586
239	0x3dd9b220	0.10629678
240	0xbe2208e8	-0.1582371
241	0x3dee36c6	0.11631541
242	0x3e96a8c6	0.2942564
243	0xbe493cbc	-0.19652075
244	0xbcb86e2c	-0.022513472
245	0xbc113735	-0.00886326
246	0x3d47b6b6	0.04875823
247	0x3e04867b	0.12941925
248	0xbe8f060c	-0.279343
249	0xbda1a0a4	-0.07891968
250	0xbd434c4d	-0.047680188
251	0x3e1ad312	0.1511958
252	0x3db78fd4	0.0896298
253	0xbe40e599	-0.18837585
254	0xbd80cd04	-0.062891036
255	0x3d78ba54	0.06072457

lstm.bias_ih_l0 f4 [192]
0	0x3e166948	0.14688599
1	0xbe80f000	-0.25183105
2	0xbdf9febc	-0.1220679
3	0x3db67d22	0.08910586
4	0xbdf82ed1	-0.121183045
5	0xbe948f22	-0.29015452
6	0x3e1d8027	0.15380917
7	0xbdd8bf30	-0.10583341
8	0x3db04dc3	0.08608582
9	0xbc7d87ba	-0.015474254
10	0xbe3a79bb	-0.18210499
11	0xbb0c0ba7	-0.002136925
12	0xbd1360b0	-0.03598088
13	0x3db0857f	0.08619212
14	0x3e726376	0.23670754
15	0x3e168d92	0.14702442
16	0xbd21ff79	-0.03955028
17	0x3e71f438	0.23628318
18	0x3d20d07e	0.039261334
19	0xbe13e794	-0.14443809
20	0xbdb0f25a	-0.08639975
21	0xbd3c7c67	-0.046017077
22	0x3dfa1932	0.12211837
23	0x3d2e4f1c	0.042555913
24	0x3e8cc6fd	0.27495566
25	0x3c26f87e	0.010191081
26	0xbe24ab42	-0.16080955
27	0x3e82ec98	0.25571132
28	0xbd4f895a	-0.050668098
29	0x3dd4a5dc	0.10383198
30	0xbe6f59d8	-0.23374116
31	0x3c80d136	0.01572476
32	0xbe79bd27	-0.24388562
33	0xbe3dd520	-0.18538332
34	0xbea6853b	-0.32523522
35	0xbd93e642	-0.072216526
36	0x3dccc9c5	0.09999422
37	0xbec10ff8	-0.37707496
38	0xbe808f02	-0.25109106
39	0x3e23f50a	0.16011444
40	0xbd97df97	-0.07415693
41	0x3e696b83	0.22794919
42	0xbde5d4d6	-0.11222236
43	0xbcb70aca	-0.022344012
44	0xbe97a546	-0.2961828
45	0x3dc3007a	0.09521575
46	0x3dc910f1	0.098176844
47	0x3dad6e08	0.084682524
48	0xbe417ec2	-0.1889601
49	0x3e3dd78c	0.18539256
50	0xbda12a42	-0.07869388
51	0xbe05a827	-0.13052426
52	0xbd56d2e9	-0.052447233
53	0xbe1eff52	-0.15527084
54	0xbae17847	-0.0017201983
55	0xbe364718	-0.17800558
56	0xbd29fa68	-0.04149857
57	0x3ca79090	0.020454675
58	0x3e2fa62e	0.17153236
59	0x3d56dce0	0.052456737
60	0xbe2a0852	-0.16604736
61	0x3c6acd4d	0.014331174
62	0x3e2ddd56	0.16978964
63	0xbdbfd445	-0.09366659
64	0xbe2a53ca	-0.16633525
65	0x3e4ef01f	0.20208786
66	0x3ca9f664	0.020747371
67	0x3ea5b3d8	0.32363772
68	0xbdce9137	-0.10086291
69	0xbe5d61e9	-0.21619381
70	0x3d768852	0.0601886
71	0xbe020af5	-0.12699492
72	0xbcebda6d	-0.028790677
73	0x3e11ec21	0.14250232
74	0x3de752bb	0.112950765
75	0x3da118df	0.07866072
76	0x3ec2657e	0.37968057
77	0xbe12ecf4	-0.14348203
78	0x3dc71abc	0.09721896
79	0x3d85ada2	0.065272585
80	0xbdb47443	-0.08811238
81	0x3d2325d9	0.039831016
82	0xbdc21d60	-0.09478259
83	0xbde909bf	-0.11378812
84	0x3e3a3b11	0.18186595
85	0xbe1e42ec	-0.15455216
86	0xbe3448c6	-0.17605886
87	0x3e259668	0.16170657
88	0x3e09e1a1	0.13464977
89	0x3db7d4bc	0.08976123
90	0xbdc973c8	-0.09836537
91	0xbe98e6ea	-0.29863673
92	0xbe4b2640	-0.1983881
93	0xbdb24e07	-0.08706289
94	0xbdbc4862	-0.091934934
95	0xbdf39556	-0.11893718
96	0x3d041a11	0.03225142
97	0xbc6d081f	-0.014467268
98	0xbdd410a6	-0.10354738
99	0xbd972fc9	-0.07382161
100	0xbe04866b	-0.12941901
101	0xbe0492a1	-0.1294656
102	0x3d86748b	0.065651976
103	0xbd46a18c	-0.048493907
104	0xbcbd5e53	-0.023116266
105	0xbe0b4be0	-0.13603163
106	0xba58039e	-0.0008240285
107	0x3e7db845	0.24777324
108	0x3e352a86	0.17692003
109	0xbc936acb	-0.017995259
110	0xbc60e33f	-0.013726055
111	0x3e405bc8	0.18785012
112	0xbd27d473	-0.04097409
113	0xbdea52cd	-0.11441574
114	0xbdd38211	-0.103275426
115	0xbe2ab7e6	-0.16671714
116	0x3d518e22	0.05116094
117	0xbc216803	-0.0098514585
118	0x3d783412	0.060596533
119	0x3dd1a5bb	0.10236689
120	0xbd20b714	-0.039237097
121	0x3d776dff	0.060407635
122	0x3d950fdf	0.07278418
123	0x3e0826f5	0.13296111
124	0x3c6d163d	0.014470634
125	0x3d02506b	0.031814974
126	0x3e43ee7c	0.19133943
127	0x3de78f67	0.11306649
128	0xbd67cb50	-0.05659038
129	0xbd0345b9	-0.032048915
130	0x3dad7659	0.08469839
131	0xbdeca691	-0.115552075
132	0x3e2f0434	0.17091447
133	0xbc4c56ad	-0.012471837
134	0xbdbcc981	-0.09218121
135	0xbc6c2fb5	-0.014415671
136	0xbd7f1061	-0.06227148
137	0xbe0c251d	-0.13686033
138	0x3e000a1e	0.1250386
139	0x3d61261a	0.054967977
140	0x3d1c8661	0.03821409
141	0xbe1c6b79	-0.15275373
142	0xbbb99393	-0.005663344
143	0x3d389c4d	0.045070935
144	0xbd1e5e54	-0.038664177
145	0xbe625623	-0.22103171
146	0xbe3e0903	-0.18558125
147	0x3e44bc2c	0.19212407
148	0xbe07202b	-0.13195865
149	0xbe5e61bc	-0.2171697
150	0x3dd29a78	0.10283369
151	0x3dfa2aa8	0.12215167
152	0x3c989ecb	0.018630406
153	0xbe1880e8	-0.14892924
154	0xbbb02831	-0.005375885
155	0x3db653ed	0.08902726
156	0xbdfa2dd6	-0.12215774
157	0x3d09fbba	0.03368733
158	0x3ebfabc7	0.37435743
159	0x3e2a2a46	0.16617689
160	0xbdd67930	-0.104723334
161	0x3ec8e457	0.3923671
162	0x3cb9670e	0.022632148
163	0xbcb8f25a	-0.0225765
164	0xbcc76b45	-0.024343142
165	0xbd5a833b	-0.053347807
166	0xbd21e6af	-0.039526638
167	0x3d928666	0.07154541
168	0x3e34d3fe	0.17658994
169	0xbe045b03	-0.12925343
170	0x3c8d960c	0.017283462
171	0x3dd0b460	0.10190654
172	0x3d77a16f	0.06045669
173	0x3dfacfb4	0.122466475
174	0xbe162d43	-0.14665703
175	0xbc2fd96e	-0.010732992
176	0xbe8424fa	-0.2580946
177	0xbe8b5dd2	-0.27220017
178	0xbde936b0	-0.11387384
179	0xbbec790f	-0.0072165797
180	0x3db35c07	0.08757787
181	0xbe0dbd12	-0.13841656
182	0xbe97df45	-0.2966253
183	0x3d1586eb	0.03650562
184	0xbe6f7245	-0.23383434
185	0x3df0a001	0.11749268
186	0xbc637105	-0.013881926
187	0xbe61a366	-0.22034988
188	0xbe8d5c25	-0.27609363
189	0x3c8e759b	0.017390063
190	0x3d06a07e	0.0328679
191	0xbd972eae	-0.0738195

lstm.bias_hh_l0 f4 [192]
0	0x3d984cfc	0.074365586
1	0xbe43141d	-0.19050641
2	0x3d888919	0.06666774
3	0x3cced69e	0.025248822
4	0xbd998dab	-0.07497724
5	0xbe8bfd8b	-0.27341875
6	0x3e661a54	0.22470981
7	0xbe1ce006	-0.15319833
8	0x3e1f63c9	0.15565409
9	0x3d24b358	0.040210098
10	0x3d43126c	0.04762499
11	0x3e6f65d2	0.23378685
12	0x3db3ba9d	0.08775828
13	0x3e12879a	0.1430954
14	0x3e0bf281	0.13666727
15	0x3e84a7e5	0.25909343
16	0x3c3a1767	0.011358119
17	0x3e799167	0.24371873
18	0xbd8c40e3	-0.06848314
19	0x3d3f8ec2	0.046767004
20	0xbd8fce27	-0.07021742
21	0xbe7101ce	-0.23535845
22	0xbd501fc1	-0.050811533
23	0x3dfca7ed	0.12336717
24	0x3e82fd5a	0.25583917
25	0xbbc6d3ce	-0.0060677296
26	0xbdf656d0	-0.12028277
27	0x3e92cd7b	0.28672394
28	0x3d5e5c77	0.0542874
29	0x3e5677a4	0.20944077
30	0xbdb42b12	-0.087972775
31	0xbda5fd01	-0.08104897
32	0xbe797d91	-0.24364306
33	0xbe3e4c01	-0.1858368
34	0xbe8f161f	-0.27946565
35	0x3d4ea349	0.05044869
36	0x3e0c59a5	0.13706072
37	0xbe04e184	-0.12976652
38	0xbe10221a	-0.14075509
39	0x3d3bcb16	0.045847975
40	0xbe9ae676	-0.30253953
41	0x3e59f504	0.21284872
42	0xbde796c0	-0.1130805
43	0xbcdffe9b	-0.027343085
44	0xbe2ff9b2	-0.17185095
45	0x3e78004c	0.24218863
46	0x3d10d20d	0.03535657
47	0xbe0d01b9	-0.13770188
48	0xbd8e5d3d	-0.069513775
49	0xbd3f50af	-0.046707805
50	0xbdf1f108	-0.11813551
51	0xbd7cb507	-0.06169608
52	0xbe407a57	-0.18796669
53	0xbdb9236c	-0.09039959
54	0xbcc6c9b0	-0.024266094
55	0xbdbd151e	-0.092325434
56	0xbe12e0fa	-0.14343634
57	0xbd9a01ff	-0.07519912
58	0x3e4a7e50	0.19774747
59	0xbde3e680	-0.11127949
60	0xbe44dffa	-0.19226065
61	0xbd022573	-0.031773996
62	0x3e2ec80a	0.17068496
63	0xbd7e6e5c	-0.062116966
64	0xbd8a3573	-0.06748476
65	0x3e1631b8	0.14667404
66	0xbc155bb7	-0.009116105
67	0x3e891828	0.26776242
68	0xbde7247c	-0.11286256
69	0xbd23f3a3	-0.040027272
70	0x3c5505ba	0.013001854
71	0x3e16145c	0.14656204
72	0xbd2f7b5a	-0.042842247
73	0x3d23c378	0.039981335
74	0x3d8fe2a5	0.07025651
75	0xbdf08aad	-0.117452
76	0x3e8b2215	0.2717444
77	0xbdb36dfd	-0.08761213
78	0x3d1f0fc2	0.038833387
79	0x3c97663d	0.018481368
80	0x3c9b271e	0.018939551
81	0xbe114711	-0.14187266
82	0x3d68f412	0.05687339
83	0xbe164bcc	-0.14677352
84	0x3e1022b6	0.14075741
85	0x3d09542b	0.033527534
86	0x3cc8972f	0.024486152
87	0xbd81ffea	-0.0634764
88	0x3df277ab	0.11839231
89	0x3e288e6f	0.16460584
90	0x3c6c2f72	0.014415609
91	0xbe3b1e5b	-0.18273298
92	0xbcfaa38f	-0.030595569
93	0xbdea8390	-0.11450875
94	0x3d91d07b	0.071198426
95	0xbe0639ac	-0.13107938
96	0x3d5263b7	0.051364627
97	0x3d7156bf	0.05892062
98	0xbe1c3e4c	-0.1525814
99	0xbde2475c	-0.11048767
100	0xbdaa1bea	-0.083061054
101	0x3d0518a8	0.032494217
102	0x3e129fd7	0.14318787
103	0xbdb63bc4	-0.08898118
104	0xbe8a0f01	-0.26964572
105	0xbdc132a3	-0.09433486
106	0x3d281cca	0.04104308
107	0xbcb3d6f6	-0.021953087
108	0x3d37ed00	0.044903755
109	0x3e0507d9	0.12991275
110	0x3cfca8d7	0.030842228
111	0x3ccd24fd	0.025042051
112	0xbbbf8aa1	-0.0058453833
113	0x3dc45314	0.095861584
114	0xbdfea72b	-0.124342285
115	0x3b5003c6	0.003174053
116	0x3e1b6b23	0.15177588
117	0xbd3a5519	-0.04549131
118	0x3e51ddae	0.2049472
119	0x3cadb5b9	0.021204816
120	0xbd086f6e	-0.033309393
121	0xbd9232cd	-0.07138596
122	0x3b5dace5	0.0033824977
123	0x3d512fc6	0.05107095
124	0x3d69f002	0.057113655
125	0xbd3a13a1	-0.045428876
126	0xbc9c120a	-0.01905157
127	0x3d391132	0.045182414
128	0x3d7600b6	0.06005927
129	0xbdb489af	-0.088153236
130	0x3d0b5cdd	0.03402411
131	0xbe00d506	-0.12581262
132	0xbd88056a	-0.06641658
133	0x3c93ad65	0.018027017
134	0x3dd3aa14	0.10335174
135	0x3d154ebd	0.036452044
136	0x3c6a5e71	0.014304743
137	0xbe006a86	-0.12540635
138	0x3d8c949b	0.06864282
139	0xbd94d8ab	-0.07267889
140	0xbc4659b7	-0.012106351
141	0xbc9ea209	-0.019364374
142	0x3e689e9e	0.22716758
143	0x3cc9515b	0.024574926
144	0x3d64b9a0	0.05584109
145	0xbe4b6275	-0.19861777
146	0xbd7cdea8	-0.06173578
147	0x3c7ecc28	0.015551604
148	0xbdceae9b	-0.10091897
149	0xbe2de09f	-0.16980217
150	0x3e46575a	0.1936926
151	0xbdc9ea3c	-0.0985913
152	0x3e65c7de	0.22439525
153	0xbe23069c	-0.1592049
154	0xbe1d0a75	-0.1533602
155	0x3e7f9eb4	0.24962884
156	0x3b5288cd	0.0032124997
157	0x3c39486e	0.0113087725
158	0x3e99b383	0.3001977
159	0x3df7ee12	0.12105955
160	0x3c8bcbd9	0.017064976
161	0x3e36ad79	0.17839612
162	0xbe0031c1	-0.1251898
163	0xbb91d750	-0.004450716
164	0x3cc7a770	0.024371833
165	0xbb4187ba	-0.0029530362
166	0x3d9a8c00	0.07546234
167	0xbc2eb8fa	-0.010664219
168	0x3dd5334d	0.104101755
169	0x3ca5c17b	0.02023386
170	0x3df49bba	0.11943765
171	0x3d5cfd37	0.053952422
172	0x3e60babf	0.21946238
173	0x3e0b3be9	0.13597073
174	0xbe44a25e	-0.19202563
175	0x3d2a5cb1	0.041592304
176	0xbe86b6ef	-0.26311442
177	0xbda2e902	-0.07954599
178	0xbe6e0435	-0.23243792
179	0x3c0841bc	0.008316454
180	0x3e6e4715	0.23269303
181	0xbe4f9d96	-0.20274958
182	0xbe852181	-0.26002124
183	0x3e00cb51	0.12577559
184	0xbe60ba9c	-0.21946186
185	0x3e2a69dc	0.16641945
186	0xbd99f45a	-0.075173095
187	0xbd1dbbf9	-0.038509343
188	0xbdeffbce	-0.1171795
189	0x3c90a6b1	0.01765761
190	0x3de4e424	0.11176327
191	0x3cd0adfd	0.02547359

lstm.weight_ih_l1 f4 [192, 48]
0	0x3d4f5f2b	0.05062787
1	0x3eb47fd1	0.35253766
2	0x3e556b82	0.20841792
3	0xbdc259fc	-0.094898194
4	0x3d6b2d79	0.057416413
5	0x3d30eb14	0.043192938
6	0xbe3785d4	-0.17922145
7	0xbe9bd1af	-0.30433413
8	0xbdf42334	-0.11920777
9	0x3e084364	0.13306957
10	0xbdeaba53	-0.1146132
11	0x3dabe1ab	0.08392652
12	0xbec24514	-0.37943327
13	0x3d8fd11a	0.07022305
14	0x3d8af5a5	0.06785134
15	0xbb1e64ae	-0.0024168896
16	0x3ec80276	0.39064378
17	0x3d86e646	0.0658689
18	0x3e0e1dc9	0.1387855
19	0x3e898dc7	0.2686598
20	0x3c4fe022	0.012687715
21	0x3e975bb9	0.29562166
22	0x3e11914e	0.14215586
23	0xbdb8f904	-0.09031871
24	0xbd521eb5	-0.051298816
25	0xbd7ca049	-0.061676297
26	0xbb7e4ded	-0.0038803772
27	0xbd900292	-0.0703174
28	0xbdc5677b	-0.09638878
29	0x3d3404df	0.043949958
30	0x3d0f214a	0.034943856
31	0xbd80625a	-0.06268759
32	0x3eca0796	0.39458913
33	0x3e80921a	0.25111467
34	0x3e54bdee	0.20775577
35	0x3eb3d58c	0.3512386
36	0xbb697875	-0.0035624777
37	0x3ea8db21	0.32979682
38	0x3dc8d18c	0.09805593
39	0x3eab82f9	0.33498362
40	0xbe6c8d8f	-0.23100875
41	0xbd5bd3d1	-0.0536688
42	0xbd8d993a	-0.06913991
43	0x3e98cca6	0.29843634
44	0xbe2481da	-0.1606516
45	0x3dc0b51b	0.09409543
46	0x3e029f71	0.12756135
47	0x3ea3e47d	0.3201026
48	0xbde6801d	-0.112549044
49	0x3e0e7182	0.13910487
50	0x3eabf016	0.3358161
51	0x3e4c6ab8	0.19962585
52	0x3e81971c	0.253106
53	0x3d4611a4	0.048356667
54	0xbea9ae7b	-0.3314093
55	0x3de5f7d1	0.11228908
56	0x3e4537c1	0.1925955
57	0xbd0c0f5a	-0.034194328
58	0x3c6f13ec	0.014592152
59	0xbde86efd	-0.11349294
60	0xbe8db524	-0.27677262
61	0xbde00557	-0.109385185
62	0xbe236ab7	-0.15958677
63	0xbe9733e2	-0.2953177
64	0xbcba1fe5	-0.022720287
65	0xbe6e61c2	-0.23279479
66	0x3db3d811	0.08781446
67	0x3d1355fd	0.035970677
68	0xbe7626e4	-0.24038273
69	0x3d8a1991	0.06743158
70	0xbea5cecc	-0.32384336
71	0xbe89416a	-0.2680772
72	0xbd8184e4	-0.06324175
73	0xbe65ef92	-0.2245467
74	0xbea4373b	-0.32073388
75	0xbd33614b	-0.043793958
76	0x3cffe655	0.03123776
77	0x3cfe2a05	0.031025896
78	0xbd5b3e55	-0.05352624
79	0xbe2fcab0	-0.17167163
80	0x3daafd02	0.08349039
81	0x3d92ef93	0.071746014
82	0xbe75ba20	-0.23996782
83	0x3eacb14b	0.33729014
84	0xbe16c346	-0.14722928
85	0xbd04f0a6	-0.032456063
86	0xbba0226c	-0.004886916
87	0xbe5100a1	-0.20410396
88	0x3cf70965	0.030155847
89	0x3e9ed816	0.31024235
90	0xbe312f73	-0.17303257
91	0x3dbfd303	0.09366419
92	0xbda38ea0	-0.07986188
93	0x3e9aab29	0.3020871
94	0xbebfca8c	-0.37459219
95	0xbd2771f5	-0.040880162
96	0xbe47a002	-0.19494632
97	0x3ea03c86	0.31296176
98	0x3dafea45	0.08589605
99	0x3cfeb8e8	0.03109403
100	0xbbaea2ab	-0.00532945
101	0x3dfa2d31	0.12215651
102	0x3e3cbe22	0.18431905
103	0x3e47d2e6	0.19514045
104	0x3e075602	0.13216403
105	0xbe7bbceb	-0.24583785
106	0xbca7fbcf	-0.020505814
107	0xbda4a1a6	-0.080386445
108	0x3da87ff2	0.08227529
109	0xbd7dd2a2	-0.061968453
110	0xbe1856cf	-0.14876865
111	0xbdbea413	-0.093086384
112	0xbdb5d431	-0.08878363
113	0xbd6bc47b	-0.057560425
114	0xbddc9f08	-0.1077252
115	0x3c86a2b4	0.016435005
116	0x3bdff35a	0.0068344297
117	0x3dab73df	0.0837171
118	0x3d4593b7	0.048236575
119	0xbdca912e	-0.09890972
120	0xbdba9fbc	-0.09112498
121	0xbd8ee07c	-0.06976411
122	0xbe91d34b	-0.28481516
123	0x3b65f827	0.0035090537
124	0x3cf6f9c4	0.030148394
125	0xbe50d61c	-0.20394176
126	0xbe3b655e	-0.18300387
127	0x3d7a3804	0.061088577
128	0x3d06166e	0.032736234
129	0x3e9b15ee	0.3029017
130	0x3c51ee1a	0.0128131155
131	0x3d4df426	0.050281666
132	0x3df285b6	0.118419096
133	0x3e08db23	0.13364844
134	0xbb5ac296	-0.0033380142
135	0xbe032325	-0.12806375
136	0xbe587f3f	-0.2114229
137	0xbe555a51	-0.20835234
138	0xbdfbae02	-0.12289049
139	0x3d96c4c8	0.07361752
140	0x3a8c3205	0.0010696059
141	0x3e245afa	0.1605033
142	0xbe243a1d	-0.16037793
143	0xbcbbb004	-0.02291108
144	0xbe0c3f54	-0.13696033
145	0x3dc76a85	0.09737114
146	0x3d556a00	0.052103043
147	0xbe0d0bb6	-0.13773999
148	0xbda48c8c	-0.0803462
149	0x3dc77caa	0.09740575
150	0x3d227354	0.039660767
151	0xbe6bfc9b	-0.2304558
152	0xbbdcd8c9	-0.00673971
153	0xbd3255aa	-0.043538727
154	0x3d59140d	0.052997638
155	0xbdccde89	-0.10003383
156	0xba99d3d5	-0.0011736104
157	0xbd50c067	-0.05096474
158	0x3d2a6161	0.041596774
159	0xbdb3ca1c	-0.08778784
160	0x3df7872b	0.12086328
161	0xbe404b59	-0.18778743
162	0xbe592a01	-0.2120743
163	0x3e082d23	0.13298468
164	0xbbb67896	-0.005568574
165	0x3e5c192d	0.21493979
166	0x3dd3ec01	0.103477485
167	0x3d17209a	0.036896326
168	0xbda84775	-0.08216754
169	0xbe071538	-0.13191688
170	0xbde36bcb	-0.11104544
171	0xbcb99a4f	-0.022656588
172	0xbcca19a8	-0.024670437
173	0x3caaf9fb	0.020871153
174	0x3dfbf952	0.123034135
175	0xbdcd0fce	-0.1001278
176	0x3e0e7dd5	0.13915189
177	0x3e1d79ff	0.15378569
178	0x3c8d9c8a	0.017286558
179	0x3b94ff08	0.0045470037
180	0x3db2696e	0.08711515
181	0x3d1b0823	0.037849557
182	0xbdaf58cf	-0.08561861
183	0xbe32218c	-0.1739561
184	0xbd945185	-0.07242111
185	0xbd6378e8	-0.055535227
186	0x3db21e6f	0.08697211
187	0x3d8e492b	0.069475494
188	0xbe4e9504	-0.20174032
189	0x3d93f3ed	0.072242595
190	0xbe0ccb9f	-0.1374955
191	0x3e2858d6	0.16440138
192	0xbd701915	-0.05861767
193	0x3e363575	0.1779383
194	0x3d05a327	0.032626297
195	0x3d1c2628	0.038122326
196	0x3eaaf948	0.33393312
197	0x3dc3cbd3	0.09560361
198	0xbd6dba46	-0.058038972
199	0x3dad51ca	0.08462866
200	0x3d984b0d	0.0743619
201	0xbe04ba22	-0.12961629
202	0x3df2a25c	0.11847374
203	0xbddd54e5	-0.10807208
204	0xbe850171	-0.25977662
205	0x3c95490d	0.01822331
206	0xbe4b74d7	-0.1986879
207	0xbe188516	-0.14894518
208	0x3e04b111	0.1295817
209	0xbe031dfc	-0.12804407
210	0xbe0a49fa	-0.13504782
211	0xbc97363e	-0.018458482
212	0x3dd5c9e1	0.10438896
213	0xbda8226d	-0.08209691
214	0xbe54eef6	-0.20794281
215	0xbdfe1656	-0.12406604
216	0xbe5782b4	-0.21045953
217	0xbd3753a2	-0.044757493
218	0xbe27f59a	-0.16402283
219	0x3c828145	0.015930781
220	0x3e3958e2	0.18100312
221	0x3d946130	0.072450995
222	0xbe9114b6	-0.28336114
223	0xbd4ee022	-0.05050672
224	0xbcc5903c	-0.024116628
225	0x3e0a1e59	0.13488139
226	0xbcdae576	-0.026720744
227	0x3dcca6d4	0.099927574
228	0xbd39a9b4	-0.045327857
229	0x3d15ccae	0.03657215
230	0xbe1161a7	-0.14197408
231	0xbd00d862	-0.03145636
232	0xbe2cb674	-0.16866475
233	0x3c97bd9c	0.01852303
234	0xbdde38c0	-0.10850668
235	0x3dce1906	0.100633666
236	0x3dc38789	0.09547336
237	0x3d2f8034	0.042846873
238	0xbe86ec80	-0.2635231
239	0x3d909ad9	0.07060785
240	0xbdf90db7	-0.12160819
241	0xbd61c564	-0.055119887
242	0x3d9a5905	0.075365104
243	0x3e11b0d1	0.14227606
244	0xbd08df91	-0.033416335
245	0x3c1bc4d5	0.009507378
246	0x3e5a0085	0.2128926
247	0x3e2f0a7c	0.17093843
248	0x3d6444b2	0.055729575
249	0x3d196c11	0.037456576
250	0xbcdbb4ab	-0.026819548
251	0xbdf5f0df	-0.12008833
252	0xbe42db3e	-0.19028947
253	0x3cfac127	0.03060968
254	0xbea65bb0	-0.32491827
255	0xbe5e62fc	-0.21717447

lstm.weight_hh_l1 f4 [192, 48]
0	0x3d227306	0.039660476
1	0xbdd6c554	-0.10486856
2	0xbd1e3260	-0.03862226
3	0xbebac8aa	-0.3648122
4	0xbe417364	-0.18891674
5	0x3dd0f668	0.10203248
6	0xbd4ed43e	-0.05049538
7	0xbcdcb92a	-0.026943762
8	0x3d53741b	0.0516244
9	0xbe83ec1e	-0.2576608
10	0xbdac59a2	-0.084155336
11	0x3e019a24	0.12656456
12	0x3e3cbc3a	0.18431178
13	0xbd2a919f	-0.04164278
14	0xbebded29	-0.37095
15	0x3d09ffc0	0.033691168
16	0xbd991d89	-0.074763365
17	0x3d7cee75	0.061750848
18	0x3e020509	0.12697233
19	0xbdfd488b	-0.12367352
20	0x3e08a628	0.13344634
21	0x3d5b24e7	0.05350199
22	0xbd2601ba	-0.04052899
23	0xbde8b32e	-0.11362301
24	0xbe0b1ed3	-0.13585977
25	0xbdfc5ac8	-0.12322003
26	0xbe07ec4c	-0.13273734
27	0x3c636706	0.013879543
28	0x3deac693	0.11463656
29	0xbb5ad66a	-0.003339196
30	0x3e0e833e	0.13917252
31	0xbc8de5c1	-0.01732147
32	0x3d1a277f	0.037635323
33	0xbe78e71c	-0.24306911
34	0x3d91bfbe	0.0711665
35	0x3d9d0cca	0.07668455
36	0x3e5244d7	0.20534073
37	0x3ded62f5	0.1159114
38	0x3e678442	0.22609046
39	0x3e2113e3	0.15730242
40	0x3d0f7e3a	0.03503249
41	0xbd6ad481	-0.057331566
42	0x3bd53f15	0.006507764
43	0x3da516c5	0.080609836
44	0xbdd2de9d	-0.10296366
45	0xbe5a64b9	-0.21327485
46	0x3e2e0aea	0.16996351
47	0x3d3836e4	0.044974223
48	0x3d8619bf	0.065478794
49	0xbe13ed21	-0.14445926
50	0xbde9347b	-0.11386963
51	0xbdbf1617	-0.09330385
52	0x3cd32720	0.025775492
53	0x3e28c6fe	0.1648216
54	0xbe0559bd	-0.13022514
55	0xbc8dc413	-0.01730541
56	0x3dbb9163	0.0915859
57	0x3e3e40f6	0.18579468
58	0x3d3d9ef3	0.046294164
59	0x3d15bd09	0.03655723
60	0x3dc09206	0.09402852
61	0xbda27af1	-0.079336055
62	0xbd841a23	-0.06450298
63	0xbda387ff	-0.079849236
64	0xbe0ea5fa	-0.13930503
65	0x3d903358	0.07041043
66	0x3e0f4e51	0.13994719
67	0x3e193168	0.14960253
68	0x3d98b5fd	0.074565865
69	0xbdc52d6b	-0.096278034
70	0x3da151e4	0.078769475
71	0x3dbf079c	0.09327623
72	0x3d624dbd	0.05524992
73	0x3d97934f	0.07401144
74	0xbd92d492	-0.07169451
75	0x3cd5ce2b	0.026099285
76	0x3e0087b0	0.1255176
77	0xbe1dfdd8	-0.15428865
78	0x3c9ec199	0.019379424
79	0xbcb3a9a8	-0.021931484
80	0x3e37629d	0.17908712
81	0xbd91c0c7	-0.071168475
82	0xbd984a96	-0.07436101
83	0xbdb7bd65	-0.08971671
84	0xbd617aa9	-0.05504862
85	0x3dbe5297	0.092930965
86	0x3e2eac01	0.17057802
87	0xbdcfa433	-0.101387404
88	0x3e00af76	0.12566933
89	0xbda8e31e	-0.08246444
90	0x3e6b1274	0.22956258
91	0xbd8017e6	-0.06254558
92	0x3ddfd53d	0.10929344
93	0xbd9ddc01	-0.07707978
94	0xbd7b6ceb	-0.06138317
95	0xbe0862ea	-0.13318983
96	0xbda8e472	-0.082466975
97	0xbd4f6546	-0.05063369
98	0xbe516377	-0.20448099
99	0xbd3320d8	-0.043732494
100	0xbdf0b206	-0.11752705
101	0xbe2e43c7	-0.17018043
102	0x3cbd09a8	0.023075894
103	0xbda34064	-0.07971266
104	0x3d8d96d9	0.069135375
105	0xbd27554c	-0.04085283
106	0x3cd16bc3	0.02556408
107	0xbc52a8c3	-0.012857619
108	0x3b038f2d	0.0020074353
109	0x3dba1089	0.09085185
110	0x3d0efc09	0.03490833
111	0xbdc53564	-0.09629324
112	0xbe227cbc	-0.15867895
113	0xbdcf41c6	-0.10119967
114	0xba89ff8e	-0.0010528432
115	0x3e7a539f	0.24445961
116	0xbd5e751b	-0.0543109
117	0xbc7f542e	-0.015584035
118	0xbd989831	-0.07450903
119	0xbd3108c5	-0.043221254
120	0x3c96506b	0.018348893
121	0xbe114dee	-0.14189884
122	0xbda3bbbf	-0.07994794
123	0x3d3d1f23	0.046172272
124	0x3e5aad76	0.21355233
125	0xbd0dd73d	-0.034629095
126	0x3e44db5f	0.19224308
127	0xbba3a1b5	-0.004993642
128	0x3dc3d105	0.09561352
129	0x3d6fcfc9	0.05854777
130	0x3d59deed	0.053191114
131	0xbde078f1	-0.10960568
132	0x3e2247ca	0.15847698
133	0xbdd60ea1	-0.10452009
134	0x3d9c9d71	0.07647217
135	0xbc9d786b	-0.019222459
136	0xbd33486e	-0.043770246
137	0xbd5fb7b3	-0.05461855
138	0x3e6b779f	0.2299485
139	0xbe2ff2e8	-0.17182505
140	0x3e38b389	0.18037237
141	0xbdef28d3	-0.116777085
142	0xbd24199e	-0.040063493
143	0xbdf28f76	-0.11843769
144	0x3d6db7d6	0.058036648
145	0x3cfcbb3f	0.030851005
146	0x3d2f76ed	0.042838026
147	0xbe932589	-0.28739575
148	0xbdc59410	-0.09647381
149	0x3e09e76c	0.13467187
150	0x3da8eb55	0.08248011
151	0xbd59884a	-0.05310849
152	0xbc4ada40	-0.012381136
153	0xbe432bae	-0.19059631
154	0xbe23d41c	-0.15998882
155	0x3dcc4ae5	0.099752225
156	0x3e014ec2	0.126277
157	0xbda44576	-0.08021061
158	0xbe4cedb1	-0.20012547
159	0x3da2e001	0.079528816
160	0xbe446bd1	-0.19181754
161	0x3e25d104	0.16193014
162	0x3dbcbf51	0.09216178
163	0xbe21731c	-0.15766567
164	0x3d10e568	0.03537503
165	0xbd8e0cda	-0.06936045
166	0x3d758667	0.05994263
167	0x3d8d9a9a	0.069142535
168	0xbe622ea4	-0.22088104
169	0xbbdf79c2	-0.0068199346
170	0xbde9c633	-0.114147566
171	0xbc7e5888	-0.015524037
172	0xbd32d9dd	-0.043664802
173	0x3dffa48b	0.12482556
174	0x3d69c806	0.057075523
175	0x3e047094	0.1293357
176	0x3ded590e	0.115892515
177	0x3e045bc0	0.12925625
178	0x3b9a8d08	0.0047165193
179	0xbc81332c	-0.015771471
180	0xbe104719	-0.14089622
181	0x3e12351e	0.14278075
182	0xbdc8157b	-0.09769722
183	0xbdf23448	-0.11826378
184	0x3bf92d57	0.007604282
185	0x3d6f9c5d	0.05849873
186	0xbdc4694b	-0.095903955
187	0x3dcee31e	0.10101913
188	0x3d9d7602	0.07688524
189	0xbe0b637b	-0.13612168
190	0x3d2ba568	0.04190579
191	0xbccf9c10	-0.025342971
192	0xbe787270	-0.24262404
193	0xbe21b20d	-0.15790577
194	0xbbf550ef	-0.0074864547
195	0x3d26ba47	0.04070499
196	0xbe1fa62f	-0.15590738
197	0x3e2cac15	0.16862519
198	0xbe7a3182	-0.24432948
199	0xbe098d5a	-0.13432828
200	0x3dc0dc6c	0.09417042
201	0x3e9df64f	0.3085198
202	0x3dde6f17	0.108610325
203	0x3d594f98	0.053054422
204	0xbd1035d4	-0.035207585
205	0x3e257864	0.16159207
206	0x3d6f401c	0.05841075
207	0xbe15e69a	-0.14638749
208	0x3b4f9e5c	0.0031680083
209	0xbe85f922	-0.26166636
210	0x3cd69641	0.026194694
211	0xbd71bd7d	-0.0590186
212	0x3bee31dd	0.0072691278
213	0x3d61035d	0.054934848
214	0xbd3b68f0	-0.045754373
215	0x3dcb8cab	0.0993894
216	0x3d5b064a	0.053472795
217	0x3da6443a	0.08118482
218	0xbda15b6a	-0.07878764
219	0xbde8add6	-0.113612816
220	0x3e093262	0.13398126
221	0xbcd668e1	-0.026173057
222	0x3c631ef6	0.013862362
223	0x3d9a1013	0.07522597
224	0x3e40e441	0.18837072
225	0xbd78b966	-0.060723685
226	0x3e020714	0.12698013
227	0x3c568300	0.013092756
228	0x3dc98fbf	0.098418705
229	0xbe05d7aa	-0.1307055
230	0x3ca16670	0.019702166
231	0xbd8963d7	-0.06708496
232	0xbdf174ce	-0.11789857
233	0xbece6764	-0.40313256
234	0x3d9a4983	0.075335525
235	0x3d471805	0.04860689
236	0xbd8cb9eb	-0.068713985
237	0xbd4c9fd5	-0.049957115
238	0x3d0f57f5	0.03499599
239	0x3c8f3790	0.017482549
240	0xbd7e4ab6	-0.06208297
241	0xbe3fb3a2	-0.18720868
242	0xbe8405f9	-0.25785807
243	0xbd93b764	-0.07212713
244	0x3d137b37	0.03600618
245	0x3d235cdb	0.039883476
246	0xbe1f3339	-0.15546884
247	0x3c8eeafb	0.017446032
248	0x3db138df	0.086534254
249	0xbd289947	-0.0411618
250	0x3d9044aa	0.07044347
251	0xbb083d29	-0.0020788407
252	0x3d09e398	0.033664316
253	0x3e144ad8	0.14481676
254	0xbd3dd2ff	-0.0463438
255	0xbdb2e40e	-0.08734904

lstm.bias_ih_l1 f4 [192]
0	0xbdca0348	-0.09863907
1	0xbc5f6428	-0.013634719
2	0x3e149676	0.14510521
3	0x3c579ad0	0.013159469
4	0x3d84f0f3	0.0649127
5	0xbd660048	-0.056152612
6	0x3dcc3bc6	0.099723384
7	0x3e05c88e	0.13064787
8	0xbc771fdc	-0.015083279
9	0xbe06a7a6	-0.1314989
10	0x3d1b2009	0.037872348
11	0xbe2aeda1	-0.1669221
12	0x3e232da3	0.15935378
13	0x3e1ac2dd	0.15113397
14	0x3e1a55b4	0.15071756
15	0x3db475fa	0.08811565
16	0x3d369982	0.04457999
17	0xbe2524fe	-0.16127393
18	0x3dce288f	0.1006633
19	0xbd109d13	-0.035306048
20	0x3cbeb203	0.023278242
21	0x3dca34ce	0.09873353
22	0x3e4ae4e6	0.1981388
23	0x3e699bdb	0.2281336
24	0x3e2644c2	0.16237167
25	0xbd93f28e	-0.07223998
26	0x3e465ec1	0.19372083
27	0x3df6563a	0.12028165
28	0xbd83126d	-0.06399999
29	0x3e00284d	0.12515374
30	0x3ec4fd35	0.38474432
31	0x3e2cd19a	0.16876832
32	0xbda2362f	-0.07920491
33	0x3e3d7452	0.18501404
34	0x3df8352e	0.12119518
35	0x3e48c469	0.19606175
36	0x3d008280	0.031374454
37	0xbe7b4a55	-0.24540074
38	0x3dbccee3	0.09219148
39	0xbe5b4eeb	-0.21416824
40	0x3e58bff5	0.21166976
41	0xbd9b814e	-0.07593022
42	0xbdbeedc4	-0.09322694
43	0x3e7afd52	0.24510697
44	0xbd12e110	-0.035859168
45	0x3dca7670	0.098858714
46	0x3c8c3f73	0.017120099
47	0xbcf03f14	-0.029326953
48	0xbcf75d80	-0.030195951
49	0xbe456a79	-0.19278897
50	0xbd991c23	-0.0747607
51	0xbe7d6567	-0.24745713
52	0xbe0086ff	-0.12551497
53	0x3d99bd16	0.075067684
54	0xbdceacfd	-0.10091589
55	0x3cf7bef5	0.030242423
56	0x3cbc42dd	0.022981102
57	0xbd997e31	-0.07494772
58	0x3cc1d95d	0.023663217
59	0x3b7254d0	0.0036976822
60	0xbd1eac12	-0.038738318
61	0xbe5d0f01	-0.21587755
62	0xbe2ed2e6	-0.17072639
63	0x3cec059d	0.02881127
64	0xbd547e28	-0.051878124
65	0xbe6ac9d6	-0.22928557
66	0xbe38119f	-0.17975472
67	0xbda67f3d	-0.081297375
68	0x3daf62d5	0.085637726
69	0xbe012f78	-0.12615764
70	0xbe2ce2b2	-0.16883352
71	0xbd035815	-0.032066423
72	0xbdb4718e	-0.08810721
73	0xbd2cb7a2	-0.042167313
74	0xbdf0ce20	-0.11758065
75	0x3c784471	0.015153036
76	0xbe2b7f9a	-0.16747895
77	0xbe5f5b67	-0.21812211
78	0xbda980e3	-0.08276536
79	0x3e0268de	0.12735316
80	0xbe1a9093	-0.15094213
81	0xbe231ab0	-0.15928149
82	0xbcc4d806	-0.02402879
83	0xbc6b3923	-0.014356884
84	0x3d2c3fb2	0.042052932
85	0xbcb136b6	-0.021632534
86	0xbe07d4bf	-0.1326475
87	0xbd5db2e2	-0.054125674
88	0xbe13ce4e	-0.14434168
89	0x3da3e57d	0.08002756
90	0x3d82325c	0.063572615
91	0xbdd3a434	-0.10334054
92	0x3df7a96f	0.12092864
93	0xbdee2e06	-0.11629872
94	0xbe3b99c5	-0.18320377
95	0xbe2431e0	-0.16034651
96	0x3def323d	0.11679504
97	0x3d589d98	0.052884668
98	0x3d9cac61	0.07650066
99	0x3cf16bee	0.02947041
100	0xbd811b52	-0.06304039
101	0x3db95669	0.090496846
102	0x3c91f004	0.017814644
103	0x3c941853	0.018078005
104	0xbdf38773	-0.11891069
105	0x3de7dfb0	0.11321962
106	0xbe538477	-0.20656
107	0xbd79d953	-0.060998272
108	0x3dfd67c3	0.123733066
109	0x3daa78b7	0.08323806
110	0xbc473f33	-0.012161064
111	0x3d8d3c2d	0.06896243
112	0x3d6a6808	0.05722812
113	0xbe144b0a	-0.1448175
114	0xbd1122c7	-0.035433557
115	0xbe1853eb	-0.14875762
116	0x3dd35aaf	0.10320031
117	0xbcd4b0a4	-0.025963135
118	0x3dcf8c56	0.10134189
119	0x3e8a1fc8	0.26977372
120	0x3d44e8e0	0.04807365
121	0xbd963cd6	-0.07335822
122	0x3db74e8e	0.0895053
123	0xbe1c0ea3	-0.15239958
124	0x3d504005	0.050842304
125	0xbc9bf915	-0.01903967
126	0xbd8ac332	-0.06775512
127	0xbe10ada3	-0.14128737
128	0xbe0c9d6c	-0.13731927
129	0xbd847c41	-0.06469012
130	0xbdcbbe94	-0.09948459
131	0x3d910969	0.07081873
132	0xbe325dc1	-0.17418577
133	0xbd656d56	-0.056012474
134	0xbd5f0d78	-0.054456204
135	0xbdd398eb	-0.10331901
136	0x3c017168	0.007900573
137	0xbda24198	-0.07922667
138	0x3cf7ade5	0.030234287
139	0x3c889eb1	0.016677232
140	0xbda9f5b9	-0.08298821
141	0x3dbb7b9e	0.091544375
142	0xbd4c5753	-0.049887966
143	0xbd87ea6a	-0.06636508
144	0x3df2dab8	0.118581235
145	0xbd8d6ab3	-0.06905117
146	0x3d1eb437	0.038746085
147	0x3d84c7a0	0.06483388
148	0x3dccaad2	0.09993519
149	0x3ddd3547	0.108011775
150	0xbd41922f	-0.047258552
151	0x3d2a956d	0.04164641
152	0x3ca2e15f	0.019882856
153	0xbd7b1c32	-0.061306186
154	0x3de6a9f8	0.11262888
155	0x3d2325cc	0.039830968
156	0x3e51b6eb	0.20479934
157	0xbb9ce442	-0.0047879526
158	0xbd4bc603	-0.049749386
159	0x3d85f76a	0.06541331
160	0xbde07b31	-0.10960997
161	0x3dc0f092	0.09420885
162	0x3d756616	0.05991181
163	0xbdcee4c0	-0.10102224
164	0xba476f4a	-0.0007607831
165	0x3d017da8	0.031613976
166	0x3e273018	0.1632694
167	0x3d942984	0.07234481
168	0x3e86e050	0.26343012
169	0x3e256a23	0.16153769
170	0x3c02fb18	0.007994436
171	0xbc7aecc1	-0.015315236
172	0xbc18bf70	-0.009322986
173	0xbdec11d8	-0.11526841
174	0x3e831365	0.25600734
175	0x3e0702cd	0.13184662
176	0x3bfd88fb	0.0077372766
177	0x3df7a9c2	0.120929256
178	0xbdbe3fc5	-0.09289507
179	0x3e2b4bb4	0.16728097
180	0x3dddeafe	0.10835837
181	0xbe2b90f8	-0.1675452
182	0x3dd027e3	0.10163858
183	0xbe0edc8e	-0.13951322
184	0xbc9c6421	-0.019090714
185	0xbe23658f	-0.1595671
186	0x3deb608b	0.114930235
187	0x3e41d48f	0.18928741
188	0xbdc99754	-0.09843317
189	0x3d39bd24	0.045346394
190	0xbd53af30	-0.051680744
191	0x3c26ae0c	0.010173332

lstm.bias_hh_l1 f4 [192]
0	0x3dbe953c	0.09305808
1	0xbd642ccc	-0.055706784
2	0x3d60d1ce	0.054887585
3	0x3e8ad733	0.2711731
4	0xbd72f06c	-0.059311315
5	0xbcacf923	-0.021114891
6	0x3e297c78	0.16551387
7	0x3e1c557b	0.15266983
8	0xbdf42aba	-0.11922212
9	0xbc55d824	-0.01305202
10	0x3e00d4dc	0.125812
11	0x3cf1ad40	0.029501557
12	0x3e587a77	0.21140467
13	0xbda614ab	-0.08109411
14	0x3e31ee3d	0.17376037
15	0x3e358e18	0.17729986
16	0x3bc80d71	0.006105118
17	0xbe0af13b	-0.13568585
18	0x3e90bf95	0.28271165
19	0xbe0c5c13	-0.13706999
20	0x3dc8ef7a	0.098113015
21	0x3d550bae	0.05201309
22	0x3e20a55e	0.15688083
23	0x3d17d896	0.037071787
24	0x3e94bd1a	0.29050523
25	0xbba640a1	-0.0050736223
26	0x3b01ab29	0.0019785857
27	0x3e35e93a	0.1776475
28	0xbdf132d4	-0.11777273
29	0xbdd3b92a	-0.103380516
30	0x3e9f615c	0.31128967
31	0x3db942f2	0.09045972
32	0xbd32f401	-0.04368973
33	0xbd8a3d82	-0.06750013
34	0x3e23beb2	0.15990713
35	0xbd03391c	-0.032036886
36	0x3d11c671	0.03558964
37	0xbe92374c	-0.28557813
38	0x3e4125bb	0.1886205
39	0xbe8180d0	-0.2529359
40	0x3cfffbdf	0.031248031
41	0x3d2a7f62	0.041625388
42	0x3b2e4c70	0.0026595853
43	0x3dcd6718	0.10029429
44	0xbdadf2fa	-0.0849361
45	0xbd00267d	-0.031286705
46	0x3dcba3c3	0.099433444
47	0xbdd7c724	-0.1053603
48	0xbe55ecf0	-0.20891166
49	0xbdcca0ed	-0.09991632
50	0xbd8078f6	-0.062730715
51	0xbb962861	-0.0045824503
52	0x3dd2079b	0.10255357
53	0x3d2ad353	0.04170544
54	0x3d57f706	0.052725814
55	0xbe175cdf	-0.14781521
56	0xbce8e2dc	-0.028428487
57	0xbdc20bb6	-0.0947489
58	0xbdb8402e	-0.08996616
59	0xbe0f0d59	-0.13969935
60	0xbc4dca22	-0.012560399
61	0xbd4ccba5	-0.049998898
62	0xbe106533	-0.14101104
63	0xbdd6452e	-0.10462414
64	0xbdc21628	-0.09476882
65	0xbdff9851	-0.12480224
66	0xbe1374f6	-0.14400086
67	0xbd9f0657	-0.07764881
68	0xbd52bf11	-0.051451746
69	0xbe8f8f38	-0.28038955
70	0xbe06125e	-0.13092944
71	0x3d92b18d	0.071627714
72	0x3a87920a	0.0010343206
73	0xbe1976f7	-0.14986788
74	0x3ddbcdd6	0.107326195
75	0x3d049e61	0.032377604
76	0x3d1475a1	0.036244992
77	0xbe6c4064	-0.23071438
78	0xbdc0c75d	-0.094130255
79	0x3df2aa59	0.118488975
80	0xbd91541c	-0.07096121
81	0xbb1c01fe	-0.0023804898
82	0x3dc39871	0.0955056
83	0xbdc9076c	-0.09815869
84	0x3a6a71e4	0.00089433626
85	0xbd593a4b	-0.053034108
86	0xbe5304d8	-0.20607316
87	0xbe55ec6c	-0.20890969
88	0x3cfeeae1	0.031117858
89	0xbdfcca04	-0.12343219
90	0xbdcbf4f3	-0.0995883
91	0xbe2729a2	-0.16324475
92	0x3d817424	0.0632098
93	0xbde6a356	-0.112616226
94	0xbdeb91bc	-0.11502406
95	0x3c87c271	0.01657221
96	0xbd8392a1	-0.064244516
97	0x3dedd30c	0.116125196
98	0x3baacdfc	0.0052125435
99	0xbde7832f	-0.11304318
100	0x3ddcecf8	0.10787386
101	0x3dd9464f	0.106091134
102	0xbda59c45	-0.08086447
103	0x3e462d26	0.1935316
104	0xbe1e6db3	-0.15471534
105	0xbd5f75a5	-0.054555554
106	0xbe675244	-0.22589976
107	0xbde33366	-0.11093788
108	0xbdb761a9	-0.08954174
109	0x3d8af533	0.06785049
110	0x3dfc1f3d	0.12310646
111	0x3e3453af	0.17610048
112	0x3da13d12	0.07872976
113	0x3dd42713	0.10359015
114	0xbdb0b62d	-0.08628497
115	0x3b33427c	0.002735286
116	0x3ded5720	0.115888834
117	0x3d635a87	0.055506255
118	0xbd9c1463	-0.07621076
119	0x3e95c6ea	0.29253322
120	0x3cc742c8	0.024323836
121	0x3e02b543	0.12764458
122	0x3dae563e	0.08512543
123	0xbe1357fd	-0.14389034
124	0x3d31ad96	0.043378435
125	0x3a73391f	0.0009278226
126	0xbd4c503e	-0.049881212
127	0xbe55f0dc	-0.20892662
128	0xbd951b5f	-0.07280611
129	0x3d03b1eb	0.032152098
130	0xbe5e348b	-0.21699731
131	0x3aa2dbee	0.0012425163
132	0xbe00fadb	-0.12595694
133	0xbda807eb	-0.08204635
134	0x3d044b1a	0.032298185
135	0xbcaacfcf	-0.020851044
136	0x3d51a038	0.051178187
137	0xbddfb689	-0.10923488
138	0xbcce5a9e	-0.025189694
139	0xbd709979	-0.058740113
140	0x3c986d4d	0.018606806
141	0xbca41f12	-0.020034347
142	0xbd39e17f	-0.045381065
143	0xbdec39f8	-0.11534494
144	0xbdf880bf	-0.12133931
145	0xbc97576f	-0.018474309
146	0x3e0db731	0.13839413
147	0x3e4e8564	0.20168072
148	0x3e1cd206	0.15314493
149	0x3d8d4c15	0.06899277
150	0xbd6f5978	-0.058434933
151	0x3dcb09d2	0.099139825
152	0xbe1a3abd	-0.1506147
153	0x3d9259b5	0.071460165
154	0x3d755257	0.05989298
155	0xbc6868cf	-0.014185145
156	0x3d8055e7	0.062663846
157	0xbd767c2d	-0.060177017
158	0x3db88bf9	0.09011073
159	0xbdafd55c	-0.08585617
160	0x3cce2114	0.025162257
161	0xbe0ae607	-0.13564311
162	0x3e591ae9	0.21201672
163	0xbd6d6bd4	-0.05796416
164	0x3e1b5404	0.15168768
165	0x3db09e5f	0.08623957
166	0xbc9551f7	-0.01822756
167	0x3e20a840	0.15689182
168	0x3e55e45f	0.20887898
169	0x3d9e61b0	0.07733476
170	0x3e4c2b9b	0.19938509
171	0xbdf2261c	-0.11823675
172	0x3e054c60	0.13017416
173	0xbc2791d2	-0.010227637
174	0x3ea109f7	0.31452915
175	0xbdb0b59b	-0.086283885
176	0xbbc72132	-0.0060769552
177	0x3e277cbe	0.16356179
178	0x3df85e58	0.1212737
179	0xbdc96a0e	-0.098346815
180	0x3d8f586c	0.06999287
181	0xbea420cb	-0.3205627
182	0x3d3306b0	0.04370755
183	0xbeae75d2	-0.34074265
184	0x3dd19070	0.102326274
185	0xbe3c1060	-0.18365622
186	0xbdb1f904	-0.08690074
187	0x3d6486b7	0.055792537
188	0xbe66ce2f	-0.2253959
189	0x3dc79157	0.09744518
190	0x3d0ceec3	0.03440739
191	0xbe03b4d4	-0.12861949

linear.weight f4 [2, 48]
0	0x3e57757a	0.21040908
1	0x3e159046	0.14605817
2	0x3d805512	0.06266226
3	0xbe99886b	-0.2998689
4	0x3ddb8686	0.10719018
5	0xbd43a1da	-0.047761776
6	0x3dae38ce	0.085069284
7	0x3e0f1ec2	0.13976577
8	0x3d068631	0.03284282
9	0x3daabffe	0.08337401
10	0xbda2f3c6	-0.07956652
11	0xbbc8db71	-0.006129675
12	0x3e80a1a2	0.25123316
13	0x3e04b484	0.12959486
14	0x3e03c40e	0.12867758
15	0x3e2de95b	0.1698355
16	0x3e03c1dc	0.1286692
17	0x3e076e3d	0.13225646
18	0xbe7db304	-0.2477532
19	0x3c93925c	0.018014126
20	0x3e821ed3	0.25414142
21	0x3e346047	0.17614852
22	0xbe94bb5e	-0.290492
23	0x3e61b470	0.22041488
24	0xbe813e9d	-0.25243083
25	0xbe137e9e	-0.1440377
26	0x3e7c8f97	0.2466415
27	0xbe739b1c	-0.23789638
28	0xbe2ac867	-0.1667801
29	0xbe06c98f	-0.13162826
30	0xbe881239	-0.26576403
31	0x3c0fe8a0	0.0087834895
32	0xbda21f3f	-0.07916116
33	0x3dca56b9	0.09879822
34	0xbd9be9ff	-0.076129906
35	0x3e1086f0	0.14113975
36	0xbdcfa667	-0.101391606
37	0xbbcb1195	-0.0061971643
38	0x3c4af7e6	0.012388205
39	0x3d9c9733	0.076460265
40	0x3eb3bfae	0.35107177
41	0x3e1ce02c	0.1531989
42	0xbe4586c8	-0.19289696
43	0x3e8b65ff	0.27226254
44	0xbd2549e7	-0.040353682
45	0xbe70f56c	-0.23531121
46	0xbe3687bb	-0.17825215
47	0x3de4c4a3	0.11170318
48	0xbcf81b7e	-0.030286547
49	0x3de6c5f8	0.11268228
50	0x3e399e11	0.18126704
51	0x3e20c245	0.15699108
52	0x3e00bdb9	0.12572373
53	0x3e540de0	0.20708418
54	0x3e474838	0.19461143
55	0x3e0615ef	0.13094305
56	0xbe65149e	-0.22371146
57	0x3e0186c5	0.12649067
58	0xbe772e41	-0.24138738
59	0xbe224047	-0.15844832
60	0xbd291a1a	-0.041284658
61	0x3e0c3f3b	0.13695996
62	0x3e29167c	0.16512483
63	0x3ddcb507	0.10776716
64	0x3db5ff11	0.08886541
65	0xbd20864c	-0.039190575
66	0x3c0bafb7	0.00852578
67	0xbe1e1f53	-0.15441637
68	0xbccaac04	-0.024740227
69	0xbe54c637	-0.20778738
70	0x3e6da896	0.23208842
71	0x3e0ec141	0.13940908
72	0x3cf7f905	0.030270109
73	0x3e5d98fd	0.21640392
74	0x3dfb94fa	0.122842744
75	0xbd87e110	-0.06634724
76	0xbdb51fcd	-0.08843956
77	0x3e440508	0.19142544
78	0x3d9de768	0.07710153
79	0xbe859558	-0.26090503
80	0xbe117f5c	-0.1420874
81	0x3e14f240	0.14545536
82	0xbe68b8f2	-0.22726801
83	0x3e715eb7	0.23571287
84	0xbe5cb28e	-0.21552488
85	0xba6a72ca	-0.00089434965
86	0xbe61ced4	-0.22051555
87	0x3cf03fd7	0.029327316
88	0xbdf21978	-0.11821264
89	0x3da2e09c	0.07952997
90	0xbdd29705	-0.10282711
91	0xbcf4c3ba	-0.029878486
92	0x3e04635c	0.12928528
93	0x3d6a9ac3	0.0572765
94	0xbe058609	-0.13039412
95	0xbe5e6f47	-0.21722136

linear.bias f4 [2]
0	0x3e475b26	0.19468364
1	0x3d943786	0.07237153
