checkpoint/training_epochs_80_stepsize_7_gamma_0.75/model_epoch10.pth (torch, 117569 bytes, 10 tensors)

lstm.weight_ih_l0 f4 [192, 2]
000000 58 f7 65 3d e1 cb d9 3d 75 b7 d6 bd d6 86 22 bd
       0.05614409 0.1063459 -0.104842104 -0.03967937
000010 1c c5 2b 3e a6 10 47 3e a4 29 16 3d 4f a3 c7 bd
       0.1677441 0.19439945 0.036660805 -0.097479455
000020 99 ac 95 3d b8 1d 26 bd 1b 2b 0d be 3e c9 c4 3c
       0.07308311 -0.040555686 -0.13785975 0.024021741
000030 ea a8 86 bd a1 d2 0f 3e 44 40 12 be fc 2e 20 be
       -0.065751866 0.14045192 -0.14282328 -0.15642923
000040 a9 d1 d8 bd 5f 77 0c bc 8b f6 7f bd 1e 85 28 bd
       -0.105868645 -0.008573382 -0.06249098 -0.041142575
000050 ab dc ab 3b c8 88 8a 3c 42 e0 4d 3e d2 a8 22 3d
       0.0052448115 0.016910926 0.20105079 0.03971178
000060 18 24 30 be de b6 d8 3c 1d f2 17 be b1 1e 97 be
       -0.17201269 0.026454385 -0.14838453 -0.29515603
000070 90 c6 69 3e 51 d2 52 bc 79 a9 a3 3d f5 8e 80 3d
       0.22829652 -0.012867526 0.07991309 0.06277267
000080 6f fb fb bd f0 fc a9 3d a1 84 f0 b9 d8 56 c3 3d
       -0.123038165 0.08300197 -0.00045875183 0.095380485
000090 85 67 06 3e d1 4a e9 bd 69 1f 38 3e 4c dc 61 bc
       0.13125427 -0.11391223 0.17980732 -0.013785433
0000a0 cb a6 b5 3d 6c 3c 67 bc 2b e3 bb bd 03 e1 09 3e
       0.08869704 -0.014113527 -0.09174188 0.13464741
0000b0 b9 4b e9 3d c3 f8 83 bd 29 41 b1 3d 4d 72 49 bc
       0.11391396 -0.06443932 0.086550064 -0.012295318
0000c0 61 01 26 3e dc 41 e9 3d 3c 7f 2e be 8f 04 e1 bb
       0.16211464 0.11389515 -0.17040724 -0.0068669985
0000d0 a8 71 7e be 6f d0 86 be 27 84 e6 3d bc 1a 32 3b
       -0.24848044 -0.26330897 0.11255675 0.002717658
0000e0 9b c9 64 3d 6f cb d8 3d 99 09 7f be 19 48 b1 bd
       0.05585633 0.10585677 -0.24906005 -0.0865633
0000f0 dc 0a a1 bc d5 46 6c 3d 8a ee ad bd 61 13 0d 3e
       -0.019658498 0.05768474 -0.08492763 0.13776924
000100 d4 2f d8 bd 80 56 34 3d 9e 2e 09 be 1c b0 49 be
       -0.105559975 0.044027805 -0.1339669 -0.19696087
000110 db 0d 3e be f0 ef 61 3d 1c 60 1e b9 bd 4e a0 3d
       -0.18559973 0.055160463 -0.00015103858 0.07827518
000120 e5 66 33 be 9e d8 61 be 62 1e f8 ba dc d9 d4 3a
       -0.1751972 -0.22055289 -0.0018929953 0.0016239244
000130 81 0b 2f 3e 0f 96 8e bc 45 d2 38 3e 88 3c c7 bd
       0.17094232 -0.017405538 0.18048961 -0.09728342
000140 1b c6 0a 3e d3 2f 26 3e df 5a b1 bd 59 e0 25 bc
       0.13552134 0.16229181 -0.086599104 -0.010124289
000150 34 ea 2c 3d 3e 4d f8 bd 56 ed 4f bd 0a c8 0c be
       0.04221554 -0.12124108 -0.05076345 -0.13748184
000160 37 d6 34 be b8 be 0a be bd 8d 25 be 1c fe f4 bd
       -0.17659841 -0.13549316 -0.1616735 -0.1196253
000170 14 26 20 3e 8d e3 37 3e 3e c2 82 3e 7e 0b 79 3d
       0.15639526 0.17957897 0.2553882 0.060801975
000180 71 7a a3 3d c2 d0 c8 bc 5b 83 10 be a6 3a 50 be
       0.07982338 -0.024513606 -0.14112608 -0.20334873
000190 5e 28 3e 3e 05 93 52 3e 7d 7d c0 bd 13 fb 89 bd
       0.18570086 0.20563896 -0.09398935 -0.06737342
0001a0 3f b5 07 3e f8 96 54 be 54 35 47 bc 04 bf c0 3d
       0.13252734 -0.20760715 -0.0121587105 0.09411433
0001b0 f7 c0 69 bd 54 f4 12 bd a3 89 2f be 99 4c 11 be
       -0.05706879 -0.03587754 -0.17142348 -0.14189376
0001c0 53 ac 77 3d 58 e3 a0 bd 71 75 30 bd a7 fa 20 3d
       0.060467076 -0.078558624 -0.04308075 0.03930154
0001d0 9f 0c 0a bd 8c 49 13 3d 22 cc 58 3e 76 e2 82 3e
       -0.033703443 0.03595881 0.2117162 0.255634
0001e0 3b 31 70 be 0b b2 af bd 00 19 25 3d 57 03 30 be
       -0.2345628 -0.08578881 0.040307045 -0.17188774
0001f0 52 8c 1f bc 4e 3f 5e 3e 22 99 80 3e f6 cb 61 3d
       -0.009738045 0.21703836 0.2511683 0.055126153
000200 e1 ee 0d be e6 63 cc bd 3a 7e f7 bc 15 63 01 3b
       -0.13860656 -0.099799916 -0.030211557 0.0019742895
000210 3d fa 90 bc 84 d6 ea bd 2a 7c 36 bd c6 4f 80 3d
       -0.017697448 -0.11466697 -0.044552006 0.062652156
000220 27 a5 38 3e dc a0 82 3e 3b df 82 3c af ff 6b bd
       0.1803175 0.2551335 0.015975585 -0.057616886
000230 ee c5 ab bc 9f ed 8a bc 15 59 69 3e 94 df 22 3e
       -0.020968404 -0.01695901 0.22787888 0.15905601
000240 5b 43 24 3e ea e9 f1 bc b2 cc 73 3c 86 2f da bd
       0.16041319 -0.029530484 0.014880346 -0.106535956
000250 7a 03 60 be 3b 1d 05 be 19 89 db b7 ce 8f 71 3c
       -0.21876326 -0.12999432 -2.6170675e-05 0.014743758
000260 5c e2 80 bd e1 02 18 3e 7c b4 2d be 09 2c de bd
       -0.062931746 0.14844848 -0.1696338 -0.10848243
000270 74 24 74 3d 64 d4 a6 3c 60 29 b2 bd 01 d4 9a 3d
       0.059605077 0.020364948 -0.08699298 0.07559968
000280 ef f5 d3 bd 95 22 76 bc a3 0c 36 be 61 d3 6b bd
       -0.103496425 -0.015022893 -0.17778258 -0.057574634
000290 02 df b6 3c 1c 80 0e 3d 6b dd 77 3e ef 34 ad 3d
       0.022323135 0.034790143 0.24205558 0.08457362
0002a0 d2 ef 34 be d2 99 d5 bd 56 23 16 3e c1 8a 9a 3d
       -0.17669609 -0.104297295 0.14661917 0.075459965
0002b0 76 8b 23 3e c1 15 92 3c 34 27 26 bb de 70 df 3d
       0.15971169 0.017832639 -0.0025352957 0.109101996
0002c0 e0 b8 5d 3e 7c 52 13 3e d0 49 2c be a7 5b 67 bc
       0.21652555 0.14386934 -0.16825032 -0.014120973
0002d0 71 88 1a 3c 55 89 03 3e 04 b9 24 bd f7 26 a6 3d
       0.009431944 0.12845357 -0.040215507 0.08112901
0002e0 b5 41 01 be 38 8c 84 be 38 75 a7 3c bc fc c0 3c
       -0.12622721 -0.25888228 0.020441636 0.023558013
0002f0 9a f3 f6 bd 9e b8 f7 3d 83 e8 65 3e 2c 04 06 3e
       -0.12058182 0.1209576 0.22451977 0.13087529
000300 bb 25 5d be 6b a6 ad 3e 24 6d 39 3d aa c3 d0 3d
       -0.21596424 0.3391603 0.0452701 0.1019357
000310 5c 21 2b 3e 18 ee a9 3e 5f 1e 61 3e cf a8 58 3e
       0.16711944 0.33189464 0.21984242 0.21158145
000320 c1 72 88 be ee c8 8a 3e 8f 39 aa bd dd 6d 86 3e
       -0.2665005 0.27106422 -0.0831176 0.26255694
000330 f6 36 33 3d eb e0 cf 3d 8a 17 8d bc e4 f5 8e bd
       0.043753587 0.101503216 -0.017223138 -0.06980494
000340 8d 96 8f 3e d5 18 ab bd 12 e6 96 3e 5b 34 76 3d
       0.2804455 -0.08354346 0.29472405 0.060108524
000350 b6 91 6f 3d f9 33 32 3e 8e 75 83 be f4 d3 98 be
       0.05848857 0.17402638 -0.25675625 -0.29849207
000360 35 a9 7f be 2c a9 a8 3b b6 a1 43 3d f3 12 53 bd
       -0.24966891 0.00514712 0.04776164 -0.051531743
000370 16 0c 4c bd 97 e0 a3 3e 8b 0a 09 3e 7a 45 ba 3e
       -0.049816214 0.32007286 0.13382928 0.3638113
000380 cd a5 5f 3e 1f 56 8f 3b a7 1d 12 be 4e 16 6b 3e
       0.21840592 0.00437428 -0.14269124 0.22957727
000390 ae be f1 bd 11 43 15 be ce 30 b5 3c 48 53 d9 3e
       -0.118039474 -0.14576365 0.022117998 0.4244635
0003a0 7d 6d a6 3d d6 66 67 3e 89 d9 bb 3d 74 03 c7 bc
       0.08126352 0.22597823 0.09172351 -0.024293639
0003b0 4f 46 57 be e0 ab 5a be 8f c8 73 3e 85 d5 58 be
       -0.21022914 -0.21354628 0.23806976 -0.21175201
0003c0 69 21 ae 3d e8 38 8c 3e a8 ef 9a bd a6 13 32 be
       0.08502466 0.27387166 -0.07565242 -0.17390308
0003d0 d7 d7 32 3e 02 41 6d 3e ce 5a 12 bd 9e d2 ab be
       0.17465149 0.2316933 -0.03573113 -0.33559126
0003e0 4d 72 8b 3e ed dd bc 3d 79 b8 49 3e 62 4f ee 3d
       0.27235642 0.092220165 0.19699277 0.11636235
0003f0 55 60 86 3e 5a d5 ac bd d0 45 74 3e ca cb 34 3e
       0.2624537 -0.08439131 0.23854756 0.17655864

lstm.weight_hh_l0 f4 [192, 48]
000000 e6 72 51 be b5 06 b4 bd 71 b8 34 3e c1 49 ef 3c
       -0.20453987 -0.08790342 0.17648484 0.029209973
000010 35 33 d5 bd 52 9f 00 bd e6 7e 4a bd b0 3d ad bd
       -0.104101576 -0.03140194 -0.049437426 -0.084590316
000020 e3 00 99 3d f7 4a 47 3e b2 14 81 3c 33 d5 32 bd
       0.07470872 0.1946219 0.015756939 -0.043660354
000030 f1 5f de bd 54 6a 1e 3e 91 53 a3 3d 53 59 85 3e
       -0.10858143 0.15470248 0.079749234 0.2604471
000040 e3 e4 2d bc 5a a3 cf 3c 04 de 32 3a 9a fb c2 b9
       -0.010613653 0.025346447 0.0006823244 -0.0003719002
000050 70 0a a3 3d 74 ef 2f 3b 95 cc ab 3d 62 47 4a 3d
       0.07960975 0.0026845606 0.0838863 0.049384482
000060 a8 ff 02 bc 50 a9 87 3c e6 c6 fe 3d 84 07 e8 bd
       -0.0079955235 0.016560227 0.124402806 -0.113295585
000070 73 75 81 3b 2e ea 9c 3e 29 18 c0 3d 5e fa 71 3e
       0.0039507686 0.30647415 0.09379608 0.23630664
000080 bb 82 9a 3c 38 bb 90 bd 4a fc 74 be e4 58 30 3d
       0.018861165 -0.07066959 -0.23924366 0.043053523
000090 11 03 8b 3d 98 ed 32 3d 50 8a f6 3c 0f bb 06 3e
       0.06787694 0.04368362 0.03009525 0.13157295
0000a0 29 b6 20 be df dd 24 3d 26 42 76 3d 1c 84 7e be
       -0.15694489 0.040250655 0.060121678 -0.24855083
0000b0 63 a8 b0 bd c9 5f c8 3d 32 84 9c bb 9f 91 b4 bc
       -0.08625867 0.097838946 -0.004776501 -0.022042094
0000c0 84 c1 a8 3d 3c c8 d6 3b 24 82 83 3d 1e b6 5c bd
       0.08240035 0.0065546315 0.06421307 -0.053884618
0000d0 86 74 67 3e 04 aa e8 3c f5 74 23 be 2b 11 c3 bb
       0.22603044 0.028401382 -0.15962584 -0.0059529743
0000e0 ba b0 f8 bd 44 e1 0e 3d 0d 41 e6 3d 09 e7 59 3e
       -0.12143083 0.0348828 0.11242876 0.21279539
0000f0 cc 93 a8 bb c0 5c b7 bd 14 97 8f bc d3 25 03 3e
       -0.005144572 -0.089532375 -0.017528094 0.12807398
000100 90 ac 5d 3d 64 02 da bd 5a 2b 30 3e 57 36 12 3d
       0.054119647 -0.10644987 0.17204037 0.035696354
000110 b1 62 4d bd af 3e 1e 3c 31 09 ae 3d fa ca 0e 3c
       -0.050142948 0.0096585 0.08497847 0.008715386
000120 05 6f d9 3d 14 2a 00 be c6 fc 81 3e 2c dd 34 3b
       0.106168784 -0.12516052 0.25388163 0.002759765
000130 00 1d 42 bd c4 13 47 3e 00 3c ac bd 3a 62 93 bd
       -0.047390938 0.19441134 -0.084098816 -0.071964696
000140 01 a3 40 3e 13 58 49 be e6 29 6a be 4b 3c 89 3d
       0.18812181 -0.19662504 -0.22867545 0.06700953
000150 03 01 42 3c 67 71 f3 3d 53 ab 1f be 43 b6 33 3c
       0.0118410615 0.11886864 -0.15592699 0.010968748
000160 8a 32 45 3e 6e a6 9a 3d 88 35 be bc 14 45 c0 bc
       0.1925756 0.07551275 -0.023218885 -0.023470439
000170 a6 76 19 3b f1 0b 24 3e e5 95 38 be 13 d5 4f 3d
       0.0023416667 0.1602018 -0.1802593 0.050740313
000180 3a f3 38 3e da ae 8c bb c9 cd c3 bc 71 74 77 be
       0.18061534 -0.004293305 -0.023901837 -0.24165513
000190 8c c3 56 3d 10 90 b9 bd 28 94 02 3e ef 71 c8 3c
       0.05243258 -0.09060681 0.1275183 0.02446839
0001a0 9f 65 c2 bc 4d 7f cd bd 2d 07 06 3d 21 49 b3 3d
       -0.023730097 -0.10034046 0.032721687 0.087541826
0001b0 00 b4 3e 3d 24 49 b3 3c ef 38 4f bd f1 f4 6b 3e
       0.04655838 0.021885462 -0.050591405 0.23042656
0001c0 74 23 42 be 8f d0 0a 3e b9 f4 ce bc 40 b6 2a be
       -0.18958837 0.13556121 -0.025263177 -0.16671085
0001d0 44 a3 f8 3d 76 90 ff bd 2a ac 0d be ff a9 28 3e
       0.121405154 -0.124787256 -0.13835207 0.16471098
0001e0 fe a9 83 3d 4c f2 09 3e 49 24 8a be 8d 5b df bc
       0.06428908 0.13471335 -0.26980808 -0.027265335
0001f0 32 9c 69 3d dc 42 24 3e 6e 8a 05 be d6 fd a4 bc
       0.057033725 0.1604113 -0.13041088 -0.02014057
000200 e3 41 1f 3e a6 f3 d8 bd 90 d8 4b be 3d ca 20 be
       0.15552478 -0.10593347 -0.19906831 -0.15702148
000210 74 38 00 3e 17 65 37 bd 73 0d 80 bd 1f 55 4a 3d
       0.12521535 -0.04477414 -0.06252565 0.049397584
000220 ff 96 ae bd 58 18 1c be 2d cd 4e 3d 72 a4 02 3e
       -0.08524894 -0.15243661 0.05048864 0.12758043
000230 00 90 5a 3e f9 e1 85 3d c1 b8 e4 3d e3 7c c6 bb
       0.21343994 0.065372415 0.111680515 -0.006057368
000240 f7 15 8f 3d de 6b 39 3e 66 cf 7c bd 0a 71 d2 3d
       0.06986611 0.18107554 -0.061721228 0.10275467
000250 94 0e 3a 3e 61 ee c6 3d 45 71 12 bd 89 44 02 be
       0.18169624 0.09713436 -0.035752553 -0.12721457
000260 95 d9 30 be fa 41 b3 bd 65 97 08 3e 40 19 f0 ba
       -0.17270501 -0.087528184 0.13339002 -0.0018318072
000270 68 18 da 3d 51 0e b8 bc 3f a0 32 be 64 0e df bd
       0.106491864 -0.022467764 -0.17443942 -0.10891417
000280 78 7c a5 bd c2 9f 35 be e6 64 a7 3d e9 ec 8d 3d
       -0.08080381 -0.17736724 0.08173542 0.06929953
000290 6f 1c c6 3d be b8 c4 bd 33 0c 32 3d c9 04 aa 3e
       0.09673392 -0.09605549 0.043468665 0.33206776
0002a0 03 73 00 be 78 a3 c2 3d e8 65 90 bb 85 da 7d 3b
       -0.12543873 0.095038354 -0.0044066794 0.0038734984
0002b0 ec 34 93 bd f9 48 27 3e a1 d8 a5 bd e2 f1 72 3e
       -0.071878284 0.1633643 -0.08097959 0.23725083
0002c0 9e 3a 4f 3d de 2d 25 be 3d a0 2d be 14 d4 42 be
       0.05059301 -0.16130778 -0.16955657 -0.19026214
0002d0 ef 38 30 3e 42 b5 74 3e 10 08 98 3d b1 64 22 3b
       0.17209218 0.2389727 0.07423413 0.0024779255
0002e0 d9 01 2a bb be e9 95 3c 79 44 2f bd f5 08 da bc
       -0.0025941043 0.018299934 -0.04278991 -0.0266156
0002f0 c0 d4 6e 3d 0a a0 45 3e 68 29 21 bd 91 1f 0a 3d
       0.058308363 0.19299331 -0.03934613 0.03372151
000300 8c 5b a8 3d 98 ca 7a 3d 4d 15 27 3e 65 9e 06 3e
       0.08220586 0.061228365 0.1631672 0.1314636
000310 d4 7c f4 bd 52 fb e0 3d 80 36 70 3d c7 52 00 be
       -0.119378716 0.109854355 0.058645725 -0.12531577
000320 16 cc a5 3b 8d 1e 87 bd 0f c7 3b 3e 0a 0a bf 3d
       0.0050597293 -0.06597624 0.18337654 0.09328087
000330 ba 95 10 3c e4 91 a4 bc de 53 2c 3d f2 32 0a 3e
       0.00882476 -0.020089097 0.04207217 0.13495997
000340 eb 44 0d bd 33 cf 65 bc 69 b1 55 3c c6 8d 85 3e
       -0.034489553 -0.014026451 0.013042786 0.26084727
000350 28 80 e4 3d 94 67 b0 bd b9 82 b5 bd 58 d1 81 3d
       0.11157256 -0.08613506 -0.08862824 0.06338757
000360 78 14 4e bd 4b d1 9b bd d9 0a 8d 3e f7 64 4e be
       -0.05031249 -0.07608279 0.2754734 -0.20155703
000370 ca 7a 9e bc 5b 7e aa 3e 35 5c 86 bd a8 2e 3f 3e
       -0.01934566 0.33299527 -0.06560556 0.18670142
000380 4e 1d 86 bd 09 20 11 be 95 3a a1 bd ac d7 0f 3e
       -0.06548558 -0.14172377 -0.07872502 0.14047116
000390 c7 2b 68 3d 55 5d cc bd c5 ee 39 3d c1 2d 3a 3e
       0.056682374 -0.09978739 0.045393724 0.18181516
0003a0 1b 8c e7 bc c2 db 07 3d b2 fe c5 3c 45 22 4a bd
       -0.02826505 0.03316856 0.0241693 -0.04934909
0003b0 99 1b 40 be 42 50 53 3e dd e9 e8 3c f9 00 a9 bd
       -0.18760528 0.20636085 0.028431827 -0.08252139
0003c0 c3 a7 7e 3d 39 1b 06 3d ae 50 f1 3d b7 7a 9c 3d
       0.06217171 0.032740805 0.117829666 0.076405935
0003d0 9a da fc 3d b8 c6 fa bd 35 87 fd bd 5f 1e 00 be
       0.123463824 -0.12244934 -0.12379304 -0.12511586
0003e0 8b d2 5b 3e dc bc 80 3d 28 03 02 3e 25 60 00 be
       0.21467035 0.06286022 0.12696517 -0.12536676
0003f0 4e 0f 31 3d 6c 53 0d 3e 6c c5 f3 bd f0 0b 12 3e
       0.043227486 0.13801354 -0.119028896 0.14262366

lstm.bias_ih_l0 f4 [192]
000000 6b 22 4a 3e 5a 4d e0 bd 5b 60 6d bd 7a 62 a1 bd
       0.19739692 -0.10952254 -0.05795322 -0.07880111
000010 1c 7e a4 bd ad b2 34 be 1a a2 93 bd 76 a9 5f ba
       -0.08031866 -0.17646284 -0.07208653 -0.00085320265
000020 48 c4 f1 3d a9 89 e7 3d fe 22 35 be fb 0d d8 3b
       0.11805016 0.113055535 -0.1768913 0.0065934635
000030 65 27 c1 3a 67 87 2c be 81 c1 e3 3d 34 63 1d 3e
       0.0014736472 -0.16848527 0.11120892 0.15369874
000040 3e 9d 45 be 72 f3 70 3d e7 60 54 3c e2 bb 9f 3d
       -0.19298264 0.058825918 0.012962556 0.07799508
000050 b3 6f 94 3d 60 ad 2b be 8f 7b a0 bc c6 c9 94 3e
       0.072478674 -0.16765356 -0.019590167 0.2906019
000060 e7 3b 9b bd fe 01 66 3b b5 da 23 bd 6d 55 02 3e
       -0.07579785 0.0035096402 -0.040003497 0.127279
000070 81 1f c4 bd 0f bb 17 be a2 6d 5e 3d 46 94 f3 3d
       -0.095763214 -0.14817451 0.054303773 0.11893515
000080 95 9b 51 be a5 2c 07 be f0 2e 92 3c 93 b1 3a 3d
       -0.20469506 -0.13200624 0.017844647 0.045579504
000090 44 a4 25 3e af 5e a4 bd 39 a6 06 3d cd 44 0c bc
       0.16175944 -0.08025872 0.032873366 -0.008561325
0000a0 c3 e1 28 3d 2e 5c 21 3c 82 92 7d bd 91 42 1d be
       0.04123093 0.0098486375 -0.0619073 -0.15357424
0000b0 f1 cf 8c be 13 50 2e be 2c c7 08 bd b4 d2 91 3a
       -0.27502397 -0.17022733 -0.03339307 0.0011125416
0000c0 99 83 46 3c 9e 9c 75 be b3 ba d8 3d 47 d9 38 be
       0.012116336 -0.23985526 0.10582485 -0.18051635
0000d0 df a3 be 3b 77 7a 3d be ef f3 dc bd 2f e3 c3 bd
       0.005817875 -0.18503748 -0.10788714 -0.09564816
0000e0 3b 07 70 bd 1b 3b 9f bd cd 2e 83 bd 5e 17 f5 bc
       -0.058600646 -0.07774945 -0.06405411 -0.029918369
0000f0 2e 1c ac bd 54 17 75 be 6c 63 72 3d 61 5f ba 3e
       -0.08403812 -0.2393468 0.059176847 0.36400893
000100 df 0e 0e be 15 0c dc bd 04 47 9c bd 91 e6 d3 3d
       -0.1387286 -0.10744492 -0.07630733 0.103467114
000110 41 42 c6 bd b4 08 85 bc a3 d7 41 be 9a 75 9a 3e
       -0.09680606 -0.016239502 -0.18929915 0.30167848
000120 e8 c2 b8 3d 06 a4 08 be 45 00 ed 3d 80 be eb 3d
       0.090215504 -0.1334382 0.11572317 0.11510944
000130 be e9 08 be d0 13 95 3d 03 de e0 bd 6e 7d e7 3d
       -0.13370416 0.072791696 -0.109798454 0.11303221
000140 77 bb 38 be ba fc ce bd 9e 62 bd 3d 5d 8e 11 3e
       -0.18040262 -0.101067975 0.09247325 0.14214464
000150 7e 68 ef 3d b8 ef 30 be e2 92 02 be 98 64 6c bd
       0.11689852 -0.17278945 -0.12751344 -0.05771312
000160 98 a1 0e be 84 d9 25 be cb 36 30 be 1f ca e0 bd
       -0.1392883 -0.16196257 -0.17208402 -0.109760515
000170 5a f7 8a 3d 08 a6 0e be 07 c5 09 be bd cc 1c 3d
       0.0678546 -0.13930523 -0.13454066 0.03828119
000180 3a 69 8c bd 62 78 c4 bd a4 99 a6 3c 39 28 b3 bd
       -0.06856008 -0.09593274 0.020336933 -0.08747906
000190 01 e0 5d 3d 7c 6b 0e be a6 9a 14 3c 55 a5 e6 3d
       0.054168705 -0.1390819 0.009070074 0.11262003
0001a0 fe 8a 1f bd 94 86 85 bd 5b 56 c6 bd 7a ed 42 bd
       -0.038950913 -0.06519809 -0.0968444 -0.047589757
0001b0 70 8f 96 3d e6 0f 4c 3d fc fb d0 3d 89 35 04 be
       0.07351577 0.04981985 0.10204312 -0.12911047
0001c0 6e 76 49 bd 1a 12 e6 3c e4 1e f7 3b 3b 2c 1d be
       -0.04918521 0.028084803 0.0075415242 -0.15348904
0001d0 65 6b 6c 3d d0 01 a2 3d e1 64 8b bc b3 97 13 be
       0.057719607 0.07910502 -0.017015876 -0.14413337
0001e0 14 44 04 be f5 3c 1b 3e 2f 10 08 be ed 24 f5 3d
       -0.12916595 0.15159972 -0.13287424 0.11969934
0001f0 9f 50 da bd 23 e4 0e be 8a 3d 5d 3c 8e 1e d8 bd
       -0.106599085 -0.13954215 0.013503442 -0.10552703
000200 28 d7 d9 3b 3c bf 0c 3d 73 7b b1 3d 37 e5 9f bc
       0.006647963 0.034362063 0.08666124 -0.019518478
000210 90 88 24 bd c0 4a 00 bd ad f6 c9 3b 96 a6 eb bd
       -0.0401693 -0.031321287 0.0061634392 -0.11506383
000220 05 10 48 bd 9c 4a 6c 3d 19 37 23 be 07 d3 69 bd
       -0.048843402 0.05768834 -0.15938987 -0.057086017
000230 a8 16 4a bd dc 79 3f bd 86 16 50 3b 53 78 ae bb
       -0.049338013 -0.046747074 0.0031751706 -0.0053244024
000240 5d 46 a2 bc c2 f7 6c be 92 c1 8b bd ed cf 1d be
       -0.019808942 -0.23141387 -0.0682403 -0.15411349
000250 68 d9 91 bd 21 06 48 3d 9e cd 13 bc f4 3b 83 be
       -0.07121545 0.04883397 -0.009021191 -0.25631678
000260 cd 2b 91 bd 17 ef bf bc 39 10 20 3d d9 51 2a bd
       -0.070884325 -0.023429437 0.03907797 -0.041581962
000270 c2 79 67 bd 07 a6 9f be 66 80 9c 3d 2b 41 9d 3d
       -0.0565126 -0.31181356 0.076416776 0.076784454
000280 71 ac 6e bd 8b 61 20 3d f9 d7 03 3d ae 34 a5 3e
       -0.05826992 0.039155524 0.03218839 0.32266754
000290 08 8c 50 3c 7f 57 cf bd 68 0a a9 3c cf a4 75 3e
       0.012728699 -0.101241104 0.020634845 0.2398865
0002a0 87 cc 7e 3c 62 2c 00 be ac 86 d0 bd 4f 0c 09 3e
       0.015551693 -0.1251693 -0.101819366 0.13383602
0002b0 d3 fb 64 3d ac 56 94 3d a0 ca be 3c db 7a 63 3c
       0.05590422 0.07243094 0.023289979 0.0138842715
0002c0 48 7d 1f be 59 b5 49 be 7d 1b 87 bd ba 94 e6 bd
       -0.15575135 -0.19698085 -0.0659704 -0.11258836
0002d0 5c 6f e6 3d 1b d2 e6 bd 6b 17 2b be 92 b5 03 3e
       0.11251709 -0.11270543 -0.16708152 0.12862232
0002e0 25 ab 05 bc 89 0d d1 bc 64 d0 48 be 68 89 81 be
       -0.00815848 -0.02551915 -0.19610745 -0.25300145
0002f0 3a 7e db bd 04 5a 22 be 29 6f 10 be 18 19 46 3e
       -0.10717435 -0.1585465 -0.14104904 0.1934551

lstm.bias_hh_l0 f4 [192]
000000 cc 45 51 3d 67 39 70 bc 53 d7 fa bc 62 0e a4 bd
       0.051091954 -0.014662123 -0.030620253 -0.08010556
000010 3f 71 91 bb 00 a8 8e bd f6 3e 57 be 97 27 d6 bc
       -0.004438549 -0.06965637 -0.21020111 -0.026141925
000020 18 ab 01 3e fb b7 0c be c9 ae 08 bb 46 0d f4 3d
       0.12662923 -0.13742058 -0.0020856133 0.11916594
000030 ed 7f 18 be 0f a7 64 be 9a cb 7e bd a1 fa 01 3e
       -0.1489255 -0.22329353 -0.06220589 0.12693264
000040 3b 2a 3f be 01 59 87 3d 48 5d 46 be cd 88 cb 3d
       -0.18668453 0.06608773 -0.19371521 0.09938202
000050 01 1f 0e be ae 97 a8 bd 6c d6 00 be 05 24 9f 3d
       -0.13879015 -0.082320556 -0.12581795 0.07770542
000060 9d 83 09 3e 76 7b 87 3d 5d b3 83 bc cb 3a d8 3d
       0.13429113 0.06615345 -0.016076738 0.10558089
000070 2d 24 c7 ba c7 8e 17 3d dd 9e 85 bc 68 6f e0 bd
       -0.0015193276 0.037001397 -0.016311103 -0.10958749
000080 35 ca 0c bd 15 f1 0e be da c7 76 bb 94 a0 d7 3b
       -0.034372527 -0.13959153 -0.0037655742 0.0065804217
000090 39 48 18 3e 9e b4 c6 3d f2 31 15 3d eb 7d 02 bd
       0.14871301 0.09702419 0.036424585 -0.031858366
0000a0 8a fd 19 be 8a ce 45 be 55 d3 18 bd d5 5a 53 be
       -0.15038124 -0.1931707 -0.037310917 -0.20640118
0000b0 9f 26 0d be c3 4e 31 3d 16 31 7c bd 8f b7 1d 3e
       -0.13784264 0.043288004 -0.06157025 0.15402053
0000c0 e0 41 1a bd b5 60 ba bc 02 2b 43 bd 85 d1 0d be
       -0.03766048 -0.022751192 -0.047648437 -0.13849457
0000d0 0f 1d 13 be 5b e9 20 be ba 17 8e bc 72 fb 5f be
       -0.14366554 -0.15714018 -0.017345298 -0.21873263
0000e0 fd fd c9 bd 61 d0 82 3d 77 22 9f bd 3a 9d 4a bb
       -0.098628975 0.06387401 -0.077702455 -0.0030916468
0000f0 85 ea 54 3d f3 8c f4 bb 47 f6 0d 3e 8c ec b4 3e
       0.051981468 -0.0074630915 0.13863479 0.3533672
000100 51 9e 2a bd 6a e5 65 bd 52 7e c0 bd d1 c8 28 3d
       -0.04165489 -0.05612699 -0.09399094 0.04120714
000110 c6 ea 40 3d 39 0f 51 bd f1 63 34 bc 1f ba c1 3e
       0.047098897 -0.051039908 -0.011010156 0.37837312
000120 87 39 ae bc df 7b a2 bb a4 6c 78 3d 34 6b f6 3d
       -0.021267666 -0.0049586142 0.060650483 0.12032166
000130 d8 e0 e1 bc b7 cd ae bd d1 de 7e 3d 53 23 dc 3d
       -0.027573034 -0.08535331 0.062224213 0.10748925
000140 24 23 81 bd 42 5b 92 bd 14 73 00 3c 08 fb b1 bd
       -0.06305531 -0.07146312 0.007839937 -0.086904585
000150 29 d6 41 3e aa e9 77 bd 79 07 9c 3c 0f 37 bb bd
       0.18929352 -0.060525574 0.019046532 -0.09141361
000160 95 f1 12 be 03 6c 32 3d 82 a4 ca bb d3 f8 27 bd
       -0.14349969 0.04356004 -0.0061841616 -0.04100878
000170 38 cf 89 3d e1 9c fd bd 7f db 10 bd cb ad 55 3e
       0.06728977 -0.12383438 -0.035365578 0.20867078
000180 34 6c 14 3d 17 5b f2 bb a0 80 14 bd ff 72 18 bd
       0.036236003 -0.0073961127 -0.03625548 -0.037219044
000190 24 6b 0c be 62 e0 cc 3d 7b 88 6f 3d 22 b6 e5 3c
       -0.13712746 0.10003735 0.058479767 0.02804095
0001a0 bb 21 0d bd aa 33 92 bd 45 12 6e 3b f5 0f be 3d
       -0.034455996 -0.071387604 0.0036326807 0.09280387
0001b0 b8 60 90 3d 8b d8 70 3d 1c a9 47 bd 30 0b 5f bd
       0.07049698 0.05880026 -0.04874526 -0.05445403
0001c0 4b 4f cf 3c 05 22 68 3d 77 66 90 bc f1 ae 20 bd
       0.025306365 0.05667307 -0.017626984 -0.039229337
0001d0 83 86 1b 3d 9e f4 94 bc 8a 12 24 3e 67 e1 d4 3d
       0.037970077 -0.018183049 0.16022697 0.103945546
0001e0 01 a1 a9 3d 25 4f 81 3d 94 95 61 bd ec 91 0d bd
       0.08282662 0.06313924 -0.05507429 -0.03456299
0001f0 ae 7e 35 3d 4f 72 b9 bb b0 9f 7e 3c c4 f4 97 bd
       0.044310264 -0.0056593786 0.015541002 -0.07419732
000200 6f 28 66 bd 39 41 de 3d 12 a5 b2 3d a0 95 1c 3d
       -0.056190904 0.10852284 0.08722891 0.03822863
000210 29 12 db bd 7d 09 7c 3d a7 e2 c8 3d 7d dd a0 3c
       -0.10696823 0.061532486 0.098088555 0.019636864
000220 40 b8 39 3d 1f f7 44 bd 2d 64 b4 3d 3e d9 1e bd
       0.04534173 -0.048087236 0.088081695 -0.038781397
000230 8b 42 a3 3c 06 0b c9 bd c9 dc fc 3b 3c 04 65 3d
       0.019929191 -0.09816556 0.0077167493 0.05591224
000240 53 de 26 3d ad 8e 50 be 91 12 79 3d 9b 3b e0 bc
       0.04073937 -0.20366926 0.060808722 -0.027372172
000250 cf 31 40 3d ef f6 9e 3b f5 66 17 be 87 94 86 bd
       0.0469225 0.004851214 -0.14785369 -0.06571298
000260 86 bb 02 be 83 48 53 3d 6f da b9 bd 4d d5 97 3d
       -0.12766847 0.051582824 -0.09074866 0.07413731
000270 8d 36 03 be fa 4d c4 bd 48 e4 38 3e 6d 80 80 3e
       -0.12813778 -0.09585185 0.18055832 0.2509798
000280 ce 0d 61 be f7 ef 99 bc 93 d0 3f be 98 21 0f 3e
       -0.21977922 -0.018791182 -0.18731909 0.13977659
000290 42 b2 55 bd 35 1e 0e bd 62 5e 07 bc 36 53 63 3e
       -0.052171953 -0.034696776 -0.008262249 0.22199711
0002a0 3f 43 6b bd 82 c2 53 3d 1c 72 6a bd 7f 88 84 bd
       -0.057437178 0.05169917 -0.05723773 -0.06471347
0002b0 e4 54 21 bd f4 4f f1 bd 23 6e fd bd 11 6f 1e be
       -0.0393876 -0.11782828 -0.123745225 -0.15472056
0002c0 8a 04 e6 3c cd f7 d8 bd 27 8f ae bd 2e a9 bf 3d
       0.028078336 -0.10594139 -0.08523398 0.0935844
0002d0 e8 82 45 3d a9 1f 7c bd 58 4e dd bd 7a 06 31 bd
       0.048220545 -0.06155363 -0.108059585 -0.043219067
0002e0 6e cc 9c 3d 5f a7 18 bd bf 7a 32 bd bd cc d1 bd
       0.07656179 -0.037268993 -0.04357409 -0.10244129
0002f0 cd 8b a6 be fb 2e ab 3d b5 00 e6 3d f4 26 d1 3d
       -0.32528535 0.0835857 0.112306036 0.10212508

lstm.weight_ih_l1 f4 [192, 48]
000000 9f c9 73 3e 28 b0 5a bb 12 66 ba bd fa 21 a6 bd
       0.23807381 -0.0033369157 -0.091014996 -0.08111949
000010 2a 16 27 3d 0b 92 1e 3d c0 bc a6 bd d8 30 74 be
       0.04079262 0.038713496 -0.0814147 -0.23846757
000020 bb 46 38 3d 47 36 e2 3c 3c 39 fa 3d ef 4a 5e 3e
       0.04498933 0.027613772 0.12217948 0.21708272
000030 43 9f 95 3c 15 8c 1e 3d fe 3b 9a 3d 92 1c 9f bd
       0.018264418 0.03870781 0.07530974 -0.07769121
000040 15 df 97 bb 5e 88 55 3d 62 42 8c 3d 9f 23 25 bd
       -0.0046347477 0.052132003 0.06848599 -0.040317174
000050 f1 69 02 bd 8b ff 4c be 5b e4 c1 3c 6e 6d cb bc
       -0.031839315 -0.20019357 0.023668459 -0.024832454
000060 04 37 07 be 1c 4a 4b 3c a2 90 b4 3c 2a 82 d1 3d
       -0.1320458 0.012407806 0.022041623 0.10229905
000070 a5 be 49 be 8e 3e 8b 3c cc 06 6f 3d 0c b3 9a bd
       -0.19701631 0.016997602 0.05835609 -0.07553682
000080 89 63 44 bd 11 7b 21 be 0e 04 ce bd fe 63 37 3d
       -0.047946487 -0.15769602 -0.10059367 0.044773094
000090 ec 97 ed 3d d2 2e c9 3d a9 86 55 bd cb 46 52 be
       0.116012424 0.098233834 -0.052130375 -0.20534818
0000a0 22 49 81 3d c7 e2 34 3e 39 85 c0 bd 24 b9 eb bd
       0.06312777 0.17664634 -0.0940041 -0.11509922
0000b0 a8 6d 82 bd 3d ff 35 3e b9 e7 5f be ec 68 11 3e
       -0.063685715 0.17773147 -0.21865739 0.14200181
0000c0 8f 67 8b bb fc fa fd 3d ec 57 f0 3c 9c a5 a3 bd
       -0.0042542885 0.12401387 0.0293388 -0.07990572
0000d0 79 c3 45 3b 51 e5 3b be 23 d1 3c 3d f5 3c 4f be
       0.0030176325 -0.18349196 0.046097886 -0.20238097
0000e0 bd 6a 1d 3c 91 f5 1b bd b0 83 07 bd 1f 39 10 3d
       0.009607968 -0.038075987 -0.03308457 0.035210725
0000f0 d8 be 56 be a4 ab 2b be a6 5d fc 3c 3c c2 42 bd
       -0.20971239 -0.16764694 0.030806374 -0.047548518
000100 4a 69 17 bc dc f4 82 bd 7d 3e ac bd c4 44 0d be
       -0.009241411 -0.063943595 -0.08410356 -0.13795763
000110 3f cd 2e be ad 51 21 3d 15 be 16 3e 87 59 24 3e
       -0.17070483 0.039384533 0.14720948 0.16049777
000120 35 b4 5f be e1 d5 34 3c 10 7a 2a bd 34 0b 2b bb
       -0.21846087 0.011037321 -0.041620314 -0.0026099207
000130 05 b1 0a 3d 36 13 e4 bb f9 5e 29 3d 6e d0 5a 3d
       0.033860225 -0.006960298 0.04135034 0.05342143
000140 5f 49 ef 3d 8f 4f d3 bc d1 42 72 bc bd 55 3c be
       0.11683916 -0.025794772 -0.014786438 -0.18392082
000150 4f db 4d 3d f8 3d 80 ba 6c 1f 88 3d 21 2d 9d 3d
       0.050257977 -0.0009784093 0.06646618 0.07674623
000160 9a f3 89 bb b7 28 4f 3e 28 f0 29 be 80 11 11 3e
       -0.004209948 0.20230375 -0.16595519 0.14166832
000170 e3 1f cd 3d 8f 32 37 bd ba 48 22 3d f7 9a 71 bd
       0.100158475 -0.04472595 0.03962014 -0.058985677
000180 83 3f 14 be 27 c4 c2 3c 76 ef 0a be 03 05 f9 bc
       -0.14477353 0.023775173 -0.1356791 -0.030397898
000190 d7 e4 fd bd 49 02 81 be 32 15 4a bc 7f e2 e6 bd
       -0.12397163 -0.25197056 -0.012334155 -0.112736695
0001a0 64 ae 3f bd c0 5e 2d 3c fc f0 41 3d d5 53 04 bd
       -0.04679717 0.010581672 0.04734896 -0.03230651
0001b0 a5 f0 40 bd d1 5b b8 bd 3b 75 3f be fa e2 b5 bd
       -0.047104497 -0.090018876 -0.18697064 -0.08881183
0001c0 d6 42 02 bd ae 2d 01 bd 49 ce 7a bd 11 9e 28 be
       -0.03180202 -0.031537704 -0.061231885 -0.16466548
0001d0 da 51 bf bd bc 7a 07 be 7e 7e e9 bd 1e e9 1b 3e
       -0.09341784 -0.13230413 -0.114010796 0.15225646
0001e0 c7 ad ca 3c 3e e2 11 3e 4c b6 88 bd 39 9a 1f bb
       0.024741067 0.14246461 -0.06675395 -0.0024353398
0001f0 5d 45 05 3e d2 28 94 bc 50 99 ac bc 76 50 01 3d
       0.13014741 -0.01808587 -0.021069199 0.031570874
000200 01 01 f7 bc 0a 28 30 bd cb 5b a2 3d be 59 d2 3d
       -0.030151846 -0.043006934 0.07927664 0.10271023
000210 f5 3e 20 be 14 0f 17 3c c0 4d 10 3d e0 c3 81 bc
       -0.15649016 0.0092199035 0.0352304 -0.01584047
000220 d8 f2 6a 3a ed 80 da 3d 8d 40 64 be fb c6 8d 3d
       0.0008962578 0.10669122 -0.22290249 0.06922718
000230 45 26 f5 3d 61 bf 99 bd 5b f9 2e bd ef 57 de bd
       0.1197019 -0.07507206 -0.042718273 -0.10856616
000240 5d 20 ec bc 3f a3 bf 3d 01 c3 76 be 27 97 b1 3d
       -0.028824026 0.093573086 -0.24097826 0.08671408
000250 16 5c 62 3e c1 5d d4 bd 19 e1 1c 3d b7 2b 2d be
       0.2210544 -0.10369445 0.038300607 -0.16911207
000260 4c 71 2e 3d a9 5b 78 bd 97 2b 99 bd 6f 62 ff bb
       0.042588517 -0.06063429 -0.07479017 -0.0077937166
000270 50 0e 9b 3c 42 0e 60 3d 03 f1 72 3d 7b 1a a6 3d
       0.018927723 0.054701097 0.059311878 0.081105195
000280 6b 91 21 be 3c fe 2e 3d a0 a0 13 3d 62 6a b7 3d
       -0.15778129 0.042722926 0.036041856 0.08955838
000290 aa 91 15 be 5f e8 05 3a 24 3c 9b 3c 8c 2f a8 3d
       -0.14606348 0.00051081734 0.018949576 0.08212194
0002a0 70 b4 34 be bd e7 95 bd a7 37 28 3e b3 7c 22 3c
       -0.17646956 -0.07319591 0.1642748 0.009917426
0002b0 f4 ee 64 3d cd 79 bf 3d 09 d5 15 be 35 73 ca bd
       0.055891946 0.093494035 -0.14632048 -0.09885255
0002c0 42 0c cf bc 95 a8 bd bc ad 4b 33 be 88 74 81 be
       -0.0252744 -0.023151675 -0.17509337 -0.2528422
0002d0 d2 68 4a 3e e5 c7 7b 3e 4b 2f 4b 3c 23 8d 20 3b
       0.19766548 0.24587972 0.012401412 0.0024498187
0002e0 8d 48 01 3e 14 9c 36 3e bd 41 33 be 27 d9 fe bb
       0.12625332 0.17832977 -0.17505546 -0.0077773514
0002f0 87 dd 3f 3d a4 09 09 3e b1 bc 80 be 09 09 ca 3c
       0.046842124 0.13382584 -0.2514396 0.024662511
000300 c4 bd 21 3e 76 48 d3 bd 4b c5 c8 bd 98 8b 16 3e
       0.15795046 -0.10316555 -0.09803256 0.14701688
000310 3e 1a 1d 3e ce 9d 79 bd 41 3e b5 3d 8d 55 ea bd
       0.15342042 -0.06094151 0.088497646 -0.11442099
000320 f5 f9 ac 3d 67 e9 b6 bd 72 05 00 3e f3 66 d1 3d
       0.08446113 -0.08931237 0.12502077 0.10224714
000330 09 c5 03 be fa 3b 07 be b3 fb f2 bd 1a b7 19 3e
       -0.12868132 -0.13206473 -0.11864414 0.15011254
000340 df 56 aa bd e5 76 46 3d 0d 31 e1 3d 4c 58 99 3d
       -0.083173506 0.04845323 0.10995684 0.074875444
000350 57 b4 7f 3d 84 73 e2 3c b2 74 19 3c d2 78 90 3d
       0.062427845 0.027642973 0.009366201 0.07054295
000360 6c 92 df bc a2 a3 88 bd b0 ef 7a bc 0c 6f e8 bc
       -0.0272915 -0.066718355 -0.015315935 -0.028373264
000370 ca 95 13 be c1 53 c3 3d 13 99 e0 bd 10 47 67 3e
       -0.14412609 0.09537459 -0.109666966 0.22585702
000380 25 5a 73 bc 9f 5c 23 be 11 a0 74 bb 4b d4 bd bd
       -0.014853035 -0.15953301 -0.0037326852 -0.09269007
000390 10 86 65 3e a9 f7 51 bd d7 1d e2 3c c2 96 dd bc
       0.22414422 -0.051261578 0.02760212 -0.027049426
0003a0 15 61 1d 3e 4a f8 b4 bd 84 8b c8 3c 46 c2 c4 3c
       0.15369065 -0.0883642 0.024480589 0.024018418
0003b0 16 30 0c bd 3f 65 1e 3e 66 ed 60 3d 1a 20 29 bd
       -0.034225546 0.1546831 0.0549139 -0.04129038
0003c0 6c 85 1f 3e 51 20 66 3e a2 b0 e4 bd c5 07 a6 bd
       0.1557824 0.22473265 -0.111665025 -0.08106951
0003d0 25 5d e0 3d 62 5f f4 3d 74 80 96 bd b1 ec 2d be
       0.10955266 0.11932255 -0.07348719 -0.16984822
0003e0 37 83 4a be 26 fa 12 3d d0 40 07 3e 79 ce 52 3e
       -0.19776617 0.03588309 0.13208318 0.20586576
0003f0 ca a2 5f bd 10 d6 60 3d 60 be b5 bc de f3 bd 3d
       -0.054598607 0.054891646 -0.022185504 0.092750296

lstm.weight_hh_l1 f4 [192, 48]
000000 f4 1c d6 3d cb bf a0 3c 1f 12 36 bd c0 92 41 3d
       0.10454741 0.019622704 -0.044450875 0.047259092
000010 10 0c 80 3d db 4e 8b bd 82 79 e0 bd 14 88 f0 3c
       0.06252301 -0.0680215 -0.10960676 0.029361762
000020 a1 02 32 3e a6 5f 7a bd aa be 75 3b a7 df 63 bc
       0.17383815 -0.061126374 0.0037497678 -0.013908303
000030 e3 c8 03 3c f0 50 b8 3d 35 19 a8 bd 95 78 03 3e
       0.008043501 0.089998126 -0.08207933 0.12838967
000040 df 20 98 bd ea b6 1d bd e4 7e db 3c de 08 70 3c
       -0.07428145 -0.03850452 0.026793905 0.014650552
000050 6f dc 43 3e 1b b4 23 3e c4 70 c4 bd 7a 72 2d be
       0.19127057 0.15986674 -0.09591821 -0.169382
000060 03 14 6b bc 3c 6a 0b be 65 93 9a 3d 04 3e 90 bd
       -0.014348033 -0.13614744 0.075476445 -0.070430785
000070 40 7e 9a 3d b3 1c dc 3d a8 bd 69 3d 67 6a e7 3d
       0.075436115 0.107476614 0.057065636 0.112995915
000080 33 26 96 bd 74 82 5f 3d 6d d2 75 bc be 48 28 3c
       -0.07331505 0.05456777 -0.015003783 0.010271249
000090 d9 12 17 3e 66 e0 47 3e 0e 0e e4 3d 0f 42 9a bd
       0.14753284 0.19519195 0.11135493 -0.07532131
0000a0 44 e4 fd bc 73 b4 27 be 17 a8 b9 bd 85 49 1c bd
       -0.030992635 -0.1637743 -0.09065264 -0.03815605
0000b0 bb 4f 95 3c de 57 6e 3c 26 c0 20 bd 38 80 a5 3b
       0.018226495 0.014547316 -0.039245747 0.0050506853
0000c0 61 12 b1 3d 6d 58 df bd d6 2a 1e bd 9f 86 1c 3e
       0.086460836 -0.10905538 -0.03861507 0.15285729
0000d0 b0 c7 b9 bd 6a 41 11 3c 9c b0 28 be bc 05 3a be
       -0.090712905 0.008865694 -0.16473621 -0.1816625
0000e0 ca ff 30 3e d6 7e d2 3b 99 2f da bc 4b b9 a5 bd
       0.17285076 0.0064238114 -0.026634024 -0.080919825
0000f0 bf d7 ab 3c b5 54 9f bc 8d 9b 15 3e 61 63 3c 3e
       0.0209769 -0.019449571 0.14610119 0.18397285
000100 ce de fa 3d 91 7c 02 3e 61 62 b0 3c 47 d5 f2 3b
       0.12249528 0.12742831 0.021531286 0.0074106785
000110 6a f2 7e 3d 61 57 35 3e 55 d0 4d be ce 94 8e 3c
       0.062242903 0.17709114 -0.20099004 0.01740494
000120 02 19 3a 3e 35 f3 3b 3d 24 2e 0a 3c a9 ba 30 be
       0.18173602 0.045886237 0.008433852 -0.17258705
000130 a8 a1 0d 3c 65 be a9 bc f9 ff 63 3e ae 6b f0 3d
       0.008644499 -0.02072067 0.22265615 0.11739288
000140 ff 51 41 3d 76 06 c2 bd 8c 29 0a bd 7e e5 59 3e
       0.04719734 -0.094738886 -0.03373103 0.2127895
000150 42 30 32 bd 4e 75 0b 3e 57 61 4f bc 6f 7f 34 3e
       -0.043503053 0.13618967 -0.012657485 0.17626737
000160 e0 03 17 bd 66 69 06 be 11 04 ef bd 70 71 d2 bd
       -0.03686893 -0.13126144 -0.116706975 -0.10275543
000170 52 20 14 bd 82 51 15 be a7 49 6d bd a5 d9 9c bd
       -0.036163636 -0.14581874 -0.05793157 -0.076587
000180 04 ba 82 3b 4b 55 85 3c 12 a1 00 bc 47 fc c9 3d
       0.00398946 0.016276022 -0.007850902 0.09862571
000190 c3 fb 1d 3e 87 e5 2c 3d 1e da 12 bd e8 3d 8d bd
       0.1542807 0.04221108 -0.035852544 -0.06896573
0001a0 d5 a4 37 3d ac a8 25 3d b8 70 4b 3d 88 b7 c6 3d
       0.04483493 0.04044406 0.049668044 0.097029746
0001b0 46 ec ed 3d 01 fd 63 3d a6 dc 33 3e da 39 b9 3d
       0.11617331 0.055661205 0.1756464 0.090442374
0001c0 41 42 f4 3d d8 07 15 bc 3f 88 33 3e 89 d9 3d 3e
       0.119266994 -0.009096108 0.17532443 0.18540014
0001d0 56 5e 90 3d 34 95 b3 bd 2b d1 4f bc a9 2a 91 bd
       0.07049243 -0.087686926 -0.012684147 -0.07088215
0001e0 60 f8 dc 3c 7a 6a db 3d 91 0b ce bd 1a 3b 55 be
       0.026973903 0.10713668 -0.100608 -0.20823327
0001f0 ce e2 55 bd db 28 18 bd 1e 75 aa bc 11 63 1c 3e
       -0.05221825 -0.037148338 -0.020807799 0.15272166
000200 23 94 7a 3d 39 36 2f be c9 66 02 be 49 27 fa bc
       0.06117643 -0.17110528 -0.12734522 -0.03053631
000210 f0 20 b3 3c c9 82 a2 bd 72 8a 2b 3e 15 03 84 3d
       0.021866292 -0.079351015 0.16752031 0.064459
000220 9a 84 58 bd 61 b3 29 bd 7e 0c bc bd 95 4d f4 bc
       -0.052860834 -0.041430835 -0.0918207 -0.02982215
000230 ab f5 2d 3e 77 1b a0 bd d7 c1 aa 3d 71 2f e3 3d
       0.16988246 -0.078177385 0.08337753 0.11093033
000240 9b eb b3 bb eb 43 62 be cb 32 83 3e 75 46 dd bd
       -0.005490733 -0.22096221 0.2562469 -0.10804454
000250 28 11 73 3e 53 e6 09 3e e0 fa 8d be e5 f6 c4 bc
       0.23737013 0.13466768 -0.27730465 -0.02404351
000260 be 29 f4 3d b3 c4 18 be a7 d4 06 be e1 00 9a bd
       0.11922024 -0.14918785 -0.13167058 -0.07519699
000270 a2 3d 9d bd b1 9a c6 3c 0f e2 5f 3e d4 18 c5 3c
       -0.07677771 0.024243684 0.21863578 0.02405969
000280 b7 7c 00 3d 0d e0 e5 bd 9d 51 73 3e 88 81 00 3e
       0.031368937 -0.11224375 0.23761602 0.12549412
000290 99 64 88 3e 9d 6d d5 3b 16 18 bc bd 8e b2 1e be
       0.2663925 0.006513311 -0.091842815 -0.154978
0002a0 25 d8 c9 3d 3c 95 b3 bb d0 7b 08 3e 9c c9 e7 bd
       0.098556794 -0.0054804366 0.1332848 -0.11317751
0002b0 11 e7 ac bd 98 cc c7 bc 33 88 f7 3d a4 6b 4d 3d
       -0.0844251 -0.02438955 0.12086525 0.050151482
0002c0 7d 7c e4 3d 45 7b ae 3a b7 ec e0 bd 89 18 55 3e
       0.11156557 0.0013311884 -0.1098265 0.2081014
0002d0 66 4d 41 3e d8 2b 84 3a 61 69 c5 bc 12 12 21 3e
       0.18877181 0.0010083867 -0.0240981 0.1572955
0002e0 95 14 c1 bd 16 34 25 be 1a 5b 22 bd 6e 89 99 3c
       -0.09427754 -0.1613315 -0.039637662 0.01874229
0002f0 e9 a4 88 3d d5 e1 5a bc c6 71 55 3d ec 52 cb bd
       0.06672079 -0.013359507 0.052110456 -0.099279255
000300 fb 4e bb 3c 57 f4 0a be 92 23 08 bb 05 8c 36 be
       0.02286481 -0.13569771 -0.0020773155 -0.1782685
000310 bf c0 c1 bd 3d c6 17 3d f5 93 47 3d 3e 73 bc 3d
       -0.094605915 0.03705429 0.048725087 0.09201668
000320 dc e0 27 3e 4e 88 0b bd bc 68 3a be 07 d3 bc bd
       0.16394371 -0.034065537 -0.18204015 -0.09219938
000330 52 83 38 be 9c 53 17 3d 2a 1e 2f 3d 68 0e 66 bd
       -0.18018845 0.03694497 0.042753376 -0.056166083
000340 4d e9 02 3e e2 19 4e be 76 48 8f 3c 6f bc 2a bd
       0.1278431 -0.20127061 0.017490607 -0.04168361
000350 0d ae 96 bd 6d 21 6a 3c 23 52 bf 3d 46 90 f3 bd
       -0.07357416 0.014290196 0.09341838 -0.11892752
000360 08 22 11 3e 3a e4 95 bd 74 23 15 be 12 16 15 be
       0.14173138 -0.073189214 -0.14564306 -0.145592
000370 45 ca a4 bd 5e 6d 10 3d b6 04 0e 3b 2b cd 3a 3e
       -0.08046392 0.03526055 0.0021670288 0.18242328
000380 85 ff 15 3d 1b c9 c1 3d fb 24 36 3c 14 09 d6 3b
       0.036620636 0.09462186 0.011117215 0.006531844
000390 26 c7 d2 bc c3 0f eb bd 5b 7f 3f 3e 36 b8 a4 bd
       -0.025729727 -0.11477616 0.18700926 -0.08042948
0003a0 d8 54 30 be b4 01 22 be 02 d4 1a be 37 54 9e bd
       -0.17219865 -0.15820962 -0.15119937 -0.077309065
0003b0 4a b7 33 3e eb 45 35 be d4 7e 14 3e 63 bc 4e bb
       0.17550388 -0.17702453 0.14501506 -0.0031545393
0003c0 c7 4f a8 3d 65 22 12 bd 4c 84 bc 3d 12 f9 df 3c
       0.08218341 -0.035677332 0.09204921 0.027340446
0003d0 9f bb 23 3e 0a 7a 09 3e 24 49 87 be f4 ef 5a be
       0.1598954 0.1342546 -0.2642299 -0.21380597
0003e0 e0 d5 10 3e ff 40 35 be dc 0f 39 bd be 7c 66 be
       0.14144087 -0.17700575 -0.04518114 -0.22508523
0003f0 46 5e 6c 3c af 23 d1 3c 09 9d 95 3d 86 1a 5e bc
       0.014426773 0.02552971 0.07305343 -0.013556128

lstm.bias_ih_l1 f4 [192]
000000 1f 37 22 be ce 13 16 be 0b 46 a5 bd 65 db 5b be
       -0.1584134 -0.14655992 -0.0807 -0.21470411
000010 bb 51 60 bd 02 90 8e bd 8c 5b 18 3e 14 d2 91 bc
       -0.054765444 -0.06961061 0.14878672 -0.017800368
000020 07 85 08 be 2a bf 2d 3e 81 5b 29 3d fe 4e 83 bd
       -0.13331996 0.16967455 0.04134703 -0.06411551
000030 a0 18 03 bd 14 4b 47 be 9a ee 93 3d 22 5d b4 3d
       -0.032005906 -0.19462234 0.07223244 0.08806826
000040 d1 10 89 3c e1 44 01 3d 58 23 bf bc a2 9f 70 bd
       0.016731651 0.03155983 -0.023332283 -0.058745988
000050 f7 60 0f bd 85 d8 80 3d f7 02 1c 3d b9 34 9c 3d
       -0.035004582 0.06291298 0.038088765 0.076272435
000060 41 14 c6 bc 45 45 93 3d 82 fe 2c bd c8 13 f3 3c
       -0.02417958 0.071909465 -0.042234905 0.029672518
000070 a6 f7 fc 3c 4e 0c 42 be 20 34 d5 bb a8 05 1a 3e
       0.030879807 -0.18950006 -0.006506458 0.1504122
000080 37 50 ff bc 29 b5 20 bd fa 51 df 3d 01 93 5a bd
       -0.03116618 -0.039235268 0.10904308 -0.05336285
000090 0d f9 91 3d 45 81 fe bd d5 90 ba bd 40 60 16 3c
       0.07127581 -0.12427 -0.09109656 0.009178221
0000a0 9a 19 20 be ba d4 1f 3d 29 26 11 be 02 63 16 bd
       -0.15634766 0.03902123 -0.14174713 -0.036715515
0000b0 e2 26 84 bc 78 ad 80 be 04 9e e5 bd 4e 33 2b 3c
       -0.016131822 -0.25132346 -0.1121178 0.010449244
0000c0 63 7e 18 bd da 53 79 be 4d 5b 11 bd 86 6a b0 bd
       -0.037229907 -0.24348393 -0.03548746 -0.08614068
0000d0 47 84 28 be b4 21 80 be 04 be 35 3d f1 5e 1d 3c
       -0.1645671 -0.25025713 0.044370666 0.009605155
0000e0 8c 7f a3 bd bf 71 47 bd 25 f6 19 3d 4b e4 1d bc
       -0.07983312 -0.04869246 0.037588257 -0.009636949
0000f0 16 b3 8b 3d b3 15 27 be a8 29 0d be ca df f4 bd
       0.06821267 -0.16316871 -0.13785422 -0.11956747
000100 73 f9 01 be cb 94 8e bd 6b 6b eb bd a2 cc 22 be
       -0.12692814 -0.06961974 -0.11495098 -0.15898374
000110 09 23 1d be 6d 38 60 bd 6e 26 78 bc eb 4a 6c be
       -0.15345396 -0.05474131 -0.015145881 -0.23075454
000120 fd 64 1a be 44 85 96 3d c8 7a 53 3d a9 37 db bd
       -0.15077586 0.07349637 0.051630765 -0.10703976
000130 ef 5e e8 bb 90 ca 28 be 1c 99 84 bd e7 2a e6 3d
       -0.007091395 -0.16483521 -0.06474516 0.11238652
000140 5a f4 f1 3b 49 a0 75 be d4 35 09 3e 14 9d 09 bd
       0.0073838653 -0.23986925 0.1339944 -0.033597067
000150 fa 1d 60 bc 3b 4d 0a be 60 73 5b bd b9 47 52 be
       -0.013679022 -0.13506024 -0.053576827 -0.20535173
000160 0b 26 de bd 2d 19 ca bd df e8 4a be 7a 07 7b bd
       -0.108471 -0.09868083 -0.19815396 -0.061286427
000170 f2 39 0d be 9f fb 98 bd 96 d4 ac 3d 50 a6 7c 3d
       -0.13791636 -0.07469868 0.08438985 0.061682045
000180 35 12 91 bd 94 c9 5e bc ba 77 1a 3c 15 fb 69 3c
       -0.07083551 -0.013597865 0.009427959 0.014281054
000190 90 ad 13 bd be 6f b2 bd 03 8b 39 3d c6 55 a6 bd
       -0.036054194 -0.087127194 0.045298588 -0.08121829
0001a0 f0 bd 8c 3d 7f 3e 88 3d 27 23 4a 3e 8d db 28 3e
       0.06872165 0.06652545 0.19739972 0.16490002
0001b0 a0 c4 7c 3e b6 4b 74 3d d3 e7 8c bd ad 52 8a 3d
       0.24684381 0.059642516 -0.068801545 0.067540504
0001c0 6e 71 64 3d ab aa 1d 3d 82 5e 4e be 09 fa fe bd
       0.055772237 0.03849284 -0.2015324 -0.12450034
0001d0 96 6f 2f 3d ea dc 44 be 17 73 84 bd 7e 0c a1 bd
       0.042831026 -0.19224897 -0.06467264 -0.07863711
0001e0 ad 68 1f bd 87 f7 57 3d b5 41 b8 bc 1c 24 e7 3a
       -0.038918186 0.052726295 -0.022492269 0.0017634663
0001f0 1b 8e 51 3d 75 60 9c 3c c4 c6 cf bd 63 7c 07 be
       0.051160913 0.019088963 -0.101453334 -0.13231044
000200 e6 f4 1e bd 14 4a eb 3d 46 c1 3e 3e d2 3d 81 bd
       -0.038807772 0.11488739 0.18628415 -0.063106194
000210 b6 cc 23 be 3a ed 8e bd 69 f6 9e 3d fb 61 1d bd
       -0.1599606 -0.06978841 0.07761843 -0.03842352
000220 a3 fe b9 bd f0 b0 1b 3e 09 ca 94 3d 14 bc 26 bc
       -0.09081771 0.15204215 0.07265098 -0.010176677
000230 26 8e e0 bd 98 58 5b 3d cc 33 b7 bd bb a0 3d 3d
       -0.10964613 0.053551286 -0.08945426 0.046295863
000240 0f df 31 bd 61 57 2b be 79 2d c0 3d 94 8c 20 be
       -0.043425616 -0.16732551 0.09383673 -0.15678626
000250 9b 4f 30 be 7b bb 6e bb 90 c2 fc 3d 7d ae 82 3d
       -0.17217867 -0.0036427665 0.12341797 0.06380937
000260 43 ef 3c be 10 2c 5b 3d 77 37 eb 3d 55 a2 a7 bd
       -0.18450646 0.05350882 0.114851885 -0.08185259
000270 ba fa 0a 3e 57 b8 74 be 6c 4a 16 3d ed 1d 5a 3c
       0.13572207 -0.23898445 0.036692068 0.013312799
000280 31 3c f1 bc 14 2c b2 bd a9 23 ab bd ff ae 3f bd
       -0.029447647 -0.086998135 -0.08356411 -0.04679775
000290 d3 6a fc 3d 14 00 7e bd 99 93 0a 3e 93 b7 49 bd
       0.123250626 -0.062011793 0.13532867 -0.049247336
0002a0 8c bc e6 bc e3 6b cf 3d 11 54 00 be 0e a3 ad 3b
       -0.028166078 0.10128 -0.12532069 0.0052989786
0002b0 4d ee 02 be d5 13 6d bd 73 9a d5 bc 92 65 bd 3d
       -0.12786217 -0.05788024 -0.026074624 0.092478886
0002c0 c9 98 55 3d 55 8b a2 bc 7d 71 48 3c 11 87 f5 bd
       0.05214766 -0.01984183 0.012234089 -0.119886525
0002d0 e1 df 30 be e4 43 32 be 93 13 fa bc ed 99 3f bd
       -0.17272903 -0.1740871 -0.030526912 -0.046777654
0002e0 9e b6 da bd cd ba 9e 3c 4e 00 d6 bc af c2 ff 3c
       -0.10679363 0.019376183 -0.026123192 0.031220762
0002f0 00 5a d4 3d 9a 79 6a be 1a af b8 bd 8d 38 ef bd
       0.10368729 -0.2289795 -0.09017773 -0.11680708

lstm.bias_hh_l1 f4 [192]
000000 88 f9 4d bd ef 47 49 be ee 2a 8c bd 75 06 2d be
       -0.0502868 -0.19656347 -0.06844126 -0.16896994
000010 9d c5 51 ba 5b 2f f1 bc 3a 74 7b bd 09 df a1 3c
       -0.0008002164 -0.029441526 -0.06139014 0.019759672
000020 d6 1e d4 bd 6a 5b 9c bd 6a 72 e4 bd 5b f1 0b 3e
       -0.10357444 -0.07634623 -0.11154635 0.13666289
000030 64 15 35 3e 7f 3a 4d be 02 4e fb bd 45 b1 65 bd
       0.17683941 -0.20041846 -0.12270738 -0.05607726
000040 91 0f d1 3b 39 52 e5 3c 00 93 87 bd 42 d0 63 bd
       0.0063800295 0.027993308 -0.06619835 -0.055618532
000050 2c 1f 82 3c d5 75 4c bd 40 45 f2 3d 34 03 f0 bd
       0.015884005 -0.04991706 0.11829615 -0.11719361
000060 03 60 00 be 39 27 64 3d a3 ea 28 be 2c 96 15 3e
       -0.12536626 0.05570147 -0.16495757 0.14608067
000070 42 bf 38 bd e5 85 b4 bc 74 3d 30 bd a6 0a 65 3d
       -0.045104273 -0.022036502 -0.043027356 0.05591836
000080 1d 22 83 3a f9 d5 3b be 80 3c d6 ba 2e 9f 2e 3e
       0.0010004673 -0.18343343 -0.0016344935 0.1705291
000090 52 9a 12 be 9f d1 6d bd fe ee 03 3c f5 11 19 3c
       -0.14316681 -0.05806124 0.008052586 0.00934266
0000a0 d9 d3 d8 bc 47 00 1d bd c1 40 29 3d e8 18 05 bd
       -0.026468204 -0.038330343 0.04132152 -0.032494456
0000b0 26 81 9d bc d5 02 03 be fd 38 30 be 48 2b 0b be
       -0.019226622 -0.12794049 -0.1720924 -0.13590729
0000c0 f7 41 1a be 04 86 ab bd 3f 46 a8 bd 4c bf 37 be
       -0.15064226 -0.08375171 -0.082165234 -0.17944068
0000d0 d1 f8 86 3d 95 e6 0a be bf 9f 0c 3e 55 0c 6c 3d
       0.06590427 -0.13564523 0.13732813 0.05762895
0000e0 96 3a 7d 3d 14 3d dd 3c b5 98 83 bc bf 61 ff 3d
       0.06182345 0.027006663 -0.016064027 0.124698155
0000f0 d3 9a f5 3d 8c e8 da bc f9 0a d2 bd fb 02 57 bd
       0.11992421 -0.026722215 -0.10255999 -0.052493077
000100 58 fe 27 be 69 2d 26 be 65 ce 0f be c3 11 20 be
       -0.16405618 -0.1622826 -0.14043577 -0.15631776
000110 a6 0c 19 bd e0 1b c1 bc 4f 93 4a 3b 2f da 78 be
       -0.037365578 -0.023572862 0.0030910557 -0.2430198
000120 38 2f 25 be 04 b9 5b bc 4c 36 40 bb 06 42 79 3d
       -0.16131294 -0.01341081 -0.0029329238 0.06085398
000130 a9 e8 17 be bd 4b 0c be 76 56 b9 bd 6b 84 07 bd
       -0.14834847 -0.13700767 -0.09049694 -0.033085268
000140 92 ed d0 bd 18 8e 03 bd 5f b9 02 bd ef 73 e9 3c
       -0.10201563 -0.032117933 -0.031915065 0.028497664
000150 d7 7c 98 3d 1b e4 03 3d 46 8d bb bd 60 69 68 3d
       0.07445686 0.03219996 -0.09157805 0.05674112
000160 b9 01 06 be fc 5c 90 bd 6a d8 0b be a1 d1 90 3d
       -0.13086595 -0.07048985 -0.13656774 0.070712335
000170 7d 3f 0c 3d 21 7f 02 be d7 a7 a6 bc a3 9b f9 bd
       0.034240235 -0.12743808 -0.020343704 -0.121878885
000180 0f 22 68 bd b7 55 84 3c 62 4c e2 bd fe 19 0c bc
       -0.056673106 0.016154153 -0.11049725 -0.008551119
000190 d1 91 b3 3d 8d ec 4e bd 63 05 3e 3e a2 46 c8 3d
       0.08768047 -0.05051856 0.18556742 0.09779097
0001a0 ad 28 84 3d 80 c1 42 3e 8f 8d a7 3d 89 f1 30 3e
       0.06453071 0.19019127 0.08181297 0.17279638
0001b0 de 7a 5c 3e 55 d3 af 3c 5c 8b 8e bd be 5a 1f be
       0.21531245 0.021463076 -0.069601744 -0.15561959
0001c0 b4 28 9a bd 81 1e 2e 3e 85 5b a5 3c de a2 d0 3d
       -0.07527295 0.17003824 0.020185241 0.101873145
0001d0 8a c6 27 be e3 b4 9b bd 14 fc 30 3d 60 a7 1b 3e
       -0.1638433 -0.07602861 0.04320915 0.15200567
0001e0 db dc 1d be d7 33 83 3d bd 47 c4 bd 5e 16 0e 3e
       -0.15416281 0.06406372 -0.095839955 0.1387572
0001f0 24 1c e5 3c 42 9b 8f 3c 1d bb a2 3c 88 77 48 be
       0.02796752 0.017530087 0.019864613 -0.19576848
000200 62 dc c9 bd 5f 95 a6 bc 54 26 3a 3e 97 d0 0c be
       -0.09856488 -0.020334898 0.18178684 -0.13751446
000210 7d 3b a6 3d d9 1d 22 3e 03 c4 17 be c5 9a 89 3c
       0.08116815 0.15831698 -0.14820866 0.016797433
000220 8a 47 f9 3c be 90 de 3c 10 a1 07 3e 7b 97 94 3d
       0.03042962 0.027168628 0.13245034 0.07255455
000230 07 17 ee bc 68 e2 61 bc 90 a9 de 3d 07 65 f3 3d
       -0.029063715 -0.01378689 0.10872185 0.11884504
000240 20 fb 1d be d1 1a 26 be 19 4d 28 3c 64 23 d5 bd
       -0.15427828 -0.16221167 0.010272288 -0.10407141
000250 ef b2 7e 3d 39 4b 66 3c 43 b7 70 bb 7a 39 c6 3d
       0.062182363 0.01405602 -0.0036730326 0.096789315
000260 80 c8 5b bd b3 07 58 3d e3 5a e7 3d 7e 22 d8 bc
       -0.05365801 0.052741718 0.11296632 -0.026383635
000270 25 44 cc bd 31 cd 8e bd 35 2e 0d be f4 d2 75 bd
       -0.09973935 -0.06972731 -0.13787158 -0.060015634
000280 db 7c 06 bd 40 1b a7 3d e2 11 25 bc 2e 96 18 be
       -0.032833915 0.081594944 -0.010075064 -0.14901039
000290 35 30 b1 bd 55 bb 97 3d 2e d7 de 3d 2b 09 b4 bd
       -0.08651773 0.074087776 0.10880886 -0.08790811
0002a0 75 2a 89 3d a7 dc 25 3e 35 a9 cf bd c3 09 de bc
       0.06697551 0.16197453 -0.101396956 -0.027104264
0002b0 2f 51 18 be 87 51 0c be 70 7c 9e 3d 18 d7 1f be
       -0.14874719 -0.13702975 0.07738578 -0.15609396
0002c0 3f 2a c6 bb c8 a3 3e 3c 49 9e 0f bc 1c 9f e7 3d
       -0.0060475166 0.011635728 -0.0087657655 0.113096446
0002d0 3b f3 16 be ec e2 32 be a6 a3 26 be e3 72 f9 3b
       -0.14741223 -0.17469376 -0.16273364 0.0076125725
0002e0 ff 43 8f bd 23 4e a2 bd 20 92 38 be 5c 8c 1a be
       -0.06995391 -0.0792506 -0.18024492 -0.15092605
0002f0 1e f5 7b bc f1 cb 8b be f2 5d e9 bd 6f 77 12 be
       -0.015378265 -0.27304032 -0.11394872 -0.14303373
