checkpoint/training_epochs_80_stepsize_7_gamma_0.75/model_epoch60.pth (torch, 117569 bytes, 10 tensors)

lstm.weight_ih_l0 f4 [192, 2]
000000 92 6b ac 3e 4f 87 09 3f 3c 54 8f be 93 ba 48 be
       0.3367582 0.5372209 -0.27993953 -0.19602422
000010 13 68 71 3e 6e ee 52 3e cb 0d 94 3d 49 2a ec 3d
       0.23574857 0.20598766 0.07229193 0.11531503
000020 9f b8 40 3e 96 db 5a 3d b4 96 78 3c a4 a3 33 3e
       0.18820427 0.05343207 0.015172649 0.17542893
000030 77 57 3c be 85 82 9e 3c 74 d5 92 be 8e e2 8a be
       -0.1839274 0.019349346 -0.28678477 -0.27125973
000040 f0 4a 11 3e ee 36 8b 3e 35 5a 46 3d 5e 91 cf 3d
       0.14188743 0.27190346 0.048425872 0.101351485
000050 19 d1 ad bd 9b ea 96 3d dd a5 de 3e 40 62 6e 3e
       -0.08487148 0.07368966 0.4348592 0.23279667
000060 3e 46 79 3c a3 53 ad 3e b8 b1 b9 be 6c d7 9e be
       0.015214501 0.33852872 -0.362684 -0.3102373
000070 07 dd fa 3d d8 9a c1 bd a8 0e 8f 3d 0d a5 ec 3c
       0.12249189 -0.09453362 0.06985217 0.028887296
000080 60 d1 83 3c 52 e2 33 3e 65 d8 43 bd 8f 0d de 3d
       0.016091049 0.17566803 -0.04781379 0.1084243
000090 50 dd d9 3d 7c 00 7b bd d1 44 2a 3e 10 f6 f1 3c
       0.10637915 -0.06127976 0.16627814 0.029536277
0000a0 5c 8e 1c 3d 5c fd 27 be b9 e0 55 be 70 c0 db 3d
       0.038221702 -0.16405243 -0.20886506 0.10730064
0000b0 d5 ab bf 3e 57 e6 80 3e 0e 05 6a bd d0 5d 27 be
       0.37435785 0.25175735 -0.057133727 -0.1634438
0000c0 b9 82 72 3e 76 c1 4a 3e 86 e0 57 be f5 df 41 3b
       0.23682679 0.19800362 -0.21081743 0.0029582952
0000d0 ce dc ef be 4d 71 59 be c2 8e 22 3d 63 dc 94 bd
       -0.46848148 -0.21234627 0.039686926 -0.07268598
0000e0 45 e6 7f 3d af 35 95 3e 31 5e b0 be a9 dd 28 be
       0.06247546 0.2914252 -0.34446862 -0.16490807
0000f0 3d 15 00 3d 75 25 aa 3d 92 0e 44 be a3 f7 9b 3d
       0.031270254 0.083079256 -0.19146183 0.07615592
000100 5e fa ff bd e1 28 a6 3d 07 87 9e be fd f3 a8 be
       -0.124989256 0.08113266 -0.30962393 -0.32998648
000110 31 c2 87 be 8d a6 41 bd cb 34 e5 3c 76 28 d4 3d
       -0.26515344 -0.047277976 0.027979275 0.1035928
000120 d5 da 55 be d9 52 9f be 3c 6e 5c 3e 4c d0 4e 3e
       -0.20884259 -0.31117895 0.21526426 0.20196646
000130 f0 df 18 3e f1 2b 5b bd 8b b4 2e 3e 97 36 94 bd
       0.14929175 -0.053508703 0.17061059 -0.07236975
000140 ba 04 47 3e b4 99 86 3e da ca 04 be 40 41 f7 3b
       0.19435397 0.2628914 -0.12968007 0.00754562
000150 72 fc 13 3e 77 14 4a 3d cb c3 69 be 77 75 a8 be
       0.14451769 0.049335923 -0.22828595 -0.3290212
000160 7a df 09 bf 7e 8b fe bc a6 8e a0 be 99 14 5b be
       -0.53856623 -0.031072374 -0.31358832 -0.21394576
000170 43 0f 59 3e 47 5f 95 3e 49 eb a5 3e 36 bc 5a 3d
       0.21197228 0.29174253 0.3240607 0.05340215
000180 59 bb c4 3d 30 8f 9d 3d f7 00 8d be 12 6d ac be
       0.09606046 0.076933265 -0.275398 -0.33676964
000190 17 2e 5e 3e c9 c3 45 3e 48 80 63 be 4c 1c 42 3d
       0.2169727 0.19312967 -0.22216904 0.047390267
0001a0 df da fd 3d 5c 2b 8e be 0c a5 13 ba 01 50 51 3d
       0.12395262 -0.27767456 -0.0005632199 0.05110169
0001b0 dc a5 3e be 05 90 3e be 34 be 4a be 91 37 26 be
       -0.18617958 -0.18609627 -0.19799119 -0.16232134
0001c0 d0 47 99 3d 95 47 84 bd bb 03 e0 bd d7 f1 26 3c
       0.074844 -0.06458966 -0.109382115 0.010189495
0001d0 5e 61 99 3d 27 70 9c 3e 96 a6 7a 3e bb 38 9b 3e
       0.074892744 0.30554315 0.2447761 0.3031672
0001e0 0e 3d c0 be 45 cd a0 bd 98 68 18 be 2b ed 4b be
       -0.3754658 -0.07851652 -0.1488365 -0.19914691
0001f0 3e 64 00 be 3c c8 2d 3e 2d 44 81 3e 90 fa 4a 3d
       -0.1253824 0.16970915 0.25247326 0.04955536
000200 fe 6d 1b be b6 19 18 be a6 4c 36 be b4 67 b4 bd
       -0.15178677 -0.14853558 -0.17802677 -0.08808842
000210 e4 76 9a bd ca 1d e9 bd 43 b0 03 be 62 79 d3 3d
       -0.07542208 -0.11382635 -0.12860207 0.10325886
000220 05 8e 5f 3e ba a9 09 3e f0 38 00 be dd 54 e0 bd
       0.2183152 0.13443652 -0.1252172 -0.109536864
000230 d7 41 9f bc 56 bb 84 3d a2 9e 53 3e e8 45 56 3e
       -0.019440575 0.06481044 0.20665982 0.20925105
000240 8d 34 09 3e a9 90 a1 bc 45 ab 6a 3d e7 c0 c3 3b
       0.13398953 -0.0197223 0.05729224 0.0059739235
000250 17 8e b7 be f2 fb c3 3c 9a 4f 72 bd 75 49 aa b8
       -0.35850593 0.023923848 -0.059157945 -8.119914e-05
000260 81 e2 f6 bd 5d f7 a9 3e 0c 0d 81 be 98 1a 0e be
       -0.12054921 0.33196536 -0.25205266 -0.13877332
000270 95 d7 4b 3d 41 0c f0 bc c9 7a 34 be 4e 1c 9c 3d
       0.049766142 -0.029302718 -0.17624964 0.07622586
000280 99 66 d5 bd 47 0c 12 3d 4c 35 a1 be 7f 1f 21 be
       -0.104199596 0.03565624 -0.31485975 -0.15734671
000290 4f 45 85 bd 44 50 3c bd 85 d4 b6 3e c7 6c 40 3e
       -0.0650736 -0.045974985 0.35709015 0.18791495
0002a0 fc 6e 4e be d5 c0 1e be 08 60 1a 3e e6 b9 7b 3d
       -0.20159525 -0.15503247 0.15075696 0.061456583
0002b0 cc 1a f4 3d 64 06 a4 3b e5 8c 0a be 16 bb 78 3d
       0.119191736 0.0050056446 -0.1353031 0.060725294
0002c0 19 be 80 3e 9c b7 51 3e 69 ae 79 be ff 41 a5 3c
       0.25145033 0.20480198 -0.24382938 0.020173071
0002d0 cf a6 4f bd a0 9c 30 3e ca 55 1b be 29 a1 ab bd
       -0.05069619 0.17247248 -0.15169445 -0.08380348
0002e0 b4 ac 97 be 63 75 86 bd f9 d2 ce bd d4 a8 f8 b9
       -0.2962395 -0.065653585 -0.100988336 -0.00047428033
0002f0 23 94 0f be f6 d4 29 3e c3 c6 3e 3e 51 ca 96 3d
       -0.14021353 0.16585144 0.18630509 0.073628075
000300 5f d4 c2 be b6 38 fe 3e c5 fd a2 3d 89 5d 3d 3e
       -0.3805265 0.49652642 0.07958559 0.18492712
000310 ec ac 63 3e 7d 6f af 3e 9a a7 b2 3e 4a c9 91 3e
       0.22233933 0.34264746 0.34893495 0.28473884
000320 9d 3f be be a2 f7 9f 3e 6a 7e 3b be df 86 c5 3e
       -0.37157908 0.31243616 -0.18309942 0.3857946
000330 cc 5f 55 3c e6 00 22 3e 0a 95 2d 3c 80 10 39 be
       0.013023328 0.15820655 0.010594616 -0.180727
000340 79 a3 f9 3e 7e 5b bf bd 7d 2e e7 3e 7f 41 a4 3d
       0.48757532 -0.093436226 0.45152655 0.08020305
000350 8e 12 d2 3c c6 00 61 3e 5a b4 c4 be 17 8c c2 be
       0.025643613 0.21972951 -0.38418847 -0.37997505
000360 e5 60 ee be 74 74 30 bd 35 97 d2 3d 88 f9 10 be
       -0.465583 -0.04307981 0.10282747 -0.14157689
000370 dc 38 99 bd 5f 97 ae 3e 25 7f 42 3e 81 18 b9 3e
       -0.07481548 0.34099862 0.18993814 0.36151507
000380 85 99 c0 3e 68 5e 56 bc db e1 8b be 62 9b 83 3e
       0.37617126 -0.013084032 -0.27320752 0.25704485
000390 38 a2 3b be a8 97 43 be 77 d7 41 3d 87 bf fd 3e
       -0.183236 -0.19100821 0.047324624 0.49560186
0003a0 8d 03 e0 3d 86 21 3c 3e 47 33 15 3e d1 bb e4 bd
       0.10938177 0.18372163 0.14570342 -0.11168636
0003b0 bd 0a b2 be 49 0f a2 be e0 7b 73 3e 0b e4 60 be
       -0.34773818 -0.31652287 0.23777723 -0.21961991
0003c0 da 64 ef 3d c9 5e bc 3e dd d1 dd bd 5d 31 9f be
       0.11689158 0.36791065 -0.10831044 -0.3109235
0003d0 43 13 9a 3e ac 7f 67 3e e3 ce 64 bd 1b 25 b6 be
       0.3009282 0.22607297 -0.055861365 -0.35575184
0003e0 3c bc e0 3e bc 4c fc 3d 22 1b 7b 3e b3 f6 12 3e
       0.4389361 0.123193234 0.24522069 0.14351921
0003f0 3a 91 bf 3e 36 a2 96 bd 3c 2e 96 3e 33 1c 48 3e
       0.37415487 -0.07355158 0.2933215 0.19542007

lstm.weight_hh_l0 f4 [192, 48]
000000 74 23 06 be b7 cb 32 3d 36 0a c6 3e 77 cf 6a b9
       -0.13099462 0.04365131 0.38679665 -0.00022393266
000010 9d a4 87 be 89 cb 3d be 32 f8 f5 bd e7 bf 81 bc
       -0.26492777 -0.18534674 -0.1201023 -0.015838576
000020 6b 62 47 3c 0d e4 18 3e 96 6e 96 be 9b ec 70 be
       0.012169461 0.14930744 -0.29381245 -0.23527758
000030 d1 d9 d9 bc 72 47 ed 3d e5 22 9d 3d 02 3f 81 3e
       -0.02659312 0.11585893 0.07672671 0.25243384
000040 5a 03 44 3e e2 32 30 3d 75 37 7c be 11 89 86 3b
       0.19141904 0.043017276 -0.2463053 0.004105695
000050 64 2b f2 3d 64 71 1f bd e7 cd 2b be 69 e6 84 3e
       0.11824682 -0.038926497 -0.16777764 0.2595704
000060 d8 87 a8 3c 01 a5 be 3d 6c 30 31 bc 46 ae 15 be
       0.020572588 0.09308816 -0.010814767 -0.14617261
000070 0d 93 23 ba 02 73 b0 3e d2 7f 91 3e fc 74 b7 3e
       -0.0006239869 0.34462744 0.28417832 0.3583144
000080 66 67 55 3c d2 fb 5b be be 32 b2 be 4d fe 64 3e
       0.01302514 -0.2148278 -0.34804338 0.22362633
000090 ad 0a 9f 3d a0 15 eb bd 8d 9c c1 3e 3a 6d 89 3e
       0.07765708 -0.11478734 0.3781475 0.26841146
0000a0 eb f3 9e be ff eb 54 3d 39 68 7f 3e 27 82 63 be
       -0.3104547 0.051982876 0.24942102 -0.22217618
0000b0 07 3f 88 3e 9d 3c 5f 3e 19 14 40 3d 44 2b da be
       0.26610586 0.21800466 0.046894167 -0.42611134
0000c0 10 ab 1f 3c 32 83 6c bb 6b 38 84 3c b8 54 cf bd
       0.009745374 -0.003608894 0.016140183 -0.10123581
0000d0 2d 35 9a 3e 1b 5e d7 3d 65 57 2e be 05 89 c6 3c
       0.30118695 0.10515996 -0.17025526 0.024235258
0000e0 8b 71 2a be ac 8e 9a 3d 25 cb 65 3d 1f 48 a6 3e
       -0.16644876 0.07546744 0.056101937 0.324769
0000f0 9b 3d 71 3c d6 f4 9b bd ad a5 90 3b 7f 02 2f 3e
       0.014724161 -0.07615058 0.0044142813 0.17090796
000100 ad ea 1b 3d 1a a7 06 bd 52 44 67 3e 7b 9d 34 3c
       0.0380656 -0.032874204 0.22584656 0.011023874
000110 a9 2b 77 bd 0f 32 1d bd ed 94 71 3d ca 8b 00 be
       -0.060344372 -0.038377818 0.058979917 -0.12553325
000120 d5 ab 22 3c a1 6d 0c bd 01 51 89 3e ab 44 50 bc
       0.009928663 -0.034284238 0.26819614 -0.012711684
000130 ad c8 22 be e5 30 46 3e bc 56 1c be 95 f4 01 be
       -0.15896864 0.1935459 -0.15267462 -0.12690957
000140 d9 55 5e 3e 19 0a 13 be ad eb 50 be 9b 71 52 3c
       0.21712436 -0.1435932 -0.20402403 0.0128444685
000150 f1 a5 59 bc fa 6a 2f 3e 8a d3 35 be 7c 61 ad bd
       -0.013284192 0.17130652 -0.17756477 -0.08465859
000160 3c 2d 8e 3e 8f 54 09 3e c2 b3 6a bd 9c 25 ce bc
       0.27768886 0.13411163 -0.057300337 -0.025164418
000170 d6 fc 30 3c cd 81 f5 3d 5b 19 7e be 9c 04 ee 3d
       0.010802468 0.11987648 -0.2481436 0.11621973
000180 9a 86 87 3e 08 2d 84 3d 42 87 b7 bd 94 1b 96 be
       0.2646988 0.064539015 -0.08961345 -0.29317915
000190 cd cf db 3d bf 9e 52 be 68 ad 08 3d 9a 96 0e bd
       0.10732994 -0.2056837 0.033368498 -0.034811594
0001a0 57 a4 bc bd eb 90 0b be 6a 0f ca bc f6 f7 d8 3d
       -0.09211033 -0.136295 -0.024665553 0.1059417
0001b0 e0 63 62 3d 3e dd 8c 3c 34 6e ea bd 0f 65 17 3e
       0.05527103 0.01719534 -0.11446801 0.14784645
0001c0 a3 18 7e be 56 ef 2c 3d e8 9b af bc a7 a1 67 be
       -0.24814086 0.042220436 -0.021436647 -0.22620259
0001d0 d1 c4 d1 ba f0 eb 57 be 9d f6 19 be 0e 6b 46 3e
       -0.001600409 -0.21086097 -0.15035482 0.19376776
0001e0 89 ae 02 3d 37 0f aa 3d 4e 1b b5 be cb 4b 8e 3d
       0.03190473 0.08303683 -0.35372394 0.0694805
0001f0 0c eb 2f 3c a4 40 95 3d d1 18 9b bd c9 23 00 bc
       0.010737192 0.0728772 -0.07573093 -0.007821032
000200 ff 5d 6a 3e 30 3a 65 be 53 5a 07 be bd 1c 1b be
       0.22887419 -0.22385478 -0.1321805 -0.15147682
000210 72 a5 11 bc 9d 7f 00 3c 0b dc b1 bd db 57 82 3d
       -0.008889543 0.007842925 -0.08684548 0.06364413
000220 56 fa d0 bd f8 64 00 be 69 65 fe 3c b1 a2 62 3e
       -0.10203998 -0.12538517 0.031054216 0.22132374
000230 13 fa 86 3e 47 f9 f1 bc 92 98 14 3e 12 32 33 bd
       0.26362666 -0.02953781 0.14511326 -0.043748923
000240 6f 2f 95 3e 68 8e 5a 3e 94 d1 a9 3b 14 bd df bc
       0.2913775 0.21343386 0.0051824544 -0.02731184
000250 91 2b 96 3e ea ef 11 3e 99 b7 2e 3e 72 9a 72 be
       0.29330114 0.14251676 0.17062224 -0.23691729
000260 e2 e6 c0 be 69 e8 b5 be 3e a0 7f 3e 05 d3 93 bb
       -0.3767615 -0.35528877 0.24963471 -0.0045112395
000270 9d 8d d4 3e 82 2f bd bd cc 3d d3 bd 01 68 06 be
       0.41514292 -0.09237577 -0.10314521 -0.13125612
000280 c9 5a 7c be 1d 35 5e bb 0f 93 0e 3e 11 dc 3a 3d
       -0.24644007 -0.003390617 0.13923286 0.045620028
000290 b8 f5 5b 3e 46 42 a1 bd bc c9 13 3e 59 e3 db 3e
       0.21480453 -0.07873969 0.14432424 0.4294689
0002a0 c2 34 2c be 41 b1 50 3e f9 4c e4 bd 20 7c 23 bd
       -0.16817 0.20380117 -0.11147494 -0.039913297
0002b0 da e4 72 be 60 3d 47 3e da 29 39 be 3a 57 98 3e
       -0.23720112 0.19457006 -0.18082371 0.2975405
0002c0 bb 49 c1 3c 4f a3 e5 bd 4b 7e 58 be 8f ed 7b be
       0.023594728 -0.11212789 -0.21141927 -0.2460234
0002d0 c6 3f 74 3e 40 98 d6 3e b0 bf 62 bd dc 60 0a bd
       0.23852453 0.41913033 -0.05535859 -0.03378378
0002e0 08 dd f0 3c 10 52 50 3d dd f2 03 be 78 90 09 be
       0.02940227 0.05085951 -0.12885614 -0.13434017
0002f0 16 4e 23 3e 80 da 8e 3e 3b 45 84 3e 76 84 b6 3d
       0.15947756 0.27901077 0.2583407 0.08911984
000300 e4 4f 1b 3d 41 35 f9 3d 5d 8f 98 3e e2 43 81 3e
       0.037917987 0.121683605 0.29796878 0.25247103
000310 80 7f 01 be 02 b9 54 3e b0 7e 76 3d aa 59 42 bd
       -0.12646294 0.207737 0.060179412 -0.04744879
000320 6f 04 98 3c f5 36 0a bd 7a 64 7a 3d fc c6 a9 3d
       0.018556802 -0.033743817 0.06113098 0.082899064
000330 1f 95 ae bd 4b e8 8f 3c 16 10 e5 3d 6a 1e 8f 3e
       -0.08524536 0.01756682 0.11184709 0.27952892
000340 aa 15 6c 3d 00 88 91 3d 33 4c 34 3c 91 b8 b7 3e
       0.057637848 0.07106018 0.011004495 0.35883
000350 53 75 61 3e 75 b3 d5 bd 00 d0 2a be c6 32 5d 3d
       0.22017412 -0.10434619 -0.16680908 0.0540035
000360 f8 e4 5c bd 89 ac 2c 3d 00 8a e4 3e 73 e3 ba be
       -0.0539293 0.04215673 0.44636536 -0.36501655
000370 04 eb 86 bc 8a 7f ed 3e 5a 58 c4 bd b4 a1 45 3e
       -0.016469486 0.46386367 -0.09587164 0.19299966
000380 b2 b3 de bd 11 8e af bd f6 4a 51 be 60 93 8c 3d
       -0.10874118 -0.08572019 -0.20438752 0.06864047
000390 14 e2 3d 3e cb e9 12 be b5 d4 9b 3d 06 60 45 3e
       0.18543273 -0.14346997 0.0760893 0.19274911
0003a0 51 a3 32 bb ae 85 f6 3d f2 98 a5 3d a6 68 2f be
       -0.0027257989 0.12037216 0.08085813 -0.17129764
0003b0 84 28 29 be f5 08 c3 3e f7 36 69 bd 64 80 c4 bd
       -0.16519362 0.3809277 -0.056937184 -0.09594801
0003c0 c4 31 cf 3c 90 b1 60 3e 85 2f 62 3e 49 38 45 3e
       0.025292285 0.21942735 0.2208844 0.19259752
0003d0 a5 e3 b2 3c 53 77 2c be a2 1d 53 be 6f de 11 be
       0.021837065 -0.16842394 -0.20616773 -0.14245008
0003e0 ff 16 94 3e 39 dd ed 3d b5 59 04 3d e7 15 54 be
       0.28923795 0.116144605 0.032312114 -0.2071148
0003f0 c2 9d b2 bd 36 f5 10 3e 47 a4 2d be 1b e5 13 3e
       -0.08721496 0.1415604 -0.16957198 0.14442866

lstm.bias_ih_l0 f4 [192]
000000 03 9b 17 3f 8e ae 81 be f4 48 a5 bd 1f bc 20 3d
       0.59220904 -0.25328487 -0.08070555 0.039241906
000010 02 b1 af 3c 07 f3 13 bd 67 e6 6b be 7e ed 02 be
       0.021446709 -0.03612044 -0.2303711 -0.12785909
000020 59 ab d0 3e 63 da 94 3e 71 fa 60 be 29 65 27 3e
       0.40755728 0.29072866 -0.21970536 0.16347183
000030 ad b7 ae 3e aa 21 62 be 51 50 db ba 14 dd c6 3d
       0.34124509 -0.22083154 -0.001673231 0.09710136
000040 8f 97 8b bd d5 87 6c 3d c7 69 36 3c 8f f6 bf 3d
       -0.06816017 0.057746727 0.011133618 0.09373199
000050 02 7c 94 bd ee fd 7f be 08 a2 90 3e f5 54 18 3e
       -0.07250215 -0.2499921 0.2824862 0.14876159
000060 cf dd c3 bb 37 df d6 3c f3 fe c6 bd 10 0f fe 3c
       -0.0059773694 0.026229484 -0.097165965 0.031013042
000070 e1 cb d0 bb c2 42 76 be 0a ff 8d 3d 12 62 a7 3c
       -0.0063719605 -0.24048904 0.069334105 0.020432506
000080 1a 2c 6d be b0 ee 74 be 4f b8 95 bd ce 06 07 3d
       -0.23161355 -0.23919177 -0.07310545 0.032965474
000090 3a 0f c9 3d 7f d0 13 3e 8a f6 76 bc bc 91 08 3c
       0.09817357 0.14435004 -0.015073428 0.008335527
0000a0 ff ca 84 3d 64 a6 a1 bc d6 de ca 3d 79 9d 9d be
       0.06484031 -0.019732662 0.09905784 -0.30784205
0000b0 c1 31 ad be 8b 0b 83 be 2a 89 b1 3d 9e f3 17 3d
       -0.33827022 -0.25594744 0.0866874 0.037097566
0000c0 c1 d4 14 3e 4e 33 b5 be c7 8d 06 3d 6d ee 49 be
       0.14534284 -0.35390705 0.032850053 -0.19719858
0000d0 c8 2d 0c bd 10 c8 58 be fd 93 93 be 8d 9d cf bd
       -0.034223348 -0.21170068 -0.28823844 -0.10137472
0000e0 7d 45 3a bd 1b 61 90 bd fe 7b a0 3d a4 e2 83 bd
       -0.045476425 -0.070497714 0.0783615 -0.06439713
0000f0 e9 0a a7 bd 60 e6 81 be ec f7 46 bd 16 d6 bc 3e
       -0.08156378 -0.25371075 -0.04857628 0.36882085
000100 dc ef 36 be 18 2a 68 be e1 61 fa bd b2 49 bc 3d
       -0.17864937 -0.22672307 -0.122257 0.09193744
000110 28 38 26 be 60 30 e6 bd e2 90 f6 bd 30 bb a7 3e
       -0.1623236 -0.112396955 -0.12039353 0.3276
000120 a4 d8 85 3d e8 97 b7 b8 6d 49 07 3e 2d 17 76 3d
       0.065354615 -8.754415e-05 0.13211603 0.060080696
000130 83 cf ba bd 6d 7b 05 3c 86 75 30 be fa 84 a4 3d
       -0.09121611 0.008147103 -0.17232332 0.08033176
000140 b2 20 55 be dd 46 0e be 12 02 11 3c b3 4b 5e 3e
       -0.20813254 -0.1389422 0.008850591 0.21708564
000150 b3 21 cc 3d d8 56 45 be 5d ce 2a be 00 bf 03 be
       0.09967365 -0.1927141 -0.16680284 -0.1286583
000160 8a 36 15 be 45 19 35 be c0 6e 28 be 62 ab 4f be
       -0.14571586 -0.17685421 -0.16448498 -0.20280221
000170 b7 37 d0 3d ed cd 45 be 31 d8 d6 bd 0d 66 c3 bb
       0.10166877 -0.19316836 -0.10490454 -0.005963093
000180 20 18 9e bd b5 77 c7 bd 1d 96 38 bd 5d f0 0f be
       -0.07719445 -0.09739629 -0.045065034 -0.14056535
000190 af 77 d0 3d b9 8f 28 be 74 70 69 bd bd 09 9b 3d
       0.10179078 -0.16461076 -0.05699201 0.07570217
0001a0 53 d1 92 bd da dd e1 bd b9 c3 d4 bd 01 47 b3 3d
       -0.07168832 -0.11028643 -0.10388894 0.08753777
0001b0 cf a3 da 3d 33 74 d1 3c c9 b3 41 3d c1 d6 01 be
       0.10675775 0.025568103 0.047290597 -0.12679578
0001c0 55 2c d5 bd c0 95 10 bc 6c c7 b6 3d 08 1a 33 be
       -0.10408846 -0.008824766 0.089247555 -0.17490399
0001d0 f5 b2 bf bc 7c 82 4c 3d ee 83 35 3d ac c8 13 be
       -0.023400763 0.049929127 0.04431527 -0.14432019
0001e0 2f 3f 60 be a4 21 20 3e ab 84 09 be cc a9 14 3e
       -0.21899103 0.15637833 -0.13429515 0.14517897
0001f0 be 2d 27 be da 99 11 be f7 5c 47 bd 14 b7 ee bd
       -0.16326043 -0.14218846 -0.048672643 -0.11656013
000200 17 b2 d2 3d f1 c4 1e 3d 87 e1 a2 3d 24 86 25 bd
       0.10287874 0.038762037 0.07953172 -0.04041113
000210 c6 c4 64 bd 1c 8d 0f 3d 32 09 a8 bd 8e a8 2a be
       -0.05585172 0.03504668 -0.08204879 -0.16665861
000220 84 69 42 3d ae c4 e7 3d 6b df 67 be 27 2d a4 bc
       0.04746391 0.113168105 -0.22643821 -0.020041062
000230 92 ed 60 bd 17 31 3f bd 3d 79 26 bd a3 e0 dd 3c
       -0.054914065 -0.046677675 -0.040642966 0.027084654
000240 f6 e5 bf 3e 01 71 bb be c2 48 c8 bd 30 d1 2b bd
       0.37480134 -0.36609653 -0.097795025 -0.041947544
000250 c2 1b 18 3d 42 81 4b 3e e8 0e 2d be d7 d2 bb be
       0.037135847 0.19873527 -0.16900218 -0.36684296
000260 d3 b9 63 3e 00 91 26 3e 24 f2 0c 3c 12 54 ba 3d
       0.22238855 0.1626625 0.008602653 0.090980664
000270 28 58 8d 3e 4b a5 b5 be 13 4c 96 bc e4 e6 3e 3d
       0.2760632 -0.3547767 -0.018346822 0.046606913
000280 f2 95 87 3d ac 64 15 3d 70 54 d9 3c 63 a9 b9 3e
       0.06620397 0.03647296 0.02652952 0.36262044
000290 ce b7 08 be 7c 18 33 be 3f 2f ae 3e 20 16 5c 3e
       -0.13351366 -0.17489809 0.3402042 0.21492815
0002a0 7d b4 bc 3d 63 74 b3 bd dc ff fb bd 96 62 40 3d
       0.09214113 -0.087624334 -0.12304661 0.04696902
0002b0 17 a1 17 3e eb 85 ae bc 93 9e 1e 3d be 40 ae bd
       0.14807545 -0.021304091 0.038725447 -0.08508442
0002c0 22 f3 3a be 31 22 97 be 63 bd 20 be 60 3d e4 bd
       -0.1825681 -0.29518273 -0.15697245 -0.11144519
0002d0 4f ff 45 3d de 6b ea 3d 74 35 47 be fd 76 1b 3e
       0.048339184 0.11446355 -0.19453984 0.15182109
0002e0 70 ee 88 3c 28 37 55 bd 89 aa 10 bd 13 17 d0 be
       0.016715258 -0.052054554 -0.035318885 -0.40642604
0002f0 6b cc 1e be 39 d4 6c be 0e 67 fe bc 45 9e 8b 3e
       -0.15507667 -0.23127832 -0.031055 0.27269188

lstm.bias_hh_l0 f4 [192]
000000 cb 4d e4 3e e2 39 22 be e7 9c 5a bd 46 64 1b 3d
       0.445906 -0.15842393 -0.05337229 0.037937425
000010 5e 53 c7 3d b8 c3 90 3d 77 aa bc be e5 d2 1c be
       0.09732698 0.070685804 -0.36848804 -0.15314825
000020 d7 0f d5 3e a2 de 24 3d fc e8 37 bd 8a 55 8d 3e
       0.41613647 0.04025138 -0.044899926 0.27604324
000030 71 6d 43 3e 9b 20 8d be 49 4a 33 be f9 0b 90 3d
       0.19084717 -0.27563938 -0.17508806 0.070335336
000040 20 63 7d bd fd 22 85 3d ce 3c 48 be 7f c3 eb 3d
       -0.06186211 0.06500814 -0.19554445 0.11511897
000050 91 4a 91 be 94 9c 28 be e6 7c 34 3e e2 59 83 bd
       -0.28377202 -0.1646598 0.1762577 -0.06413628
000060 ea 02 51 3e 0e 03 b6 3d 62 fe 95 bd 34 9d 18 3c
       0.20411268 0.088873014 -0.0732391 0.009314824
000070 ed f5 b3 3d 90 90 62 bd 25 ea a7 ba 8b 15 55 be
       0.08787141 -0.055313647 -0.0012810869 -0.20808999
000080 3e 0c 7b bd 4a b3 7c be 5d fa c1 bd 86 b5 c5 bb
       -0.061290972 -0.24677768 -0.09471581 -0.006033602
000090 14 57 ae 3d 03 ad a4 3e b3 c7 3c bc 7d 22 75 bc
       0.085127026 0.32163247 -0.011522221 -0.014961836
0000a0 77 d0 01 be 08 19 64 be 80 3e fd 3d 8f a9 b8 be
       -0.1267718 -0.22275174 0.123654366 -0.36066863
0000b0 46 ea 4d be 57 cd 2d bd 12 a8 6f 3d 91 90 42 3e
       -0.201089 -0.042432155 0.058509894 0.1900046
0000c0 26 b8 c3 3d e2 16 0c be 35 09 f7 bd a9 e6 1e be
       0.09556608 -0.13680604 -0.12062303 -0.15517677
0000d0 49 1d 3c be f4 36 3c be 2d 71 4a be d4 d8 65 be
       -0.18370546 -0.18380338 -0.19769736 -0.22445995
0000e0 f4 1c af bd 8e aa 91 3d 59 88 84 3d 4c e3 19 bd
       -0.08550444 0.07112609 0.06471319 -0.037570283
0000f0 3c 0d 5f 3d 5c ce b2 bc b2 fb fc 3c 41 63 b7 3e
       0.05445598 -0.021826915 0.030881736 0.35817912
000100 85 11 a7 bd 77 9d 33 be 9c 4c 0f be 22 1f f3 3c
       -0.081576385 -0.17540537 -0.13994068 0.029677931
000110 74 e4 96 bc e7 ba 16 be b4 22 6d 3d b5 ff ce 3e
       -0.018419482 -0.14719735 0.057894424 0.40429464
000120 7f f1 3c bd 23 79 03 3e 2d c9 9d 3d 37 b8 85 3d
       -0.046128746 0.12839179 0.07704387 0.06529277
000130 81 5c 74 3c fd 98 19 be 44 48 9d b9 f7 2a 99 3d
       0.014914633 -0.14999767 -0.00029999216 0.07478898
000140 3c ed b9 bd 30 ec df bd d6 33 9b bd 24 02 44 bc
       -0.09078452 -0.10933721 -0.07578246 -0.011963401
000150 58 32 30 3e 94 c3 a4 bd 3a d6 a5 bc 87 41 26 be
       0.17206705 -0.08045116 -0.020243753 -0.16235934
000160 87 86 19 be e4 d9 ea 3c ab 61 b9 3a 6c 44 09 be
       -0.14992724 0.028668351 0.0014143487 -0.13405007
000170 95 0f cf 3d 3f f6 35 be b6 be bb bb 5f 5f 28 3e
       0.10110394 -0.17769717 -0.0057295216 0.16442631
000180 30 1d e2 3c 0e 27 11 bc d7 31 d0 bd d8 f1 b8 bd
       0.027601808 -0.008859409 -0.10165756 -0.09030503
000190 a5 4e b7 bd 9e 97 98 3d d3 75 f8 bb ad 71 11 bc
       -0.08950547 0.07450794 -0.007582405 -0.0088772
0001a0 dc 9c 89 bd f0 8a ee bd 2b 98 5f bb c1 66 69 3e
       -0.06719372 -0.11647594 -0.0034117799 0.22793104
0001b0 16 75 d4 3d 91 82 0d 3d 14 f7 d3 bd 16 90 55 bd
       0.10373895 0.034548346 -0.10349861 -0.052139364
0001c0 f9 73 f2 bc 72 e7 a1 3c e9 3b 83 3d 21 67 78 bd
       -0.029596316 0.019763682 0.06407911 -0.060645226
0001d0 58 be 30 bd 72 fb 41 bd 05 e0 62 3e d0 7f d4 3d
       -0.043150276 -0.047358938 0.22155769 0.10375941
0001e0 75 55 e5 bb 0a 19 8b 3d 86 66 67 bd d5 ce 14 bc
       -0.0069987127 0.06791885 -0.05649426 -0.009082516
0001f0 26 5e 4a bc 74 16 08 bc 62 04 3f bd 25 8d ae bd
       -0.012351548 -0.0083061345 -0.04663504 -0.08523015
000200 9c 00 24 3d eb 43 e7 3d 26 0b a4 3d 97 03 8e 3c
       0.040039644 0.11292251 0.08009939 0.017335696
000210 8e 30 fb bd 33 f8 02 3e 4d d0 21 3c 23 e7 02 bd
       -0.122651204 0.12789993 0.009876323 -0.03195871
000220 9a 0c 11 3e e6 3d f2 3b 0f 50 ac 3c 50 96 e3 ba
       0.14164963 0.007392633 0.021034269 -0.0017363522
000230 b2 28 6b 3c b3 e6 c8 bd fe de 13 bd 2e e2 b4 3d
       0.014352964 -0.098096274 -0.036101334 0.08832203
000240 47 e6 de 3e 83 3c ad be f0 03 00 3d 7c a8 ad 3d
       0.43535063 -0.3383523 0.031253755 0.084794015
000250 5d 00 1f 3e 8c 77 1e 3e 78 9c 9d be 58 78 34 be
       0.15527482 0.15475291 -0.3078344 -0.17624032
000260 41 94 29 3e 20 61 73 3e 89 44 f8 bd e6 a8 53 3e
       0.1656046 0.23767519 -0.12122447 0.20669898
000270 37 58 51 3e c7 25 0e be 34 b5 af 3d cd 19 62 3e
       0.20443808 -0.13881598 0.08579484 0.22080155
000280 9b 2f c3 bd ec e9 af bc 5f 9c 45 be b9 0a 38 3e
       -0.095305644 -0.021473847 -0.19297932 0.1797284
000290 4d 2d 4b be d9 e8 dd bd b2 63 9f 3e 82 c4 49 3e
       -0.198415 -0.10835428 0.3113075 0.19703868
0002a0 2b e5 9c 3c 9d c5 b6 3d f3 b1 a0 bd 07 38 1b be
       0.019152245 0.089244105 -0.07846441 -0.15158091
0002b0 1a 33 58 3d f4 a3 58 be 87 d1 dd bd 52 e3 81 be
       0.05278311 -0.21156293 -0.1083098 -0.25368744
0002c0 b3 45 a5 3a 05 0a 51 be 3a 77 34 be 8d 00 c2 3d
       0.0012609273 -0.20413978 -0.17623606 0.09472761
0002d0 7e b9 82 bc 04 97 29 3e 34 c5 0a be 23 01 a4 bc
       -0.01595759 0.16561514 -0.1355179 -0.020020073
0002e0 65 bd cf 3d ed ab 82 bd b1 0e f0 3d bb 00 83 be
       0.10143546 -0.063804485 0.11721552 -0.25586495
0002f0 87 12 bf be 15 d3 31 3c 9a a2 63 3e 8f b6 39 3e
       -0.37318823 0.0108535485 0.22229996 0.18136047

lstm.weight_ih_l1 f4 [192, 48]
000000 ed ec e1 3d 81 47 3a 3e 58 72 8c bd 3e 12 48 bd
       0.11031518 0.18191339 -0.06857747 -0.048845522
000010 8f 99 20 3d 18 79 68 3d 7b a7 39 3d 60 6f 3d be
       0.039208945 0.05675611 0.045325737 -0.18499517
000020 38 3a 6d 3d e5 50 45 be 21 11 2f 3d 52 06 b8 3e
       0.05791685 -0.1926914 0.042740945 0.35942322
000030 32 7c 19 3e 84 bc 98 3e 36 d6 00 3e ab 41 f6 bc
       0.14988783 0.29831326 0.12581715 -0.03006061
000040 28 b8 3f 3e 65 27 ff 3d d1 e0 7c bd 04 c5 8c bd
       0.18722594 0.12458686 -0.06173784 -0.06873515
000050 bb be 9e 3d bf ad 03 be 4d 53 40 3e 5c e0 a4 bd
       0.07751223 -0.12859248 0.18781777 -0.08050606
000060 6e b5 97 be f7 92 44 3e 17 83 4d 3e 87 ff 34 3b
       -0.29630607 0.19196688 0.20069538 0.0027618126
000070 19 88 48 be c5 9b 50 3e 0b af db 3d 92 64 fa 3a
       -0.19583167 0.20371921 0.10726746 0.0019103459
000080 51 56 38 3c 1d 45 b0 bd d8 b0 90 be 92 4f 2e 3e
       0.011251048 -0.08606932 -0.2825992 0.17022541
000090 d0 5b 31 3e 22 1c 00 3e b1 a9 bd bc d1 bb 8d be
       0.1732018 0.12510732 -0.023152204 -0.27682355
0000a0 d8 13 c0 3d 09 bb 53 3e 34 21 f9 bd ad e7 57 be
       0.09378785 0.20676817 -0.12164536 -0.21084471
0000b0 bc 2f a4 3a 87 7e 71 3e 04 b6 91 be 8b 42 2c 3e
       0.0012526433 0.23583423 -0.2845918 0.16822259
0000c0 ee 40 94 be 13 7b 97 3e 78 12 9d 3d cb a5 e1 3d
       -0.28955787 0.29586086 0.07669538 0.110179506
0000d0 ec 31 c0 bd 16 76 87 be 7a 1d 20 3e 03 0b 1b be
       -0.09384522 -0.2645728 0.15636244 -0.1514092
0000e0 7c 08 51 3e 70 d9 40 bd 00 77 c9 bd da ce 7d 3d
       0.20413393 -0.047082365 -0.098371506 0.061964847
0000f0 4d cf 9f be 24 47 ad 3d c0 16 77 3c 82 06 93 3d
       -0.31212845 0.084608346 0.015081108 0.07178976
000100 75 0e 71 3e 9f 8c b8 bd df 3a 89 be 3e 9d 15 be
       0.23540671 -0.09011196 -0.26802728 -0.14610764
000110 0c 57 60 bd 7c 9c de 3d 0f dc 0e 3e 77 6b 5f 3e
       -0.054770514 0.10869691 0.13951133 0.21818338
000120 45 3e 9a be c1 26 0b 3e 39 a5 4c 3e ad 35 0c be
       -0.30125633 0.13589002 0.19984902 -0.1369235
000130 f5 18 1e 3e 2b 53 87 3e e2 31 14 3e fe 55 3a 3e
       0.15439208 0.2643064 0.14472154 0.18196866
000140 3e c9 c7 3d ae 3e fa bc 3d ec 9c be 3e 12 a3 bd
       0.09755181 -0.030547466 -0.30648986 -0.07962464
000150 e1 7e 44 3e 24 de dc bd 0f cc 0d 3e bf 4d 09 3e
       0.19189025 -0.107845575 0.13847373 0.13408564
000160 cf f6 52 bd e2 f0 18 3e 66 dd ef bd fc a9 23 3c
       -0.051504906 0.1493564 -0.1171215 0.009989258
000170 43 42 19 3e a1 15 92 3d bb ce 0b 3d f3 39 1f be
       0.14966683 0.07133032 0.0341327 -0.1554945
000180 aa 69 b8 be ec 1a 03 3e b2 2d 17 be 66 f4 59 3e
       -0.36018115 0.12803239 -0.14763525 0.21284637
000190 93 fa 6f be 29 4d d9 be 72 66 55 3d 20 86 e4 bd
       -0.2343543 -0.4244168 0.052099653 -0.11158395
0001a0 e4 03 8d 3e 7b c4 ed 3d 3f 91 09 3e 62 52 67 bd
       0.2754203 0.11609741 0.13434313 -0.05647505
0001b0 50 97 bc be 83 3e 80 3d ca 11 5d be 46 0a 6d bd
       -0.36834192 0.06261923 -0.21588817 -0.057871126
0001c0 a8 59 47 3e 0b 8a 45 be 41 e4 6b be 4a 84 23 be
       0.19467795 -0.1929094 -0.2303629 -0.15968433
0001d0 bb 70 4f bd 4f 4b 56 bd 05 32 2b be 33 f5 34 3e
       -0.050644618 -0.052317914 -0.167183 0.17671661
0001e0 36 dc 4f 3d 89 ec 9a 3d f6 ba 51 3e 2e 3f 03 bd
       0.05074712 0.07564647 0.20481476 -0.032042675
0001f0 8c 15 ad 3e 14 f8 f2 3d ef 79 35 3e e9 01 b9 3d
       0.338055 0.118637234 0.17722295 0.090335675
000200 4b b5 b9 bd 47 20 7f bd f4 51 1d bd 9a 23 4d 3e
       -0.09067782 -0.06228664 -0.038408235 0.20033112
000210 b3 17 3f be 21 dd f8 bd 69 6c 88 3d e8 ee 3e 3d
       -0.18661384 -0.12151552 0.066613026 0.046614558
000220 79 b9 ef bd 80 78 ea 39 38 2e 1b be 15 7e 66 3d
       -0.11705298 0.00044721738 -0.1515435 0.056272585
000230 b0 c3 ab bd 94 62 d9 bd d0 eb 86 bd c3 26 3f be
       -0.08386934 -0.106145054 -0.065879464 -0.1866713
000240 88 2d 4b bc 0d e5 1a 3e 43 c7 7c be c1 86 81 3d
       -0.012400992 0.15126438 -0.24685387 0.063245304
000250 42 24 8f 3e 22 74 55 bd 31 fc 97 3d 86 4b 12 be
       0.2795735 -0.052112706 0.074211486 -0.14286622
000260 78 b6 f5 3c 5f 0a e5 bd ac 02 f9 bd ea 3a 7d 3d
       0.029994234 -0.11183619 -0.12158713 0.061823763
000270 e7 dc 62 3d 69 cc dd 3d 80 87 0e 3e 04 02 bc 3d
       0.05538645 0.10830004 0.13918877 0.09180072
000280 99 cd b5 bd ac 3b c0 3d 4b 38 00 3d d9 8a fa 3d
       -0.08877105 0.093863815 0.031303685 0.12233514
000290 64 ba bd bd 20 71 34 3d 30 c3 62 3c de 87 0c bd
       -0.09264067 0.044053197 0.013840482 -0.03430926
0002a0 f5 64 6a be 44 86 10 bd 64 6d 82 3e 61 21 48 bd
       -0.22890075 -0.035284296 0.25474083 -0.048859958
0002b0 64 e0 16 3d 00 7e 45 3e 84 59 08 be 5e 72 fb bd
       0.03683509 0.19286346 -0.13315398 -0.12277673
0002c0 82 d6 cf 3c 5c 31 67 3a 3b 89 92 be 92 c4 58 be
       0.02537084 0.0008819306 -0.28620324 -0.21168736
0002d0 47 5c 6d 3e e1 18 8b 3e 75 c5 53 bd e2 47 ac bd
       0.23179732 0.2716742 -0.05170198 -0.08412148
0002e0 ea cd fb 3d ac e1 79 3e 56 10 42 be fa 06 98 bd
       0.12295134 0.24402493 -0.18951544 -0.07423206
0002f0 fb d1 d8 3d a2 37 46 3e dc 5b 97 be b4 93 cf 3d
       0.105869256 0.1935716 -0.2956227 0.10135594
000300 79 ab 03 3e d1 57 e5 bd 6c 39 e7 bd 6e d0 3b 3e
       0.1285838 -0.1119839 -0.11290249 0.18341228
000310 f9 3a 4a 3e 4b 4c be bd 11 e1 7e 3d 2e 60 68 be
       0.19749059 -0.092918955 0.06222636 -0.2269294
000320 38 21 ab 3d f8 8e 68 be 9b 96 92 3e 6b 1c a6 3d
       0.08355945 -0.22710788 0.28630528 0.08110889
000330 cc 9d a4 bd a9 6e 95 be e7 f1 6e 3d 23 2c e9 bc
       -0.0803791 -0.2918599 0.058336165 -0.028463429
000340 2c 12 35 be 99 79 87 3d 41 8e ed 3d 73 8b 2e 3e
       -0.17682713 0.0661499 0.115993984 0.17045383
000350 81 4e 9e bc 7d d6 54 bd a5 1d 4e bd c7 ca 0e be
       -0.019324543 -0.051962364 -0.05032124 -0.13944541
000360 f2 0a ee 3b 46 48 18 be 43 f3 71 3e 4b 44 34 3c
       0.0072644884 -0.1487132 0.23627953 0.01100261
000370 a2 06 c2 bd ba 4b be bd 99 88 8d bd 6c c5 f1 3b
       -0.09473921 -0.092917874 -0.069108196 0.007378271
000380 28 fb 6f bc b5 d1 1a be b0 62 57 3e 37 94 20 3e
       -0.014647283 -0.1511906 0.2103374 0.1568154
000390 98 5c b9 3c 47 38 65 bd 2b 16 aa bd 7a 84 45 be
       0.02262716 -0.055961873 -0.083050095 -0.19288817
0003a0 ae 80 2f 3d 52 2a 88 3d 6e 0b 27 3d 78 f5 2c 3e
       0.042847328 0.06648697 0.040782385 0.16890514
0003b0 e5 90 bd be d9 de e5 3d 2b ab 60 3d 32 df c8 3d
       -0.37024608 0.112241454 0.05485074 0.09808196
0003c0 4e d4 33 3e 49 24 bb 3e 04 8e 92 bd b1 ad db bd
       0.17561457 0.3655112 -0.071559936 -0.107264884
0003d0 02 6a 53 3e a8 90 71 3e 2d 8a 38 3d cb 28 1e be
       0.20645908 0.23590338 0.04505365 -0.15445249
0003e0 96 15 92 be c6 71 16 be 19 20 86 3d e5 e7 ab 3e
       -0.28532094 -0.14691839 0.06549091 0.3357536
0003f0 93 7b 4a 3e aa 16 7b 3e 52 9f 9f 3d 19 22 47 3e
       0.19773702 0.24520364 0.0779406 0.19446601

lstm.weight_hh_l1 f4 [192, 48]
000000 e9 30 d0 3d 0a 1d c5 bb ea ce a2 bd 1a 15 ec 3d
       0.10165579 -0.0060154246 -0.07949622 0.11527462
000010 1a dd 3a 3e db 45 75 bd 20 3f 69 3b c7 e1 78 bc
       0.18248406 -0.059881072 0.0035590604 -0.015190548
000020 bb 70 2c 3e d2 ce d5 3c 99 1b e5 3d 51 1c bf 3d
       0.16839878 0.026099596 0.111869045 0.09331573
000030 6c 4f f8 3d 5c 61 e5 3d 1e 70 2e be 69 5a b8 3d
       0.121245235 0.112002105 -0.17034957 0.09001619
000040 bf 81 09 be a4 0d 96 3c 17 fd 11 bd 66 86 1a 3e
       -0.134284 0.018317051 -0.035641756 0.15090331
000050 d0 6f 28 3e df 89 6a 3d d6 a7 3e bd c1 2d 01 be
       0.16448903 0.05726039 -0.04654678 -0.1261511
000060 9a d8 da bd d8 37 99 bd 1a f9 57 3e 04 a3 4c be
       -0.10685845 -0.074813545 0.21091118 -0.1998406
000070 f7 5a 64 3e a0 60 2d 3e d2 62 c2 3d f6 70 47 bc
       0.22300325 0.16931391 0.09491505 -0.012172928
000080 b5 6c d9 bd 72 7c d0 3c 4d 65 8d 3d 82 5c a0 bd
       -0.10616437 0.025449965 0.06904087 -0.078301445
000090 38 9a ae 3d 9a 10 82 3e fe d3 0e 3e 51 79 6a bd
       0.08525509 0.2540329 0.13948056 -0.057244603
0000a0 2d 8f 4f bc 90 10 0d bd 97 5b 9a bd c3 79 16 be
       -0.012668413 -0.034439623 -0.075370006 -0.14694886
0000b0 54 c5 ca bb 73 96 55 3e 1e d5 d6 bd 8b a9 1f be
       -0.006188074 0.20858173 -0.10489868 -0.1559202
0000c0 93 b5 f2 3d a0 aa 92 bd 75 df fd bd 09 6e 61 3e
       0.11851039 -0.071614504 -0.12396137 0.22014631
0000d0 ee fe 42 3c 87 dd 6a 3d f8 c0 e8 bc fb 17 33 be
       0.0119016 0.05734017 -0.028412327 -0.17489617
0000e0 8e 2d a4 3d 2f e9 f8 3d 99 eb a4 3d 45 b2 21 3d
       0.08016501 0.12153851 0.08052749 0.03947665
0000f0 28 44 1b 3e ee 60 86 bd fe 08 ae 3d f0 ee da 3d
       0.15162718 -0.065614566 0.08497809 0.10690105
000100 c8 6c eb bb 8d 0e 4d 3e 07 b4 96 bd e4 be c3 3d
       -0.0071845986 0.20025082 -0.07358556 0.09557894
000110 72 d9 16 bb 3f 7e 67 3d dd 71 c4 bd dc 2f 95 3d
       -0.002301779 0.056516882 -0.0959203 0.07284519
000120 ec 95 80 3d ae fc 22 3e a6 03 79 3e 81 41 78 be
       0.06278595 0.15916702 0.24317798 -0.24243738
000130 47 c3 59 3e 96 bc 08 bd 5d 36 1a 3e 15 73 d9 bc
       0.21265899 -0.033382975 0.150598 -0.026544133
000140 d0 a9 9a 3c e4 f3 a5 bd 10 a0 9d 3d 53 4c af 3d
       0.018879801 -0.08103159 0.07696545 0.085594796
000150 a3 ae 04 be 4a fb 8a 3e f9 84 87 bd 39 12 2a 3e
       -0.12957244 0.27144843 -0.066171594 0.16608514
000160 a0 80 4b 3c a9 07 23 bd c8 1f 93 bd 54 f1 21 be
       0.012420803 -0.039802227 -0.07183796 -0.15814716
000170 7b f3 ce bd 2f 90 0e 3e 95 de e6 bd ef 5c 50 be
       -0.10105034 0.13922189 -0.11272923 -0.20347951
000180 6c d8 15 3e 8a e2 f8 3d 98 b9 71 bc 96 f3 a3 3d
       0.1463334 0.12152584 -0.014753722 0.08005445
000190 a0 81 6f 3e 11 0e 19 3e 16 c9 0f ba ad a9 21 bd
       0.23389292 0.14946772 -0.0005484981 -0.039468456
0001a0 20 4c 96 3d cd 83 b3 3d e2 3c de 3d a4 be 10 3e
       0.073387384 0.087653734 0.10851456 0.14135224
0001b0 34 a7 16 3e b5 91 03 3e 13 3c 64 3d 74 3f 82 3d
       0.1471222 0.12848552 0.055721354 0.06359759
0001c0 89 d4 70 bd ee 75 74 3d 7f 39 1f 3e 62 08 55 3e
       -0.05879644 0.05968278 0.15549277 0.20803979
0001d0 f0 ff d9 3c 58 63 16 be 31 d1 9c bc 69 4f 2c 3d
       0.026611298 -0.14686334 -0.019142719 0.04206792
0001e0 fa b6 b9 bc e6 64 06 3e 91 59 b6 bd 01 ed 1d be
       -0.022670258 0.13124427 -0.08903802 -0.15422441
0001f0 6c cd 17 3e 70 fb 35 bc ef 1c 02 be ce 3b c5 3d
       0.14824456 -0.011107311 -0.1270635 0.096305475
000200 c2 d5 91 3d 54 c4 cd bd 35 6b dd bd 0a c4 7b bd
       0.07120849 -0.10047212 -0.10811464 -0.061466254
000210 76 93 d1 bc 6a 71 3e 3c ad b2 2a 3e d9 1a 28 3d
       -0.02558301 0.01162372 0.16669722 0.04104123
000220 e1 0e 95 bd f3 97 48 3d da a6 b7 bd 56 e2 67 bc
       -0.072782286 0.048973035 -0.08967371 -0.014153084
000230 0d 81 22 3e 44 23 02 3e 0a 40 5a 3d e5 61 dd 3d
       0.15869541 0.12708765 0.05328373 0.108096875
000240 87 4c 5a bd 88 f2 88 be 68 2b a1 3e 2b f4 77 bd
       -0.05329564 -0.26747537 0.3147843 -0.06053559
000250 d7 20 8b 3e 51 5b dc 3d 04 10 83 be 7e 5b 40 bd
       0.27173492 0.10759605 -0.25598156 -0.046962254
000260 4e 5d 40 3e dc 60 db bd 29 83 59 bd eb 2d c4 bc
       0.18785593 -0.10711834 -0.0531036 -0.023947677
000270 0c fc 8a bd b7 65 8f 3c 07 38 71 3e c0 6b 13 3d
       -0.067863554 0.017504556 0.23556529 0.03599143
000280 67 fd 22 bc 2a 91 17 bc 7f 99 72 3e d5 77 4e 3e
       -0.009948111 -0.009250918 0.23691367 0.201629
000290 87 76 58 3e f9 e1 66 bd 3e 5a 47 be 93 ac 2f be
       0.21138965 -0.056367848 -0.19468018 -0.17155676
0002a0 45 fa 2d 3d 78 89 02 bd c7 a8 56 3e 4d 68 dd bc
       0.042475004 -0.03186938 0.20962821 -0.027027274
0002b0 7d 69 09 3c 22 f5 b6 3d 67 7d 11 3c 68 40 38 bc
       0.008386967 0.08933474 0.008879996 -0.011245824
0002c0 8c 4f eb 3c 49 84 b6 3b 69 46 0e be 88 4b 58 3e
       0.028724454 0.005569969 -0.13894047 0.21122563
0002d0 c2 88 4c 3e 90 5e 81 3c 3d a6 5e 3d 45 17 7b 3e
       0.19974044 0.015792161 0.054357756 0.24520595
0002e0 26 7c c2 bd 9c de 14 be f4 f3 1e be d4 48 68 bc
       -0.09496336 -0.14538044 -0.15522748 -0.01417752
0002f0 68 d1 c1 3d 4b e6 59 bd d5 04 1f ba 8e 10 25 be
       0.09463769 -0.05319814 -0.00060660887 -0.16119596
000300 7d c9 04 3d 05 0b 2a be e5 1f d0 3c ed b4 90 be
       0.032418717 -0.16605766 0.025405833 -0.28263035
000310 da b3 ab bd 9e 11 46 3d e8 1e ab 3d 4d 46 95 3d
       -0.08383913 0.048356645 0.08355504 0.072887994
000320 a2 f1 90 3e 3f 81 0f 3c 75 19 70 bd cd 3b 19 bb
       0.2830935 0.008758842 -0.058618028 -0.0023381591
000330 3e fc 08 be 88 0e 5c 3e 83 46 af bc 89 6d a5 bd
       -0.13377473 0.21489918 -0.021395927 -0.08077533
000340 68 56 2d 3e 41 5a a4 bd c9 77 42 3d 2a ab c1 bd
       0.16927493 -0.08025027 0.047477517 -0.09456475
000350 12 09 85 bd 52 d1 98 bd aa 4e 35 3a 8a 0e 01 bd
       -0.06495871 -0.074618 0.0006916324 -0.031508006
000360 fd 73 c3 3d da 20 cb bd 1d 3f 90 be 55 85 1c 3d
       0.095436074 -0.09918375 -0.28173152 0.038213093
000370 82 5b 83 3d 70 ea ba 3d 4f 67 98 bd 70 7d f3 3d
       0.06413938 0.09126747 -0.074415796 0.1188916
000380 57 51 90 bd 66 32 85 3e d9 f8 15 3d 63 45 e2 3c
       -0.07046764 0.26015013 0.036614273 0.027620977
000390 43 cc d3 bc 1e f2 63 be f0 28 7a 3e d3 07 96 bd
       -0.025854236 -0.22260329 0.24429679 -0.07325711
0003a0 b7 0f b7 be 91 67 70 be d4 a0 6b be 55 42 a8 bd
       -0.35754177 -0.23477007 -0.2301057 -0.08215777
0003b0 07 5b 61 3e 77 d3 5f be 34 43 45 3e 54 57 5f 3b
       0.2200738 -0.21858011 0.19263917 0.0034079151
0003c0 39 c1 47 3d 1d 9e f9 bd cb 53 c5 3d 4e 7e 1a 3e
       0.048768256 -0.12188361 0.09635123 0.15087244
0003d0 bc 2e a3 3e 4b 92 c1 3d e0 7b 49 be cb 49 9d be
       0.31871593 0.09451731 -0.19676161 -0.30720362
0003e0 3a 7f 2a 3e f6 b2 02 be b1 c9 08 3d a7 a1 1b be
       0.16650096 -0.1276358 0.033395473 -0.15198384
0003f0 37 1b b2 3d 61 88 b2 3d 05 b4 d1 bc 8b f9 69 bc
       0.08696597 0.087174185 -0.025598535 -0.014280687

lstm.bias_ih_l1 f4 [192]
000000 99 16 c3 bc 5e ac 93 bc f2 d1 38 bd 3b 57 3d be
       -0.023814486 -0.018026527 -0.045122094 -0.18490307
000010 03 90 46 3d 34 d8 0d 3d 47 4c 1e 3e 93 3c 19 3d
       0.048477184 0.034630015 0.15458785 0.037411284
000020 fe 2c a7 bd 45 b6 38 3e a9 3d c5 3c b2 dd 90 bd
       -0.081628785 0.1803828 0.024077253 -0.07073535
000030 66 01 65 bd a3 1d 97 be bf cb 81 3d 25 15 f0 3d
       -0.055909537 -0.295148 0.063376896 0.11722783
000040 6d b0 98 3d 95 8b 93 3d a5 1c ae 3b 44 bb 43 3d
       0.074555255 0.072043575 0.0053134733 0.047786012
000050 b9 9c ae bb 99 34 d8 3c 30 d3 d3 3d 50 16 4c 3e
       -0.0053287414 0.026392268 0.10343015 0.19930387
000060 5d d2 30 bb d5 96 92 3d 0b 41 62 be 17 38 8d 3e
       -0.0026980855 0.07157675 -0.22095124 0.27581856
000070 69 70 33 3e 11 90 c4 3c b0 b0 65 3e 91 78 1d 3e
       0.1752335 0.023994477 0.22430682 0.15378024
000080 e4 da 78 3c 3b d1 06 3e e0 ed b2 3d a3 be 4a bd
       0.015188906 0.13165753 0.08736777 -0.04949821
000090 f7 6e 76 3d d3 93 5f be b6 73 ef 3d f9 50 24 3e
       0.060164418 -0.21833734 0.11691992 0.16046514
0000a0 2b 2e 74 bd 8a 79 c2 3c 08 42 2f 3d 80 0e d7 3d
       -0.05961434 0.023739595 0.04278758 0.105008125
0000b0 3a 6b 59 bc 44 0b be be 85 b9 a3 be 78 fb 6a 3e
       -0.013270194 -0.3711797 -0.31977478 0.2294749
0000c0 f9 8d 91 bd 26 cb 89 be 89 5b bf bd 02 d8 f1 bd
       -0.07107157 -0.26912802 -0.09343631 -0.11808778
0000d0 fe dc 89 bd d3 e8 a6 be e8 60 bc bb bb 1f 88 bd
       -0.06731604 -0.32599506 -0.005748857 -0.06646677
0000e0 67 4c c2 bd 97 b7 c9 bd cb f2 8b bc ba c1 0b bd
       -0.09487229 -0.0984947 -0.017083546 -0.0341203
0000f0 15 a5 d7 3b 19 35 42 be 74 0b d6 bd 3a 05 34 be
       0.0065809586 -0.18965568 -0.10451403 -0.17580119
000100 6a 85 4d be 27 10 e0 bd e2 93 2b be fb 05 24 be
       -0.20070425 -0.10940581 -0.16755632 -0.16017906
000110 bf 3e 67 be ca 2e 05 be 38 da c0 bc e1 e4 89 be
       -0.2258253 -0.1300613 -0.023541555 -0.26932433
000120 c9 a0 3c be b4 8e 71 bb fb 00 a4 bc aa 30 a1 bd
       -0.1842071 -0.003685874 -0.020019999 -0.0787061
000130 8f a2 7b bd 7e ed a3 bd 6a e2 75 bd 42 96 7b 3d
       -0.061434325 -0.080042824 -0.06003038 0.061422594
000140 dd ab 54 bd 82 be 8a be 79 62 82 3d 92 0a d0 bd
       -0.051921714 -0.2709847 0.063664384 -0.10158266
000150 44 72 b5 bd 75 b4 62 be 7e e5 2b bd 38 8d 32 be
       -0.08859685 -0.22139151 -0.041966908 -0.17436683
000160 ee f8 d7 bd 3b d6 90 bd d7 1f 3c be 6c 30 96 bd
       -0.105455264 -0.07072111 -0.18371521 -0.073334545
000170 99 29 5c be 69 35 be bc 64 88 d2 bc b7 6b 99 3d
       -0.21500243 -0.023218827 -0.025699802 0.07491248
000180 66 ab 4a bd b3 9e cc bb c9 71 d4 3c 7b a8 c5 3b
       -0.049479865 -0.0062445044 0.025933163 0.0060320473
000190 08 6e e3 bc a7 1b 8b bd a5 e2 a0 3d 2b 3c ab bd
       -0.027762428 -0.06792384 0.07855729 -0.083610855
0001a0 89 53 ba 3d c8 21 93 3d 4e 3b 38 3e 3c 94 47 3e
       0.09097964 0.07184178 0.17991373 0.1949014
0001b0 0f 24 6f 3e a0 12 54 3d e7 b5 02 bd 34 45 9b 3d
       0.23353599 0.051775575 -0.031911757 0.07581559
0001c0 15 33 31 3d e0 8b f7 3c f4 3b 22 be 37 d1 fb bd
       0.043261606 0.030218065 -0.15843183 -0.12295764
0001d0 d1 a2 72 3d a7 3b 39 be 4a 55 78 bd 64 6b a8 bd
       0.059237305 -0.18089162 -0.060628213 -0.08223608
0001e0 b4 af c8 bc b3 3f 47 3d da 8c 09 3c 85 93 9b bb
       -0.024497844 0.048644733 0.008395398 -0.0047478103
0001f0 71 53 39 3d 5e 6e 96 3d 83 f4 ca bd d6 d8 cd bd
       0.04524559 0.073452696 -0.09909918 -0.10051124
000200 1d 3b 97 bc 2e 8a dc 3d 10 13 2d 3e 9d 22 75 bd
       -0.018460805 0.10768543 0.16901803 -0.059847463
000210 03 46 13 be cf be ac bd 57 72 ea 3d 73 a2 1c 3b
       -0.14382176 -0.08434831 0.1144759 0.0023900538
000220 3b ed d9 bd 8f 6c 09 3e a7 60 5b bc 09 9a 73 bc
       -0.10640951 0.13420318 -0.013389743 -0.014868268
000230 b0 26 93 bd 39 84 90 3d f8 39 c2 bd 07 63 87 3c
       -0.071851134 0.070564695 -0.09483713 0.016526712
000240 01 11 af 3d 24 63 1c bd c3 53 02 3e 06 37 05 be
       0.08548165 -0.038180485 0.12727265 -0.13009271
000250 9d 33 a8 bd 68 8a c0 3d 02 e8 e9 3d 83 f8 f5 3d
       -0.082129695 0.09401399 0.11421205 0.120102905
000260 7f 91 0a be 9d c7 66 3d 26 6f b6 3d d8 75 c7 bd
       -0.13532065 0.05634271 0.08907919 -0.09739274
000270 85 7d c9 3d 30 b0 ae be b7 a1 00 3d d6 1d 1b 3d
       0.09838394 -0.34118795 0.031404223 0.03787025
000280 5a c8 f7 3c 79 4f 5f bd 08 ad 54 bd 6b ac 66 3d
       0.030246902 -0.05451915 -0.051922828 0.056316774
000290 78 87 27 3e 6f bc d8 bd ef b5 24 3e bf 2e 91 3d
       0.16360271 -0.10582816 0.16085027 0.07088994
0002a0 bc 74 33 bc 8d 92 ce 3d d7 a5 9a be a1 95 7f 3e
       -0.010953125 0.10086546 -0.3020465 0.24959423
0002b0 fc 19 58 3c 4a 45 1a 3e a5 73 50 3e d1 56 b5 3d
       0.013189789 0.15065494 0.20356615 0.088544495
0002c0 57 41 bc 3d 7b da 1b 3e 89 3e 07 bc 40 17 ea bd
       0.0919215 0.15220062 -0.008254656 -0.11430216
0002d0 a5 94 3c be bf 8b 8b be de 51 33 3e 77 b5 dc 3d
       -0.18416078 -0.27255055 0.17511699 0.10776799
0002e0 c9 e4 04 bb 27 79 07 3c bf 75 1b 3e c3 4c 31 3e
       -0.0020277968 0.008268631 0.15181635 0.17314439
0002f0 a1 cf da 3d 44 17 b2 be 8a 57 97 be 7a ed cf 3d
       0.10684133 -0.34783375 -0.29558975 0.10152717

lstm.bias_hh_l1 f4 [192]
000000 a7 ab ac 3d ff 52 8b bd ff 9b 06 bd 4b 82 0e be
       0.084311776 -0.068029396 -0.032863613 -0.1391689
000010 1d cd d1 3d 32 30 99 3d c2 b0 63 bd 98 8a 99 3d
       0.102442004 0.07479896 -0.05558849 0.07497138
000020 71 83 54 bd 13 6d 86 bd 4c e8 03 be 97 29 05 3e
       -0.051883165 -0.06563773 -0.12881583 0.13004147
000030 0a 9b 1c 3e 59 15 9a be 62 b8 06 be f6 81 dc bc
       0.15293518 -0.30094412 -0.13156274 -0.026917439
000040 1f 7d 83 3d b3 3d 8c 3d f0 d0 19 bd a3 8a 50 3d
       0.06420349 0.06847706 -0.037552774 0.050913464
000050 fa 9c 3a 3d 3f 06 b1 bd 98 0b 3c 3e 5f 46 bf 3b
       0.04555986 -0.086437695 0.18363798 0.0058372463
000060 34 c1 d4 bd d5 ca 62 3d fd f5 af be da d1 c8 3e
       -0.10388413 0.055369217 -0.34367362 0.39222604
000070 0d 43 cb 3d 98 0d 44 3e cc 4a 40 3e eb d5 72 3d
       0.09924898 0.1914581 0.18778533 0.05928604
000080 3a f8 41 3d ed 75 4d bc f2 f3 be bc 0a 94 32 3e
       0.047355868 -0.012540323 -0.023309682 0.17439285
000090 fc fa 1d be 79 c7 1b be 17 41 5d 3e 15 7c 24 3e
       -0.15427774 -0.15212812 0.21606861 0.16062959
0000a0 84 e7 8f 3d 6c 98 5b bd fb 46 67 3e 8b b3 df 3d
       0.0702658 -0.053612158 0.2258567 0.10922917
0000b0 d8 0f 86 bc 56 be 7d be 85 6e c2 be bb 39 aa 3d
       -0.016364977 -0.24779639 -0.37974945 0.083117925
0000c0 3d e9 3c be 18 0c e0 bd 71 7a 0f be 07 76 58 be
       -0.18448348 -0.10939807 -0.14011551 -0.21138774
0000d0 14 12 27 3e 42 75 58 be 60 9a b2 3d 19 16 97 bc
       0.1631549 -0.2113848 0.08720851 -0.018443154
0000e0 4b a1 3f 3d 54 bd ba bc f4 dd 90 bd ae 3d cd 3d
       0.04678468 -0.022795357 -0.07073584 0.1002153
0000f0 42 c4 6e 3d 25 f2 59 bd 4a c3 8d bd da ab de bd
       0.058292635 -0.053209443 -0.06922014 -0.10872622
000100 4f 8a 73 be 1b eb 4e be 91 ac 45 be 1c 4b 21 be
       -0.2378323 -0.20206873 -0.1930411 -0.15751308
000110 48 be e0 bd 3b 88 ca bd 62 d2 ad bb 7a 2c 90 be
       -0.10973793 -0.09889265 -0.0053046206 -0.28158933
000120 04 6b 47 be c7 88 b9 bd 6c bf 98 bd 2c a8 b6 3d
       -0.19474417 -0.09059291 -0.07458386 0.08918795
000130 63 8e 4f be 55 e0 55 bd ab ae af bd 20 22 ac bd
       -0.2026916 -0.052215893 -0.08578237 -0.08404946
000140 9e 31 25 be b2 80 81 bd 02 66 d1 bd 0e be 21 bd
       -0.16132209 -0.06323375 -0.102245346 -0.03948789
000150 d2 92 f1 b9 31 ba 5d bd 55 c6 a3 bd 10 aa b3 3d
       -0.00046076492 -0.054132644 -0.07996813 0.08772671
000160 44 eb 02 be 0a 34 2e bd ce 1e fa bd 4c 4a 70 3d
       -0.12785059 -0.042530097 -0.12212907 0.058664605
000170 e9 7e 2f bd cc 8f 9b bd 3f 90 05 be 48 83 de bd
       -0.04284564 -0.075957865 -0.13043307 -0.10864884
000180 21 a9 10 bd d3 92 c0 3c c1 7e c0 bd 6f a0 89 bc
       -0.035317544 0.023507511 -0.093991764 -0.016800134
000190 45 8d c4 3d a9 44 00 bd f9 13 60 3e 3d 60 c3 3d
       0.095972575 -0.03131548 0.21882619 0.0953984
0001a0 47 be b1 3d e1 32 48 3e 94 bd 83 3d 38 aa 4f 3e
       0.08678871 0.19550659 0.064326435 0.20279777
0001b0 22 da 4e 3e 83 c3 5e 3c f9 fc 05 bd de e1 16 be
       0.20200399 0.013596418 -0.032711957 -0.14734599
0001c0 f4 c7 b3 bd 45 a5 25 3e 10 9c 81 3d d4 cb d3 3d
       -0.087783724 0.16176327 0.06328595 0.103416115
0001d0 bd f9 16 be c8 72 84 bd 03 8d 41 3d fd f7 17 3e
       -0.14743705 -0.06467205 0.04725362 0.14840694
0001e0 74 18 0f be c6 af 75 3d b1 05 85 bd b4 6b 07 3e
       -0.13974172 0.059982084 -0.06495226 0.13224679
0001f0 fe a6 b4 3c 16 3d 93 3d f6 03 b6 3c cd e7 27 be
       0.022052284 0.071893856 0.022218686 -0.16397019
000200 d2 30 a0 bd d3 94 e1 bc 1e 78 28 3e 87 7a 09 be
       -0.07821812 -0.027536785 0.16452071 -0.13425647
000210 f7 48 c7 3d 48 35 13 3e 2a 0c e4 bd 52 f9 6b 3d
       0.09730714 0.14375794 -0.111351326 0.057610817
000220 85 1a 73 3c e2 dd 18 3c 04 18 3e 3d e5 fb 8a 3d
       0.014837866 0.009330245 0.04640962 0.06786326
000230 93 0d 0f 3c c7 73 53 3b 64 a3 d3 3d a2 6d b6 3d
       0.008731264 0.0032265054 0.10333899 0.089076295
000240 aa d6 cf bc bd 70 07 bd 1e 07 33 3d 17 78 9e bd
       -0.025370914 -0.0330665 0.04370796 -0.07737749
000250 e4 e2 1b 3e b6 c9 e4 3d 20 03 53 bc ba c1 1c 3e
       0.1522327 0.11171286 -0.012879163 0.15308276
000260 3e 90 92 bb 40 a3 63 3d 92 92 b2 3d 05 b8 2b bd
       -0.0044727614 0.05557561 0.08719362 -0.04192354
000270 3e 5e 0c be a1 0e 30 be 3a 98 12 be b1 3c 11 bd
       -0.13707826 -0.1719308 -0.14315882 -0.03545827
000280 b2 0a dc 3c 86 9f e9 3d 3d ac b0 3c d1 fd 3b bd
       0.026860569 0.1140738 0.021566505 -0.045896355
000290 4c 17 3d bd 8b fb f7 3c e8 8d 09 3e ca 02 04 3d
       -0.046164796 0.030271312 0.13433039 0.032229222
0002a0 f1 6a ac 3d 4a 70 25 3e 2d 66 8e be 51 67 5e 3e
       0.08418835 0.16156116 -0.2781233 0.217191
0002b0 51 2a fc bb 97 71 92 3d 69 32 9d 3e 9e de 23 be
       -0.007695474 0.07150572 0.30702522 -0.1600289
0002c0 10 24 0a 3d 1f 16 3c 3e 36 a7 ef bc 15 0f f3 3d
       0.033725798 0.18367814 -0.029254537 0.11868111
0002d0 ff a7 22 be 44 db 8b be e7 c3 2f 3d af 0c 26 3e
       -0.15884398 -0.27315724 0.042911436 0.16215776
0002e0 ee 96 0e 3d 5e 0d b9 bd 6b 06 17 bb 99 7e 13 bc
       0.034811907 -0.09035753 -0.0023044597 -0.009002351
0002f0 6a 4a 48 bc 62 a6 c8 be 36 83 a3 be 48 37 9a 3d
       -0.012224773 -0.3918944 -0.31936044 0.07530075
