checkpoint/training_epochs_80_stepsize_7_gamma_0.75/model_epoch70.pth (torch, 117569 bytes, 10 tensors)

lstm.weight_ih_l0 f4 [192, 2]
0.34131798 0.5469191 -0.27464122 -0.17971492 0.23944451 0.2096725 0.08225029 0.11923441
0.19349508 0.066168725 0.014537784 0.18645811 -0.17338745 0.03521202 -0.2875286 -0.2699928
0.14412487 0.2842076 0.051825415 0.10496629 -0.08369392 0.07298126 0.44126797 0.24199532
0.037284184 0.36331418 -0.3584698 -0.30386472 0.12713894 -0.09318899 0.06878582 0.03209393
0.019220347 0.20022087 -0.04822072 0.11507251 0.120975785 -0.043033786 0.16859673 0.035566952
0.045314703 -0.15527613 -0.21449636 0.11740146 0.38661492 0.26341373 -0.057172153 -0.16321349
0.25046805 0.21694355 -0.21195467 0.005084077 -0.45898002 -0.21505155 0.041093584 -0.07078659
0.0647569 0.2896173 -0.34235013 -0.16089322 0.026946086 0.08617652 -0.1888267 0.07521656
-0.10823016 0.097759195 -0.3091773 -0.32064494 -0.26002753 -0.0417747 0.02646757 0.10255217
-0.20929374 -0.30848962 0.23812853 0.24039915 0.16726458 -0.03074193 0.17363824 -0.06684562
0.1935161 0.26761344 -0.116937 0.014465773 0.16798757 0.07097028 -0.22974828 -0.32713282
-0.53947145 -0.031696107 -0.3071366 -0.19672991 0.21504742 0.29498795 0.3275555 0.06271569
0.09631942 0.07897142 -0.27135342 -0.32462725 0.21668226 0.19142348 -0.21673518 0.04338435
0.12560228 -0.27306 -0.004079171 0.052756805 -0.18686 -0.18663467 -0.1948052 -0.15831256
0.07146372 -0.06483661 -0.11072571 0.0094789285 0.081829615 0.3122341 0.242038 0.30347046
-0.37063918 -0.07919747 -0.14278103 -0.1986302 -0.1261936 0.16740346 0.24758174 0.046120297
-0.16155344 -0.1428607 -0.18679406 -0.089937195 -0.07166927 -0.1056753 -0.13188109 0.10390466
0.23118423 0.13957006 -0.12886478 -0.10286595 -0.017799497 0.06891447 0.20534521 0.20511588
0.12901722 -0.016111193 0.059044883 0.009140657 -0.35102254 0.02681332 -0.061832536 -0.0007370153
-0.11994999 0.33000618 -0.25164562 -0.1339426 0.03922457 -0.032883573 -0.1727464 0.07592748
-0.09473452 0.048491355 -0.31475872 -0.1508811 -0.06388537 -0.043131974 0.3580898 0.18547133
-0.20059893 -0.15372185 0.1532627 0.07575506 0.12818342 0.019385977 -0.1333864 0.06263005
0.25034273 0.20572838 -0.23734735 0.02202419 -0.047664244 0.17894498 -0.14908928 -0.08465353
-0.29180008 -0.06155677 -0.10003002 0.011344755 -0.14199567 0.1645604 0.18424907 0.07251912
-0.38025016 0.49786928 0.08027925 0.18732966 0.22232501 0.34495604 0.35066232 0.2873347
-0.37136424 0.31316575 -0.18328945 0.38830894 0.01507373 0.16304177 0.007606828 -0.18150704
0.48921067 -0.09345112 0.4529772 0.08108632 0.027118446 0.21951406 -0.3857369 -0.3820154
-0.46860617 -0.044224154 0.09977422 -0.1426664 -0.074036255 0.34200236 0.19183704 0.36172593
0.37774697 -0.011374971 -0.27471796 0.25699648 -0.18632531 -0.19467981 0.04917557 0.49778068
0.10766929 0.18361618 0.14476432 -0.11619291 -0.34919038 -0.31750876 0.23845638 -0.21929137
0.11901671 0.37403655 -0.11066639 -0.31044722 0.30068624 0.22832718 -0.05960104 -0.35808748
0.44017336 0.12200238 0.24722214 0.14736587 0.37406915 -0.07503206 0.30060127 0.19737515
00000000: 3bc1 ae3e e402 0c3f c69d 8cbe 3007 38be
00000010: f130 753e 63b4 563e d772 a83d 2c31 f43d
00000020: 9323 463e 7883 873d e32f 6e3c e0ee 3e3e
00000030: 7b8c 31be 7b3a 103d f336 93be 7f3c 8abe
00000040: 7895 133e a983 913e e346 543d 91f8 d63d
00000050: b867 abbd 3377 953d e0ed e13e 9fcd 773e
00000060: 4db7 183d 5104 ba3e 5b89 b7be 2894 9bbe
00000070: b630 023e dfd9 bebd 94df 8c3d ed74 033d
00000080: fd73 9d3c b306 4d3e 1783 45bd 23ab eb3d
00000090: 27c2 f73d 3244 30bd 9fa4 2c3e a7ae 113d
000000a0: e99b 393d b500 1fbe efa4 5bbe 2d70 f03d
000000b0: 64f2 c53e 2ade 863e 592d 6abd 7021 27be
000000c0: 593d 803e 7326 5e3e a50a 59be 5498 a63b
000000d0: 6eff eabe 7936 5cbe bf51 283d 8ff8 90bd
000000e0: 449f 843d b848 943e 8448 afbe 31c1 24be
000000f0: 0abe dc3c 517d b03d c95b 41be 240b 9a3d
00000100: c6a7 ddbd f935 c83d 7d4c 9ebe 932b a4be
00000110: 5422 85be f31b 2bbd 84d2 d83c df06 d23d
00000120: 1951 56be 5af2 9dbe f7d7 733e 322b 763e
00000130: 6847 2b3e 80d6 fbbc 39ce 313e 5be6 88bd
00000140: 1629 463e a104 893e aa7c efbd d901 6d3c
00000150: ef04 2c3e de58 913d 2243 6bbe f47d a7be
00000160: cd1a 0abf c7d3 01bd 0241 9dbe 9173 49be
00000170: 6435 5c3e a908 973e 5bb5 a73e 1571 803d
00000180: 1e43 c53d c5bb a13d d6ee 8abe 8b35 a6be
00000190: f4e1 5d3e 8404 443e d4ef 5dbe cab3 313d
000001a0: e29d 003e 85ce 8bbe 91aa 85bb 8517 583d
000001b0: 3a58 3fbe 291d 3fbe 047b 47be b01c 22be
000001c0: 925b 923d 0ec9 84bd 29c4 e2bd 824d 1b3c
000001d0: 4996 a73d 26dd 9f3e cfd8 773e 7b60 9b3e
000001e0: 6bc4 bdbe 4832 a2bd 3135 12be b765 4bbe
000001f0: e538 01be d06b 2b3e 1186 7d3e a3e8 3c3d
00000200: 446e 25be 134a 12be f146 3fbe fe30 b8bd
00000210: 57c7 92bd 4b6c d8bd d60b 07be f7cb d43d
00000220: 8fbb 6c3e 74eb 0e3e 21f5 03be 62ab d2bd
00000230: 40d0 91bc 0823 8d3d 0446 523e e609 523e
00000240: 171d 043e 9ffb 83bc 0cd9 713d b2c2 153c
00000250: 3ab9 b3be 9ca7 db3c 1d44 7dbd 4234 41ba
00000260: 57a8 f5bd 92f6 a83e b2d7 80be 4028 09be
00000270: f1a9 203d edb0 06bd 6fe4 30be de7f 9b3d
00000280: 2c04 c2bd df9e 463d 0e28 a1be 9380 1abe
00000290: 55d6 82bd 27ab 30bd 8c57 b73e 32ec 3d3e
000002a0: ce69 4dbe 4369 1dbe e6f0 1c3e 7825 9b3d
000002b0: 8442 033e 57cf 9e3c 7296 08be 2f44 803d
000002c0: ec2c 803e 76aa 523e 2f0b 73be 136c b43c
000002d0: 953b 43bd 5a3d 373e dcaa 18be d45e adbd
000002e0: d266 95be f422 7cbd 8adc ccbd 5adf 393c
000002f0: 5067 11be 8682 283e caab 3c3e e884 943d
00000300: 26b0 c2be b9e8 fe3e 7369 a43d 59d3 3f3e
00000310: 2ba9 633e 149e b03e 038a b33e 891d 933e
00000320: 7423 bebe 4357 a03e 3bb0 3bbe 6ed0 c63e
00000330: cef7 763c 6cf4 263e b342 f93b fbdc 39be
00000340: d279 fa3e 4d63 bfbd a1ec e73e 9610 a63d
00000350: 8127 de3c 4bc8 603e 4f7f c5be 8697 c3be
00000360: 26ed efbe 6324 35bd 6d56 cc3d 2417 12be
00000370: 52a0 97bd ef1a af3e ee70 443e 2434 b93e
00000380: 0d68 c13e 165e 3abc d5a7 8cbe 0b95 833e
00000390: 10cc 3ebe 255a 47be 536c 493d 1cdd fe3e
000003a0: b781 dc3d e105 3c3e 193d 143e 8cf6 edbd
000003b0: 15c9 b2be 8290 a2be e92d 743e eb8d 60be
000003c0: 08bf f33d b881 bf3e 0fa5 e2bd f0f2 9ebe
000003d0: 8cf3 993e 9ace 693e 3820 74bd 3e57 b7be
000003e0: 675e e13e 62dc f93d cd27 7d3e 14e7 163e
000003f0: fe85 bf3e 69aa 99bd 69e8 993e b61c 4a3e

lstm.weight_hh_l0 f4 [192, 48]
-0.11920858 0.060563236 0.39383197 -0.008681319 -0.26122916 -0.18049592 -0.119112976 -0.0271501
0.006037885 0.14299452 -0.2969478 -0.24965341 -0.015736584 0.11057466 0.075321116 0.25659174
0.18831319 0.05124856 -0.2531335 0.0062780404 0.11396487 -0.047861833 -0.16595322 0.27021074
0.02704797 0.09511446 -0.02639309 -0.14764194 -0.010332956 0.34883377 0.27867153 0.3690894
0.011475028 -0.22986461 -0.3571282 0.22164974 0.08261211 -0.11798166 0.36677653 0.2753734
-0.30931678 0.06245434 0.2547392 -0.21907772 0.2845106 0.22542267 0.05678608 -0.42804432
0.031064246 0.0013278577 0.031138863 -0.109475866 0.31141636 0.11967788 -0.17180638 0.017264785
-0.17856792 0.070193976 0.05357337 0.3164933 0.0315411 -0.08555301 0.017990025 0.17809443
0.030644212 -0.013444276 0.23078218 0.02433005 -0.066350475 -0.051077854 0.05264199 -0.13283278
0.00992723 -0.027518148 0.26860207 -0.02376197 -0.17202577 0.19578223 -0.16355431 -0.13295579
0.22079504 -0.14712523 -0.20909485 0.009862397 -0.011448927 0.17815498 -0.1822652 -0.09619884
0.27905026 0.14779112 -0.054823965 -0.026580496 0.021576162 0.13470046 -0.24677071 0.123822056
0.2686315 0.078486405 -0.09147911 -0.2940333 0.118528694 -0.20108125 0.04486834 -0.0378755
-0.08663559 -0.13793379 -0.017054345 0.10182785 0.061669894 0.030748995 -0.106827274 0.14786482
-0.25870007 0.05028215 -0.014361058 -0.22217198 -0.008278971 -0.20408967 -0.15332049 0.19158456
0.029635815 0.08602677 -0.348875 0.06703704 0.0126790125 0.073824905 -0.07095049 -0.007058215
0.23413801 -0.22080131 -0.13587679 -0.14571646 -0.010035125 0.01553397 -0.09744221 0.064715125
-0.10430354 -0.11662592 0.020193016 0.22222994 0.25508592 -0.028905936 0.15145 -0.03257268
0.2802296 0.20835797 0.0024801935 -0.0132817235 0.2859353 0.1351135 0.18559964 -0.23550054
-0.36752853 -0.35145852 0.25284624 -0.001956294 0.396968 -0.07904104 -0.10874632 -0.13519278
-0.24903083 -0.018086843 0.13851663 0.034568425 0.22403286 -0.06691795 0.13480808 0.43459898
-0.17644629 0.20048116 -0.104915455 -0.035001792 -0.2210023 0.1955523 -0.17006502 0.3045166
0.02478866 -0.104700804 -0.2158111 -0.24163002 0.233513 0.41885498 -0.059328537 -0.014256966
0.025268119 0.03741215 -0.13769661 -0.13786843 0.14902185 0.27010188 0.25856647 0.08242468
0.046092644 0.11806037 0.3090259 0.25202066 -0.12625214 0.21262771 0.07112419 -0.04474857
0.020630693 -0.040446557 0.07209472 0.07221238 -0.07538315 0.023164421 0.13406445 0.29229766
0.053801388 0.08093224 0.010293553 0.3788853 0.23411027 -0.09750453 -0.16962999 0.053752292
-0.041265342 0.046895787 0.46047562 -0.3848875 -0.018611832 0.47517994 -0.10410516 0.18991128
-0.11888358 -0.08217995 -0.21327047 0.070716776 0.19748764 -0.14041793 0.064713076 0.18417768
-0.009296995 0.12926158 0.08766989 -0.1844447 -0.16909157 0.3907471 -0.045557182 -0.09415908
0.047784306 0.23013715 0.22871186 0.17634687 0.041368697 -0.15635137 -0.2048652 -0.14737812
0.27495152 0.114172794 0.031074947 -0.22285746 -0.06372291 0.13270754 -0.16183122 0.14943734
00000000: a123 f4bd 2811 783d 58a4 c93e 173c 0ebc
00000010: d4bf 85be ecd3 38be 81f1 f3bd e369 debc
00000020: 73d9 c53b 286d 123e 8b09 98be 25a5 7fbe
00000030: 02ea 80bc f874 e23d f541 9a3d fe5f 833e
00000040: 2cd5 403e 03ea 513d b79a 81be 05b8 cd3b
00000050: 6a66 e93d c50a 44bd a4ef 29be 1059 8a3e
00000060: b493 dd3c 5fcb c23d 5236 d8bc 732f 17be
00000070: 8f4b 29bc 579a b23e 09ae 8e3e 49f9 bc3e
00000080: c101 3c3c a161 6bbe 82d9 b6be 26f8 623e
00000090: 8a30 a93d 5ea0 f1bd 22ca bb3e befd 8c3e
000000a0: c55e 9ebe 1fd0 7f3d 2d6d 823e e955 60be
000000b0: 60ab 913e 33d5 663e 8598 683d a028 dbbe
000000c0: 727a fe3c 830b ae3a ee16 ff3c e234 e0bd
000000d0: f771 9f3e ad19 f53d 03ee 2fbe e16e 8d3c
000000e0: 82da 36be dcc1 8f3d c06f 5b3d 690b a23e
000000f0: 3e31 013d 6b36 afbd d15f 933c 635e 363e
00000100: 9209 fb3c 6145 5cbc 2a52 6c3e d04f c73c
00000110: c2e2 87bd 0337 51bd 219f 573d 5105 08be
00000120: d2a5 223c bd6d e1bc 3686 893e 77a8 c2bc
00000130: 8627 30be 237b 483e c87a 27be 9025 08be
00000140: 1818 623e ffa7 16be f61c 56be e495 213c
00000150: 4894 3bbc 426e 363e bba3 3abe e603 c5bd
00000160: addf 8e3e 8e56 173e 188f 60bd 57bf d9bc
00000170: 7ec0 b03c ebee 093e 76b1 7cbe 6b96 fd3d
00000180: 118a 893e 7bbd a03d 6659 bbbd 888b 96be
00000190: 2cbf f23d 3ee8 4dbe ddc7 373d 5723 1bbd
000001a0: 006e b1bd 843e 0dbe 8eb5 8bbc 1f8b d03d
000001b0: 9299 7c3d 51e5 fb3c 42c8 dabd e069 173e
000001c0: 5674 84be a8f4 4d3d a54a 6bbc 0d81 63be
000001d0: 85a4 07bc e2fc 50be 0c00 1dbe be2e 443e
000001e0: cfc6 f23c ce2e b03d be9f b2be b74a 893d
000001f0: a2bb 4f3c 8331 973d 7e4e 91bd 9948 e7bb
00000200: e0c1 6f3e bd19 62be 4923 0bbe b236 15be
00000210: 5d6a 24bc 3182 7e3c c88f c7bd 5d89 843d
00000220: 189d d5bd 92d9 eebd d36b a53c 3f90 633e
00000230: 9f9a 823e 24cc ecbc b515 1b3e ee6a 05bd
00000240: 417a 8f3e cb5b 553e be8a 223b 969b 59bc
00000250: 1d66 923e 315b 0a3e d50d 3e3e 0e27 71be
00000260: b32c bcbe 5ff2 b3be 1075 813e 2b35 00bb
00000270: 643f cb3e 45e0 a1bd 64b6 debd fa6f 0abe
00000280: f001 7fbe dc2a 94bc 4ed7 0d3e 9f97 0d3d
00000290: df68 653e 470c 89bd 210b 0a3e c283 de3e
000002a0: 56ae 34be ef4a 4d3e eadd d6bd 0a5e 0fbd
000002b0: 6d4e 62be dd3e 483e 8625 2ebe 9ae9 9b3e
000002c0: 9711 cb3c 606d d6bd 96fd 5cbe dc6d 77be
000002d0: 081e 6f3e 2974 d63e 7b02 73bd 0d96 69bc
000002e0: 16ff ce3c 7c3d 193d 5700 0dbe 622d 0dbe
000002f0: 2f99 183e cb4a 8a3e d362 843e 45ce a83d
00000300: a4cb 3c3d a3c9 f13d a538 9e3e da08 813e
00000310: 3e48 01be 14bb 593e 8fa9 913d 474a 37bd
00000320: b301 a93c 4aab 25bd 66a6 933d 16e4 933d
00000330: 7b62 9abd 50c3 bd3c 3148 093e 0aa8 953e
00000340: d85e 5c3d cdbf a53d 4aa6 283c 41fd c13e
00000350: 9aba 6f3e 74b0 c7bd 7cb3 2dbe 5d2b 5c3d
00000360: d905 29bd cc15 403d 76c3 eb3e f90f c5be
00000370: d777 98bc c94a f33e 1635 d5bd 1a78 423e
00000380: 3c79 f3bd f64d a8bd 9363 5abe f5d3 903d
00000390: 333a 4a3e b8c9 0fbe 4a88 843d 1399 3c3e
000003a0: 6c52 18bc 265d 043e 458c b33d 12df 3cbe
000003b0: 5726 2dbe 0110 c83e 2b9a 3abd 7ad6 c0bd
000003c0: 7ab9 433d 13a9 6b3e 7133 6a3e 4694 343e
000003d0: 3972 293d 931a 20be 2fc8 51be 4aea 16be
000003e0: 72c6 8c3e 6dd3 e93d e390 fe3c bf34 64be
000003f0: 2881 82bd 7ce4 073e 15b7 25be 1a06 193e

lstm.bias_ih_l0 f4 [192]
0.59816366 -0.23880629 -0.07562362 0.047657188 0.02949106 -0.031692214 -0.21160755 -0.12915356
0.41431075 0.2946006 -0.2181018 0.1724349 0.37134933 -0.21893403 -0.00011042762 0.09656668
-0.05506288 0.062010396 0.019992648 0.100870445 -0.06718201 -0.25139588 0.29618135 0.14875332
0.011941905 0.02719411 -0.093370944 0.03345969 -0.004551689 -0.24196778 0.07114367 0.02131226
-0.21556714 -0.24002227 -0.06990037 0.033361297 0.097612076 0.17465337 -0.0030783028 0.015167489
0.066776685 -0.013700768 0.12564057 -0.30807203 -0.338314 -0.24605331 0.09166017 0.043241505
0.14378774 -0.34400493 0.03378209 -0.19836108 -0.032976575 -0.21643217 -0.28491724 -0.09964001
-0.049878612 -0.07087785 0.08393468 -0.064961895 -0.07837207 -0.25468555 -0.051458303 0.363239
-0.18190505 -0.23385061 -0.12423009 0.09301268 -0.15482202 -0.11830624 -0.117021546 0.32457817
0.06450648 0.0021591499 0.14075977 0.058252186 -0.08959074 0.0065652793 -0.17986612 0.08127425
-0.19846042 -0.14257063 0.0073489132 0.21759915 0.09932652 -0.1825721 -0.15769686 -0.12501568
-0.14614601 -0.17787912 -0.15878476 -0.20179099 0.10275761 -0.18720683 -0.10656597 -0.010769987
-0.0778483 -0.096832335 -0.04581292 -0.14116837 0.10243157 -0.16638845 -0.058797307 0.07439337
-0.071437426 -0.11044468 -0.104192 0.088256605 0.107326336 0.026288884 0.045834504 -0.126558
-0.1039333 -0.011428182 0.08982535 -0.17463693 -0.025358645 0.04846867 0.04478185 -0.14326015
-0.22005947 0.15669678 -0.13465188 0.14480576 -0.165274 -0.13901182 -0.049253322 -0.114658475
0.10620296 0.038686916 0.07412269 -0.039486505 -0.05569624 0.036739316 -0.08310985 -0.16680259
0.04683485 0.11387886 -0.22773731 -0.019824741 -0.05416856 -0.04656838 -0.040562604 0.02673037
0.38037458 -0.35141173 -0.0935141 -0.03305383 0.045926213 0.20318234 -0.1502521 -0.36859816
0.2288241 0.16673522 0.008995688 0.09895714 0.30585226 -0.35339576 -0.016871462 0.04657192
0.080206126 0.039731048 0.035531588 0.36885497 -0.12864447 -0.17682563 0.35362592 0.21434869
0.10935121 -0.086979054 -0.11861495 0.049493473 0.1499902 -0.022733403 0.04063113 -0.08451506
-0.16695738 -0.29693776 -0.15358223 -0.11191161 0.047798585 0.14547704 -0.18143925 0.15849462
0.018066013 -0.04577448 -0.0085138315 -0.40698478 -0.15509297 -0.22107044 -0.02639085 0.27878314
00000000: 4121 193f a389 74be 8ee0 9abd 2f34 433d
00000010: 3c97 f13c b2cf 01bd a6af 58be d540 04be
00000020: 8a20 d43e e4d5 963e 1456 5fbe c692 303e
00000030: 8021 be3e 3e30 60be 6195 e7b8 c0c4 c53d
00000040: 9d89 61bd 9dfe 7d3d 9fc7 a33c 2a95 ce3d
00000050: b996 89bd f6b6 80be 15a5 973e ca52 183e
00000060: fba7 433c 2fc6 de3c 4439 bfbd 070d 093d
00000070: 5626 95bb 67c6 77be c6b3 913d 0c97 ae3c
00000080: a2bd 5cbe 66c8 75be ed27 8fbd dba5 083d
00000090: d7e8 c73d 55d8 323e 5abd 49bb 0f81 783c
000000a0: 37c2 883d 3079 60bc eca7 003e 9ebb 9dbe
000000b0: 7e37 adbe 66f5 7bbe 54b8 bb3d 011e 313d
000000c0: 183d 133e 6a21 b0be 175f 0a3d 2b1f 4bbe
000000d0: 7212 07bd 65a0 5dbe ace0 91be 1010 ccbd
000000e0: 844d 4cbd 6828 91bd f2e5 ab3d be0a 85bd
000000f0: 8981 a0bd 2566 82be f1c5 52bd 76fa b93e
00000100: 5145 3abe 8976 6fbe 586c febd 6f7d be3d
00000110: aa89 1ebe 8b4a f2bd fea8 efbd 1c2f a63e
00000120: f91b 843d 8680 0d3b 5423 103e d899 6e3d
00000130: 5a7b b7bd 8e21 d73b d32e 38be 1d73 a63d
00000140: 3539 4bbe 09fe 11be 27cf f03b 50d2 5e3e
00000150: b46b cb3d 2ef4 3abe 497b 21be 1c04 00be
00000160: 4da7 15be f225 36be 7998 22be 4ca2 4ebe
00000170: 9572 d23d 26b3 3fbe 423f dabd 9974 30bc
00000180: ee6e 9fbd 0850 c6bd 54a6 3bbd 718e 10be
00000190: a5c7 d13d bc61 2abe 72d5 70bd 8d5b 983d
000001a0: c94d 92bd d230 e2bd 9e62 d5bd e1bf b43d
000001b0: e9cd db3d c95b d73c f6bc 3b3d 6c98 01be
000001c0: fbda d4bd 453d 3bbc 5af6 b73d 06d4 32be
000001d0: efbc cfbc 1687 463d 2c6d 373d cab2 12be
000001e0: 4557 61be 1f75 203e 2fe2 09be f647 143e
000001f0: 963d 29be 1d59 0ebe dabd 49bd 10d2 eabd
00000200: f080 d93d 2c76 1e3d a3cd 973d 9abc 21bd
00000210: be21 64bd f77b 163d 7f35 aabd 4cce 2abe
00000220: e6d5 3f3d 5239 e93d f833 69be 7f67 a2bc
00000230: dadf 5dbd 7cbe 3ebd f924 26bd a6f9 da3c
00000240: 75c0 c23e 3dec b3be 5284 bfbd 7463 07bd
00000250: 201d 3c3d 080f 503e b0db 19be e6b8 bcbe
00000260: dd50 6a3e a3bc 2a3e a662 133c 0baa ca3d
00000270: ab98 9c3e 4af0 b4be 0536 8abc 33c2 3e3d
00000280: 1c43 a43d 06bd 223d 9289 113d 8fda bc3e
00000290: 60bb 03be c711 35be 750e b53e 397e 5b3e
000002a0: 87f3 df3d 1322 b2bd 65ec f2bd abb9 4a3d
000002b0: 0897 193e 673b babc d46c 263d 3b16 adbd
000002c0: e0f6 2abe 3a08 98be a944 1dbe ea31 e5bd
000002d0: 73c8 433d eff7 143e 36cb 39be 6a4c 223e
000002e0: 2dff 933c 057e 3bbd 997d 0bbc 4f60 d0be
000002f0: b1d0 1ebe 4a60 62be a031 d8bc aabc 8e3e

lstm.bias_hh_l0 f4 [192]
0.45186073 -0.14394514 -0.04829038 0.046352707 0.105371244 0.075114064 -0.3497258 -0.15444273
0.42288995 0.04412252 -0.043296676 0.28500625 0.22095095 -0.27374208 -0.17352505 0.06980065
-0.048764855 0.06927169 -0.18668483 0.12225743 -0.2784527 -0.16606237 0.18995212 -0.06414408
0.22203207 0.08983756 -0.06944408 0.011761449 0.0896919 -0.056792628 0.0005286387 -0.20720947
-0.04524452 -0.24760818 -0.091510735 -0.0056376946 0.08456553 0.3519359 0.00047290447 -0.008129882
-0.12483526 -0.21672018 0.15023677 -0.3608986 -0.20113325 -0.03253843 0.06348272 0.1961488
0.09401034 -0.12690355 -0.119691074 -0.15633927 -0.18245871 -0.18853487 -0.19437613 -0.22272572
-0.089906804 0.07074595 0.07028637 -0.038134698 0.05764788 -0.02280237 0.027999643 0.35259727
-0.084832676 -0.1825329 -0.14191452 0.03075299 -0.010917898 -0.15310657 0.061266273 0.4012728
-0.046976957 0.13063872 0.08568743 0.063464135 0.01653996 -0.15157953 -0.007843061 0.07573147
-0.081112675 -0.11296566 -0.0772842 -0.011449941 0.17172049 -0.07030935 -0.01113759 -0.15871662
-0.1503574 0.027642906 0.0071143946 -0.13303885 0.10219278 -0.17173564 -0.007390975 0.15961942
0.026947947 -0.0082953125 -0.102405496 -0.090907484 -0.08886468 0.07273042 -0.009387671 -0.010186106
-0.066942826 -0.11663419 -0.0037147508 0.22865 0.10430753 0.035269305 -0.10495483 -0.05190088
-0.02944112 0.017160304 0.06465691 -0.06037818 -0.045108188 -0.048819393 0.22202426 0.104819335
-0.008067068 0.06823728 -0.0568504 -0.009455694 -0.01436524 -0.005129697 -0.04721572 -0.08332849
0.043363754 0.11284721 0.07469036 0.018260224 -0.12249586 0.12959254 0.008815386 -0.03210271
0.14102095 0.008103425 0.019734712 -0.0015200635 0.0150985485 -0.097987 -0.03602097 0.08796797
0.44092387 -0.3236675 0.03553437 0.093687765 0.16406508 0.15919998 -0.28908515 -0.1779959
0.17204015 0.2417479 -0.120831445 0.21467519 0.23422723 -0.13743475 0.08727012 0.22076678
-0.081303485 -0.018215762 -0.18397713 0.18596156 -0.1935458 -0.11028161 0.3247292 0.19645922
0.03636215 0.089889385 -0.07403275 -0.14905645 0.054698084 -0.21299241 -0.10640395 -0.25311854
0.016871495 -0.2058961 -0.17284584 0.09426119 -0.01649818 0.19662823 -0.12241735 -0.013346678
0.102786124 -0.057524428 0.14402084 -0.25642368 -0.3732041 0.02106108 0.22696395 0.18745224
00000000: 4a5a e73e 5b66 13be 22cc 45bd 56dc 3d3d
00000010: e1cc d73d 67d5 993d 430f b3be 3c26 1ebe
00000020: 0885 d83e d1b9 343d db57 31bd 57ec 913e
00000030: f740 623e ec27 8cbe 8db0 31be a5f3 8e3d
00000040: a8bd 47bd 51de 8d3d 4f2a 3fbe 1a62 fa3d
00000050: 5a91 8ebe 410c 2abe cf82 423e f95d 83bd
00000060: 605c 633e c1fc b73d b338 8ebd 18b3 403c
00000070: 63b0 b73d 639f 68bd 5894 0a3a b82e 54be
00000080: 5152 39bd 008d 7dbe fb69 bbbd 69bc b8bb
00000090: b130 ad3d f130 b43e 2af0 f739 3233 05bc
000000a0: a1a9 ffbd e5eb 5dbe abd7 193e b4c7 b8be
000000b0: e0f5 4dbe 0447 05bd 3a03 823d 3bdb 483e
000000c0: 7e88 c03d 01f3 01be 9820 f5bd 6717 20be
000000d0: 75d6 3abe 490f 41be 890a 47be 3612 64be
000000e0: 0f21 b8bd 41e3 903d 4df2 8f3d 2133 1cbd
000000f0: 2f20 6c3d 09cc babc 825f e53c a187 b43e
00000100: c1bc adbd e8e9 3abe 0a52 11be b2ed fb3c
00000110: fce0 32bc f8c7 1cbe 58f2 7a3d a173 cd3e
00000120: e96a 40bd 28c6 053e e47c af3d 7cf9 813d
00000130: cf7e 873c aa37 1bbe 2f80 00bc 1a19 9b3d
00000140: 671e a6bd 8a5a e7bd 2e47 9ebd 8998 3bbc
00000150: 7fd7 2f3e 59fe 8fbd 707a 36bc 9c86 22be
00000160: 4af7 19be 6073 e23c de1f e93b 563b 08be
00000170: 734a d13d 78db 2fbe fe2f f2bb 4673 233e
00000180: f1c1 dc3c 10e9 07bc f9b9 d1bd b42d babd
00000190: affe b5bd b0f3 943d bfce 19bc a0e3 26bc
000001a0: 5219 89bd e8dd eebd 2d73 73bb 3a23 6a3e
000001b0: 309f d53d 8c76 103d 8ff2 d6bd 0496 54bd
000001c0: 812e f1bc c493 8c3c d86a 843d 1c4f 77bd
000001d0: 5dc3 38bd d8f6 47bd 545a 633e 85ab d63d
000001e0: bc2b 04bc fdbf 8b3d f7db 68bd 0eec 1abc
000001f0: 2f5c 6bbc 0417 a8bb 4565 41bd 21a8 aabd
00000200: 319e 313d 701c e73d 42f7 983d 7796 953c
00000210: 1cdf fabd e8b3 043e 696e 103c 227e 03bd
00000220: cc67 103e 3ac4 043c b1aa a13c de3c c7ba
00000230: e75f 773c 69ad c8bd ba8a 13bd 8d28 b43d
00000240: c6c0 e13e bfb7 a5be 7d8c 113d 5fdf bf3d
00000250: ad00 283e 5205 233e f802 94be 8f44 36be
00000260: 4b2b 303e c38c 773e 7a76 f7bd d0d3 5b3e
00000270: 43d9 6f3e b2bb 0cbe adba b23d b010 623e
00000280: 7182 a6bd 3939 95bc 8064 3cbe b56c 3e3e
00000290: df30 46be 53db e1bd e842 a63e 9b2c 493e
000002a0: 7af0 143d ed17 b83d 7c9e 97bd 41a2 18be
000002b0: 190b 603d af1a 5abe 50ea d9bd c198 81be
000002c0: 1736 8a3c 6dd6 52be 80fe 30be 030c c13d
000002d0: 3127 87bc e958 493e f3b5 fabd 06ac 5abc
000002e0: 8881 d23d bc9e 6bbd 337a 133e f749 83be
000002f0: 9c14 bfbe 4988 ac3c 3d69 683e 7bf3 3f3e

lstm.weight_ih_l1 f4 [192, 48]
0.11237624 0.19641057 -0.06472888 -0.047847755 0.03053464 0.050981723 0.04016419 -0.19160444
0.05976271 -0.19569118 0.036745425 0.3475151 0.14792603 0.2970834 0.11922287 -0.03339051
0.1975953 0.12097317 -0.0740687 -0.067769475 0.07108488 -0.13491845 0.18011165 -0.07402688
-0.288753 0.1894454 0.19607952 0.004824642 -0.20047943 0.20302103 0.11148641 0.0040578838
0.008250693 -0.089977965 -0.28484553 0.17448239 0.16842404 0.11057106 -0.02068878 -0.27156037
0.08628775 0.21076296 -0.11361085 -0.20372844 0.016740086 0.23282297 -0.27907422 0.15529653
-0.28291014 0.30804324 0.09290718 0.113601476 -0.09908092 -0.2655277 0.164803 -0.15277097
0.20568982 -0.045126773 -0.113212496 0.051919904 -0.3114074 0.08451185 0.023070656 0.08234055
0.25771025 -0.08681536 -0.28055307 -0.12903062 -0.04562577 0.10031523 0.12674434 0.22149093
-0.2904194 0.14542414 0.20794211 -0.15434708 0.14576879 0.27631658 0.14128691 0.18026999
0.09378856 -0.033929635 -0.32186738 -0.0769954 0.20303455 -0.118743576 0.14649324 0.13309366
-0.059165947 0.15653783 -0.10165764 0.00031761103 0.17340939 0.08745199 0.040544 -0.16575518
-0.3648821 0.13308401 -0.14137545 0.21495995 -0.23788422 -0.42809212 0.064672336 -0.107517496
0.28265843 0.11868591 0.13216494 -0.058125086 -0.36984658 0.07190235 -0.20728812 -0.048310626
0.21066935 -0.19350588 -0.23694088 -0.14934893 -0.036897045 -0.046216622 -0.16998614 0.1787242
0.055350628 0.084201366 0.2141518 -0.047011178 0.33637023 0.12872387 0.17749962 0.08892402
-0.09258204 -0.060964655 -0.049456768 0.20267399 -0.17415766 -0.12702788 0.07030413 0.046095174
-0.11919395 0.0032793938 -0.14713547 0.040038653 -0.071127206 -0.09551027 -0.063493736 -0.19107203
-0.021866163 0.14305618 -0.24081972 0.0772317 0.27119312 -0.057469495 0.07939645 -0.13779147
0.040426724 -0.10990463 -0.12417884 0.06583136 0.047391433 0.12292798 0.15020613 0.098297656
-0.084811404 0.08654672 0.02804186 0.13111673 -0.074707866 0.053048667 0.013761616 -0.03367521
-0.2330601 -0.030075222 0.27171257 -0.06310554 0.046716772 0.19958258 -0.12629785 -0.12420437
0.028340166 0.01246125 -0.2958915 -0.20554353 0.23666477 0.27110335 -0.053708576 -0.082183346
0.11592162 0.23970978 -0.19085126 -0.08889106 0.10185043 0.19610156 -0.29255927 0.0927805
0.13357462 -0.10663496 -0.11413223 0.1850024 0.2050921 -0.09287588 0.065517746 -0.23887697
0.075464666 -0.22858225 0.2851978 0.078048766 -0.07245844 -0.30311248 0.055980586 -0.039301645
-0.19718276 0.06625699 0.120120935 0.16057763 -0.034157746 -0.06302757 -0.0742091 -0.14338733
-0.002449723 -0.15212575 0.2337509 0.0226658 -0.09405328 -0.10254455 -0.064639494 0.0041454774
-0.0049020248 -0.15273735 0.21604025 0.16263418 0.0069591426 -0.045660514 -0.09486161 -0.19037504
0.03507469 0.07281624 0.03532099 0.18508658 -0.36626488 0.106333114 0.055673577 0.09836556
0.18560407 0.38599133 -0.06441838 -0.11074066 0.20562872 0.23999204 0.039428625 -0.1619808
-0.29480597 -0.14257751 0.054158572 0.32444516 0.20295602 0.2293767 0.07561913 0.1958816
00000000: 8425 e63d da1f 493e 9390 84bd 02fc 43bd
00000010: c823 fa3c 36d2 503d 3583 243d f433 44be
00000020: bec9 743d 4563 48be 5f82 163d 80ed b13e
00000030: ec79 173e 511b 983e 1f2b f43d 7dc4 08bd
00000040: 6c56 4a3e c8c0 f73d 55b1 97bd b9ca 8abd
00000050: f394 913d 1028 0abe 306f 383e 689b 97bd
00000060: 6fd7 93be fafd 413e 12c9 483e 0818 9e3b
00000070: 7b4a 4dbe bfe4 4f3e fd52 e43d fff7 843b
00000080: ea2d 073c 5e46 b8bd 46d7 91be 83ab 323e
00000090: 5a77 2c3e 1473 e23d 847b a9bc f609 8bbe
000000a0: a2b7 b03d 3fd2 573e ceac e8bd 309e 50be
000000b0: 8122 893c 2569 6e3e d1e2 8ebe 0e06 1f3e
000000c0: 99d9 90be d8b7 9d3e 1f46 be3d e4a7 e83d
000000d0: f0ea cabd 3ff3 87be 1ec2 283e fe6f 1cbe
000000e0: 5aa0 523e dad6 38bd f4db e7bd f7a9 543d
000000f0: ca70 9fbe 8c14 ad3d acfe bc3c 2aa2 a83d
00000100: 99f2 833e 40cc b1bd a7a4 8fbe 9a20 04be
00000110: 16e2 3abd 1272 cd3d 45c9 013e 85ce 623e
00000120: dab1 94be 11ea 143e c7ee 543e 290d 1ebe
00000130: 6a44 153e 5e79 8d3e 84ad 103e b298 383e
00000140: 3714 c03d cdf9 0abd cdcb a4be c4af 9dbd
00000150: 4ae8 4f3e d52f f3bd 5302 163e b449 083e
00000160: fe57 72bd 744b 203e e131 d0bd 0885 a639
00000170: 3b92 313e 071a b33d 7711 263d babb 29be
00000180: d4d1 babe 2d47 083e bac4 10be 761e 5c3e
00000190: ec97 73be e42e dbbe ee72 843d 2232 dcbd
000001a0: 9bb8 903e 9911 f33d 3f56 073e 9214 6ebd
000001b0: 885c bdbe 8a41 933d 5643 54be 5de1 45bd
000001c0: b5b9 573e 6826 46be a1a0 72be edee 18be
000001d0: 5b21 17bd a44d 3dbd d910 2ebe 7a03 373e
000001e0: 57b7 623d c471 ac3d 9c4a 5b3e cb8e 40bd
000001f0: b838 ac3e 31d0 033e 76c2 353e cc1d b63d
00000200: a79b bdbd 13b6 79bd 2e93 4abd c589 4f3e
00000210: 6356 32be 9913 02be 9dfb 8f3d 4bce 3c3d
00000220: f51b f4bd 19eb 563b aeaa 16be 92ff 233d
00000230: 24ab 91bd e39a c3bd 0109 82bd 63a8 43be
00000240: ab20 b3bc 527d 123e 7299 76be a72b 9e3d
00000250: d3d9 8a3e 2265 6bbd 9b9a a23d 3519 0dbe
00000260: 7e96 253d ae15 e1bd 7a51 febd 98d2 863d
00000270: 851d 423d aac1 fb3d a3cf 193e 4850 c93d
00000280: 9ab1 adbd 683f b13d 0bb8 e53c 7743 063e
00000290: 7000 99bd 8f49 593d 6778 613c 04ef 09bd
000002a0: 4fa7 6ebe 5060 f6bc e91d 8b3e 7a3d 81bd
000002b0: 165a 3f3d 605f 4c3e 3954 01be dc5e febd
000002c0: a329 e83c 452a 4c3c 177f 97be 017a 52be
000002d0: 4058 723e 0fce 8a3e 86fd 5bbd be4f a8bd
000002e0: 5068 ed3d 7b76 753e 836e 43be 840c b6bd
000002f0: f596 d03d d9ce 483e 54ca 95be b403 be3d
00000300: c9c7 083e 6e63 dabd 29be e9bd 4571 3d3e
00000310: aa03 523e b635 bebd 2b2e 863d 2a9c 74be
00000320: 388d 9a3d 7711 6abe 7205 923e 08d8 9f3d
00000330: 1765 94bd 8f31 9bbe e64b 653d c3fa 20bd
00000340: 47ea 49be bfb1 873d f701 f63d 766e 243e
00000350: fee8 0bbd 9914 81bd f1fa 97bd 21d4 12be
00000360: 888b 20bb dac6 1bbe 655c 6f3e a1ad b93c
00000370: 029f c0bd e102 d2bd b661 84bd c9d6 873b
00000380: 2aa1 a0bb 2e67 1cbe a839 5d3e 9389 263e
00000390: 8509 e43b 8506 3bbd ce46 c2bd adf1 42be
000003a0: 7aaa 0f3d ae20 953d beac 103d 5687 3d3e
000003b0: 1287 bbbe 2dc5 d93d fa09 643d e273 c93d
000003c0: fe0e 3e3e a8a0 c53e c9ed 83bd 00cc e2bd
000003d0: 5690 523e 79c0 753e e97f 213d 4bde 25be
000003e0: cff0 96be d7ff 11be 61d5 5d3d ad1d a63e
000003f0: b4d3 4f3e bae1 6a3e 34de 9a3d 3095 483e

lstm.weight_hh_l1 f4 [192, 48]
0.102878734 0.0008198741 -0.08888776 0.120580226 0.18517873 -0.06401125 0.011197668 -0.013441016
0.1622618 0.032911126 0.11876289 0.10034496 0.12933426 0.091959804 -0.1655866 0.08099585
-0.14325252 0.021228937 -0.039888386 0.15198223 0.15874557 0.051080324 -0.038788974 -0.12011867
-0.113029316 -0.06689907 0.20647706 -0.19826272 0.22977048 0.16162974 0.08853352 -0.017944636
-0.10523258 0.031423297 0.07755914 -0.08563512 0.0767839 0.23464923 0.13228975 -0.06612262
-0.01117423 -0.03127392 -0.063812084 -0.1440801 -0.0009150745 0.21286663 -0.098033756 -0.15459454
0.107322276 -0.06597758 -0.13169596 0.23537357 0.015776308 0.042480804 -0.010285816 -0.17453878
0.072756834 0.14016569 0.100211225 0.061022565 0.1678022 -0.08563831 0.09353612 0.09859813
-0.010749566 0.21967722 -0.08744006 0.08811708 -0.016403874 0.035066653 -0.09072664 0.06998699
0.044367407 0.17320503 0.24390148 -0.23621066 0.21229978 -0.04037823 0.13086057 -0.04677505
0.004175084 -0.08106152 0.0884732 0.06958698 -0.13704595 0.26060084 -0.078445695 0.16028792
0.02008183 -0.029832792 -0.06455995 -0.14550216 -0.10588314 0.15521571 -0.11082543 -0.20192924
0.14212878 0.12819491 -0.016132858 0.0871274 0.24280466 0.1433428 0.007481164 -0.033464346
0.0696007 0.09604281 0.1201065 0.15348932 0.15388186 0.12303518 0.051880796 0.061394565
-0.058649465 0.07612432 0.14917374 0.20377402 0.022797327 -0.16042636 -0.019062031 0.038844347
-0.031076424 0.13737148 -0.07850134 -0.14084418 0.14752762 -0.012567769 -0.15187632 0.085025005
0.058257826 -0.10160928 -0.104596786 -0.068482704 -0.028292477 0.0135630835 0.1607743 0.041685507
-0.07163325 0.060897447 -0.089158125 -0.005261192 0.15538144 0.13344388 0.04346437 0.10474047
-0.04137242 -0.25341555 0.30515093 -0.07267513 0.28573984 0.10600065 -0.24025618 -0.030614227
0.19328366 -0.095772944 -0.03615801 -0.0122019425 -0.048780758 0.027606599 0.21330565 0.027236462
-0.01849045 -0.0035668008 0.23028103 0.20266385 0.21036324 -0.07182757 -0.19043641 -0.16050941
0.03377721 -0.011597493 0.21237421 -0.0013303593 0.02203631 0.094373025 -0.010526628 -0.025693975
0.027463807 0.012650857 -0.122240685 0.19443826 0.18686877 0.0144645795 0.051891703 0.2507842
-0.106274515 -0.13000159 -0.15647602 -0.014500513 0.09363684 -0.04076898 0.00015668586 -0.15285037
0.037063368 -0.18582372 0.011536661 -0.29719305 -0.07731851 0.045017373 0.09175781 0.062237132
0.29369757 0.015319596 -0.04971793 0.0052130604 -0.12227255 0.2101543 -0.02708155 -0.09397351
0.16816589 -0.07720042 0.052548412 -0.09657765 -0.06464884 -0.079920754 0.009211374 -0.021772306
0.08930881 -0.09280335 -0.28216422 0.051110696 0.07548731 0.09876474 -0.059779942 0.1089403
-0.0680318 0.2655841 0.05138469 0.02492596 -0.03517959 -0.2339405 0.25490397 -0.07244165
-0.36094967 -0.24110438 -0.23478256 -0.068750195 0.2268434 -0.22613436 0.19281626 0.026918182
0.04134876 -0.12788254 0.08978994 0.16173206 0.31368628 0.08465328 -0.18989956 -0.31886518
0.16077986 -0.12088472 0.04102036 -0.14454503 0.094351724 0.06991288 -0.0132878255 -0.019921206
00000000: 16b2 d23d d2ec 563a c90a b6bd c4f2 f63d
00000010: 7e9f 3d3e 5518 83bd 6c76 373c b537 5cbc
00000020: f527 263e d1cd 063d f539 f33d a981 cd3d
00000030: 3370 043e 6c55 bc3d 898f 29be 27e1 a53d
00000040: cab0 12be 4fe8 ad3c 0162 23bd 3ba1 1b3e
00000050: 338e 223e 9a39 513d 30e1 1ebd c700 f6bd
00000060: ea7b e7bd 6102 89bd b96e 533e 6205 4bbe
00000070: f448 6b3e 4482 253e 1051 b53d a100 93bc
00000080: 2e84 d7bd b7b5 003d 54d7 9e3d 7761 afbd
00000090: e140 9d3d e347 703e f776 073e 4c6b 87bd
000000a0: 1e14 37bc 1519 00bd e9af 82bd bc89 13be
000000b0: 9ce1 6fba b6f9 593e ecc5 c8bd 084e 1ebe
000000c0: c8cb db3d 411f 87bd 4edb 06be c505 713e
000000d0: 513d 813c 5a00 2e3d d785 28bc 4bba 32be
000000e0: 8901 953d 9887 0f3e 8b3b cd3d ccf2 793d
000000f0: 57d4 2b3e 2363 afbd de8f bf3d d1ed c93d
00000100: f31e 30bc 11f3 603e c613 b3bd ba76 b43d
00000110: 6b61 86bc 0da2 0f3d e3ce b9bd 5755 8f3d
00000120: 99ba 353d a95c 313e 4fc1 793e 35e1 71be
00000130: 1d65 593e a563 25bd 5000 063e 3297 3fbd
00000140: 25cf 883b 9503 a6bd 7031 b53d 9e83 8e3d
00000150: c655 0cbe 796d 853e 23a8 a0bd 8422 243e
00000160: a682 a43c e663 f4bc 0238 84bd 85fe 14be
00000170: 42d9 d8bd def0 1e3e 71f8 e2bd 8ac6 4ebe
00000180: 358a 113e 8745 033e 0e29 84bc da6f b23d
00000190: c9a1 783e 74c8 123e 8d24 f53b e911 09bd
000001a0: d08a 8e3d 18b2 c43d 66fa f53d 4e2c 1d3e
000001b0: 3593 1d3e def9 fb3d f580 543d de78 7b3d
000001c0: 6c3a 70bd 11e7 9b3d 00c1 183e 23aa 503e
000001d0: 76c1 ba3c cf46 24be fa27 9cbc 401b 1f3d
000001e0: fc93 febc 1cab 0c3e 4fc5 a0bd 7539 10be
000001f0: 7b11 173e 0be9 4dbc 7785 1bbe 9721 ae3d
00000200: c29f 6e3d 8718 d0bd d736 d6bd a940 8cbd
00000210: a0c5 e7bc b237 5e3c 05a2 243e 6cbe 2a3d
00000220: 74b4 92bd 9a6f 793d 8998 b6bd 1466 acbb
00000230: 501c 1f3e 83a5 083e b207 323d 2c82 d63d
00000240: 2076 29bd afbf 81be be3c 9c3e b3d6 94bd
00000250: 7e4c 923e de16 d93d b705 76be b0ca fabc
00000260: 27ec 453e 9b24 c4bd 6c1a 14bd a8ea 47bc
00000270: 55ce 47bd 3c27 e23c cc6c 5a3e 001f df3c
00000280: 4979 97bc fdc0 69bb cace 6b3e 1d87 4f3e
00000290: 7669 573e 551a 93bd c301 43be 945c 24be
000002a0: f959 0a3d 6903 3ebc a078 593e 735f aeba
000002b0: 7e85 b43c a546 c13d e177 2cbc 2c7c d2bc
000002c0: c7fb e03c 8a45 4f3c 5359 fabd d31a 473e
000002d0: 875a 3f3e d8fc 6c3c 658c 543d c966 803e
000002e0: 74a6 d9bd 231f 05be 403b 20be 8f93 6dbc
000002f0: acc4 bf3d 60fd 26bd 0a4c 2439 cf84 1cbe
00000300: c2cf 173d 9348 3ebe 4304 3d3c b029 98be
00000310: 2b59 9ebd 2364 383d 85eb bb3d 5dec 7e3d
00000320: 875f 963e 0bff 7a3c 07a5 4bbd 52d2 aa3b
00000330: 086a fabd b032 573e 20da ddbc 2f75 c0bd
00000340: ae33 2c3e 411b 9ebd 013d 573d 81ca c5bd
00000350: 9c66 84bd 7ead a3bd 4eeb 163c d65b b2bc
00000360: 8ae7 b63d af0f bebd d477 90be 7359 513d
00000370: 1799 9a3d 2b45 ca3d d0db 74bd 181c df3d
00000380: 4254 8bbd a4fa 873e c178 523d 8731 cc3c
00000390: 7918 10bd 198e 6fbe c682 823e 4a5c 94bd
000003a0: 65ce b8be 11e4 76be d76a 70be e7cc 8cbd
000003b0: a349 683e c48f 67be a071 453e 8583 dc3c
000003c0: 515d 293d a4f3 02be cae3 b73d 179d 253e
000003d0: 7d9b a03e b35e ad3d 0875 42be 4c42 a3be
000003e0: 7aa3 243e 6892 f7bd f704 283d 9d03 14be
000003f0: 7a3b c13d 7c2e 8f3d 2eb5 59bc cc31 a3bc

lstm.bias_ih_l1 f4 [192]
-0.015839394 -0.0017276377 -0.039100487 -0.17088765 0.062247977 0.04308732 0.15517929 0.057375614
-0.07142877 0.18172438 0.02540476 -0.070425116 -0.055982288 -0.30341002 0.06686612 0.124719925
0.0851254 0.0744053 0.012548711 0.079184376 0.0007958035 0.026657345 0.101078786 0.21395132
-0.00055804785 0.07296893 -0.22375306 0.28727397 0.18594189 0.042721752 0.23089302 0.15653577
0.01964446 0.14129962 0.08870613 -0.047604747 0.06756537 -0.20227295 0.14999965 0.18382004
-0.047175456 0.024743512 0.063322954 0.12285813 -0.0055073006 -0.36363342 -0.320946 0.25523108
-0.06857297 -0.26340604 -0.09468261 -0.115755476 -0.058390442 -0.3224394 -0.006404836 -0.05954752
-0.09065388 -0.09964715 -0.017824817 -0.03615692 0.0057343766 -0.19916363 -0.10367285 -0.1738601
-0.19937067 -0.110693045 -0.16562031 -0.14822568 -0.22625104 -0.13178453 -0.027897136 -0.2636699
-0.18435279 -0.0050467756 -0.024961906 -0.07505866 -0.057273854 -0.07517087 -0.059724584 0.062157724
-0.05311178 -0.27057108 0.063947655 -0.10269259 -0.088828735 -0.21246018 -0.028662093 -0.16700916
-0.10128698 -0.07290884 -0.17772067 -0.07071126 -0.2104012 -0.012237871 -0.027804563 0.08241527
-0.049249284 -0.0062374854 0.025331523 0.0046889023 -0.025526196 -0.06723027 0.07893551 -0.08373392
0.09199223 0.071557455 0.17961489 0.19573049 0.23316483 0.05273545 -0.031234974 0.07492807
0.04243589 0.029852822 -0.15584208 -0.12255032 0.060104027 -0.18041627 -0.060493317 -0.0813969
-0.024063865 0.04830944 0.008966439 -0.0046488764 0.04853578 0.075997114 -0.09861076 -0.10005442
-0.017928213 0.10818302 0.16920213 -0.058776755 -0.14441085 -0.084811136 0.11731814 0.0066479202
-0.10890184 0.13422668 -0.020461218 -0.01606365 -0.07133575 0.07368847 -0.091059625 0.015807945
0.09410739 -0.021962292 0.13396251 -0.11581554 -0.07188309 0.10284498 0.11415504 0.14010534
-0.1257342 0.057252757 0.09042108 -0.09839715 0.09814139 -0.35023466 0.034083694 0.045539215
0.04145113 -0.05198609 -0.0440185 0.087845504 0.170043 -0.10584318 0.15992534 0.08557002
-0.008943468 0.102222644 -0.3053421 0.26030502 0.023793593 0.16824575 0.2111635 0.091434665
0.09659282 0.16162741 -0.007066058 -0.112620495 -0.17684262 -0.25670785 0.20841247 0.13071847
0.00997874 0.009053094 0.17147028 0.19145627 0.11423051 -0.34522545 -0.29723912 0.12736973
00000000: 9ec1 81bc e771 e2ba d527 20bd 2cfd 2ebe
00000010: bcf7 7e3d 547c 303d 52e7 1e3e b102 6b3d
00000020: 3f49 92bd f515 3a3e a51d d03c 0b3b 90bd
00000030: af4d 65bd 8f58 9bbe 1bf1 883d 296d ff3d
00000040: 3a56 ae3d ce61 983d 1c99 4d3c 6b2b a23d
00000050: 789d 503a 8160 da3c 6502 cf3d 0e16 5b3e
00000060: f549 12ba bc70 953d 861f 65be 9315 933e
00000070: 8d67 3e3e 01fd 2e3d 386f 6c3e ea4a 203e
00000080: 6bed a03c d9b0 103e 8fab b53d 32fd 42bd
00000090: b65f 8a3d a420 4fbe 8299 193e 523b 3c3e
000000a0: 0d3b 41bd e8b2 ca3c 77af 813d 0b9d fb3d
000000b0: 9676 b4bb 292e babe 0953 a4be a6ad 823e
000000c0: fc6f 8cbd 28dd 86be f5e8 c1bd 3511 edbd
000000d0: d12a 6fbd c716 a5be a9df d1bb 1ae8 73bd
000000e0: bea8 b9bd ce13 ccbd 5a05 92bc 4719 14bd
000000f0: 70e7 bb3b 8df1 4bbe 6e52 d4bd 6208 32be
00000100: d327 4cbe 09b3 e2bd 5f98 29be 79c8 17be
00000110: 5aae 67be 86f2 06be 8988 e4bc beff 86be
00000120: fac6 3cbe 6c5f a5bb e97c ccbc 5bb8 99bd
00000130: fd97 6abd 2ff3 99bd c4a1 74bd 1999 7e3d
00000140: bd8b 59bd 4b88 8abe fdf6 823d 7e50 d2bd
00000150: d7eb b5bd 298f 59be c4cc eabc 7304 2bbe
00000160: 8c6f cfbd 3b51 95bd 68fc 35be 11d1 90bd
00000170: 6a73 57be 5a81 48bc 65c6 e3bc 56c9 a83d
00000180: 9eb9 49bd d263 ccbb 0e84 cf3c 5da5 993b
00000190: 501c d1bc 06b0 89bd f1a8 a13d b07c abbd
000001a0: 6c66 bc3d b78c 923d f7ec 373e 936d 483e
000001b0: c3c2 6e3e 2101 583d 7de0 ffbc e373 993d
000001c0: 41d1 2d3d e88d f43c 1195 1fbe aafb fabd
000001d0: a42f 763d 0bbf 38be d7c7 77bd 6bb3 a6bd
000001e0: 9521 c5bc 1fe0 453d f9e7 123c 9a55 98bb
000001f0: 74cd 463d 60a4 9b3d 70f4 c9bd 55e9 ccbd
00000200: 30de 92bc 0f8f dd3d 5343 2d3e e5bf 70bd
00000210: 70e0 13be 76b1 adbd 7e44 f03d ccd6 d93b
00000220: ee07 dfbd b872 093e 499e a7bc ea97 83bc
00000230: 7a18 92bd fbe9 963d 787d babd aa7f 813c
00000240: 60bb c03d 44ea b3bc 782d 093e b330 edbd
00000250: 7137 93bd 64a0 d23d 1eca e93d c677 0f3e
00000260: 77c0 00be de81 6a3d b02e b93d 7284 c9bd
00000270: 5afe c83d f551 b3be 589b 0b3d 5487 3a3d
00000280: a9c8 293d 5eef 54bd be4c 34bd 58e8 b33d
00000290: c11f 2e3e 4fc4 d8bd 78c3 233e 563f af3d
000002a0: a087 12bc 1b5a d13d cd55 9cbe b346 853e
000002b0: c8ea c23c 9d48 2c3e 3f3b 583e 1942 bb3d
000002c0: 75d2 c53d a881 253e 648a e7bb 93a5 e6bd
000002d0: 3b16 35be 366f 83be 146a 553e 10db 053e
000002e0: de7d 233c 6e53 143c e895 2f3e 1d0d 443e
000002f0: b0f1 e93d 64c1 b0be ba2f 98be 366d 023e

lstm.bias_hh_l1 f4 [192]
0.09228666 -0.05173044 -0.026842095 -0.12515342 0.11621285 0.08325653 -0.05499683 0.09493572
-0.041683387 -0.06429588 -0.12748814 0.13035175 0.15286233 -0.30920616 -0.12807314 -0.019425502
0.07477364 0.07083878 -0.030317605 0.08231182 0.0516844 -0.08617249 0.18128759 0.02048435
-0.10174383 0.056761656 -0.3464764 0.40368146 0.10995716 0.21018563 0.19437152 0.062041644
0.05181146 -0.0028985778 -0.02197134 0.17628644 -0.14687662 -0.13606372 0.24914818 0.18398449
0.08270466 -0.052608307 0.2463925 0.12707914 -0.008602071 -0.24025051 -0.38092068 0.108873926
-0.18198515 -0.10367679 -0.14136195 -0.20905553 0.17208001 -0.20782952 0.08655262 -0.011523852
0.051002942 -0.023947706 -0.07147723 0.09817879 0.057445943 -0.062717475 -0.068378955 -0.10678448
-0.23649871 -0.20335619 -0.1911051 -0.1455597 -0.11016399 -0.10061569 -0.0096601825 -0.2759349
-0.19488986 -0.09195399 -0.079525754 0.09283539 -0.19853126 -0.04734406 -0.08547672 -0.08331442
-0.16251224 -0.062819764 -0.101962075 -0.04059768 -0.00069249264 -0.045201298 -0.0666634 0.09508474
-0.123682395 -0.044717863 -0.11613402 0.061287712 -0.038243894 -0.06497697 -0.13253772 -0.10114605
-0.035086963 0.023514444 -0.094593346 -0.018143306 0.09820882 -0.03062199 0.2192044 0.09527534
0.08780129 0.19522221 0.06402771 0.20362686 0.20163283 0.014556189 -0.032035198 -0.14823328
-0.08860955 0.16139786 0.06587625 0.10382343 -0.14657049 -0.06419626 0.047388516 0.14924629
-0.1393079 0.059646793 -0.0643813 0.13234572 0.025342645 0.074438274 0.022707047 -0.16351369
-0.07768529 -0.027039096 0.16470481 -0.13318539 0.09671816 0.14329526 -0.108509086 0.061868757
0.012345276 0.009353953 0.03933817 0.06666798 0.0092466315 0.0063502025 0.10711649 0.08835737
-0.016745064 -0.01684833 0.050397743 -0.0631007 0.16247913 0.12054385 -0.012936146 0.1730851
0.0051133907 0.056485657 0.08853552 -0.04292786 -0.13732073 -0.18097806 -0.14047936 -0.027789399
0.03806479 0.11660702 0.02947087 -0.014367459 -0.039724432 0.030256206 0.13340546 0.046909302
0.08619793 0.1629184 -0.2814189 0.22790192 0.0029083302 0.08909661 0.3146212 -0.15713869
0.038396973 0.19310492 -0.028065855 0.12036277 -0.15152581 -0.25731453 0.07620735 0.18510872
0.04681831 -0.089573234 0.0173499 0.009310028 -0.004835627 -0.3892861 -0.3210098 0.10114325
00000000: ca00 bd3d 4ce3 53bd f4e3 dbbc 3828 00be
00000010: 0101 ee3d 6682 aa3d 5b44 61bd a96d c23d
00000020: 33bc 2abd 8fad 83bd 408c 02be ee7a 053e
00000030: f187 1c3e 4550 9ebe 9b25 03be 3b22 9fbc
00000040: ec22 993d ec13 913d a05c f8bc 1993 a83d
00000050: 05b3 533d 347b b0bd 74a3 393e ccce a73c
00000060: 125f d0bd e97e 683d 5b65 b1be 56af ce3e
00000070: 3831 e13d e73a 573e 5409 473e 611f 7e3d
00000080: 4138 543d 11f6 3dbb 3dfd b3bc 6f84 343e
00000090: d366 16be 4a54 0bbe b320 7f3e 6e66 3c3e
000000a0: 1061 a93d cf7b 57bd 514e 7c3e 0921 023e
000000b0: b3ef 0cbc 3b04 76be 0908 c3be 4bf9 de3d
000000c0: 515a 3abe 7f54 d4bd 30c1 10be a712 56be
000000d0: be35 303e 43d1 54be 8042 b13d 8ace 3cbc
000000e0: 76e8 503d fb2d c4bc a762 92bd f611 c93d
000000f0: 704c 6b3d 0572 80bd 440a 8cbd d2b1 dabd
00000100: b82c 72be 9b3c 50be 0eb1 43be 9a0d 15be
00000110: a89d e1bd 990f cebd be45 1ebc 5747 8dbe
00000120: 3591 47be 6052 bcbd 66de a2bd 7b20 be3d
00000130: c74b 4bbe d8eb 41bd 6b0e afbd c0a0 aabd
00000140: 9c69 26be a6a7 80bd 7ed1 d0bd c149 26bd
00000150: 6588 35ba ff24 39bd d286 88bd cabb c23d
00000160: 324d fdbd 142a 37bd acd7 edbd d308 7b3d
00000170: a1a5 1cbd a512 85bd f8b7 07be a925 cfbd
00000180: 59b7 0fbd 5da1 c03c 28ba c1bd 45a1 94bc
00000190: b521 c93d f8da fabc 1e77 603e b81f c33d
000001a0: 2ad1 b33d 55e8 473e f620 833d 8f83 503e
000001b0: d678 4e3e 157d 6e3c 5737 03bd 77ca 17be
000001c0: ec78 b5bd 7b45 253e 21ea 863d 61a1 d43d
000001d0: 9316 16be 5479 83bd 761a 423d 05d4 183e
000001e0: bba6 0ebe 3250 743d 58da 83bd a385 073e
000001f0: 619b cf3c 1873 983d 2104 ba3c 2270 27be
00000200: 7719 9fbd 1881 ddbc 61a8 283e c061 08be
00000210: 2c14 c63d febb 123e 033a debd 186a 7d3d
00000220: d743 4a3c 5341 193c 1021 213d 3989 883d
00000230: 2f7f 173c 5c15 d03b e45f db3d b5f4 b43d
00000240: f22c 89bc 8205 8abc dd6d 4e3d f13a 81bd
00000250: ee60 263e b2df f63d 21f2 53bc 383d 313e
00000260: 3b8e a73b 815d 673d 1c52 b53d 20d5 2fbd
00000270: ce9d 0cbe 5052 39be d2d9 0fbe 98a6 e3bc
00000280: d3e9 1b3d a9cf ee3d e56c f13c 7e65 6bbc
00000290: 16b6 22bd dddb f73c 719b 083e f823 403d
000002a0: 8a88 b03d 15d4 263e 2316 90be 1f5f 693e
000002b0: af99 3e3b 4978 b63d 0816 a13e f7e8 20be
000002c0: 2546 1d3d 4cbd 453e 5dea e5bc c280 f63d
000002d0: 9529 1bbe bbbe 83be 9912 9c3d 248d 3d3e
000002e0: 8ec4 3f3d 2c72 b7bd 6121 8e3c 1689 183c
000002f0: 2e74 9ebb 8250 c7be 665b a4be 3124 cf3d

linear.weight f4 [2, 48]
0.18185031 0.22026184 -0.24797142 -0.17314582 -0.15509857 0.06366177 0.19774704 0.17600124
-0.18996598 0.10217613 0.08872835 0.089699656 0.1818825 0.1178171 -0.11113325 -0.24231757
-0.17182346 -0.08771633 -0.14622954 -0.19236548 -0.064317554 -0.08022639 0.21911865 0.18587995
-0.025209693 0.22641362 0.07948468 0.25532678 0.17193076 -0.19932947 -0.34184498 -0.10286141
0.12779547 0.2593702 0.2401428 -0.18446766 -0.16967998 0.116756566 -0.18378429 -0.11914687
0.11405293 0.13854074 0.17081502 0.17891324 -0.13657685 0.024130592 -0.09533698 0.16385122
-0.24337527 -0.20287786 0.06937683 0.07056112 -0.10693466 -0.24484907 0.23745984 -0.0941985
-0.05067434 0.26138183 0.1954107 0.26614416 0.044637356 -0.04196551 -0.026324796 0.10931445
0.20549086 0.29624614 -0.14090502 -0.0364575 -0.20667976 -0.14600456 -0.09872085 -0.17751469
-0.27714393 0.08991774 0.023634909 0.009531777 -0.12742312 -0.080037765 0.097186364 -0.18383197
-0.26057553 -0.18874143 -0.034900956 -0.1596502 0.10966094 0.027333565 -0.09210567 -0.1040923
0.16009636 -0.021023652 0.10035709 0.11075671 -0.080054834 -0.010842215 -0.027529933 0.19414982
00000000: f836 3a3e 528c 613e 38ec 7dbe 234d 31be
00000010: 29d2 1ebe 1a61 823d 337e 4a3e ab39 343e
00000020: 7186 42be b841 d13d 36b7 b53d 74b4 b73d
00000030: 683f 3a3e 174a f13d d499 e3bd 1922 78be
00000040: 7df2 2fbe 9fa4 b3bd 32bd 15be 75fb 44be
00000050: ecb8 83bd bc4d a4bd a460 603e 5057 3e3e
00000060: 8f84 cebc f9d8 673e ddc8 a23d 31ba 823e
00000070: 9e0e 303e 061d 4cbe 4e06 afbe 01a9 d2bd
00000080: d1dc 023e 2ccc 843e ffe7 753e 17e5 3cbe
00000090: 97c0 2dbe 111e ef3d f331 3cbe 4603 f4bd
000000a0: 9594 e93d a0dd 0d3e 22ea 2e3e 0835 373e
000000b0: cdda 0bbe 85ad c53c 0940 c3bd 9dc8 273e
000000c0: 5e37 79be 37bf 4fbe 7015 8e3d 5982 903d
000000d0: 8f00 dbbd b7b9 7abe ac28 733e 25eb c0bd
000000e0: e68f 4fbd d7d3 853e be19 483e 0c44 883e
000000f0: a9d5 363d 07e4 2bbd 19a7 d7bc 41e0 df3d
00000100: 326c 523e 93ad 973e 6849 10be 7654 15bd
00000110: dca3 53be 3882 15be 282e cabd 69c6 35be
00000120: cfe5 8dbe cb26 b83d ff9d c13c 2c2b 1c3c
00000130: 357b 02be d7ea a3bd a509 c73d 733e 3cbe
00000140: 286a 85be 6f45 41be 4ef4 0ebd 587b 23be
00000150: ea95 e03d a4ea df3c e6a1 bcbd 582e d5bd
00000160: 4df0 233e cb39 acbc 0588 cd3d 6ad4 e23d
00000170: caf3 a3bd 8ca3 31bc 7486 e1bc 36cf 463e

linear.bias f4 [2]
0.14290585 0.23825637
00000000: e955 123e 7af9 733e
