checkpoint/training_epochs_80_stepsize_7_gamma_0.75/model_epoch40.pth (torch, 117569 bytes, 10 tensors)

lstm.weight_ih_l0 f4 [192, 2]
00000000: 07f2 933e 41ee f93e ed96 8dbe 2db4 7bbe
00000010: 1c65 5e3e c3c9 4c3e 30a4 3b3d 38cc c93d
00000020: c939 213e a96b 7f3c 11dc 43bb c9da 153e
00000030: c98e 29be dcb0 c23c 89be 8fbe a30a 83be
00000040: a5b3 ff3d 31a2 7a3e c7cf 833d d6df d73d
00000050: 3bf5 90bd 7721 a83d 800e d13e 5d68 553e
00000060: 1073 55bc c72c 983e f229 b3be eb96 9bbe
00000070: dadd f53d 9c9d a7bd 7bf6 933d 18e7 f93c
00000080: bb03 4b3c 7de2 1a3e 6804 3fbd ae7c cc3d
00000090: f69a bd3d 191f d8bd caa8 1f3e 29e3 573c
000000a0: 4214 213d 4c77 0fbe c27d 45be c044 ad3d
000000b0: 0ff6 b83e 25c0 5f3e 2ae7 60bd 540c 23be
000000c0: 89a6 463e e77f 183e 9afe 5abe 578a f43a
000000d0: a50b f2be 7545 53be d1c8 4c3d a6c1 87bd
000000e0: 9565 783d cc3a 953e c219 a7be 3fb5 2cbe
000000f0: adc8 f33c 8579 913d 1c1f 3fbe 630d a63d
00000100: f6c6 30be 5c47 1e3c 0e3c 97be a84f b5be
00000110: bbfb 79be ba1f 46bd 50b9 183d 5e7c e63d
00000120: 7611 57be e005 a6be a59a 343e a842 173e
00000130: 09f1 153e efc6 a6bd fcbe 333e 17db 99bd
00000140: fd34 403e 1a77 803e 5fd1 2dbe f411 c7bc
00000150: cb00 923d 0a3e 14bd e3c4 5bbe 74fb a4be
00000160: 0333 04bf ef99 65bd 9b41 99be d74b 79be
00000170: 8d71 4f3e b5e2 8f3e 21ff 9f3e 8148 443d
00000180: 7c9b ba3d e4a8 853d de6b 91be cf75 c1be
00000190: 7487 5a3e 6767 4a3e 8486 6dbe 0db1 543d
000001a0: 3784 e53d da32 95be 3d66 95ba fc66 553d
000001b0: 6e2c 15be f8a5 16be 0029 54be eb3a 19be
000001c0: a06b 9f3d 3d14 74bd 9c4e a7bd c0ce db3c
000001d0: 1a60 903d f6bb 933e 27e8 833e c6e9 a13e
000001e0: 15b1 bcbe 1159 82bd 6060 02be 4594 34be
000001f0: e439 e2bd c0f1 443e 03ce 863e aa54 843d
00000200: 2e02 ffbd ac5c f0bd 2501 22be 656c a4bd
00000210: 3e10 92bd 3877 00be 8fd1 ebbd 2a40 e23d
00000220: ac8e 433e ef0f 293e 470c b2bd 4c9d d5bd
00000230: 5218 e639 7fd4 7e3d a7f6 5e3e 69c2 623e
00000240: 2a9f 0f3e 5ab4 91bc 6f90 423d 596c a13b
00000250: 36a1 b9be f773 663c ba94 0dbd ef79 a03c
00000260: 9e4a f2bd 5ef2 a43e ea80 73be 12c1 08be
00000270: f597 463d fe9e d5bc 451e 35be fac3 aa3d
00000280: 6c5f 0bbe 726c 55bc 468f 9abe f1c6 31be
00000290: edb8 24bd f049 0fbd 1fa4 b73e 548f 483e
000002a0: be51 51be 1c21 1dbe a7a4 2f3e 4d51 a03d
000002b0: 94f5 033e e227 02bc aaff f5bd 826d 8a3d
000002c0: 8179 7f3e 2a89 5a3e 87f3 91be 8491 89bb
000002d0: 811d 86bd 4bb3 073e bb8f 1cbe b9b6 8fbd
000002e0: 21f0 99be f713 f8bd f019 8dbd e940 32bc
000002f0: d449 0bbe 21e3 323e a4cb 423e 2dfe c43d
00000300: 7bf7 c0be 2b06 f73e 9c71 993d 0937 343e
00000310: 9142 5f3e ca04 ab3e a114 b03e 2225 8d3e
00000320: 95da b9be 3994 9a3e 4b10 3cbe 0811 be3e
00000330: 7f00 413c fd55 0d3e a17f 583c ea94 2ebe
00000340: cada f53e 7dd5 bbbd 67ee e33e 20b0 a13d
00000350: a3cb af3c 1618 5b3e 2bd7 c1be 836e bcbe
00000360: 8969 e8be 4165 1fbd 0063 d33d 319c 04be
00000370: edd0 9bbd 93c6 ad3e acbb 3b3e 061d b83e
00000380: 0387 bd3e c8b7 3bbc 9d71 8ebe 643c 7f3e
00000390: a451 2bbe 2360 3cbe 7e48 423d f5d8 fa3e
000003a0: 4a0c df3d 5367 3c3e 5ba6 143e 25f2 d0bd
000003b0: d175 aebe 7194 9ebe 246e 753e 55eb 62be
000003c0: 666e e63d bd63 b33e 4476 d2bd 6321 9cbe
000003d0: 7828 9a3e 6eb1 693e 8006 65bd fa24 b5be
000003e0: cd68 de3e 7a89 013e d386 793e ea31 0b3e
000003f0: cb8e bc3e 444e 93bd 99ed 8e3e 6572 423e
0.2889559 0.48814586 -0.2765421 -0.2458045 0.21718258 0.19998841 0.04581088 0.09853405
0.157447 0.015589633 -0.0029885808 0.14634241 -0.16558374 0.023765974 -0.28075054 -0.25594053
0.12485436 0.24475934 0.06436115 0.1054074 -0.07078024 0.08209508 0.40831375 0.20840593
-0.013027921 0.29721662 -0.3499294 -0.3038858 0.120052055 -0.081843585 0.07224747 0.030505702
0.012391026 0.15125461 -0.04663506 0.09984718 0.09258072 -0.105528064 0.15591732 0.013176718
0.03932596 -0.14010352 -0.19286254 0.08460379 0.36125228 0.21850641 -0.054907955 -0.15922672
0.19399466 0.14892541 -0.21386185 0.0018656951 -0.4727451 -0.20631965 0.0499962 -0.066287324
0.06064375 0.2914642 -0.3263684 -0.16866015 0.029758776 0.07103256 -0.18664211 0.08108022
-0.17263398 0.009660568 -0.29538006 -0.35412335 -0.24412434 -0.0483701 0.037286103 0.1125419
-0.21002755 -0.32426357 0.17637117 0.14771521 0.14642729 -0.08143412 0.17553324 -0.07512491
0.18770213 0.25090867 -0.169744 -0.024300553 0.071290575 -0.036191978 -0.21461825 -0.32223094
-0.5164034 -0.056055006 -0.29932866 -0.24345337 0.2025816 0.2810265 0.31249335 0.047920708
0.091116875 0.06526354 -0.2840261 -0.37785193 0.21340734 0.19766007 -0.23195845 0.05192666
0.112068586 -0.2914036 -0.0011398267 0.052100167 -0.1456773 -0.1471175 -0.20718765 -0.14963882
0.077842 -0.059589613 -0.081692904 0.026831985 0.0704958 0.2885434 0.25763056 0.31623667
-0.36853853 -0.06364644 -0.12732077 -0.17634685 -0.11046198 0.19232845 0.2632905 0.06461461
-0.124515876 -0.11736426 -0.15820749 -0.08028487 -0.07132004 -0.12545478 -0.115145795 0.110473946
0.19097394 0.16509984 -0.08693748 -0.104303926 0.0004388714 0.06221437 0.21773778 0.22144474
0.1402556 -0.017786194 0.047501024 0.004926246 -0.36255807 0.014065734 -0.034565665 0.019589392
-0.11830638 0.3221616 -0.23779646 -0.133549 0.04848476 -0.02607679 -0.17687328 0.08338161
-0.1361062 -0.013026344 -0.30187434 -0.17361046 -0.04021542 -0.03498262 0.35867402 0.19585925
-0.20441338 -0.15344661 0.17152654 0.07828007 0.1288665 -0.007944079 -0.12011655 0.06759168
0.24948694 0.21341386 -0.2850611 -0.004198255 -0.06548596 0.13251989 -0.15289204 -0.070172735
-0.30066016 -0.12113183 -0.06889713 -0.010879734 -0.13602382 0.17469455 0.19022995 0.09618793
-0.37688813 0.48246893 0.074923724 0.17599119 0.21802737 0.3340209 0.3439074 0.27567393
-0.36299577 0.3019121 -0.1836559 0.3712237 0.011779903 0.13802333 0.013214023 -0.17048994
0.48018485 -0.09171579 0.44517824 0.07894921 0.021459406 0.21395907 -0.37859473 -0.36803064
-0.45393017 -0.038914923 0.10321617 -0.12950207 -0.07608209 0.33940563 0.1833331 0.35959643
0.37017068 -0.011457391 -0.27821055 0.24925381 -0.16730362 -0.18396048 0.047432415 0.4899365
0.10891016 0.1839879 0.14516585 -0.102024354 -0.34074262 -0.30972627 0.23967797 -0.22160085
0.112515256 0.35037032 -0.10276464 -0.30494222 0.30109 0.2282159 -0.055914402 -0.35379773
0.43439332 0.126501 0.24367838 0.1359326 0.36827692 -0.07192662 0.27915648 0.1898895

lstm.weight_hh_l0 f4 [192, 48]
00000000: baa6 2ebe 210d 4dbc 5a46 b03e 4be6 263d
00000010: a8df 88be c969 51be 85b8 dcbd c490 b23c
00000020: fbf5 b83c 97e7 0b3e 9ed2 84be 4e68 34be
00000030: ec27 fabc f7e7 1c3e 7d46 c63d 277c 793e
00000040: 8b74 2b3e b8a9 963c ffc9 6fbe ee3c 143c
00000050: 8e61 243e 4bdf 5aba dde2 05be 9e48 633e
00000060: a4b7 443c 2ccf a73d c72b a83d c190 1ebe
00000070: 2925 383d c966 b23e 138c 933e 760e ab3e
00000080: adad 9a3b 18e5 29be 1df4 aabe 0f89 733e
00000090: 4752 a13d f196 9bbd 82f7 ba3e 385d 5a3e
000000a0: ef70 9fbe 64ec 003c f924 733e a220 85be
000000b0: 15ec 343e 34a2 3e3e 343a 3d3d 8bae c7be
000000c0: f713 80bd e5a3 4b3c 9725 23bd 3490 afbd
000000d0: 930c 813e e88f e13c 2d2d 33be 516f b93c
000000e0: 33e1 d6bd b53e 5d3d 9ccc a33d 08f5 ac3e
000000f0: d9d0 e7bc b101 46bd 87b1 9abd 70bf 053e
00000100: 0077 933d 4613 e3bd 10b8 3f3e 1a4d 3cbd
00000110: c9d2 a9bd e3d6 323c 04d3 eb3d 118c 60bd
00000120: 6c49 ad3b 5055 84bd d299 763e cf6d 023d
00000130: 9862 f8bd eb03 503e 9f67 cbbd b7e5 9fbd
00000140: 595c 5e3e 2c7b 2cbe e644 66be 2504 0e3d
00000150: 9aae 24bc 94aa 0c3e ba49 27be d786 aabc
00000160: 64af 8b3e 3152 b53d ef95 a3bd c2f7 55bc
00000170: f28e e2ba 554f dd3d 6967 72be 5ecf 8a3d
00000180: 55ad 843e 8938 033d 6e25 a2bd f02b 96be
00000190: 3861 ae3d df29 45be 831f dc3c 519e 103b
000001a0: 43e6 eabd 8164 00be 789b c3bc 90d2 e83d
000001b0: 4c03 3e3d 8183 95bc 073b f9bd eff6 273e
000001c0: e63b 7ebe fe70 4e3d f307 bf3a 7e58 76be
000001d0: 6f11 fe3c 0ab6 6ebe f1e3 16be 7660 483e
000001e0: 6377 c63c b6c7 bf3d 21e6 b1be 0497 8f3d
000001f0: cb28 c73b b2c3 853d 56cc debd f2f5 bcbc
00000200: 8e7f 5d3e d6bf 3bbe c5b6 e6bd f34e 38be
00000210: b8e3 90bb 8b3c 073a dff2 8ebd fdc6 533d
00000220: 7eaf 93bd 799a 09be 786b 203d d340 4e3e
00000230: dc75 833e 8e1a 49bd 78a6 f43d a84f 4abd
00000240: aae7 a43e 8f20 2b3e 9590 703c 25c1 5bbd
00000250: f8b9 953e d599 283e c93a 063e 294e 79be
00000260: e6e3 d3be 6b4b a9be 67e6 523e 7892 8dbc
00000270: 4016 d33e 5f9d 1fbe 8eb9 e0bd da84 04be
00000280: 8f4c 70be 0d30 9d3c 1948 0a3e 094c 833d
00000290: c63d 333e b12b 13be 84c7 043e 6c04 d53e
000002a0: d1dd 0bbe 069b 4d3e 10d2 14be 34b5 1abd
000002b0: 167a 8cbe 9b05 2e3e ad35 57be cfd1 8c3e
000002c0: 186c a33c f46b 21be 4acb 3fbe 10af 8dbe
000002d0: 8d09 723e 83b7 ca3e cbb5 2ebb fa80 4cbd
000002e0: 1396 1c3d da80 8f3d 331f adbd 4fa4 dabd
000002f0: f479 423e eb5a 953e 4c48 713e 49eb bc3d
00000300: f237 963c f66b e73d 0921 893e ae7c 7e3e
00000310: e92e 01be 6c51 4a3e 1bba fe3c f135 09bd
00000320: 1bf7 b63c 9c70 45bc c366 5a3d b2ee ca3d
00000330: 5c38 e7bd e257 2bbb f788 973d b111 7d3e
00000340: 798e 3d3d 0757 5f3d 38b1 c93c 957c a63e
00000350: 3e22 4a3e 3272 f9bd 90a3 33be 8813 353d
00000360: f571 84bd 89b9 f13c 1ee5 e03e c12e a5be
00000370: 88e5 7dbc 9e30 db3e 2ab2 b5bd 4683 313e
00000380: baae babd 6dd1 99bd 5ed2 2bbe edd5 953d
00000390: 250c 213e 6d41 17be 25b6 e03d 2df6 443e
000003a0: 2fad df3b 8bd8 de3d 3dc5 913d 6ce8 24be
000003b0: dcea 3bbe 1f3b b73e 96ed afbd 3250 bfbd
000003c0: 2997 c6bc a8a8 2d3e e872 4f3e 47f0 693e
000003d0: 0005 0abc d9d9 43be a609 6dbe a1a2 d6bd
000003e0: 32bb a43e 4972 c43d c29b 973d 82d7 30be
000003f0: 0cf3 cfbd 8aa6 283e 9279 03be f43b 163e
-0.17055789 -0.012515337 0.34428674 0.04074697 -0.26733136 -0.2045051 -0.10777382 0.021797545
0.02257823 0.13662563 -0.25941938 -0.17617914 -0.030536614 0.15322863 0.09681413 0.24363767
0.16743676 0.018391475 -0.23416899 0.00904773 0.16052839 -0.0008349313 -0.13074823 0.2219567
0.012006674 0.08193812 0.08211475 -0.15484907 0.044957314 0.34844044 0.28817806 0.3340947
0.004720411 -0.16591299 -0.3338937 0.23782752 0.07877021 -0.07597149 0.36516958 0.21324623
-0.3114085 0.00786886 0.23744573 -0.2600146 0.17668183 0.18616563 0.046198085 -0.39000353
-0.06253808 0.012429212 -0.03983077 -0.085724264 0.25204906 0.02753444 -0.17497702 0.022636088
-0.10492172 0.05401488 0.079980105 0.33780694 -0.028297829 -0.048341457 -0.07553392 0.13061309
0.07200432 -0.110876605 0.18722558 -0.045971967 -0.08292157 0.010915491 0.115148574 -0.054821078
0.0052882936 -0.064615846 0.24082115 0.031843003 -0.1212818 0.20313995 -0.099318735 -0.078074865
0.21714915 -0.16843861 -0.2248722 0.03467192 -0.010051394 0.13736945 -0.16336718 -0.02081625
0.2728225 0.088535674 -0.07987582 -0.013059558 -0.0017285033 0.10806147 -0.2367226 0.067778334
0.25913492 0.032036338 -0.079172954 -0.29330397 0.08514637 -0.19254254 0.026870495 0.002206702
-0.114697 -0.12538339 -0.023877844 0.113682866 0.046389863 -0.018251183 -0.12169462 0.16402791
-0.24827537 0.050400726 0.0014574513 -0.24057195 0.031014172 -0.2331163 -0.1473539 0.19568047
0.02422685 0.09364264 -0.34745887 0.07011226 0.006077861 0.065314665 -0.10878818 -0.023066495
0.2163069 -0.18334898 -0.11265329 -0.17998867 -0.0044216774 0.0005158863 -0.06979918 0.051703442
-0.07211207 -0.13437833 0.03916499 0.20141916 0.25675857 -0.04909759 0.11945814 -0.049392372
0.32207996 0.16711639 0.014682909 -0.053650994 0.29243445 0.16464932 0.13108362 -0.24346222
-0.4138481 -0.33065352 0.20595704 -0.017281756 0.41227913 -0.15587376 -0.10972892 -0.12941304
-0.23466705 0.019187951 0.13504066 0.06410987 0.17504033 -0.14372136 0.12966734 0.41604936
-0.13658835 0.20078668 -0.14533257 -0.037770465 -0.27436894 0.16994326 -0.2101657 0.2750382
0.019949004 -0.15763837 -0.18729892 -0.27672625 0.23636456 0.39593133 -0.002665865 -0.04992769
0.03822906 0.07006998 -0.084532164 -0.106758706 0.18991834 0.29170927 0.23562735 0.092245646
0.018337224 0.11299889 0.26783016 0.24852249 -0.12615551 0.19757622 0.031094601 -0.03349871
0.022334626 -0.012050774 0.053320657 0.09908809 -0.112900466 -0.0026144912 0.07399171 0.2471378
0.04627845 0.054526355 0.024620637 0.32516924 0.19739625 -0.12179984 -0.17542863 0.04420808
-0.06467048 0.029507415 0.43924803 -0.32262233 -0.015496619 0.4281053 -0.08871873 0.17335233
-0.09115358 -0.07510648 -0.16779467 0.07316194 0.15727289 -0.14771052 0.10972241 0.19234534
0.006826065 0.10881146 0.07117698 -0.16104287 -0.1835131 0.35787293 -0.08590238 -0.09341468
-0.024242 0.16958869 0.20258677 0.22845565 -0.008424044 -0.19126071 -0.23148212 -0.10480238
0.3217407 0.09592111 0.07402755 -0.1726971 -0.101537794 0.1646978 -0.12839344 0.14671308

lstm.bias_ih_l0 f4 [192]
00000000: 7174 0c3f a32f 93be 12f1 c2bd 847f 753c
00000010: 0b2d a5bc 70ff 6fbd 4c0c 6cbe 9839 ecbd
00000020: a25c c83e d0d8 8f3e 043a 5dbe 8636 043e
00000030: 00e6 8f3e 10c3 5abe 87a8 d63b 1bc3 d53d
00000040: 7a5e a0bd fd5e 583d 6d30 bebc 9d4f 9d3d
00000050: a69b 5abd 861a 6ebe c14c 773e 7dc8 1a3e
00000060: e587 81bd 8811 b43c ce29 cdbd efb5 363d
00000070: 13c3 30bc 2022 62be f37c 7e3d c387 c33c
00000080: 5a5f 98be 7a3a 7fbe ee2b 6bbd 61e5 223d
00000090: 2f59 c93d cec4 883d ba05 65bd 4045 2dba
000000a0: af0f 693d 9af2 45bd c1c0 663b a628 94be
000000b0: 0fcd b8be 27e4 81be a5fc 813d d2d2 943c
000000c0: d279 143e f9ec c7be b78a 053d d71e 48be
000000d0: f9ea 3fbd 9d9f 52be 26b0 7dbe 944e ccbd
000000e0: 2163 05bd a902 8cbd f2f9 883d 4fd7 6bbd
000000f0: 03c7 afbd 4e5f 79be 3b15 d2bc 7f5f c63e
00000100: 20c6 13be 3198 54be c7ba 04be 8b1c ca3d
00000110: b83b 28be caaa 99bd 22b5 01be 3c95 ae3e
00000120: 0d86 773d 81e7 e5bb 7c39 f43d 5492 b73d
00000130: e5c8 cbbd 90fb f33c 0637 27be db3b b03d
00000140: 0d82 80be 2da9 1fbe f2c5 0e3d 4f4e 623e
00000150: 3c44 cf3d 6850 42be f6bf 3fbe dcb7 febd
00000160: 74c8 13be 5f9d 48be e2ed 4ebe 5b4d 47be
00000170: 2325 4c3d d3ca 2bbe 0af3 cfbd 1592 663c
00000180: acfa 93bd 4aab c2bd 26cb 30bd f003 0abe
00000190: fe31 d33d 92df 22be cdb1 4cbd 8408 953d
000001a0: 7ee3 93bd 7197 debd 0b3e d7bd d70c a93d
000001b0: c66e d63d d7bd 993c d91b 5d3d 68b8 04be
000001c0: a8eb cfbd 1ad5 dcbb 48e1 ad3d b8da 2ebe
000001d0: 1dda a5bc c364 293d 37f7 293d 9430 17be
000001e0: 6aae 59be fba2 1c3e f0b7 04be 8f79 113e
000001f0: db64 1ebe c41a 1abe 57f8 38bd 7f77 f4bd
00000200: 8ded bc3d be5c 0f3d 5c90 b83d 3d83 21bd
00000210: 4640 5ebd 8413 f83c 7c40 99bd 2740 28be
00000220: 2770 363d d374 dc3d 9e20 5abe 5470 63bc
00000230: 5351 66bd 3bb5 34bd fcb7 22bd 55d6 bf3c
00000240: 3ae8 a93e 2db3 cdbe 9237 e0bd 3b78 89bd
00000250: af03 b8bb 1875 343e fd82 2cbe c161 b5be
00000260: e344 533e 48c3 1d3e c99b 373c 41cc 693d
00000270: 3610 5e3e 71ad b1be c0d3 25bc 91bf 4c3d
00000280: 1a57 5f3d 1de0 093d b3af e6bb cd76 b13e
00000290: d71a edbd 7330 1fbe 7aff 973e 6cd1 5b3e
000002a0: 2204 0e3d 7f55 bdbd 7ab3 02be 682b 773d
000002b0: a931 123e 0c1a f1ba a74c 043d bbe5 a5bd
000002c0: 6844 7ebe aa3c 9cbe f2a4 10be d1ca d8bd
000002d0: 49d5 423d c3b4 0c3d 33e9 70be 83f9 123e
000002e0: 3566 0f3c 8853 a1bd 9df8 07be 1968 c6be
000002f0: 1132 38be 59ea 6abe 840e 54bd d45c 843e
0.54865175 -0.2874728 -0.09518637 0.014984015 -0.02016308 -0.058593214 -0.23051566 -0.11534423
0.39133173 0.28095102 -0.21604162 0.12911424 0.28105164 -0.21363473 0.0065508517 0.10437604
-0.0783052 0.052824963 -0.02321645 0.07681201 -0.053371094 -0.23252305 0.24150373 0.15115543
-0.06324748 0.021981016 -0.10017739 0.0446071 -0.010788697 -0.2208333 0.06213088 0.023868447
-0.29760247 -0.24924651 -0.05741494 0.039769534 0.098314635 0.066781625 -0.055913664 -0.00066097453
0.056899723 -0.048327066 0.0035210105 -0.28937262 -0.36093947 -0.2536938 0.06347016 0.018166933
0.14499596 -0.39047983 0.032602992 -0.19543014 -0.046854947 -0.205687 -0.24774227 -0.09975925
-0.03256524 -0.06836445 0.06688298 -0.05757838 -0.0858288 -0.24352762 -0.02564489 0.38744733
-0.14431047 -0.20761181 -0.12961875 0.098687254 -0.16429031 -0.075032786 -0.12666753 0.34098232
0.060430575 -0.007016123 0.11925027 0.08963457 -0.09950427 0.02978304 -0.16329584 0.086051665
-0.2509922 -0.15591879 0.034856744 0.22100185 0.101204365 -0.18975985 -0.18725571 -0.12437412
-0.14431936 -0.19591282 -0.20207933 -0.19463103 0.049840104 -0.1677659 -0.10153778 0.014072915
-0.07225546 -0.09505327 -0.043162487 -0.13478065 0.1031227 -0.15905598 -0.04997425 0.07277015
-0.07221125 -0.10868729 -0.10509881 0.08254402 0.10470347 0.01876728 0.053981636 -0.1296097
-0.1015237 -0.006739271 0.084902346 -0.17075622 -0.020245606 0.04135586 0.041495528 -0.14764625
-0.2125794 0.15296547 -0.12960792 0.14206527 -0.15468161 -0.15049273 -0.04515871 -0.119368546
0.09224997 0.035000555 0.09011909 -0.0394318 -0.054260515 0.030282743 -0.074830025 -0.16430722
0.04454055 0.1076447 -0.21301505 -0.013881762 -0.0562299 -0.044118147 -0.039726242 0.023417631
0.33184987 -0.40175763 -0.10948099 -0.06712385 -0.0056156735 0.17622793 -0.16846843 -0.35426143
0.20631747 0.15406525 0.011206576 0.057079557 0.21685871 -0.34702638 -0.010121286 0.04998738
0.054526426 0.033660997 -0.007039988 0.3466095 -0.11577385 -0.15545826 0.296871 0.21466607
0.03467191 -0.09244823 -0.12763777 0.06034413 0.14276756 -0.0018394603 0.032299664 -0.08100458
-0.24830782 -0.30515033 -0.14125422 -0.10585559 0.047566686 0.034352075 -0.23526458 0.14352994
0.008752395 -0.078772604 -0.13278432 -0.38751295 -0.17987849 -0.22940959 -0.051771656 0.25852072

lstm.bias_hh_l0 f4 [192]
00000000: 5d00 ce3e c53b 45be acf6 8abd 4620 603c
00000010: d137 643d 087b 453d 3ebd bcbe fe01 10be
00000020: 20c1 cc3e eea4 f93c 0ae7 28bd 897c 773e
00000030: d0c9 053e 4d71 89be 5dde 2abe 00f2 9e3d
00000040: 7978 93bd 5b1d 763d 8c69 6bbe 8d1c c93d
00000050: 137f 87be 1eb9 16be 8e85 0a3e cfe4 7cbd
00000060: d95d 163e bd4f ad3d 3d29 9cbd 9dab bb3c
00000070: 6bea aa3d da0d 12bd 0101 0bbc d690 51be
00000080: d655 02be 757f 83be efd7 a1bd c2fb 493a
00000090: 09a1 ae3d 26ec 793e 057a 56bd 4844 c4bc
000000a0: 11f2 09be 78b0 80be b556 e63c bc34 afbe
000000b0: 1221 65be 7492 24bd 6c8f 103d 302e 2f3e
000000c0: 6202 c33d e289 31be b18a f7bd 1317 1dbe
000000d0: d60c 49be 810e 36be 3ef9 20be 3131 64be
000000e0: d2ab 94bd 0309 963d 9a0c 5a3d 20eb fbbc
000000f0: 1b95 4d3d 67c3 3ebc 166b 5c3d aaec c03e
00000100: d47b 41bd 900b 20be 65d6 16be 6735 153d
00000110: 1600 a7bc 3bf0 e0bd a970 533d c1d9 d53e
00000120: 841c 51bd c3c1 f83d a46f 833d e13e c23d
00000130: eb22 d93b 5271 03be 78fb 0e3c d8e1 a43d
00000140: 02da 08be 4958 01be 3ce2 4bbd 93d7 03bc
00000150: c9c3 313e 82b6 9ebd 58b1 26bd 76de 21be
00000160: 7118 18be 7c72 1d3c 3431 14bd 71e6 00be
00000170: dcd4 493d 25f3 1bbe 81d9 1abb e2e3 3c3e
00000180: 7649 053d 9b88 d5bb 794c ccbd ec18 adbd
00000190: 5694 b4bd 2ef8 a33d 3d01 14ba 7a7a 41bc
000001a0: 07af 8abd 8744 ebbd 4a71 97bb af49 643e
000001b0: 0d40 d03d 124f e33c cb42 c6bd 7b16 61bd
000001c0: b671 ddbc e6fc b23c 51ab 743d d469 67bd
000001d0: ead1 23bd 2b19 65bd 17fd 5f3e a2af cd3d
000001e0: 27b4 19ba 881b 843d d533 54bd 14d5 47bc
000001f0: 9f33 77bb 1b12 88bc c29f 30bd 904d b4bd
00000200: fbee f03c cf8f df3d fbb9 b93d a409 963c
00000210: 6aee f7bd 1a2f fc3d ef0a 8c3c 368a f2bc
00000220: 3c0e 0e3e 09fe f43a d122 0d3d 14ee 903b
00000230: eb99 553c bda8 c3bd bd1d 10bd 765f ad3d
00000240: 8be8 c83e af7e bfbe 164d a03c 5531 743d
00000250: 4c72 e63d 626b 073e 9b56 9dbe cc95 27be
00000260: 511f 193e 6893 6a3e 25ef f2bd 1cf2 303e
00000270: 25b8 143e e635 06be ce8d c03d fe8f 653e
00000280: fc19 dbbd d1f2 c6bc 69fc 67be 6fa5 273e
00000290: e002 39be b818 b6bd ed33 893e ce7f 493e
000002a0: 3df2 1cbd 81e4 ac3d 2f19 aabd de85 0dbe
000002b0: 2d75 423d 57b5 44be 90fa eabd ba99 7fbe
000002c0: 5d0d 84bd 5f3f 5bbe c95e 24be 1c73 cd3d
000002d0: 900d 89bc 531c af3d f378 34be 4aed e7bc
000002e0: ac6e bf3d e163 b9bd 14cb a13c 67a3 72be
000002f0: 58c5 cbbe b371 503c be6b 4e3e 0834 2b3e
0.40234652 -0.19261082 -0.0678533 0.01367957 0.055717293 0.048213035 -0.3686313 -0.1406326
0.39991093 0.030474152 -0.04123596 0.241686 0.13065267 -0.26844254 -0.16686387 0.077610016
-0.07200713 0.06008659 -0.22989482 0.09819899 -0.26464137 -0.14719054 0.1352751 -0.061741646
0.14684238 0.084624745 -0.07625053 0.02290898 0.08345493 -0.03565774 -0.008484126 -0.20465407
-0.12728056 -0.2568318 -0.07902514 0.00077050563 0.08526809 0.2440649 -0.05236246 -0.02395834
-0.13471247 -0.25134635 0.028117517 -0.3421992 -0.22375897 -0.04017873 0.035293028 0.17107463
0.09521939 -0.17337754 -0.12087 -0.15340833 -0.19633803 -0.1777897 -0.15720078 -0.2228439
-0.072593346 0.073259376 0.053234674 -0.030751765 0.050191026 -0.011643267 0.053813063 0.3768056
-0.047237232 -0.1562941 -0.14730223 0.03642788 -0.020385783 -0.1098332 0.051621113 0.41767696
-0.051052585 0.12146332 0.06417778 0.094846494 0.006626477 -0.12836197 0.008726947 0.08050889
-0.13364413 -0.12631334 -0.0497763 -0.008047002 0.17359842 -0.07749654 -0.040696472 -0.15807518
-0.14853074 0.009609815 -0.036179736 -0.12587906 0.049275264 -0.15229471 -0.0023628178 0.18446305
0.03254076 -0.006516529 -0.099755235 -0.08452019 -0.08817355 0.08006321 -0.00056459365 -0.011808986
-0.06771665 -0.1148768 -0.0046216594 0.22293733 0.10168467 0.027747665 -0.096807085 -0.05495308
-0.02703176 0.021849107 0.059733693 -0.05649741 -0.03999511 -0.055932205 0.2187389 0.10043265
-0.00058633316 0.06450564 -0.051807243 -0.012196798 -0.0037719978 -0.016610196 -0.043121107 -0.088038564
0.02941083 0.10916101 0.09068676 0.018315144 -0.12106021 0.123136714 0.017095057 -0.02960692
0.13872617 0.0018691431 0.03445703 0.0044229124 0.013037185 -0.09553669 -0.03518461 0.08465473
0.39239916 -0.3740134 0.019568007 0.05961736 0.11252269 0.13224557 -0.30730137 -0.16365737
0.14953353 0.22907794 -0.118620194 0.17279857 0.1452337 -0.13106498 0.09402047 0.2241821
-0.106983155 -0.024285706 -0.2265488 0.16371702 -0.18067503 -0.088914335 0.2679743 0.1967766
-0.038316954 0.08442021 -0.08305585 -0.13820598 0.04747503 -0.192098 -0.11473572 -0.24960986
-0.06447861 -0.21410893 -0.16051783 0.10031721 -0.0167301 0.08550324 -0.17624263 -0.02831139
0.09347281 -0.090522535 0.019750156 -0.23695146 -0.39799 0.0127224205 0.20158288 0.16719067

lstm.weight_ih_l1 f4 [192, 48]
00000000: dea8 ac3d 6d12 153e 6200 c4bd 372c 31bd
00000010: 7159 733d a6da 293d ecf4 303d 7576 32be
00000020: 4192 b53d 7813 81be 6287 c93d 07e9 c83e
00000030: 1163 3d3e 05ea a83e 7f15 223e d4f8 eebc
00000040: 7407 253e ab8a eb3d b669 84bd c501 09bd
00000050: e464 cb3d c462 7bbd 1190 8e3e 6e63 b5bd
00000060: 5a5b 95be fc38 3c3e f7b5 783e f100 b5bc
00000070: c581 2dbe 5abc 6a3e 623c df3d 04d4 fc3b
00000080: 988c 7b3b 3564 9ebd aeab 9bbe c1fd 423e
00000090: 3ad0 4b3e 3c41 343e 2d87 9bbd af97 a0be
000000a0: af68 c03d e42c 413e a803 1bbe 314c 7cbe
000000b0: 817e 34bd 9c2b 893e c3a8 7cbe 995d 533e
000000c0: eb80 a3be 0ee6 893e ff4b c93c 7ec0 9d3d
000000d0: 2c13 73bd 3206 8cbe 8082 e33d e75a 12be
000000e0: ac10 593e baf1 b8bd 2a3d 4dbd 0263 ce3d
000000f0: 35d8 90be 66e9 d63d 3aad 5a3c 4171 223d
00000100: 6e6b 473e 9b7f cdbd 6619 7bbe 1386 24be
00000110: 7982 9bbd 556c 143e b311 5f3e 583e 3a3e
00000120: ae3b a4be 706a eb3d fe7d 463e a551 debd
00000130: 3352 1b3e b333 7b3e e5fa 1b3e 5626 2e3e
00000140: c9fd ed3d 1be2 98bc de7a 8dbe a4f6 67bd
00000150: e4ee 2b3e ce87 69bd f4a5 d63d 712f b83d
00000160: 7476 19bd c3fa 153e 1145 25be 0ba3 673c
00000170: f2b5 cb3d 93ca 453d 5e13 9c3c 6350 dbbd
00000180: 48f4 a6be f886 f83d ed52 10be 9cbe 503e
00000190: 9c57 6cbe 5c71 cbbe cc7c df3b de30 f8bd
000001a0: eae4 6b3e f931 033e da32 f53d c406 84bd
000001b0: d8e7 babe 6010 563d ff81 74be 5c30 86bd
000001c0: 211b 273e 7009 34be 665d 59be 2fd2 35be
000001d0: 4618 91bd 9811 adbd ac3f 3cbe cc24 373e
000001e0: 6d96 453d 613d 763d 4d94 223e 0014 ebbb
000001f0: aa73 a83e f149 de3d 5717 1d3e 8b7d c73d
00000200: 6d8f bbbd 2eb9 99bd dfc8 e5bc 36fb 323e
00000210: 8f6b 4ebe 347d f2bd ddb9 8a3d 8f13 4f3d
00000220: 9518 debd 553a b6bb baee 12be b309 853d
00000230: c601 a7bd c60e e7bd c5ae 97bd 290c 3ebe
00000240: 1259 0c3c 226b 253e f435 83be 141d b13d
00000250: 6887 803e 2237 67bd cc05 933d 1028 2abe
00000260: b610 853c 079f cebd 0884 ecbd cacb 993c
00000270: 595d ec3c 3256 bc3d 8063 c73d 8e9c 8c3d
00000280: ea47 c6bd aa70 ab3d 8bab 4e3c 72d0 e23d
00000290: 4394 0abe ba54 b93c 0784 54bb 90c6 d3bb
000002a0: 509f 36be efe4 96bd 1d05 7f3e 89bd 7ebc
000002b0: daf5 4b3d be22 4a3e 0fb6 09be 1d9a b2bd
000002c0: 1d3c eabc ab8b 1ebd 4ef3 8bbe b4be 6fbe
000002d0: 16cf 5a3e 4859 703e 0e78 b5bc fd42 68bd
000002e0: 8307 e13d 46fd 4e3e 30f1 19be a453 1bbd
000002f0: 9af7 b83d ef39 373e c690 94be b1cd ab3d
00000300: 0924 c23d 827c 0ebe e362 02be cf15 3d3e
00000310: bf2c 223e 2968 f2bd a65a 3c3d 14a1 51be
00000320: 4683 ef3d d169 66be 042f 923e 7c49 c33d
00000330: 3fb4 edbd 46cf 84be 7a34 453d 2441 a0bc
00000340: b751 0dbe 8fc4 243d 77fe cf3d e4fb 3d3e
00000350: f119 203a 5593 8bbc 6713 0538 2c2f 03be
00000360: b9b3 c73c 6441 1fbe 81f7 813e fe6b eebb
00000370: ea39 a9bd fcbb 94bd 25f4 78bd ab4a 953c
00000380: 094a 01bd 2165 19be b2b2 453e a308 1b3e
00000390: 68d2 493d 7b73 a2bd 4f88 87bd 0195 45be
000003a0: 69e6 3f3d 01ae 273d 2676 443d 28a4 0a3e
000003b0: c122 bfbe e2ce 033e 1e48 413d 1893 b23d
000003c0: d218 073e a53a a33e 8b10 d1bd 2012 debd
000003d0: 0697 5c3e bd9c 523e db1d 013d 0c1f e9bd
000003e0: bdb4 71be ba9f 45be f6c0 d03d a805 c43e
000003f0: 1277 553e b539 a13e 514d c03d f219 413e
0.08430646 0.1455781 -0.095703855 -0.043255057 0.05941147 0.041468285 0.043202326 -0.17428
0.08865786 -0.25210166 0.09840275 0.39240286 0.18494822 0.32991043 0.15828513 -0.029171385
0.16116124 0.11501058 -0.06465475 -0.033448953 0.09931353 -0.061373487 0.2784429 -0.08856855
-0.29171258 0.18381113 0.24288164 -0.022095175 -0.16944034 0.22923413 0.10900189 0.007715704
0.003838336 -0.07733957 -0.3040442 0.19042112 0.19903651 0.1760301 -0.07594142 -0.31365725
0.09394967 0.1886478 -0.15138113 -0.2463844 -0.044065956 0.26791084 -0.24673752 0.20641173
-0.31934294 0.2693333 0.02457237 0.077027306 -0.059344456 -0.27348477 0.11108875 -0.14292489
0.21197766 -0.09030481 -0.05010716 0.10077478 -0.28289953 0.10493736 0.0133469645 0.03965879
0.19474575 -0.100341044 -0.24521407 -0.1606677 -0.07593245 0.1449445 0.21784095 0.18187845
-0.32076782 0.11494911 0.19384 -0.10855416 0.15168075 0.2453144 0.15232427 0.17006811
0.11620671 -0.018662503 -0.27632803 -0.0566317 0.16790348 -0.05701428 0.10480872 0.08993424
-0.03746648 0.14646439 -0.16139628 0.014137994 0.09946813 0.048288893 0.019052204 -0.10708692
-0.32608247 0.12135118 -0.14094134 0.20385212 -0.23080295 -0.39734924 0.006820297 -0.12118696
0.23036543 0.12812032 0.1197259 -0.06446603 -0.36505008 0.05226171 -0.23877715 -0.065521926
0.16318943 -0.17581725 -0.21227035 -0.1775596 -0.07084708 -0.08450621 -0.18383664 0.1788513
0.04823916 0.06011713 0.15876885 -0.007174015 0.32900745 0.10853947 0.15340935 0.09740742
-0.09158216 -0.07506023 -0.028049884 0.17478642 -0.20158218 -0.11840287 0.06773732 0.050555762
-0.108445324 -0.005561153 -0.1434888 0.064959906 -0.08154635 -0.11282115 -0.074063815 -0.18559326
0.008566158 0.16154149 -0.256271 0.08648124 0.25103307 -0.056449063 0.0717884 -0.16616845
0.01624332 -0.10088926 -0.115486205 0.018773932 0.028853105 0.09196128 0.09735775 0.06865798
-0.09681685 0.08371098 0.012614141 0.11074914 -0.1353312 0.022623409 -0.0032427327 -0.0064628795
-0.1783421 -0.07367884 0.24904294 -0.015548118 0.04979501 0.19739816 -0.13448356 -0.08720801
-0.028593117 -0.038707417 -0.27334064 -0.23412591 0.2136806 0.23471558 -0.022151973 -0.05670451
0.10987761 0.20213804 -0.15033412 -0.037921563 0.09031601 0.17893194 -0.29016703 0.08388842
0.094795294 -0.13914683 -0.12733035 0.1846535 0.15837382 -0.11836273 0.045984887 -0.20471603
0.1169496 -0.22501303 0.28551495 0.095355004 -0.11606645 -0.25939387 0.04814575 -0.019562311
-0.13800703 0.040226515 0.10155957 0.1855312 0.0006107381 -0.017038027 3.172774e-05 -0.12810963
0.02437769 -0.15552288 0.25384143 -0.0072760573 -0.08262999 -0.07262418 -0.06077971 0.018224081
-0.031564746 -0.14979984 0.19306448 0.15140013 0.049272925 -0.079321824 -0.06617796 -0.19295122
0.046850596 0.040937427 0.047964238 0.13539183 -0.37331203 0.12871888 0.047187917 0.08719462
0.13193062 0.3188068 -0.102082334 -0.10843301 0.21541986 0.20567603 0.031522613 -0.11382875
-0.23604102 -0.19299212 0.101930544 0.38285565 0.20846203 0.3148934 0.09389747 0.18857554

lstm.weight_hh_l1 f4 [192, 48]
00000000: cb42 dc3d 449c 8cba 4553 68bd 7384 f03d
00000010: 2fd7 383e 3a28 27bd c69d 69bc cee4 01bb
00000020: f47e 293e 0bf2 233c 929d bc3d a0a2 983d
00000030: 4b27 c93d 9f73 1c3e 6c75 31be 681a e23d
00000040: 65bb 05be 655a f33b deaf d0bc 6686 523e
00000050: f8db 3d3e 97a1 8f3d 8705 8cbd cb79 0abe
00000060: d518 c1bd f9bf b3bd e57f 623e af30 55be
00000070: 0c9e 673e a7ef 3c3e 6d9f 033e 965f 2f3b
00000080: e06d d1bd b928 003d b186 443d cd62 89bd
00000090: d5b8 da3d 0802 993e d72e 283e 417a adbc
000000a0: cde5 0bbd 1940 bbbc c931 ddbd 036f 3ebe
000000b0: 4b40 78bc 58f4 513e 3798 e7bd 19cf 3bbe
000000c0: 5c64 123e b601 9cbd 4953 b7bd 9313 653e
000000d0: f9f0 c13c f7c7 bb3d fd8b a9bd f55a 35be
000000e0: 4918 df3d a1d6 933d 3a78 083d b417 2fbc
000000f0: f1db c43d 627c 2dbd 94b3 9e3d 45a0 083e
00000100: 86c8 00bc b579 2b3e bc36 d7bc 3812 103e
00000110: 697b 1a3d b1f2 d83d 3e47 0dbe c652 9e3d
00000120: d3f4 dd3d 1a6b da3d 51a3 7a3e 1149 7bbe
00000130: 6726 693e d845 1cba d7ee 423e e35b d53c
00000140: 2631 363d 4941 97bd 53ba 013d 0770 0e3e
00000150: 8b2e d2bd 0762 8d3e 73f3 87bc f29f 4e3e
00000160: b2dd cebc 3837 80bd 89b0 eabd 2d77 4dbe
00000170: 89ab 8dbd bcd5 a03d 2700 dcbd 4dab 68be
00000180: f3c8 123e 4dde ca3d aee4 86bc 6e7b a63d
00000190: 982d 593e 8101 143e 152d 22bc 8a1e 35bd
000001a0: 5247 8d3d dfe7 9e3d b591 c43d e210 023e
000001b0: 9a40 103e 29f0 123e 5985 873d d169 843d
000001c0: 4a4a 5cbd e0e5 383d ee79 243e b0c6 533e
000001d0: 90b5 d93c bec5 03be 88fe 84bc f945 0b3d
000001e0: 5ca8 50bc d35d ff3d e0f6 86bd 79f7 37be
000001f0: 89dc 153e 65b7 8abc 6216 c3bd 12fa e03d
00000200: 2dbd a13d 11c6 ddbd 50f1 e1bd ea66 5bbd
00000210: f496 adbc fd69 46bb 75f5 283e bccc f23c
00000220: 2db0 82bd b255 233c 2d25 a7bd 790f 7dbc
00000230: 649e 263e a7ab e83d 4255 413d 39b2 f73d
00000240: a47f 4dbd 247f 8cbe 4ad6 9d3e 1fe7 acbd
00000250: 32d0 733e f5dd e13d 415a 91be 5a76 5bbd
00000260: 6962 1a3e e1f4 02be 389b a9bd e96b 5cbd
00000270: 5f93 d5bd 52b0 3f3d 5940 4d3e 81ab 2b3d
00000280: 3907 1e3a 9819 05bd c26f 7a3e c164 223e
00000290: c98e 5c3e a6ac bebc 4bce 3abe ce51 37be
000002a0: 130a 673d 7e15 4ebd 3600 5f3e e878 8dbd
000002b0: 84ef 2f3c 1267 f13c fb59 eb3c 7e4c ae3c
000002c0: 9bc7 283d b273 5aba f789 25be 3804 6f3e
000002d0: ca12 5e3e eb90 603d 96dd 823c 303c 253e
000002e0: 7f60 85bd f619 54be 96d1 cabd 1e40 c03c
000002f0: 1d4f ae3d dc67 60bd b004 5d3c 4a5d fdbd
00000300: d553 103d 240f 06be 8307 2a3d e125 93be
00000310: 1bf4 bdbd 551e 783d fd99 783d 83bb 013e
00000320: af46 853e 5053 76bc 5a9c b2bd 9507 f7bc
00000330: d171 25be df5c 543e 7faf f8bc d8de 65bd
00000340: 74d4 2d3e d5db d3bd e9f6 4c3d dea0 b7bd
00000350: 78e1 6dbd 9dbb 55bd 5569 32bc 110f 2bbd
00000360: 30bc f33d 93c1 d5bd 28fb 89be cca5 f13c
00000370: 1ca1 813d 077b a13d ad6b cabd 1d7b 173e
00000380: aafa 77bd f0d6 853e 052b 263c b637 143d
00000390: 58ab 15bb 45cf 33be 8f99 723e 7b15 9dbd
000003a0: 3a92 b6be f312 65be 6232 68be 5283 cbbd
000003b0: 86f0 543e 97f2 5abe aef8 493e 93be cabc
000003c0: 4d4a 8b3d 72d6 bebd 5cf5 f83d bb07 1e3e
000003d0: aa48 b13e 6e5f f63d 9958 5ebe c970 91be
000003e0: 5675 363e 2823 18be 79ed 133c 7580 2fbe
000003f0: 61dd 7e3d 32fe e83d 6a9a 07bd e181 613b
0.10754927 -0.0010727723 -0.056720037 0.11744013 0.18050836 -0.040809847 -0.0142588075 -0.0019820216
0.16552335 0.010006438 0.09209742 0.07452893 0.09821948 0.15278481 -0.17329949 0.11040193
-0.13059767 0.0074265474 -0.025474485 0.20559081 0.18540943 0.07013243 -0.06836992 -0.13523023
-0.094285645 -0.0877685 0.221191 -0.20819353 0.22618884 0.18450795 0.12853785 0.0026759855
-0.10226035 0.031288836 0.047980014 -0.06708298 0.10679785 0.29884362 0.16424118 -0.02117646
-0.034154702 -0.022857713 -0.108005114 -0.18597035 -0.015152047 0.20503366 -0.113083296 -0.1834072
0.14296097 -0.07617514 -0.08951432 0.22370748 0.023674475 0.09169 -0.08278654 -0.17710479
0.10893304 0.072186716 0.033317782 -0.010686804 0.09612263 -0.04235495 0.077490956 0.13342388
-0.0078603085 0.16745646 -0.026271217 0.1406945 0.03771535 0.10593165 -0.13796708 0.077306315
0.10837712 0.10664959 0.24476363 -0.24539591 0.22768556 -0.0005961335 0.19036423 0.026044792
0.044480465 -0.07385499 0.031671833 0.13909923 -0.102627836 0.2761385 -0.016595578 0.20178202
-0.025252197 -0.06260532 -0.11459453 -0.20064993 -0.06917483 0.078532666 -0.107422166 -0.22721596
0.14334469 0.09905682 -0.016466465 0.08129011 0.21208799 0.14453699 -0.009898444 -0.044218577
0.06898369 0.0775907 0.09598104 0.12701753 0.14087144 0.14349426 0.06617231 0.064654954
-0.053781785 0.0451411 0.16062137 0.20681262 0.026575834 -0.12868401 -0.016234651 0.034002278
-0.0127354525 0.124690674 -0.065900564 -0.17965497 0.14634909 -0.016933152 -0.095257536 0.10985197
0.078974105 -0.10828794 -0.11032355 -0.053564943 -0.021190144 -0.0030275576 0.16499884 0.02963864
-0.06381259 0.009969162 -0.081613876 -0.0154455835 0.16271359 0.11360865 0.04720045 0.1209454
-0.050170556 -0.2744075 0.30827552 -0.0844252 0.23809889 0.11028663 -0.2838917 -0.053579666
0.15076603 -0.12788726 -0.08281559 -0.05381385 -0.104284994 0.04679901 0.20044078 0.041911606
0.0006028298 -0.03249511 0.24456695 0.15858747 0.21538843 -0.023275685 -0.18242757 -0.179023
0.056406092 -0.050313465 0.21777424 -0.06907827 0.010738257 0.029468093 0.02872943 0.021276709
0.041205984 -0.000833328 -0.1616591 0.23341453 0.21686855 0.054825705 0.015974801 0.16136241
-0.06512546 -0.20713028 -0.099032566 0.023468073 0.085111834 -0.054786548 0.013489887 -0.12371309
0.0352362 -0.13091713 0.04151107 -0.28739837 -0.09275075 0.060575802 0.06069373 0.12669186
0.2603049 -0.015034512 -0.08721228 -0.030154983 -0.16156699 0.20738553 -0.03035712 -0.056120723
0.16975576 -0.10344664 0.05004016 -0.0896623 -0.058076352 -0.052180875 -0.010889371 -0.041762415
0.11901128 -0.10437312 -0.2694943 0.029498003 0.06329557 0.07884794 -0.09883819 0.14793058
-0.060541786 0.26140547 0.010142093 0.036185943 -0.0022837725 -0.17559536 0.2369139 -0.07670113
-0.35658437 -0.2237051 -0.2267547 -0.09937157 0.20794877 -0.21381603 0.1972377 -0.024749076
0.06801281 -0.09318246 0.121561736 0.15432636 0.3462575 0.120299205 -0.21713485 -0.2840636
0.17818198 -0.14857161 0.009028786 -0.17138846 0.062222842 0.11376609 -0.033106245 0.003440969

lstm.bias_ih_l1 f4 [192]
00000000: 6694 3cbd 296b 89bd 1a28 4fbd 6781 61be
00000010: fa7c 333c c456 d73b 9f8a 1c3e e55d 28bb
00000020: b30d e8bd 85f4 343e 0ea7 a93c 6aa5 94bd
00000030: 4ca9 5abd 45e9 94be 9f86 493d 5b18 d73d
00000040: 0bf7 223d 1ddf 813d ef5f 86bc 65c0 523c
00000050: 3ad9 d8bc 9bbb e23c cc0c da3d 68bf 243e
00000060: fd9a 02bc 705e 8d3d eeac 43be d519 6d3e
00000070: d41a 1c3e 4c93 4dbd cb0c 4f3e c395 153e
00000080: c23b b13b 12c7 cf3d fc8b b83d e7fe 5ebd
00000090: bb84 403d 468b 89be a627 be3c e86d 9b3d
000000a0: f4ce d7bd 6f2a d43b 26cf 66bd 33eb 7a3d
000000b0: 00fb 04bd e5fa bebe 9ebc 9cbe e370 213e
000000c0: 4300 74bd 40fe 8cbe 343b a6bd 5fda 10be
000000d0: 890a a2bd 8c42 a7be 7962 12ba 1fb1 83bd
000000e0: e3ee e0bd be0c bbbd 5a93 2ebc 9a44 e1bc
000000f0: f547 4a3c 9bbd 62be a55d 0abe c66f 2ebe
00000100: d2c3 49be d3bd cbbd 5e0d 2ebe 3179 2dbe
00000110: b475 60be d595 f5bd 0271 64bc 23de 8bbe
00000120: 8f93 37be ed2a b93b 1326 3b3b 0c75 c7bd
00000130: a254 55bd ed72 e9bd a8f4 60bd 9158 7f3d
00000140: 4ecc 12bd b44e 8abe 8302 913d cbc1 c0bd
00000150: 2e2d a7bd d031 76be 9fae 90bd c0b2 5fbe
00000160: 5044 f6bd ffc5 c7bd 8747 61be 9313 abbd
00000170: de69 5dbe 485d 17bd ee39 f9bb f471 3b3d
00000180: 4e58 5dbd 7450 27bc 668b cb3c 469f d83b
00000190: 3011 03bd af1a 9bbd 1445 9d3d eba3 adbd
000001a0: e152 b33d f27d 973d 444b 3b3e 33d6 423e
000001b0: 9594 713e 5c26 913d 2c5c 1bbd 80b8 9d3d
000001c0: 2c59 483d 8235 063d 6fb6 2abe 09de 00be
000001d0: 3c9a 623d 9122 3cbe 7513 72bd e1cb b7bd
000001e0: 320e e4bc 1701 4d3d 9a44 00bc 4256 d6bb
000001f0: 7927 103d 98ed 723d ecb0 c7bd e770 d5bd
00000200: 858f b9bc 040d d33d e814 2f3e 6530 82bd
00000210: e6c7 12be f82a a4bd bd71 cc3d 8a09 2abc
00000220: bb40 c2bd 9234 063e 66a5 fe3b 4338 27bc
00000230: 2497 93bd 0bb1 903d 1f09 bcbd 5506 b93c
00000240: 0285 7d3d 07ad b4bd bc9e f63d 6657 28be
00000250: e12c ebbd e445 833d 339e eb3d cfef a33d
00000260: 5a77 29be 1f89 5e3d 4721 b03d 2293 bfbd
00000270: c810 d03d 527e acbe 9fdf 973c 4f73 d03c
00000280: 342d cdbb 7100 7fbd 1d26 9bbd 43d8 b23c
00000290: 9f6e 103e 18eb d2bd bdc5 253e 7768 033d
000002a0: 8c21 82bc cccb cb3d cc55 8bbe 5b7f 533e
000002b0: d58f 07bc f6a1 a23d 0bdb 383e ea46 a63d
000002c0: 929c a73d c979 f93d 10c6 a5bb 36fb f1bd
000002d0: b28e 4abe 029f a5be 21b4 a33d 5714 d83c
000002e0: 8733 3cbd 312d 26bc d524 683d bd5b 033e
000002f0: b81a b63d b36a b2be 110c 90be fc5e f63c
-0.04603996 -0.06709892 -0.050575353 -0.2202202 0.01095509 0.0065716226 0.15287255 -0.002569073
-0.11330738 0.17671402 0.02070954 -0.07258113 -0.05338411 -0.2908422 0.04920065 0.10502692
0.03978638 0.063413836 -0.016403167 0.012863253 -0.02647077 0.027677348 0.10646972 0.1608864
-0.007971522 0.06902778 -0.19108936 0.23154385 0.15244609 -0.0501893 0.20219724 0.14607911
0.005408735 0.101453915 0.09011075 -0.054442313 0.04700158 -0.2686407 0.023212265 0.07589322
-0.1053752 0.006474785 -0.056349896 0.06125946 -0.032465935 -0.37300792 -0.30612653 0.15765719
-0.059570562 -0.27537727 -0.08116761 -0.14145802 -0.07912166 -0.3266796 -0.00055841316 -0.064302675
-0.10983064 -0.0913329 -0.010655249 -0.027498532 0.012346257 -0.22142641 -0.13512285 -0.17034826
-0.19703606 -0.099483155 -0.16997287 -0.16940762 -0.219199 -0.11991469 -0.013942959 -0.27317914
-0.17927383 0.005650869 0.002855663 -0.09739122 -0.052082665 -0.113988735 -0.054920822 0.062340323
-0.03583937 -0.2701317 0.07080557 -0.09411963 -0.08162914 -0.2404244 -0.07064556 -0.21845531
-0.12024748 -0.09754562 -0.21999942 -0.08353343 -0.21622416 -0.036954194 -0.0076057827 0.04576297
-0.054039292 -0.010212053 0.024846744 0.0066107837 -0.031998813 -0.07573449 0.07679191 -0.084785305
0.08756042 0.07397069 0.1829043 0.19027023 0.23591836 0.070873946 -0.0379297 0.07701206
0.048913166 0.032765873 -0.16671155 -0.125847 0.05532287 -0.18372561 -0.059100587 -0.08974434
-0.0278388 0.050049867 -0.007828856 -0.0065410445 0.035193894 0.05930862 -0.09750542 -0.10421925
-0.022651443 0.10305217 0.17097819 -0.06356887 -0.14334068 -0.08016008 0.09982631 -0.010378251
-0.094850026 0.13105991 0.007771182 -0.010206285 -0.07206562 0.07065018 -0.09181427 0.022586027
0.061894424 -0.08822065 0.12041995 -0.1643959 -0.11483169 0.06409815 0.115047835 0.08004724
-0.16549435 0.054329988 0.08600097 -0.09354235 0.10159451 -0.33690125 0.018539248 0.025445608
-0.006261492 -0.06225628 -0.07575629 0.021831637 0.14104699 -0.10298747 0.16188712 0.032082047
-0.015885137 0.099509805 -0.27213895 0.20654051 -0.008274038 0.07941048 0.18052308 0.081189945
0.0818416 0.12181432 -0.0050590113 -0.11815493 -0.19780996 -0.32347876 0.07993341 0.026376886
-0.045947578 -0.01014261 0.05667575 0.12827964 0.08891815 -0.3484703 -0.28134206 0.030074589

lstm.bias_hh_l1 f4 [192]
00000000: 334e 7e3d 16d3 efbd 20f2 1cbd 77ac 32be
00000010: cdf4 843d 0b73 3f3d 9bb7 6abd a452 0f3d
00000020: 7822 abbd 3ff0 8dbd 1b5b 07be df45 033e
00000030: f730 1f3e fbe0 97be a13c 15be d63a 20bd
00000040: 3021 f13c 6822 753d 66c4 72bd f4fe 823c
00000050: e507 c83c 9164 aebd 6728 3f3e ae72 05bd
00000060: f58d dfbd e659 583d dfab a0be b526 b23e
00000070: 0398 9c3d aa2d f03d e7a6 293e 794a 533d
00000080: f3e8 193d c214 2fbd 927b a8bc 3084 2d3e
00000090: 7d75 2bbe 714a 4fbe aa98 fa3d 1ec4 9b3d
000000a0: ecbe c83c d227 91bd c0c2 013e 9f1a 863d
000000b0: 28a8 11bd bf9d 7fbe 9e71 bbbe ae25 393c
000000c0: 3422 31be 32d8 ecbd 08ea 02be 5964 70be
000000d0: 51fb 1a3e 9328 59be 853b bd3d 305b 85bc
000000e0: 335c 023d e011 80bc b4b3 83bd 37cd da3d
000000f0: bf30 833d 560a aebd 0b73 ccbd 3a81 d3bd
00000100: b7c8 6fbe 0ac2 44be 0d26 48be 52be 2abe
00000110: db2b d3bd 9dc0 b5bd 1db4 8c3b bc25 92be
00000120: ca5d 42be b869 a6bd b6cb 53bd ca63 903d
00000130: eefa 45be 9175 b0bd c037 a5bd c340 aabd
00000140: afb9 14be e182 7fbd f8c5 c2bd 492c 03bd
00000150: bd36 d53b b3d7 95bd 4182 debd 1cbe 323d
00000160: d010 12be c809 8ebd 1237 22be 0784 463d
00000170: 2980 34bd 3eb1 b7bd cc11 e6bd e71a 0dbe
00000180: 0956 23bd 3d12 a03c 54b8 c2bd b4e2 84bc
00000190: 0fe0 bb3d b542 20bd 3d45 5e3e 7df8 c03d
000001a0: 9fbd aa3d 1561 4a3e b6dd 893d 2fec 4a3e
000001b0: a84a 513e 0aeb 053d 3ca3 1ebd 2ba8 15be
000001c0: c434 a8bd 4241 283e 224e 613d 00e1 cd3d
000001d0: f1fb 1abe 5e40 8abd d8ce 473d 9f47 103e
000001e0: 5084 12be 2771 7b3d d23f a6bd 7195 053e
000001f0: fd9d 443c fd8a 6c3d 6712 c33c cbb3 2bbe
00000200: dac5 a8bd b8c4 03bd f679 2a3e 0a4a 0dbe
00000210: 6045 c83d 0b7f 173e 5706 01be daac 373d
00000220: 2f3f d83c f2b6 ca3b 7762 8a3d 2388 943d
00000230: 6c8a 0b3c b20d 593b 3dd4 d93d 4dd6 c23d
00000240: 6d88 48bd d233 aabd 82f5 163d f1b8 e4bd
00000250: 37cc f43d 3185 a73d 3451 45bc ed7a e73d
00000260: 11e9 0dbd c264 5b3d b344 ac3d c2f2 1bbd
00000270: 8b14 09be e3aa 2bbe d1c4 1fbe eb20 44bd
00000280: ca11 1ebc 14c7 d93d 4393 14bb e79e a4bd
00000290: bebd 8cbd 60a0 073d b69d 0a3e 5a91 d7bb
000002a0: 1c51 a23d d80c 243e 3e2c 7ebe 0b51 323e
000002b0: 72df eebc 44d1 8839 4b66 913e 8166 2bbe
000002c0: 85b5 c13c 89f8 1c3e 5779 d5bc 1f2b eb3d
000002d0: 0ca2 30be 87ee a5be e21b 56bd 3e69 a53d
000002e0: 4139 15bc 4fc2 debd 9191 c7bd baa3 5cbd
000002f0: 2cf8 f6bc d1f9 c8be bd37 9cbe ff31 7c3b
0.062086295 -0.11710183 -0.038316846 -0.17448603 0.064920045 0.046740573 -0.057304006 0.03499092
-0.08356184 -0.06930589 -0.13218348 0.12819622 0.15546022 -0.29663834 -0.1457391 -0.03911861
0.02943477 0.059847265 -0.05926933 0.015990712 0.024417827 -0.08515275 0.18667756 -0.03258007
-0.10915748 0.05282011 -0.31381127 0.34795156 0.076461814 0.1172746 0.16567574 0.051584695
0.037575673 -0.042744406 -0.020566735 0.16944957 -0.16744037 -0.20243241 0.122361496 0.07605766
0.024505101 -0.07087673 0.12671947 0.06548046 -0.035560757 -0.24962519 -0.3661012 0.011300487
-0.17298204 -0.115646735 -0.12784588 -0.2347578 0.15134932 -0.21206884 0.09239868 -0.016278833
0.03182621 -0.015633523 -0.0643076 0.10683673 0.06405782 -0.08498065 -0.0998288 -0.103273824
-0.2341641 -0.19214645 -0.19545765 -0.16674164 -0.10311099 -0.08874629 0.004293932 -0.28544414
-0.1898109 -0.08125633 -0.051707946 0.07050283 -0.19334003 -0.08616174 -0.08067274 -0.083131336
-0.14523958 -0.062380675 -0.09510416 -0.032024655 0.0065067695 -0.07316532 -0.10864688 0.043638334
-0.14264226 -0.069354594 -0.1584132 0.048465755 -0.044067536 -0.08969353 -0.11233863 -0.13779794
-0.03987697 0.019539947 -0.09507814 -0.016221382 0.09173595 -0.039126117 0.217061 0.094223954
0.083369486 0.19763596 0.06731741 0.1981666 0.20438635 0.032694854 -0.03872989 -0.14614932
-0.08213189 0.16431144 0.055006154 0.10052681 -0.1513517 -0.06750558 0.048781246 0.14089821
-0.14308286 0.061387207 -0.081176415 0.13045289 0.012000558 0.057749737 0.023812486 -0.16767804
-0.08240862 -0.032170027 0.16648087 -0.13797775 0.09778857 0.14794557 -0.12600075 0.04484258
0.026397316 0.0061863596 0.06757062 0.072525285 0.008516889 0.0033119735 0.10636184 0.09513531
-0.04895823 -0.08310665 0.03685523 -0.11168087 0.119530134 0.08179701 -0.012043286 0.11302743
-0.034646098 0.053562887 0.08411541 -0.03807331 -0.13386743 -0.16764407 -0.15602423 -0.047882956
-0.009647796 0.10633674 -0.0022670783 -0.08038121 -0.06872128 0.03311193 0.13536724 -0.0065786066
0.07925627 0.16020525 -0.24821565 0.17413728 -0.029159281 0.00026095856 0.28398356 -0.16738321
0.023646126 0.15329184 -0.026058836 0.11482834 -0.17249316 -0.32408544 -0.052272685 0.08076714
-0.009107889 -0.10876905 -0.097445615 -0.05386708 -0.030147634 -0.39253095 -0.30511275 0.0038481948

linear.weight f4 [2, 48]
00000000: 15f9 323e d2c1 523e 7f03 79be 0b09 1fbe
00000010: 64de 08be 5e55 7e3d 56cc 483e 9f67 1b3e
00000020: ecdb 33be 3b17 d23d 2e7d b23d e999 bf3d
00000030: d5bf 353e b1b0 dd3d aabe d8bd c04c 6ebe
00000040: 50dd 2abe 4bfd 9dbd 222f 10be 342c 2fbe
00000050: 32e3 7abd 4681 a5bd d668 5b3e f59b 363e
00000060: 7420 d7bc fe3e 663e 9046 af3d 8953 6d3e
00000070: a816 2d3e 1077 3abe bea7 a1be 10a8 c9bd
00000080: ea08 e83d c2e5 7a3e e67b 713e dde4 39be
00000090: 9ac9 26be def1 b03d 6690 31be 77df e3bd
000000a0: 1cc2 df3d 6e77 f03d d011 233e eabd 213e
000000b0: fffa f5bd aa0f 9c3c 7006 c2bd ad71 0f3e
000000c0: 5775 76be 50d6 27be b744 8c3d d47a 913d
000000d0: 40e7 aebd c86b 60be 0fc9 703e 2ca3 86bd
000000e0: b580 31bd fdc5 833e 5770 3f3e 3968 883e
000000f0: 3b5a 333d e007 89bb bfb6 a6bc 5934 d03d
00000100: f5c8 383e 8bd0 933e 1faa 09be facb 58bc
00000110: 9da4 3fbe 6b4e 12be 2d32 cdbd e467 2cbe
00000120: a4df 89be 28fe b33d b2b1 733b e6a2 61bc
00000130: 88c8 05be 9070 8bbd dbf6 a33d 9b50 33be
00000140: ba3b 83be cf9d 31be ccc6 13bd ed2d 20be
00000150: 26a9 cd3d bac7 cc3c 9e06 a4bd 1655 a1bd
00000160: 12cb 103e 9a8e 393b f646 b53d 6644 a33d
00000170: 7cc7 7ebd c2c2 21b8 94fa 99b9 3df2 073e
0.1747783 0.20581749 -0.2431774 -0.15530793 -0.13366085 0.06209313 0.19609198 0.15176247
-0.17564362 0.10258337 0.087152824 0.09355528 0.1774896 0.10824717 -0.10583241 -0.23271465
-0.16685987 -0.077143274 -0.1408048 -0.17106706 -0.061251827 -0.080812976 0.2142671 0.1783293
-0.026260592 0.22484967 0.085583806 0.23176397 0.16903174 -0.18209481 -0.3157329 -0.098465085
0.11329825 0.24501708 0.2358242 -0.1815371 -0.16287842 0.086398825 -0.1734024 -0.11126607
0.10925695 0.117415294 0.15924764 0.15795103 -0.12010764 0.019050438 -0.09473884 0.14008208
-0.24068199 -0.16390347 0.06849044 0.07103506 -0.08540201 -0.21916115 0.23514198 -0.06574091
-0.043335635 0.2573699 0.18695198 0.26642016 0.043787222 -0.004181847 -0.020350812 0.101662345
0.18045409 0.28870043 -0.13443802 -0.013232226 -0.18715139 -0.14287727 -0.10019336 -0.16836506
-0.26928437 0.08788711 0.0037184772 -0.013771748 -0.13064778 -0.06808579 0.08006068 -0.17511217
-0.25631505 -0.17345355 -0.03607826 -0.1564252 0.10042028 0.02499758 -0.08009075 -0.07877557
0.14139965 0.0028313757 0.08851425 0.0797203 -0.062201962 -3.8566774e-05 -0.0002936913 0.13276

linear.bias f4 [2]
00000000: 9d27 0e3e f4fd 733e
0.13882299 0.23827344
