checkpoint/training_epochs_100_stepsize_7_gamma_0.75/model_epoch20.pth (torch, 117569 bytes, 10 tensors)

lstm.weight_ih_l0 f4 [192, 2]
00000000: 15e3 1b3e 734e c83b 1637 0a3e 6e16 e5bd
00000010: 9881 c1be 1dbc c8bc b562 0abd edf1 20b9
00000020: 49fe 773e bb93 3a3e 9627 36be cac1 cc3c
00000030: 341f d83c 6834 3c3d d28c 08be 9cbb 32be
00000040: 3f29 473d 23dd 123e eabc f5bb 1bca e4bd
00000050: a8ad a7be 7bbe 33be 0976 80bc a69e af3a
00000060: 5950 a2bd 0ecb c53c 1c5f 49bd 096e 2fbe
00000070: e198 2c3e f112 c6bd 8889 8cbe 8ffc e83d
00000080: 7602 1b3e f0eb 08be 10bc b139 698b 8abe
00000090: 6e4a 37be ea29 e3bd f6a8 2a3e dd19 7e3e
000000a0: 691a 32be ff81 27bd 4060 6c3e 54e8 093e
000000b0: 168c 9bbd 436e 833d e965 8cbd cb7c 26bd
000000c0: cc32 cabd 37e2 48be 6dfc 07be 0bcf 6fbe
000000d0: 74e0 3b3c 7d88 fabd 2f41 a0bc 1d6c abbd
000000e0: 460b 56bd d800 d63d 4e11 153e c034 ee3c
000000f0: fa9b 7b3c 6d0e d6bd c9fd 7c3e c9d0 26bc
00000100: c6da 533d 24a7 19be 19d6 41ba c443 63bd
00000110: 9997 183e 0028 4a3e 715a 33be 39cd 33be
00000120: 5e1a b83d f0fd c3bd b5fd 613e 25f5 90be
00000130: d31e b2be f9d5 083e 4cf4 ba3d 63ed 553e
00000140: 0a76 c43d 7287 abbd 1015 283d 150e a8bd
00000150: 27d4 893a 8942 133e f633 f7bd 24a1 813c
00000160: 8398 38be 2a4e d1bd 8dc3 b43e f7b4 d2bd
00000170: 16fc 22be f6c7 71be 6800 8a3c d17e ad3d
00000180: 22a8 5c3e 85da 7c3e d2b2 cd3d 0e52 10bd
00000190: 1fed ccbe c123 313d 0d58 1abe 23e8 9b3d
000001a0: 9900 6d3e 2a64 b03e d369 3cbe 733a 69bd
000001b0: d2a2 6c3d 0346 9fbd cdda 15be 5a65 1ebe
000001c0: 262e 913e 89a4 a13e 9edf 2cbe 7fde e0bd
000001d0: d4c2 61be fddd 993c 76e0 ef3c d5d2 bb3c
000001e0: de2b 93bd 1dcd 2b3e dbe3 14bd cfa5 10be
000001f0: 4450 343e 2d4c 3ebe 4b92 50bd c870 943d
00000200: 1eb0 9d3d fb1d 79bd 03e9 ae3d 47a6 c83c
00000210: 1d35 043e 35c2 88bd f516 073e 5219 3c3e
00000220: 17aa 45be dfce e53d d0eb a43e 2df8 953e
00000230: 9d4a 08bd d3ea 49be 3bcf 7cbd 189d 4a3d
00000240: 3fa5 1a3c da11 97bc 0323 58bc 6501 b2bc
00000250: 2220 f73d fcf9 a73d fe28 be3c a36e cbbd
00000260: d9ff 64bd bed8 a63e 9449 8c3d e134 283c
00000270: 41ac c53d 34a6 00be 0af3 243d a440 58bd
00000280: 0d53 003e 165e 87be 8fca 5c3c c278 ae3c
00000290: 7e02 4e3d 0341 debc f4e5 923d debf 83ba
000002a0: 8662 d4bd f3de 2bbe eca5 1a3e c283 45be
000002b0: e17d e5be b227 443e b1a3 313c 98a5 1d3d
000002c0: 004b 423c 0e8b 7b3e c9c5 b73d a9c6 febd
000002d0: 1432 a3bc c902 643e bf9a 1e3e 8df0 353e
000002e0: 276e fbbd c6f3 3cbe 8354 adbd bef2 bf3d
000002f0: ce30 edbd 6e71 0d3d c83e 7e3c 85db 99bb
00000300: f370 7d3e 63f6 e53d f42a 8b3e e3b1 80be
00000310: cc2a a13e 41eb 133e 3cc0 4abe 0dbb 293e
00000320: 89c2 813d a192 c0be ac6f 60be 83ec b5be
00000330: fcb7 223e ed9d 1d3e 7669 f73c f7d7 153d
00000340: 2345 7fbe fd9d 1fbe 457d 44be 2b99 d03d
00000350: 9e72 393e 79ee 083e 07ac 503e 0504 d43d
00000360: fea4 853c bebb e1bd 53c2 3abe 283a 5a3e
00000370: e2c5 8fbe 8b84 9d3d 5e3a 5ebe f1c8 2ebe
00000380: 1dc8 76be a049 8f3e 34ca 92be 9b3e da3b
00000390: 9662 42be 76c6 493e ad94 703e 3356 89be
000003a0: 45cd c73d 9dea 0d3e 6d33 9f3e 229d 853e
000003b0: 6e8a 0dbe c6b3 1ebe f833 4c3d b8e9 813e
000003c0: d8e9 723d 35fa 9dbe 8780 283e 521c 74be
000003d0: 5ad0 bb3e 8bf3 293e 1953 7abe 9947 733e
000003e0: 8e8c 4fbd eea5 533e a054 dabe 0004 143d
000003f0: b75b a2bd 1964 5c3e 26f5 693e 8569 86be
0.15223344 0.0061128675 0.13497576 -0.11185919 -0.37794185 -0.024503762 -0.03378554 -0.00015348913
0.24218096 0.18220417 -0.17788538 0.02499475 0.026382066 0.045948416 -0.13334969 -0.1745438
0.04862332 0.1434217 -0.007499327 -0.11171361 -0.32749677 -0.17553131 -0.015681284 0.0013398721
-0.07925481 0.024144676 -0.04916297 -0.17131819 0.16855194 -0.096715815 -0.27448678 0.11376297
0.15137658 -0.13371253 0.00033900188 -0.27059487 -0.17899486 -0.11091979 0.16666016 0.24814554
-0.17392887 -0.04089546 0.23083591 0.13467532 -0.07595079 0.06417515 -0.06855375 -0.040646356
-0.0987297 -0.19617544 -0.13279887 -0.23418824 0.011467088 -0.12233064 -0.019562332 -0.0837023
-0.052256845 0.1044938 0.14557382 0.029077888 0.015357012 -0.1045197 0.24706186 -0.010181614
0.05172231 -0.15005165 -0.0007394269 -0.05548455 0.1490158 0.19741821 -0.1751497 -0.17558755
0.08989404 -0.09569919 0.22069438 -0.2831203 -0.34789142 0.13362874 0.09128627 0.20891337
0.09592827 -0.083754435 0.04103571 -0.08205811 0.0010515497 0.1438085 -0.12070458 0.015823908
-0.18026929 -0.10219987 0.35305443 -0.102884226 -0.15916476 -0.23611435 0.016845897 0.08471454
0.21548513 0.24692734 0.10043873 -0.035234503 -0.4002466 0.04324699 -0.15072651 0.07612636
0.23144759 0.3445142 -0.18399744 -0.056940507 0.057772465 -0.077770256 -0.14634247 -0.1546835
0.2835552 0.31570843 -0.16882178 -0.10979938 -0.22046977 0.01878261 0.029281836 0.022927681
-0.071861014 0.16777463 -0.036350112 -0.14125751 0.17608744 -0.18583746 -0.050920766 0.07248074
0.07699607 -0.060819607 0.08540537 0.02449335 0.12910886 -0.06677667 0.13192351 0.18369034
-0.19303165 0.11221098 0.3221116 0.29290906 -0.03327428 -0.19718485 -0.061721068 0.049466223
0.009438812 -0.01844113 -0.013191941 -0.02172918 0.12066676 0.082019776 0.023212906 -0.09933212
-0.055908058 0.32587236 0.068499714 0.010266514 0.096519955 -0.12563401 0.040270843 -0.05279602
0.12531681 -0.2643897 0.013476028 0.021297816 0.050295345 -0.02713061 0.07172766 -0.0010051688
-0.10370354 -0.16784267 0.15102357 -0.19288543 -0.448226 0.19155768 0.01084225 0.038488
0.011858702 0.24564764 0.089732714 -0.12440235 -0.01992134 0.22266687 0.15488718 0.17767544
-0.12276869 -0.18452367 -0.08463385 0.09372471 -0.115815744 0.034532003 0.015517898 -0.004695358
0.24750118 0.11228635 0.27181208 -0.25135717 0.31477964 0.14445211 -0.19799894 0.1657526
0.06335933 -0.3761187 -0.219176 -0.35532007 0.15890497 0.15392275 0.030201655 0.036582913
-0.24928717 -0.15587611 -0.19188412 0.101854645 0.18110129 0.1337222 0.20378123 0.10352329
0.016314026 -0.11022137 -0.18238191 0.21311247 -0.2808066 0.07691296 -0.21701953 -0.1706884
-0.24099775 0.2798586 -0.28669894 0.006660295 -0.1898292 0.19704613 0.23494215 -0.26823577
0.09755949 0.13859029 0.31093922 0.26096445 -0.13822338 -0.15498266 0.04985425 0.25373626
0.059305042 -0.30854955 0.1645528 -0.23838928 0.36682397 0.1659681 -0.24445762 0.23757781
-0.050671153 0.20668766 -0.4264269 0.036136627 -0.079276495 0.21522559 0.22847423 -0.2625238

lstm.weight_hh_l0 f4 [192, 48]
00000000: 4df4 39bd 7b53 dfbd e321 1e3e bc8f ec3d
00000010: 031b 86bc aa68 58be 0919 9dbc 9652 53bc
00000020: 97ad 64bd f5b5 743d 1d19 5b3d 323a cf3d
00000030: 87f3 c53d 28ba babc 8aa3 653d e0d7 b4ba
00000040: b744 923e e78b 0a3e 90be 8b3e 2c35 b1be
00000050: c8d9 573e 4a0f 0f3d bb21 71be a5a7 0b3e
00000060: 726a ccbd 042f eebd 7752 1cbe aa49 663e
00000070: 6ff3 ec3d 17bf 833d d50b 103e c029 51be
00000080: ec7b 033c f4bf 00be f679 1ebd 1c43 e03c
00000090: 09b3 743b b46e 88bd afd9 70be 2db5 833d
000000a0: e866 47be 6dd0 dc3c ec21 753c 3ecf 77be
000000b0: c648 2fbd 01d9 85be 944b 89bd 3458 b6be
000000c0: baec 553b ae47 133e 6ea0 0f3d 5555 59be
000000d0: b3b1 3a3d 7778 113e 0dd6 233e 4f4d be3d
000000e0: 5093 703c 8728 6bbd dcc9 b93c 2860 0fbe
000000f0: cf6c b6bd 2311 79bd 02da 703d 83b4 0bbe
00000100: 96d0 72be d15e 17be 7e23 66bd 888b 773e
00000110: ed82 73bd 9fc2 10be 2f53 ff3d c93c 7e3c
00000120: fc96 d33d ea7e 843d 74b6 833e 52d9 dfbd
00000130: a27f 3fbd 7093 6dbc 5983 e1bd 0256 aa3e
00000140: 6a8b d83d 0858 f03d d39e 12be 76de 313e
00000150: 86b8 8b3d 9db6 58bd 20be 793e 1492 c0bd
00000160: 42fa 9c3d b3dd 68bd 6a90 443d d67b 283e
00000170: 7bab 8c3c a50a c33d e27b 973d bf8b 873e
00000180: ea37 32bd 263d 453d 6336 91be ec75 2d3e
00000190: 89f0 0b3d 4d9f 433e 56bb 3d3d a193 6fbe
000001a0: 3eaa 5f3e e18f 8f3e a659 c3bd 4923 b8be
000001b0: 8455 403d 7e43 ac3e 9e0a 843e f467 bd3e
000001c0: 9204 ae3e 54ca 913e 29b2 423e ade9 99bd
000001d0: adc8 25be 65c1 c5be 661e b43d d4c6 0f3c
000001e0: 82e5 40bd 95c3 22be 546f c0be cf54 af3d
000001f0: 7260 3ebe ec53 0b3f adf4 803e 336f c7be
00000200: 419a 82be 737a 823e 4e67 4a3c 46c9 79bd
00000210: 0ed1 94be 7860 e0be 8a87 d7bd 8e9f 03be
00000220: 03de 6f3d 8eba 6abd 2e97 82be 9973 313e
00000230: 3027 32bd f2cd 3abe 0345 47be adee c4bd
00000240: 76a2 a0bd 0b1d 843e c0a2 cfbd 04f4 b2ba
00000250: ffca 453d e299 123d 8024 fc3d d2b2 db3c
00000260: 8d1f 413c 83e0 d9bc 97de 0dbe d878 443c
00000270: 711e 6d3c 9187 cc3d 93db 393d eb43 49bd
00000280: 8288 00be afa8 33be a00c 3fbe eed3 ae3e
00000290: 9e1d 80bd aca5 87be bea9 5c3d 27ac a33d
000002a0: ad6b 62bd ad90 eabd 7dbf 9ebd e486 0c3d
000002b0: 4e0f 8abe 8152 debc 1e56 08be ad2b e43d
000002c0: f124 ddbd c6d8 643e 64d6 583e aff5 273e
000002d0: 467a 4ebd 7f3a 89bd 8939 1c3e 3f2f a1be
000002e0: 6264 23bd 8b7e b43d 1b8e e23d 5748 183e
000002f0: ce18 d43d 4c01 193e 99c4 bb3d 5122 523e
00000300: 4901 6d3e 613e f4bc 5b55 803e 2d50 00be
00000310: b51b 3c3e d43a 2c3e 81d8 93bd 7cfc f13d
00000320: 2e94 59bd d02b 54be d066 7fbd d27f 663d
00000330: fbaf 17bd f666 74be 7f09 2cbe 23a9 033d
00000340: 8e9a c6ba cea4 72bc 7f8b d3bd 7620 a63d
00000350: d92d 123e f317 90bd 48f1 263e f883 bdbd
00000360: 914f a1bc 507c 7e3e d961 0abd 9831 c0bd
00000370: b9c6 b4bd 3432 5fbe d3f2 87bd 5fb9 053e
00000380: ad29 8f3e a7e6 ef3c 04cd a53d 1fa2 973d
00000390: aa0f 113d 071e 803e e3e6 b03e b157 86bd
000003a0: ff4d 073e 5b2a 3fbc 56e8 19be b788 cd3d
000003b0: dc0e 4bbd f09e e53d 8acb 59bb 0603 273e
000003c0: b8ce db3e f902 743e 2368 cc3e 20f7 903d
000003d0: 591f 27bd d98f 9b3e afae 9dbd 8b0c dabd
000003e0: a80e a6be 73f4 b5be b3ac 0fbd 599c d43d
000003f0: 80af 56be d3b8 34bc 5da1 c2bd f5fa 1cbe
-0.045399 -0.109045945 0.15442614 0.11550853 -0.016370302 -0.21133676 -0.019176977 -0.012898108
-0.05582961 0.05974384 0.053490747 0.10118522 0.0966559 -0.022793844 0.056064166 -0.0013797246
0.2856805 0.13529931 0.27293825 -0.3461088 0.2107917 0.03492669 -0.23548023 0.1363817
-0.0998124 -0.11630061 -0.15265833 0.22489038 0.11569869 0.06432932 0.14067014 -0.20426083
0.008025151 -0.12573224 -0.03869053 0.02737575 0.0037338159 -0.0666174 -0.2352054 0.06431041
-0.1947285 0.026954854 0.014961701 -0.2420015 -0.04279401 -0.26142123 -0.067038685 -0.3561417
0.003264232 0.14382812 0.035065107 -0.21223958 0.045579623 0.1420611 0.15999623 0.09292089
0.01468356 -0.057411697 0.022679262 -0.14001524 -0.08907472 -0.06080736 0.05880166 -0.13643079
-0.23712382 -0.14782263 -0.05618619 0.2417432 -0.059451032 -0.14136742 0.12467038 0.015517422
0.10331532 0.064695194 0.25725138 -0.109301224 -0.04675258 -0.014500484 -0.11011381 0.33268744
0.10573466 0.11735541 -0.14318399 0.17370018 0.068223044 -0.05290853 0.24388933 -0.09402862
0.076649204 -0.056852054 0.047989286 0.1645349 0.017171612 0.09523515 0.07396676 0.26473805
-0.043510355 0.04815402 -0.28361806 0.16939515 0.03416494 0.19103737 0.046321236 -0.2339616
0.21842286 0.28039458 -0.095385835 -0.3596442 0.046956554 0.33645242 0.2578935 0.36993372
0.33987862 0.28474677 0.19013275 -0.07515273 -0.16189833 -0.3862411 0.087948605 0.008775432
-0.047093876 -0.15894921 -0.37584937 0.08561098 -0.18591478 0.5442493 0.25186673 -0.38952026
-0.2550831 0.25484046 0.012353731 -0.060982965 -0.29065746 -0.438236 -0.10523899 -0.12853834
0.058561336 -0.05730682 -0.25505966 0.17329253 -0.043494403 -0.18242624 -0.1945992 -0.09615836
-0.07843487 0.25803408 -0.10138464 -0.0013653045 0.048289295 0.035791285 0.12311649 0.026818667
0.011787307 -0.026596313 -0.13854443 0.011991702 0.01447259 0.09986795 0.045375418 -0.049137037
-0.12552074 -0.17544816 -0.1865716 0.34146065 -0.06255649 -0.26493585 0.053872816 0.0799182
-0.05527847 -0.11453376 -0.07751367 0.03430833 -0.26964802 -0.02713895 -0.13314101 0.11141143
-0.10798062 0.22348318 0.21175534 0.16402315 -0.050409578 -0.0670061 0.15256323 -0.31481358
-0.039890654 0.08813199 0.11062261 0.14871345 0.103562936 0.14941901 0.091683574 0.20520903
0.23145021 -0.0298149 0.2506512 -0.12530585 0.18369944 0.16819316 -0.07219029 0.11815736
-0.05311983 -0.20719838 -0.06235391 0.056274243 -0.037033062 -0.23867401 -0.16800497 0.032143723
-0.0015152262 -0.0148098 -0.10329341 0.0811166 0.14275302 -0.07035818 0.16302979 -0.09253687
-0.01969126 0.24852109 -0.03378472 -0.09384459 -0.08826966 -0.21796495 -0.06638112 0.13058995
0.27961484 0.029284788 0.08095744 0.07403969 0.03541533 0.2502291 0.34551153 -0.065596946
0.13213347 -0.011667813 -0.15030035 0.10035842 -0.049574718 0.112119555 -0.003323289 0.16309747
0.4293115 0.23829259 0.399232 0.07078385 -0.04080138 0.30383185 -0.07699334 -0.10646924
-0.32433057 -0.35538062 -0.03507681 0.103813834 -0.20965385 -0.011030394 -0.09503434 -0.15330108

lstm.bias_ih_l0 f4 [192]
00000000: 7205 3f3e 00d5 a7bd 9346 84be ed44 1fbe
00000010: bc93 843e d5a5 b6bd 98ad 45be 006c 22be
00000020: f541 c63d 889c 02bc abbd 58be 87e4 31be
00000030: aedc a3bd 887c abbd 2cf2 20be 031b 77bd
00000040: 5b67 12be f094 20be c475 97bd 44f6 193e
00000050: bd8b 67be ef23 44bb 8b7e 4fbd 8c7b ba3c
00000060: 27b5 e1bd 94c1 40bd 36d8 f13d 66f3 f83c
00000070: 26de 61be 4b07 e53d 47ab 323d 539a 24be
00000080: fc57 4a3b dd1e 7abd 9953 93bd d5bf 17be
00000090: ab49 59be 63d8 5fbe e1d4 d6bd 3c68 18be
000000a0: 4489 22be 5eb1 833c e22c eb3d 75fd e3bd
000000b0: 66f6 4fbe 73f6 783e 788a 3ebe 82e1 43be
000000c0: c722 983e 9417 f2bd 557a b5bd e63e 68bd
000000d0: 9ce5 c13e d5d6 523e d340 6abe 3ca1 07bd
000000e0: 8827 3f3e 7e5e 3dbe 0395 2c3c fe77 443c
000000f0: e9e5 bd3c 384b 24bd f9ce 48be fe4f 40bd
00000100: 46e6 20bc 8d84 733c c14e f0bd 62f6 cc3d
00000110: 91e3 cebd 004b ddbd 2bb1 5ebe 67ba 5cbc
00000120: 0fd1 6fbd 8e4c f1bc b439 933c 1910 2f3e
00000130: d357 983d 25e9 b2bd a734 b8bc 45fe a93c
00000140: bd67 18bd 1d18 913d 3731 d0bd b1a4 ecbd
00000150: 02ad 54be 50b4 3abe 3b26 4b3d fae1 923d
00000160: c268 81bd 1df0 823d ff8c 39bd 625f 4d3d
00000170: 72b9 90be f3ae 183d a0aa a43d 230e 17be
00000180: 63d3 04bd d7db e7bc e9e1 38be 4599 90bd
00000190: a304 993c df8a d43d 5126 b6bd fd10 3ebd
000001a0: c5ec c93c 8008 6f3d 7aa9 11be fe83 c2bc
000001b0: aa42 803d 0662 f9bd df1b bf3d af30 4fbd
000001c0: fb2a 9f3d e75d fa3d 1149 3b3b 4cdc f4bc
000001d0: a14c 013b fa6a cdbd a88f 133c 3735 74bc
000001e0: 1d4c d93d 7b3a 10bd c8c6 3abe 6868 acbc
000001f0: a6f7 54bd 06e7 c73d c821 40bd dc7f b73d
00000200: 0b0b 293d d19c a13c ad06 e23d bdc5 17bd
00000210: 6679 903c 4266 5a3c 05fc f8bd 6e3b 18bd
00000220: a681 113e a565 65be 6382 1ebe 9a0c 1ebc
00000230: 551d 5f3d bf20 553d 2905 25be 416d 5abd
00000240: d0ad f83d af5c 07be 748a 87bd 40a1 553d
00000250: 4766 083d 3c84 143e 5a07 94be 9e67 05be
00000260: 170f 473e b6aa 19be 0a93 bdbd a25e c4bd
00000270: 7ad7 2bbe b34a f93c ac59 b2bd 8f1e ddbd
00000280: 9a81 293e 01ea 1abe 0ec7 dcbd 83c4 283c
00000290: 5fc0 fbbd fe7d 723d 4e9c 7ebd 3bac fa3c
000002a0: b55d 4abe 36e4 003b dcf4 043e 54af 373e
000002b0: 3803 83bd 8fcc 103e 5ffc df3d 7817 ac3d
000002c0: bb29 53be c664 aabd 8775 c2bd fb8a 35be
000002d0: 1038 b5bd 8cf1 67bd 55b2 92bd b34b d8bc
000002e0: a76c d03b 0449 38bd cc4d d73d 0ca2 1cbe
000002f0: 2a54 57be bee9 823e df03 7fbe 119d 063d
0.18654421 -0.081949234 -0.25835094 -0.15553637 0.25893962 -0.08918349 -0.19304502 -0.15861511
0.09680549 -0.00797189 -0.21166103 -0.17372333 -0.08001076 -0.08373362 -0.15717381 -0.060328495
-0.1429724 -0.15681815 -0.07395509 0.15035349 -0.226119 -0.0029928645 -0.05065779 0.02276399
-0.1102088 -0.04705961 0.11808817 0.030389499 -0.22057399 0.11183032 0.043620374 -0.16074495
0.0030875197 -0.06106459 -0.07193679 -0.14819272 -0.21219508 -0.21859889 -0.10489822 -0.14883512
-0.15872675 0.016075786 0.1148317 -0.111323275 -0.20308837 0.24312763 -0.18607509 -0.19128993
0.29714033 -0.118209034 -0.088612236 -0.05670061 0.3787049 0.20589764 -0.22876291 -0.03311275
0.18667424 -0.18493077 0.010533574 0.011991499 0.023180919 -0.040110797 -0.19610204 -0.046951286
-0.0098205265 0.014863146 -0.11733771 0.10007931 -0.101019986 -0.10805321 -0.21747272 -0.013472176
-0.058548983 -0.02945545 0.017971851 0.17095985 0.07438626 -0.08735875 -0.022486044 0.020751128
-0.037208308 0.07084677 -0.10165637 -0.1155485 -0.20769122 -0.18232846 0.049597006 0.07172008
-0.06318809 0.06393454 -0.04530048 0.050139792 -0.28266484 0.03727622 0.08040357 -0.14751486
-0.032428157 -0.02830307 -0.18054928 -0.07060484 0.018678969 0.1037805 -0.08894027 -0.04640292
0.024649033 0.058357716 -0.14224806 -0.02374458 0.06262715 -0.121768996 0.09331488 -0.050583538
0.0777187 0.12224942 0.0028577487 -0.029890202 0.0019729512 -0.1003017 0.009006418 -0.0149052655
0.106102206 -0.03521202 -0.18239892 -0.021045879 -0.05199399 0.09760861 -0.046907216 0.08959934
0.041270297 0.019728096 0.110364296 -0.037053812 0.017636012 0.013330044 -0.12157444 -0.03716605
0.14209613 -0.22402056 -0.15479426 -0.009646559 0.054471333 0.052033182 -0.1611525 -0.05332685
0.12142527 -0.1321895 -0.06618205 0.052155733 0.033300664 0.14503568 -0.2891186 -0.13027808
0.1943935 -0.15006527 -0.09256561 -0.09588362 -0.16781417 0.030431127 -0.0870851 -0.10796844
0.16553345 -0.15128328 -0.10780154 0.010300758 -0.12292551 0.059202187 -0.062160783 0.030599704
-0.19762309 0.0019667274 0.12984031 0.17937976 -0.06397098 0.14140533 0.10936808 0.08402914
-0.20621388 -0.08320002 -0.09495073 -0.17728798 -0.08848584 -0.05662684 -0.071629204 -0.026403284
0.0063606086 -0.044991508 0.105128855 -0.15296191 -0.210282 0.25568956 -0.2490382 0.032864634

lstm.bias_hh_l0 f4 [192]
00000000: 1e7b 8b3d 45be d53c 4e15 93be 7431 37be
00000010: 6e79 8a3e 8ffb f83d 0126 3abe 1c3b a2be
00000020: 5257 ff3d fce2 353d 8d5a 4ebd 30fc 0cbd
00000030: 635e 0fbe 8d6c 03be d140 50be 839a 27be
00000040: cd18 9abd e151 fdbc 7675 61be 2781 083e
00000050: bad8 3dbe 5f34 70bd 2190 56be e691 61bd
00000060: 7aa5 5dbc 0d1d 53be a1f0 813d 0fb9 efbd
00000070: 6897 e7bd 05e8 4a3e 5c3e 22be 3be7 48bc
00000080: 5e33 d4bd 078f 39be fbfb 22be 2855 67be
00000090: 6f7e d83c 639c 36be 45f1 11be cfa6 0939
000000a0: 7ff9 143d 31f3 833b 15eb 873c 6ddc b9bd
000000b0: 3b6b 15be 09b0 123e ef24 0cbe f425 1abc
000000c0: a0d5 913e 06ce 0dbe 4a36 21be adc1 3b3c
000000d0: de04 6f3e eac6 0b3e 9a6c 78be b576 dcbd
000000e0: 7156 7b3e 59c5 3bb9 c02b bebd 13b3 0abe
000000f0: f39f 2c3e e3c9 963c ea4b 30be e015 513d
00000100: 15dc fc3c f01c c03c 9bac 48be 5021 a53d
00000110: 7590 cb3c 1e6f cbbc 4180 d5bd 0d08 7c3d
00000120: 966b 08be 77d8 0e3c cb65 043e d3d9 453e
00000130: bbf0 113e 6ae4 683d 3ce7 9e3d 7961 24be
00000140: 7c2a 8dbd 2c09 79bd bbcf 2bbe 9f74 953c
00000150: 6e5b 38be 54d4 c7bd bcdf b5bd abd7 0cbd
00000160: 3555 193e 35f8 46be 5cc0 e1ba dfa1 193c
00000170: 6faf 00be 1688 083e 14b9 0dbd 8621 a0bd
00000180: 8643 e2bd 96a3 1bbd aca2 d23c d86d 8d3d
00000190: dbf5 ba3d b03e fe3d dd1b d0bd 6979 2b3c
000001a0: 5d0b f13d 057d 813c 48e5 0b3d 211b a7bd
000001b0: 3f6d e83c 017c 913d 7dc9 17bd 194e 573e
000001c0: 60d3 02be 49cd ab3d dcfc 6a3c 6c69 953c
000001d0: dc2d f8bd 8d19 40bd 4241 c23d dbfa 9dbd
000001e0: 0b96 593c 0145 603d 0e1e 48bc 5e17 fa3c
000001f0: 57c9 683b 005f 723d bcd6 65bd 91e3 3abd
00000200: e557 883d ff30 8c3c 1134 a53d 07a6 1d3c
00000210: 400a 2a3d c919 2c3d 25a2 12be 3ac0 17bd
00000220: f2db e6bc 8fb8 333d de96 38bd b044 9d3d
00000230: b75d 9dbd 06bd a73d 8af7 723d da82 00bd
00000240: 96f3 8f3e a51b 573d b7f5 93be a963 5d3d
00000250: bc50 3a3e d69b 833e 9e30 75be 9c1a 28be
00000260: 7f7c 983d 749f 55be d8b2 7cbe 71f8 0dbe
00000270: 3537 36bd eed6 82bd ccb6 c6bd 24b5 c5bd
00000280: 11d6 f93c 0fe2 4ebd f80f 1abe eb7a 0c3e
00000290: 9013 04be ab30 94bd a3c7 94be a9e6 b1bd
000002a0: a297 c23b e7a3 05bd 9d85 6f3e eec7 4a3e
000002b0: 3045 5fbd 1fc5 1a3e 5e1c febd b4c9 c43c
000002c0: 2181 29bd b288 8dbd b78a 583d cd96 15be
000002d0: c25d 3cbe e20f 8dbc 4c4b b73d 4ec1 03bd
000002e0: cc8f dabd eb59 27be a97e ce3d 053a 87be
000002f0: 3bf6 afbe 3e69 223e 2129 d0bd c679 c2bd
0.06810592 0.026091704 -0.28727192 -0.17889959 0.27045768 0.12157356 -0.1817856 -0.31685722
0.12467827 0.044405922 -0.050379325 -0.034420192 -0.1400085 -0.12834378 -0.20337225 -0.16367535
-0.075242616 -0.030922832 -0.22017464 0.13330518 -0.18539706 -0.058643695 -0.20953418 -0.05507078
-0.013528222 -0.2061655 0.063447244 -0.11705219 -0.11308175 0.19815071 -0.158441 -0.012262161
-0.1036136 -0.18120967 -0.15916435 -0.22591078 0.026427476 -0.17833094 -0.14252193 0.00013127479
0.03637075 0.0040267934 0.016591588 -0.09075246 -0.14591686 0.14324965 -0.13685964 -0.009408463
0.28483295 -0.13848123 -0.15743366 0.01145975 0.233417 0.13650098 -0.24260178 -0.10764829
0.24544694 -0.00017907227 -0.092856884 -0.13544874 0.16857891 0.018406814 -0.17216459 0.051046252
0.030866662 0.023451298 -0.19597094 0.080629945 0.024849156 -0.024833258 -0.10424853 0.061531115
-0.13322291 0.008718601 0.12929456 0.19321375 0.14251988 0.056858458 0.07758948 -0.16052808
-0.06892869 -0.060799763 -0.16778462 0.018244086 -0.18003628 -0.09757295 -0.088805646 -0.034385365
0.1497391 -0.19430621 -0.0017223465 0.009376972 -0.12566923 0.13333163 -0.034600332 -0.07818894
-0.11048035 -0.037997805 0.025712334 0.06905717 0.091289245 0.124143004 -0.101615645 0.010465958
0.117697455 0.015806684 0.034154207 -0.08159471 0.028372405 0.0710373 -0.03705739 0.21025886
-0.12775946 0.083887644 0.014342513 0.018238746 -0.12118122 -0.046899367 0.09485103 -0.077138625
0.013280402 0.054753307 -0.012214197 0.03052872 0.0035520399 0.05917263 -0.05611299 -0.04562718
0.066573896 0.017113207 0.080665715 0.009622104 0.04151368 0.04201678 -0.14319666 -0.037048556
-0.02818105 0.04387718 -0.045065753 0.07679117 -0.0768389 0.0819035 0.059318103 -0.03137479
0.2811553 0.0525166 -0.28898403 0.05405012 0.1819486 0.2570483 -0.23944327 -0.164164
0.07445621 -0.20861608 -0.24677598 -0.13864304 -0.044486243 -0.06388651 -0.097028345 -0.096536905
0.030497583 -0.050508555 -0.15045154 0.13718764 -0.12898088 -0.07235845 -0.2905856 -0.08686573
0.005938486 -0.032627013 0.23390813 0.1980283 -0.05450934 0.15114258 -0.12407754 0.02402196
-0.041382913 -0.06910838 0.052866664 -0.14608307 -0.18395141 -0.017219488 0.089499086 -0.03216677
-0.10671958 -0.16342895 0.10082752 -0.26411453 -0.34367546 0.15860459 -0.10164095 -0.09495883

lstm.weight_ih_l1 f4 [192, 48]
00000000: 46ec 9e3b a72a 3dbd 3fb2 213e dc53 5c3d
00000010: d258 3abe 9e84 1abe 16a4 90bd 0f9f d3bc
00000020: 466f 1d3e 4d75 fcbd 2c17 a43d 5067 81bd
00000030: b473 7bbb 7d5a d1bb 90ce 213d 0632 933c
00000040: 0168 533e 6215 673c 3bf9 c2bc 7164 883c
00000050: 1c8c 9d3d bcf4 2abe ffa5 cc3d 9fd6 743d
00000060: 31c5 c73d a68a 723d 6b46 97bc e032 5b3d
00000070: dfe3 023e c0a1 653e 215e c0bd 13b9 54be
00000080: d232 db3c 6abc 173e c3fb 093e 4d20 8bbd
00000090: 9a73 fbbd ebb9 82bd 37ba 923d 9021 03be
000000a0: 7c40 d5bd e9be c3bd 1075 a83c 8179 2abe
000000b0: 22e5 243d 4b41 cabd c08a cdbc 5349 f03b
000000c0: 9847 653e 6a1c bb3c 3b2b 2a3e 0039 9ebd
000000d0: acda e9bd fd20 41bd dca7 003e 6ea8 4f3e
000000e0: 746b 7abe 0200 adbd 8740 0bbd 24ae d9bd
000000f0: 92e4 bcbd a3ad 3c3d eecc df3b dbd2 35be
00000100: f850 8dbb 1157 933c 7bf8 25be 2c1d 95bd
00000110: de8a 853b f767 afbd f4f0 323a a9b1 d73d
00000120: 349c 93bd c86f 823d 8185 6a3d 4fa7 01be
00000130: 454b e0bd 03fc 7d3d e74a d83d 84ec 85bd
00000140: 0fc9 6dbb 5946 88bd 7049 37be d3a4 a73d
00000150: 8ce0 01be cb1e 54bd c191 733e fa42 093d
00000160: 6eed a4bd 49b7 e43d 7a58 9ebc a6f2 ab3c
00000170: ed8e e83d c6c5 413d af89 f8bd cc9f 01bd
00000180: d215 873d a24a edbd fd77 303d e735 583e
00000190: 020d 5dbd 317f 97be eb66 a83d 4f2f 25bd
000001a0: 1def 16bc 0596 383d 1656 bd3d 1079 0dbe
000001b0: c221 7bbd 7163 913d 2059 c83d 5b88 223e
000001c0: af94 463e 8200 2a3d 9807 c5bc 3f08 af3d
000001d0: 6b75 28bd 8a04 e73c 5e28 91bc 7736 053d
000001e0: 971e 41bc d101 41be e4d4 4bbe 77fa 933e
000001f0: a278 16bc 0a14 8d3e 1e84 81bd 11c4 d0bc
00000200: bc7f 1bbd 20a5 d33d 16d7 6bbd 9a91 ca3d
00000210: bedb 693d cf99 bfbd 5f7f 003e 9182 0cbd
00000220: a2e7 12be e2b1 a43d 5134 a93b 2248 4e3d
00000230: 09a8 343e 786d 97be f65e 99bd a06d ef3d
00000240: 51c3 0ebe 8a2f a8bd 4b8f c3bc 50c8 9d3d
00000250: 4a51 d1bd f223 9fbe d784 093e e693 163e
00000260: b055 413e 4c49 bdbd 3e6e b33c 811a bdbd
00000270: 9c56 4abe 3afb 643e 080d 713e c962 d8bd
00000280: 44cd bb3d 075d c93d ac4e f43b 7582 943a
00000290: 234b 4c3e 5146 a9bd dee1 dabd d94f 21bd
000002a0: 02b3 23be 199c 24be fcf4 08bd 221a 703e
000002b0: 2627 15bc d44d 003e cc9a 25be 8726 24be
000002c0: 8369 7cbb 428e a13d da78 d63c bb52 90bd
000002d0: f3bc b6bc fe46 20be bcb7 c93d b2c7 cf3c
000002e0: 251c bfbc 77a4 1fbd c7a8 a03c c42e 773d
000002f0: 8691 1b3e a46a 1abd 4540 2ebe 45fb 9dbb
00000300: ab22 ce3d 6dfb cebc dc60 8d3e a13f 373e
00000310: 9d22 8cbe c697 91be f604 93bd 6aba e33d
00000320: 5f41 98be c43d 463d f249 433e f989 c63c
00000330: 80bb d33c 0866 af3d 1dc5 4fbe 59cc ffbd
00000340: bc80 373e 0de9 43be 979b 853d cba6 7fbd
00000350: bf95 b23d b6dc 973d 34ae 76be 9c31 eb3d
00000360: e0f2 9abd b146 50bd 5a99 103e f179 a03d
00000370: 0908 a53d d440 7ebe 6ab5 933d f748 85be
00000380: b705 a3bd 5146 033d c5b8 28be 0f9f ae3c
00000390: ed1a 43bd 5209 33bc 231c c03d e02c 7f3e
000003a0: 5f08 8ebe f696 903d 2f81 bc3e f5db 79be
000003b0: baa7 823d 65b1 a9bd f43f 1d3e 71a7 91bd
000003c0: 342e 55be ac15 c03c b064 d63c 81d1 723d
000003d0: 14ae fbbc 876e 48bd 3de1 743e 590a 043e
000003e0: f026 b53c 843f c23d 0121 4b3d 66d7 31be
000003f0: 3380 babd e005 a13d 233d c53d 830d 893d
0.0048499433 -0.046183255 0.15790652 0.053790912 -0.18197945 -0.15089652 -0.07062547 -0.025832681
0.15374479 -0.12327061 0.08012232 -0.063185334 -0.0038368525 -0.006388961 0.039503634 0.017968189
0.20645143 0.014104219 -0.023800483 0.016649457 0.07692739 -0.16694921 0.09992599 0.05977499
0.09754408 0.059214257 -0.018466195 0.053515315 0.12782238 0.22424984 -0.09392954 -0.20773725
0.026757631 0.14817968 0.13474946 -0.0679327 -0.122779086 -0.06383117 0.07164424 -0.12805772
-0.1041269 -0.095578976 0.020563632 -0.16647913 0.04025758 -0.09875735 -0.025090575 0.0073329597
0.22390592 0.022840697 0.16618054 -0.07725716 -0.114186615 -0.0471506 0.12564033 0.20279095
-0.24455053 -0.08447267 -0.033997085 -0.10628918 -0.09223284 0.04606403 0.0068298494 -0.17756216
-0.0043126307 0.017985852 -0.16208069 -0.07280955 0.004075392 -0.085647516 0.0006826066 0.10531933
-0.07207528 0.06368977 0.057256225 -0.1266148 -0.109518565 0.062007915 0.105611615 -0.065392524
-0.003628317 -0.06654043 -0.17899108 0.081857346 -0.12683314 -0.05178718 0.2378607 0.03351114
-0.080530986 0.11167771 -0.019329298 0.020989727 0.11355386 0.047307752 -0.12135636 -0.031646535
0.06595959 -0.11586501 0.04308318 0.21114312 -0.053967483 -0.29589227 0.08222755 -0.04032832
-0.0092122825 0.045064945 0.09244935 -0.13815713 -0.06131149 0.07099045 0.09782624 0.15872328
0.19392656 0.04150439 -0.024051473 0.08546495 -0.041127604 0.028200407 -0.017719444 0.032522645
-0.011787078 -0.18848349 -0.1990543 0.28902027 -0.009184035 0.2755435 -0.063240275 -0.025484117
-0.037963614 0.103342295 -0.05757817 0.098910525 0.057094328 -0.093555085 0.12548588 -0.034304205
-0.14346173 0.08041741 0.0051637073 0.05036176 0.17642225 -0.29575706 -0.074888155 0.11690831
-0.13941695 -0.08212192 -0.023872038 0.07704222 -0.10220583 -0.31082112 0.1342958 0.14704856
0.18880343 -0.09242496 0.021903154 -0.09233571 -0.19759601 0.2236146 0.23540127 -0.10565717
0.09170011 0.09832197 0.0074556675 0.0011330383 0.19950537 -0.08265365 -0.10687612 -0.03938279
-0.15986255 -0.16075172 -0.03343676 0.23447469 -0.009103572 0.12529689 -0.16172332 -0.16030322
-0.0038515038 0.07888462 0.026180673 -0.070470296 -0.022306895 -0.15652081 0.09849498 0.025363777
-0.02332885 -0.038975205 0.01961173 0.060347334 0.15192232 -0.037699357 -0.17016704 -0.0048212134
0.10065206 -0.025266374 0.2761296 0.17895366 -0.27370158 -0.28436106 -0.071786806 0.1111954
-0.29737374 0.048398748 0.19071177 0.024235712 0.025846243 0.08564383 -0.20290036 -0.12490148
0.17920202 -0.1913187 0.06523817 -0.062414926 0.08719968 0.07415144 -0.2408989 0.114840716
-0.07565856 -0.050848667 0.14120999 0.078357585 0.08058173 -0.24829417 0.07212336 -0.2603223
-0.079600744 0.03204948 -0.16476734 0.02131608 -0.0476331 -0.010927515 0.09380367 0.24919462
-0.27740762 0.070600435 0.3681731 -0.24400313 0.063796476 -0.082857884 0.15356427 -0.07112015
-0.20818406 0.023447834 0.026171058 0.05928183 -0.030722655 -0.048933532 0.23914047 0.12894572
0.022113293 0.09484771 0.04959202 -0.17367324 -0.09106483 0.07862449 0.096308015 0.0669203

lstm.weight_hh_l1 f4 [192, 48]
00000000: b473 cabc fe1b 103e cef6 f03d bdc3 1e3d
00000010: 20fd 2c3e c7c2 30bc 6dd3 24be 87d5 bf3d
00000020: 7f8d 2ebc 9aa2 51be 4c1e c9bd 925a 353e
00000030: 64ce e63d ba52 2c3e 5fbc 553c df52 983c
00000040: a052 eabd 0743 50bd de0f bd3d 95a8 253e
00000050: dc3b 9d3c c2f9 4c3d 6268 23be 6860 ac3d
00000060: bfcb 66be 745e 1abe 8e47 2fbe 8c74 15be
00000070: 2040 033e e4c7 7cbd 0f3e 0d3e d2e4 d93c
00000080: 50e7 4cbd 34bb 3bbd a8e7 56bd c4bc d13d
00000090: 1a42 80bc a0ae 9bbd 6555 35bc c6b0 55be
000000a0: 3d3a ff3c 6f4e 3a3c 794d 3b3e cbac ac3d
000000b0: 232f 30be 9e7f a43d 4047 a5bd 6a92 58bd
000000c0: e893 423e 6a39 403e 5f03 093e dec0 be3d
000000d0: 8c6d 6e3c 5619 f73d 091d 2bbd a555 72bb
000000e0: eb4d be3c 4716 61be a827 1c3d 1b8c 1e3e
000000f0: e385 653e 65f5 23bd 796c ffbc 8696 81bd
00000100: 60a0 42bd ca50 35bd ba7f 773d e106 243e
00000110: fd7d 6b3e 66ac 703e f28e 563d 71ce cb3b
00000120: 655b 31be 7c80 9dbd b049 d3bd e9f8 9dbc
00000130: 7648 373d 7e9a 2abd 7c31 ca3d 590a 243e
00000140: f5f4 393d fe40 3b3e c65e 79bd 232f fa3d
00000150: dddb 8ebd 4192 09be 77a4 483e 25e3 58be
00000160: 0c87 593e 455c 7fbd 025d 833e dabd a0bc
00000170: ce35 59be eae6 653e affc 683b ee47 5dbe
00000180: ad34 cd3d cd0e e4bc 2f36 e5bd eff0 ab3d
00000190: 78cf 433e 9962 913d 4b25 6e3d 6218 35bd
000001a0: 849e 46be b6e1 aa3d 3124 83be 8396 c53c
000001b0: ce3c cf3d b881 593d 33ec 3ebe cbea 39be
000001c0: a84c 2d3d c2b6 adbd 26c5 2e3e 1760 843e
000001d0: f80b 263e e90f 3f3e 74a7 abbd 4146 0c3d
000001e0: 6939 44be 49fb bfbb e808 62be 2f8d 17be
000001f0: 354c 433e 815e 67be b196 34be aa18 223e
00000200: 93f3 b6bd 4740 333e 3db9 0bbe 70da 853e
00000210: 6b4a 1abe 07bb b83d 6d6a 9bbd 16c1 f1bc
00000220: bd97 803e 06ac b439 9108 843e 228f 953d
00000230: 15d5 e7bd 2d22 9e3d e08b b23c 774a 70bc
00000240: e4da 5b3c 8a38 653e 58ad e6bd 7161 9bbd
00000250: 12c0 133e 7cd7 66bd a17c cbbc 3662 dbbd
00000260: 7bde 08be 7927 a8bd cc72 38be 2d28 1d3d
00000270: 204a fa3c e723 4e3e 181f 44bc 2f41 3ebd
00000280: 7d10 acbd 13bd 15bd 54d3 d43d 24f1 803e
00000290: ac2e b53d f621 733e fa4b 83be 242f 0d3d
000002a0: 4f63 133c 714b 37be 5253 70bd eace 31be
000002b0: 55d4 e53d d90a 8abb d5e2 2b3d 3920 f03c
000002c0: d2bc 513c d8c3 623e 2fe2 81bd 07ec 153b
000002d0: bd6b 4fbe 2532 efbd 5906 663d bdea cbbd
000002e0: cd06 5d3e 10b5 bfba 78f9 063e 306b c53d
000002f0: 74ca dcbc 9b47 4b3c a9da 29be 8722 babd
00000300: 0ee8 b5bd cb1c 9a3c 857d 863d 6a1f 833b
00000310: 0c11 2e3d 6cf8 94bd 1946 08bb 8ba4 dc3d
00000320: 0d5a 3b3d 73aa 62be b88c 593d ca0c ff3c
00000330: 663c 93bd 66f8 a93c a9ca f93d a111 b4bd
00000340: 8d0e 903d 0fdc 2bbe f6e3 0b3b 1d78 84bd
00000350: e317 4b3e 3b92 063e f7b2 04be 0ef0 4fbd
00000360: 8fc2 fb3d cc56 babc b4d8 21be 9c05 943d
00000370: eabf 9abd 0bf6 30be 042b 2cbe ec8e babd
00000380: 4acf 3ebe 7744 fdbd af6e 72bb 2ef5 62bd
00000390: c502 0fbd b471 fd3d d351 ea3d 4fa6 563c
000003a0: 85da e33d 550b 80bd 4d05 4c3e 2686 67be
000003b0: 0c2f 1ebe 39ed 99bd 32ab b63d 9143 41be
000003c0: b1b1 a83d c15e 8c3e 5639 183e f618 40bd
000003d0: 096d 0c3e 8d36 aabb 268b 1e3d e551 88bd
000003e0: 06a8 9bbd aed9 783d 392c 15be 25ff 0c3d
000003f0: a676 d2bc c478 383e 4c4f 3bbd 901f 42be
-0.024713375 0.14073178 0.11765824 0.03876089 0.16893435 -0.010788626 -0.16096278 0.09366899
-0.0106538525 -0.20472184 -0.09820232 0.17710331 0.11269835 0.16828433 0.013045399 0.018594204
-0.11441541 -0.050845172 0.09231542 0.1617759 0.019193582 0.050042875 -0.15957788 0.084168255
-0.2253866 -0.15075094 -0.1711714 -0.1459524 0.1281743 -0.061714068 0.13793205 0.026598368
-0.050025284 -0.045832828 -0.05246702 0.10241082 -0.01565652 -0.076016665 -0.011067723 -0.20868215
0.0311557 0.011371239 0.18291272 0.08431395 -0.17205481 0.080321535 -0.080702305 -0.052874006
0.19001734 0.18771902 0.13380192 0.0931413 0.014552485 0.12065379 -0.041775737 -0.0036977318
0.023230514 -0.21981154 0.038123757 0.15483133 0.22414355 -0.04002895 -0.031179653 -0.06327538
-0.047516227 -0.0442665 0.060424544 0.16018249 0.2299728 0.23503265 0.052382417 0.006219678
-0.1732002 -0.07690522 -0.10316789 -0.019283729 0.04474684 -0.04165124 0.0987272 0.16019572
0.045399625 0.18286511 -0.0608814 0.12216022 -0.06975529 -0.13434698 0.19593988 -0.21180399
0.21242923 -0.062343854 0.25656897 -0.019621778 -0.21211931 0.22451368 0.0035551002 -0.2160947
0.10019813 -0.027839089 -0.11191975 0.08395564 0.19122112 0.07098884 0.058141034 -0.044212706
-0.19396406 0.08343832 -0.2561355 0.024119621 0.101190194 0.053102225 -0.1864479 -0.18155973
0.042309433 -0.08482124 0.17067394 0.2585456 0.16215503 0.18658413 -0.083815485 0.034246687
-0.19162525 -0.005858813 -0.2207371 -0.14799951 0.1907204 -0.22594644 -0.17635609 0.15829721
-0.08933177 0.17504989 -0.13644882 0.26143217 -0.1506745 0.09020048 -0.075886585 -0.029511016
0.25115767 0.00034460443 0.25787786 0.07302691 -0.11319939 0.07721362 0.021795213 -0.014666191
0.013418887 0.22384849 -0.112635314 -0.07586945 0.14428738 -0.056357846 -0.024839701 -0.107120916
-0.1336612 -0.08210654 -0.18012542 0.038368393 0.030552924 0.20130883 -0.011970304 -0.046448883
-0.084015824 -0.03655727 0.1039187 0.25183976 0.088467926 0.23743424 -0.25643903 0.034468785
0.008995845 -0.17899872 -0.05867321 -0.17364088 0.1122214 -0.004212719 0.04196437 0.02931224
0.012801366 0.22145021 -0.06341969 0.002287628 -0.20255943 -0.11679486 0.056158397 -0.09956882
0.21584626 -0.0014626104 0.13181102 0.09639585 -0.026952006 0.012407209 -0.16587318 -0.09088617
-0.088821515 0.018812558 0.0656691 0.0040015476 0.042496726 -0.07273945 -0.0020793735 0.107735716
0.045740176 -0.22135334 0.053112715 0.031134028 -0.071892545 0.020748328 0.121968575 -0.08792425
0.07034025 -0.16783164 0.0021345592 -0.06468222 0.19833331 0.1314172 -0.12958895 -0.050766043
0.122929685 -0.022746466 -0.15805322 0.072276324 -0.07556136 -0.17281358 -0.16813284 -0.091092914
-0.18633762 -0.12366574 -0.0036992242 -0.055409603 -0.03491475 0.12375203 0.11441388 0.0131011745
0.11125664 -0.062521614 0.19923897 -0.22609767 -0.15447634 -0.0751595 0.08919372 -0.18873431
0.08237017 0.27416041 0.14865622 -0.046898805 0.13713469 -0.0051944912 0.03870692 -0.06656245
-0.07600407 0.06075447 -0.14567651 0.034423012 -0.025691342 0.18014818 -0.04572992 -0.18957353

lstm.bias_ih_l1 f4 [192]
00000000: 50bf 48be 2fab 29be 14c0 11be 89a9 a5bd
00000010: 8dba 703d 2ecf 8bbe 2823 773c 051d d2bd
00000020: 8396 35be fc28 9dbd a99a cfbd ca1b 82bd
00000030: 5cdd c2bd bdb6 51be d4da 003e 70a3 2bbd
00000040: 8fe9 29be cf99 babd e1fe 883c 9dea 9cbd
00000050: c9dd 8e3d a262 ae3d d36f 893d ff5c f9bc
00000060: d756 c33d 97d1 a7bd 96ea 0cbc 4c97 4fbe
00000070: 235d 72be 83ca 6b3d 7b22 31be fbc1 b0bd
00000080: 679e 693e 3648 27bd b3ab 43be fcb1 b4bc
00000090: c75a 4e3d f3e9 38be 409d 44bd ce2b e53d
000000a0: 2315 b1bd 803a 27bd 9f80 c73d 53c3 6fbe
000000b0: 4549 74bc 776f 9cbd e721 52be f0dd 1c3e
000000c0: a30a b7bd daf8 2ebd 29a9 41be 5f68 5dbe
000000d0: c1c4 9f3d b96a febd a4d3 3bbe 3b62 1abe
000000e0: fe38 6d3c 32f3 80bd 58b6 0ebd a669 08be
000000f0: 99cf f2bc 9da0 c1bd 8940 38be 3fa8 f9bd
00000100: 8b08 2dbe f41b c43c 3c29 d9bc a451 1a3c
00000110: 574c 7fbd 0fbb 283d b97c 8cbd 8ebb 65be
00000120: e7d6 853d 8fc8 eabd e40b e63d f87f 42be
00000130: 0925 61be e6ef 60be a247 80be 929d 383d
00000140: 8adc 813d 02b7 21be a740 47be 0857 8ebe
00000150: 39ad 073c 99c0 bebc 5856 5bbe 22e1 05be
00000160: f370 13bc 47ea 4fbe aa34 07be 472b 87bd
00000170: 1cad 6ebe fd7e 10be 1dff e2bb 0dd1 17be
00000180: 105f a9bd ccb6 5cbd 1c89 1cbc d6b2 9eba
00000190: da94 29bd 8ee2 9ebd 0139 e7bb 86c2 2d3d
000001a0: 8309 0f3c 6737 8bbd 29c3 8f3d ea57 3cbe
000001b0: 622d d43d 5b9a b4bd 0079 123e 304d b03b
000001c0: 3d9b 273e 0eaa 4b3d f97c c03d 9e6e c93d
000001d0: 2e32 89bd 1fd5 4ebe b9c9 223e 5d32 923d
000001e0: 6e22 613e 5584 0c3e 8592 303e 9f5f 5c3d
000001f0: 4acd 41bd f38c d03c f779 2d3d 1a36 d6bd
00000200: 558f cfbd 5e58 d1bd b497 10bd 3546 e0bd
00000210: cebf 2d3e 4e95 a03d 5495 c8bd aef4 b03d
00000220: 0226 203d 69ff 10be f553 92bc 7419 d2bd
00000230: 8534 023e b559 6fbd 1aa3 ae3d 0ff6 c73c
00000240: 78f5 f0bd bb48 8a3d 3d35 c0bd f13a cc3c
00000250: f952 b73d 42ec 5bbe 77b0 8fbd a320 823d
00000260: 5aa9 32be 7615 14be 3725 383d 2692 d8bd
00000270: e920 213d 803c 68be ed7a 353d 0929 f53c
00000280: cc26 923d 2fe8 493d 7bbf 1ebd 5235 9dbb
00000290: 0f9e e2bd e3ff 423d d148 323d 8a93 57be
000002a0: 0d56 563b a3f4 b23d 7c1d b73d dd93 24be
000002b0: 37fd 8dbc 7aa9 d6bd 9aaf 21be 8355 0cbe
000002c0: 5cac 2e3d 335f 89bc 9da0 32be 1c97 4e3c
000002d0: 03ae f93d 75c4 9fbe 1c9c 4bbd 9321 22bd
000002e0: e2f8 563c 82b8 f7bd 12a0 36bd 8015 73be
000002f0: 629f 31bd 6f36 423d 8d17 24be aba8 c23d
-0.1960423 -0.16569208 -0.14233428 -0.08088977 0.05877166 -0.27306503 0.0150840655 -0.10259441
-0.17733197 -0.07673833 -0.10136921 -0.063529566 -0.09514877 -0.20479865 0.12583476 -0.041903913
-0.16593002 -0.09111368 0.016723098 -0.076619364 0.06975896 0.085149065 0.06710782 -0.030439852
0.09538048 -0.08194273 -0.0086008515 -0.20272559 -0.23668341 0.057566177 -0.1729831 -0.08630749
0.22814332 -0.04084035 -0.19108467 -0.022057526 0.05037954 -0.18057995 -0.048001528 0.11189996
-0.0864661 -0.040827274 0.097413294 -0.23414354 -0.014910047 -0.07638448 -0.20520745 0.15319037
-0.08937576 -0.042717792 -0.18912186 -0.21621846 0.078012 -0.124226995 -0.18342453 -0.15076534
0.01447892 -0.06296386 -0.034841865 -0.13321552 -0.029640006 -0.09454463 -0.17993368 -0.121902935
-0.1689779 0.02393911 -0.02650892 0.009418879 -0.062328663 0.041194018 -0.068597265 -0.22434828
0.0653513 -0.11464035 0.11232737 -0.18994129 -0.21986784 -0.21966514 -0.25054651 0.045072146
0.063408926 -0.15792468 -0.19458257 -0.27800775 0.008281046 -0.023285197 -0.21419656 -0.13074163
-0.008999097 -0.20304213 -0.13203683 -0.066000514 -0.23308223 -0.14110942 -0.0069273845 -0.1482584
-0.08270085 -0.053885266 -0.009554174 -0.0012107741 -0.04140172 -0.077580556 -0.007056356 0.04242184
0.008730295 -0.067976765 0.07019646 -0.18392912 0.103602186 -0.088185035 0.1430397 0.005380295
0.16367812 0.049722724 0.09398837 0.09835552 -0.06699024 -0.20198487 0.15897264 0.07138512
0.2198579 0.13722356 0.17243393 0.05380213 -0.04731492 0.025457835 0.042352643 -0.10459538
-0.1013476 -0.10221933 -0.035300925 -0.10950891 0.16967699 0.078409776 -0.09794107 0.08640419
0.039098747 -0.14159931 -0.0178623 -0.10258761 0.12715347 -0.05843516 0.08527203 0.024409322
-0.117655694 0.067521535 -0.093851544 0.02493045 0.08951373 -0.21476844 -0.0701608 0.06353881
-0.17447415 -0.14461312 0.044957366 -0.105747506 0.039338026 -0.22679329 0.044306684 0.029926794
0.07136306 0.049293693 -0.03875683 -0.004797616 -0.110653035 0.047607314 0.043526474 -0.21052375
0.00327051 0.08738067 0.089411706 -0.1607203 -0.017332656 -0.10481544 -0.15789643 -0.13704495
0.042644843 -0.016769027 -0.17444082 0.0126092695 0.12191393 -0.31204572 -0.049709424 -0.0395828
0.013120862 -0.12095739 -0.04458625 -0.2373867 -0.04336489 0.047415193 -0.16024609 0.09504827

lstm.bias_hh_l1 f4 [192]
00000000: 7609 5abe 0e3f 20be b7b3 01be 1c39 a1bc
00000010: 192e 54bd c883 60be d09b 283d 83f0 d83c
00000020: 8d04 fe3c 710e 6bbe 29cd c23d 7193 11be
00000030: a261 acbd 0e10 34be a4a0 e73a 67bb bcbd
00000040: d164 a2bd 33e6 c33d 26cf bd3d 035c a83d
00000050: 8e34 173d 32bd ce3d ad37 933d 334f b0bd
00000060: 719c 063e d187 b53d 619b 193d 8960 71bd
00000070: 4959 e0bd d87c 11be cc17 08be 7486 9a3c
00000080: 138d 513e 2cb7 47be 28c7 6dbe 5304 5e3d
00000090: fbc2 44bc 0562 97be ee2a 6abd 007d 02be
000000a0: 154b c2bd a0db 07be bc09 603c d5f0 86be
000000b0: db32 75be 27a8 99bc 29f6 4ebe a116 c03d
000000c0: 6c10 55be 6d62 2c3d b8a7 17be 4993 afbc
000000d0: c2a8 c43d 758d a8be 18e3 b1bd f0c4 133d
000000e0: 5522 e9bd 0dd6 26bd 04e1 44bd 25e0 e4bd
000000f0: f354 a9bd ecf5 5bbe 9337 933d 5e93 5ebe
00000100: be09 0abe bfc5 c6bd 767a 0ebe 6185 dabd
00000110: 03f8 90bc 4060 a1bd ef63 bf3d 3780 0abe
00000120: 39cf c3bc 3651 87bc e25c 87bc c2b0 25be
00000130: 2463 f3bc 5637 89be a859 d8bd 13f4 47be
00000140: f81b 53bd d3c2 38be b779 71be 68d5 12be
00000150: 0718 27bd 702f 16be 8ea2 afbe d45d 4c3d
00000160: 1e1f 3bbe f715 1c3d 979b a9bc 1113 8fbe
00000170: 63e5 fabc 6c89 27be f870 863d 7d31 68bd
00000180: d242 1bbc 032b 05be 324d febb 68d8 033d
00000190: c230 63be 897c bbbc e640 77bd fe8b 56bd
000001a0: 72d2 cb3d 7e5b e1bd 95f3 433d 063e f63c
000001b0: db1b ecbd 3140 08be 00c5 243e 501d c23d
000001c0: f433 fdbc d10c 0d3d 650e a3bc 7283 2dbe
000001d0: c16a 16bc 06ba 863d cf57 333e 4c1a 2d3d
000001e0: b882 823e b94d 2e3e 8d7f c63d 8631 78bd
000001f0: 45eb 3abd 5dae 103b 1e2f 1c3d e0f7 f3bd
00000200: 087d fdbd 6694 ecbd e87c 8f3d 6256 c2bc
00000210: 41e2 453e 7481 5cbc a4fb 5d3c 4786 343e
00000220: c864 1abe 0fa7 d73d 4bba 2d3b 89fb bd3c
00000230: 41d7 9f3c 378d aebd 4c3f f0bc 0af9 dc3d
00000240: 357d 1abe 8f57 acbd 29e7 a8bd 51f2 6ebe
00000250: 9280 f73d 6c2c b0be 3fd5 fbbd 99a4 c8bd
00000260: 964c 223c b97a 65be bc3d 843c 3507 ef3d
00000270: 11d5 863b 9a12 24be 62c3 3ebb df5f 22be
00000280: 2964 eb3c e72a 383d cf12 003d d9b6 bfbd
00000290: af2d e4bd e3cf 15be 6617 033d 8193 81bd
000002a0: 8fa1 fb3d 0167 103e 2346 0bbe ae6f 8bbe
000002b0: df5f 27bd 9262 913b 3619 57be 618d e4bd
000002c0: e85a 1a3e c91e ccbc 6f22 abbc 39bd bd3d
000002d0: 02d5 5d3d d7af 0fbe 6c3a 69bd ef93 cf3c
000002e0: 1b31 8d3d 95b8 38be 1c21 a0bd 2191 e8bd
000002f0: dcec debd 938c 21bc cfea 2fbd b0af b2bc
-0.21292672 -0.15649053 -0.12666212 -0.019680552 -0.051801775 -0.2192527 0.04116422 0.026481872
0.03100803 -0.22954728 0.095117874 -0.142164 -0.084170595 -0.1758425 0.0017671776 -0.09215432
-0.079293855 0.095653914 0.09268026 0.08220675 0.036915354 0.1009468 0.07188354 -0.08608856
0.13145615 0.088637955 0.037501696 -0.058929954 -0.1095453 -0.1420778 -0.13290328 0.01886294
0.20463972 -0.19503468 -0.23220503 0.054203343 -0.012009378 -0.2956697 -0.057169847 -0.12742996
-0.09486977 -0.13267374 0.013674196 -0.26355615 -0.23945181 -0.01875694 -0.2021109 0.09379316
-0.20807046 0.042086054 -0.14810073 -0.021432536 0.096025005 -0.32920423 -0.08685893 0.036076486
-0.113835014 -0.04073148 -0.048066154 -0.11175565 -0.08268156 -0.2148053 0.07188334 -0.21735904
-0.13480279 -0.09705686 -0.13913903 -0.10669971 -0.017696386 -0.07879686 0.09345233 -0.13525473
-0.023902522 -0.016518217 -0.016523782 -0.16180709 -0.02971036 -0.2680003 -0.105639756 -0.195267
-0.051540345 -0.1804307 -0.23581587 -0.1433922 -0.0407944 -0.14666533 -0.34303707 0.04989417
-0.18273589 0.038106885 -0.020704074 -0.27944234 -0.030626958 -0.16361016 0.06564516 -0.05668782
-0.00947638 -0.13004689 -0.0077606672 0.032188803 -0.22186568 -0.022886531 -0.060364626 -0.0523796
0.09952249 -0.11003779 0.04783972 0.030058872 -0.115287505 -0.13305737 0.16090775 0.09478247
-0.030908562 0.03443605 -0.019904325 -0.16944674 -0.009180726 0.0657845 0.17513965 0.042261407
0.25490355 0.17021836 0.09692297 -0.060594104 -0.045634527 0.0022076585 0.038130872 -0.11912513
-0.123773634 -0.11551742 0.07006246 -0.023722831 0.1932459 -0.013458598 0.013548765 0.17629348
-0.15077507 0.10529911 0.0026508744 0.02319123 0.01951182 -0.08523028 -0.029327057 0.10789688
-0.15086825 -0.08415138 -0.08247215 -0.23334624 0.1208507 -0.3440889 -0.12296533 -0.097970195
0.009905955 -0.22410096 0.016142718 0.116712965 0.004114755 -0.16022721 -0.0029108156 -0.15856884
0.028734284 0.04496279 0.031267937 -0.09361047 -0.11141526 -0.14630084 0.032004736 -0.06326962
0.12286674 0.14101793 -0.13600974 -0.27233642 -0.040862914 0.0044367993 -0.21005711 -0.111597784
0.1507374 -0.024917023 -0.020890443 0.09264607 0.05415822 -0.14031921 -0.05694048 0.025339095
0.06894132 -0.18039162 -0.07818815 -0.11355806 -0.10885021 -0.009860176 -0.04294854 -0.02181229

linear.weight f4 [2, 48]
00000000: 4e57 b9bc 0884 1fbe b364 f0bc 7d80 623d
00000010: 6b27 29be 3d1f 87bd 0d3b 503e eb1a 52bd
00000020: eb64 6e3e 875d 373e 9966 223e e355 83bc
00000030: 3bee 70be 9543 243d d63f 5a3d 3091 c4bd
00000040: 9225 3f3b cb76 0a3d c385 28be e67e 48be
00000050: 99c2 46bd 8c9f c1bd 2ae9 3e3d c825 ebbc
00000060: 28f1 d33d 7817 1b3d 7b3b 673e 2bef 063e
00000070: d388 a4bd 2996 413e 6b2e 0c3e 9fbd a03d
00000080: 2e42 423e 8765 12be 53c5 02be 8d7e 13be
00000090: 3029 413e c611 c7bc 4588 2fbe 773f 183e
000000a0: ff73 3bbe 89df 8ebc 4ab2 1dbe ad22 ed3d
000000b0: 2bbe cf3d 69cf 41be ea64 d03d 60eb 213e
000000c0: 7920 58bd 5f79 aabd 56c2 19be e6c5 ff3d
000000d0: 05a2 43be ca5c f83c 1d67 a3bd 7c42 00be
000000e0: 0388 0abd 9657 0fbd 8209 113e 4dcd 42be
000000f0: 68de 673d dc2c 08be b9bd 1f3e 596a 1b3e
00000100: bba4 3a3e 7783 ee3d c33e 4dbd 2f33 9b3c
00000110: 852d dabd 04f4 17be d335 573e a800 113e
00000120: b0bf 803e 62f6 473e 3cf2 f8bc f8c0 58bd
00000130: 4e0d 003d 9516 f9bd be7e 0abe 8b61 12be
00000140: e4e3 8cbe a0e3 7cbc c037 5b3d 5272 053d
00000150: fe7d 493d ad37 673c 4779 793d a035 413d
00000160: 7077 85bc 9e2f 14be f949 abbd aa81 99bc
00000170: cda6 df3c e828 afbd acd7 d23c 885d 1c3e
-0.022624638 -0.1557771 -0.029344892 0.055298317 -0.16518943 -0.06597755 0.20335026 -0.051295202
0.23280685 0.17906772 0.1585945 -0.016032165 -0.23528378 0.040103514 0.053283535 -0.09598005
0.002916668 0.033804696 -0.16457276 -0.19579658 -0.048525427 -0.09454259 0.04660908 -0.028704539
0.10348731 0.03786418 0.22581284 0.13177173 -0.0803391 0.18904938 0.13689582 0.07848667
0.18970558 -0.14296542 -0.12770586 -0.14403744 0.18863368 -0.024300467 -0.17141826 0.1486796
-0.18305968 -0.017440574 -0.15400043 0.115788795 0.101436935 -0.18926777 0.10175498 0.15812445
-0.052765343 -0.08323931 -0.1501554 0.12488918 -0.19104774 0.030317683 -0.07978652 -0.12525362
-0.033821117 -0.034995638 0.14163783 -0.19023629 0.056608588 -0.13298362 0.15599717 0.15177287
0.18226902 0.11646169 -0.050108682 0.018945305 -0.106532134 -0.14839178 0.21016626 0.14160407
0.25146246 0.19527581 -0.030388944 -0.052918404 0.03126269 -0.1216251 -0.13524911 -0.14295022
-0.27517617 -0.015435129 0.053519964 0.032579727 0.04919242 0.014112395 0.060906675 0.04717028
-0.016292304 -0.1447129 -0.083637185 -0.018738586 0.027301216 -0.08552724 0.025737606 0.15270054

linear.bias f4 [2]
00000000: 28db 463e 7b5c 333e
0.19419539 0.17515747
