checkpoint/training_epochs_100_stepsize_7_gamma_0.75/model_epoch30.pth (torch, 117569 bytes, 10 tensors)

lstm.weight_ih_l0 f4 [192, 2]
0	0x3dc66fb8	0.096892774
1	0xbd63ca64	-0.055612937
2	0x3df4c6c2	0.119519725
3	0xbddbe532	-0.10737075
4	0xbedece7f	-0.4351692
5	0x3bf9582f	0.0076093893
6	0xbd156588	-0.03647378
7	0x3b423951	0.0029636214
8	0x3e35ff6c	0.17773217
9	0x3e0f751d	0.14009519
10	0xbe4bc4bb	-0.19899265
11	0x3ca56b35	0.020192722
12	0x3b498874	0.0030751498
13	0x3d3830bf	0.044968363
14	0xbe278333	-0.16358642
15	0xbe7e87a5	-0.24856432
16	0x3cdeface	0.027219202
17	0x3dde350b	0.10849961
18	0x3c45ec5e	0.01208028
19	0xbd823a7a	-0.0635881
20	0xbebac946	-0.36481684
21	0xbe2f0593	-0.1709197
22	0xbc98254c	-0.018572472
23	0x3c8b686b	0.017017564
24	0xbd63042f	-0.05542391
25	0xbc8af527	-0.0169626
26	0xbd9a4f5e	-0.07534669
27	0xbdcccfa5	-0.100005426
28	0x3e3aace7	0.1823002
29	0xbdf9225c	-0.12164757
30	0xbe8763af	-0.2644324
31	0x3de15b9c	0.11003801
32	0x3e33b134	0.17548066
33	0xbd9d2b83	-0.07674315
34	0xbcea90ec	-0.028633557
35	0xbe907139	-0.28211382
36	0xbe3afbc0	-0.18260098
37	0xbe0040bf	-0.12524699
38	0x3e4a8a9b	0.19779436
39	0x3ead8f94	0.33898604
40	0xbe44742d	-0.19184943
41	0xbd7adaec	-0.061243936
42	0x3e82094c	0.25397718
43	0x3e2758dd	0.16342492
44	0xbd171b29	-0.036891136
45	0x3e0e5f7a	0.13903609
46	0xbddfcbf7	-0.10927575
47	0xbd5d2de9	-0.05399886
48	0xbdf2dd51	-0.11858619
49	0xbe4a1d60	-0.19737768
50	0xbe141390	-0.14460588
51	0xbe6c6fd7	-0.23089539
52	0x3d1f7143	0.038926374
53	0xbdbc09b9	-0.09181542
54	0xbd4cc50f	-0.049992617
55	0xbdd1a14f	-0.10235845
56	0xbda3fec3	-0.08007576
57	0x3dc9f6e0	0.09861541
58	0x3e79c88e	0.24392912
59	0x3e120de3	0.1426311
60	0xbd10ca68	-0.03534928
61	0xbe2c94e4	-0.16853672
62	0x3e881b1b	0.2658318
63	0x3d8842ad	0.066533424
64	0x3cc407ef	0.023929564
65	0xbe0d3e83	-0.13793378
66	0xbcecb57c	-0.028895132
67	0xbd8556b5	-0.06510679
68	0x3e6449f6	0.22293839
69	0x3e948f8a	0.29015762
70	0xbe27ac1c	-0.16374248
71	0xbe2426c0	-0.16030407
72	0x3d62c615	0.055364687
73	0xbdee5a82	-0.11638357
74	0x3e76c9f5	0.24100478
75	0xbe817dcb	-0.25291285
76	0xbebab184	-0.3646356
77	0x3e0f522e	0.13996193
78	0x3da5bd4a	0.08092745
79	0x3e4dcd82	0.20097926
80	0x3d96c117	0.07361048
81	0xbdd26fd3	-0.10275235
82	0x3d777857	0.0604175
83	0xbd9b2b1b	-0.07576581
84	0x3c362353	0.01111682
85	0x3e2937f2	0.16525248
86	0xbe2ce8bf	-0.1688566
87	0xbc58efff	-0.013240813
88	0xbe5111e4	-0.20416981
89	0xbe171f97	-0.14758144
90	0x3eacd0a7	0.3375294
91	0xbdb297a5	-0.0872033
92	0xbe623d76	-0.22093758
93	0xbe980eee	-0.2969889
94	0x3d5a53cf	0.053302582
95	0x3e1911f3	0.14948253
96	0x3e4b6890	0.19864106
97	0x3e77ee11	0.24211909
98	0x3d857050	0.065155625
99	0xbd6f28c7	-0.058388498
100	0xbee1617c	-0.44019687
101	0x3dcc10c0	0.09964132
102	0xbe352f41	-0.17693807
103	0x3d77917c	0.06044148
104	0x3e5e3eb0	0.21703601
105	0x3ebe5057	0.3717067
106	0xbe5e98bf	-0.21737956
107	0xbd79b3f4	-0.060962632
108	0x3c633f7c	0.013870116
109	0xbde1bcf9	-0.11022372
110	0xbe37fb85	-0.17967041
111	0xbe696ac7	-0.22794639
112	0x3e8e6280	0.27809525
113	0x3e97efad	0.29675046
114	0xbe34e024	-0.17663628
115	0xbda6c8fe	-0.08143805
116	0xbe6caa15	-0.23111756
117	0x3d2b4ed9	0.04182324
118	0x3c56d070	0.013111219
119	0x3d01979d	0.03163873
120	0xbbda06f5	-0.0066536614
121	0x3e1c866c	0.15285653
122	0xbdd4464f	-0.10364973
123	0xbde5b2f9	-0.11215777
124	0x3e35a911	0.17740275
125	0xbe5c9b14	-0.21543533
126	0xbd4817d0	-0.048850834
127	0x3d822b6b	0.063559376
128	0x3d86640a	0.0656205
129	0xbd608bad	-0.054820705
130	0x3d177168	0.036973387
131	0x3b72f137	0.0037070045
132	0x3de8a88e	0.11360274
133	0xbdd120e8	-0.102113545
134	0x3dd2f51e	0.10300659
135	0x3e5a3ea1	0.21312954
136	0xbe50bbda	-0.2038416
137	0x3dc835b4	0.09775868
138	0x3ea63ae1	0.32466796
139	0x3e977788	0.29583383
140	0xbd24e106	-0.04025366
141	0xbe37da18	-0.1795429
142	0xbdd8fb47	-0.10594802
143	0x3d205dcf	0.039151963
144	0x3af17f15	0.0018424714
145	0xbc21cc40	-0.009875357
146	0xbd04fde1	-0.03246868
147	0xbcf77d66	-0.030211162
148	0x3e006bf0	0.12541175
149	0x3da645cf	0.08118784
150	0x37354f86	1.0806956e-05
151	0xbdcd1666	-0.10014038
152	0xbd884e48	-0.06655556
153	0x3ea8a4cc	0.3293823
154	0x3d94a475	0.0725793
155	0x3d12ea54	0.035868004
156	0x3d460be5	0.048351187
157	0xbe304e96	-0.17217478
158	0x3c066027	0.008201635
159	0xbd4b370d	-0.049613047
160	0x3d9e522b	0.07730516
161	0xbe9004c4	-0.28128636
162	0x3c1dd47c	0.00963318
163	0x3d17e4cd	0.037083436
164	0x3d73200d	0.059356738
165	0xbb734fac	-0.0037126346
166	0x3dbef013	0.09323134
167	0x3cbaf8bc	0.022823684
168	0xbe12305e	-0.14276263
169	0xbe53f2fb	-0.20698158
170	0x3e08eebd	0.13372321
171	0xbe5a98de	-0.21347377
172	0xbf0137ee	-0.50475967
173	0x3e4f38c1	0.20236494
174	0xbb65cd52	-0.0035065007
175	0x3ca88e34	0.02057562
176	0xbcb4102a	-0.021980364
177	0x3e6947f7	0.22781359
178	0x3da93c24	0.08263424
179	0xbe0e5e9d	-0.1390328
180	0xbcf1e79c	-0.029529385
181	0x3e6f0f82	0.2334576
182	0x3df96abd	0.12178562
183	0x3e2a1b44	0.16611964
184	0xbe1494e1	-0.14509918
185	0xbe6434f9	-0.22285832
186	0xbe0674b4	-0.13130456
187	0x3daa517a	0.08316322
188	0xbe12ad21	-0.14323856
189	0x3cadd5dd	0.021220142
190	0x3d20a5b0	0.039220512
191	0x3d3a0f4a	0.045424737
192	0x3e7340e6	0.23755226
193	0x3dbdcdf1	0.09267796
194	0x3e9dbb23	0.30806836
195	0xbe7e786b	-0.24850623
196	0x3eafc4e8	0.34329915
197	0x3e1c12ec	0.15241593
198	0xbe775e3e	-0.24157044
199	0x3e49f36a	0.19721761
200	0x3d3b56ea	0.045737185
201	0xbeb8ffee	-0.3613276
202	0xbe71fa25	-0.23630579
203	0xbeb8e2b0	-0.3611045
204	0x3e236937	0.15958105
205	0x3e57e36d	0.2108285
206	0x3cce06c3	0.025149709
207	0x3d74ec2b	0.05979554
208	0xbe89a876	-0.26886338
209	0xbe178670	-0.14797378
210	0xbe8226f0	-0.25420332
211	0x3e092bea	0.13395658
212	0x3e43f638	0.19136894
213	0x3e00719d	0.1254334
214	0x3e685a71	0.2269075
215	0x3dbfea23	0.0937083
216	0x3d28f442	0.041248567
217	0xbe054ed0	-0.13018346
218	0xbe6e3fd2	-0.23266533
219	0x3e86937e	0.26284403
220	0xbe9e8046	-0.3095724
221	0x3de50894	0.11183277
222	0xbe5ed5b9	-0.21761216
223	0xbe5bc367	-0.21461259
224	0xbe92d639	-0.28679064
225	0x3e982aae	0.29720062
226	0xbea1c7bc	-0.31597698
227	0xbb0aeb22	-0.002119728
228	0xbe5b22e0	-0.21400023
229	0x3e4af7c3	0.19821076
230	0x3e8b6aa5	0.272298
231	0xbea68b0b	-0.32527956
232	0x3d9f9fd6	0.07794158
233	0x3e200f97	0.15630947
234	0x3e9fbbbd	0.3119792
235	0x3e8d4798	0.27593684
236	0xbe1eef11	-0.15520884
237	0xbe40f1e5	-0.18842275
238	0x3d505845	0.05086543
239	0x3e891d87	0.2678034
240	0x3da76dac	0.08175215
241	0xbeaa4e44	-0.33262837
242	0x3e40e4f8	0.18837345
243	0xbe7f4a8a	-0.24930778
244	0x3ec2f7eb	0.3807977
245	0x3e3fe264	0.18738705
246	0xbe822d0d	-0.25424996
247	0x3e810c4c	0.25204694
248	0xbd85bec9	-0.0653053
249	0x3e606a27	0.21915494
250	0xbef31d12	-0.47483116
251	0x3d1ae737	0.03781816
252	0xbd907749	-0.07054002
253	0x3e53d2e4	0.20685917
254	0x3e8b5e70	0.27220488
255	0xbe98d323	-0.29848585

lstm.weight_hh_l0 f4 [192, 48]
0	0xbdaf096f	-0.08546721
1	0xbd23dff3	-0.040008496
2	0x3e6d5f09	0.23180784
3	0x3e003733	0.12521057
4	0x3d551de9	0.052030478
5	0xbe076faf	-0.13226198
6	0xbc3f5629	-0.011678257
7	0x3bb590eb	0.005540957
8	0x3cf6a3f7	0.030107481
9	0x3cd32b59	0.025777506
10	0x3d36adc0	0.044599295
11	0x3d6b7c6d	0.05749171
12	0x3daeeea3	0.0854161
13	0xbdc82dad	-0.09774337
14	0x3e176e03	0.1478806
15	0xb9557a40	-0.00020358805
16	0x3e8ea931	0.27863458
17	0x3e2087f3	0.1567686
18	0x3e477bbe	0.19480798
19	0xbea831c1	-0.3285046
20	0x3dc710a6	0.09719972
21	0x3a97c853	0.0011580087
22	0xbe5a0777	-0.2129191
23	0x3d90c40c	0.07068643
24	0x3c21a384	0.009865645
25	0xbd75fd0a	-0.06005577
26	0xbe12fa58	-0.14353311
27	0x3e7c5ec7	0.2464553
28	0x3cf7316f	0.030174939
29	0x3dee8553	0.11646523
30	0x3dae6aa6	0.08516435
31	0xbe4eabaf	-0.2018268
32	0x3aa09735	0.0012252094
33	0xbdff7102	-0.124727264
34	0xbbd890e6	-0.00660907
35	0x3d8a8e41	0.06765414
36	0xbc6c6d28	-0.014430322
37	0xbdd38bfb	-0.103294335
38	0xbe6325d8	-0.22182405
39	0x3d7f1048	0.062271386
40	0xbdd64acf	-0.10463487
41	0xbd5b72d7	-0.053576317
42	0xbd46d2d0	-0.04854089
43	0xbe5a521f	-0.21320389
44	0x3b396afd	0.002829253
45	0xbe590097	-0.21191631
46	0xbe2ad28c	-0.1668188
47	0xbe98b20b	-0.29823336
48	0xbc95bf17	-0.018279595
49	0x3e2742d9	0.16334094
50	0xbd89d268	-0.06729585
51	0xbe951aa7	-0.29121897
52	0x3c9bb5a0	0.019007504
53	0x3dfea994	0.12434688
54	0x3e141e60	0.14464712
55	0x3d1d65c4	0.03842713
56	0xbc88b0a7	-0.016685797
57	0xbda24267	-0.079228215
58	0x3b4e223a	0.0031453506
59	0xbe1b3115	-0.15155442
60	0xbd345eb6	-0.044035636
61	0xbd950a2a	-0.07277329
62	0x3bf576a8	0.0074909516
63	0xbd88039b	-0.06641313
64	0xbe85227f	-0.2600288
65	0xbe1a6650	-0.15078092
66	0xbd412ed1	-0.04716379
67	0x3ea62f6e	0.3245806
68	0xbda6e1fd	-0.081485726
69	0xbe360385	-0.1777478
70	0x3e314e69	0.17315067
71	0x3ca25904	0.019817837
72	0x3dda05a6	0.106456086
73	0x3d6be568	0.057591826
74	0x3e5fe253	0.2186368
75	0xbdca9878	-0.09892362
76	0xbd81430c	-0.06311616
77	0xbd4144df	-0.04718482
78	0xbdb7b31f	-0.089697115
79	0x3ecc3542	0.39884382
80	0x3e0b52d8	0.13605821
81	0x3e2257c6	0.15853795
82	0xbdd86205	-0.10565571
83	0x3e47da99	0.19516982
84	0x3e1dc619	0.154076
85	0xbc829909	-0.015942113
86	0x3e47154a	0.19441715
87	0xbe25bf30	-0.16186213
88	0x3d8508cd	0.06495819
89	0xbd39c9ab	-0.04535834
90	0x3d650296	0.05591067
91	0x3e362b54	0.17789966
92	0xbb99d98c	-0.004695123
93	0x3ddfc25a	0.109257415
94	0x3e119859	0.14218272
95	0x3e9b07ca	0.3027938
96	0xbd9d988b	-0.07695111
97	0xbdd0d0d5	-0.101960815
98	0xbed04bbc	-0.4068278
99	0x3ecefc56	0.40426892
100	0x3d7ddc97	0.06197795
101	0x3e2a58ba	0.16635409
102	0x3c76ad03	0.015055898
103	0xbe8adf6a	-0.27123576
104	0x3e7512a6	0.23932895
105	0x3ed508c1	0.4160824
106	0xbe022cf8	-0.12712467
107	0xbedee331	-0.43532708
108	0x3d49029f	0.049074765
109	0x3eeceb86	0.4627344
110	0x3ec0244f	0.375277
111	0x3ec7a465	0.3899261
112	0x3f074283	0.52835864
113	0x3eb14736	0.34624642
114	0x3e9d2370	0.306911
115	0xbe898801	-0.26861575
116	0xbe0c5021	-0.13702442
117	0xbecee2b0	-0.40407324
118	0x3db6cf19	0.089262195
119	0x3d3f63bf	0.046725985
120	0xbe33fd5a	-0.17577115
121	0xbe84060e	-0.2578587
122	0xbee6d5eb	-0.4508508
123	0x3e06a395	0.13148339
124	0xbbfd2b1c	-0.0077260863
125	0x3f3aa979	0.72914845
126	0x3ea9974b	0.3312324
127	0xbf20377f	-0.6258468
128	0xbecd9505	-0.40152755
129	0x3e8d0c96	0.27548665
130	0x3db42660	0.08796382
131	0xbe56aa5d	-0.20963426
132	0xbed39bfd	-0.41329947
133	0xbf2dd435	-0.6790193
134	0xbe4ac3ca	-0.1980125
135	0xbd2f94c3	-0.04286648
136	0x3cdbc87f	0.026829002
137	0xbdd56fa6	-0.10421686
138	0xbecbb26c	-0.39784563
139	0x3dbc4fcd	0.09194908
140	0xbdc518d5	-0.09623877
141	0xbe88ea99	-0.26741484
142	0xbe603ec3	-0.21898942
143	0xbe8eeacd	-0.27913514
144	0xbe04f1ce	-0.12982866
145	0x3e85ee58	0.26158404
146	0xbe616d2b	-0.220143
147	0xbc7de700	-0.015496969
148	0x3cf096e2	0.029368822
149	0x3c84ee45	0.016226897
150	0x3db17c43	0.08666279
151	0xbb6f202d	-0.0036487684
152	0x3af1c3f6	0.0018445242
153	0xbd6f844c	-0.058475778
154	0xbe2e2460	-0.17006063
155	0xbc4a0e50	-0.012332514
156	0x3cbdd628	0.023173407
157	0x3d9522cf	0.0728203
158	0x3c540872	0.012941467
159	0x3c2b8c8e	0.010470523
160	0xbe31e100	-0.17370987
161	0xbe077134	-0.13226777
162	0xbe426fd4	-0.18987972
163	0x3ee6cf81	0.45080188
164	0xbdabcb1b	-0.08388349
165	0xbe89d03f	-0.26916692
166	0x3e00dd9c	0.12584537
167	0x3dbc86fa	0.09205432
168	0xbd7c8277	-0.06164786
169	0xbdb5290a	-0.08845718
170	0xbdcf02b1	-0.10107935
171	0x3d8ea2a8	0.06964618
172	0xbe93112a	-0.28724033
173	0xbce12746	-0.027484547
174	0xbe245e3c	-0.16051573
175	0x3e4ddb51	0.20103194
176	0xbd885c85	-0.06658272
177	0x3e723b84	0.23655516
178	0x3e84ba7a	0.2592352
179	0x3e69ec1f	0.2284398
180	0x3d2eb711	0.042655054
181	0xbc9e68b0	-0.019337028
182	0x3dcc7ea7	0.099850945
183	0xbeb96930	-0.36213064
184	0xbd045488	-0.032307178
185	0x3dd463e9	0.10370619
186	0x3db6f138	0.089327276
187	0x3e0e71b6	0.13910565
188	0x3de47651	0.111553796
189	0x3e46963e	0.1939325
190	0x3df14c8b	0.117821775
191	0x3e921248	0.28529572
192	0x3e3dd55d	0.18538423
193	0x3cef101d	0.029182488
194	0x3ea64bab	0.32479605
195	0xbe49b9ac	-0.19699734
196	0x3e2e4727	0.1701933
197	0x3e001f4d	0.1251194
198	0xbd940fb1	-0.072295554
199	0x3e03ed49	0.12883486
200	0x3c50bce6	0.012740349
201	0xbea5a625	-0.3235332
202	0x3badbc64	0.005301999
203	0x3db4af99	0.08822555
204	0xbd830f40	-0.06399393
205	0xbe863562	-0.26212603
206	0xbe142eac	-0.14470929
207	0x3cebd1fe	0.028786656
208	0xbce29690	-0.027659684
209	0xbd053b03	-0.03252698
210	0xbe120542	-0.14259818
211	0x3e48c1c9	0.19605173
212	0x3e0b18e4	0.13583714
213	0xbd9680ec	-0.07348809
214	0x3e460099	0.19336165
215	0xbd86f43d	-0.065895535
216	0xbcf5ee78	-0.030020937
217	0x3e8a5269	0.27016
218	0xbbb20e2e	-0.0054338193
219	0xbd6bd905	-0.057580013
220	0xbe027511	-0.1273997
221	0xbe556203	-0.2083817
222	0xbdc3ee9b	-0.09566995
223	0x3e47cb7d	0.19511218
224	0x3e8ccf4a	0.275019
225	0xbaa592de	-0.0012632271
226	0x3db93b4e	0.090445146
227	0x3e23ebb6	0.16007885
228	0x3d8b6730	0.06806791
229	0x3e82f57b	0.25577912
230	0x3ebfb2bb	0.37441048
231	0xbdb1ee69	-0.08688051
232	0x3e12825c	0.1430754
233	0xbb0b5e32	-0.0021265862
234	0xbdd73d7b	-0.10509773
235	0x3d7ad177	0.061234917
236	0xbcaeec1f	-0.021352826
237	0x3dd59cd0	0.104303
238	0xbb125274	-0.0022326978
239	0x3e82c0e9	0.25537804
240	0x3ed854ae	0.42252105
241	0x3e871cde	0.2638921
242	0x3f00c872	0.50305855
243	0x3c03853b	0.00802737
244	0xbd71d294	-0.059038714
245	0x3e921f64	0.28539574
246	0xbd9c965b	-0.076458655
247	0xbdaba293	-0.08380618
248	0xbea56a20	-0.3230753
249	0xbee2b837	-0.4428117
250	0x3d08761a	0.033315755
251	0x3e36ce6b	0.1785218
252	0xbe6bc303	-0.2302361
253	0xbd80bb76	-0.06285755
254	0xbddf45e3	-0.10902002
255	0xbe302679	-0.17202176

lstm.bias_ih_l0 f4 [192]
0	0x3e0806cb	0.13283841
1	0xbd9bacf2	-0.07601346
2	0xbe82ec6a	-0.25570995
3	0xbe04533a	-0.12922373
4	0x3e563643	0.20919137
5	0xbde2ab4e	-0.1106783
6	0xbe50ffff	-0.20410155
7	0xbe5502e5	-0.20801885
8	0x3daa8738	0.08326572
9	0x3ca774b4	0.02044139
10	0xbe6f12ab	-0.23346965
11	0xbe37eae1	-0.17960693
12	0xbdaf8b36	-0.08571474
13	0xbcd6afcd	-0.026206875
14	0xbe20d32a	-0.15705553
15	0xbd6e8983	-0.05823661
16	0xbdf1b260	-0.118016005
17	0xbe37886d	-0.17923136
18	0xbdc58f03	-0.09646418
19	0x3e4e3fe2	0.20141557
20	0xbe7eb6b2	-0.2487438
21	0x3bc360d7	0.005962472
22	0xbcb346b3	-0.021884298
23	0xbcc5f318	-0.024163768
24	0xbdf01274	-0.1172227
25	0xbd8861a6	-0.0665925
26	0x3e0f7375	0.14008887
27	0xbb84f268	-0.0040572174
28	0xbe6cdcfa	-0.23131171
29	0x3e666c42	0.22502235
30	0xbc1c0f58	-0.009525143
31	0xbde454f1	-0.11149014
32	0xbb708a5a	-0.0036703558
33	0xbda57c6d	-0.08080373
34	0xbc73a61b	-0.014871146
35	0xbe0fbca3	-0.14036803
36	0xbe578ef2	-0.21050623
37	0xbe48dba3	-0.19615035
38	0xbde1c643	-0.110241435
39	0xbe1be360	-0.15223455
40	0xbe46d44f	-0.19416927
41	0x3ca61ab3	0.020276403
42	0x3df3b510	0.11899769
43	0xbe22a542	-0.15883353
44	0xbe7da9a1	-0.2477174
45	0x3e6d5a82	0.23179057
46	0xbe65c068	-0.22436678
47	0xbe252aeb	-0.16129653
48	0x3e93ee2c	0.28892648
49	0xbe0d72a1	-0.13813259
50	0xbd77602e	-0.06039446
51	0xbd226cd7	-0.03965458
52	0x3ec5e126	0.38648337
53	0x3e374395	0.17896874
54	0xbe85e821	-0.26153663
55	0xbda503c8	-0.08057362
56	0x3e484620	0.19558
57	0xbe3f6d5f	-0.18694066
58	0x3c3df2bd	0.011593518
59	0xbbea773a	-0.007155326
60	0x3d71c2fd	0.059023846
61	0xbd0593ab	-0.03261153
62	0xbe5694f2	-0.20955256
63	0xbd408fff	-0.047012325
64	0xbca28a59	-0.01984136
65	0xbcad2841	-0.021137359
66	0xbe1cfe84	-0.15331465
67	0x3dcfd917	0.101488285
68	0xbdefdc56	-0.117119476
69	0xbdf956a1	-0.12174726
70	0xbe763ad4	-0.24045879
71	0xbd737aac	-0.05944316
72	0xbd51ccc7	-0.05122068
73	0xbd5110ff	-0.0510416
74	0x3c80f7d8	0.015743181
75	0x3e1ebaf4	0.15501004
76	0x3da47e5d	0.080319144
77	0xbd9c5703	-0.07633784
78	0xbd4daed0	-0.050215542
79	0x3c8d132d	0.017221058
80	0xbd781be5	-0.060573477
81	0x3daff3d8	0.085914314
82	0xbdea937e	-0.11453913
83	0xbdbde88a	-0.09272869
84	0xbe50daa1	-0.203959
85	0xbe51802b	-0.20459048
86	0x3d2a9e7e	0.041655056
87	0x3d9ce0b5	0.07660047
88	0xbdd3dc10	-0.10344708
89	0x3d4163bb	0.04721425
90	0xbd832242	-0.064030185
91	0x3cc349fd	0.023838991
92	0xbea862ea	-0.32887965
93	0x3c32f9b4	0.010923792
94	0x3d95b902	0.07310678
95	0xbe05091f	-0.1299176
96	0xbd1e22f9	-0.03860757
97	0xbc9b5b4c	-0.018964432
98	0xbe33cd09	-0.17558683
99	0xbd865225	-0.065586366
100	0x3c7a2ef2	0.015269982
101	0x3ddadb6b	0.10686382
102	0xbdb96628	-0.09052688
103	0xbd553401	-0.052051548
104	0x3cb263b9	0.021776067
105	0x3d64d0f1	0.055863325
106	0xbe0c917c	-0.13727373
107	0xbd0a475f	-0.03375947
108	0x3d8eb7cb	0.069686495
109	0xbded6507	-0.11591535
110	0x3de0fcaf	0.109856956
111	0xbd13f357	-0.03612074
112	0x3daeb64f	0.08530866
113	0x3dfc05ca	0.12305792
114	0x3c321158	0.010868393
115	0xbcb803fb	-0.022462836
116	0xba6ad5ca	-0.00089582487
117	0xbe0479e1	-0.12937118
118	0x3c9d3a7d	0.019192928
119	0xbcc5250a	-0.024065513
120	0x3ddbdf9b	0.10736009
121	0xbd4704ba	-0.048588492
122	0xbe4b232e	-0.19837639
123	0xbbe9e9d6	-0.007138471
124	0xbd73c380	-0.059512615
125	0x3de7da08	0.11320883
126	0xbd1bcc19	-0.03803644
127	0x3db41881	0.08793736
128	0x3cac3beb	0.021024665
129	0x3cf8368a	0.030299444
130	0x3e0045cd	0.12526627
131	0xbd00a737	-0.03140947
132	0x3c0507a3	0.0081194965
133	0xbc029ea9	-0.007972398
134	0xbdf4ab32	-0.119467154
135	0xbd3db200	-0.046312332
136	0x3e191fa4	0.14953476
137	0xbe773182	-0.2413998
138	0xbe290b72	-0.16508272
139	0xbbb8760f	-0.005629308
140	0x3d5a04d5	0.053227264
141	0x3d4adec4	0.049528852
142	0xbe20dfba	-0.15710345
143	0xbd542ee9	-0.05180255
144	0x3dce8ede	0.100858435
145	0xbe008147	-0.12549315
146	0xbd892d57	-0.06698101
147	0x3da48015	0.08032242
148	0x3c5e0ced	0.013552886
149	0x3e063850	0.13107419
150	0xbe97e5e6	-0.29667586
151	0xbe382c3e	-0.17985627
152	0x3e353037	0.17694174
153	0xbdfabd07	-0.12243085
154	0xbde8e883	-0.11372473
155	0xbdd0b0a6	-0.10189943
156	0xbe32cd04	-0.1746102
157	0x3db22902	0.08699228
158	0xbdb0d3ca	-0.086341456
159	0xbdd3e1ae	-0.10345779
160	0x3e450ebe	0.19243905
161	0xbe30de10	-0.1727221
162	0xbe06c67d	-0.13161655
163	0x3d81c727	0.063368134
164	0xbe17a93f	-0.14810656
165	0x3d9005eb	0.07032379
166	0xbd0116e5	-0.031515975
167	0xbc7ce685	-0.0154358195
168	0xbe533985	-0.2062741
169	0xbc4e6acc	-0.012598705
170	0x3e1a20dc	0.15051597
171	0x3e1dfb3f	0.15427874
172	0xbd998163	-0.07495382
173	0x3e81a3ef	0.25320384
174	0x3d776816	0.060402
175	0x3e0a02fc	0.13477701
176	0xbe581be7	-0.21104394
177	0xbdcf35e3	-0.101177
178	0xbd181e24	-0.03713812
179	0xbe2c74bf	-0.1684141
180	0xbdadd63c	-0.084881276
181	0xbd0323aa	-0.032016434
182	0xbd9096e7	-0.07060032
183	0xbcc75ae3	-0.02433533
184	0xbcd1546c	-0.02555295
185	0xbd275e62	-0.040861495
186	0x3ddf8f41	0.109159954
187	0xbe4ca8f3	-0.19986324
188	0xbe81c341	-0.2534428
189	0x3e80d857	0.25165054
190	0xbe934761	-0.28765395
191	0x3d81095c	0.06300613

lstm.bias_hh_l0 f4 [192]
0	0x3c6beee4	0.014400218
1	0x3d032f50	0.032027543
2	0xbe91bb31	-0.28463128
3	0xbe1c3fbc	-0.15258688
4	0x3e6201c0	0.2207098
5	0x3dccf613	0.100078724
6	0xbe457868	-0.19284213
7	0xbebb8680	-0.36626053
8	0x3de39c97	0.111138515
9	0x3d952232	0.07281913
10	0xbd93d755	-0.07218806
11	0xbd251563	-0.0403036
12	0xbe1535a5	-0.14571245
13	0xbd91089f	-0.070817225
14	0xbe5021cf	-0.20325397
15	0xbe25763a	-0.16158381
16	0xbd4df8fa	-0.05028627
17	0xbd5a76a4	-0.0533358
18	0xbe788215	-0.24268372
19	0x3e3ccac5	0.18436725
20	0xbe5503ac	-0.20802182
21	0xbd4b8614	-0.049688414
22	0xbe391964	-0.18076092
23	0xbdd0e4a6	-0.10199861
24	0xbca84771	-0.020541878
25	0xbe671d71	-0.22569825
26	0x3daeff46	0.08544783
27	0xbe1b229f	-0.15149926
28	0xbdfd94f2	-0.12381925
29	0x3e9f6852	0.31134278
30	0xbe58aa13	-0.21158628
31	0x3d17859a	0.036992647
32	0xbde20a51	-0.11037124
33	0xbe4dc571	-0.20094849
34	0xbdd11907	-0.10209852
35	0xbe5f51f4	-0.21808606
36	0x3ce6548d	0.028116489
37	0xbe1f9fa3	-0.1558824
38	0xbe1769f4	-0.14786512
39	0xbb562de7	-0.0032681169
40	0x3a73532b	0.00092821073
41	0x3c06cc5d	0.008227435
42	0x3caa0be7	0.020757629
43	0xbe0d94d0	-0.13826299
44	0xbe431e71	-0.19054581
45	0x3e071410	0.13191247
46	0xbe335adf	-0.17515133
47	0x3ca8a22e	0.020585146
48	0x3e8da105	0.2766191
49	0xbe2234e0	-0.15840483
50	0xbe045119	-0.12921561
51	0x3ce984e9	0.02850576
52	0x3e76fc5d	0.24119706
53	0x3de06702	0.10957147
54	0xbe8cfdff	-0.27537534
55	0xbe1ed4ec	-0.15510911
56	0x3e823a93	0.25435314
57	0xbb0f74c7	-0.0021889673
58	0xbdbbfff2	-0.09179677
59	0xbe1e4e4f	-0.1545956
60	0x3e515422	0.2044225
61	0x3cd438ed	0.02590605
62	0xbe3e11e3	-0.1856151
63	0x3d50d5dd	0.050985206
64	0x3caac4dd	0.020845825
65	0xbc4d9b21	-0.012549193
66	0xbe6d83ac	-0.2319476
67	0x3da80405	0.08203892
68	0x3c0f59a3	0.008749398
69	0xbd1dcecc	-0.038527295
70	0xbe0249d2	-0.12723473
71	0x3c7ef000	0.01556015
72	0xbe00ea8f	-0.12589477
73	0xbc52d297	-0.012867591
74	0x3e021d7b	0.12706558
75	0x3e3584ae	0.17726395
76	0x3e180426	0.14845333
77	0x3d8b0449	0.06787927
78	0x3d4c39c0	0.049859762
79	0xbe27fed6	-0.16405806
80	0xbdbd04a7	-0.09229403
81	0xbd3b519d	-0.04573213
82	0xbe3900cd	-0.18066712
83	0x3d2832c2	0.04106403
84	0xbe34890d	-0.17630406
85	0xbdf56bf9	-0.11983485
86	0xbdc62386	-0.09674744
87	0xbcf1b4af	-0.029505102
88	0x3de03720	0.10948014
89	0xbe58175b	-0.2110266
90	0xbca78b1c	-0.020452075
91	0xbc8aa3a8	-0.01692374
92	0xbe300286	-0.17188463
93	0x3ddb17ec	0.10697922
94	0xbd2b9c3d	-0.041897047
95	0xbd782fad	-0.060592342
96	0xbdeeeb50	-0.11665976
97	0xbceac6d7	-0.028659267
98	0x3cfb4a24	0.030675001
99	0x3d97b4f6	0.074075624
100	0x3db3fa6b	0.08787998
101	0x3e024775	0.12722571
102	0xbdd35bb4	-0.10320225
103	0x3b9ddaac	0.0048173275
104	0x3deb293f	0.114824764
105	0x3c5a1c34	0.013312388
106	0x3d20459d	0.03912889
107	0xbdbb9dc1	-0.091609485
108	0x3d1120ff	0.03543186
109	0x3d9d7900	0.076890945
110	0xbca80ffe	-0.020515438
111	0x3e661d73	0.22472171
112	0xbdf61b6e	-0.120169505
113	0x3dad7545	0.08469633
114	0x3cb71ddf	0.02235311
115	0x3cd241bf	0.025666116
116	0xbdfe0de0	-0.1240499
117	0xbd9b9569	-0.07596857
118	0x3dd71dd8	0.10503739
119	0xbdb0bd54	-0.086298615
120	0x3c6e328d	0.014538419
121	0x3d297ac2	0.041376837
122	0xbce6f165	-0.028191278
123	0x3d36027e	0.04443597
124	0xbb81fa7a	-0.0039666267
125	0x3d992273	0.07477274
126	0xbd41810d	-0.047242213
127	0xbd41b280	-0.04728937
128	0x3d3dc2a8	0.046328217
129	0x3ce2caba	0.027684558
130	0x3dc3b8f2	0.0955676
131	0x3c7a203a	0.0152664725
132	0x3d030f8f	0.03199726
133	0x3ca9b115	0.020714322
134	0xbe1079a6	-0.14108905
135	0xbd3d36cc	-0.046194836
136	0xbca9ec78	-0.02074264
137	0x3cd912a4	0.026498146
138	0xbd62baef	-0.055354055
139	0x3da57ec4	0.08080819
140	0xbd9fe9f7	-0.07808297
141	0x3da29bdb	0.07939883
142	0x3d81c6aa	0.0633672
143	0xbcf48931	-0.029850574
144	0x3e856bdf	0.26058862
145	0x3d728937	0.05921289
146	0xbe945e61	-0.28978255
147	0x3da86144	0.08221677
148	0x3e26180d	0.16220112
149	0x3e78ebc6	0.2430869
150	0xbe7ced9c	-0.24700016
151	0xbe5adf3c	-0.2137422
152	0x3d697ce4	0.05700387
153	0xbe39534c	-0.18098181
154	0xbe892ecf	-0.26793525
155	0xbe14218f	-0.14465927
156	0xbd520cdd	-0.0512818
157	0xbbf00985	-0.0073253536
158	0xbdc530ea	-0.0962847
159	0xbdbc7843	-0.092026256
160	0x3d6b1f2b	0.05740277
161	0xbd935937	-0.07194751
162	0xbe3272f5	-0.17426665
163	0x3e42d22a	0.19025484
164	0xbe1ddca1	-0.15416194
165	0xbd7ad382	-0.061236866
166	0xbe8516eb	-0.25994048
167	0xbe08174a	-0.13290134
168	0xbb31c12f	-0.0027123203
169	0xbd414cdc	-0.04719244
170	0x3e8258dc	0.2545842
171	0x3e3113d9	0.17292728
172	0xbd8620c3	-0.065492176
173	0x3e86a034	0.262941
174	0xbe31323f	-0.17304324
175	0x3d9920f1	0.07476986
176	0xbd3d49f3	-0.0462131
177	0xbdb259cf	-0.08708536
178	0x3de2abbd	0.11067913
179	0xbe0c8094	-0.13720924
180	0xbe38acf7	-0.18034731
181	0x3bf22f69	0.0073909056
182	0x3db966c0	0.09052801
183	0xbcf691ed	-0.03009888
184	0xbe0df5f6	-0.13863358
185	0xbe231f53	-0.15929918
186	0x3dd6c01e	0.10485862
187	0xbe9f3d7a	-0.3110159
188	0xbec60f68	-0.3868363
189	0x3e1e4660	0.15456533
190	0xbe0f9fac	-0.14025754
191	0xbd84beff	-0.06481742

lstm.weight_ih_l1 f4 [192, 48]
0	0xbd1ba6a9	-0.038000736
1	0xbd80e45f	-0.06293558
2	0x3daa0841	0.083023556
3	0x3db47a16	0.088123485
4	0xbe2c5888	-0.16830647
5	0xbe25217c	-0.16126055
6	0xbda72078	-0.0816049
7	0xbd0fa3e0	-0.035068393
8	0x3e3fb120	0.18719912
9	0xbcded74b	-0.027202269
10	0x3d97baea	0.07408698
11	0xbdb0c30e	-0.08630954
12	0x3cd5d437	0.026102168
13	0x3cc2487a	0.0237162
14	0x3d8e68ff	0.0695362
15	0x3d63df5d	0.055632938
16	0x3e85361b	0.26017842
17	0x3d90e8c1	0.07075644
18	0x3aa4d56e	0.0012575814
19	0xbdaf6e02	-0.08565904
20	0x3d667ac3	0.05626942
21	0xbe47214b	-0.19446294
22	0x3dcf04db	0.10108348
23	0x3d6fdb0e	0.058558516
24	0x3dc3c6b6	0.095593855
25	0x3ceaa290	0.028641969
26	0xbdb5ac49	-0.088707514
27	0x3dc02380	0.09381771
28	0x3e0cb8f3	0.13742428
29	0x3eb2af8f	0.34899566
30	0xbdadbe57	-0.0848357
31	0xbe930c0c	-0.2872013
32	0x3b37fce5	0.002807432
33	0x3e21f82b	0.15817325
34	0x3e27417b	0.16333573
35	0xbdb486e2	-0.08814789
36	0xbe0e1f62	-0.13879159
37	0xbdc6b97e	-0.097033486
38	0xbc7744d4	-0.0150920935
39	0xbdecf069	-0.11569292
40	0xbde384c6	-0.11109309
41	0xbdf8e537	-0.12153094
42	0xbc7ff54e	-0.01562245
43	0xbe3362c7	-0.1751815
44	0x3d14cb2d	0.036326576
45	0xbdfd54bc	-0.123696774
46	0xbd82fa8a	-0.06395443
47	0xbd6b4a32	-0.057443805
48	0x3e806845	0.2507955
49	0x3cbafcc5	0.022825608
50	0x3e5d1fe5	0.21594198
51	0xbd8c3f83	-0.068480514
52	0xbdf0f1a8	-0.11764842
53	0xbdb565ed	-0.088573314
54	0x3e2eb88b	0.17062585
55	0x3e6b028d	0.22950192
56	0xbe868f46	-0.26281184
57	0xbdaf1407	-0.08548742
58	0xbb742015	-0.0037250568
59	0xbd86aea9	-0.065762825
60	0xbdde8356	-0.10864894
61	0x3d95cf0e	0.07314883
62	0xbc4238b4	-0.011854339
63	0xbe770fb0	-0.24127078
64	0xb9e1577a	-0.0004298052
65	0xbc5b1528	-0.013371743
66	0xbe2ac8b4	-0.16678125
67	0xbe01e23b	-0.12683956
68	0x3d5c393d	0.053765524
69	0xbd31e843	-0.043434393
70	0xbd6f289c	-0.058388337
71	0x3e03e12b	0.12878864
72	0xbddaa8b9	-0.106767125
73	0x3d8603e0	0.06543708
74	0x3ddab60e	0.106792554
75	0xbe11eb95	-0.14250024
76	0xbd949784	-0.07255462
77	0x3bf14fa6	0.007364231
78	0x3de6b882	0.11265661
79	0xbdb688b7	-0.08912795
80	0xbc7482e0	-0.014923781
81	0xbdae9afe	-0.08525656
82	0xbe804cb6	-0.25058526
83	0x3d8f24fc	0.06989476
84	0xbe2dbaf8	-0.16965854
85	0xbd66fdb0	-0.05639428
86	0x3e901284	0.28139126
87	0x3db771ed	0.089572765
88	0xbdc8e7fb	-0.09809872
89	0x3e1805ec	0.14846009
90	0x3cb5f506	0.022211563
91	0x3af50510	0.0018693525
92	0x3e0765b8	0.13222396
93	0x3cd2f1c4	0.025750048
94	0xbdeefaa7	-0.11668902
95	0xbd652621	-0.055944566
96	0x3d403b33	0.046931457
97	0xbe265bb5	-0.16245921
98	0xbdd6c19c	-0.10486147
99	0x3e793e81	0.2434025
100	0xbdadebdb	-0.084922515
101	0xbeabe7c0	-0.3357525
102	0x3d1fbb58	0.038997024
103	0xbe0b6c73	-0.13615589
104	0xbd047ae7	-0.03234377
105	0x3e4b20dc	0.19836754
106	0x3d017c83	0.031612884
107	0xbe6e97d5	-0.23300107
108	0x3d0e2ffc	0.03471373
109	0x3e1e9980	0.15488243
110	0x3e002a8f	0.12516235
111	0x3e890816	0.26763982
112	0x3e8637c5	0.26214424
113	0x3e0c9ff1	0.13732888
114	0x3d83d8ab	0.064378105
115	0x3d6554c0	0.055989027
116	0xbdf9973b	-0.12187048
117	0xbd274f77	-0.040847268
118	0xbb9ec29e	-0.0048449775
119	0x3d588282	0.052858837
120	0xbb875e00	-0.0041310787
121	0xbe893a45	-0.2680227
122	0xbea351fb	-0.31898484
123	0x3eb04dc9	0.34434345
124	0xbcd10437	-0.025514705
125	0x3eb016f7	0.3439252
126	0xbc61642f	-0.013756796
127	0xbdb39e01	-0.08770371
128	0xbdc7877a	-0.09742637
129	0x3e5f1764	0.21786267
130	0xbcbba03d	-0.022903556
131	0x3c8d82a5	0.01727421
132	0x3dadce93	0.084866665
133	0xbe2202d3	-0.1582139
134	0x3b7f778b	0.0038981165
135	0xbdbb9041	-0.091583736
136	0xbe4152a5	-0.18879183
137	0x3ca29826	0.01984794
138	0xbcdc9338	-0.026925668
139	0x3d5943a5	0.053043026
140	0x3e16427d	0.14673801
141	0xbeaf2201	-0.3420563
142	0xbda75c67	-0.08171921
143	0xbd0c6768	-0.034278303
144	0xbe30d25b	-0.17267744
145	0xbe131cae	-0.14366409
146	0xbdc2f44f	-0.095192544
147	0x3e100a71	0.14066483
148	0xbdcbf321	-0.099584825
149	0xbeb2f9ba	-0.3495615
150	0x3da55fd9	0.08074922
151	0x3dd582bb	0.104253255
152	0x3e5681d2	0.2094796
153	0x3cff63ae	0.03117546
154	0x3b92f115	0.0044843056
155	0xbe237f75	-0.1596659
156	0xbe2de480	-0.16981697
157	0x3e8cd7a1	0.27508262
158	0x3e976d0a	0.29575378
159	0xbd651e7f	-0.055937286
160	0x3e2b60c5	0.16736133
161	0x3e51e0ab	0.2049586
162	0x3da282f7	0.07935136
163	0xbd96c16b	-0.0736111
164	0x3e10aea3	0.14129119
165	0xbde0df95	-0.10980145
166	0xbdd676c4	-0.104718715
167	0xbc9d1779	-0.019176232
168	0xbe241f47	-0.16027556
169	0xbe5f5599	-0.21809997
170	0xbdcce439	-0.100044675
171	0x3e94d87e	0.2907142
172	0x3a8687e3	0.0010263886
173	0x3e6447f0	0.22293067
174	0xbe1d2be0	-0.15348768
175	0xbe8103ca	-0.25198203
176	0xbd77cf5d	-0.06050049
177	0x3df3006c	0.11865315
178	0x3d54825d	0.051882137
179	0xbe024f29	-0.1272551
180	0xbd2a752c	-0.04161565
181	0xbe718ccb	-0.23588865
182	0xbc2d9ef1	-0.010596977
183	0x3c9f88df	0.019474445
184	0xbd589152	-0.052872963
185	0xbde18432	-0.110115424
186	0xbca5f0f9	-0.020256506
187	0x3cbfbf48	0.02340664
188	0x3e123f1f	0.14281891
189	0xbda5761a	-0.08079167
190	0xbe72eb98	-0.23722684
191	0xbe24b38f	-0.16084121
192	0x3df2f3d3	0.11862912
193	0xbd1286a1	-0.035772923
194	0x3e9b1fc1	0.30297664
195	0x3e3336af	0.17501329
196	0xbe91e6fa	-0.28496534
197	0xbea387b6	-0.31939477
198	0xbd3aa4d1	-0.045567337
199	0x3ddb9147	0.10721069
200	0xbea495fe	-0.32145685
201	0x3d975d07	0.073907904
202	0x3e3d0188	0.18457615
203	0x3d28620a	0.041109122
204	0x3d154e37	0.036451545
205	0x3e05461e	0.13015029
206	0xbe595598	-0.21224058
207	0xbe0b3c8b	-0.13597314
208	0x3e4cc95d	0.19998689
209	0xbe4f5f48	-0.2025119
210	0x3dabfae6	0.083974645
211	0xbddbf395	-0.10739819
212	0x3de893f2	0.11356343
213	0x3dc30ba0	0.09523702
214	0xbe93a26a	-0.2883485
215	0x3e05db37	0.13071905
216	0xbde158d7	-0.11003273
217	0xbd8d8480	-0.06910038
218	0x3e1dd40a	0.15412918
219	0x3d9d2987	0.07673936
220	0x3dc9444b	0.09827479
221	0xbe93410d	-0.28760567
222	0x3dd5ab81	0.104331024
223	0xbe9652cb	-0.2936004
224	0xbdc83b8f	-0.09776985
225	0x3d2a2106	0.0415354
226	0xbe5e2643	-0.21694283
227	0xbc531551	-0.0128835
228	0xbd88f8ad	-0.06688056
229	0xbd14596b	-0.036218088
230	0x3ddef355	0.10886256
231	0x3e87b686	0.26506442
232	0xbe977d7b	-0.29587922
233	0x3dcee1a7	0.101016335
234	0x3ece5342	0.40297896
235	0xbe7ea199	-0.24866332
236	0x3d5c707b	0.053818207
237	0xbdeab007	-0.11459356
238	0x3e276237	0.1634606
239	0xbdeed0a3	-0.11660888
240	0xbe5a2ef6	-0.21306977
241	0x3d2bcf6b	0.041945856
242	0xbba4ee82	-0.005033315
243	0x3d2eb8ce	0.042656712
244	0xbb889507	-0.004168156
245	0xbca43f19	-0.020049619
246	0x3e70dc8e	0.23521635
247	0x3df4cca7	0.11953097
248	0x3d14b9df	0.036310073
249	0x3de97f59	0.11401243
250	0x3c7a21e1	0.015266866
251	0xbe604707	-0.21902095
252	0xbd7c24a7	-0.061558392
253	0x3d5dfeaf	0.054197963
254	0x3dde8879	0.10865874
255	0x3dc357a9	0.09538204

lstm.weight_hh_l1 f4 [192, 48]
0	0xbc9661e5	-0.018357227
1	0x3e3a05a1	0.1816621
2	0x3d3f87be	0.046760313
3	0x3d9a2bf8	0.075279176
4	0x3e4cdc92	0.20006016
5	0x3c4f44b0	0.012650654
6	0xbe481e20	-0.19542742
7	0x3d64eea0	0.055891633
8	0xbd89c69f	-0.06727337
9	0xbe729548	-0.23689759
10	0xbe00686a	-0.12539831
11	0x3e41eabe	0.18937203
12	0x3e3366ad	0.17519636
13	0x3e2df5eb	0.16988342
14	0x3c1a924d	0.009434295
15	0x3d15caeb	0.03657047
16	0xbde9c81a	-0.114151195
17	0xbd491543	-0.049092542
18	0x3e0f6920	0.14004946
19	0x3e5d19ac	0.21591824
20	0x3cc5cfb0	0.024146885
21	0x3d97eb5f	0.0741794
22	0xbe0dfcfe	-0.1386604
23	0x3db2dc4d	0.08733425
24	0xbe5fccd8	-0.21855485
25	0xbe18a416	-0.14906344
26	0xbe697ecb	-0.22802274
27	0xbe4ded79	-0.2011012
28	0x3e4505be	0.19240472
29	0xbe378b79	-0.17924298
30	0x3db17f7f	0.08666896
31	0x3ace5f23	0.0015744906
32	0xbdf61d34	-0.12017289
33	0xbb745370	-0.0037281178
34	0x395122e9	0.00019944798
35	0x3e4ec698	0.20192945
36	0xbd7caa14	-0.061685637
37	0xbdb23b9a	-0.08702774
38	0x3d5ec2f6	0.054385148
39	0xbe80da29	-0.25166443
40	0x3dd3b37e	0.1033697
41	0xbb415112	-0.0029497785
42	0x3e5a1482	0.21296886
43	0x3d93a36e	0.07208906
44	0xbe42b8df	-0.19015835
45	0x3e042236	0.12903675
46	0xbddd1bb2	-0.10796298
47	0xbdb4609e	-0.08807491
48	0x3e315869	0.17318882
49	0x3e3d8a10	0.18509698
50	0x3db4dbe6	0.08831005
51	0x3e01eed4	0.12688762
52	0x3c280e27	0.01025728
53	0x3dfcdc08	0.12346655
54	0xbcdc075d	-0.02685898
55	0xbd3e69ee	-0.04648774
56	0x3cdfa23d	0.02729904
57	0xbe55f30c	-0.20893496
58	0x3d34ffef	0.04418939
59	0x3e1735c8	0.1476661
60	0x3e60d097	0.2195457
61	0xbd21e03b	-0.039520483
62	0xbcbed8bb	-0.023296705
63	0xbd7880b0	-0.0606696
64	0xbd23aefa	-0.039961793
65	0xbce19cee	-0.02754065
66	0x3d771a4a	0.060327806
67	0x3e2146e2	0.15749696
68	0x3e60b6cc	0.21944731
69	0x3e6d14a0	0.23152399
70	0x3d884c2f	0.06655156
71	0x3ba47617	0.00501896
72	0xbe260ef1	-0.16216637
73	0xbd8bc878	-0.06825346
74	0xbdd89849	-0.10575921
75	0xbc12431d	-0.008927134
76	0x3d878575	0.06617252
77	0xbcf97729	-0.030452328
78	0x3db0205b	0.08599921
79	0x3e1eef4d	0.15520974
80	0x3cc7ddb5	0.02439771
81	0x3e383fda	0.17993107
82	0xbd8170dc	-0.06320354
83	0x3e116ffb	0.14202873
84	0xbd8b800d	-0.06811533
85	0xbe2a28e7	-0.16617166
86	0x3e4793ad	0.19489928
87	0xbe57571a	-0.2102932
88	0x3e56d0a6	0.2097803
89	0xbdb0e0db	-0.08636638
90	0x3e80cda3	0.25156888
91	0xbc3f962b	-0.011693518
92	0xbe56b701	-0.20968248
93	0x3e68f53b	0.22749798
94	0xbab403ae	-0.0013734007
95	0xbe5af524	-0.21382576
96	0x3e14d1d8	0.14533174
97	0xbca6e8af	-0.020374624
98	0xbe23aa72	-0.15982988
99	0x3de31e17	0.110897236
100	0x3e37fbc4	0.17967135
101	0x3e2af4e8	0.16694987
102	0x3d14625b	0.03622661
103	0xbd2331dc	-0.03984247
104	0xbe475b44	-0.19468409
105	0x3dd1135d	0.102087714
106	0xbe86ed06	-0.2635271
107	0x3d286471	0.041111413
108	0x3de990fc	0.11404607
109	0x3d0aa6d4	0.033850506
110	0xbe1eae41	-0.1549616
111	0xbdea98cf	-0.11454927
112	0x3d9931d7	0.07480209
113	0xbd673c56	-0.056454025
114	0x3e3da205	0.18518837
115	0x3e91f8f1	0.2851024
116	0x3e1a7aaf	0.15085863
117	0x3e3ec7f3	0.18630962
118	0xbd142666	-0.036169432
119	0x3d8d9dc5	0.06914858
120	0xbe1be1bd	-0.15222831
121	0x3d0febb1	0.035136882
122	0xbe52aee6	-0.20574531
123	0xbe66511d	-0.2249188
124	0x3ea9149d	0.3302354
125	0xbec50d43	-0.3848668
126	0xbe92cb1d	-0.28670588
127	0x3dd10a47	0.102070384
128	0xbe411595	-0.18855889
129	0x3e49ac04	0.19694525
130	0xbc513f2f	-0.012771412
131	0x3eca4026	0.39502066
132	0xbe11570b	-0.1419336
133	0x3dc30518	0.09522456
134	0xbc249557	-0.010045371
135	0xbd05fb28	-0.032710224
136	0x3e88277a	0.26592618
137	0xbd14851e	-0.036259763
138	0x3e8be982	0.2732659
139	0x3daafb35	0.08348695
140	0xbe185e04	-0.14879614
141	0x3d9611b7	0.073275976
142	0x3cdf5087	0.027260078
143	0xbca30aae	-0.019902553
144	0x3ca3b423	0.019983357
145	0x3e80ab33	0.25130615
146	0xbe3ac723	-0.18240027
147	0xbd23cf8f	-0.039992865
148	0x3e1d3ba4	0.15354782
149	0x3c19ba15	0.009382744
150	0xbda11fce	-0.078673944
151	0xbe0c2488	-0.1368581
152	0xbe304a28	-0.17215788
153	0xbe0f015a	-0.1396536
154	0xbe4ebdc3	-0.20189576
155	0x3d3e4557	0.046452846
156	0x3da94f0e	0.082670316
157	0x3e3da442	0.1851969
158	0x3b0cb555	0.0021470387
159	0xba4966e3	-0.0007682873
160	0xbd92c619	-0.071666904
161	0xbcbf19f3	-0.023327803
162	0x3e10f22d	0.14154883
163	0x3ea12e02	0.31480414
164	0x3dc0bcea	0.094110325
165	0x3e81959f	0.25309464
166	0xbe5b8f6b	-0.21441428
167	0x3d54730d	0.051867533
168	0x3d15c0b1	0.036560718
169	0xbe2612f4	-0.16218168
170	0xbdb3838c	-0.08765325
171	0xbe7e5bff	-0.24839781
172	0x3e5545d6	0.20827422
173	0xbded7b94	-0.11595836
174	0xbd083727	-0.033255722
175	0xbd0e9df9	-0.034818623
176	0xbd921292	-0.07132448
177	0x3e86c8d8	0.26325107
178	0x3ae57565	0.00175063
179	0x3e0601bb	0.13086598
180	0xbe6491af	-0.22321199
181	0xbe13a979	-0.14420117
182	0x3de909aa	0.113787964
183	0xbe02ac2c	-0.12760991
184	0x3e883dda	0.2660969
185	0xbceb74b7	-0.028742177
186	0x3e242646	0.16030225
187	0x3d7386cf	0.059454735
188	0xbd82efee	-0.06393419
189	0x3d2aa1c4	0.041658178
190	0xbe588f73	-0.21148472
191	0xbde8f5df	-0.11375021
192	0xbdb01b90	-0.08599007
193	0x3d093a32	0.033502765
194	0x3d72c002	0.059265144
195	0x3bd5eb0a	0.006528263
196	0x3d63eb5c	0.055644378
197	0xbd5cfcb9	-0.053951953
198	0xb942d4da	-0.00018580575
199	0x3dd2fa42	0.10301639
200	0x3d23282d	0.039833236
201	0xbe604444	-0.21901041
202	0x3d1179de	0.035516612
203	0x3d53c487	0.051701095
204	0xbd86addb	-0.06576129
205	0x3cf17cc0	0.02947843
206	0x3def02a8	0.116704285
207	0xbdc4522b	-0.09585985
208	0x3d6d1b24	0.05788721
209	0xbe39a13c	-0.18127912
210	0x3c9d2115	0.019180814
211	0xbd81e0bc	-0.06341693
212	0x3e5feb61	0.21867134
213	0x3e1bfd60	0.15233374
214	0xbe0639b4	-0.1310795
215	0xbd87e6e6	-0.06635837
216	0x3dfa1e8e	0.12212859
217	0xbce82af1	-0.028340789
218	0xbe2b0cd0	-0.16704106
219	0x3d8ef6d7	0.06980675
220	0xbd691424	-0.056903973
221	0xbe1d8816	-0.15383944
222	0xbe1e9116	-0.15485033
223	0xbdb7d3b3	-0.08975925
224	0xbe4f224f	-0.20227931
225	0xbdeb5769	-0.114912815
226	0x3b1ace78	0.00236216
227	0xbd34e104	-0.044159904
228	0xbd302822	-0.043007024
229	0x3dd3dac2	0.10344459
230	0x3df0771f	0.117414705
231	0x3b09d15a	0.0021029324
232	0x3df26c33	0.118370436
233	0xbd58387b	-0.05278824
234	0x3e583b5e	0.21116397
235	0xbe59b9b4	-0.21262246
236	0xbe2fc725	-0.17165811
237	0xbd742816	-0.05960854
238	0x3da053bd	0.07828472
239	0xbe559478	-0.20857418
240	0x3dea984d	0.1145483
241	0x3e922700	0.2854538
242	0x3e4357ce	0.19076464
243	0xbd99d7a9	-0.07511837
244	0x3e195e1d	0.14977308
245	0x3be34590	0.0069357827
246	0x3d095366	0.0335268
247	0xbbb13e25	-0.0054090195
248	0xbd8d36a2	-0.06895186
249	0x3d6d107a	0.05787704
250	0xbe29cbcc	-0.16581649
251	0x3d8a3527	0.06748419
252	0xbcd9e820	-0.026599944
253	0x3e41a81e	0.18911788
254	0xbd733671	-0.05937809
255	0xbe5007c9	-0.2031547

lstm.bias_ih_l1 f4 [192]
0	0xbe51d484	-0.20491225
1	0xbe21aeb4	-0.157893
2	0xbdd4e94c	-0.1039606
3	0xbd7d900b	-0.06190495
4	0x3d7547c1	0.059882883
5	0xbe81edb9	-0.2537668
6	0x3d5a8f39	0.053359244
7	0xbda26fd9	-0.079314895
8	0xbe2cd3e3	-0.16877703
9	0xbd843298	-0.064549625
10	0xbdbc4446	-0.091927096
11	0xbd7f6eb2	-0.062361427
12	0xbda6bc3c	-0.081413716
13	0xbe605c1b	-0.21910135
14	0x3df57eb9	0.11987061
15	0xbd1779b9	-0.03698132
16	0xbe2b45cc	-0.16725844
17	0xbd94e25c	-0.07269737
18	0x3d6f12b7	0.058367457
19	0xbd85a617	-0.0652582
20	0x3db9e57e	0.09076975
21	0x3da8eb80	0.08248043
22	0x3d849986	0.06474595
23	0xbd2361b2	-0.03988809
24	0x3dc44470	0.09583366
25	0xbd9d0ecb	-0.07668837
26	0xbc6a3a49	-0.014296123
27	0xbe329e84	-0.17443281
28	0xbe6fcd0e	-0.23418066
29	0x3e131b7e	0.14365956
30	0xbdfd54d0	-0.12369692
31	0xbdbd4c19	-0.0924303
32	0x3e86ba87	0.26314184
33	0xbd0527b2	-0.03250856
34	0xbe2a2158	-0.16614282
35	0x39dffe0f	0.00042723163
36	0x3d47c8ef	0.04877561
37	0xbe927fbe	-0.28613085
38	0x3c130215	0.008972664
39	0x3de42fbb	0.11141916
40	0xbd95aa62	-0.073078886
41	0x3afb22ae	0.0019160116
42	0x3dda9a57	0.10673969
43	0xbe7bea8c	-0.24601191
44	0x3c99bf96	0.018768113
45	0xbd9d2526	-0.07673101
46	0xbe4e5e21	-0.20153095
47	0x3e2409b3	0.16019325
48	0xbdf3fc66	-0.119133756
49	0xbd806f1c	-0.062711924
50	0xbe2d5371	-0.16926362
51	0xbe48effd	-0.19622798
52	0x3d7b441d	0.061344255
53	0xbde7dc0c	-0.113212675
54	0xbe4686c8	-0.19387352
55	0xbe09cfd3	-0.13458185
56	0x3ae18ed7	0.0017208707
57	0xbd73d25d	-0.05952679
58	0xbd590cda	-0.05299077
59	0xbe1f652d	-0.15565939
60	0xbd42643c	-0.047458872
61	0xbdeb96fc	-0.11503407
62	0xbe490f56	-0.19634756
63	0xbe09f4ab	-0.1347224
64	0xbe41c3f9	-0.18922414
65	0x3c28cdb3	0.010302949
66	0xbcfa3a00	-0.030545235
67	0xbaba6de2	-0.0014223421
68	0xbda0256c	-0.07819638
69	0x3c4dcdfb	0.012561317
70	0xbd98c94f	-0.074602716
71	0xbe822042	-0.25415236
72	0x3d8612f8	0.06546587
73	0xbe024273	-0.12720661
74	0x3dc41853	0.09574952
75	0xbe54a58e	-0.20766279
76	0xbe6fe79a	-0.23428193
77	0xbe552a39	-0.20816888
78	0xbe67c5b5	-0.22634013
79	0x3ce53f5e	0.027984317
80	0x3da615cf	0.081096284
81	0xbe2cb529	-0.16865982
82	0xbe4c65ad	-0.19960661
83	0xbe8be9a5	-0.27326694
84	0xbbd01da6	-0.0063511906
85	0xbdb145a1	-0.08655859
86	0xbe51d1c9	-0.20490183
87	0xbe18dd8b	-0.14928262
88	0xbccdc42d	-0.025117958
89	0xbe3f7731	-0.18697812
90	0xbe1d7cbe	-0.15379617
91	0xbda27d77	-0.07934087
92	0xbe7a57ee	-0.24447605
93	0xbe253c11	-0.16136195
94	0xbcbe90c3	-0.023262387
95	0xbe2dd5da	-0.16976109
96	0xbd930fad	-0.07180724
97	0xbd555c60	-0.05209005
98	0xbc8180b6	-0.015808444
99	0xbc1360d2	-0.008995252
100	0xbd4cd4d6	-0.050007664
101	0xbd8cf895	-0.06883351
102	0xbc283891	-0.010267393
103	0x3d1f4f14	0.038893774
104	0x3bc2bbeb	0.0059428117
105	0xbda07852	-0.07835449
106	0x3d8df57e	0.069315895
107	0xbe39bca4	-0.18138367
108	0x3de207ee	0.11036669
109	0xbda46b03	-0.08028223
110	0x3e120219	0.14258613
111	0xbaf80457	-0.0018922192
112	0x3e21edec	0.15813416
113	0x3d55cae0	0.05219543
114	0x3dca4fb7	0.09878486
115	0x3dd27fe5	0.102783
116	0xbd84b169	-0.06479151
117	0xbe4a3301	-0.19746019
118	0x3e29ca8b	0.1658117
119	0x3d7d5e85	0.06185772
120	0x3e704aa8	0.23465979
121	0x3e0ca1e4	0.13733631
122	0x3e2fc6f6	0.17165741
123	0x3d4ec958	0.050484985
124	0xbd325a10	-0.04354292
125	0x3cdda37e	0.027055498
126	0x3d1e5e25	0.038664002
127	0xbdca1b58	-0.09868497
128	0xbdceab96	-0.10091321
129	0xbdc5675b	-0.09638854
130	0xbd17032c	-0.03686826
131	0xbde246ce	-0.11048661
132	0x3e2c5614	0.16829711
133	0x3d8ce1ed	0.068790294
134	0xbdc23756	-0.09483211
135	0x3d96b39f	0.07358479
136	0x3d337000	0.043807983
137	0xbe128913	-0.14310102
138	0xbc2c5a0d	-0.010519517
139	0xbdda870b	-0.10670289
140	0x3df7e7b0	0.12104738
141	0xbd6135ad	-0.05498283
142	0x3d8f0b2d	0.069845535
143	0x3cd56009	0.02604677
144	0xbe034869	-0.12820591
145	0x3d984277	0.07434552
146	0xbd64b0cb	-0.055832665
147	0x3d3c02ed	0.045901228
148	0x3db12510	0.08649647
149	0xbe48fa8e	-0.19626829
150	0xbd109063	-0.035293948
151	0x3dacbcb3	0.08434429
152	0xbe2a8320	-0.16651583
153	0xbe057f1a	-0.13036767
154	0x3d637752	0.055533715
155	0xbddc6364	-0.10761145
156	0x3d542ec9	0.05180243
157	0xbe76a195	-0.24085076
158	0x3d187c0f	0.037227686
159	0x3d0a8911	0.033822123
160	0x3d8e3a5f	0.06944727
161	0x3d86d030	0.06582677
162	0x3ba45483	0.0050149574
163	0x3bd20828	0.0064096637
164	0xbdb4e8e8	-0.08833486
165	0x3d34fb98	0.04418525
166	0x3d206f0d	0.039168406
167	0xbe610476	-0.21974358
168	0x3af53cdb	0.0018710153
169	0x3dbaecf9	0.0912723
170	0x3da8313d	0.082125165
171	0xbe07b7a2	-0.13253644
172	0xbc68369c	-0.014173176
173	0xbca37f31	-0.01995811
174	0xbdda2bc0	-0.10652876
175	0xbe13a88b	-0.14419763
176	0x3d8f235e	0.06989168
177	0xbc08e0ee	-0.008354409
178	0xbe1a3bf7	-0.15061937
179	0x3d1c0596	0.038091265
180	0x3df1886e	0.117936
181	0xbed79d09	-0.42111996
182	0x3bb06022	0.0053825537
183	0xbd2647f2	-0.040595956
184	0x3cd04d48	0.025427476
185	0xbda0ab5d	-0.07845185
186	0xbcbfcf20	-0.023414195
187	0xbe7e57e0	-0.24838209
188	0xbc2ec7c2	-0.010667743
189	0x3d46cb37	0.048533645
190	0xbe20f2c6	-0.1571761
191	0x3dd2de79	0.102963395

lstm.bias_hh_l1 f4 [192]
0	0xbe631eaa	-0.22179666
1	0xbe184293	-0.14869146
2	0xbdb4d0a6	-0.08828859
3	0xba3662e5	-0.00069574855
4	0xbd4fa0f4	-0.050690606
5	0xbe4cc0cc	-0.19995421
6	0x3da2b126	0.07943945
7	0x3d4bd272	0.049761243
8	0x3d220cb8	0.03956291
9	0xbe5e932d	-0.2173583
10	0x3dd6238c	0.10455999
11	0xbe106136	-0.14099583
12	0xbd904082	-0.07043554
13	0xbe42b56c	-0.1901452
14	0xbb89885a	-0.0041971626
15	0xbdb2a693	-0.08723178
16	0xbda51d88	-0.08062273
17	0x3de99da6	0.11407022
18	0x3e098c61	0.13432457
19	0x3dbfa089	0.093567915
20	0x3d6d43df	0.057926055
21	0x3dc94610	0.098278165
22	0x3d8e6167	0.06952172
23	0xbdc3a8e2	-0.09553696
24	0x3e07136e	0.13191006
25	0x3dc04a9d	0.09389231
26	0x3d024773	0.03180642
27	0xbcfafadb	-0.030637195
28	0xbddb3909	-0.10704238
29	0xbd654ff1	-0.05598444
30	0xbdab3f67	-0.083617024
31	0x3c50bb78	0.0127400085
32	0x3e7563cc	0.2396385
33	0xbe3f2f0b	-0.18670289
34	0xbe543ccd	-0.20726319
35	0x3d9d0eb4	0.0766882
36	0xbc5f09dd	-0.013613191
37	0xbecd6ce1	-0.4012213
38	0xb94d1bcd	-0.0001956068
39	0xbe02faf4	-0.12791044
40	0xbda6e054	-0.08148256
41	0xbdb82d55	-0.089930214
42	0x3cbc6ba0	0.023000538
43	0xbe8d0495	-0.27542558
44	0xbe52b642	-0.20577338
45	0xbc9c7eae	-0.019103374
46	0xbe4b3263	-0.1984344
47	0x3dce6def	0.10079562
48	0xbe738934	-0.23782808
49	0x3cb4fa25	0.022091934
50	0xbe035202	-0.12824252
51	0xbabd08ba	-0.0014422156
52	0x3da2860d	0.079357244
53	0xbea2e9b9	-0.3181894
54	0xbdc74983	-0.09730818
55	0x3d560e41	0.052259687
56	0xbe01a191	-0.12659289
57	0xbd18c206	-0.03729441
58	0xbd879bcc	-0.06621513
59	0xbe096b89	-0.13419928
60	0xbdcdd321	-0.10050035
61	0xbe70f0f7	-0.23529421
62	0x3d63343b	0.055469733
63	0xbe6bb3e0	-0.23017836
64	0xbe1ec52c	-0.15504903
65	0xbde2b30e	-0.11069308
66	0xbe129c8e	-0.14317533
67	0xbdf0b938	-0.11754078
68	0xbd097a74	-0.033564046
69	0xbddc03f6	-0.10742943
70	0x3db31759	0.087446876
71	0xbe29050e	-0.16505834
72	0xbcc2ded9	-0.023787903
73	0xbcee4203	-0.029084211
74	0xbd079584	-0.033101574
75	0xbe37d658	-0.1795286
76	0xbd34bc24	-0.044124737
77	0xbe835458	-0.25650287
78	0xbda6c66f	-0.08143317
79	0xbe59738e	-0.21235487
80	0xbd0aa973	-0.033853006
81	0xbe43c0fa	-0.19116583
82	0xbe769eba	-0.24083987
83	0xbe0dfa96	-0.13865122
84	0xbd630719	-0.05542669
85	0xbe56fa1e	-0.2099385
86	0xbeaae04a	-0.33374244
87	0x3d006c71	0.031353418
88	0xbe4ba0a0	-0.19885492
89	0x3d5de2aa	0.05417124
90	0xbd2dede8	-0.042463213
91	0xbe95e79a	-0.2927826
92	0xbd2c1e4a	-0.042021073
93	0xbe3c4680	-0.18386269
94	0x3d49f97d	0.049310196
95	0xbda02236	-0.07819025
96	0x3ab9bc0c	0.0014170422
97	0xbe035486	-0.12825212
98	0xbc659efe	-0.0140149575
99	0x3cc7eba9	0.024404364
100	0xbe6c00b3	-0.23047142
101	0xbc67a9bf	-0.014139592
102	0xbd8233fb	-0.06357571
103	0xbd64ff7e	-0.05590772
104	0x3dc61cf9	0.09673495
105	0xbdf69c70	-0.12041557
106	0x3d405839	0.046959136
107	0x3d058c04	0.032604232
108	0xbdde4150	-0.10852301
109	0xbe002892	-0.12515476
110	0x3e244e19	0.16045417
111	0x3db33875	0.08751003
112	0xbd154f4c	-0.036452577
113	0x3d172da3	0.036908757
114	0xbc77860d	-0.015107644
115	0xbe28fac8	-0.16501915
116	0xbbe4c919	-0.0069819805
117	0x3d8ffdfe	0.07030867
118	0x3e3a58a1	0.18197872
119	0x3d0613e5	0.032733817
120	0x3e8a16e2	0.26970583
121	0x3e2e6b48	0.17033112
122	0x3dc4e82a	0.09614594
123	0xbd82e3f2	-0.06391133
124	0xbd2b780b	-0.04186253
125	0x3b7962e9	0.003805334
126	0x3d0d134a	0.034442224
127	0xbde7dd1e	-0.11321472
128	0xbdfc991e	-0.12333892
129	0xbde0a363	-0.109686635
130	0x3d8c473b	0.06849524
131	0xbcca5908	-0.024700657
132	0x3e447887	0.19186603
133	0xbcbd0e3c	-0.023078077
134	0x3c887585	0.0166576
135	0x3e2765cf	0.1634743
136	0xbe159243	-0.14606576
137	0x3dd493cd	0.10379753
138	0x3c23bc79	0.009993666
139	0x3c9c44ea	0.01907583
140	0x3c5ba2ca	0.013405511
141	0xbda77b29	-0.08177788
142	0xbd374f74	-0.044753507
143	0x3de0538a	0.10953434
144	0xbe254ac7	-0.16141807
145	0xbd9e5dd6	-0.077327415
146	0xbd3614aa	-0.0444533
147	0xbe5978eb	-0.21237533
148	0x3df152a8	0.117833436
149	0xbea6b386	-0.3255884
150	0xbdb46cdc	-0.08809826
151	0xbd9e088c	-0.07716474
152	0x3c925749	0.017863886
153	0xbe56e45d	-0.20985551
154	0x3cdae1de	0.02671903
155	0x3deb35f2	0.114848986
156	0x3c87d130	0.01657924
157	0xbe3277af	-0.17428468
158	0xbc23aba3	-0.009989652
159	0xbe1e62c8	-0.1546737
160	0x3cdbb26e	0.02681848
161	0x3d7be325	0.06149592
162	0x3d99ae7b	0.07503983
163	0xbda8c30e	-0.08240329
164	0xbdb67888	-0.08909708
165	0xbe1950fd	-0.14972301
166	0x3ce27b61	0.027646722
167	0xbd9474fd	-0.07248876
168	0x3df8c3b2	0.12146701
169	0x3e14633b	0.14490978
170	0xbe12bc59	-0.14329661
171	0xbe7a031b	-0.24415247
172	0xbd1a6efa	-0.03770349
173	0x3db6dfc2	0.08929397
174	0xbe227f86	-0.15868959
175	0xbdf33353	-0.11875024
176	0x3e364162	0.17798379
177	0xbc87301e	-0.016502436
178	0x3b4006a2	0.0029300828
179	0x3df1ed38	0.11812824
180	0x3d4d89c1	0.0501802
181	0xbe7f60f1	-0.24939324
182	0xbaf24aa7	-0.0018485383
183	0x3cc746f2	0.024325822
184	0x3da66542	0.08124782
185	0xbe0d3213	-0.13788633
186	0xbd6989b8	-0.057016104
187	0xbdff15d8	-0.12455338
188	0xbd9bf641	-0.076153286
189	0xbc0f3966	-0.008741712
190	0xbd23579d	-0.039878476
191	0xbc63b10d	-0.013897193

linear.weight f4 [2, 48]
0	0xbd46a1a3	-0.048493993
1	0xbe2ebe6a	-0.17064825
2	0xbd2d02b3	-0.042238902
3	0x3d94142f	0.07230412
4	0xbe302927	-0.17203198
5	0xbdccdec4	-0.10003427
6	0x3e6c44f0	0.23073173
7	0xbda55163	-0.08072164
8	0x3e812dd9	0.2523029
9	0x3e478578	0.19484508
10	0x3e34856f	0.17629026
11	0xbd186c8c	-0.037212893
12	0xbe7a6c6e	-0.24455425
13	0x3d0f433f	0.03497624
14	0x3d7bd1ea	0.061479487
15	0xbddea962	-0.10872151
16	0x3bd7e550	0.0065886155
17	0x3d2a1668	0.041525275
18	0xbe3b9e50	-0.1832211
19	0xbe610fc5	-0.21978672
20	0xbd6f7e0c	-0.058469817
21	0xbddabbdd	-0.10680363
22	0x3d5c57b3	0.053794574
23	0xbd0eab63	-0.034831416
24	0x3de7be05	0.1131554
25	0x3d2923a9	0.041293774
26	0x3e70c3ff	0.23512267
27	0x3e1cdca5	0.15318544
28	0xbddc8cf2	-0.10769071
29	0x3e72aaba	0.2369794
30	0x3e262eb6	0.16228756
31	0x3da199b9	0.078906484
32	0x3e4600ec	0.19336289
33	0xbe2e7e74	-0.17040426
34	0xbe14b0ab	-0.14520518
35	0xbe337ee8	-0.1752888
36	0x3e4e1ac4	0.20127398
37	0xbce445d4	-0.027865328
38	0xbe48c0e7	-0.19604836
39	0x3e253fb7	0.16137587
40	0xbe4c2dda	-0.19939366
41	0xbccd6291	-0.025071414
42	0xbe2afd39	-0.1669816
43	0x3e0c31ef	0.13690923
44	0x3e0558ce	0.13022158
45	0xbe4d0c3a	-0.20024195
46	0x3dee59fe	0.116382584
47	0x3e30a5ed	0.17250796
48	0xbd879e32	-0.0662197
49	0xbdb8942c	-0.090126365
50	0xbe381e7e	-0.17980382
51	0x3e193f9b	0.1496567
52	0xbe4eb76a	-0.20187154
53	0x3d1adccc	0.037808225
54	0xbdd55beb	-0.104179226
55	0xbe1170e9	-0.14203228
56	0xbd310d24	-0.043225423
57	0xbd755ee9	-0.059904967
58	0x3e16bd12	0.14720562
59	0xbe431226	-0.19049892
60	0x3d9172ef	0.07102
61	0xbe14e463	-0.14540248
62	0x3e2fbfa7	0.17162953
63	0x3e2d855b	0.16945402
64	0x3e48d619	0.19612922
65	0x3e07f5f1	0.13277413
66	0xbd33e87d	-0.04392289
67	0x3c79d091	0.01524748
68	0xbdf32ac3	-0.118733905
69	0xbe189ca8	-0.1490351
70	0x3e6869eb	0.22696654
71	0x3e1ca628	0.15297759
72	0x3e8948e4	0.26813424
73	0x3e5ca361	0.21546699
74	0xbd161fb9	-0.036651347
75	0xbd92c45a	-0.07166357
76	0x3d23ed96	0.0400215
77	0xbe129c7d	-0.14317508
78	0xbe24e743	-0.16103844
79	0xbe1e180b	-0.15438859
80	0xbe9c8e1f	-0.3057718
81	0xbc84aba0	-0.016195118
82	0x3d914b9a	0.07094498
83	0x3d11c4d6	0.035588108
84	0x3d5866e2	0.05283249
85	0x3ce187ef	0.027530639
86	0x3dab0125	0.08349828
87	0x3d479987	0.0487304
88	0xbc787f14	-0.015167017
89	0xbe2b36e7	-0.16720162
90	0xbdb6ed49	-0.08931977
91	0xbca8595e	-0.020550426
92	0x3cd810d8	0.02637522
93	0xbdb3b895	-0.087754406
94	0x3ced4e5e	0.028968032
95	0x3e201508	0.15633023

linear.bias f4 [2]
0	0x3e4ead86	0.20183381
1	0x3e3e0329	0.18555893
