checkpoint/training_epochs_100_stepsize_7_gamma_0.75/model_epoch50.pth (torch, 117569 bytes, 10 tensors)

lstm.weight_ih_l0 f4 [192, 2]
000000 53 53 93 3d cd 5c b5 bd 86 cc 12 3e bf a6 94 bd
       0.07193627 -0.08855591 0.14335832 -0.07258367
000010 78 87 e0 be eb 18 2f bb c0 c7 c1 bc c2 db 47 3c
       -0.43853354 -0.0026717733 -0.023654819 0.01219839
000020 f2 2d 11 3e 28 42 d8 3d b6 37 30 be b9 d5 12 3d
       0.14177683 0.10559493 -0.17208752 0.035848353
000030 e9 d4 0e 3c 84 87 fc 3d d4 6d 57 be dd 19 86 be
       0.008717754 0.12330535 -0.2103799 -0.26191607
000040 79 a9 a5 3c 32 a0 ac 3d 31 8e bf 3c ff 16 45 bd
       0.020222412 0.08428992 0.023383232 -0.048117634
000050 33 52 bc be 2e af 2c be f5 49 ac 3d b0 1d c2 3d
       -0.36781463 -0.16863701 0.08412544 0.09478319
000060 37 27 66 bd 33 87 e2 bc cb 3b b8 bd 0b 52 9d bd
       -0.056189742 -0.027652359 -0.089957796 -0.07681664
000070 b9 13 79 3e 6a 4f 98 bd 90 df 84 be 9b ba f6 3d
       0.2432393 -0.07437022 -0.25951815 0.12047311
000080 00 57 6c 3e 33 a7 1d bb c2 99 0b bd f3 74 8c be
       0.23080063 -0.0024055957 -0.03408218 -0.27432975
000090 5d 1c 2c be 1d 29 ce bd 1a 51 66 3e 28 60 cc 3e
       -0.16807695 -0.100664355 0.22491875 0.3991711
0000a0 f9 ac 37 be 1f a9 7d bd cd 0c 8b 3e 51 c6 45 3e
       -0.17937078 -0.061928865 0.27158204 0.19313933
0000b0 1f e1 fb 3d d5 98 9e 3e 71 89 9f bd 4a 0d e7 bc
       0.12298798 0.30975977 -0.07789887 -0.028204579
0000c0 3b 30 e4 bd 3e c5 43 be bb 76 12 be 8a 21 4f be
       -0.11142012 -0.1911821 -0.14303105 -0.20227638
0000d0 a5 08 6e 3d 26 28 7c bd a4 14 85 bd aa ef e4 bd
       0.058113713 -0.061561726 -0.064980775 -0.11178525
0000e0 fb 03 98 bd 99 0c e1 3d 78 a1 b7 3e 1a aa 73 3e
       -0.07422634 0.10988731 0.35865378 0.23795357
0000f0 4f 80 54 bd 97 e2 49 be 98 56 99 3e b5 68 f9 3d
       -0.051880177 -0.19715343 0.29948878 0.121781744
000100 e5 23 44 3d b8 54 d2 bd 4a 9e d5 bc 30 b4 35 bd
       0.047885794 -0.10270065 -0.026076455 -0.044361293
000110 08 9a bd 3e b8 4c d2 3e d5 92 29 be f7 14 2e be
       0.3703158 0.41074157 -0.16559918 -0.17000185
000120 09 69 d1 3c 74 ec f1 bd 25 28 a3 3e 96 65 1e be
       0.02556278 -0.11812678 0.31866565 -0.1546844
000130 d7 82 b8 be 28 17 0d 3e 9e 31 ad 3d 11 0b 62 3e
       -0.36037323 0.13778365 0.08456729 0.22074534
000140 4f c3 c8 3d 60 6f d7 bd d0 f7 e4 3d 30 b2 8e bb
       0.09802877 -0.1051929 0.11180079 -0.0043547377
000150 64 df 10 3d 52 74 3c 3e 91 6c 34 be 96 d6 56 bc
       0.035369292 0.18403748 -0.1761954 -0.013112685
000160 44 ae 88 be c1 1f 78 be 0b e4 bc 3e dc b8 6b bd
       -0.26695454 -0.24230863 0.36892733 -0.057549343
000170 c5 41 70 be e1 79 a8 be be d7 b9 3d 1d 83 55 3e
       -0.23462589 -0.32905486 0.09074353 0.20850797
000180 81 8b 44 3e 29 82 6c 3e 15 44 51 3d 62 7b 69 bd
       0.19193842 0.23096527 0.05109032 -0.057002433
000190 a1 ab e5 be 35 9b be 3d 3b b3 34 be df 4e 6e 3d
       -0.44857505 0.09306947 -0.17646496 0.058180686
0001a0 34 b7 34 3e c2 dc b1 3e 9c c6 6c be 8c 64 ae bd
       0.17648011 0.34738737 -0.23122638 -0.085152715
0001b0 c5 1e d1 bc 57 00 8a bd 0d ba 79 be 82 d8 6c be
       -0.025527367 -0.06738346 -0.24387379 -0.23129466
0001c0 f4 2f 88 3e 3f 97 89 3e a6 21 4d be c0 e7 d2 bd
       0.26599085 0.26873204 -0.20032367 -0.10298109
0001d0 b1 50 5a be d8 2c 53 3d bb 7a 91 3d 66 62 a7 3d
       -0.21319844 0.05155644 0.07103487 0.08173065
0001e0 20 5e 6d 3c 57 51 15 3e 1c b7 24 be 8c 48 df bd
       0.014487773 0.1458181 -0.16085476 -0.10902509
0001f0 f2 0c 5e 3e fd dc 40 be d1 ec 75 bd 62 49 50 3d
       0.21684626 -0.188343 -0.0600403 0.050851233
000200 50 7e 88 3d 23 a4 80 bd 06 c9 b1 bc a1 ba e9 bc
       0.06664717 -0.062813066 -0.0217023 -0.028531374
000210 43 2e bb 3d 6b 6b f6 bd 63 d6 ad 3d a2 a5 59 3e
       0.09139683 -0.12032207 0.08488157 0.2125459
000220 98 0a 57 be b4 27 a1 3d c1 22 99 3e 66 a5 8f 3e
       -0.21000135 0.07868901 0.29909328 0.28055876
000230 b9 48 81 3c 39 12 a8 bd 6e 71 fc bd e4 30 d7 3c
       0.015781747 -0.08206601 -0.123263225 0.02626843
000240 eb 4f ec b8 b2 91 dd bb 5a e7 8e bd 07 db 5c bd
       -0.00011268243 -0.006761753 -0.069777206 -0.05391982
000250 63 6e d2 3d de 21 7b 3d 83 04 cb bc 06 f3 de bd
       0.10274961 0.061311595 -0.024782425 -0.10886197
000260 e8 1a 7a bd 9b c5 a9 3e 1c 5a d5 3d ae 35 53 3d
       -0.061060816 0.33158574 0.104175776 0.051564865
000270 86 a4 4c 3c 1d 7f 5f be f7 5b 57 bc 4e 38 80 bd
       0.012490397 -0.21825834 -0.013144485 -0.06260739
000280 89 10 ef 3c e5 6c 9f be 96 20 b2 3c 0a 45 8e 3d
       0.02918269 -0.31137767 0.021744054 0.06946762
000290 26 62 ca 3d 2c 54 36 3d 6f ae c2 3d 7b fd cb bb
       0.098820016 0.044513866 0.09505927 -0.0062252856
0002a0 f3 dd 3d be cb 5a 70 be 71 f6 2b 3e eb 10 2a be
       -0.18541698 -0.23472135 0.16793229 -0.16608016
0002b0 f7 0b 04 bf 5c 41 4b 3e c6 cd 8a bc e9 5e 73 3c
       -0.51580757 0.19849151 -0.016943824 0.014854171
0002c0 78 11 34 bd 94 d5 46 3e 20 b9 a5 3d 90 58 f3 bd
       -0.043961972 0.19417411 0.080919504 -0.11882126
0002d0 26 47 1e bd fc c3 67 3e c9 01 d4 3d 53 df 28 3e
       -0.03864207 0.22633356 0.10351903 0.16491441
0002e0 cd 79 4a be a4 84 86 be e1 66 14 be 2c 1e 77 3d
       -0.19773026 -0.26273072 -0.1449237 0.06033151
0002f0 b9 99 07 be 86 e9 1e bb 68 50 5f 3d cb 29 a1 3d
       -0.13242234 -0.0024248078 0.05452004 0.078692995
000300 95 0f 64 3e 9e c9 a1 3d fd 41 a5 3e 03 28 80 be
       0.22271569 0.078997836 0.32276908 -0.25030527
000310 e2 0e af 3e 2c 2b 24 3e 92 46 83 be 7a 25 53 3e
       0.34191042 0.16032094 -0.25639778 0.20619765
000320 ab 8e 06 3d 87 43 b7 be eb 58 7c be c8 82 bf be
       0.032850903 -0.35793707 -0.24643295 -0.37404466
000330 9e bd 3c 3e 8e cd 88 3e 0e 30 10 3d ce 4b 63 3d
       0.18431708 0.26719326 0.03520208 0.055492215
000340 7b 90 8c be df 4f 11 be 07 09 95 be 91 0a 27 3e
       -0.2745398 -0.14190625 -0.2910845 0.16312625
000350 c5 b0 3e 3e d9 f2 ec 3d 9e 62 85 3e 1c dd e7 3d
       0.1862212 0.11569757 0.260518 0.1132147
000360 0a c4 2b 3d 82 b4 0e be c8 0a 76 be 40 a6 96 3e
       0.041935004 -0.13936046 -0.2402755 0.29423714
000370 5c 71 ac be 41 12 00 3e 17 bb 6c be 4b d2 79 be
       -0.33680236 0.12506963 -0.23118244 -0.24396627
000380 8a 73 a0 be 03 aa a1 3e a1 71 b2 be 16 56 9d bc
       -0.3133815 0.3157502 -0.34852317 -0.019206088
000390 54 1c 72 be 8c 63 50 3e aa 63 95 3e 6e c8 be be
       -0.23643619 0.20350474 0.291776 -0.3726229
0003a0 08 07 a1 3d 58 92 30 3e f3 e2 a1 3e f2 be 96 3e
       0.07862669 0.17243326 0.3161846 0.29442555
0003b0 51 13 33 be dd ff 65 be 2d cd 62 3d ab 00 93 3e
       -0.17487837 -0.22460885 0.055371452 0.28711447
0003c0 9f f9 ac 3d 3f 83 b2 be 5b 09 4f 3e ec 81 86 be
       0.08446049 -0.34865758 0.20218413 -0.26270998
0003d0 a2 3b c9 3e 65 49 56 3e eb 8a 83 be 21 68 82 3e
       0.3930331 0.20926435 -0.25691923 0.2547007
0003e0 4b ac 83 bd 80 1d 68 3e 55 ad fb be 34 aa f7 3c
       -0.06429347 0.22667503 -0.4915568 0.030232526
0003f0 df dd 8d bd 67 74 4d 3e 19 9f 96 3e 4e 5f a6 be
       -0.06927084 0.20063935 0.29418257 -0.32494587

lstm.weight_hh_l0 f4 [192, 48]
000000 1a aa a8 bd ad 99 be bb 21 d9 92 3e 3f aa fd 3d
       -0.08235569 -0.0058166594 0.2868128 0.123859875
000010 a2 b6 9d 3d 0c 78 f8 bd 10 0a d1 bb cc 2a ab 3c
       0.0770085 -0.12132272 -0.0063793734 0.02089443
000020 34 1c 4a 3d 73 d2 af 3b b8 5e 8a 3d a2 bb 8c 3d
       0.049343303 0.0053656637 0.067563474 0.068717256
000030 3e 5b a4 3d bf 1f 0a be 7e 3b 19 3e f3 af 92 bc
       0.080252156 -0.13488673 0.149641 -0.017906165
000040 e3 ab 96 3e 43 11 01 3e c6 8b 0f 3e 20 b1 aa be
       0.29428014 0.12604241 0.14018163 -0.3333826
000050 00 47 b6 3d 8b 23 62 bc ee e3 5e be ca bb 6c 3d
       0.08900261 -0.013802419 -0.21766636 0.057796277
000060 8b 52 1c 3d 68 f6 a0 bc 25 15 04 be 91 0f 67 3e
       0.038164657 -0.019648746 -0.12898691 0.22564532
000070 e6 89 49 3c 0e 33 de 3d 9d 3d 59 3d f6 8b 5c be
       0.012300944 0.10849582 0.053037275 -0.21537766
000080 23 34 f3 38 1f ec 08 be bc dc 92 bc b2 d1 82 3d
       0.00011596854 -0.13371323 -0.01792752 0.063876525
000090 f0 22 b1 bc 20 33 de bd da fc 32 be 8b 32 82 3d
       -0.021623105 -0.10849595 -0.17479268 0.063572966
0000a0 f3 49 a3 bd 10 ad 76 bd 88 f0 59 bd a7 47 63 be
       -0.07973089 -0.06022364 -0.053207904 -0.22195302
0000b0 45 03 97 3d ad 49 4e be 77 ee 4e be bc fd 97 be
       0.073736705 -0.20145293 -0.20208155 -0.2968577
0000c0 0b e1 14 3d 78 8e 10 3e e7 55 5c be 13 7b 92 be
       0.03634743 0.14116848 -0.21517144 -0.28609523
0000d0 32 96 da 3c fe cf e8 3d c0 29 78 3e 7f 24 74 3d
       0.026682947 0.11367796 0.24234676 0.059605118
0000e0 81 53 b0 bd e2 95 69 bd 87 12 04 be 39 2a 30 be
       -0.08609677 -0.057027705 -0.12897693 -0.17203607
0000f0 69 7e f0 bc 85 3e ba bc 5f 4c f9 bc cd 3e 5c bd
       -0.029357152 -0.02273489 -0.030431924 -0.05377083
000100 bc eb 8e be 2b b6 4c be d1 ee 50 bd aa 27 9d 3e
       -0.27914226 -0.19991367 -0.051009003 0.30694324
000110 a5 69 b4 bd b1 f6 3f be 50 95 13 3e db c7 08 bc
       -0.088092126 -0.18746449 0.14412427 -0.0083484305
000120 05 8a b1 3d ca a7 60 3d 5a f3 48 3e 9d c8 28 be
       0.08668903 0.054847516 0.19624081 -0.16482778
000130 49 c7 d5 bc 4d 33 08 be e1 2a fb bc e9 80 c8 3e
       -0.026096003 -0.1330082 -0.030660095 0.3916085
000140 86 5a 03 3e d5 df 82 3e 69 55 0c be 95 ad f8 3d
       0.128275 0.25561395 -0.13704456 0.12142483
000150 d1 ec d1 3d f0 70 2a 3c 61 ca 14 3e fb a2 0b be
       0.10250247 0.010402903 0.14530326 -0.13636391
000160 d0 07 75 3d d7 64 86 bc ca 54 11 3d cf 58 83 3e
       0.059821904 -0.016405506 0.03548125 0.25653693
000170 d7 d4 ab bc 10 a9 ff 3d f4 60 65 3e cb 54 8f 3e
       -0.020975513 0.12483418 0.22400266 0.2799438
000180 d6 25 db bd 79 29 14 be 54 0c d2 be 75 df e1 3e
       -0.10700576 -0.14468946 -0.4102503 0.44115797
000190 91 bb 8d 3d cb 53 08 3e 5a ed 59 bd 4b 21 a1 be
       0.06920541 0.13313214 -0.05320487 -0.31470713
0001a0 f4 9b 8a 3e 47 d6 d5 3e 34 42 a9 bd d5 d6 de be
       0.27072108 0.41765043 -0.0826458 -0.4352328
0001b0 3e ec da 3c d0 f3 e8 3e 20 d0 bf 3e 1d db bd 3e
       0.026723977 0.45498514 0.37463474 0.37081233
0001c0 23 62 0d 3f c3 61 bc 3e 85 ec a7 3e 92 4c 88 be
       0.5522787 0.36793336 0.32797638 -0.2662092
0001d0 9c 87 fa bd 58 e7 c9 be 84 39 4d 3e d5 2e 86 3d
       -0.12232897 -0.39434314 0.20041472 0.06551901
0001e0 37 93 74 be 22 70 8d be c1 bf e9 be 18 0a 39 3e
       -0.23884283 -0.27624613 -0.4565411 0.18070257
0001f0 68 cc 8a 3d f2 b2 53 3f 7e f6 b4 3e 70 74 21 bf
       0.06777269 0.82694924 0.3534431 -0.63068295
000200 00 31 c4 be ca da 74 3e ed 34 35 3e 14 4c 55 be
       -0.38318634 0.23911586 0.17695971 -0.20829803
000210 ba 69 c7 be 30 db 2c bf 31 3d 55 be 54 69 c4 bc
       -0.3894785 -0.67521954 -0.20824124 -0.023976006
000220 16 52 c1 3b e8 87 ee bd 7e 66 c7 be 7d b4 19 3d
       0.005899678 -0.11647016 -0.38945383 0.037525643
000230 81 da 1c be 63 52 9c be a5 6b 58 be 5e ed 8e be
       -0.15317728 -0.30531606 -0.21134813 -0.27915472
000240 95 9d f6 bd 95 a7 5e 3e df 50 8f be b7 c8 bd 3b
       -0.12041775 0.21743615 -0.27991387 0.0057917493
000250 f9 eb 10 3d 30 2e 0f bd 99 48 c4 3d 0b cf 4c bd
       0.03538129 -0.034956157 0.095841594 -0.05000214
000260 6c 4d 93 bc dc af 53 bd 4f 44 49 be 99 2b 81 3a
       -0.017981254 -0.051681384 -0.19654964 0.0009854912
000270 3b 32 9d bb 3f db 9e 3d d6 54 31 bd 18 dd ec 38
       -0.0047972477 0.077566616 -0.043293796 0.00011294539
000280 c3 5c 31 be d3 61 10 be 56 ed 1e be 37 87 e3 3e
       -0.17320542 -0.14099817 -0.15520224 0.44439098
000290 d1 4c a4 bd 0a 54 7b be 11 1c 0d 3e dd 4b c1 3d
       -0.08022464 -0.24543777 0.13780238 0.09438298
0002a0 8c 65 df bd 74 a0 de bd 48 80 cc bd 5c e7 64 3d
       -0.109080404 -0.10870448 -0.09985405 0.055884704
0002b0 73 0d 68 be 3c 17 26 bd 59 3f fd bd 30 42 51 3e
       -0.2266138 -0.0405495 -0.12365598 0.20435405
0002c0 e5 66 6e bd 02 d7 80 3e db 64 8a 3e 29 02 59 3e
       -0.058203597 0.25164038 0.27030072 0.2119223
0002d0 79 a3 11 3d bb 64 0d 3c c3 3f 9c 3d e2 5e a8 be
       0.03555629 0.008629973 0.07629349 -0.3288489
0002e0 86 83 53 bd 96 1d 09 3e fc 39 b5 3d 7c 74 18 3e
       -0.051639102 0.13390192 0.0884895 0.14888185
0002f0 cd 14 9b 3d 43 0e 45 3e 4d bc 2f 3e fd ff 8c 3e
       0.07572327 0.19243722 0.17161675 0.27539054
000300 3d 67 4a 3e 51 f9 37 3d f3 2c d2 3e 80 9b fd bd
       0.19765945 0.0449155 0.4104992 -0.12383175
000310 4a e0 24 3e 0b ce 15 3e 8c 61 e4 bd 79 5f 00 3e
       0.16101184 0.1462938 -0.11151418 0.1253642
000320 69 ca 63 3d 98 8b a7 be bc be 77 3d fa d8 8d 3d
       0.055612955 -0.3272369 0.060484633 0.069261506
000330 72 48 7f bd 4c 79 91 be ac ad 12 be 87 c9 90 3c
       -0.06232495 -0.28412855 -0.14324063 0.01767422
000340 4e b6 ba 3b 56 63 18 bd 2f c2 23 be 42 42 50 3e
       0.005698002 -0.03720411 -0.15992044 0.20337775
000350 4c 2e 0c 3e b7 41 d7 bd 4a 88 9b 3e 6b ae 89 bd
       0.13689536 -0.10510581 0.30377418 -0.06722721
000360 49 cc 46 bd 8a de 83 3e 28 8d 8b bc 82 08 9b bd
       -0.048534665 0.2575572 -0.017035082 -0.07569982
000370 d2 32 12 be 31 47 07 be 1f 4c 91 bd 0a 87 2d 3e
       -0.14277199 -0.13210751 -0.07094597 0.16946045
000380 d8 fa 92 3e 0f 75 3d bd 32 68 f5 3d e3 b5 11 3e
       0.28707004 -0.046254214 0.11982764 0.1422954
000390 8c c3 9b 3d c9 e7 82 3e 38 df cf 3e 25 f6 c2 bd
       0.07605657 0.25567463 0.4059999 -0.095196046
0003a0 10 e3 16 3e 58 f7 ba 3b bd 7d b7 bd aa 1f 0d 3d
       0.14735055 0.005705755 -0.089595295 0.034454025
0003b0 64 38 2a bd 9b a0 ba 3d 54 31 4f bc c0 8c 97 3e
       -0.041557685 0.09112664 -0.012646038 0.2959957
0003c0 d4 77 d3 3e 2b 61 98 3e 70 dd 1b 3f 70 a6 f0 3c
       0.4130236 0.29761633 0.6088476 0.029376239
0003d0 20 0f 58 bd 82 74 8e 3e df aa fe bd 7d 70 b3 bd
       -0.0527488 0.27823263 -0.12434935 -0.0876169
0003e0 d9 e8 98 be ce be e5 be 4b e5 10 3e 2d 0d 19 3e
       -0.2986515 -0.44872135 0.14149968 0.14946432
0003f0 a9 23 4d be f9 e2 ec bd 3f 85 9c bd 28 25 41 be
       -0.20033135 -0.11566729 -0.07642602 -0.1886183

lstm.bias_ih_l0 f4 [192]
000000 df ba be 3d b7 87 52 bd 7f 50 82 be 20 0e f1 bd
       0.093129866 -0.05139896 -0.2545204 -0.11770272
000010 74 46 2d 3e 0d 2e b4 bd f8 ef 0f be e7 3c 70 be
       0.16921407 -0.08797846 -0.14056385 -0.23460732
000020 47 fa 7a 3d 06 87 1b 3d b8 89 6e be 09 3e b3 bd
       0.06127384 0.037970565 -0.23294723 -0.08752067
000030 b6 b6 c3 bd 10 c8 01 3c 88 69 b9 bd f1 ea 4a bd
       -0.09556334 0.007921234 -0.090533316 -0.049540464
000040 7b e5 7f bd 4a ee 28 be 7a 3a 9f bd ca 72 6e 3e
       -0.06247471 -0.1649715 -0.077748254 0.23285976
000050 f2 13 78 be 27 b6 da 3c 1e 0e 24 3e 92 e5 79 bb
       -0.24226359 0.026698185 0.1602101 -0.003813122
000060 a2 82 db bd 4f 5d 65 bd 70 30 2b 3e 09 62 d5 bc
       -0.107182756 -0.05599719 0.16717696 -0.026047723
000070 38 1e 65 be 95 65 a9 3e 5d 9c 2a bd 51 29 75 bd
       -0.22374809 0.33085313 -0.041653026 -0.059853856
000080 70 1e 28 3d 61 3d 8e bd bf 0e 09 3e 35 2e 0f be
       0.041044652 -0.06945301 0.13384531 -0.1398247
000090 40 b7 5a be 25 47 d8 bd 84 8d e5 bd cb bd 18 be
       -0.21358967 -0.10560445 -0.112086326 -0.1491615
0000a0 fd 48 47 be 14 1e b6 3d 88 d1 0c 3e fd c8 28 be
       -0.19461437 0.08892456 0.13751805 -0.16482921
0000b0 e7 3f 9b be 9b 12 85 3e 3e 05 6d be 9b eb fb bd
       -0.3032219 0.25990757 -0.23146531 -0.123007976
0000c0 b4 15 8d 3e b7 ae 1a be 0c 25 66 bd 60 0e 14 bd
       0.2755562 -0.15105711 -0.056187674 -0.03614652
0000d0 31 51 b5 3e 2d 74 23 3e df 65 6c be e6 e5 e4 bd
       0.35413507 0.15962286 -0.23085736 -0.11176662
0000e0 67 d8 2b 3e b8 37 4e be 99 9c c0 3c 79 dc 6a 3d
       0.1678177 -0.20138443 0.023512172 0.057339165
0000f0 85 69 93 3d 73 9c 03 bd cf fe 34 be 66 bd 66 bd
       0.07197861 -0.032131623 -0.17675327 -0.05633297
000100 90 28 0c bd 0e 74 60 bd c9 28 40 be 19 61 bf 3d
       -0.03421837 -0.05479818 -0.18765558 0.09344692
000110 0f 6b fe bd 06 4d 13 be c6 a9 1e be 52 3b a4 bd
       -0.124227636 -0.14384851 -0.15494451 -0.08019127
000120 c9 bf 31 bd 5a 2f bd bd 80 ff bd ba a8 5e 0c 3e
       -0.04339579 -0.09237547 -0.0014495701 0.13707983
000130 7f 7a ba 3d f3 62 69 bd 50 ac be bd 45 63 9f 3b
       0.091053955 -0.05697913 -0.0931021 0.004864129
000140 09 62 b4 bd 9c 94 e1 3d de 93 a0 bd 9d 0f aa bd
       -0.08807761 0.11014673 -0.078407034 -0.08303759
000150 63 9b 67 be ad 47 30 be 58 8c 03 3d 56 0b 8a 3d
       -0.22617869 -0.17214842 0.032116264 0.067404434
000160 66 4c 13 be 85 8e 87 3d 9a 52 a6 bd 5d bb 96 3c
       -0.14384612 0.0661898 -0.08121224 0.018399889
000170 82 70 c2 be 04 6d 27 bc ae 7b a6 3d 30 79 e4 bd
       -0.37976462 -0.010218862 0.08129059 -0.11155927
000180 1c 2f 32 bd 2e 6e 31 bc cd fe 38 be 73 06 82 bd
       -0.04350196 -0.010829492 -0.18065949 -0.06348886
000190 92 97 93 3c a8 03 f1 3d 52 d1 b8 bd a7 6a 52 bd
       0.01801661 0.117682755 -0.090243 -0.051371243
0001a0 17 33 a6 3c cf c7 5c 3d 2f 99 16 be 30 b1 8f bd
       0.020288033 0.05390149 -0.14706872 -0.07016218
0001b0 40 61 90 3d 39 20 dd bd 24 d9 f2 3d cf 24 a5 bc
       0.07049799 -0.107971616 0.118578225 -0.020159153
0001c0 94 62 b3 3d 69 cc 03 3e 60 12 55 b9 60 1d 29 bc
       0.08759037 0.12870945 -0.00020320108 -0.010321945
0001d0 ff 42 3a bc 6b ac 1e be dd 7c 26 3d 8c cc 23 bd
       -0.011368512 -0.1549546 0.040646423 -0.039989993
0001e0 1a 26 f2 3d 4d 8e 2d bd 85 c0 58 be f2 4b d1 bb
       0.118236735 -0.042372037 -0.2116719 -0.006387227
0001f0 ba 4a 8a bd ac 8b fc 3d 16 40 0b bd 3c 5e be 3d
       -0.06752534 0.12331328 -0.033996664 0.092953175
000200 b9 09 bc 3c ee e6 48 3d 47 91 0f 3e c6 e7 f8 bc
       0.022953855 0.049048357 0.14020263 -0.030383956
000210 46 1d 53 3b bb b2 04 bc 01 31 fc bd 0d 4c 7e bd
       0.0032213493 -0.008099253 -0.12314034 -0.062084246
000220 79 b1 26 3e a3 d2 83 be 37 0c 34 be 8d 47 39 3c
       0.16278638 -0.2574664 -0.17582785 0.011308563
000230 2a 55 60 3d 25 ee 6b 3d 6d 1e 22 be 29 eb 27 bd
       0.05476872 0.05760016 -0.15831919 -0.04099575
000240 c6 9b 9e 3d be 72 d3 bd 2c 0c 81 bd e0 86 bc 3d
       0.07744555 -0.1032462 -0.0630115 0.09205413
000250 58 54 b6 bc 80 cb 1d 3e 9f af 66 be 9a b4 53 be
       -0.022257015 0.1540966 -0.22527932 -0.20674363
000260 de 2e 20 3e 00 f3 db bd fc 0d e8 bd fd 5b 04 bc
       0.15642878 -0.10739708 -0.11330792 -0.008078572
000270 82 57 3c be eb db f3 3d 7c 5e 94 bc a3 c5 c3 bd
       -0.18392757 0.119071804 -0.01811146 -0.095591806
000280 63 9b 7b 3e 74 00 23 be 52 1f eb bd 5c 7e bb 3d
       0.24570994 -0.15918142 -0.11480583 0.091549605
000290 71 5e 12 be 74 4a b7 3d f3 2b 1b 3e d3 68 77 3b
       -0.14293839 0.08949748 0.15153484 0.003775169
0002a0 b8 56 49 be 68 98 4f bb 38 de 32 3e e9 ac 0c 3e
       -0.19661987 -0.0031676535 0.17467582 0.13737835
0002b0 44 80 8a bd c2 6b b8 3e 3b f5 e2 3c 37 bf 3d 3e
       -0.06762746 0.36019713 0.027704826 0.18529974
0002c0 05 9f 29 be bb d4 b8 bd 3b 4d e3 3d 67 92 2d be
       -0.16564567 -0.0902495 0.11098715 -0.1695038
0002d0 2a 64 b0 bd 9c c1 6a 3d 07 99 93 bd a6 45 a2 bc
       -0.08612855 0.057313547 -0.07206922 -0.019808602
0002e0 26 77 c8 bc cb d0 d9 3c d4 b0 02 3e fc d2 52 be
       -0.024470877 0.026588818 0.12762767 -0.20588297
0002f0 61 51 9e be 4d f9 8f 3e 3d b2 97 be 18 96 c9 3d
       -0.30921462 0.2811989 -0.29628173 0.09843081

lstm.bias_hh_l0 f4 [192]
000000 73 53 cf bc 88 01 68 3d 4c 1f 91 be 91 73 10 be
       -0.025308346 0.056642085 -0.2834419 -0.14106585
000010 f1 11 39 3e 4a 73 fb 3d 61 68 04 be 71 23 c9 be
       0.1807325 0.12277849 -0.12930442 -0.39284852
000020 97 92 b6 3d 89 08 b9 3d 34 c5 92 bd 0c 1a 54 3d
       0.089146785 0.09034831 -0.0716652 0.051782653
000030 79 4b 1f be 4b 47 16 bd 65 03 0c be 9a 8e 1c be
       -0.15556134 -0.036689084 -0.1367317 -0.15288773
000040 e6 32 ac 3b b0 0e 20 bd dd 57 65 be ad fd 5c 3e
       0.005255091 -0.039076507 -0.22396798 0.21581145
000050 d2 60 4e be 68 2e ed bc f4 d2 ae 3a 21 37 a7 bd
       -0.20154122 -0.028952792 0.0013338015 -0.08164812
000060 f0 10 2c bc ea 43 5c be 5b 79 e6 3d 25 a7 31 be
       -0.010502085 -0.21510282 0.112536155 -0.17348917
000070 5b 17 ee bd d2 97 d5 3e 6e 90 79 be 03 83 b5 3d
       -0.116255485 0.41717392 -0.24371502 0.08862879
000080 e7 76 86 bd de 25 42 be 93 f2 3e 3d 86 c3 5e be
       -0.065656476 -0.18959758 0.046618056 -0.21754274
000090 d4 11 cd 3c 15 cf 85 bd b4 4d 19 be 5a 5f 4c b9
       0.025032915 -0.065336384 -0.14971048 -0.00019490477
0000a0 c1 0b fd 39 d6 70 9d 3d b6 e1 20 3d 8b b8 13 be
       0.00048264678 0.07687537 0.039277755 -0.14425866
0000b0 d4 f4 7b be b0 de 23 3e b5 9f 3a be 69 25 71 3d
       -0.24605113 0.16002917 -0.18224986 0.058873568
0000c0 8d c8 86 3e f6 70 2f be 55 02 00 be f8 20 03 3d
       0.26324883 -0.17132935 -0.1250089 0.032013863
0000d0 17 dc 55 3e 5c c8 b8 3d ce 91 7a be 19 c6 3e be
       0.20884739 0.090225905 -0.24469683 -0.18630256
0000e0 5e 07 68 3e 45 42 88 bc 12 97 a3 bd 9d 86 b8 bd
       0.2265906 -0.016633162 -0.07987799 -0.090100504
0000f0 16 98 5e 3e 2b 27 d8 3c c0 7b 1c be 76 a8 2a 3d
       0.21737704 0.026385864 -0.15281582 0.041664563
000100 ec f7 d3 3b ba 46 3d bd f5 56 88 be 07 8c 97 3d
       0.0064687636 -0.04621003 -0.26628843 0.07399755
000110 fd 26 d7 3a 29 55 78 bd f7 e3 2a bd 98 fe a9 bb
       0.0016414818 -0.06062809 -0.04172131 -0.0051878206
000120 a1 ce f1 bd 19 02 5e bd 28 05 e1 3d 62 28 23 3e
       -0.118069895 -0.05420122 0.109873116 0.15933374
000130 34 02 23 3e de a9 b2 3d 96 7d e4 3b 1f a6 34 be
       0.15918809 0.08723806 0.006972979 -0.17641495
000140 c9 58 f5 bd 31 20 b0 bc e9 00 14 be 64 e4 4f 3d
       -0.11979825 -0.021499725 -0.14453472 0.05075492
000150 cf 49 4b be 74 fa b2 bd 9d ac d9 bd 01 85 1e bd
       -0.19852374 -0.087391764 -0.106286265 -0.03870106
000160 73 7a 8d 3d e0 a8 44 be 6c 26 1a bd 4e 32 b7 bc
       0.06908121 -0.19205046 -0.0376343 -0.022362854
000170 92 1d 64 be 0a cb af 3d 4c 17 0a bd 82 fd 2c bd
       -0.22276905 0.085836485 -0.033713624 -0.04223395
000180 7d f1 f8 bd 94 22 a8 bc a5 bb d1 3c a7 00 9c 3d
       -0.12155435 -0.0205243 0.025602171 0.07617312
000190 47 9a b9 3d a4 5b 0d 3e de c6 d2 bd 0c 25 b4 3b
       0.09062629 0.1380449 -0.10291837 0.0054975804
0001a0 10 1d e8 3d 18 f7 39 3c 17 4e f0 3c 90 15 03 be
       0.11333668 0.011350416 0.029334111 -0.12801194
0001b0 25 74 14 3d ce bd ad 3d 5d 3d 41 bc 98 75 76 3e
       0.036243577 0.08483468 -0.011794415 0.24068296
0001c0 29 6f f1 bd 25 08 b9 3d 6c d6 38 3c 7f db 1a 3d
       -0.1178878 0.090347566 0.011281591 0.037806984
0001d0 4e c0 09 be 8e fa cf bd eb 86 01 3e 56 5a d1 bd
       -0.13452265 -0.101552114 0.12649123 -0.10222308
0001e0 a8 32 d0 3c 2f f1 42 3d de ed 29 bd 2e 16 39 3d
       0.02541478 0.04759329 -0.041486613 0.045187168
0001f0 91 44 44 bc 17 d4 ad 3d f9 f4 30 bd d9 26 2d bd
       -0.011979238 0.084877186 -0.043202374 -0.042273376
000200 8e a9 45 3d fd 30 3e 3d ca 4f e2 3d e0 76 85 3c
       0.048257403 0.046433438 0.11050375 0.016292036
000210 1e ff dd 3c f7 a6 a8 3c 8b 3c 14 be d3 d0 7d bd
       0.027099188 0.020587428 -0.1447622 -0.06196673
000220 52 74 f5 bb c6 e2 2a 3c 2e 5f 87 bd 12 2f c8 3d
       -0.007490673 0.010430044 -0.06609951 0.09774603
000230 c2 c1 9c bd 91 23 b3 3d c0 91 7e 3d 16 02 9c bc
       -0.07654144 0.08747018 0.062150717 -0.019043963
000240 36 de 72 3e 74 d4 a6 3d 3a 56 92 be 0f 68 c0 3d
       0.23717579 0.08145991 -0.2858141 0.093948476
000250 9a 6c 01 3e a0 3f 88 3e 61 d1 33 be 80 67 76 be
       0.12639084 0.26611042 -0.1756034 -0.2406292
000260 ba 76 15 3d 5f ee 29 be 16 f8 88 be 6a 3b 50 bd
       0.03649018 -0.16594838 -0.26751775 -0.05083791
000270 b6 36 78 bd b6 c9 ca 3c db d2 e5 bc 38 5c ac bd
       -0.06059905 0.024754386 -0.028054645 -0.08416027
000280 c2 a8 e2 3d 7b 3b 6f bd 2b 3c 21 be cf ad 5f 3e
       0.11067344 -0.058406334 -0.15745609 0.21843646
000290 d3 91 18 be 91 4a 2c bd 38 78 9d bd 9f d6 e8 bd
       -0.14899378 -0.0420633 -0.076889455 -0.11369061
0002a0 72 7b e3 3b 83 ab 1a bd 7a b7 8e 3e 83 c5 1f 3e
       0.006942206 -0.037761223 0.27874357 0.15602688
0002b0 65 3f 6e bd 07 68 bd 3e 9b ad 52 be 9e 4c 00 3e
       -0.058165926 0.3699343 -0.20574038 0.12529227
0002c0 b0 ad 55 ba a7 f8 9b bd fa 81 84 3e 3f 9e 0d be
       -0.00081511866 -0.07615786 0.25880414 -0.13829897
0002d0 f9 f3 39 be a8 15 c6 3d a0 64 b6 3d b4 7c d1 bc
       -0.18159474 0.09672099 0.089059114 -0.025572158
0002e0 54 da 0c be 23 1b bc bd af 92 fc 3d 7d 52 a2 be
       -0.1375516 -0.091848634 0.12332665 -0.3170356
0002f0 88 9d e2 be ac 88 3c 3e 68 75 18 be 8b c9 f0 bc
       -0.44260812 0.18411511 -0.14888537 -0.029392978

lstm.weight_ih_l1 f4 [192, 48]
000000 0e 1e 63 bd 8d 32 6c bd 29 1c fc 3c 2b cf 25 3e
       -0.055448584 -0.057665396 0.030775147 0.1619231
000010 73 db 17 be ba 42 13 be 16 fb ca bd 74 d1 4f bd
       -0.14829807 -0.14380923 -0.09911172 -0.05073686
000020 a2 7d 5f 3e 01 ce 75 3c 2c 2e 73 3d d6 22 24 be
       0.21825269 0.015002728 0.059370205 -0.16028914
000030 e1 f1 63 3c cb e6 5a 3d de 0d fe 3d a4 6f 8f 3d
       0.013912649 0.053442758 0.12404989 0.07003716
000040 79 e2 87 3e f7 9a 36 3e 22 07 a3 bc 40 c7 f2 bd
       0.26539972 0.17832552 -0.019900862 -0.1185441
000050 cc 0d 89 3b 99 a1 50 be bf 0f c3 3d d8 05 44 3d
       0.004182553 -0.20374145 0.09524488 0.047857136
000060 6d ff e6 3d 4a f2 87 3c 8b 4c f1 bd 0d 36 11 3e
       0.11279187 0.016595025 -0.117821775 0.14180775
000070 0d 73 0f 3e de 4b f9 3e 69 62 06 be 93 b9 9b be
       0.14008732 0.48690695 -0.13123478 -0.3041502
000080 52 61 ba ba b2 59 39 3e 56 55 45 3e 03 9b 94 bd
       -0.0014219678 0.18100622 0.19270834 -0.07256129
000090 7f fa 03 be 00 7a ce bd 65 4d ba bd 4f bd a3 bd
       -0.12888525 -0.100818634 -0.09096793 -0.07995092
0000a0 67 31 b3 bd 24 83 22 be a9 96 0e bd 28 c0 39 be
       -0.08749657 -0.15870339 -0.03481165 -0.18139708
0000b0 dd 58 69 3d bd 99 d5 bd cc 2f f8 bd 9e 6f a6 bd
       0.056969512 -0.10429714 -0.121184915 -0.08126758
0000c0 b1 03 82 3e 45 9c 37 3d 87 f2 78 3e 88 8e a9 bd
       0.2539344 0.044826765 0.24311267 -0.08279139
0000d0 66 4c ea bd 49 d3 eb bd db ce 46 3e c4 5d 7a 3e
       -0.11440353 -0.11514909 0.19414847 0.24449831
0000e0 f2 9f 83 be cb a0 b5 bd 0c 8f fb 3c fb 24 10 bd
       -0.25707966 -0.088685594 0.030707859 -0.035191517
0000f0 a4 a0 ab bd b7 4a 72 3d a4 09 b6 bb a2 d0 87 be
       -0.08380249 0.059153285 -0.0055553485 -0.26526362
000100 2f 8f a7 bc 64 aa a4 3b a3 6b 40 be 2b 0a 01 be
       -0.020454017 0.005025195 -0.1879106 -0.12601535
000110 8d 10 7d 3d ac 68 bd bc ef b7 c2 bd bb 24 19 3e
       0.061783362 -0.0231212 -0.09507739 0.14955418
000120 07 d7 dc bd 34 9b 94 3d 1f 8b 0c 3e 5d 66 0c be
       -0.10783201 0.07256165 0.13724945 -0.13710923
000130 4d 56 9d bd de ef 1f bc f8 86 cd 3d 5c d2 94 bd
       -0.07682476 -0.009761779 0.10035509 -0.07266685
000140 e6 a0 fd bb a7 ae e9 bd 77 cc 96 be b7 c5 87 3d
       -0.007740128 -0.114102654 -0.2945287 0.06629508
000150 ee aa 33 be 37 40 33 bd 8d 25 99 3e 81 5e d9 3d
       -0.17545673 -0.043762412 0.2991146 0.10613728
000160 e9 a5 e6 bd d3 58 2f 3e bd f5 58 3d 3f ee d6 bc
       -0.112621136 0.17123728 0.05296873 -0.026236651
000170 54 65 17 3e 0a 43 a8 3c a9 d7 14 be 4d 5f 43 bd
       0.14784747 0.02053978 -0.14535393 -0.047698308
000180 3d 7a fc 3c 30 7f 50 be da 35 31 be 39 b9 71 3e
       0.030820007 -0.20361018 -0.17305699 0.23605813
000190 0f 81 f0 bd 72 54 ce be ff 4d 52 3d fb a3 25 be
       -0.11743366 -0.40298802 0.051343914 -0.16175835
0001a0 53 37 4b bd c2 87 59 3e 03 c8 a5 bc fc 25 7d be
       -0.04961331 0.21243194 -0.020236975 -0.24721521
0001b0 4f 7d 85 3d 1b f4 3c 3e e3 5f 10 3e a3 71 9d 3e
       0.06518041 0.18452494 0.14099078 0.3075076
0001c0 12 0f 84 3e 61 c2 3d 3e 98 4f ad 3d 82 51 87 3d
       0.25792748 0.18531181 0.08462447 0.06607343
0001d0 09 27 23 be 9e d4 dc bc 86 e3 78 bd 30 00 cf 3d
       -0.1593286 -0.026956853 -0.06076386 0.10107458
0001e0 37 73 2e bc 8d fc 98 be 22 4d a5 be 98 9c cc 3e
       -0.010647587 -0.2988018 -0.3228541 0.39963222
0001f0 69 48 ed bc 08 dc ac 3e c0 08 3b bc a3 7d 90 bd
       -0.028965192 0.3376162 -0.01141566 -0.07055213
000200 15 8f 12 be 74 40 8d 3e 13 33 3e bd 90 a8 a1 3c
       -0.14312394 0.27588236 -0.046435427 0.019733697
000210 12 da ba 3d 32 60 22 be 7f 5c 85 bd 74 87 c2 bd
       0.09123625 -0.15857008 -0.06511783 -0.09498492
000220 a2 e2 6d be af cb b0 3c f5 70 d7 3b 86 07 37 3d
       -0.23230985 0.021581499 0.006574745 0.04468491
000230 c8 31 2f 3e 1d c6 bd be 3e 7a b9 bd df 8d 61 bd
       0.17108834 -0.3706521 -0.09056519 -0.05506694
000240 bc 1a 56 be 2f 04 06 be 38 54 10 be 3d 3e 0e 3e
       -0.20908636 -0.13087533 -0.14094627 0.1389093
000250 0c 8e d4 bd ad 69 ba be a3 af 30 3d 25 2e 12 3d
       -0.10378656 -0.3640875 0.04313625 0.035688538
000260 5e 8a 6c 3e 67 11 e7 3c 21 98 bf bc 0c 4e 40 be
       0.23099658 0.02820654 -0.02338797 -0.18779773
000270 d7 97 09 be 47 a6 86 3e 28 28 b5 3e 67 e3 52 bc
       -0.13436829 0.26298735 0.353822 -0.0128716
000280 97 4c 22 3e c7 07 91 3e cf b1 90 3d 73 12 59 bd
       0.15849529 0.28326246 0.07065164 -0.05299611
000290 ea b8 8f 3d 90 cd e5 bd 86 de 07 be 78 86 86 bc
       0.070176914 -0.112208486 -0.1326848 -0.016421542
0002a0 4a 41 f3 bd 1a 7f 65 be 7f 42 e3 bd 54 6c b1 3e
       -0.11877687 -0.22411767 -0.110966675 0.3465296
0002b0 20 71 07 bd 51 ce 81 3e 04 06 48 be c5 54 6d be
       -0.03306687 0.2535272 -0.19533545 -0.23176868
0002c0 21 49 8b bd ff d6 16 3e 27 5e 68 3d fa a0 c4 bd
       -0.068010576 0.14730452 0.056730416 -0.09601016
0002d0 d2 2e 05 bc ba aa 6c be ac 55 af bd 78 9e c6 3b
       -0.008128839 -0.23112002 -0.085612625 0.0060613714
0002e0 01 c2 68 bd 82 63 24 be ea b8 36 bc 9f f8 7c 3c
       -0.05682564 -0.16053584 -0.011152485 0.015440135
0002f0 e9 5d 34 3e 67 f1 99 bd a4 c6 a2 be f2 a8 2b be
       0.17613949 -0.07516747 -0.31792176 -0.16763666
000300 b6 72 f7 3d 4b 0e 20 bd 22 13 a0 3e 9d 01 2a 3e
       0.12082426 -0.03907613 0.31264597 0.16602178
000310 39 0b 95 be 30 5a b9 be 42 8e 33 bc ac 1f 0e 3e
       -0.29110125 -0.3620162 -0.01095921 0.1387927
000320 fd e7 a7 be eb cb 96 3d c8 af 4d 3e 69 6c 9d 3d
       -0.3279418 0.07363113 0.20086586 0.07686693
000330 7b 2f 57 3d 1a 9e 06 3e fd c1 5d be 42 90 18 be
       0.052535515 0.13146248 -0.21656032 -0.1489878
000340 c0 29 43 3e 55 7b 4f be 1c 59 a9 3d 8b f8 d6 bd
       0.19058895 -0.20261891 0.082689494 -0.104966246
000350 60 59 0e 3e 2a 16 f0 3d 3a d0 a8 be 63 d8 22 3e
       0.13901281 0.117229775 -0.32971364 0.15902857
000360 e4 cb 06 be ce 5a 98 bd fc 51 35 3e 2d a3 b2 3d
       -0.13163716 -0.074391946 0.17707056 0.087225296
000370 e5 e6 c9 3d d3 04 9d be df 6b 00 3e bb 90 93 be
       0.09858493 -0.30667743 0.1254115 -0.28821358
000380 bc 67 d8 bd 0f ff 90 3c d9 a7 88 be 3c a6 e7 bc
       -0.10566661 0.017699746 -0.26690558 -0.028277509
000390 cf be ab bd 6a a4 ff bc 65 de ff 3d da 49 8c 3e
       -0.08386003 -0.031206328 0.1249359 0.27400094
0003a0 25 a6 a5 be b5 fb 0e 3e 21 bc e1 3e 79 5f 8d be
       -0.3235332 0.13963206 0.44088843 -0.27611902
0003b0 8c 31 69 3d a7 e6 0a be 63 6b 31 3e 76 ac df bd
       0.056932017 -0.1356455 0.17326121 -0.10921566
0003c0 db 88 de bd b9 bc 19 3e c1 25 85 3d 0d 81 ba bc
       -0.10865947 0.15013398 0.065013416 -0.022766614
0003d0 17 89 27 bd 2a ee 75 3d 65 39 76 3e 5a b2 39 3e
       -0.040902223 0.060041584 0.24045332 0.18134442
0003e0 14 4f e3 bc 21 fd d6 3d 46 6a fe bc 30 62 a3 be
       -0.027747668 0.10497499 -0.031056534 -0.3191085
0003f0 4e aa fb 3c 5f 60 9f bc c7 ca d1 3d 4b 4e e1 3d
       0.030720856 -0.019455133 0.10243755 0.11001261

lstm.weight_hh_l1 f4 [192, 48]
000000 d3 55 dd 3c 77 db 32 3e 9b e2 73 bb 58 8b c8 3d
       0.027018463 0.17466532 -0.0037213925 0.09792203
000010 19 1c 17 3e e3 f4 99 3d de 3a 6b be 94 e2 b7 3c
       0.14756812 0.075174116 -0.22971675 0.022446908
000020 1c 4e 4a bd 44 ba 88 be 62 46 f0 bd e4 c8 34 3e
       -0.049390897 -0.2670461 -0.117321745 0.17654759
000030 42 7f 30 3e 0a 6f 12 3e fe ec 9c 3d 6c c8 96 3d
       0.17236045 0.1430017 0.0766239 0.07362446
000040 fe d5 9d bd bc ae 22 bd 36 a9 35 3e 60 35 93 3e
       -0.077068314 -0.03971742 0.1774033 0.2875166
000050 09 53 48 3d b4 52 68 3d a5 c9 59 bd a9 14 c2 3d
       0.048907313 0.056719497 -0.05317082 0.09476597
000060 3f ca 0a be c4 62 b5 bd 47 e7 29 be 5a 9b 7b be
       -0.13553713 -0.08856729 -0.16592132 -0.2457098
000070 17 b6 89 3e 28 07 5d be cd 4d a6 3d fc 2d 61 bd
       0.26896736 -0.21584761 0.08120308 -0.054975495
000080 23 79 44 be a5 4c 1e bc 51 b1 34 3d 93 46 83 3e
       -0.19186835 -0.009661828 0.044114415 0.2563978
000090 50 06 e6 b9 ec 97 0d be b9 28 a5 3d dd 79 67 be
       -0.00043873722 -0.13827485 0.08064408 -0.22605081
0000a0 07 40 fb 3d e3 c5 aa bc 90 b1 66 3e 39 81 51 3d
       0.122680716 -0.020846313 0.22528672 0.051148627
0000b0 ad a4 8d be 55 bc e2 3d 11 3d 36 be 1f 07 9d bd
       -0.276647 0.11071078 -0.17796732 -0.07667374
0000c0 d3 da 2e 3e 89 5c 3e 3e d0 7c a5 3d 8c 83 05 3e
       0.17075662 0.18589987 0.08080447 0.13038462
0000d0 d5 1a 0c 3c d6 bd 23 3e 61 f2 2d bd 11 ee 8b bd
       0.008551319 0.15990385 -0.04246748 -0.06832517
0000e0 5c 82 26 3d 4c a8 66 be 32 d2 33 3d 1c f6 1b 3e
       0.040651664 -0.22525138 0.04390163 0.15230602
0000f0 87 28 5e 3e cc 23 6e bd 0c af 0c bc 0d 18 71 bd
       0.21695147 -0.058139607 -0.008586656 -0.058860827
000100 9c ae 21 bd 66 fb e6 bc 75 7a a3 3d bc 7d 09 3e
       -0.03947316 -0.028196048 0.07982341 0.1342687
000110 2e 5f 6b 3e f5 0b 74 3e 96 93 ae 3d 6a 00 8e 3a
       0.22985527 0.23832686 0.085242435 0.0010833864
000120 25 53 17 be 9f 75 7c bd 3f ad bd bd 75 a6 cd bc
       -0.14777811 -0.06163561 -0.0926156 -0.025103787
000130 55 07 e0 3c ff f6 08 3b 51 a1 f0 3d f0 bc 09 3e
       0.027347246 0.0020899174 0.11749519 0.1345098
000140 22 cb e4 3b 78 77 1f 3e 94 a2 53 bd b8 38 b0 3d
       0.006982223 0.15572917 -0.05166872 0.08604568
000150 77 6a 6d bd d4 09 1a be 81 52 50 3e 10 ad 56 be
       -0.05796286 -0.15042812 0.20343973 -0.20964456
000160 3b 91 57 3e d2 20 ae bd 40 ff 86 3e 6d 59 f0 bc
       0.21051495 -0.08502354 0.26366615 -0.029339517
000170 bd d6 5f be 95 a1 6d 3e 4e c2 3a bc 71 3f 63 be
       -0.2185926 0.2320617 -0.011398865 -0.2219217
000180 db e9 1e 3e fe b1 1a bd 69 93 26 be 8b 6c c8 3d
       0.15518896 -0.037767403 -0.1626717 0.09786328
000190 c2 31 13 3e 55 d6 fe 3d 89 87 14 3d 27 b9 b9 bb
       0.1437445 0.12443224 0.03626207 -0.005667824
0001a0 a3 0b 1c be b8 84 0a 3e 32 63 84 be be c1 7b 3c
       -0.15238814 0.1352719 -0.2585693 0.015366016
0001b0 3c 7f 99 3d d1 3f bf bc 23 97 a8 bd a8 58 20 bd
       0.07494971 -0.02334586 -0.08231952 -0.03914705
0001c0 35 aa f9 3d dd 45 68 bd d4 a4 33 3e a2 dc 8d 3e
       0.121906675 -0.05670725 0.17543346 0.27707392
0001d0 47 f3 19 3e 70 d5 24 3e 8c 5e b0 3c bb fe d1 3d
       0.15034209 0.16097045 0.021529458 0.10253664
0001e0 7b ed b0 bd f3 ff b5 3d fb 40 0c be cd 41 4a be
       -0.08639046 0.08886709 -0.13696663 -0.19751664
0001f0 81 ab af 3e 64 e1 ca be 2f 9a 98 be 5b d6 0b 3d
       0.34310535 -0.39625084 -0.29805133 0.034139972
000200 8c 1c 73 be 8b 26 16 3e bc cf 8f bc cc e9 cf 3e
       -0.23741359 0.1466314 -0.01755511 0.4060806
000210 39 ab b8 bd 2a f4 7a 3c f2 7e e3 bc 7b 2c 21 ba
       -0.09017033 0.015317002 -0.027770493 -0.00061482907
000220 61 fa 75 3e ad 09 22 bd 75 13 8d 3e 8e 32 e4 3d
       0.24021293 -0.03956001 0.27553907 0.11142455
000230 ad 9d 1d be 6f 4a 1c 3d ab 4e 49 3d a7 f4 bb ba
       -0.1539218 0.038156923 0.04914729 -0.001433988
000240 18 44 a3 3d 5d 74 86 3e 0c 2d 29 be f6 38 a1 bd
       0.07971972 0.26260653 -0.1652109 -0.078721926
000250 8c 5a 0f 3e 8f 1b 0b 3d 2a 22 e1 bd 86 4b cc bd
       0.13999385 0.03396183 -0.109928444 -0.099753425
000260 bc 89 24 be d9 1f 23 be c5 a6 62 be 7a e5 7d 3d
       -0.16068166 -0.15930118 -0.2213393 0.061986424
000270 02 b1 a4 3d 7b d8 0f 3e 22 96 77 3d 2a cb 48 3d
       0.08041574 0.14047424 0.060445912 0.049021877
000280 29 f0 66 bd c5 68 67 bd 9e 65 27 3e 9a 2e ac 3e
       -0.05638138 -0.0564964 0.16347358 0.33629304
000290 5f e1 0d 3e fd 10 84 3e 67 dd 22 be e7 86 48 3d
       0.13855503 0.2579421 -0.15904771 0.048956778
0002a0 bb 24 c4 3d 8a c3 02 be 7c 23 33 bd e0 72 81 be
       0.09577318 -0.12769905 -0.043735012 -0.25282955
0002b0 9a 65 5d 3e 5d 5c db bd f4 66 0d bc 1e df c9 bd
       0.21620789 -0.10710976 -0.008630503 -0.09857009
0002c0 9e 8f 07 be 7f fd 72 3e f6 b3 9b 3b bd 7b 03 3e
       -0.1323838 0.23729514 0.0047516776 0.12840171
0002d0 1d 09 44 be 68 e0 77 be a1 7c ea 3d 09 32 f5 bd
       -0.19144101 -0.24206698 0.11449552 -0.11972434
0002e0 c8 cf 8c 3e 81 3d 02 39 2c a2 3b 3e 7e c5 06 3d
       0.27502275 0.00012420678 0.18323582 0.032903187
0002f0 df 28 db bd 01 a5 21 3d 5d 7f 82 be 8f dc fc bd
       -0.10701155 0.039464 -0.25487795 -0.12346756
000300 67 24 a0 bd 1f b9 27 3d ae 41 7b 3d dc 3d 84 3b
       -0.07819443 0.04094803 0.061341934 0.0040356945
000310 ee 96 81 3d f5 97 40 bd bd 29 73 bb 89 87 d5 3d
       0.06327616 -0.047019918 -0.0037103735 0.10426242
000320 63 3d 4c 3d 19 ec 4d be a8 5f c2 3c ca fb 82 3d
       0.04986323 -0.20109595 0.023727253 0.06395681
000330 71 9b 9a bd 23 0a e6 3c d4 a9 f6 3d a9 9b ce bd
       -0.07549179 0.028081005 0.12044111 -0.100882836
000340 fc 44 42 3d e6 56 3b be 3c 5e fc 3c 0d 0a a9 bd
       0.04742907 -0.18294868 0.030806653 -0.0825387
000350 08 fc 6e 3e 65 df 2c 3e 6e a4 05 be a5 f4 95 bd
       0.2333833 0.16882093 -0.13051006 -0.07322053
000360 b4 63 fc 3d 5d 64 ff bc cd 8d 23 be 7f 6f 91 3d
       0.12323704 -0.031175787 -0.15972061 0.07101344
000370 9e a0 a1 bd ad 73 04 be 5b 9b 04 be bb cb b7 bd
       -0.078919634 -0.12934752 -0.12949888 -0.089744054
000380 6d ca 51 be dd c0 06 be f5 b4 04 3c 50 f2 a4 bd
       -0.20487376 -0.13159509 0.008099784 -0.0805403
000390 4a fe 23 bd 14 5f e2 3d 68 55 e6 3d 48 5f e8 b9
       -0.04003743 0.11053291 0.11246759 -0.00044321478
0003a0 4c fc f1 3d b6 ef 3b bd 89 79 66 3e 11 92 4e be
       0.118157 -0.045882903 0.225073 -0.20172907
0003b0 b2 be 3b be 7d d9 5a bd 4f c0 b1 3d 4b 55 65 be
       -0.18334463 -0.05343007 0.08679258 -0.22395818
0003c0 60 9f 59 3e 77 46 46 3e 4c 73 73 3e 43 f2 13 be
       0.21252203 0.19362818 0.23774451 -0.14447884
0003d0 c2 fe 42 3d c6 09 d7 3c ce 68 6c 3d e5 4e d1 3d
       0.047606237 0.026249778 0.057717137 0.10220126
0003e0 7d be ca 3d 2d 1f d2 3d 68 e4 b2 bd ca 95 0f 3d
       0.09899614 0.102598526 -0.08734971 0.03505496
0003f0 c2 81 ee bd 4b c8 03 3e 43 52 37 3c c9 ca 3b be
       -0.11645843 0.12869374 0.011189046 -0.18339075

lstm.bias_ih_l1 f4 [192]
000000 50 5b d2 bd 07 f3 0e be 9b 29 1d bd b2 e2 a1 bb
       -0.10271323 -0.13959895 -0.038369756 -0.0049403543
000010 b4 7d 85 3d ea 51 0f be 75 97 ef 3d 52 77 eb bb
       0.065181166 -0.13996091 0.1169881 -0.007185855
000020 d8 73 1a be a8 3b 39 bd 1c c4 99 bd d1 53 ca bc
       -0.15083253 -0.04522291 -0.07508108 -0.02469817
000030 ac c3 3d bd 89 31 60 be ef c5 f1 3d 17 06 d9 bb
       -0.046329185 -0.21893896 0.11805331 -0.0066230404
000040 31 a0 16 be d6 8d 2c bc 0b 3b 29 3e fb 87 60 bc
       -0.14709546 -0.010531863 0.1652643 -0.013704295
000050 fc 0f 28 3e d8 87 de 3d 70 f2 72 3d 62 43 55 bc
       0.16412348 0.10865754 0.059313238 -0.013016554
000060 60 5b ba 3d 0f 4e 8e bd 03 89 91 bc 29 4c d2 bd
       0.0909946 -0.06948482 -0.017765528 -0.10268433
000070 d2 16 36 be 1d 8a 6b 3e 65 43 6c bd b7 a8 be bd
       -0.17782143 0.23001905 -0.05768146 -0.093095236
000080 63 5d 87 3e a4 31 53 ba ee 93 b0 bd 86 8c 2e 3d
       0.26438436 -0.0008056408 -0.08621965 0.042614482
000090 89 d4 3c 3d 73 24 51 be ef ac b3 3d 3d 3f f4 3d
       0.046101127 -0.2042406 0.08773219 0.11926124
0000a0 17 3e eb bc c4 72 b8 3d c6 79 1b 3e 1e 00 41 be
       -0.02871613 0.09006265 0.15183172 -0.18847701
0000b0 d0 76 19 3e ff 93 8b bd ab 6b 1a be 10 9c 33 3e
       0.1498673 -0.068153374 -0.15080135 0.17540002
0000c0 05 00 aa bd 5b 9b 94 bd e9 95 16 be e3 47 2d be
       -0.08300785 -0.07256194 -0.14705624 -0.16921954
0000d0 16 58 46 3d 7a 8e bc bd 8d 38 36 be 00 58 f9 bd
       0.04842385 -0.09206863 -0.1779501 -0.12174988
0000e0 a1 d1 38 3b f0 ee 25 bd 63 d0 87 bd 4d d3 1d be
       0.002820112 -0.04051107 -0.066315435 -0.15412636
0000f0 dc 79 3f bd a0 6e fe bd da 2e 55 be ca 78 03 be
       -0.046747074 -0.12423444 -0.20818654 -0.12839046
000100 f0 76 47 be 06 78 d8 3c 60 44 fb 3a 2b 22 27 3c
       -0.19478965 0.02642442 0.0019170158 0.010201017
000110 2e 6e 83 bd b5 bf 91 bb e3 9c af bd 56 c9 84 be
       -0.064174995 -0.004447902 -0.08574846 -0.25934857
000120 1c 6b 55 3d 06 a7 0b be 22 be ad 3d e5 2f 52 be
       0.0521041 -0.13637933 0.084835306 -0.20526083
000130 4b a2 6a be a0 8b 35 be 7b e6 41 be 9c d2 14 3c
       -0.22913472 -0.17729044 -0.18935578 0.009083416
000140 cd 1a 7e 3d 0d ea 1d be 00 8a 13 be ba 4e 80 be
       0.062037278 -0.15421315 -0.14408112 -0.25060064
000150 9d 3a 99 bc cc 28 41 bd b2 20 31 be 70 45 2b be
       -0.018704707 -0.047158048 -0.17297629 -0.16725707
000160 0e 8d be bc 4e 4e 1b be 37 b4 20 be b9 85 8b bd
       -0.02326062 -0.1516659 -0.15693747 -0.06812615
000170 42 90 59 be df 49 37 be a8 29 c4 bc b2 92 41 be
       -0.21246436 -0.17899273 -0.023945644 -0.18903616
000180 a1 d5 7a bd f1 43 3a bd 2a 7c ba bc fd 90 55 bc
       -0.06123889 -0.04547495 -0.022764284 -0.013035056
000190 0d 95 46 bd ad 9c 80 bd 65 7e 0c bc d5 b6 61 3d
       -0.04848199 -0.062798835 -0.008575057 0.055106003
0001a0 24 84 cc 3b 58 ab 9b bd a8 76 86 3d d9 96 30 be
       0.0062413383 -0.076010406 0.06565601 -0.17245044
0001b0 7f e8 f0 3d cf 9a 92 bd 27 0c 0d 3e 46 8f bc bb
       0.11763095 -0.07158434 0.13774167 -0.005754384
0001c0 4f 17 1d 3e c5 bb 31 3d 5b 3c fd 3d bc 49 d6 3d
       0.15340923 0.04339196 0.123650275 0.104632825
0001d0 d0 a1 79 bd f5 b1 3c be 06 0f 29 3e 63 ca 52 3d
       -0.060945332 -0.1842726 0.16509637 0.051462542
0001e0 20 13 73 3e e1 6a 09 3e 59 59 2b 3e c1 4d 3e 3d
       0.23737764 0.13419677 0.16733302 0.04646087
0001f0 1b 2f 14 bd 25 82 ce 3c 3a 68 0c 3d e2 08 bf bd
       -0.036177736 0.025208542 0.034279086 -0.09327866
000200 fa fd d3 bd d5 96 b8 bd f8 18 ec bc 2c 20 d7 bd
       -0.103511766 -0.09013144 -0.0288205 -0.10504183
000210 75 85 23 3e 1c e6 99 3d 01 3d 9b bd 99 d8 4c 3d
       0.15968879 0.07514593 -0.07579995 0.05001125
000220 bb 29 54 3d 46 76 12 be 81 20 13 3c 78 61 d8 bd
       0.05179761 -0.1430293 0.0089799175 -0.10565466
000230 75 d2 f1 3d 12 25 38 bd 85 86 7b 3d 52 d9 ad 3c
       0.118077196 -0.044957228 0.061407585 0.02122179
000240 a2 86 dc bc 1d f9 bb 3d cd b3 b1 3b 4e 3b d6 3d
       -0.026919667 0.09178374 0.0054230453 0.1046053
000250 a4 60 b3 3d 4a 1f ac bd af 2f cf 3c d1 6b 23 3e
       0.08758667 -0.084044054 0.025291292 0.15959097
000260 ed 61 18 be 8e d9 e7 bd 39 5e 94 3d aa 2e 8f bd
       -0.14881106 -0.11320792 0.07244534 -0.06991322
000270 e5 71 b0 3d 6d 3f 75 be c2 18 11 3d cf cb 81 3d
       0.08615474 -0.23949976 0.035424 0.063377015
000280 bc d5 b9 3d 8c d6 03 3e 6a db e9 3d be 4b 6a 3d
       0.0907397 0.12874812 0.11418803 0.05720114
000290 12 84 47 bc c9 a9 89 3d 75 90 12 3d dd d4 44 be
       -0.012177484 0.06721837 0.035782296 -0.19221826
0002a0 49 16 98 bb d9 be c8 3d b1 79 a1 3d 4f 52 7f bd
       -0.0046413285 0.09802026 0.07884539 -0.062334355
0002b0 f9 c3 2b 3d f0 d4 84 3d 0c fb 20 bd 18 df 13 be
       0.04193494 0.06485927 -0.039301917 -0.14440572
0002c0 3a f1 a1 3d 74 a2 ba 3c bb ae 94 bd 93 0f a1 3d
       0.079073384 0.022782542 -0.0725989 0.07864299
0002d0 ac 7a eb 3d 0b 07 ae be f7 2e ae 3d b4 78 0f bd
       0.11498007 -0.33989748 0.085050516 -0.03502722
0002e0 2a 5c 8c 3d 4a d7 d9 3b b0 8a ea 3c 27 ca 43 be
       0.068535164 0.006647979 0.028630584 -0.19120084
0002f0 25 cd f8 3d 01 3a 68 3d 1f 70 dc bd 23 eb ee 3d
       0.12148503 0.05669594 -0.10763573 0.116659425

lstm.bias_hh_l1 f4 [192]
000000 98 ef f4 bd e6 86 05 be 62 f0 b9 bc 1c 7a 66 3d
       -0.119597614 -0.13039741 -0.022697631 0.056268796
000010 2d ed 39 bd 9c 6e b0 bd 75 80 12 3e c2 a1 f9 3d
       -0.045392204 -0.08614847 0.14306815 0.12189056
000020 5d 8d 6b 3d f5 c8 4a be b6 a3 f8 3d ef 9f d3 bd
       0.05750786 -0.19803222 0.121406004 -0.10333239
000030 21 cc 10 bd da 8a 42 be 03 17 c5 bb ff f3 68 bd
       -0.035350922 -0.1899828 -0.006014706 -0.056873318
000040 64 a4 77 bd ff 76 34 3e aa 02 77 3e d3 9a 14 3e
       -0.06045951 0.17623518 0.2412211 0.14512186
000050 55 6e 06 3e 6c e2 fe 3d 2b 41 83 3d 4e a0 8c bd
       0.13128026 0.1244553 0.06408914 -0.06866513
000060 17 1f 02 3e 59 0b cf 3d 08 23 e8 3c 9b 63 28 3d
       0.12707172 0.10109586 0.028337017 0.041110616
000070 b0 98 4f bd ac d4 f8 3c 80 30 90 bc 9c d6 45 3c
       -0.050682724 0.030374847 -0.017601252 0.012075093
000080 02 aa 76 3e 4d b8 1e be 75 65 02 be e7 74 f3 3d
       0.2408829 -0.15499993 -0.12734015 0.11887532
000090 ac 6d 85 bc 68 7f a3 be 1d e6 a0 3d 87 e6 f5 bd
       -0.016287647 -0.3193314 0.078563906 -0.1200686
0000a0 f7 0a 18 bd 62 cb e9 ba f4 73 8b 3d b1 1e 5f be
       -0.037119832 -0.0017837102 0.06809226 -0.21789052
0000b0 9e ee 98 bd be 74 2c bc ed 3f 17 be 77 92 ed 3d
       -0.074673876 -0.01052588 -0.1477048 0.116002016
0000c0 e3 8a 4e be 89 92 48 3c 08 29 d9 bd f8 71 d1 3c
       -0.20170169 0.012241968 -0.10603529 0.02556704
0000d0 15 10 88 3d 74 16 98 be 38 ad a6 bd 9f 4e 85 3d
       0.066436924 -0.2970463 -0.081385076 0.065091364
0000e0 7b 81 00 be 2c bd 95 bc e1 e5 a2 bd a9 d9 07 be
       -0.12549393 -0.01827868 -0.07954002 -0.13266625
0000f0 e7 5d cc bd c0 5c 7a be 32 b6 32 3d 06 38 65 be
       -0.09978848 -0.24449444 0.043630786 -0.22384652
000100 23 78 24 be f6 ae c1 bd 9e bd e2 bd 4c eb d8 bd
       -0.16061454 -0.09457199 -0.11071323 -0.10591754
000110 21 18 a0 bc b2 d9 fe bd c5 43 9c 3d 09 57 2e be
       -0.019542756 -0.12443866 0.076301135 -0.17025389
000120 53 2a 18 bd 58 b3 1c bd cc 49 34 bd af 60 35 be
       -0.03714974 -0.038256973 -0.04401569 -0.17712663
000130 6c a7 1f bd 36 0a 67 be 81 10 36 bd 40 ce 6c be
       -0.038978025 -0.22562489 -0.044449333 -0.23125553
000140 2c ba 58 bd de f5 34 be 0d c3 3d be ae 89 ed bd
       -0.052911922 -0.17671916 -0.18531437 -0.11598526
000150 67 d0 8a bd 72 a1 2e be 99 87 9a be d5 31 5b 3c
       -0.06778031 -0.17053774 -0.30181578 0.01337858
000160 c7 b9 49 be d9 42 b7 3d 58 cb 3a bd a5 29 90 be
       -0.19699775 0.08948297 -0.04560408 -0.28156772
000170 4d ff 23 bc 4e 54 4e be e5 2c 47 3d bf 9b c7 bd
       -0.010009599 -0.20149347 0.0486268 -0.09746503
000180 2f 5e 44 3c 00 1d f9 bd ed ca ab bc 89 d3 a6 3c
       0.011985346 -0.121637344 -0.020970786 0.02036454
000190 9c 70 6a be cd c9 04 bc 51 79 7d bd b8 97 22 bd
       -0.2289452 -0.008104754 -0.061883274 -0.03969547
0001a0 8f b9 c6 3d 76 cf f1 bd a2 5a 31 3d b1 22 2a 3d
       0.09703361 -0.11807148 0.043299325 0.04153699
0001b0 bf 60 cf bd fd 80 ee bd 27 58 1f 3e 91 4f ab 3d
       -0.10125875 -0.11645696 0.15560971 0.083647855
0001c0 a0 a9 28 bd 1d 3d e6 3c 6d df 1f 3c d0 15 27 be
       -0.041177392 0.028105313 0.009757859 -0.16316915
0001d0 97 7d 4d bb e2 ff aa 3d 1c 9d 39 3e b3 ff b6 3c
       -0.0031355375 0.08349587 0.18126339 0.022338724
0001e0 3b 7b 8b 3e 45 34 2b 3e 42 0d bc 3d 90 21 8b bd
       0.27242455 0.16719158 0.09182216 -0.06793511
0001f0 16 4d 0d bd 3e 59 00 3b f8 3a f6 3c a8 ca dc bd
       -0.034497343 0.0019584442 0.030057415 -0.10780841
000200 a8 f5 00 be dd d2 d3 bd 89 c2 9c 3d b8 be 9d bc
       -0.1259371 -0.10342953 0.07654292 -0.01925598
000210 e8 a7 3b 3e ae fc 88 bc 98 2f 12 3d 42 42 0f 3e
       0.1832577 -0.01672205 0.03568992 0.13990119
000220 bf 63 0d be 78 b9 d4 3d 9b 9b f1 3c 13 db a4 3c
       -0.13807581 0.10386938 0.029493144 0.020123994
000230 60 f8 2a 3c ea f2 92 bd 11 df 59 bd 0d 72 d6 3d
       0.010435194 -0.071752384 -0.05319125 0.10470972
000240 e9 4c 76 bd 70 4e 75 bd 51 a5 89 3c f7 5b 1d be
       -0.06013194 -0.059889257 0.016802462 -0.15367113
000250 3c 8e f3 3d e7 7b 5a be 13 63 e1 bc f4 62 fb ba
       0.118923634 -0.21336327 -0.027513063 -0.0019179271
000260 56 b0 11 3d 14 52 45 be 08 b6 32 3d 59 35 1c 3e
       0.035568558 -0.19269592 0.04363063 0.15254726
000270 3c 9e 50 3d 87 15 31 be c9 38 41 bc 3b 1f 00 be
       0.050932154 -0.17293368 -0.011793324 -0.12511913
000280 e6 0f 45 3d 5e ce fe 3d 48 a2 3c 3e 38 7b 01 bd
       0.048110865 0.12441705 0.1842128 -0.03161165
000290 12 01 54 bc ec ba 01 be 6a be c6 3c 65 2b 38 bd
       -0.012939708 -0.12668961 0.024260718 -0.04496326
0002a0 7c 6d eb 3d 24 4c 1b 3e 2a 18 16 be 30 20 32 be
       0.11495492 0.15165764 -0.14657655 -0.17395091
0002b0 79 c5 96 3c 37 4a 32 3e ed 50 bb bd 42 a0 f3 bd
       0.01840471 0.17411123 -0.09146295 -0.11895801
0002c0 ac a8 3f 3e c5 c5 6f 3c 6f c9 a5 3d 0d 7d 22 3e
       0.18716687 0.014634554 0.08095061 0.15868016
0002d0 ef 6d 41 3d 89 34 2c be d0 5f 9f 3d 65 e5 f4 3c
       0.04722398 -0.16816916 0.07781947 0.02989454
0002e0 1e ae fe 3d e4 36 58 bd e1 e4 a2 bb 9c fa 89 bd
       0.12435554 -0.052786723 -0.004971132 -0.06737253
0002f0 d0 5f 65 3d 26 e5 17 ba ca 4d 1e 3c 5a 16 53 b9
       0.055999577 -0.00057943386 0.009662101 -0.00020130855
