checkpoint/training_epochs_100_stepsize_7_gamma_0.75/model_epoch70.pth (torch, 117569 bytes, 10 tensors)

lstm.weight_ih_l0 f4 [192, 2]
0.06527875 -0.0963689 0.15949488 -0.04830544 -0.42130947 -0.011687497 -0.0066336347 0.023580965
0.13741139 0.10089309 -0.15180127 0.051646926 0.030474445 0.15628563 -0.17404526 -0.20051517
0.016597899 0.07908686 0.026647896 -0.02168154 -0.3662278 -0.14585732 0.16519454 0.1558407
-0.064088464 -0.027573261 -0.07332889 -0.0542352 0.27286068 -0.0453402 -0.2548211 0.13761619
0.2600436 0.033065237 -0.011929178 -0.25010955 -0.14451061 -0.07773173 0.23184197 0.41450065
-0.16219024 -0.037238657 0.28345713 0.21207614 0.2111006 0.36383522 -0.04236232 0.007938589
-0.11082046 -0.18153661 -0.12798639 -0.17195213 0.06737663 -0.0453144 -0.06492773 -0.09792128
-0.072912745 0.12559791 0.38273996 0.2580468 -0.04454365 -0.20148546 0.3198726 0.15042785
0.09456585 -0.07278541 -0.03174937 -0.021408258 0.4177625 0.44430467 -0.15680385 -0.18390387
0.030646635 -0.11103133 0.33939955 -0.12029479 -0.34916472 0.13984613 0.082014725 0.23735413
0.124894105 -0.09221196 0.12969172 0.027565552 0.046875753 0.19832344 -0.18273595 -0.0038267467
-0.26082098 -0.26004553 0.40105864 -0.033422146 -0.23334971 -0.32336116 0.098166205 0.22451995
0.17941791 0.21810791 0.035014115 -0.060345978 -0.43799937 0.08849317 -0.15649375 0.063009605
0.1537881 0.33372438 -0.239031 -0.09363697 -0.010612039 -0.042978235 -0.23213176 -0.19260584
0.2579029 0.26066542 -0.21123165 -0.108589865 -0.19294211 0.08237844 0.12596835 0.12133559
0.01973768 0.14608958 -0.1659175 -0.09197943 0.24354379 -0.16605186 -0.06746723 0.047631826
0.07457131 -0.07060731 -0.03321698 -0.036079623 0.09070542 -0.12325525 0.08092496 0.20395632
-0.20185612 0.08547416 0.28921613 0.26908702 0.050558455 -0.051963504 -0.12287603 0.03160398
-0.008488723 -0.0052099694 -0.08971103 -0.05969307 0.091723494 0.04906782 -0.036881313 -0.09829167
-0.06460253 0.3406311 0.108273305 0.042733103 0.02384228 -0.23381877 -0.01751516 -0.066144936
0.040205367 -0.30623555 0.025484994 0.09452239 0.112247236 0.056900535 0.11812035 -0.040420912
-0.19511777 -0.25454918 0.18179154 -0.14583395 -0.50537294 0.20311809 -0.030815518 0.016265018
-0.04336953 0.18893951 0.08138702 -0.10589793 -0.041259516 0.23153603 0.08889798 0.16157289
-0.19605257 -0.26712406 -0.13685443 0.058076315 -0.13202289 -0.0025834844 0.058214426 0.08263075
0.22144693 0.078136355 0.32578158 -0.25254184 0.33688188 0.16442265 -0.26087448 0.20978467
0.026969252 -0.36191678 -0.25063238 -0.37936512 0.19165675 0.2768078 0.061241418 0.055625226
-0.27620718 -0.14230174 -0.2993439 0.17778587 0.20091195 0.11495451 0.27889103 0.12078048
0.03837631 -0.14174241 -0.23699835 0.30564126 -0.34595665 0.1257719 -0.24078 -0.2529723
-0.31978986 0.32135797 -0.36195007 -0.025123022 -0.24870123 0.21537262 0.2924251 -0.3854877
0.08775665 0.17903139 0.31634197 0.29748085 -0.18104361 -0.23332831 0.059354734 0.2950606
0.083747596 -0.35504997 0.2000892 -0.27907333 0.3961303 0.21232131 -0.25700194 0.2563879
-0.06263618 0.23006938 -0.4939615 0.028794575 -0.072009586 0.2116841 0.29493883 -0.33593258
00000000: deb0 853d 0f5d c5bd a052 233e eddb 45bd
00000010: e0b5 d7be ea7c 3fbc f65e d9bb de2c c13c
00000020: 92b5 0c3e 09a1 ce3d cb71 1bbe ba8b 533d
00000030: 8ba5 f93c 5709 203e ec38 32be d953 4dbe
00000040: 51f8 873c 4bf8 a13d b04c da3c 7c9d b1bc
00000050: 3682 bbbe 9f5b 15be c228 293e b494 1f3e
00000060: d040 83bd 52e1 e1bc 752d 96bd bb25 5ebd
00000070: 65b4 8b3e a5b6 39bd e977 82be 42eb 0c3e
00000080: 6f24 853e 6a6f 073d 9972 43bc 5c0e 80be
00000090: 97fa 13be d031 9fbd fb67 6d3e 6e39 d43e
000000a0: 3315 26be 9087 18bd 4b21 913e 7d2a 593e
000000b0: c12a 583e 9c48 ba3e 1d84 2dbd db10 023c
000000c0: d6f5 e2bd bce4 39be dd0e 03be 3814 30be
000000d0: c2fc 893d 989b 39bd d4f8 84bd f48a c8bd
000000e0: 4753 95bd bd9c 003e 7ef6 c33e b61e 843e
000000f0: 6773 36bd 3452 4ebe 57c6 a33e c209 1a3e
00000100: beab c13d 8410 95bd a10b 02bd 5f60 afbc
00000110: f7e4 d53e e77b e33e 3091 20be 4c51 3cbe
00000120: a70e fb3c 6564 e3bd c7c5 ad3e 1d5d f6bd
00000130: b8c5 b2be d333 0f3e 56f7 a73d f60c 733e
00000140: 7bc8 ff3d a0d9 bcbd e8cd 043e 27d1 e13c
00000150: ca00 403d 4d15 4b3e 221f 3bbe 28ca 7abb
00000160: 548a 85be b024 85be 8f57 cd3e a9e5 08bd
00000170: 3af3 6ebe 988f a5be 5d0b c93d 8fe8 653e
00000180: 54b9 373e ae57 5f3e f66a 0f3d 582d 77bd
00000190: 7441 e0be e83b b53d e63f 20be 2e0b 813d
000001a0: a17a 1d3e ecdd aa3e 8bc4 74be bdc4 bfbd
000001b0: 1ede 2dbc f209 30bd f3b3 6dbe 773a 45be
000001c0: d90b 843e f075 853e 1c4d 58be 5d64 debd
000001d0: 9e92 45be 07b6 a83d d9fd 003e cb7e f83d
000001e0: eab0 a13c 8298 153e 47e6 29be b65f bcbd
000001f0: 8b63 793e 8009 2abe 422c 8abd 9719 433d
00000200: d8b8 983d 919a 90bd 870e 08bd 3ac8 13bd
00000210: c3c3 b93d 406d fcbd fcbb a53d edd9 503e
00000220: 5fb3 4ebe 140d af3d 2314 943e c6c5 893e
00000230: 6216 4f3d afd7 54bd 6ea6 fbbd 2d73 013d
00000240: 4914 0bbc 64b8 aabb 6bba b7bd b880 74bd
00000250: 87d9 bb3d 57fb 483d dc10 17bd 254d c9bd
00000260: 554e 84bd 3367 ae3e 65be dd3d e808 2f3d
00000270: e350 c33c 306e 6fbe f47b 8fbc ff76 87bd
00000280: 62ae 243d e8ca 9cbe e8c5 d03c f494 c13d
00000290: e1e1 e53d 8910 693d 15e9 f13d 6690 25bd
000002a0: f4cc 47be 4554 82be 9027 3a3e 7f55 15be
000002b0: 1f60 01bf 30fe 4f3e d370 fcbc 373e 853c
000002c0: 40a4 31bd 5c79 413e 3dae a63d 04e1 d8bd
000002d0: bdff 28bd c817 6d3e 2510 b63d 5d73 253e
000002e0: 01c2 48be 7cc4 88be 9123 0cbe 6ee1 6d3d
000002f0: 0231 07be ad4f 29bb 4072 6e3d 503a a93d
00000300: fcc2 623e f405 a03d d8cc a63e 2a4d 81be
00000310: c87b ac3e 695e 283e 5791 85be cbd1 563e
00000320: 9fee dc3c 284d b9be e352 80be 253c c2be
00000330: ab41 443e c1b9 8d3e 48d8 7a3d 47d7 633d
00000340: 076b 8dbe 8cb7 11be 9b43 99be 800d 363e
00000350: ddbb 4d3e 456d eb3d ceca 8e3e c25b f73d
00000360: 7a30 1d3d ec24 11be b2af 72be 037d 9c3e
00000370: 3b21 b1be 59ca 003e 088f 76be 9685 81be
00000380: 7fbb a3be 0889 a43e 8551 b9be ccce cdbc
00000390: 89ab 7ebe a48a 5c3e beb8 953e a55e c5be
000003a0: c2b9 b33d 0154 373e 93f7 a13e 694f 983e
000003b0: 7f63 39be 9eed 6ebe f31d 733d 2f12 973e
000003c0: dc83 ab3d 1cc9 b5be 2fe4 4c3e b3e2 8ebe
000003d0: 97d1 ca3e c26a 593e c295 83be 4645 833e
000003e0: 6647 80bd 4f97 6b3e 86e8 fcbe 9ae2 eb3c
000003f0: c379 93bd b7c3 583e 3902 973e 5bff abbe

lstm.weight_hh_l0 f4 [192, 48]
-0.08507808 7.295694e-05 0.3295068 0.123566 0.058415648 -0.12437818 -0.021684356 0.025012555
0.052220184 -0.0069469423 0.09451985 0.07902913 0.082216896 -0.15508981 0.14593635 -0.021586712
0.29798746 0.11732048 0.13706413 -0.32600582 0.10013584 -0.013932213 -0.204243 0.06828558
0.03895334 -0.017312277 -0.12325354 0.22713663 0.0060142553 0.10650934 0.050150663 -0.20776053
0.008910499 -0.15232399 -0.019207982 0.069035515 -0.01243988 -0.102942556 -0.14819318 0.05571824
-0.08872946 -0.056331538 -0.03433746 -0.24108349 0.09576428 -0.21379444 -0.2061781 -0.29168057
0.04913761 0.13428937 -0.22994104 -0.3278944 0.005068343 0.10401046 0.27203417 0.109121464
-0.11886579 -0.07372933 -0.15447135 -0.14912593 -0.015020133 -0.011657746 -0.046774562 -0.057691865
-0.30416512 -0.22246255 -0.06823668 0.29392016 -0.07887133 -0.1688211 0.11335494 0.0046205083
0.085558265 0.068384625 0.21069944 -0.14970997 -0.015213634 -0.17556246 -0.025974248 0.40093398
0.11423117 0.27393615 -0.17856133 0.09979358 0.07634633 0.025657197 0.15141846 -0.12814339
0.041169003 -0.003962385 0.044946887 0.26514 -0.0066972007 0.12196019 0.23564896 0.26709676
-0.108081475 -0.09626941 -0.38589725 0.43102464 0.083055265 0.16428688 -0.08140142 -0.30997622
0.28311592 0.39763257 -0.06168686 -0.4375799 0.022181988 0.43063003 0.36781093 0.36103544
0.5252631 0.36243743 0.28012326 -0.23897511 -0.12420923 -0.396836 0.23965633 0.044162527
-0.22349761 -0.2543356 -0.45216328 0.16638738 0.058818452 0.83488125 0.346297 -0.59155905
-0.3454599 0.22335066 0.19876099 -0.19867355 -0.35823476 -0.6500095 -0.18819754 -0.038381506
0.028002292 -0.1124102 -0.36870423 0.032213897 -0.09401112 -0.2770345 -0.21668713 -0.2522874
-0.102907166 0.22386459 -0.24922898 0.016414829 0.035941135 -0.042661216 0.08626725 -0.053305946
-0.023420198 -0.050005943 -0.17839213 0.003696081 -0.007165479 0.06446264 -0.06524512 -0.010697291
-0.18345729 -0.14694235 -0.16801451 0.44108936 -0.08694747 -0.22649826 0.14951585 0.09812884
-0.11487146 -0.120981365 -0.09344684 0.053110987 -0.2117108 -0.044624913 -0.106350094 0.21484563
-0.049311925 0.2410546 0.2578154 0.19851683 0.030748853 0.030672638 0.09400844 -0.3125695
-0.06990908 0.14618888 0.11154592 0.14326511 0.08854224 0.18727781 0.17419656 0.28361985
0.22062749 0.056702632 0.4432661 -0.083836846 0.1644976 0.16519286 -0.13147461 0.13037798
0.05885519 -0.3235361 0.08830539 0.07023393 -0.058223143 -0.29547882 -0.14296089 0.009652238
0.022639653 -0.03888218 -0.15035428 0.19110845 0.14127633 -0.11951168 0.3411565 -0.08118166
-0.05036375 0.25215265 -0.026937103 -0.09997085 -0.14584814 -0.10880186 -0.057375383 0.15519787
0.29335007 -0.06673083 0.120979376 0.12687401 0.06674043 0.25552756 0.42861116 -0.094275974
0.14870118 0.0032911922 -0.086965226 0.020552132 -0.0393002 0.09314217 -0.018288536 0.29403397
0.4257933 0.30795437 0.6127961 0.06966988 -0.04689239 0.27969 -0.1186807 -0.08182868
-0.30049786 -0.4473359 0.16892298 0.12249392 -0.19186307 -0.10503806 -0.07555975 -0.19578563
00000000: 6b3d aebd 7500 9938 1eb5 a83e 2c10 fd3d
00000010: 3f45 6f3d fdb9 febd 64a3 b1bc 21e7 cc3c
00000020: d5e4 553d 2da3 e3bb a093 c13d 06da a13d
00000030: 5561 a83d ddcf 1ebe 5770 153e 9ed6 b0bc
00000040: d091 983e b845 f03d 8a5a 0c3e 3cea a6be
00000050: 0514 cd3d f043 64bc 1425 51be 4fd9 8b3d
00000060: 8a8d 1f3d 7ad2 8dbc 5a6c fcbd 8196 683e
00000070: 3b13 c53b 9221 da3d c86a 4d3d 2dbf 54be
00000080: 57fd 113c d2fa 1bbe 0f5a 9dbc 7e62 8d3d
00000090: a3d0 4bbc 8cd3 d2bd f4bf 17be cf38 643d
000000a0: cbb7 b5bd e6bb 66bd 70a5 0cbd 97de 76be
000000b0: 1020 c43d eeec 5abe 5a20 53be 2857 95be
000000c0: 8544 493d 2783 093e aa75 6bbe c6e1 a7be
000000d0: 5814 a63b 7003 d53d 1048 8b3e 137b df3d
000000e0: e86f f3bd 67ff 96bd bd2d 1ebe 78b4 18be
000000f0: 0117 76bc 2100 3fbc af96 3fbd 4e4e 6cbd
00000100: 88bb 9bbe 39cd 63be acbf 8bbd b47c 963e
00000110: 4b87 a1bd 70df 2cbe a326 e83d a267 973b
00000120: 2c39 af3d 3d0d 8c3d 98c1 573e 924d 19be
00000130: 9b42 79bc a5c6 33be f2c7 d4bc 3847 cd3e
00000140: 08f2 e93d 5c41 8c3e c8d8 36be 9460 cc3d
00000150: 775b 9c3d 0b2f d23c 710d 1b3e 0538 03be
00000160: d4a0 283d e5d6 81bb 3a1a 383d 6ec0 873e
00000170: 3174 dbbb 44c6 f93d f64d 713e e8c0 883e
00000180: d259 ddbd e528 c5bd 5394 c5be 43af dc3e
00000190: e118 aa3d d23a 283e cab5 a6bd 34b5 9ebe
000001a0: 92f4 903e 7f96 cb3e 5cab 7cbd 790a e0be
000001b0: 00b7 b53c 8a7b dc3e b751 bc3e a3d9 b83e
000001c0: a477 063f 6691 b93e 516c 8f3e e4b5 74be
000001d0: 6961 febd 172e cbbe 7868 753e c4e3 343d
000001e0: 8fdc 64be 4738 82be f281 e7be 7461 2a3e
000001f0: 9eeb 703d c7ba 553f d74d b13e 6a70 17bf
00000200: 1fe0 b0be 09b6 643e 0088 4b3e 1471 4bbe
00000210: 8c6a b7be 0667 26bf dbb6 40be ed35 1dbd
00000220: 1065 e53c 5237 e6bd cdc6 bcbe b8f2 033d
00000230: e788 c0bd 77d7 8dbe 3be3 5dbe d02b 81be
00000240: fec0 d2bd c23c 653e e235 7fbe 6478 863c
00000250: 0337 133d 87bd 2ebd e2ac b03d 5657 5abd
00000260: b7db bfbc 08d3 4cbd 6dac 36be f339 723b
00000270: 65cc eabb fd04 843d 3c9f 85bd b143 2fbc
00000280: 3adc 3bbe 0e78 16be ff0b 2cbe 77d6 e13e
00000290: 8411 b2bd 29ef 67be af1a 193e c6f7 c83d
000002a0: ba41 ebbd 14c5 f7bd 0f61 bfbd e88a 593d
000002b0: b7ca 58be 9dc8 36bd 14ce d9bd 7e00 5c3e
000002c0: 4dfb 49bd 04d7 763e 6100 843e ff47 4b3e
000002d0: 05e5 fb3c 2f45 fb3c 7f87 c03d 1c09 a0be
000002e0: 7e2c 8fbd 8ab2 153e 3072 e43d 17b4 123e
000002f0: a255 b53d c1c5 3f3e 9560 323e 9f36 913e
00000300: 2cec 613e 0541 683d c6f3 e23e a7b2 abbd
00000310: 0f72 283e 5128 293e 48a1 06be ce81 053e
00000320: 2412 713d 86a6 a5be 75d9 b43d cfd6 8f3d
00000330: 647b 6ebd 0049 97be 5764 12be 6c24 1e3c
00000340: cb76 b93c ec42 1fbd 79f6 19be efb1 433e
00000350: beaa 103e 8ac2 f4bd 11ac ae3e 9242 a6bd
00000360: 384a 4ebd 271a 813e 33ab dcbc 84bd ccbd
00000370: 3759 15be 82d3 debd 7302 6bbd 31ec 1e3e
00000380: fb31 963e 2caa 88bd 09c4 f73d 43eb 013e
00000390: 35af 883d 82d4 823e ec72 db3e c313 c1bd
000003a0: 1f45 183e 0bb1 573b d31a b2bd f25c a83c
000003b0: 3ff9 20bd 52c1 be3d d7d1 95bc 9f8b 963e
000003c0: 9401 da3e 32ac 9d3e 35e0 1c3f 15af 8e3d
000003d0: 3c12 40bd 8733 8f3e de0e f3bd cc95 a7bd
000003e0: dbda 99be 3609 e5be 25fa 2c3e 18de fa3d
000003f0: c177 44be 321e d7bd 12bf 9abd 077c 48be

lstm.bias_ih_l0 f4 [192]
0.08389843 -0.037004508 -0.25335637 -0.10734008 0.1618015 -0.06806071 -0.109082274 -0.17899871
0.0603665 0.052796364 -0.21726166 -0.011353399 -0.099218994 0.02572402 -0.063841246 -0.037016004
-0.031003922 -0.14050393 -0.045615237 0.24372785 -0.22078472 0.04491104 0.21913193 0.03569054
-0.10170312 -0.029570155 0.18227361 -0.021198668 -0.21782264 0.35447773 -0.039716896 -0.03541605
0.08710801 -0.058241624 0.1760351 -0.13456394 -0.20630947 -0.07247855 -0.10732327 -0.14601026
-0.17198956 0.12116465 0.1491638 -0.15911356 -0.28584287 0.29097787 -0.22760382 -0.108554445
0.26108116 -0.16776195 -0.050319493 -0.026486093 0.33600932 0.14991167 -0.2180936 -0.08756912
0.16058996 -0.20869662 0.048348475 0.10127174 0.077780835 -0.027057806 -0.15782517 -0.06247156
-0.037228953 -0.06531793 -0.19055402 0.08933529 -0.116503 -0.15117685 -0.13060494 -0.07884299
-0.047180995 -0.1048052 -0.010462365 0.1378313 0.0930498 -0.057597484 -0.087755986 -0.00032496665
-0.077768534 0.12262465 -0.066882774 -0.06200172 -0.24086998 -0.1545331 0.03748633 0.05716303
-0.14407657 0.0748214 -0.08372751 0.012256584 -0.36227718 -0.00881559 0.087200694 -0.106133774
-0.041996688 -0.0075956946 -0.18221074 -0.064978026 0.0153526915 0.11989061 -0.09285847 -0.048583586
0.018391108 0.042878136 -0.14264177 -0.08295093 0.06639617 -0.1072823 0.116141684 -0.015562183
0.08564873 0.13094383 -0.0106869005 -0.0029454848 -0.013963183 -0.1623394 0.04721176 -0.04514629
0.12154831 -0.03889646 -0.21528505 -0.008253677 -0.06715562 0.12583572 -0.035254832 0.094524
0.026336629 0.050664335 0.14317584 -0.01827959 0.004835323 -0.0029719612 -0.12410723 -0.0661138
0.16783898 -0.26205203 -0.17724505 0.015408234 0.058913462 0.06076759 -0.15528698 -0.029154578
0.06925469 -0.089290395 -0.06073737 0.10159768 -0.030692145 0.17408492 -0.19234435 -0.15276967
0.15620089 -0.09249381 -0.095589206 0.069808066 -0.18857588 0.1362717 0.009445499 -0.08583004
0.2760494 -0.13596684 -0.082815565 0.104472026 -0.1216026 0.10682849 0.2130916 0.04342891
-0.19188845 0.022804273 0.18936257 0.14245218 -0.06091104 0.3844125 0.029530117 0.21037635
-0.117409825 -0.07919861 0.15323703 -0.16358477 -0.0780784 0.09070356 -0.06847281 -0.017990587
-0.000748833 0.059039515 0.13821104 -0.19943762 -0.29160556 0.3139352 -0.29228407 0.113350846
00000000: f1d2 ab3d 0a92 17bd edb7 81be 1ed5 dbbd
00000010: 4baf 253e 6a63 8bbd 8766 dfbd 704b 37be
00000020: dd42 773d 0041 583d d779 5ebe 9b03 3abc
00000030: 5433 cbbd 2ebb d23c 33bf 82bd 189e 17bd
00000040: f0fb fdbc 43e0 0fbe 0bd7 3abd cb93 793e
00000050: 6415 62be a4f4 373d 1f64 603e 3e30 123d
00000060: ba49 d0bd 1c3d f2bc efa5 3a3e d4a8 adbc
00000070: e60c 5fbe 1b7e b53e 2fae 22bd 6c10 11bd
00000080: af65 b23d c58e 6ebd 8c42 343e 21cb 09be
00000090: ca42 53be a26f 94bd 4dcc dbbd b783 15be
000000a0: 081e 30be 2c25 f83d 65be 183e aaee 22be
000000b0: ff59 92be 0dfb 943e fa10 69be cb51 debd
000000c0: 6eac 853e cac9 2bbe d01b 4ebd 5df9 d8bc
000000d0: 6a09 ac3e 7282 193e ee53 5fbe 7057 b3bd
000000e0: b271 243e 91b4 55be 0d09 463d 8f67 cf3d
000000f0: 8f4b 9f3d 55a8 ddbc ec9c 21be 2ee2 7fbd
00000100: 637d 18bd 68c5 85bd 9820 43be 6cf5 b63d
00000110: 2099 eebd 1bce 1abe 4dbd 05be 6f78 a1bd
00000120: dc40 41bd 1ca4 d6bd 576a 2bbc a623 0d3e
00000130: e590 be3d 57eb 6bbd 69b9 b3bd 4960 aab9
00000140: 1c45 9fbd a222 fb3d d6f9 88bd 84f5 7dbd
00000150: 9fa6 76be ed3d 1ebe 448b 193d c823 6a3d
00000160: cf88 13be f63b 993d 5479 abbd d7cf 483c
00000170: 657c b9be 446f 10bc 4796 b23d aa5c d9bd
00000180: b804 2cbd 4ee5 f8bb 7495 3abe 3313 85bd
00000190: db89 7b3c 3589 f53d 952c bebd 95ff 46bd
000001a0: f3a8 963c fca0 2f3d af10 12be 2de2 a9bd
000001b0: b7fa 873d d3b6 dbbd b1db ed3d 87f8 7ebc
000001c0: 9a68 af3d 2416 063e 1c18 2fbc 0909 41bb
000001d0: d6c5 64bc 4d3c 26be 1e61 413d 51eb 38bd
000001e0: 52ee f83d e551 1fbd af73 5cbe 6e3a 07bc
000001f0: e388 89bd 14db 003e 5f67 10bd cd95 c13d
00000200: eabf d73c 6885 4f3d b09c 123e 14bf 95bc
00000210: a171 9e3b 3cc5 42bb ee2b febd ac66 87bd
00000220: fbdd 2b3e af2b 86be ba7f 35be d172 7c3c
00000230: 3e4f 713d 70e7 783d 8d03 1fbe 95d5 eebc
00000240: 67d5 8d3d e2dd b6bd c0c7 78bd 7212 d03d
00000250: 186e fbbc 5143 323e ebf5 44be a76f 1cbe
00000260: 20f3 1f3e 656d bdbd 46c4 c3bd 88f7 8e3d
00000270: 091a 41be cf8a 0b3e 4bc1 1a3c a9c7 afbd
00000280: 5956 8d3e e43a 0bbe 359b a9bd 6ef5 d53d
00000290: c90a f9bd e5c8 da3d af34 5a3e 83e2 313d
000002a0: 687e 44be 07d0 ba3c 43e8 413e fcde 113e
000002b0: db7d 79bd b7d1 c43e 25e9 f13c e66c 573e
000002c0: 9074 f0bd e132 a2bd 2bea 1c3e c482 27be
000002d0: 91e7 9fbd cac2 b93d 793b 8cbd ff60 93bc
000002e0: 554d 44ba 6bd3 713d 3287 0d3e 6039 4cbe
000002f0: 534d 95be 1dbc a03e 42a6 95be 7d24 e83d

lstm.bias_hh_l0 f4 [192]
-0.03453969 0.07103666 -0.28227788 -0.13070393 0.17331994 0.14269584 -0.097822584 -0.3372415
0.08823956 0.10517394 -0.055979606 0.1279499 -0.1592173 -0.0188863 -0.11003953 -0.14036308
0.03672596 -0.014608999 -0.19183502 0.22667953 -0.18006235 -0.010739907 0.06025639 -0.04214451
-0.005022356 -0.18867654 0.12763226 -0.16864 -0.11032994 0.44079852 -0.24177879 0.11306655
-0.019593103 -0.17838664 0.08880834 -0.21228197 0.032313198 -0.03221046 -0.14494716 0.0029565084
0.02310817 0.10911547 0.05092337 -0.13854301 -0.22867075 0.19109905 -0.17838837 0.073327035
0.24877383 -0.18803419 -0.11914059 0.041674253 0.19072339 0.08051395 -0.23193307 -0.1621047
0.21936287 -0.023945058 -0.055041388 -0.046168018 0.22317918 0.03145971 -0.13388772 0.03552573
0.0034581705 -0.056730073 -0.26918843 0.069885924 0.009365762 -0.06795684 -0.017381899 -0.0038394202
-0.12185518 -0.0666308 0.10086022 0.1600852 0.16118363 0.08661962 0.0123194 -0.18160434
-0.10948917 -0.009021893 -0.13300955 0.07179061 -0.21321504 -0.069776155 -0.100916535 -0.048942387
0.068849705 -0.18341863 -0.04014982 -0.028506171 -0.20528126 0.087239794 -0.02780384 -0.036808174
-0.1200486 -0.017290499 0.024051117 0.07468396 0.08796255 0.14025266 -0.105533846 0.008285172
0.111440204 0.00032694935 0.033760827 -0.14080036 0.032141447 0.08552399 -0.014230929 0.2452802
-0.11982944 0.09258281 0.00079785375 0.04518343 -0.13711695 -0.10893718 0.13305712 -0.107379235
0.028726147 0.05106887 -0.04509988 0.04332061 -0.011609669 0.08739936 -0.044460543 -0.040702336
0.051640067 0.048049416 0.11347792 0.028396402 0.028713103 0.025714695 -0.14572959 -0.06599626
-0.002438305 0.0058432114 -0.06751769 0.101845734 -0.07239673 0.090638 0.06518332 -0.007203089
0.2289845 0.09541571 -0.28354162 0.10349203 0.11795561 0.28609818 -0.14266844 -0.18665524
0.036262516 -0.15104486 -0.24979997 0.027048834 -0.065246895 0.041954994 -0.0004976776 -0.0743985
0.14101276 -0.03519169 -0.12546556 0.23135895 -0.12765786 -0.024732105 -0.0153323095 -0.07403677
0.011673209 -0.011789388 0.29343203 0.16110072 -0.05144925 0.39414966 -0.20391496 0.15036884
0.04742084 -0.065106966 0.3010535 -0.13237995 -0.17354503 0.13011128 0.092655525 -0.023754144
-0.11382989 -0.05939779 0.13390985 -0.3105894 -0.42499906 0.21685174 -0.14488782 -0.014472772
00000000: 7d79 0dbd ab7b 913d ba86 90be 40d7 05be
00000010: c87a 313e dc1e 123e 3557 c8bd ebaa acbe
00000020: f1b6 b43d 6f65 d73d df4a 65bd 4c05 033e
00000030: dc09 23be 71b7 9abc 685c e1bd 57bb 0fbe
00000040: f66d 163d 955a 6fbc 6670 44be ae1e 683e
00000050: 4462 38be 6ff6 2fbc 68cf 763d b99f 2cbd
00000060: 9392 a4bb 6c34 41be 08b2 023e f7af 2cbe
00000070: aaf4 e1bd 58b0 e13e dc94 77be 6f8f e73d
00000080: b781 a0bc fdaa 36be 26e1 b53d 7260 59be
00000090: d85a 043d 1eef 03bd 076d 14be fbc1 413b
000000a0: 584d bd3c ee77 df3d 0695 503d 38de 0dbe
000000b0: aa28 6abe 78af 433e 71ab 36be 7c2c 963d
000000c0: 91be 7e3e 098c 40be fbff f3bd 9fb2 2a3d
000000d0: fe4c 433e 7fe4 a43d dd7f 6dbe c6fe 25be
000000e0: a9a0 603e 6d28 c4bc 1473 61bd ad1a 3dbd
000000f0: 1589 643e e6db 003d dd19 09be 6e83 113d
00000100: 79a2 623b cb5d 68bd 11d3 89be 5a20 8f3d
00000110: da72 193c f52c 8bbd 7c64 8ebc c89e 7bbb
00000120: 358f f9bd bb75 88bd ce8f ce3d 60ed 233e
00000130: 520d 253e a165 b13d 4fd7 493c 7df6 39be
00000140: dc3b e0bd 90d0 13bc a833 08be f506 933d
00000150: 0b55 5abe cde6 8ebd 54ad cebd d077 48bd
00000160: 1301 8d3d 18d2 3bbe 2374 24bd c685 e9bc
00000170: 4035 52be c7aa b23d e1c4 e3bc 2bc4 16bd
00000180: 0adc f5bd cea4 8dbc d906 c53c e7f3 983d
00000190: b625 b43d 659e 0f3e 2122 d8bd 88be 073c
000001a0: c33a e43d 666a ab39 cb48 0a3d f82d 10be
000001b0: c0a6 033d 3427 af3d d828 69bc bc2a 7b3e
000001c0: 2369 f5bd 0e9c bd3d 0f27 513a 4312 393d
000001d0: 6368 0cbe 751a dfbd 2040 083e a5e9 dbbd
000001e0: 1953 eb3c 972d 513d a7ba 38bd f470 313d
000001f0: 7b36 3ebc 70fe b23d 421c 36bd 7eb7 26bd
00000200: 8984 533d 77cf 443d 1d67 e83d 929f e83c
00000210: be37 eb3c a0a7 d23c 233a 15be 0c29 87bd
00000220: f8cb 1fbb 6978 bf3b b746 8abd 7f94 d03d
00000230: bd44 94bd 6aa0 b93d d57e 853d e407 ecbb
00000240: ea7a 6a3e 5069 c33d 5e2c 91be a1f3 d33d
00000250: b692 f13d 767b 923e ad17 12be 8d22 3fbe
00000260: 0188 143d 81ab 1abe 90cb 7fbe 8495 dd3c
00000270: 2aa0 85bd 00d9 2b3d 9476 02ba 3e5e 98bd
00000280: a665 103e 2925 10bd 0b7a 00be 5ce9 6c3e
00000290: beb8 02be fc9a cabc 5e34 7bbc 97a0 97bd
000002a0: fd40 3f3c 4728 41bc b93c 963e 96f7 243e
000002b0: 73bc 52bd fccd c93e 15cf 50be 4afa 193e
000002c0: 5b3c 423d cd56 85bd af23 9a3e 9c8e 07be
000002d0: cab5 31be e43b 053e 2ec2 bd3d 0d98 c2bc
000002e0: a51f e9bd 194b 73bd aa1f 093e 9305 9fbe
000002f0: 7a99 d9be 620e 5e3e 795d 14be 351f 6dbc

lstm.weight_ih_l1 f4 [192, 48]
-0.04803749 -0.0348843 0.019414874 0.2127999 -0.17121002 -0.12501928 -0.11285837 -0.060896166
0.20072733 0.0125516 0.05804896 -0.19163649 0.02065326 0.07810482 0.1225732 0.080698386
0.25529507 0.2077274 -0.050433364 -0.111288406 -0.016427003 -0.21767889 0.10785265 0.03167488
0.11504105 0.012330024 -0.13323402 0.14778006 0.13084312 0.52823925 -0.14431772 -0.28920084
0.009962063 0.19579577 0.19156207 -0.057289798 -0.1112011 -0.085521825 -0.10657046 -0.082625836
-0.08457183 -0.16476601 -0.006259217 -0.16627035 0.08454731 -0.10012545 -0.1352338 -0.07352116
0.2538826 0.04248668 0.22187208 -0.06279211 -0.11219615 -0.12154631 0.21173216 0.24356823
-0.25886023 -0.08166507 0.025764264 -0.0467194 -0.07897502 0.073298454 -0.004062737 -0.26435387
-0.023310894 0.021840585 -0.19487266 -0.12579188 0.051709484 -0.025165742 -0.11174153 0.15367787
-0.11418522 0.07117618 0.13391231 -0.14037967 -0.07961421 -0.0036008942 0.102743424 -0.07289566
-0.005834583 -0.10590112 -0.30571106 0.06264136 -0.17798533 -0.045712423 0.29026842 0.11041363
-0.11418948 0.176188 0.05802098 -0.024865922 0.14428122 0.0175402 -0.14399083 -0.04645143
0.03418972 -0.20698868 -0.19269226 0.22260699 -0.13657334 -0.41649124 0.055773526 -0.1689859
-0.05687305 0.19669457 -0.03981401 -0.23264106 0.06303694 0.19187412 0.13288212 0.3050212
0.25081232 0.18681434 0.07427722 0.060809515 -0.16179849 -0.00095757673 -0.10227815 0.1183605
-0.009204863 -0.29915282 -0.29996955 0.4253945 -0.023280587 0.32323527 -0.029963827 -0.065594144
-0.15455002 0.292012 -0.07008705 0.03677188 0.088562205 -0.15037665 -0.080001086 -0.08085983
-0.24718495 0.028418971 0.028434968 0.05050311 0.20292571 -0.3859859 -0.111705646 -0.060727023
-0.2044944 -0.12230857 -0.17191221 0.13481398 -0.12662612 -0.36914313 0.051122762 0.028497174
0.21613753 0.020712785 -0.047321707 -0.18455605 -0.12472197 0.2823587 0.3448317 -0.0055728112
0.15277334 0.2914591 0.053913306 -0.060402732 0.05803444 -0.101113744 -0.16617629 -0.0098239
-0.115838856 -0.22402875 -0.10632425 0.3615896 -0.03358122 0.24474251 -0.2066437 -0.22870022
-0.07489837 0.17310156 0.032980718 -0.08625012 -0.0032882935 -0.22514755 -0.105695665 0.0139002865
-0.06656635 -0.15833569 0.009696626 0.032574456 0.20868202 -0.08497524 -0.33385825 -0.17657647
0.121576816 -0.04845743 0.31165636 0.17613134 -0.2859292 -0.37209433 0.00488359 0.15243046
-0.32626167 0.073281355 0.20591544 0.082387246 0.049907934 0.1343191 -0.21660931 -0.15488821
0.19048356 -0.19960965 0.082691066 -0.1059169 0.14438301 0.12238176 -0.34416828 0.16923042
-0.14009793 -0.07574212 0.18360707 0.08821888 0.0995218 -0.30371276 0.12994416 -0.29050177
-0.107491195 0.012304433 -0.28269124 -0.030899003 -0.08926624 -0.03410354 0.13167502 0.28098837
-0.3284581 0.15040141 0.44856426 -0.2872434 0.05807517 -0.14249866 0.17634694 -0.10579651
-0.04750523 0.1692939 0.12726767 -0.0091874115 -0.03470508 0.046109244 0.24169695 0.22286315
-0.05875408 0.06752909 0.024093457 -0.33017302 0.018461857 -0.035447087 0.059536755 0.06681952
00000000: f6c2 44bd d7e2 0ebd f10b 9f3c 38e8 593e
00000010: ae51 2fbe 0e05 00be 4a22 e7bd 426e 79bd
00000020: 778b 4d3e 3aa5 4d3c bfc4 6d3d 5b3c 44be
00000030: 0731 a93c 6bf5 9f3d a807 fb3d 3245 a53d
00000040: 09b6 823e 7eb6 543e 3793 4ebd 2deb e3bd
00000050: ec91 86bc 37e7 5ebe dae1 dc3d 85bd 013d
00000060: a49a eb3d de03 4a3c 806e 08be a853 173e
00000070: bdfb 053e b03a 073f 06c8 13be 2212 94be
00000080: ec37 233c b07e 483e d928 443e b5a8 6abd
00000090: 67bd e3bd 1126 afbd 9d41 dabd bc37 a9bd
000000a0: ff33 adbd 6cb8 28be 1e1a cdbb c642 2abe
000000b0: 2427 ad3d 920e cdbd bb7a 0abe 4392 96bd
000000c0: e6fc 813e 8306 2e3d 6f32 633e 2699 80bd
000000d0: 18c7 e5bd 46ed f8bd 51d0 583e f369 793e
000000e0: 5489 84be 0440 a7bd 940f d33c d75c 3fbd
000000f0: a8bd a1bd 801d 963d b520 85bb 6459 87be
00000100: 7df6 bebc 07eb b23c b38c 47be 96cf 00be
00000110: 53cd 533d 6328 cebc bed8 e4bd bb5d 1d3e
00000120: f1d9 e9bd d1c4 913d 4f20 093e b0bf 0fbe
00000130: c60c a3bd fbfc 6bbb 256b d23d 524a 95bd
00000140: 0830 bfbb b0e2 d8bd 2986 9cbe 1d4a 803d
00000150: c941 36be f33c 3bbd 109e 943e 8b20 e23d
00000160: 2ddc e9bd a16a 343e 68a7 6d3d 9eb3 cbbc
00000170: 75be 133e 77b0 8f3c 5572 13be db43 3ebd
00000180: 850a 0c3d d7f4 53be 1f51 45be 16f3 633e
00000190: e2d9 0bbe 573e d5be c872 643d a40a 2dbe
000001a0: b7f3 68bd 4d6a 493e 0414 23bd 7539 6ebe
000001b0: 8319 813d a67a 443e 4012 083e bd2b 9c3e
000001c0: 796a 803e 424c 3f3e a81e 983d 6613 793d
000001d0: 81ae 25be e305 7bba 3577 d1bd fd66 f23d
000001e0: fecf 16bc 8f2a 99be 9c95 99be 4fcd d93e
000001f0: eeb6 bebc 187f a53e b376 f5bc 3956 86bd
00000200: 5c42 1ebe 9982 953e cd89 8fbd 1c9e 163d
00000210: 1a60 b53d 56fc 19be 9cd7 a3bd d799 a5bd
00000220: 0d1e 7dbe e7ce e83c 73f0 e83c 59dc 4e3d
00000230: c2cb 4f3e f29f c5be eec5 e4bd e6bc 78bd
00000240: fb66 51be ea7c fabd c109 30be ad0c 0a3e
00000250: 47aa 01be 5400 bdbe 1a66 513d e872 e93c
00000260: 2853 5d3e dcad a93c 68d4 41bd 43fc 3cbe
00000270: 3b6e ffbd 5291 903e c88d b03e 219c b6bb
00000280: 9d70 1c3e 213a 953e 33d4 5c3d db68 77bd
00000290: 85b5 6d3d b914 cfbd 1e2a 2abe 6cf4 20bc
000002a0: ec3c edbd cb67 65be 87c0 d9bd 4622 b93e
000002b0: 768c 09bd c89d 7a3e 689a 53be 6430 6abe
000002c0: 5164 99bd 8941 313e ca16 073d e7a3 b0bd
000002d0: 6980 57bb 148d 66be f876 d8bd 07be 633c
000002e0: f053 88bd c022 22be 99de 1e3c cb6c 053d
000002f0: bdb0 553e 8007 aebd 78ef aabe 76d0 34be
00000300: 44fd f83d 4c7b 46bd 6c91 9f3e c65b 343e
00000310: 5065 92be 2683 bebe 8606 a03b bb16 1c3e
00000320: c50b a7be 8914 963d 7fdb 523e a5ba a83d
00000330: 436c 4c3d f28a 093e d5ce 5dbe 049b 1ebe
00000340: 1f0e 433e 7966 4cbe ef59 a93d f6ea d8bd
00000350: 24d9 133e 4aa3 fa3d d336 b0be bd4a 2d3e
00000360: d575 0fbe af1e 9bbd 7e03 3c3e 1aac b43d
00000370: 16d2 cb3d 3d80 9bbe 1510 053e a6bc 94be
00000380: 5824 dcbd 8898 493c e8bc 90be e81f fdbc
00000390: 38d1 b6bd 27b0 0bbd d1d5 063e b5dd 8f3e
000003a0: a92b a8be d402 1a3e 37aa e53e 9111 93be
000003b0: 3be0 6d3d 2beb 11be 4b94 343e d7ab d8bd
000003c0: d894 42bd 615b 2d3e 7552 023e cc86 16bc
000003d0: ea26 0ebd 0cdd 3c3d 687f 773e 3d36 643e
000003e0: 1ea8 70bd b14c 8a3d a45f c53c 700c a9be
000003f0: 523d 973c f730 11bd d0dc 733d acd8 883d

lstm.weight_hh_l1 f4 [192, 48]
0.06165863 0.14688127 -0.024710776 0.0988067 0.10352182 0.11714678 -0.24885698 0.0075002103
-0.02691488 -0.30089897 -0.08538638 0.18580075 0.16893882 0.11604331 0.11942058 0.085714966
-0.060876295 -0.04017368 0.18969452 0.27422783 0.07202962 0.043305837 -0.013516829 0.08641747
-0.09392087 -0.05085479 -0.123364635 -0.26578328 0.25894988 -0.20803995 0.09514084 -0.08407877
-0.21524724 -0.044646263 0.07980246 0.23651636 0.04415154 -0.17106098 0.10025682 -0.20413283
0.12067603 -0.027682917 0.20932403 0.01791964 -0.32869008 0.083494864 -0.21590796 -0.049774937
0.16713831 0.18229255 0.07479637 0.1388236 0.0062061865 0.16527471 -0.04445844 -0.07125477
0.048953827 -0.21882057 0.046340313 0.1601632 0.21555445 -0.055888813 -0.00019515681 -0.060555816
-0.03887911 -0.021949045 0.08773119 0.11553211 0.22979765 0.24185593 0.096828684 -0.009768323
-0.13707767 -0.05382052 -0.083735175 -0.03992583 0.019928789 0.0031148498 0.120779425 0.12394315
-0.012069493 0.14613284 -0.031615965 0.079010755 -0.051085263 -0.10554136 0.21717985 -0.2109538
0.21146324 -0.09188543 0.26989675 -0.051500816 -0.22076245 0.23196238 -0.012611565 -0.22511078
0.15916538 -0.049799953 -0.16501233 0.08609835 0.121839575 0.110238 0.02297819 -0.017509012
-0.138573 0.099778645 -0.24306317 -0.0021198732 0.06874285 -0.05541782 -0.054911498 -0.008902571
0.13904697 -0.065242246 0.15550593 0.26359108 0.16281857 0.1419867 0.041532755 0.1209657
-0.06294659 0.108249724 -0.11870242 -0.16774224 0.3275783 -0.38213685 -0.28558123 0.0039305883
-0.24566777 0.11181859 -0.03328264 0.38708428 -0.0684419 -0.024993666 -0.03790548 0.01524233
0.22921316 -0.03445759 0.25376084 0.11927296 -0.13438675 0.020826666 0.026018344 0.020618604
0.08676905 0.24475199 -0.17881279 -0.07704277 0.11579456 0.028907135 -0.11665976 -0.11437811
-0.14963633 -0.18479401 -0.20544639 0.063670844 0.074259 0.12715632 0.086735785 0.06527332
-0.046809893 -0.05401666 0.1530832 0.32223135 0.14707449 0.24363916 -0.13698073 0.039366275
0.12302603 -0.10308668 -0.020459203 -0.24503236 0.20427084 -0.10574713 -0.0026734811 -0.117264606
-0.14931755 0.21312714 0.021655947 0.11915284 -0.1676251 -0.26511246 0.12351549 -0.1054852
0.26676658 -0.00718236 0.16473784 0.01892996 -0.11836684 0.024562133 -0.27709016 -0.10399877
-0.078906365 0.039972734 0.062356483 0.0038880273 0.0646331 -0.04739937 -0.010481025 0.105445094
0.056196913 -0.2077087 0.024038548 0.06668062 -0.07682134 0.02508554 0.123240605 -0.10335087
0.04332832 -0.18443653 0.035225134 -0.09984951 0.23711509 0.17373247 -0.12920879 -0.074265815
0.12502272 -0.03142041 -0.15576907 0.07328235 -0.094776385 -0.11940593 -0.117455415 -0.09421343
-0.20706752 -0.14728232 0.012134526 -0.09955311 -0.036985993 0.114967056 0.112733416 -0.00227519
0.11752277 -0.042690903 0.2310664 -0.21365644 -0.17362447 -0.052270286 0.08235001 -0.22793238
0.26557812 0.12654354 0.21658607 -0.14136994 -0.02807733 0.053422928 0.09330511 0.088629
0.19062403 0.11547596 -0.0182539 -0.020796198 -0.18493435 0.11275064 0.05622238 -0.18321458
00000000: c28d 7c3d 0b68 163e 416e cabc 2b5b ca3d
00000010: 3f03 d43d a7ea ef3d 5dd4 7ebe 53c4 f53b
00000020: 987c dcbc 6e0f 9abe 0edf aebd 8d42 3e3e
00000030: 4cfe 2c3e 1da8 ed3d c792 f43d 548b af3d
00000040: 6c59 79bd 288d 24bd 483f 423e 9767 8c3e
00000050: 4484 933d 7661 313d b175 5dbc a4fb b03d
00000060: 9659 c0bd 1d4d 50bd 99a6 fcbd bf14 88be
00000070: 1495 843e 6d08 55be 33d9 c23d 7d31 acbd
00000080: c669 5cbe 00df 36bd 796f a33d 5831 723e
00000090: 3fd8 343d 9c2a 2fbe 7353 cd3d 3208 51be
000000a0: ff24 f73d 49c7 e2bc 0a59 563e 35cc 923c
000000b0: 114a a8be 5bff aa3d fa16 5dbe cee0 4bbd
000000c0: 4e26 2b3e e6aa 3a3e d72e 993d c627 0e3e
000000d0: 445d cb3b c63d 293e 0e1a 36bd 05ee 91bd
000000e0: cf83 483d 8012 60be 57cf 3d3d d201 243e
000000f0: 4eba 5c3e abeb 64bd 02a3 4cb9 6009 78bd
00000100: b43f 1fbd 7cce b3bc 69ac b33d 199c ec3d
00000110: 1350 6b3e 15a9 773e 1e4e c63d 510b 20bc
00000120: 175e 0cbe e872 5cbd 597d abbd 4489 23bd
00000130: b341 a33c 8222 4c3b 345b f73d e8d5 fd3d
00000140: 1fbf 45bc d9a3 153e be7f 01bd 64d0 a13d
00000150: c83e 51bd 1226 d8bd 6564 5e3e 4604 58be
00000160: d289 583e 6e2e bcbd e82f 8a3e 85f2 52bd
00000170: 8d0f 62be 8c87 6d3e bda0 4ebc 7183 66be
00000180: 40fc 223e 09fb 4bbd fef8 28be 5554 b03d
00000190: 0787 f93d 76c4 e13d c23c bc3c 0f6f 8fbc
000001a0: 15e6 0dbe bf58 cc3d 8de5 78be 92ed 0abb
000001b0: 0dc9 8c3d ccfd 62bd e1ea 60bd 17dc 11bc
000001c0: 5462 0e3e ba9d 85bd f23c 1f3e 69f5 863e
000001d0: e9b9 263e f664 113e 401e 2a3d ddbc f73d
000001e0: 24ea 80bd 08b2 dd3d 411a f3bd 9fc4 2bbe
000001f0: 58b8 a73e 71a7 c3be b437 92be 2acc 803b
00000200: 5590 7bbe 2501 e53d 6153 08bd e92f c63e
00000210: 442b 8cbd 84bf ccbc c742 1bbd f7ba 793c
00000220: dbb6 6a3e 6723 0dbd f1ec 813e 6245 f43d
00000230: ae9c 09be af9c aa3c 6c24 d53c 59e8 a83c
00000240: f9b3 b13d 44a0 7a3e b31a 37be 9ac8 9dbd
00000250: b325 ed3d a8ce ec3c 50eb eebd 123f eabd
00000260: 443a 19be a43a 3dbe 8a60 52be dc65 823d
00000270: 1a15 983d 4435 023e 88a2 b13d 05ae 853d
00000280: bbbb 3fbd 9340 5dbd d8c1 1c3e 82fb a43e
00000290: b29a 163e 8b7c 793e ad44 0cbe 883e 213d
000002a0: 12f5 fb3d 1c1f d3bd 0f9a a7bc c3e9 7abe
000002b0: 602c 513e f491 d8bd 9235 2fbb 6d28 f0bd
000002c0: b3e6 18be 003e 5a3e d067 b13c 6706 f43d
000002d0: eaa5 2bbe d2bc 87be b0f5 fc3d a008 d8bd
000002e0: a195 883e 015a ebbb 09b1 283e 0113 9b3c
000002f0: 506a f2bd 8736 c93c c3de 8dbe 4ffd d4bd
00000300: a999 a1bd 73ba 233d 8369 7f3d 46ce 7e3b
00000310: 5c5e 843d d825 42bd 9bb8 2bbc 99f3 d73d
00000320: bc2e 663d 97b1 54be 7dec c43c d98f 883d
00000330: 8254 9dbd 3180 cd3c 9265 fc3d 9fa9 d3bd
00000340: 0979 313d eedc 3cbe 3b48 103d e67d ccbd
00000350: 4cce 723e ede6 313e 4f4f 04be ad18 98bd
00000360: f505 003e b0b2 00bd ed81 1fbe 0f15 963d
00000370: 1f1a c2bd 198b f4bd 778c f0bd f9f2 c0bd
00000380: 8209 54be 2dd1 16be e4cf 463c 80e2 cbbd
00000390: a07e 17bd d973 eb3d c7e0 e63d 5b1b 15bb
000003a0: c7af f03d a8dc 2ebd ac9c 6c3e c1c8 5abe
000003b0: 9dca 31be 5e19 56bd 1fa7 a83d 1b67 69be
000003c0: dbf9 873e a194 013e bdc8 5d3e 48c3 10be
000003d0: 6e02 e6bc 00d2 5a3d c016 bf3d 1f83 b53d
000003e0: f232 433e a97e ec3d 3489 95bc ca5c aabc
000003f0: 6e5f 3dbe cfe9 e63d 7049 663d 9a9c 3bbe

lstm.bias_ih_l1 f4 [192]
-0.053939115 -0.12961936 -0.017927935 0.021593995 0.06723618 -0.07211692 0.13703361 0.033595543
-0.14410071 -0.040563613 -0.06393715 0.0037799417 -0.027319083 -0.21202435 0.11856067 0.021786131
-0.12672997 0.015568235 0.204403 0.0062547005 0.20217857 0.13649571 0.058992986 0.011876755
0.089822225 -0.06462827 -0.018281281 -0.066205546 -0.15309902 0.25448674 -0.03678017 -0.08519761
0.26432693 0.008219126 -0.053912044 0.055231918 0.046682987 -0.15057242 0.12333713 0.13517515
-0.0016351718 0.118551604 0.16952537 -0.10793834 0.21243834 -0.061383896 -0.114829436 0.18402392
-0.06415172 -0.07103186 -0.14407042 -0.16133976 0.044630513 -0.08275873 -0.17273076 -0.11143348
0.0039184866 -0.03728524 -0.06493618 -0.14479929 -0.045179423 -0.12188481 -0.21073312 -0.118190296
-0.19131485 0.025632614 0.015909923 0.018694127 -0.056539692 -0.0017862263 -0.08904734 -0.2530503
0.047191296 -0.13847058 0.08193022 -0.20096606 -0.21880466 -0.1717273 -0.18314551 0.006818045
0.05394703 -0.1464943 -0.12584704 -0.24092354 -0.020522349 -0.014412058 -0.16247422 -0.16768433
-0.018904848 -0.15237562 -0.1502341 -0.027807908 -0.18762243 -0.18229386 -0.020059768 -0.19229183
-0.056348223 -0.043642413 -0.026364723 -0.016854627 -0.04526562 -0.060416665 -0.0070544668 0.0580854
0.006681024 -0.072885506 0.063753694 -0.16876319 0.118626185 -0.066337645 0.13381399 -0.009667835
0.14880845 0.040040106 0.12775896 0.104126215 -0.05815028 -0.1777241 0.1617314 0.04552004
0.23502134 0.13083585 0.16810222 0.043752663 -0.035224114 0.024758583 0.031637065 -0.08848213
-0.10243814 -0.08811151 -0.027312122 -0.102423005 0.15652646 0.06562299 -0.06858812 0.03865017
0.056184724 -0.14475529 0.012765205 -0.1065584 0.12075695 -0.041148458 0.060893167 0.018875651
0.022034697 0.10192412 0.028418418 0.1355383 0.088859834 -0.017424949 0.045168493 0.20352043
-0.1419502 -0.11330702 0.08449201 -0.0411418 0.10458592 -0.2323531 0.03642558 0.091076925
0.11168025 0.15802115 0.15404351 0.077840514 0.027229283 0.09419562 0.03621871 -0.16689782
-0.007332085 0.10266507 0.07848453 -0.026436515 0.066383325 0.08931244 -0.018669017 -0.13618231
0.08131655 0.03234567 -0.03867771 0.089255184 0.11542215 -0.28779447 0.12265847 -0.01994871
0.09453157 0.039835263 0.049230196 -0.11106075 0.18360199 0.0636092 -0.07265769 0.12543863
00000000: 43ef 5cbd f0ba 04be 9bdd 92bc e4e5 b03c
00000010: 1fb3 893d 09b2 93bd 8a52 0c3e 7b9b 093d
00000020: 238f 13be 0826 26bd 7bf1 82bd e6b8 773b
00000030: 45cc dfbc e91c 59be f0cf f23d d478 b23c
00000040: 80c5 01be e911 7f3c 054f 513e 3bf4 cc3b
00000050: e607 4f3e 88c5 0b3e a1a2 713d b996 423c
00000060: b7f4 b73d d45b 84bd a0c2 95bc c696 87bd
00000070: fdc5 1cbe 164c 823e cea6 16bd 167c aebd
00000080: dc55 873e 83a9 063c e0d2 5cbd dd3a 623d
00000090: a936 3f3d a82f 1abe 2d98 fc3d 5b6b 0a3e
000000a0: 4353 d6ba 2fcb f23d 0f98 2d3e c70e ddbd
000000b0: 7089 593e ae6d 7bbd b22b ebbd c470 3c3e
000000c0: fa61 83bd 2779 91bd 3287 13be 4036 25be
000000d0: 7cce 363d 697d a9bd 55e0 30be 3d37 e4bd
000000e0: a666 803b 68b8 18bd 43fd 84bd 4446 14be
000000f0: 0f0e 39bd be9e f9bd 6cca 57be c10d f2bd
00000100: 0ae8 43be 7dfb d13c 8755 823c 6d24 993c
00000110: 2a96 67bd cf1f eaba 745e b6bd cf8f 81be
00000120: a94b 413d 3bcb 0dbe 08cb a73d 0cca 4dbe
00000130: 540e 60be 48d9 2fbe 7f8a 3bbe e869 df3b
00000140: 90f7 5c3d 9a02 16be 0cde 00be a9b4 76be
00000150: 7c1e a8bc 8d20 6cbc a45f 26be 71b5 2bbe
00000160: 57de 9abc 5b08 1cbe f8d6 19be 69cd e3bc
00000170: 1820 40be 3eab 3abe 6254 a4bc 26e8 44be
00000180: 65cd 66bd 63c2 32bd d5fa d7bc b712 8abc
00000190: 7168 39bd 7777 77bd 2829 e7bb f5ea 6d3d
000001a0: 7eec da3b ff44 95bd 4c91 823d 42d0 2cbe
000001b0: 49f2 f23d 08dc 87bd 8906 093e d765 1ebc
000001c0: 3e61 183e 1801 243d 3fd3 023e 2040 d53d
000001d0: fd2e 6ebd 4efd 35be eb9c 253e 3973 3a3d
000001e0: 6fa9 703e d5f9 053e fd22 2c3e fe35 333d
000001f0: 2947 10bd 83d2 ca3c de95 013d 1e36 b5bd
00000200: 16cb d1bd cf73 b4bd acbd dfbc 27c3 d1bd
00000210: 7948 203e 5965 863d ee77 8cbd a44f 1e3d
00000220: f421 663d bb3a 14be 2725 513c 4a3b dabd
00000230: 6b4f f73d 498b 28bd 1d6b 793d 1ca1 9a3c
00000240: 1c82 b43c 98bd d03d becd e83c 8dca 0a3e
00000250: 25fc b53d c4be 8ebc 9902 393d a967 503e
00000260: 655b 11be 830d e8bd 260a ad3d 4e84 28bd
00000270: 2531 d63d f9ed 6dbe fd32 153d 8a86 ba3d
00000280: 9db8 e43d 4cd0 213e 95bd 1d3e d96a 9f3d
00000290: f20f df3c a2e9 c03d 125a 143d 43e7 2abe
000002a0: fd41 f0bb 1042 d23d 7fbc a03d 6491 d8bc
000002b0: fbf3 873d 71e9 b63d c4ef 98bc 6073 0bbe
000002c0: 4b89 a63d e57c 043d 856c 1ebd 6ccb b63d
000002d0: 7362 ec3d cc59 93be 5d34 fb3d 7a6b a3bc
000002e0: c599 c13d 4d2a 233d 9aa5 493d d273 e3bd
000002f0: 2902 3c3e 8a45 823d 8ecd 94bd fc72 003e

lstm.bias_hh_l1 f4 [192]
-0.07082344 -0.12041792 -0.00225582 0.08280348 -0.04333689 -0.018304799 0.16311431 0.16267166
0.06423935 -0.19337285 0.13255025 -0.074854575 -0.016340872 -0.18306819 -0.0055075 -0.028464068
-0.04009412 0.20233476 0.28035986 0.16508122 0.16933535 0.1522937 0.06376905 -0.04377177
0.12589912 0.10595241 0.027821263 0.077589326 -0.025960563 0.054842923 0.0032999378 0.019972531
0.24082589 -0.145975 -0.09503268 0.13149251 -0.015705887 -0.26566413 0.114168845 -0.10415462
-0.010038925 0.026705215 0.08578568 -0.13735181 -0.012102616 -0.003756231 -0.111732826 0.12462582
-0.18284586 0.013772697 -0.10304937 0.03344768 0.06264359 -0.28773662 -0.07616536 0.07540776
-0.12439548 -0.015052942 -0.07816077 -0.12333912 -0.09822094 -0.24214427 0.04108376 -0.21364674
-0.15713973 -0.09536402 -0.09672034 -0.097424194 -0.011907319 -0.1217766 0.07300225 -0.16395585
-0.042062543 -0.04034753 -0.046920452 -0.17283186 -0.0286478 -0.22006175 -0.03823909 -0.23352091
-0.061002184 -0.16900031 -0.1670803 -0.106308386 -0.069598146 -0.13779189 -0.2913142 0.012951815
-0.19264203 0.08877279 -0.03890093 -0.24125098 0.014832053 -0.2047946 0.05251267 -0.100720614
0.016876014 -0.119804725 -0.024571225 0.016544923 -0.22572938 -0.005722743 -0.060362894 -0.036716074
0.09747294 -0.11494658 0.04139717 0.04522381 -0.10026351 -0.11121027 0.15168203 0.07973463
-0.04577817 0.024753349 0.0138667235 -0.16367581 -0.00034074363 0.090043694 0.17789842 0.016396265
0.27006853 0.16383065 0.09259113 -0.070642896 -0.03354372 0.0015084668 0.027415352 -0.10301188
-0.1248633 -0.10140961 0.07805122 -0.016637119 0.18009537 -0.026244806 0.04290194 0.12854014
-0.13368867 0.10214309 0.033278346 0.019220136 0.013114835 -0.06794371 -0.05370569 0.102363765
-0.011177665 -0.049749013 0.039797876 -0.12273833 0.1201968 -0.1467449 -0.007635939 0.042012364
0.042428937 -0.19279458 0.05567794 0.18131788 0.06936313 -0.16578703 -0.010791765 -0.097419195
0.069051675 0.15369011 0.22406867 -0.010972223 0.02646707 -0.09971229 0.024697129 -0.019642407
0.11226431 0.15630293 -0.14693786 -0.13805273 0.042853218 0.19856502 -0.07082998 -0.11073482
0.18940933 0.0241977 0.1148719 0.16929196 0.04766675 -0.11606789 0.11542742 0.044972893
0.15035132 -0.019599367 0.015628558 0.0127669275 0.11811636 0.006333842 0.044640284 0.008577747
00000000: e10b 91bd ac9d f6bd 61d6 13bb df94 a93d
00000010: 0682 31bd f2f3 95bc 7007 273e 6693 263e
00000020: ec8f 833d 8803 46be 41bb 073e 5b4d 99bd
00000030: 4bdd 85bc 3a76 3bbe 4278 b4bb 7a2d e9bc
00000040: bb39 24bd d830 4f3e 548b 8f3e 0d0b 293e
00000050: 3f66 2d3e e1f2 1b3e 5999 823d 074a 33bd
00000060: b3eb 003e 94fd d83d 6be9 e33c 27e7 9e3d
00000070: 3fab d4bc f9a2 603d c543 583b 6f9d a33c
00000080: 109b 763e 787a 15be 7ea0 c2bd f9a5 063e
00000090: a2a9 80bc 2105 88be 5bd1 e93d 044f d5bd
000000a0: 4e7a 24bc e5c4 da3c 67b0 af3d f4a5 0cbe
000000b0: 0d4a 46bc 192b 76bb 2ed4 e4bd d23b ff3d
000000c0: f23b 3bbe e1a6 613c 8c0b d3bd 6f00 093d
000000d0: 484b 803d 3752 93be 96fc 9bbd 626f 9a3d
000000e0: 0fc3 febd 9da0 76bc c112 a0bd 3899 fcbd
000000f0: 0f28 c9bd abf4 77be 7247 283d 36c6 5abe
00000100: 3de9 20be 364e c3bd 5015 c6bd 5686 c7bd
00000110: ea16 43bc 0366 f9bd 3482 953d 0be4 27be
00000120: c649 2cbd 7443 25bd a92f 40bd d6fa 30be
00000130: cbae eabc de57 61be 98a0 1cbd 1b20 6fbe
00000140: 6ddd 79bd 6b0e 2dbe 1917 2bbe 36b8 d9bd
00000150: 7989 8ebd 5119 0dbe 2327 95be d933 543c
00000160: f443 45be 82ce b53d 9556 1fbd 7f0a 77be
00000170: 2402 733c adb5 51be 8717 573d 9c46 cebd
00000180: 913f 8a3c 2e5c f5bd 9849 c9bc 3889 873c
00000190: 9a25 67be d985 bbbb 153f 77bd 9863 16bd
000001a0: e59f c73d 1d69 ebbd 1490 293d 9a3c 393d
000001b0: f556 cdbd 36c2 e3bd 8952 1b3e e94b a33d
000001c0: e481 3bbd 89c7 ca3c 4131 633c a29a 27be
000001d0: d6a5 b2b9 d468 b83d 012b 363e 7651 863c
000001e0: 6c46 8a3e 39c3 273e 6ba0 bd3d 39ad 90bd
000001f0: 2465 09bd bfb7 c53a 2996 e03c e4f7 d2bd
00000200: 54b8 ffbd d7af cfbd 51d9 9f3d 914a 88bc
00000210: ec6a 383e 59ff d6bc f2b9 2f3d 07a0 033e
00000220: afe5 08be 6530 d13d e04e 083d 8c73 9d3c
00000230: 9bdf 563c 1226 8bbd 7ffa 5bbd 18a4 d13d
00000240: 8622 37bc 9fc5 4bbd 1903 233d 3c5e fbbd
00000250: bd29 f63d 4c44 16be e636 fabb 2815 2c3d
00000260: f7c9 2d3d f16b 45be 8d0e 643d 65ab 393e
00000270: 420e 8e3d 13c4 29be f1cf 30bc b783 c7bd
00000280: f76a 8d3d f160 1d3e 4272 653e d7c4 33bc
00000290: 78d1 d83c f535 ccbd a251 ca3c 1de9 a0bc
000002a0: d5ea e53d e00d 203e e176 16be b25d 0dbe
000002b0: db86 2f3d a154 4b3e 4f0f 91bd f0c8 e2bd
000002c0: 85f4 413e 413a c63c f541 eb3d df5a 2d3e
000002d0: 363e 433d 00b5 edbd 3665 ec3d 7f35 383d
000002e0: b2f5 193e da8e a0bc 7607 803c 602c 513c
000002f0: fde6 f13d 1e8c cf3b bbd8 363d ae89 0c3c

linear.weight f4 [2, 48]
-0.07150038 -0.19437897 -0.042501364 0.08445743 -0.17337412 -0.20269853 0.29753774 -0.096276164
0.28881556 0.22204612 0.19462416 -0.043771315 -0.27971727 0.04967833 0.06334382 -0.15239283
-0.006268781 0.05434086 -0.21257706 -0.29932588 -0.06672531 -0.1138841 0.051830176 -0.04772685
0.11232763 0.035850137 0.24888812 0.20665224 -0.17382 0.31033808 0.20235647 0.096744545
0.21043448 -0.22418153 -0.17413947 -0.23546508 0.2147803 -0.03965398 -0.24134472 0.17760925
-0.23602015 -0.021444224 -0.1809738 0.19113767 0.21216282 -0.21440905 0.15244937 0.18023387
-0.15062207 -0.10865706 -0.2151967 0.19138774 -0.21096528 -0.018824106 -0.12449785 -0.1848518
-0.033675563 -0.04649661 0.16465576 -0.23286277 0.06610291 -0.17158005 0.19238132 0.20834343
0.22572355 0.1766367 -0.065990545 0.010752835 -0.17190264 -0.16633351 0.2375527 0.20902707
0.27742162 0.23551902 -0.034939818 -0.07495925 0.020078955 -0.16720459 -0.19474481 -0.17684874
-0.31409186 -0.036679268 0.08488034 0.028298937 0.06096432 0.07437031 0.086411916 0.059667397
-0.026550876 -0.208354 -0.09790834 0.0062442594 0.11215924 -0.10009409 0.08612183 0.167702
00000000: cb6e 92bd 480b 47be e915 2ebd 04f8 ac3d
00000010: fc88 31be 3490 4fbe de56 983e 702c c5bd
00000020: a2df 933e 0f60 633e 8e4b 473e 8d49 33bd
00000030: 1a37 8fbe 817b 4b3d 68ba 813d de0c 1cbe
00000040: 596a cdbb 8694 5e3d cdad 59be 3e41 99be
00000050: 48a7 88bd 113c e9bd e14b 543d 3b7d 43bd
00000060: 070c e63d 98d7 123d 87dc 7e3e a59c 533e
00000070: dffd 31be a2e4 9e3e 8936 4f3e 0122 c63d
00000080: 237c 573e d88f 65be 9e51 32be c21d 71be
00000090: 5eef 5b3e 366c 22bd 1223 77be 33df 353e
000000a0: 44af 71be ccab afbc 3251 39be 98b9 433e
000000b0: 3641 593e 0c8e 5bbe b01b 1c3e 3a8f 383e
000000c0: ac3c 1abe 9887 debd 865c 5cbe 26fb 433e
000000d0: 4807 58be 0335 9abc bbf8 febd ca49 3dbe
000000e0: 63ef 09bd 3b73 3ebd 859b 283e 9473 6ebe
000000f0: f660 873d aeb2 2fbe 9cff 443e fb57 553e
00000100: 1324 673e 40e0 343e 0d26 87bd a92c 303c
00000110: 3f07 30be 5553 2abe 0441 733e 310b 563e
00000120: 350a 8e3e e62b 713e 0e1d 0fbd 3c84 99bd
00000130: 9f7c a43c ae37 2bbe 2f6b 47be d617 35be
00000140: a6d0 a0be 003d 16bd bed5 ad3d 2cd3 e73c
00000150: b9b5 793d 764f 983d bbf8 b03d cd65 743d
00000160: 3981 d9bc c05a 55be 2b84 c8bd a59c cc3b
00000170: beb3 e53d 21fe ccbd a460 b03d 13ba 2b3e

linear.bias f4 [2]
0.20484258 0.18757874
00000000: 41c2 513e a414 403e
