checkpoint/training_epochs_100_stepsize_7_gamma_0.75/model_epoch60.pth (torch, 117569 bytes, 10 tensors)

lstm.weight_ih_l0 f4 [192, 2]
0	0x3d89eb59	0.06734342
1	0xbdc29db1	-0.095027335
2	0x3e1d6526	0.15370616
3	0xbd6b5f63	-0.057464015
4	0xbedb7b6c	-0.428676
5	0xbbef9f5d	-0.0073126988
6	0xbc860604	-0.01636029
7	0x3c8cdf13	0.017196214
8	0x3e0d599c	0.13803715
9	0x3dd23794	0.10264507
10	0xbe25b271	-0.16181351
11	0x3d358699	0.044317815
12	0x3cb3fa72	0.021970008
13	0x3e137181	0.14398767
14	0xbe4aa980	-0.19791222
15	0xbe683415	-0.22676118
16	0x3c950c79	0.018194424
17	0x3da3ab28	0.0799163
18	0x3cd5fac2	0.026120547
19	0xbd08ca4e	-0.033396058
20	0xbebc3ee6	-0.36766738
21	0xbe1deff2	-0.15423563
22	0x3e063775	0.13107093
23	0x3e08a462	0.13343957
24	0xbd780a36	-0.060556613
25	0xbce88ba5	-0.0283869
26	0xbda5a0a6	-0.08087282
27	0xbd81f2f3	-0.06345167
28	0x3e857273	0.2606388
29	0xbd6a6e3f	-0.057234045
30	0xbe841846	-0.2579977
31	0x3e04fb88	0.12986577
32	0x3e7da5ea	0.24770322
33	0x3c96f294	0.018426217
34	0xbcd04672	-0.025424216
35	0xbe86725b	-0.2625912
36	0xbe206593	-0.15663747
37	0xbdaffc85	-0.08593086
38	0x3e6bfe7a	0.23046294
39	0x3ed1d136	0.40979928
40	0xbe2e72a8	-0.17035925
41	0xbd42e5e3	-0.04758252
42	0x3e8e4ac0	0.27791405
43	0x3e4f88be	0.20267007
44	0x3e352703	0.17690663
45	0x3eb1525a	0.34633142
46	0xbd6a12b1	-0.05714673
47	0xbbd76eed	-0.0065745027
48	0xbde0fcec	-0.10985741
49	0xbe3c6b1a	-0.18400231
50	0xbe0d7a68	-0.13816226
51	0xbe3e60cb	-0.18591611
52	0x3d80ba93	0.06285586
53	0xbd594c44	-0.05305125
54	0xbd83f675	-0.06443492
55	0xbdd844b1	-0.10559977
56	0xbd96351b	-0.07334348
57	0x3df3a051	0.11895812
58	0x3ebfdb02	0.37471777
59	0x3e8093a5	0.25112644
60	0xbd3f8013	-0.046753
61	0xbe4d9e87	-0.20080005
62	0x3e9f17b2	0.31072766
63	0x3e0e8001	0.13916017
64	0x3d9d4f17	0.07681101
65	0xbda946e0	-0.082654715
66	0xbcf2ccaf	-0.029638616
67	0xbcf5caeb	-0.030003985
68	0x3ecca0ba	0.39966375
69	0x3edd3287	0.43202612
70	0xbe22c8a6	-0.15896854
71	0xbe36b3bf	-0.17842005
72	0x3ceb9670	0.028758258
73	0xbde5b76a	-0.11216624
74	0x3ea9632d	0.33083478
75	0xbe087346	-0.13325223
76	0xbeb4f01a	-0.35339433
77	0x3e0ec2f2	0.13941553
78	0x3dab9ba9	0.08379299
79	0x3e6bfcb9	0.23045625
80	0x3de81a4a	0.11333139
81	0xbdc91b20	-0.09819627
82	0x3df8add8	0.12142533
83	0x3c82f88b	0.015987655
84	0x3d289c8c	0.04116492
85	0x3e447f93	0.1918929
86	0xbe374270	-0.17896438
87	0xbbb115f0	-0.0054042265
88	0xbe8a798b	-0.27045855
89	0xbe84b44e	-0.25918812
90	0x3ec66a9b	0.3875321
91	0xbd31204b	-0.043243688
92	0xbe6f498f	-0.23367904
93	0xbea72b5a	-0.32650262
94	0x3dc6184b	0.09672602
95	0x3e618642	0.22023872
96	0x3e3ca016	0.18420443
97	0x3e646a85	0.22306259
98	0x3d354322	0.044253476
99	0xbd6fc88a	-0.05854086
100	0xbee27d11	-0.44236043
101	0x3dbbdb85	0.091727294
102	0xbe2b5a80	-0.16733742
103	0x3d735a8c	0.059412524
104	0x3e262d6c	0.16228265
105	0x3eae4dd9	0.34043768
106	0xbe725beb	-0.23667876
107	0xbdb8bc23	-0.09020259
108	0xbc8e858a	-0.01739766
109	0xbd588d36	-0.052869044
110	0xbe7dc395	-0.2478164
111	0xbe55cbf8	-0.20878589
112	0x3e85d799	0.2614105
113	0x3e86e285	0.26344696
114	0xbe50fac8	-0.20408165
115	0xbddbc3b1	-0.107306845
116	0xbe4f9246	-0.20270643
117	0x3d926ff2	0.07150258
118	0x3dd249c4	0.10267976
119	0x3ddc3914	0.10753074
120	0x3c978eb8	0.01850067
121	0x3e1453a5	0.14485033
122	0xbe28c532	-0.16481474
123	0xbdcc63f4	-0.09980002
124	0x3e6f33ea	0.23359647
125	0xbe32e236	-0.17469105
126	0xbd858cfa	-0.0652103
127	0x3d439b46	0.047755502
128	0x3d91a76b	0.071120106
129	0xbd8c915e	-0.06863664
130	0xbd063373	-0.03276391
131	0xbd120637	-0.03565046
132	0x3db6214b	0.08893069
133	0xbdf935dd	-0.12168477
134	0x3da99144	0.0827966
135	0x3e543ae5	0.20725591
136	0xbe54b65e	-0.20772693
137	0x3da5c840	0.08094835
138	0x3e9599ad	0.29218808
139	0x3e8b9714	0.272637
140	0x3d13b51d	0.036061395
141	0xbd80b4e0	-0.06284499
142	0xbdfc1ba3	-0.12309959
143	0x3cf43872	0.029812071
144	0xbb837f21	-0.0040129577
145	0xbba6170e	-0.0050686663
146	0xbda87f4d	-0.08227406
147	0xbd73b056	-0.05949434
148	0x3dc312e7	0.0952509
149	0x3d55bf29	0.052184258
150	0xbd030cb1	-0.031994525
151	0xbdd94a75	-0.10609905
152	0xbd810beb	-0.06301101
153	0x3eabcaa8	0.33553052
154	0x3ddcc335	0.1077942
155	0x3d41900c	0.047256514
156	0x3c9c4188	0.019074216
157	0xbe6a0807	-0.22854625
158	0xbc89cb02	-0.016820434
159	0xbd8754dc	-0.066079825
160	0x3d130772	0.035895772
161	0xbe9de99f	-0.308423
162	0x3cbb6096	0.022873204
163	0x3daf0076	0.0854501
164	0x3ddbd087	0.10733133
165	0x3d5750a8	0.052567154
166	0x3ddfa743	0.109205745
167	0xbcea0a6d	-0.028569425
168	0xbe43349c	-0.19063038
169	0xbe7c2b8d	-0.24625988
170	0x3e348bc8	0.17631447
171	0xbe1e0290	-0.15430665
172	0xbf026754	-0.50938916
173	0x3e4f1f71	0.20226838
174	0xbcc9b5b0	-0.024622768
175	0x3c6cebe8	0.014460541
176	0xbd2fa4a5	-0.042881627
177	0x3e4479d9	0.19187106
178	0x3da3b3d3	0.07993283
179	0xbde39d16	-0.11113946
180	0xbd2b3dd7	-0.041807022
181	0x3e6a473e	0.22878739
182	0x3dc22045	0.09478811
183	0x3e277fd1	0.16357352
184	0xbe4f656e	-0.20253536
185	0xbe89efae	-0.26940674
186	0xbe0fae87	-0.1403142
187	0x3d7493c2	0.059711225
188	0xbe05f7ec	-0.13082856
189	0xbb649908	-0.0034881253
190	0x3d71898d	0.05896907
191	0x3daa45d2	0.083140984
192	0x3e630aad	0.22172041
193	0x3d9f7fa9	0.07788021
194	0x3ea64b66	0.324794
195	0xbe80e8fe	-0.2517776
196	0x3ead4f5e	0.33849615
197	0x3e265d64	0.16246563
198	0xbe84ac59	-0.2591274
199	0x3e55fb60	0.20896673
200	0x3cf73b94	0.030179776
201	0xbeb81ea2	-0.3596087
202	0xbe7ef560	-0.2489829
203	0xbec12840	-0.3772602
204	0x3e41d29e	0.18928
205	0x3e8c5c06	0.27413958
206	0x3d528ae3	0.051401984
207	0x3d633394	0.05546911
208	0xbe8d388f	-0.27582213
209	0xbe113d0e	-0.14183447
210	0xbe986488	-0.297642
211	0x3e31c503	0.1736031
212	0x3e479ded	0.19493838
213	0x3deaed5f	0.11471056
214	0x3e8c425d	0.2739438
215	0x3df1a3f6	0.11798851
216	0x3d229214	0.039690092
217	0xbe10580f	-0.14096092
218	0xbe73f2fd	-0.23823161
219	0x3e9a8153	0.30176792
220	0xbeaf9da2	-0.34299952
221	0x3e016887	0.1263753
222	0xbe728bcc	-0.23686141
223	0xbe800126	-0.25000876
224	0xbea2689f	-0.31720445
225	0x3ea3de00	0.3200531
226	0xbeb683a5	-0.35647312
227	0xbcbccd00	-0.02304697
228	0xbe778201	-0.24170686
229	0x3e570024	0.20996147
230	0x3e95d3f0	0.29263258
231	0xbec3673c	-0.381647
232	0x3dad4133	0.084597014
233	0x3e350206	0.17676553
234	0x3ea1c981	0.31599048
235	0x3e979d07	0.2961199
236	0xbe370df1	-0.17876412
237	0xbe6be874	-0.23037893
238	0x3d6baa7a	0.057535626
239	0x3e9588b1	0.2920585
240	0x3dac1234	0.084019095
241	0xbeb4b7bd	-0.3529643
242	0x3e4d6526	0.20058116
243	0xbe8b0300	-0.27150726
244	0x3eca33e2	0.39492708
245	0x3e587014	0.21136504
246	0xbe83a09a	-0.25708467
247	0x3e82dd3d	0.25559416
248	0xbd8180c5	-0.06323389
249	0x3e6ab7cb	0.22921674
250	0xbefc705e	-0.4930448
251	0x3cf1640b	0.02946665
252	0xbd8fddd4	-0.07024732
253	0x3e548691	0.20754458
254	0x3e96b5b6	0.2943551
255	0xbeaa4080	-0.33252335

lstm.weight_hh_l0 f4 [192, 48]
0	0xbdab4ef6	-0.0836467
1	0xbb1b977b	-0.0023741412
2	0x3ea1d19a	0.31605226
3	0x3dff950b	0.124795996
4	0x3d8cd732	0.06876983
5	0xbdfb2a1b	-0.1226389
6	0xbc8e9f2b	-0.017409882
7	0x3cd10f91	0.025520118
8	0x3d59863e	0.05310654
9	0xbbb20677	-0.0054328996
10	0x3db54b4c	0.08852252
11	0x3d9c8235	0.076420225
12	0x3d9c031e	0.07617782
13	0xbe1a56cf	-0.15072177
14	0x3e15325a	0.14569989
15	0xbcbba0d4	-0.022903837
16	0x3e97c58b	0.296429
17	0x3df59acf	0.11992418
18	0x3e0affc1	0.13574125
19	0xbea7899e	-0.3272218
20	0x3dc8b39d	0.097998835
21	0xbc609af7	-0.0137088215
22	0xbe53f8b6	-0.20700344
23	0x3d84d6a0	0.06486249
24	0x3d186582	0.03720618
25	0xbc854e66	-0.016272735
26	0xbdfce294	-0.12347904
27	0x3e6768e1	0.22598602
28	0x3c103762	0.008802267
29	0x3de25d48	0.11052948
30	0x3d46e562	0.0485586
31	0xbe5605d3	-0.2090066
32	0x3c128a6a	0.008944133
33	0xbe194dfd	-0.14971156
34	0xbc8fafec	-0.01753994
35	0x3d90839a	0.07056351
36	0xbc499d33	-0.012305546
37	0xbdd4352d	-0.10361705
38	0xbe1dbf44	-0.15404993
39	0x3d723958	0.05913672
40	0xbda881f4	-0.082279116
41	0xbd633a79	-0.055475686
42	0xbd1f79a6	-0.038934372
43	0xbe731084	-0.23736769
44	0x3db64df4	0.08901587
45	0xbe563f22	-0.20922521
46	0xbe50cbf1	-0.20390297
47	0xbe948b3f	-0.29012486
48	0x3d491ccf	0.04909974
49	0x3e0bc8d1	0.13650824
50	0xbe66527e	-0.22492406
51	0xbe9c6682	-0.30546957
52	0x3c879a6d	0.016553128
53	0x3ddc9c9c	0.10772058
54	0x3e882546	0.26590937
55	0x3db5ade7	0.0887106
56	0xbddf05da	-0.10889788
57	0xbd7871ab	-0.060655277
58	0xbe15acae	-0.14616653
59	0xbe246c92	-0.16057041
60	0xbca47071	-0.020073147
61	0xbc4ef8f2	-0.012632595
62	0xbd2814cd	-0.041035462
63	0xbd675ba4	-0.05648388
64	0xbe94dd85	-0.29075256
65	0xbe5d03aa	-0.21583429
66	0xbd72155e	-0.05910241
67	0x3e97bfc0	0.2963848
68	0xbdaa976a	-0.08329661
69	0xbe37ce28	-0.17949736
70	0x3dfe0392	0.12403025
71	0xbb27a001	-0.0025577547
72	0x3dac6979	0.08418555
73	0x3d70b9fc	0.05877112
74	0x3e4f165a	0.2022337
75	0xbe2b48ac	-0.16726941
76	0xbc99bc03	-0.018766409
77	0xbe2391e1	-0.15973617
78	0xbcb459cd	-0.022015477
79	0x3ec904cd	0.39261475
80	0x3df45ab9	0.119313665
81	0x3e894c29	0.26815918
82	0xbe2681c4	-0.16260439
83	0x3dd01ac9	0.10161359
84	0x3da68268	0.08130342
85	0x3ca1dfcb	0.019760033
86	0x3e1a3215	0.15058167
87	0xbe04906d	-0.12945719
88	0x3d4857b5	0.04891177
89	0xbc014558	-0.007890068
90	0x3d28514d	0.04109316
91	0x3e8731e6	0.26405257
92	0xbc889892	-0.016674314
93	0x3dfb9716	0.12284677
94	0x3e6ff8cd	0.23434754
95	0x3e8b06ec	0.27153718
96	0xbde32a8d	-0.110921
97	0xbdfa4b44	-0.12221387
98	0xbecb4abe	-0.3970546
99	0x3edd88cd	0.43268433
100	0x3d9e14e2	0.07718827
101	0x3e127be5	0.14305075
102	0xbd8ee156	-0.06976573
103	0xbea0c433	-0.31399688
104	0x3e8ecf1b	0.27892384
105	0x3ed0a5ee	0.40751594
106	0xbd8e57b8	-0.06950325
107	0xbedee51e	-0.43534178
108	0x3cc12785	0.023578415
109	0x3ee1b2eb	0.44081816
110	0x3ebd6f90	0.36999178
111	0x3ebadca7	0.3649647
112	0x3f09beaa	0.53806555
113	0x3ebb4128	0.36573148
114	0x3e9d1e45	0.30687156
115	0xbe80f1e4	-0.25184548
116	0xbdfb9cc6	-0.122857615
117	0xbec9aa31	-0.39387658
118	0x3e64f2be	0.22358224
119	0x3d6d5076	0.05793806
120	0xbe6bd035	-0.23028643
121	0xbe8896fe	-0.26677698
122	0xbee8321d	-0.45350733
123	0x3e36d831	0.17855908
124	0x3d8282d5	0.063726105
125	0x3f54c548	0.8311353
126	0x3eb287de	0.34869283
127	0xbf1c2b4a	-0.61003554
128	0xbeb9f426	-0.36319083
129	0x3e6b25df	0.22963665
130	0x3e42d8e8	0.19028056
131	0xbe4e77f3	-0.20162944
132	0xbebd8ec2	-0.37022978
133	0xbf294d34	-0.6613343
134	0xbe4a7ee1	-0.19774963
135	0xbd021d3f	-0.031766172
136	0x3c85641d	0.01628309
137	0xbde91410	-0.1138078
138	0xbec14171	-0.3774524
139	0x3d05a0a1	0.03262389
140	0xbe00028f	-0.12500976
141	0xbe959b0e	-0.2921986
142	0xbe5c07e6	-0.21487388
143	0xbe87ccee	-0.26523536
144	0xbddf907b	-0.10916229
145	0x3e62215b	0.22083037
146	0xbe876c5f	-0.26449868
147	0x3c2a5b31	0.010397718
148	0x3d141fd7	0.036163177
149	0xbd1ecbb8	-0.0387685
150	0x3dbf36ba	0.0933661
151	0xbd572019	-0.052520845
152	0xbcc253dc	-0.023721628
153	0xbd42b32c	-0.047534153
154	0xbe404729	-0.18777145
155	0x3ba6b14f	0.005087055
156	0xbbc27fb7	-0.005935635
157	0x3d94fd6d	0.072749
158	0xbd6c5204	-0.057695404
159	0xbbb54e45	-0.005533012
160	0xbe350a65	-0.17679746
161	0xbe15be18	-0.14623296
162	0xbe21b500	-0.15791702
163	0x3ee08ae6	0.4385597
164	0xbdab7c48	-0.08373314
165	0xbe7388b8	-0.23782623
166	0x3e126f26	0.14300212
167	0x3dc2b0b0	0.09506357
168	0xbde48615	-0.111583866
169	0xbdee8bde	-0.11647771
170	0xbdcaf1bc	-0.099093884
171	0x3d4ecab3	0.050486278
172	0xbe5ec4c3	-0.21754746
173	0xbd370f1e	-0.04469215
174	0xbde535f9	-0.11191935
175	0x3e53b117	0.20673023
176	0xbd5f8d2d	-0.054577995
177	0x3e7d8542	0.24757865
178	0x3e87341f	0.26406953
179	0x3e4f7b3e	0.20261857
180	0x3d059101	0.03260899
181	0x3c9ae258	0.018906757
182	0x3dafff90	0.085936666
183	0xbea4567a	-0.32097226
184	0xbd7be1e4	-0.061494723
185	0x3e0ed09b	0.13946764
186	0x3dcaf8e8	0.09910756
187	0x3e16cf39	0.14727487
188	0x3d9f5150	0.07779181
189	0x3e42297f	0.18961142
190	0x3e332797	0.17495571
191	0x3e8d7fd1	0.2763658
192	0x3e58970d	0.21151371
193	0x3d3ca6bf	0.04605746
194	0x3edeba6e	0.4350161
195	0xbdbddc98	-0.092705905
196	0x3e248f14	0.16070205
197	0x3e208dd1	0.15679099
198	0xbe026f5e	-0.12737796
199	0x3e0328c8	0.12808526
200	0x3d6cbfc6	0.057800077
201	0xbea50ebd	-0.32237807
202	0x3da43d63	0.08019521
203	0x3d8dd75a	0.06925841
204	0xbd775c5e	-0.060390823
205	0xbe951636	-0.29118508
206	0xbe131af1	-0.14365746
207	0x3c477c26	0.012175595
208	0x3ca9b36d	0.02071544
209	0xbd19fd12	-0.037594862
210	0xbe1aaaae	-0.15104172
211	0x3e479ca8	0.19493353
212	0x3e0f51f6	0.1399611
213	0xbde976df	-0.11399626
214	0x3ea953ba	0.3307169
215	0xbd9619b5	-0.07329122
216	0xbd5870bd	-0.05284189
217	0x3e800cb6	0.25009698
218	0xbcc4470e	-0.023959663
219	0xbdb518a9	-0.08842594
220	0xbe141b8b	-0.14463632
221	0xbde58154	-0.11206308
222	0xbd6cc2f4	-0.05780311
223	0x3e20e421	0.15712024
224	0x3e94da37	0.29072735
225	0xbd7a5bd0	-0.061122715
226	0x3dfac623	0.12244823
227	0x3e07b056	0.1325086
228	0x3d955666	0.0729187
229	0x3e81ba49	0.25337437
230	0x3ed7fde1	0.42185882
231	0xbdc25a88	-0.09489924
232	0x3e15a337	0.14613043
233	0x3b8e08d4	0.0043345485
234	0xbdaf88ac	-0.0857099
235	0x3cc01f82	0.023452524
236	0xbd3a366d	-0.04546206
237	0x3db24680	0.08704853
238	0xbc6377c7	-0.013883538
239	0x3e975c08	0.29562402
240	0x3ed76055	0.42065683
241	0x3e9cc07f	0.30615613
242	0x3f1e8ffe	0.61938465
243	0x3d6fb191	0.05851895
244	0xbd4eb849	-0.050468717
245	0x3e90f5cc	0.28312528
246	0xbe01a9c0	-0.1266241
247	0xbdb35202	-0.08755876
248	0xbe98ec95	-0.29867998
249	0xbee3fd2e	-0.44529098
250	0x3e2547ee	0.1614072
251	0x3e0496b2	0.1294811
252	0xbe4446cd	-0.19167633
253	0xbde70ef1	-0.11282147
254	0xbd958867	-0.07301407
255	0xbe43ffa7	-0.19140492

lstm.bias_ih_l0 f4 [192]
0	0x3db0ca53	0.0863234
1	0xbd304ffc	-0.04304503
2	0xbe81c77c	-0.25347507
3	0xbde922aa	-0.11383565
4	0x3e2830d1	0.16424872
5	0xbd9d8354	-0.076910645
6	0xbdf5be28	-0.1199916
7	0xbe532772	-0.20620516
8	0x3d746861	0.059669856
9	0x3d3ea218	0.046541303
10	0xbe6514e2	-0.22371247
11	0xbd197ef5	-0.03747459
12	0xbdc8ca52	-0.098042145
13	0x3c996e47	0.018729342
14	0xbd94d2db	-0.0726678
15	0xbd3092a0	-0.043108582
16	0xbd332f3d	-0.04374622
17	0xbe1cbb19	-0.15305747
18	0xbd74da18	-0.059778303
19	0x3e75d9d2	0.24008873
20	0xbe6b7136	-0.22992405
21	0x3d160d42	0.036633737
22	0x3e4cdbd5	0.20005734
23	0x3c981d94	0.018568791
24	0xbdd38f9b	-0.10330125
25	0xbd2ff956	-0.042962395
26	0x3e33785c	0.17526382
27	0xbcc6caf8	-0.024266705
28	0xbe615864	-0.22006375
29	0x3eb0bc1d	0.3451852
30	0xbd26b21c	-0.040697202
31	0xbd39e068	-0.045380026
32	0x3d8f9001	0.070098884
33	0xbd802e40	-0.062588215
34	0x3e24752c	0.16060323
35	0xbe0b18b8	-0.13583648
36	0xbe5578e3	-0.20846896
37	0xbdad475d	-0.08460877
38	0xbddf9a09	-0.10918052
39	0xbe1661b6	-0.14685711
40	0xbe3b7497	-0.18306194
41	0x3dddd274	0.108311564
42	0x3e13506e	0.1438615
43	0xbe244055	-0.16040166
44	0xbe99c5f6	-0.30033845
45	0x3e8df6f4	0.27727473
46	0xbe6a6140	-0.2288866
47	0xbde802cb	-0.11328658
48	0x3e88b945	0.2670385
49	0xbe22d722	-0.15902379
50	0xbd560921	-0.0522548
51	0xbd043a9d	-0.03228246
52	0x3eafc86f	0.34332606
53	0x3e1e2a93	0.15445928
54	0xbe63459c	-0.22194523
55	0xbdce9b24	-0.100881845
56	0x3e26f602	0.16304782
57	0xbe50d81e	-0.20394942
58	0x3d1ef5b9	0.038808558
59	0x3db5f85c	0.088852614
60	0x3d9badca	0.07601507
61	0xbceffaf8	-0.029294476
62	0xbe276b58	-0.16349542
63	0xbd78768d	-0.060659934
64	0xbd135a94	-0.035975054
65	0xbd8183a6	-0.06323938
66	0xbe4395e3	-0.19100146
67	0x3dba7ae5	0.091054715
68	0xbdf85a1f	-0.12126564
69	0xbe189d7e	-0.14903829
70	0xbe0daf19	-0.13836326
71	0xbda1c6dc	-0.078992575
72	0xbd37160d	-0.044698764
73	0xbdce4f37	-0.10073703
74	0xbbf96e05	-0.0076119923
75	0x3e0ab327	0.13544904
76	0x3dbd5753	0.092451714
77	0xbd6b3a90	-0.057428896
78	0xbdb8f210	-0.09030545
79	0x3b0832fe	0.0020782347
80	0xbda7f1c8	-0.08200413
81	0x3df19d6f	0.11797606
82	0xbd9189a0	-0.07106328
83	0xbd90e581	-0.070750244
84	0xbe704683	-0.23464398
85	0xbe24f440	-0.16108799
86	0x3d116337	0.03549501
87	0x3d7d9954	0.061913803
88	0xbe13e4cd	-0.1444275
89	0x3d932dcf	0.07186472
90	0xbdab55ef	-0.08366
91	0x3c7b6574	0.0153440125
92	0xbebff1f7	-0.37489292
93	0xbc1cbe06	-0.0095667895
94	0x3daf002d	0.085449554
95	0xbdd999c7	-0.10625034
96	0xbd2f300f	-0.04277044
97	0xbc0ca708	-0.008584745
98	0xbe3a7af3	-0.18210964
99	0xbd83c6bb	-0.06434389
100	0x3c8ea102	0.017410759
101	0x3df43cf1	0.11925686
102	0xbdbb4692	-0.091443196
103	0xbd4e5afd	-0.050379742
104	0x3c9af065	0.018913457
105	0x3d3f18a6	0.046654366
106	0xbe1509f5	-0.1455458
107	0xbda391a1	-0.07986761
108	0x3d8b8109	0.06811721
109	0xbddb4378	-0.10706228
110	0x3df01a31	0.117237456
111	0xbc8e08e3	-0.017338222
112	0x3db0a0b0	0.08624399
113	0x3e04c6fa	0.12966529
114	0xbbcd5f05	-0.0062674307
115	0xbbbe2553	-0.0058027892
116	0xbc533f79	-0.012893551
117	0xbe23c99d	-0.15994878
118	0x3d38106d	0.04493754
119	0xbd321ea0	-0.043486238
120	0x3df6994b	0.12040957
121	0xbd212a44	-0.03934695
122	0xbe5b1cd3	-0.21397714
123	0xbc0078ae	-0.007841272
124	0xbd8a1664	-0.06742552
125	0x3dffd1c8	0.124911845
126	0xbd0c704b	-0.03428678
127	0x3dc0662c	0.09394488
128	0x3ccd1820	0.025035918
129	0x3d4f5dc0	0.050626516
130	0x3e11a488	0.1422292
131	0xbcc241be	-0.023712989
132	0x3b83f50a	0.0040270137
133	0xbba337ae	-0.004981003
134	0xbdfd6434	-0.12372628
135	0xbd8455ad	-0.06461654
136	0x3e2a2035	0.16613849
137	0xbe856b90	-0.26058626
138	0xbe353c26	-0.17698726
139	0x3c6dd5d0	0.014516309
140	0x3d64e9e2	0.05588711
141	0x3d74e0db	0.05978475
142	0xbe2014b0	-0.15632892
143	0xbd0ea0fa	-0.034821488
144	0x3d92b44a	0.07163294
145	0xbdc30ef3	-0.09524336
146	0xbd7bee51	-0.061506573
147	0x3dc3a1bd	0.095523335
148	0xbce85383	-0.028360134
149	0x3e2913c3	0.16511445
150	0xbe507df3	-0.20360546
151	0xbe373e0c	-0.17894763
152	0x3e1f4410	0.15553308
153	0xbdca2d80	-0.0987196
154	0xbdd2e511	-0.10297597
155	0x3d31a793	0.0433727
156	0xbe3f72aa	-0.18696085
157	0x3e04b542	0.1295977
158	0x3953681b	0.0002016131
159	0xbdb97f83	-0.09057524
160	0x3e871b95	0.2638823
161	0xbe177113	-0.14789228
162	0xbdc670a7	-0.096894555
163	0x3dcd2d4e	0.10018407
164	0xbe05e616	-0.13076052
165	0x3dcad7f3	0.0990447
166	0x3e45a3a9	0.19300713
167	0x3cd66a61	0.026173772
168	0xbe45e251	-0.19324614
169	0x3c1c833f	0.009552776
170	0x3e3b1df0	0.18273139
171	0x3e0ec046	0.13940534
172	0xbd81fe02	-0.06347276
173	0x3ebffaf9	0.37496164
174	0x3cea2ff0	0.028587312
175	0x3e4d1138	0.200261
176	0xbe0a6f65	-0.13519056
177	0xbdaab6c4	-0.08335641
178	0x3e0d076c	0.13772362
179	0xbe294302	-0.16529468
180	0xbda4d840	-0.08049059
181	0x3da0ea93	0.078572415
182	0xbd8f13ae	-0.069861755
183	0xbc94e8eb	-0.01817747
184	0xbc4a1ac6	-0.012335485
185	0x3d3d3f50	0.046202958
186	0x3e088b3c	0.13334364
187	0xbe4dd9ce	-0.20102617
188	0xbe9cd3f8	-0.3063047
189	0x3e996c0a	0.2996524
190	0xbe965be1	-0.29366973
191	0x3ddde60d	0.10834894

lstm.bias_hh_l0 f4 [192]
0	0xbd038af4	-0.032114938
1	0x3d851cad	0.0649961
2	0xbe909649	-0.28239658
3	0xbe0c7e01	-0.13719942
4	0x3e33fc4e	0.17576715
5	0x3e090efc	0.13384622
6	0xbddeaed6	-0.10873191
7	0xbeba98d0	-0.36444712
8	0x3db349b7	0.08754294
9	0x3dca9604	0.098918945
10	0xbd7fb6b5	-0.062430102
11	0x3dd08b91	0.1018287
12	0xbe21d562	-0.15804055
13	0xbcd40458	-0.025880978
14	0xbdf37010	-0.118866086
15	0xbe15f87e	-0.14645573
16	0x3cc47972	0.02398369
17	0xbcde83c1	-0.027162435
18	0xbe52f123	-0.20599799
19	0x3e6464b5	0.22304042
20	0xbe41be16	-0.18920168
21	0xbc9bca4a	-0.019017357
22	0x3d28ae32	0.04118175
23	0xbd72c120	-0.05926621
24	0xbbd8f2ab	-0.006620725
25	0xbe4eeaff	-0.20206831
26	0x3df708db	0.12062236
27	0xbe2fd443	-0.17170815
28	0xbde68be6	-0.11257152
29	0x3edcee5a	0.43150598
30	0xbe7895c6	-0.24275884
31	0x3dd3276f	0.10310256
32	0xbd15ec47	-0.036602285
33	0xbe3b1e53	-0.18273287
34	0x3d96466a	0.07337649
35	0xbe5aae09	-0.21355452
36	0x3cf704af	0.0301536
37	0xbd359e76	-0.044340573
38	0xbe165410	-0.14680505
39	0x3b0a3c16	0.0021092943
40	0x3c4531ea	0.012035826
41	0x3dc52536	0.09626238
42	0x3d3add16	0.045621
43	0xbe0f2fe3	-0.13983111
44	0xbe7900e6	-0.24316749
45	0x3e35a753	0.1773961
46	0xbe37fbb7	-0.17967115
47	0x3d8c7b7c	0.0685949
48	0x3e826c1e	0.25473112
49	0xbe379961	-0.17929603
50	0xbdf7f6a0	-0.12107587
51	0x3d12f4bb	0.035877924
52	0x3e4aca8d	0.1980383
53	0x3dae34ea	0.08506186
54	0xbe71718b	-0.2357847
55	0xbe33a0c0	-0.1754179
56	0x3e6324f9	0.22182073
57	0xbc9d44ec	-0.019197904
58	0xbd844344	-0.064581424
59	0xbd6ff91a	-0.05858717
60	0x3e62ba35	0.22141345
61	0x3cef6526	0.029223036
62	0xbe0ee849	-0.13955797
63	0x3d18ef51	0.037337605
64	0x3b9a672c	0.004712006
65	0xbd5fd9fc	-0.054651245
66	0xbe8a0d99	-0.269635
67	0x3d92a5d3	0.07160535
68	0x3b96d79d	0.00460334
69	0xbd86cb70	-0.065817714
70	0xbccdf332	-0.025140379
71	0xbb82b6bb	-0.0039890683
72	0xbdf479b6	-0.11937277
73	0xbd8020d8	-0.062562644
74	0x3dd4663b	0.103710614
75	0x3e217ce1	0.15770294
76	0x3e24709f	0.16058587
77	0x3db1be0a	0.08678825
78	0x3c2011dd	0.009769884
79	0xbe378082	-0.17920116
80	0xbde8e888	-0.11372477
81	0xbc5ffa08	-0.013670452
82	0xbe0c7bbd	-0.13719077
83	0x3d811c2c	0.063042015
84	0xbe53f4ef	-0.20698904
85	0xbd9c53a0	-0.07633138
86	0xbdd2c143	-0.10290768
87	0xbd350244	-0.044191614
88	0x3d8c495e	0.06849931
89	0xbe3ed934	-0.18637544
90	0xbd242d33	-0.040082168
91	0xbcd03aeb	-0.02541872
92	0xbe5f2056	-0.21789679
93	0x3db120f6	0.08648865
94	0xbcf21cf6	-0.029554825
95	0xbd173e7b	-0.03692482
96	0xbdf771d6	-0.12082259
97	0xbc95bf2b	-0.018279633
98	0x3cc5da16	0.024151843
99	0x3d9a405f	0.07531809
100	0x3db85ca3	0.09002044
101	0x3e0ef854	0.13961917
102	0xbdd53c1e	-0.10411857
103	0x3bd4a186	0.0064889817
104	0x3de54c76	0.111962244
105	0x3b8674da	0.0041032853
106	0x3cfcc70b	0.03085663
107	0xbe0d05b6	-0.1377171
108	0x3d0ab3b5	0.03386279
109	0x3daf9a8f	0.085744016
110	0xbc5734dd	-0.013135162
111	0x3e795924	0.2435041
112	0xbdf4310d	-0.11923418
113	0x3dbafd7e	0.09130381
114	0x3baaf656	0.005217354
115	0x3d2d5e39	0.042326186
116	0xbe0b5009	-0.1360475
117	0xbdda34fa	-0.10654636
118	0x3e05ebdd	0.13078256
119	0xbdd8835b	-0.10571929
120	0x3ce1ff2a	0.027587492
121	0x3d4f5538	0.05061838
122	0xbd335f5c	-0.043792114
123	0x3d33217e	0.043733113
124	0xbc42a21f	-0.011879473
125	0x3db11a33	0.08647575
126	0xbd32252e	-0.04349249
127	0xbd2916c6	-0.041281484
128	0x3d4e30ac	0.050339386
129	0x3d44a7cf	0.048011597
130	0x3de676b6	0.11253111
131	0x3cbc1ce8	0.022963002
132	0x3ce498ba	0.027904857
133	0x3cc23262	0.023705665
134	0xbe14d648	-0.14534867
135	0xbd84180d	-0.064499
136	0xbb879da1	-0.004138664
137	0x3bef852a	0.0073095756
138	0xbd89bf87	-0.06725984
139	0x3dcec0d2	0.10095371
140	0xbd9a776b	-0.075423084
141	0x3db79d26	0.089655206
142	0x3d835c81	0.06414128
143	0xbc52dc1f	-0.012869864
144	0x3e6cea69	0.23136295
145	0x3db7383f	0.08946275
146	0xbe919105	-0.28430954
147	0x3dc782ec	0.09741768
148	0x3df65972	0.12028779
149	0x3e8de3aa	0.27712756
150	0xbe1d9fb5	-0.15392955
151	0xbe59f0f2	-0.2128332
152	0x3d11cb60	0.035594344
153	0xbe210b8a	-0.15727058
154	0xbe83adf4	-0.25718653
155	0x3a20cf71	0.0006134427
156	0xbd82519f	-0.06363224
157	0x3d108209	0.03528026
158	0xbc1f9b0f	-0.009741559
159	0xbda21618	-0.0791437
160	0x3e03f039	0.12884606
161	0xbd40fe59	-0.047117565
162	0xbe0ee4e3	-0.13954501
163	0x3e688553	0.22707109
164	0xbe0c1978	-0.1368159
165	0xbd052f8d	-0.03251605
166	0xbd1111ca	-0.035417356
167	0xbdbaf740	-0.091291904
168	0x3c29031c	0.010315683
169	0xbccd228f	-0.025040893
170	0x3e92d770	0.2867999
171	0x3e21d8e0	0.15805387
172	0xbd5d3a9e	-0.05401098
173	0x3ec4f73e	0.3846988
174	0xbe51c656	-0.20485815
175	0x3e0f9e9c	0.14025348
176	0x3cf2cfe2	0.029640142
177	0xbd8ddab0	-0.06926477
178	0x3e923246	0.2855398
179	0xbe094eda	-0.13408986
180	0xbe342df7	-0.17595659
181	0x3df19f76	0.11797993
182	0x3dbae9f9	0.09126658
183	0xbcc41ff9	-0.023941027
184	0xbe006d23	-0.12541632
185	0xbd93efa5	-0.07223443
186	0x3e0423b4	0.12904245
187	0xbe9fd5d1	-0.31217816
188	0xbee1201f	-0.4396982
189	0x3e4f6e2c	0.20256871
190	0xbe15c88c	-0.14627284
191	0xbc9f895d	-0.01947468

lstm.weight_ih_l1 f4 [192, 48]
0	0xbd51d493	-0.051228117
1	0xbd383370	-0.04497093
2	0x3cc4cc24	0.024023123
3	0x3e45e903	0.19327168
4	0xbe27179f	-0.16317604
5	0xbe0a147a	-0.13484374
6	0xbddf8f35	-0.109159864
7	0xbd68fe29	-0.05688301
8	0x3e555b6b	0.20835654
9	0x3c60b689	0.013715395
10	0x3d6b5445	0.057453413
11	0xbe37ba86	-0.17942247
12	0x3c93e72f	0.018054573
13	0x3d89c2d1	0.067266114
14	0x3dfca106	0.123354
15	0x3d9c2537	0.07624286
16	0x3e849a11	0.25898793
17	0x3e484536	0.19557652
18	0xbd1cf1ae	-0.03831642
19	0xbde82601	-0.11335374
20	0xbbefa11b	-0.0073129064
21	0xbe584d53	-0.21123247
22	0x3dd696cb	0.1047798
23	0x3d2590e6	0.04042139
24	0x3de93231	0.113865264
25	0x3c70bf22	0.014694007
26	0xbe011c99	-0.12608565
27	0x3e167f59	0.14697017
28	0x3e09d5e2	0.13460496
29	0x3f03c40b	0.5147101
30	0xbe0e1aa4	-0.1387735
31	0xbe965d0f	-0.29367873
32	0x3bc024e9	0.005863775
33	0x3e42dc0d	0.19029255
34	0x3e44d033	0.19220047
35	0xbd80846b	-0.06275257
36	0xbdefdbac	-0.11711821
37	0xbdb84b1b	-0.089987
38	0xbdcea781	-0.100905426
39	0xbda5df33	-0.080992125
40	0xbdb346b9	-0.08753724
41	0xbe25f0c8	-0.16205132
42	0xbc834f77	-0.016029103
43	0xbe313e5b	-0.17308943
44	0x3d946c2e	0.07247196
45	0xbdd15304	-0.10220912
46	0xbe03df97	-0.12878262
47	0xbd9a4b7d	-0.075339295
48	0x3e826020	0.25463963
49	0x3d3ba0b4	0.045807555
50	0x3e6d6550	0.23183179
51	0xbd91af3c	-0.071135014
52	0xbde78ec4	-0.11306527
53	0xbdf1220f	-0.11774074
54	0x3e5061fb	0.20349877
55	0x3e767aeb	0.24070327
56	0xbe8404b5	-0.2578484
57	0xbdaa9ed5	-0.08331076
58	0x3cde6950	0.027149826
59	0xbd267116	-0.04063519
60	0xbd9e7be8	-0.07738477
61	0x3d86ebbb	0.06587931
62	0xbb5a5a1f	-0.0033317877
63	0xbe8753f9	-0.26431254
64	0xbcac8e97	-0.021064086
65	0x3c7b5224	0.015339408
66	0xbe431f07	-0.19054805
67	0xbe02df70	-0.12780547
68	0x3d5c399b	0.053765874
69	0xbcca93f6	-0.024728756
70	0xbdd62858	-0.10456914
71	0x3e19faac	0.1503703
72	0xbddefe30	-0.10888326
73	0x3d91ec42	0.07125141
74	0x3e099ebe	0.13439462
75	0xbe0e72f5	-0.1391104
76	0xbda2759b	-0.07932588
77	0xbc0528af	-0.0081273755
78	0x3dcf8671	0.101330645
79	0xbd9789af	-0.07399308
80	0xbc00f9ed	-0.007872087
81	0xbddf1172	-0.10891999
82	0xbe9a6a58	-0.3015926
83	0x3d7b92ba	0.061419226
84	0xbe38179d	-0.17977758
85	0xbd3972ca	-0.045275487
86	0x3e9641ed	0.29347172
87	0x3dde7a68	0.10863191
88	0xbdeb0171	-0.11474884
89	0x3e307b20	0.17234468
90	0x3d60c783	0.05487777
91	0xbcc73609	-0.024317758
92	0x3e182b3f	0.14860247
93	0x3c9c1240	0.019051671
94	0xbe18d077	-0.14923273
95	0xbd4a607d	-0.049408425
96	0x3d0981a3	0.033570897
97	0xbe52b99a	-0.20578614
98	0xbe3d7ad0	-0.1850388
99	0x3e68e8a5	0.22744997
100	0xbe0402e9	-0.12891735
101	0xbed3b2b3	-0.41347274
102	0x3d60e1fd	0.05490302
103	0xbe2728db	-0.16324179
104	0xbd5f99a3	-0.05458988
105	0x3e4e1805	0.2012635
106	0xbd008564	-0.03137721
107	0xbe74a02b	-0.23889224
108	0x3d80b0af	0.062837
109	0x3e414668	0.18874514
110	0x3e0a336d	0.1349618
111	0x3e9c3045	0.30505577
112	0x3e80c856	0.25152844
113	0x3e3d9fe9	0.18518032
114	0x3d9bd727	0.076093964
115	0x3d85d953	0.06535592
116	0xbe229956	-0.15878806
117	0xbc457764	-0.012052391
118	0xbdb0db36	-0.08635561
119	0x3de6c8a9	0.11268742
120	0xbc472a63	-0.012156102
121	0xbe97f27d	-0.2967719
122	0xbe9dc694	-0.30815566
123	0x3ed3338c	0.41250265
124	0xbccb4160	-0.024811447
125	0x3ea8ec5b	0.32992825
126	0xbcade761	-0.021228494
127	0xbd83d592	-0.0643722
128	0xbe184843	-0.14871316
129	0x3e91a95e	0.2844953
130	0xbd79d7b3	-0.060996722
131	0x3cf29348	0.029611245
132	0x3db882c2	0.09009315
133	0xbe1b27b7	-0.15151869
134	0xbd94df5c	-0.07269165
135	0xbdb10213	-0.08642974
136	0xbe775e81	-0.24157144
137	0x3ce572cd	0.028008843
138	0x3cb4b7ac	0.022060238
139	0x3d3da601	0.04630089
140	0x3e4132a6	0.18866977
141	0xbec1e40d	-0.378693
142	0xbdcd171d	-0.10014174
143	0xbd63618b	-0.055512946
144	0xbe538b76	-0.20658669
145	0xbdffd965	-0.124926366
146	0xbe23b563	-0.15987162
147	0x3e0c53a4	0.13703781
148	0xbdf21d38	-0.11821979
149	0xbebc9970	-0.36835814
150	0x3d3b9083	0.045792114
151	0x3cf34458	0.029695675
152	0x3e646455	0.22303899
153	0x3cb78678	0.022402987
154	0xbd1e5e38	-0.038664073
155	0xbe3f3467	-0.18672334
156	0xbe02bd70	-0.12767577
157	0x3e8b9bd0	0.27267313
158	0x3eb2a80c	0.34893835
159	0xbc083e47	-0.008315629
160	0x3e1e6226	0.15467128
161	0x3e93b77c	0.28850925
162	0x3d723f42	0.05914236
163	0xbd61d1d6	-0.055131756
164	0x3d81b5cf	0.06333505
165	0xbdd95380	-0.106116295
166	0xbe1be487	-0.15223895
167	0xbc43444e	-0.011918141
168	0xbdefb523	-0.11704471
169	0xbe63e0d0	-0.22253728
170	0xbddbb636	-0.10728113
171	0x3eb5efca	0.35534507
172	0xbd0c7826	-0.03429427
173	0x3e7f9394	0.2495864
174	0xbe4f9bfd	-0.20274349
175	0xbe6931aa	-0.22772852
176	0xbd913ca7	-0.07091647
177	0x3e2699dd	0.16269632
178	0x3d30b35d	0.043139804
179	0xbdb71469	-0.0893944
180	0xbb9b2745	-0.004734906
181	0xbe6747a8	-0.22585928
182	0xbdc8bb71	-0.098013766
183	0x3c250e2f	0.010074182
184	0xbd827b76	-0.063712046
185	0xbe22f4d2	-0.15913704
186	0x3b58988b	0.0033049907
187	0x3ccc610d	0.024948621
188	0x3e499692	0.19686344
189	0xbda535a6	-0.08066873
190	0xbea803e3	-0.32815465
191	0xbe2edd1f	-0.17076539
192	0x3df92c00	0.121665955
193	0xbd34aa42	-0.044107683
194	0x3ea0e274	0.3142277
195	0x3e3138ab	0.17306773
196	0xbe941830	-0.28924704
197	0xbebca8cc	-0.36847532
198	0xbb033c4a	-0.0020024949
199	0x3e15e2d1	0.14637305
200	0xbea79fc6	-0.32739085
201	0x3d98e29d	0.07465098
202	0x3e51fd46	0.20506772
203	0x3da6080a	0.08107002
204	0x3d57346b	0.052540224
205	0x3e083eaa	0.13305154
206	0xbe5da96c	-0.2164666
207	0xbe1c29a6	-0.15250263
208	0x3e43ba60	0.19114065
209	0xbe4dafa9	-0.2008654
210	0x3daaf1c2	0.08346893
211	0xbdda4112	-0.106569424
212	0x3e117c58	0.1420759
213	0x3df5be9d	0.11999247
214	0xbead15d3	-0.33805713
215	0x3e29070d	0.16506596
216	0xbe0b89e3	-0.13626818
217	0xbd9bc5e9	-0.07606108
218	0x3e38e42f	0.18055795
219	0x3db42f60	0.087980986
220	0x3dca65df	0.098827116
221	0xbe9c6a05	-0.30549636
222	0x3e0430b3	0.12909202
223	0xbe94a831	-0.2903457
224	0xbddca3b9	-0.10773415
225	0x3c5fb58f	0.013654127
226	0xbe8de0a0	-0.27710438
227	0xbd0228e3	-0.031777274
228	0xbdb5755b	-0.088602744
229	0xbd072ece	-0.03300362
230	0x3e052086	0.13000688
231	0x3e8e5df2	0.2780605
232	0xbea80f0b	-0.32823977
233	0x3e157c79	0.14598264
234	0x3ee44a72	0.44588047
235	0xbe910ce9	-0.28330162
236	0x3d6b144e	0.05739241
237	0xbe0fed17	-0.14055286
238	0x3e325754	0.17416126
239	0xbddd7c51	-0.10814727
240	0xbd939107	-0.07205396
241	0x3e26ccef	0.16289113
242	0x3dce9b44	0.10088208
243	0xbc70eb80	-0.014704585
244	0xbd10028c	-0.03515868
245	0x3d633577	0.05547091
246	0x3e7a375a	0.24435177
247	0x3e50c844	0.20388895
248	0xbd3b1f17	-0.045683946
249	0x3db26ae1	0.08711792
250	0xbb7a1936	-0.0038162
251	0xbea843be	-0.32864183
252	0x3ce3ac27	0.02779205
253	0xbcf6cac2	-0.03012598
254	0x3da9a2c8	0.08283001
255	0x3db09535	0.08622209

lstm.weight_hh_l1 f4 [192, 48]
0	0x3d3e6cdc	0.046490535
1	0x3e230f03	0.15923695
2	0xbc78db78	-0.015189044
3	0x3dc74854	0.09730592
4	0x3df55453	0.11978974
5	0x3dcbb266	0.09946136
6	0xbe779946	-0.24179563
7	0x3c6a926f	0.014317139
8	0xbd0e488f	-0.034737166
9	0xbe921c20	-0.28537083
10	0xbdca46c1	-0.098767765
11	0x3e379292	0.17927006
12	0x3e2d4d02	0.16923907
13	0x3e00743c	0.1254434
14	0x3dd48dab	0.103785835
15	0x3dae2101	0.08502389
16	0xbd83569e	-0.06413005
17	0xbd257fe6	-0.040405177
18	0x3e3c9ea6	0.18419895
19	0x3e8f30f9	0.2796705
20	0x3d7d4095	0.06182917
21	0x3d3dfc63	0.046383273
22	0xbce5236d	-0.027970994
23	0x3dc0bf17	0.094114475
24	0xbddf7bf9	-0.10912318
25	0xbd8429bf	-0.06453275
26	0xbe0daf98	-0.13836515
27	0xbe83ebb7	-0.25765774
28	0x3e879438	0.2648027
29	0xbe57ef31	-0.21087338
30	0x3db75a1d	0.089527346
31	0xbd95edac	-0.07320723
32	0xbe53f19d	-0.20697637
33	0xbcfac167	-0.0306098
34	0x3d8489cf	0.064715974
35	0x3e79d1f7	0.24396501
36	0x3ce45d22	0.02787644
37	0xbe23e5cb	-0.16005628
38	0x3dbc8b3c	0.09206244
39	0xbe57843a	-0.21046534
40	0x3df72b94	0.12068859
41	0xbcc4fb8c	-0.024045728
42	0x3e5c5eeb	0.21520583
43	0x3d0cf04d	0.034408856
44	0xbe9fb809	-0.31195095
45	0x3dbca997	0.09212034
46	0xbe4b9bcb	-0.19883649
47	0xbd74c3fa	-0.05975721
48	0x3e2d0445	0.1689616
49	0x3e3d1b45	0.18467434
50	0x3da09a1a	0.078418925
51	0x3e087885	0.13327225
52	0x3bf549c1	0.007485599
53	0x3e2bf6fd	0.16793437
54	0xbd3fdb4b	-0.046839993
55	0xbd91d48d	-0.07120619
56	0x3d3806ee	0.044928484
57	0xbe67ea73	-0.22648029
58	0x3d39c58e	0.04535442
59	0x3e20b19c	0.15692753
60	0x3e5f6553	0.21815996
61	0xbd77984e	-0.060447983
62	0xbb55a4b5	-0.0032599394
63	0xbd6f9e59	-0.05850062
64	0xbd2011fc	-0.03907965
65	0xbcd8f117	-0.026482148
66	0x3dacb335	0.084326185
67	0x3dfb0d61	0.12258411
68	0x3e6cf7bf	0.23141383
69	0x3e76a4e1	0.24086334
70	0x3dbdb52f	0.09263074
71	0xbb5b3302	-0.003344715
72	0xbe10ef9b	-0.14153902
73	0xbd6aedfd	-0.05735587
74	0xbdb51bfa	-0.08843227
75	0xbd14c9d4	-0.03632529
76	0x3cafa1de	0.021439489
77	0x3b662104	0.0035114894
78	0x3df7263d	0.1206784
79	0x3e023370	0.12714934
80	0xbb900189	-0.0043947143
81	0x3e183f55	0.14867909
82	0xbd26fb8b	-0.040767234
83	0x3da1d730	0.07902372
84	0xbd5f0dc8	-0.054456502
85	0xbe04455d	-0.12917085
86	0x3e597416	0.2123569
87	0xbe579b1f	-0.21055268
88	0x3e592a02	0.21207431
89	0xbdb29534	-0.087198645
90	0x3e8887a4	0.26665986
91	0xbd2dc57d	-0.042424668
92	0xbe5db727	-0.21651898
93	0x3e6e5282	0.23273662
94	0xbc6d06b9	-0.014466935
95	0xbe6542cf	-0.22388767
96	0x3e219be7	0.15782128
97	0xbd3c0788	-0.04590562
98	0xbe2826fe	-0.16421124
99	0x3dbab225	0.091160096
100	0x3e052918	0.13003957
101	0x3dec22d8	0.115300834
102	0x3d001ec4	0.03127934
103	0xbc1daa68	-0.009623148
104	0xbe112df1	-0.14177682
105	0x3df0913d	0.11746452
106	0xbe7fb0e3	-0.2496982
107	0x3ba0dd70	0.00490921
108	0x3d89db31	0.067312606
109	0xbd285487	-0.041096237
110	0xbd862f1f	-0.065519564
111	0xbcabfb48	-0.020993844
112	0x3e07a2dd	0.13245721
113	0xbd798ad8	-0.060923427
114	0x3e27b00a	0.16375747
115	0x3e88ed7b	0.26743683
116	0x3e1fe7a7	0.15615712
117	0x3e18dd01	0.14928056
118	0x3d07d373	0.033160638
119	0x3de6a119	0.11261196
120	0xbd935877	-0.07194608
121	0x3dce4f7d	0.10073755
122	0xbdfc8127	-0.12329321
123	0xbe35ea0b	-0.17765062
124	0x3eab31fe	0.3343658
125	0xbec6432d	-0.38723126
126	0xbe94f6c8	-0.2909453
127	0x3c8e938b	0.017404338
128	0xbe778ab2	-0.24174002
129	0x3dffdb6a	0.12493022
130	0xbce52b69	-0.027974801
131	0x3eca3648	0.39494538
132	0xbd9b1e70	-0.07574165
133	0xbc0e1eef	-0.008674367
134	0xbd1315de	-0.035909526
135	0x3c2a7460	0.0104037225
136	0x3e6cd409	0.2312776
137	0xbd185a05	-0.037195224
138	0x3e86fbe2	0.26364046
139	0x3def6c01	0.11690522
140	0xbe157c95	-0.14598306
141	0x3cd5a132	0.02607784
142	0x3d1c99f8	0.038232774
143	0x3c3c1265	0.011478995
144	0x3dad3bb8	0.08458656
145	0x3e81d099	0.2535446
146	0xbe2f53da	-0.1712183
147	0xbda4719d	-0.080294825
148	0x3e0076c5	0.12545307
149	0x3cff4947	0.031162871
150	0xbdeb9562	-0.11503102
151	0xbdd8fa0a	-0.10594566
152	0xbe1c3ea7	-0.15258275
153	0xbe326623	-0.17421775
154	0xbe59bd6a	-0.21263662
155	0x3d7e111f	0.062028047
156	0x3d9ab0f6	0.07553284
157	0x3e051588	0.12996495
158	0x3d9fc55c	0.07801315
159	0x3d7e8eb4	0.06214781
160	0xbd48e048	-0.049042016
161	0xbd685b1d	-0.056727517
162	0x3e2159e8	0.15756953
163	0x3ea6d199	0.32581785
164	0x3e1392bd	0.14411445
165	0x3e7f3e86	0.24926195
166	0xbe13f45f	-0.14448689
167	0x3d3c7983	0.04601432
168	0x3de83982	0.11339094
169	0xbde68dff	-0.11257552
170	0xbce71a6b	-0.02821084
171	0xbe7cc0ab	-0.24682872
172	0x3e558dfb	0.20854943
173	0xbdd5dc07	-0.104423575
174	0xbb7811b0	-0.003785234
175	0xbde392a7	-0.11111956
176	0xbe130274	-0.14356405
177	0x3e624906	0.22098169
178	0x3c4b3e91	0.012405054
179	0x3df762be	0.120793805
180	0xbe347fe6	-0.17626914
181	0xbe83f94d	-0.2577614
182	0x3df3b01a	0.11898823
183	0xbde23466	-0.110451505
184	0x3e8a18b1	0.26971963
185	0xbb1edfb6	-0.0024242229
186	0x3e313306	0.1730462
187	0x3cd88a30	0.02643308
188	0xbdebc94c	-0.11513004
189	0x3cf1a011	0.02949527
190	0xbe88fc8e	-0.26755184
191	0xbde62e9d	-0.112393595
192	0xbda12b06	-0.07869534
193	0x3d270eea	0.040785708
194	0x3d7d546e	0.061848097
195	0x3b6dcaff	0.0036284325
196	0x3d837914	0.06419578
197	0xbd35ee94	-0.04441698
198	0xbc082bac	-0.008311193
199	0x3dd50547	0.10401397
200	0x3d5a2611	0.05325896
201	0xbe529aa1	-0.20566799
202	0x3cc4ad2d	0.024008358
203	0x3d86c6f9	0.0658092
204	0xbd9b2604	-0.0757561
205	0x3cd23c4a	0.025663514
206	0x3dfa51b7	0.12222617
207	0xbdd03723	-0.101667665
208	0x3d39b310	0.045336783
209	0xbe3c22de	-0.18372676
210	0x3d092345	0.0334809
211	0xbdbe4261	-0.092900045
212	0x3e714796	0.23562464
213	0x3e2ff444	0.17183024
214	0xbe045c64	-0.12925869
215	0xbd95ecf7	-0.07320588
216	0x3dfed35f	0.124426596
217	0xbcfefbe5	-0.031125972
218	0xbe219e10	-0.15782952
219	0x3d90f2dc	0.07077572
220	0xbdb5e0ef	-0.08880793
221	0xbdfcd533	-0.12345352
222	0xbdfb555b	-0.1227214
223	0xbdbc9e5e	-0.09209894
224	0xbe535fd3	-0.20642023
225	0xbe100780	-0.14065361
226	0x3c2ce8ef	0.010553583
227	0xbdbc4971	-0.09193695
228	0xbd1dbe71	-0.038511697
229	0x3de5bec4	0.11218026
230	0x3de80997	0.11329954
231	0xbac508c5	-0.0015032521
232	0x3df1c991	0.11806024
233	0xbd34506c	-0.04402201
234	0x3e69cf2c	0.22832936
235	0xbe54952d	-0.20760031
236	0xbe35f44d	-0.17768975
237	0xbd56f2ef	-0.052477773
238	0x3dad84fb	0.0847263
239	0xbe67dd6f	-0.22643064
240	0x3e752127	0.23938428
241	0x3e1d328f	0.15351318
242	0x3e67dcbc	0.22642797
243	0xbe11c90b	-0.14236848
244	0x3b3631ad	0.0027800605
245	0x3d283ce6	0.041073702
246	0x3d9a764e	0.07542096
247	0x3dc3cbad	0.095603324
248	0x3e1d7f2d	0.15380545
249	0x3de37e95	0.11108128
250	0xbd3c17d0	-0.045921147
251	0x3b0d5572	0.0021565822
252	0xbe1ddbd7	-0.15415893
253	0x3df7fad5	0.12108389
254	0x3d13cf2e	0.036086254
255	0xbe3c0d56	-0.18364462

lstm.bias_ih_l1 f4 [192]
0	0xbd939cf4	-0.07207671
1	0xbe094091	-0.13403536
2	0xbccdf94a	-0.025143284
3	0x3c3d97cd	0.011571837
4	0x3d87b0f0	0.06625545
5	0xbdcb5bbf	-0.099296086
6	0x3e0459fc	0.12924951
7	0x3c90f285	0.017693767
8	0xbe16c423	-0.14723258
9	0xbd2c7c04	-0.042110458
10	0xbd8cb6f6	-0.068708345
11	0xbc0b4082	-0.008499267
12	0xbd11e4ce	-0.035618596
13	0xbe5d01a1	-0.21582653
14	0x3df1fb60	0.11815524
15	0x3c0bebdb	0.008540119
16	0xbe0b8511	-0.1362498
17	0x3bb71d16	0.005588184
18	0x3e4455f6	0.19173416
19	0xbaa377cf	-0.0012471619
20	0x3e3fd6d9	0.18734302
21	0x3dfcc84a	0.123428896
22	0x3d715d95	0.058927137
23	0x3a95b631	0.0011422095
24	0x3db8d3c3	0.09024765
25	0xbd88ea82	-0.06685354
26	0xbc9403de	-0.01806825
27	0xbda945c2	-0.08265258
28	0xbe266e95	-0.16253121
29	0x3e7ac7d3	0.2449029
30	0xbd3724de	-0.044712894
31	0xbdb6c6fe	-0.089246735
32	0x3e874259	0.26417807
33	0x3ba2255d	0.0049483017
34	0xbd8857a5	-0.06657342
35	0x3d4eeaa3	0.050516736
36	0x3d3d5006	0.046218894
37	0xbe2f203d	-0.17102142
38	0x3dd9f53b	0.10642477
39	0x3e0190ba	0.12652865
40	0xbc6dbbca	-0.014510104
41	0x3ddc72ee	0.107641086
42	0x3e279e96	0.1636909
43	0xbe12a1df	-0.14319561
44	0x3e448290	0.1919043
45	0xbd83e061	-0.06439281
46	0xbe05bd5e	-0.13060519
47	0x3e3895a7	0.18025838
48	0xbd90ec25	-0.07076291
49	0xbd946441	-0.072456844
50	0xbe140c65	-0.14457853
51	0xbe27fc30	-0.16404796
52	0x3d3bf67b	0.04588936
53	0xbdb488ca	-0.08815153
54	0xbe32ffd3	-0.17480402
55	0xbdec8723	-0.11549213
56	0x3b49888b	0.0030751552
57	0xbd1675c6	-0.03673341
58	0xbd86f02d	-0.06588779
59	0xbe191ad3	-0.14951639
60	0xbd3dac82	-0.046307094
61	0xbdfd27a5	-0.12361077
62	0xbe57056e	-0.20998165
63	0xbdfdd43c	-0.12393996
64	0xbe461c0c	-0.19346637
65	0x3cdcef0f	0.02696946
66	0x3c4d18ef	0.012518152
67	0x3c76a281	0.015053392
68	0xbd702caa	-0.058636345
69	0xbb733b3b	-0.0037114162
70	0xbdb38346	-0.08765273
71	0xbe834092	-0.256352
72	0x3d49f667	0.049307253
73	0xbe0d3727	-0.1379057
74	0x3daac3f8	0.08338159
75	0xbe5072c8	-0.20356286
76	0xbe645dfa	-0.22301474
77	0xbe3246a5	-0.17409761
78	0xbe3cee19	-0.18450202
79	0x3be76ac4	0.007062288
80	0x3d69afb0	0.057052314
81	0xbe190037	-0.14941488
82	0xbe0674bd	-0.1313047
83	0xbe7a460e	-0.24440786
84	0xbca4524b	-0.020058772
85	0xbccf8906	-0.025333893
86	0xbe2c839e	-0.16847083
87	0xbe2c7599	-0.16841735
88	0xbcb051c6	-0.021523368
89	0xbe1aa227	-0.15100919
90	0xbe1c02cf	-0.15235446
91	0xbd3e2711	-0.046423975
92	0xbe492da6	-0.1964632
93	0xbe398c7e	-0.1812
94	0xbcb0ff91	-0.021606239
95	0xbe440c0d	-0.19145222
96	0xbd6e89be	-0.05823683
97	0xbd350c08	-0.044200927
98	0xbcc88b03	-0.024480348
99	0xbc760d11	-0.015017764
100	0xbd3e6a5b	-0.046488147
101	0xbd7b2e2c	-0.06132333
102	0xbbf3055d	-0.007416411
103	0x3d6a1dfe	0.05715751
104	0x3bd239d7	0.0064155865
105	0xbd977a68	-0.07396394
106	0x3d83cbd2	0.0643536
107	0xbe2defc3	-0.16985993
108	0x3df1c3c4	0.118049175
109	0xbd8b2cb1	-0.067956336
110	0x3e0a9231	0.1353233
111	0xbc0a1d65	-0.00842986
112	0x3e19f0dd	0.15033288
113	0x3d280334	0.04101868
114	0x3e014b3e	0.12626359
115	0x3dd60adf	0.10451292
116	0xbd723f86	-0.059142612
117	0xbe389caa	-0.18028513
118	0x3e26bf0f	0.1628382
119	0x3d4223c6	0.047397397
120	0x3e719c35	0.23594745
121	0x3e0729ec	0.13199586
122	0x3e2bdbbb	0.1678304
123	0x3d386431	0.045017425
124	0xbd1108fc	-0.03540896
125	0x3ccbc3fb	0.024873724
126	0x3d05e6e7	0.03269091
127	0xbdb88b8d	-0.09010992
128	0xbdd29799	-0.10282821
129	0xbdb5a17d	-0.08868692
130	0xbcde80f9	-0.027161108
131	0xbdd3783b	-0.103256665
132	0x3e217609	0.15767683
133	0x3d908ccc	0.07058105
134	0xbd91c5a1	-0.07117773
135	0x3d30cac2	0.043162115
136	0x3d5f01a1	0.054444913
137	0xbe12d63b	-0.14339535
138	0x3c352710	0.0110566765
139	0xbdd9a989	-0.106280394
140	0x3df52387	0.11969667
141	0xbd2ea207	-0.04263499
142	0x3d7ad699	0.061239813
143	0x3ca108f2	0.019657586
144	0x3b80effe	0.0039348593
145	0x3dc7a7b9	0.097487874
146	0x3ca25f4e	0.019820835
147	0x3dfc6f29	0.123258896
148	0x3db47ff7	0.0881347
149	0xbd349d49	-0.04409531
150	0x3d197d5d	0.03747307
151	0x3e3e8ce7	0.18608437
152	0xbe14a58d	-0.14516278
153	0xbde69080	-0.1125803
154	0x3da25b39	0.079275556
155	0xbd5baa64	-0.053629294
156	0x3dc5e40c	0.09662637
157	0xbe71e631	-0.23622967
158	0x3d129e13	0.035795283
159	0x3da00585	0.07813553
160	0x3dd09e18	0.10186404
161	0x3e15fe55	0.14647801
162	0x3e108594	0.14113456
163	0x3d8f1a8b	0.069874845
164	0x3c402280	0.011726975
165	0x3da6f26d	0.08151708
166	0x3d12e59b	0.0358635
167	0xbe3605ae	-0.17775604
168	0xbbcf3fa5	-0.0063247257
169	0x3dcde71a	0.10053845
170	0x3da10d4d	0.07863865
171	0xbd2f1669	-0.04274598
172	0x3d698b0e	0.05701738
173	0x3da34df1	0.079738505
174	0xbcd8da90	-0.026471406
175	0xbe0fc220	-0.14038897
176	0x3da4387c	0.08018586
177	0x3ceb53df	0.028726516
178	0xbd55d9f0	-0.052209795
179	0x3daedca8	0.085381806
180	0x3deb8a8b	0.11501034
181	0xbe9d7c16	-0.30758733
182	0x3dd6c439	0.10486645
183	0xbce7ab53	-0.028279936
184	0x3da8870d	0.08228884
185	0x3cda475f	0.02664536
186	0x3d2e480f	0.04254919
187	0xbe15c9ba	-0.14627734
188	0x3e271128	0.16315138
189	0x3d77b7af	0.06047791
190	0xbdb3e98d	-0.08784781
191	0x3df8d163	0.12149312

lstm.bias_hh_l1 f4 [192]
0	0xbdb6313c	-0.088961095
1	0xbdffa8e6	-0.12483387
2	0xbc1b2d03	-0.009471181
3	0x3d950e47	0.07278114
4	0xbd358677	-0.04431769
5	0xbd3a4d48	-0.045483857
6	0x3e1f0ee2	0.15533021
7	0x3e164aeb	0.14677016
8	0x3d7a4c2a	0.061107792
9	0xbe47991d	-0.19492002
10	0x3e02d879	0.1277789
11	0xbdb2733c	-0.087133855
12	0xbcc9daad	-0.024640406
13	0xbe3f5af2	-0.18687037
14	0xbbc1bee7	-0.00591265
15	0xbd2ad845	-0.041710157
16	0xbd4b383b	-0.049614172
17	0x3e44f8a5	0.19235475
18	0x3e890eca	0.26769096
19	0x3e215c63	0.15757899
20	0x3e1e3532	0.1544998
21	0x3e0e9186	0.139227
22	0x3d8276bb	0.06370302
23	0xbd5f4201	-0.054506306
24	0x3e015b54	0.12632495
25	0x3dd46ee6	0.10372715
26	0x3ce5a82d	0.028034294
27	0x3d7a705f	0.06114232
28	0xbd10f7b7	-0.03539249
29	0x3d396102	0.04525853
30	0xbb97ce49	-0.0046327454
31	0x3c82723d	0.015923614
32	0x3e767428	0.24067748
33	0xbe18d3f1	-0.14924599
34	0xbddc8ea3	-0.10769393
35	0x3e01d200	0.12677765
36	0xbc8476d8	-0.01616995
37	0xbe927d67	-0.286113
38	0x3dc72e69	0.09725649
39	0xbde70453	-0.11280122
40	0xbcbbb5e1	-0.022913875
41	0x3c816435	0.015794853
42	0x3da3bd81	0.079951294
43	0xbe30c072	-0.17260912
44	0xbd05ae48	-0.03263691
45	0xbbddafb4	-0.00676533
46	0xbe0291a0	-0.12750864
47	0x3df78581	0.12086011
48	0xbe4200e2	-0.1894565
49	0x3c4a4c19	0.012347245
50	0xbdd41608	-0.103557646
51	0x3cfbd053	0.030738985
52	0x3d82df4a	0.06390245
53	0xbe96150c	-0.29312932
54	0xbda03bb7	-0.0782389
55	0x3d921f7c	0.071349114
56	0xbe003e96	-0.12523875
57	0xbc6d95e3	-0.014501068
58	0xbda205ab	-0.07911237
59	0xbe03212f	-0.12805627
60	0xbdcb7740	-0.099348545
61	0xbe79b924	-0.24387032
62	0x3d2b5bf0	0.041835725
63	0xbe60a95c	-0.21939605
64	0xbe231d3f	-0.15929125
65	0xbdc0913a	-0.094027
66	0xbdcd0786	-0.100112006
67	0xbdcefb3d	-0.10106514
68	0xbc65716e	-0.0140040945
69	0xbdfd5776	-0.123701975
70	0x3d985d62	0.07439686
71	0xbe2b45aa	-0.16725793
72	0xbd239f08	-0.039946586
73	0xbd22f400	-0.039783478
74	0xbd3a3dcf	-0.0454691
75	0xbe33a392	-0.17542866
76	0xbd0695d1	-0.03285772
77	0xbe63c53b	-0.22243206
78	0xbd222f36	-0.039595805
79	0xbe6ee001	-0.23327638
80	0xbd6d254d	-0.0578969
81	0xbe300c08	-0.1719209
82	0xbe30adca	-0.17253795
83	0xbde0dac8	-0.10979229
84	0xbd8d965a	-0.06913443
85	0xbe184869	-0.14871372
86	0xbe98390c	-0.29731023
87	0x3c483003	0.012218478
88	0xbe47f275	-0.19526084
89	0x3db89b54	0.090140015
90	0xbd2805bb	-0.04102109
91	0xbe850d51	-0.25986722
92	0x3bc45620	0.005991712
93	0xbe5096ed	-0.20370074
94	0x3d50c1ec	0.05096619
95	0xbdcc8e5c	-0.099880904
96	0x3c758d9d	0.0149873765
97	0xbdf68119	-0.12036342
98	0xbcb9d9c6	-0.02268685
99	0x3c96957b	0.018381825
100	0xbe686602	-0.22695163
101	0xbbd93a4d	-0.0066292644
102	0xbd78ba86	-0.060724758
103	0xbd1a308f	-0.037643965
104	0x3dc714bb	0.09720751
105	0xbded9e86	-0.116025016
106	0x3d2c0518	0.041997045
107	0x3d34bed8	0.044127315
108	0xbdce857a	-0.100840524
109	0xbde712df	-0.11282896
110	0x3e1cde31	0.15319134
111	0x3da5d4ea	0.08097251
112	0xbd354392	-0.044253893
113	0x3cd2cbc3	0.025731927
114	0x3c4ab179	0.012371414
115	0xbe273518	-0.16328847
116	0xbaaeb5c5	-0.0013329318
117	0x3db32a62	0.08748318
118	0x3e374d25	0.17900522
119	0x3c95b277	0.018273575
120	0x3e8abfc5	0.27099434
121	0x3e28f350	0.16499066
122	0x3dbd1202	0.0923195
123	0xbd8e1648	-0.069378436
124	0xbd0a26f7	-0.033728566
125	0x3ad4cfb5	0.0016236218
126	0x3ce9383b	0.028469196
127	0xbdd64d53	-0.10463967
128	0xbe004268	-0.12525332
129	0xbdd0dd85	-0.101985015
130	0x3da02894	0.0782024
131	0xbc8f1e7d	-0.017470593
132	0x3e39987c	0.18124574
133	0xbcae61ca	-0.021286864
134	0x3d251e66	0.040312193
135	0x3e083eb6	0.13305172
136	0xbe0aadb3	-0.13542823
137	0x3dd3f97d	0.103503205
138	0x3d014f61	0.031569842
139	0x3c9fbaec	0.019498311
140	0x3c4580d0	0.012054637
141	0xbd8e3166	-0.06943016
142	0xbd5a8f06	-0.053359054
143	0x3dd33e1d	0.103145815
144	0xbcefd74e	-0.02927747
145	0xbd5df159	-0.054185245
146	0x3cff97b8	0.031200275
147	0xbe0a420c	-0.13501757
148	0x3df4ad8f	0.11947166
149	0xbe3193b8	-0.17341506
150	0xbc7b300e	-0.015331281
151	0x3cc9530f	0.024575738
152	0x3d20a182	0.039216526
153	0xbe44adad	-0.19206877
154	0x3d4eb0a9	0.050461445
155	0x3e2ce1f6	0.16883072
156	0x3d7b8251	0.061403576
157	0xbe2dbc4b	-0.1696636
158	0xbc3b2394	-0.011422057
159	0xbde204bc	-0.11036059
160	0x3d72a0ec	0.0592355
161	0x3e118efa	0.14214697
162	0x3e583a41	0.21115972
163	0xbc9b23aa	-0.018937904
164	0x3c33a585	0.010964756
165	0xbde62d2a	-0.11239083
166	0x3cc768b1	0.024341913
167	0xbcf9dc87	-0.030500663
168	0x3de7fae5	0.11327151
169	0x3e1de035	0.1541756
170	0xbe164e75	-0.14678366
171	0xbe1e1143	-0.15436272
172	0x3d0929d4	0.033487156
173	0x3e4186d7	0.18899094
174	0xbda10a0c	-0.078632444
175	0xbdeb6646	-0.114941165
176	0x3e40cc31	0.18827893
177	0x3ca8944c	0.020578526
178	0x3dcf8b3f	0.10133981
179	0x3e296394	0.16541892
180	0x3d418e05	0.04725458
181	0xbe0b1efa	-0.13586035
182	0x3dc7f512	0.0976354
183	0x3d1615b6	0.0366418
184	0x3e0d6c59	0.13810863
185	0xbd064e0d	-0.03278928
186	0x3c12984f	0.008947446
187	0xbcb7e843	-0.022449618
188	0x3dc80501	0.097665794
189	0x3b51e1c8	0.0032025445
190	0x3cf140c8	0.029449835
191	0x3b97ca87	0.0046322974

linear.weight f4 [2, 48]
0	0xbd8bb1ff	-0.068210594
1	0xbe4419dc	-0.1915049
2	0xbd2cbc06	-0.0421715
3	0x3daa5245	0.08316473
4	0xbe316ee6	-0.1732746
5	0xbe407cc0	-0.18797588
6	0x3e9652a4	0.29359925
7	0xbdc42842	-0.09577991
8	0x3e92140b	0.28530917
9	0x3e651f48	0.22375214
10	0x3e44705b	0.19183485
11	0xbd30e980	-0.043191433
12	0xbe8df5e1	-0.27726653
13	0x3d480568	0.04883328
14	0x3d811cc3	0.06304314
15	0xbe1553a3	-0.14582686
16	0xbb9cfc52	-0.004790821
17	0x3d566522	0.05234254
18	0xbe55a693	-0.20864324
19	0xbe95766c	-0.2919191
20	0xbd84205a	-0.06451483
21	0xbde6a053	-0.11261048
22	0x3d543490	0.05180794
23	0xbd47728e	-0.048693232
24	0x3de5de38	0.112240255
25	0x3d1302b2	0.035891242
26	0x3e7e3131	0.24823453
27	0x3e4fe547	0.20302306
28	0xbe2c2f5a	-0.16814938
29	0x3e9c4f69	0.30529335
30	0x3e4c7146	0.19965085
31	0x3dc1806a	0.09448321
32	0x3e55ed55	0.20891316
33	0xbe619547	-0.22029601
34	0xbe3092e9	-0.17243542
35	0xbe6c33cd	-0.23066635
36	0x3e5a846c	0.21339577
37	0xbd1e14a3	-0.0385939
38	0xbe738509	-0.23781218
39	0x3e347435	0.17622454
40	0xbe6e127b	-0.23249237
41	0xbcb49443	-0.022043353
42	0xbe3760a4	-0.17907959
43	0x3e3b3093	0.18280248
44	0x3e50df02	0.2039757
45	0xbe59bd2f	-0.21263574
46	0x3e17abd5	0.14811642
47	0x3e37a3b7	0.17933546
48	0xbe0f4742	-0.13992026
49	0xbdd6fc1a	-0.10497303
50	0xbe5aad2c	-0.21355122
51	0x3e3f647d	0.18690677
52	0xbe56e177	-0.20984446
53	0xbc2514b8	-0.0100757405
54	0xbdfa022c	-0.122074455
55	0xbe39374f	-0.18087505
56	0xbd0fd370	-0.035113752
57	0xbd5a30b2	-0.053269096
58	0x3e250a6f	0.16117261
59	0xbe65c2e1	-0.22437622
60	0x3d878117	0.06616419
61	0xbe2c1ad9	-0.16807117
62	0x3e42d8d4	0.19028026
63	0x3e4eb12f	0.20184778
64	0x3e62346c	0.2209031
65	0x3e30bc0d	0.17259236
66	0xbd7faaf5	-0.062418897
67	0x3c357572	0.011075364
68	0xbe280dfc	-0.16411585
69	0xbe2635a8	-0.16231406
70	0x3e72d9fe	0.2371597
71	0x3e4b6b3d	0.19865127
72	0x3e8dda7a	0.27705747
73	0x3e6f6f2c	0.23382252
74	0xbd11a8f1	-0.035561506
75	0xbd98b396	-0.07456128
76	0x3cb4221c	0.02198892
77	0xbe297fba	-0.1655263
78	0xbe45a7f2	-0.19302347
79	0xbe316bbe	-0.17326257
80	0xbea0d907	-0.3141558
81	0xbd1145f1	-0.035467092
82	0x3dac3229	0.08408005
83	0x3cecd654	0.028910793
84	0x3d75caea	0.060007967
85	0x3d9186ac	0.07105765
86	0x3db27786	0.087142035
87	0x3d6a8a69	0.057260904
88	0xbcc0a3a2	-0.023515526
89	0xbe526959	-0.20548
90	0xbdc7a671	-0.09748543
91	0x3b2b4d38	0.0026138555
92	0x3dc1db60	0.094656706
93	0xbdc78e70	-0.09743965
94	0x3d9d730d	0.0768796
95	0x3e297629	0.16548981

linear.bias f4 [2]
0	0x3e519980	0.20468712
1	0x3e4083ab	0.18800227
