cheakpoint/training_epochs_200_stepsize_7_gamma_0.75/model_epoch80.pth (torch, 117569 bytes, 10 tensors)

lstm.weight_ih_l0 f4 [192, 2]
-0.12893441 0.13851182 -0.28123477 -0.14023088 0.06584561 0.014382959 0.14878796 0.19160609
0.31838366 0.1626354 -0.29826203 -0.0034211832 0.270851 0.2458706 0.14880289 0.20617895
0.35902452 0.3721025 -0.15609355 0.09787499 0.14328282 -0.027789867 0.07146296 0.13873836
0.14987782 -0.038112096 0.034729574 -0.09914212 0.3561021 0.08400157 0.38717768 0.23728505
0.00073448446 -0.045915656 0.3244428 0.33084837 0.14873877 0.13595818 -0.16089408 -0.18756087
-0.018141182 -0.19238864 -0.15687707 0.01329793 0.24907872 0.085467175 0.28559044 0.29025063
0.034161273 0.1470766 0.11459371 0.21515843 -0.027510073 0.2036484 0.098091714 0.15172875
0.109359704 -0.24979165 0.4002744 0.0015838373 -0.16495934 -0.11676789 0.10856922 0.051009268
-0.3141968 -0.30098227 -0.39691833 -0.42845628 -0.12039602 0.16881193 0.064530015 0.033857595
0.21220815 0.042216007 -0.104944445 -0.2994063 -0.21063542 -0.30651373 0.057669416 0.2519419
-0.25376856 -0.17941633 0.16258436 0.18776675 0.094199106 0.021011917 -0.11356169 -0.24759477
-0.23492162 -0.053945675 0.25088704 0.17937751 0.18327765 0.28995228 0.023155281 -0.05391308
-0.047144994 0.15124322 0.099434644 0.0951639 -0.22884955 -0.07984363 -0.09449218 0.10508921
-0.00032559913 0.21353267 -0.15506549 0.07771653 -0.24054773 0.028798966 -0.14017943 -0.016907461
0.20525438 0.31539083 -0.0004929245 -0.005796792 0.23352452 0.19616309 -0.075214885 0.07016561
-0.121635646 0.09730392 0.32183528 -0.0705952 0.22582603 0.25968784 0.013986028 -0.07571187
-0.23808487 -0.22440948 0.055185564 0.05230922 0.035269458 0.0010857634 0.19946994 0.18581906
-0.1626487 -0.14078796 -0.20654695 0.05683117 -0.029601542 0.050749976 0.2855802 0.29121417
0.075545505 0.025585365 0.1412094 0.3375205 -0.12616926 0.15511824 0.17448862 -0.20722282
0.31901532 0.14331912 0.22751263 -0.08942809 0.058266465 -0.04662928 0.16828561 0.3297587
-0.06065405 -0.12295019 0.02067895 -0.014575027 0.114492334 0.067881376 -0.18931213 -0.06416529
0.22798175 0.080091365 0.010773696 -0.11879697 0.003695658 -0.22620843 0.14165385 0.0021590763
-0.039228417 -0.20604007 0.033632066 0.15413834 0.02123996 0.27051473 -0.17384177 -0.20424275
0.11723205 -0.1200886 0.22375341 0.12513487 0.072522946 0.3308126 0.06526341 -0.36660728
0.11854763 -0.3774083 0.11729278 0.28679627 0.14570579 0.37292308 -0.09550804 0.52880263
0.26641205 0.33405292 0.02655987 0.25078577 -0.5392876 0.038390264 -0.05297142 0.3520258
0.49755153 0.2850342 0.35849348 0.12278525 -0.038411885 -0.30378577 -0.12567946 -0.42001894
-0.26749688 -0.36245143 -0.358834 0.03681233 0.11680502 -0.46485606 -0.18559247 -0.33318067
0.38612184 -0.07614919 0.40954882 -0.3727224 0.21031284 0.31407148 0.26577792 0.21263024
-0.2348092 -0.18288109 0.28847578 -0.05284292 -0.2024979 -0.35419196 -0.184089 -0.35649455
0.33803603 -0.19299398 -0.08307287 -0.3658154 0.19584644 -0.39060798 -0.51339453 0.0140440855
-0.24768639 0.082364045 0.47822642 -0.33339542 -0.35139832 -0.14172989 0.056401376 -0.40399796
00000000: 6207 04be 0bd6 0d3e 01fe 8fbe af98 0fbe
00000010: 10da 863d 81a6 6b3c df5b 183e 6334 443e
00000020: 2f03 a33e e589 263e cdb5 98be ee35 60bb
00000030: fbac 8a3e 81c5 7b3e c95f 183e 9320 533e
00000040: 10d2 b73e 3884 be3e fdd6 1fbe af72 c83d
00000050: bbb8 123e 93a7 e3bc 2c5b 923d 6e11 0e3e
00000060: 9279 193e 6e1b 1cbd 9940 0e3d 060b cbbd
00000070: 0453 b63e 0409 ac3d 273c c63e dafa 723e
00000080: 6b8a 403a 0e12 3cbd 5e1d a63e f564 a93e
00000090: fa4e 183e 9f38 0b3e 6bc1 24be f50f 40be
000000a0: d19c 94bc 8701 45be 62a4 20be 90df 593c
000000b0: 7e0e 7f3e 6a09 af3d e938 923e bb9b 943e
000000c0: b1ec 0b3d 409b 163e 1bb0 ea3d 7e52 5c3e
000000d0: ce5c e1bc 3589 503e 4fe4 c83d c85e 1b3e
000000e0: fbf7 df3d 62c9 7fbe c4f0 cc3e c398 cf3a
000000f0: 1aeb 28be 0124 efbd 8a59 de3d 18ef 503d
00000100: 67de a0be 591a 9abe e138 cbbe 9f5e dbbe
00000110: 3092 f6bd 09dd 2c3e 5028 843d 43ae 0a3d
00000120: 184d 593e b1ea 2c3d 1ded d6bd c84b 99be
00000130: d0b0 57be 5eef 9cbe c436 6c3d 87fe 803e
00000140: f4ed 81be eab8 37be 847c 263e ed45 403e
00000150: 76eb c03d 2f21 ac3c 0893 e8bd 7c89 7dbe
00000160: 4b8f 70be 24f6 5cbd 4474 803e bdae 373e
00000170: 23ad 3b3e a074 943e 25b0 bd3c f6d3 5cbd
00000180: 1c1b 41bd 81df 1a3e 64a4 cb3d 4ae5 c23d
00000190: 8957 6abe 0f85 a3bd 1e85 c1bd 0339 d73d
000001a0: 2db5 aab9 4fa8 5a3e 7dc9 1ebe d829 9f3d
000001b0: 2552 76be cfeb eb3c 328b 0fbe 8481 8abc
000001c0: 342e 523e e87a a13e 9a37 01ba 04f3 bdbb
000001d0: 0d21 6f3e fade 483e 430a 9abd fdb2 8f3d
000001e0: 1c1c f9bd 4747 c73d 98c7 a43e 3794 90bd
000001f0: f03e 673e cef5 843e a725 653c d30e 9bbd
00000200: 85cc 73be 99cb 65be 420a 623d 3142 563d
00000210: b576 103d 2d50 8e3a d941 4c3e 5a47 3e3e
00000220: 618d 26be b82a 10be 0b81 53be cdc7 683d
00000230: ef7e f2bc 35df 4f3d 9137 923e 061a 953e
00000240: 9ab7 9a3d 6698 d13c 3299 103e 7dcf ac3e
00000250: 8432 01be 51d7 1e3e 25ad 323e 3832 54be
00000260: fa55 a33e 3fc2 123e 12f9 683e 1326 b7bd
00000270: d1a8 6e3d 58fe 3ebd 1053 2c3e 22d6 a83e
00000280: 6270 78bd 4fcd fbbd e766 a93c 18cc 6ebc
00000290: f57a ea3d 6405 8b3d 0adb 41be 1769 83bd
000002a0: 0c74 693e f106 a43d 2884 303c d34b f3bd
000002b0: da32 723b 2fa3 67be b50d 113e 4a7f 0d3b
000002c0: faad 20bd 2bfc 52be c7c1 093d 71d6 1d3e
000002d0: 6dff ad3c e880 8a3e 9403 32be 0325 51be
000002e0: 5b17 f03d 03f1 f5bd 9d1f 653e 5b23 003e
000002f0: e986 943d 4560 a93e d3a8 853d f3b3 bbbe
00000300: 1ac9 f23d a93b c1be 3237 f03d f6d6 923e
00000310: e633 153e c6ef be3e b899 c3bd 9c5f 073f
00000320: 2967 883e fc08 ab3e 1694 d93c fe66 803e
00000330: c10e 0abf 1c3f 1d3d 8ff8 58bd ba3c b43e
00000340: 13bf fe3e 01f0 913e 758c b73e d576 fb3d
00000350: c855 1dbd cf89 9bbe 1eb2 00be b90c d7be
00000360: 5af5 88be 3c93 b9be 17b9 b7be 87c8 163d
00000370: 7837 ef3d 9d01 eebe f40b 3ebe a896 aabe
00000380: c3b1 c53e 1bf4 9bbd 62b0 d13e 78d5 bebe
00000390: 405c 573e facd a03e 0b14 883e bebb 593e
000003a0: d371 70be 2e45 3bbe 19b3 933e d171 58bd
000003b0: 9c5b 4fbe a658 b5be d481 3cbe 7486 b6be
000003c0: 0f13 ad3e 37a0 45be 1c22 aabd 284c bbbe
000003d0: f88b 483e c5fd c7be d36d 03bf 2a19 663c
000003e0: 80a1 7dbe 7bae a83d 18da f43e ceb2 aabe
000003f0: 7bea b3be a421 11be 2105 673d d2d8 cebe

lstm.weight_hh_l0 f4 [192, 48]
-0.05456133 0.26605874 -0.09724465 -0.045213524 -0.027910713 -0.012679031 0.07956544 0.071556434
-0.063624874 -0.056837402 -0.15401782 -0.024985164 0.015059404 0.14199604 -0.05890053 -0.13422681
0.0074434476 -0.1305535 -0.09621567 0.17776692 -0.05109334 -0.025993908 0.027187984 0.11001196
-0.25954393 -0.0016055328 -0.13990407 0.014478971 -0.17190328 -0.22508001 0.05387602 0.038830932
-0.09991324 0.0062967665 0.27246118 0.11608452 -0.008440601 0.2153801 -0.15688391 -0.04189174
0.09638125 -0.21070218 -0.09521041 0.13317157 0.0112045845 0.15763329 0.09921146 0.057857238
0.024907913 -0.13168478 -0.030728377 -0.2509396 -0.21404597 -0.12754472 0.42842507 -0.12530147
-0.34913245 -0.17308848 0.6125707 0.28137484 0.26775044 0.46653774 0.4449233 0.30721322
-0.005124476 -0.20571806 -0.30879328 -0.28894126 0.25543076 0.040111925 0.27169034 0.29034036
-0.5907428 0.6120519 -0.16609201 0.31838527 0.22532688 -0.30154487 0.27718097 0.2524998
-0.18368101 0.095333084 0.29373133 -0.35001856 0.5380133 -0.09109058 0.07870165 -0.113733344
0.12804282 -0.5877357 0.20527554 -0.02765709 -0.047216933 -0.3583841 0.33103794 -0.06943851
0.03433363 -0.08752921 -0.020527264 -0.10645522 -0.091769725 -0.11455798 -0.09712972 -0.3044206
0.035793032 -0.05618535 0.1502233 0.1309414 -0.011494681 0.07601766 0.30197904 0.1508691
0.10226551 -0.112337805 -0.06253357 -0.059147026 -0.1699867 0.075258024 -0.070087194 0.20105816
-0.15183574 0.10497281 -0.1434101 -0.14953326 -0.20898761 0.035358455 0.0029271764 -0.004240633
0.0061225984 0.052906882 -0.03510983 0.023403654 -0.037946027 0.08028194 0.20883815 0.07742083
-0.13273206 -0.09272016 -0.013707909 0.32784474 -0.28196207 -0.38524047 0.15582058 0.27381012
0.16266 0.5914066 0.10002894 -0.043777723 0.048992857 0.02516625 -0.2425616 -0.11124605
-0.022062983 0.21079026 0.09478511 0.1903359 -0.08002171 -0.12282599 0.12129017 0.0024324853
0.38092726 0.20245957 -0.059258953 -0.044050347 -0.0942291 0.3251363 -0.050765056 0.11973534
0.07582158 -0.15016772 -0.011653957 -0.110613756 -0.4183194 0.22087592 -0.107631065 0.17155576
0.24144585 0.124653235 0.16100867 0.09926549 -0.22016126 0.10060487 0.14184256 0.29512823
-0.21400774 0.006542621 0.10042511 0.08335783 -0.0931316 0.03010406 0.06027681 0.453999
-0.18523724 0.3559805 0.17793085 0.06413611 0.1464256 -0.044939242 0.021774763 0.019990595
0.13563667 -0.11706464 0.15315045 0.075980835 -0.07726802 0.14906387 0.02909472 -0.13856356
-0.00714248 -0.25560138 -0.06332849 0.071377695 -0.13306357 0.011130673 0.05059808 -0.11315596
-0.0050235265 0.112930894 -0.41069403 0.009898546 -0.15466216 -0.13534507 -0.21701066 0.015778093
0.012740782 0.25373974 -0.17155455 0.01935109 0.082626976 0.08719976 -0.01783193 -0.18638425
-0.261614 -0.0150756 -0.0004122147 0.10410741 -0.0576849 0.2035506 -0.20669432 0.10524437
-0.1504935 0.108851716 0.29277155 -0.20120174 -0.021567937 -0.022842541 0.037150882 0.12925671
-0.2705236 -0.071737446 -0.03158587 0.15937091 0.08616039 -0.17296267 -0.047436144 0.061757144
00000000: b37b 5fbd da38 883e 3428 c7bd d131 39bd
00000010: 02a5 e4bc b6bb 4fbc 35f3 a23d 2e8c 923d
00000020: c24d 82bd 56ce 68bd d9b6 1dbe b0ad ccbc
00000030: b8bb 763c 6967 113e af41 71bd c172 09be
00000040: 2ae8 f33b d1af 05be b90c c5bd 8808 363e
00000050: 4047 51bd 2df1 d4bc 56b9 de3c f34d e13d
00000060: f1e2 84be be70 d2ba 0343 0fbe 3539 6d3c
00000070: 6a07 30be 607b 66be 1aad 5c3d 2f0d 1f3d
00000080: 509f ccbd 1b55 ce3b 0880 8b3e b9bd ed3d
00000090: 724a 0abc 9a8c 5c3e 2da6 20be ac96 2bbd
000000a0: 8863 c53d 50c2 57be adfd c2bd 215e 083e
000000b0: 6f93 373c 9f6a 213e 612f cb3d b6fb 6c3d
000000c0: ae0b cc3c 60d8 06be 14ba fbbc 287b 80be
000000d0: de2e 5bbe 159b 02be 885a db3e 074f 00be
000000e0: 7dc1 b2be 1b3e 31be 6fd1 1c3f 5d10 903e
000000f0: 9616 893e 09de ee3e fdcc e33e 0d4b 9d3e
00000100: 38eb a7bb c1a7 52be 271a 9ebe 1cf0 93be
00000110: d2c7 823e 674c 243d ff1a 8b3e 7ea7 943e
00000120: ec3a 17bf 6faf 1c3f 0614 2abe 6503 a33e
00000130: 17bc 663e 1764 9abe aaea 8d3e a747 813e
00000140: e016 3cbe fe3d c33d f463 963e a235 b3be
00000150: 3dbb 093f b38d babd 552e a13d 07ed e8bd
00000160: a81d 033e d975 16bf c033 523e 1f91 e2bc
00000170: 8b66 41bd 1f7e b7be ce7d a93e c735 8ebd
00000180: 6ca1 0c3d 8442 b3bd cb28 a8bc 3205 dabd
00000190: c4f1 bbbd 609d eabd f2eb c6bd 04dd 9bbe
000001a0: b79b 123d 9c22 66bd 23d4 193e 8115 063e
000001b0: 3054 3cbc 26af 9b3d ff9c 9a3e 6e7d 1a3e
000001c0: 9470 d13d 5d11 e6bd 9a11 80bd 2744 72bd
000001d0: fe10 2ebe e120 9a3d e089 8fbd 31e2 4d3e
000001e0: d47a 1bbe fcfb d63d 19da 12be 3f1f 19be
000001f0: d900 56be 07d4 103d dfd5 3f3b 02f5 8abb
00000200: 14a0 c83b e3b4 583d 53cf 0fbd 05b9 bf3c
00000210: 4b6d 1bbd dc6a a43d abd9 553e d08e 9e3d
00000220: eaea 07be 11e4 bdbd 2397 60bc 44db a73e
00000230: 555d 90be 3d3e c5be 6e8f 1f3e d730 8c3e
00000240: 5890 263e 6c66 173f f9db cc3d 4550 33bd
00000250: bcac 483d 7429 ce3c 1162 78be f8d4 e3bd
00000260: 6ebd b4bc 67d9 573e b21e c23d 6ae7 423e
00000270: 6ce2 a3bd 318c fbbd fb66 f83d 556a 1f3b
00000280: e608 c33e 9051 4f3e 84b9 72bd 236e 34bd
00000290: 30fb c0bd 4478 a63e 05ef 4fbd cd37 f53d
000002a0: 5848 9b3d 91c5 19be 3df0 3ebc 7789 e2bd
000002b0: f62d d6be 4c2d 623e ad6d dcbd 50ac 2f3e
000002c0: 953d 773e 324a ff3d 75df 243e b54b cb3d
000002d0: f471 61be ed09 ce3d 2d3f 113e 0c1b 973e
000002e0: d824 5bbe 7c63 d63b aeab cd3d 83b7 aa3d
000002f0: c8bb bebd ca9c f63c d1e4 763d 8f72 e83e
00000300: d5ae 3dbe 1343 b63e 8133 363e cb59 833d
00000310: 98f0 153e 3612 38bd fd60 b23c 51c3 a33c
00000320: 57e4 0a3e 96bf efbd 79d3 1c3e d79b 9b3d
00000330: b23e 9ebd 33a4 183e 0d58 ee3c 9be3 0dbe
00000340: 770b eabb 2fde 82be 5eb2 81bd 782e 923d
00000350: d141 08be 6d5d 363c ef3f 4f3d 50be e7bd
00000360: 659c a4bb 5048 e73d 7d46 d2be 832d 223c
00000370: c25f 1ebe e697 0abe 0b38 5ebe 0f41 813c
00000380: b7be 503c 2dea 813e ffab 2fbe 2d86 9e3c
00000390: 5538 a93d ca95 b23d 4514 92bc 83db 3ebe
000003a0: 45f2 85be a6ff 76bc 851e d8b9 4436 d53d
000003b0: 0047 6cbd 926f 503e ada7 53be 5c8a d73d
000003c0: f81a 1abe a6ed de3d 27e6 953e d407 4ebe
000003d0: 3eaf b0bc 4820 bbbc 862b 183d df5b 043e
000003e0: 1282 8abe 15eb 92bd 2f60 01bd 2132 233e
000003f0: dc74 b03d 201d 31be 674c 42bd 0ff5 7c3d

lstm.bias_ih_l0 f4 [192]
0.14220154 -0.2567412 -0.12894468 0.08553381 -0.12402768 -0.29987144 0.14792743 -0.11549012
0.0817773 -0.017732082 -0.18308538 -0.01436668 -0.037267268 0.08458852 0.23699374 0.1390142
-0.043195568 0.23293734 0.031569265 -0.1459511 -0.09271512 -0.048961863 0.119095534 0.038362272
0.26602867 0.009695935 -0.16158563 0.24793804 -0.0503991 0.09630509 -0.23377253 0.014446903
-0.24256356 -0.19182359 -0.32737094 -0.07548387 0.09841232 -0.37640336 -0.25378007 0.15731636
-0.07737565 0.22382246 -0.11631669 -0.03097836 -0.30166644 0.08867974 0.0940313 0.07872056
-0.18970129 0.17796728 -0.07773691 -0.12949435 -0.05113108 -0.16692351 -0.0024103108 -0.1834166
-0.0425678 0.021209177 0.17121482 0.047465675 -0.16474807 0.014957654 0.17236689 -0.09420283
-0.16527547 0.20266616 0.019942082 0.32319757 -0.10173269 -0.21469706 0.060731996 -0.1292752
-0.029982787 0.14231974 0.11184817 0.07837107 0.3807637 -0.14308771 0.097804904 0.06601734
-0.08709485 0.028440557 -0.09794637 -0.1145773 0.1818956 -0.15306492 -0.17410442 0.16227995
0.12982085 0.089681454 -0.100337386 -0.3032534 -0.1990185 -0.09042237 -0.091366775 -0.11840623
0.03197008 -0.019033303 -0.10411929 -0.07338121 -0.12937088 -0.13055453 0.0656641 -0.047943592
-0.023019383 -0.13588682 -0.0010503388 0.24669112 0.17710727 -0.017520007 -0.013663985 0.1865035
-0.04215744 -0.11430097 -0.10277422 -0.16787261 0.050339412 -0.012436866 0.05935867 0.10219128
-0.039511386 0.06176613 0.072430946 0.13323046 0.014741139 0.031388674 0.19068074 0.11285459
-0.057715088 -0.03163623 0.084407754 -0.11602794 0.17116888 -0.013654158 -0.09126803 -0.015891163
-0.060505133 -0.13580436 0.12494718 0.053756766 0.039419856 -0.1529429 -0.005650274 0.040522553
-0.04333807 -0.22589462 -0.19257322 0.1884487 -0.13478525 -0.22678354 0.09717473 0.11268805
0.014454765 -0.15114217 -0.006487592 0.077023566 -0.123336 0.032250654 0.3729378 0.15815714
-0.10854495 0.3892486 0.015063809 -0.023848554 -0.030707773 -0.056274742 -0.04239647 0.06732567
0.16760485 -0.1297494 0.01657427 0.09416099 0.060053833 0.11478192 -0.1466875 -0.012314566
-0.25652775 -0.2790545 -0.11606086 -0.010552613 0.08640546 -0.13773012 -0.2990134 0.034216873
-0.23721358 0.113389134 -0.018370936 -0.2290613 -0.28149408 0.010909366 0.029428849 -0.07918937
00000000: 489d 113e 9573 83be 130a 04be 5a2c af3d
00000010: 3902 febd c088 99be 4a7a 173e 1686 ecbd
00000020: db7a a73d df42 91bc bc7a 3bbe 3962 6bbc
00000030: 90a5 18bd bf3c ad3d 7dae 723e bd59 0e3e
00000040: d6ed 30bd 2087 6e3e c64e 013d 3574 15be
00000050: 6de1 bdbd 3c8c 48bd 5ce8 f33d c221 1d3d
00000060: e934 883e b3db 1e3c b476 25be 78e3 7d3e
00000070: 496f 4ebd 9a3b c53d 1162 6fbe b4b2 6c3c
00000080: 9562 78be 676d 44be 2a9d a7be 4a97 9abd
00000090: 668c c93d f1b7 c0be 76ef 81be 8a17 213e
000000a0: 2077 9ebd b731 653e 7237 eebd 54c6 fdbc
000000b0: 0674 9abe b99d b53d 7b93 c03d 3f38 a13d
000000c0: 0e41 42be 0e3d 363e 8734 9fbd 2b9a 04be
000000d0: d36e 51bd ffed 2abe 4ef6 1dbb 90d1 3bbe
000000e0: 935b 2ebd debe ad3c f052 2f3e 5e6b 423d
000000f0: b8b3 28be f310 753c f280 303e 6aed c0bd
00000100: f93d 29be b887 4f3e 945d a33c 277a a53e
00000110: 3b59 d0bd 8cd9 5bbe 1dc2 783d b860 04be
00000120: 769e f5bc 44bc 113e a710 e53d 0381 a03d
00000130: 76f3 c23e 9685 12be f04d c83d 1934 873d
00000140: c95e b2bd 2cfc e83c 1b98 c8bd 81a7 eabd
00000150: d742 3a3e 0dbd 1cbe 6e48 32be b72c 263e
00000160: c2ef 043e e9aa b73d b07d cdbd 0844 9bbe
00000170: 81cb 4bbe 5d2f b9bd 811e bbbd f77e f2bd
00000180: 0ff3 023d bbeb 9bbc 7f3c d5bd e348 96bd
00000190: cd79 04be 16b0 05be e67a 863d 8060 44bd
000001a0: 2593 bcbc ea25 0bbe 86ab 89ba 999c 7c3e
000001b0: 9c5b 353e 1e86 8fbc e8de 5fbc c6fa 3e3e
000001c0: 48ad 2cbd a116 eabd 4a7b d2bd cce6 2bbe
000001d0: b330 4e3d ffc3 4bbc 1422 733d a949 d13d
000001e0: b1d6 21bd 7bfe 7c3d ad56 943d 916d 083e
000001f0: d184 713c 6991 003d d041 433e 4f20 e73d
00000200: a866 6cbd fe94 01bd f9dd ac3d 0ea0 edbd
00000210: e546 2f3e b1b5 5fbc bcea babd 2f2e 82bc
00000220: 3bd4 77bd 4c10 0bbe 4fe4 ff3d 0e30 5c3d
00000230: b776 213d 109d 1cbe ef25 b9bb fafa 253d
00000240: 4383 31bd eb50 67be ea31 45be b2f8 403e
00000250: 2505 0abe f239 68be 8b03 c73d fec8 e63d
00000260: aed3 6c3c 03c5 1abe de95 d4bb 88be 9d3d
00000270: 9697 fcbd 4319 043d b4f1 be3e f2f3 213e
00000280: d14c debd 984b c73e 32ce 763c 0b5e c3bc
00000290: de8e fbbc 5880 66bd eca7 2dbd 0ae2 893d
000002a0: 9ba0 2b3e 07dd 04be c3c6 873c 7ad7 c03d
000002b0: 02fb 753d c912 eb3d 3f35 16be 09c3 49bc
000002c0: 9b57 83be 3be0 8ebe 51b1 edbd dee4 2cbc
000002d0: 59f5 b03d 2009 0dbe 4918 99be fe26 0c3d
000002e0: 1ee8 72be 9038 e83d a57e 96bc 0c8f 6abe
000002f0: fe1f 90be 33bd 323c c514 f13c 092e a2bd

lstm.bias_hh_l0 f4 [192]
0.069681086 -0.19541681 0.059791133 0.021676894 -0.07782187 -0.28313568 0.21882807 -0.16285503
0.15134577 0.037952304 0.046644736 0.22155693 0.08647175 0.14149223 0.13695347 0.25108334
0.0077128876 0.24037288 -0.07617536 0.04525378 -0.076532796 -0.23830296 -0.05383453 0.11917368
0.24691215 -0.00656285 -0.12105946 0.27895048 0.0545564 0.20191416 -0.08800395 -0.08232664
-0.242321 -0.19227707 -0.28160137 0.047181316 0.13547899 -0.12909573 -0.1434437 0.043050047
-0.30575886 0.208722 -0.117174834 -0.0359774 -0.17733496 0.23565243 0.031210855 -0.14366384
-0.07025486 -0.054132886 -0.11717854 -0.06066551 -0.18665063 -0.102052316 -0.024956146 -0.09773658
-0.14450578 -0.07444463 0.19742993 -0.116270445 -0.19096136 -0.031147525 0.17326221 -0.062653154
-0.06642526 0.14725234 -0.0099213915 0.26732227 -0.11373234 -0.03853049 0.013545191 0.14428176
-0.044034254 0.039798178 0.06915391 -0.11774165 0.27282754 -0.08721768 0.039419245 0.019226376
0.019956972 -0.1532634 0.0537098 -0.14756289 0.14078707 0.03501512 0.02644052 -0.06290307
0.11356313 0.16452645 0.012443348 -0.18734856 -0.031225936 -0.11786823 0.071766585 -0.1305483
0.051083285 0.0543547 -0.15315323 -0.110047266 -0.0830134 0.031405233 0.1432 -0.08843091
-0.2695485 -0.09419067 0.04081679 -0.023035495 0.045091037 0.13038798 0.030904328 0.023695188
-0.0070287264 0.09597635 -0.12384108 0.0020184927 0.15095444 -0.04807675 0.20370899 0.021029241
-0.033583682 -0.0700275 0.0030293711 0.051340744 0.057384167 -0.045855172 -0.019709948 0.04497059
0.058934562 -0.087740324 0.033733502 -0.12628867 -0.066162474 0.016844675 0.10426492 0.0349765
0.016071014 -0.12435024 0.06855138 -0.0738901 -0.010900668 -0.01955318 0.22718064 0.020026628
0.051167194 -0.20348068 -0.06872769 0.011875938 -0.10374517 -0.17941602 0.18803318 -0.10805492
0.2202194 -0.16141783 -0.15447211 0.23762503 0.0020341882 0.009872222 0.29877806 0.113040335
0.013243355 0.17527795 -0.13275811 -0.005722839 0.018007202 -0.0058799535 0.07259253 -0.014884144
0.09511679 0.019738136 0.118728235 0.046207216 0.2190597 0.12828569 -0.19205609 0.04001072
-0.26154757 -0.086400874 -0.23462535 0.004980433 0.23152071 -0.20206314 -0.26240936 0.12348679
-0.2228411 0.16231617 -0.07966216 -0.04722026 -0.12257947 0.01117692 0.10832438 0.020103581
00000000: f5b4 8e3d 581b 48be 8ce7 743d be93 b13c
00000010: 1361 9fbd 29f7 90be 7714 603e 78c3 26be
00000020: 63fa 1a3e e073 1b3d 8d0e 3f3d d2df 623e
00000030: 1a18 b13d 57e3 103e 883d 0c3e ff8d 803e
00000040: 64bc fc3b 4f24 763e d401 9cbd 075c 393d
00000050: 3abd 9cbd b105 74be 9981 5cbd 5511 f43d
00000060: 8ad6 7c3e 2d0d d7bb 06ee f7bd 99d2 8e3e
00000070: 8876 5f3d 96c2 4e3e 6a3b b4bd df9a a8bd
00000080: ff22 78be 48e4 44be 0e2e 90be 3241 413d
00000090: 01bb 0a3e ac31 04be e8e2 12be 3f55 303d
000000a0: 6d8c 9cbe 38bb 553e 5cf9 efbd 0a5d 13bd
000000b0: 4c97 35be df4e 713e e8ad ff3c 9d1c 13be
000000c0: c8e1 8fbd 72ba 5dbd 4dfb efbd 667c 78bd
000000d0: 5821 3fbe ce00 d1bd d570 ccbc 1e2a c8bd
000000e0: 53f9 13be 6d76 98bd 122b 4a3e 331f eebd
000000f0: 608b 43be 1829 ffbc a66b 313e 4c50 80bd
00000100: f709 88bd 51c9 163e 558d 22bc 77de 883e
00000110: 80ec e8bd 26d2 1dbd a6ec 5d3c 99be 133e
00000120: 435d 34bd 6a03 233d 91a0 8d3d 8922 f1bd
00000130: 0db0 8b3e 2f9f b2bd 1376 213d a280 9d3c
00000140: ce7c a33c 15f1 1cbe cffe 5b3d ba1a 17be
00000150: 7c2a 103e 046c 0f3d ca99 d83c 53d3 80bd
00000160: c993 e83d 9f79 283e 2fdf 4b3c 4dd8 3fbe
00000170: 89cd ffbc e664 f1bd 5cfa 923d 74ae 05be
00000180: b53c 513d 09a3 5e3d 33d4 1cbe 7660 e1bd
00000190: ee02 aabd c6a2 003d 05a3 123e 441b b5bd
000001a0: 4302 8abe 0ae7 c0bd 822f 273d efb4 bcbc
000001b0: 61b1 383d 6d84 053e 132b fd3c 691c c23c
000001c0: 3b51 e6bb 408f c43d 64a0 fdbd b048 043b
000001d0: cd93 1a3e 20ec 44bd 1799 503e 8445 ac3c
000001e0: 0b8f 09bd 946a 8fbd 6a88 463b ac4a 523d
000001f0: a90b 6b3d a2d2 3bbd c276 a1bc 1533 383d
00000200: 5e65 713d 33b1 b3bd 242c 0a3d d151 01be
00000210: 3180 87bd d8fd 893c d988 d53d 8543 0f3d
00000220: 5ca7 833c 57ab febd aa64 8c3d b153 97bd
00000230: b798 32bc fe2d a0bc 0ba2 683e e20e a43c
00000240: b194 513d 3d5d 50be 1ac1 8cbd 4b93 423c
00000250: 5978 d4bd d5b8 37be c58b 403e e64b ddbd
00000260: 3281 613e b74a 25be f02d 1ebe fa53 733e
00000270: 0450 053b 1abf 213c 70f9 983e b181 e73d
00000280: a8fa 583c 107c 333e bef1 07be a786 bbbb
00000290: d783 933c a0ac c0bb 64ab 943d a0dc 73bc
000002a0: 97cc c23d dfb1 a13c ca27 f33d c743 3d3d
000002b0: 3051 603e 535d 033e 5aaa 44be 48e2 233d
000002c0: 90e9 85be f1f2 b0bd a141 70be e632 a33b
000002d0: c413 6d3e a4e9 4ebe 855a 86be a4e6 fc3d
000002e0: 7530 64be 3636 263e ea25 a3bd 086a 41bd
000002f0: f20a fbbd 661f 373c 2cd9 dd3d 44b0 a43c

lstm.weight_ih_l1 f4 [192, 48]
0.056776877 0.3434172 0.2062188 -0.09646265 0.05593376 0.039975032 -0.17864986 -0.30858013
-0.12604205 0.13987914 -0.11296409 0.08123411 -0.37720537 0.07088418 0.06208131 -0.0029992245
0.38872853 0.06859187 0.14220412 0.27161774 0.015333151 0.2931579 0.1465672 -0.08987806
-0.041371644 -0.05593631 0.0058568944 -0.064495675 -0.09199917 0.039963067 0.036664665 -0.056379955
0.3952071 0.25039288 0.2137109 0.34537172 -0.0038571416 0.31973 0.10094415 0.3357734
-0.2243211 -0.052497897 -0.06335717 0.29096234 -0.16338293 0.08714714 0.13361683 0.31458074
-0.10713573 0.13139905 0.3355938 0.20029783 0.24394691 0.04496161 -0.3320709 0.10894629
0.19150129 -0.03556466 0.015395268 -0.11524081 -0.26815504 -0.10972975 -0.15688993 -0.29506356
-0.028521562 -0.23375598 0.0893706 0.0338006 -0.24101542 0.059946857 -0.32365343 -0.2612682
-0.056235265 -0.22090586 -0.31672642 -0.043799352 0.03204384 0.029030666 -0.049035203 -0.17017813
0.08265575 0.065329514 -0.23478079 0.3338651 -0.14997889 -0.03695111 -0.0015729697 -0.20652284
0.03615314 0.31057733 -0.16761117 0.09034008 -0.078335315 0.2914635 -0.37401143 -0.045732267
-0.18982896 0.30196884 0.0897349 0.033747505 -0.009013514 0.11874714 0.18021372 0.19139001
0.12933546 -0.23959444 -0.01881845 -0.08599472 0.08562044 -0.060839195 -0.14888534 -0.09514463
-0.09173732 -0.05490009 -0.10239545 0.016656574 0.0033704254 0.0777249 0.04722579 -0.09634811
-0.07852585 -0.06589602 -0.28068686 0.0038916275 0.032860972 -0.20538671 -0.18325196 0.0633687
0.03188359 0.30038032 0.01610971 0.047899257 0.11758914 0.12791485 -0.0035400449 -0.12817849
-0.20337482 -0.20230912 -0.119096845 0.06704277 0.0017513878 0.1523274 -0.15782891 -0.030002668
-0.13656476 0.091787875 0.04868777 -0.13968106 -0.08642055 0.0939122 0.038410306 -0.22340761
-0.0073104836 -0.045107428 0.056326862 -0.09904274 0.0065237056 -0.04936842 0.04083258 -0.093240455
0.116148405 -0.18898915 -0.20995826 0.12930046 -0.008341783 0.20635565 0.10254216 0.044739813
-0.07864672 -0.12678015 -0.10857415 -0.01931022 -0.020796508 0.014963474 0.12339323 -0.098112896
0.13985658 0.1519548 0.0172114 0.0017561538 0.08894206 0.034989506 -0.084747486 -0.17878501
-0.06949986 -0.05463956 0.089806296 0.065077566 -0.19838166 0.07230119 -0.13759023 0.1564108
-0.05421096 0.17294316 0.03397035 0.038376294 0.33341706 0.09250313 -0.05960606 0.08438885
0.07301536 -0.12360952 0.1210004 -0.11115313 -0.25974926 0.020542972 -0.19726987 -0.14841808
0.12911355 -0.12519616 -0.1328661 -0.018001925 0.105390444 -0.08291842 -0.20820044 -0.12344112
-0.20551263 -0.04089094 -0.16106135 0.015768101 0.18440543 0.071744926 -0.283234 -0.048971985
-0.025055842 0.13676193 -0.02453076 0.09672302 -0.04449078 0.03361231 -0.14389467 -0.029690612
-0.1634812 0.021424212 -0.1065684 0.09501689 0.094562784 0.038383126 -0.26207015 0.06758499
-0.1194792 -0.055981327 0.07224807 0.14052384 -0.035581622 0.009570886 0.21341701 0.17429343
0.05516693 0.035580162 -0.026408253 -0.11884458 -0.18820797 0.030534709 -0.32520556 -0.2183586
00000000: df8e 683d 61d4 af3e 052b 533e 368e c5bd
00000010: cc1a 653d dcbc 233d fdef 36be 37fe 9dbe
00000020: 2b11 01be 7a3c 0f3e b859 e7bd 125e a63d
00000030: 1021 c1be ba2b 913d f948 7e3d a38e 44bb
00000040: 6d07 c73e e579 8c3d f59d 113e 7b11 8b3e
00000050: e637 7b3c cb18 963e b615 163e fd11 b8bd
00000060: 5075 29bd 791d 65bd 31eb bf3b 4f16 84bd
00000070: 106a bcbd 50b0 233d b02d 163d abee 66bd
00000080: 9658 ca3e 7f33 803e 08d7 5a3e 90d4 b03e
00000090: 19c8 7cbb a7b3 a33e cebb ce3d 7eea ab3e
000000a0: 6eb4 65be 0908 57bd 67c1 81bd 04f9 943e
000000b0: db4d 27be 337a b23d dad2 083e ba10 a13e
000000c0: fa69 dbbd 798d 063e f3d2 ab3e e01a 4d3e
000000d0: 38cd 793e aa29 383d 3205 aabe 3c1f df3d
000000e0: ea18 443e 40ac 11bd 6f3c 7c3c 6003 ecbd
000000f0: 9e4b 89be feb9 e0bd c1a7 20be 9212 97be
00000100: 0da6 e9bc ba5d 6fbe ef07 b73d 7f72 0a3d
00000110: bfcc 76be d68a 753d e7b5 a5be f2c4 85be
00000120: f356 66bd 2535 62be f729 a2be f366 33bd
00000130: 6740 033d b8d1 ed3c 23d9 48bd 2d43 2ebe
00000140: 6b47 a93d 7bcb 853d 606a 70be 5ef0 aa3e
00000150: 1194 19be 0c5a 17bd 1b2c ceba b97a 53be
00000160: 5115 143d fe03 9f3e 43a2 2bbe 3804 b93d
00000170: 446e a0bd b43a 953e 6d7e bfbe c251 3bbd
00000180: 8662 42be a99b 9a3e eec6 b73d d33a 0a3d
00000190: 6bad 13bc b331 f33d f289 383e befb 433e
000001a0: 8470 043e 3f58 75be 2629 9abc 001e b0bd
000001b0: c559 af3d 8532 79bd 6675 18be 30db c2bd
000001c0: c7e0 bbbd ebde 60bd b5b4 d1bd 5e73 883c
000001d0: 5be2 5c3b 3b2e 9f3d d46f 413d 2852 c5bd
000001e0: 29d2 a0bd 7ef4 86bd 30b6 8fbe ad0a 7f3b
000001f0: 3a99 063d e550 52be 67a6 3bbe 73c7 813d
00000200: 5e98 023d 73cb 993e 83f8 833c 0332 443d
00000210: 93d2 f03d 1cfc 023e 1900 68bb 3941 03be
00000220: 7d41 50be 1f2a 4fbe 0ce9 f3bd b84d 893d
00000230: d38e e53a b7fb 1b3e e79d 21be 28c8 f5bc
00000240: a2d7 0bbe 48fb bb3d d46c 473d 8d08 0fbe
00000250: 42fd b0bd 0a55 c03d 2054 1d3d f7c4 64be
00000260: c88c efbb 91c2 38bd ffb6 663d ecd6 cabd
00000270: cfc4 d53b 8a36 4abd 1040 273d daf4 bebd
00000280: 37df ed3d 5f86 41be 4cff 56be 5767 043e
00000290: f9ab 08bc e54e 533e a001 d23d 1841 373d
000002a0: 8811 a1bd a8d2 01be 205c debd 7730 9ebc
000002b0: 705d aabc 5c29 753c 97b5 fc3d 6aef c8bd
000002c0: 9036 0f3e 0a9a 1b3e ecfe 8c3c be2e e63a
000002d0: 4127 b63d 2851 0f3d 1790 adbd 6b13 37be
000002e0: f155 8ebd bbcd 5fbd 5dec b73d 6347 853d
000002f0: 9024 4bbe a512 943d 74e4 0cbe 272a 203e
00000300: 500c 5ebd 0318 313e 7e24 0b3d 7630 1d3d
00000310: a4b5 aa3e 4872 bd3d 7c25 74bd 10d4 ac3d
00000320: 1489 953d fd26 fdbd 0fcf f73d 41a4 e3bd
00000330: dbfd 84be bc49 a83c 1d01 4abe e9fa 17be
00000340: 5836 043e 6c33 00be 0d0e 08be c678 93bc
00000350: f2d6 d73d 22d1 a9bd 7f32 55be b3ce fcbd
00000360: e771 52be 427d 27bd 44ed 24be 1b2c 813c
00000370: c7d4 3c3e 01ef 923d 0c04 91be d996 48bd
00000380: e941 cdbc 520b 0c3e bbf4 c8bc b816 c63d
00000390: f73b 36bd 10ad 093d 2059 13be ba39 f3bc
000003a0: 9e67 27be d481 af3c 8940 dabd 3798 c23d
000003b0: 22aa c13d a037 1d3d 0f2e 86be 006a 8a3d
000003c0: 83b1 f4bd ad4c 65bd ccf6 933d 7be5 0f3e
000003d0: 09be 11bd 35cf 1c3c fd89 5a3e fa79 323e
000003e0: b8f6 613d 81bc 113d 1f56 d8bc ca64 f3bd
000003f0: 97b9 40be ed23 fa3c 5881 a6be 6699 5fbe

lstm.weight_hh_l1 f4 [192, 48]
0.04073771 -0.10739169 -0.039235756 -0.36814293 -0.18931197 0.09920101 -0.05288254 -0.032817222
0.056030765 -0.26360422 -0.07882141 0.1276344 0.18543863 -0.040837463 -0.36987016 0.029110255
-0.07646942 0.059138015 0.12009586 -0.124858186 0.13453747 0.054265942 -0.041022323 -0.12006329
-0.13125758 -0.12666889 -0.12549984 0.020360865 0.11885861 -0.0069796573 0.1311884 -0.014288702
0.041318584 -0.24503641 0.07614072 0.072234035 0.21133797 0.10951051 0.22937526 0.16338727
0.02922996 -0.06190721 0.008719676 0.08639482 -0.108459994 -0.20664242 0.17674094 0.04915224
0.06947883 -0.14507519 -0.11201164 -0.093773834 0.027493672 0.15672642 -0.12961787 -0.019838814
0.096345015 0.18050665 0.050425943 0.04258067 0.097951226 -0.08474878 -0.061971925 -0.083315805
-0.13904893 0.076328546 0.13622847 0.15233804 0.06673383 -0.09687593 0.0760501 0.08879544
0.057459097 0.06887314 -0.07444961 0.030417709 0.1219697 -0.15703811 0.015026729 -0.019337304
0.18126762 -0.06932463 -0.07012437 -0.091412544 -0.051720604 0.092677504 0.17129602 -0.100247666
0.12155895 -0.07792243 0.22659601 -0.052831188 0.10681577 -0.07866452 -0.05848449 -0.12811635
-0.07714392 -0.051243965 -0.20237267 -0.045177072 -0.115321904 -0.17585711 0.022194419 -0.08370295
0.074588 -0.042078 0.03144763 -0.008839531 0.007922023 0.09398338 0.042257905 -0.10118929
-0.15676859 -0.09744737 -0.012668087 0.24674362 -0.058744267 -0.013538071 -0.07673912 -0.05020219
0.02084426 -0.14494213 -0.07947601 0.053033967 0.21136706 -0.03800763 0.18593372 -0.00032331495
0.097842805 0.058744874 0.05868147 -0.1122256 0.16360621 -0.10416717 0.07792093 -0.017011397
-0.048665743 -0.05174546 0.22760071 -0.16129348 0.17714772 -0.116018005 -0.035266247 -0.113413915
0.05633385 0.028117372 0.04600937 -0.2816969 -0.0940337 0.12834191 0.08340304 -0.057842404
-0.007630028 -0.18946113 -0.15406191 0.103564374 0.124024674 -0.07642335 -0.19461372 0.07247087
-0.18959437 0.15645939 0.08909793 -0.15433747 0.03105139 -0.06914128 0.060537424 0.062644236
-0.21801426 -0.0106842425 -0.11302208 -0.008836282 -0.044843905 0.122728445 0.05620886 0.1331702
0.11938371 0.13336988 0.010150969 -0.020396225 -0.1353443 0.14303067 -0.09680323 -0.115047336
0.0005954706 0.06157642 -0.09844621 0.103640944 0.073518634 -0.1297452 0.0471551 -0.021285146
-0.24323273 -0.15978844 -0.008718946 0.038533784 -0.15789053 0.16801065 -0.24856703 -0.13623965
0.09521171 0.3011721 0.11206384 0.051339786 -0.031746965 0.1623318 0.058404967 -0.14775625
-0.00036133017 -0.26054382 0.011367396 -0.06215561 0.0072638383 0.05764421 -0.04669001 0.0957702
0.055355586 0.08244819 -0.07499225 -0.11071388 0.13519876 -0.029524783 0.003033057 0.07632317
0.18865833 -0.063408665 0.12955248 0.011306751 0.102146484 -0.13631044 0.024282657 -0.061020654
-0.11994121 -0.40463763 0.077189624 0.051117465 -0.07637331 -0.051272288 0.038215816 0.018246586
-0.06212492 -0.18872 -0.25744238 -0.06749457 0.037239082 0.040036365 -0.15397775 0.01686071
0.08665786 -0.0404216 0.071081415 -0.0019500307 0.032316074 0.1424412 -0.04505888 -0.08881098
00000000: 96dc 263d 2df0 dbbd acb5 20bd 3b7d bcbe
00000010: ffda 41be e629 cb3d 5d9b 58bd 5a6b 06bd
00000020: 8480 653d 22f7 86be 1f6d a1bd 98b2 023e
00000030: a0e3 3d3e 2f45 27bd 9f5f bdbe a178 ee3c
00000040: 009c 9cbd b43a 723d d1f4 f53d a6b5 ffbd
00000050: 31c4 093e f745 5e3d 0607 28bd bee3 f5bd
00000060: 6368 06be 7db5 01be 0883 00be d4cb a63c
00000070: 256c f33d 9cb5 e4bb 4056 063e 291b 6abc
00000080: ad3d 293d d3ea 7abe aaef 9b3d 70ef 933d
00000090: fb68 583e 0c47 e03d 59e1 6a3e fe4e 273e
000000a0: ab73 ef3c 6a92 7dbd f9dc 0e3c c4ef b03d
000000b0: 4620 debd 129a 53be 94fb 343e dc53 493d
000000c0: eb4a 8e3d 978e 14be 5c66 e5bd 7f0c c0bd
000000d0: 693a e13c e47c 203e 8cba 04be 0285 a2bc
000000e0: 8950 c53d bcd6 383e 6f8b 4e3d 1269 2e3d
000000f0: a79a c83d c590 adbd 46d6 7dbd 7aa1 aabd
00000100: d862 0ebe 2452 9c3d 7a7f 0b3e 81fe 1b3e
00000110: bfab 883d e366 c6bd 28c0 9b3d 62da b53d
00000120: 3b5a 6b3d 5c0d 8d3d 0a79 98bd 8f2e f93c
00000130: 40cb f93d 99ce 20be ab32 763c 4469 9ebc
00000140: 389e 393e 12fa 8dbd 5e9d 8fbd 8036 bbbd
00000150: fcd8 53bd b4cd bd3d 3968 2f3e a64e cdbd
00000160: e6f3 f83d cc95 9fbd c908 683e 8465 58bd
00000170: 3ac2 da3d dd1a a1bd 6f8d 6fbd ef30 03be
00000180: a2fd 9dbd 31e5 51bd c83a 4fbe 980b 39bd
00000190: e42d ecbd e313 34be 12d1 b53c 746c abbd
000001a0: 98c1 983d fb59 2cbd 3bcf 003d aed3 10bc
000001b0: 5fcb 013c 5c7a c03d a016 2d3d 553c cfbd
000001c0: f287 20be 7d92 c7bd cf8d 4fbc 5caa 7c3e
000001d0: d49d 70bd c9ce 5dbc 6629 9dbd d0a0 4dbd
000001e0: 95c1 aa3c b66b 14be 51c4 a2bd 253a 593d
000001f0: 9b70 583e e3ad 1bbd 6965 3e3e 9982 a9b9
00000200: cf61 c83d 779e 703d fb5b 703d 89d6 e5bd
00000210: 6388 273e 9955 d5bd 0295 9f3d 7c5b 8bbc
00000220: bb55 47bd 0cf3 53bd 2910 693e 1e2a 25be
00000230: 3666 353e d99a edbd 5773 10bd 8e45 e8bd
00000240: 53be 663d 6756 e63c 5274 3c3d 933a 90be
00000250: be94 c0bd 106c 033e 37cf aa3d 28ec 6cbd
00000260: 5005 fabb 1902 42be 68c2 1dbe 8f19 d43d
00000270: a600 fe3d d883 9cbd d248 47be 9c6b 943d
00000280: 0725 42be e436 203e fa78 b63d a40a 1ebe
00000290: 7c5f fe3c f299 8dbd 17f6 773d 9f4b 803d
000002a0: 213f 5fbe f60c 2fbc 1f78 e7bd 0ec6 10bc
000002b0: 3eae 37bd 0d59 fb3d 433b 663d c55d 083e
000002c0: 727f f43d 1d92 083e 4050 263c fc15 a7bc
000002d0: b297 0abe a276 123e c640 c6bd f09d ebbd
000002e0: 5b19 1c3a 8e37 7c3d 2b9e c9bd b441 d43d
000002f0: f090 963d eddb 04be b525 413d 305e aebc
00000300: 0012 79be 959f 23be e9d9 0ebc 9ad5 1d3d
00000310: 0eae 21be fc0a 2c3e 5b88 7ebe 6882 0bbe
00000320: 5bfe c23d 3b33 9a3e ba81 e53d ab49 523d
00000330: 1b09 02bd 4f3a 263e 0c3a 6f3d 6a4d 17be
00000340: ea70 bdb9 0066 85be 513e 3a3c e296 7ebd
00000350: 7e05 ee3b 561c 6c3d 063e 3fbd 2b23 c43d
00000360: 8abc 623d 99da a83d 8995 99bd f5bd e2bd
00000370: 8b71 0a3e f5dd f1bc 41c6 463b 524f 9c3d
00000380: a62f 413e 67dc 81bd 68a9 043e f33f 393c
00000390: 2d32 d13d f794 0bbe 6cec c63c cbf0 79bd
000003a0: bda3 f5bd aa2c cfbe 9815 9e3d 8c60 513d
000003b0: 9c69 9cbd e402 52bd 3088 1c3d dd79 953c
000003c0: b376 7ebd d13f 41be 7dcf 83be 983a 8abd
000003d0: 0288 183d 2cfd 233d 58ac 1dbe 791f 8a3c
000003e0: ad79 b13d 1f91 25bd 2293 913d 2c98 ffba
000003f0: dc5d 043d 1bdc 113e a98f 38bd 88e2 b5bd

lstm.bias_ih_l1 f4 [192]
-0.105714045 -0.019322524 0.13654996 0.006682095 0.060068794 -0.057064038 0.09263264 0.12957305
-0.015616532 -0.13020895 0.03768322 -0.16701475 0.14640388 0.13928111 0.14491434 0.08647062
0.03882738 -0.17423762 0.08474476 -0.037073553 0.0208178 0.0929292 0.19557442 0.22802387
0.16201797 -0.073169544 0.18990844 0.11965446 -0.072744355 0.12325602 0.37556568 0.16986583
-0.08117071 0.18120196 0.12105724 0.19436653 0.030809108 -0.24678408 0.088132024 -0.21771975
0.2066493 -0.07905865 -0.09696977 0.23765688 -0.036069665 0.08970274 0.015847366 -0.030455384
-0.031177903 -0.19412965 -0.07800977 -0.25030085 -0.12321033 0.074960485 -0.10355731 0.030412072
0.022918103 -0.072427176 0.023688009 0.0040342943 -0.04540831 -0.2216707 -0.17285816 0.028154671
-0.05289457 -0.23738645 -0.18609521 -0.082471035 0.08241428 -0.12726685 -0.16895102 -0.032038648
-0.087432675 -0.041940045 -0.12039755 0.014826534 -0.17087992 -0.21775064 -0.086236805 0.12894239
-0.15126872 -0.16025442 -0.02326986 -0.014533468 0.04205517 -0.023492511 -0.13287279 -0.057513457
-0.1473256 0.07840142 0.062692896 -0.10642831 0.12205328 -0.121643335 -0.18335597 -0.16062455
0.11616781 0.053451613 0.07784347 0.02997981 -0.06321165 0.08994744 0.017369322 0.018149216
-0.11907209 0.112691894 -0.20664799 -0.061096005 0.12347322 0.08319019 -0.012002297 0.069088586
0.059430778 -0.14500193 -0.036153708 -0.14885373 0.10296946 -0.026254669 0.10128113 0.27005613
0.049138084 -0.073220335 0.08935898 -0.15237284 0.048663553 -0.018757923 -0.06789143 -0.14196609
-0.13776419 -0.06319236 -0.0996009 0.07095254 -0.17469424 -0.054603744 -0.05428454 -0.10297991
0.0076762284 -0.07804599 0.029205246 0.01692851 -0.081194445 0.090766735 -0.050404858 -0.06614087
0.11157492 -0.07448137 0.030200988 0.058491904 0.09527753 0.10718739 -0.054939426 0.04068582
0.019260604 -0.060331307 0.11239207 0.039702017 0.19144143 -0.016684607 -0.055545047 0.063629195
-0.11528815 0.081145614 0.04384712 -0.1027791 -0.0030504668 0.025663983 0.16054432 0.07223391
0.26307568 0.16061446 0.0038577414 -0.015996123 -0.017970707 -0.117141396 0.24641797 0.13169111
0.0057593114 0.11697486 -0.0928456 0.1657377 0.1077362 -0.16863757 0.09740047 -0.14268406
-0.024025217 -0.16281123 0.111271575 0.18161981 -0.097967386 0.034349926 -0.053029682 0.008907352
00000000: 9b80 d8bd 454a 9ebc c1d3 0b3e 7af5 da3b
00000010: b20a 763d fbbb 69bd 2eb6 bd3d ccae 043e
00000020: 7cdc 7fbc 7f55 05be b859 1a3d ea05 2bbe
00000030: e6ea 153e b59f 0e3e 6d64 143e 8217 b13d
00000040: 7509 1f3d 596b 32be a98e ad3d 70da 17bd
00000050: 178a aa3c aa51 be3d a944 483e 177f 693e
00000060: 0ae8 253e ead9 95bd 5c77 423e 660d f53d
00000070: fefa 94bd a76d fc3d 254a c03e 4ff1 2d3e
00000080: d43c a6bd 028d 393e dcec f73d 0508 473e
00000090: 6263 fc3c f7b4 7cbe 907e b43d edf1 5ebe
000000a0: e09b 533e 80e9 a1bd 1698 c6bd 535c 733e
000000b0: c9bd 13bd 12b6 b73d 56d2 813c 927d f9bc
000000c0: cd68 ffbc ecc9 46be 96c3 9fbd 6f27 80be
000000d0: b355 fcbd e284 993d db15 d4bd bd22 f93c
000000e0: bfbe bb3c b354 94bd 5b0d c23c 1d32 843b
000000f0: 10fe 39bd a5fd 62be bb01 31be a0a4 e63c
00000100: faa7 58bd 6f15 73be be8f 3ebe 93e6 a8bd
00000110: d1c8 a83d 3e52 02be 7f01 2dbe f53a 03bd
00000120: e70f b3bd 53c9 2bbd fe92 f6bd feea 723c
00000130: 25fb 2ebe 06fa 5ebe ec9c b0bd 7909 043e
00000140: 30e6 1abe bc19 24be 6fa0 bebc c81d 6ebc
00000150: 0b42 2c3d 5e73 c0bc ce0f 08be 3b93 6bbd
00000160: 86dc 16be ec90 a03d 2265 803d 16f7 d9bd
00000170: 12f7 f93d 2420 f9bd abc1 3bbe c37a 24be
00000180: 64e9 ed3d 14f0 5a3d 666c 9f3d 3898 f53c
00000190: 1c75 81bd 5d36 b83d 1c4a 8e3c aaad 943c
000001a0: 11dc f3bd 02cb e63d 889b 53be ce3f 7abd
000001b0: 87df fc3d 9e5f aa3d 48a5 44bc 517e 8d3d
000001c0: b06d 733d 637b 14be e915 14bd 1d6d 18be
000001d0: a7e1 d23d 0814 d7bc 7b6c cf3d cc44 8a3e
000001e0: 0445 493d 8bf4 95bd d701 b73d a007 1cbe
000001f0: 6f53 473d 37aa 99bc a90a 8bbd 8f5f 11be
00000200: 0e12 0dbe ff6a 81bd 8ffb cbbd 914f 913d
00000210: 0ce3 32be 2da8 5fbd 7759 5ebd 22e7 d2bd
00000220: df88 fb3b 93d6 9fbd d73f ef3c a9ad 8a3c
00000230: 4649 a6bd e9e3 b93d 5375 4ebd dd74 87bd
00000240: 6481 e43d b089 98bd 1068 f73c 3595 6f3d
00000250: de20 c33d 1085 db3d 2a08 61bd 2da6 263d
00000260: 6ac8 9d3c f61d 77bd d02d e63d 959e 223d
00000270: 3909 443e 28ae 88bc 3483 63bd 0650 823d
00000280: 321c ecbd ac2f a63d 0a99 333d d97d d2bd
00000290: 57ea 47bb 463d d23c bb65 243e 5fef 933d
000002a0: dbb1 863e 1e78 243e 29d2 7c3b 4d0a 83bc
000002b0: 4e37 93bc d4e7 efbd fe54 7c3e 09da 063e
000002c0: 9bb8 bc3b 8490 ef3d d525 bebd 25b7 293e
000002d0: cca4 dc3d 54af 2cbe e679 c73d c51b 12be
000002e0: 88d0 c4bc fdb7 26be 5ae2 e33d 8bfa 393e
000002f0: 20a3 c8bd 82b2 0c3d a735 59bd 24f0 113c

lstm.bias_hh_l1 f4 [192]
0.085983105 -0.06139459 0.046332352 0.2646947 -0.064155415 -0.022026135 0.15842341 0.15159501
-0.11975523 -0.01176216 0.12562317 0.029408772 0.19845477 -0.09294759 0.16795716 0.17565456
0.00035255836 -0.14864954 0.26679337 -0.13883808 0.09565271 0.046208616 0.15431644 0.036962207
0.29015207 -0.006003112 -0.0018336838 0.17702095 -0.12651715 -0.105277985 0.30211103 0.091557
-0.045655724 -0.07131203 0.15976915 -0.033731945 0.035024315 -0.28696066 0.18456165 -0.25648832
0.026227336 0.038496837 -0.0010831397 0.09284415 -0.085146725 -0.04044265 0.09816062 -0.10648869
-0.20989418 -0.10125728 -0.06597977 -0.007426201 0.104858436 0.04159824 0.050084397 -0.14764613
-0.028491486 -0.09222835 -0.089941286 -0.13936281 -0.019230261 -0.055792037 -0.14314282 -0.105280854
-0.09578491 -0.13290305 -0.15034135 -0.07882247 -0.054675203 -0.28149685 -0.13104694 0.07165569
0.0017087649 -0.14964083 0.104509294 0.032051172 0.032844122 -0.23034291 -0.0976017 0.12007765
-0.071287885 -0.0033532893 0.0962646 -0.09833522 0.0008966507 -0.05489425 -0.20629846 -0.21229717
0.028133992 -0.1250584 -0.100468025 -0.16633219 0.064334445 -0.11796084 -0.11517621 0.016294323
-0.06487174 0.11669236 0.0065555074 -0.112533696 0.10770251 0.10554173 -0.08130964 0.19360319
-0.15487592 -0.05508343 -0.22598775 -0.111035794 -0.08980159 0.06780262 0.123265356 0.17622657
0.0809323 0.10340543 -0.08700529 0.002639157 0.115657985 0.05521478 -0.07627152 0.29281563
0.025388286 0.12778237 0.08497911 -0.14386359 0.041199684 0.0012095141 -0.050017238 -0.20960534
-0.073251106 0.03365005 -0.21711388 0.0013764579 -0.12646541 -0.080637805 0.03246985 -0.020512125
0.050953712 -0.10805419 -0.026218735 -0.058488846 0.020400733 -0.020811897 -0.045897957 -0.11512073
-0.12834616 -0.023904592 0.12984921 0.19533886 0.14848708 0.06816839 -0.06611568 0.09817925
-0.15123703 0.07243526 0.0596563 -0.014313913 0.049305253 -0.07207385 0.0843149 -0.087640285
0.019484011 -0.14870648 0.19595174 -0.05972084 0.14939788 0.08028957 -0.020952852 0.15678072
0.20852306 0.0764111 0.19524848 -0.11891752 0.12152639 -0.012100611 0.3049396 -0.08643938
-0.008054915 0.15960819 0.12132317 -0.09989006 0.0693707 -0.32165438 0.039469745 -0.34391308
0.09739157 -0.18690035 -0.0905594 0.048125032 -0.22493039 0.086448945 0.03305845 -0.12988566
00000000: e917 b03d e578 7bbd fec6 3d3d 1086 873e
00000010: ea63 83bd 2770 b4bc bf39 223e b93b 1b3e
00000020: 3b42 f5bd 13b6 40bc 5ca3 003e aaea f03c
00000030: ba37 4b3e 4e5b bebd f6fc 2b3e cade 333e
00000040: 95d7 b839 9637 18be 2499 883e 922b 0ebe
00000050: 91e5 c33d 3f45 3d3d 2105 1e3e af65 173d
00000060: d08e 943e c1b5 c4bb 3858 f0ba fb44 353e
00000070: b68d 01be fc9b d7bd 4cae 9a3e 3d82 bb3d
00000080: 7f01 3bbd 0b0c 92bd 869a 233e 822a 0abd
00000090: a875 0f3d 82ec 92be bbfd 3c3e 7052 83be
000000a0: b6da d63c dcae 1d3d 23f8 8dba 1325 be3d
000000b0: 6861 aebd 31a7 25bd 6f08 c93d be16 dabd
000000c0: 80ee 56be fa5f cfbd 6720 87bd 7d57 f3bb
000000d0: 05c0 d63d eb62 2a3d 4c25 4d3d 8c30 17be
000000e0: fa66 e9bc 38e2 bcbd 2333 b8bd 20b5 0ebe
000000f0: c888 9dbc 3186 64bd 0894 12be 7d9d d7bd
00000100: e12a c4bd bd17 08be 15f3 19be ad6d a1bd
00000110: 1bf3 5fbd 5b20 90be 2b31 06be 38c0 923d
00000120: a3f8 df3a 723b 19be f808 d63d 1748 033d
00000130: 8f87 063d 03df 6bbe 66e3 c7bd 45eb f53d
00000140: 62ff 91bd dcc2 5bbb 6026 c53d fa63 c9bd
00000150: 360d 6b3a cbd8 60bd e73f 53be 6e64 59be
00000160: 4279 e63c 4f0f 00be 2ec2 cdbd fc52 2abe
00000170: c7c1 833d 7495 f1bd 81e1 ebbd ac7b 853c
00000180: 7adb 84bd 67fc ee3d 95cf d63b 1178 e6bd
00000190: 2293 dc3d 4326 d83d ab85 a6bd ea3f 463e
000001a0: cb97 1ebe 2a9f 61bd 5569 67be bc66 e3bd
000001b0: e5e9 b7bd 1adc 8a3d 8c72 fc3d bd74 343e
000001c0: d5bf a53d 3ac6 d33d d42f b2bd b5f5 2c3b
000001d0: 18de ec3d e528 623d 3e34 9cbd eeeb 953e
000001e0: 18fb cf3c 62d9 023e 8709 ae3d fa50 13be
000001f0: 00c1 283d 8f88 9e3a e0de 4cbd c8a2 56be
00000200: ad04 96bd a3d4 093d 1a53 5ebe 436a b43a
00000210: 2680 01be 6f25 a5bd 1bff 043d 0b09 a8bc
00000220: d7b4 503d 844b ddbd acc8 d6bc 0092 6fbd
00000230: 701f a73c b67d aabc 7fff 3bbd 6bc4 ebbd
00000240: 2d6d 03be 90d3 c3bc 31f7 043e e906 483e
00000250: ff0c 183e de9b 8b3d a867 87bd 3412 c93d
00000260: e1dd 1abe f058 943d 2a5a 743d e784 6abc
00000270: 4ef4 493d 749b 93bd 4aad ac3d c07c b3bd
00000280: ef9c 9f3c 8346 18be 93a7 483e d79d 74bd
00000290: c2fb 183e dc6e a43d 51a5 abbc 208b 203e
000002a0: 1287 553e 6c7d 9c3d 38ef 473e 078b f3bd
000002b0: d4e2 f83d a441 46bc 0b21 9c3e 2107 b1bd
000002c0: c3f8 03bc 5470 233e 4878 f83d 2993 ccbd
000002d0: 3a12 8e3d e2af a4be 07ab 213d 6015 b0be
000002e0: 3b75 c73d ce62 3fbe 3577 b9bd c11e 453d
000002f0: 2754 66be 250c b13d 4c68 073d bf00 05be

linear.weight f4 [2, 48]
0.20866847 0.14460295 0.061369102 -0.2974543 0.10559817 -0.0477775 0.08489782 0.13925657
0.03219866 0.080672786 -0.079733595 -0.005522781 0.24612623 0.12459465 0.124418594 0.16900477
0.12757838 0.12997332 -0.24460879 0.01787635 0.25202483 0.17408091 -0.2888899 0.22014043
-0.25122744 -0.14379868 0.24341379 -0.23727418 -0.16580807 -0.13093929 -0.26245588 0.007463778
-0.07876654 0.09805854 -0.076264836 0.14073382 -0.10122834 -0.0043099243 0.012408698 0.07144939
0.3478551 0.1523973 -0.19177389 0.26987052 -0.038522325 -0.23463394 -0.17746907 0.11124641
-0.030643614 0.112447806 0.17957373 0.15588439 0.12426444 0.20643477 0.19460826 0.13046882
-0.2229802 0.1274523 -0.2410926 -0.15767638 -0.04129995 0.12928699 0.16243163 0.10711439
0.08763141 -0.035421982 0.00881392 -0.15202585 -0.026950711 -0.20664224 0.2314989 0.13914025
0.029973403 0.21575885 0.12008811 -0.06608884 -0.0883551 0.19029316 0.077624574 -0.2601354
-0.14074212 0.14423455 -0.22687516 0.23508662 -0.21502914 -0.0016562111 -0.22003289 0.029916381
-0.118904695 0.07902812 -0.10238529 -0.030064594 0.12678438 0.05690651 -0.13005131 -0.21673721
00000000: 30ad 553e cc12 143e 2b5e 7b3d ee4b 98be
00000010: da43 d83d 57b2 43bd e9de ad3d 4699 0e3e
00000020: bee2 033d c637 a53d 5e4b a3bd 72f8 b4bb
00000030: 8408 7c3e 7b2b ff3d 2dcf fe3d 960f 2d3e
00000040: e8a3 023e ba17 053e ba7a 7abe 6c71 923c
00000050: 6609 813e 4442 323e 61e9 93be 7e6c 613e
00000060: e2a0 80be f63f 13be 7741 793e 01f8 72be
00000070: 97c9 29be f314 06be 9e60 86be b592 f43b
00000080: 5a50 a1bd ead2 c83d bd30 9cbd 871c 103e
00000090: ce50 cfbd 443a 8dbb da4d 4b3c 0f54 923d
000000a0: 101a b23e 0a0e 1c3e 6060 44be 782c 8a3e
000000b0: 96c9 1dbd e143 70be 74ba 35be 28d5 e33d
000000c0: 5108 fbbc 094b e63d 2de2 373e 28a0 1f3e
000000d0: 5b7e fe3d a363 533e 6347 473e 9e99 053e
000000e0: ec54 64be db82 023e fbe0 76be eb75 21be
000000f0: 232a 29bd cf63 043e 7a54 263e ca5e db3d
00000100: 1978 b33d a416 11bd 4368 103c aaac 1bbe
00000110: bdc7 dcbc 069a 53be 0c0e 6d3e c87a 0e3e
00000120: c88a f53c e3ef 5c3e c1f0 f53d 9659 87bd
00000130: 85f3 b4bd 36dc 423e a2f9 9e3d 7830 85be
00000140: b41e 10be 39b2 133e f651 68be 8cba 703e
00000150: 9930 5cbe 3915 d9ba 4d50 61be 3313 f53c
00000160: 4e84 f3bd 7fd9 a13d 61af d1bd 064a f6bc
00000170: c4d3 013e cd16 693d 2c2c 05be 5cf0 5dbe

linear.bias f4 [2]
0.19465217 0.07220679
00000000: e652 473e 27e1 933d
