cheakpoint/training_epochs_200_stepsize_7_gamma_0.75/model_epoch30.pth (torch, 117569 bytes, 10 tensors)

lstm.weight_ih_l0 f4 [192, 2]
-0.20038486 0.0080723865 -0.2679976 -0.115508504 -0.016494028 -0.02049086 0.079344496 0.12457913
0.2081306 0.07366214 -0.2390145 -0.034864757 0.21381861 0.17932701 0.109861314 0.055695456
0.29670477 0.28680933 -0.21605058 0.09593051 0.15988135 -0.01734101 -0.07561454 -0.0005699051
0.08847631 -0.07448159 0.046271455 -0.09040708 0.36806256 0.11108894 0.15413149 0.020623248
-0.017531093 -0.100880064 0.33059832 0.266334 0.067107275 0.08933924 -0.18135653 -0.16925614
-0.13833016 -0.25596482 -0.19334778 -0.025667848 0.19564246 0.05439918 0.25745055 0.2522084
-0.10877694 -0.030334199 0.09554972 0.23745811 -0.042756762 0.18011639 0.030866953 0.07998022
0.1254368 -0.22671595 0.36149582 -0.115274675 -0.1613211 -0.11028664 0.09342049 0.03132689
-0.31817865 -0.30941635 -0.36891785 -0.44219124 -0.109519504 0.18313253 0.03694144 0.018676758
0.20818491 0.049051255 -0.03846659 -0.26636738 -0.16831368 -0.3759332 0.007218388 0.14272629
-0.23585874 -0.15448913 0.11278871 0.16289121 0.038273145 -0.017586144 -0.12882341 -0.23734163
-0.20423804 -0.021117922 0.04759551 0.013223798 0.13804242 0.2427156 -0.028230237 -0.13016146
-0.025569271 0.08636033 0.08588661 0.09580149 -0.22315386 -0.04020689 -0.084821545 0.109469704
-0.0339644 0.20657493 -0.07663815 0.055995762 -0.19907026 0.06020453 -0.10520531 -0.08830019
0.21678387 0.30538255 0.0014105189 0.028376546 0.25571722 0.21166842 -0.1154291 0.028909836
-0.13105898 0.12118927 0.35714725 -0.04230713 0.24305442 0.3158144 -0.043972984 -0.1508847
-0.19047374 -0.22331044 0.09234798 0.037679903 0.036404293 0.032871637 0.19167176 0.220475
-0.17449115 -0.12317686 -0.20571312 0.02484591 -0.016955206 0.06771786 0.2939869 0.27265754
0.06586354 -0.05780986 0.124836676 0.36524212 -0.14119898 0.15045948 0.1776155 -0.18845813
0.3417994 0.18017192 0.25003168 -0.087295495 0.07101371 -0.058760103 0.18092214 0.3249113
-0.09226903 -0.13368273 0.046124738 -0.020355966 0.121217094 0.06736373 -0.1492331 -0.022690862
0.2341849 0.087837495 0.067489296 -0.078910835 0.046700258 -0.23808168 0.12717831 -0.03363494
-0.0276336 -0.22110523 0.066293545 0.17456932 0.018001944 0.2701349 -0.14226733 -0.16439404
0.16411202 -0.07959743 0.15750475 0.06379955 0.08293126 0.32899553 0.054169644 -0.32762817
0.11710351 -0.32058993 0.115541965 0.20612465 0.121789895 0.32894436 -0.09853024 0.48785996
0.24481434 0.3001386 0.026022535 0.2244811 -0.51025677 0.05433472 -0.053663902 0.3080312
0.47594073 0.2634814 0.33698702 0.109075494 -0.037986666 -0.31212994 -0.10483899 -0.3750397
-0.24933548 -0.33663934 -0.35006568 0.036045212 0.13026045 -0.45955738 -0.14587416 -0.27600834
0.34069264 -0.07726621 0.38727674 -0.3422653 0.18774903 0.2954386 0.25012526 0.21445377
-0.19270125 -0.14113638 0.27550524 -0.0658284 -0.18487379 -0.3164951 -0.17699857 -0.34216848
0.29624265 -0.17120272 -0.06608128 -0.35361108 0.2041626 -0.34992018 -0.46158504 0.047632515
-0.24389656 0.09437865 0.42959315 -0.3246162 -0.31701347 -0.12641974 0.05145183 -0.3940863
00000000: b031 4dbe 0b42 043c fb36 89be b98f ecbd
00000010: 7c1e 87bc 73dc a7bc 5e7f a23d 5823 ff3d
00000020: 3020 553e 2ddc 963d 38c0 74be 59ce 0ebd
00000030: 44f3 5a3e 80a1 373e f8fe e03d eb20 643d
00000040: b0e9 973e acd8 923e 5d3c 5dbe 3777 c43d
00000050: f0b7 233e bc0e 8ebc ccdb 9abd af65 15ba
00000060: 1133 b53d ce89 98bd 2387 3d3d 5927 b9bd
00000070: b272 bc3e 9982 e33d a5d4 1d3e 16f2 a83c
00000080: 5e9d 8fbc 359a cebd 2f44 a93e ee5c 883e
00000090: 8a6f 893d 7ef7 b63d 87b5 39be 7b51 2dbe
000000a0: 6ca6 0dbe d20d 83be f6fc 45be 6145 d2bc
000000b0: 7f56 483e add1 5e3d 8fd0 833e 7621 813e
000000c0: 72c6 debd 6d7f f8bc 92af c33d 3828 733e
000000d0: b721 2fbd 6e70 383e b1dc fc3c abcc a33d
000000e0: 8172 003e 3a28 68be fb15 b93e 2115 ecbd
000000f0: 5c31 25be f6dd e1bd 3e53 bf3d a050 003d
00000100: 50e8 a2be d26b 9ebe cde2 bcbe e466 e2be
00000110: c34b e0bd 1887 3b3e e84f 173d 0000 993c
00000120: 6d2e 553e f8e9 483d 258f 1dbd 4e61 88be
00000130: 6c5a 2cbe 517a c0be 3a88 ec3b d726 123e
00000140: f484 71be 6632 1ebe c4fd e63d f4cc 263e
00000150: 4dc4 1c3d d110 90bc 49ea 03be af09 73be
00000160: c723 51be 7eff acbc 82f3 423d a1a8 583c
00000170: fe5a 0d3e 708a 783e 1943 e7bc 0c49 05be
00000180: a676 d1bc afdd b03d 52e5 af3d 9233 c43d
00000190: 7282 64be fbaf 24bd ebb6 adbd a731 e03d
000001a0: 411e 0bbd 6188 533e 76f4 9cbd d05b 653d
000001b0: 13d9 4bbe 0699 763d e275 d7bd bbd6 b4bd
000001c0: 97fc 5d3e 1a5b 9c3e 29e1 b83a ee75 e83c
000001d0: 5eed 823e 9bbf 583e 1866 ecbd 52d4 ec3c
000001e0: 5334 06be 1432 f83d 01dc b63e 3e4a 2dbd
000001f0: 42e3 783e 6db2 a13e 041d 34bd 8581 1abe
00000200: 8c0b 43be 7eab 64be f020 bd3d 3e56 1a3d
00000210: ab1c 153d 69a4 063d 9a45 443e 33c4 613e
00000220: cfad 32be 2644 fcbd 76a6 52be a689 cb3c
00000230: a5e5 8abc a9af 8a3d 7385 963e c599 8b3e
00000240: 77e3 863d 08ca 6cbd 5faa ff3d 0401 bb3e
00000250: 7796 10be 0d12 1a3e d6e0 353e 2bfb 40be
00000260: 5500 af3e fd7e 383e 2704 803e fbc7 b2bd
00000270: a36f 913d 6fae 70bd a743 393e c65a a63e
00000280: 8cf7 bcbd 20e4 08be 4bed 3c3d 8ec1 a6bc
00000290: ab40 f83d fff5 893d 90d0 18be 30e2 b9bc
000002a0: 2bce 6f3e 25e4 b33d d437 8a3d 019c a1bd
000002b0: c548 3f3d afcb 73be 083b 023e cac4 09bd
000002c0: dc5f e2bc 6969 62be e9c4 873d 4dc2 323e
000002d0: d078 933c 1f4f 8a3e 87ae 11be e956 28be
000002e0: fb0c 283e fa03 a3bd ed48 213e 57a9 823d
000002f0: ddd7 a93d 1a72 a83e fde0 5d3d e1be a7be
00000300: f7d3 ef3d 5d24 a4be 44a1 ec3d 5712 533e
00000310: fb6c f93d 656b a83e 39ca c9bd c8c8 f93e
00000320: 9cb0 7a3e c4ab 993e 362d d53c 60de 653e
00000330: 30a0 02bf 158e 5e3d aece 5bbd 44b6 9d3e
00000340: 81ae f33e 09e7 863e 9089 ac3e f962 df3d
00000350: e897 1bbd 7fcf 9fbe d3b5 d6bd 3405 c0be
00000360: cd51 7fbe fe5b acbe cf3b b3be 25a4 133d
00000370: ff62 053e 1b4b ebbe 0960 15be f750 8dbe
00000380: 446f ae3e bf3d 9ebd 2349 c63e 663d afbe
00000390: 4841 403e ba43 973e 6b10 803e c599 5b3e
000003a0: 7a53 45be 0e86 10be 060f 8d3e 0ad1 86bd
000003b0: 8e4f 3dbe a50b a2be 1d3f 35be b530 afbe
000003c0: 1ead 973e c44f 2fbe 9f55 87bd 830c b5be
000003d0: 0010 513e bd28 b3be e054 ecbe 501a 433d
000003e0: 05c0 79be 9849 c13d a2f3 db3e 1834 a6be
000003f0: 974f a2be 2d74 01be 27bf 523d aec5 c9be

lstm.weight_hh_l0 f4 [192, 48]
0.026225919 0.18976188 -0.00030769478 -0.08391548 0.009915351 -0.0723857 -0.04722412 -0.00953682
-0.049600206 0.063935995 -0.022175554 -0.029518025 -0.046295516 0.23330975 0.02633761 -0.1347603
0.12571715 -0.055474214 -0.14749399 0.08195141 -0.10300249 0.04187159 -0.05169263 0.12059593
-0.13921769 0.12821195 -0.1553559 -0.07959963 -0.11544998 -0.1415265 -0.08692261 0.046905365
-0.08080274 0.12650664 0.17104322 0.11770294 0.078309 0.109146774 -0.108733065 0.034266338
-0.022894757 -0.08781054 -0.09726433 0.21580407 -0.13615952 0.052871726 0.09358949 0.100275666
0.022364082 -0.17190062 -0.016396817 -0.22193862 -0.24242654 -0.17212556 0.4312809 -0.13814177
-0.33710736 -0.17201065 0.5686056 0.27526468 0.28822473 0.43028495 0.3990201 0.3145927
-0.015404053 -0.21502268 -0.26724574 -0.22020276 0.22433002 0.04038083 0.28186184 0.30353314
-0.5791319 0.5573892 -0.08800101 0.33501244 0.18415846 -0.32507285 0.2789165 0.26066768
-0.11614107 0.055513207 0.32989773 -0.33824414 0.4754048 -0.13152307 0.093560115 -0.16659501
0.12755631 -0.5957091 0.2513038 0.0016333626 -0.06878162 -0.36714756 0.32602826 -0.13204484
-0.011245183 -0.13418542 -0.060773965 -0.1148482 -0.14473446 -0.119069055 0.0038584822 -0.26844352
-0.031945333 -0.083461314 0.14387459 0.13238327 0.048760056 0.05337501 0.26738983 0.16079268
-0.011593178 -0.12913913 -0.061992686 -0.07099073 -0.14904946 0.005658504 -0.04829664 0.24217476
-0.22271354 0.1447584 -0.13807668 -0.08224824 -0.1790442 -0.052965205 0.100670144 0.0127616
-0.040462352 0.002166419 0.03271168 -0.021327164 -0.037008706 0.08744427 0.17866394 0.040988635
-0.041269112 -0.15500544 -0.010171799 0.24092485 -0.23943967 -0.3924136 0.20307544 0.20609565
0.18644442 0.5518212 0.09457676 -0.060906503 -0.029588254 0.016281992 -0.1951398 -0.13434672
-0.091901846 0.22914957 0.11178408 0.19407742 -0.012606027 -0.11068632 0.1012304 0.050445415
0.33621493 0.2343441 -0.063063584 -0.025951335 -0.10037518 0.29231524 -0.038052365 0.16208084
0.10575239 -0.12888643 0.025838574 -0.066576034 -0.39327815 0.17349698 -0.08286686 0.1926266
0.27273104 0.15257742 0.19103402 0.092350565 -0.2007808 0.15020281 0.10489917 0.2929973
-0.19995965 -0.022217656 0.10840898 0.058350366 -0.105913796 -0.03836591 0.11464418 0.40042415
-0.1900368 0.25416717 0.21409315 0.052496273 0.071016684 -0.10169123 0.082038514 0.044868663
0.03964151 -0.077789314 0.16039088 0.06204506 -0.0031401047 0.1299717 0.005554243 -0.10007088
-0.0703052 -0.25972885 -0.0267904 0.13780046 -0.16689806 0.03274519 0.035674505 -0.05376958
-0.02180394 0.12534621 -0.32287577 0.05618369 -0.15594296 -0.19710267 -0.14633662 0.0159937
0.1144623 0.1396655 -0.05137423 0.040224656 0.08843218 0.0845702 0.014716599 -0.16828805
-0.19527072 -0.060752988 -0.030817326 0.036469374 -0.078292325 0.09207973 -0.13974246 0.044580452
-0.07236257 0.10151834 0.27922255 -0.19676076 0.0023597546 -0.0632455 -0.058915455 0.061926335
-0.20207915 -0.060841694 0.04465822 0.1721803 0.032690376 -0.10613714 0.06959666 0.08246764
00000000: bdd7 d63c f050 423e 1852 a1b9 e1db abbd
00000010: ff73 223c f43e 94bd 146e 41bd 5340 1cbc
00000020: 9629 4bbd e0f0 823d 82a9 b5bc c9cf f1bc
00000030: 5ea0 3dbd c0e8 6e3e f9c1 d73c 9bfe 09be
00000040: ffbb 003e ee38 63bd aa08 17be 24d6 a73d
00000050: f8f2 d2bd 8b81 2b3d a7bb 53bd 00fb f63d
00000060: 158f 0ebe fe49 033e 9e15 1fbe 2105 a3bd
00000070: 0a71 ecbd 53ec 10be 7b04 b2bd d71f 403d
00000080: e87b a5bd f58a 013e f425 2f3e 3d0e f13d
00000090: 7860 a03d 5888 df3d 71af debd dc5a 0c3d
000000a0: c98d bbbc 03d6 b3bd 8532 c7bd befb 5c3e
000000b0: 676d 0bbe 0690 583d d9ab bf3d 545d cd3d
000000c0: e134 b73c b706 30be 9e52 86bc e143 63be
000000d0: aa3e 78be af41 30be dad0 dc3e 0975 0dbe
000000e0: 5699 acbe 8f23 30be 2390 113f 7eef 8c3e
000000f0: 3192 933e 4f4e dc3e 5d4c cc3e 4b12 a13e
00000100: 4861 7cbc e82e 5cbe 6fd4 88be d57c 61be
00000110: c5b6 653e 5f66 253d 3250 903e b268 9b3e
00000120: fd41 14bf 0fb1 0e3f e039 b4bd c086 ab3e
00000130: 0994 3c3e f36f a6be 25ce 8e3e 3c76 853e
00000140: 5fdb edbd d161 633d 5be8 a83e 562e adbe
00000150: 4268 f33e fcad 06be 729c bf3d e297 2abe
00000160: 1f9e 023e 6480 18bf e4aa 803e 8e16 d63a
00000170: 61dd 8cbd c4fa bbbe 2ded a63e c336 07be
00000180: b73d 38bc e767 09be 1fee 78bd 8835 ebbd
00000190: 4535 14be 7ada f3bd 97de 7c3b 6e71 89be
000001a0: 1cd9 02bd c4ed aabd dc53 133e 7b8f 073e
000001b0: a0b8 473d c19f 5a3d 52e7 883e d6a6 243e
000001c0: 50f1 3dbc 0c3d 04be 0bec 7dbd 9663 91bd
000001d0: 6ca0 18be f96a b93b b3d2 45bd a9fc 773e
000001e0: 050f 64be 8c3b 143e f963 0dbe c471 a8bd
000001f0: 5d57 37be 0bf2 58bd 262c ce3d 0816 513c
00000200: dabb 25bd 7bfa 0d3b affc 053d 4eb6 aebc
00000210: 7196 17bd fb15 b33d aef3 363e b3e3 273d
00000220: cd09 29bd bfb9 1ebe 9ea7 26bc 01b5 763e
00000230: ac2f 75be 6fea c8be 02f3 4f3e bd0a 533e
00000240: 49eb 3e3e 2744 0d3f 76b1 c13d 1979 79bd
00000250: 1163 f2bc d061 853c bad2 47be 3092 09be
00000260: 0937 bcbd 2fa6 6a3e 0def e43d 3bbc 463e
00000270: 8289 4ebc 82af e2bd e251 cf3d da9f 4e3d
00000280: 5d24 ac3e e6f7 6f3e 7b27 81bd e597 d4bc
00000290: 8191 cdbd 58aa 953e ccdc 1bbd 85f8 253e
000002a0: b694 d83d cefa 03be 6bab d33c 0459 88bd
000002b0: c15b c9be 31a9 313e 1ab6 a9bd e83f 453e
000002c0: 67a3 8b3e 413d 1c3e 6c9e 433e 4b22 bd3d
000002d0: 7b99 4dbe c4ce 193e 60d5 d63d be03 963e
000002e0: 39c2 4cbe cd01 b6bc 8705 de3d cb00 6f3d
000002f0: 55e9 d8bd 9325 1dbd 91ca ea3d 6504 cd3e
00000300: 0299 42be 3322 823e 3c3b 5b3e 5506 573d
00000310: 3271 913d 7e43 d0bd cf03 a83d 34c8 373d
00000320: 235f 223d 0150 9fbd 823d 243e f622 7e3d
00000330: 37ca 4dbb 4d17 053e 5e00 b63b f6f1 ccbd
00000340: 2cfc 8fbd 2efb 84be 8a77 dbbc 901b 0d3e
00000350: 53e7 2abe d21f 063d 6e1f 123d 7e3d 5cbd
00000360: 2d9e b2bc c25a 003e f94f a5be de20 663d
00000370: 83af 1fbe 48d5 49be 44d9 15be 3805 833c
00000380: 366b ea3d 7904 0f3e c96d 52bd 9cc2 243d
00000390: ee1b b53d 2433 ad3d e41d 713c b453 2cbe
000003a0: 0cf5 47be 20d8 78bd 9e74 fcbc e960 153d
000003b0: ba57 a0bd 4c94 bc3d a618 0fbe fe99 363d
000003c0: d432 94bd d9e8 cf3d 42f6 8e3e a77b 49be
000003d0: 1da6 1a3b db86 81bd 5551 71bd 78a6 7d3d
000003e0: d6ed 4ebe 2435 79bd 8aeb 363d 0850 303e
000003f0: 58e6 053d 6e5e d9bd b288 8e3d cbe4 a83d

lstm.bias_ih_l0 f4 [192]
-0.0035165793 -0.24668373 -0.18900476 0.008622861 -0.22067487 -0.2850763 0.062044658 -0.21838175
-0.009182881 -0.04749046 -0.16690007 -0.1566839 -0.07810177 0.08378341 0.25794092 -0.12552035
-0.08203693 0.18635218 -0.053928368 -0.13718173 -0.21834473 -0.080230646 0.07378877 0.014165623
0.07838177 0.02686353 -0.1849411 0.17724112 -0.024305778 0.0043180757 -0.23178133 -0.0030572729
-0.24870384 -0.16843402 -0.30782148 -0.089932814 0.077371955 -0.33220723 -0.2149942 0.07636558
-0.05704374 0.18231751 -0.17021729 -0.005776398 -0.26890486 -0.07555485 0.04526348 0.03801679
-0.250789 0.15181266 -0.038087167 -0.111805335 -0.06845018 -0.14005181 0.026340734 -0.2154715
-0.03758792 0.034381688 0.19400996 0.019364825 -0.15056252 0.04297712 0.20985118 -0.20788407
-0.1404841 0.21631575 0.027697084 0.34287456 -0.12453882 -0.23060572 0.07677872 -0.121614054
-0.09477597 0.16242608 0.09359615 0.10210889 0.4208858 -0.11514966 0.09391044 0.073162034
-0.11921819 0.051980972 -0.0842171 -0.059816577 0.17547353 -0.13211934 -0.13635525 0.1347067
0.12889402 0.11837548 -0.10887573 -0.22529462 -0.14905362 -0.14856786 -0.07273131 -0.09556478
0.01685431 -0.09416384 -0.10253008 -0.057208512 -0.118901186 -0.113235965 0.06036609 -0.03286839
-0.009688455 -0.12740658 -0.011994334 0.22061783 0.16638066 -0.018867562 -0.016740266 0.15968971
-0.052655786 -0.105713286 -0.08954345 -0.17266251 0.028859388 -0.03132688 0.035015497 0.08332295
-0.019959902 0.07082575 0.07681711 0.11330137 0.03156875 0.043335732 0.17420873 0.101003684
-0.069585584 -0.023616325 0.060801394 -0.12289094 0.17249602 -0.036823425 -0.07941619 -0.028978193
-0.042820122 -0.11437884 0.108528964 0.052248698 0.039888836 -0.13845824 -0.02039801 0.015774151
-0.18985088 -0.21549885 -0.25271112 0.112600446 -0.23028405 -0.21099669 0.012219592 0.011569169
-0.07054753 -0.17888215 0.00012140656 -0.0636204 -0.16596158 0.026222479 0.37220883 -0.11055091
-0.14604661 0.357951 -0.06458798 -0.013113812 -0.15757757 -0.088096805 -0.08632557 0.044099517
-0.022833543 -0.10869301 -0.005570452 0.023583943 0.08411148 0.019675821 -0.14574337 -0.030492455
-0.26489952 -0.25791174 -0.09712205 -0.025375197 0.073418535 -0.09581222 -0.26323792 -0.043619163
-0.21514365 0.07469954 -0.073849335 -0.20598412 -0.24676396 -0.15243755 -0.012672491 -0.111585304
00000000: 6976 66bb a99a 7cbe 778a 41be e646 0d3c
00000010: 98f8 61be 85f5 91be 8a22 7e3d 779f 5fbe
00000020: cb73 16bc 5b85 42bd dae7 2abe bf71 20be
00000030: d2f3 9fbd a396 ab3d d510 843e 6888 00be
00000040: fa02 a8bd 1bd3 3e3e fee3 5cbd 5e79 0cbe
00000050: c395 5fbe f74f a4bd 911e 973d ee16 683c
00000060: 9f86 a03d e810 dc3c 3361 3dbe b27e 353e
00000070: e91c c7bc a57e 8d3b 1658 6dbe 875c 48bb
00000080: 38ac 7ebe f879 2cbe c79a 9dbe b22e b8bd
00000090: 3075 9e3d 1117 aabe 7127 5cbe 8f65 9c3d
000000a0: b2a6 69bd 71b1 3a3e 714d 2ebe f047 bdbb
000000b0: e6ad 89be 80bc 9abd 3366 393d 7eb7 1b3d
000000c0: 6a67 80be c774 1b3e 4a01 1cbd 32fa e4bd
000000d0: 9c2f 8cbd be69 0fbe 86c8 d73c 90a4 5cbe
000000e0: caf5 19bd d0d3 0c3d 8caa 463e fba2 9e3c
000000f0: 102d 1abe c708 303d 3ae3 563e 90df 54be
00000100: 10db 0fbe e081 5d3e ffe4 e23c 418d af3e
00000110: 350e ffbd e823 6cbe 293e 9d3d ca10 f9bd
00000120: e719 c2bd 0653 263e 57af bf3d 771e d13d
00000130: 587e d73e 96d3 ebbd 1e54 c03d fad5 953d
00000140: ab28 f4bd 00ea 543d 047a acbd 3a02 75bd
00000150: 55af 333e 4b4a 07be b6a0 0bbe 8ef0 093e
00000160: cbfc 033e d86e f23d 3dfa debd a2b3 66be
00000170: 83a1 18be 2c22 18be 27f4 94bd 78b7 c3bd
00000180: 0d12 8a3c f9d8 c0bd 4afb d1bd 7953 6abd
00000190: 7782 f3bd 42e8 e7bd 6f42 773d 01a1 06bd
000001a0: 53bc 1ebc df76 02be e283 44bc a4e9 613e
000001b0: b15f 2a3e 2590 9abc e222 89bc b385 233e
000001c0: 98ad 57bd 3580 d8bd 8e62 b7bd 71ce 30be
000001d0: 866a ec3c 9d50 00bd 696c 0f3d 39a5 aa3d
000001e0: f382 a3bc 170d 913d 4a52 9d3d 8c0a e83d
000001f0: 3c4e 013d cf80 313d c663 323e 05db ce3d
00000200: e382 8ebd 0677 c1bc e20a 793d 3fae fbbd
00000210: cca2 303e 29d4 16bd f5a4 a2bd ad63 edbc
00000220: 2764 2fbd 743f eabd 6f44 de3d bb02 563d
00000230: 7a62 233d ffc7 0dbe ba19 a7bc cb38 813c
00000240: 4568 42be bbab 5cbe 5a63 81be 109b e63d
00000250: 95cf 6bbe 840f 58be af34 483c 9d8c 3d3c
00000260: 397b 90bd e22c 37be a79b fe38 6a4b 82bd
00000270: d5f1 29be 86d0 d63c 2892 be3e 8468 e2bd
00000280: 3e8d 15be 5a45 b73e b446 84bd 50db 56bc
00000290: 045c 21be 196c b4bd 76cb b0bd b2a1 343d
000002a0: 690d bbbc 719a debd 5788 b6bb 1d33 c13c
000002b0: a442 ac3d 302f a13c c03d 15be 50cb f9bc
000002c0: e9a0 87be 020d 84be ede7 c6bd a5df cfbc
000002d0: 755c 963d 3239 c4bd 1fc7 86be 02aa 32bd
000002e0: 9e4e 5cbe 13fc 983d 523e 97bd 80ed 52be
000002f0: b1af 7cbe 9718 1cbe 48a0 4fbc d686 e4bd

lstm.bias_hh_l0 f4 [192]
-0.07603693 -0.18535475 -0.00026927807 -0.055233844 -0.17446882 -0.26834053 0.13294533 -0.2657466
0.060386024 0.008194063 0.06282961 0.07923988 0.04563735 0.14068729 0.15790075 -0.01345155
-0.031128595 0.19378772 -0.16167277 0.05402313 -0.20216264 -0.26957175 -0.09914109 0.094977364
0.059266124 0.010604739 -0.1444152 0.20825438 0.080649555 0.10992722 -0.08601311 -0.09983096
-0.24846137 -0.16888751 -0.2620519 0.032732047 0.11443809 -0.084902495 -0.104657866 -0.03790094
-0.2854255 0.16721705 -0.17107542 -0.010775458 -0.1445735 0.071417876 -0.017557373 -0.18436746
-0.13134202 -0.08028628 -0.077528775 -0.04297585 -0.20396885 -0.075180314 0.0037948934 -0.12979144
-0.13952558 -0.06127221 0.22022507 -0.14437114 -0.17677581 -0.003127955 0.2107465 -0.17633432
-0.04163491 0.16090192 -0.002166514 0.28699926 -0.13653845 -0.054438755 0.029592067 0.15194297
-0.108827636 0.05990417 0.050901163 -0.094003834 0.31294963 -0.059279073 0.035524562 0.026370848
-0.012165965 -0.12972306 0.06743922 -0.09280216 0.134365 0.0559613 0.06418931 -0.090476565
0.11263621 0.19321963 0.0039052705 -0.10938948 0.018739365 -0.17601314 0.090402044 -0.107707046
0.035967298 -0.020775778 -0.15156333 -0.09387474 -0.072545074 0.048724286 0.1379015 -0.07335492
-0.2562188 -0.08571093 0.029872812 -0.049108252 0.034363445 0.12904064 0.027827963 -0.003117976
-0.01752699 0.10456404 -0.110610306 -0.0027715326 0.12947397 -0.06696679 0.17936465 0.0021609191
-0.014032335 -0.060968023 0.007415412 0.03141261 0.07421213 -0.033908155 -0.03618148 0.033120275
0.047064062 -0.079720005 0.01012764 -0.13315156 -0.06483646 -0.006324519 0.11611676 0.021889513
0.033756025 -0.102924414 0.05213267 -0.0753982 -0.010431499 -0.0050689187 0.21243288 -0.004721781
-0.0953455 -0.19308423 -0.12886736 -0.063973084 -0.19924405 -0.16362932 0.10307722 -0.20917512
0.13521762 -0.18915781 -0.14786209 0.09698067 -0.040590998 0.003844065 0.2980491 -0.15566762
-0.024258055 0.14398001 -0.21241017 0.005011948 -0.108862475 -0.037701733 0.028663835 -0.038110163
-0.09532224 0.040793877 0.096583545 -0.024369856 0.24311733 0.033179738 -0.19111197 0.021832744
-0.26992038 -0.0652576 -0.21568543 -0.009842121 0.21853317 -0.16014549 -0.2266338 0.045650844
-0.2007709 0.12362745 -0.1351402 -0.02414362 -0.08784875 -0.15216997 0.06622268 -0.012291939
00000000: 40b9 9bbd a3cd 3dbe e42d 8db9 e23c 62bd
00000010: f4a7 32be ee63 89be d222 083e f00f 88be
00000020: 5657 773d 6440 063c d0ac 803d 8548 a23d
00000030: 3bee 3a3d 5410 103e bcb0 213e e463 5cbc
00000040: 6501 ffbc 4a70 463e 8c8d 25be 5c47 5d3d
00000050: b903 4fbe 4f05 8abe 7c0a cbbd 7e83 c23d
00000060: 09c1 723d 80bf 2d3c 94e1 13be a340 553e
00000070: 982b a53d 8621 e13d a427 b0bd 2d74 ccbd
00000080: a86c 7ebe d9f0 2cbe ab2b 86be 0a12 063d
00000090: 845e ea3d 5ce1 adbd dd56 d6bd 043e 1bbd
000000a0: 4b23 92be f23a 2b3e 652e 2fbe 8c8b 30bc
000000b0: 130b 14be 8943 923d 7bd4 8fbc d3ca 3cbe
000000c0: 867e 06be 226d a4bd 68c7 9ebd 7207 30bd
000000d0: 36dd 50be 23f8 99bd bfb3 783b 0ce8 04be
000000e0: cbdf 0ebe 92f8 7abd ae82 613e 07d6 13be
000000f0: b804 35be 60fe 4cbb eecd 573e fc90 34be
00000100: 5e89 2abd 79c3 243e 13fc 0dbb 91f1 923e
00000110: bcd0 0bbe 2cfb 5ebd 106b f23c f096 1b3e
00000120: 06e1 debd 135e 753d bd7d 503d 1585 c0bd
00000130: ef3a a03e 9dce 72bd 3482 113d ad07 d83c
00000140: c153 47bc 1fd6 04be 931d 8a3d 0f0f bebd
00000150: fb96 093e ad37 653d af75 833d c74b b9bd
00000160: d0ad e63d 5edb 453e 91ef 7f3b 9707 e0bd
00000170: 4c83 993c ca3c 34be b524 b93d 8395 dcbd
00000180: 7252 133d f731 aabc 6b33 1bbe 6641 c0bd
00000190: 8392 94bd 1e93 473d 0d36 0d3e 1b3b 96bd
000001a0: 1c2f 83be 3689 afbd d4b7 f43c bc25 49bd
000001b0: afc0 0c3d 3b23 043e 78f7 e33c f556 4cbb
000001c0: c394 8fbc ac25 d63d a887 e2bd 9aa2 35bb
000001d0: d394 043e e225 89bd 5eab 373e 359e 0d3b
000001e0: e1e7 65bc 9bb9 79bd fcfc f23b 82aa 003d
000001f0: 87fc 973d 47e3 0abd 0833 14bd 20a9 073d
00000200: 3fc6 403d 3e44 a3bd 67ee 253c e258 08be
00000210: fac8 84bd e93d cfbb a0ce ed3d a351 b33c
00000220: c243 0a3d 09ca d2bd 1189 553d 5f6a 9abd
00000230: e1e8 2abc 2c19 a6bb 0188 593e 2bb9 9abb
00000240: 8044 c3bd dfb7 45be cef5 03be 5204 83bd
00000250: a206 4cbe 728e 27be 261a d33d 0132 56be
00000260: 7d76 0a3e 96b2 41be 2969 17be cd9d c63d
00000270: bf42 26bd b5ec 7b3b e499 983e 5567 1fbe
00000280: d4b8 c6bc 7f6f 133e 0d82 59be 443b a43b
00000290: 4af3 debd 226d 1abd 6bd0 ea3c 6719 1cbd
000002a0: 4e38 c3bd 7b17 273d 98cd c53d 4ba3 c7bc
000002b0: c0f3 783e 7ae7 073d dbb2 43be 95da b23c
000002c0: 0133 8abe c7a5 85bd a4dc 5cbe d940 21bc
000002d0: 29c7 5f3e 2efd 23be b112 68be 61fc 3a3d
000002e0: e396 4dbe 6330 fd3d 3162 0abe d7c8 c5bc
000002f0: 0cea b3bd 72d2 1bbe c29f 873d 2164 49bc

lstm.weight_ih_l1 f4 [192, 48]
0.016092004 0.17734435 0.10569877 -0.13060732 -0.038532514 -0.02659651 -0.14541435 -0.13251513
-0.15477104 0.05071266 0.008449452 0.13191834 -0.22640777 0.115076184 0.09719238 -0.11566106
0.30844492 -0.05468655 0.092823416 0.10592505 0.051754788 0.17717351 0.14374703 0.037365884
-0.03659504 0.14592527 0.0151528185 0.001984905 0.015969852 -0.05769495 0.06218754 -0.014932169
0.2271948 0.2672733 0.19397512 0.2122926 0.053842 0.13145055 0.057370845 0.2000841
-0.13048494 -0.07705053 0.03743906 0.1950223 -0.10140326 0.034819733 0.116854526 0.18774231
-0.017637989 0.05855416 0.307882 0.15475461 0.13146684 -0.025489546 -0.30679438 0.02352775
0.11981624 0.0035065731 0.04537349 -0.064133964 -0.1768992 -0.097064696 -0.15343733 -0.18970929
-0.04882718 -0.17776367 0.06932638 0.028824596 -0.23819326 0.09969117 -0.27250552 -0.19011039
0.00471351 -0.17919508 -0.25296113 -0.023696732 0.04739942 0.0081950445 -0.02133847 -0.120754756
0.11496169 0.009508525 -0.16302224 0.29456347 -0.1548382 -0.060108826 0.01622636 -0.15178934
0.050424363 0.27253926 -0.117233455 0.090801775 -0.1314185 0.12512784 -0.3052926 -0.079655625
-0.10871728 0.1996652 0.120282546 -0.0017386647 -0.05374247 0.07867986 0.1556773 0.07687443
0.04529337 -0.11070342 0.0075397408 -0.07362 0.07659753 -0.04569042 -0.18237944 -0.027126463
-0.07842203 0.045496326 -0.079094574 0.055281214 -0.004709663 0.124652214 0.106158696 -0.06752262
0.06249664 -0.03133056 -0.14632635 0.030880997 0.07077133 -0.21392377 -0.16599312 0.1341254
0.10565547 0.2498035 0.0994052 0.04081118 0.11568248 0.1440253 -0.0018772348 -0.04416989
-0.1478112 -0.21016403 -0.07437735 0.03614752 -0.048878223 0.07431287 -0.061420944 -0.044653047
-0.14876305 0.067650095 -0.008574766 -0.24764338 -0.14419213 0.11970242 0.07333847 -0.1962863
-0.06945889 -0.07981502 0.124672174 -0.01834728 0.04237947 0.0026670636 -0.0046605496 -0.09617944
0.13014041 -0.16313697 -0.23395231 0.09264522 0.015037371 0.21072634 0.13543957 0.12938404
-0.12000895 -0.03609744 -0.031088736 0.048700344 0.089706294 -0.078818955 0.12173367 -0.01648835
0.14612353 0.1292512 0.011802015 -0.034541182 0.15694192 -0.015518555 0.034696914 -0.15890446
-0.058553364 -0.091922864 0.13467003 0.021535717 -0.21337247 0.13333777 -0.07974818 0.13701536
-0.007947341 0.1376722 0.09924405 0.014365639 0.232005 0.010553888 -0.10911522 0.061715115
0.013266472 -0.020776685 0.14687958 -0.105578326 -0.17412362 0.03048763 -0.16258289 -0.12284857
0.103304304 -0.06257951 -0.10824536 0.0073741847 0.02294726 -0.05117126 -0.18708798 -0.027916754
-0.08810681 -0.018809317 -0.10875263 -0.00026636332 0.19039984 0.060900003 -0.23534203 0.0035049825
0.08242693 0.13568665 0.05693009 0.1519926 -0.06850298 0.12424507 -0.25569877 0.024974668
-0.1454443 -0.0137212025 -0.06368826 0.086581945 0.029777639 -0.051747497 -0.19484207 0.018447025
-0.08266166 -0.08790341 0.022669252 0.1272734 -0.059304923 0.0018328116 0.22993962 0.16554374
0.02684187 0.005364952 -0.016265266 -0.112085655 -0.15635522 0.027138092 -0.33132854 -0.19810742
00000000: 61d3 833c c299 353e 9978 d83d edbd 05be
00000010: 45d4 1dbd ede0 d9bc 80e7 14be 0cb2 07be
00000020: 4d7c 1ebe 14b8 4f3d 926f 0a3c 9a15 073e
00000030: 70d7 67be 10ad eb3d cc0c c73d b5df ecbd
00000040: 7eec 9d3e 01ff 5fbd 341a be3d 3cef d83d
00000050: d4fc 533d f96c 353e 6c32 133e f80c 193d
00000060: aee4 15bd 6f6d 153e 8743 783c 2e15 023b
00000070: 35d3 823c 8a51 6cbd 5db8 7e3d 0ea6 74bc
00000080: c1a5 683e 0cd8 883e 6aa1 463e 3b63 593e
00000090: 6e89 5c3d f99a 063e b1fd 6a3d d9e2 4c3e
000000a0: d89d 05be abcc 9dbd b359 193d edb3 473e
000000b0: 83ac cfbd 239f 0e3d 6d51 ef3d 853f 403e
000000c0: 8b7d 90bc 7dd6 6f3d b6a2 9d3e fe77 1e3e
000000d0: 3e9f 063e 74cf d0bc 2714 9dbe 45bd c03c
000000e0: 3862 f53d 89ce 653b 8dd9 393d ab58 83bd
000000f0: 1025 35be dbc9 c6bd ad1e 1dbe 2743 42be
00000100: 02ff 47bd ae07 36be fdfa 8d3d 8f21 ec3c
00000110: efe8 73be e22a cc3d d885 8bbe 4cac 42be
00000120: ca73 9a3b ea7e 37be 1f84 81be a61f c2bc
00000130: e525 423d 8244 063c 04ce aebc 454e f7bd
00000140: 0971 eb3d a5c9 1b3c 4def 26be 06d1 963e
00000150: e88d 1ebe ac34 76bd 25ed 843c aa6e 1bbe
00000160: c789 4e3d 448a 8b3e 1818 f0bd 48f6 b93d
00000170: 9292 06be 8321 003e 504f 9cbe 7d22 a3bd
00000180: 2aa7 debd 0975 4c3e b256 f63d e8e3 e3ba
00000190: 1021 5cbd e822 a13d df69 1f3e 5770 9d3d
000001a0: 8a85 393d 7ab8 e2bd ee0f f73b 15c6 96bd
000001b0: 2adf 9c3d e125 3bbd adc1 3abe 5138 debc
000001c0: bb9b a0bd 5b5a 3a3d 56fc a1bd 8e6e 623d
000001d0: 8453 9abb a949 ff3d bb69 d93d 4d49 8abd
000001e0: 7afc 7f3d 7954 00bd 93d6 15be 25fa fc3c
000001f0: 8ff0 903d d50e 5bbe 1afa 29be 2b58 093e
00000200: e561 d83d 7dcc 7f3e f494 cb3d a029 273d
00000210: f0ea ec3d 5e7b 133e 8c0d f6ba 7deb 34bd
00000220: d25b 17be 3d35 57be 2753 98bd 6c0f 143d
00000230: 8834 48bd 5931 983d 8794 7bbd 1de6 36bd
00000240: 5755 18be 228c 8a3d 2d7d 0cbc 3a96 7dbe
00000250: 1aa7 13be 8b26 f53d 7b32 963d 47ff 48be
00000260: 7640 8ebd 0f76 a3bd 2054 ff3d 094d 96bc
00000270: 1896 2d3d e7c9 2e3b 86b7 98bb baf9 c4bd
00000280: 8743 053e 610d 27be 3291 6fbe c7bc bd3d
00000290: 4e5f 763c a5c8 573e acb0 0a3e 407d 043e
000002a0: 41c7 f5bd e9da 13bd cead febc 037a 473d
000002b0: efb7 b73d d56b a1bd 814f f93d 9412 87bc
000002c0: 68a1 153e 6d5a 043e 3d5d 413c 0e7b 0dbd
000002d0: 62b5 203e 8a41 7ebc 5a1e 0e3d dab7 22be
000002e0: a7d5 6fbd 0e42 bcbd f1e6 093e ac6b b03c
000002f0: 507e 5abe b289 083e 0453 a3bd c14d 0c3e
00000300: 9035 02bc f1f9 0c3e 7740 cb3d db5d 6b3c
00000310: b892 6d3e 37ea 2c3c cd77 dfbd fdc8 7c3d
00000320: 9e5b 593c de33 aabc 9a67 163e 7339 d8bd
00000330: 764d 32be 32c1 f93c 217c 26be 0898 fbbd
00000340: 3591 d33d b029 80bd beaf ddbd 25a3 f13b
00000350: e4fb bb3c f598 51bd fe93 3fbe adb1 e4bc
00000360: 5871 b4bd ff15 9abc b3b9 debd aea6 8bb9
00000370: 2df8 423e 4872 793d 80fd 70be d9b3 653b
00000380: 73cf a83d 71f1 0a3e 872f 693d f3a3 1b3e
00000390: 4a4b 8cbd 3374 fe3d f3ea 82be ad97 cc3c
000003a0: 5aef 14be e5ce 60bc fe6e 82bd e051 b13d
000003b0: 3cf0 f33c 2ff5 53bd ae84 47be 371e 973c
000003c0: 844a a9bd b406 b4bd deb4 b93c f553 023e
000003d0: b8e9 72bd f43a f03a 4b75 6b3e 4c84 293e
000003e0: 7be3 db3c 7bcc af3b bc3e 85bc 2a8d e5bd
000003f0: 951b 20be b450 de3c e5a3 a9be acdc 4abe

lstm.weight_hh_l1 f4 [192, 48]
0.016546564 -0.15361801 -0.017927174 -0.24839269 -0.072615966 0.009939904 -0.0071427664 -0.15687774
0.20518306 -0.23283234 0.085198365 0.25188556 0.19719985 0.070172556 -0.23221596 -0.11338665
0.013546436 -0.0145003 0.0018285179 -0.020807683 0.0050836788 0.09987356 -0.022232886 -0.28188124
-0.062028576 -0.20981811 -0.044191606 0.17909339 0.14559323 -0.072087616 0.14358313 0.11422719
0.16510537 -0.20129094 0.24229671 -0.067346446 0.36034438 0.1016985 0.24383867 0.117973395
-0.13273008 -0.11681892 -0.0025295047 0.12345983 -0.10162962 -0.106497884 0.32067907 0.15452997
0.055041682 -0.17444903 -0.12786257 -0.12881735 0.0062974845 0.06660492 -0.16043796 -0.05425597
0.15056996 0.09942939 0.0944767 0.10360621 0.07620501 -0.15806736 -0.10949334 -0.12362843
-0.15032671 0.09143227 0.14127715 0.18057132 0.01512059 -0.07530863 0.03090804 0.04046027
0.08498604 0.00097169547 -0.1599318 0.07601272 0.12146543 -0.20847294 -0.008955506 0.020149887
0.20885807 -0.090516396 -0.029107654 -0.11164072 -0.013483751 0.1441224 0.20217405 -0.12399202
0.109932005 -0.039025065 0.21711138 -0.044789907 0.06593057 -0.0533407 -0.02500869 -0.0594411
0.02179852 -0.096228875 -0.2320248 -0.16265982 -0.16209358 -0.23631434 -0.046952564 -0.12506609
0.11254506 -0.1389856 0.08705827 0.02604409 -0.005546891 0.06698923 -0.026921764 -0.13934615
-0.18026376 -0.03183878 -0.017999643 0.24804728 0.020058535 0.013523581 -0.12994975 -0.11323874
0.08490646 -0.22660528 -0.10601705 0.11739249 0.24789633 -0.11858494 0.077393025 0.020613248
0.12106732 0.00182488 0.10142421 -0.14050922 0.2160317 -0.010182463 0.12458078 -0.03392737
-0.023025716 -0.03726844 0.24469738 -0.14706513 0.13632578 -0.07660145 0.015149026 -0.04298997
-0.090469524 -0.061242506 -0.010639696 -0.23959976 -0.18333355 0.0950836 0.015035528 -0.14929856
0.0343553 -0.18238698 -0.06466978 0.11967714 0.059715923 -0.11913821 -0.24144165 -0.022449397
-0.22937308 0.111575715 0.118752465 -0.12287571 0.04478493 -0.040309194 0.06627406 -0.033000354
-0.13247737 -0.05030798 -0.13660751 0.09184419 0.07622116 0.086553335 0.07295517 0.15671983
0.19210905 0.048666805 0.08509114 -0.123297445 -0.03655417 0.03442757 -0.025617827 -0.051696736
-0.07656358 -0.076210395 0.026914746 0.045678955 -0.03325274 -0.049127206 0.14898808 0.019707846
-0.078168824 -0.20852372 0.0041964743 -0.08468861 -0.11412974 0.024996446 -0.24387045 -0.17934313
0.17595412 0.17406401 0.18258311 0.14730893 0.011279589 0.123598866 0.04552003 -0.20616792
0.022208937 -0.12899065 0.014134545 -0.031470526 -0.027439918 0.102504045 -0.16073343 0.02474282
0.1112395 -0.05456214 -0.14738262 -0.04775417 0.04398555 -0.13089353 -0.06641558 0.14055282
0.21938302 -0.03984199 0.19552578 -0.0034751282 0.16217405 0.11758413 0.050151423 -0.11550776
-0.051277794 -0.24707751 -0.015623727 0.11169865 -0.013188667 -0.05452642 0.08413026 0.14265768
-0.034809973 -0.18917544 -0.22531883 -0.025582172 0.049435586 0.0317205 -0.14138933 0.03137668
0.07483282 -0.090259165 0.07018335 -0.006857585 0.011777343 0.12237861 -0.021917054 -0.09001386
00000000: a98c 873c 0a4e 1dbe 02dc 92bc a75a 7ebe
00000010: aeb7 94bd fbda 223c de0d eabb 8fa4 20be
00000020: 821b 523e 9a6b 6ebe 7b7c ae3d 25f7 803e
00000030: c2ee 493e a1b6 8f3d 05ca 6dbe 4337 e8bd
00000040: dff1 5d3c ab92 6dbc e1aa ef3a e074 aabc
00000050: fd94 a63b 828a cc3d be21 b6bc bd52 90be
00000060: ad11 7ebd 8fda 56be 4202 35bd 4264 373e
00000070: 6416 153e aca2 93bd 7507 133e f2ef e93d
00000080: 6211 293e 361f 4ebe a11c 783e efec 89bd
00000090: 0f7f b83e 4e47 d03d d8b0 793e 099c f13d
000000a0: 65ea 07be c23e efbd 0cc6 25bb 82d8 fc3d
000000b0: 3123 d0bd 901b dabd 0c30 a43e 1b3d 1e3e
000000c0: 6373 613d c4a2 32be 68ee 02be b2e8 03be
000000d0: 215b ce3b 2968 883d d949 24be 823b 5ebd
000000e0: 032f 1a3e a3a1 cb3d 007d c13d 7e2f d43d
000000f0: 5f11 9c3d 69dc 21be 0b3e e0bd e730 fdbd
00000100: 3fef 19be d840 bb3d f5aa 103e b0e7 383e
00000110: 5abc 773c 693b 9abd dc32 fd3c abb9 253d
00000120: 290d ae3d 61b9 7e3a 29c5 23be 8fac 9b3d
00000130: dec2 f83d ee79 55be 1dba 12bc 6011 a53c
00000140: e4de 553e a960 b9bd 2d73 eebc e4a3 e4bd
00000150: f3ea 5cbc d394 133e b706 4f3e 87ef fdbd
00000160: 0824 e13d bfd8 1fbd 7252 5e3e 9f75 37bd
00000170: 9b06 873d c77b 5abd 06df ccbc 8378 73bd
00000180: cf92 b23c a513 c5bd e997 6dbe 4c90 26be
00000190: dcfb 25be 63fc 71be 5551 40bd 5311 00be
000001a0: 067e e63d 3e52 0ebe 9b4b b23d 6a5a d53c
000001b0: b2c2 b5bb a631 893d 088b dcbc c2b0 0ebe
000001c0: 1097 38be 6169 02bd fd73 93bc 1b00 7e3e
000001d0: cc51 a43c 0392 5d3c 8c11 05be b6e9 e7bd
000001e0: 70e3 ad3d 370b 68be 781f d9bd 796b f03d
000001f0: 89d8 7d3e a9dc f2bd 3c80 9e3d 1ddd a83c
00000200: 25f2 f73d d030 ef3a 7fb7 cf3d a6e1 0fbe
00000210: 6a37 5d3e 58d4 26bc 3524 ff3d 6df7 0abd
00000220: 6da0 bcbc cba6 18bd f391 7a3e 3e98 16be
00000230: fc98 0b3e 39e1 9cbd 9f33 783c 4016 30bd
00000240: 1648 b9bd 6cd9 7abd 1f52 2ebc a459 75be
00000250: cabb 3bbe 31bb c23d 9357 763c b9e1 18be
00000260: 25b8 0c3d a7c3 3abe 9771 84bd 4a19 f53d
00000270: af98 743d bcfe f3bd 7b3c 77be cce7 b7bc
00000280: c7e0 6abe cf81 e43d 7e34 f33d 43a6 fbbd
00000290: 6770 373d 411b 25bd b2ba 873d 612b 07bd
000002a0: 26a8 07be be0f 4ebd d7e2 0bbe cf18 bc3d
000002b0: d719 9c3d e042 b13d 8569 953d 2a7b 203e
000002c0: 3cb8 443e d856 473d 4344 ae3d 5f83 fcbd
000002d0: d3b9 15bd ec03 0d3d 7adc d1bc f5bf 53bd
000002e0: 5ecd 9cbd 3214 9cbd 507c dc3c db19 3b3d
000002f0: 0634 08bd 9c39 49bd 5590 183e 5972 a13c
00000300: fa16 a0bd 3e87 55be 9482 893b 3971 adbd
00000310: dabc e9bd 59c5 cc3c 2db9 79be baa5 37be
00000320: 512d 343e d63d 323e 11f7 3a3e 27d8 163e
00000330: 06ce 383c 6721 fd3d 3673 3a3d af1d 53be
00000340: 84ef b53c 2016 04be 9494 673c 3de7 00bd
00000350: aec9 e0bc a4ed d13d 4e97 24be 74b1 ca3c
00000360: 89d1 e33d 8d7c 5fbd 78eb 16be e099 43bd
00000370: 312a 343d f408 06be e404 88bd 14ed 0f3e
00000380: f1a5 603e 5b31 23bd e937 483e fabe 63bb
00000390: f410 263e f3cf f03d 946b 4d3d 558f ecbd
000003a0: aa08 52bd e301 7dbe a9fa 7fbc 43c2 e43d
000003b0: 4715 58bc 1857 5fbd 7c4c ac3d db14 123e
000003c0: e794 0ebd 35b7 41be fbb9 66be b491 d1bc
000003d0: f87c 4a3d 5bed 013d 5dc8 10be d584 003d
000003e0: f341 993d ccd9 b8bd 4abc 8f3d 98b5 e0bb
000003f0: c2f5 403c a3a1 fa3d 658b b3bc 3059 b8bd

lstm.bias_ih_l1 f4 [192]
-0.26584733 -0.08646668 0.05288446 -0.07892157 -0.03599229 -0.0685651 -0.028927403 0.11378274
-0.012147886 -0.12029396 0.034832798 -0.15626931 -0.025750976 -0.0017256987 0.05044072 0.06678042
-0.050824296 -0.2768573 -0.10659539 -0.023937352 -0.024773018 0.030222435 0.14816725 0.23048659
0.13948363 -0.084084354 0.07476867 0.11942141 -0.16906276 0.09440897 0.18282054 0.1818665
-0.0928877 0.091544166 0.12038173 0.16466965 0.019440794 -0.25869167 0.036552083 -0.22294214
0.1525304 -0.1336674 -0.19584551 0.10166554 -0.08716921 -0.06318347 0.0029567108 -0.035529796
-0.049484953 -0.2013701 -0.08165497 -0.2589259 -0.15452476 0.0696084 -0.17858176 0.04639805
0.039307922 -0.07407776 0.029456407 0.021322943 -0.09986674 -0.25512224 -0.17955105 0.032076005
-0.05901569 -0.22426873 -0.25009814 -0.05805328 0.03927506 -0.11142768 -0.15155736 -0.020577077
-0.08056046 -0.034886252 -0.20022036 0.027432414 -0.20207891 -0.20293327 -0.16123436 0.16194652
-0.12852213 -0.20737968 -0.0025478092 -0.0012976467 0.049715873 -0.055028412 -0.12371511 -0.069869295
-0.15499908 0.061564736 0.013794022 -0.13080604 0.041686583 -0.1710172 -0.16602345 -0.1424743
0.115202434 0.07367904 0.08670023 0.030868834 -0.07136633 0.092473894 0.02505148 0.028236758
-0.11878363 0.10057221 -0.21352987 -0.0744771 0.1205737 0.08564083 -0.019123176 0.07862541
0.06344137 -0.14423294 -0.04327464 -0.15899253 0.105744004 -0.023639759 0.09851005 0.27353165
0.052720383 -0.06592271 0.08654068 -0.15916854 0.03223074 -0.010308953 -0.07608013 -0.14636932
-0.15495822 -0.069069244 -0.10123403 0.07723693 -0.18298243 -0.055581447 -0.05683088 -0.0876827
0.0125388205 -0.06649462 0.026977139 0.010492058 -0.08922627 0.08454455 -0.0595079 -0.07265719
-0.04690066 -0.13881479 -0.052762367 -0.024972077 0.0015117266 0.09760092 -0.18369347 0.026694227
0.025235683 -0.050952647 0.111939885 0.049662653 0.012804334 -0.15573584 -0.15221016 0.044632684
-0.20414364 -0.02187093 -0.14996603 -0.0898524 -0.045898225 -0.04243804 0.113589935 0.079550765
0.2160098 0.15049087 -0.11189628 -0.015952332 -0.11183915 -0.14857149 0.047870282 0.13840187
-0.0051099453 0.027695524 -0.08792394 0.14415762 0.09860841 -0.17805065 0.044783372 -0.14698592
-0.07874827 -0.21396336 0.0112700425 0.044113744 -0.14358789 -0.12620217 -0.0652109 0.0056049903
00000000: 241d 88be 7115 b1bd 609d 583d a2a1 a1bd
00000010: a76c 13bd dc6b 8cbd 29f9 ecbc ed06 e93d
00000020: ed07 47bc ae5c f6bd d6ac 0e3d 1005 20be
00000030: b6f3 d2bc d730 e2ba ee9a 4e3d 2cc4 883d
00000040: 232d 50bd 3dc0 8dbe af4e dabd 4418 c4bc
00000050: c9f0 cabc 0a95 f73c 28b9 173e ad04 6c3e
00000060: ccd4 0e3e 6b34 acbd 5120 993d 3693 f43d
00000070: ca1e 2dbe 7d59 c13d 4f35 3b3e 363b 3a3e
00000080: e83b bebd 827b bb3d b28a f63d 299f 283e
00000090: 4d42 9f3c 3c73 84be a3b7 153d f24a 64be
000000a0: ee30 1c3e 1be0 08be ba8b 48be 0636 d03d
000000b0: c585 b2bd 5666 81bd 60c5 413b b187 11bd
000000c0: bcb0 4abd f733 4ebe b93a a7bd f091 84be
000000d0: bd3b 1ebe d98e 8e3d 23de 36be e20b 3e3d
000000e0: 5801 213d 15b6 97bd 904e f13c 74ad ae3c
000000f0: ef86 ccbd 629f 82be 3bdc 37be 2162 033d
00000100: 70ba 71bd b4a6 65be dd0c 80be 47c9 6dbd
00000110: e3de 203d 3234 e4bd da31 1bbe 4291 a8bc
00000120: e2fc a4bd e3e4 0ebd 9106 4dbe f1b9 e03c
00000130: c6ed 4ebe bdcd 4fbe 9f1a 25be 4fd5 253e
00000140: 4e9b 03be 575b 54be 25f9 26bb cc15 aaba
00000150: dfa2 4b3d 7965 61bd 595e fdbd a217 8fbd
00000160: 14b8 1ebe 4e2b 7c3d 5200 623c 05f2 05be
00000170: 8dbf 2a3d 221f 2fbe 0d02 2abe c8e4 11be
00000180: 41ef eb3d 09e5 963d e48f b13d a3e0 fc3c
00000190: 8328 92bd f462 bd3d c338 cd3c c650 e73c
000001a0: d544 f3bd cef8 cd3d 93a7 5abe 7387 98bd
000001b0: 58ef f63d 7664 af3d 35a8 9cbc 5c06 a13d
000001c0: 8ded 813d cdb1 13be c040 31bd f0ce 22be
000001d0: 5090 d83d 2ba8 c1bc a3bf c93d 570c 8c3e
000001e0: 54f1 573d 7c02 87bd 3d3c b13d 14fd 22be
000001f0: 6104 043d e2e6 28bc e6cf 9bbd d7e1 15be
00000200: 5ead 1ebe 2d74 8dbd ca53 cfbd 652e 9e3d
00000210: bf5f 3bbe 5fa9 63bd 7fc7 68bd fd92 b3bd
00000220: a06f 4d3c 552e 88bd 29ff dc3c e1e6 2b3c
00000230: 43bc b6bd b125 ad3d 8ebe 73bd 4bcd 94bd
00000240: e81a 40bd 7725 0ebe 5a1d 58bd 3e92 ccbc
00000250: 2125 c63a fee2 c73d 241a 3cbe daad da3c
00000260: 10bb ce3c b9b3 50bd bd40 e53d 116b 4b3d
00000270: 45c9 513c 3779 1fbe fbdc 1bbe c3d0 363d
00000280: 080b 51be aa2a b3bc b290 19be 8904 b8bd
00000290: c7ff 3bbd 83d3 2dbd d7a1 e83d 83eb a23d
000002a0: ac31 5d3e 471a 1a3e e029 e5bd 77ae 82bc
000002b0: ed0b e5bd 2023 18be a113 443d 38b9 0d3e
000002c0: 5471 a7bb b9e1 e23c 7711 b4bd 0e9e 133e
000002d0: 35f3 c93d e952 36be c56e 373d 7a83 16be
000002e0: c646 a1bd 3619 5bbe fca5 383c 9db0 343d
000002f0: b408 13be 243b 01be 4b8d 85bd 11aa b73b

lstm.bias_hh_l1 f4 [192]
-0.07415034 -0.12853876 -0.0373339 0.17908996 -0.16021574 -0.033526894 0.036864474 0.13580428
-0.11628695 -0.0018463652 0.12277229 0.04015413 0.02630001 -0.23395412 0.07348368 0.15596487
-0.089299135 -0.2512687 0.07545012 -0.12570044 0.050061632 -0.016498132 0.10690946 0.039424144
0.26761517 -0.016917363 -0.11697307 0.17678802 -0.22283606 -0.1341252 0.10936568 0.103558905
-0.057373185 -0.16096915 0.1590943 -0.063429244 0.023655813 -0.29886752 0.13298102 -0.26170772
-0.027892264 -0.016111342 -0.09995785 -0.04314678 -0.13624652 -0.19332977 0.08526957 -0.11156296
-0.22820163 -0.10849836 -0.069624975 -0.016050156 0.07354356 0.036246095 -0.024939785 -0.13165966
-0.012101593 -0.09387894 -0.08417297 -0.12207397 -0.07368857 -0.08924424 -0.1498357 -0.10135938
-0.10190645 -0.119785376 -0.2143441 -0.05440472 -0.09781434 -0.26565856 -0.11365325 0.08311691
0.00858043 -0.14258735 0.024685634 0.044656828 0.0016456713 -0.21552554 -0.17259917 0.15308186
-0.048542198 -0.05047804 0.11698727 -0.08509999 0.008557657 -0.08643047 -0.19714066 -0.22465307
0.020460103 -0.14189495 -0.14936727 -0.19070932 -0.016031671 -0.16733438 -0.09784305 0.034444414
-0.06583707 0.1369196 0.015412186 -0.11164437 0.09954805 0.10806818 -0.07362717 0.20369044
-0.15458706 -0.067203246 -0.23286963 -0.12441707 -0.09270111 0.07025327 0.116144516 0.1857629
0.08494269 0.10417406 -0.094126366 -0.007498941 0.11843253 0.057829734 -0.0790426 0.29629114
0.028970715 0.13507912 0.08216081 -0.1506593 0.024767036 0.009658445 -0.058206625 -0.21400857
-0.090444826 0.027773408 -0.21874838 0.0076608704 -0.1347536 -0.081615135 0.029923683 -0.0052147857
0.055816162 -0.09650285 -0.02844679 -0.06492537 0.012369162 -0.02703371 -0.055000998 -0.121637054
-0.28682128 -0.08823859 0.046886295 0.11187552 0.05472075 0.05858158 -0.19486955 0.08418746
-0.14526103 0.08181485 0.059203945 -0.004353416 -0.12933138 -0.211126 -0.012350067 -0.10663672
-0.0693718 -0.2517229 0.0021380498 -0.046794094 0.10655022 0.012187588 -0.067907125 0.164098
0.16145778 0.06628854 0.079494596 -0.11887342 0.027658178 -0.043530136 0.1063934 -0.079727575
-0.01892423 0.07032874 0.12624483 -0.12147059 0.06024274 -0.3310665 -0.013146801 -0.34821367
0.042667966 -0.23805247 -0.19056128 -0.089381225 -0.27054986 -0.07410302 0.020877572 -0.13318805
00000000: 22dc 97bd aa9f 03be 6eeb 18bd 5c63 373e
00000010: 980f 24be 7f53 09bd 34ff 163d 4710 0b3e
00000020: da27 eebd bc01 f2ba 0a70 fb3d a878 243d
00000030: 1e73 d73c ab91 6fbe 9d7e 963d 41b5 1f3e
00000040: 77e2 b6bd 4ba6 80be 9885 9a3d 9eb7 00be
00000050: 6d0d 4d3d 1727 87bc 59f3 da3d 367b 213d
00000060: db04 893e 4896 8abc 948f efbd eb07 353e
00000070: 232f 64be 1e58 09be 1dfb df3d b116 d43d
00000080: 2500 6bbd 19d5 24be 9ee9 223e 31e7 81bd
00000090: d6c9 c13c 2a05 99be 2d2c 083e 8efe 85be
000000a0: 517e e4bc effb 83bc b4b6 ccbd aeba 30bd
000000b0: 3584 0bbe 3df8 45be d0a1 ae3d 1f7b e4bd
000000c0: b0ad 69be 6334 debd 8a97 8ebd 9e7b 83bc
000000d0: 029e 963d c976 143d 854e ccbc cad1 06be
000000e0: c345 46bc 9a43 c0bd e162 acbd eb01 fabd
000000f0: 08ea 96bd afc5 b6bd 886e 19be 8295 cfbd
00000100: 54b4 d0bd 0952 f5bd 057d 5bbe 7cd7 5ebd
00000110: e252 c8bd 6604 88be 09c3 e8bd 3339 aa3d
00000120: ef94 0c3c 6b02 12be 8739 ca3c 14ea 363d
00000130: 91b3 d73a bab2 5cbe d6bd 30be 7ec1 1c3e
00000140: 2fd4 46bd 10c2 4ebd 0697 ef3d e748 aebd
00000150: 6a35 0c3c 7502 b1bd 3edf 49be 740b 66be
00000160: f29b a73c e94c 11be bcf3 18be 4e49 43be
00000170: da54 83bc b459 2bbe f061 c8bd 9615 0d3d
00000180: 96d5 86bd a734 0c3e 6583 7c3c cea5 e4bd
00000190: d9df cb3d da52 dd3d d7c9 96bd 3a94 503e
000001a0: 124c 1ebe dba1 89bd 6075 6ebe 60ce febd
000001b0: 14da bdbd f2e0 8f3d 2ddd ed3d a138 3e3e
000001c0: 6ff6 ad3d 3659 d53d 53c5 c0bd adb9 f5bb
000001d0: c18c f23d dfde 6c3d 16e1 a1bd 79b3 973e
000001e0: fe53 ed3c 2e52 0a3e ed43 a83d 6e46 1abe
000001f0: 3de4 ca3c 743e 1e3c 126a 6ebd 1025 5bbe
00000200: 233b b9bd 0f85 e33c 93ff 5fbe 0a08 fb3b
00000210: d9fc 09be d625 a7bd 8322 f53c cbe0 aabb
00000220: 7d9f 643d 49a3 c5bd 3e09 e9bc 98f7 84bd
00000230: 07a8 4a3c cd75 ddbc ba48 61bd d91c f9bd
00000240: 3dda 92be 6fb6 b4bd d80b 403d fe1e e53d
00000250: dd22 603d 3df3 6f3d e28b 47be 7a6a ac3d
00000260: 4fbf 14be 8b8e a73d d67f 723d 1aa7 8ebb
00000270: 726f 04be 6a31 58be ef57 4abc 5a64 dabd
00000280: cd12 8ebd d3e1 80be 861e 0c3b 2aab 3fbd
00000290: 0037 da3d 73ae 473c e412 8bbd 4e09 283e
000002a0: 3055 253e 49c2 873d 10ce a23d e873 f3bd
000002b0: 6793 e23c a84c 32bd c8e4 d93d 3648 a3bd
000002c0: fd06 9bbc 8408 903d 5346 013e 93c5 f8bd
000002d0: 17c1 763d 8c81 a9be ae65 57bc 1049 b2be
000002e0: 9bc4 2e3d 07c4 73be 7f22 43be 810d b7bd
000002f0: 8385 8abe 53c3 97bd 7107 ab3c 7362 08be

linear.weight f4 [2, 48]
0.13072044 0.10790698 0.0237649 -0.25122803 0.049545404 -0.047458813 0.049878526 0.118472345
0.024495203 0.044822592 -0.07643809 -0.0051895245 0.16276933 0.05510649 0.04734882 0.14535828
0.07822492 0.097696565 -0.16030133 0.000536941 0.20609 0.13928975 -0.26026595 0.21260624
-0.2317415 -0.14040628 0.16018295 -0.22669958 -0.13782883 -0.11541577 -0.15125416 0.0050741215
-0.06519379 0.06887788 -0.07420774 0.124579154 -0.091566555 0.02426171 0.021668473 0.03469563
0.3097988 0.1337642 -0.14552777 0.20808035 -0.03240572 -0.20283096 -0.16335289 0.10912878
-0.049321856 0.09257404 0.15286039 0.14088514 0.08128981 0.18558559 0.16471305 0.120077245
-0.21356308 0.09644523 -0.22843577 -0.14562756 -0.050606154 0.049038943 0.09264079 0.09543454
0.057923228 -0.034021925 0.023156246 -0.14048295 -0.035608426 -0.20063885 0.21990131 0.13101687
0.037406933 0.19346704 0.04435579 -0.057808325 -0.0655705 0.1679989 0.07173073 -0.25491646
-0.12348809 0.10667943 -0.21697325 0.2192104 -0.20029475 -0.001985751 -0.20178826 0.01532955
-0.11498186 0.06364287 -0.077265 -0.04147589 0.0930606 0.06264728 -0.12095779 -0.20292972
00000000: 94db 053e 56fe dc3d 9cae c23c f6a0 80be
00000010: 1ff0 4a3d 2c64 42bd 6d4d 4c3d a1a1 f23d
00000020: 2aaa c83c e597 373d 938b 9cbd e30c aabb
00000030: 01ad 263e 58b7 613d d6f0 413d cdd8 143e
00000040: 6334 a03d 2315 c83d 0826 24be 80c1 0c3a
00000050: 4209 533e f9a1 0e3e 9441 85be 73b5 593e
00000060: a54d 6dbe aac6 0fbe 0007 243e ef23 68be
00000070: 0023 0dbe 1a5f ecbd 5fe2 1abe d144 a63b
00000080: 5284 85bd d90f 8d3d 3afa 97bd 5b23 ff3d
00000090: 3f87 bbbd 7ec0 c63c 1582 b13c 011d 0e3d
000000a0: f39d 9e3e 7cf9 083e 3b05 15be 0413 553e
000000b0: dcbb 04bd ebb2 4fbe fb45 27be e97e df3d
000000c0: b705 4abd 7597 bd3d 6f87 1c3e 3244 103e
000000d0: 467b a63d 260a 3e3e 8aaa 283e 0feb f53d
000000e0: 48b0 5abe 1485 c53d 11eb 69be 641f 15be
000000f0: 6648 4fbd 0fdd 483d 74ba bd3d 2f73 c33d
00000100: e840 6d3d 935a 0bbd 2bb2 bd3c c3da 0fbe
00000110: 24da 11bd 4574 4dbe cf2d 613e 4929 063e
00000120: 0338 193d 391c 463e 6bae 353d 6cc8 6cbd
00000130: d449 86bd e707 2c3e 90e7 923d 6984 82be
00000140: 53e7 fcbd bf7a da3d 3c2e 5ebe b178 603e
00000150: 111a 4dbe 6023 02bb 95a1 4ebe cb28 7b3c
00000160: 9c7b ebbd 3157 823d 1d3d 9ebd 9fe2 29bd
00000170: 8e96 be3d 384d 803d b8b8 f7bd cfcc 4fbe

linear.bias f4 [2]
0.19221024 0.063661315
00000000: c3d2 443e dd60 823d
