cheakpoint/training_epochs_200_stepsize_7_gamma_0.75/model_epoch140.pth (torch, 117574 bytes, 10 tensors)

lstm.weight_ih_l0 f4 [192, 2]
000000 96 64 ef bd e4 46 1b 3e 5a 3e 8b be cd 52 08 be
       -0.11689107 0.15163761 -0.27196008 -0.13312836
000010 58 7a a8 3d 95 30 db 3c df 7f 22 3e 6d 09 4d 3e
       0.0822646 0.026756564 0.15869091 0.20023127
000020 e0 17 a7 3e 51 5c 33 3e c8 44 94 be 6b 8a f6 3c
       0.32635403 0.17515685 -0.28958726 0.0300953
000030 43 60 91 3e d4 ff 83 3e 10 68 2b 3e 02 cd 6f 3e
       0.28393754 0.2578112 0.16738915 0.23418048
000040 36 7e bb 3e 75 51 c4 3e 9f 96 16 be 9d dd d2 3d
       0.3661973 0.38343397 -0.14705895 0.10296176
000050 35 9a 12 3e 8b 89 ab bc 39 fd c1 3d fe da 28 3e
       0.14316638 -0.020939609 0.094721265 0.16489789
000060 0d 37 1e 3e f9 64 f1 bc 9f 4a 22 3d 9b 9b c4 bd
       0.15450688 -0.029467093 0.039621945 -0.09599992
000070 6f 4a b3 3e 42 00 b2 3d 49 bf cf 3e 4d f1 85 3e
       0.35017726 0.086914554 0.40575626 0.2616066
000080 c4 49 1d 3c bb ae 0f bd 43 a8 a8 3e 56 0e ad 3e
       0.009600107 -0.035078745 0.32940874 0.338
000090 9e 47 2e 3e c4 d0 1f 3e 50 d4 1f be e5 71 3c be
       0.17019507 0.15606982 -0.15608335 -0.18402822
0000a0 04 90 87 3b 6d 15 32 be da 06 19 be 83 9b af 3c
       0.004137041 -0.17390986 -0.1494402 0.021436458
0000b0 9d 9c 83 3e de 8e c0 3d 65 b1 98 3e 8d 13 9b 3e
       0.25705424 0.0940225 0.2982284 0.30288354
0000c0 0f 30 54 3d 90 3f 2a 3e 18 10 ee 3d 0b 16 60 3e
       0.051803645 0.1662581 0.116241634 0.21883409
0000d0 5c 3a cd bc 98 79 52 3e 0e ef e6 3d b5 62 31 3e
       -0.025052242 0.20554197 0.11276065 0.1732281
0000e0 4b 05 d9 3d 59 b3 80 be 46 16 d4 3e 4d ac a9 3c
       0.10596713 -0.2513683 0.41423243 0.020712042
0000f0 f6 78 25 be 3d af f0 bd 3a 22 e6 3d 44 18 55 3d
       -0.16159424 -0.11752174 0.11236997 0.052025095
000100 0c 26 a5 be bd 61 9a be 74 92 c4 be 19 87 d2 be
       -0.3225559 -0.30152693 -0.38392985 -0.41118696
000110 3c d8 f3 bd 3f 61 34 3e 3b b9 92 3d c1 9e 2a 3d
       -0.11906478 0.17615221 0.07164236 0.041655306
000120 19 23 5d 3e 61 df 3a 3d d1 93 d4 bd 70 e6 98 be
       0.2159542 0.045623187 -0.10379756 -0.2986331
000130 d5 ee 4e be ee 54 93 be b1 b5 7c 3d 57 13 87 3e
       -0.20208295 -0.28775734 0.061696712 0.26381943
000140 3e 3d 80 be c2 63 2f be b2 46 35 3e 3c cf 46 3e
       -0.25046724 -0.17127898 0.1770275 0.19414991
000150 f6 9e d6 3d bf 58 f0 3c b5 90 c6 bd 09 7d 6c be
       0.10479538 0.029339192 -0.096955694 -0.23094572
000160 7b ef 60 be aa 03 39 bd 7d 0f 88 3e 3d 38 4d 3e
       -0.21966355 -0.04516951 0.26574317 0.20040984
000170 40 c4 41 3e 9f 7f 9b 3e ac 13 25 3d 29 b2 e1 bc
       0.1892252 0.30370805 0.040301964 -0.027550774
000180 ac 29 42 bd 07 d7 1f 3e 9c b6 db 3d a8 74 d5 3d
       -0.047403023 0.1560937 0.10728189 0.10422641
000190 c0 04 66 be ac 2f a5 bd bc d4 be bd 9e 77 d8 3d
       -0.2246275 -0.08065733 -0.093179196 0.1056969
0001a0 ee 34 0b bc bd 9a 54 3e 3e 74 11 be 1a 07 ec 3d
       -0.008496506 0.20762153 -0.14204499 0.11524792
0001b0 53 ed 76 be 9a d7 ee 3c ab 8e 07 be 2d f2 cf 3a
       -0.2411397 0.029155541 -0.13238017 0.0015865021
0001c0 cd 08 50 3e ec 13 a2 3e 3a bb 04 bb 6d d1 56 bc
       0.20315857 0.31655824 -0.0020253197 -0.013111454
0001d0 53 f6 6c 3e 9a 73 4d 3e e1 c6 8a bd 1f 3c ae 3d
       0.2314084 0.2006363 -0.067762144 0.08507561
0001e0 d3 18 00 be c3 65 c5 3d e1 46 a5 3e 16 21 92 bd
       -0.1250947 0.0963855 0.3228064 -0.07135217
0001f0 05 85 5f 3e 7a 8a 81 3e f9 df ee 3b 48 84 98 bd
       0.21828087 0.25300962 0.007289883 -0.07447106
000200 6c 96 72 be f3 b6 67 be da b0 54 3d 0f 1a 59 3d
       -0.23690194 -0.22628383 0.05192647 0.053003367
000210 51 e3 fe 3c df 3b 1b 3a ca b8 4d 3e af 5d 3e 3e
       0.031114252 0.0005921702 0.20090023 0.18590425
000220 3b ac 20 be e6 54 09 be bc e8 5f be 07 06 3f 3d
       -0.156907 -0.13411292 -0.21866125 0.046636607
000230 dc 43 07 bd 71 44 45 3d 72 a0 93 3e 56 73 98 3e
       -0.0330237 0.048160974 0.28833348 0.29775494
000240 ef ad ac 3d c9 6d e9 3c e0 31 12 3e 70 c1 ad 3e
       0.08431613 0.028494732 0.14276838 0.33936644
000250 f6 f3 00 be 49 76 23 3e 4f 95 32 3e 88 0e 4e be
       -0.12593064 0.15963091 0.17439769 -0.2012273
000260 72 a9 a1 3e 41 76 10 3e 01 6e 6b 3e 51 60 b4 bd
       0.3157459 0.1410761 0.22991182 -0.088074334
000270 d1 8b 6b 3d 57 dd 51 bd f7 e6 2a 3e 56 eb a6 3e
       0.057506386 -0.051236477 0.16689669 0.32601422
000280 a6 1e 89 bd 99 c3 01 be 02 b0 49 3d a4 27 73 3c
       -0.06695299 -0.12672271 0.04924012 0.014840994
000290 6e 5d ea 3d 97 5b 97 3d 0c 25 40 be 4f c0 78 bd
       0.114436015 0.07390516 -0.18764132 -0.060730275
0002a0 d7 c6 68 3e 1d 47 9e 3d 54 ed 10 3c 84 07 f5 bd
       0.22732101 0.077284075 0.008845646 -0.11964324
0002b0 de f8 30 3b a7 49 58 be 11 8b 09 3e b7 dd 6d ba
       0.0027003805 -0.21121846 0.13431956 -0.00090738706
0002c0 23 bc 10 bd 85 ec 47 be 98 9b 0b 3d dc 1f 1b 3e
       -0.03533567 -0.19523819 0.034083933 0.15148872
0002d0 82 52 c5 3c 9e 63 8b 3e 30 7e 25 be 44 b5 42 be
       0.024087194 0.2722444 -0.16161418 -0.1901446
0002e0 9a d1 f3 3d a5 0e 03 be 02 11 6e 3e f1 84 0b 3e
       0.11905213 -0.12798555 0.23248675 0.13624932
0002f0 5d f8 83 3d 1c 9c a8 3e d0 53 86 3d f1 2f b9 be
       0.06443856 0.32931602 0.06558955 -0.3616939
000300 85 ed f0 3d ff 02 c1 be c0 d2 04 3e 87 5e 96 3e
       0.11764053 -0.37697598 0.1297102 0.29368994
000310 c4 5d 19 3e a4 38 c1 3e 83 51 c1 bd 99 d7 07 3f
       0.14977175 0.37738526 -0.09439375 0.5306335
000320 b4 90 88 3e df f0 ab 3e bb c2 cd 3c d3 b1 88 3e
       0.266729 0.33582208 0.025117269 0.2669817
000330 59 8f 0a bf ac 16 1c 3d 15 96 5c bd 57 78 b3 3e
       -0.5412498 0.03810756 -0.053854067 0.3505275
000340 69 71 ff 3e 65 67 92 3e 41 b7 b7 3e d2 42 fd 3d
       0.49891213 0.2859451 0.35882 0.123662606
000350 be 79 19 bd b9 f2 9b be 5e db 02 be 9a 4f da be
       -0.037469618 -0.3045862 -0.12778994 -0.42638856
000360 a2 ae 89 be bb 43 ba be 17 4a b8 be 15 32 10 3d
       -0.26891047 -0.363798 -0.35994026 0.035204012
000370 f8 b4 eb 3d 73 cf ed be b3 ab 40 be c3 67 b0 be
       0.115091264 -0.46447334 -0.18815498 -0.34454164
000380 c7 dc c8 3e 10 3f 98 bd 0c f4 d1 3e a2 42 bf be
       0.3923094 -0.07433903 0.41006505 -0.37355524
000390 bf 5a 57 3e d8 cc a1 3e 61 df 89 3e b4 5f 5c 3e
       0.2103071 0.31601596 0.26928237 0.21520883
0003a0 51 d5 71 be 6e 18 3d be 33 c6 96 3e 07 2e 47 bd
       -0.2361653 -0.1846635 0.2944809 -0.04862788
0003b0 4e f3 50 be 5f 82 b6 be 6b d2 3c be 63 0b b8 be
       -0.20405313 -0.3564634 -0.18439643 -0.35946187
0003c0 21 ee ad 3e e2 f7 40 be 10 62 b5 bd ca e7 bd be
       0.3397074 -0.1884456 -0.088565946 -0.37090904
0003d0 e0 2a 47 3e b4 87 c7 be 19 ad 05 bf af 7c 3d 3c
       0.1944995 -0.3897072 -0.5221725 0.011565371
0003e0 86 ed 7e be a2 15 ac 3d f5 bc f8 3e 51 34 aa be
       -0.24895296 0.08402564 0.48581663 -0.3324304
0003f0 16 49 b4 be 71 14 10 be 7a 2d 64 3d 79 69 cf be
       -0.3521201 -0.14070298 0.055707432 -0.40510157

lstm.weight_hh_l0 f4 [192, 48]
000000 1a aa 89 bd 16 d5 8d 3e f9 6c c1 bd a7 d2 06 bd
       -0.067218974 0.27701634 -0.09444613 -0.032915737
000010 e2 20 f3 bc 72 21 72 bb 62 76 ad 3d c3 04 98 3d
       -0.029678766 -0.0036946204 0.08469845 0.07422783
000020 da de 6e bd c3 89 85 bd 02 65 29 be ae f6 00 bd
       -0.058317997 -0.065204166 -0.16542438 -0.031485252
000030 11 dc a2 3c 80 0b 06 3e ed 54 80 bd ee f0 13 be
       0.019880326 0.13090324 -0.06266198 -0.14447376
000040 20 c3 1c 3b 0e fd 0f be c6 42 b2 bd 27 3b 41 3e
       0.0023920015 -0.14061376 -0.08704142 0.18870221
000050 bd 27 53 bd 75 7e b9 bc 6d 31 c3 3c d5 1b d8 3d
       -0.05155157 -0.022643307 0.023827279 0.105521835
000060 bf 49 8a be ae 7e a1 bc 9a 26 11 be 2a 17 41 3c
       -0.2700939 -0.019713726 -0.14174882 0.011785308
000070 a3 d4 3d be b5 fa 61 be d8 17 7a 3d 20 ac e8 3c
       -0.18538146 -0.22068293 0.061057895 0.028402388
000080 43 b7 be bd d7 3a 90 3b 6d 28 8c 3e 22 3e 00 3e
       -0.09312298 0.0044015455 0.27374592 0.12523702
000090 0b 62 9f bc fd 58 6d 3e 8d 46 27 be 77 1a 4e bd
       -0.01945593 0.23178478 -0.16335507 -0.050318208
0000a0 b7 0c c3 3d e4 25 5f be 3a b9 cb bd 22 3e 13 3e
       0.095239095 -0.21791798 -0.099474385 0.1437917
0000b0 5e 93 8d 3c 74 e8 26 3e ff 9d bc 3d 6b 1d 6f 3d
       0.017282184 0.16299611 0.09209823 0.058377665
0000c0 38 44 eb 3c 0c 1c fc bd a1 ff 17 bd f7 b2 80 be
       0.028719053 -0.12310037 -0.03710902 -0.2513654
0000d0 02 a8 5c be 2b 53 03 be de ea d8 3e 6d 3a 05 be
       -0.21548465 -0.12824695 0.4236669 -0.13010569
0000e0 6e 6e b0 be e7 eb 35 be ca 45 1c 3f d7 ba 91 3e
       -0.3445925 -0.17765771 0.6104399 0.2846286
0000f0 84 1e 8b 3e 2e d6 ec 3e 0f f9 e4 3e 57 9f 9b 3e
       0.2717172 0.46257156 0.44721267 0.30395004
000100 73 2e 76 ba ad 49 52 be b1 59 9f be 08 f6 92 be
       -0.0009391077 -0.20535918 -0.31123117 -0.28703332
000110 c4 17 84 3e 18 82 21 3d 95 a2 89 3e 09 5c 92 3e
       0.25799382 0.039430708 0.26881853 0.28585842
000120 3f c4 16 bf 43 ab 19 3f 38 77 2f be 2c fc a0 3e
       -0.588932 0.6002695 -0.17135322 0.31442392
000130 8f 32 5e 3e aa 29 96 be 83 6a 8c 3e 8f 32 7c 3e
       0.21698974 -0.29328662 0.27425012 0.24628662
000140 75 be 40 be dc 24 d9 3d b4 3d 92 3e 71 bb b1 be
       -0.18822654 0.106027335 0.285627 -0.3471332
000150 7f 4d 09 3f 96 92 a2 bd 77 54 83 3d 14 a9 e8 bd
       0.53633875 -0.07938115 0.06412595 -0.11360374
000160 fa b5 f8 3d 7d 0c 16 bf 44 2d 4c 3e 8b 17 0b bc
       0.12144084 -0.58612806 0.19939142 -0.0084895
000170 25 5a 1d bd ff 8b b7 be dd 0e a8 3e a0 ec 8a bd
       -0.038416047 -0.35848996 0.3282384 -0.06783414
000180 05 2b 23 3d 2e 2e 8f bd 6d eb 43 bc 69 ad e4 bd
       0.03983595 -0.0699123 -0.011957985 -0.11165888
000190 29 20 9c bd ae 52 db bd bb b6 c2 bd 16 c8 a6 be
       -0.076233216 -0.10709129 -0.09507509 -0.32574528
0001a0 80 40 d8 3c 59 6e 35 bd c2 48 16 3e ad 98 09 3e
       0.026397943 -0.04429469 0.14676192 0.13437147
0001b0 e1 42 0a bd b7 d1 9c 3d 32 0f 97 3e 37 64 2e 3e
       -0.033755187 0.076571874 0.2950378 0.17030416
0001c0 bf 1c fc 3d 51 3b c8 bd 0f 27 91 bd 27 7e 33 bd
       0.123101704 -0.09776939 -0.07087528 -0.04382148
0001d0 bf 34 2a be 23 73 c7 3d 38 65 8b bd c5 89 3d 3e
       -0.16621684 0.097387575 -0.06806415 0.18509586
0001e0 6d 26 20 be 2b 40 b9 3d 4b ab 1f be 2b cf 1d be
       -0.15639658 0.09045442 -0.15592687 -0.1541106
0001f0 1f b8 5e be a9 82 4a 3d c0 6f 15 bc 48 61 d5 bb
       -0.21749924 0.049441013 -0.009120882 -0.006511841
000200 ce 5a bc 3c ae 9d 37 3d 43 3f 25 bd a6 c9 12 3d
       0.022992518 0.04482811 -0.040343534 0.03583684
000210 d6 3c e6 bc f3 f5 be 3d 0f dd 62 3e d7 65 d0 3d
       -0.02810518 0.09324255 0.2215464 0.101756744
000220 92 3a 1e be 8c eb bb bd 15 06 e1 bc c9 43 b2 3e
       -0.1545203 -0.091757864 -0.02746872 0.3481734
000230 1a d9 9f be 97 46 c5 be a2 85 2b 3e e9 f7 98 3e
       -0.31220323 -0.38530418 0.16750196 0.2987664
000240 7b 9f 1c 3e 1f 0d 1a 3f 0e 48 d6 3d 31 24 29 bd
       0.15295212 0.6017627 0.10462962 -0.04129428
000250 56 66 74 3d b3 32 f4 3c 92 ca 79 be 52 db 00 be
       0.059667908 0.029809332 -0.2439368 -0.12583664
000260 60 e5 bc bc ee f4 62 3e 7f c5 b9 3d 20 27 43 3e
       -0.023058593 0.22163746 0.090708725 0.19057894
000270 9a 38 c5 bd f2 d7 02 be 3f 27 ec 3d 48 3e 01 3c
       -0.096299365 -0.12777689 0.11530923 0.007888384
000280 27 30 c4 3e 2b f9 47 3e ec de 77 bd 30 d5 26 bd
       0.38317987 0.19528644 -0.06051533 -0.040730655
000290 44 ac d0 bd 07 a9 ad 3e 31 e8 50 bd ae 37 ee 3d
       -0.10189107 0.3391802 -0.051002685 0.11631714
0002a0 83 62 99 3d 06 35 1f be 1d e6 d1 bc 8c 9a e3 bd
       0.07489493 -0.1554757 -0.025622422 -0.11113462
0002b0 68 98 db be 3f b6 68 3e 38 db e9 bd 08 7a 2d 3e
       -0.42889714 0.22725771 -0.11418766 0.16941082
0002c0 86 ea 7a 3e 5c e4 e8 3d 75 1b 1c 3e 77 25 d6 3d
       0.24503526 0.11371681 0.15244849 0.104563646
0002d0 ff ef 64 be 55 5a db 3d 32 71 0e 3e a6 e5 9a 3e
       -0.22357176 0.10710589 0.13910368 0.30253333
0002e0 16 9c 6b be b0 73 ce 3b a2 9e be 3d 79 99 c6 3d
       -0.23008761 0.006300412 0.093076006 0.09697241
0002f0 52 bd d8 bd 33 93 ca 3c c1 40 76 3d 52 a1 ee 3e
       -0.10582985 0.024728393 0.060120348 0.46607453
000300 08 e4 39 be 92 e9 b8 3e c7 e3 3f 3e 0e eb 8e 3d
       -0.18153393 0.361157 0.18739234 0.06978427
000310 2d 9b 2a 3e 52 ac 0a bd 4e 61 c1 3c 40 49 3b 3b
       0.16660757 -0.033855744 0.023605969 0.0028577596
000320 01 26 fb 3d 05 bd b3 bd e8 57 0c 3e 16 d3 82 3d
       0.12263108 -0.08776287 0.13705409 0.06387918
000330 f4 44 bd bd 7c c9 0b 3e 98 88 b0 3b 42 a8 06 be
       -0.092416674 0.13651079 0.005387377 -0.13150123
000340 de c2 f8 ba 89 d7 76 be 17 26 44 bd 5c 3f c3 3d
       -0.0018978973 -0.24105658 -0.047887888 0.09533569
000350 d8 b0 0c be eb db b9 3c f0 99 5d 3d fb 6b 03 be
       -0.13739336 0.022687873 0.054101884 -0.1283416
000360 ed 2b 23 3c 0e 91 ca 3d 29 01 d2 be ea 38 4a 3c
       0.009959203 0.09890948 -0.4101651 0.012342671
000370 56 02 2a be dc 8f 03 be bd 96 61 be 4c 99 82 3c
       -0.16602454 -0.12847847 -0.22030158 0.015942238
000380 86 a1 b4 3c 40 41 84 3e 94 d6 30 be 82 c8 01 3d
       0.022049677 0.25831032 -0.17269355 0.03168536
000390 e5 b1 9c 3d 28 2d c1 3d 4e 79 da bc 7e ef 31 be
       0.07651118 0.09432441 -0.02666917 -0.17376515
0003a0 0a fe 89 be e6 df 85 bc 6e 76 1a bc 4a 0d ec 3d
       -0.2695163 -0.016342115 -0.00942765 0.11525972
0003b0 78 29 92 bd 23 18 54 3e d0 90 45 be 7f 8a df 3d
       -0.07136816 0.20712332 -0.19293523 0.10915088
0003c0 a2 a6 28 be 45 87 00 3e 1e 8f 99 3e b1 dd 3d be
       -0.16469815 0.12551601 0.29992002 -0.185416
0003d0 5a 66 04 bd 14 f3 30 3c fe 3a 82 3d d1 4c fb 3d
       -0.032324173 0.010800142 0.06358908 0.12270511
0003e0 32 20 95 be 60 b0 c1 bd eb 69 90 bd 63 4d 0c 3e
       -0.29126126 -0.09457469 -0.07051452 0.13701396
0003f0 a5 20 cc 3d 83 07 5a be 38 f0 a6 bd 94 53 73 3d
       0.09967164 -0.21291928 -0.08151287 0.05940588

lstm.bias_ih_l0 f4 [192]
000000 03 7f 1f 3e fa ec 79 be 5a ad d9 bd 74 19 c7 3d
       0.15575795 -0.24406806 -0.10628767 0.09721652
000010 96 e4 eb bd 93 34 8e be 95 3a 27 3e 56 99 b8 bd
       -0.11518209 -0.27774486 0.16330941 -0.090136215
000020 b4 8a bf 3d 54 79 1e bc 90 c1 38 be 2f 21 53 3c
       0.093526274 -0.009672482 -0.18042588 0.01288633
000030 a7 0f 05 bd 35 bb b4 3d c4 4b 70 3e cd 24 28 3e
       -0.03248563 0.088247694 0.23466402 0.16420288
000040 4a 21 fc bc cc 71 78 3e d4 c2 60 3d af 16 13 be
       -0.030777592 0.2426216 0.054873303 -0.14364122
000050 bf fc 92 bd e8 32 21 bd 85 34 03 3e 2d e7 46 3d
       -0.07177114 -0.03935519 0.12813003 0.04856031
000060 01 3c 92 3e 00 79 44 3c 0f 39 24 be 13 8b 89 3e
       0.28561404 0.011991739 -0.16037391 0.26863918
000070 1f 8e 57 bd 37 b3 ee 3d 6b 21 6e be d4 eb 92 3c
       -0.05262577 0.11655276 -0.23254935 0.017934717
000080 c6 27 7c be 2c f8 36 be 4e e6 a4 be ca 4b 8a bd
       -0.24624547 -0.17868108 -0.3220696 -0.06752737
000090 7b b8 d0 3d af a9 c0 be 64 0d 77 be ac 59 2a 3e
       0.10191437 -0.37629458 -0.24126202 0.1663577
0000a0 fd 57 8a bd fc bd 71 3e 31 a7 db bd 8f 6f e8 bb
       -0.06755064 0.2360763 -0.107252486 -0.007093377
0000b0 f2 ee 92 be 26 62 d4 3d fd c4 db 3d 0c 10 cf 3d
       -0.28697926 0.10370283 0.10730932 0.101104826
0000c0 b9 f5 40 be aa 59 47 3e a2 09 96 bd 84 43 06 be
       -0.18843736 0.19467798 -0.07326056 -0.13111693
0000d0 3c 48 6f bd ae 67 0e be c6 bd a2 b9 26 57 2c be
       -0.058418497 -0.13906738 -0.0003104044 -0.1683012
0000e0 4b c4 2b bd a9 5f 96 3c 74 0b 30 3e bd b3 6a 3d
       -0.041935246 0.018356161 0.17191869 0.057300318
0000f0 44 d3 2c be 68 fb 64 3c ca b3 28 3e eb 66 c3 bd
       -0.16877466 0.013975956 0.16474834 -0.095411144
000100 40 2c 29 be f3 b6 4d 3e 57 53 aa 3c d8 d6 a5 3e
       -0.16520786 0.20089321 0.020791693 0.32390475
000110 ec c3 c9 bd 76 dd 62 be 8c 9d 6b 3d 43 9f 00 be
       -0.09851822 -0.22154793 0.057523295 -0.12560754
000120 0e 1b d8 bc f2 8a 12 3e fb 62 e5 3d 41 27 a1 3d
       -0.026380088 0.14310816 0.1120052 0.07868815
000130 40 a9 c1 3e b4 a9 12 be fe 0e c3 3d 07 10 81 3d
       0.3782444 -0.14322549 0.09524344 0.06301885
000140 98 e7 b9 bd 71 cc 60 3d 0c 72 bc bd ce f9 e6 bd
       -0.09077376 0.05488247 -0.0920144 -0.11278115
000150 07 de 37 3e 89 90 20 be 24 29 30 be c3 10 1f 3e
       0.1795579 -0.15680136 -0.17203194 0.15533738
000160 9d 6a 12 3e 10 e1 b7 3d ac bf c8 bd fa 0f 92 be
       0.14298482 0.08978474 -0.098021835 -0.28527814
000170 5b 30 4b be f3 45 ac bd 95 05 c1 bd 82 05 f2 bd
       -0.19842665 -0.08411779 -0.09424893 -0.11817457
000180 f0 24 07 3d 89 27 b8 bb bf 32 d1 bd a9 9f 98 bd
       0.03299421 -0.0056199473 -0.10214757 -0.07452328
000190 4b f7 04 be 1b 5e 01 be ec 68 87 3d 66 82 4d bd
       -0.1298496 -0.12633555 0.06611809 -0.050173186
0001a0 3b 7f c2 bc ae fe 0b be 49 bb 77 ba ef c1 7e 3e
       -0.023742309 -0.13671371 -0.000945021 0.24878667
0001b0 db f7 34 3e b0 a8 97 bc ef f7 61 bc 96 9c 43 3e
       0.17672674 -0.018513054 -0.013792022 0.19102702
0001c0 f5 9a 1e bd f6 dd e9 bd 76 99 d6 bd 15 78 28 be
       -0.038721997 -0.11419289 -0.10478489 -0.16452058
0001d0 5c 0b 58 3d 83 78 ac bb d4 cf 80 3d 00 eb d0 3d
       0.05274521 -0.0052633896 0.0628964 0.10201073
0001e0 6b 9d 21 bd 73 05 68 3d 4b b3 95 3d 4c df 07 3e
       -0.039456766 0.05664582 0.07309588 0.13268775
0001f0 74 82 67 3c 24 7f 0a 3d fd 7e 45 3e 2a f0 e8 3d
       0.014130224 0.033812657 0.19286723 0.11373933
000200 6d 41 5c bd 8a 64 f3 bc f1 4b ae 3d a8 60 ea bd
       -0.053773332 -0.029711027 0.085105784 -0.11444217
000210 52 ae 2e 3e a3 cf 20 bc e3 43 c1 bd 1a 9c 43 bc
       0.17058685 -0.009815129 -0.094367765 -0.011939073
000220 fd e0 88 bd 8a 77 0e be 0b ff ff 3d ea 71 71 3d
       -0.06683538 -0.13912788 0.124998175 0.058946528
000230 bb c5 0c 3d 58 9d 1c be 4c 1e aa bb e5 41 66 3d
       0.034368258 -0.15294397 -0.0051916 0.056215186
000240 a8 98 f4 bc 46 f5 5a be 05 f2 2d be 4e 46 4d 3e
       -0.029857948 -0.21382627 -0.16986854 0.2004635
000250 89 28 01 be 7b 06 52 be c1 64 e5 3d b5 0e 0d 3e
       -0.12613119 -0.20510285 0.11200858 0.13775142
000260 9d 9f d4 3c 92 90 12 be a5 a8 58 bb b8 ac d4 3d
       0.025955016 -0.14312962 -0.0033059504 0.10384506
000270 6f e1 f3 bd 0e 28 12 3d c9 ac bf 3e 33 6f 3a 3e
       -0.119082324 0.03568273 0.37436512 0.18206482
000280 f9 b5 c3 bd 2e 27 cc 3e f2 48 1d 3d 2c 38 b4 bc
       -0.09556193 0.39873642 0.038399644 -0.021999441
000290 1f 0b 1f bc 94 60 3f bd 8e 43 0b bd fd f3 9d 3d
       -0.009707241 -0.046722963 -0.033999972 0.07712553
0002a0 76 d8 3f 3e af 8c 02 be 27 67 92 3c 43 18 eb 3d
       0.18734917 -0.12748979 0.017871452 0.11479237
0002b0 5c 0f 76 3d 9c 0d 0b 3e df f4 14 be 32 bb 05 bc
       0.06007324 0.1357941 -0.14546536 -0.008162307
0002c0 e3 8f 85 be 36 9a 87 be a2 b4 e2 bd 12 57 1c bb
       -0.2608634 -0.2648484 -0.11069609 -0.002385561
0002d0 24 6d b5 3d 67 0c 0d be ab e5 92 be d9 fc 2b 3d
       0.088587075 -0.13774262 -0.28690848 0.04198918
0002e0 9b 7e 68 be ea 01 01 3e 78 dc 07 bc 6c cc 51 be
       -0.22704546 0.12598386 -0.00829231 -0.20488137
0002f0 64 a8 88 be 12 70 d3 3c 86 d3 27 3d 7f eb 6b bd
       -0.26690972 0.025810275 0.04097321 -0.057597633

lstm.bias_hh_l0 f4 [192]
000000 6d 78 aa 3d 21 21 3b be 7b da a8 3d 8e a4 08 3d
       0.08323751 -0.18274356 0.08244797 0.033360057
000010 70 43 8d bd fc a2 85 be c2 d4 6f 3e 2e cd 0c be
       -0.06897628 -0.2610091 0.23421004 -0.13750145
000020 5f 02 27 3e f1 76 3c 3d f4 f2 49 3d 3d c8 7e 3e
       0.16309498 0.04601187 0.049303964 0.24881072
000030 08 e3 ba 3d 83 a2 14 3e cf da 09 3e 40 73 8d 3e
       0.09125334 0.14515118 0.13462375 0.2762699
000040 f5 e8 a4 3c 86 07 80 3e 90 8f 58 bd 56 d2 42 3d
       0.020130614 0.2500574 -0.052871287 0.047563873
000050 52 b1 63 bd 76 2f 6a be 4a 7f 37 bd f3 79 04 3e
       -0.055589028 -0.22869667 -0.044799127 0.12937145
000060 5e 72 88 3e 24 d3 8b bb 69 72 f5 bd f6 6b 99 3e
       0.26649755 -0.0042671133 -0.11984713 0.2996518
000070 b2 57 56 3d 6d 7e 63 3e 8d b9 b1 bd a6 76 a1 bd
       0.052329727 0.22216196 -0.08677969 -0.078839585
000080 30 e8 7b be 0d 6f 37 be 32 77 8d be 1f d8 61 3d
       -0.24600291 -0.17913456 -0.2763 0.05513775
000090 0e 51 0e 3e ec 14 04 be 4c 11 06 be 7f 5d 55 3d
       0.13898107 -0.12898606 -0.13092536 0.052091118
0000a0 a7 84 97 be 7d 47 62 3e 1b 69 dd bd 53 1f 46 bc
       -0.29593393 0.22097583 -0.10811063 -0.012092429
0000b0 01 8d 26 be 86 58 80 3e f2 39 36 3d ad 61 f8 bd
       -0.16264726 0.25067538 0.044488855 -0.12128005
0000c0 99 4a 8d bd e6 47 19 bd 68 d0 e6 bd ae 22 7f bd
       -0.06898994 -0.037422083 -0.11270219 -0.062288933
0000d0 7f 97 46 be 53 f4 97 bd 2b 3d bb bc 28 35 a9 bd
       -0.19393729 -0.07419648 -0.022856316 -0.08262092
0000e0 5f 53 13 be 84 4e 9e bd 96 e3 4a 3e 14 fb d9 bd
       -0.14387272 -0.077298194 0.1981338 -0.106435925
0000f0 ec aa 47 be c0 99 03 bd 7e 9e 29 3e e7 c9 82 bd
       -0.19498795 -0.03212905 0.16564366 -0.06386166
000100 61 e6 87 bd 8c f8 14 3e 79 a1 14 bc 28 3b 89 3e
       -0.06635738 0.14547938 -0.009071701 0.26802945
000110 31 57 e2 bd 27 e2 39 bd f9 5a 29 3c 0e 80 17 3e
       -0.11051787 -0.04538169 0.010336631 0.14794943
000120 3a 9b 25 bd 2a 3e 26 3d e5 f2 8d 3d 4b 7c f0 bd
       -0.04043124 0.040586628 0.06931094 -0.11742457
000130 d7 65 8a 3e 60 e7 b2 bd 38 f8 16 3d e6 ef 84 3c
       0.27030823 -0.087355375 0.036857814 0.016227674
000140 e7 58 85 3c 4a dd 01 be e6 4a 74 3d ad 43 15 be
       0.016277744 -0.12682071 0.05964174 -0.14576598
000150 ac c5 0d 3e b5 1d 00 3d d6 91 e9 3c 62 0a 8f bd
       0.13844937 0.03127833 0.028511923 -0.06984402
000160 af c4 01 3e c0 94 28 3e dc ce 71 3c 41 70 2d be
       0.12672685 0.16462994 0.014758792 -0.16937353
000170 e0 f2 fa bc 7c 7b e4 bd 48 13 8d 3d 9e 71 05 be
       -0.03063339 -0.11156365 0.06888443 -0.13031623
000180 96 6e 55 3d fb c9 8a 3d 60 cf 1a be 3c b7 e3 bd
       0.052107416 0.06776806 -0.1511817 -0.111189336
000190 22 fd aa bd 90 ea 11 3d cc 19 13 3e 36 ac b9 bd
       -0.083490625 0.035624087 0.1436531 -0.0906605
0001a0 3b 61 8a be 88 98 c2 bd c0 9d 27 3d 99 8a ab bc
       -0.27027306 -0.09501749 0.040921926 -0.020940112
0001b0 b6 22 37 3d 60 80 04 3e 7e 1e fc 3c 53 2b e7 3c
       0.044710837 0.12939596 0.030776259 0.0282189
0001c0 39 7f 6b bb eb c7 c4 3d c0 df 00 be 5f f2 af 3b
       -0.0035933985 0.09608444 -0.12585354 0.005369469
0001d0 41 0a 1d 3e ff 89 27 bd b9 38 54 3e 01 cb aa 3c
       0.15335943 -0.040903088 0.20724763 0.020848753
0001e0 c5 55 09 bd 20 e7 99 bd 1b 24 72 3b 4f 10 50 3d
       -0.03352906 -0.07514787 0.003694779 0.050796803
0001f0 f7 8a 68 3d e8 e4 31 bd 50 8f 8f bc 30 d2 3b 3d
       0.056773152 -0.043431193 -0.017524391 0.045854747
000200 04 c5 80 3d f2 bf af bd 66 08 0d 3d 8d 63 ff bd
       0.06287578 -0.085815325 0.034431837 -0.1247016
000210 8a b1 88 bd ae 70 a9 3c b2 2f cf 3d a8 73 1f 3d
       -0.06674488 0.020683613 0.10116519 0.038928658
000220 69 98 1f 3c f3 bc 02 be 52 7f 8c 3d a5 b2 8c bd
       0.009740927 -0.12767391 0.06860222 -0.06870011
000230 41 ae 82 bc a6 2f a0 bc 99 1a 69 3e 23 4e 12 3d
       -0.015952231 -0.01955397 0.22764052 0.03571905
000240 b8 65 84 3d 98 01 44 be 02 82 3c bd aa b7 c3 3c
       0.06464714 -0.19141233 -0.046022423 0.023891289
000250 54 bf c2 bd 5e 85 21 be 9e bc 4f 3e a6 f7 a9 bd
       -0.09509149 -0.15773532 0.20286795 -0.08299188
000260 cc 47 6d 3e 46 16 1d be c5 eb 1a be 70 65 87 3e
       0.2317192 -0.15340528 -0.15129001 0.26444578
000270 eb 10 ce 3b 3d fa 59 3c 85 b4 99 3e e0 3b 0c 3e
       0.006288638 0.01330429 0.30020538 0.13694715
000280 6c d9 d6 3c da 32 3d 3e 16 19 e0 bd 22 dd 7d bb
       0.026226722 0.1847643 -0.10942285 -0.0038736542
000290 a7 c6 1f 3d 10 a3 70 3b c3 dd a5 3d ae 99 a6 bb
       0.03900781 0.0036718287 0.08098938 -0.005084238
0002a0 e3 3c eb 3d d9 35 b4 3c 44 d0 f5 3d b2 e2 88 3d
       0.114862226 0.021998333 0.12002614 0.06683864
0002b0 34 56 60 3e ac e1 18 3e fa 69 43 be e5 e3 34 3d
       0.21907884 0.14929837 -0.19083396 0.04416265
0002c0 d8 21 88 be bc db 93 bd 55 c3 6a be 64 68 57 3c
       -0.2658832 -0.072196454 -0.22926076 0.013147447
0002d0 a8 4f 6f 3e eb ec 4e be e7 27 80 be f8 68 06 3e
       0.2337023 -0.20207565 -0.25030443 0.1312598
0002e0 f2 c6 59 be e9 1b 33 3e bc 81 8e bd ba bd bc bc
       -0.21267298 0.17491116 -0.069583386 -0.023039687
0002f0 d4 2c dd bd 28 a1 d5 3c b4 7d f5 3d ab c8 2a 3d
       -0.10799566 0.026077822 0.119868666 0.04169528

lstm.weight_ih_l1 f4 [192, 48]
000000 60 6d 02 3d b5 5b bb 3e c0 40 5f 3e 6b 2d ac bd
       0.03184259 0.36593404 0.21802044 -0.084071
000010 1e a2 83 3d 6d 02 67 3d c1 35 37 be 9d a2 99 be
       0.06427406 0.056398798 -0.17891599 -0.30006877
000020 91 08 d4 bd 72 d0 fb 3d 1f 32 00 be 65 44 a0 3d
       -0.103531964 0.12295617 -0.1251912 0.07825545
000030 98 89 c4 be fc c1 72 3d b5 58 92 3d 20 46 6d bc
       -0.38386226 0.05926703 0.07145826 -0.014482051
000040 53 0c c6 3e 7e ad 5d 3d 00 aa 10 3e 21 c7 87 3e
       0.38681278 0.054120533 0.1412735 0.2651911
000050 88 1f b3 3a e0 1a 97 3e dc b9 04 3e 1d cd c3 bd
       0.0013666013 0.29512691 0.12961525 -0.09560607
000060 7f 5c 7f bd 58 3b 99 bd 77 90 a7 bc e4 16 a8 bd
       -0.06234407 -0.07482022 -0.020454628 -0.08207491
000070 8a ed de bd 3f 09 4c 3d 76 9b 17 3d 34 19 9e bd
       -0.10885151 0.049813505 0.037013493 -0.07719651
000080 d8 25 c8 3e 89 b7 80 3e 6e da 4a 3e 6f ad bb 3e
       0.39091372 0.25140026 0.19809887 0.36655757
000090 68 dd 33 bc 09 78 b0 3e e6 d4 b2 3d fa 47 a6 3e
       -0.01097808 0.3446658 0.087320134 0.3247679
0000a0 02 24 74 be b0 ba 5b bd 4d 5f a6 bd 86 08 9e 3e
       -0.23841861 -0.053644836 -0.08123646 0.30865878
0000b0 47 fa 18 be 0f 35 dc 3d 4a 4b e6 3d fd 01 a7 3e
       -0.14939223 0.107523076 0.11244829 0.32618704
0000c0 6e ce 04 be 6d e5 1d 3e 6b 89 ac 3e 45 17 4c 3e
       -0.12969372 0.1541955 0.33698592 0.19930752
0000d0 e5 c2 8a 3e 1c 13 6c 3d 5f 9a a7 be da 90 ee 3d
       0.27101818 0.05763541 -0.32734963 0.11648722
0000e0 27 1f 46 3e bd 2d fe bc 13 b1 1c 3c 20 6d e4 bd
       0.19347821 -0.03102767 0.009563702 -0.111536264
0000f0 9f a8 95 be b6 5e e6 bd 77 13 2d be 8f 1e 9a be
       -0.2923021 -0.112485334 -0.16901956 -0.3010144
000100 bf f0 6c bc 2d d6 6d be 91 04 b9 3d e3 bf 2f 3d
       -0.014461695 -0.23226233 0.09034074 0.042907607
000110 44 ea 77 be e5 74 a3 3d 98 73 a5 be 1d dc 8f be
       -0.24210459 0.0798128 -0.32314754 -0.2809762
000120 76 e4 95 bd 34 3a 6e be 13 bf a7 be ab d8 2b bd
       -0.07318966 -0.2326439 -0.32762966 -0.041954678
000130 89 53 ed 3c 35 46 05 3d 8e bc 70 bd f3 33 31 be
       0.028970497 0.032537658 -0.05877357 -0.17304973
000140 a3 68 ae 3d 6a 2f aa 3d 86 e6 7f be 0f cc b1 3e
       0.085160516 0.08309825 -0.24990281 0.34725997
000150 57 af 14 be bc 82 b0 bc 58 63 71 bc 06 f6 4d be
       -0.14520012 -0.021546714 -0.014733158 -0.20113382
000160 3f d0 95 3c 9b c2 9c 3e 84 41 3a be fe 8e d0 3d
       0.018287776 0.30617222 -0.18189055 0.101835236
000170 29 60 a9 bd 63 b5 a6 3e 98 ea bf be 2f f1 0a bd
       -0.08270294 0.32560262 -0.37483668 -0.033921417
000180 96 89 4d be cf cb aa 3e 85 67 ad 3d 1f 18 dd 3c
       -0.20072016 0.3335862 0.084670104 0.02698904
000190 1a 16 d5 3b 4d 83 06 3e 3d 54 44 3e 37 76 41 3e
       0.006502879 0.13136025 0.1917276 0.18892752
0001a0 d4 6c 07 3e bc b4 7c be 26 7c de bc e2 95 96 bd
       0.13225108 -0.2467832 -0.027158808 -0.07352807
0001b0 49 7d 8f 3d be ac 88 bd 11 8a 20 be bb c6 b5 bd
       0.07006318 -0.06673573 -0.15677668 -0.088757955
0001c0 95 25 a2 bd cf 88 66 bd 95 5f e5 bd fd 5f cd 3c
       -0.079173245 -0.056282815 -0.111998715 0.025070185
0001d0 a3 a0 3f 3c 10 65 cc 3d 8a 5b 56 3d fa 60 df bd
       0.011696014 0.09980214 0.052333392 -0.10907169
0001e0 80 49 d2 bd c0 ff a6 bd a8 78 92 be 7c b1 54 3b
       -0.10267925 -0.08154249 -0.28607678 0.0032454422
0001f0 0f 62 c5 3c c2 bb 4a be 28 53 3b be 6b 52 78 3d
       0.02409461 -0.19798186 -0.1829344 0.060625475
000200 0e ef 2e 3d 0b 8b 9c 3e 15 e6 2c 3c 6e f5 7a 3d
       0.04270845 0.3057483 0.010552903 0.061269216
000210 d5 36 ef 3d 15 17 19 3e 72 e8 8b ba b3 5c fd bd
       0.1168038 0.14950211 -0.0010674132 -0.123711966
000220 5c f1 69 be 41 01 63 be 3d 5d 04 be ef 8c b7 3d
       -0.22845978 -0.22168447 -0.12926193 0.08962428
000230 71 bc fb bb 66 cb 36 3e 19 62 22 be 8b e9 03 bc
       -0.007682376 0.17851028 -0.15857734 -0.008051286
000240 21 ea 0e be a2 f4 dc 3d 24 e9 67 3d 96 45 0e be
       -0.139565 0.107888475 0.056618825 -0.13893732
000250 59 a0 99 bd ce 88 cf 3d e5 b7 2f 3d 53 e5 71 be
       -0.07501287 0.10133515 0.042899985 -0.23622636
000260 b9 81 77 bb ae eb 2c bd 1a 43 48 3d 14 c8 c2 bd
       -0.003776653 -0.04221695 0.048892118 -0.09510818
000270 4a 83 3d bc b8 e2 59 bd 92 ea 3e 3d 38 50 97 bd
       -0.011566946 -0.05319473 0.046610422 -0.073883474
000280 a5 a3 06 3e af ff 42 be db c7 60 be 38 61 0e 3e
       0.13148363 -0.19042848 -0.21951239 0.13904274
000290 28 ff 84 b8 c8 02 6f 3e 9a a6 d5 3d 6a 7d 02 3d
       -6.341777e-05 0.23340905 0.10432167 0.031857885
0002a0 3b 16 be bd 6a 9f 10 be a7 13 ee bd a5 81 e7 bc
       -0.09281584 -0.14123312 -0.11624842 -0.028260062
0002b0 47 f8 03 bd 3c 86 fb 3c 4e 98 f7 3d be 99 d6 bd
       -0.032219198 0.030703656 0.12089597 -0.10478543
0002c0 af 67 0f 3e 74 a1 22 3e da a0 64 3c 13 a7 1b 3c
       0.14004396 0.15881902 0.013954366 0.009500283
0002d0 23 aa ab 3d a0 8d 36 3d f4 00 b1 bd 03 6b 27 be
       0.083820604 0.044568658 -0.0864276 -0.16349415
0002e0 d8 3f a9 bd 33 aa 79 bd 37 02 a7 3d ae f4 a4 3d
       -0.0826413 -0.06095333 0.08154719 0.080544814
0002f0 0b 21 59 be 0f a1 96 3d 99 41 0f be c0 b6 38 3e
       -0.21204011 0.07354938 -0.13989867 0.18038464
000300 95 a4 81 bd 03 af 44 3e a6 66 1c 3d e5 4c 28 3d
       -0.0633022 0.19207387 0.03818383 0.041088957
000310 3a 50 ae 3e d6 45 e1 3d 1e b8 53 bd 75 af 94 3d
       0.34045583 0.10999648 -0.05168926 0.07260028
000320 04 88 95 3d 36 f4 07 be a5 27 d5 3d b3 36 dd bd
       0.073013335 -0.13276753 0.10407952 -0.10801449
000330 89 e7 87 be 09 85 d3 3b 56 95 58 be 36 ec 17 be
       -0.26543835 0.006455068 -0.21150717 -0.14836201
000340 11 33 08 3e cf 72 04 be 1c 8f 06 be b6 91 f4 bb
       0.1330073 -0.12934421 -0.1314053 -0.007463659
000350 43 b8 d1 3d 62 97 99 bd a5 3b 53 be cc da 06 be
       0.10240223 -0.07499577 -0.20628221 -0.13169402
000360 84 94 59 be 67 99 80 bd 02 39 2a be 83 0b 83 3c
       -0.2124806 -0.06279259 -0.16623309 0.0159967
000370 63 39 2d 3e 14 b5 9d 3d 69 f8 8f be 28 67 5a bd
       0.16916423 0.077005535 -0.2811921 -0.053321034
000380 1e d1 fa bb 84 5f 03 3e 17 48 d7 bc 73 dc ef 3d
       -0.0076543232 0.12829405 -0.026279492 0.11711969
000390 8e 2e 59 bd bd 39 57 3d e8 5c 0d be a4 3f 05 bd
       -0.053022914 0.052545298 -0.13804972 -0.032531396
0003a0 61 d0 3a be 6c 10 0e 3c 21 51 ea bd 31 db eb 3d
       -0.18243553 0.0086709075 -0.11441255 0.11516417
0003b0 f6 28 b7 3d f9 5a 5d 3d a5 f6 85 be 4e bd a2 3d
       0.089433596 0.054041836 -0.26164737 0.07946263
0003c0 0a 3d 02 be 6e a4 5e bd 82 7b a8 3d d4 56 16 3e
       -0.12718597 -0.05435603 0.08226682 0.1468156
0003d0 e7 bb f0 bc 96 5b 31 3c c5 de 59 3e 73 77 29 3e
       -0.029386474 0.010825058 0.21276386 0.16549473
0003e0 c0 8f 60 3d 34 f7 2e 3d 6c d0 eb bc d8 cf fd bd
       0.05482459 0.04271622 -0.028785907 -0.12393159
0003f0 6b 7f 46 be 0e e8 f2 3c b1 c9 a6 be 04 53 5c be
       -0.19384544 0.029651668 -0.32575753 -0.21516043

lstm.weight_hh_l1 f4 [192, 48]
000000 e7 8e 47 3d 20 4e bf bd 5a ed ea bc 11 53 b7 be
       0.048720267 -0.09341073 -0.028677631 -0.35805562
000010 bf 83 36 be f5 86 e0 3d 36 74 22 bd f5 f8 2d bc
       -0.17823695 0.10963241 -0.03966161 -0.010618438
000020 2e dd 23 3d aa 75 80 be 1a f3 c5 bd 1d 40 fd 3d
       0.040005855 -0.2508977 -0.096655086 0.12365744
000030 00 36 41 3e cd 2e d5 bc 6e 62 ba be 1b da 3c 3d
       0.18868256 -0.026023293 -0.3640322 0.04610644
000040 00 05 88 bd bf 00 96 3d 2c 97 ff 3d b8 1b 05 be
       -0.06641579 0.07324361 0.124800056 -0.12998855
000050 ed 28 06 3e 30 68 38 3d 5e ce 0b bd 1e 09 ce bd
       0.1310155 0.045021236 -0.034132354 -0.10060333
000060 c4 3c 14 be 26 ca ee bd a3 79 0b be 0d 57 e5 3a
       -0.14476305 -0.116596505 -0.1362062 0.0017497257
000070 44 c7 d1 3d df f0 da 3b 59 0b 1b 3e 7d d3 ee bc
       0.10243085 0.006681546 0.15141048 -0.02915358
000080 2c 8d be 3c be e3 6d be f4 7b 70 3d 39 1d bb 3d
       0.023260675 -0.23231408 0.05871196 0.09136433
000090 2c ac 43 3e 94 b4 05 3e c1 e4 59 3e 88 62 11 3e
       0.19108647 0.13057166 0.21278669 0.14197743
0000a0 7b dc 2b 3d 30 8c 3a bd 8e 30 8f bb d1 33 9d 3d
       0.041958313 -0.04554385 -0.004369802 0.07675899
0000b0 23 38 b2 bd 69 ef 65 be f6 73 1e 3e 70 6c 0f 3d
       -0.087021135 -0.22454609 0.15473923 0.035015523
0000c0 7d 9c 75 3d ae f4 11 be 20 df e8 bd db f7 b5 bd
       0.059963692 -0.14253494 -0.11370683 -0.08885165
0000d0 fb 7c db 3c f6 7d 3a 3e 99 2e 04 be 6d c1 2e bc
       0.026792994 0.18212113 -0.129084 -0.0106662335
0000e0 fe fd a3 3d db d3 49 3e 04 4c 17 3d d8 d1 cf 3c
       0.080074295 0.19709723 0.03693773 0.025368616
0000f0 00 aa b4 3d 07 a6 7d bd 52 b7 80 bd c9 19 92 bd
       0.088214874 -0.061925914 -0.062849656 -0.071338244
000100 79 78 0d be a4 db 77 3d 5e c4 12 3e 39 a2 0f 3e
       -0.13815488 0.0605122 0.1433272 0.14026727
000110 e6 63 b6 3d 46 69 ca bd a1 d4 b4 3d 93 06 d2 3d
       0.08905773 -0.098833606 0.08829618 0.1025516
000120 c6 cd 4e 3d 2f 52 b0 3d 89 3e 7c bd 49 d1 8e 3c
       0.05048921 0.08609425 -0.061583076 0.01743378
000130 35 73 06 3e 06 ff 15 be 3f 15 cc 3c 10 61 fb bc
       0.13129885 -0.14648065 0.024912475 -0.030685931
000140 a9 33 2f 3e 72 ff 94 bd 43 ed ac bd af 59 ab bd
       0.1710955 -0.07275285 -0.084436916 -0.08366715
000150 32 26 80 bd d3 45 c9 3d bc 6e 29 3e 48 05 d8 bd
       -0.06257285 0.09827771 0.16546148 -0.10547882
000160 1f 75 07 3e 5d 0f b8 bd 85 74 6e 3e e6 6f 9a bd
       0.13228272 -0.08987305 0.23286636 -0.07540874
000170 64 5f ed 3d e1 0b 93 bd 3b 8b 8b bd a9 99 14 be
       0.1159046 -0.0718 -0.068136655 -0.14511742
000180 6a a1 ba bd c4 10 4c bd 71 92 57 be 7a 3c 3b bd
       -0.091128185 -0.049820676 -0.21051957 -0.04571197
000190 3a b8 00 be 95 a9 1c be a5 18 b3 3c 70 af 8e bd
       -0.12570277 -0.15299065 0.021862337 -0.06967056
0001a0 1b 0e 5a 3d b6 91 20 bd c0 c6 30 3c 7f 7a df bc
       0.05323611 -0.03920146 0.010789573 -0.02728009
0001b0 b9 26 08 bc 6f 7b bd 3d 1f d8 a7 3c 1f fa a7 bd
       -0.008310013 0.09252059 0.020488797 -0.08202004
0001c0 db e5 2a be a5 19 e0 bd 17 6f 65 3c 09 c0 6c 3e
       -0.16689245 -0.10942391 0.014003537 0.2312013
0001d0 ca d1 25 bd db 3a 8e bc a0 e4 8a bd 5a 12 de bc
       -0.040483274 -0.017362049 -0.06781888 -0.02710836
0001e0 c7 6f 27 3c 29 3b 06 be 1c a9 98 bd 64 49 f5 3c
       0.010219521 -0.13108505 -0.0745413 0.029942222
0001f0 9e 21 63 3e 82 24 e1 bc a7 5b 4a 3e a9 be 99 bc
       0.22180793 -0.027483229 0.19761525 -0.018767672
000200 b2 1e b2 3d 35 6c 58 3d 27 9c 1c 3d 23 a7 cd bd
       0.08697261 0.05283757 0.038234856 -0.100416444
000210 79 74 15 3e 79 75 d7 bd ef 71 98 3d 72 d0 94 bc
       0.14595212 -0.10520453 0.07443606 -0.0181658
000220 ba 55 e8 bc 9b 72 80 bd 6a af 73 3e c0 b7 46 be
       -0.02836119 -0.06271859 0.23797384 -0.19406033
000230 17 03 3a 3e dc 2d ec bd f5 e0 54 bd d4 27 07 be
       0.18165241 -0.115321845 -0.05197235 -0.13198787
000240 58 47 4f 3d 45 5d 0d 3d e2 81 0f 3d 20 44 98 be
       0.050605148 0.034512777 0.035035975 -0.29739475
000250 f7 2d da bd 94 b2 14 3e 23 e6 a3 3d d0 04 39 bd
       -0.10653298 0.14521247 0.080028795 -0.045170605
000260 b5 fb a7 bc 5e 60 42 be c9 42 2e be f6 01 b8 3d
       -0.020505765 -0.18982074 -0.17017664 0.08984749
000270 6f bd 02 3e da 85 b8 bd 43 48 55 be 2c f2 bb 3d
       0.12767576 -0.09009905 -0.20828347 0.0917705
000280 32 ea 4b be 95 62 2c 3e c8 07 d3 3d 42 17 28 be
       -0.19913557 0.16834481 0.103042185 -0.16415122
000290 55 a1 37 3d 29 ce 8d bd fc f1 70 3d eb da a5 3d
       0.044831593 -0.069240876 0.058824524 0.08098396
0002a0 b3 99 68 be 21 21 ae 3a e1 19 e8 bd 06 52 e8 bc
       -0.22714882 0.001328502 -0.11333061 -0.028359424
0002b0 30 bc 1a bd 30 d4 04 3e 64 6f 69 3d da 06 fe 3d
       -0.037777126 0.12971568 0.056990996 0.124036506
0002c0 64 ae e1 3d 11 d1 f5 3d 09 4e 9d bb 77 da 08 bc
       0.110195905 0.12002767 -0.0048005623 -0.008352867
0002d0 4e 22 1a be c3 48 0b 3e 4e 20 ca bd d6 7f ee bd
       -0.15052149 0.13601975 -0.09869443 -0.116454765
0002e0 0c 22 c3 3c 5f cd 44 3d 3b 2f b3 bd 90 03 b7 3d
       0.023819946 0.04804742 -0.08749243 0.08936226
0002f0 ab cb 9d 3d 59 fd 15 be da 07 05 3d ea 78 09 bd
       0.07704862 -0.14647426 0.03247819 -0.03356258
000300 6b 63 78 be 62 df 1c be c1 fc 0f bc fb 3b 1d 3d
       -0.24256675 -0.15319589 -0.008788289 0.03838728
000310 87 71 21 be 8c c3 35 3e 81 cf 74 be 36 c1 fa bd
       -0.15765963 0.17750376 -0.23907281 -0.12243883
000320 46 23 ab 3d f0 08 a3 3e c4 9c bf 3d b3 d1 46 3d
       0.08356337 0.31842756 0.093560725 0.04853983
000330 29 64 42 bd 4f fa 2c 3e d0 d6 49 3d 67 75 0a be
       -0.0474588 0.1689236 0.049277127 -0.13521348
000340 75 22 8c 3b d2 54 87 be 86 2c 5e 3d d4 5a 82 bd
       0.0042765685 -0.264319 0.05424168 -0.0636498
000350 7c e6 65 3c 07 81 4a 3d 2b 64 1e bd 9b 56 e9 3d
       0.014032003 0.049439456 -0.038669746 0.11393472
000360 82 8e 3b 3d 55 ad aa 3d ff 67 a3 bd d4 ea 01 be
       0.045790203 0.08333842 -0.0797882 -0.12687236
000370 75 86 0b 3e e7 d2 80 bc 62 e5 fc 3c 9a 40 85 3d
       0.1362551 -0.015725566 0.030871097 0.065064624
000380 50 d0 36 3e 86 4a 7b bd 10 19 e7 3d 37 37 d7 3c
       0.17852902 -0.061350368 0.11284077 0.026271446
000390 7c 6d aa 3d ae 48 f9 bd e2 97 34 3c 06 85 9a bd
       0.08321664 -0.12172066 0.01102254 -0.075449035
0003a0 95 48 d7 bd 81 52 ce be 48 2b 9b 3d a0 1a 0a 3d
       -0.10511891 -0.4029732 0.075766146 0.033716798
0003b0 f1 36 73 bd bd 5d 39 bd 5e 84 ab 3c 13 c4 17 3c
       -0.059378568 -0.04525541 0.020937141 0.009263056
0003c0 c7 73 7d bd 6a 85 3d be b5 04 84 be b4 d6 a1 bd
       -0.061877992 -0.18507925 -0.2578484 -0.079022795
0003d0 48 92 09 3d e5 b5 22 3d 49 f2 21 be 14 07 9f 3c
       0.03358677 0.03972425 -0.1581508 0.019412555
0003e0 8a 39 af 3d 51 6a 33 bd 1a e0 8c 3d ac f8 2d bb
       0.085558966 -0.043802563 0.068786815 -0.0026545925
0003f0 07 f5 0b 3d 77 40 17 3e ef f7 4a bd 8b b1 ad bd
       0.034169223 0.14770685 -0.049552854 -0.08481129

lstm.bias_ih_l1 f4 [192]
000000 04 27 b0 bd 2e 4c 20 bb b6 e1 26 3e 25 d6 cd 3c
       -0.08601192 -0.002445947 0.1629704 0.025126526
000010 bc 10 a5 3d c5 92 60 bd 7f c5 e2 3d 98 c6 07 3e
       0.080598325 -0.05482747 0.11072826 0.13259351
000020 da 6c 69 bc d1 be 06 be bf d8 1a 3d e6 a1 2a be
       -0.014247144 -0.13158728 0.03780436 -0.16663322
000030 b4 dc 3d 3e ca 16 33 3e 12 08 25 3e 2b e8 ba 3d
       0.18541223 0.17489162 0.1611636 0.09126314
000040 09 a5 66 3d 0d dd 0f be 17 b9 06 3e 5a 48 03 bd
       0.056309734 -0.14049168 0.13156544 -0.03205142
000050 20 91 dd 3c 8e e2 e3 3d 05 5f 50 3e 34 6b 69 3e
       0.02704674 0.11127196 0.20348747 0.22794801
000060 51 90 28 3e 17 d0 8f bd 90 e4 4b 3e 9f 4f f8 3d
       0.16461302 -0.07022112 0.19911408 0.121245615
000070 6b 1e 4e bd b2 da 04 3e 0e 17 cd 3e b9 20 2b 3e
       -0.050321978 0.1297405 0.40056652 0.16711701
000080 03 5d 9a bd d6 c7 45 3e 7c ae f7 3d 3d bf 4b 3e
       -0.07537272 0.19314513 0.12093827 0.1989717
000090 7d 3f 06 3d 75 fc 79 be 5c 3e cf 3d 27 3d 58 be
       0.03277539 -0.24412711 0.10119316 -0.21117078
0000a0 89 18 61 3e 87 19 93 bd 10 1b b3 bd cc b9 84 3e
       0.21982016 -0.07182603 -0.08745396 0.25923002
0000b0 0f 8b 1e bd 85 c7 e4 3d f3 9b a2 3c 59 11 dc bc
       -0.038706835 0.11170868 0.019849753 -0.02686374
0000c0 3c 89 ff bc 2a cf 42 be b7 71 8d bd 32 c2 77 be
       -0.031193368 -0.1902434 -0.06906455 -0.24195173
0000d0 f9 a7 00 be 14 50 99 3d e0 9d c2 bd 77 58 f5 3c
       -0.12564076 0.07485977 -0.095027685 0.02994941
0000e0 6f a9 bd 3c aa 11 9f bd 94 b6 bf 3c c0 b9 4a 3b
       0.023152081 -0.07767041 0.02340249 0.003093347
0000f0 cf 3d d1 bc ba 0f 55 be 1c d5 2b be e3 77 f3 3c
       -0.025542168 -0.2080678 -0.16780514 0.029720252
000100 f0 1a 46 bd 4c 12 5e be b3 ba 28 be fc d8 a3 bd
       -0.048365533 -0.21686667 -0.1647747 -0.08000371
000110 3f 7c ba 3d 1f 2e fa bd 69 4c 2c be 18 0d 04 bd
       0.09105729 -0.12215828 -0.16826023 -0.03223905
000120 35 df b5 bd 8a 83 2c bd d4 69 e9 bd 1e 8c 80 3c
       -0.08880464 -0.042117633 -0.11397138 0.015691813
000130 37 13 27 be 86 41 5e be 22 f9 9c bd 49 73 00 3e
       -0.16315924 -0.21704683 -0.07664706 0.12543978
000140 ec 9a 19 be c4 7d 22 be a2 cb cd bc e9 4f 64 bc
       -0.15000504 -0.15868288 -0.025121514 -0.013935068
000150 c3 23 2e 3d 6e 58 9e bc c9 04 06 be 85 c2 51 bd
       0.042514574 -0.019329276 -0.13087763 -0.0512109
000160 d8 09 0d be ec 28 a9 3d 44 0e 81 3d 1d ab c4 bd
       -0.13773286 0.08259758 0.06301549 -0.0960295
000170 8a 09 eb 3d 87 30 e1 bd b9 21 3b be ef 7c 23 be
       0.11476429 -0.10995584 -0.18274583 -0.15965627
000180 a8 f2 f0 3d b5 85 56 3d a2 fc 97 3d e4 a0 e9 3c
       0.11765033 0.052373607 0.07421233 0.028519101
000190 1b a1 81 bd 7f d9 ba 3d 02 88 97 3c b0 16 90 3c
       -0.063295566 0.09123515 0.01849747 0.017588943
0001a0 a1 73 f2 bd 2e 43 e9 3d 95 98 52 be e2 04 78 bd
       -0.11838461 0.11389767 -0.20566018 -0.06055153
0001b0 54 ed fc 3d 4e 1f aa 3d 1f 66 57 bc f4 eb 8c 3d
       0.12349954 0.08306752 -0.013146906 0.06880942
0001c0 ad a0 56 3d 94 aa 13 be 4a 40 08 bd 7b d7 17 be
       0.052399326 -0.14420539 -0.033264436 -0.14828293
0001d0 5b 20 d3 3d ef 9b d3 bc 6e 98 cf 3d 7a 89 89 3e
       0.10308906 -0.02583119 0.101364955 0.268627
0001e0 23 1a 38 3d 42 15 97 bd e6 c3 b6 3d 6d c7 1b be
       0.0449468 -0.073771015 0.089240834 -0.15212794
0001f0 f2 22 5f 3d 93 1d 9f bc 61 04 89 bd 58 1f 0f be
       0.054476686 -0.019423282 -0.06690288 -0.139768
000200 06 81 0b be 01 e7 8a bd 6b 11 ca bd 46 dd 8f 3d
       -0.13623437 -0.06782342 -0.098666035 0.070246264
000210 f7 5c 31 be 6f 6a 6b bd e1 7f 5e bd 00 bb d6 bd
       -0.1732062 -0.05747455 -0.054321174 -0.10484886
000220 da 91 02 3c 4a 87 a6 bd 7d cb 04 3d cb 34 80 3c
       0.007969344 -0.08131273 0.032420624 0.015650174
000230 33 01 b1 bd 3c 58 bd 3d c5 c8 46 bd f7 73 88 bd
       -0.08642807 0.09245345 -0.048531312 -0.066627435
000240 4f 5d 06 3e 38 d6 6e bd c8 28 68 3d 2d d6 9c 3d
       0.13121532 -0.058309764 0.056679517 0.07658038
000250 fe 73 ec 3d df 83 df 3d 5f 3e 12 bd 14 17 33 3d
       0.11545561 0.10913824 -0.035704013 0.04372318
000260 08 81 ab 3c f7 b3 78 bd e2 ea e7 3d 56 c5 24 3d
       0.02093555 -0.060718503 0.11324097 0.040227257
000270 8c 83 6c 3e e0 ca 9c 3c 30 e1 21 bd 50 1b 8d 3d
       0.23097056 0.019139707 -0.039521396 0.06889975
000280 2b 7f c8 bd 3e 22 ec 3d b1 84 ba 3d b3 08 c8 bd
       -0.0978988 0.11529969 0.0910734 -0.09767284
000290 75 d2 2c 3b f5 e6 35 3d 8e d4 2c 3e 7a a1 94 3d
       0.002637056 0.04440971 0.16877958 0.07257362
0002a0 46 69 87 3e 32 88 27 3e a3 a9 5d 3c 6c 43 66 bc
       0.26447505 0.16360548 0.013529214 -0.014054161
0002b0 6a ad 77 3b b7 e7 e2 bd 33 56 8b 3e 69 9d 07 3e
       0.0037792572 -0.11079352 0.27214202 0.13243641
0002c0 72 64 41 3c 26 9d 04 3e 34 ec bd bd fd 90 2e 3e
       0.011803733 0.12950572 -0.09273568 0.17047496
0002d0 e7 0e e1 3d 33 89 2a be 49 cb e3 3d 5d 62 0c be
       0.109891705 -0.166539 0.11122758 -0.13709398
0002e0 a3 13 36 bc 22 74 1f be 6e e3 f6 3d 38 62 50 3e
       -0.01111308 -0.15571645 0.120550975 0.20349967
0002f0 8c 81 d1 bd 87 74 7d 3d f6 7b 47 bd 43 94 50 3c
       -0.10229787 0.061878707 -0.048702203 0.012730661

lstm.bias_hh_l1 f4 [192]
000000 80 71 d8 3d b3 58 36 bd b1 ff 94 3d b8 f7 90 3e
       0.105685234 -0.044518184 0.07275332 0.28313994
000010 18 b1 32 bd 47 1e a2 bc 48 c1 34 3e 85 53 1e 3e
       -0.04362592 -0.019789828 0.17651856 0.15461548
000020 3f 74 f2 bd 5e 49 57 bc 2e c3 00 3e 37 09 f4 3c
       -0.118385784 -0.013140051 0.12574455 0.02978955
000030 88 29 73 3e 14 d8 6a bd 9b a0 3c 3e 71 c7 38 3e
       0.23746312 -0.057334974 0.18420641 0.18044831
000040 c1 1a 92 3c ed 52 eb bd 3d 92 a0 3e d5 06 09 be
       0.017835023 -0.11490426 0.3136157 -0.13381512
000050 03 a7 d0 3d a1 33 84 3d 7d 1f 26 3e d5 14 17 3d
       0.10188105 0.0645516 0.1622295 0.0368851
000060 d0 e2 95 3e a4 30 48 bb 48 92 f1 3b a6 e5 36 3e
       0.29274607 -0.003054657 0.0073721744 0.17861041
000070 71 2f d5 bd 47 54 ca bd 35 7b a7 3e d5 e0 b5 3d
       -0.10409439 -0.09879356 0.32711187 0.08880774
000080 d1 41 23 bd d3 2d 73 bd 77 7b 23 3e a9 9c ee bc
       -0.03985769 -0.059369873 0.15965067 -0.029127436
000090 6f 83 17 3d 62 90 91 be 23 5d 4a 3e e9 ef 7f be
       0.03699058 -0.28430468 0.19762091 -0.24993862
0000a0 2b 61 21 3d c4 4e 3b 3d a6 27 0a 3c 04 54 ea 3d
       0.039399307 0.045729414 0.0084323045 0.11441806
0000b0 74 c8 b3 bd cd 08 97 bc 20 3b d1 3d b5 bb d2 bd
       -0.08778468 -0.018436814 0.10216355 -0.102897085
0000c0 5c f2 56 be aa 69 c7 bd fd 9c 69 bd f5 01 72 3a
       -0.2099089 -0.09736951 -0.05703448 0.0009231859
0000d0 9b c5 d1 3d 41 f9 29 3d c9 14 70 3d 21 aa 17 be
       0.102427684 0.041497473 0.058613572 -0.14810993
0000e0 4a 7c e7 bc 2f 9f c7 bd 0a c9 b8 bd d3 ab 0f be
       -0.028257508 -0.09747159 -0.0902272 -0.1403039
0000f0 ad a5 26 3a 88 cf 2c bd 69 67 0d be 59 68 d4 bd
       0.0006357085 -0.042190105 -0.13808979 -0.10371465
000100 a7 e4 ba bd b8 28 e6 bd 0a 1e 04 be 16 60 9c bd
       -0.09125643 -0.11238235 -0.12902084 -0.076355144
000110 e6 8b 3c bd ed 82 8d be 15 7c 05 be fb 56 92 3d
       -0.046031855 -0.2763895 -0.13035615 0.071454965
000120 07 c5 b0 39 ef 69 19 be 22 32 e3 3d 5a d3 06 3d
       0.00033716133 -0.14981817 0.110935465 0.032916404
000130 f6 26 26 3d 83 26 6b be 9c 3f b4 bd 58 bf ee 3d
       0.0405645 -0.2296391 -0.08801195 0.1165759
000140 94 68 8f bd 42 5e e9 ba 44 5b c1 3d 42 2a c8 bd
       -0.070023686 -0.001780458 0.09441236 -0.09773685
000150 59 b5 b1 3a 4f cb 4f bd e2 34 51 be 91 f0 52 be
       0.0013558074 -0.050731 -0.2043033 -0.20599581
000160 83 86 1a 3d 95 86 f7 bd 0b 19 cd bd fa ac 1f be
       0.037725937 -0.12086216 -0.10014542 -0.15593329
000170 77 a8 69 3d d7 a5 d9 bd d4 a1 ea bd 95 6a 8d 3c
       0.057045426 -0.106273346 -0.114566475 0.017262736
000180 36 d2 81 bd 33 c7 ec 3d 91 9c 3f 3b 00 76 e9 bd
       -0.06338923 0.11561432 0.0029237608 -0.1139946
000190 2c 67 dc 3d 65 c9 da 3d 32 36 a4 bd d9 ac 45 3e
       0.10761866 0.10682944 -0.080181494 0.19304217
0001a0 e7 e3 1d be 99 ae 5c bd 62 66 66 be 10 49 e2 bd
       -0.15418969 -0.053877447 -0.22499993 -0.11049092
0001b0 18 dc b7 bd ca 9b 8a 3d 84 1a fa 3d 79 2b 34 3e
       -0.089775264 0.06767996 0.12212089 0.17594709
0001c0 2b 59 97 3d ba 67 d5 3d c7 44 ac bd 7e 6d 52 3b
       0.07390054 0.10420175 -0.08411556 0.003210872
0001d0 cc 1c ed 3d fc e4 63 3d 4b 08 9c bd 9c 30 95 3e
       0.11577758 0.0556383 -0.07618769 0.2913865
0001e0 50 a5 ad 3c 26 49 02 3e 96 cb ad 3d c7 10 13 be
       0.021196991 0.12723216 0.084860966 -0.14361869
0001f0 83 90 40 3d 36 ab 0e 3a c5 d2 48 bd 91 62 54 be
       0.047012817 0.00054423825 -0.04902913 -0.20740725
000200 a3 e2 92 bd bd b8 ed 3c e4 5d 5d be 6a 96 2f 3a
       -0.07172134 0.029018754 -0.21617848 0.00066981337
000210 2e f4 ff bd 9a 06 ab bd b1 d8 04 3d ef 57 b7 bc
       -0.124977455 -0.083508685 0.032433216 -0.022380797
000220 5a e8 51 3d 3b fc e3 bd 00 71 bc bc a5 ce 74 bd
       0.05124698 -0.111320935 -0.023003101 -0.059767384
000230 8d 7d 78 3c f5 ac 9c bc f1 52 34 bd 85 c3 ec bd
       0.015166652 -0.019125441 -0.04402441 -0.1156073
000240 dd a0 de bd cc 61 fd bb 4c 14 20 3e 99 8c 5a 3e
       -0.10870526 -0.0077326056 0.15632743 0.21342696
000250 9b b6 2c 3e ad 9a 8f 3d a8 05 40 bd a7 4a cf 3d
       0.16866533 0.07011924 -0.046880394 0.10121661
000260 ba 26 19 be 9e 8d 93 3d 8f d4 77 3d 9c ea 61 bc
       -0.1495618 0.07204746 0.060505446 -0.013788845
000270 7a ef b5 3d 26 7a 14 bd 66 7e cd 3d 76 b1 a8 bd
       0.08883567 -0.036249302 0.10033874 -0.08236973
000280 a9 08 17 3d 86 9a ea bd c9 03 79 3e b8 b4 5f bd
       0.036873493 -0.11455254 0.2431785 -0.054615706
000290 a9 ce 1e 3e 5c d3 ca 3d 53 5e 50 bc 66 e4 20 3e
       0.15508522 0.09903595 -0.012717801 0.15712127
0002a0 db f6 56 3e af 9d a2 3d 51 d6 51 3e 11 91 ef bd
       0.20992605 0.07940232 0.20491911 -0.11697591
0002b0 10 b7 12 3e a8 82 bc bb c5 4c a9 3e 7a 80 af bd
       0.14327645 -0.00575288 0.33066383 -0.08569427
0002c0 42 c2 03 bb fc 44 30 3e e9 b1 f8 3d 53 e0 c2 bd
       -0.00201048 0.17213815 0.12143309 -0.09515443
0002d0 55 7c 92 3d ef 9c a3 be cb 4d 5a 3d 8d 38 ad be
       0.07152621 -0.31955668 0.053296845 -0.33832207
0002e0 0d e7 e1 3d f3 1e 38 be 21 76 a6 bd 68 5f 8f 3d
       0.110303976 -0.17980556 -0.08128 0.07000619
0002f0 0b c3 6a be ff 6c e9 3d fd 21 19 3d 8f 16 01 be
       -0.22925965 0.113977425 0.03738593 -0.12606262
