cheakpoint/training_epochs_200_stepsize_7_gamma_0.75/model_epoch160.pth (torch, 117574 bytes, 10 tensors)

lstm.weight_ih_l0 f4 [192, 2]
0	0xbdedbc38	-0.116081655
1	0x3e1c0485	0.15236099
2	0xbe8aebf0	-0.2713313
3	0xbe07cbea	-0.13261381
4	0x3da996b3	0.08280697
5	0x3ce176af	0.027522413
6	0x3e22fd83	0.1591702
7	0x3e4d995d	0.20078035
8	0x3ea76285	0.32692352
9	0x3e3478a3	0.17624144
10	0xbe93f5ed	-0.28898564
11	0x3d0068e2	0.031350024
12	0x3e91a2d9	0.28444555
13	0x3e842edc	0.25817
14	0x3e2c2d7f	0.1681423
15	0x3e70da7d	0.23520847
16	0x3ebbb02a	0.3665784
17	0x3ec4a5bc	0.38407695
18	0xbe161d90	-0.14659715
19	0x3dd403a7	0.10352259
20	0x3e12a8ed	0.14322253
21	0xbca8cfb4	-0.020606853
22	0x3dc3e4b6	0.095651075
23	0x3e29ced5	0.16582806
24	0x3e1e78cd	0.1547577
25	0xbcec08a0	-0.028812706
26	0x3d22f55e	0.03978478
27	0xbdc44da7	-0.095851235
28	0x3eb31465	0.34976497
29	0x3db265fe	0.0871086
30	0x3ed06802	0.40704352
31	0x3e86f75d	0.26360598
32	0x3c22019b	0.009888078
33	0xbd0e6dc2	-0.034772642
34	0x3ea8c845	0.32965294
35	0x3ead29db	0.33820996
36	0x3e2fcfc6	0.17169103
37	0x3e216be9	0.1576382
38	0xbe1fcd7c	-0.1560573
39	0xbe3c43d3	-0.18385248
40	0x3bb7e614	0.0056121442
41	0xbe30ade6	-0.17253837
42	0xbe184a13	-0.14872007
43	0x3cb5e7cf	0.022205262
44	0x3e83e35c	0.257594
45	0x3dc1f512	0.094705716
46	0x3e990f9c	0.29894722
47	0x3e9b5225	0.3033611
48	0x3d54d25c	0.051958427
49	0x3e2a7224	0.16645104
50	0x3dee544f	0.11637174
51	0x3e606a0e	0.21915457
52	0xbccbde6d	-0.024886334
53	0x3e5272b0	0.20551562
54	0x3de7d0f2	0.1131915
55	0x3e323971	0.17404725
56	0x3dd86c5a	0.105675414
57	0xbe80d098	-0.25159144
58	0x3ed46349	0.41482
59	0x3cb0da21	0.021588387
60	0xbe253856	-0.16134772
61	0xbdf09b96	-0.11748426
62	0x3de6aa28	0.112629235
63	0x3d552949	0.052041326
64	0xbea560ad	-0.3230032
65	0xbe9a6ac0	-0.3015957
66	0xbec453c1	-0.3834515
67	0xbed22746	-0.41045588
68	0xbdf3ba47	-0.11900764
69	0x3e34b517	0.17647205
70	0x3d93334b	0.07187518
71	0x3d2ca07f	0.04214525
72	0x3e5d9b40	0.21641254
73	0x3d3b6037	0.045746055
74	0xbdd40e5b	-0.103543006
75	0xbe98d510	-0.29850054
76	0xbe4e9103	-0.20172505
77	0xbe930d36	-0.28721017
78	0x3d7e8741	0.062140707
79	0x3e877968	0.26459813
80	0xbe8017cb	-0.25018153
81	0xbe2ee20e	-0.1707842
82	0x3e35f317	0.17768513
83	0x3e47392e	0.19455406
84	0x3dd7bdae	0.105342254
85	0x3cf2e71f	0.029651223
86	0xbdc52bb4	-0.09627476
87	0xbe6beb2a	-0.23038927
88	0xbe6073e5	-0.2191921
89	0xbd38b39f	-0.045093175
90	0x3e884fed	0.2662348
91	0x3e4e2ff1	0.20135476
92	0x3e42598f	0.18979476
93	0x3e9bf171	0.30457643
94	0x3d29c01d	0.04144298
95	0xbcd6f1e2	-0.026238386
96	0xbd420e3a	-0.04737685
97	0x3e2013f9	0.15632619
98	0x3ddc6c13	0.10762801
99	0x3dd6652f	0.10468518
100	0xbe65b855	-0.22433598
101	0xbda47c8e	-0.080315694
102	0xbdbf10ef	-0.09329402
103	0x3dd89c73	0.10576715
104	0xbc174ebd	-0.009235081
105	0x3e546631	0.20742108
106	0xbe10bdd2	-0.1413491
107	0x3deecea9	0.11660511
108	0xbe76efa5	-0.24114855
109	0x3cee0139	0.029053317
110	0xbe0738e2	-0.13205293
111	0x3b14730d	0.0022651583
112	0x3e4fac4a	0.20280567
113	0x3ea1f218	0.31630015
114	0xbb192bf9	-0.0023372157
115	0xbc58b8e9	-0.01322768
116	0x3e6cdae0	0.23130369
117	0x3e4db734	0.20089418
118	0xbd8af7b7	-0.06785529
119	0x3daece86	0.08535485
120	0xbe005b93	-0.12534933
121	0x3dc5afb0	0.0965265
122	0x3ea5569e	0.32292646
123	0xbd91f30a	-0.07126434
124	0x3e5ef576	0.21773323
125	0x3e817a55	0.25288644
126	0x3bd0cb02	0.0063718567
127	0xbd981299	-0.07425422
128	0xbe729251	-0.23688628
129	0xbe67be6b	-0.22631232
130	0x3d54152b	0.051778
131	0x3d58ce84	0.052931324
132	0x3cfb642c	0.030687414
133	0x3a62e527	0.0008655362
134	0x3e4db1fa	0.20087424
135	0x3e3e8155	0.18604024
136	0xbe2059dc	-0.15659279
137	0xbe08bf04	-0.13354117
138	0xbe6090d4	-0.21930248
139	0x3d3da8e5	0.04630365
140	0xbd0882c2	-0.033327825
141	0x3d441fd9	0.047881935
142	0x3e9381a5	0.28809848
143	0x3e98569b	0.29753575
144	0x3dad8ad6	0.084737465
145	0x3cea1f88	0.028579488
146	0x3e123885	0.14279373
147	0x3eadde2d	0.3395857
148	0xbe00dc5c	-0.1258406
149	0x3e2375fb	0.15962975
150	0x3e327891	0.17428805
151	0xbe4de618	-0.20107305
152	0x3ea18697	0.31547996
153	0x3e1041ef	0.14087652
154	0x3e6bb660	0.2301879
155	0xbdb3e8ea	-0.08784659
156	0x3d6b754c	0.05748491
157	0xbd53087f	-0.051521774
158	0x3e2ac1f0	0.16675544
159	0x3ea6b66e	0.32561058
160	0xbd8a8299	-0.06763191
161	0xbe021079	-0.12701596
162	0x3d4d78ae	0.050163917
163	0x3c830b79	0.015996682
164	0x3de9f3e1	0.11423469
165	0x3d9742c5	0.07385782
166	0xbe40178d	-0.18758984
167	0xbd77d03c	-0.060501322
168	0x3e68c6dd	0.2273211
169	0x3d9da413	0.0769731
170	0x3c130840	0.008974135
171	0xbdf4b4df	-0.11948561
172	0x3b502501	0.0031760337
173	0xbe575de0	-0.21031904
174	0x3e090cc3	0.13383774
175	0xba8633a9	-0.0010238785
176	0xbd0fda24	-0.035120144
177	0xbe476916	-0.19473681
178	0x3d0c261b	0.034216028
179	0x3e1ae524	0.15126473
180	0x3cc5be74	0.024138667
181	0x3e8b3c25	0.27194324
182	0xbe24ca13	-0.1609271
183	0xbe42106e	-0.1895158
184	0x3df3499b	0.118792735
185	0xbe044789	-0.12917913
186	0x3e6e09f2	0.23245981
187	0x3e0c0d7e	0.13677022
188	0x3d831f8f	0.06402504
189	0x3ea88277	0.32912037
190	0x3d868a54	0.06569353
191	0xbeb8f1ef	-0.3612208
192	0x3df0f234	0.117649466
193	0xbec10103	-0.37696084
194	0x3e058c91	0.13041903
195	0x3e96b5dc	0.29435623
196	0x3e199519	0.14998282
197	0x3ec15bd4	0.37765372
198	0xbdc12733	-0.09431305
199	0x3f07dd45	0.53072006
200	0x3e889140	0.26673317
201	0x3eac0232	0.33595425
202	0x3ccecd93	0.02524451
203	0x3e8918df	0.26776788
204	0xbf0a901f	-0.5412616
205	0x3d1c0089	0.038086448
206	0xbd5d214b	-0.05398683
207	0x3eb37252	0.35048157
208	0x3eff70a2	0.4989062
209	0x3e9272b9	0.2860315
210	0x3eb7ba95	0.35884538
211	0x3dfd6d1f	0.12374329
212	0xbd198515	-0.037480433
213	0xbe9bfc9d	-0.30466166
214	0xbe02f39f	-0.12788247
215	0xbeda7510	-0.42667437
216	0xbe89b7a6	-0.26897925
217	0xbeba5160	-0.3639021
218	0xbeb8462c	-0.35991037
219	0x3d0ffcc7	0.035153177
220	0x3deb8321	0.1149962
221	0xbeeddb5d	-0.46456423
222	0xbe40cb12	-0.18827465
223	0xbeb0ba78	-0.34517264
224	0x3ec9049d	0.39261332
225	0xbd97faca	-0.07420881
226	0x3ed1fc77	0.41012928
227	0xbebf466f	-0.37358424
228	0x3e573ff1	0.21020485
229	0x3ea1dac2	0.3161221
230	0x3e89fd6a	0.26951152
231	0x3e5c9b9b	0.21543734
232	0xbe71e1d3	-0.23621301
233	0xbe3d2f97	-0.18475185
234	0x3e96f728	0.2948544
235	0xbd45ce79	-0.04829261
236	0xbe5111e8	-0.20416987
237	0xbeb69286	-0.35658664
238	0xbe3cf7bb	-0.18453877
239	0xbeb83139	-0.35975054
240	0x3eadee01	0.33970645
241	0xbe40d56a	-0.18831411
242	0xbdb60a22	-0.088886514
243	0xbebe13d8	-0.37124515
244	0x3e470cf3	0.19438533
245	0xbec784c9	-0.38968495
246	0xbf05c3b9	-0.52251774
247	0x3c3afbf9	0.011412614
248	0xbe7eebdf	-0.24894665
249	0x3dac3cfe	0.08410071
250	0x3ef8eef4	0.48619807
251	0xbeaa3313	-0.33242092
252	0xbeb449e9	-0.3521264
253	0xbe100840	-0.14065647
254	0x3d64056a	0.055669226
255	0xbecf6fda	-0.40515023

lstm.weight_hh_l0 f4 [192, 48]
0	0xbd8a13a2	-0.06742026
1	0x3e8ded22	0.2771998
2	0xbdbeea4c	-0.09322032
3	0xbd02a0d9	-0.031891678
4	0xbcf19cc9	-0.029493706
5	0xbb5874f6	-0.0033028699
6	0x3dad92e9	0.084752865
7	0x3d967f8d	0.07348547
8	0xbd6dc864	-0.058052436
9	0xbd855596	-0.06510465
10	0xbe2a1d88	-0.16612828
11	0xbd04e098	-0.03244075
12	0x3ca03a9b	0.019559195
13	0x3e057c6f	0.13035749
14	0xbd808bfb	-0.06276699
15	0xbe142342	-0.14466575
16	0x3b2f019c	0.002670384
17	0xbe10116a	-0.14069143
18	0xbdb0a524	-0.08625248
19	0x3e423f0d	0.18969364
20	0xbd5401b2	-0.05175943
21	0xbcb434c8	-0.021997824
22	0x3cbf77eb	0.023372611
23	0x3dd6f529	0.10495979
24	0xbe8a51b8	-0.2701547
25	0xbcab6ed3	-0.020926869
26	0xbe10d766	-0.14144668
27	0x3c3427d1	0.010995821
28	0xbe3ead15	-0.18620713
29	0xbe60fb2a	-0.21970811
30	0x3d7afdb7	0.061277118
31	0x3ce40f3d	0.027839297
32	0xbdbd31d0	-0.092380166
33	0x3b8c1ad8	0.004275661
34	0x3e8c5674	0.27409708
35	0x3e00e701	0.12588121
36	0xbca5ecfd	-0.020254606
37	0x3e6de5aa	0.23232141
38	0xbe26c83c	-0.16287321
39	0xbd4e4eaf	-0.050368007
40	0x3dc2c921	0.095110185
41	0xbe5f41bc	-0.2180242
42	0xbdcbfa01	-0.09959794
43	0x3e1404da	0.14454976
44	0x3c871c3c	0.016492955
45	0x3e26bc15	0.16282685
46	0x3dbbea96	0.09175603
47	0x3d71a3c4	0.05899407
48	0x3cf29f68	0.029617026
49	0xbdfbe90a	-0.12300308
50	0xbd17e449	-0.037082944
51	0xbe809c61	-0.25119308
52	0xbe5d6e79	-0.21624173
53	0xbe0361f7	-0.1283034
54	0x3ed8ac37	0.4231889
55	0xbe068b14	-0.13138992
56	0xbeb04f44	-0.34435475
57	0xbe366515	-0.17811997
58	0x3f1c2f8e	0.6101006
59	0x3e91af8c	0.28454244
60	0x3e8b60be	0.27222246
61	0x3eec9630	0.46208334
62	0x3ee50a72	0.44734532
63	0x3e9b95c4	0.303877
64	0xb9de48d9	-0.00042397415
65	0xbe5236fa	-0.20528784
66	0xbe9f5b4f	-0.3112435
67	0xbe92bdef	-0.28660533
68	0x3e841611	0.25798085
69	0x3d2206df	0.039557334
70	0x3e899230	0.26869345
71	0x3e925786	0.285824
72	0xbf1693f7	-0.58819526
73	0x3f197112	0.59938157
74	0xbe2f52af	-0.17121385
75	0x3ea0c1d2	0.31397873
76	0x3e5d78d9	0.21628131
77	0xbe95c90b	-0.29254946
78	0x3e8c5fb3	0.27416763
79	0x3e7bffd1	0.24609305
80	0xbe40702e	-0.18792793
81	0x3dd90aa0	0.1059773
82	0x3e923341	0.2855473
83	0xbeb199b6	-0.34687585
84	0x3f09219e	0.5356692
85	0xbda22bc9	-0.079185076
86	0x3d832015	0.064026035
87	0xbde8bd54	-0.113642365
88	0x3df7e6c9	0.12104566
89	0xbf160846	-0.58606374
90	0x3e4c36f7	0.19942842
91	0xbbe45080	-0.006967604
92	0xbd1daf37	-0.038497176
93	0xbeb7b425	-0.35879627
94	0x3ea81251	0.32826474
95	0xbd8a13ec	-0.06742081
96	0x3d20e564	0.039281264
97	0xbd8c4c06	-0.06850438
98	0xbc42d4c2	-0.011891546
99	0xbde5d029	-0.11221344
100	0xbd9ab926	-0.075548455
101	0xbdda301d	-0.10653708
102	0xbdbff086	-0.09372048
103	0xbea735c2	-0.326582
104	0x3ccf2b3e	0.025289174
105	0xbd33c75d	-0.0438913
106	0x3e15face	0.14646456
107	0x3e0a2cdf	0.1349368
108	0xbd0ea698	-0.034826845
109	0x3d9d0457	0.076668434
110	0x3e96abe2	0.2942801
111	0x3e301e00	0.17198944
112	0x3dfdd9c2	0.1239505
113	0xbdc76ef1	-0.09737957
114	0xbd92d280	-0.07169056
115	0xbd2f40e1	-0.042786483
116	0xbe2973f8	-0.16548145
117	0x3dca907e	0.09890841
118	0xbd8a7aaa	-0.067616776
119	0x3e3cd78d	0.18441601
120	0xbe2189e9	-0.15775265
121	0x3db7abfd	0.08968351
122	0xbe209430	-0.15681529
123	0xbe1d50bb	-0.15362827
124	0xbe5f1454	-0.21785098
125	0x3d4b0587	0.04956582
126	0xbc1c05ad	-0.009522838
127	0xbbd51706	-0.0065029887
128	0x3cc47864	0.023983188
129	0x3d349ec8	0.044096738
130	0xbd2604bf	-0.04053187
131	0x3d1503de	0.03638064
132	0xbcdf618e	-0.027268197
133	0x3dc1d329	0.09464104
134	0x3e632853	0.22183351
135	0x3dd30f68	0.10305673
136	0xbe1fba2a	-0.1559836
137	0xbdbd9b5c	-0.09258148
138	0xbce67b12	-0.028134856
139	0x3eb2bf8e	0.3491177
140	0xbea0c89e	-0.3140306
141	0xbec53d2b	-0.3852323
142	0x3e2c54d0	0.16829228
143	0x3e998acd	0.2998871
144	0x3e1bcadd	0.15214105
145	0x3f1a48f1	0.6026755
146	0x3dd61276	0.1045274
147	0xbd299738	-0.04140398
148	0x3d76b97c	0.060235485
149	0x3cf5d02d	0.030006493
150	0xbe7954ad	-0.24348707
151	0xbe019ffb	-0.12658684
152	0xbcc019c6	-0.02344979
153	0x3e63882f	0.22219919
154	0x3db9130d	0.09036837
155	0x3e43890e	0.19095251
156	0xbdc69524	-0.09696415
157	0xbe0312bc	-0.12800115
158	0x3deaa2a1	0.114568
159	0x3c0f46ac	0.008744877
160	0x3ec43ca0	0.38327503
161	0x3e479168	0.19489062
162	0xbd781c8b	-0.060574096
163	0xbd2458bc	-0.040123686
164	0xbdd116f0	-0.10209453
165	0x3eae461c	0.34037864
166	0xbd4fb135	-0.050706107
167	0x3dee4043	0.11633351
168	0x3d98a7e6	0.07453899
169	0xbe1fd348	-0.15607941
170	0xbcd6cf23	-0.026221817
171	0xbde25596	-0.110514805
172	0xbedbe3ea	-0.42947322
173	0x3e68a74a	0.22720066
174	0xbdea2c03	-0.11434176
175	0x3e2d81e3	0.16944079
176	0x3e7b65be	0.2455053
177	0x3de73fde	0.112914786
178	0x3e1bc4ab	0.15211742
179	0x3dd6f59d	0.10496066
180	0xbe651662	-0.2237182
181	0x3dddc7f0	0.10829151
182	0x3e0e2d1e	0.13884398
183	0x3e9b1e8b	0.3029674
184	0xbe6cc319	-0.23121299
185	0x3bb64bbb	0.005563227
186	0x3dbe0cb1	0.092797644
187	0x3dc88b6a	0.09792216
188	0xbdda3054	-0.10653749
189	0x3cc8c084	0.024505861
190	0x3d76fdf2	0.060300775
191	0x3eeed9e8	0.46650624
192	0xbe3a52aa	-0.18195596
193	0x3eb916d7	0.36150238
194	0x3e40d576	0.18831429
195	0x3d9029b0	0.07039201
196	0x3e2b8f34	0.16753846
197	0xbd063bd7	-0.03277191
198	0x3cc58823	0.024112767
199	0x3af2c0b3	0.0018520564
200	0x3dfa394d	0.122179605
201	0xbdb190af	-0.08670174
202	0x3e0afb5e	0.13572451
203	0x3d8126ee	0.063062534
204	0xbdbec536	-0.09314959
205	0x3e0a75d0	0.13521504
206	0x3b82bf5e	0.003990098
207	0xbe0691b0	-0.13141513
208	0xbad1d15a	-0.0016007826
209	0xbe76ae6d	-0.24089976
210	0xbd3fa1fe	-0.046785347
211	0x3dc675fe	0.09690474
212	0xbe0d3646	-0.13790235
213	0x3cbeba29	0.023282127
214	0x3d5d4b79	0.054027054
215	0xbe042ec6	-0.12908468
216	0x3c2c2eda	0.010509217
217	0x3dc88de3	0.09792688
218	0xbed1ff0f	-0.41014907
219	0x3c493674	0.012281049
220	0xbe2b0264	-0.1670013
221	0xbe032c9d	-0.12809987
222	0xbe6167b5	-0.22012217
223	0x3c80f4f0	0.015741795
224	0x3cbc15fd	0.022959704
225	0x3e8434ca	0.25821525
226	0xbe30b325	-0.17255838
227	0x3d059a6f	0.032617982
228	0x3d9abd1d	0.07555602
229	0x3dc2330d	0.094823934
230	0xbcd878e7	-0.026424838
231	0xbe3197cf	-0.17343067
232	0xbe8a3aa4	-0.26997864
233	0xbc895391	-0.01676348
234	0xbc22c63e	-0.00993496
235	0x3ded9d26	0.11602239
236	0xbd943ea8	-0.07238513
237	0x3e548b8e	0.20756361
238	0xbe4535bd	-0.19258781
239	0x3de08f1d	0.10964797
240	0xbe28e7f0	-0.16494727
241	0x3e00f750	0.12594342
242	0x3e99f1ff	0.3006744
243	0xbe3cead1	-0.1844895
244	0xbd08c39a	-0.033389665
245	0x3c42d434	0.0118914135
246	0x3d838216	0.06421296
247	0x3df97a29	0.12181503
248	0xbe954f09	-0.29161862
249	0xbdc474ef	-0.09592616
250	0xbd9326fe	-0.071851715
251	0x3e0b609e	0.13611075
252	0x3dcd8615	0.1003534
253	0xbe5b9dce	-0.21446916
254	0xbda8d369	-0.08243448
255	0x3d721df0	0.059110582

lstm.bias_ih_l0 f4 [192]
0	0x3e203dd1	0.15648581
1	0xbe79275d	-0.24331422
2	0xbdd72c03	-0.105064414
3	0x3dc8b54f	0.09800207
4	0xbdea7beb	-0.11449417
5	0xbe8dd094	-0.27698195
6	0x3e27b6f4	0.16378385
7	0xbdb67dfe	-0.0891075
8	0x3dc0b569	0.09409601
9	0xbc167259	-0.009182536
10	0xbe389a92	-0.18027714
11	0x3c636f10	0.01388146
12	0xbd037a51	-0.032099072
13	0x3db4e01d	0.08831809
14	0x3e7013ee	0.23445103
15	0x3e2a33cb	0.1662132
16	0xbcf76d13	-0.030203378
17	0x3e78e205	0.2430497
18	0x3d66d772	0.05635781
19	0xbe1323f2	-0.14369181
20	0xbd903129	-0.070406266
21	0xbd1ddbd2	-0.038539715
22	0x3e03e8f2	0.1288183
23	0x3d48630a	0.048922576
24	0x3e92482b	0.28570685
25	0x3c4860e9	0.012230136
26	0xbe242c72	-0.1603258
27	0x3e89e327	0.26931116
28	0xbd589548	-0.05287674
29	0x3df039b6	0.117297575
30	0xbe6df656	-0.23238501
31	0x3c94e219	0.018174218
32	0xbe7c54ee	-0.24641773
33	0xbe366d86	-0.17815217
34	0xbea4d05b	-0.32190213
35	0xbd89a1d0	-0.067203164
36	0x3dd11e20	0.10210824
37	0xbec0928a	-0.376118
38	0xbe7671bc	-0.24066824
39	0x3e2b029c	0.16700214
40	0xbd891ce5	-0.06694964
41	0x3e725d9f	0.23668526
42	0xbddac528	-0.10682136
43	0xbbc84b5f	-0.0061125006
44	0xbe92bef2	-0.28661305
45	0x3dd5afd9	0.10433931
46	0x3ddda9f9	0.10823435
47	0x3dd1ee51	0.10250533
48	0xbe40f972	-0.18845156
49	0x3e480cf1	0.19536187
50	0xbd94813d	-0.07251213
51	0xbe064100	-0.13110733
52	0xbd717375	-0.058948
53	0xbe0d71b8	-0.13812912
54	0xb993d3e7	-0.00028195904
55	0xbe2bb371	-0.1676767
56	0xbd2cce6a	-0.04218904
57	0x3c94bfdb	0.01815789
58	0x3e30142f	0.171952
59	0x3d6b22cb	0.057406228
60	0xbe2cfad6	-0.16892561
61	0x3c649956	0.013952574
62	0x3e2848c8	0.16434014
63	0xbdc3ca39	-0.09560055
64	0xbe28feb2	-0.16503409
65	0x3e4d89a7	0.20072041
66	0x3caa6da1	0.020804228
67	0x3ea5d50b	0.323891
68	0xbdc96413	-0.09833541
69	0xbe6316de	-0.22176692
70	0x3d6a4f27	0.05720439
71	0xbe00f024	-0.12591606
72	0xbcd7dfb1	-0.026351782
73	0x3e129f81	0.14318658
74	0x3de5069b	0.111829005
75	0x3da0f287	0.078587584
76	0x3ec18e79	0.3780401
77	0xbe1299ec	-0.14316529
78	0x3dc2acc8	0.09505612
79	0x3d8079fb	0.06273266
80	0xbdba9723	-0.09110858
81	0x3d64b8bb	0.055840235
82	0xbdbcaaad	-0.09212241
83	0xbde6dcb2	-0.11272563
84	0x3e378b72	0.17924288
85	0xbe209852	-0.15683106
86	0xbe2f8b53	-0.17142992
87	0x3e1e75b7	0.15474592
88	0x3e131418	0.14363134
89	0x3db7cc34	0.089744955
90	0xbdc9122f	-0.09817921
91	0xbe917ff7	-0.28417942
92	0xbe4baa2a	-0.19889131
93	0xbdac1639	-0.08402676
94	0xbdc17b33	-0.094473265
95	0xbdf1cb9a	-0.11806412
96	0x3d076e94	0.03306444
97	0xbb9848d7	-0.004647355
98	0xbdd0f142	-0.10202266
99	0xbd98b6f3	-0.0745677
100	0xbe04f9f1	-0.1298597
101	0xbe0117d1	-0.12606741
102	0x3d878583	0.06617262
103	0xbd4e082b	-0.05030076
104	0xbcc301d9	-0.023804592
105	0xbe0c0609	-0.13674177
106	0xba806802	-0.0009796622
107	0x3e7ecf50	0.24883771
108	0x3e34edcb	0.17668836
109	0xbc97aff6	-0.018516522
110	0xbc62d63e	-0.013845025
111	0x3e43f085	0.1913472
112	0xbd1dc174	-0.03851457
113	0xbde9c245	-0.11414007
114	0xbdd6e6d3	-0.10493245
115	0xbe283ea6	-0.16430148
116	0x3d587864	0.05284919
117	0xbb9dd377	-0.0048164683
118	0x3d810c71	0.06301201
119	0x3dd09c25	0.10186032
120	0xbd221447	-0.03957012
121	0x3d66b668	0.0563263
122	0x3d959c54	0.07305208
123	0x3e07c99b	0.132605
124	0x3c66ca2a	0.014086286
125	0x3d0b5688	0.03401807
126	0x3e459871	0.19296433
127	0x3de90940	0.113787174
128	0xbd5b35dd	-0.053518165
129	0xbcef1974	-0.029186942
130	0x3dae372a	0.085066155
131	0xbde9ffec	-0.11425766
132	0x3e2eae06	0.17058572
133	0xbc1ce272	-0.009575473
134	0xbdc1df47	-0.09466415
135	0xbc3d9d0a	-0.011573086
136	0xbd8a08f0	-0.06739986
137	0xbe0e9fdf	-0.13928173
138	0x3dffd4c8	0.12491757
139	0x3d736915	0.059426386
140	0x3d0ac139	0.033875678
141	0xbe1ca60e	-0.1529772
142	0xbba7c7c9	-0.005120252
143	0x3d6a3de2	0.057187922
144	0xbceea6a5	-0.029132197
145	0xbe5a3ea8	-0.21312964
146	0xbe2cba28	-0.16867888
147	0x3e4e1814	0.20126373
148	0xbe007a1a	-0.12546578
149	0xbe5145b0	-0.2043674
150	0x3de650d1	0.11245883
151	0x3e0e1ba2	0.13877729
152	0x3cd93569	0.026514726
153	0xbe120e75	-0.14263327
154	0xbb4d4b22	-0.00313253
155	0x3dd6b60d	0.10483942
156	0xbdf329f5	-0.11873237
157	0x3d127c41	0.03576303
158	0x3ebf9970	0.3742175
159	0x3e3c5370	0.18391204
160	0xbdc2782b	-0.094955765
161	0x3ecc5feb	0.3991693
162	0x3d2373d0	0.03990537
163	0xbcb4b0b6	-0.022056919
164	0xbc08c4ba	-0.0083476845
165	0xbd3c0a44	-0.045908228
166	0xbd08ad04	-0.033368126
167	0x3d9e9417	0.0774309
168	0x3e3fed38	0.18742836
169	0xbe024bee	-0.12724277
170	0x3c92fbe7	0.017942382
171	0x3dec7214	0.11545196
172	0x3d757e0f	0.059934672
173	0x3e0be1a1	0.1366029
174	0xbe14c898	-0.14529645
175	0xbc01664c	-0.007897925
176	0xbe85aaba	-0.26106817
177	0xbe874ef7	-0.26427433
178	0xbde26107	-0.11053663
179	0xbb06189d	-0.0020461448
180	0x3db5977c	0.08866784
181	0xbe0ce0de	-0.13757655
182	0xbe9296a3	-0.28630552
183	0x3d2e7b85	0.042598266
184	0xbe67e176	-0.226446
185	0x3e01ad80	0.12663841
186	0xbc005b2c	-0.007834237
187	0xbe50c712	-0.2038844
188	0xbe887710	-0.26653337
189	0x3cd8a166	0.026444148
190	0x3d2b50ef	0.04182523
191	0xbd660d2c	-0.056164905

lstm.bias_hh_l0 f4 [192]
0	0x3dabf603	0.083965324
1	0xbe3a5b84	-0.18198973
2	0x3dab5bd2	0.08367123
3	0x3d0bdbf9	0.03414533
4	0xbd8bdac5	-0.06828836
5	0xbe853efd	-0.2602462
6	0x3e705121	0.23468448
7	0xbe0bbf98	-0.13647306
8	0x3e27979b	0.16366427
9	0x3d3e78d4	0.04650195
10	0x3d4a8f5f	0.049453136
11	0x3e7fcce1	0.24980499
12	0x3dbbad97	0.09163969
13	0x3e14b505	0.14522178
14	0x3e09a2f9	0.13441075
15	0x3e8e7ae0	0.2782812
16	0x3ca99d2c	0.020704828
17	0x3e803fd6	0.25048703
18	0xbd527af2	-0.05138678
19	0x3d429d3f	0.047513243
20	0xbd5e1a08	-0.054224044
21	0xbe6959a6	-0.22788104
22	0xbd34ae1d	-0.04411136
23	0x3e04d8e4	0.12973362
24	0x3e887e88	0.26659036
25	0xbb84039e	-0.0040287515
26	0xbdf559c2	-0.119800106
27	0x3e99c40a	0.30032378
28	0x3d555089	0.052078757
29	0x3e644195	0.22290643
30	0xbdb1636d	-0.08661542
31	0xbda0f905	-0.07859997
32	0xbe7c1558	-0.24617517
33	0xbe36e467	-0.17860566
34	0xbe8d613f	-0.27613255
35	0x3d632bdd	0.055461753
36	0x3e0e83e9	0.13917507
37	0xbe03e669	-0.12880863
38	0xbe0575a4	-0.13033158
39	0x3d5800fd	0.052735317
40	0xbe9735e5	-0.29533306
41	0x3e62e720	0.2215848
42	0xbddc8712	-0.1076795
43	0xbc360d4d	-0.01111157
44	0xbe262d49	-0.16228212
45	0x3e80ac03	0.25131235
46	0x3d3a03ae	0.045413665
47	0xbdf58368	-0.119879544
48	0xbd8d5209	-0.069004126
49	0xbd167add	-0.036738265
50	0xbde54803	-0.11195376
51	0xbd7f193e	-0.062279932
52	0xbe47224c	-0.19446677
53	0xbd960851	-0.07325805
54	0xbcbb0180	-0.022827864
55	0xbda7ed44	-0.08199552
56	0xbe1395fd	-0.14412685
57	0xbd9eb6b0	-0.077496886
58	0x3e4aec51	0.1981671
59	0xbdd9c3d7	-0.106330566
60	0xbe47d27e	-0.1951389
61	0xbd03b224	-0.03215231
62	0x3e29337c	0.16523546
63	0xbd832d35	-0.06405107
64	0xbd878bb1	-0.06618441
65	0x3e14cb40	0.14530659
66	0xbc146c95	-0.009059091
67	0x3e89395b	0.2680157
68	0xbde1f758	-0.11033505
69	0xbd3ac7f9	-0.045600865
70	0x3c242151	0.010017709
71	0x3e172f2d	0.1476409
72	0xbd257d7a	-0.040402867
73	0x3d268f59	0.04066405
74	0x3d8d9685	0.06913475
75	0xbdf0b105	-0.11752514
76	0x3e8a4b10	0.27010393
77	0xbdb2c7f7	-0.087295465
78	0x3d163428	0.036670834
79	0x3c8297b8	0.015941486
80	0x3c829be6	0.015943479
81	0xbe00e237	-0.12586294
82	0x3d73d978	0.059533566
83	0xbe153555	-0.14571126
84	0x3e0d7317	0.13813435
85	0x3cfffdd7	0.03124897
86	0x3cee801f	0.029113827
87	0xbd904004	-0.0704346
88	0x3e026e2a	0.12737337
89	0x3e288a86	0.16459092
90	0x3c6f3ade	0.014601437
91	0xbe2c501b	-0.16827433
92	0xbcfec12c	-0.03109797
93	0xbde44bc2	-0.11147262
94	0x3d8c9daa	0.068660095
95	0xbe055498	-0.13020551
96	0x3d55b83a	0.052177645
97	0x3d8cc836	0.06874125
98	0xbe1aaeb4	-0.15105706
99	0xbde3ce86	-0.111233756
100	0xbdab01f1	-0.0834998
101	0x3d1303c3	0.03589226
102	0x3e1327ff	0.14370726
103	0xbdb9eef8	-0.09078783
104	0xbe8a6971	-0.2703357
105	0xbdc2a782	-0.09504606
106	0x3d277963	0.040887248
107	0xbcab2209	-0.020890253
108	0x3d36fa60	0.04467237
109	0x3e047faa	0.12939325
110	0x3cfbafa8	0.030723408
111	0x3ce9cb67	0.028539373
112	0xbb5de589	-0.0033858737
113	0x3dc4e39c	0.096137255
114	0xbe01069c	-0.12600178
115	0x3bb72918	0.0055896156
116	0x3e1d2587	0.15346347
117	0xbd25b58b	-0.040456336
118	0x3e54570a	0.20736328
119	0x3ca99020	0.020698607
120	0xbd09cca1	-0.033642415
121	0xbd9a8e93	-0.07546725
122	0x3b6f4604	0.0036510238
123	0x3d4fb93c	0.050713763
124	0x3d685d02	0.056729324
125	0xbd310d84	-0.04322578
126	0xbc8ec450	-0.017427593
127	0x3d3c042d	0.04590242
128	0x3d814af7	0.063131265
129	0xbdaead2d	-0.085291244
130	0x3d0cde21	0.034391526
131	0xbdff02d1	-0.12451709
132	0xbd88b213	-0.0667459
133	0x3cab672a	0.020923216
134	0x3dce944e	0.100868806
135	0x3d20f371	0.039294664
136	0x3c1657a4	0.009176169
137	0xbe02e548	-0.12782776
138	0x3d8c550a	0.068521574
139	0xbd8bb6e6	-0.068219945
140	0xbc86b798	-0.016444966
141	0xbca074b1	-0.019586893
142	0x3e692d42	0.2277117
143	0x3d164a20	0.036691785
144	0x3d85e218	0.065372646
145	0xbe434afa	-0.1907157
146	0xbd37a25e	-0.04483258
147	0x3cca44d0	0.024691015
148	0xbdc16271	-0.09442604
149	0xbe20c493	-0.15699987
150	0x3e503275	0.20331748
151	0xbda7dded	-0.08196626
152	0x3e6dda5d	0.2322783
153	0xbe1c9429	-0.15290894
154	0xbe1abe19	-0.15111579
155	0x3e87e7d4	0.26544058
156	0x3bd987d8	0.0066385083
157	0x3c5b4b57	0.013384662
158	0x3e99a12c	0.30005777
159	0x3e0e201d	0.13879438
160	0x3cdbd0c7	0.026832951
161	0x3e3da46a	0.1851975
162	0xbddd0399	-0.10791702
163	0xbb80d15d	-0.003931208
164	0x3d255838	0.040367335
165	0x3b930421	0.004486576
166	0x3da728ff	0.08162116
167	0xbb9c998e	-0.0047790473
168	0x3deb66b9	0.11494202
169	0x3cb639f5	0.022244433
170	0x3df5f56c	0.12009701
171	0x3d8a3c83	0.06749823
172	0x3e60320b	0.2189409
173	0x3e19b5b1	0.15010716
174	0xbe433db3	-0.19066505
175	0x3d35f934	0.04442711
176	0xbe883caf	-0.26608798
177	0xbd92af4f	-0.07162344
178	0xbe6a998b	-0.22910134
179	0x3c5cf7fa	0.013486857
180	0x3e6f64be	0.23378274
181	0xbe4ec162	-0.20190957
182	0xbe7fb19c	-0.24970096
183	0x3e0708ef	0.13187002
184	0xbe5929cd	-0.21207352
185	0x3e33c77f	0.1755657
186	0xbd8d91d1	-0.06912578
187	0xbcb4945b	-0.022043398
188	0xbddc66f3	-0.107618235
189	0x3cdad27c	0.026711695
190	0x3df73c65	0.12072066
191	0x3d30a6fe	0.043128006

lstm.weight_ih_l1 f4 [192, 48]
0	0x3cf7c4a6	0.030245136
1	0x3ebbbf03	0.36669168
2	0x3e606131	0.21912076
3	0xbda97194	-0.082736164
4	0x3d8557d6	0.06510894
5	0x3d6d281e	0.057899587
6	0xbe36fbd2	-0.178695
7	0xbe999fdd	-0.30004779
8	0xbdd1a818	-0.102371395
9	0x3dfa8d11	0.122339375
10	0xbe01788f	-0.12643646
11	0x3d9dfbc9	0.0771404
12	0xbec4bff0	-0.38427687
13	0x3d6d4a10	0.05793196
14	0x3d91f44b	0.07126673
15	0xbc849042	-0.016182069
16	0x3ec5ad6c	0.38608873
17	0x3d5902a9	0.052981053
18	0x3e115932	0.14194182
19	0x3e87b4eb	0.26505217
20	0x3953acc0	0.00020186882
21	0x3e96e497	0.29471275
22	0x3e0382f2	0.1284292
23	0xbdc5966a	-0.0964783
24	0xbd80af69	-0.06283457
25	0xbd9b89a8	-0.07594615
26	0xbcb18c88	-0.021673456
27	0xbda9ed59	-0.082972236
28	0xbde13c02	-0.10997774
29	0x3d4d7ce5	0.050167937
30	0x3d19a653	0.037512135
31	0xbda0b6c0	-0.07847357
32	0x3ec7e720	0.39043522
33	0x3e80b80b	0.25140414
34	0x3e4a462e	0.19753334
35	0x3ebc6208	0.36793542
36	0xbc42ba7a	-0.01188528
37	0x3eb0eb97	0.3455474
38	0x3db0a22b	0.08624681
39	0x3ea5b582	0.32365042
40	0xbe744601	-0.2385483
41	0xbd5b121f	-0.05348408
42	0xbda874a5	-0.08225373
43	0x3e9e375c	0.3090161
44	0xbe17ee41	-0.1483698
45	0x3dde8e31	0.108669646
46	0x3de3b989	0.111193724
47	0x3ea72602	0.32646185
48	0xbe06bfe6	-0.13159141
49	0x3e1f3cad	0.1555049
50	0x3eaca399	0.33718565
51	0x3e4c2b33	0.19938354
52	0x3e8b8fb4	0.27258074
53	0x3d6fe671	0.058569375
54	0xbea76ced	-0.3270029
55	0x3deeb784	0.116560966
56	0x3e46339c	0.19355625
57	0xbcfb97cd	-0.030712033
58	0x3c12f17a	0.008968705
59	0xbde446ef	-0.11146342
60	0xbe9658a6	-0.29364508
61	0xbde754e7	-0.11295491
62	0xbe2e1336	-0.16999516
63	0xbe9a91e0	-0.3018942
64	0xbc642f10	-0.013927236
65	0xbe6decf5	-0.23234923
66	0x3db9eecf	0.09078752
67	0x3d320e62	0.043470748
68	0xbe78645d	-0.24257036
69	0x3da54e7a	0.08071609
70	0xbea56f07	-0.3231127
71	0xbe906795	-0.28204027
72	0xbd971758	-0.07377499
73	0xbe6ef355	-0.23335011
74	0xbea81ce0	-0.3283453
75	0xbd2b3081	-0.041794304
76	0x3ceaef8c	0.028678678
77	0x3d05def6	0.032683335
78	0xbd7224cc	-0.059117123
79	0xbe31473c	-0.1731233
80	0x3dae83eb	0.08521255
81	0x3dabd7f1	0.08390797
82	0xbe807158	-0.25086474
83	0x3eb24f77	0.34826252
84	0xbe14c493	-0.14528112
85	0xbca89c57	-0.020582361
86	0xbc809380	-0.015695333
87	0xbe4dc4f8	-0.20094669
88	0x3c8c7cc2	0.017149333
89	0x3e9c8b4f	0.30575034
90	0xbe3af3ab	-0.18257014
91	0x3dd2756f	0.10276305
92	0xbda9e6d4	-0.0829598
93	0x3ea7b20e	0.32753032
94	0xbebfef1e	-0.3748712
95	0xbd084919	-0.033272836
96	0xbe4d9952	-0.20078018
97	0x3eabb3f6	0.33535737
98	0x3dae3344	0.08505872
99	0x3cdb765d	0.026789838
100	0x3c01b62a	0.007916966
101	0x3e07af57	0.1325048
102	0x3e451511	0.19246317
103	0x3e3fe648	0.18740189
104	0x3e070758	0.13186395
105	0xbe7bfe68	-0.24608767
106	0xbce6365c	-0.028102092
107	0xbd961cdf	-0.073297255
108	0x3d8ca052	0.06866516
109	0xbd8a0ce5	-0.06740741
110	0xbe21dedc	-0.1580767
111	0xbdb4b98d	-0.088244535
112	0xbda01749	-0.07816941
113	0xbd648481	-0.055790428
114	0xbde54c6f	-0.11196219
115	0x3cd9505b	0.026527574
116	0x3c433bf2	0.011916148
117	0x3dcfa40e	0.10138713
118	0x3d57ec4e	0.052715592
119	0xbde21eb3	-0.11041012
120	0xbdd27fb2	-0.10278262
121	0xbda9ee69	-0.08297426
122	0xbe9276e8	-0.28606343
123	0x3b51bf78	0.0032004993
124	0x3cbf74d8	0.023371145
125	0xbe49e767	-0.19717179
126	0xbe3b5b7d	-0.18296619
127	0x3d789674	0.06069036
128	0x3d347510	0.044056952
129	0x3e9c94ea	0.30582362
130	0x3c2d25c0	0.010568082
131	0x3d8065f9	0.0626945
132	0x3dee76d1	0.11643756
133	0x3e1adcb5	0.15123256
134	0xba4410d4	-0.0007479314
135	0xbdfbf750	-0.123030305
136	0xbe6b94d8	-0.23005998
137	0xbe645188	-0.22296727
138	0xbe05036d	-0.12989588
139	0x3dbae11c	0.091249675
140	0xbc11fa60	-0.008909792
141	0x3e384135	0.17993625
142	0xbe21d274	-0.15802938
143	0xbbda84b3	-0.006668651
144	0xbe0f0ec2	-0.13970473
145	0x3dde8cda	0.10866709
146	0x3d682e7a	0.05668495
147	0xbe0f0172	-0.13965395
148	0xbd98ada1	-0.07454992
149	0x3dcf80b8	0.10131973
150	0x3d31d769	0.04341832
151	0xbe71b3ed	-0.23603792
152	0xbb79e050	-0.0038128085
153	0xbd2b3de8	-0.041807085
154	0x3d4809f7	0.04883763
155	0xbdc0ed3e	-0.0942025
156	0xbc4a9dd5	-0.012366732
157	0xbd593c3c	-0.05303596
158	0x3d4078a5	0.046990056
159	0xbd937619	-0.0720026
160	0x3e07b8fa	0.13254157
161	0xbe42e9fd	-0.19034572
162	0xbe61a319	-0.22034873
163	0x3e0f1c54	0.1397565
164	0x3a618d69	0.00086041406
165	0x3e709e7c	0.23497957
166	0x3dd6252b	0.10456308
167	0x3d00fb6a	0.031489767
168	0xbdc0a980	-0.094073296
169	0xbe115d2d	-0.141957
170	0xbdeeb759	-0.116560645
171	0xbce89a0f	-0.028393773
172	0xbd054bc0	-0.032542944
173	0x3d001ceb	0.03127758
174	0x3df6ad74	0.12044802
175	0xbdd74303	-0.10510828
176	0x3e0fa850	0.1402905
177	0x3e23ac3b	0.1598367
178	0x3c5dcaad	0.013537091
179	0x3c2065e5	0.009789919
180	0x3dac7cc0	0.08422232
181	0x3d39757b	0.045278054
182	0xbdb17c16	-0.08666246
183	0xbe25fa28	-0.16208708
184	0xbdab3afe	-0.08360861
185	0xbd7c65c3	-0.061620485
186	0x3da5b5ab	0.08091291
187	0x3da66739	0.08125157
188	0xbe5a4624	-0.21315819
189	0x3d9721f3	0.07379522
190	0xbe0f3d79	-0.13988294
191	0x3e39c05f	0.1813979
192	0xbd819dc0	-0.063289165
193	0x3e461a40	0.19345951
194	0x3d2178b5	0.039421756
195	0x3d2ae456	0.041721664
196	0x3eaeccc1	0.3414059
197	0x3de515d1	0.11185802
198	0xbd51702c	-0.051132366
199	0x3d909d3c	0.0706124
200	0x3d94eedc	0.07272121
201	0xbe07a722	-0.1324735
202	0x3dd14bd5	0.10219542
203	0xbdde313f	-0.10849237
204	0xbe88591d	-0.26630488
205	0x3ba062ed	0.0048946054
206	0xbe5a3ce3	-0.21312289
207	0xbe17e0f1	-0.14831902
208	0x3e0899aa	0.13339868
209	0xbe0457c5	-0.12924106
210	0xbe05cc68	-0.13066256
211	0xbbc36cd6	-0.005963902
212	0x3dd0ba1f	0.1019175
213	0xbd97f827	-0.07420378
214	0xbe533cad	-0.20628615
215	0xbe07f6b0	-0.13277698
216	0xbe593cbe	-0.21214578
217	0xbd852082	-0.06500341
218	0xbe2a965b	-0.16658919
219	0x3c80d5c4	0.015726931
220	0x3e2ba780	0.16763115
221	0x3d9f6c31	0.07784308
222	0xbe8fe0c1	-0.2810116
223	0xbd5c01f0	-0.053712785
224	0xbbb78e9c	-0.005601717
225	0x3e02a165	0.1275688
226	0xbcd616ec	-0.026133977
227	0x3df45265	0.11929778
228	0xbd5dce6a	-0.05415193
229	0x3d5e647b	0.054295044
230	0xbe0ceef4	-0.13763028
231	0xbd04e5bc	-0.032445654
232	0xbe3c4179	-0.18384351
233	0x3c004773	0.007829535
234	0xbdebda54	-0.11516252
235	0x3def0d28	0.11672431
236	0x3db5470f	0.08851444
237	0x3d610563	0.054936778
238	0xbe85c6a3	-0.2612811
239	0x3da4ff54	0.080565125
240	0xbe02d311	-0.12775828
241	0xbd5e82aa	-0.05432383
242	0x3da973cb	0.08274039
243	0x3e16bc87	0.14720355
244	0xbceee642	-0.02916253
245	0x3c32e4c2	0.010918798
246	0x3e59ce90	0.21270204
247	0x3e29257c	0.16518205
248	0x3d60eab4	0.05491133
249	0x3d301a7e	0.042994015
250	0xbcecec5e	-0.028921302
251	0xbdfe47c4	-0.12416032
252	0xbe46b6e1	-0.194057
253	0x3cf219c7	0.029553307
254	0xbea6cd16	-0.32578343
255	0xbe5c4d38	-0.21513832

lstm.weight_hh_l1 f4 [192, 48]
0	0x3d4ce87f	0.050026413
1	0xbdbcb6d3	-0.092145585
2	0xbce04d0c	-0.027380489
3	0xbeb72235	-0.35768285
4	0xbe351193	-0.17682485
5	0x3de22025	0.11041287
6	0xbd1d9e4d	-0.038481046
7	0xbc135638	-0.008992724
8	0x3d1f5577	0.038899865
9	0xbe8058b3	-0.25067672
10	0xbdc82f8f	-0.09774696
11	0x3dfcbf65	0.12341193
12	0x3e42189d	0.18954702
13	0xbcc71940	-0.024304032
14	0xbeb9c0c4	-0.3627988
15	0x3d41bd32	0.04729957
16	0xbd863dbe	-0.06554745
17	0x3d98c583	0.07459547
18	0x3dfd7246	0.123753116
19	0xbe06372b	-0.13106982
20	0x3e05f314	0.13081008
21	0x3d33dafb	0.043910008
22	0xbd08ce29	-0.033399735
23	0xbdcbfa8d	-0.09959898
24	0xbe14de24	-0.14537865
25	0xbded9bff	-0.116020195
26	0xbe0b59f2	-0.1360853
27	0x3a682bd0	0.0008856626
28	0x3dcf7834	0.10130349
29	0x3bfaa15f	0.0076486315
30	0x3e1bc1b9	0.15210618
31	0xbcf9a7bc	-0.03047549
32	0x3cb0ed5a	0.021597553
33	0xbe6cc961	-0.23123695
34	0x3d6be5e5	0.05759229
35	0x3dbe499a	0.09291382
36	0x3e425f1b	0.18981592
37	0x3e0712ee	0.13190815
38	0x3e58600c	0.21130389
39	0x3e0ffa42	0.1406031
40	0x3d2cd7a7	0.04219785
41	0xbd36546c	-0.044514105
42	0xbbb51e81	-0.005527318
43	0x3d9dc881	0.07704259
44	0xbdaf244f	-0.08551847
45	0xbe66e655	-0.22548802
46	0x3e1d138a	0.15339485
47	0x3d0bc1f3	0.03412051
48	0x3d747ea3	0.059691083
49	0xbe11ac7c	-0.14225954
50	0xbde82a8a	-0.11336239
51	0xbdb502c2	-0.08838417
52	0x3cdffc42	0.027341966
53	0x3e3bf906	0.18356714
54	0xbe03ddb4	-0.12877542
55	0xbc23bff0	-0.009994492
56	0x3da2065d	0.0791137
57	0x3e4b137b	0.1983165
58	0x3d13c0bf	0.03607249
59	0x3cca714f	0.024712233
60	0x3db43b39	0.08800358
61	0xbd766e00	-0.060163498
62	0xbd7ea7dc	-0.062171802
63	0xbd906613	-0.07050719
64	0xbe0d1617	-0.13777958
65	0x3d752023	0.0598451
66	0x3e12f5ba	0.1435155
67	0x3e0ed5ee	0.13948795
68	0x3db8a12a	0.090151146
69	0xbdcb4fb6	-0.09927313
70	0x3db6bec6	0.08923106
71	0x3dd3c4fb	0.103403054
72	0x3d4ca5c9	0.049962793
73	0x3db26ac7	0.087117724
74	0xbd789578	-0.06068942
75	0x3c8861c7	0.016648186
76	0x3e06be54	0.13158542
77	0xbe152d7d	-0.14568134
78	0x3ccfea3d	0.025380248
79	0xbd00f074	-0.031479314
80	0x3e2e4b61	0.17020942
81	0xbd94d455	-0.072670616
82	0xbdaecf4f	-0.08535635
83	0xbda9f2c5	-0.08298258
84	0xbd81a1cb	-0.06329688
85	0x3dcb52ad	0.099278785
86	0x3e28abf9	0.16471852
87	0xbdd9bc82	-0.10631658
88	0x3e081fe2	0.13293412
89	0xbdb8c6fb	-0.090223275
90	0x3e6e6748	0.23281586
91	0xbd9bd7db	-0.076095305
92	0x3def2c78	0.116784036
93	0xbd9212c0	-0.071324825
94	0xbd8cf91a	-0.0688345
95	0xbe15a913	-0.14615278
96	0xbdbbb242	-0.09164859
97	0xbd4b87e1	-0.04969013
98	0xbe583fd0	-0.21118093
99	0xbd3dad57	-0.046307888
100	0xbe01af8f	-0.12664627
101	0xbe1aaef3	-0.151058
102	0x3cb1767c	0.021662943
103	0xbd8c6880	-0.06855869
104	0x3d525a19	0.051355455
105	0xbd1f54b9	-0.038899157
106	0x3c15a933	0.0091345785
107	0xbced3710	-0.02895692
108	0xbc16e5aa	-0.00921003
109	0x3dbe70ee	0.092988834
110	0x3c9c9c1d	0.01911741
111	0xbda4b4cc	-0.08042297
112	0xbe2bea53	-0.16788606
113	0xbde169c0	-0.11006498
114	0x3c773438	0.0150881335
115	0x3e6af67c	0.22945589
116	0xbd1fc709	-0.039008174
117	0xbc8ed8a7	-0.017437292
118	0xbd894188	-0.06701952
119	0xbcd059b9	-0.025433408
120	0x3c17731d	0.009243754
121	0xbe04dd08	-0.12974942
122	0xbd970ad3	-0.073751114
123	0x3ce77ae4	0.028256841
124	0x3e64190c	0.2227518
125	0xbcdac08a	-0.026703138
126	0x3e4ad077	0.19806086
127	0xbca73bc6	-0.020414244
128	0x3dafbd20	0.085809946
129	0x3d54e2c8	0.051974088
130	0x3d157c74	0.03649564
131	0xbdcb2a72	-0.09920205
132	0x3e1406e7	0.14455758
133	0xbdd6bf91	-0.10485757
134	0x3d97f3e6	0.07419567
135	0xbc939df5	-0.018019656
136	0xbcd97470	-0.02654478
137	0xbd820bb5	-0.06349889
138	0x3e7487b7	0.23879896
139	0xbe48fbc0	-0.19627285
140	0x3e39ff4d	0.18163796
141	0xbdebad5b	-0.11507674
142	0xbd5a501e	-0.053299062
143	0xbe08c638	-0.13356864
144	0x3d49408e	0.04913383
145	0x3d0cfadd	0.03441893
146	0x3d0a76d0	0.033804715
147	0xbe98a7df	-0.29815575
148	0xbddd3dc0	-0.108027935
149	0x3e15be06	0.1462327
150	0x3da28e05	0.07937244
151	0xbd374e67	-0.044752505
152	0xbcad33be	-0.021142837
153	0xbe425e99	-0.18981399
154	0xbe2ef422	-0.17085317
155	0x3db56376	0.08856861
156	0x3e0232a4	0.1271463
157	0xbdba1f97	-0.090880565
158	0xbe561281	-0.20905496
159	0x3dbd87d3	0.09254422
160	0xbe4d110c	-0.20026034
161	0x3e2c1cc1	0.16807844
162	0x3dd52155	0.10406748
163	0xbe28ce8d	-0.16485043
164	0x3d3d50d0	0.046219647
165	0xbd8d315b	-0.068941794
166	0x3d7135cd	0.0588892
167	0x3da7799e	0.081774935
168	0xbe68fd8f	-0.22752975
169	0x3b11f63b	0.002227201
170	0xbde6d8fb	-0.112718545
171	0xbcefb445	-0.029260764
172	0xbd15bd6e	-0.036557607
173	0x3e05376f	0.13009427
174	0x3d67db0e	0.05660539
175	0x3dfd7e4e	0.12377606
176	0x3de11e45	0.109921016
177	0x3df33664	0.118756086
178	0xbbb3a2b8	-0.005482044
179	0xbc0275eb	-0.007962684
180	0xbe1abc20	-0.15110826
181	0x3e0a1584	0.1348477
182	0xbdc98104	-0.09839061
183	0xbdeca727	-0.11555319
184	0x3cce0ea2	0.025153462
185	0x3d3e7f21	0.04650796
186	0xbdb0821c	-0.086185664
187	0x3db3f2a0	0.087865114
188	0x3d9c55e8	0.07633573
189	0xbe1654cb	-0.14680783
190	0x3d02af5c	0.031905517
191	0xbd0ca1e6	-0.034334086
192	0xbe783fa7	-0.24243031
193	0xbe1c3273	-0.1525362
194	0xbc12ca68	-0.00895939
195	0x3d19aef9	0.037520383
196	0xbe21c1a2	-0.15796521
197	0x3e36e9b0	0.17862582
198	0xbe74575f	-0.23861454
199	0xbdf77e27	-0.120846085
200	0x3da86e29	0.082241364
201	0x3ea3874a	0.31939155
202	0x3dbbda89	0.09172542
203	0x3d4443ba	0.04791615
204	0xbd46a1b6	-0.048494063
205	0x3e2e21b7	0.17005049
206	0x3d4553fb	0.048175793
207	0xbe08ec0d	-0.13371296
208	0x3b8cd4ff	0.004297852
209	0xbe873cfe	-0.2641372
210	0x3d67f9d2	0.05663473
211	0xbd842a76	-0.06453411
212	0x3c73746b	0.014859299
213	0x3d48a76a	0.048987783
214	0xbd1b69ad	-0.037942577
215	0x3deceaf0	0.11568248
216	0x3d371c3f	0.044704672
217	0x3dab561c	0.083660334
218	0xbda39613	-0.07987609
219	0xbe0395dc	-0.12850136
220	0x3e0bd419	0.13655128
221	0xbc6efeef	-0.014587148
222	0x3d04dad0	0.03243524
223	0x3d82c472	0.06385125
224	0x3e35549a	0.17708054
225	0xbd7ca695	-0.061682303
226	0x3de3815f	0.1110866
227	0x3ce625da	0.02809422
228	0x3da6934d	0.08133564
229	0xbdf70ff2	-0.12063588
230	0x3c250aac	0.010073345
231	0xbd9c501d	-0.07632468
232	0xbdd3d39a	-0.10343094
233	0xbece48eb	-0.40290007
234	0x3d9b44d0	0.07581484
235	0x3d030c1a	0.031993963
236	0xbd6ffa3d	-0.058588255
237	0xbd3881e4	-0.04504575
238	0x3c9ca15e	0.019119915
239	0x3c0775d2	0.008267837
240	0xbd7dcaf8	-0.061961144
241	0xbe3d57a9	-0.18490471
242	0xbe83fc7d	-0.2577857
243	0xbda29465	-0.0793846
244	0x3d08ee00	0.0334301
245	0x3d227d9e	0.03967058
246	0xbe2219c8	-0.15830147
247	0x3ca054ea	0.01957174
248	0x3daf1a97	0.085499935
249	0xbd3434fd	-0.043995846
250	0x3d8ca6e0	0.068677664
251	0xbb2eff70	-0.0026702546
252	0x3d0bdeeb	0.034148138
253	0x3e17939b	0.14802401
254	0xbd4bbfa9	-0.04974333
255	0xbdad5998	-0.08464354

lstm.bias_ih_l1 f4 [192]
0	0xbdae5e3d	-0.08514068
1	0xbabd6141	-0.001444854
2	0x3e28acfc	0.16472238
3	0x3cd465c2	0.025927428
4	0x3da8b204	0.08237079
5	0xbd603483	-0.05473758
6	0x3de4577a	0.11149497
7	0x3e07f1ba	0.13275805
8	0xbc67fcab	-0.014159362
9	0xbe069cb0	-0.13145709
10	0x3d1aedcd	0.03782444
11	0xbe2a95c2	-0.1665869
12	0x3e3ff587	0.18746005
13	0x3e355b75	0.1771067
14	0x3e25e9a3	0.16202407
15	0x3dbb8efb	0.09158131
16	0x3d6b0398	0.057376474
17	0xbe0e50fb	-0.13898079
18	0x3e08ee2d	0.13372107
19	0xbd01ee51	-0.031721417
20	0x3ce01287	0.027352585
21	0x3de616b1	0.11234797
22	0x3e50ca36	0.20389637
23	0x3e6965d0	0.22792745
24	0x3e28cc3b	0.16484158
25	0xbd8f67bf	-0.0700221
26	0x3e4c5bfe	0.19956967
27	0x3df8795c	0.121325225
28	0xbd4a0635	-0.049322326
29	0x3e0541ad	0.13013335
30	0x3ecda287	0.4016306
31	0x3e2b0b49	0.16703524
32	0xbd999887	-0.074997954
33	0x3e469183	0.19391446
34	0x3df7a064	0.12091139
35	0x3e4bfe81	0.19921304
36	0x3d06e4f5	0.032933194
37	0xbe79fe5b	-0.24413435
38	0x3dd10e09	0.10207755
39	0xbe583eb3	-0.21117668
40	0x3e61bc74	0.22044545
41	0xbd929e37	-0.07159083
42	0xbdb235ea	-0.087016895
43	0x3e853af6	0.26021546
44	0xbd2073ae	-0.03917282
45	0x3de699c1	0.11259795
46	0x3ca4a605	0.020098696
47	0xbcda3b81	-0.026639702
48	0xbd018e66	-0.031629942
49	0xbe429526	-0.19002208
50	0xbd8c789b	-0.06858941
51	0xbe779df7	-0.24181353
52	0xbe0056e8	-0.12533152
53	0x3d993412	0.07480635
54	0xbdc1a23e	-0.09454773
55	0x3cf50b5f	0.029912649
56	0x3cbdd5cf	0.023173241
57	0xbd9f2d82	-0.07772352
58	0x3cbf9de8	0.023390725
59	0x3b48406b	0.0030555974
60	0xbcc9a435	-0.024614433
61	0xbe545e92	-0.207392
62	0xbe2bac01	-0.16764833
63	0x3cf44d97	0.029822154
64	0xbd44847e	-0.047977917
65	0xbe5d41f4	-0.2160719
66	0xbe27bb85	-0.16380127
67	0xbda3a04d	-0.07989559
68	0x3dbb5b62	0.09148289
69	0xbdf985d0	-0.12183726
70	0xbe2c5014	-0.16827422
71	0xbd0415c3	-0.032247316
72	0xbdb6026a	-0.08887179
73	0xbd2c5d56	-0.0420812
74	0xbde8c97f	-0.11366557
75	0x3c80e900	0.015736103
76	0xbe26f20b	-0.1630327
77	0xbe5e1ea1	-0.21691372
78	0xbd9c3f9e	-0.076293215
79	0x3e005569	0.12532581
80	0xbe1978f8	-0.14987552
81	0xbe228659	-0.15871562
82	0xbcce433f	-0.02517855
83	0xbc63ba8f	-0.0138994595
84	0x3d2e6e8b	0.04258589
85	0xbc9e40f0	-0.019318074
86	0xbe05c835	-0.13064654
87	0xbd521800	-0.05129242
88	0xbe0c746c	-0.13716286
89	0x3da95dff	0.082698815
90	0x3d80899a	0.062762454
91	0xbdc382ba	-0.095464185
92	0x3de976ae	0.113995895
93	0xbde091da	-0.10965319
94	0xbe3b1846	-0.18270978
95	0xbe236c0a	-0.15959182
96	0x3df0fa6e	0.11766516
97	0x3d5695e4	0.05238904
98	0x3d97ace2	0.07406022
99	0x3ce92243	0.02845872
100	0xbd81b17c	-0.063326806
101	0x3dbafbc6	0.09130053
102	0x3c97b72b	0.018519958
103	0x3c8fb821	0.017543854
104	0xbdf269c5	-0.1183658
105	0x3de9603c	0.113953084
106	0xbe528703	-0.20559315
107	0xbd77edcc	-0.060529515
108	0x3dfcd2cc	0.12344894
109	0x3daa1ada	0.08305903
110	0xbc591b0c	-0.013251077
111	0x3d8cfe87	0.06884485
112	0x3d54ed73	0.05198426
113	0xbe139cf2	-0.14415339
114	0xbd07d3a5	-0.033160824
115	0xbe17cc60	-0.14824057
116	0x3dd30dc8	0.10305363
117	0xbcd3b5f9	-0.025843607
118	0x3dcf9b64	0.1013706
119	0x3e897bc5	0.2685224
120	0x3d36ae39	0.044599745
121	0xbd971f9a	-0.073790744
122	0x3db6a8ed	0.08918939
123	0xbe1bbc60	-0.15208578
124	0x3d6095a8	0.054830223
125	0xbc9f40cb	-0.019440075
126	0xbd88d81c	-0.066818446
127	0xbe0f060f	-0.13967155
128	0xbe0b6d2a	-0.13615862
129	0xbd8b7678	-0.068097055
130	0xbdc9e93f	-0.09858941
131	0x3d8fc3fb	0.07019802
132	0xbe3150e0	-0.17316008
133	0xbd6bb390	-0.05754429
134	0xbd5e66a6	-0.054297112
135	0xbdd706a4	-0.104993135
136	0x3c02262e	0.007943673
137	0xbda6f86a	-0.0815285
138	0x3d05b51a	0.032643415
139	0x3c7eae02	0.015544416
140	0xbdb1b8f8	-0.08677858
141	0x3dbd788f	0.0925151
142	0xbd464a7e	-0.048410885
143	0xbd8886ac	-0.066663116
144	0x3e07433f	0.13209246
145	0xbd6addbc	-0.05734037
146	0x3d6f6437	0.05844518
147	0x3d9e7558	0.07737225
148	0x3df00c6a	0.11721118
149	0x3ddfab5e	0.109213576
150	0xbd0ef2ef	-0.03489965
151	0x3d33e337	0.04391786
152	0x3cac461d	0.021029526
153	0xbd77e790	-0.06052357
154	0x3de80f36	0.11331026
155	0x3d24ffa2	0.040282853
156	0x3e6e9618	0.23299444
157	0x3caef870	0.021358699
158	0xbd1e79c0	-0.03869033
159	0x3d8dcf48	0.069243014
160	0xbdc65823	-0.096847795
161	0x3def43ca	0.116828516
162	0x3dbeff3e	0.09326027
163	0xbdc754cf	-0.09732973
164	0x3b3f2a52	0.0029169512
165	0x3d3a6be4	0.04551305
166	0x3e2d3ee9	0.1691853
167	0x3d94b41f	0.07260918
168	0x3e8773ca	0.26455528
169	0x3e27bf67	0.16381608
170	0x3c64c73b	0.013963516
171	0xbc644f9c	-0.013934996
172	0x3b99d6de	0.0046948036
173	0xbde222a9	-0.11041767
174	0x3e8be26d	0.27321187
175	0x3e07b09e	0.13250968
176	0x3c47fd3c	0.012206372
177	0x3e05737d	0.13032337
178	0xbdbdd48f	-0.09269058
179	0x3e2edd70	0.17076659
180	0x3de16287	0.11005121
181	0xbe2aa04f	-0.16662715
182	0x3de5be5c	0.11217949
183	0xbe0c6f7b	-0.13714401
184	0xbc2c05d0	-0.010499433
185	0xbe1f4523	-0.15553717
186	0x3df7af2e	0.1209396
187	0x3e51646e	0.20448467
188	0xbdd2951e	-0.10282348
189	0x3d812294	0.063054234
190	0xbd4659f7	-0.04842564
191	0x3c543ab9	0.012953454

lstm.bias_hh_l1 f4 [192]
0	0x3dda3a47	0.10655647
1	0xbd323ef5	-0.04351707
2	0x3d989668	0.07450563
3	0x3e916091	0.28393987
4	0xbd2b6e48	-0.04185322
5	0xbca1619c	-0.019699864
6	0x3e358a92	0.17728642
7	0x3e1e7ea7	0.15478002
8	0xbdf24619	-0.11829776
9	0xbc552409	-0.01300908
10	0x3e00c8a1	0.12576534
11	0x3cf46942	0.029835347
12	0x3e75425b	0.23951094
13	0xbd61c5aa	-0.055120148
14	0x3e3d822c	0.18506688
15	0x3e391ae3	0.18076663
16	0x3c9ad7b0	0.018901676
17	0xbde83b51	-0.11339439
18	0x3ea1acc3	0.3157712
19	0xbe08b07d	-0.13348575
20	0x3dd14793	0.1021873
21	0x3d8667c4	0.065627605
22	0x3e268aae	0.1626384
23	0x3d16ff45	0.036864538
24	0x3e960133	0.2929779
25	0xbb3b20c4	-0.0028553465
26	0x3c00420c	0.007828247
27	0x3e36fa26	0.17868862
28	0xbdd3231b	-0.1030943
29	0xbdc98590	-0.09839928
30	0x3ea806ae	0.32817596
31	0x3db5b693	0.08872714
32	0xbd21b94d	-0.039483357
33	0xbd700757	-0.05860075
34	0x3e237466	0.15962371
35	0xbceca279	-0.028886067
36	0x3d1828e7	0.037148383
37	0xbe919176	-0.2843129
38	0x3e4b44e1	0.19850494
39	0xbe7ff179	-0.24994458
40	0x3d23f056	0.040024124
41	0x3d3c4533	0.04596443
42	0x3c115069	0.008869269
43	0x3dec586f	0.11540305
44	0xbdb4bccd	-0.088250734
45	0xbc8fc0ab	-0.017547926
46	0x3dd1bdaf	0.102412574
47	0xbdd2462e	-0.10267292
48	0xbe5764ca	-0.21034542
49	0xbdc6f56b	-0.097147785
50	0xbd67aa03	-0.05655862
51	0x3a8b1279	0.0010610364
52	0x3dd268a7	0.10273867
53	0x3d29c189	0.041444335
54	0x3d720c7a	0.05909393
55	0xbe17b393	-0.14814596
56	0xbce74fea	-0.028236348
57	0xbdc7bb07	-0.097524695
58	0xbdb8cf30	-0.09023893
59	0xbe0fb5bf	-0.14034174
60	0x3acced3f	0.001563467
61	0xbd2a09d8	-0.041513294
62	0xbe0d3e4e	-0.13793299
63	0xbdd43302	-0.103612915
64	0xbdba19b1	-0.090869315
65	0xbde487be	-0.11158703
66	0xbe031edc	-0.1280474
67	0xbd9c2767	-0.07624703
68	0xbd3acda9	-0.04560629
69	0xbe8d58fb	-0.2760695
70	0xbe057fc0	-0.13037014
71	0x3d9252ac	0.07144675
72	0x398d9856	0.00027007115
73	0xbe196042	-0.14978126
74	0x3de3d277	0.11124127
75	0x3d0701bf	0.03296065
76	0x3d26aad5	0.040690262
77	0xbe6b039e	-0.22950599
78	0xbdb38618	-0.08765811
79	0x3dee83d7	0.1164624
80	0xbd8f248b	-0.06989392
81	0xbaedae3e	-0.0018133593
82	0x3dc13d54	0.094355255
83	0xbdc817a2	-0.097701326
84	0x3abb0d18	0.001427087
85	0xbd4fbfba	-0.050719954
86	0xbe50f84e	-0.2040722
87	0xbe530623	-0.2060781
88	0x3d1cdc19	0.03829584
89	0xbdf75182	-0.12076093
90	0xbdcd9db5	-0.10039846
91	0xbe1f18ea	-0.15536848
92	0x3d6682ef	0.05627721
93	0xbdd9072a	-0.105970696
94	0xbdea8ef1	-0.11453045
95	0x3c8df0fe	0.017326828
96	0xbd81ca70	-0.0633744
97	0x3deccf49	0.11562974
98	0x3b359bbf	0.002771124
99	0xbde995a2	-0.11405493
100	0x3ddc56cb	0.10758742
101	0x3ddaebac	0.10689482
102	0xbda42a7e	-0.08015917
103	0x3e45a10e	0.19299719
104	0xbe1ddf1a	-0.15417138
105	0xbd5c7421	-0.053821687
106	0xbe6654d0	-0.22493291
107	0xbde23d81	-0.11046887
108	0xbdb7f6a0	-0.08982587
109	0x3d8a9756	0.06767146
110	0x3df9e3fd	0.122016884
111	0x3e3434cf	0.1759827
112	0x3d967fc2	0.073485866
113	0x3dd5838b	0.104254805
114	0xbdac0e77	-0.084011964
115	0x3b552825	0.0032525149
116	0x3ded0a39	0.115742154
117	0x3d63d809	0.05562595
118	0xbd9c0555	-0.076182045
119	0x3e9522e7	0.2912819
120	0x3caacd83	0.020849949
121	0x3e024420	0.127213
122	0x3dadb09d	0.08480952
123	0xbe1305ba	-0.14357653
124	0x3d420339	0.047366355
125	0x3a0a4057	0.00052738696
126	0xbd487a02	-0.04894448
127	0xbe544948	-0.2073108
128	0xbd92bac6	-0.071645305
129	0x3ceb7b3b	0.028745284
130	0xbe5d4955	-0.21610005
131	0x3a22ef1e	0.0006215441
132	0xbdffdc17	-0.12493151
133	0xbdab2b25	-0.083578385
134	0x3d04f1ec	0.032457277
135	0xbcb8864e	-0.022524979
136	0x3d51cd7d	0.05122136
137	0xbde46d5b	-0.111536704
138	0xbcba9e98	-0.022780702
139	0xbd753d9b	-0.059873205
140	0x3c72be81	0.0148159275
141	0xbc9c2ae2	-0.019063417
142	0xbd33d4aa	-0.043903984
143	0xbdecd63a	-0.11564298
144	0xbddcd4b6	-0.10782759
145	0xbbdd9e80	-0.0067632794
146	0x3e21e372	0.1580942
147	0x3e5b5bfb	0.21421807
148	0x3e2e82c6	0.17042074
149	0x3d8fc22c	0.07019457
150	0xbd3cba38	-0.04607603
151	0x3dcfb095	0.10141102
152	0xbe190ddc	-0.14946693
153	0x3d93f3d4	0.07224241
154	0x3d781d48	0.0605748
155	0xbc610154	-0.013733227
156	0x3dba14e2	0.09086014
157	0xbd0b6376	-0.0340304
158	0x3dcf31f1	0.101169474
159	0xbda7fd7e	-0.08202647
160	0x3d1b56c1	0.03792453
161	0xbde778fa	-0.11302371
162	0x3e7b4109	0.24536528
163	0xbd5e4d3a	-0.054272868
164	0x3e1f17cd	0.15536423
165	0x3dcd15c2	0.100139156
166	0xbc49b9b0	-0.012312338
167	0x3e20ed90	0.15715623
168	0x3e570c5b	0.21000807
169	0x3da30bd0	0.079612374
170	0x3e524856	0.20535406
171	0xbdef529d	-0.11685679
172	0x3e13a707	0.14419185
173	0xbbb03463	-0.0053773387
174	0x3ea9d8ff	0.33173367
175	0xbdaf5a4e	-0.08562146
176	0xbad2bd29	-0.0016078103
177	0x3e311b53	0.1729558
178	0x3df8c98e	0.121478185
179	0xbdc2476b	-0.09486278
180	0x3d92cff5	0.07168571
181	0xbea3a811	-0.31964162
182	0x3d5e3456	0.05424913
183	0xbead3f3b	-0.33837304
184	0x3de328d5	0.110917725
185	0xbe37eff4	-0.17962629
186	0xbda5aa61	-0.08089138
187	0x3d91640a	0.07099159
188	0xbe6b4cef	-0.22978567
189	0x3debd55d	0.11515305
190	0x3d1a43fc	0.03766249
191	0xbe00dc47	-0.12584029

linear.weight f4 [2, 48]
0	0x3e5b8473	0.21437244
1	0x3e1839f3	0.14865856
2	0x3d8450b1	0.06460703
3	0xbe9b5ec7	-0.30345747
4	0x3de4853e	0.111582264
5	0xbd3f6e6f	-0.046736177
6	0x3daeabcf	0.08528864
7	0x3e1032d0	0.14081883
8	0x3d08a71c	0.033362493
9	0x3db128d5	0.08650366
10	0xbda2429a	-0.079228595
11	0xbbf32c5d	-0.00742106
12	0x3e857a13	0.26069698
13	0x3e1226e1	0.14272644
14	0x3e0a2489	0.134905
15	0x3e2f4338	0.17115486
16	0x3e0502a4	0.12989289
17	0x3e08930c	0.13337344
18	0xbe8348f7	-0.25641605
19	0x3c8b4e33	0.017005062
20	0x3e8486c3	0.25884065
21	0x3e37b52b	0.17940204
22	0xbe95cadd	-0.29256335
23	0x3e62046d	0.22072001
24	0xbe829457	-0.255038
25	0xbe13c04e	-0.14428827
26	0x3e8119fb	0.25215134
27	0xbe747b4e	-0.23875162
28	0xbe2d198c	-0.16904277
29	0xbe086a81	-0.13321878
30	0xbe8b3eb2	-0.2719627
31	0x3c1fa85d	0.009744731
32	0xbda49cd6	-0.080377266
33	0x3dce775b	0.10081359
34	0xbd9b8b63	-0.07594945
35	0x3e113bbc	0.14182943
36	0xbdd0111a	-0.10159512
37	0xbbce39fb	-0.006293533
38	0x3c45d167	0.012073851
39	0x3daa6aff	0.08321189
40	0x3eb706bb	0.35747322
41	0x3e1ebc51	0.15501525
42	0xbe46fcee	-0.19432423
43	0x3e8e52cf	0.27797553
44	0xbd2da49d	-0.042393316
45	0xbe71b76f	-0.2360513
46	0xbe385499	-0.18001021
47	0x3de601fa	0.11230846
48	0xbcfff978	-0.031246886
49	0x3de7f3cc	0.113257974
50	0x3e3e0626	0.18557033
51	0x3e25c3c2	0.16187957
52	0x3e04bf72	0.12963656
53	0x3e5565f6	0.20839676
54	0x3e47d657	0.19515358
55	0x3e074e51	0.13213469
56	0xbe668bbe	-0.22514245
57	0x3e00f0e0	0.12591887
58	0xbe77bbcf	-0.24192737
59	0xbe238e5b	-0.15972273
60	0xbd2a9140	-0.041642427
61	0x3e1e630c	0.15467471
62	0x3e2e1d78	0.17003429
63	0x3ddec82e	0.10878025
64	0x3dbcd9ca	0.092212275
65	0xbd431ad3	-0.047633003
66	0x3bcecd84	0.0063111205
67	0xbe22f562	-0.15913919
68	0xbcb07fd1	-0.021545323
69	0xbe579f57	-0.21056877
70	0x3e706125	0.23474558
71	0x3e0f2bdd	0.13981576
72	0x3cf2dc1e	0.029645976
73	0x3e5fd125	0.21857126
74	0x3e008ac2	0.12552932
75	0xbd889fb6	-0.066710874
76	0xbdb69eee	-0.08917032
77	0x3e4769f1	0.19474007
78	0x3d9f4820	0.077774286
79	0xbe864d7e	-0.26230997
80	0xbe14d4ab	-0.14534251
81	0x3e17d8f5	0.14828856
82	0xbe699540	-0.2281084
83	0x3e7313b3	0.23737983
84	0xbe5dfa45	-0.21677501
85	0xba63cdd4	-0.00086900336
86	0xbe64433c	-0.22291273
87	0x3ce2e71f	0.027698098
88	0xbdf1c577	-0.118052416
89	0x3da69ea2	0.081357256
90	0xbdd6061f	-0.10450386
91	0xbcfb201e	-0.030654963
92	0x3e07debf	0.13268565
93	0x3d6fee1e	0.058576696
94	0xbe069862	-0.13144067
95	0xbe5ff574	-0.21870977

linear.bias f4 [2]
0	0x3e4701da	0.194343
1	0x3d942e70	0.0723542
