cheakpoint/training_epochs_200_stepsize_7_gamma_0.75/model_epoch40.pth (torch, 117569 bytes, 10 tensors)

lstm.weight_ih_l0 f4 [192, 2]
00000000: 04d8 36be 145c 373d b083 92be 0ab3 19be
00000010: 53bd 0e3c c3be 7abc ea91 dc3d c83a 123e
00000020: a782 7b3e 195f d93d 40e8 88be 9542 81bd
00000030: 768b 6f3e 105d 5a3e e812 053e 8639 ae3d
00000040: 4ba0 a53e 69fa a93e c612 56be 8d34 c13d
00000050: 5287 163e 9142 f6bc 5dd6 32bd a8c5 8d3c
00000060: 47dc de3d 70cc 77bd aa18 483d 21cc b3bd
00000070: 158f b43e 8639 b83d 9a62 593e 73ac ab3d
00000080: de9e 69bc 6002 b7bd 2bf8 ac3e f0cb 913e
00000090: 6f23 bd3d 6a0b cc3d 5cb5 36be 0101 40be
000000a0: 6a3e c7bd 6250 72be 1f0f 4ebe a08b e1bc
000000b0: e395 5a3e bfc7 843d c275 893e f05b 853e
000000c0: 819e 8abd 912f 023d 8346 d33d dc3e 623e
000000d0: 0536 32bd 7050 363e 6f63 4b3d e05c dd3d
000000e0: 6cec e73d 61b8 74be 0e4e c43e 1957 9dbd
000000f0: 2689 30be dcec d6bd 169a d43d fc32 1a3d
00000100: f399 a4be 3a1d adbe 3728 c8be 6f77 ecbe
00000110: 7ef2 fabd 22a3 343e 45ce 263d 3433 843c
00000120: 2aef 613e d446 563d f4fc 8abd 0bf5 92be
00000130: 0377 34be 7658 c8be e294 003d a4c3 2c3e
00000140: b753 82be 9900 2bbe e746 f33d e0ca 393e
00000150: 2298 4d3d 9601 b2bc f3af 0ebe 1df9 79be
00000160: 33b2 54be b033 ffbc 930c fa3d d85f 963d
00000170: 2f95 263e 8c75 873e 4266 a13b defe 08be
00000180: ed4d 12bd 42fa ba3d 3b3c 963d b8ee 843d
00000190: 028d 65be b418 68bd beea b1bd b471 d33d
000001a0: 20e1 f0bc e37c 533e 1ee4 d9bd 3142 c43c
000001b0: 94b6 66be e1cb 513d 363a dfbd d14d b2bd
000001c0: bc0f 563e 9393 a23e 6a62 85bc dc38 7e3c
000001d0: f412 803e 6cf0 4e3e 2503 debd 337b b33c
000001e0: 303f 09be 53d2 e63d 8949 b53e bb30 39bd
000001f0: a35a 6d3e 15ce 933e 6791 35bd 7886 12be
00000200: d2f5 5bbe 0e94 6bbe be51 b83d ab9a 2e3d
00000210: 4a74 0f3d d7bb 8a3c 6c0b 4d3e aaa0 503e
00000220: a2d3 36be 3574 05be 25c2 72be d363 a03c
00000230: e513 a0bc 51f1 7e3d 535e 983e 4acb 8b3e
00000240: e597 483d 82d9 23bd d3c1 073e 5e09 b43e
00000250: 9566 11be 3b45 0b3e 7a68 303e 8c2d 45be
00000260: 504d ad3e b3f7 2d3e fe55 7a3e 9f56 cdbd
00000270: c7cc 6a3d 5f77 56bd 1654 3b3e ed49 a73e
00000280: fe68 a8bd adda 17be ec81 083d acee 2abd
00000290: e7d5 ea3d cda1 903d b5fb 29be 5345 37bd
000002a0: ad73 793e 0b4e be3d 106c 333d 5400 cabd
000002b0: a5d5 043d f1f0 86be 9cbe 063e f963 d8bc
000002c0: 37cb 31bd 6726 58be 5b65 583d d401 303e
000002d0: 3ca6 953c 220d 833e 8027 27be b41f 34be
000002e0: 3de6 2a3e 1d78 b7bd 5ca8 363e 6827 b43d
000002f0: b363 b33d 0976 af3e 89ed 693d 7f7e bebe
00000300: 91b8 f43d 2594 b3be 9ff4 cf3d ec13 6b3e
00000310: 41fc 053e fcf4 b33e 8cec c4bd 224e 033f
00000320: b99e 843e 6a35 a33e 5341 a33c 3fb0 653e
00000330: 182c 07bf c89b 2d3d a130 66bd 1823 ac3e
00000340: 5fa4 fb3e 15a1 8f3e 3da8 b43e 2b5b ec3d
00000350: d2e5 15bd 43bd 9abe ce78 ebbd 7d7c c7be
00000360: 773c 86be e9d4 b3be a010 b4be 6c8f 193d
00000370: 5aba fb3d f8db ecbe cc92 21be 21a6 99be
00000380: 252b bb3e c2ba 97bd b136 cd3e 027c b5be
00000390: 0004 4d3e 26d7 9b3e 0c39 833e 2c2e 563e
000003a0: 81e9 5abe 99bf 20be 127e 903e 9041 68bd
000003b0: 7f07 48be ab6a acbe e807 3abe 8e87 b1be
000003c0: a4a4 a43e fa03 37be 4b1c 92bd 290c b5be
000003d0: a67b 4f3e ac79 bdbe 2ccc f9be 9736 e83c
000003e0: ba3e 77be ca3e be3d 3c14 ea3e 69e7 a5be
000003f0: 5a90 afbe b2c4 0dbe 2852 5b3d f1a9 cdbe
-0.17855841 0.044765547 -0.28616095 -0.15009704 0.008712131 -0.01530427 0.107700184 0.14280236
0.24561559 0.106138416 -0.26739693 -0.06311528 0.23393044 0.21324563 0.12995493 0.085070655
0.32348856 0.3319886 -0.20905599 0.094338514 0.14700058 -0.030061038 -0.043661464 0.017306164
0.10881858 -0.0604977 0.048851646 -0.08779169 0.35265413 0.08995347 0.2122902 0.083825015
-0.014259068 -0.08936 0.33783087 0.28475904 0.09235274 0.099631146 -0.1784262 -0.18750383
-0.097287014 -0.23663476 -0.20122956 -0.027532399 0.2134624 0.06483411 0.26847655 0.26046705
-0.067685135 0.031783644 0.103161834 0.22094291 -0.04350855 0.17804122 0.049655374 0.1080873
0.11324391 -0.2389846 0.383408 -0.07682628 -0.17239818 -0.10494396 0.10380952 0.03764628
-0.32148704 -0.3381136 -0.39093181 -0.4618487 -0.12253283 0.17640355 0.040724058 0.016137697
0.2206389 0.05231364 -0.06786528 -0.28702578 -0.17623524 -0.3912999 0.031391986 0.16871506
-0.25454494 -0.16699447 0.11878758 0.18143797 0.050193913 -0.021729272 -0.13934307 -0.24411435
-0.20771103 -0.031152576 0.122094296 0.073424995 0.16267847 0.2645687 0.00492552 -0.13378474
-0.035718847 0.09129764 0.07335707 0.064908445 -0.22417071 -0.056664184 -0.08687352 0.103244215
-0.029404223 0.20653109 -0.10639213 0.023957344 -0.22530586 0.051219825 -0.10899775 -0.087062486
0.2090444 0.31753215 -0.016282279 0.015516486 0.2501446 0.20208901 -0.108404435 0.021909332
-0.1340301 0.11270585 0.35407665 -0.04521249 0.23179106 0.28868166 -0.04432812 -0.14309108
-0.21480492 -0.23005697 0.08999966 0.04262797 0.03502301 0.016935272 0.20023888 0.20373788
-0.17854169 -0.1303261 -0.23706873 0.01957885 -0.019540736 0.062241856 0.29759464 0.27303535
0.048972983 -0.040002353 0.13257532 0.35163397 -0.14199288 0.13600628 0.17227355 -0.19255656
0.33848047 0.16989021 0.24446866 -0.10026287 0.057324197 -0.052359935 0.18293795 0.32673588
-0.08223151 -0.14829512 0.03332703 -0.04173152 0.1146658 0.07062111 -0.16599925 -0.044743847
0.24360533 0.09292229 0.04380423 -0.09863344 0.03243031 -0.263557 0.13158649 -0.026414858
-0.04340669 -0.211084 0.052831035 0.17188197 0.018267743 0.25595957 -0.16323662 -0.17590219
0.16689391 -0.08958457 0.17837662 0.08796579 0.087592505 0.3426974 0.057111297 -0.37205884
0.11949266 -0.35073963 0.1015408 0.22956818 0.13084508 0.35147846 -0.0961543 0.51291096
0.25902346 0.3187669 0.01992861 0.22430514 -0.52801657 0.042384893 -0.05619872 0.33620524
0.49148843 0.28052583 0.35284606 0.115408264 -0.036596127 -0.3022252 -0.11497651 -0.38962165
-0.26218006 -0.35123375 -0.35168934 0.037490293 0.12291403 -0.46261573 -0.15778655 -0.3000956
0.36556354 -0.07408668 0.4008079 -0.35446173 0.20021057 0.30437583 0.2562946 0.2091605
-0.21378137 -0.15698089 0.28221184 -0.05670315 -0.1953411 -0.3367513 -0.18167078 -0.34673733
0.3215686 -0.1787261 -0.07134303 -0.3536084 0.20262012 -0.3700689 -0.48788583 0.028346343
-0.24145022 0.0928932 0.45718563 -0.32403114 -0.3428982 -0.13844565 0.053545147 -0.40168718

lstm.weight_hh_l0 f4 [192, 48]
00000000: c85e 0c3d 4b3c 393e 1721 a6bc a146 92bd
00000010: 2eb5 e2bb 02b5 aebd 1dac f8bc b9c0 83bc
00000020: f682 23bd 59eb 0a3d efdf 79bd 01af d8bc
00000030: 7795 13bd 4bd8 593e 4a34 4b3c 718e f9bd
00000040: d9c0 db3d 5a24 74bd ddeb 0abe e993 bd3d
00000050: 4ca1 b4bd 3094 da3c 5ba2 0cbd 5945 f13d
00000060: f764 09be 0c69 b43d 4018 14be d58f 92bd
00000070: c306 06be 189d 16be 7926 5fbd 2917 453d
00000080: fbe0 8fbd 2ba6 c93d 2688 453e 6949 cb3d
00000090: b0a1 0f3d 3feb 013e 1c68 e3bd e818 ae3c
000000a0: fdbf 753b f2ad d0bd 0e54 a7bd f7b9 4d3e
000000b0: 98ac cdbd c53c 993d 2b40 bb3d dba2 c83d
000000c0: 5ea7 903d 68bb 3abe 0d20 d0bb 9608 70be
000000d0: 73f5 7cbe b847 33be 9a11 cf3e d983 22be
000000e0: afb3 aebe a8db 1fbe a045 1a3f c83d 8d3e
000000f0: 9f83 933e 398b e73e 1171 d83e 2b49 a13e
00000100: e24d 623a 1337 57be f34c 93be 368b 83be
00000110: b882 653e 1f9e 4d3d ee6b 8d3e 44c5 a03e
00000120: c05a 06bf 8529 183f 08c5 dcbd 8df9 a63e
00000130: e992 4c3e d3fd 9dbe feff 8a3e bd41 893e
00000140: 5252 03be 058d b13d 6bf4 a03e 8cee acbe
00000150: 1135 fe3e 3f2a 1dbe 520c dc3d 5995 0bbe
00000160: bbfe f23d 1bd5 14bf a465 803e 9b6c 623b
00000170: 127b 96bd 1646 c7be 82b3 a73e 7453 bebd
00000180: fb07 e1bb 8256 f9bd 975d 46bd f33f f2bd
00000190: 2731 10be b94f 09be 6c0d 35bd a527 8ebe
000001a0: 82e4 2ebc 3fe3 b4bd 80e3 1d3e ddaa 103e
000001b0: ef72 333d a67c 8d3d 34cd 993e 2720 203e
000001c0: 9d8d f13c e9de 07be ba65 88bd 3675 a9bd
000001d0: 19c4 22be 5890 bb3b d238 4abd 2343 7c3e
000001e0: 1889 49be 41d7 103e 7d83 1ebe d1ab e4bd
000001f0: 1582 3ebe a95c 74bc db79 843d 7704 753c
00000200: 76e4 0fbd bc18 003d 582d cdba 4e49 11bc
00000210: 2a75 19bd 28b1 be3d af91 253e ab67 573d
00000220: a211 89bd a73e 0bbe fc47 3abb f561 8b3e
00000230: 5493 6fbe 4432 c9be 9f85 3e3e 7ad6 713e
00000240: 2379 543e 0541 113f aa8e d33d f718 7abd
00000250: 331f 8ebc 19b6 043a 896a 76be 9524 16be
00000260: f43d 8fbd 7fd5 663e 6060 ec3d 5f5d 4d3e
00000270: 67b3 eebc 457f cfbd bf3b f73d 3e1c 393d
00000280: 6bb1 c13e 4053 773e dfde 8abd 3b4f 0ebd
00000290: 2933 c1bd 4508 a23e f395 16bd 0e80 1c3e
000002a0: b88f 0b3e 5b0f 0dbe 6d66 8d3c 518f c0bd
000002b0: c7a6 cdbe 7119 583e 3d02 e3bd 1ac4 463e
000002c0: 70f3 8b3e f1de 203e 162b 363e c737 c93d
000002d0: ec6c 50be bb84 0a3e bc27 fd3d ef02 9f3e
000002e0: 9548 60be 3fe9 efbb 32a7 e93d de86 b23d
000002f0: d067 edbd cb55 d6bc 8969 d13d 110a df3e
00000300: 6158 5abe 1a13 8e3e e335 503e d086 7c3d
00000310: e12e c73d fdec aebd d21c 9f3d a9f4 703d
00000320: 81b3 803d 99b2 d7bd 3714 243e fde9 7a3d
00000330: 7144 b7bc 858b 153e e107 8f3c b9e9 f8bd
00000340: 6c00 6cbd 3cb8 8abe f61b 1bbd 0aef e23d
00000350: 3663 17be 355f 5d3b 1aef 223d 9dff 95bd
00000360: 95bf 0fbd 409f 013e 5daa b8be 8251 323d
00000370: dbe3 11be ddc4 34be 3807 27be 3b67 693c
00000380: 5c10 a23d acaf 3f3e a036 c8bd 62e8 c63c
00000390: 5f16 cf3d 75c3 ab3d 07bc 283c 48fb 3dbe
000003a0: e29f 4fbe f804 3fbd 8fdf b3bc a628 253d
000003b0: d077 81bd 3e00 183e 4d80 27be 8f76 933d
000003c0: fb69 56bd 53da ae3d fbab 923e 4a06 5dbe
000003d0: 4de2 83bc cfd4 8bbd deed 6abd 14a4 863d
000003e0: ae13 60be 69e4 63bd 2d72 893d fcdc 3a3e
000003f0: aedd 4e3d 0017 adbd 56ae ae3d 960e bf3d
0.034270078 0.18089406 -0.02027945 -0.07142378 -0.006918571 -0.08530618 -0.030355508 -0.016083108
-0.039919816 0.03391585 -0.061004575 -0.026450636 -0.036031213 0.21273915 0.012402603 -0.12185372
0.10730142 -0.05960498 -0.13566537 0.09256727 -0.088198274 0.02668199 -0.03433452 0.11780805
-0.13417421 0.088090986 -0.14462376 -0.0715634 -0.13088517 -0.14708364 -0.05448005 0.04811779
-0.070253335 0.09846147 0.19290218 0.09926111 0.035066307 0.12687396 -0.11103842 0.02125211
0.0037498467 -0.101894274 -0.08170329 0.20090471 -0.10042685 0.07482294 0.091430984 0.09796687
0.07063173 -0.18235552 -0.006351477 -0.23440775 -0.24703006 -0.17507827 0.40443116 -0.15870608
-0.34121463 -0.15611136 0.6026249 0.27586198 0.28811356 0.45223406 0.42273763 0.31501135
0.0008632821 -0.21017103 -0.28769645 -0.25692147 0.22413146 0.050199624 0.27621406 0.31400502
-0.52482224 0.59438354 -0.10779768 0.32612267 0.19977917 -0.30857715 0.27148432 0.26807967
-0.12824371 0.086694755 0.31436476 -0.33775747 0.4964986 -0.15348147 0.107445374 -0.1363119
0.11864992 -0.58137673 0.25077546 0.0034549597 -0.073476925 -0.3892066 0.3275414 -0.09293261
-0.0068674064 -0.12174703 -0.048429098 -0.118286036 -0.1408125 -0.13409318 -0.044202253 -0.2776462
-0.010674598 -0.08832406 0.15418816 0.14127679 0.04381078 0.069085404 0.3003937 0.15637265
0.029486472 -0.13268627 -0.06660028 -0.08274309 -0.15895118 0.005723994 -0.049370594 0.24634986
-0.19681203 0.14144613 -0.15479846 -0.11165584 -0.1860431 -0.01491467 0.064685546 0.014954678
-0.035129987 0.03127359 -0.0015653772 -0.008867575 -0.037465252 0.093111336 0.16168855 0.0525891
-0.06692816 -0.13598119 -0.0028424254 0.27223173 -0.23396045 -0.39296162 0.1860566 0.23616973
0.20749335 0.56739837 0.103299454 -0.061058965 -0.017348861 0.0005062535 -0.24064077 -0.14662392
-0.069942385 0.2254238 0.115418196 0.2005515 -0.02913828 -0.101316966 0.120719425 0.04519295
0.37830672 0.24152851 -0.067807905 -0.03474353 -0.09433586 0.31646934 -0.036764096 0.15283224
0.13629043 -0.13775389 0.017260754 -0.094023354 -0.40166304 0.21103455 -0.11084411 0.19410744
0.27334166 0.15710045 0.17789873 0.09825092 -0.2035405 0.13527195 0.12361094 0.31056926
-0.21902688 -0.0073215063 0.11408843 0.0871713 -0.11592066 -0.026163956 0.10225207 0.43562368
-0.21322776 0.27748948 0.20333056 0.061652005 0.09725738 -0.08541296 0.07769169 0.058827076
0.06284238 -0.10532112 0.16023336 0.061258305 -0.022371503 0.14604004 0.017459812 -0.12153954
-0.05761759 -0.27093685 -0.037868463 0.11080749 -0.1478394 0.0033778672 0.039778806 -0.07324145
-0.035094816 0.12658405 -0.36067477 0.043534763 -0.14247076 -0.17653222 -0.16311347 0.0142458035
0.079132766 0.18719357 -0.09776044 0.02428073 0.10111689 0.0838689 0.010298735 -0.18552887
-0.20275834 -0.046635598 -0.021957187 0.04032197 -0.063216805 0.14843842 -0.16357537 0.07200348
-0.052347165 0.08537736 0.28646836 -0.2158443 -0.01609912 -0.068276994 -0.057355754 0.06574264
-0.21882507 -0.05563775 0.067112304 0.18248361 0.05050438 -0.084516525 0.08529346 0.09328954

lstm.bias_ih_l0 f4 [192]
00000000: 3614 253d 9c73 8dbe 5683 34be f550 103d
00000010: 4fe4 41be 97d2 a0be 8254 c83d 6b3d 47be
00000020: 6b3d e43c a493 2abd b3bd 3dbe 800a 0abe
00000030: ab0a 85bd a550 a63d 919c 763e ac18 57bd
00000040: ff1c 8ebd 714d 4f3e 5aea f0bc c077 18be
00000050: 337c 38be 9faf a7bd def1 ac3d 1dc1 4e3c
00000060: 941c 143e 7196 6c3c face 3dbe 713a 4d3e
00000070: a646 36bd b493 173d bcd1 6dbe 40fb dc3a
00000080: a2a9 80be ac4a 4dbe d310 a7be dea4 bfbd
00000090: 8a97 b13d 8a83 b4be 1059 66be c000 d43d
000000a0: 3f74 91bd 0e0c 493e d743 2dbe 0836 eebc
000000b0: bd70 8ebe 2f82 aabc 3234 793d fa21 693d
000000c0: 0ceb 7bbe 2f93 083e c8b6 4cbd a068 f1bd
000000d0: 5d40 90bd d0c2 2dbe e9b2 713c f7e7 5abe
000000e0: 4ceb 30bd 2e28 c73c 5d9e 353e cf4c 793c
000000f0: 0b7a 24be 410a 043d 2bf4 463e c254 44be
00000100: 64fa 1bbe 66a4 593e d8df a53c bcbb aa3e
00000110: 9a4a 03be 7738 79be 2575 8d3d 03ae 04be
00000120: a1e9 a6bd a84d 1a3e 64c5 af3d 9e2f bf3d
00000130: 08e2 d03e bb14 03be 24e2 ba3d 468a 973d
00000140: 915d dbbd 05d2 cd3c 7bc6 c8bd 91ac aebd
00000150: 4df6 383e d490 10be 9b91 12be 8642 0e3e
00000160: 1630 013e e11c db3d d8d4 f2bd 18bc 83be
00000170: c21a 20be c8bf 07be 4e3e 9cbd b2ed d5bd
00000180: a8f3 b53c 495c 91bd 7267 d5bd e83e 83bd
00000190: 8210 00be af01 00be 0abd 803d e742 23bd
000001a0: 5e39 75bc 2e6f 08be 4eb0 44bb be39 6e3e
000001b0: 0a61 303e b01d 5cbc 83d8 67bc 3885 303e
000001c0: b3ac 4bbd ca95 e2bd 5b4f c4bd d3d8 34be
000001d0: e57a 173d f1a6 f8bc 3555 473d 20c5 bf3d
000001e0: 0329 0ebd ed80 943d b96b 923d 65f4 fb3d
000001f0: 1fd7 e13c 9ffc 133d c581 393e f2d6 da3d
00000200: 3d70 84bd 0c10 08bd da5c 8e3d e6f8 f9bd
00000210: 4733 333e 7577 ecbc 5323 9ebd ffe4 07bd
00000220: 8667 44bd 640f f9bd 3ada fc3d ca12 683d
00000230: c652 423d 3174 17be 4b1f 80bc f063 b93c
00000240: cc40 15be 5811 7cbe a61a 76be 135b 0d3e
00000250: 479a 4cbe 50f9 75be 78a5 443d c7ba 123d
00000260: 9532 17bd be7e 31be aa14 4cbc b05d 2ebd
00000270: 8cf4 1bbe 2576 d83c 1347 bb3e 37e1 21bd
00000280: e2ce 08be e562 be3e 0803 2ebd 204e c4bc
00000290: 6f99 f4bd 0228 b7bd 3d01 9dbd df94 2b3d
000002a0: 6166 383d 1b07 01be 067e a3bb 084f 3e3d
000002b0: b441 893d bcfd 583d 178b 14be dbb0 d8bc
000002c0: efa6 87be cc62 94be dc24 ecbd 8fa1 ecbc
000002d0: d4e9 a93d 3de4 eabd a418 8abe 4f7c 8bbc
000002e0: 558a 6abe 5dde b53d 11e3 93bd d952 6abe
000002f0: 9f66 83be f4f0 c8bd 3914 a83a f2db c3bd
0.040302478 -0.27627265 -0.17628226 0.035233457 -0.18934749 -0.31410667 0.097817436 -0.19457023
0.027861318 -0.041644707 -0.18529396 -0.13480568 -0.064961754 0.081208505 0.24083163 -0.052513763
-0.06939124 0.20244385 -0.029408623 -0.14889431 -0.18016128 -0.08187794 0.0844457 0.012619284
0.14464027 0.014440165 -0.18535987 0.20041825 -0.04450097 0.037006095 -0.23224539 0.0016859546
-0.2512942 -0.20048016 -0.32630023 -0.09357618 0.08671482 -0.35256606 -0.22494912 0.103517056
-0.0710225 0.19633505 -0.1692041 -0.029078498 -0.27820387 -0.02081403 0.060840793 0.05691717
-0.24601382 0.13337396 -0.049979 -0.11787534 -0.07043526 -0.16968846 0.014752128 -0.2137755
-0.043193147 0.024311151 0.17736192 0.0152160665 -0.1606218 0.03223634 0.1942908 -0.19172958
-0.15232235 0.2125412 0.020248339 0.33346355 -0.12821427 -0.24337946 0.06907109 -0.12957005
-0.0815003 0.15068686 0.08582571 0.09335254 0.40797448 -0.12800877 0.09125164 0.073994204
-0.10711206 0.02512456 -0.09803482 -0.08529008 0.18062706 -0.14117748 -0.14313357 0.13892564
0.12616 0.106988676 -0.11857003 -0.25729442 -0.15635207 -0.13256752 -0.07629071 -0.104457274
0.02221091 -0.0709768 -0.10420121 -0.06408483 -0.12506297 -0.12500642 0.06286056 -0.039858725
-0.014967291 -0.13323662 -0.0030012312 0.23264214 0.17224517 -0.013434812 -0.0141507415 0.17238319
-0.049725246 -0.11063726 -0.09585448 -0.17660837 0.036982436 -0.030353041 0.048665244 0.093637705
-0.03470708 0.07251153 0.07149453 0.12302474 0.027568398 0.03612959 0.1811591 0.10685529
-0.0646672 -0.03321843 0.06951304 -0.12205677 0.1750003 -0.028865555 -0.07721581 -0.033177372
-0.04795029 -0.12161139 0.12346311 0.056658544 0.04744222 -0.14790417 -0.015639922 0.022630662
-0.145755 -0.24615991 -0.24033603 0.13804273 -0.19980727 -0.24020886 0.048009366 0.035822656
-0.036913473 -0.17333505 -0.012456099 -0.042569816 -0.15230006 0.026423523 0.36577663 -0.039521422
-0.1336017 0.37184826 -0.04248336 -0.023963034 -0.11943328 -0.08943178 -0.07666252 0.04189002
0.04501951 -0.12600367 -0.0049893884 0.04646209 0.06701985 0.052976355 -0.14506184 -0.026451519
-0.26494548 -0.28981626 -0.11530468 -0.02888563 0.08296552 -0.11469314 -0.26971924 -0.017027048
-0.22904332 0.08880303 -0.07221044 -0.22883166 -0.2566423 -0.09811583 0.001282341 -0.095634356

lstm.bias_hh_l0 f4 [192]
00000000: d4f6 03bd 3a1a 5cbe db09 4c3c 387b eabc
00000010: ab93 12be 0041 98be 71c4 2c3e dabd 77be
00000020: 7c89 c73d 0107 663c 7302 363d e816 cf3d
00000030: 8ac0 703d 6f6d 0d3e 9c2b 103e 32f0 733d
00000040: 2069 97bc a0ea 563e f871 0cbe 9d4d 2d3d
00000050: 29ea 27be 38dd 8abe 2f37 b5bd 9f58 bf3d
00000060: 7789 003e b05f eeba 5b4f 14be 62fc 6c3e
00000070: 1e9f 773d be09 123e c51a b1bd 68bd c2bd
00000080: d689 80be 8dc1 4dbe b7a1 8fbe 2e4c ee3c
00000090: ee80 fd3d d092 d7bd f3b9 eabd cc1d 30bc
000000a0: 854b 99be 8f95 393e cb24 2ebe e894 0bbd
000000b0: bc90 1dbe b52f 013e d3c2 01bb 2770 29be
000000c0: b69a 01be 5130 cabd 3222 b7bd 13e4 48bd
000000d0: 8ae5 52be 27aa d6bd fe61 ffbb 722b 03be
000000e0: 2f9d 14be 251c 92bd 7f76 503e 8e15 18be
000000f0: b351 3fbe e639 63bc dfde 473e 2e06 24be
00000100: 9306 5bbd ffe5 203e 4d89 1dbc 0c20 8e3e
00000110: 3d94 0fbe fda6 89bd 8e46 b33c 4c71 133e
00000120: c0b0 c3bd 8048 453d 1caa 303d ee73 d2bd
00000130: 9f9e 993e 2ebd 93bd 7a9e 063d 08d9 de3c
00000140: 09ec 7ab8 6056 20be 26a2 5b3d 7b3a f2bd
00000150: f2dd 0e3e 1a1d 403d 7c27 6b3d dba7 b0bd
00000160: 6e14 e13d 6632 3a3e 50b3 bdbb 75c8 10be
00000170: c171 3b3c 66da 23be 8fda b13d bdcb eebd
00000180: 6643 293d 5105 1e3b 5fe9 1cbe 7b56 cebd
00000190: 1031 a1bd 935c 173d 1fc4 0f3e 238c a4bd
000001a0: efe2 85be e579 bbbd d731 1f3d 23e5 17bd
000001b0: 20c6 243d 5ab3 093e 072e f93c f9e2 1c3c
000001c0: 5a26 6fbc 1710 cc3d 7574 efbd 351e dcbb
000001d0: 37e6 0c3e 4a27 87bd a3a5 453e 9b66 4c3c
000001e0: bfc2 ebbc d0d1 72bd 9628 093b ea7d 283d
000001f0: 1ecb 8f3d 7467 28bd 2b76 efbc caa0 1f3d
00000200: 99eb 543d 99ee b6bd f254 9a3c 377e 07be
00000210: 2750 7fbd c615 d63a 4250 f23d 49eb 903c
00000220: d380 ea3c f999 e1bd 645a 893d 6262 91bd
00000230: 0fa1 3cbb e2ce 6dbc 4967 5e3e 89e6 0b3b
00000240: 66eb 51bd 7c1d 65be 7093 eebd 7dd2 1dbd
00000250: 54d1 2cbe 3e78 45be 1c33 0e3e ff5b 3dbe
00000260: 74e7 2c3e 7204 3cbe 524a 24be 79ba f13d
00000270: db9b dcbc d18c 843b cf4e 953e ce56 adbd
00000280: d88d 41bc 79aa 213e 72df 42be e846 bfbb
00000290: b2d4 90bd 17e5 1fbd 49fc 1c3d 3a26 25bd
000002a0: 8107 e1bc 4a60 c03c 30fe c63d 2886 c3ba
000002b0: 4373 673e bf26 883d 3200 43be 09f5 d33c
000002c0: 0739 8abe c3fc c6bd 287b 6fbe 75c4 5abc
000002d0: e08d 693e ca52 37be b9b5 6ebe 2df4 933d
000002e0: 9ad2 5bbe 4109 0d3e a0b4 08be a279 40bd
000002f0: 0325 c8bd b064 c8bd 4334 a43d 10c8 6f3b
-0.032217816 -0.2149438 0.012453522 -0.028623208 -0.14314143 -0.2973709 0.16871811 -0.24193516
0.0974302 0.014039756 0.04443593 0.10111791 0.05877737 0.13811277 0.14079136 0.05955524
-0.018482745 0.2098794 -0.1371535 0.042310346 -0.16397919 -0.27121902 -0.08848416 0.09343075
0.12552439 -0.0018186476 -0.14483397 0.23143151 0.06045448 0.14261529 -0.08647684 -0.095087826
-0.2510516 -0.20093365 -0.28053066 0.02908906 0.12378107 -0.10526049 -0.11461248 -0.010749292
-0.2994043 0.18123458 -0.17006223 -0.034077555 -0.15387243 0.12615855 -0.0019799962 -0.16546689
-0.12656674 -0.09872497 -0.08942069 -0.049045634 -0.20595375 -0.10481673 -0.007793664 -0.12809542
-0.14513086 -0.071342744 0.20357703 -0.14851972 -0.1868351 -0.0138687845 0.19518612 -0.16017982
-0.053473067 0.15712737 -0.009615255 0.27758825 -0.14021392 -0.067213036 0.021884229 0.14398688
-0.09555197 0.048164845 0.04313098 -0.10276018 0.3000383 -0.072138175 0.03286598 0.027203098
-5.982447e-05 -0.1565795 0.053621434 -0.118275605 0.13951853 0.046902753 0.057410702 -0.08625766
0.10990225 0.18183288 -0.005789198 -0.14138968 0.011440695 -0.16001281 0.08684265 -0.11659954
0.04132404 0.0024112056 -0.15323399 -0.100750886 -0.07870686 0.03695352 0.14039658 -0.080345415
-0.261497 -0.09154109 0.03886589 -0.037083756 0.04022801 0.13447323 0.030417455 0.009575599
-0.014596546 0.099640064 -0.11692134 -0.006717468 0.13759695 -0.06599291 0.19301467 0.012475635
-0.028779386 -0.059282124 0.0020928732 0.041135706 0.070211634 -0.041114286 -0.029231152 0.0389717
0.051982496 -0.08932228 0.018839333 -0.13231741 -0.0623323 0.0016333393 0.11831714 0.017690318
0.028625881 -0.11015696 0.06706694 -0.07098843 -0.0028782522 -0.014514657 0.21719088 0.0021347126
-0.051249884 -0.22374529 -0.11649215 -0.038530815 -0.16876727 -0.1928415 0.13886684 -0.18492125
0.16885167 -0.18361071 -0.16043976 0.11803145 -0.026929786 0.004045107 0.2916169 -0.08463822
-0.011813603 0.15787686 -0.1903055 -0.00583731 -0.070718184 -0.039036836 0.038326535 -0.04031966
-0.027469398 0.023483414 0.09716451 -0.0014917301 0.22602563 0.06648015 -0.19043043 0.025873678
-0.26996633 -0.09716179 -0.23386824 -0.013352503 0.22808027 -0.17902675 -0.23311509 0.07224307
-0.21467057 0.13773061 -0.13350153 -0.046990998 -0.097726844 -0.097848296 0.08017781 0.0036587752

lstm.weight_ih_l1 f4 [192, 48]
00000000: 9849 523c 830f 443e 30d2 163e 3267 d7bd
00000010: f15a 20bd e6c5 b1bc f78e 15be 3583 3dbe
00000020: f3ea 1dbe 51f6 9d3d 7691 80bd b377 b43d
00000030: 320f 7cbe f243 8d3d e94d 473d c912 aabd
00000040: 32bf 973e 909f bcbb a587 233e 6b89 3d3e
00000050: 81e4 bc3c a9f3 3b3e 57ee 233e 8fe9 aa3c
00000060: 78fa 0fbd 720f 893d 6f80 7c3d 5e0e 96bb
00000070: 05fe 0abd 753c 6cbd b736 c43d 9f2b 84bc
00000080: f892 963e c434 743e a651 803e d0be 853e
00000090: b2db 1abc a47d 3a3e 30c3 053d 0db9 663e
000000a0: 22db e1bd d60f aabd f20c b63c b3db 403e
000000b0: f6f4 a8bd c23e 943d 7d43 0e3e 7613 433e
000000c0: 82d9 4bbd a584 b03d 7354 a73e 4207 303e
000000d0: 5488 3a3e c11c 7d39 b095 a6be 7e66 493d
000000e0: 351d 113e f36b 0d3c c266 253d 4571 b2bd
000000f0: 8228 68be fae9 b5bd ba4b 1cbe 3b3e 6fbe
00000100: 0c16 0bbd 2d7b 42be 02e3 963d 6fcf fb3c
00000110: 7034 73be 8cb7 ad3d ec6e 95be 1967 63be
00000120: d25e 273c 8b16 42be cc1d 92be d43b 01bd
00000130: 6c71 483d 3b64 9e3c 5b20 3bbd d650 0bbe
00000140: a179 f93d 88a7 363d 2ab1 4bbe a76e a13e
00000150: 2431 09be 7524 29bd 808e 0d3b a1e4 2abe
00000160: 1e21 323d 7e27 953e ab8f 0fbe b8c3 b73d
00000170: a8b9 f8bd ced6 4f3e 861a a7be cada 75bd
00000180: 801b edbd b660 7c3e d99a c33d 8732 02bc
00000190: 4156 68bd 9cb9 9b3d b705 1d3e 4a89 c13d
000001a0: cf1c 5d3d fba4 18be e04f b03c 16a0 6dbd
000001b0: 4b56 b03d 7683 9bbc c00e 1cbe e8a2 debc
000001c0: ae62 64bd ddc9 023d 44ba ebbd 1627 f93c
000001d0: 6676 a83c cfc6 053e f3c0 d13d a795 89bd
000001e0: da03 0e3d 4a5c e9bc 12ad 40be 1c04 ac3c
000001f0: 1b33 9a3d 7932 47be 908d 52be f62e 073e
00000200: 1fea c73d 8d2a 913e 90e0 913d f08e f73c
00000210: 4db2 183e c8ed 0b3e 901a 153c 7f7a 63bd
00000220: 3137 4abe 81fd 57be d1e4 97bd 57ca 733d
00000230: f40a 90bd 433f aa3d 6697 95bd 2dad f0bc
00000240: 62dc 1cbe 9689 bc3d 27f3 41bc 244c 6abe
00000250: b35a 2abe bf21 c93d 0c65 873d 1c4b 3bbe
00000260: f2ed 34bd 5f12 bcbd 01b3 df3d 3a17 24bc
00000270: 2a37 913d 7e4a 14bc de78 0e3d a8b2 a4bd
00000280: 2532 013e e0a4 42be 540b 81be 0804 b93d
00000290: 7eb7 193c 0006 583e 7453 073e a1c6 0e3e
000002a0: ad1e 06be 6098 73bd c348 92bd e1da aa3c
000002b0: 7b94 373d 2aa7 3cbd 87ad fc3d d267 1cbd
000002c0: 6ff7 1c3e 532f 163e 9bcf 433b 3674 debc
000002d0: 8943 063e 4405 a63b a784 5e3a f4ce 31be
000002e0: 37fd acbd b419 bdbd 0942 0f3e 8146 423d
000002f0: 066b 5dbe 098e de3d 4994 d4bd 1b3b 143e
00000300: bebd 6bbc 7657 083e 5f1b 783d d90d ae3c
00000310: d8a5 8b3e 4f9e 293d 7a34 b1bd ff8b a13d
00000320: 6a7a 973c 5c63 60bd 746b 1c3e 773d e0bd
00000330: c95e 5bbe db71 573d 8d91 37be 3669 0abe
00000340: 5eb3 e33d 9da5 9abd 6168 02be 62ec 30bc
00000350: fe58 a33d 59fd 90bd ef63 45be 28ef 92bd
00000360: cfb4 e2bd 35b3 48bc 0c02 02be 3861 9a3c
00000370: 1b01 593e e7fe 643d 093b 86be 325d a8bb
00000380: 2c6b 463d 6136 1c3e 1177 a83c d313 e23d
00000390: 1d62 dbbc ad31 c93d 7425 68be 9247 b93b
000003a0: f961 13be 7c0d 63bb 2b1b a1bd 81b6 933d
000003b0: 9c0b 4a3d a9b9 39bc 29b3 54be 16dd ef3c
000003c0: 7258 adbd fac0 9cbd d308 483d 3979 083e
000003d0: 1ff1 7fbd c58a 1fbc 331c 623e c6e2 303e
000003e0: 1a77 163d e02d 7c3c d431 a0bc a4ba e5bd
000003f0: 7aa7 1fbe cf59 ec3c d33a a1be 0332 46be
0.012834929 0.19146542 0.14728618 -0.1051773 -0.03914923 -0.02170081 -0.14605318 -0.18507083
-0.15421657 0.07712997 -0.062777445 0.08811893 -0.24615172 0.06897725 0.048658285 -0.08304364
0.29638058 -0.005756326 0.15969713 0.18509452 0.023058178 0.18354668 0.16008888 0.020863323
-0.035150975 0.06692399 0.06164592 -0.0045793494 -0.03393366 -0.057674844 0.095807485 -0.016134081
0.29409003 0.23848253 0.25062293 0.2612214 -0.0094517935 0.1821199 0.03265685 0.22531529
-0.110281244 -0.08303802 0.02222297 0.18833809 -0.082498476 0.072385326 0.13892932 0.19050393
-0.04976798 0.0861905 0.32681617 0.17190269 0.18216068 0.00024138672 -0.32536077 0.04917001
0.14171298 0.008631694 0.0403812 -0.08713011 -0.22671703 -0.08882518 -0.15263262 -0.23363583
-0.033956572 -0.189923 0.07367517 0.03073856 -0.23750472 0.084822744 -0.2918619 -0.22207297
0.010215478 -0.18953912 -0.28538358 -0.031551197 0.048936293 0.019334903 -0.045685153 -0.13605055
0.12181402 0.044593364 -0.19891801 0.31529734 -0.13397652 -0.041294534 0.002159983 -0.16688778
0.043488614 0.29131693 -0.14019649 0.08972877 -0.12144786 0.20296785 -0.32637423 -0.060023107
-0.11577511 0.24646267 0.09551019 -0.007946617 -0.056722883 0.076037616 0.15334211 0.09450014
0.053982552 -0.14906685 0.021522462 -0.058013998 0.08610209 -0.018983584 -0.15240002 -0.02717729
-0.05575817 0.031930793 -0.11510137 0.030414145 0.02056427 0.1306412 0.1024188 -0.06717997
0.034671642 -0.02848639 -0.18816021 0.020998053 0.07529279 -0.19452848 -0.20561814 0.13201508
0.09761452 0.28352776 0.0712291 0.030219525 0.14911766 0.13664925 0.009100571 -0.055536743
-0.19747616 -0.21092798 -0.0741669 0.05951914 -0.07033339 0.083128475 -0.073042676 -0.029379452
-0.15318444 0.0920593 -0.011837757 -0.22880608 -0.16636162 0.0982089 0.0661107 -0.1829037
-0.044172235 -0.091831915 0.10922814 -0.010015303 0.070906 -0.009050963 0.034783237 -0.080418885
0.12616785 -0.19008207 -0.25203955 0.09033972 0.009382127 0.21096039 0.13215429 0.13942958
-0.1309764 -0.059471488 -0.071427844 0.020856323 0.044819336 -0.046057858 0.12337785 -0.03818495
0.15328763 0.1466649 0.0029878381 -0.027155023 0.131117 0.0050665457 0.00084883947 -0.17364103
-0.084467344 -0.09233418 0.13990034 0.04743052 -0.21622857 0.10866935 -0.10379846 0.14475672
-0.0143885 0.13314614 0.060572978 0.021246837 0.27274966 0.04141074 -0.08652587 0.0788803
0.018490989 -0.054782256 0.15275365 -0.109492235 -0.21422876 0.052598815 -0.17926617 -0.13516697
0.11118196 -0.075511195 -0.1273513 -0.010798546 0.07975958 -0.07079572 -0.19276403 -0.07174522
-0.11069643 -0.012249758 -0.12696093 0.018845186 0.21191828 0.055907156 -0.26216915 -0.005138063
0.04844205 0.15255119 0.020564588 0.110389374 -0.026780182 0.09823928 -0.22670537 0.005654284
-0.14392842 -0.0034645488 -0.0786651 0.07212544 0.049327478 -0.011335769 -0.20771469 0.029280227
-0.08464135 -0.07653995 0.04883654 0.13327493 -0.06248581 -0.009737675 0.2208107 0.17274007
0.036734678 0.015391797 -0.01955501 -0.112172395 -0.15591231 0.028851418 -0.31490192 -0.19355015

lstm.weight_hh_l1 f4 [192, 48]
00000000: 663e 6f3d 3190 12be 1ac7 98ba ec61 8ebe
00000010: dd0a f9bd 9378 fa3c 6f99 11bd 986d e4bd
00000020: b635 143e 0e85 9fbe 7385 ff3c db54 483e
00000030: dc3b 4d3e 217f 503c a348 95be 0190 8bbd
00000040: f98f 4ebd ee7e e73c 9a6d 853d 66da c2bd
00000050: a83a 5f3d 5e17 303d af24 f9bb eb3c 6dbe
00000060: 6f5c 88bd 4dc4 3abe 1d8a 85bd 24ac 043e
00000070: ed0b dd3d f1db 22bd 9459 0b3e 6c42 4c3d
00000080: ab1d df3d 5806 52be c9ff 3c3e 5258 9fbb
00000090: e6d1 9e3e b6aa c23d 37ec 673e 2121 273e
000000a0: aca7 8fbd 06b3 6bbd 4389 abbc e18e 0a3e
000000b0: 5c0d 12be 2b52 0cbe ac1f 8b3e 28f7 f73d
000000c0: 248a a53d d26f 32be 57eb f9bd dd23 01be
000000d0: 7dd1 1d3c 60cc bd3d ad2f 15be 80c9 45bd
000000e0: 40ad 0b3e 8ab9 133e 9813 af3d 57f2 b63d
000000f0: cf3a a73d 3da6 0bbe e380 cfbd 44bb f3bd
00000100: ac2d 1bbe eabe 003e d8db 193e 811d 383e
00000110: b9c1 993c ce75 a5bd 1172 283d dc59 4d3d
00000120: ee73 a53d a594 b03c b08c 24be 6211 8c3d
00000130: 2a16 f63d 3f1b 48be f6fd 14bc b90d f33b
00000140: 3243 523e 4bd9 b9bd f044 14bd 4090 e0bd
00000150: 6b1e a1bc 98b1 273e 17b3 423e 6c91 f7bd
00000160: d298 ea3d a7ff 23bd 180d 653e a613 50bd
00000170: ab57 d23d 6efb 86bd d278 f7bc e889 a6bd
00000180: 580a 4abd 04fd d1bd a88a 75be bdb9 fdbd
00000190: a337 22be 3e5a 67be 6213 dfbc 1c1c 08be
000001a0: 56a3 f93d 81b3 89bd 4ff7 af3d 172b f23c
000001b0: 09f0 bdbc 6ef5 9e3d 76b1 9ebc 1c0e 19be
000001c0: 4c3b 32be c4c3 a5bd 8d69 f1bb 02d3 8d3e
000001d0: ff1e 2dbd 5406 183d 3def 03be f85d ddbd
000001e0: 07f7 773d 9b2c 52be 7392 16be d918 e23d
000001f0: d68e 773e 9060 cabd 676c 163e 40d2 283d
00000200: 6b33 0d3e 5a06 d83a 37e0 dd3d 97fe 1cbe
00000210: 7485 5e3e e0b0 00bd 6988 003e e2fa 53bd
00000220: 7e8d c5bc 1e0b 35bd b557 833e 239b 47be
00000230: 82fb 1f3e f5e0 a9bd c3f2 873c 569e 56bd
00000240: 993c 84bd c6b4 05bd 6281 e53b af8a 72be
00000250: e79e 1bbe 9c9a c63d 15d0 603d 11f0 f8bd
00000260: 2c8a e33c ef42 34be 5462 c0bd 026d f03d
00000270: abd8 a53d c77f e7bd 294f 64be 4c88 833b
00000280: 3ffd 58be 87ef e33d 3042 ec3d 9e11 f8bd
00000290: b2cb ea3c 80df 4abd 6d30 813d c888 633b
000002a0: d920 33be f25a 1ebd 9a67 02be c238 483d
000002b0: dc2c af3b a1f4 ce3d db24 b73d 2115 233e
000002c0: c07d 363e 4a1e bd3d 6fba 863d 6885 bfbd
000002d0: c7f3 8ebd 652a c13d 11f1 5cbd c57b 9dbd
000002e0: 212e 19bd b76b a2bb c8e4 02bd c61a 843d
000002f0: 2a71 b8ba 9833 a7bd b794 df3d f19e 0e3c
00000300: bf57 11be 7dee 57be b753 72b9 a5fa 14bd
00000310: 7934 fcbd 4bf7 aa3d 0c9b 77be 89bd 37be
00000320: 75b3 173e 2616 803e 9200 2f3e 01ee eb3d
00000330: 8cd2 46bc bb83 1e3e a6bd 3d3d 5a27 52be
00000340: b4ad 933c dd90 1bbe ae8e b83c 63aa 02bd
00000350: b457 23bd d61d bb3d 761a dabd 3d84 073d
00000360: 398f e63d 8ac6 9c3a 36e6 1dbe f00e 48bd
00000370: 95ee a83d 8b83 c2bd 6f8e 0bbd b375 ee3d
00000380: 5360 603e c924 73bd 8b89 3b3e c0b7 71bc
00000390: 3dcb 213e d263 00bd 0420 203d 13ac e7bd
000003a0: c804 a5bd 2b29 a2be dc16 d73c 13f0 9e3d
000003b0: 4d1a babc efd2 1bbd d87a b53d 28f9 b63d
000003c0: 2eef 54bd 0aa3 43be 2b19 76be 7bd2 07bd
000003d0: 83a6 4e3d ee4d de3c 7f38 0cbe 6be7 c03c
000003e0: 2323 b33d 4b22 9bbd a15c 993d 7536 083b
000003f0: d509 f83c 8c3c 023e c566 e9bc 180a c3bd
0.058409117 -0.14312817 -0.0011656017 -0.27809083 -0.12160275 0.030575072 -0.035546716 -0.11153716
0.14473614 -0.311562 0.031191563 0.1956362 0.20042366 0.012725622 -0.2915698 -0.06814576
-0.05043027 0.028258767 0.065150455 -0.095143124 0.0544993 0.042991035 -0.00760325 -0.2316777
-0.06658255 -0.18238945 -0.06520484 0.12956291 0.1079329 -0.039760534 0.1360839 0.049868032
0.108943306 -0.20510232 0.1845695 -0.0048628235 0.31019515 0.09505217 0.22648703 0.16321231
-0.07014403 -0.057543777 -0.020939475 0.13531066 -0.14262909 -0.1370322 0.271726 0.12107688
0.08082989 -0.17425469 -0.12203091 -0.12611337 0.009632465 0.09267497 -0.14568968 -0.04828787
0.13640308 0.14426246 0.08548659 0.089329414 0.08165514 -0.13637634 -0.10132005 -0.119009525
-0.15154141 0.12572828 0.1502527 0.17980005 0.018769132 -0.0807911 0.041124407 0.050134525
0.080787525 0.021555254 -0.16069293 0.06839253 0.12015946 -0.19541644 -0.009093752 0.0074174074
0.20533445 -0.090746485 -0.036198556 -0.109650135 -0.019667825 0.1637634 0.1901363 -0.12088284
0.114549294 -0.04003873 0.22368276 -0.05079999 0.102706276 -0.06590925 -0.030208979 -0.08131772
-0.04932627 -0.10253337 -0.23978674 -0.123889424 -0.15841536 -0.22593018 -0.027230922 -0.13291973
0.12189357 -0.06723691 0.08592092 0.029561562 -0.023185747 0.07761656 -0.01937173 -0.14946789
-0.17405432 -0.0809398 -0.007367319 0.2770005 -0.04226589 0.03711541 -0.12884231 -0.10808939
0.060538318 -0.20524828 -0.14704303 0.110398956 0.24175581 -0.09881699 0.1468979 0.041216135
0.13789146 0.0016481385 0.10833781 -0.15331493 0.21730596 -0.03141868 0.12552036 -0.051752932
-0.02411532 -0.044200055 0.25652853 -0.19492774 0.15623286 -0.0829486 0.01659525 -0.052397095
-0.064568706 -0.032643102 0.007003949 -0.23685716 -0.15197335 0.09697458 0.054885942 -0.12155164
0.027775846 -0.17603658 -0.093937546 0.117395416 0.08097967 -0.113036685 -0.22295822 0.0040140506
-0.21190356 0.111296706 0.11536062 -0.12112735 0.028661583 -0.049529552 0.063080646 0.003471898
-0.17492999 -0.03866095 -0.12734833 0.048882253 0.005345924 0.10105253 0.089425765 0.15926029
0.17821407 0.09234293 0.06578528 -0.09351617 -0.069800906 0.09431914 -0.053940836 -0.07689623
-0.037397508 -0.0049566883 -0.031956464 0.06450419 -0.0014071811 -0.081641376 0.10917037 0.008704887
-0.14193629 -0.2108707 -0.00023110105 -0.036371846 -0.12314696 0.08347949 -0.2418024 -0.17943396
0.14814551 0.25016898 0.17090061 0.11520005 -0.012135159 0.15479939 0.04632344 -0.20522824
0.018027164 -0.1519198 0.022528972 -0.031900775 -0.039878562 0.0913655 -0.10649578 0.033085097
0.11257786 0.0011961025 -0.1541985 -0.04884237 0.08248631 -0.09497746 -0.034071382 0.11643543
0.21911745 -0.059361253 0.18314187 -0.014753282 0.15800186 -0.031345196 0.039093032 -0.113121174
-0.080575526 -0.31672034 0.026256017 0.07760634 -0.02271762 -0.03804296 0.08861321 0.089342415
-0.051985912 -0.19105163 -0.24033038 -0.033159714 0.050451767 0.02713677 -0.13693427 0.023547849
0.08746936 -0.075749 0.07488371 0.0020784412 0.030278126 0.1271841 -0.028491387 -0.095234096

lstm.bias_ih_l1 f4 [192]
00000000: 3fa4 63be d3dd 8dbd 2832 8f3d f030 34bd
00000010: 7877 4bbc c4ca 8ebd 9a65 6b3b 63c8 f23d
00000020: 105b 82bc 8323 01be 84d4 1c3d 5bc7 29be
00000030: 8cc6 5d3d 0a46 e23c a423 8d3d 5a24 913d
00000040: 7ea8 04bd 2abe 84be 45be ddbc 6c47 1dbd
00000050: 8b53 e63a 5cc3 773d 0db9 2f3e 5052 6a3e
00000060: 5ecc 2e3e c0a9 a1bd 6541 073e 844a ef3d
00000070: d177 17be 5dc4 da3d eaaf 893e 75e2 353e
00000080: 78e6 bebd 0e8a f23d 96cd f73d d616 373e
00000090: 6379 e03c c6bc 7bbe c023 5b3d b0ac 7bbe
000000a0: f48f 323e 48a2 f8bd b3cb 25be 7ae8 2b3e
000000b0: 3ece babd c6a7 5fbc e77e a53b 6da2 06bd
000000c0: d8ca 8fbd 0f31 52be 219d b8bd fe56 81be
000000d0: c77c 1cbe 2cdb 873d a6ec 18be 7a8a 1d3d
000000e0: 4c23 fc3c a85a 8abd 24a2 f03c c9a2 103c
000000f0: b807 9cbd 8824 83be f208 43be 186c dc3c
00000100: 8b52 76bd 9407 80be 92d0 56be 30a4 98bd
00000110: 9fac 7e3d d222 d5bd 8d8e 1bbe 91e1 debc
00000120: 5563 9abd 2768 15bd e262 21be c3b1 963c
00000130: 9743 50be 91bd 52be 17cb f7bd 32a6 1e3e
00000140: 566a 11be 4ce3 48be 9127 27bc 921d c7bb
00000150: fb9f 423d 1377 2fbd da86 03be 5081 a1bd
00000160: 233f 19be e572 6f3d 50ca ba3c eb1a 03be
00000170: a419 6f3d 05d7 24be c2f3 34be ab2b 1abe
00000180: 0166 ec3d e34c 873d 47c2 af3d 0211 043d
00000190: c6ad 8abd abe5 b73d b1ff cb3c 8b01 bc3c
000001a0: cc73 f5bd 6c70 de3d ade1 57be f55f 8bbd
000001b0: 0bdf f53d 6d99 a93d 1f7d 53bc ce98 973d
000001c0: 49f6 803d 163a 16be bb9a 20bd 7050 20be
000001d0: 0247 d13d dfef 06bd 4855 d53d 353e 8b3e
000001e0: 88e6 4c3d 63d6 8abd 39f1 b23d 067a 1ebe
000001f0: 2ef3 013d f9e6 4bbc 0d2b 90bd c28b 14be
00000200: 7ea2 16be dc05 71bd 544a d0bd f484 9b3d
00000210: 0f5e 39be eec2 68bd 5443 6cbd f228 b6bd
00000220: 0ca2 fc3b c39b 89bd adb0 bc3c 7392 753c
00000230: f94f b0bd cc3e b13d 8d98 60bd 16bd 93bd
00000240: bbc1 89bb f1f2 fbbd 9713 18bd fb86 083c
00000250: c9d7 ce3c d0d4 c23d 3ecb 16be 3356 f53c
00000260: 1f70 a63c 103a 67bd ae72 e83d 31f2 283d
00000270: ff76 c13d 33c4 01be 5533 07be 39c8 443d
00000280: 13f7 3dbe a3e1 a3bb 9485 8cbd efe3 d3bd
00000290: a022 9fbc aa8c 5bbc 4ab0 0a3e 7440 9a3d
000002a0: d193 7f3e c815 1f3e c5fd 55bd bc3d 96bc
000002b0: 3e6d b9bd 4760 0abe 13ad 093e 81cb 0c3e
000002c0: 67bb c5bb 8fe6 5a3d 42e5 b9bd d878 1b3e
000002d0: c964 d23d f90b 2abe eb8b 763d 2607 2dbe
000002e0: ffb0 68bd edbb 4ebe fe00 443d 2cd8 e03d
000002f0: cb83 18be bb93 98bd 4cd8 82bd 3574 ca3b
-0.22230624 -0.06927075 0.069919884 -0.043991983 -0.01241862 -0.06972268 0.0035918714 0.11854627
-0.015912563 -0.12611203 0.03828861 -0.16579954 0.054144427 0.027621288 0.068915635 0.07087012
-0.03238725 -0.25926334 -0.027068267 -0.03839819 0.0017572505 0.060489044 0.17160435 0.22882962
0.17070147 -0.07893705 0.1320854 0.116841346 -0.147918 0.106819846 0.26892024 0.17762168
-0.09321302 0.11842738 0.12099759 0.17879805 0.027401632 -0.2458373 0.05350089 -0.24577594
0.17437726 -0.12140328 -0.16190986 0.16787902 -0.09121369 -0.01365084 0.0050505283 -0.032869745
-0.07021111 -0.20526527 -0.09014345 -0.25261682 -0.15281974 0.066336006 -0.14934024 0.03846214
0.03077855 -0.067555726 0.02937419 0.0088278735 -0.0761866 -0.2561381 -0.19046381 0.026907012
-0.060137313 -0.25005782 -0.20978001 -0.07453191 0.062176343 -0.10407032 -0.15191098 -0.027207168
-0.07538477 -0.03647628 -0.15760377 0.01839531 -0.20338283 -0.20580126 -0.12099283 0.15493086
-0.1420072 -0.19617957 -0.010202304 -0.006076523 0.04751585 -0.042838167 -0.1284441 -0.078859925
-0.14965491 0.05845918 0.022801548 -0.12803237 0.058374062 -0.16097648 -0.17671111 -0.1505572
0.11542893 0.06606462 0.08581977 0.032242782 -0.06771426 0.089793526 0.024902197 0.022949954
-0.11984977 0.108612865 -0.21082182 -0.06805412 0.12005433 0.08281217 -0.012908249 0.07402192
0.06296975 -0.14670596 -0.039210062 -0.15655684 0.10218622 -0.032943603 0.10416657 0.27195898
0.05002454 -0.06779172 0.08737416 -0.15476236 0.031726055 -0.012445205 -0.07039461 -0.14506438
-0.14710423 -0.05884348 -0.10170427 0.07593718 -0.18102287 -0.056826524 -0.057681397 -0.088945284
0.007709747 -0.06719162 0.023033464 0.0149885295 -0.086090036 0.08654556 -0.054832984 -0.072138
-0.0042040027 -0.12302197 -0.037128057 0.008332963 0.025249379 0.09513247 -0.14725968 0.02994833
0.020317135 -0.056451857 0.113499984 0.041246597 0.09446525 -0.126725 -0.13203175 0.04804251
-0.18551283 -0.005001263 -0.068614155 -0.10346209 -0.01942569 -0.013400236 0.13543811 0.07531825
0.24958731 0.15535653 -0.052243967 -0.018339984 -0.090540394 -0.1351329 0.13444929 0.13749506
-0.006034303 0.053442534 -0.090769306 0.15182817 0.102731295 -0.1660613 0.06019203 -0.16897258
-0.05680942 -0.20188875 0.04785251 0.109787315 -0.14894025 -0.07450052 -0.063889116 0.0061784037

lstm.bias_hh_l1 f4 [192]
00000000: 6fc0 fabc cb07 e4bd ee48 a6bc ef27 5b3e
00000010: 0dec 0bbe 7a11 0ebd 0d19 8e3d 1bf1 0f3e
00000020: aadd f5bd bd27 fbbb 1342 013e 3adf fa3c
00000030: e07c d93d 7e84 51be d254 bc3d 63e5 233e
00000040: 3c20 91bd 7e48 6fbe 5fb2 1e3e ae86 0fbe
00000050: 34dc 9c3d 3395 613c 8579 053e 3bb2 1a3d
00000060: cf00 993e 46d7 40bc 155a 74bd 9e63 323e
00000070: 2a88 4ebe 4645 f9bd 3628 483e f164 cb3d
00000080: fb54 6cbd ee4d 09be 098b 233e 3def 49bd
00000090: 6880 013d 5570 92be 1787 193e 8baf 91be
000000a0: 1715 c6bb 6124 7cbb fe36 87bd 36f6 bc3c
000000b0: 81a8 0fbe 793f 13be 9aeb b23d 6d08 dfbd
000000c0: d5e6 7ebe 812e e6bd f2f9 9fbd bf98 1fbc
000000d0: f91b 9a3d 6d0f 073d bef6 8c3b 2df2 0ebe
000000e0: 6f02 a9bc 2de8 b2bd f28d acbd 5ecc 09be
000000f0: b1d5 4cbd b3da b8bd 3f9b 24be 992b dabd
00000100: 4300 d3bd 7311 15be e933 32be 4a2b 91bd
00000110: 0c6c 99bd 2340 84be 4f7c e9bd 44a5 9c3d
00000120: 9360 613c 4fa3 13be b5d5 893d 0be6 113d
00000130: 0f1b b339 8ea2 5fbe ce88 07be 6192 153e
00000140: 4910 7ebd 3ce2 20bd c8e9 df3d 4012 b8bd
00000150: aa53 d03b 3e0b 98bd f2b6 4ebe 5940 6fbe
00000160: 7e62 d33c 047b 14be 68ba 0fbe 2f72 40be
00000170: 8de7 2b3a 9711 21be 4945 debd 6df4 d73c
00000180: de5e 86bd 8b68 043e 6d16 6e3c 7cd5 e1bd
00000190: 965a d33d 91d5 d73d 1a18 97bd 582a 4b3e
000001a0: a463 1fbe 5d54 72bd 7aaf 6bbe e1a6 f1bd
000001b0: 61ea bebd e915 8a3d a797 fa3d dc81 393e
000001c0: 29ff ac3d aa48 d03d 4a72 b8bd a3ec a5bb
000001d0: 7343 eb3d 45c3 463d 714b 96bd 57e5 963e
000001e0: 4a3e d73c 5c68 083e e9f8 a93d 60c3 15be
000001f0: c4c1 c63c 997c f63b 3020 57bd fbce 59be
00000200: 9825 a9bd f0a4 1b3d c27a 60be 0e71 d03b
00000210: 29fb 07be adb2 a9bd 732a ee3c 5340 d4bb
00000220: ccd7 503d b310 c7bd ddab 04bd 4a84 77bd
00000230: f709 7e3c 6f11 cdbc b922 4ebd a40c f8bd
00000240: cefb 79be 545e 94bd c70a 803d 3baa 143e
00000250: fbae a03d 23d7 653d fc3c 22be 9b14 b33d
00000260: bdc8 19be 534b 9c3d d6e3 783d 4337 51bc
00000270: 3242 43bd 6a7c 3abe 6941 003c a768 d3bd
00000280: a9d5 4fbd 3d7d 70be e8fc aa3d f169 77bd
00000290: 1937 083e 0adc 283d 9ba8 3cbd b1b3 233e
000002a0: 55b7 473e 32b9 913d 827c 0e3e c357 f8bd
000002b0: fb86 483d 0b83 f6bc 9a9a 453e e023 a5bd
000002c0: 8599 a2bc 76c3 c43d dab8 fc3d 1d10 e9bd
000002d0: 36d2 833d 015e a3be d93b 143b ef8a bdbe
000002e0: a850 843d be66 67be 7dac 1dbe af36 c2bc
000002f0: 1543 8dbe 2383 b7bc fdda b53c f2cb 07be
-0.030609338 -0.11134299 -0.020298447 0.21401952 -0.13664265 -0.034684636 0.06938372 0.14056818
-0.1200517 -0.0076646493 0.12622862 0.03062402 0.10619521 -0.20460698 0.09195866 0.16005473
-0.07086226 -0.23367497 0.1549773 -0.1401622 0.07659188 0.013768482 0.13034637 0.03776763
0.2988343 -0.011770075 -0.05965622 0.17420813 -0.2016913 -0.12171416 0.1954659 0.099313624
-0.05769823 -0.13408634 0.15971006 -0.04930042 0.0316166 -0.28601328 0.14992939 -0.2845424
-0.0060449946 -0.0038473832 -0.06602286 0.023066621 -0.14029123 -0.14379682 0.08736344 -0.10890279
-0.24892743 -0.11239339 -0.07811345 -0.009741007 0.075248666 0.032973696 0.004301875 -0.1395957
-0.020631043 -0.0873569 -0.084255114 -0.13456866 -0.05000848 -0.090260886 -0.16074847 -0.10652847
-0.10302784 -0.14557438 -0.17402615 -0.07088335 -0.074913114 -0.25830182 -0.11400663 0.076487094
0.013755935 -0.14417766 0.067302145 0.035619777 0.000341617 -0.21839353 -0.1323578 0.1460662
-0.06202725 -0.039278254 0.10933262 -0.08987856 0.00635763 -0.07424019 -0.20186976 -0.2336439
0.0258038 -0.14500052 -0.14035952 -0.18793558 0.0006557636 -0.15729366 -0.10853059 0.026361668
-0.06561063 0.12930505 0.014531714 -0.11027047 0.10320012 0.105387814 -0.07377644 0.19840372
-0.15565354 -0.059162486 -0.23016158 -0.11799408 -0.09322048 0.0674246 0.12235957 0.18115944
0.084471054 0.101701096 -0.09006174 -0.0050636097 0.11487474 0.048526067 -0.07338608 0.29471847
0.026274819 0.1332106 0.08299429 -0.14625311 0.024262317 0.0075221774 -0.05252093 -0.21270363
-0.082591236 0.037999094 -0.21921828 0.0063611334 -0.13279404 -0.08286033 0.029072976 -0.0064773946
0.05098705 -0.09719982 -0.032390464 -0.060428895 0.0155053055 -0.025032727 -0.050326083 -0.12111786
-0.24412462 -0.07244554 0.062520556 0.14518063 0.07845875 0.056113373 -0.15843576 0.087441646
-0.15017982 0.076315545 0.060764156 -0.012769523 -0.04767055 -0.18211523 0.007828095 -0.10322695
-0.05074087 -0.23485275 0.08349019 -0.060403768 0.13302268 0.04122547 -0.046059232 0.15986516
0.1950353 0.07115401 0.13914683 -0.12126114 0.048956852 -0.030091783 0.19297257 -0.08063483
-0.019848594 0.09607594 0.12339945 -0.113800265 0.06436579 -0.31907657 0.002261868 -0.3702006
0.064606965 -0.22597787 -0.1539783 -0.023707716 -0.27590242 -0.022401398 0.022199148 -0.13261393

linear.weight f4 [2, 48]
00000000: 7208 283e 07d2 f43d a544 013d 13e0 8bbe
00000010: 8f95 933d 1672 46bd 4dfe 7f3d 1e96 013e
00000020: 9b02 e53c 8060 6f3d 55be 9bbd e72a 16bb
00000030: 56d2 4e3e 06e0 9e3d f61a 943d 1c54 1e3e
00000040: ae7b d03d f0d0 dd3d 2f62 4ebe 92af 0f3c
00000050: d930 733e 7654 1c3e 7765 8bbe 0ddb 5b3e
00000060: 381e 78be 159c 12be ecf2 513e 9b60 6cbe
00000070: bcb0 18be 360a 01be b99c 4fbe 7cb1 423b
00000080: 37e2 8dbd ee55 a53d 3c76 96bd 3e33 043e
00000090: 5748 bfbd 4f3a c23c 8e54 b53c 1103 103d
000000a0: 8ad8 a93e dece 0f3e 844e 2abe e49e 743e
000000b0: f1da ebbc b8c8 62be 3575 2cbe 373e e23d
000000c0: 8460 38bd b899 c13d 64a1 243e d48b 1d3e
000000d0: 5776 b33d dc4b 443e f351 363e c88e fe3d
000000e0: c4fb 5ebe 82ae dd3d 610e 71be 1c08 1abe
000000f0: 1bfd 76bd 1607 833d 87e2 d03d 2d78 c63d
00000100: 5534 7a3d ebc4 10bd c4e9 ec3c dd44 11be
00000110: 0c21 1cbd ddc9 51be 7823 6b3e 893f 0a3e
00000120: 363b 093d 2fd6 513e 2f46 773d a525 7abd
00000130: c48c 8fbd 0944 383e 40f7 ae3d 2363 84be
00000140: bd33 03be 4d87 f03d e5e5 62be 3950 693e
00000150: 6143 54be 3591 a5bc 712b 56be a65e e23c
00000160: 34b1 f9bd 4e2a 933d 9fd8 a8bd 7058 69bd
00000170: fbfa d53d f148 8b3d 77d4 fcbd 4a8f 57be
0.16409472 0.11954122 0.031559605 -0.27319393 0.072062604 -0.048448645 0.06249838 0.12654921
0.027955344 0.05844164 -0.07604662 -0.0022913755 0.20197424 0.07757573 0.07231705 0.15461773
0.1017984 0.10830867 -0.20154642 0.008769887 0.23749103 0.15266594 -0.2722585 0.2147028
-0.24230278 -0.14317353 0.20502824 -0.23083727 -0.14911169 -0.12601551 -0.20274629 0.002970784
-0.06927913 0.080730304 -0.0734677 0.12910172 -0.093399696 0.023709444 0.022135045 0.035159174
0.3317302 0.14043757 -0.16631514 0.23888737 -0.028790923 -0.2214688 -0.16841586 0.11047023
-0.04501392 0.09453148 0.1607719 0.15385371 0.08762806 0.19169563 0.17804699 0.12429577
-0.21775728 0.108243 -0.23540641 -0.15042156 -0.060299974 0.06397836 0.10199457 0.096908905
0.061085064 -0.035344046 0.028920062 -0.14186426 -0.038117453 -0.20487161 0.22962749 0.13500799
0.033503734 0.20491861 0.060369667 -0.061071057 -0.07009271 0.17994703 0.08543253 -0.25856885
-0.12812705 0.117445566 -0.2215801 0.22784509 -0.20728828 -0.020210842 -0.20915009 0.027633023
-0.12192002 0.07185803 -0.08244442 -0.056969106 0.10448261 0.06801022 -0.12345212 -0.21050754

linear.bias f4 [2]
00000000: 5ca0 443e e3dc 8d3d
0.19201797 0.069268964
