cheakpoint/training_epochs_200_stepsize_7_gamma_0.75/model_epoch20.pth (torch, 117569 bytes, 10 tensors)

lstm.weight_ih_l0 f4 [192, 2]
-0.1880105 -0.042526867 -0.22773795 -0.1058046 -0.0057719206 -0.025261147 0.07663286 0.110313095
0.19160408 0.044294327 -0.19193423 -0.0034903719 0.17594665 0.1327409 0.11238172 0.0540903
0.26000723 0.22515188 -0.1944968 0.092210494 0.17671765 0.0042915256 -0.07389432 0.003918804
0.07623919 -0.11475171 0.044907268 -0.08068243 0.40847328 0.12931322 0.14426127 0.014454123
-0.027094701 -0.11228846 0.3131947 0.18944913 0.05750125 0.09952529 -0.14807212 -0.14936727
-0.12730606 -0.24957843 -0.16289344 -0.010268121 0.20229177 0.041504044 0.25031286 0.23819032
-0.13315766 -0.09252839 0.095181085 0.25762928 -0.018513096 0.17136042 0.017128123 0.043631397
0.14475946 -0.21017009 0.3118874 -0.15712263 -0.13895035 -0.14372322 0.10602505 0.0084858015
-0.28471258 -0.2777269 -0.33096823 -0.4193587 -0.0574397 0.18679729 0.0778448 0.036841325
0.18641882 0.03246634 -0.0019295883 -0.23850787 -0.12359695 -0.3229128 0.0032314686 0.10336464
-0.19801484 -0.13313371 0.0978285 0.11930523 0.051289644 -0.004185394 -0.098744385 -0.21725042
-0.19002327 0.015413814 -0.0010365113 -0.024823703 0.12842996 0.18167306 -0.05407374 -0.10826703
0.024782557 0.08800006 0.080068134 0.07031502 -0.20457552 -0.038207434 -0.07282567 0.114246756
-0.026237823 0.2016285 -0.03057736 0.07986896 -0.18140201 0.06600639 -0.079503104 -0.06525908
0.22394116 0.28158176 0.02974846 0.027830383 0.26279852 0.23161106 -0.100107536 0.041360665
-0.12113492 0.1085414 0.36315957 -0.024051499 0.2650381 0.31046966 -0.02424788 -0.12463678
-0.17545758 -0.19789223 0.10702547 0.03704287 0.042859923 0.05457323 0.19829285 0.22403178
-0.13000962 -0.10410122 -0.16780752 0.048286345 -0.00065482134 0.06102202 0.27907807 0.2606085
0.093628675 -0.062310364 0.1130831 0.375996 -0.11760668 0.1641501 0.18055746 -0.1903122
0.33095452 0.17427745 0.24403062 -0.055873748 0.083505936 -0.0894196 0.19111472 0.30571896
-0.08419729 -0.112292536 0.068774916 -0.0075486987 0.1412388 0.056773387 -0.10662925 -0.001399412
0.22985157 0.09135712 0.085682854 -0.06215763 0.07035912 -0.20935099 0.15692773 -0.022807267
-0.03149406 -0.24681346 0.0604524 0.15930465 0.03313112 0.27989534 -0.11358748 -0.13973254
0.15020695 -0.061190374 0.14552003 0.05701657 0.102787904 0.3028585 0.055455424 -0.25709617
0.08286854 -0.28535903 0.0945217 0.20380071 0.11352794 0.31089994 -0.07225827 0.45520267
0.2249325 0.2850357 0.040741935 0.22823206 -0.45449647 0.06907165 -0.018592048 0.2979022
0.43550864 0.23858397 0.29927406 0.10420327 -0.028294329 -0.31487668 -0.10451632 -0.36141384
-0.22822167 -0.31867632 -0.32879204 0.034511544 0.13322107 -0.45927083 -0.1361695 -0.25890425
0.2832879 -0.08057063 0.33824578 -0.3258595 0.17204425 0.284663 0.23036228 0.22041993
-0.17094547 -0.12227624 0.23708645 -0.07696925 -0.18359537 -0.30615044 -0.17221713 -0.33922517
0.25169337 -0.15950747 -0.051617004 -0.34695995 0.17912674 -0.32406625 -0.408539 0.07308775
-0.2368681 0.09465243 0.35509428 -0.32472554 -0.2846544 -0.11476867 0.029147327 -0.38647464
00000000: d385 40be a730 2ebd 2334 69be 15b0 d8bd
00000010: 6122 bdbb 77f0 cebc b0f1 9c3d d5eb e13d
00000020: dc33 443e f86d 353d 688a 44be b9be 64bb
00000030: 5c2b 343e 3bed 073e 6328 e63d ca8d 5d3d
00000040: ab1f 853e 378e 663e 2b2a 47be dbd8 bc3d
00000050: 79f5 343e ed9f 8c3b e855 97bd 5069 803b
00000060: 4b23 9c3d f202 ebbd aff0 373d d43c a5bd
00000070: 6923 d13e af6a 043e 3ab9 133e fcd0 6c3c
00000080: b5f5 ddbc 7ef7 e5bd 0e5b a03e f4fe 413e
00000090: 6e86 6b3d ead3 cb3d 38a0 17be bcf3 18be
000000a0: 855c 02be 7d91 7fbe 8acd 26be 9f3b 28bc
000000b0: 9325 4f3e 2500 2a3d 0229 803e 2ae8 733e
000000c0: 7b5a 08be 867f bdbd 4dee c23d fce7 833e
000000d0: c7a8 97bc 1b79 2f3e 4750 8c3c d6b6 323d
000000e0: d33b 143e d436 57be b5af 9f3e c1e4 20be
000000f0: 0049 0ebe 2e2c 13be a923 d93d 0808 0b3c
00000100: d9c5 91be 3832 8ebe ab74 a9be 2fb6 d6be
00000110: e445 6bbd ca47 3f3e 186d 9f3d eee6 163d
00000120: 93e4 3e3e 6dfb 043d 3dea fcba 683b 74be
00000130: 6620 fdbd d454 a5be 0cc7 533b d7b0 d33d
00000140: 67c4 4abe 3454 08be 4f5a c83d 4d56 f43d
00000150: 1715 523d a125 89bb 7f3a cabd e576 5ebe
00000160: 7695 42be 398a 7c3c 8cdb 87ba 145b cbbc
00000170: 2583 033e 8108 3a3e 6d7c 5dbd 1bbb ddbd
00000180: ca04 cb3c 6039 b43d c3fa a33d 5201 903d
00000190: 3f7c 51be 667f 1cbd a025 95bd 34fa e93d
000001a0: b4f0 d6bc b477 4e3e 5f7d fabc 5692 a33d
000001b0: 73c1 39be 5c2e 873d 86d2 a2bd 8da6 85bd
000001c0: d550 653e 7c2b 903e 0bb3 f33c 8bfc e33c
000001d0: 878d 863e 732b 6d3e 2e05 cdbd cd69 293d
000001e0: 9615 f8bd f44a de3d 0df0 b93e a607 c5bc
000001f0: 13b3 873e e1f5 9e3e 7da3 c6bc 9141 ffbd
00000200: 27ab 33be 43a4 4abe 2b30 db3d 44ba 173d
00000210: e38d 2f3d 2e88 5f3d 480d 4b3e 9668 653e
00000220: 3e21 05be 0533 d5bd bcd5 2bbe e7c7 453d
00000230: 51a8 2bba 3af2 793d 52e3 8e3e 7a6e 853e
00000240: 64c0 bf3d 2739 7fbd 1d98 e73d 8c82 c03e
00000250: c5db f0bd f716 283e 0ee4 383e 34e1 42be
00000260: df72 a93e ca75 323e 2ae3 793e dfdb 64bd
00000270: 2905 ab3d a021 b7bd 94b3 433e 3287 9c3e
00000280: a16f acbd a1f9 e5bd ddd9 8c3d 135b f7bb
00000290: e7a0 103e 368b 683d 7060 dabd 7a6c b7ba
000002a0: 365e 6b3e 7119 bb3d 7e7a af3d 0099 7ebd
000002b0: 7118 903d 1b60 56be aab1 203e 4ed6 babc
000002c0: eaff 00bd abbc 7cbe f09c 773d c220 233e
000002d0: 7fb4 073d 714e 8f3e 8da0 e8bd 0c16 0fbe
000002e0: dacf 193e c2a2 7abd 3403 153e 358a 693d
000002f0: 7782 d23d 4510 9b3e 3a25 633d 1ca2 83be
00000300: fbb6 a93d 941a 92be 9894 c13d 22b1 503e
00000310: 5681 e83d 472e 9f3e 25fc 93bd 5310 e93e
00000320: b554 663e 33f0 913e 04e1 263d aab5 693e
00000330: c3b3 e8be 7075 8d3d 5a4e 98bc a386 983e
00000340: fdfa de3e 5b4f 743e 733a 993e 8668 d53d
00000350: 82c9 e7bc 8437 a1be a70c d6bd 3c0b b9be
00000360: f1b2 69be 8b29 a3be 6e57 a8be fa5b 0d3d
00000370: 1b6b 083e 8c25 ebbe 0470 0bbe 198f 84be
00000380: 1d0b 913e 3702 a5bd 8d2e ad3e 0ed7 a6be
00000390: 5e2c 303e 59bf 913e 17e4 6b3e c3b5 613e
000003a0: 540c 2fbe f76b fabd cac6 723e 0ea2 9dbd
000003b0: 6d00 3cbe c0bf 9cbe b059 30be ecae adbe
000003c0: f4dd 803e ed55 23be 5a6c 53bd bca4 b1be
000003d0: 006d 373e 03ec a5be 062c d1be 08af 953d
000003e0: 8d8d 72be 22d9 c13d ebce b53e 6d42 a6be
000003f0: 39be 91be d60b ebbd 60c6 ee3c 01e0 c5be

lstm.weight_hh_l0 f4 [192, 48]
0.0652741 0.1263902 -0.040603884 -0.11744406 -0.01456048 -0.0932887 -0.07541608 -0.026558114
-0.03927604 0.058543824 0.0034895926 0.0037138166 -0.007554684 0.23266254 0.045618333 -0.10898135
0.13871731 -0.044533145 -0.1665457 0.07042449 -0.070816904 0.0559867 -0.041635375 0.12983523
-0.11440511 0.15978152 -0.10796883 -0.0840893 -0.10768107 -0.112002745 -0.091167115 0.047256015
-0.07346534 0.09332173 0.17993727 0.08421169 0.070192955 0.10164373 -0.10368015 0.047195643
0.0051210867 -0.07747143 -0.07765953 0.22315253 -0.13227986 0.00093451946 0.094293885 0.104959495
0.057156 -0.1560595 -0.00092976395 -0.21272686 -0.17534493 -0.18198806 0.34519768 -0.15753442
-0.26647964 -0.117111176 0.558414 0.26938793 0.21626163 0.38902372 0.4159895 0.28035146
0.042806417 -0.18755054 -0.2372255 -0.20506537 0.20226909 0.08093621 0.24882601 0.27378836
-0.51050377 0.545407 -0.052941136 0.26998347 0.15711558 -0.308145 0.22363976 0.22934029
-0.09942307 0.036698364 0.30937696 -0.31838533 0.41401625 -0.1422649 0.11241559 -0.15831782
0.08587735 -0.5473651 0.25152165 0.060551185 -0.10933076 -0.3395908 0.2906452 -0.1289312
-0.0068150884 -0.14691445 -0.0942663 -0.12024294 -0.10878576 -0.113865405 0.002643893 -0.25693864
-0.024107628 -0.08293068 0.15913239 0.14604549 0.025679562 0.06648557 0.2506692 0.16721492
-0.006072224 -0.11020291 -0.08221898 -0.08819784 -0.13164708 0.021925597 -0.047881313 0.2080033
-0.23419635 0.16102083 -0.13763058 -0.084924355 -0.16105509 -0.064771645 0.07939599 0.006573293
-0.05670059 -0.010369589 0.035658702 -0.04996045 -0.012747519 0.05779791 0.19350787 0.027950669
-0.062378302 -0.15047932 -0.003612518 0.2459372 -0.24925402 -0.374051 0.205576 0.18487124
0.19258682 0.46658722 0.036316283 -0.05422687 -0.035878796 -0.0013926266 -0.16164573 -0.110262096
-0.08260181 0.19973093 0.1037693 0.20848298 0.03477475 -0.12131971 0.069409624 0.054081786
0.26735455 0.15407719 -0.053443123 -0.055784002 -0.097186565 0.25612694 -0.044954147 0.17500015
0.093601815 -0.11537776 0.06437676 -0.030650964 -0.3833302 0.10297745 -0.04064847 0.17844343
0.25255197 0.09337906 0.19799602 0.04202749 -0.21255581 0.13939027 0.10393392 0.19604506
-0.14153922 -0.03253196 0.11953364 0.030759081 -0.052990872 -0.06971984 0.084069856 0.31683245
-0.10062877 0.22521703 0.21464092 -0.0029904863 0.06186877 -0.09928481 0.046210486 -0.014757854
0.00922463 -0.029900594 0.1509185 0.06290257 -0.009106287 0.116866075 -0.042479996 -0.062209655
-0.044128545 -0.14113136 -0.0030903278 0.19196334 -0.16190353 0.07771257 0.07733138 -0.05981151
0.011719757 0.10958948 -0.19111414 0.06605776 -0.15846364 -0.21480861 -0.12308332 0.061556973
0.16224048 0.08042317 0.03606494 0.053587466 0.050880115 0.096908405 0.01019831 -0.09638575
-0.13392267 -0.085922524 -0.027106004 0.02062813 -0.06610898 0.094333895 -0.043109514 0.023592487
-0.07095999 0.08709843 0.24313907 -0.20681493 0.013517976 -0.063587785 -0.06569356 0.04817953
-0.1879787 -0.07029045 0.02305962 0.17576167 0.024843268 -0.11948472 0.05007029 0.093559526
00000000: 6dae 853d 6f6c 013e 4250 26bd 8386 f0bd
00000010: 148f 6ebc 250e bfbd bf73 9abd 6790 d9bc
00000020: eadf 20bd a6cb 6f3d a6b1 643b 8163 733b
00000030: 488d f7bb 173f 6e3e 4ada 3a3d 9d31 dfbd
00000040: e90b 0e3e 6368 36bd f58a 2abe b73a 903d
00000050: 7408 91bd 4f52 653d db89 2abd 87f3 043e
00000060: 3a4d eabd c49d 233e c31e ddbd 0337 acbd
00000070: e587 dcbd b261 e5bd d3b5 babd 868f 413d
00000080: ff74 96bd 771f bf3d 7a41 383e 2e77 ac3d
00000090: 53c1 8f3d 972a d03d 4256 d4bd 3850 413d
000000a0: cace a73b 57a9 9ebd f60b 9fbd 1982 643e
000000b0: 5f74 07be 8afa 743a 271d c13d 01f5 d63d
000000c0: 691c 6a3d 10ce 1fbe 67bb 73ba 12d5 59be
000000d0: 9f8d 33be 145b 3abe c0bd b03e b450 21be
000000e0: 0570 88be fcd7 efbd 38f4 0e3f 37ed 893e
000000f0: b073 5d3e 1e2e c73e 93fc d43e 3a8a 8f3e
00000100: c855 2f3d 400d 40be 3eeb 72be a8fc 51be
00000110: a11f 4f3e e2c1 a53d 3fcc 7e3e fd2d 8c3e
00000120: 60b0 02bf cb9f 0b3f ced8 58bd 463b 8a3e
00000130: e8e2 203e 2ec5 9dbe d201 653e 2ed8 6a3e
00000140: 539e cbbd 0651 163d a866 9e3e 6703 a3be
00000150: f0f9 d33e e4ad 11be 253a e63d 111e 22be
00000160: 77e0 af3d 1f20 0cbf 72c7 803e 8504 783d
00000170: cee8 dfbd d8de adbe 73cf 943e 8a06 04be
00000180: 1b51 dfbb be70 16be b10e c1bd ee41 f6bd
00000190: 12cb debd 4432 e9bd 2a45 2d3b 768d 83be
000001a0: 5c7d c5bc 8fd7 a9bd 9af3 223e f38c 153e
000001b0: f25d d23c 9629 883d b757 803e 633a 2b3e
000001c0: 82f9 c6bb 10b2 e1bd 6d62 a8bd 12a1 b4bd
000001d0: 7ece 06be 4f9d b33c 321f 44bd d1fe 543e
000001e0: 2bd1 6fbe a5e2 243e 08ef 0cbe d2ec adbd
000001f0: a0eb 24be ffa6 84bd 5d9a a23d c764 d73b
00000200: e13e 68bd 35e5 29bc dc0e 123d 54a3 4cbd
00000210: f8da 50bc 80bd 6c3d ed26 463e cdf8 e43c
00000220: 6480 7fbd 4017 1abe ffbf 6cbb f6d6 7b3e
00000230: 723c 7fbe 9d83 bfbe 8482 523e e34e 3d3e
00000240: 7b35 453e 85e4 ee3e 62c0 143d ff1c 5ebd
00000250: a5f5 12bd cb88 b6ba 7586 25be 18d1 e1bd
00000260: 232b a9bd 4486 4c3e 0085 d43d 907c 553e
00000270: f86f 0e3d 7876 f8bd a226 8e3d dd84 5d3d
00000280: b2e2 883e 69c6 1d3e 2de7 5abd c47d 64bd
00000290: c009 c7bd 1223 833e d721 38bd 3d33 333e
000002a0: 4fb2 bf3d 2d4b ecbd f6d7 833d bb17 fbbc
000002b0: db43 c4be d7e5 d23d 037f 26bd e0b9 363e
000002c0: 7e4e 813e 853d bf3d 78bf 4a3e 0425 2c3d
000002d0: 3ba8 59be 53bc 0e3e 4fdb d43d 09c0 483e
000002e0: a8ef 10be 3c40 05bd 0ece f43d 78fa fb3c
000002f0: f50c 59bd 47c9 8ebd d12c ac3d dd37 a23e
00000300: 7516 cebd 4b9f 663e d4ca 5b3e 09fc 43bb
00000310: 1b6a 7d3d d655 cbbd 3547 3d3d edca 71bc
00000320: e722 173c 17f2 f4bc 618a 1a3e 10d3 803d
00000330: 8932 15bc 7b57 ef3d 81ff 2dbd 8dcf 7ebd
00000340: 22c0 34bd bd84 10be 1987 4abb 0a92 443e
00000350: 0aca 25be c527 9f3d ea5f 9e3d eafc 74bd
00000360: 3904 403c 7370 e03d 6db3 43be 4a49 873d
00000370: 4b44 22be caf6 5bbe 1c13 fcbd 2a23 7c3d
00000380: 5e22 263e e7b4 a43d d5b8 133d 887e 5b3d
00000390: ab67 503d ea77 c63d d016 273c e465 c5bd
000003a0: 0623 09be 26f8 afbd 690d debc 53fc a83c
000003b0: 2564 87bd 2132 c13d 9a93 30bd 0845 c13c
000003c0: 7953 91bd a960 b23d 73f9 783e 4bc7 53be
000003d0: 807a 5d3c 503a 82bd 588a 86bd e657 453d
000003e0: 7d7d 40be 70f4 8fbd 87e7 bc3c defa 333e
000003f0: 1c84 cb3c 68b4 f4bd 8116 4d3d 239c bf3d

lstm.bias_ih_l0 f4 [192]
-0.016021293 -0.22332586 -0.16976078 0.002732369 -0.22845985 -0.23896345 0.012048184 -0.20559777
-0.046949908 -0.041996095 -0.14495756 -0.14508048 -0.091917224 0.100830086 0.279765 -0.11845349
-0.10124001 0.14009178 -0.051460687 -0.110390216 -0.19584732 -0.06285781 0.08542784 0.025952341
0.03377438 0.042630754 -0.18638508 0.15637524 0.0014841602 -0.04057235 -0.24154657 0.00058805966
-0.21949834 -0.12439677 -0.27589425 -0.06158295 0.05822325 -0.30213886 -0.17392746 0.051933903
-0.047298603 0.15433586 -0.14460382 0.021582283 -0.2462557 -0.09940521 0.03173395 0.019497832
-0.21668151 0.12622999 -0.015397112 -0.10052227 -0.053077407 -0.10232438 0.033401657 -0.19327258
-0.025437584 0.04730528 0.2125267 0.04352957 -0.14020652 0.07073061 0.21466634 -0.17745453
-0.12308466 0.22819191 0.051265575 0.3523077 -0.08385062 -0.20036264 0.09149374 -0.11140949
-0.07871224 0.16853032 0.1043809 0.11167423 0.41817257 -0.10146341 0.08586247 0.06609795
-0.1041342 0.07842105 -0.07260255 -0.027952168 0.18195492 -0.116640836 -0.11543109 0.15037213
0.10149047 0.119659916 -0.08993214 -0.19242631 -0.15457107 -0.13818634 -0.05839528 -0.08181278
0.004129088 -0.11965517 -0.108593896 -0.04648112 -0.10433764 -0.09924431 0.053337142 -0.018304856
0.0014580999 -0.12244277 -0.015115026 0.20715974 0.15693556 -0.02605133 -0.024034591 0.14825071
-0.047227003 -0.10130953 -0.07692499 -0.16855548 0.024311058 -0.04081954 0.016865449 0.06615279
-0.0005867787 0.073348284 0.08883575 0.09776646 0.0379844 0.052212264 0.16287649 0.0950779
-0.079312705 -0.030500807 0.05380191 -0.12996547 0.1602135 -0.05255156 -0.06435033 -0.020445943
-0.03747035 -0.106303155 0.090655595 0.045772653 0.054048806 -0.11790169 -0.02522318 0.013806452
-0.20402081 -0.19622892 -0.2336491 0.1077747 -0.23687693 -0.16539598 -0.03655146 0.02209355
-0.10228064 -0.1741474 0.022386072 -0.052668065 -0.17703696 0.039893083 0.37935606 -0.10572588
-0.16661344 0.31078002 -0.059898585 0.01040001 -0.1346621 -0.07234467 -0.074003935 0.05663144
-0.07194228 -0.08440812 -0.007119929 -8.023717e-05 0.10326283 -0.025256746 -0.15588236 -0.026634043
-0.24370071 -0.2159405 -0.065874174 0.0014992425 0.054721575 -0.07113178 -0.22940284 -0.07304616
-0.20582688 0.04487022 -0.05209863 -0.17842819 -0.22490656 -0.17560716 -0.026345758 -0.12839581
00000000: 163f 83bc 89af 64be c5d5 2dbe 8b11 333b
00000010: 61f1 69be d6b2 74be bf65 453c 3988 52be
00000020: 8c4e 40bd 1904 2cbd c16f 14be fa8f 14be
00000030: 193f bcbd 0180 ce3d 5c3d 8f3e be97 f2bd
00000040: ec56 cfbd 3874 0f3e 71c8 52bd 4414 e2bd
00000050: 338c 48be 98bb 80bd cbf4 ae3d 019a d43c
00000060: 0157 0a3d 969d 2e3d bbdb 3ebe d520 203e
00000070: 2788 c23a 312f 26bd fc57 77be 0428 1a3a
00000080: 2cc4 60be bcc3 febd 0342 8dbe 673e 7cbd
00000090: 817b 6e3d f2b1 9abe 0a1a 32be a5b8 543d
000000a0: 2ebc 41bd 380a 1e3e 0613 14be 54cd b03c
000000b0: 742a 7cbe f594 cbbd 75fb 013d ebb9 9f3c
000000c0: c2e1 5dbe 6f42 013e 2b44 7cbc 9fde cdbd
000000d0: b267 59bd 728f d1bd 2dd0 083d 3fe9 45be
000000e0: 7b62 d0bc 2ec3 413d 99a0 593e 104c 323d
000000f0: 4c92 0fbe 36db 903d 7ed1 5b3e a4b6 35be
00000100: cf13 fcbd 24ab 693e dafb 513d ad61 b43e
00000110: e0b9 abbd dd2b 4dbe 1261 bb3d a92a e4bd
00000120: e233 a1bd 3693 2c3e a7c5 d53d 75b5 e43d
00000130: b71a d63e 0ccc cfbd aad8 af3d 5d5e 873d
00000140: 5044 d5bd 379b a03d a5b0 94bd f2fb e4bc
00000150: 6452 3a3e 64e1 eebd 2367 ecbd 27fb 193e
00000160: 3cda cf3d 4210 f53d 582e b8bd 670b 45be
00000170: e147 1ebe b880 0dbe e42f 6fbd 758d a7bd
00000180: 4d4d 873b c50d f5bd 7a66 debd fd62 3ebd
00000190: f9ae d5bd 9a40 cbbd 0c78 5a3d 11f4 95bc
000001a0: b71d bf3a 46c3 fabd 04a5 77bc af21 543e
000001b0: b7b3 203e 9969 d5bc 31e4 c4bc 09cf 173e
000001c0: 1a71 41bd 5f7b cfbd d98a 9dbd cf99 2cbe
000001d0: fc27 c73c 6432 27bd 6929 8a3c 1d7b 873d
000001e0: 0dd2 19ba a037 963d 85ef b53d c839 c83d
000001f0: 8895 1b3d 87dc 553d 18c9 263e 34b8 c23d
00000200: b36e a2bd d4dc f9bc 645f 5c3d ab15 05be
00000210: 020f 243e 4e40 57bd 1bca 83bd 407e a7bc
00000220: 827a 19bd 78b5 d9bd a4a9 b93d 1b7c 3b3d
00000230: 4862 5d3d 7176 f1bd d8a0 cebc 7534 623c
00000240: d5ea 50be 3cf0 48be b641 6fbe fbb8 dc3d
00000250: de8f 72be 905d 29be fcb6 15bd 88fd b43c
00000260: 8378 d1bd b253 32be ff62 b73c 78ba 57bd
00000270: 2d49 35be ee66 233d f53a c23e cf86 d8bd
00000280: b79c 2abe 8f1e 9f3e 3858 75bd ce64 2a3c
00000290: dde4 09be 7129 94bd 608f 97bd 5ef6 673d
000002a0: 7956 93bd 2ade acbd 4b4e e9bb 0145 a8b8
000002b0: 767b d33d 3ce7 cebc a09f 1fbe a32f dabc
000002c0: ae8c 79be 821f 5dbe 0ae9 86bd 3b82 c43a
000002d0: bb23 603d 8aad 91bd 94e8 6abe 3a99 95bd
000002e0: 48c4 52be d6c9 373d 6065 55bd e1b5 36be
000002f0: e84d 66be 5dd2 33be 0fd3 d7bc 317a 03be

lstm.bias_hh_l0 f4 [192]
-0.08854179 -0.16199689 0.018974617 -0.061124302 -0.1822538 -0.22222777 0.08294892 -0.25296187
0.022618921 0.013688566 0.08477203 0.090843 0.031822182 0.15773329 0.17972492 -0.0063850232
-0.050331663 0.14752732 -0.15920463 0.08081482 -0.17966522 -0.25219885 -0.08750202 0.10676413
0.014658709 0.026371976 -0.14585918 0.18738851 0.10643922 0.06503682 -0.0957783 -0.096185744
-0.21925582 -0.12485024 -0.23012501 0.061081782 0.09528921 -0.054833792 -0.06359171 -0.062332496
-0.2756801 0.13923539 -0.14546195 0.01658322 -0.12192372 0.04756756 -0.031086847 -0.20288658
-0.097234145 -0.1058691 -0.054838777 -0.031692855 -0.18859546 -0.03745275 0.010855881 -0.10759266
-0.1273752 -0.048348665 0.2387418 -0.12020581 -0.16641983 0.024625571 0.21556166 -0.14590478
-0.024235614 0.17277808 0.021401975 0.2964324 -0.095850304 -0.024195766 0.044306982 0.16214761
-0.09276391 0.06600798 0.06168585 -0.08443852 0.3102364 -0.04559312 0.027476711 0.019306876
0.0029178667 -0.103282884 0.07905378 -0.060937412 0.1408464 0.07143969 0.08511334 -0.07481091
0.08523276 0.1945046 0.022848751 -0.0765216 0.013222128 -0.16563162 0.10473812 -0.09395504
0.02324203 -0.046267208 -0.15762718 -0.08314741 -0.05798164 0.06271581 0.13087292 -0.05879126
-0.24507248 -0.080747485 0.026752185 -0.0625668 0.024918433 0.12185718 0.02053362 -0.01455753
-0.012098178 0.108967796 -0.09799185 0.0013356198 0.124925934 -0.07645928 0.16121423 -0.015009128
0.005340815 -0.05844551 0.019434007 0.015877828 0.08062816 -0.025031595 -0.047514167 0.027194366
0.03733681 -0.08660475 0.0031280345 -0.14022626 -0.07711821 -0.022052743 0.13118286 0.030421771
0.039105803 -0.09484873 0.03425952 -0.081874415 0.003728517 0.015487576 0.20760794 -0.00668945
-0.10951552 -0.1738143 -0.10980518 -0.0687988 -0.20583694 -0.11802858 0.05430615 -0.19865088
0.1034845 -0.18442306 -0.12559743 0.10793305 -0.05166683 0.017514719 0.30519632 -0.15084314
-0.04482478 0.096808925 -0.20772056 0.028525794 -0.08594672 -0.021949446 0.040985253 -0.025578218
-0.14443079 0.06507868 0.0950339 -0.04803396 0.26226878 -0.011752822 -0.20125096 0.025691116
-0.2487215 -0.023286473 -0.18443732 0.017032307 0.19983627 -0.13546506 -0.19279787 0.016223937
-0.19145413 0.09379814 -0.113389425 0.0034120867 -0.06599081 -0.17533958 0.05254934 -0.029102111
00000000: 6655 b5bd 83e2 25be a870 9b3c 7a5d 7abd
00000010: bda0 3abe ad8f 63be 20e1 a93d 3884 81be
00000020: 514b b93c 0246 603c f59c ad3d e50b ba3d
00000030: fa57 023d d684 213e cf09 383e 7539 d1bb
00000040: 9328 4ebd 6711 173e 8a06 23be 3e82 a53d
00000050: 29fa 37be 3520 81be 4234 b3bd 27a7 da3d
00000060: 152b 703c 0b0a d83c 1c5c 15be c6e2 3f3e
00000070: cefc d93d 0632 853d 6a27 c4bd 08fd c4bd
00000080: 9984 60be 7cb1 ffbd e4a5 6bbe e430 7a3d
00000090: fd26 c33d 6699 60bd 5f3c 82bd 5c50 7fbd
000000a0: f125 8dbe b993 0e3e faf3 14be 88d9 873c
000000b0: 25b3 f9bd 34d6 423d d8a9 febc 80c1 4fbe
000000c0: b222 c7bd e6d1 d8bd a09e 60bd 5ed0 01bd
000000d0: 2b1f 41be 0e68 19bd dddc 313c 8a59 dcbd
000000e0: a56e 02be 4009 46bd bb78 743e 772e f6bd
000000f0: f669 2abe 91bb c93c 32bc 5c3e 1068 15be
00000100: c489 c6bc bdec 303e 3253 af3c fdc5 973e
00000110: 2a4d c4bd 3336 c6bc 3d7b 353d 060a 263e
00000120: 01fb bdbd 312f 873d 4daa 7c3d 1aee acbd
00000130: 4ed7 9e3e dabf 3abd d716 e13c 7429 9e3c
00000140: ae39 3f3b fa85 d3bd f3e6 a13d 8299 79bd
00000150: 0a3a 103e f94e 923d e74f ae3d 7636 99bd
00000160: 838e ae3d 372c 473e 4e2d bb3c 5bb7 9cbd
00000170: a0a1 583c 569b 29be f180 d63d 806b c0bd
00000180: 1266 be3c af82 3dbd 0569 21be 3049 aabd
00000190: 287e 6dbd 2671 803d 8d03 063e 1bcf 70bd
000001a0: 48f4 7abe f05e a5bd 6627 db3c 0623 80bd
000001b0: be21 cc3c 4290 f93d 1f36 a83c b582 6ebc
000001c0: 7037 46bc 822a df3d f3af c8bd f70f af3a
000001d0: 2bd9 ff3d af96 9cbd 5815 253e d8e8 75bc
000001e0: 0102 af3b 8f64 6fbd 1134 9f3c 3812 823c
000001f0: 6020 a53d 0f0f cdbc 379e 42bd b8c6 de3c
00000200: 7cee 183d d55d b1bd b6ff 4c3b 7997 0fbe
00000210: 27f0 9dbd f4a7 b4bc cd54 063e 1437 f93c
00000220: 682d 203d 0d40 c2bd b653 0c3d c6ad a7bd
00000230: 235a 743b 9abf 7d3c 2d97 543e 2c33 dbbb
00000240: ac49 e0bd 60fc 31be 8ae1 e0bd 63e6 8cbd
00000250: ebc6 52be f8b8 f1bd 2070 5e3d 236b 4bbe
00000260: aeef d33d 66d9 3cbe 9d9c 00be 010c dd3d
00000270: 99a0 53bd 077b 8f3c b142 9c3e a076 1abe
00000280: 309a 37bd c243 c63d b3b4 54be edae e93c
00000290: d504 b0bd 53cf b3bc 27e0 273d 6989 d1bc
000002a0: aae5 13be f947 853d 22a1 c23d 42bf 44bd
000002b0: 1848 863e e98e 40bc bb14 4ebe 2d76 d23c
000002c0: d9b0 7ebe 46c3 bebc 23dd 3cbe 5687 8b3c
000002d0: e1a1 4c3e 5ab7 0abe ce6c 45be 10e8 843c
000002e0: 8d0c 44be 3d19 c03d b738 e8bd 519d 5f3b
000002f0: 3126 87bd 388c 33be fa3d 573d 8d67 eebc

lstm.weight_ih_l1 f4 [192, 48]
-0.0066538015 0.1384814 0.06548205 -0.12979297 -0.081258126 -0.042000692 -0.10464458 -0.08889147
-0.16224214 0.005062247 0.025049182 0.16013138 -0.15194659 0.14116596 0.11667849 -0.08615153
0.24361463 -0.10578831 0.051734373 0.06616286 0.07721872 0.14590736 0.15924366 0.04991814
-0.07357151 0.16464768 -0.017538927 0.035592332 0.039785765 -0.08160291 0.121737465 -0.018005801
0.19261695 0.2543709 0.20939651 0.17004493 0.0849444 0.13620767 0.028924718 0.14981444
-0.082725435 -0.11857887 0.047208987 0.16887479 -0.062938035 0.0014710735 0.10724054 0.11838091
0.027670357 0.03357597 0.28038198 0.11249822 0.08454751 -0.03696791 -0.28024668 -0.006182885
0.072451 -0.009710516 0.04821953 -0.043192126 -0.12475929 -0.090858534 -0.17201297 -0.14335597
-0.051933043 -0.10763977 0.062915094 0.04520223 -0.22400223 0.119039565 -0.24051826 -0.16917239
-0.007579837 -0.18208507 -0.16912729 -0.0059975386 0.048667446 -0.0026760758 0.012587537 -0.08376766
0.14040454 -0.019719634 -0.10280547 0.2736512 -0.1600998 -0.053875096 0.01826618 -0.08670982
0.07972477 0.23448648 -0.100931734 0.07813143 -0.119529165 0.090409964 -0.23579377 -0.111974426
-0.08104276 0.13667805 0.1412954 0.019269038 -0.034174424 0.0786354 0.12538631 0.07719326
0.076904304 -0.083023906 -0.010345612 -0.09229855 0.062063705 -0.07994809 -0.20736735 -0.03915694
-0.09829848 0.044407032 -0.045767147 0.06957196 -0.020085618 0.12437566 0.08347403 -0.081737086
0.080308996 -0.04114801 -0.10001229 0.023788022 0.054786004 -0.21888638 -0.15300316 0.11278524
0.11633403 0.23338267 0.10118669 0.047946576 0.06704598 0.14381449 -0.0037393447 -0.048975497
-0.09373412 -0.16769026 -0.082756825 0.022593975 -0.03799847 0.061495755 -0.0851028 -0.06823773
-0.14284828 -0.00283548 -0.026087781 -0.20989825 -0.14071934 0.11950109 0.084634185 -0.15734696
-0.06720691 -0.08776038 0.13332961 -0.040802177 0.056797378 0.0039584613 -0.039988928 -0.079641
0.07726948 -0.16632469 -0.22341269 0.06685875 0.035702128 0.17685638 0.11837397 0.10715819
-0.11709065 -0.019950978 -0.03603462 0.08139762 0.11141119 -0.10902898 0.13962726 -0.040030535
0.100933194 0.12568767 0.019602984 -0.06846479 0.1668331 -0.010023597 0.0084922025 -0.20181398
0.00269762 -0.06958946 0.113464765 -0.017480327 -0.17956671 0.091054305 -0.09398484 0.05928366
0.009093596 0.14202936 0.11794082 -0.015024994 0.20329179 -0.003286135 -0.10406528 0.046343926
-0.0017187962 -0.0047358046 0.12302415 -0.09788706 -0.12740357 0.00959593 -0.17472148 -0.10359486
0.09355501 -0.026143398 -0.09008228 0.062559426 0.0032485472 -0.039901912 -0.17338964 0.0030620957
-0.09045966 -0.049047656 -0.020471517 0.004757346 0.16889235 0.030850505 -0.16668417 0.019357612
0.12608218 0.09724306 0.09809454 0.17349799 -0.10430672 0.16635677 -0.2545929 0.0697777
-0.10506119 -0.059998866 -0.058384318 0.08100645 0.034777146 -0.061354175 -0.16331151 -0.0011054785
-0.050726105 -0.089584075 0.022435984 0.121911764 -0.020733774 0.0089911185 0.17490779 0.1367454
0.05565034 0.035967097 -0.010627217 -0.122143656 -0.20119306 0.017791862 -0.35279533 -0.21156639
00000000: 2208 dabb 11ce 0d3e 741b 863d 73e8 04be
00000010: a96a a6bd eb08 2cbd e64f d6bd bb0c b6bd
00000020: ce22 26be 35e1 a53b f133 cd3c 7bf9 233e
00000030: e397 1bbe cf8d 103e 22f5 ee3d 3770 b0bd
00000040: 1d76 793e 8ba7 d8bd 6ce7 533d 6580 873d
00000050: d924 9e3d bd68 153e c510 233e f776 4c3d
00000060: a9ac 96bd 6799 283e ccad 8fbc 44c9 113d
00000070: 66f6 223d 6d1f a7bd 7e51 f93d e780 93bc
00000080: 613d 453e e73c 823e 0a6c 563e 4220 2e3e
00000090: 54f7 ad3d 067a 0b3e 88f3 ec3c f568 193e
000000a0: f46b a9bd 7bd9 f2bd 365e 413d 83ed 2c3e
000000b0: a8e5 80bd 09d1 c03a eea0 db3d b171 f23d
000000c0: f2ac e23c f586 093d 3a8e 8f3e 7765 e63d
000000d0: 3f27 ad3d aa6b 17bd 7e7c 8fbe cc99 cabb
000000e0: 3161 943d db18 1fbc d881 453d 3aea 30bd
000000f0: cc81 ffbd 0a14 babd 2b24 30be e8cb 12be
00000100: beb7 54bd 3d72 dcbd a1d9 803d f925 393d
00000110: d760 65be 04cb f33d 6b4a 76be 873b 2dbe
00000120: 4860 f8bb 8274 3abe b42f 2dbe 0087 c4bb
00000130: 8457 473d 1a61 2fbb f53b 4e3c 618e abbd
00000140: 35c6 0f3e 128b a1bc ad8b d2bd 031c 8c3e
00000150: 34f1 23be 22ac 5cbd f5a2 953c eb94 b1bd
00000160: bd46 a33d 391d 703e 4cb5 cebd 5f03 a03d
00000170: b5cb f4bd dc28 b93d ec73 71be d952 e5bd
00000180: bff9 a5bd 55f5 0b3e beaf 103e 1ada 9d3c
00000190: 7bfa 0bbd 990b a13d 4565 003e 8017 9e3d
000001a0: 0180 9d3d 7008 aabd a480 29bc 0607 bdbd
000001b0: 8336 7e3d d3bb a3bd 1b58 54be 0763 20bd
000001c0: b750 c9bd 26e4 353d 5576 3bbd be7b 8e3d
000001d0: 988a a4bc abb8 fe3d 6ff4 aa3d c665 a7bd
000001e0: 0b79 a43d d18a 28bd 3ed3 ccbd 19df c23c
000001f0: 4a67 603d c023 60be dcac 1cbe f3fb e63d
00000200: 8940 ee3d defb 6e3e f83a cf3d a163 443d
00000210: 674f 893d 1b44 133e cb0f 75bb 889a 48bd
00000220: adf7 bfbd ffb6 2bbe 697c a9bd 0017 b93c
00000230: 49a4 1bbd f9e2 7b3d 604a aebd 39c0 8bbd
00000240: d246 12be 76d3 39bb 0bb6 d5bc 91ef 56be
00000250: bb18 10be fdbc f43d b054 ad3d 901f 21be
00000260: c7a3 89bd b7bb b3bd 8f87 083e 2f20 27bd
00000270: 5ea4 683d fbb5 813b 6ecb 23bd d21a a3bd
00000280: 763f 9e3d 0551 2abe 4cc6 64be 3eed 883d
00000290: 653c 123d d719 353e 0d6e f23d c175 db3d
000002a0: 39cd efbd 3c70 a3bc 0a99 13bd ccb3 a63d
000002b0: 8d2b e43d 964a dfbd 73fa 0e3e 0ff7 23bd
000002c0: 10b6 ce3d 45b4 003e 7096 a03c 4537 8cbd
000002d0: 4cd6 2a3e 033a 24bc e122 0b3c 53a8 4ebe
000002e0: 8eca 303b eb84 8ebd 3760 e83d e732 8fbc
000002f0: 56e0 37be ae7a ba3d 207b c0bd 6cd3 723d
00000300: 4efd 143c 2570 113e f58a f13d 642b 76bc
00000310: b92b 503e 325c 57bb 2d20 d5bd 21d3 3d3d
00000320: 3b49 e1ba cf2e 9bbb 16f4 fb3d 0379 c8bd
00000330: 1576 02be 3f38 1d3c 30ea 32be 8b29 d4bd
00000340: c599 bf3d ae2a d6bc 0f7d b8bd 281f 803d
00000350: 94e5 543b 3070 23bd 0e8d 31be 71ad 483b
00000360: ea42 b9bd 32e6 48bd e2b3 a7bc 83e3 9b3b
00000370: 1ef2 2c3e 33ba fc3c 41af 2abe db93 9e3c
00000380: b01b 013e 5f27 c73d cae5 c83d 75a9 313e
00000390: c39e d5bd 6e59 2a3e 005a 82be 9ce7 8e3d
000003a0: 522a d7bd 5fc1 75bd 6524 6fbd b6e6 a53d
000003b0: 7b72 0e3d 844e 7bbd 223b 27be b4e5 90ba
000003c0: 2dc6 4fbd db77 b7bd abcb b73c e0ac f93d
000003d0: e0d9 a9bc 7c4f 133c 071b 333e fc06 0c3e
000003e0: 9cf1 633d 3c52 133d c71d 2ebc 7426 fabd
000003f0: 8e05 4ebe 3dc0 913c 97a1 b4be dca4 58be

lstm.weight_hh_l1 f4 [192, 48]
-0.002880947 -0.16518342 -0.021018213 -0.1918181 -0.04709428 -0.014231966 0.007445297 -0.17045513
0.221013 -0.22313853 0.096807465 0.26715025 0.1457994 0.06514164 -0.20694447 -0.13187735
0.007680715 -0.06105502 0.025775522 0.011951264 -0.024675606 0.07667138 0.018544791 -0.297948
-0.044096325 -0.20200737 -0.0071582943 0.2014616 0.17271043 -0.044120323 0.17221467 0.13212697
0.18377437 -0.18613353 0.25862303 -0.09180806 0.3729606 0.07898624 0.2331541 0.13516904
-0.18495198 -0.13696918 0.001395688 0.06706767 -0.06168949 -0.030821119 0.34178093 0.14729111
0.026969973 -0.17139323 -0.13123818 -0.12941642 -0.013048633 0.055074908 -0.18274266 -0.052819986
0.15177864 0.018808337 0.0911834 0.1002855 0.03395127 -0.1820123 -0.1263486 -0.12055455
-0.17407228 0.05029433 0.16198315 0.16891259 0.012513704 -0.06347429 0.024702849 0.04218897
0.08320084 -0.009086759 -0.16224496 0.07438403 0.12592892 -0.21147916 0.0054521025 0.021403357
0.20370448 -0.0941511 -0.035739362 -0.105514504 -0.016079234 0.09306615 0.2150349 -0.11921581
0.10253872 -0.03917063 0.21571319 -0.06650679 0.01667157 -0.028976925 -0.029757652 -0.04871695
0.035443943 -0.06672163 -0.20632187 -0.16622443 -0.14388058 -0.23119375 -0.03271531 -0.10772014
0.099388845 -0.16995642 0.07682463 0.017882746 0.0062362524 0.07486812 -0.00803145 -0.11975379
-0.14727406 -0.025836376 -0.0607732 0.22680461 0.03344412 -0.0051260684 -0.11903554 -0.1075344
0.07391905 -0.22860521 -0.065405466 0.11580963 0.2578509 -0.12354616 0.054278936 -0.00010937291
0.09931026 0.030466583 0.08282475 -0.11767315 0.19790325 -0.042855967 0.104400195 -0.020096237
-0.039324477 -0.042251687 0.22966936 -0.12259748 0.10945883 -0.06759801 0.0017432296 -0.046194825
-0.1477005 -0.06800468 0.0066873566 -0.19624181 -0.15150607 0.07318841 0.025327006 -0.17266385
0.047136962 -0.16885175 -0.038481884 0.13355361 0.004106091 -0.09952166 -0.2113645 -0.050100617
-0.17562485 0.025885526 0.11496636 -0.110809125 -0.0038099408 -0.055302594 0.09945761 -0.075131856
-0.103034474 -0.05077313 -0.12905894 0.1460493 0.14967263 0.10260352 0.08701302 0.16231562
0.20262206 0.05429168 0.10107804 -0.148696 -0.013220898 -0.03104977 -0.033009954 -0.056974918
-0.1511152 -0.13837016 0.06091871 -0.013792973 -0.008854029 0.033448666 0.1935092 0.019857269
-0.06071164 -0.20527387 0.006501565 -0.10748622 -0.12829971 0.009017683 -0.26492274 -0.17460841
0.1712503 0.07688836 0.1765442 0.14298409 -0.03397772 0.10110313 0.033790007 -0.20024599
-0.0046249386 -0.13785848 0.053167153 -0.049487334 -0.016701657 0.10261064 -0.18279792 0.029167412
0.11525257 -0.07529117 -0.14297405 -0.053263497 0.038255952 -0.13648368 -0.049524255 0.13640538
0.20996761 -0.030783325 0.18588239 0.01124269 0.1537927 0.15717459 0.057441324 -0.09597592
-0.03987992 -0.21956174 -0.023991698 0.07811956 -0.059248786 -0.037705358 0.077368766 0.16302185
-0.016561927 -0.16598094 -0.20525314 -0.04594748 0.0490928 0.044087842 -0.15300347 0.044207145
0.06485289 -0.082961455 0.060330536 -0.015601211 0.011574149 0.14291838 -0.023969408 -0.07432539
00000000: 45ce 3cbb d825 29be 632e acbc f76b 44be
00000010: efe5 40bd 312d 69bc aef7 f33b ca8b 2ebe
00000020: 3b51 623e 6d7e 64be fe42 c63d ebc7 883e
00000030: 704c 153e fb68 853d 40e9 53be db0a 07be
00000040: 82ae fb3b d414 7abd 3027 d33c 3ccf 433c
00000050: 7f24 cabc e205 9d3d 3feb 973c a48c 98be
00000060: 599e 34bd 05db 4ebe 2090 eabb f34b 4e3e
00000070: 01db 303e 83b7 34bd 0b59 303e 4b4c 073e
00000080: 592f 3c3e ca99 3ebe 3d6a 843e dd05 bcbd
00000090: b1f4 be3e 8ac3 a13d f3bf 6e3e c169 0a3e
000000a0: 0d64 3dbe a641 0cbe 85ef b63a c65a 893d
000000b0: 1eae 7cbd 927c fcbc e9fd ae3e 7bd3 163e
000000c0: 22f0 dc3c b581 2fbe 4d63 06be bd85 04be
000000d0: efc9 55bc 3a96 613d e420 3bbe c559 58bd
000000e0: dc6b 1b3e f113 9a3c 5dbe ba3d 7c62 cd3d
000000f0: 7d10 0b3d 6f61 3abe 8761 01be 4ee5 f6bd
00000100: 0140 32be 6d01 4e3d e9de 253e 6cf7 2c3e
00000110: 4706 4d3c cffe 81bd a15d ca3c 57ce 2c3d
00000120: 3465 aa3d a1e0 14bc 8b23 26be a856 983d
00000130: 83f3 003e fe8d 58be 8da7 b23b 1856 af3c
00000140: e897 503e 4bd2 c0bd 7063 12bd fd17 d8bd
00000150: 99b8 83bc 7799 be3d 1c32 5c3e 6b27 f4bd
00000160: d2ff d13d 6271 20bd ebe3 5c3e b634 88bd
00000170: d192 883c 0461 edbc 52c6 f3bc 6d8b 47bd
00000180: ab2d 113d 5aa5 88bd 0a46 53be bd36 2abe
00000190: 6e55 13be 0ebe 6cbe 7d00 06bd 609c dcbd
000001a0: 618c cb3d 0e09 2ebe 3b56 9d3d d67e 923c
000001b0: 7a59 cc3b 7554 993d 5896 03bc 7a41 f5bd
000001c0: 03cf 16be cfa6 d3bc 52ed 78bd 783f 683e
000001d0: b4fc 083d 94f8 a7bb e8c8 f3bd ff3a dcbd
000001e0: df62 973d 7c17 6abe 4df3 85bd 992d ed3d
000001f0: 0805 843e c505 fdbd 9753 5e3d 225f e5b8
00000200: 2d63 cb3d 0e95 f93c 06a0 a93d 9ffe f0bd
00000210: 26a7 4a3e bd89 2fbd c5cf d53d dda0 a4bc
00000220: b412 21bd 1b10 2dbd 722e 6b3e 6314 fbbd
00000230: f32b e03d d370 8abd 147d e43a c936 3dbd
00000240: cd3e 17be 0a46 8bbd 9d21 db3b 9df3 48be
00000250: 6824 1bbe cee3 953d 957a cf3c cbce 30be
00000260: b012 413d 79e7 2cbe 2e9f 1dbd 47c2 083e
00000270: 638c 863b 03d2 cbbd ef6f 58be 4e36 4dbd
00000280: 00d7 33be e20d d43c 7c73 eb3d e5ef e2bd
00000290: 33b0 79bb f984 62bd 6eb0 cb3d bbde 99bd
000002a0: bd03 d3bd 7cf7 4fbd 0728 04be f38d 153e
000002b0: c843 193e cb21 d23d e233 b23d 1136 263e
000002c0: 287c 4f3e f460 5e3d 0102 cf3d c443 18be
000002d0: 779c 58bc 165c febc 7235 07bd 885e 69bd
000002e0: f1bd 1abe e8b0 0dbe e685 793d ecfb 61bc
000002f0: 7d10 11bc 7801 093d 4727 463e b6ab a23c
00000300: c5ac 78bd 5033 52be 150b d53b bc21 dcbd
00000310: 0061 03be e7be 133c f4a3 87be 8ccc 32be
00000320: 3d5c 2f3e a577 9d3d 01c8 343e 6c6a 123e
00000330: 392c 0bbd 280f cf3d 6467 0a3d 490d 4dbe
00000340: cc8c 97bb c62a 0dbe cdc5 593d 3bb3 4abd
00000350: ead1 88bc 8725 d23d 612f 3bbe 7ff0 ee3c
00000360: 8a09 ec3d 4232 9abd ca67 12be d32a 5abd
00000370: 46b2 1c3d 61c2 0bbe f2d9 4abd daad 0b3e
00000380: c001 573e 502d fcbc f457 3e3e 4233 383c
00000390: d57b 1d3e 60f2 203e 9847 6b3d 068f c4bd
000003a0: 2159 23bd cbd4 60be 3d8a c4bc 26fd 9f3d
000003b0: dbae 72bd ef70 1abd 8473 9e3d 33ef 263e
000003c0: e1ac 87bc e8f6 29be e12d 52be 6d33 3cbd
000003d0: 8815 493d 7495 343d f1ac 1cbe 8d12 353d
000003e0: 98d1 843d b2e7 a9bd 271d 773d 399c 7fbc
000003f0: 80a1 3d3c 3259 123e 7e5b c4bc e937 98bd

lstm.bias_ih_l1 f4 [192]
-0.27064112 -0.08749972 0.04541011 -0.12047639 -0.037279088 -0.0639569 -0.04997693 0.11523733
-0.007907596 -0.11746595 0.031701498 -0.14137933 -0.068965904 0.0046062856 0.05281466 0.06951208
-0.04853951 -0.27324134 -0.1663684 -0.007107925 -0.05024417 -0.02304357 0.114441246 0.22975342
0.07175813 -0.09129683 0.048639227 0.12469547 -0.16308756 0.07862673 0.13982889 0.19010085
-0.08519228 0.07717794 0.12259583 0.15552154 0.012100883 -0.27629715 0.013649018 -0.19712207
0.1339795 -0.12800242 -0.20837986 0.061069097 -0.060019284 -0.08944294 0.007414135 -0.03705295
-0.027273586 -0.18473835 -0.06480868 -0.26409987 -0.14955544 0.072645396 -0.20417862 0.062680796
0.048172563 -0.114763476 0.033297524 0.037714522 -0.093551494 -0.23252504 -0.16180824 0.043051627
-0.03429468 -0.20142296 -0.2785216 -0.043076895 0.021582631 -0.1330887 -0.1507741 -0.011351915
-0.10650305 -0.032557484 -0.20373122 0.042878717 -0.17954694 -0.19527769 -0.14796561 0.16846828
-0.10952958 -0.21703097 0.007851865 0.011091226 0.05583004 -0.09087108 -0.1215826 -0.059341274
-0.15420115 0.07657898 0.01949877 -0.11800977 0.027942704 -0.16878814 -0.1452065 -0.1335984
0.11244789 0.08522929 0.08819098 0.025087679 -0.08082335 0.09702518 0.012773876 0.036305558
-0.11682465 0.09442342 -0.20944239 -0.08371112 0.12547573 0.097617455 -0.025350768 0.08754696
0.06636991 -0.13916905 -0.049468324 -0.16204812 0.11168541 -0.011189421 0.08616893 0.26823393
0.042869415 -0.0638125 0.087736346 -0.16388762 0.034353513 -0.0077701393 -0.08611731 -0.14659764
-0.16732986 -0.083667345 -0.09864556 0.07519409 -0.1829817 -0.046198666 -0.056292795 -0.089225374
0.021216193 -0.067228734 0.033302005 0.005584098 -0.09648917 0.07757512 -0.063403964 -0.07208716
-0.05085503 -0.13867372 -0.05814023 -0.062189456 -0.0005737696 0.10509911 -0.20713156 0.029248929
0.029575365 -0.04571231 0.113456294 0.06246896 -0.029433861 -0.1502028 -0.15105647 0.046993546
-0.19986589 -0.015440164 -0.21331236 -0.07442388 -0.07121631 -0.09410523 0.085156694 0.08766243
0.15995672 0.14426947 -0.14376213 -0.010477816 -0.108109355 -0.16498598 0.008496629 0.13663873
0.0035183656 0.016841099 -0.08300285 0.14094223 0.097805604 -0.1937271 0.025192808 -0.121161036
-0.09805042 -0.20962271 0.00046128462 0.0018928363 -0.114683054 -0.15636128 -0.058817483 0.0054925894
00000000: 7991 8abe 0e33 b3bd f4ff 393d 53bc f6bd
00000010: f5b1 18bd d6fb 82bd 9cb4 4cbd 8d01 ec3d
00000020: dd8e 01bc fd91 f0bd 6ed9 013d bec5 10be
00000030: ff3d 8dbd 53f0 963b 2f54 583d 595c 8e3d
00000040: 5ed1 46bd 4ae6 8bbe 7a5c 2abe 99e9 e8bb
00000050: d5cc 4dbd dec5 bcbc 2c60 ea3d 7b44 6b3e
00000060: edf5 923d d5f9 babd ed39 473d 5760 ff3d
00000070: 6d00 27be 0d07 a13d 4e2f 0f3e cca9 423e
00000080: 4a79 aebd 780f 9e3d 8613 fb3d 0a41 1f3e
00000090: c842 463c d276 8dbe 21a0 5f3c 5eda 49be
000000a0: ec31 093e 1113 03be 8861 55be 9723 7a3d
000000b0: c8d6 75bd dc2d b7bd 46f2 f23b d6c4 17bd
000000c0: db6c dfbc 0d2c 3dbe 6aba 84bd 1938 87be
000000d0: 1025 19be 1cc7 943d 3314 51be ca5e 803d
000000e0: 9850 453d 1d09 ebbd fc62 083d 8b7a 1a3d
000000f0: ed97 bfbd 0b1b 6ebe 0fb1 25be e756 303d
00000100: 9478 0cbd d241 4ebe 629a 8ebe 6671 30bd
00000110: 0fce b03c 6748 08be 8764 1abe 62fd 39bc
00000120: 451e dabd ff5a 05bd eb9e 50be 98a1 2f3d
00000130: 27db 37be e0f6 47be 4c84 17be f382 2c3e
00000140: 0b51 e0bd 5e3d 5ebe 1ca5 003c f9b7 353c
00000150: 0aae 643d 9e1a babd 4c00 f9bd d60f 73bd
00000160: e8e6 1dbe 71d5 9c3d e2bb 9f3c 1baf f1bd
00000170: 19e8 e43c ccd6 2cbe 03b1 14be 05ce 08be
00000180: 144b e63d b28c ae3d 799d b43d ad84 cd3c
00000190: b686 a5bd 23b5 c63d 8549 513c 23b5 143d
000001a0: c341 efbd 1161 c13d 1178 56be bc70 abbd
000001b0: b67c 003e a9eb c73d 6aac cfbc d24b b33d
000001c0: f3ec 873d 5582 0ebe 4c9f 4abd f1ef 25be
000001d0: 52bb e43d d553 37bc 5679 b03d f555 893e
000001e0: d797 2f3d 21b0 82bd 1daf b33d 28d2 27be
000001f0: 45b6 0c3d a79c febb 465e b0bd b11d 16be
00000200: 8558 2bbe c959 abbd af06 cabd 5cff 993d
00000210: 8e5f 3bbe d03a 3dbd 4693 66bd cbbb b6bd
00000220: 95cd ad3c 38af 89bd af67 083d cffa b63b
00000230: 1d9c c5bd b4df 9e3d f0d9 81bd 6fa2 93bd
00000240: 5d4d 50bd 7c00 0ebe 7324 6ebd 5fba 7ebd
00000250: 0769 16ba 343e d73d 4c1a 54be 739b ef3c
00000260: 0948 f23c d53c 3bbd c65b e83d 74df 7f3d
00000270: 481f f1bc c3ce 19be 8cae 1abe 4e7c 403d
00000280: a5a9 4cbe bef8 7cbc 8e6e 5abe 8c6b 98bd
00000290: dbd9 91bd 3eba c0bd a266 ae3d 5c88 b33d
000002a0: b2cb 233e 60bb 133e 6136 13be 25ab 2bbc
000002b0: 7068 ddbd 16f2 28be 7235 0b3c 06eb 0b3e
000002c0: 6194 663b 58f6 893c 66fd a9bd 2953 103e
000002d0: 4e4e c83d 6660 46be 2661 ce3c 4723 f8bd
000002e0: a9ce c8bd 56a7 56be 93d8 f139 0c19 f83a
000002f0: f3de eabd 2c1d 20be 9aea 70bd 2efb b33b

lstm.bias_hh_l1 f4 [192]
-0.07894363 -0.12957224 -0.044808246 0.13753463 -0.16150193 -0.028918745 0.015814925 0.13725919
-0.1120466 0.0009819388 0.119640775 0.055044092 -0.016914986 -0.22762217 0.075857714 0.15869643
-0.08701416 -0.24765304 0.01567712 -0.10887082 0.0245905 -0.069764026 0.07318329 0.038690835
0.19988905 -0.02412951 -0.14310256 0.18206234 -0.21686086 -0.14990799 0.06637392 0.111792594
-0.049678028 -0.17533538 0.16130847 -0.072577894 0.016315917 -0.316473 0.11007755 -0.23588777
-0.046443384 -0.010446454 -0.11249185 -0.08374329 -0.10909634 -0.21958873 0.08972687 -0.113086246
-0.20599005 -0.09186675 -0.052778624 -0.021224203 0.07851254 0.039283052 -0.05053676 -0.11537683
-0.0032369168 -0.13456514 -0.08033166 -0.10568244 -0.06737324 -0.06664722 -0.1320929 -0.090383776
-0.07718536 -0.09694006 -0.24276812 -0.039428294 -0.11550657 -0.28731945 -0.11286966 0.09234208
-0.01736218 -0.1402584 0.021175152 0.060103063 0.0241776 -0.20786996 -0.15933041 0.15960363
-0.029549772 -0.06012908 0.12738703 -0.07271109 0.014671857 -0.122273125 -0.19500834 -0.2141243
0.021258045 -0.12688087 -0.1436621 -0.17791303 -0.029775562 -0.16510531 -0.077025704 0.04332043
-0.06859168 0.14847022 0.016902741 -0.11742545 0.090091035 0.11261947 -0.08590484 0.21175915
-0.15262821 -0.07335201 -0.22878215 -0.13365121 -0.087798886 0.08222989 0.10991699 0.19468448
0.08787112 0.10923815 -0.10032003 -0.010554905 0.12437373 0.070280105 -0.09138372 0.29099342
0.019119678 0.13718939 0.08335648 -0.15537837 0.026889862 0.012197268 -0.06824353 -0.21423689
-0.10281644 0.013175307 -0.2161598 0.0056180116 -0.13475287 -0.07223207 0.030461777 -0.0067575974
0.06449337 -0.09723681 -0.02212186 -0.069833316 0.0051060286 -0.034003016 -0.058896948 -0.12106702
-0.2907768 -0.08809714 0.041508466 0.07465817 0.05263521 0.06607979 -0.21830764 0.086742446
-0.14092113 0.08705497 0.060720444 0.008452808 -0.17156976 -0.20559296 -0.011196314 -0.10427596
-0.06509321 -0.24529316 -0.0612081 -0.0313653 0.08123214 -0.039479587 -0.096340366 0.17220974
0.105404824 0.060067113 0.04762865 -0.11339894 0.031387713 -0.059944615 0.067019664 -0.08149158
-0.010295914 0.05947453 0.1311657 -0.12468612 0.059439678 -0.34674358 -0.03273726 -0.32238984
0.02336589 -0.23371182 -0.20136991 -0.13160244 -0.24164535 -0.10426245 0.0272712 -0.1333
00000000: 33ad a1bd 96ae 04be da88 37bd e1d5 0c3e
00000010: c360 25be 01e7 ecbc 4d8e 813c ac8d 0c3e
00000020: b078 e5bd 66b4 803a 3906 f53d ea75 613d
00000030: 4c91 8abc c915 69be 4a5b 9b3d 5181 223e
00000040: 7b34 b2bd c298 7dbe 4e6d 803c aaf7 debd
00000050: 0472 c93c 71e0 8ebd 1fe1 953d 487a 1e3d
00000060: b7af 4c3e 40ab c5bc 7a89 12be 8d6e 3a3e
00000070: c610 5ebe 7b81 19be 0def 873d 84f3 e43d
00000080: 307b 4bbd 1e8b 33be 0c2e 253e b8a3 94bd
00000090: f5a8 853c c008 a2be 5770 e13d 908c 71be
000000a0: 6b3b 3ebd 9b27 2bbc 2162 e6bd 9a81 abbd
000000b0: e76d dfbd dedb 60be b9c2 b73d c399 e7bd
000000c0: 0eef 52be a224 bcbd 662e 58bd 61de adbc
000000d0: 2fcb a03d 44e7 203d a2ff 4ebd b04a ecbd
000000e0: 7422 54bb 72cb 09be ed84 a4bd 0970 d8bd
000000f0: fbfa 89bd 567e 88bd 5c43 07be 211b b9bd
00000100: 5c13 9ebd 8388 c6bd 3598 78be 907f 21bd
00000110: b58e ecbd 891b 93be 3528 e7bd d81d bd3d
00000120: 213b 8ebc e69f 0fbe 8377 ad3c a12e 763d
00000130: 1a10 c63c dddb 54be 8327 23be 226f 233e
00000140: 5d12 f2bc e949 76bd bf71 023e 8de9 94bd
00000150: 3a62 703c 556a fabd 44b0 47be 6743 5bbe
00000160: 5a25 ae3c 0fed 01be 281c 13be d52e 36be
00000170: e1eb f3bc 5e11 29be a7bf 9dbd c370 313d
00000180: cb79 8cbd 9408 183e 9e77 8a3c c17c f0bd
00000190: a681 b83d 09a5 e63d e0ee afbd 64d7 583e
000001a0: 924a 1cbe 9439 96bd de45 6abe dddb 08be
000001b0: e7cf b3bd 2568 a83d 291c e13d 5e5b 473e
000001c0: c6f5 b33d 40b8 df3d 9674 cdbd 7bee 2cbc
000001d0: a7b7 fe3d 04ef 8f3d 6327 bbbd 17fd 943e
000001e0: dfa0 9c3c 607b 0c3e cdb6 aa3d 821b 1fbe
000001f0: 2148 dc3c 0dd7 473c 44c3 8bbd ea60 5bbe
00000200: 6d91 d2bd 3edd 573c ff58 5dbe 4c17 b83b
00000210: a8fc 09be 68ee 93bd fa8a f93c d66e ddbb
00000220: 1a15 843d 1824 c7bd e738 b5bc c504 8fbd
00000230: 7950 a73b bf46 0bbd ed3d 71bd fcf1 f7bd
00000240: b2e0 94be 466c b4bd c804 2a3d 62e6 983d
00000250: 0598 573d d754 873d 0a8c 5fbe 06a6 b13d
00000260: a14d 10be e049 b23d 00b6 783d a57d 0a3c
00000270: fcaf 2fbe f686 52be bf70 37bc a28e d5bd
00000280: 974f 85bd 212e 7bbe 58b5 7abd e778 00bd
00000290: 095d a63d 59b5 21bd 194e c5bd c057 303e
000002a0: 7cde d73d ef08 763d 4216 433d b43d e8bd
000002b0: 6790 003d 7c88 75bd 9b41 893d 0fe5 a6bd
000002c0: 31b0 28bc 919b 733d 4d50 063e 705b ffbd
000002d0: 0577 733d 6088 b1be 8117 06bd 4810 a5be
000002e0: d369 bf3c 2752 6fbe ea33 4ebe cac2 06be
000002f0: e171 77be 8d87 d5bd da67 df3c cc7f 08be

linear.weight f4 [2, 48]
0.09019005 0.09388221 0.019237703 -0.2267359 0.033576638 -0.051373318 0.040812783 0.108542405
0.027078168 0.033274345 -0.07493866 -0.00341542 0.118377596 0.0331831 0.03239046 0.132612
0.05955222 0.06052792 -0.116820686 -0.0031718784 0.17057323 0.12972638 -0.24950814 0.2069111
-0.21161549 -0.13864793 0.123903014 -0.21810462 -0.12603858 -0.106447026 -0.11145648 0.012493645
-0.060630307 0.061112452 -0.07232553 0.121650934 -0.08864443 -0.008702567 0.02034867 0.023154326
0.28392166 0.12352259 -0.12659255 0.16105258 -0.04048011 -0.17559801 -0.15677595 0.11058597
-0.046202287 0.094430365 0.14169142 0.11771882 0.0738799 0.16966875 0.14740871 0.11339041
-0.19695817 0.07836532 -0.21668617 -0.13432641 -0.04797991 0.034171782 0.08756611 0.09286935
0.046787776 -0.033173077 0.022031711 -0.13238645 -0.026583847 -0.17276329 0.19389199 0.12501892
0.02167054 0.17211466 0.046590753 -0.0545031 -0.07091273 0.14469032 0.06498448 -0.23833062
-0.11451699 0.09874017 -0.20819107 0.20753074 -0.18956444 0.040252138 -0.1832682 0.011052302
-0.10419641 0.06588619 -0.078475066 -0.027222905 0.07333825 0.049940966 -0.12049604 -0.18454601
00000000: 90b5 b83d 5145 c03d 6398 9d3c 752d 68be
00000010: a887 093d d46c 52bd 4e2b 273d 7b4b de3d
00000020: 09d3 dd3c ae4a 083d 7179 99bd 3dd5 5fbb
00000030: f46f f23d 01eb 073d dcab 043d 71cb 073e
00000040: 07ed 733d 20ec 773d af3f efbd 4adf 4fbb
00000050: c0aa 2e3e fed6 043e 107f 7fbe 81e0 533e
00000060: bbb1 58be b9f9 0dbe ddc0 fd3d d156 5fbe
00000070: 4210 01be e600 dabd 4c43 e4bd 25b2 4c3c
00000080: 7c57 78bd 0d51 7a3d 681f 94bd 2024 f93d
00000090: 368b b5bd 3695 0ebc 41b2 a63c 24ae bd3c
000000a0: 2e5e 913e 69f9 fc3d 7aa1 01be f8ea 243e
000000b0: 79ce 25bd f7cf 33be e089 20be e67a e23d
000000c0: 9c3e 3dbd b564 c13d 8e17 113e 9116 f13d
000000d0: 584e 973d a5bd 2d3e 4ff2 163e 3b39 e83d
000000e0: 67af 49be ff7d a03d fbe2 5dbe dd8c 09be
000000f0: 9586 44bd b6f7 0b3d dc55 b33d 4932 be3d
00000100: 8aa4 3f3d 7ee0 07bd d97b b43c 5090 07be
00000110: 5ec6 d9bc dce8 30be 9f8b 463e f604 003e
00000120: 6b86 b13c d33e 303e f2d5 3e3d a53e 5fbd
00000130: b23a 91bd b329 143e 9516 853d f10c 74be
00000140: e287 eabd 4938 ca3d 0a30 55be f082 543e
00000150: 2e1d 42be 6ddf 243d a9aa 3bbe b714 353c
00000160: ed64 d5bd 57ef 863d 89b7 a0bd 9202 dfbc
00000170: 5d32 963d e68e 4c3d a1c6 f6bd a1f9 3cbe

linear.bias f4 [2]
0.18950874 0.05354671
00000000: 940e 423e cc53 5b3d
