cheakpoint/training_epochs_80_stepsize_7_gamma_0.75/model_epoch30.pth (torch, 117569 bytes, 10 tensors)

lstm.weight_ih_l0 f4 [192, 2]
000000 a8 19 78 3e 6a d9 de 3e f6 dd 81 be 41 bc 6c be
       0.24228537 0.4352525 -0.25364655 -0.23118688
000010 6e fa 4f 3e 5f ff 40 3e 29 88 a0 3c ec 0f 97 3d
       0.20310375 0.18847416 0.019596176 0.07376084
000020 7e 13 ff 3d 8c 8f 3b bd 4c d3 09 bd 91 7e c5 3d
       0.1245489 -0.045791194 -0.033648774 0.09643281
000030 3a 6b 1f be 89 ba 22 3d 7e d7 8b be bb 5e 76 be
       -0.15568247 0.039728675 -0.27312845 -0.24059574
000040 da 07 bc 3d 3f a4 56 3e e8 ba 00 3d 45 de 85 3d
       0.09181185 0.20961092 0.031428248 0.06536535
000050 4f a4 ae bd 52 ca 82 3d ab 83 c0 3e a1 23 29 3e
       -0.08527433 0.06386246 0.37600455 0.16517498
000060 06 d1 85 bd 9e b6 73 3e af 6f ab be a2 96 a3 be
       -0.06534009 0.23800132 -0.33483645 -0.3195086
000070 2c b6 fd 3d 02 da 92 bd 52 5f a8 3d ca d7 1d 3d
       0.12388262 -0.07170488 0.08221306 0.03853587
000080 c4 44 08 bd 6e e7 0a 3e 30 57 f0 bc fc ef ad 3d
       -0.033268705 0.13564846 -0.02933845 0.08493039
000090 2f 1d 39 3d 69 6a 00 be 28 77 11 3e 66 fb 94 3b
       0.045193847 -0.12540592 0.14205611 0.0045465706
0000a0 3e 37 2b 3d 80 3a d2 bd a2 5f 34 be 5a fd 95 3d
       0.04180073 -0.10265064 -0.17614606 0.073237136
0000b0 92 df 9a 3e 3f 6b 21 3e ca 22 29 bd a6 bf 0c be
       0.30248696 0.15763567 -0.041292943 -0.13744983
0000c0 67 32 2a 3e 63 01 01 3e 80 4e 5f be a1 c2 01 3c
       0.1662079 0.12598185 -0.21807289 0.007919938
0000d0 d0 fc ea be db e3 4a be 92 c4 30 3d 46 5c 79 bd
       -0.45896006 -0.19813482 0.043156214 -0.060879014
0000e0 5a e9 82 3d a4 85 8e 3e 51 57 af be de 94 1b be
       0.063921645 0.27836335 -0.34246305 -0.15193507
0000f0 7f a9 87 3c b1 58 84 3d df dc 3e be 02 e6 c4 3d
       0.016560314 0.06462229 -0.18638943 0.09614183
000100 f1 74 43 be 75 8a 33 3a 43 d9 93 be a2 14 b1 be
       -0.19087578 0.000684894 -0.28876695 -0.34586054
000110 ad b0 84 be d8 ec 01 bd 0f 74 0d 3d 42 8f b9 3d
       -0.25916043 -0.031720012 0.03453451 0.090605274
000120 50 71 63 be b5 45 a6 be 92 2a e8 3d f1 f9 bc 3d
       -0.22211194 -0.32475057 0.11336245 0.0922736
000130 56 cf 18 3e e5 97 99 bd de cf 33 3e 41 c7 ac bd
       0.14922842 -0.07499675 0.17559764 -0.08436442
000140 6c 79 33 3e 27 f1 78 3e 34 9c 4c be 3b c0 3e bd
       0.17526788 0.24310742 -0.19981462 -0.046570044
000150 b2 4f c2 3a 9f 5a e4 bd 4d 47 52 be 17 21 98 be
       0.0014824776 -0.11150097 -0.20535012 -0.29712746
000160 23 ed e9 be bb ad 8b bd 09 06 9c be 84 76 80 be
       -0.45688733 -0.06820246 -0.30473354 -0.2509042
000170 4f 1c 28 3e 57 cc 7d 3e 5b 68 8c 3e 27 6d f9 3c
       0.16417049 0.2478498 0.27423367 0.030447556
000180 ee fc c9 3d 31 fc 62 3d aa f2 84 be 80 bc b0 be
       0.09862696 0.05541629 -0.25966388 -0.34518814
000190 99 d0 55 3e 56 a8 40 3e 7a e0 69 be 41 03 40 3d
       0.20880355 0.18814215 -0.22839537 0.046878103
0001a0 57 23 c6 3d 8b 49 a2 be 4e aa 34 bc b3 74 0e 3d
       0.09674709 -0.31696734 -0.011026932 0.03477926
0001b0 77 16 13 be 65 68 04 be 16 2b 4e be 7d 4b 08 be
       -0.14364038 -0.12930448 -0.20133623 -0.13310046
0001c0 8e 8d a1 3d af d1 8c bd 0a bd a5 bd 46 4f 6c 3c
       0.078883275 -0.068759315 -0.08092697 0.014423197
0001d0 c5 41 eb 3c 44 02 6c 3e 05 5e 8b 3e 84 8f a2 3e
       0.028717885 0.2304774 0.2722017 0.3175012
0001e0 08 f6 b9 be 1a a1 a3 bd 65 fc d3 bd 57 39 4f be
       -0.3632052 -0.07989712 -0.10350875 -0.20236717
0001f0 b6 90 c4 bd 58 fb 54 3e cc a1 91 3e aa dc ab 3d
       -0.09597914 0.20799005 0.28443754 0.08391698
000200 a6 22 ff bd f4 cf d7 bd 1f 6e f8 bd 61 41 97 bd
       -0.124577805 -0.10537711 -0.12130379 -0.07385517
000210 e1 7b ba bd d7 1f f7 bd 27 94 e5 bd 9d 08 e9 3d
       -0.09105659 -0.1206662 -0.112098984 0.11378596
000220 ec a2 30 3e 22 85 48 3e c2 26 43 bd de 13 da bd
       0.1724965 0.19582036 -0.047644384 -0.106483206
000230 0b 7b a0 3b 6d 65 03 3d d2 09 69 3e d9 81 75 3e
       0.0048974804 0.03207915 0.22757652 0.23975314
000240 95 bc 15 3e 5a 1a 5a bc 26 33 3c 3d 87 28 2e 3c
       0.1462272 -0.013311947 0.045947216 0.01062978
000250 d8 56 b0 be b6 2b d2 3c f1 66 05 bd 04 97 e8 3c
       -0.34441257 0.025655609 -0.032568876 0.028392322
000260 20 6f d6 bd b9 74 9d 3e ef 9d 78 be 58 f1 e0 bd
       -0.10470414 0.30753115 -0.24278997 -0.10983533
000270 d3 e6 3f 3d 6c ff c8 bc d8 ad 32 be 32 ef c3 3d
       0.04685099 -0.024535857 -0.17449129 0.09567107
000280 d9 6b 17 be f4 b4 9e bc 75 a9 93 be 45 6c 16 be
       -0.14787234 -0.019373395 -0.28840223 -0.14689739
000290 e7 2d 3f bd 52 da 16 bc 27 20 b6 3e 41 1a 30 3e
       -0.046674635 -0.009207325 0.35571405 0.17197515
0002a0 80 93 52 be 84 00 17 be ce c8 17 3e e8 c3 88 3d
       -0.2056408 -0.1474629 0.14822695 0.06677991
0002b0 76 f6 0b 3e 42 15 32 bc af 31 c7 bd 8f 33 93 3d
       0.13668236 -0.010869326 -0.09726273 0.071875684
0002c0 f0 56 81 3e 17 51 64 3e 4f 46 96 be 5b 72 a2 bc
       0.2526164 0.22296558 -0.29350516 -0.01982992
0002d0 6d b5 8d bd 4d d6 e0 3d 89 f1 1d be c5 08 4e bd
       -0.0691937 0.10978375 -0.1542417 -0.050301332
0002e0 ae a8 87 be 97 65 10 be c5 64 69 bd f9 57 58 bc
       -0.2649588 -0.14101253 -0.056980867 -0.013204568
0002f0 f1 a2 1b be 24 a5 29 3e 8a 1e 3a 3e fa b7 c3 3d
       -0.15198876 0.16566902 0.18175712 0.09556575
000300 4c 2e be be 6c 21 ed 3e 42 74 96 3d ee bc 1b 3e
       -0.37144697 0.4631456 0.07346393 0.1520879
000310 29 2d 5e 3e c2 9e ab 3e 15 ed ac 3e fa b5 86 3e
       0.21696915 0.3351956 0.3377463 0.26310712
000320 9a 44 b6 be 72 da 94 3e 4c 84 39 be c5 06 b6 3e
       -0.35599214 0.2907291 -0.18116874 0.3555204
000330 c9 63 62 3b ee 1b 02 3e f0 90 31 3c 94 04 0f be
       0.003454434 0.12705967 0.010837778 -0.1396659
000340 43 f1 ef 3e 55 e2 b7 bd 09 ca df 3e 66 ac 97 3d
       0.46863756 -0.08978716 0.43708828 0.07405929
000350 76 32 b4 3c eb 4f 56 3e 0d 0c c0 be 89 2c b4 be
       0.021996718 0.20928924 -0.37509194 -0.35190228
000360 12 98 e1 be 09 7c 02 bd 17 d0 d2 3d 75 63 d9 bd
       -0.44061333 -0.03185657 0.10293596 -0.10614673
000370 d3 8c 9c bd e9 bd ac 3e 00 9e 30 3e 82 b7 b8 3e
       -0.076440476 0.3373864 0.17247772 0.36077505
000380 c5 cd b7 3e 83 30 07 bc d8 8e 8c be 38 f3 80 3e
       0.35899177 -0.008251312 -0.2745273 0.2518556
000390 21 0a 26 be 80 eb 2f be d0 91 46 3d 4e 58 f2 3e
       -0.16214801 -0.1717968 0.0484789 0.47332996
0003a0 b6 1e db 3d eb d0 42 3e f8 17 06 3e 41 2f a3 bd
       0.10699217 0.19025008 0.13095081 -0.07967997
0003b0 88 03 aa be 74 c0 97 be be 76 78 3e 7f e7 61 be
       -0.3320582 -0.29639018 0.24264047 -0.22060965
0003c0 7a 5f df 3d c4 bc a8 3e 5c 99 cd bd 0a 48 93 be
       0.109068826 0.32956517 -0.100390166 -0.287659
0003d0 42 32 97 3e 19 f6 67 3e cf 47 58 bd 25 29 b0 be
       0.2953053 0.22652473 -0.052802857 -0.3440639
0003e0 3d 96 d8 3e 00 71 00 3e 0a 08 80 3e 7d 02 fc 3d
       0.42302123 0.12543106 0.25006133 0.12305162
0003f0 0a d1 b9 3e c1 5a 96 bd 16 4f 8e 3e f9 00 3c 3e
       0.36292297 -0.07341529 0.27794713 0.18359746

lstm.weight_hh_l0 f4 [192, 48]
000000 1f 34 56 be bb ef 15 bc e2 bf 9a 3e 74 b5 2c 3d
       -0.2091832 -0.0091513945 0.3022452 0.042165235
000010 f7 1b 83 be a5 5f 4e be d5 6e d2 bd 85 e8 48 3d
       -0.25607273 -0.20153673 -0.10275046 0.049049873
000020 38 cb 32 3d 4c 5c 24 3e ba c5 7f be 7c 3b 04 be
       0.043650836 0.16050833 -0.2497777 -0.12913316
000030 a7 85 57 bd bc a0 38 3e 17 43 98 3d 17 23 74 3e
       -0.052617695 0.18030065 0.07434671 0.2384151
000040 0c 82 33 3e f4 df 35 3c b5 35 6e be f6 25 3b bd
       0.17530078 0.011100758 -0.23262675 -0.0456905
000050 ee 4d 18 3e 44 25 5e 3d 5f 85 f7 bd 83 87 4e 3e
       0.14873478 0.054234758 -0.120859854 0.20168881
000060 2d 17 f7 bc 9c 9c c9 3d ff 31 af 3d 8f 8e e9 bd
       -0.030162418 0.09844324 0.08554458 -0.11404144
000070 fc 68 3e 3d 21 29 aa 3e a1 17 96 3e fa 2d a9 3e
       0.04648684 0.33234504 0.29314902 0.3304289
000080 6f 68 fc 3c ef 71 02 be 23 6f 9c be 62 c6 5f 3e
       0.030811517 -0.12738775 -0.3055354 0.21853021
000090 6d c2 23 3d 9d 2e 5c bd 02 39 b6 3e 77 f4 50 3e
       0.03998034 -0.05375539 0.35590369 0.20405756
0000a0 3e 80 8c be 39 30 17 bc ad 19 44 3e d2 b2 74 be
       -0.2744159 -0.009227806 0.1915042 -0.2389634
0000b0 8b 43 ec 3d a3 cb f2 3d cc b6 34 3c 4d ec b5 be
       0.1153632 0.11855247 0.01102991 -0.35531846
0000c0 28 1c 22 bd 65 69 7d 3c 2a 8f e8 bc ce f9 be bd
       -0.039577633 0.015467023 -0.028388578 -0.0932499
0000d0 69 99 78 3e 60 8e 8e 3c 0c a0 38 be 65 d3 92 3c
       0.24277271 0.017401874 -0.18029803 0.017923066
0000e0 2d a3 e9 bd 93 cc 6a 3d 88 cf 90 3d d2 d2 9d 3e
       -0.114080764 0.057324003 0.070708334 0.30824906
0000f0 ad 5a 10 bd b0 8c 82 bd 97 10 c9 bd 68 b8 fb 3d
       -0.035242725 -0.0637449 -0.098176174 0.12291032
000100 ed 22 72 3d 5b d9 01 be de 2f 43 3e 0b a4 3b bd
       0.05911534 -0.12680571 0.19061229 -0.04581074
000110 c8 d7 c4 bd 0e 32 b3 3a bd 76 cf 3d c2 43 b7 bc
       -0.096114695 0.0013671534 0.101300694 -0.022371177
000120 99 48 dc 3c b2 d0 97 bd 5d cf 60 3e 57 c9 30 3d
       0.026890086 -0.07412852 0.21954103 0.043160763
000130 17 32 00 be 99 97 4c 3e 02 a2 d6 bd 0e 83 91 bd
       -0.12519108 0.19979705 -0.10480119 -0.07105075
000140 8f 1d 5e 3e d5 30 3e be 1f 03 6e be ed 78 bc 3c
       0.21690963 -0.18573315 -0.23243378 0.02300688
000150 47 f5 a8 ba bd 5c 0c 3e fd 43 25 be 78 89 47 3b
       -0.0012890481 0.13707252 -0.16139217 0.0030446928
000160 97 11 89 3e 78 c7 b8 3d 22 b0 76 bd af ee 5c bc
       0.26771232 0.09022421 -0.060226567 -0.013484641
000170 49 b5 78 3c 74 f0 06 3e 75 cd 73 be 8b 6a 3e 3d
       0.0151799405 0.13177663 -0.23808844 0.046488326
000180 36 5d 6d 3e 6e d5 8a 3c a0 48 ba bd 38 23 94 be
       0.23180088 0.016947474 -0.09095883 -0.2893312
000190 6f e4 ad 3d 45 aa 40 be 33 2a 58 3d 46 2f 63 3b
       0.08490836 -0.18814953 0.05277462 0.0034665628
0001a0 92 f4 b5 bd b1 9e 19 be 81 8c 0f 3c 5e 69 0a 3e
       -0.08884539 -0.15001942 0.008761526 0.13516757
0001b0 48 6e 5e 3d e4 23 78 bc c8 93 ea bd 2d 60 30 3e
       0.05430439 -0.015145276 -0.11453968 0.17224188
0001c0 d1 69 84 be b3 09 6d 3d e8 1f 7a 3c 87 fc 7f be
       -0.25861982 0.057870578 0.015266396 -0.24998675
0001d0 28 0a 3c 3d 9c de 50 be 64 3c dc bd d4 95 48 3e
       0.045908123 -0.20397419 -0.10753706 0.19588405
0001e0 31 91 0f 3b 2f 89 c5 3d 1e fc ae be e2 85 81 3d
       0.002190661 0.09645306 -0.34176725 0.06324364
0001f0 75 a0 c8 3c 46 00 92 3d dd 61 d0 bd a5 4f 77 bc
       0.024490574 0.071289584 -0.10174916 -0.015094672
000200 55 fa 67 3e b8 45 1e be 0d 6c eb bd 41 be 29 be
       0.22654088 -0.15456283 -0.114952184 -0.16576482
000210 04 d0 c4 3b 64 90 de 3c 91 2d b0 bd 08 6e 2a 3d
       0.0060062427 0.02716846 -0.08602441 0.04160884
000220 33 ee 6b bd a4 5d 0b be c4 c0 18 3c 8b aa 3f 3e
       -0.05760021 -0.1360994 0.009323303 0.187174
000230 73 5a 6e 3e 74 fd 5b bd 75 6a e1 3d e2 f9 b8 bc
       0.23276691 -0.05370851 0.11006633 -0.02258009
000240 c1 6d a0 3e 04 78 05 3e 32 fb 9a 3c 1c 3c 40 bd
       0.31333736 0.13034064 0.018918607 -0.046932325
000250 17 e0 93 3e 70 b5 39 3e 39 2c d0 3d 9b ab 4b be
       0.28881904 0.18135619 0.10164685 -0.19889681
000260 c8 4e da be d2 0f 81 be 23 44 20 3e 5f 1d 82 bc
       -0.4263823 -0.25207382 0.15650992 -0.015883146
000270 69 26 ba 3e 97 87 ed bd f7 cf 0b be 48 d4 e5 bd
       0.3635743 -0.11598127 -0.13653551 -0.1122213
000280 77 db 5f be 51 3f b6 3c b4 08 e8 3d 52 e8 34 3d
       -0.21861063 0.022246988 0.11329785 0.04416687
000290 6b 01 29 3e f7 f3 0d be 84 d8 d1 3d d1 d3 d2 3e
       0.16504447 -0.13862596 0.10246375 0.41177228
0002a0 92 49 04 be 26 80 62 3e b3 e8 11 be 1d 01 c3 bc
       -0.1291869 0.22119197 -0.14248924 -0.023804242
0002b0 ea 53 93 be 08 bc 2f 3e 85 43 66 be 54 99 8b 3e
       -0.2877496 0.17161572 -0.22486694 0.27265418
0002c0 9c 1a c4 3c f3 e2 15 be 7e cb 3d be 10 b2 a5 be
       0.02393847 -0.14637356 -0.18534657 -0.32362413
0002d0 61 6e 62 3e 34 c3 b7 3e cd 6a 2f 3d 1a ee 2c bd
       0.22112419 0.35891116 0.042826463 -0.04221926
0002e0 45 0f 6d 3d 2b 51 2e 3d e6 02 48 bd 68 91 cf bd
       0.05787589 0.042557877 -0.04883089 -0.10135156
0002f0 82 31 37 3e 44 2d 80 3e 69 13 44 3e 86 40 9b 3d
       0.1788998 0.25034535 0.1914803 0.07580666
000300 54 af fd bc 20 e8 00 3e a0 0f 47 3e 6e 18 81 3e
       -0.030967392 0.12588549 0.19439554 0.2521395
000310 9a 28 de bd 20 14 2c 3e ff 9b 0c 3d 25 cd 83 bd
       -0.10847588 0.16804552 0.034328457 -0.064356126
000320 83 a0 3a 3d 75 29 5a bd b2 4c bd 3d 91 f1 06 3e
       0.045563232 -0.053262193 0.09243144 0.13178088
000330 b8 58 d5 bd 9d fe fa 3c e5 2d 79 3d ac ba 4a 3e
       -0.104173124 0.030638987 0.060834784 0.19797772
000340 2c 97 f8 3c fc ee 10 3d a7 16 19 3c 20 0c 96 3e
       0.030345522 0.035384163 0.00934378 0.29306126
000350 ea 39 1a 3e 0e b4 a5 bd 3d 42 f4 bd cc 9a c2 3c
       0.15061155 -0.08090983 -0.119266964 0.023755454
000360 4a 8a bf bd 45 d8 a8 bb 91 56 e3 3e 20 9c 88 be
       -0.093525484 -0.0051527345 0.44401982 -0.26681614
000370 61 7c 21 b9 53 f4 d2 3e c8 9a 83 bd bb c1 33 3e
       -0.00015400491 0.4120203 -0.064260066 0.17554371
000380 93 b0 8a bd 32 0d c1 bd 14 c0 0d be 41 f3 02 3e
       -0.0677196 -0.09426345 -0.13842803 0.12788107
000390 63 31 c0 3d 7d 8c e7 bd c5 26 79 3d bd 3b 2c 3e
       0.0938442 -0.11306093 0.06082799 0.16819663
0003a0 09 2d 85 bb 56 c7 ba 3d f1 81 eb 3c 6c 79 e1 bd
       -0.0040642065 0.091200516 0.028748484 -0.110094875
0003b0 8b 99 62 be 18 af 96 3e 64 10 9a bd ff 0e 8a bd
       -0.22128884 0.2943046 -0.075226575 -0.067411415
0003c0 7e e1 02 bd 2b ac 22 3e 19 4f 1c 3e 6b 5b 6b 3e
       -0.031953327 0.1588599 0.15264548 0.22984092
0003d0 bf 5d 81 3c 40 ea 3f be cd 88 58 be 3b e0 ed bd
       0.015791772 -0.18741703 -0.21145935 -0.11615034
0003e0 9a c1 a6 3e 6a ec a0 3d 57 b7 dc 3d a5 1c 11 be
       0.3256958 0.078575924 0.10777157 -0.14171083
0003f0 54 2d d0 bd e8 37 1e 3e 50 d5 fc bd bf fc f1 3d
       -0.10164896 0.15451014 -0.12345374 0.118157856

lstm.bias_ih_l0 f4 [192]
000000 e2 12 00 3f b3 98 8c be b8 40 cb bd 4e 28 24 bc
       0.5002881 -0.2746025 -0.099244535 -0.010019375
000010 c1 3b 85 bd 9c 8c b5 bd 20 f4 57 be d6 54 cc bd
       -0.06505538 -0.0886471 -0.2108922 -0.09977119
000020 0f ed b8 3e 7a ce 76 3e a6 24 60 be 20 3f ab 3d
       0.3611836 0.24102202 -0.2188898 0.083616495
000030 e4 d8 5f 3e e1 bf 75 be c7 cf bd 3c 7d 93 eb 3d
       0.21860081 -0.23998977 0.023170365 0.115027405
000040 0f 5a cd bd f1 d4 65 3d 5f c2 36 bd c0 c7 86 3d
       -0.10026943 0.05611128 -0.04461896 0.06581068
000050 aa 17 1b bd d3 e1 67 be 79 e0 32 3e 51 c0 31 3e
       -0.037864365 -0.22644739 0.17468442 0.17358519
000060 bf 72 bb bd db 8f b6 3c 33 bc be bd b5 1e 38 3d
       -0.091527455 0.022285393 -0.0931324 0.04495116
000070 3f 38 84 bc 30 35 60 be 3c c8 6d 3d 6e d1 2b 3d
       -0.016140101 -0.2189529 0.058052287 0.041947775
000080 5d 04 9c be 51 6a 81 be 56 92 71 bd 66 76 32 3d
       -0.3047208 -0.25276425 -0.058977447 0.043569945
000090 e7 da b4 3d 11 f8 0e 3c 06 9a 1e bd 72 43 34 bc
       0.08830815 0.008726136 -0.038721107 -0.011002408
0000a0 ad e1 46 3d 06 be 81 bd 2b 9a aa bd 17 48 8e be
       0.048555065 -0.06335072 -0.083301865 -0.27789375
0000b0 dd 8c ba be 0c 59 8c be dc 86 f7 3c 1c a5 39 ba
       -0.36435595 -0.27411687 0.030215673 -0.0007081793
0000c0 37 44 13 3e 55 34 bb be 25 1d 1e 3d d3 a8 46 be
       0.1438149 -0.36563364 0.038602013 -0.19400339
0000d0 39 f8 82 bd 6c 7d 54 be 79 b5 6e be 98 41 b1 bd
       -0.06395001 -0.2075097 -0.23311414 -0.08655089
0000e0 8f e4 01 bd a3 40 9e bd f9 3a 31 3d 8c 49 4a bd
       -0.03171211 -0.07727172 0.04326913 -0.049386546
0000f0 cf d6 c9 bd 87 aa 8f be d9 db a3 ba 46 fa cf 3e
       -0.098554246 -0.2805979 -0.0012501433 0.4062063
000100 f5 61 08 be c6 b7 3a be 13 ee 05 be d3 04 d5 3d
       -0.13318618 -0.18234167 -0.130791 0.10401311
000110 33 40 2c be 15 e9 7a bd 42 cc 13 be 67 95 b5 3e
       -0.16821365 -0.06125744 -0.14433387 0.35465547
000120 fa 38 83 3d 5a 34 ab bb 17 1f 05 3e d4 eb c5 3d
       0.06407352 -0.0052247467 0.13000141 0.09664121
000130 53 03 ce bd f4 db 33 3d bc 96 1e be 75 e6 d8 3d
       -0.10059228 0.043910936 -0.15487188 0.10590831
000140 eb 2b 7d be 08 87 1f be fb 70 45 3d 13 40 63 3e
       -0.24723785 -0.15578854 0.04820345 0.22192411
000150 1b 94 cd 3d f0 1b 50 be b4 5f 31 be 58 76 ea bd
       0.100380145 -0.20323157 -0.17321664 -0.114483535
000160 21 8d 0c be d4 bd 4c be 32 87 6b be f6 e2 4b be
       -0.13725711 -0.19994289 -0.23000792 -0.19910797
000170 5b 29 26 3d 7b 60 37 be ac 11 e2 bd ad 53 aa 3c
       0.040566783 -0.17907898 -0.11038527 0.020791853
000180 cf d1 8f bd 51 e4 bc bd f7 21 fc bc 47 98 02 be
       -0.0702244 -0.092232354 -0.030777914 -0.12753402
000190 18 ed c3 3d dc 64 1e be d2 17 25 bd f7 be 9c 3d
       0.095667064 -0.15468162 -0.04030592 0.07653611
0001a0 89 ff 8c bd 65 82 d4 bd 48 81 db bd 7c 60 8e 3d
       -0.06884677 -0.10376433 -0.10718018 0.06951997
0001b0 44 10 cb 3d 8a a2 9a 3c a7 81 81 3d b7 27 09 be
       0.09915212 0.018876333 0.06323557 -0.13394056
0001c0 b0 3a bc bd a8 e2 4e 38 11 d2 8c 3d f3 c8 28 be
       -0.09190881 4.9325317e-05 0.068760045 -0.16482906
0001d0 75 dd 88 bb d8 95 1e 3d d3 51 15 3d 97 a1 1a be
       -0.0041767904 0.03871712 0.036454987 -0.15100704
0001e0 aa 51 4c be 07 89 1a 3e d5 66 00 be 1c eb 0a 3e
       -0.19953027 0.15091334 -0.12539227 0.1356625
0001f0 01 92 16 be 36 7f 1f be 57 68 09 bd d9 b6 01 be
       -0.14704134 -0.15575871 -0.03354677 -0.12667407
000200 83 23 a2 3d 58 15 ee 3c 75 af c7 3d 4f cc 2e bd
       0.079169296 0.029062912 0.09750263 -0.042675313
000210 6a d0 5a bd c0 35 a4 3c f0 4d 83 bd 14 6a 24 be
       -0.053421415 0.020045161 -0.0641135 -0.1605609
000220 23 09 0d 3d 33 67 ce 3d 21 8a 4b be d9 a9 ad bc
       0.03443254 0.100782774 -0.19876911 -0.021199154
000230 b8 db 60 bd 13 6d 16 bd f9 af 18 bd 23 87 ad 3c
       -0.05489704 -0.036725115 -0.037277196 0.021182602
000240 52 be 90 3e e2 5d c7 be 6a aa f0 bd d3 70 bd bd
       0.28270203 -0.38938814 -0.11751254 -0.09250035
000250 e5 71 50 bd b3 56 11 3e 5d 8c 18 be 50 b7 ad be
       -0.05088987 0.1419323 -0.14897294 -0.3392892
000260 2a bc 35 3e 4f 2d e6 3d 9f f1 cd 3b c3 be 66 3c
       0.1774756 0.11239111 0.006284907 0.014083567
000270 82 58 1e 3e e3 b2 c0 be 48 d9 d5 3b ea 83 46 3d
       0.1546345 -0.3763648 0.006526146 0.048465647
000280 c7 77 07 3d 4d 38 1b 3d 52 4b f6 bc 2d 98 ab 3e
       0.033073213 0.03789549 -0.030065212 0.33514538
000290 49 96 d1 bd 81 ba 1a be e7 45 69 3e 80 c2 6f 3e
       -0.10233743 -0.15110208 0.22780572 0.2341404
0002a0 cd 6f ae 3b 03 57 c0 bd de 54 f7 bd 6d b5 7a 3d
       0.0053233863 -0.09391596 -0.12076734 0.061208177
0002b0 c5 4c 0c 3e 0c c3 2c 39 dc a1 ed 3c 9e 2c 7d bd
       0.1370116 0.00016475859 0.029007845 -0.06181013
0002c0 03 a4 82 be 6e 8c 9e be 7b 17 14 be 45 b5 d7 bd
       -0.25515756 -0.30966514 -0.14462082 -0.10532621
0002d0 b4 97 1a 3d b5 8b b9 bc bc 7d 62 be bf eb 09 3e
       0.03774233 -0.022649625 -0.22118276 0.13468836
0002e0 09 12 83 b9 a8 93 bf bd 49 94 5f be ae b5 c0 be
       -0.00024999704 -0.09354335 -0.2183391 -0.3763861
0002f0 09 34 3b be 80 06 80 be c4 3f ad bd c2 d1 76 3e
       -0.18281569 -0.2500496 -0.08459428 0.24103454

lstm.bias_hh_l0 f4 [192]
000000 45 3d b5 3e 09 0e 38 be 52 46 93 bd 90 87 39 bc
       0.35398307 -0.17974104 -0.07191147 -0.0113238245
000010 86 5b 31 3c 2d c2 94 3c 0f b1 b2 be b4 0f 00 be
       0.010825044 0.018158996 -0.3490071 -0.1250599
000020 8d 51 bd 3e 50 e9 1a bc c9 91 34 bd 99 e5 48 3e
       0.3697628 -0.00945504 -0.044084344 0.19618835
000030 6f ad 8b 3d b6 ef 96 be 8d d9 19 be 62 c2 b4 3d
       0.06820189 -0.2947976 -0.15024395 0.08826138
000040 0e 74 c0 bd b0 c9 81 3d f7 a9 80 be b0 94 b2 3d
       -0.09397136 0.06337297 -0.25129673 0.08719766
000050 f7 1c 7f be 6b 80 10 be ea 32 8c 3d 41 05 21 bd
       -0.24913393 -0.14111488 0.068456486 -0.03931165
000060 75 d0 f2 3d 55 ef ad 3d a2 bb 8d bd 27 7d be 3c
       0.11856166 0.084929146 -0.06920554 0.023253037
000070 c0 f4 9f 3d dd 59 0a bd f3 d3 4d bc 67 0d 3f be
       0.07810354 -0.033777107 -0.01256274 -0.18657456
000080 b5 9f 09 be 84 4c 85 be 2e 0b a5 bd f3 c7 95 3b
       -0.1343983 -0.2603494 -0.08058773 0.004570955
000090 c1 22 9a 3d 32 79 3e 3e 51 0e 10 bd e9 7d 0c bd
       0.0752616 0.1860092 -0.035169903 -0.034299765
0000a0 87 7d 12 be b7 61 88 be 15 75 70 bd 2d 54 a9 be
       -0.14305697 -0.2663705 -0.058705408 -0.33072034
0000b0 53 a0 68 be 22 39 78 bd e2 97 05 3b 2b da 1b 3e
       -0.22717409 -0.06060136 0.0020384719 0.15219943
0000c0 0b 97 c0 3d 30 18 18 be 82 41 eb bd 0f a1 1b be
       0.09403809 -0.14852977 -0.11487104 -0.15198158
0000d0 50 8e 5a be 50 ec 37 be 87 fe 11 be a1 aa 56 be
       -0.2134335 -0.1796124 -0.1425725 -0.20963527
0000e0 97 ec 92 bd e3 ca 83 3d 72 a7 f2 3c 6a cf b8 bc
       -0.07174032 0.06435182 0.02962086 -0.02255984
0000f0 5e 75 19 3d 18 88 47 bd 6b 2b a0 3d 71 87 ca 3e
       0.037465446 -0.048713773 0.07820781 0.3955646
000100 e8 ea 13 bd 25 2b 06 be b1 09 18 be b9 05 2b 3d
       -0.036112696 -0.13102396 -0.14847447 0.041753504
000110 1e 23 c7 bc 00 ba c4 bd 04 14 0b 3d ec d9 dc 3e
       -0.024308737 -0.09605789 0.033954635 0.4313501
000120 bc 30 42 bd 0c 6d fc 3d 3e 74 99 3d 61 98 d0 3d
       -0.047409758 0.123254865 0.074928746 0.10185314
000130 37 7e b5 3b a2 f3 e9 bd 5b 80 8c 3c 72 8c cd 3d
       0.0055387276 -0.114234224 0.017151048 0.100365534
000140 11 02 05 be 1f 36 01 be 33 37 15 bd ce 77 e9 bb
       -0.1298907 -0.12618302 -0.036429595 -0.0071248775
000150 e2 eb 30 3e 9a 4d ba bd 90 60 da bc a5 bd 17 be
       0.17277482 -0.090968326 -0.026657373 -0.14818437
000160 21 dd 10 be 6b d7 b6 3b 37 4b 83 bd 3a 7c 05 be
       -0.14146854 0.005579879 -0.064108305 -0.1303567
000170 14 d9 23 3d cd 88 27 be 0d ab 37 bc 37 c5 43 3e
       0.040001944 -0.16360779 -0.011210215 0.191182
000180 06 9b 0d 3d 78 35 72 bb 5b ef b2 bd 90 41 9e bd
       0.03457167 -0.003695814 -0.0873706 -0.07727349
000190 3c d9 c3 bd 6c ed ac 3d 0e 28 15 3c 90 c6 03 bc
       -0.095629185 0.08443722 0.009103788 -0.008042946
0001a0 12 cb 83 bd 7b 2f e1 bd bd a4 db bb 71 f3 56 3e
       -0.06435217 -0.10995384 -0.006702988 0.20991303
0001b0 8b e1 c4 3d d1 33 e4 3c ff 4e b3 bd 09 d4 72 bd
       0.096133314 0.02785674 -0.08755302 -0.059284244
0001c0 f8 ad 8e bc ad 99 ea 3c d0 8c 32 3d 23 22 4f bd
       -0.01741694 0.028637731 0.04359132 -0.050569665
0001d0 29 01 c4 bc 16 e8 6f bd a8 d3 5a 3e 88 cd c6 3d
       -0.023926334 -0.058570944 0.21369803 0.09707171
0001e0 08 30 4c 3c 1a cf 7f 3d b8 ef 42 bd 18 5e 98 bc
       0.012462623 0.062453367 -0.047591895 -0.018599555
0001f0 9f 82 7d 3b 15 35 b3 bc c2 0f 01 bd d1 43 c3 bd
       0.0038682593 -0.021875897 -0.03150917 -0.09534419
000200 b8 c6 85 3c f0 66 d3 3d 14 d9 c8 3d 1a ef 76 3c
       0.016330108 0.10322368 0.09807029 0.015071655
000210 7e 36 f6 bd a9 37 e7 3d 4e d5 e3 3c fa d8 d3 bc
       -0.12022112 0.11289913 0.027811673 -0.025860298
000220 77 b4 03 3e e9 9a a3 bb 70 7c 47 3d 39 b0 3d bb
       0.1286181 -0.004992832 0.048702657 -0.0028944148
000230 e3 70 6b 3c b1 84 b4 bd b9 15 06 bd 93 cb a8 3d
       0.014370176 -0.088143714 -0.03273556 0.08241954
000240 a3 be af 3e 64 29 b9 be 48 04 3d 3c 40 40 0c 3d
       0.34325132 -0.3616439 0.011536665 0.03424096
000250 7b b9 89 3d ea 99 c8 3d 3a 5b 93 be e3 40 18 be
       0.06724831 0.09794982 -0.28780538 -0.14868502
000260 38 2d f7 3d ca e6 3f 3e 76 03 fd bd 16 eb 04 3e
       0.12069172 0.18740383 -0.12354176 0.12980303
000270 e8 00 aa 3d d4 40 24 be e6 a5 e2 3d 23 01 64 3e
       0.08300954 -0.16040355 0.11066799 0.22266059
000280 d3 84 03 be 9b 42 a4 bc 2b 90 7f be a0 e8 1b 3e
       -0.12843637 -0.020051291 -0.2495734 0.15225458
000290 a9 40 2b be 9c 2c ad bd b9 ae 4b 3e e2 70 5d 3e
       -0.16723885 -0.08455774 0.1989087 0.21625093
0002a0 36 94 8a bd fd e2 a9 3d 0f 07 9c bd 3a a3 0c be
       -0.0676655 0.08295248 -0.07618534 -0.13734141
0002b0 a7 e1 2a 3d 0f a8 42 be 8c b8 f1 bd 0a f2 6b be
       0.041719105 -0.19009422 -0.11802778 -0.2304155
0002c0 7b 14 92 bd fd de 5f be 52 d1 27 be a8 88 ce 3d
       -0.071328126 -0.21862407 -0.16388443 0.10084659
0002d0 a8 88 d9 bc 4f 7c e9 3c 7c 0d 26 be da 2d 18 bd
       -0.02655442 0.028501658 -0.16216081 -0.037153102
0002e0 d8 fe ac 3d 01 a4 d7 bd f1 c4 86 bd ca 3e 67 be
       0.08447045 -0.10529328 -0.06580532 -0.22582546
0002f0 4f 46 cd be 95 b8 01 bc 7e cf 2c 3e 3d 4c 19 3e
       -0.40092704 -0.007917543 0.16876027 0.14970489

lstm.weight_ih_l1 f4 [192, 48]
000000 40 33 a5 3d d1 1b f0 3d 83 22 e0 bd 3b e7 f9 bc
       0.08066416 0.117240556 -0.109440826 -0.030505767
000010 71 36 33 3d 91 cd 01 3d 61 60 8b 3c 9f a6 3c be
       0.04375309 0.031690184 0.01701373 -0.18422936
000020 9e d6 ca 3d 8f 15 53 be f0 38 df 3d 48 bb c1 3e
       0.09904216 -0.20613693 0.10899532 0.37838197
000030 f4 74 0b 3e 39 11 90 3e 1d 15 13 3e c9 dd 4b bd
       0.13618833 0.2813814 0.14363523 -0.049772058
000040 67 45 19 3e 8a 9c cd 3d 4b e5 7b bd 3a 83 0e bd
       0.14967881 0.10039623 -0.061497968 -0.034793116
000050 94 f7 86 3d fa db 6f bd 0b be 84 3e 88 cc c1 bd
       0.065901905 -0.058559395 0.2592624 -0.09462839
000060 0d 6a 86 be 08 69 1a 3e 6d 4d 5a 3e bc 22 ee 3b
       -0.26252785 0.15079129 0.21318598 0.0072673243
000070 55 e6 22 be 08 64 42 3e 39 19 e5 3d 62 47 a8 bb
       -0.15908177 0.18983471 0.111864515 -0.0051354626
000080 f7 ad f1 bc 57 7e bc bd 9f b0 84 be fd 3c 45 3e
       -0.029501898 -0.09203785 -0.25916 0.19261546
000090 da 73 33 3e f3 67 18 3e 51 ab a0 bd f5 4b 9c be
       0.17524663 0.14883403 -0.07845176 -0.305267
0000a0 46 ce a8 3d 22 66 2d 3e 67 ea 07 be 2b e7 62 be
       0.082424685 0.16933492 -0.13273011 -0.22158496
0000b0 23 c5 a1 bd ce 82 80 3e 08 61 84 be 07 81 51 3e
       -0.07898929 0.25099796 -0.2585528 0.20459376
0000c0 1f 7f 9b be 6d 5d 77 3e 28 3b 33 3c 3e 27 7e 3d
       -0.30370423 0.24156733 0.010939397 0.062049143
0000d0 8b 1d 32 bd c1 de 83 be b3 28 a4 3d 86 1f 1f be
       -0.043485206 -0.25755885 0.08015575 -0.15539369
0000e0 15 89 44 3e 25 fc 9a bd a8 82 04 bd 27 33 ce 3d
       0.19192918 -0.07567624 -0.032351166 0.1006835
0000f0 6b 92 92 be 6a 4d 83 3d 7a 1e aa 3c 52 2b 9c 3c
       -0.28627333 0.0641125 0.020766485 0.019063625
000100 81 e9 25 3e 44 27 bd bd ba 09 66 be 70 9f 1f be
       0.16202356 -0.09236005 -0.22464648 -0.15588164
000110 c0 9f d8 bd 83 46 0e 3e 43 32 5a 3e 7d 72 20 3e
       -0.10577345 0.13894086 0.21308236 0.15668674
000120 f1 de 9a be 58 dc b1 3d 60 53 1b 3e 67 0b a4 bd
       -0.30248216 0.08684605 0.15168524 -0.08009987
000130 f8 eb 0f 3e 43 e8 4e 3e 1a d7 09 3e ac d3 1c 3e
       0.14054859 0.20205788 0.13460961 0.15315121
000140 94 eb da 3d b5 29 ab bc 98 63 5f be 09 2e 68 bd
       0.10689464 -0.02089391 -0.21815336 -0.056684528
000150 79 54 f9 3d db 41 26 bd 81 b4 a8 3d fb 95 95 3d
       0.12174315 -0.04059015 0.082375534 0.07303997
000160 b3 db 0d bd 51 3a 1a 3e be 25 22 be 03 05 51 3d
       -0.03463335 0.15061308 -0.1583471 0.05103017
000170 65 50 81 3d 8c e7 88 3c 51 87 9d ba df ae a5 bd
       0.06314162 0.016711973 -0.0012018477 -0.08089995
000180 70 f5 9b be 0d 20 f5 3d b0 0f 14 be 6b 44 3d 3e
       -0.3046069 0.11969004 -0.1445911 0.1848313
000190 ac 25 59 be aa a9 c1 be 8d 65 44 bb df f0 12 be
       -0.21205777 -0.37824756 -0.0029967756 -0.14349698
0001a0 b7 01 4f 3e d4 af ba 3d d7 53 17 3e b9 11 82 bd
       0.20215498 0.09115568 0.14778076 -0.063510366
0001b0 f5 5d a9 be 50 f2 3c 3c 59 2f 6a be fb 4e 8f bd
       -0.33079496 0.011532381 -0.22869624 -0.06997486
0001c0 ec 4a f0 3d 7d 0d 1e be 0f 74 46 be 05 be 2e be
       0.1173304 -0.15434833 -0.1938021 -0.17064674
0001d0 73 7d a3 bd f1 ab cc bd 7c b8 2a be ea fb 35 3e
       -0.07982912 -0.09993733 -0.16671938 0.17771879
0001e0 2f cf 4d 3d c0 54 21 3d e1 7c ee 3d a4 04 4f bb
       0.050246414 0.039387465 0.116449125 -0.003158846
0001f0 d3 92 a4 3e 39 0f cd 3d 05 1e 06 3e e3 2f cb 3d
       0.32143268 0.10012669 0.13097389 0.09921243
000200 c1 b8 b0 bd 91 e4 cc bd a6 1a ad bc 4f a5 3d 3e
       -0.08628989 -0.10004533 -0.021130871 0.18520091
000210 02 a4 4a be 6b 2a bb bd 4f cd 44 3d da d9 28 3d
       -0.19789127 -0.0913895 0.04804736 0.041223384
000220 c9 4c d4 bd 59 a0 fa 3b 69 5d 1b be dd 62 8e 3d
       -0.10366208 0.0076485095 -0.15172352 0.069524504
000230 09 92 81 bd a3 78 c2 bd a6 3e 7e bd 9c 88 2b be
       -0.06326682 -0.09495666 -0.062071465 -0.16751331
000240 85 28 2c 3b d1 48 11 3e ca 13 83 be ab c4 bd 3d
       0.0026269269 0.14187934 -0.25601035 0.09266027
000250 80 bb 6f 3e 05 92 88 bd 0a f8 15 3d 53 cd 30 be
       0.2341137 -0.06668476 0.0366135 -0.17265825
000260 ab ff 8e 3c e2 dc bf bd 0e 4a ea bd 91 74 22 3c
       0.017455896 -0.09368302 -0.11439906 0.009915487
000270 35 90 9c 3c 3c f9 aa 3d 0b 56 b0 3d d2 8d 83 3d
       0.019111732 0.08348319 0.086101614 0.064235345
000280 96 2c e4 bd 25 6e 8e 3d 96 37 86 3c 94 e5 da 3d
       -0.111413166 0.06954602 0.016383927 0.1068832
000290 05 0c 17 be da 00 77 3c fa 95 e5 ba ca f1 80 3c
       -0.14750679 0.015075887 -0.001751601 0.015740294
0002a0 49 a6 2f be c7 45 af bd 5a d5 5c 3e a2 8b 22 bb
       -0.17153277 -0.08558231 0.21565762 -0.0024802466
0002b0 45 32 89 3d 8c 0f 38 3e 2d 6b 03 be a4 61 98 bd
       0.06699041 0.1797468 -0.12833853 -0.074404985
0002c0 a1 75 0c bd d2 41 37 bd ac 5c 81 be 52 56 72 be
       -0.034291867 -0.044740506 -0.25266016 -0.23665741
0002d0 79 a9 47 3e 11 ad 7a 3e 62 c8 8c bc 07 21 16 bd
       0.19498242 0.24480082 -0.017185394 -0.03665259
0002e0 36 77 db 3d a6 e7 3c 3e 6e a3 1a be 7d dd 8c bc
       0.10716097 0.18447742 -0.15101406 -0.017195458
0002f0 77 7e 92 3d 47 f9 25 3e bd 48 98 be 21 89 91 3d
       0.071530275 0.16208373 -0.29742995 0.071062334
000300 3c 57 7f 3d 8d f7 c3 bd e8 45 0b be 7f 9e 33 3e
       0.062339053 -0.09568701 -0.13600886 0.1754093
000310 a2 89 de 3d c0 31 1a be 96 38 01 3d 09 68 43 be
       0.10866095 -0.1505804 0.031548105 -0.19082655
000320 31 0a 0f 3e 06 ca 3d be 76 f4 71 3e 90 08 be 3d
       0.13968731 -0.18534097 0.2362841 0.09278977
000330 80 da 1c be 98 38 2c be 24 20 b1 bc 64 dd 39 bb
       -0.15317726 -0.16818464 -0.021621771 -0.002836072
000340 bf ca ac bd 08 2d 3e 3c f1 2f 76 3d de 80 1f 3e
       -0.08437108 0.011607416 0.060104314 0.15576503
000350 b8 94 0b ba 4f ec f9 3c 54 40 89 3c 8e 00 99 bd
       -0.000532459 0.030508189 0.016754307 -0.07470809
000360 96 8b 06 3d f1 71 26 be f9 34 39 3e 05 3b 63 bb
       0.032847963 -0.16254403 0.18086614 -0.003467263
000370 b2 9a c9 bd eb 51 98 bb b3 1e 78 bd ce 3a a5 3d
       -0.09843959 -0.0046484373 -0.060576152 0.08067857
000380 25 81 58 bd 70 d5 47 be 54 25 ef 3d 0f 9d cf 3d
       -0.052857537 -0.19515014 0.11677042 0.101373784
000390 5a a1 da 3d c5 f2 eb bd e2 ff 9d bc 26 d1 15 be
       0.106753066 -0.11520914 -0.019287053 -0.14630565
0003a0 50 1b 8e 3d af 65 a8 bc 42 9a 88 3d 48 44 ba 3d
       0.06938803 -0.020556299 0.06670047 0.09095055
0003b0 42 39 8f be 28 84 30 3e b5 b6 17 3d 9b 66 f3 3c
       -0.27973372 0.17237914 0.037039477 0.029712012
0003c0 af 6c ea 3d f2 4d 96 3e ed a5 e3 bd c4 91 cb bd
       0.11446511 0.29356343 -0.11115632 -0.09939912
0003d0 a0 3e 38 3e 9e 31 43 3e 8e 85 67 3c 32 98 b9 bd
       0.1799264 0.19061896 0.014130963 -0.09062232
0003e0 92 57 5c be 10 70 f2 bd 1d b9 9a 3d 09 c5 bd 3e
       -0.2151778 -0.118377805 0.07554839 0.37064388
0003f0 98 62 03 3e 54 1a 8c 3e 5e e2 8d 3d bd e1 2f 3e
       0.1283058 0.27363837 0.06927942 0.17175956

lstm.weight_hh_l1 f4 [192, 48]
000000 d4 04 02 3e f8 5c 25 3c 69 86 58 bd a8 b9 c8 3d
       0.12697154 0.010092966 -0.05286256 0.09801036
000010 ba 07 25 3e 3a 3b b3 bc 54 04 21 bd 71 e3 6c 3c
       0.16116229 -0.021878827 -0.03931077 0.014458523
000020 ef 56 34 3e 6d 24 48 bc 9b 90 89 3d 25 84 48 3d
       0.17611288 -0.012215716 0.067170344 0.048954148
000030 67 c2 9d 3d 6c fc 1e 3e 04 55 42 be bc 12 e4 3d
       0.07703095 0.15525979 -0.18977743 0.11136386
000040 09 e0 0b be 82 ff 5c bc 46 01 a4 bb 77 18 39 3e
       -0.13659681 -0.013488652 -0.0050050346 0.18075739
000050 e5 54 49 3e 68 17 c5 3d 25 88 9f bd 2d 8b fb bd
       0.19661291 0.09623605 -0.077896394 -0.12282405
000060 a8 c4 91 bd 4a 57 d0 bd 2b 90 2a 3e 76 a5 40 be
       -0.07117587 -0.10172899 0.16656558 -0.18813118
000070 4c 7c 6c 3e ba 0b 35 3e 51 bc fe 3d 20 4f fe 3c
       0.2309429 0.17680255 0.12438262 0.03104359
000080 42 cd a5 bd 1c b4 54 3d d6 1b 0e 3d 8e 17 3b bd
       -0.080957904 0.05192958 0.034694515 -0.04567676
000090 59 fd e4 3d b1 d0 90 3e c4 47 2e 3e c3 68 35 bd
       0.11181135 0.2828422 0.17019564 -0.04428936
0000a0 5e 42 4b bd 39 61 6b bd 26 40 e0 bd d9 66 30 be
       -0.04962384 -0.057465766 -0.10949735 -0.17226733
0000b0 ce 3d cd bb ea 83 41 3e b6 cc 8e bd 38 10 28 be
       -0.006263471 0.18897977 -0.06972639 -0.16412437
0000c0 32 b1 16 3e 9f 00 a9 bd 86 57 7c bd b0 f3 62 3e
       0.14716032 -0.082520716 -0.061606906 0.22163272
0000d0 e8 7d a1 3c d4 a3 c5 3d 20 94 e6 bd 74 45 32 be
       0.019713357 0.09650388 -0.11258721 -0.17409307
0000e0 50 ab 19 3e 17 0b 56 3d 9f 62 9b 3c bf e0 f0 bc
       0.15006757 0.05225667 0.018967925 -0.029404042
0000f0 87 56 83 3d 70 42 88 bc c4 be 7e 3d 4e c0 1c 3e
       0.06412988 -0.016633242 0.062193647 0.15307733
000100 e3 c8 73 ba 43 e6 28 3e d7 a9 fb b9 40 25 f9 3d
       -0.0009299649 0.16494088 -0.0004800099 0.12165308
000110 13 5a 3c 3d 3e 0e 00 3e e3 49 34 be e5 b2 9c 3d
       0.04598434 0.12505433 -0.1760631 0.07651309
000120 05 08 02 3e 7a b3 9c 3d 5d 1f 20 3e 9c 14 6f be
       0.12698372 0.0765142 0.15636964 -0.23347706
000130 bd fe 63 3e 75 63 42 3c dd 95 4b 3e ce 3b 58 3d
       0.22265144 0.011864533 0.19881387 0.05279141
000140 55 cf 37 3d 22 01 95 bd 00 c5 ae 38 fb c4 2f 3e
       0.04487546 -0.07275607 8.333661e-05 0.17164986
000150 9d e0 aa bd 4c 0a 85 3e aa 6c b0 3b 2f 80 41 3e
       -0.08343623 0.25984418 0.0053840475 0.18896554
000160 a3 11 32 bd b8 43 a0 bd bb 4f 06 be 34 b7 3f be
       -0.04347385 -0.07825416 -0.13116352 -0.1872223
000170 f6 5f 46 bd fc 76 ab 3d e6 ae 79 bd d9 c5 51 be
       -0.04843136 0.08372304 -0.06095781 -0.20485629
000180 3f e6 f7 3d 66 1d 90 3d 51 13 54 bc b4 ab a5 3d
       0.12104463 0.07036857 -0.0129440585 0.080893904
000190 da 0c 3f 3e 84 c9 0a 3e b6 0f 94 bc c3 c8 44 bd
       0.18657246 0.13553435 -0.018073898 -0.048043024
0001a0 eb 03 86 3d b2 15 8d 3d 56 40 ac 3d 3a 73 f0 3d
       0.06543716 0.06888904 0.084107086 0.11740728
0001b0 b3 aa 07 3e 7b f6 0a 3e 9d 71 c4 3d ec 60 91 3d
       0.1324871 0.13570587 0.095919825 0.070985645
0001c0 6c 9f 9a bc 0b d1 15 3d 8f 03 2b 3e 07 c8 53 3e
       -0.018874846 0.036576312 0.16700576 0.20681773
0001d0 1e ab f6 3c bc 5f f0 bd 18 53 7f bc af ba 4d 3c
       0.030110892 -0.1173701 -0.015583776 0.012556716
0001e0 c0 e5 eb bb 90 38 f2 3d ba 02 72 bd f4 8c 49 be
       -0.007199019 0.11827195 -0.05908463 -0.19682676
0001f0 d6 00 04 3e 8f 07 7a bc 33 2a 80 bd 13 36 f3 3d
       0.12890944 -0.015260591 -0.06258049 0.11875548
000200 42 20 99 3d 9e 15 f2 bd a8 70 ec bd be a1 39 bd
       0.07476856 -0.118205294 -0.11544925 -0.045320265
000210 b1 50 b1 bb fd 89 bc bc 0e 1d 2f 3e 38 9a 2d 3d
       -0.0054112305 -0.023015017 0.17100927 0.042383403
000220 54 2e 81 bd 37 ef 8a bc 82 16 b9 bd 86 e0 e5 bc
       -0.063076645 -0.01695977 -0.09037496 -0.028061163
000230 5f d3 27 3e 9e 2e 85 3d 48 27 52 3d fb 00 e8 3d
       0.16389225 0.06503032 0.051306993 0.11328312
000240 6d 27 e4 bc eb a9 85 be be 5b 97 3e 23 a9 ac bd
       -0.02785083 -0.261062 0.2956218 -0.08430698
000250 90 e0 7e 3e 4b b9 f8 3d ba cd 90 be ce b9 3d bd
       0.24890351 0.12144717 -0.28281957 -0.046319775
000260 80 fe 21 3e eb bb 08 be 4d ef bd bd 60 50 7a bd
       0.1581974 -0.13352935 -0.092741586 -0.061111808
000270 0c 8b c8 bd ff 9b 65 3d a1 d5 35 3e 60 1a 24 3d
       -0.09792146 0.056056973 0.17757274 0.040064216
000280 0f 21 99 3a 30 67 59 bd 2b a4 7a 3e eb 54 23 3e
       0.0011682826 -0.053076923 0.24476688 0.15950362
000290 58 33 6b 3e 0a f1 62 bc 4d 14 20 be 85 ce 2c be
       0.22968805 -0.0138514135 -0.15632744 -0.16875656
0002a0 ae 78 87 3d 0d d2 1e bd ad 14 2d 3e 28 4c c6 bd
       0.06614815 -0.03877454 0.16902418 -0.096824944
0002b0 f6 5c 87 3b ff 39 a2 3c ac e3 78 3d a5 b8 e7 3c
       0.004130955 0.019803045 0.060764 0.028286288
0002c0 bf 93 87 3d ce 98 63 bb 0f be 16 be bb aa 69 3e
       0.06619977 -0.003472853 -0.14720939 0.22819035
0002d0 1e 0d 56 3e 2e b6 63 3d 3e b6 f8 3b d6 16 12 3e
       0.20903441 0.055593662 0.0075900843 0.14266524
0002e0 c3 42 b3 bd 4c f7 43 be f3 91 a0 bd 57 a4 17 3c
       -0.08752968 -0.19137305 -0.078403376 0.00925549
0002f0 cd ec a4 3d 89 57 26 3c 13 38 52 3d ad b2 f6 bd
       0.08052979 0.010152706 0.051323008 -0.120457985
000300 66 45 72 3c 00 4b 16 be 5e bf 57 3c 81 5f 8e be
       0.014787054 -0.14677048 0.013168184 -0.2780724
000310 5a eb 15 be 12 8c 52 3d 8e 2a 14 3d 63 1d cf 3d
       -0.14640561 0.051403113 0.036173396 0.10113027
000320 27 33 48 3e c8 a7 43 bd a2 ad 17 be f0 5c a4 bd
       0.19550763 -0.04776743 -0.1481233 -0.08025539
000330 49 86 3e be b6 44 c8 3d 0b 4d bf 3c 2f 9d 8c bd
       -0.18605913 0.097787306 0.023352167 -0.06865918
000340 f3 54 35 3e 36 68 27 be c0 00 3f 3d 8e 3a c3 bd
       0.17708187 -0.16348347 0.046631575 -0.09532653
000350 a9 4b 82 bd 69 a9 71 ba 99 c1 0f 3d f7 58 8f bd
       -0.06362087 -0.00092186645 0.03509674 -0.069993906
000360 41 9b 18 3e 58 e2 d0 bd 3a c5 39 be 60 d6 ab bc
       0.14902975 -0.10199422 -0.18141642 -0.020976245
000370 90 b4 50 3d 75 d8 24 3d 86 46 db bd 18 70 40 3e
       0.050953448 0.040245492 -0.10706811 0.1879276
000380 22 75 89 bc e8 0f 7c 3e f7 3f a1 b8 a2 d2 27 3d
       -0.016779486 0.24615443 -7.6889926e-05 0.04097236
000390 4e c2 93 bb f2 d4 34 be e5 a7 5a 3e 5d 7a ce bd
       -0.004509247 -0.17659357 0.21353109 -0.10081933
0003a0 ab b9 9c be 5f 59 6f be f0 6a 4f be f9 1e ba bd
       -0.30610403 -0.23373936 -0.20255637 -0.09087939
0003b0 c2 13 3d 3e 5c a0 9e be 7d d2 09 3e 8f c4 d0 bc
       0.18464568 -0.3098172 0.13459201 -0.025484351
0003c0 a4 c4 a7 3d 6c d3 9a bd 91 d3 fd 3d 22 b9 10 3e
       0.08191803 -0.07559857 0.12393869 0.14133123
0003d0 07 5b aa 3e 54 0e 08 3e b7 5a 72 be 22 d4 86 be
       0.33272573 0.13286716 -0.23667417 -0.2633372
0003e0 93 3f 3a 3e d7 ef 29 be 6a b3 59 bc 7f 58 44 be
       0.18188314 -0.16595398 -0.013287405 -0.19174384
0003f0 78 a0 2f 3d 4d b6 a5 3d 4b a2 0f bd 92 a8 b0 3b
       0.042877644 0.08091412 -0.035066884 0.005391189

lstm.bias_ih_l1 f4 [192]
000000 16 86 90 bd a8 77 c1 bd 4e fd 65 bd b4 b7 5e be
       -0.07056825 -0.09446651 -0.056149773 -0.21749765
000010 a2 36 0d bd 7e 40 9c bc 75 58 1b 3e 11 a9 a9 bc
       -0.03447593 -0.019073721 0.15170462 -0.0207105
000020 ce 83 15 be f9 9c 2f 3e c3 3b b3 3c 67 a2 93 bd
       -0.14601061 0.17149724 0.021879083 -0.0720871
000030 ad 8d 42 bd a4 c8 92 be ab e0 10 3d a5 5a cd 3d
       -0.047498394 -0.28668702 0.03537051 0.10027055
000040 5e 6d 99 3c 6c 5e 7d 3d dc e4 ce bc b9 c0 e9 bc
       0.018728908 0.061857626 -0.025255613 -0.02853428
000050 39 2a 2c bd d6 7a fd 3c f1 c6 de 3d af 7f 10 3e
       -0.042032454 0.030942362 0.10877789 0.14111207
000060 98 e5 86 bc 84 dd 8b 3d 55 1b 3c be b4 d1 2d 3e
       -0.0164669 0.0682936 -0.18369801 0.16974527
000070 b5 74 04 3e ad 95 e6 bd 5c ba 29 3e 08 2f 11 3e
       0.12935145 -0.11259017 0.16574997 0.14178097
000080 84 6c 2e 3b ca b7 9a 3d 01 73 c7 3d 9c 8f 6d bd
       0.0026614973 0.07554586 0.09738732 -0.057998285
000090 ce 78 3d 3d 6d 93 81 be d7 f1 05 bd 42 7a d8 3b
       0.046257786 -0.2530779 -0.03270134 0.006606371
0000a0 7a 6f 14 be 53 db 8a 3c 40 6c ea bd f2 22 97 3c
       -0.1449565 0.016950285 -0.11446428 0.01844928
0000b0 a7 42 25 bd b5 80 cf be a8 09 8f be 7d 82 ca 3d
       -0.040346768 -0.40527883 -0.27937055 0.0988817
0000c0 6d 32 79 bd 15 32 8b be a3 7b 95 bd 97 23 00 be
       -0.060839105 -0.27186647 -0.072989725 -0.12513576
0000d0 e7 cf db bd bf 0c a9 be f0 64 ab 3b 56 45 5a bd
       -0.107330136 -0.33017537 0.0052305385 -0.05328878
0000e0 ad 12 fa bd 02 7a b0 bd e3 26 fe ba 3d ff b9 bc
       -0.122105934 -0.08617021 -0.0019390251 -0.022704715
0000f0 3a a8 af 3c a8 70 78 be 0c 78 24 be d6 19 25 be
       0.021442521 -0.24261725 -0.16061419 -0.16123137
000100 b7 ce 3a be 9e 7b b6 bd 2a ff 26 be 6a 48 3f be
       -0.18242918 -0.08910297 -0.16308275 -0.18679968
000110 3d d9 57 be 77 57 e2 bd 69 6a a7 bb 4f 3a 89 be
       -0.21078964 -0.11051839 -0.0051091206 -0.26802298
000120 27 ee 35 be 29 05 8f 3c a4 b1 bc bc 3d 14 eb bd
       -0.17766629 0.017458515 -0.023033924 -0.114784695
000130 32 42 35 bd 2f 22 0c be d6 95 49 bd 5d 66 89 3d
       -0.044252582 -0.13684915 -0.04921516 0.06708977
000140 2b b3 af bc 24 34 8b be 52 85 a8 3d 8f cd af bd
       -0.021447739 -0.27188218 0.08228554 -0.08584129
000150 bb cd 8b bd 96 5c 58 be 41 a7 a7 bd d0 21 72 be
       -0.06826349 -0.21129069 -0.08186198 -0.23645711
000160 6e ee 11 be 21 b4 c4 bd 84 2b 71 be 60 0b c1 bd
       -0.1425111 -0.09604669 -0.23551756 -0.09425998
000170 d7 cf 55 be 4f a9 d3 bd d9 e4 90 bb 71 8c 09 3d
       -0.20880066 -0.103350274 -0.004421812 0.0335812
000180 a1 4b 65 bd 11 19 38 bc bf a3 86 3c 40 16 dd 3b
       -0.05598033 -0.011236445 0.016435502 0.006747037
000190 62 f6 02 bd f0 e6 a1 bd 98 84 9a 3d 72 df ab bd
       -0.03197325 -0.07905376 0.075448215 -0.08392228
0001a0 cd 90 ad 3d 4e 58 97 3d 36 8e 3e 3e bb b8 40 3e
       0.08474884 0.0738989 0.18608937 0.18820469
0001b0 b0 25 78 3e e2 cc 83 3d f0 09 32 bd a6 3b 92 3d
       0.24233127 0.06435563 -0.04346651 0.07140283
0001c0 5f c7 4a 3d e3 bf 0a 3d 09 f3 31 be 8c c1 fd bd
       0.04950654 0.033874404 -0.17377867 -0.12390432
0001d0 9d ff 5d 3d 70 e8 3f be 6f 12 7a bd 03 42 b5 bd
       0.05419885 -0.18741012 -0.061052736 -0.08850481
0001e0 a2 5e f7 bc d9 81 5c 3d 91 99 02 bb d1 92 03 bc
       -0.030196492 0.05383477 -0.0019927958 -0.008030609
0001f0 7d 08 14 3d b8 1b 59 3d 77 97 ca bd 90 61 dd bd
       0.036140908 0.05300495 -0.09892171 -0.10809624
000200 c3 97 cc bc 14 d3 d3 3d b3 da 34 3e cd 0d 86 bd
       -0.02497471 0.10342994 0.17661552 -0.06545601
000210 58 fa 18 be 04 8a 96 bd 6c 37 c3 3d 52 1f c2 bc
       -0.14939249 -0.07350543 0.09532055 -0.023696575
000220 b4 fb c0 bd cb c3 08 3e 51 55 da 3c 1e 58 32 bc
       -0.094230086 0.13355939 0.02665201 -0.010885267
000230 2c 76 a0 bd 44 81 87 3d 43 de b9 bd 46 7a da 3c
       -0.078350395 0.06616452 -0.09075596 0.026669633
000240 26 df 1c 3d 9c 94 ee bd 6e bb ea 3d 52 5c 25 be
       0.03829875 -0.11649439 0.114615306 -0.16148499
000250 c6 19 23 be 30 dc 1e 3d 2f 18 ed 3d a3 5b 7d 3d
       -0.159278 0.038784206 0.11576878 0.06185497
000260 fa 47 4d be 29 79 55 3d f1 30 b4 3d 68 ce b7 bd
       -0.20046988 0.0521175 0.08798397 -0.08974916
000270 6e 9b dd 3d d7 12 aa be fc b5 5e 3b e8 a8 af 3c
       0.108206615 -0.332175 0.0033982983 0.021442845
000280 64 72 e2 bc cb 9a 82 bd ca 8e ae bd 3f b8 9a bc
       -0.027642436 -0.06377181 -0.085233286 -0.018886684
000290 ea ed fe 3d 7c 7c cb bd 2c 1f 27 3e 20 67 43 3c
       0.12447722 -0.09935853 0.16320485 0.011926442
0002a0 ea e3 c0 bc 48 a5 ca 3d 8b 39 88 be 31 05 14 3e
       -0.023546178 0.09894806 -0.26606402 0.14455105
0002b0 87 2c 01 bd 58 48 98 3c 25 4b 13 3e 27 b2 9d 3d
       -0.031536605 0.018589184 0.14384134 0.076999955
0002c0 73 32 a2 3d 4a 0a c2 3d 6c a7 5c 3a 67 5b f8 bd
       0.07919779 0.09474619 0.0008417282 -0.121268086
0002d0 a1 61 4b be ce de 9d be 9f c6 ce 3c 98 95 32 bd
       -0.19861461 -0.3083405 0.025241194 -0.043599695
0002e0 c2 99 bb bd e8 9a 9c ba 86 db 7a 39 ae 36 ad 3d
       -0.09160186 -0.0011948021 0.00023923637 0.08457695
0002f0 e4 bb a6 3d da 44 c3 be 2d 9f 82 be 23 5f eb bc
       0.08141306 -0.38138467 -0.25512066 -0.028731888

lstm.bias_hh_l1 f4 [192]
000000 68 d6 19 3d d6 ef 13 be 54 c7 33 bd c4 e2 2f be
       0.03755799 -0.14446959 -0.043891266 -0.17176348
000010 9d a7 9f 3c da cf ac 3c 1c 80 6f bd fb 07 8a 3c
       0.019489104 0.021095205 -0.058471784 0.016849509
000020 3b 1c ee bd 66 9f 98 bd b0 28 06 be 6b c7 03 3e
       -0.11626478 -0.07452278 -0.13101459 0.1286904
000030 fd 37 25 3e 5a c0 95 be 1e 66 23 be 82 b6 33 bd
       0.16134639 -0.29248315 -0.15956923 -0.043875225
000040 c9 40 09 3c 98 c2 6e 3d 73 83 8b bd f9 21 d0 bc
       0.008377262 0.058291048 -0.06812181 -0.025406824
000050 1c 19 11 3c bb b4 a7 bd 59 85 41 3e 2d 71 56 bd
       0.008856084 -0.081887685 0.18898524 -0.052354027
000060 0e f4 f0 bd f2 57 55 3d 07 e3 9c be b3 82 92 3e
       -0.117653 0.052085824 -0.30641958 0.2861534
000070 76 97 5a 3d 2c c3 60 3d 77 54 04 3e d7 af 41 3d
       0.0533671 0.05487363 0.12922846 0.047286835
000080 18 a8 0e 3d bc 99 8c bd e2 be 59 bc ee df 29 3e
       0.034828275 -0.0686526 -0.013290139 0.16589329
000090 9c 38 2c be c1 5a 3f be d1 15 88 3d a7 dd dd 3b
       -0.1681847 -0.18686964 0.06644786 0.006770808
0000a0 e7 02 77 bc 3b 67 77 bd d2 80 8c 3d 28 b7 b9 3c
       -0.015076376 -0.060401183 0.06860508 0.022670344
0000b0 c9 ef 31 bd ac 54 90 be a8 be ad be 65 75 42 bd
       -0.043441568 -0.281896 -0.33934522 -0.047475237
0000c0 db 6e 32 be 75 a7 e5 bd 67 14 f5 bd 8f ad 5f be
       -0.174251 -0.112135805 -0.11966782 -0.21843551
0000d0 2e 31 fc 3d ce bc 5c be 92 16 c9 3d c2 85 ac bb
       0.12314068 -0.21556398 0.09818758 -0.0052649686
0000e0 26 29 a0 3c d2 8e 2b bc cc b3 63 bd 9d 9e e4 3d
       0.019550871 -0.010471063 -0.05559139 0.111630656
0000f0 dd d1 95 3d 3e 70 d9 bd e6 53 00 be 89 d5 c0 bd
       0.07315419 -0.106171116 -0.12532005 -0.094157286
000100 9c d3 60 be f8 20 3a be d9 17 41 be 8b 8d 3c be
       -0.21955723 -0.18176639 -0.18856753 -0.1841337
000110 cd f2 c1 bd 3f 82 a2 bd ef 15 57 3c e8 81 8f be
       -0.09470139 -0.07934999 0.013127788 -0.28028798
000120 62 b8 40 be 25 3b 8e bd 77 eb 9e bd 39 89 59 3d
       -0.18820336 -0.06944875 -0.07759755 0.05310938
000130 46 f6 3d be d5 46 df bd 75 88 99 bd b0 86 a0 bd
       -0.18550977 -0.10902182 -0.0749673 -0.078381896
000140 c7 fc 05 be 57 57 83 bd 29 43 ab bd 2c 88 c2 bc
       -0.13084708 -0.06413143 -0.08362419 -0.023746572
000150 66 cb a2 3c f1 59 34 bd e3 7a f5 bd b3 02 d2 3c
       0.019872379 -0.044031087 -0.119863294 0.025636053
000160 0b dd 28 be ea f7 8a bd 0f 1b 32 be 45 94 1a 3d
       -0.16490571 -0.06785567 -0.17393135 0.037739057
000170 9c 17 16 bd fc d5 1f be 9c 8c df bd 5c 94 19 be
       -0.03664361 -0.15608972 -0.10915491 -0.14998001
000180 5c 49 2b bd 05 ae 97 3c 46 f2 d3 bd f3 c4 83 bc
       -0.041818008 0.018515596 -0.10348944 -0.016085124
000190 6c ed bb 3d 19 db 2d bd ff e4 5c 3e f6 bc c2 3d
       0.09176144 -0.042445276 0.2157173 0.09508698
0001a0 8b fb a4 3d 16 4e 4a 3e 86 63 90 3d b7 ce 48 3e
       0.080557905 0.1975635 0.070502326 0.19610105
0001b0 c3 db 57 3e 61 6f d6 3c 00 51 35 bd 77 66 1b be
       0.21079926 0.026176156 -0.0442667 -0.15175806
0001c0 7c fd a6 bd d6 63 29 3e 8c 5b 44 3d 88 db d1 3d
       -0.08153817 0.1654199 0.04793887 0.102469504
0001d0 94 22 1c be 1d cc 91 bd de cf 3f 3d a8 8c 11 3e
       -0.15247566 -0.0711901 0.046829097 0.14213812
0001e0 73 ee 14 be e5 78 85 3d 04 4c 9a bd dd 0e 04 3e
       -0.14544086 0.065171994 -0.0753403 0.12896295
0001f0 8e 21 54 3c 1d b9 52 3d 1b 78 b7 3c 25 ac 2f be
       0.012947453 0.05144607 0.022396138 -0.17155512
000200 0e 88 ad bd e5 38 02 bd c1 3f 30 3e d1 38 0f be
       -0.08473216 -0.03179254 0.1721182 -0.13986517
000210 63 e0 bb 3d 6c 4f 1e 3e 8d a3 05 be 75 1f 01 3d
       0.09173658 0.15459985 -0.13050671 0.03152414
000220 6e 53 dd 3c 28 4f 0e 3c 74 0d b1 3d 0c 24 93 3d
       0.027017321 0.0086858645 0.08645144 0.0718461
000230 1b 49 12 3b 65 d8 99 ba 19 ff db 3d 38 33 cb 3d
       0.0022321406 -0.0011737464 0.107420154 0.099218786
000240 17 97 94 bd 67 1b e4 bd 55 5e fe 3c bd c2 de bd
       -0.072553806 -0.11138039 0.03105084 -0.10876987
000250 8a c5 99 3d ab 5a 67 3d 59 80 39 bc ec 38 c2 3d
       0.07508381 0.056482952 -0.011322104 0.09483513
000260 f7 95 8e bd cc 54 52 3d 5d 54 b0 3d 5d 69 0c bd
       -0.06962197 0.0513504 0.08609841 -0.03428017
000270 24 4f 02 be f3 d3 26 be e7 45 2f be fd 85 54 bd
       -0.12725502 -0.1629179 -0.1711651 -0.051885594
000280 00 30 fe bc 80 ac d6 3d da 6a 40 bc 1d 03 f8 bd
       -0.031028748 0.104821205 -0.011744225 -0.12109969
000290 18 ad ae bd 9c 7d 16 3d 25 f7 0b 3e b4 01 db bc
       -0.08529109 0.036740884 0.13668497 -0.02673421
0002a0 87 a0 92 3d a7 79 23 3e a3 f3 77 be b2 ad e5 3d
       0.071595244 0.15964375 -0.24214034 0.112147704
0002b0 2b b8 56 bd 0a 0e 78 bd 8a 3c 7d 3e c7 b0 2f be
       -0.05242173 -0.060560264 0.24730125 -0.17157279
0002c0 0a 0d ac 3c ba 40 01 3e 9d 22 a5 bc ee ca e4 3d
       0.021002311 0.12622347 -0.020158106 0.11171518
0002d0 fb 74 31 be 53 2e 9e be 8f 10 db bd 56 ca 30 3c
       -0.17329781 -0.30894718 -0.10696518 0.010790428
0002e0 1b 4e 60 bd 38 6f cc bd 4f 93 1d be c3 d2 c7 bd
       -0.054761987 -0.09982151 -0.15388225 -0.097569965
0002f0 93 39 1a bd f8 d3 d9 be d9 ca 8e be dc 1b 61 bd
       -0.037652563 -0.42544532 -0.27889135 -0.05495821
