cheakpoint/training_epochs_80_stepsize_7_gamma_0.75/model_epoch50.pth (torch, 117569 bytes, 10 tensors)

lstm.weight_ih_l0 f4 [192, 2]
0	0x3ea42c1f	0.32064912
1	0x3f05a00c	0.5219734
2	0xbe909e2b	-0.28245673
3	0xbe65bb74	-0.22434789
4	0x3e68de96	0.2274116
5	0x3e4ff261	0.20307304
6	0x3d836953	0.064165734
7	0x3de72f03	0.11288264
8	0x3e3288b0	0.17434955
9	0x3d1adebf	0.037810083
10	0x3b63a78b	0.0034737315
11	0x3e22c6ac	0.158961
12	0xbe3968bc	-0.18106359
13	0x3cbe1aee	0.0232062
14	0xbe913e76	-0.28367966
15	0xbe8b1f57	-0.27172348
16	0x3e0dfc56	0.1386579
17	0x3e83fd5e	0.2577924
18	0x3d4a156c	0.049336836
19	0x3dd3b4de	0.10337232
20	0xbda6e0e4	-0.08148363
21	0x3da8bb72	0.08238877
22	0x3eda338b	0.4261745
23	0x3e634b77	0.22196756
24	0xbae96d35	-0.0017809035
25	0x3ea217fd	0.31658927
26	0xbeb881c4	-0.36036503
27	0xbea12270	-0.31471586
28	0x3df6b385	0.120459594
29	0xbdba37a9	-0.090926476
30	0x3d95c932	0.073137656
31	0x3cc2bb44	0.023770936
32	0x3c8306c6	0.01599444
33	0x3e232512	0.1593211
34	0xbd56c8b9	-0.052437518
35	0x3ddd24f5	0.107980646
36	0x3dc6e1de	0.097110495
37	0xbd9e7a78	-0.07738203
38	0x3e26f8ea	0.1630589
39	0x3cb6d5a6	0.022318672
40	0x3d1e0e71	0.03858799
41	0xbe2fac20	-0.17155504
42	0xbe50af07	-0.20379268
43	0x3dba2bf8	0.090904176
44	0x3eba0243	0.3632985
45	0x3e7387e8	0.23782313
46	0xbd5c811b	-0.053834062
47	0xbe296988	-0.16544163
48	0x3e61f36b	0.22065513
49	0x3e36f6f6	0.17867646
50	0xbe572f97	-0.21014248
51	0xb97f5804	-0.00024351483
52	0xbef26ef8	-0.47350287
53	0xbe560943	-0.2090197
54	0x3d4215b2	0.04738397
55	0xbd8f5249	-0.069981165
56	0x3d7e8cdd	0.062146056
57	0x3e97ec76	0.29672593
58	0xbeaa764e	-0.33293384
59	0xbe2b7c00	-0.16746521
60	0x3d17010c	0.036866233
61	0x3d9ce635	0.07661096
62	0xbe3c6087	-0.18396197
63	0x3d9ece75	0.07754222
64	0xbe0ec7bf	-0.13943385
65	0x3d6c136a	0.057635702
66	0xbe9d50cd	-0.3072571
67	0xbeafac84	-0.34311306
68	0xbe81547f	-0.25259778
69	0xbd3b73b5	-0.045764644
70	0x3ce61986	0.028088342
71	0x3dde7f88	0.108641684
72	0xbe52f420	-0.20600939
73	0xbea0d995	-0.31416002
74	0x3e466abc	0.19376653
75	0x3e2cb88c	0.16867274
76	0x3e041e8d	0.12902279
77	0xbda147b9	-0.07875008
78	0x3e2d3505	0.16914757
79	0xbd9997be	-0.07499646
80	0x3e4619fe	0.19345853
81	0x3e813643	0.2523671
82	0xbe170f16	-0.14751849
83	0x3b39c52f	0.002834629
84	0x3defc0d9	0.11706705
85	0x3cce9b0e	0.02522042
86	0xbe62145d	-0.2207808
87	0xbeab06b5	-0.33403555
88	0xbf090e97	-0.5353789
89	0xbcdb176d	-0.026744569
90	0xbe9ca456	-0.30594128
91	0xbe66a077	-0.2252215
92	0x3e5565e0	0.20839643
93	0x3e95dfdb	0.2927235
94	0x3ea3d1bf	0.3199596
95	0x3d414c63	0.04719199
96	0x3dc2e87e	0.095170006
97	0x3d9950f7	0.07486146
98	0xbe8eb061	-0.2786894
99	0xbebbc1bb	-0.36671242
100	0x3e5d1b80	0.21592522
101	0x3e4a67f8	0.19766223
102	0xbe65244f	-0.22377132
103	0x3d592995	0.05301817
104	0x3dfaff61	0.12255741
105	0xbe8ef674	-0.27922404
106	0xbb51ff33	-0.003204298
107	0x3d4c99b0	0.049951255
108	0xbe310b03	-0.17289357
109	0xbe2c1853	-0.16806154
110	0xbe4d7248	-0.20063126
111	0xbe2d6b44	-0.1693545
112	0x3da2dd09	0.07952315
113	0xbd762add	-0.06009947
114	0xbdd3ed9c	-0.10348055
115	0x3c8b7f59	0.017028498
116	0x3d9a05fa	0.07520671
117	0x3e9dae2e	0.3079695
118	0x3e7e4f4b	0.24834935
119	0x3e9c00e1	0.3046942
120	0xbec0f43c	-0.37686336
121	0xbd918eb0	-0.071072936
122	0xbe1354b6	-0.14387783
123	0xbe43db7d	-0.19126697
124	0xbdf3b36d	-0.11899457
125	0x3e37bbc5	0.17942722
126	0x3e85b308	0.26113153
127	0x3d5d71c2	0.054063566
128	0xbe0d182b	-0.1377875
129	0xbe0c9c8d	-0.13731594
130	0xbe3090da	-0.17242756
131	0xbd9edcf5	-0.07756988
132	0xbda06611	-0.078319676
133	0xbdf699e0	-0.12041068
134	0xbdfc833d	-0.12329719
135	0x3dda6157	0.10663097
136	0x3e564ff3	0.20928936
137	0x3e099b08	0.13438046
138	0xbdeb5c99	-0.11492271
139	0xbde5bfd8	-0.11218232
140	0xbc979dd7	-0.018507881
141	0x3d816a7a	0.06319137
142	0x3e5a11e7	0.21295892
143	0x3e59ef33	0.21282654
144	0x3e0c14a5	0.1367975
145	0xbc8e65cb	-0.017382523
146	0x3d618036	0.055053912
147	0x3a795454	0.0009511162
148	0xbeb979f7	-0.36225864
149	0x3c5718ee	0.013128502
150	0xbd3e0682	-0.046392925
151	0x3c0d5a13	0.008627432
152	0xbdf0b5ac	-0.11753401
153	0x3eac1699	0.3361099
154	0xbe79f985	-0.2441159
155	0xbe113c7b	-0.14183228
156	0x3d647442	0.055774935
157	0xbce2741a	-0.027643252
158	0xbe30a567	-0.17250596
159	0x3d9b1eca	0.07574232
160	0xbde96d2d	-0.11397777
161	0x3caa2663	0.020770257
162	0xbea19b7e	-0.31563944
163	0xbe35b0f6	-0.17743286
164	0xbd56337a	-0.052295186
165	0xbd2f585a	-0.042808868
166	0x3eb5a453	0.35476932
167	0x3e486009	0.19567885
168	0xbe4d2791	-0.20034625
169	0xbe1cf081	-0.1532612
170	0x3e234550	0.1594441
171	0x3d7eb03a	0.06217978
172	0x3de982a4	0.11401871
173	0xbbf646f3	-0.007515782
174	0xbe08d3a5	-0.13361986
175	0x3d7f03c8	0.062259465
176	0x3e802583	0.2502862
177	0x3e4fcaea	0.2029225
178	0xbe82e97c	-0.2556876
179	0x3cbcf2c1	0.023064973
180	0xbd65705e	-0.056015365
181	0x3e2a6429	0.1663977
182	0xbe18d67f	-0.14925574
183	0xbdaa7aa2	-0.083241716
184	0xbe98accc	-0.29819334
185	0xbd972768	-0.07380563
186	0xbdba666d	-0.091015674
187	0xbbe586b1	-0.007004582
188	0xbe0b8186	-0.13623628
189	0x3e30d398	0.17268217
190	0x3e4331a3	0.19061904
191	0x3da56f0f	0.08077823
192	0xbec1f763	-0.37884054
193	0x3efd9359	0.4952648
194	0x3d9ea67b	0.077465974
195	0x3e3f0ade	0.18656489
196	0x3e640e7d	0.22271152
197	0x3eacf829	0.3378308
198	0x3eb1bdae	0.34715027
199	0x3e8fad39	0.28061846
200	0xbebcbd62	-0.36863238
201	0x3ea0cc4e	0.31405872
202	0xbe396247	-0.18103896
203	0x3ec295d0	0.38004923
204	0x3c4ca4fa	0.012490505
205	0x3e1ec832	0.15506056
206	0x3c6b2380	0.014351726
207	0xbe3a15a3	-0.18172316
208	0x3ef80a49	0.48445347
209	0xbdc033ef	-0.093849055
210	0x3ee589cd	0.44831696
211	0x3da11257	0.07864826
212	0x3cce1d37	0.025160415
213	0x3e5fe773	0.21865635
214	0xbec3c661	-0.3823729
215	0xbec08ee6	-0.37609023
216	0xbeebd4d9	-0.46060827
217	0xbd24db4f	-0.04024821
218	0x3dd7c0a2	0.10534789
219	0xbe0f009b	-0.13965075
220	0xbd98eb12	-0.07466711
221	0x3eadef43	0.33971605
222	0x3e41c770	0.18923736
223	0x3eb91303	0.36147317
224	0x3ebf7cad	0.37399808
225	0xbc6e3407	-0.0145387715
226	0xbe8ae1da	-0.27125436
227	0x3e846792	0.25860268
228	0xbe363305	-0.177929
229	0xbe42acb8	-0.190112
230	0x3d395afe	0.045252793
231	0x3efcc3ac	0.49368036
232	0x3de60877	0.11232083
233	0x3e3e791b	0.18600886
234	0x3e1a7572	0.15083864
235	0xbde02d6b	-0.10946163
236	0xbeb09f8d	-0.34496728
237	0xbea10c9c	-0.31454933
238	0x3e7419ed	0.23838015
239	0xbe604140	-0.21899891
240	0x3ded61cb	0.11590918
241	0x3eb8dfa4	0.36108124
242	0xbdd723ca	-0.10504873
243	0xbe9f4651	-0.31108335
244	0x3e99e168	0.30054784
245	0x3e6456ba	0.22298709
246	0xbd5f1cdf	-0.054470893
247	0xbeb633dd	-0.35586444
248	0x3edfb2d5	0.43691126
249	0x3dfb1463	0.12259748
250	0x3e795305	0.24348076
251	0x3e1106c5	0.14162739
252	0x3ebe48ce	0.3716492
253	0xbd975880	-0.07389927
254	0x3e8e8e94	0.27843153
255	0x3e44e7a3	0.19228987

lstm.weight_hh_l0 f4 [192, 48]
0	0xbe1a7d0d	-0.15086766
1	0x3b5ec208	0.0033990163
2	0x3ebf7e75	0.37401167
3	0x3cae39ce	0.021267798
4	0xbe87295e	-0.26398748
5	0xbe44a476	-0.19203362
6	0xbdfceaae	-0.12349449
7	0x3c7a91ae	0.015293522
8	0x3c7ae6ca	0.015313813
9	0x3e1cbab6	0.153056
10	0xbe92beca	-0.28661186
11	0xbe500455	-0.20314153
12	0xbd05164f	-0.03249198
13	0x3e07bf4a	0.13256565
14	0x3db80638	0.08985561
15	0x3e80180b	0.25018343
16	0x3e36a7f9	0.17837514
17	0x3d02bf48	0.0319207
18	0xbe6a75fc	-0.2289657
19	0x3b8345a4	0.0040061045
20	0x3e0bf8c1	0.13669111
21	0xbcbd6c72	-0.023123
22	0xbe26b54b	-0.16280095
23	0x3e71bafc	0.23606485
24	0x3c1bf51b	0.009518887
25	0x3dcb4347	0.099249415
26	0x3d32d0fd	0.043656338
27	0xbe19274a	-0.14956394
28	0x3c91f660	0.017817676
29	0x3eac89ce	0.33698887
30	0x3e926456	0.28592175
31	0x3ea9df5f	0.3317823
32	0x3c82b5f0	0.015955895
33	0xbe335175	-0.17511542
34	0xbeaab3f3	-0.33340415
35	0x3e6a49e3	0.22879748
36	0x3d92d74d	0.071699716
37	0xbdc25958	-0.09489697
38	0x3ec283ff	0.3799133
39	0x3e74ee83	0.2391911
40	0xbe9ec8d1	-0.31012586
41	0x3d20cf6f	0.039260324
42	0x3e74f92b	0.23923175
43	0xbe719902	-0.23593524
44	0x3e68b31f	0.2272458
45	0x3e49d18d	0.19708844
46	0x3d1723ba	0.036899306
47	0xbed3a1dc	-0.41334426
48	0xbd052d2d	-0.032513786
49	0xbb074666	-0.0020641326
50	0xbc660bb4	-0.014040876
51	0xbd9c53da	-0.07633181
52	0x3e901188	0.28138375
53	0x3d96d70a	0.07365234
54	0xbe2b4c04	-0.16728216
55	0x3ce6b8b2	0.028164241
56	0xbe0449af	-0.12918733
57	0x3d8d8f51	0.06912101
58	0x3da1cad7	0.07900017
59	0x3ead3786	0.33831424
60	0xbc559b07	-0.01303745
61	0xbd5dbe6f	-0.05413669
62	0xbcb004bb	-0.02148663
63	0x3e22fa61	0.15915824
64	0x3d500943	0.050790083
65	0xbd8dd6c8	-0.06925732
66	0x3e5b558d	0.21419354
67	0xbc7698ff	-0.015051126
68	0xbd627e62	-0.05529631
69	0xbb7fbd5d	-0.0039022781
70	0x3db17657	0.0866515
71	0xbdc91940	-0.09819269
72	0x3a204da8	0.00061150873
73	0xbd40b897	-0.04705104
74	0x3e8be21f	0.27320954
75	0x3b23bba0	0.002498366
76	0xbdf739c3	-0.12071564
77	0x3e4b4f43	0.19854455
78	0xbdfdea29	-0.12398178
79	0xbdd40b7e	-0.103537545
80	0x3e5bc365	0.21461256
81	0xbe10ccb1	-0.14140584
82	0xbe55a481	-0.20863535
83	0x3cb2c277	0.021821244
84	0xbc6a7df3	-0.014312255
85	0x3e274d30	0.16338038
86	0xbe352501	-0.17689897
87	0xbd640083	-0.05566455
88	0x3e8d2edc	0.27574813
89	0x3ddb6426	0.10712461
90	0xbd9eb36d	-0.077490665
91	0xbcbab2b7	-0.022790296
92	0xbcbf5caf	-0.023359625
93	0x3dd206a9	0.102551766
94	0xbe733bc7	-0.23753272
95	0x3dd1750f	0.10227405
96	0x3e8646b5	0.2622582
97	0x3d801afb	0.06255146
98	0xbda80f22	-0.08206011
99	0xbe9619c4	-0.29316533
100	0x3dc19324	0.09451893
101	0xbe4f403a	-0.20239344
102	0x3cf03717	0.029323144
103	0xbc9c1893	-0.019054687
104	0xbdd44690	-0.10365021
105	0xbe04fff2	-0.1298826
106	0xbd0d7b7a	-0.034541585
107	0x3de3a1f0	0.111148715
108	0x3d4fac5c	0.050701484
109	0x3b20b36f	0.0024521013
110	0xbdf6a691	-0.12043489
111	0x3e1f8290	0.1557715
112	0xbe6c129e	-0.23053977
113	0x3d3693d9	0.044574592
114	0xbcac630e	-0.021043327
115	0xbe6ea361	-0.23304512
116	0x3c37a794	0.011209387
117	0xbe5d44f8	-0.2160834
118	0xbe11945a	-0.14216748
119	0x3e4552c3	0.19269852
120	0x3cfa828e	0.030579831
121	0x3db86d36	0.09005205
122	0xbeb072b1	-0.34462503
123	0x3d8e65de	0.069530234
124	0xba8e88af	-0.0010874475
125	0x3da09469	0.07840807
126	0xbdba5160	-0.09097552
127	0xbc4f80cb	-0.012664984
128	0x3e5fd4a4	0.2185846
129	0xbe6068e5	-0.21915014
130	0xbe049553	-0.12947588
131	0xbe2c25cd	-0.16811295
132	0xbb9ba192	-0.0047494853
133	0xbb8add4a	-0.0042378055
134	0xbd97ab3e	-0.07405709
135	0x3d632126	0.055451535
136	0xbdb4a400	-0.08820343
137	0xbe08f890	-0.13376069
138	0x3d215874	0.039390996
139	0x3e5c42fa	0.21509925
140	0x3e8a26d2	0.26982743
141	0xbd0613da	-0.032733776
142	0x3e076f32	0.13226011
143	0xbd590bc3	-0.052989732
144	0x3e9e56dd	0.30925646
145	0x3e4d5d50	0.20055127
146	0x3c3ea0b1	0.0116349915
147	0xbd1afe65	-0.037840266
148	0x3e98bf04	0.29833233
149	0x3e1c90e3	0.15289645
150	0x3e1fc458	0.15602243
151	0xbe7e9370	-0.2486093
152	0xbec795ae	-0.38981384
153	0xbeb755f9	-0.3580778
154	0x3e751e1c	0.23937267
155	0xbc4ad4da	-0.012379849
156	0x3edc5791	0.43035558
157	0xbdf4d287	-0.119542174
158	0xbdc68258	-0.0969283
159	0xbe016daf	-0.12639497
160	0xbe761df1	-0.24034859
161	0x3c3c2a0e	0.011484636
162	0x3e0b11e2	0.1358104
163	0x3d83a7da	0.064284995
164	0x3e4c331c	0.19941372
165	0xbdd449fb	-0.10365673
166	0x3e18e6cf	0.14931796
167	0x3ed9cabc	0.42537487
168	0xbe1d8978	-0.15384471
169	0x3e4f24af	0.20228837
170	0xbdfdbc57	-0.123894386
171	0xbd47a084	-0.048737064
172	0xbe8183a7	-0.25295755
173	0x3e44b4f3	0.19209652
174	0xbe454ba1	-0.19267131
175	0x3e95d34b	0.29262766
176	0x3cae7f45	0.021300921
177	0xbe08a2f4	-0.13343412
178	0xbe53958b	-0.20662515
179	0xbe81a92e	-0.25324386
180	0x3e79fc36	0.24412617
181	0x3ed38659	0.41313437
182	0xbd33664d	-0.043798734
183	0xbd407a7f	-0.04699182
184	0x3cfd81dd	0.030945713
185	0x3d7ff7d2	0.0624922
186	0xbde0054d	-0.10938511
187	0xbdfe43c1	-0.12415267
188	0x3e33c76f	0.17556547
189	0x3e96f982	0.29487234
190	0x3e83fc18	0.2577827
191	0x3dc1f57b	0.0947065
192	0x3cce9c1f	0.025220929
193	0x3df80b86	0.12111573
194	0x3e93936c	0.2882341
195	0x3e825acd	0.254599
196	0xbe03cb14	-0.12870437
197	0x3e4dd0b1	0.2009914
198	0x3d478e2d	0.048719574
199	0xbd17802f	-0.03698748
200	0x3cafaf9f	0.021446047
201	0xbc76454a	-0.015031168
202	0x3d44ef2f	0.048079666
203	0x3dc0af10	0.094083905
204	0xbdd2b5c3	-0.102885745
205	0x3c6f9ef3	0.014625299
206	0x3dc354b5	0.09537641
207	0x3e8b15f3	0.27165183
208	0x3d843985	0.064562835
209	0x3d7f5d72	0.062344976
210	0x3c12bd14	0.008956213
211	0x3eb06cee	0.34458107
212	0x3e5bfd99	0.21483459
213	0xbde34a4c	-0.110981554
214	0xbe2a5fd6	-0.16638121
215	0x3d4e2e9d	0.050337423
216	0xbd6e13e8	-0.058124453
217	0x3d3218fd	0.043480862
218	0x3ee8144d	0.45327988
219	0xbeb3ab37	-0.35091564
220	0xbc9ee1d5	-0.019394794
221	0x3ee8ef3c	0.4549502
222	0xbdbc5c91	-0.09197343
223	0x3e3c1415	0.18367036
224	0xbdd1bd00	-0.10241127
225	0xbdaa7c87	-0.08324533
226	0xbe493032	-0.19647291
227	0x3d87aaa3	0.06624343
228	0x3e39096f	0.18070005
229	0xbe1bc8e6	-0.15213355
230	0x3dd00698	0.10157508
231	0x3e462328	0.19349349
232	0x3b864e92	0.004098722
233	0x3de67bab	0.112540565
234	0x3da4225f	0.08014368
235	0xbe2f46c3	-0.17116837
236	0xbe282065	-0.16418608
237	0x3ec16e12	0.3777929
238	0xbd938905	-0.07203869
239	0xbdc9c000	-0.09851074
240	0xbb5a1f30	-0.003328275
241	0x3e4de386	0.20106325
242	0x3e589fcb	0.21154706
243	0x3e5a788c	0.21335047
244	0x3c1299fc	0.008947846
245	0xbe37aae3	-0.17936282
246	0xbe598399	-0.21241607
247	0xbdfcb76e	-0.12339674
248	0x3e9c17b3	0.3048683
249	0x3de7428b	0.11291989
250	0x3d235b98	0.039882272
251	0xbe366333	-0.17811279
252	0xbdc99129	-0.0984214
253	0x3e27211a	0.16321221
254	0xbe1fb3c8	-0.15595925
255	0x3e15227d	0.14563937

lstm.bias_ih_l0 f4 [192]
0	0x3f1501a4	0.5820563
1	0xbe8b380f	-0.27191207
2	0xbdb646ff	-0.0890026
3	0x3d06f02b	0.032943886
4	0x3b750169	0.0037384874
5	0xbd46d67e	-0.0485444
6	0xbe6c9f26	-0.23107585
7	0xbe015e7f	-0.12633704
8	0x3ecd899c	0.4014405
9	0x3e93e5f5	0.2888638
10	0xbe5e9cf0	-0.21739554
11	0x3e1d6880	0.15371895
12	0x3ea0feaa	0.31444293
13	0xbe5e9196	-0.21735224
14	0xbb08bdec	-0.0020865155
15	0x3dc67a3d	0.09691284
16	0xbd9605d6	-0.07325332
17	0x3d6441b4	0.055726722
18	0x3b8a0bb6	0.004212822
19	0x3dae12e2	0.08499695
20	0xbd95ded3	-0.07317891
21	0xbe7ba134	-0.24573213
22	0x3e897c84	0.2685281
23	0x3e17ea98	0.14835584
24	0xbccc22e6	-0.024918985
25	0x3cc987a7	0.024600817
26	0xbdd3840b	-0.103279196
27	0x3d11f962	0.03563822
28	0xbbf9aaa3	-0.0076192184
29	0xbe6d6e4f	-0.2318661
30	0x3d8e6c58	0.06954259
31	0x3ca3ebc3	0.02000988
32	0xbe801845	-0.25018516
33	0xbe773da3	-0.24144606
34	0xbd858a68	-0.065205395
35	0x3d0c8b3e	0.03431248
36	0x3dcf1101	0.10110665
37	0x3ddc6fab	0.107634865
38	0xbd265149	-0.040604863
39	0x3b61d47e	0.003445893
40	0x3d7f82e2	0.06238068
41	0xbccd4a8b	-0.025059959
42	0x3d926d0d	0.07149706
43	0xbe9a95eb	-0.30192503
44	0xbeae0704	-0.33989727
45	0xbe83c54f	-0.25736472
46	0x3da8f4f3	0.08249845
47	0x3ce8861d	0.028384263
48	0x3e165c80	0.14683723
49	0xbebe584b	-0.37176737
50	0x3d047a35	0.03234311
51	0xbe47cb6c	-0.19511193
52	0xbd10d411	-0.035358492
53	0xbe576b12	-0.21036938
54	0xbe8aee4b	-0.27134928
55	0xbddb51ac	-0.10708937
56	0xbd1b8330	-0.037966907
57	0xbd8bd45a	-0.06827612
58	0x3d9fbf5d	0.078001715
59	0xbd80aa9e	-0.06282543
60	0xbda54596	-0.08069913
61	0xbe7d5bcc	-0.24742049
62	0xbd288b81	-0.041148666
63	0x3ec12adb	0.3772801
64	0xbe27f226	-0.16400966
65	0xbe5bd70c	-0.21468753
66	0xbdf8a47f	-0.1214075
67	0x3dbd68f3	0.09248533
68	0xbe2a8d2d	-0.16655417
69	0xbdc9661a	-0.098339275
70	0xbdf828b6	-0.1211714
71	0x3eaaa7d4	0.33331168
72	0x3d88e692	0.06684603
73	0xbbb02213	-0.0053751557
74	0x3ded6c73	0.11592951
75	0x3d92f64b	0.07175883
76	0xbdbecea8	-0.0931676
77	0x3c6d0f22	0.01446894
78	0xbe299062	-0.16558984
79	0x3d9d808b	0.07690533
80	0xbe5fd61a	-0.21859017
81	0xbe19135f	-0.14948796
82	0x3c92a364	0.017900176
83	0x3e5f9553	0.21834306
84	0x3dd1a797	0.10237043
85	0xbe473ccb	-0.19456784
86	0xbe37fec2	-0.17968276
87	0xbe043bb0	-0.12913394
88	0xbe156566	-0.14589462
89	0xbe329fdf	-0.17443798
90	0xbe2ddc7c	-0.1697864
91	0xbe4b2f41	-0.19842245
92	0x3db796e8	0.0896433
93	0xbe431f3c	-0.19054884
94	0xbdcd9821	-0.10038782
95	0x3b8b4f55	0.0042514005
96	0xbd99cf28	-0.07510215
97	0xbdc5f717	-0.09666269
98	0xbd36c0b6	-0.044617377
99	0xbe0f3247	-0.13984023
100	0x3dd3caf1	0.103414424
101	0xbe25fe7c	-0.1621036
102	0xbd64f148	-0.055894166
103	0x3d99bcff	0.07506751
104	0xbd9420f0	-0.07232845
105	0xbde2a33c	-0.11066291
106	0xbdd3feda	-0.103513435
107	0x3db0c4a3	0.086312555
108	0x3ddaa5c8	0.106761515
109	0x3cc21f65	0.02369661
110	0x3d4b513a	0.04963801
111	0xbe00cf30	-0.12579036
112	0xbdd44d8c	-0.103663534
113	0xbba4633e	-0.0050167134
114	0x3db4fe13	0.08837523
115	0xbe33cc99	-0.17558517
116	0xbca958f2	-0.020672295
117	0x3d4e260d	0.050329257
118	0x3d339e6a	0.043852247
119	0xbe14a421	-0.14515735
120	0xbe5e849f	-0.21730278
121	0x3e1f77e6	0.15573081
122	0xbe099722	-0.13436559
123	0x3e14d878	0.14535701
124	0xbe2556b3	-0.16146354
125	0xbe14fe32	-0.14550093
126	0xbd460810	-0.048347533
127	0xbdf93f22	-0.12170245
128	0x3dca7f59	0.09887571
129	0x3d1d7f75	0.03845163
130	0x3dad6b03	0.084676765
131	0xbd2189a3	-0.0394379
132	0xbd63a7fa	-0.055580117
133	0x3d0b6aac	0.034037277
134	0xbda5e8d6	-0.081010506
135	0xbe2aa643	-0.16664986
136	0x3d43c82e	0.047798328
137	0x3dea32b4	0.11435452
138	0xbe649caf	-0.22325395
139	0xbc957553	-0.018244421
140	0xbd539953	-0.051659893
141	0xbd3e1c94	-0.046413973
142	0xbd24ec2c	-0.040264294
143	0x3ccc05ab	0.024905046
144	0x3ebab8f9	0.36469248
145	0xbec55823	-0.38543805
146	0xbdd45c4d	-0.103691675
147	0xbd47c206	-0.04876902
148	0x3c9c2b30	0.019063562
149	0x3e3edc6f	0.18638776
150	0xbe2d46fb	-0.16921608
151	0xbebae9c7	-0.36506483
152	0x3e5d758f	0.21626876
153	0x3e24eac7	0.16105185
154	0x3c27a5b7	0.010232381
155	0x3da8c910	0.08241475
156	0x3e7f19f9	0.24912252
157	0xbeb3836d	-0.35061207
158	0xbc9828d0	-0.018574148
159	0x3d47c3ef	0.04877084
160	0x3d763643	0.06011034
161	0x3d10b503	0.035328876
162	0x3c9e7a98	0.019345567
163	0x3eb5ade9	0.35484245
164	0xbe087be0	-0.13328505
165	0xbe2d898b	-0.16947
166	0x3ea70a94	0.32625258
167	0x3e5985a7	0.2124239
168	0x3d9657ab	0.0734094
169	0xbdb6e88e	-0.08931075
170	0xbe05c5e5	-0.13063772
171	0x3d52e86f	0.051491197
172	0x3e15b1a2	0.14618543
173	0xbc5443f2	-0.012955653
174	0x3d2097f8	0.03920743
175	0xbdb02338	-0.086004674
176	0xbe4dde5d	-0.20104356
177	0xbe9803d0	-0.2969041
178	0xbe1897be	-0.14901635
179	0xbde0eaf1	-0.109823115
180	0x3d536670	0.051611364
181	0x3d9c72bf	0.076390736
182	0xbe620ebb	-0.22075932
183	0x3e168070	0.14697433
184	0x3c6b8e49	0.014377185
185	0xbd68c089	-0.05682424
186	0xbd82e25d	-0.063908316
187	0xbeccbe03	-0.39988717
188	0xbe223061	-0.15838768
189	0xbe6e0b9c	-0.23246616
190	0xbd0fb22e	-0.035082035
191	0x3e87a9f6	0.26496857

lstm.bias_hh_l0 f4 [192]
0	0x3edf1acf	0.4357514
1	0xbe354cc6	-0.17705068
2	0xbd7c9922	-0.061669476
3	0x3d019852	0.031639405
4	0x3da30f1f	0.079618685
5	0x3d6ea3fa	0.05826185
6	0xbebd06cc	-0.36919248
7	0xbe1b43d5	-0.15162595
8	0x3ed1ee1a	0.4100197
9	0x3d1d3be5	0.038387198
10	0xbd2e731f	-0.042590257
11	0x3e88572e	0.26629013
12	0x3e27fb85	0.16404541
13	0xbe8b5887	-0.27215979
14	0xbe33b6a5	-0.17550142
15	0x3d8fa922	0.070146814
16	0xbd891fd5	-0.066955246
17	0x3d81000b	0.06298836
18	0xbe4f5328	-0.20246565
19	0x3dd9dfd2	0.106383935
20	0xbe91a33d	-0.28444853
21	0xbe243fcc	-0.16039962
22	0x3e2631bb	0.16229908
23	0xbd842e50	-0.06454146
24	0x3e3d9d81	0.18517114
25	0x3db2ad2e	0.08724438
26	0xbda2837a	-0.079352334
27	0x3c646510	0.013940111
28	0x3db16801	0.08662415
29	0xbd3f3ea8	-0.046690613
30	0xba8c9877	-0.001072659
31	0xbe55845e	-0.20851275
32	0xbda38f23	-0.079862855
33	0xbe7f023d	-0.24903198
34	0xbdb1cc76	-0.08681576
35	0xbb9991c8	-0.004686568
36	0x3db458db	0.0880601
37	0x3e91e0ce	0.28491825
38	0xbd17c594	-0.03705366
39	0xbca29f7e	-0.019851442
40	0xbe045554	-0.12923175
41	0xbe698d7c	-0.22807878
42	0x3dc4ccb6	0.09609358
43	0xbeb5a201	-0.35475162
44	0xbe4f94ca	-0.20271602
45	0xbd339be9	-0.04384986
46	0x3d5e7ff3	0.05432124
47	0x3e39a483	0.18129162
48	0x3dc6c7a8	0.0970605
49	0xbe1e605a	-0.15466443
50	0xbdf812fe	-0.121129975
51	0xbe1cc3a8	-0.15309012
52	0xbe3d470b	-0.18484132
53	0xbe3ad9f6	-0.18247208
54	0xbe3925c0	-0.18080807
55	0xbe6bb2c7	-0.23017417
56	0xbd9fbbdb	-0.077995025
57	0x3d96374f	0.07334768
58	0x3d83cbc5	0.0643535
59	0xbd137377	-0.035998788
60	0x3d62980a	0.055320777
61	0xbc7e8b98	-0.015536211
62	0x3d1cea3d	0.038309325
63	0x3ebbb806	0.36663836
64	0xbd89161d	-0.06693671
65	0xbe274a6b	-0.16336982
66	0xbe0e6de3	-0.13909106
67	0x3cf79b8e	0.030225541
68	0xbcb98cc4	-0.02265013
69	0xbe0855cf	-0.13313983
70	0x3d69f35e	0.05711686
71	0x3ed1ec59	0.4100063
72	0xbd36d59d	-0.04463731
73	0x3dfc1e0d	0.12310419
74	0x3d79454a	0.060857095
75	0x3d9da2d8	0.076970756
76	0x3c54636b	0.012963156
77	0xbe131fce	-0.14367601
78	0x3bd2cccd	0.0064331056
79	0x3d922688	0.071362555
80	0xbdcf5827	-0.101242356
81	0xbdf5852c	-0.11988291
82	0xbd88ab3b	-0.066732846
83	0xbc2f6843	-0.01070601
84	0x3e32f579	0.17476453
85	0xbda88fa5	-0.08230523
86	0xbd07ace9	-0.033123884
87	0xbe26be37	-0.16283499
88	0xbe19b563	-0.150106
89	0x3cfea52b	0.031084618
90	0xbb7ebbf6	-0.0038869358
91	0xbe04c84b	-0.1296703
92	0x3db66ec6	0.08907847
93	0xbe33478e	-0.17507765
94	0xba9ef574	-0.0012127594
95	0x3e32d52b	0.1746413
96	0x3cf34110	0.02969411
97	0xbc05220d	-0.008125794
98	0xbdcf4727	-0.10120993
99	0xbdb775b2	-0.089579955
100	0xbdb3fb63	-0.087881826
101	0x3d9db9ef	0.0770148
102	0xbbd47d0c	-0.0064846333
103	0xbc1bd6e4	-0.009511683
104	0xbd8aec79	-0.06783385
105	0xbdef5052	-0.11685242
106	0xbb46fa8a	-0.0030361735
107	0x3e682591	0.2267058
108	0x3dd4770f	0.10374271
109	0x3d05d83c	0.03267692
110	0xbdcf2850	-0.10115111
111	0xbd5171f8	-0.05113408
112	0xbceef958	-0.02917163
113	0x3cc11960	0.02357167
114	0x3d817295	0.06320683
115	0xbd7b312d	-0.061326195
116	0xbd259125	-0.040421624
117	0xbd4057e1	-0.046958808
118	0x3e6266b1	0.22109486
119	0x3dd2c8ae	0.10292183
120	0xbbae01e9	-0.0053102863
121	0x3d89c57c	0.0672712
122	0xbd67b049	-0.056564603
123	0xbc11e577	-0.008904806
124	0xbc2ceb9c	-0.0105542205
125	0xbc3e5ac0	-0.011618316
126	0xbd3daf7b	-0.04630993
127	0xbdb91533	-0.090372466
128	0x3d139b23	0.03603662
129	0x3de6a146	0.11261229
130	0x3dae94a2	0.08524443
131	0x3c95fcbc	0.01830899
132	0xbdfaa225	-0.12237958
133	0x3e01efbb	0.12689106
134	0x3c32d4a6	0.010914957
135	0xbd02ddb7	-0.031949725
136	0x3e116454	0.14198428
137	0x3c0c8e5a	0.008578861
138	0x3cc664ce	0.02421799
139	0x387cc4bb	6.02647e-05
140	0x3c903cf4	0.01760719
141	0xbdc85c6c	-0.09783253
142	0xbd1251ed	-0.03572266
143	0x3db06b6e	0.086142406
144	0x3ed9b94a	0.42524177
145	0xbeb723a5	-0.35769382
146	0x3ccfb95e	0.025356945
147	0x3d9fb00b	0.077972494
148	0x3e0c7ea0	0.13720179
149	0x3e11d2b9	0.1424054
150	0xbe9db892	-0.30804878
151	0xbe32a62c	-0.17446202
152	0x3e234ffd	0.15948482
153	0x3e71bae7	0.23606454
154	0xbdf4ee03	-0.1195946
155	0x3e4ae388	0.19813359
156	0x3e35c1e6	0.17749748
157	0xbe09e231	-0.13465191
158	0x3daf3e1d	0.08556769
159	0x3e645103	0.22296529
160	0xbdcfaa7f	-0.101399414
161	0xbcb94901	-0.022617819
162	0xbe4cf793	-0.20016317
163	0x3e301389	0.17194952
164	0xbe4af15f	-0.19818638
165	0xbdd2cada	-0.10292597
166	0x3e983f07	0.29735586
167	0x3e473409	0.19453444
168	0x39dc7841	0.00042051266
169	0x3db35172	0.08755769
170	0xbdb03e03	-0.08605578
171	0xbe16969b	-0.14705889
172	0x3d507532	0.050893016
173	0xbe501767	-0.20321427
174	0xbddcd4dd	-0.10782788
175	0xbe825c35	-0.25460973
176	0xbc8d05aa	-0.017214615
177	0xbe52cd7d	-0.205862
178	0xbe2c5195	-0.16827996
179	0x3dc552fc	0.09634969
180	0xbc4fd69d	-0.012685445
181	0x3e029a55	0.12754185
182	0xbe259e7b	-0.16173737
183	0xbccbb5ac	-0.024866901
184	0x3dcaf391	0.09909738
185	0xbd8c70a2	-0.068574205
186	0x3db581ae	0.08862625
187	0xbe7f4f55	-0.24932607
188	0xbec0c492	-0.3764997
189	0x3c1e5e3d	0.009666023
190	0x3e5f82dd	0.21827264
191	0x3e31cdd9	0.17363681

lstm.weight_ih_l1 f4 [192, 48]
0	0x3dd30a0c	0.10304651
1	0x3e2335f9	0.15938558
2	0xbd9e86d0	-0.07740557
3	0xbd232bf1	-0.039836828
4	0x3d3701c2	0.04467941
5	0x3d628c4f	0.05530959
6	0x3d583e89	0.052794013
7	0xbe339a91	-0.17539431
8	0x3d87ce24	0.06631115
9	0xbe5ab872	-0.21359423
10	0x3d917615	0.071026005
11	0x3ebd0b2f	0.36922595
12	0x3e23966b	0.15975349
13	0x3ea0f8ff	0.3143997
14	0x3e0f2227	0.13977872
15	0xbcd231b6	-0.02565847
16	0x3e262cb0	0.16227984
17	0x3dfcbb28	0.12340385
18	0xbd5b5fd7	-0.053558197
19	0xbd4acc03	-0.049510967
20	0x3dbf9ae2	0.093557134
21	0xbdda3170	-0.10653961
22	0x3e62d9ec	0.22153443
23	0xbda01087	-0.07815652
24	0xbe940cb9	-0.28915957
25	0x3e435b41	0.1907778
26	0x3e683925	0.22678049
27	0xbc358c2e	-0.011080785
28	0xbe365d5c	-0.17809051
29	0x3e5e09f5	0.21683486
30	0x3dcff24d	0.10153637
31	0x3ba7acf7	0.0051170546
32	0x3a6fe9ad	0.0009151947
33	0xbd9b9d25	-0.07598332
34	0xbe960888	-0.29303384
35	0x3e324623	0.17409568
36	0x3e41d1af	0.18927644
37	0x3e14c94a	0.1452991
38	0xbd0e92ce	-0.034807973
39	0xbe942c94	-0.2894026
40	0x3dc53507	0.09629255
41	0x3e470cb5	0.19438441
42	0xbe05d73b	-0.13070385
43	0xbe6c65f6	-0.2308577
44	0xbcf9f640	-0.030512929
45	0x3e802dd5	0.25034967
46	0xbe86f985	-0.26362243
47	0x3e3b9f70	0.1832254
48	0xbe9c53f3	-0.30532798
49	0x3e8eb55c	0.2787274
50	0x3d42bb7a	0.047542073
51	0x3de54df4	0.11196509
52	0xbdbdbcf1	-0.09264553
53	0xbe8d7f70	-0.2763629
54	0x3e0c935e	0.13728091
55	0xbe20089a	-0.15628281
56	0x3e5b6662	0.21425775
57	0xbd948692	-0.0725223
58	0xbd7863dd	-0.060642112
59	0x3d8fadd4	0.07015577
60	0xbea0802b	-0.31347784
61	0x3db85c4c	0.09001979
62	0x3bbec23c	0.0058214944
63	0x3d4b513b	0.049638014
64	0x3e4e81fa	0.2016677
65	0xbdd89a99	-0.10576362
66	0xbe82dded	-0.2555994
67	0xbe1e3f97	-0.15453945
68	0xbd8ac566	-0.06775932
69	0x3dfe1a53	0.12407365
70	0x3e32ff2a	0.1748015
71	0x3e5b2aa1	0.2140298
72	0xbe9b9c86	-0.30392855
73	0x3de48551	0.111582406
74	0x3e5309ef	0.20609258
75	0xbdefec94	-0.117150456
76	0x3e34b851	0.17648436
77	0x3e7ed7f2	0.24887064
78	0x3e1e3259	0.15448894
79	0x3e3c610a	0.18396392
80	0x3dc163a9	0.09442837
81	0xbcd19818	-0.02558522
82	0xbe9216ae	-0.28532928
83	0xbd820887	-0.06349283
84	0x3e34f6b6	0.17672238
85	0xbdc0a39a	-0.094062045
86	0x3e025e6c	0.12731332
87	0x3e02cd2d	0.12773581
88	0xbd641bb5	-0.055690486
89	0x3e06c0e8	0.13159525
90	0xbe0c7497	-0.1371635
91	0x3c98cb3a	0.018651593
92	0x3dd95196	0.106112644
93	0x3d552c5e	0.052044265
94	0x3d236e02	0.039899834
95	0xbe1201f2	-0.14258555
96	0xbeb60c0c	-0.35556066
97	0x3df3241b	0.11872121
98	0xbe1b0da1	-0.15141918
99	0x3e568a3a	0.20951167
100	0xbe6d7e0d	-0.23192616
101	0xbed75583	-0.42057428
102	0x3cd7ebd2	0.026357565
103	0xbde73bae	-0.1129068
104	0x3e87e562	0.26542193
105	0x3de67c6a	0.11254199
106	0x3e081d42	0.13292411
107	0xbd5ef0a7	-0.054428723
108	0xbebb20c1	-0.36548427
109	0x3d937f0b	0.07201966
110	0xbe64b40a	-0.22334304
111	0xbd8579bf	-0.06517362
112	0x3e37ebd7	0.1796106
113	0xbe45ba35	-0.19309314
114	0xbe626111	-0.2210734
115	0xbe2dce46	-0.16973218
116	0xbd7640a1	-0.06012023
117	0xbd5e2597	-0.054235067
118	0xbe22e6ea	-0.15908399
119	0x3e33180c	0.17489642
120	0x3d3828e1	0.04496086
121	0x3d8fb370	0.07016647
122	0x3e446e53	0.1918271
123	0xbca2753c	-0.019831292
124	0x3ead602c	0.33862436
125	0x3de48b2a	0.11159356
126	0x3e334ff3	0.17510967
127	0x3dbdd391	0.09268869
128	0xbdb5b532	-0.08872451
129	0xbd61b597	-0.05510482
130	0xbcf32db2	-0.029684875
131	0x3e49892e	0.19681236
132	0xbe4a2ba7	-0.19743215
133	0xbdedbf36	-0.11608736
134	0x3d7b8d37	0.06141397
135	0x3d38b3c8	0.045093328
136	0xbdea250a	-0.11432846
137	0xbb6d8693	-0.0036243543
138	0xbe206900	-0.15665054
139	0x3d8133f7	0.0630874
140	0xbdc73a67	-0.09727936
141	0xbdf086ad	-0.11744437
142	0xbd8fea06	-0.07027058
143	0xbe3c03b2	-0.18360785
144	0xbbd65642	-0.0065410445
145	0x3e2089e2	0.15677598
146	0xbe86358d	-0.2621273
147	0x3d9caa41	0.07649661
148	0x3e896ef8	0.26842475
149	0xbd7cbe72	-0.06170506
150	0x3d92969c	0.07157633
151	0xbe28533f	-0.16438006
152	0x3cfdbc01	0.030973436
153	0xbdff9db9	-0.12481255
154	0xbdd56924	-0.104204446
155	0x3d1fc0ff	0.039002415
156	0x3d408fa0	0.04701197
157	0x3dc26036	0.09491007
158	0x3df30704	0.118665725
159	0x3d8ddab7	0.06926482
160	0xbdc737f8	-0.09727472
161	0x3dad59ef	0.08464419
162	0x3cb9097c	0.02258753
163	0x3df2362a	0.11826737
164	0xbe024114	-0.12720138
165	0x3d19ad1a	0.0375186
166	0x3ca11a8c	0.019665979
167	0xbccd4b82	-0.025060419
168	0xbe50e089	-0.20398153
169	0xbd80fd21	-0.062982805
170	0x3e87b935	0.2650849
171	0xbcd0a195	-0.025467673
172	0x3d448bbe	0.04798483
173	0x3e414de0	0.18877363
174	0xbe01db85	-0.12681396
175	0xbddc029c	-0.10742685
176	0xba7e9b5e	-0.00097124826
177	0xbcb5935e	-0.022164997
178	0xbe8aaa1f	-0.27082917
179	0xbe54099b	-0.20706789
180	0x3e5b6bd0	0.21427846
181	0x3e839334	0.25698245
182	0xbd2d4081	-0.042297844
183	0xbd9c7d64	-0.07641104
184	0x3ddcfc12	0.10790266
185	0x3e65c18c	0.22437114
186	0xbe397835	-0.18112262
187	0xbd38772d	-0.04503553
188	0x3dbaea94	0.091267735
189	0x3e3c0833	0.18362503
190	0xbe91ea47	-0.28499052
191	0x3dcdcabd	0.10048435
192	0x3df9ba0d	0.121936895
193	0xbe04f77d	-0.12985034
194	0xbde47926	-0.1115592
195	0x3e33825a	0.17530194
196	0x3e456020	0.1927495
197	0xbdb5f7c7	-0.088851504
198	0x3d4fb9ae	0.050714187
199	0xbe54a471	-0.20765854
200	0x3db26a79	0.08711714
201	0xbe635dc0	-0.22203732
202	0x3e8ea2de	0.27858633
203	0x3db9da3d	0.09074829
204	0xbdb30575	-0.08741275
205	0xbe92e839	-0.28692797
206	0x3d81406f	0.06311118
207	0xbc80a602	-0.015704159
208	0xbe279aff	-0.1636772
209	0x3d89e357	0.06732815
210	0x3df2b426	0.11850767
211	0x3e37e455	0.17958196
212	0xbb8e0e9a	-0.0043352367
213	0xbd3e6a92	-0.046488352
214	0xbd05e2ff	-0.032687183
215	0xbe0ee49a	-0.13954392
216	0x3c49c4b1	0.012314961
217	0xbe0a4f56	-0.13506827
218	0x3e728b6f	0.23686002
219	0xbb310840	-0.0027012974
220	0xbdc63f2a	-0.09680016
221	0xbdb6fa0f	-0.08934414
222	0xbd9d815a	-0.076906875
223	0x3b40c56b	0.0029414545
224	0xbc8fe758	-0.017566368
225	0xbe11d939	-0.1424302
226	0x3e54f5d7	0.20796905
227	0x3e18b839	0.14914025
228	0x3d17613b	0.03695796
229	0xbd7794bb	-0.060444575
230	0xbd96301b	-0.07333394
231	0xbe4c7983	-0.19968228
232	0x3d6b78b6	0.057488166
233	0x3d8a6897	0.0675823
234	0x3d2d75a1	0.042348508
235	0x3e1bf9a3	0.15231948
236	0xbec0e26d	-0.3767275
237	0x3df36787	0.11884981
238	0x3d34e6e6	0.044165514
239	0x3dd0cd7f	0.10195445
240	0x3e1f8d94	0.15581352
241	0x3eae907e	0.34094614
242	0xbdb268ea	-0.08711417
243	0xbdc77c61	-0.0974052
244	0x3e524a5f	0.20536183
245	0x3e622dbf	0.22087763
246	0x3d4d0feb	0.05006401
247	0xbe10c8ca	-0.14139095
248	0xbe861149	-0.26185063
249	0xbe3163e5	-0.17323263
250	0x3dc48ca9	0.09597141
251	0x3eb44f65	0.35216823
252	0x3e4c16b2	0.19930533
253	0x3e8fdb68	0.2809708
254	0x3daa897d	0.08327005
255	0x3e43039f	0.1904435

lstm.weight_hh_l1 f4 [192, 48]
0	0x3dd587b3	0.10426273
1	0xbb890b04	-0.0041822214
2	0xbd8ae061	-0.06781078
3	0x3ddc8868	0.10768205
4	0x3e3c6a20	0.18399858
5	0xbd5422ba	-0.05179093
6	0xbb8f12ae	-0.0043662405
7	0xbc0f9eec	-0.008765917
8	0x3e26187f	0.16220282
9	0x3c979132	0.018501852
10	0x3dd614f0	0.10453212
11	0x3da9edf4	0.08297339
12	0x3de3be1f	0.11120247
13	0x3e2177e6	0.15768394
14	0xbe426418	-0.18983495
15	0x3dd197c7	0.10234027
16	0xbe00bbf2	-0.12571695
17	0x3c60e2a9	0.013725915
18	0xbd0e70b8	-0.034775466
19	0x3e2965a4	0.16542679
20	0x3e32d175	0.17462714
21	0x3d7fd586	0.06245949
22	0xbd6584bf	-0.0560348
23	0xbe07c8f6	-0.13260254
24	0xbdcf4b18	-0.10121745
25	0xbda15c44	-0.078789264
26	0x3e5e6b12	0.21720532
27	0xbe4f9758	-0.20272577
28	0x3e5f415c	0.21802276
29	0x3e2d4142	0.16919425
30	0x3dce567b	0.100750886
31	0xbbb57213	-0.0055372803
32	0xbddd9665	-0.10819701
33	0x3cac4075	0.02102683
34	0x3d723f62	0.059142478
35	0xbd9a3706	-0.07530026
36	0x3dc73a58	0.09727925
37	0x3e9496eb	0.2902139
38	0x3e0f9e17	0.1402515
39	0xbd457ee7	-0.048216727
40	0xbcb5e299	-0.022202777
41	0xbd15bd6f	-0.03655761
42	0xbda7d282	-0.08194448
43	0xbe20dbd5	-0.1570886
44	0xbc88dc87	-0.016706718
45	0x3e6a586f	0.22885297
46	0xbdd53902	-0.10411264
47	0xbe268b37	-0.16264044
48	0x3e0fdbe7	0.1404873
49	0xbd8bef80	-0.068327904
50	0xbdf1541d	-0.117836215
51	0x3e4a8e9b	0.19780962
52	0x3c3be582	0.011468293
53	0x3dac257c	0.08405587
54	0xbd658d5f	-0.056043025
55	0xbe2ada2c	-0.16684788
56	0x3da7a16f	0.08185088
57	0x3dbf9de9	0.09356291
58	0x3d5a8537	0.0533497
59	0x3bf07e63	0.007339285
60	0x3e030b80	0.12797356
61	0xbcc2016a	-0.023682315
62	0x3d736bb9	0.059428904
63	0x3de8591b	0.113451205
64	0xbc2ad80b	-0.010427485
65	0x3e2fb72f	0.17159723
66	0xbd53f944	-0.05175139
67	0x3dd996a8	0.106244385
68	0x3cb92a9a	0.022603322
69	0x3db19c40	0.086723804
70	0xbdd004b3	-0.10157146
71	0x3dae146c	0.08499989
72	0x3db71d07	0.089410834
73	0x3e0fac8b	0.14030664
74	0x3e724372	0.23658541
75	0xbe7b99e9	-0.24570431
76	0x3e65fbff	0.2245941
77	0xbcf364b1	-0.0297111
78	0x3e2cf844	0.16891581
79	0x3b481957	0.0030532682
80	0x3d29cc99	0.041454885
81	0xbd91a548	-0.07111603
82	0x3d828129	0.063722916
83	0x3dde6cbd	0.10860584
84	0xbdf650c1	-0.12027121
85	0x3e928198	0.28614497
86	0xbd5a4373	-0.05328698
87	0x3e3043ff	0.17213438
88	0xbc12cb85	-0.008959656
89	0xbd90042a	-0.07032044
90	0xbda0f3d6	-0.07859008
91	0xbe34956c	-0.17635125
92	0xbdc01c7a	-0.093804315
93	0x3e03217b	0.1280574
94	0xbdc2a5b0	-0.09504259
95	0xbe54073d	-0.20705886
96	0x3e1d2f60	0.15350103
97	0x3df204f7	0.11817353
98	0xbc6853e8	-0.014180161
99	0x3da6dfb9	0.081481405
100	0x3e6d37bb	0.2316579
101	0x3e1f0e19	0.15532722
102	0xbbdf5872	-0.0068159634
103	0xbd314d3b	-0.043286543
104	0x3d9cfbad	0.07665191
105	0x3da4a9ed	0.08040223
106	0x3dcb4eb2	0.09927119
107	0x3e078cd6	0.13237318
108	0x3e1260dd	0.14294763
109	0x3e162304	0.14661795
110	0x3d67416e	0.056458883
111	0x3d837cc3	0.06420281
112	0xbd7f31c4	-0.06230332
113	0x3d41fb03	0.047358524
114	0x3e25d42f	0.16194223
115	0x3e64e27f	0.22352026
116	0x3d0cbde0	0.034360766
117	0xbe0b3da5	-0.13597734
118	0xbc9a4b27	-0.018834664
119	0x3d389380	0.045062542
120	0xbc7131a1	-0.014721305
121	0x3e0179d3	0.12644129
122	0xbdbc8302	-0.09204675
123	0xbe32bc4a	-0.17454639
124	0x3e1ad24f	0.15119289
125	0xbc101d1b	-0.008796002
126	0xbdd92b26	-0.10603933
127	0x3dd86709	0.105665274
128	0x3da960b8	0.08270401
129	0xbdcbd261	-0.09952236
130	0xbde0b602	-0.10972215
131	0xbd639f67	-0.05557194
132	0xbcd28846	-0.025699746
133	0x3b704e6e	0.0036667841
134	0x3e3041bd	0.17212577
135	0x3d27a5e7	0.0409297
136	0xbda37885	-0.07981972
137	0x3d324c08	0.04352954
138	0xbdb7b1a6	-0.089694306
139	0xbcef37d6	-0.02920143
140	0x3e2a91a2	0.16657117
141	0x3e024246	0.12720594
142	0x3d82e2cd	0.06390915
143	0x3dd5668f	0.10419952
144	0xbd49e97b	-0.04929493
145	0xbe8c0d5a	-0.27353936
146	0x3e9f2890	0.31085634
147	0xbd9e2e6e	-0.077236995
148	0x3e819756	0.25310773
149	0x3dee5bf9	0.11638636
150	0xbe8d8f58	-0.27648425
151	0xbd68da88	-0.056849033
152	0x3e2ebff6	0.17065415
153	0xbdfba1c6	-0.12286715
154	0xbd969a38	-0.07353634
155	0xbd35ef09	-0.044417415
156	0xbdbe9bc3	-0.09307053
157	0x3d1566e7	0.03647509
158	0x3e607c7f	0.21922491
159	0x3d211d29	0.03933445
160	0xbb89b5d7	-0.004202585
161	0xbcd0e41e	-0.0254994
162	0x3e7ddcee	0.24791309
163	0x3e3e04c1	0.18556501
164	0x3e607334	0.21918947
165	0xbd0d23fd	-0.03445815
166	0xbe3eb127	-0.18622266
167	0xbe2eb800	-0.17062378
168	0x3d5a6552	0.053319283
169	0xbd4581d8	-0.04821953
170	0x3e54844e	0.20753595
171	0xbd5e32bb	-0.0542476
172	0x3c6415f5	0.013921251
173	0x3d7ca23f	0.061678167
174	0x3d209f20	0.039214253
175	0x3c20925b	0.009800519
176	0x3d1e8647	0.038702276
177	0x3c0e37d4	0.008680303
178	0xbe1b869a	-0.15188065
179	0x3e6b4eea	0.22979322
180	0x3e5cce14	0.21562988
181	0x3d188c64	0.037243262
182	0x3d2de5ed	0.042455602
183	0x3e568486	0.20948991
184	0xbdaf484b	-0.08558711
185	0xbe444c46	-0.19169721
186	0xbe086bad	-0.13322325
187	0xba4250fd	-0.0007412581
188	0x3dc14903	0.09437754
189	0xbd8217e9	-0.06352217
190	0x3c501dbc	0.012702402
191	0xbe181d73	-0.14854984
192	0x3cebe2a5	0.028794596
193	0xbe187fe6	-0.1489254
194	0x3d496e64	0.049177542
195	0xbe8862d8	-0.26637912
196	0xbdac3649	-0.084087916
197	0x3d4a9428	0.0494577
198	0x3d9d286b	0.07673725
199	0x3dbd3588	0.09238726
200	0x3e8e2a90	0.27766848
201	0x3b522ba4	0.003206947
202	0xbd85dfb4	-0.065368086
203	0xbbd66ef8	-0.00654399
204	0xbe140080	-0.14453316
205	0x3e65f465	0.2245651
206	0xbc98634c	-0.018602036
207	0xbd686775	-0.05673929
208	0x3e350f7c	0.17681688
209	0xbd9ed324	-0.07755116
210	0x3d3b9743	0.04579855
211	0xbdbdcf59	-0.09268064
212	0xbd7b2ae0	-0.061320186
213	0xbd936dec	-0.071987
214	0xbc90115d	-0.017586404
215	0xbd3d214b	-0.04617433
216	0x3dcf5143	0.10122921
217	0xbdd75cf5	-0.10515777
218	0xbe919ea6	-0.28441352
219	0x3ce6226d	0.028092587
220	0x3d3ea80a	0.046546973
221	0x3db5ecf5	0.088830866
222	0xbdc0648c	-0.09394178
223	0x3e01d402	0.12678531
224	0xbda32546	-0.07966094
225	0x3e7e5ed6	0.24840865
226	0x3ca181d9	0.019715236
227	0x3cfa8d9b	0.0305851
228	0xbc19176b	-0.009343962
229	0xbe4b2ad0	-0.1984055
230	0x3e74199c	0.23837894
231	0xbd8f6529	-0.07001717
232	0xbeb78fe2	-0.3585196
233	0xbe5c04ff	-0.21486281
234	0xbe6b6b30	-0.22990108
235	0xbdb8a180	-0.09015179
236	0x3e5c0b04	0.21488577
237	0xbe4e6197	-0.20154415
238	0x3e4d3e72	0.20043352
239	0xbc89d7bb	-0.016826501
240	0x3d821ef8	0.06353563
241	0xbdd421d8	-0.10358018
242	0x3dd78b93	0.105246685
243	0x3e0ba33c	0.13636488
244	0x3eaa4c18	0.3326118
245	0x3de7dd1d	0.11321471
246	0xbe54b3f7	-0.20771776
247	0xbe931fe9	-0.28735283
248	0x3e27b02e	0.16375801
249	0xbe0eef9b	-0.1395859
250	0x3cad11f6	0.021126729
251	0xbe291cca	-0.16514888
252	0x3d9aaa42	0.07552005
253	0x3e0414d5	0.12898572
254	0xbd48601b	-0.04891978
255	0xbbdbc291	-0.0067065437

lstm.bias_ih_l1 f4 [192]
0	0xbd1010ec	-0.035172388
1	0xbd2894c6	-0.041157506
2	0xbd475907	-0.048668887
3	0xbe529ae3	-0.20566897
4	0x3d0e65b6	0.034764968
5	0x3ca5e5cc	0.020251177
6	0x3e1d7de4	0.15380055
7	0x3c336fcb	0.0109519465
8	0xbdc212fe	-0.09476279
9	0x3e378cbb	0.17924778
10	0x3cb6c445	0.022310385
11	0xbd9333b9	-0.071876
12	0xbd618b77	-0.055064645
13	0xbe90a473	-0.28250465
14	0x3d7c884b	0.061653417
15	0x3de0e1f6	0.10980599
16	0x3d79d865	0.060997386
17	0x3d89fc3c	0.06737563
18	0xbb7ff53a	-0.0039056079
19	0x3cce043a	0.0251485
20	0xbc3d3a37	-0.011549524
21	0x3cda5348	0.02665104
22	0x3dd5eb58	0.10445279
23	0x3e37f9f9	0.17966451
24	0xbb99ccc1	-0.004693598
25	0x3d913642	0.07090427
26	0xbe597b46	-0.21238431
27	0x3e847633	0.2587143
28	0x3e285712	0.16439465
29	0xbb966f86	-0.0045909313
30	0x3e5cb6a1	0.21554042
31	0x3e1a4873	0.150667
32	0x3c1c7c8b	0.009551178
33	0x3df50d71	0.11965454
34	0x3db30754	0.08741632
35	0xbd5232fd	-0.051318157
36	0x3d5c5189	0.053788695
37	0xbe7e70b3	-0.24847679
38	0x3d90e48e	0.07074843
39	0x3e0743e5	0.13209493
40	0xbd9c5881	-0.07634068
41	0x3ca42990	0.02003935
42	0x3bc9119d	0.006136133
43	0x3dafff4f	0.08593618
44	0xbcb07f82	-0.021545175
45	0xbebdd8b0	-0.37079382
46	0xbea0984a	-0.31366187
47	0x3e4d386a	0.20041052
48	0xbd937c93	-0.07201495
49	0xbe8ccb92	-0.27499062
50	0xbdb34a65	-0.08754424
51	0xbe0bfc75	-0.13670523
52	0xbd9bace6	-0.07601337
53	0xbea96bd3	-0.33090076
54	0xbb7c0f64	-0.0038461322
55	0xbd97f0e8	-0.07418996
56	0xbdcde023	-0.10052516
57	0xbdc30f80	-0.09524441
58	0xbc73b372	-0.014874326
59	0xbd0017bc	-0.031272635
60	0x3c0dc774	0.00865351
61	0xbe40464d	-0.18776818
62	0xbde9414e	-0.11389409
63	0xbe33f1e8	-0.17572749
64	0xbe4d8a25	-0.20072229
65	0xbddab236	-0.10678522
66	0xbe2d3524	-0.16914803
67	0xbe2c4339	-0.16822518
68	0xbe62f44c	-0.22163504
69	0xbe0100b4	-0.12597924
70	0xbc99c57f	-0.018770931
71	0xbe8d3d79	-0.27585962
72	0xbe3ae4b4	-0.18251306
73	0x395dd4fb	0.00021155544
74	0xbc640bf6	-0.013918867
75	0xbdafacf7	-0.08577912
76	0xbd839d78	-0.06426519
77	0xbdb8f47e	-0.09031008
78	0xbd7e4429	-0.06207672
79	0x3d7c54c5	0.06160428
80	0xbd45b52c	-0.048268482
81	0xbe89ef76	-0.26940507
82	0x3d85f346	0.06540541
83	0xbdc910ab	-0.09817632
84	0xbdb03107	-0.08603101
85	0xbe70eaf4	-0.23527128
86	0xbd6b9bd1	-0.057521645
87	0xbe3fabf2	-0.18717936
88	0xbddf947e	-0.109169945
89	0xbda4428e	-0.08020507
90	0xbe471721	-0.19442417
91	0xbd9eb512	-0.0774938
92	0xbe5e0a3b	-0.2168359
93	0xbce01598	-0.027354047
94	0xbc9d4941	-0.01919997
95	0x3d81bb61	0.06334568
96	0xbd4930e6	-0.0491189
97	0xbbd79dbb	-0.0065800822
98	0x3cd87a27	0.026425434
99	0x3c11a904	0.008890394
100	0xbcfe9d35	-0.031080822
101	0xbd8d177c	-0.06889245
102	0x3d9e1bde	0.07720159
103	0xbdac7833	-0.08421364
104	0x3db48dc6	0.08816104
105	0x3d93ea0f	0.072223775
106	0x3e38a906	0.18033227
107	0x3e44d53d	0.19221969
108	0x3e703975	0.23459418
109	0x3d624843	0.055244695
110	0xbd02afd5	-0.031905968
111	0x3d9d147d	0.076699235
112	0x3d37134b	0.044696134
113	0x3cf95f94	0.030441083
114	0xbe25c856	-0.16189703
115	0xbdfc7f78	-0.12329
116	0x3d6e1387	0.05812409
117	0xbe39ccf8	-0.18144596
118	0xbd7238ef	-0.059136327
119	0xbdaf0826	-0.08546476
120	0xbcc9cbef	-0.024633376
121	0x3d4a5cd3	0.04940493
122	0x3b4c5aaa	0.003118197
123	0xbb9ea6be	-0.0048416546
124	0x3d2755f0	0.04085344
125	0x3d884b14	0.06654945
126	0xbdcb7093	-0.09933581
127	0xbdd019cb	-0.101611696
128	0xbc9b0c9f	-0.018926917
129	0x3dda4533	0.1065773
130	0x3e2d6e47	0.16936599
131	0xbd7c0da7	-0.061536457
132	0xbe1288aa	-0.14309946
133	0xbdad618d	-0.08465872
134	0x3dde5116	0.1085531
135	0xbb166c1c	-0.0022952622
136	0xbdd124e5	-0.10212115
137	0x3e097088	0.13421834
138	0xbba88a38	-0.00514343
139	0xbc4e8fe9	-0.012607553
140	0xbd92be87	-0.071652465
141	0x3d928ec3	0.07156136
142	0xbdc89a23	-0.09795024
143	0x3c934da5	0.01798136
144	0x3d966968	0.073443234
145	0xbd7b4ec3	-0.06135441
146	0x3dfbb28f	0.12289917
147	0xbe1a21fe	-0.1505203
148	0xbdbcb26e	-0.0921372
149	0x3da19e23	0.0789149
150	0x3deb03f9	0.11475367
151	0x3dbf7868	0.093491375
152	0xbe16720a	-0.1469194
153	0x3d64a2f5	0.05581947
154	0x3db2b678	0.087262094
155	0xbdc47368	-0.095923245
156	0x3dcb88ef	0.099382274
157	0xbea774fb	-0.32706437
158	0x3cfdd400	0.030984879
159	0x3cf696b4	0.030101158
160	0x3c7b4cf4	0.015338171
161	0xbd70bf1d	-0.05877601
162	0xbd7f3199	-0.06230316
163	0x3d0ad1ac	0.033891365
164	0x3e20911e	0.15680358
165	0xbdd66aa8	-0.10469562
166	0x3e24af12	0.16082409
167	0x3d5410cf	0.051773842
168	0xbc4e6f0b	-0.012599717
169	0x3dcdc3db	0.10047122
170	0xbe962aab	-0.29329428
171	0x3e6f0404	0.23341376
172	0x3b1f58d7	0.0024314427
173	0x3dfcd8d2	0.12346043
174	0x3e46b967	0.19406663
175	0x3daef457	0.08542698
176	0x3db0083a	0.08595319
177	0x3e0ff392	0.14057758
178	0xbc045728	-0.00807742
179	0xbdec25a1	-0.11530615
180	0xbe437d22	-0.19090703
181	0xbe9a7afd	-0.30171958
182	0x3e03b044	0.12860209
183	0x3da437c7	0.08018451
184	0xbc8a178a	-0.016856927
185	0x3b81addc	0.003957493
186	0x3df13571	0.11777771
187	0x3e1d7692	0.15377262
188	0x3dcb8340	0.09937143
189	0xbeb0030e	-0.3437733
190	0xbe93e396	-0.28884572
191	0x3d952d88	0.07284075

lstm.bias_hh_l1 f4 [192]
0	0x3d9568f1	0.072954066
1	0xbdbab25c	-0.091160506
2	0xbd15230d	-0.03641038
3	0xbe23c5f3	-0.1599348
4	0x3db5b807	0.08872991
5	0x3d777b08	0.060420066
6	0xbd66ea6e	-0.056375913
7	0x3d46b485	0.048512
8	0xbd8527c3	-0.065017246
9	0xbd88bfed	-0.06677232
10	0xbe05b77c	-0.13058275
11	0x3e03fe91	0.12890078
12	0x3e1d7876	0.15377983
13	0xbe939c29	-0.28830078
14	0xbe087c43	-0.13328652
15	0xbd0ca775	-0.034339387
16	0x3d4f71f3	0.05064578
17	0x3d82ae5e	0.06380914
18	0xbd3f93cd	-0.046771813
19	0x3ce7a2f7	0.02827595
20	0x3d2121f3	0.039339017
21	0xbdb07ea0	-0.08617902
22	0x3e3d179a	0.18466035
23	0xbc6221e6	-0.013802027
24	0xbdd8d764	-0.105879575
25	0x3d600969	0.054696474
26	0xbeab9310	-0.33510637
27	0x3ec00ff6	0.37512177
28	0x3db51097	0.08841055
29	0x3e26c80d	0.16287251
30	0x3e3750bd	0.17901893
31	0x3d661547	0.056172635
32	0x3d2ae0a4	0.04171814
33	0xbcc9104a	-0.0245439
34	0xbcbe8e3d	-0.023261184
35	0x3e30b71f	0.17257355
36	0xbe24824a	-0.16065326
37	0xbe3aa459	-0.18226756
38	0x3e2df985	0.16989715
39	0x3e076f01	0.13225938
40	0x3d5b4c3a	0.053539492
41	0xbd6ac064	-0.057312384
42	0x3e41bf06	0.18920526
43	0x3db8a45a	0.090157226
44	0xbcc9d9c4	-0.024639972
45	0xbe7d5943	-0.24741082
46	0xbebf4d4a	-0.37363654
47	0x3d5d6770	0.054053724
48	0xbe3de06d	-0.18542643
49	0xbdec0dba	-0.11526056
50	0xbe0971b7	-0.13422285
51	0xbe6b866f	-0.23000501
52	0x3e1e2a20	0.15445757
53	0xbe5d7b18	-0.21628988
54	0x3db67fd5	0.08911101
55	0xbcd65a62	-0.026166145
56	0x3d2879cc	0.04113178
57	0xbca01d44	-0.019545205
58	0xbd8c57b3	-0.06852665
59	0x3dd31297	0.1030628
60	0x3d77416b	0.06036512
61	0xbd523741	-0.051322225
62	0xbda0f924	-0.0786002
63	0xbdde8574	-0.10865298
64	0xbe738f0a	-0.23785034
65	0xbe4c3c26	-0.1994482
66	0xbe474dd3	-0.19463281
67	0xbe29885a	-0.1655592
68	0xbdd82914	-0.1055471
69	0xbdc22c1d	-0.0948107
70	0xba0bfa32	-0.0005339711
71	0xbe938512	-0.28812462
72	0xbe45aeef	-0.19305013
73	0xbdb18d7e	-0.086695656
74	0xbd8c409d	-0.068482615
75	0x3da82bdf	0.08211493
76	0xbe52748c	-0.20552272
77	0xbd7fee3f	-0.06248307
78	0xbdb3df70	-0.08782852
79	0xbdabc2ce	-0.083867654
80	0xbe2173f4	-0.15766889
81	0xbd7c88e8	-0.061654
82	0xbdcdd535	-0.10050432
83	0xbd13ca05	-0.036081333
84	0x3b09f514	0.002105062
85	0xbd8b4a16	-0.0680124
86	0xbdc3a178	-0.09552282
87	0x3d996ca6	0.07491426
88	0xbe06b8f2	-0.13156489
89	0xbd550c9f	-0.05201399
90	0xbe0806ac	-0.13283795
91	0x3d5f4108	0.054505378
92	0xbd370161	-0.04467905
93	0xbda407dd	-0.08009312
94	0xbdfdd084	-0.12393287
95	0xbdf6339c	-0.120215625
96	0xbd0f2ea1	-0.03495658
97	0x3cbdd312	0.023171935
98	0xbdbf7ca6	-0.09349947
99	0xbc646c1d	-0.013941792
100	0x3dbdc15e	0.092653975
101	0xbd043c6f	-0.032284196
102	0x3e5eb098	0.21747053
103	0x3dc22435	0.09479562
104	0x3dabf884	0.0839701
105	0x3e4896ec	0.19588822
106	0x3d849937	0.06474536
107	0x3e4ceb39	0.20011605
108	0x3e4fef88	0.20306218
109	0x3c8bcd16	0.017065566
110	0xbd05f6e9	-0.032706175
111	0xbe15fa3d	-0.1464624
112	0xbdb0d7d1	-0.08634914
113	0x3e25dfcb	0.16198651
114	0x3d7506f9	0.059821103
115	0x3dd31d93	0.10308375
116	0xbe181da8	-0.14855063
117	0xbd859540	-0.06522608
118	0x3d47a95e	0.048745506
119	0x3e14a988	0.14517796
120	0xbe0f3bf9	-0.13987722
121	0x3d78cce7	0.060742285
122	0xbd8fd47e	-0.070229515
123	0x3e0752f3	0.13215236
124	0x3c90abca	0.01766004
125	0x3d8519cc	0.06499061
126	0x3cb413a7	0.021982027
127	0xbe29083d	-0.16507049
128	0xbda1251a	-0.07868405
129	0xbceaa8ae	-0.028644886
130	0x3e28d355	0.16486867
131	0xbe0b3556	-0.13594565
132	0x3dc8c39a	0.09802933
133	0x3e12e3cc	0.1434471
134	0xbdf02d6b	-0.11727413
135	0x3d58c876	0.05292555
136	0x3c9cae91	0.019126208
137	0x3c191bdd	0.009345022
138	0x3d5fdedf	0.054655906
139	0x3d8f9d32	0.070124045
140	0x3c124f0f	0.008929982
141	0x3b8a616c	0.0042230394
142	0x3dcd4339	0.10022587
143	0x3db96827	0.090530686
144	0xbd193a9d	-0.037409414
145	0xbd665c5a	-0.056240417
146	0x3d211d2c	0.03933446
147	0xbdc84e3c	-0.09780547
148	0x3e11a34f	0.14222454
149	0x3dc5dd71	0.09661377
150	0xbc4a2362	-0.0123375375
151	0x3e0181c6	0.12647161
152	0xbc83a7b6	-0.016071182
153	0x3d617e98	0.05505237
154	0x3daed9e4	0.08537653
155	0xbd25b304	-0.040453926
156	0xbe0b5883	-0.13607983
157	0xbe21981c	-0.15780681
158	0xbe13063d	-0.14357848
159	0xbd310f32	-0.043227382
160	0x3c43d1ba	0.011951858
161	0x3de0e7ab	0.10981687
162	0x3c3745b6	0.011186054
163	0xbd8bec44	-0.068321735
164	0xbd58f170	-0.052964628
165	0x3d00a164	0.031403914
166	0x3e09870b	0.13430421
167	0x3c56d88f	0.013113155
168	0x3da90bae	0.08254181
169	0x3e250905	0.16116722
170	0xbe89eb01	-0.26937106
171	0x3e4dd5b4	0.20101053
172	0xbc972c6b	-0.018453797
173	0x3d357f35	0.044310767
174	0x3e98556d	0.29752675
175	0xbe270fd9	-0.16314639
176	0x3ce363d8	0.02775757
177	0x3e302f36	0.1720551
178	0xbcee3376	-0.029077273
179	0x3df100b4	0.11767712
180	0xbe29907c	-0.16559023
181	0xbe9aca82	-0.30232626
182	0xbb6c310c	-0.0036039976
183	0x3e09cdf1	0.13457467
184	0x3ca3b2c7	0.019982709
185	0xbdc1e1bf	-0.09466886
186	0xbd14dcc2	-0.036343344
187	0xbce8704a	-0.028373856
188	0xbca15653	-0.019694483
189	0xbec6922c	-0.38783395
190	0xbea00f42	-0.3126164
191	0x3d3eeeb1	0.046614353

linear.weight f4 [2, 48]
0	0x3e349ac1	0.17637159
1	0x3e589463	0.21150355
2	0xbe7ac5f1	-0.24489571
3	0xbe20a20e	-0.15686819
4	0xbe1661e8	-0.14685786
5	0x3d7a923b	0.061174612
6	0x3e4af85f	0.19821309
7	0x3e2464d1	0.16054083
8	0xbe3c10a2	-0.1836572
9	0x3dd5e8bd	0.10444782
10	0x3db6b357	0.08920925
11	0x3dc0b501	0.09409524
12	0x3e384bb6	0.17997631
13	0x3db9782d	0.09056125
14	0xbdcb1418	-0.09915942
15	0xbe7190e0	-0.23590422
16	0xbe2b9325	-0.1675535
17	0xbda2e115	-0.07953087
18	0xbe13c066	-0.14428863
19	0xbe3430ba	-0.17596713
20	0xbd84f8f6	-0.06492798
21	0xbda90c0d	-0.08254252
22	0x3e5d1c58	0.21592844
23	0x3e380df1	0.17974068
24	0xbce27a92	-0.027646337
25	0x3e676ec4	0.22600847
26	0x3dabf6d9	0.08396692
27	0x3e76e996	0.24112543
28	0x3e2d4607	0.16921245
29	0xbe446ae9	-0.19181408
30	0xbea6524f	-0.3248467
31	0xbdd157bb	-0.102218114
32	0x3df1b809	0.1180268
33	0x3e80cc75	0.25155988
34	0x3e733213	0.2374957
35	0xbe3c4579	-0.18385877
36	0xbe292e87	-0.16521655
37	0x3db08128	0.086183846
38	0xbe361dec	-0.17784852
39	0xbdea6ba4	-0.11446312
40	0x3de90afb	0.113790475
41	0x3e09f177	0.13471018
42	0x3e29c5c6	0.16579351
43	0x3e270b6c	0.16312951
44	0xbe012c2d	-0.12614508
45	0x3cc8bb5d	0.024503404
46	0xbdcd9b19	-0.10039348
47	0x3e16c24c	0.14722556
48	0xbe763fd3	-0.24047785
49	0xbe39111d	-0.18072934
50	0x3d8cdf12	0.06878485
51	0x3d866928	0.06563026
52	0xbdd1ef9e	-0.102507815
53	0xbe694566	-0.2278038
54	0x3e721aa0	0.23642969
55	0xbd9b0147	-0.07568603
56	0xbd55ec20	-0.05222714
57	0x3e850e91	0.25987676
58	0x3e4380f9	0.19092168
59	0x3e882848	0.26593232
60	0x3d32c0c7	0.043640878
61	0xbc8f0948	-0.01746048
62	0xbcd72dad	-0.026266897
63	0x3dd9508b	0.106110655
64	0x3e46a102	0.19397357
65	0x3e9537cf	0.2914414
66	0xbe0e081b	-0.1387028
67	0xbd16f76e	-0.03685706
68	0xbe4b1f56	-0.19836172
69	0xbe13e919	-0.14444388
70	0xbdca273e	-0.09870766
71	0xbe32118d	-0.17389508
72	0xbe8c15ef	-0.27360484
73	0x3db6d31c	0.08926985
74	0x3c4b78c4	0.0124189295
75	0xba356852	-0.0006920147
76	0xbe062999	-0.13101806
77	0xbda4bf60	-0.080443144
78	0x3db23fcb	0.08703574
79	0xbe3774af	-0.17915605
80	0xbe83f74d	-0.25774613
81	0xbe3960eb	-0.18103378
82	0xbd141ba6	-0.03615918
83	0xbe222948	-0.1583606
84	0x3ddb5f38	0.10711521
85	0x3cdc697f	0.026905773
86	0xbdbc8911	-0.09205831
87	0xbdc2bf2a	-0.09509118
88	0x3e1e71ff	0.15473174
89	0xbc80e8c9	-0.015736
90	0x3dcb0c71	0.099144824
91	0x3dcd359a	0.10019989
92	0xbd9720bf	-0.07379293
93	0xbbc0b7de	-0.0058812937
94	0xbc96790d	-0.018368268
95	0x3e227d5c	0.15868133

linear.bias f4 [2]
0	0x3e10fdb5	0.14159282
1	0x3e73c2b5	0.23804744
