cheakpoint/training_epochs_80_stepsize_7_gamma_0.75/model_epoch20.pth (torch, 117569 bytes, 10 tensors)

lstm.weight_ih_l0 f4 [192, 2]
000000 12 e7 4e 3e 70 22 bd 3e 2b 75 56 be ab a0 22 be
       0.20205334 0.36940336 -0.20943134 -0.15881602
000010 2e 47 42 3e e1 40 42 3e aa 5d ce bb ea 03 e0 3c
       0.18972465 0.18970062 -0.0062977867 0.027345616
000020 74 49 dc 3d ea 7d c3 bd 4e 7a 97 bd 93 73 0c 3d
       0.107561976 -0.095455006 -0.07396375 0.034289908
000030 d6 a2 03 be f3 8f 95 3d 02 6f 65 be a8 41 4b be
       -0.12855086 0.07302847 -0.22405627 -0.19849265
000040 9d ec 0d 3d 30 37 15 3e f4 cc 64 bc 19 6f e7 bb
       0.03464948 0.14571834 -0.01396488 -0.0070628044
000050 c4 74 69 bd dd c6 81 3d ae 8f a8 3e 27 22 fb 3d
       -0.056996122 0.06336758 0.3292212 0.122623734
000060 59 51 11 be 0e ea 0d 3e e3 4d 94 be e2 17 ad be
       -0.14191188 0.13858816 -0.28965673 -0.33807284
000070 a5 67 1e 3e 71 b1 5d bd 60 26 e6 3d eb a1 57 3d
       0.15469225 -0.0541243 0.11237788 0.05264465
000080 e1 b9 39 bd e1 38 00 3e 86 b8 73 bc ae b2 93 3d
       -0.045343284 0.12521698 -0.014875537 0.07211815
000090 46 af db 3c a3 9b f6 bd 76 38 13 3e 65 53 2c bb
       0.026816975 -0.12041404 0.14377007 -0.0026294824
0000a0 00 60 a4 3d 49 a9 6c bd e5 8d 12 be e2 31 db 3d
       0.08026123 -0.05777863 -0.14311941 0.10702874
0000b0 56 70 4c 3e 4f 74 3d 3d 9a b9 4b bc 66 f6 d7 bd
       0.19964728 0.0462535 -0.012434388 -0.10545044
0000c0 5b 9b 22 3e bd 25 00 3e 4b 65 57 be ff 48 c6 3c
       0.15879576 0.12514396 -0.21034734 0.02420473
0000d0 40 c2 d5 be 04 41 4b be 6c d0 88 3d 8b 4b 29 bd
       -0.41749763 -0.1984902 0.06680378 -0.04133181
0000e0 34 af 85 3d c1 de 74 3e 7c 05 a7 be 71 92 0a be
       0.06527558 0.23913099 -0.32621372 -0.13532425
0000f0 e3 73 a9 ba 4a 3a 26 3d 8f 1d 25 be e5 6b e0 3d
       -0.0012928214 0.040582933 -0.16124557 0.10958079
000100 91 f9 31 be 76 05 84 3c 84 38 83 be 71 1b 99 be
       -0.17380358 0.016115885 -0.25629056 -0.2990375
000110 9b 62 7a be 71 bd dc ba e5 f9 b9 3c 20 ea a9 3d
       -0.24451678 -0.0016841126 0.022702167 0.08296609
000120 24 8f 4f be 01 31 9a be b6 9e 48 3d ef dc 1b 3d
       -0.20269448 -0.30115512 0.048979484 0.038052496
000130 c4 09 2c 3e b5 db 62 bd 18 4b 27 3e 21 84 dc bd
       0.168006 -0.05538531 0.1633724 -0.10767389
000140 71 8a 25 3e 41 ab 6a 3e 48 6f 3d be 59 41 6b bd
       0.16166092 0.2291689 -0.18499482 -0.057435367
000150 1c 04 0a bd b8 25 04 be ea f7 29 be 8d 98 7b be
       -0.033695325 -0.12905014 -0.16598478 -0.24569912
000160 43 88 bf be b8 26 ae bd 27 39 8e be 41 8c 53 be
       -0.37408647 -0.08503479 -0.2777798 -0.20658971
000170 61 d2 29 3e 59 a7 66 3e 3e 71 81 3e 58 cb 6d 3c
       0.1658416 0.22524776 0.2528171 0.014513813
000180 63 85 0e 3e 43 96 86 3d e0 e2 60 be 15 08 95 be
       0.1391807 0.06571629 -0.21961546 -0.2910773
000190 4c 84 56 3e 1c 60 47 3e 84 98 52 be a5 96 af 3c
       0.20948905 0.19470257 -0.20565993 0.021434138
0001a0 52 3e 02 3e c5 dd 9a be b2 35 14 bc d1 5f f7 3c
       0.12719086 -0.30247322 -0.009046005 0.030197056
0001b0 f1 98 e9 bd ff c7 c5 bd df 9c 2c be 1f 0e e0 bd
       -0.114061244 -0.09657287 -0.16856717 -0.109401934
0001c0 0b d1 b6 3d a2 77 8c bd 2d fd 6d bd e1 88 c8 3b
       0.089265905 -0.06858756 -0.058102775 0.006119833
0001d0 cd b7 a6 3c 89 04 48 3e cd 36 92 3e 69 9c a2 3e
       0.020351315 0.1953298 0.28557435 0.31759956
0001e0 db ca a7 be e3 c1 d9 bd 3f 1e 42 bd 4d f2 4f be
       -0.32771954 -0.10632684 -0.047392126 -0.20307274
0001f0 1a cd 5c bd 30 75 6b 3e d0 8c 9c 3e e3 b7 bb 3d
       -0.053906538 0.22993922 0.3057618 0.09165933
000200 ae 56 c1 bd 2f ee ba bd 47 9b af bd 98 67 63 bd
       -0.09440361 -0.09127461 -0.08574539 -0.055518717
000210 f2 53 a4 bd b5 f5 cb bd b3 26 d0 bd 47 d8 ee 3d
       -0.08023824 -0.09958974 -0.10163631 0.116623454
000220 e5 dc 47 3e e8 08 70 3e 9d e6 5c bc 6a c6 8b bd
       0.19517858 0.23440897 -0.013482717 -0.06824954
000230 f6 ac 24 bc f0 e5 68 bc d5 e4 72 3e f9 1e 7a 3e
       -0.010051003 -0.014214978 0.23720105 0.24425878
000240 90 32 25 3e fa f0 51 3b 9e 66 4c 3d d7 36 80 3c
       0.1613257 0.0032034502 0.04990255 0.01565115
000250 1b 72 9a be de 68 f0 3c c4 d1 19 bc 3b 5f 22 3d
       -0.3016518 0.02934688 -0.009388391 0.0396416
000260 b0 92 9b bd 0f 7a 8c 3e 17 ff 6a be 93 55 d4 bd
       -0.07596338 0.27436873 -0.22948872 -0.103678845
000270 ff e9 5c 3d 6c 58 d5 bc 31 7f 1b be 65 73 cb 3d
       0.053934094 -0.02604314 -0.15185238 0.09934119
000280 3c a3 12 be 1d d2 fc bb 90 2b 82 be d2 b6 d9 bd
       -0.14320081 -0.007715477 -0.2542386 -0.10630573
000290 3a a8 02 bd 42 7b 5b 3c 8d 65 ad 3e 66 5f 1e 3e
       -0.031898715 0.013396086 0.3386654 0.15466079
0002a0 62 88 3b be 15 90 06 be 5d 3d 20 3e 96 3c 88 3d
       -0.18313745 -0.131409 0.15648408 0.06652181
0002b0 79 36 25 3e 87 4d 34 bb 69 e0 83 bd b2 49 9a 3d
       0.16134061 -0.002751203 -0.06439287 0.075335875
0002c0 48 45 84 3e d7 5b 68 3e be 97 81 be a2 9c c3 bc
       0.25834107 0.22691284 -0.25311083 -0.0238784
0002d0 23 10 7b bd ae b3 02 3e 38 29 00 be f7 e7 75 bb
       -0.061294686 0.12763855 -0.12515724 -0.0037522295
0002e0 90 fc 53 be 96 b1 1c be 7a 2c 2a bd 6d 5f 5a 3c
       -0.20701814 -0.15302119 -0.041546322 0.013328415
0002f0 c7 64 fd bd a0 77 2a 3e 1a 4f 5a 3e ff e6 e2 3d
       -0.123727374 0.16647196 0.21319237 0.11079215
000300 7f bf ad be 99 2c dc 3e c1 2d 85 3d 67 24 f1 3d
       -0.33935162 0.43002775 0.065028675 0.11774521
000310 92 d8 56 3e df be ac 3e 9a 1f 9f 3e 1e 0f 78 3e
       0.20981053 0.33739373 0.31078798 0.24224517
000320 9e 4c a9 be 50 91 90 3e ae c6 18 be 1a 24 a3 3e
       -0.33066267 0.28235865 -0.1491954 0.3186348
000330 b7 07 8e 3c 86 f4 f1 3d be 46 b8 3b 7e b1 e2 bd
       0.017337663 0.11814217 0.0056236675 -0.1106901
000340 32 c0 d9 3e 32 c3 aa bd 70 9b d1 3e 05 07 87 3d
       0.42529446 -0.08338012 0.40938902 0.06593136
000350 31 bb ec 3c a6 69 4a 3e 1a ac b8 be bb 9f ab be
       0.028897854 0.19766864 -0.36068803 -0.33520302
000360 25 1b c9 be 45 d8 b1 bc 74 6a af 3d 3e e7 9a bd
       -0.39278522 -0.02170957 0.08565226 -0.07563637
000370 fc 98 86 bd a1 a0 ab 3e dd 58 1d 3e 1d 58 bc 3e
       -0.06572148 0.33520988 0.1536593 0.36785975
000380 e5 6e a7 3e f0 45 38 bb 8d 72 6d be 07 5b 7a 3e
       0.32701793 -0.0028117858 -0.23188229 0.24448787
000390 05 41 27 be 80 27 25 be 7f f1 32 3d 07 04 e9 3e
       -0.16333397 -0.1612835 0.04368734 0.45510885
0003a0 b6 c5 c7 3d c7 a0 54 3e 69 14 ed 3d 92 a2 48 bd
       0.09754507 0.20764457 0.115761586 -0.048983164
0003b0 f3 2e a1 be 7a e9 88 be 7d ef 78 3e c2 5b 5b be
       -0.31481132 -0.26740628 0.24310108 -0.21421722
0003c0 f4 63 e5 3d 08 d5 9f 3e fc 87 c4 bd b5 4f 85 be
       0.11200705 0.31217217 -0.095962495 -0.26037374
0003d0 9e 32 8a 3e 42 0e 6a 3e 62 ae 3d bd 62 c8 ae be
       0.26991743 0.22857001 -0.046308883 -0.34137255
0003e0 c4 24 c5 3e 54 32 f2 3d 4e 7c 70 3e 8e 9b eb 3d
       0.38504612 0.118260056 0.23484918 0.11504279
0003f0 61 e1 ac 3e 08 73 a1 bd af a3 87 3e 35 fb 35 3e
       0.337657 -0.078832686 0.26492068 0.17771609

lstm.weight_hh_l0 f4 [192, 48]
000000 1a fd 43 be 60 50 67 bd 15 8a 84 3e ec 07 5c 3d
       -0.1913952 -0.056473136 0.25886598 0.053718492
000010 5a 75 62 be cf 68 2c be 11 47 bf bd 09 d7 0c 3d
       -0.22115079 -0.16836856 -0.09339727 0.03438476
000020 6b 0e e9 3c f1 d5 2d 3e 1a 6a 47 be ce 88 ed bd
       0.028449258 0.16976143 -0.19474068 -0.11598359
000030 93 bd b5 bd fc 16 19 3e 2d 01 70 3d 1f 10 59 3e
       -0.08874049 0.14950174 0.05859487 0.21197556
000040 5d 6c e5 3d 95 1a 10 3c 1c 29 21 be 08 a2 b9 bd
       0.11202309 0.0087954 -0.15738338 -0.09064108
000050 b9 9b e5 3d 2e 1b 1e 3d af 47 e0 bd bd e0 39 3e
       0.11211342 0.03860014 -0.109511726 0.18152137
000060 29 31 36 bd 9c 58 89 3d d8 0a ba 3d aa 40 5e bd
       -0.044480477 0.06706354 0.090840995 -0.054260887
000070 15 9a 71 3d ea 90 95 3e f7 c2 8f 3e 79 1e a3 3e
       0.058984835 0.29212123 0.28078434 0.31859186
000080 58 c1 2d 3d f8 20 d4 bd 2f 6e 74 be 4f ef 22 3e
       0.042420715 -0.10357851 -0.23870157 0.15911601
000090 70 b1 b0 bc ff 3e 24 bc 9f c8 91 3e a3 ac 53 3e
       -0.021568984 -0.010024785 0.28473374 0.20671324
0000a0 2d 68 80 be 21 ed 0e bc 92 a6 09 3e a2 ab 47 be
       -0.2507948 -0.008723528 0.13442448 -0.19499066
0000b0 47 d6 63 3c 54 cc 07 3d 04 94 3d bc 31 fa 96 be
       0.013906068 0.033153847 -0.011570934 -0.29487756
0000c0 aa b1 42 3d 92 31 49 3c 90 70 57 38 c5 42 a8 bd
       0.047532715 0.012279885 5.1364827e-05 -0.0821586
0000d0 b6 7b 77 3e 2f a8 d3 3c 86 c3 32 be 34 75 27 3b
       0.24168286 0.025837032 -0.17457399 0.0025552036
0000e0 24 2b 12 be 19 fb 43 3d 63 a1 9e 3d 3f 1c 8e 3e
       -0.1427427 0.047846887 0.07745626 0.27755925
0000f0 9b 21 94 bc 1b 7a ae bd 00 b2 b0 bd eb 75 ea 3d
       -0.01808243 -0.085193835 -0.08627701 0.11448272
000100 c0 e6 4e 3d 50 ef fb bd 3a d8 41 3e 1e 8e be bc
       0.05051303 -0.123015046 0.1893014 -0.023261126
000110 0b 23 bd bd 0d 9e 8b bb b0 39 a6 3d 2c bb ff 39
       -0.092351995 -0.0042607845 0.08116472 0.00048776844
000120 e2 d4 43 3d dd f2 c3 bd de a7 55 3e 37 58 15 3d
       0.047810443 -0.09567807 0.20864818 0.03646108
000130 36 7a e2 bd 52 f4 49 3e de 74 d5 bd 58 53 81 bd
       -0.11058466 0.19722107 -0.10422681 -0.06314725
000140 2d 29 5b 3e f0 d6 4b be 24 e0 6f be 6c fe e3 3c
       0.21402426 -0.19906211 -0.23425347 0.027831279
000150 1f 68 a5 3b 13 b3 0d 3e 53 50 25 be 61 69 3c 3c
       0.0050478126 0.13837843 -0.16143923 0.011499734
000160 8a a2 7f 3e 7a cb ae 3d b8 6f 41 bd 64 fd 35 bc
       0.24964347 0.08534904 -0.047225684 -0.011107776
000170 d6 c7 08 3d 03 9a 19 3e f9 4c 5c be 74 82 27 3d
       0.033393703 0.15000157 -0.21513738 0.040895894
000180 f3 31 36 3e a8 a6 8a b9 02 09 a5 bd 6b 4c 8b be
       0.17792492 -0.0002644558 -0.08058359 -0.2720674
000190 6d 4f 83 3d ba f5 35 be a9 d8 9b 3d 88 63 22 3b
       0.06411634 -0.17769518 0.07609684 0.0024778564
0001a0 3f 56 40 bd 57 f4 21 be dd 7e 94 3c 09 04 16 3e
       -0.04695725 -0.15815865 0.0181269 0.14649977
0001b0 07 27 32 3d 54 08 26 3d 9b b5 bc bd 32 ed 45 3e
       0.04349425 0.040535286 -0.09214326 0.19328764
0001c0 08 2b 70 be 56 7a 99 3d 9e 02 bb 34 a9 54 6f be
       -0.23453915 0.07494037 3.4833369e-07 -0.23372139
0001d0 14 e7 90 3d b9 22 20 be fe fa 87 bd c7 a3 35 3e
       0.07075325 -0.15638246 -0.0663967 0.17738257
0001e0 95 81 c6 b9 d3 4c d4 3d 15 cd 8f be c0 3f 02 3d
       -0.0003786205 0.103662156 -0.28086153 0.031799078
0001f0 33 b3 1d 3d 2d 31 fc 3d 53 60 b6 bd 16 37 26 bc
       0.038500976 0.12314067 -0.08905091 -0.010144969
000200 fb e8 57 3e 37 94 06 be a0 ac 1a be 12 be 14 be
       0.21084969 -0.13142477 -0.15104914 -0.14525631
000210 24 0e 2e 3d 1e 91 c9 3a f5 c3 9e bd 8f 48 d2 3c
       0.042493954 0.0015378331 -0.077522196 0.025669364
000220 ff a7 74 bd 73 7c 0c be 1d 16 2f bb 1e 3b 28 3e
       -0.059730526 -0.13719349 -0.0026716061 0.16428801
000230 92 5b 36 3e 69 dd 86 bc 5c 87 a1 3d 9f cd 24 bb
       0.17808369 -0.016462998 0.07887146 -0.0025146974
000240 bc 29 81 3e 3b 47 d5 3d 1a a0 10 ba 01 fb 7f bc
       0.25227153 0.10413977 -0.0005517021 -0.015623809
000250 3e 3d 92 3e 28 48 32 3e 7c 11 a9 3d bc ae 0d be
       0.2856235 0.17410338 0.08255288 -0.13836187
000260 c7 e9 c1 be 24 ef 14 be 29 bb 02 3e 0a 8b 4a ba
       -0.3787367 -0.1454435 0.12766708 -0.0007726407
000270 fc 60 94 3e 80 e8 8c bd 36 fb 32 be bd a7 cd bd
       0.28980243 -0.06880283 -0.17478642 -0.10041759
000280 89 9c 3f be d8 6f 82 bc f6 d6 fe 3d 2e 1e 15 3c
       -0.18712057 -0.015922472 0.12443344 0.009101434
000290 44 fa 1b 3e fc e1 e8 bd 40 35 cd 3d cc 0e d5 3e
       0.15232188 -0.11371228 0.10019922 0.41612852
0002a0 4b 7b 1e be 8c 84 76 3e ad be f2 bd f5 1c 85 3b
       -0.1547672 0.24074 -0.11852775 0.00406229
0002b0 7b 70 82 be 0b bf 32 3e ac 99 4d be 56 5c 91 3e
       -0.2547644 0.1745569 -0.20078152 0.2839076
0002c0 9e c0 73 3d 0b da d8 bd 56 d8 3d be 2c 6b ab be
       0.059509866 -0.105884634 -0.18539557 -0.33480203
0002d0 c0 80 3f 3e f8 82 a5 3e 72 35 6e 3d 4a 77 0d bc
       0.18701458 0.32326484 0.05815644 -0.008634398
0002e0 fe 29 99 3d 12 10 55 3c 0d bd 9a bd e4 88 a1 bd
       0.074787125 0.01300432 -0.0755559 -0.07887438
0002f0 41 00 05 3e c1 1a 3c 3e 19 12 f4 3d 30 c6 8c 3d
       0.12988378 0.18369581 0.11917514 0.06873739
000300 8e 5e d6 bd d7 69 e4 3d 5f 19 14 3e 88 4d 8c 3e
       -0.104672536 0.11153 0.14462803 0.27402902
000310 04 d2 0a be 1f 2a ac 3d cd 5b d8 3b f4 4d d1 bd
       -0.13556677 0.084064715 0.0066027404 -0.102199465
000320 4d f4 c7 3d 4e 68 6b bd 6e 6b 1b 3e 66 c3 0b 3e
       0.097633936 -0.05747252 0.151777 0.13648757
000330 3c 88 00 be e6 fb 93 3d 39 ad 0e 3d 7d 0d 20 3e
       -0.1255197 0.0722578 0.034833167 0.15630145
000340 75 b0 04 3d 08 38 c9 bc f1 e1 1a bd 5e a9 8f 3e
       0.032394845 -0.02456285 -0.03781313 0.28058904
000350 fa 86 dd 3d 16 bd 6c bd 81 68 b8 bd 4b 3b f3 3c
       0.1081676 -0.057797514 -0.090043075 0.029691359
000360 d1 81 af bd a9 e1 81 bd 8b c1 ed 3e c7 51 5f be
       -0.085696824 -0.063418694 0.46436724 -0.2180854
000370 95 23 03 3d 3a 3d cf 3e c5 57 ec bc 39 6e 3c 3e
       0.032016356 0.404764 -0.028850446 0.18401422
000380 fb 87 8f bd 4d d0 11 be 83 b8 ff bd 1a 78 4a 3e
       -0.07008358 -0.14239617 -0.12486365 0.19772378
000390 23 23 45 3d 08 f3 f8 bd 23 37 55 3d ac 82 2d 3e
       0.048129212 -0.121557295 0.052054536 0.16944379
0003a0 b5 59 fe bc 32 c8 4f 3d 72 db 1b 3d 76 4c 8a bd
       -0.031048635 0.05072803 0.038051076 -0.06752865
0003b0 9a 5a 8d be b2 dc 81 3e cc fb 85 bd 6f ca bf bd
       -0.27608186 0.2536369 -0.06542167 -0.09364783
0003c0 f2 0c 1f bd b0 2d cc 3d f5 62 d7 3d 20 f4 69 3e
       -0.038830705 0.09969652 0.105169214 0.22847033
0003d0 84 10 55 3d b0 3d 43 be d7 2e 3d be 18 74 0d be
       0.052017704 -0.190665 -0.18474899 -0.13813818
0003e0 93 a5 a4 3e 09 24 83 3d e3 a6 0a 3e 1f 9d e1 bd
       0.32157573 0.064033575 0.13540225 -0.110162966
0003f0 9d 11 c7 bd b5 58 3f 3e a1 4a 07 be b4 1e d4 3d
       -0.09720156 0.18686183 -0.13212062 0.10357419

lstm.bias_ih_l0 f4 [192]
000000 49 bf e0 3e df f6 5d be 53 74 af bd 31 7b 0e bd
       0.4389594 -0.21676205 -0.08567109 -0.034785453
000010 7f a2 c9 bd c0 1d 0d be 55 e6 24 be df 16 80 bd
       -0.09845447 -0.1378088 -0.1610349 -0.06254362
000020 3a 7b 97 3e a9 e2 2f 3e ce 29 51 be a3 fb 55 3d
       0.29586202 0.17176308 -0.20426103 0.052241933
000030 88 0e eb 3d d3 a4 88 be 61 76 5f 3d 95 cb 16 3e
       0.11477381 -0.2668825 0.054556254 0.14726098
000040 21 40 ef bd b2 eb 60 3d ef ab 25 bd 75 35 94 3d
       -0.116821535 0.054912277 -0.04044717 0.072367586
000050 43 63 38 3c d8 d5 57 be 72 29 82 3d 01 58 52 3e
       0.011254135 -0.21077669 0.06355561 0.20541383
000060 c2 84 ae bd 39 90 de 3c b3 b2 8e bd 3d c9 a0 3d
       -0.08521415 0.02716838 -0.06967678 0.07850883
000070 0f 82 03 bd 86 aa 4f be ad e8 31 3d 38 a4 8e 3d
       -0.032106455 -0.20279893 0.043434788 0.06964916
000080 2b 16 8b be 7c 5d 6b be 05 d1 05 bd 13 06 3e 3d
       -0.2716535 -0.2298488 -0.03267004 0.04639251
000090 f8 36 df 3d 35 82 55 bd 06 9e 8b bc be db d2 bc
       0.10899156 -0.05212613 -0.017043125 -0.025739547
0000a0 c1 36 35 3d 35 1d 81 bd af 27 d9 bd 3b b3 7c be
       0.04424167 -0.06304399 -0.10603272 -0.24677746
0000b0 a1 98 b6 be 24 95 7a be d5 c2 8a 3c 24 03 9a bc
       -0.35663322 -0.24470955 0.016938606 -0.018800326
0000c0 c2 24 1b 3e 82 77 a3 be a4 ae 83 3d 15 67 42 be
       0.1515074 -0.31927115 0.064297944 -0.18984635
0000d0 01 84 22 bd 8d 7a 4f be 09 7a 40 be 57 f3 96 bd
       -0.03967667 -0.20261593 -0.18796553 -0.07370632
0000e0 55 4b e1 bc d9 41 95 bd 4a 5c 02 3d cb 48 c5 bc
       -0.027501741 -0.0728795 0.031826295 -0.024082562
0000f0 c6 f7 e1 bd e2 24 99 be 07 d1 14 3d e2 bb d8 3e
       -0.11033587 -0.29910952 0.036332157 0.42330843
000100 d0 fd e0 bd 49 53 1f be ff a8 db bd 13 ed f2 3d
       -0.10985911 -0.15559115 -0.10725593 0.118616246
000110 45 86 08 be f2 7b 2a bd 6e 18 32 be 5b b5 b9 3e
       -0.1333247 -0.04162211 -0.17392132 0.36271176
000120 5f a7 b7 3d 23 52 60 bc d9 ee 24 3e 4d 3e fd 3d
       0.089674704 -0.013691458 0.16106738 0.123653986
000130 de c4 cb bd ba 8d 67 3d aa bb 11 be 5c 90 02 3e
       -0.09949659 0.056531645 -0.14231744 0.12750381
000140 1b 52 5f be 2c d0 10 be 9d 20 94 3d b1 f6 58 3e
       -0.21808665 -0.14141911 0.07232783 0.21187855
000150 9f 47 f8 3d e7 5e 44 be eb 26 20 be a5 6c c0 bd
       0.12123036 -0.19176827 -0.15639846 -0.09395722
000160 74 6a f6 bd 1b c2 3d be ad fa 57 be 4c b3 3b be
       -0.12032023 -0.18531077 -0.21091719 -0.18330115
000170 9c 59 53 3d 57 b0 25 be f5 c6 c1 bd 33 e5 23 3d
       0.05159913 -0.1618055 -0.09461776 0.040013503
000180 2e 34 95 bd 4f 91 b8 bd 04 ee 7a bc 54 a9 f5 bd
       -0.07285343 -0.090120904 -0.015315536 -0.119951874
000190 f9 02 9f 3d 94 85 1e be 21 4c db bc c5 fb a9 3d
       0.07764239 -0.15480644 -0.0267697 0.08299974
0001a0 39 64 7d bd b6 c2 c4 bd 96 48 e0 bd e2 92 23 3d
       -0.061863158 -0.09607451 -0.10951345 0.039935
0001b0 b8 c6 b9 3d 6b 8f e3 3c 08 f1 96 3d 5d 41 0c be
       0.09071106 0.027778348 0.07370192 -0.13696809
0001c0 e0 43 9e bd e5 f6 f9 3b 3a b2 29 3d 47 8d 28 be
       -0.0772779 0.007628309 0.041429736 -0.16460143
0001d0 56 ee 35 3c 73 0c 4b 3d 66 15 d2 3c 86 ee 1c be
       0.011104187 0.04957242 0.02564497 -0.15325364
0001e0 03 72 35 be 91 ce 1f 3e 86 d8 03 be 2a 48 0b 3e
       -0.17719273 0.15606143 -0.12875566 0.13601747
0001f0 2c 09 10 be 10 ea 26 be d4 8d 2e bc e7 2b 09 be
       -0.14065999 -0.16300225 -0.010653932 -0.13395654
000200 24 68 83 3d 75 20 ce 3c 10 06 d5 3d 15 a4 09 bd
       0.064163476 0.025161961 0.10401547 -0.033603746
000210 f9 02 74 bd aa 3b 78 3b 20 5f 27 bd 37 9e 1d be
       -0.059573147 0.003787736 -0.040862203 -0.15392385
000220 3b 34 3b 3c b5 f5 b3 3d 38 c8 37 be 1f 9a bf bc
       0.011426027 0.08787099 -0.17947471 -0.02338892
000230 86 4e 54 bd 44 f8 40 bd e8 f3 03 bd 79 bf 24 3c
       -0.0518327 -0.047111765 -0.03221503 0.010055416
000240 47 d8 5e 3e 5a 35 ab be d2 f2 d8 bd 5d 02 ee bd
       0.21762191 -0.33439142 -0.10593189 -0.116215445
000250 c8 f1 af bd 48 36 ba 3d dd 52 cd bd 21 fb 9c be
       -0.08591038 0.090923846 -0.100255705 -0.30660346
000260 83 b2 e3 3d 20 e0 2d 3d bb 5f 9a 3c 3f 24 06 bc
       0.11118033 0.04245007 0.018844476 -0.008187353
000270 6d 2f 5c 3d 65 d3 cf be ce ca 14 3d fe 61 90 3d
       0.053756166 -0.4059097 0.036326222 0.070499405
000280 14 66 83 3c e1 c1 18 3d 3f 15 ce bc cb cc ad 3e
       0.016039886 0.037294272 -0.025156615 0.33945307
000290 d2 be 5c bd 5a f9 0f be 2c e7 ed 3d 9d d8 81 3e
       -0.053892918 -0.14059964 0.11616358 0.25360575
0002a0 7d 69 25 3c cd aa be bd 31 65 c4 bd b4 77 c1 3d
       0.010095951 -0.093099214 -0.09589613 0.0944666
0002b0 28 e8 f7 3d c8 2a 84 3c da 0d 6f 3c fa 24 09 bd
       0.12104827 0.016133681 0.014590705 -0.03348253
0002c0 46 0b 63 be 29 8c 93 be e1 19 f5 bd ea a5 de bd
       -0.22172269 -0.2881787 -0.11967827 -0.10871489
0002d0 14 03 84 3d f7 e4 a9 bd 75 c8 4f be 54 93 f9 3d
       0.064458996 -0.08295625 -0.20291312 0.12186304
0002e0 1d 16 bf bb fb dd bc bd f9 49 74 be a4 33 b0 be
       -0.0058314935 -0.09222027 -0.23856343 -0.344144
0002f0 07 f4 31 be 99 94 62 be 11 10 c8 bd e1 e8 5e 3e
       -0.17378245 -0.22126998 -0.097686894 0.21768524

lstm.bias_hh_l0 f4 [192]
000000 d7 d6 95 3e 9c a7 f9 bd e2 f3 6e bd 07 d3 13 bd
       0.29265472 -0.12190172 -0.058338054 -0.036089923
000010 ae ed b8 bc 65 f9 fd bc 1c 2a 99 be 6c e1 b3 bd
       -0.022574272 -0.03100271 -0.2991494 -0.0878323
000020 b8 df 9b 3e 91 34 a1 bd ed 4b f1 bc 02 c5 28 3e
       0.3044412 -0.07871354 -0.02945515 0.16481403
000030 9f eb 11 bd ac b4 a4 be 1d 6c f3 bd 1d c6 f6 3d
       -0.035625096 -0.32169092 -0.11885855 0.12049506
000040 20 5a e2 bd 2e aa 7e 3d 69 0e 7d be 64 02 c0 3d
       -0.11052346 0.062174015 -0.24712528 0.09375456
000050 d5 d0 4c be 70 74 00 be 11 c9 2e bd 11 34 f5 bb
       -0.20001538 -0.12544417 -0.04267222 -0.0074830134
000060 71 be ff 3d 75 ef b7 3d 3c 64 3b bd 5e b2 68 3d
       0.12487496 0.0898122 -0.045749888 0.05681073
000070 aa 83 7e 3d f7 5e 90 bc ea a8 de bc b2 af 22 be
       0.062137283 -0.017623408 -0.027180154 -0.15887335
000080 5b 86 cf bd ec 21 73 be ec 54 5e bd 49 45 f2 3b
       -0.10133048 -0.23743409 -0.054280207 0.0073935133
000090 d2 7e c4 3d 1d 29 00 3e 2c 0d 5d bc b5 da 48 bd
       0.095945016 0.12515683 -0.01349191 -0.0490367
0000a0 3e e8 16 be 86 39 88 be 20 c8 a6 bd be 65 99 be
       -0.14737031 -0.26606387 -0.081436396 -0.29960436
0000b0 9d b7 60 be 01 8b ff bc 0c 22 38 bc 7b 53 09 3e
       -0.21945043 -0.031194212 -0.011238586 0.13410752
0000c0 24 58 d0 3d ea 3c d1 bd 8f a1 b6 bd 51 5f 17 be
       0.101730615 -0.102166966 -0.089175336 -0.14782454
0000d0 15 b3 41 be 71 e9 32 be 39 86 c7 bd 82 83 49 be
       -0.1891597 -0.17471863 -0.09742398 -0.19679072
0000e0 3e 4d 8a bd b1 c9 8c 3d 0c ea 94 3c 58 d7 33 3b
       -0.06753014 0.06874407 0.018178008 0.0027441587
0000f0 cb 66 d2 3c cd ad 89 bd 69 23 ed 3d 0d 49 d3 3e
       0.025683781 -0.06722603 0.115790196 0.4126667
000100 c8 7a 51 bc 70 8d d5 bd 4d e0 ff bd 51 d6 66 3d
       -0.012785621 -0.10427368 -0.12493954 0.05635673
000110 83 57 2d 3c 74 83 9c bd 34 1b 8f 3b e0 f9 e0 3e
       0.010579946 -0.0764226 0.0043672565 0.4394064
000120 a3 a7 b2 bc 0c 16 eb 3d af 13 d9 3d 6f f5 03 3e
       -0.021808451 0.114788145 0.105994575 0.12886594
000130 03 66 d9 3b ae 1a d0 bd 66 58 f3 3c b4 c6 f9 3d
       0.006634475 -0.10161339 0.029705238 0.12196103
000140 5e 50 ce bd a9 fe e4 bd af 9c 49 bc b4 a9 8c bc
       -0.100739226 -0.11181385 -0.012305423 -0.017170765
000150 b1 45 46 3e 57 d3 a2 bd 4e 32 21 bc ba b8 02 be
       0.19362523 -0.07950466 -0.009838654 -0.1276578
000160 7f 0a ff bd 8b 93 a5 3c 79 64 38 bd ef 98 ea bd
       -0.12453174 0.020211956 -0.045017693 -0.11454951
000170 55 09 51 3d a9 d8 15 be 4c 55 95 3b ec 73 57 3e
       0.05103429 -0.1463343 0.0045572873 0.21040314
000180 3a d6 02 3d 82 a9 cf ba 8f 44 93 bd a2 ba 8e bd
       0.031942584 -0.0015843364 -0.07190811 -0.06969191
000190 5b c3 e8 bd f8 ab ac 3d 8a 77 b9 3c 3d fc ce ba
       -0.11365386 0.08431238 0.022640008 -0.0015791726
0001a0 f7 fa 6a bd cc 6f d1 bd be 0c 14 bc ee a7 38 3e
       -0.057368245 -0.10226402 -0.009036241 0.1803281
0001b0 ff 97 b3 3d 6c 90 16 3d 8c df 9d bd 3d 3a 7f bd
       0.08769225 0.036758825 -0.07708654 -0.0623114
0001c0 91 9a 36 bb f5 57 14 3d eb 35 85 3c f6 32 4e bd
       -0.0027863125 0.036216695 0.016261062 -0.05034157
0001d0 05 a5 0d bc 7b 71 43 bd e3 c1 4f 3e a5 33 c2 3d
       -0.008645301 -0.047715645 0.20288806 0.09482507
0001e0 78 8a 0e 3d 81 72 8a 3d b9 b6 50 bd 55 76 95 bc
       0.034800023 0.06760121 -0.050955508 -0.018244902
0001f0 5e ed 27 3c 6e 8c ee bc ac 2b 0d bc d5 2d d2 bd
       0.010249464 -0.029119696 -0.008616369 -0.10262648
000200 08 9b ad 3a ab 69 cb 3d af 2f d6 3d 40 c8 c5 3c
       0.0013245055 0.09932264 0.10458314 0.024143338
000210 be 67 01 be 20 ec c5 3d 68 27 51 3d 09 7a 9d bc
       -0.12637231 0.09664178 0.05106297 -0.01922323
000220 b4 4a d8 3d c3 ac 92 bc fa 41 8b 3d 49 99 a6 bb
       0.105611235 -0.017904645 0.067996934 -0.005084191
000230 ed d2 8e 3c 33 ca c9 bd 64 b3 e2 bc b5 01 92 3d
       0.017434562 -0.098530196 -0.02767343 0.07129232
000240 5d 6c 8e 3e dc 00 9d be 0f 60 bd 3c 55 74 2c 3c
       0.2781705 -0.30664718 0.023117093 0.010525783
000250 31 01 04 3d 5b 45 40 3d 8c d3 74 be e1 90 ed bd
       0.0322277 0.046941143 -0.23908824 -0.11599899
000260 62 ce 5e 3d 17 90 f0 3d 8f 4a e3 bd be 39 dc 3d
       0.05439604 0.11746233 -0.11098205 0.10753201
000270 ed 61 92 bc c0 81 42 be d1 d6 0f 3e 49 91 7a 3e
       -0.01786896 -0.18994808 0.1404679 0.24469484
000280 fb f5 14 be 7c 2f a9 bc 47 89 7a be b0 51 20 3e
       -0.14546959 -0.020652525 -0.2446643 0.15656161
000290 1f 4a f3 bd 3b aa 97 bd a6 b8 b2 3d 9d 5f 71 3e
       -0.11879372 -0.07405516 0.08726625 0.2357163
0002a0 16 ce 80 bd 33 8f ab 3d f2 2e 52 bd 79 29 d5 bd
       -0.06289308 0.083769225 -0.0513143 -0.10408301
0002b0 54 ff d2 3c ff 4d 32 be aa 9f 07 be 1c f0 4e be
       0.025756516 -0.17412566 -0.13244501 -0.20208782
0002c0 f0 35 1b bd b6 de 49 be c2 46 0e be 03 98 c7 3d
       -0.037893236 -0.19713864 -0.1389418 0.09745791
0002d0 5a 3d 2a 39 be 45 02 bd 35 58 13 be fc b5 4c bd
       0.00016235319 -0.031804793 -0.14389117 -0.04997824
0002e0 8e 90 a1 3d 54 ee d4 bd 7c 30 b0 bd e5 3a 46 be
       0.078889 -0.1039702 -0.08602998 -0.19358404
0002f0 47 a6 c8 be d5 e7 aa 3c 58 67 1f 3e 4f 63 01 3e
       -0.3918936 0.0208625 0.15566766 0.1263554

lstm.weight_ih_l1 f4 [192, 48]
000000 f0 64 12 3e 64 1f 45 3d 71 92 fd bd c6 c7 1b bd
       0.14296317 0.04812564 -0.12381447 -0.038032316
000010 1d b4 4d 3c 8f a8 81 3a 1a bb c9 bd d6 a7 73 be
       0.012555149 0.0009892153 -0.0985014 -0.23794493
000020 39 a0 ae 3d 4b 24 bd bd c6 8b 07 3e f5 dc 96 3e
       0.08526654 -0.09235438 0.13236913 0.29465452
000030 43 c1 27 3d 66 25 0f 3e 16 47 cc 3d fc e7 ed bd
       0.040955793 0.1397911 0.09974496 -0.11616513
000040 00 2a 8e 3d 9f 49 68 3d 6c 23 14 bd 2e 5d 4a bd
       0.069416046 0.056710836 -0.036166593 -0.04940527
000050 6b a3 98 bc 95 cb 0e be ea 94 19 3e 20 35 9c bd
       -0.018632611 -0.13944848 0.14998212 -0.0762732
000060 6b 52 33 be b2 8c 8f 3d 52 c3 da 3d f1 0b b7 3d
       -0.17511909 0.070092574 0.10681786 0.089378245
000070 d6 a0 18 be 3b ec 94 3d de da de 3d ff fb 7c bd
       -0.14905104 0.0727162 0.10881589 -0.06176376
000080 f0 8b 6d bd 76 8c 15 be ea 53 19 be 2d f4 3b 3e
       -0.057994783 -0.14604363 -0.14973417 0.18354864
000090 95 5c d7 3d 3c c6 aa 3d 14 2a 78 bd 0d 35 88 be
       0.105157055 0.083385915 -0.060587004 -0.26602975
0000a0 eb 77 02 3d 1f 59 36 3e 60 48 8b bd 34 e0 17 be
       0.031852644 0.17807434 -0.06800914 -0.1483162
0000b0 78 e1 ed bd e6 0f 52 3e bb 66 88 be 7e 6e 2e 3e
       -0.116152704 0.20513877 -0.26640877 0.17034337
0000c0 fc dd 50 be 57 bb 38 3e a0 22 b8 3b 39 43 1b 3d
       -0.2039718 0.18040214 0.005619362 0.037905905
0000d0 a2 5a 4f bd 81 7b 84 be 36 b4 06 3d e5 7d 54 be
       -0.050623544 -0.25875476 0.032886706 -0.2075115
0000e0 e6 f5 13 3e c6 fd 14 bd f2 86 37 bc f2 4a 50 3d
       0.14449272 -0.03637483 -0.011201607 0.050852723
0000f0 7d 09 a7 be b8 0b 97 bd 80 90 ce 3b ea 82 56 bd
       -0.32624426 -0.07375282 0.006303847 -0.052370943
000100 2b df a0 3d 0b 76 e0 bd be 11 3d be 77 8a 26 be
       0.07855066 -0.10960015 -0.184638 -0.16263758
000110 76 8d 2c be 3c 6f a3 3d 40 7d 17 3e 99 27 24 3e
       -0.16850838 0.07980201 0.14793873 0.1603073
000120 ef 8b 7a be 8d 29 40 bb ba 0f 4d 3d f7 4e 92 bb
       -0.24467443 -0.0029321641 0.050063826 -0.0044649797
000130 06 9d 0f 3e 4a 7c a3 3d c1 af e6 3d c2 7c c2 3d
       0.14024743 0.07982691 0.11263991 0.09496452
000140 1b 0c c5 3d e1 ca 58 bd 19 86 cb bd ad 06 98 bd
       0.096214496 -0.052927855 -0.099376865 -0.07423148
000150 cf 2f 2d 3d 5e 11 52 bd f0 4e a2 3d 84 04 ab 3d
       0.042281922 -0.051286094 0.079252124 0.08350471
000160 6a 7a 72 bd 54 25 31 3e 2e cf 05 be 78 b8 fa 3d
       -0.059198774 0.17299396 -0.13067314 0.12242216
000170 c5 f7 21 3d 00 34 e5 bc 5a 0f c7 ba 72 b9 af bd
       0.039542932 -0.027978897 -0.001518707 -0.08580293
000180 2f 7d 8f be 1e 86 aa 3d 6c 3f 16 be c6 6e f4 3d
       -0.28025195 0.08326362 -0.14672631 0.11935191
000190 d4 65 41 be 71 8d b0 be e2 65 c8 bc 15 ce 0d be
       -0.188865 -0.3448291 -0.024462644 -0.13848145
0001a0 dd 14 07 3e 0b e6 6e 3d 01 f7 dd 3d a8 63 46 bd
       0.13191552 0.058324855 0.10838128 -0.048434883
0001b0 45 13 88 be 0a ba ee bc a5 10 6a be 4d c9 a3 bd
       -0.265772 -0.029141445 -0.22857912 -0.079973795
0001c0 c4 d4 8d 3d 43 07 ec bd 8e 05 20 be b6 f4 3d be
       0.069253474 -0.115248226 -0.15627119 -0.18550381
0001d0 9b 32 c2 bd bd 90 d8 bd dd de 12 be a8 3a 2b 3e
       -0.094823085 -0.10574482 -0.14342828 0.16721594
0001e0 4b e1 06 3d 8f b7 80 3d 41 f9 4b 3d 54 cd 67 3c
       0.0329297 0.06285011 0.049798254 0.014148075
0001f0 23 46 8a 3e 1b 2c 27 3d 8b 67 99 3d 8c 26 73 3d
       0.27006635 0.040813547 0.074904524 0.059362933
000200 7f 38 80 bd 5a cf b6 bd 84 2c e7 3c 9a de 39 3e
       -0.06260776 -0.08926268 0.028219469 0.18151322
000210 2b 74 4b be e3 c7 77 bd 92 c3 44 3d e8 04 71 3c
       -0.19868533 -0.06049336 0.048038073 0.014710642
000220 58 2f 92 bd 5d 19 83 3d 4b 05 37 be 3b 5d 8d 3d
       -0.07137936 0.06401322 -0.17873113 0.06902548
000230 c3 d0 91 bc 4d 0f b8 bd 33 60 99 bd 53 cb 19 be
       -0.01779974 -0.089872934 -0.07489052 -0.15018968
000240 c3 87 3f bd 75 c4 d9 3d a7 a9 84 be b2 18 ad 3d
       -0.04676033 0.10633174 -0.25910684 0.08451976
000250 08 50 52 3e 8b c3 f2 bd f6 8c 2b 3c 77 a0 2e be
       0.20538342 -0.11853703 0.010470619 -0.170534
000260 26 7f 34 3d f3 71 8c bd 86 2c f1 bd b6 d8 6f 3b
       0.04406657 -0.068576716 -0.1177607 0.0036597676
000270 f4 1d be bb 8f 6d 81 3d e2 eb 7b 3d fd 31 36 3d
       -0.0058019105 0.06319725 0.061504252 0.044481266
000280 af 98 f8 bd 4a 42 16 3d 93 bf 81 3c b9 db 9a 3d
       -0.12138497 0.036684312 0.01583842 0.0756144
000290 2a f7 28 be 33 e0 46 3c cb eb bf bb a1 b4 47 3d
       -0.16500536 0.012138414 -0.005856966 0.048756246
0002a0 3f 13 3b be 62 a2 b4 bd 16 e9 33 3e 6f bc f1 3c
       -0.1826906 -0.088200346 0.17569384 0.029508797
0002b0 17 2a a3 3d 38 5a f5 3d f0 e9 ed bd c2 45 b8 bd
       0.079670124 0.119800985 -0.11616886 -0.0899768
0002c0 82 53 9a bc ac 52 2e bd 71 10 4f be c7 7d 56 be
       -0.018838648 -0.04255931 -0.20221116 -0.20946418
0002d0 a5 a8 2b 3e 0b 46 6d 3e 5c ff 41 3c 8b ca 4d bc
       0.16763552 0.2317125 0.011840668 -0.012560497
0002e0 2d 2b d7 3d 9e b1 3b 3e 54 13 26 be c0 2a 37 ba
       0.10506282 0.18329474 -0.1621831 -0.0006987266
0002f0 a8 10 72 3d 38 6b 0d 3e 78 17 9e be 8e 10 e9 3c
       0.059097916 0.13810432 -0.3087728 0.028450277
000300 9a 3c 4e bc d7 c3 d3 bd eb df 15 be 72 b8 06 3e
       -0.012587691 -0.10340088 -0.14636199 0.13156298
000310 98 73 e1 3d 4a 5b 1a be 3f d1 54 3d 77 a7 02 be
       0.11008376 -0.15073887 0.051957365 -0.12759195
000320 2b 87 07 3e 29 fd 05 be 87 a7 18 3e 34 f6 0c 3e
       0.13235156 -0.13084854 0.14907657 0.13765794
000330 39 06 10 be c2 45 bb bd 22 ff ab bd 6f a6 69 3d
       -0.14064874 -0.091441646 -0.08398272 0.05704349
000340 e6 c6 90 bd 51 08 f0 3b e4 95 a4 3d 1e 3e b2 3d
       -0.07069187 0.00732521 0.08036402 0.08703254
000350 98 e9 a6 3c d8 ae 4c 3d ff 98 3d 3d a4 c9 74 bc
       0.020375058 0.04997143 0.046288487 -0.014940653
000360 e5 e2 00 bd 0c cd c7 bd de 09 9c 3d 46 0d 85 bb
       -0.031466383 -0.097559065 0.076190695 -0.00406042
000370 34 26 0a be ae 78 9c 3d 1e ee a4 bd 92 d0 33 3e
       -0.13491136 0.07640205 -0.0805323 0.17560032
000380 30 98 70 bc bb 7a 2d be 5b 15 d5 3c e5 d7 17 3c
       -0.014684722 -0.16941349 0.02601116 0.009267782
000390 15 45 28 3e 3e f5 98 bd 6f 2c a3 3c a9 ba bc bd
       0.16432603 -0.07468651 0.019918649 -0.0921529
0003a0 1d d5 0c 3e e5 bc 82 bd 87 8e c7 3c 48 e2 2d 3d
       0.13753171 -0.06383685 0.024359955 0.042452127
0003b0 d2 24 fe bd f1 48 25 3e 71 b2 00 3b bb c6 39 bc
       -0.12409367 0.16141106 0.001963761 -0.011338885
0003c0 f5 53 22 3e ca 2e 82 3e 4e 0c 0f be b2 12 01 be
       0.1585234 0.25426322 -0.13969538 -0.12604788
0003d0 05 2b 03 3e 63 71 0a 3e 5c 1f 9b bd 95 2d 0e be
       0.1280938 0.13519816 -0.07574341 -0.13884576
0003e0 42 e7 6c be 70 de 2a bd ab 01 af 3d 15 e5 97 3e
       -0.23135093 -0.04171604 0.0854524 0.29666963
0003f0 7a b1 d3 3c 13 eb 0e 3e 16 bb 18 3c fb 11 9f 3d
       0.025841463 0.13956861 0.0093219485 0.077671014

lstm.weight_hh_l1 f4 [192, 48]
000000 8f cc 04 3e 3a a8 a4 3c 4f 75 76 bd 0d 06 6d 3d
       0.12968658 0.020099748 -0.060170468 0.0578671
000010 05 a1 71 3d b1 0d 21 bd 82 05 aa bd e4 08 fa 3c
       0.05899145 -0.039319698 -0.08301832 0.030521818
000020 f1 58 2f 3e c9 5e 4f bd 93 d5 12 3d 7c 7e 0a 3c
       0.17123772 -0.050627504 0.03584821 0.008453008
000030 7b ef 42 3d c1 e0 f0 3d 53 01 16 be 80 78 d5 3d
       0.047591668 0.117616184 -0.14648943 0.10423374
000040 d1 97 cc bd e7 ea 0d bd f8 8f aa 3c 3e 2b 7c 3d
       -0.09989894 -0.03464785 0.020820603 0.061564676
000050 c8 5d 4e 3e f0 22 0c 3e 6a 5f a3 bd e3 56 05 be
       0.20152962 0.13685203 -0.07977183 -0.13021426
000060 28 4b ec bc 76 a4 f9 bd 2d b3 ef 3d 02 d8 d8 bd
       -0.028844431 -0.121895716 0.11704097 -0.10588075
000070 71 53 3b 3e 3c 43 06 3e d2 b3 b2 3d 51 19 9c 3d
       0.18293549 0.13111585 0.08725704 0.07622016
000080 0e 1d 86 bd 65 1d 9e 3d 3b 69 9b 3c 55 52 25 bc
       -0.065485105 0.0772045 0.018971076 -0.01009043
000090 b6 9d f3 3d e3 e5 4e 3e a5 d9 0e 3e 8c d6 b7 bd
       0.11895315 0.20204882 0.13950212 -0.089764684
0000a0 48 d2 62 bd cb 45 15 be ee 47 c3 bd f4 06 b4 bd
       -0.05537632 -0.14577405 -0.09535204 -0.08790389
0000b0 c2 f1 dc 3a 39 00 ff 3d 2c 6b 86 bd 56 da ab bd
       0.0016856717 0.12451214 -0.0656341 -0.08391254
0000c0 d6 cb 06 3e 0b 67 bd bd ff b1 63 bd 18 56 2a 3e
       0.13163695 -0.092481695 -0.055589672 0.16634405
0000d0 c5 a0 98 bd 6c b1 80 3d 9f 3a 15 be 00 a0 2e be
       -0.07452539 0.062838405 -0.14573143 -0.17053223
0000e0 7d 15 28 3e ea d2 ac 3c 78 ff ef ba f7 72 81 bd
       0.16414447 0.021096665 -0.0018310389 -0.06320756
0000f0 8e 7f 33 3d 9a a6 e4 bb 61 5e bc 3d 55 99 23 3e
       0.043822818 -0.0069778683 0.09197689 0.1597646
000100 ca 1a 67 3d 4f 3b 16 3e 28 aa 8e 3c e5 ab f7 3c
       0.056422032 0.14671062 0.017415121 0.030233333
000110 92 bb 5e 3d fc 15 20 3e c4 a5 41 be 94 46 77 3d
       0.0543781 0.15633386 -0.18910891 0.060370043
000120 4f c8 25 3e e9 2f 74 3d bf a0 9d 3d 72 c3 2e be
       0.16189693 0.059616003 0.076966755 -0.17066744
000130 cb f1 1c 3e 1d c2 7c bc 33 72 3e 3e 74 2a b3 3d
       0.15326612 -0.01542714 0.18598251 0.08748332
000140 f1 b8 47 3d 7a e3 82 bd 51 98 63 bc c7 87 4a 3e
       0.04876036 -0.06391044 -0.0138912955 0.19778357
000150 f6 89 89 bd c9 4b 39 3e ba d7 05 bc f3 3c 22 3e
       -0.06715767 0.18095316 -0.008169109 0.15843563
000160 cb 1b 2d bd 7a 0d f3 bd ef b5 f5 bd 6e af f3 bd
       -0.042262834 -0.11867805 -0.11997592 -0.11898695
000170 84 66 34 bd 73 ae a6 bc 91 f5 7c bd 3b 75 fd bd
       -0.04404308 -0.020346856 -0.061757628 -0.123758756
000180 54 74 99 3d 14 73 37 3d 2d 39 0e bc 9a 26 d6 3d
       0.07492891 0.04478748 -0.008680624 0.104565814
000190 6f 6c 2f 3e e6 ca b9 3d 57 b4 13 bd ed f1 69 bd
       0.17131208 0.09071903 -0.036060657 -0.057115484
0001a0 1f a6 6d 3d 55 2e 3d 3d d4 a5 77 3d a5 92 cd 3d
       0.058019754 0.046186764 0.06046088 0.10037736
0001b0 38 82 f8 3d 03 86 af 3d 50 d3 0b 3e 41 db 9e 3d
       0.12134212 0.085704826 0.13654828 0.07756663
0001c0 2d 73 0b 3d 6d 88 d2 3c 58 af 3c 3e a8 64 4e 3e
       0.034045387 0.025699819 0.18426263 0.20155585
0001d0 98 a6 59 3d 98 ef c5 bd 97 a1 ae bc 8f bc b4 bc
       0.05313739 -0.096648395 -0.021317286 -0.022062568
0001e0 c4 e6 86 3c c2 5b d7 3d e3 07 7e bd cf 80 50 be
       0.01646746 0.10515548 -0.06201924 -0.20361637
0001f0 ec c0 75 3d c4 32 5c bc 56 5c 4f bd 93 a6 11 3e
       0.059998438 -0.013439838 -0.050625168 0.142237
000200 a3 df 7d 3d 3d 98 0e be 4a 15 fe bd 34 ab e4 bc
       0.061980855 -0.13925262 -0.12406404 -0.027913667
000210 b8 bd e5 3b 63 35 34 bd 98 f6 37 3e ea 64 64 3d
       0.0070111416 -0.043996226 0.17965162 0.0557603
000220 8a 0c 9a bd 9f b2 10 bd db 1f d7 bd 3f 71 2b bd
       -0.07521923 -0.035326596 -0.10504123 -0.041856047
000230 8e e1 31 3e 14 c3 15 3d 8b 6e 9d 3d f7 40 be 3d
       0.17371199 0.036562994 0.076871 0.09289735
000240 e3 8a 34 3b 75 23 64 be 0e ae 82 3e f1 60 b1 bd
       0.0027548603 -0.22279151 0.25523418 -0.08661068
000250 a8 a6 82 3e b9 f8 02 3e 0a 57 90 be 14 03 02 bd
       0.25517774 0.12790193 -0.28191406 -0.031741217
000260 bb 42 10 3e 4b 1f 1e be 7b db ee bd 3e 67 98 bd
       0.14087956 -0.15441625 -0.11662956 -0.07441567
000270 29 30 9a bd f9 46 f6 3c 29 d5 3d 3e ce 71 40 3c
       -0.07528717 0.03006314 0.18538345 0.011745883
000280 8d 8a 42 3b 5c b5 c3 bd 9d 3e 80 3e e0 a2 15 3e
       0.0029684633 -0.09556076 0.2504777 0.14612913
000290 3e 7f 87 3e 83 42 94 3b db 55 d6 bd d2 29 10 be
       0.26464266 0.0045245304 -0.104655944 -0.14078453
0002a0 11 5e c9 3d c3 a9 90 bc 6b 70 12 3e ad 6f e5 bd
       0.09832395 -0.017659074 0.14300697 -0.11202941
0002b0 f7 10 ff bc f7 35 6e 3c a7 dc b5 3d f5 77 30 3d
       -0.03113602 0.014539233 0.08879977 0.04308315
0002c0 4b 45 e0 3d 39 61 e2 3b 14 b2 e2 bd ff 4d 61 3e
       0.109507166 0.0069085625 -0.11069122 0.2200241
0002d0 48 1e 36 3e 4d 6c 11 3d 56 92 b8 3a 88 5d 1a 3e
       0.17784989 0.035503674 0.0014081697 0.15074742
0002e0 03 7d ef bd d9 d1 2d be 75 38 8c bd a9 d4 ef bb
       -0.11693766 -0.16974582 -0.06846706 -0.0073190522
0002f0 54 18 9d 3d 31 af 20 3d bd cf 90 3d 82 f6 14 be
       0.07670656 0.039229576 0.07070873 -0.1454716
000300 5d 24 4b 3d 95 af 01 be de 2f 12 3a a8 ac 57 be
       0.049595226 -0.12664635 0.0005576591 -0.21061957
000310 fd 73 d4 bd be 96 62 3d 4f 80 b1 3c ca d5 bc 3d
       -0.103736855 0.05531954 0.021667628 0.092204645
000320 04 63 34 3e 8a 94 94 bd 62 55 48 be 95 71 e7 bd
       0.17615896 -0.07254894 -0.19563821 -0.11300961
000330 8d 6d 46 be 64 e4 01 3d 9e ea 29 3d e7 6e 8b bd
       -0.19377728 0.03171195 0.041483514 -0.06808262
000340 66 1b fc 3d 94 ba 66 be e0 5b 50 3d 8d 9a 35 bd
       0.12309913 -0.22532111 0.05086887 -0.044336844
000350 f7 40 39 bd d8 23 04 3d 3b 57 a6 3d 30 65 a3 bd
       -0.04522797 0.032260746 0.08122107 -0.07978284
000360 60 c7 35 3e e9 13 d0 bd 22 d4 08 be 68 e0 fc bd
       0.17751837 -0.101600476 -0.13362172 -0.123474896
000370 72 f7 23 3c a0 c6 69 3d ca 49 50 bd 4e ea 5a 3e
       0.010007726 0.05707419 -0.05085162 0.21378443
000380 b8 2e 5e 3d a4 93 35 3e ba 27 80 39 b9 10 30 3d
       0.054243773 0.17732102 0.0002444366 0.042984698
000390 e9 b2 e5 bc 14 0f 0d be 4a 71 61 3e 7a 54 aa bd
       -0.028039413 -0.13775283 0.22015873 -0.08316894
0003a0 23 17 89 be 8e 8b 32 be c0 e8 49 be 82 18 e6 bd
       -0.26775464 -0.17436048 -0.19717693 -0.11235143
0003b0 db 5f 43 3e 3b cb 53 be e9 77 0b 3e 48 77 53 bd
       0.19079535 -0.20682995 0.13619961 -0.051627427
0003c0 25 4d 94 3d 23 2a 97 bd 18 e1 e5 3d 6c ce c5 3d
       0.07241277 -0.07381084 0.11224574 0.096585125
0003d0 83 9c 62 3e f7 b2 e6 3d 71 09 90 be 74 77 81 be
       0.22130017 0.112646036 -0.28132203 -0.25286448
0003e0 00 00 31 3e c5 15 55 be b3 fb 38 bd 59 fe 71 be
       0.17285156 -0.20809086 -0.045161914 -0.23632182
0003f0 27 c2 5e 3c 33 39 d1 3c 3b c1 09 3d e1 80 78 bb
       0.013596094 0.02553997 0.033631545 -0.0037918615

lstm.bias_ih_l1 f4 [192]
000000 4e 5b d7 bd d1 62 ec bd 9c 26 87 bd 87 b9 4d be
       -0.10515462 -0.11542285 -0.06599161 -0.20090304
000010 63 50 82 bd 3a f4 50 bd 52 e5 1a 3e e7 12 92 bc
       -0.06362989 -0.051014163 0.15126541 -0.017831279
000020 15 2e 12 be 23 54 2c 3e 68 fb f1 3c 63 aa 93 bd
       -0.14275391 0.1682897 0.029538825 -0.07210233
000030 33 a7 1b bd 92 df 79 be 80 a5 5d 3d 2d 26 c7 3d
       -0.03800125 -0.24401692 0.05411291 0.09724078
000040 40 8b bf 3c 19 68 6e 3d da 79 07 bd 38 d4 83 bd
       0.02338183 0.058204744 -0.03307519 -0.06436962
000050 b3 02 48 bd b9 58 2a 3d 69 76 be 3d b3 61 01 3e
       -0.0488307 0.04158852 0.09299929 0.12634926
000060 b0 a5 c7 bc 11 5f 93 3d f9 77 de bd 90 5d bf 3d
       -0.024370998 0.07195867 -0.10862727 0.093440175
000070 93 6c c9 3d 3b 89 2c be a4 0d f6 3d ea 14 11 3e
       0.09835162 -0.16849224 0.120143205 0.14168134
000080 24 2c 70 ba dd 54 3b 3d 8d 21 db 3d f1 f0 72 bd
       -0.0009161851 0.04573523 0.10699759 -0.05931181
000090 85 90 6a 3d ab 13 47 be b9 8c 97 bd d1 a0 a4 bc
       0.05726673 -0.19441096 -0.073998876 -0.020096214
0000a0 c3 05 38 be 23 da ef 3c 25 d6 13 be 52 cd 05 bd
       -0.17970948 0.02927882 -0.14437158 -0.03266651
0000b0 5f a7 23 bd f8 2e b4 be 5d 89 3a be ca d3 cf 3c
       -0.03995454 -0.35192084 -0.18216462 0.025369544
0000c0 b0 e3 3e bd 49 d2 82 be a6 bf 6b bd 34 f7 b9 bd
       -0.04660386 -0.2555106 -0.057555817 -0.090803534
0000d0 22 ba 13 be af 17 9c be 16 d2 91 3c 5e ef b4 bc
       -0.14426473 -0.3048682 0.017800372 -0.022086795
0000e0 50 ad da bd 28 8a 95 bd fb 30 94 3c bd 56 84 bc
       -0.10677588 -0.07301742 0.018089762 -0.016154641
0000f0 d3 0d 1a 3d 0e 78 56 be 9c 26 15 be 0d fc 0f be
       0.03761084 -0.20944235 -0.1456551 -0.14060993
000100 c3 da 17 be 78 72 97 bd 7c 2f 18 be 19 73 4a be
       -0.14829545 -0.0739488 -0.14861864 -0.19770469
000110 fc dd 3e be af c6 b7 bd 8a a9 8a bb 3a 41 77 be
       -0.18639368 -0.08973443 -0.0042316364 -0.24145976
000120 fa 1f 2f be 65 56 17 3d 63 88 33 3c 6a 44 e6 bd
       -0.17102042 0.036947627 0.01095781 -0.11243518
000130 17 e4 f1 bc 85 37 24 be 71 26 ea bc 4f 32 ab 3d
       -0.029527707 -0.16036804 -0.028582783 0.08359205
000140 77 44 92 39 6a 18 7c be a4 06 d2 3d 43 49 8e bd
       0.000278983 -0.24618688 0.10255173 -0.06947567
000150 06 7b 2f bd 77 02 2b be 5c 19 a5 bd e2 28 6b be
       -0.042841934 -0.16700159 -0.080614775 -0.22964814
000160 74 f8 13 be 9b d8 d9 bd 72 b8 6d be 1e 34 cb bd
       -0.14450246 -0.10637017 -0.23214892 -0.0992205
000170 e8 d0 3e be 2e 1b 00 be e1 a7 4d 3d 27 5c cf 3c
       -0.18634379 -0.12510368 0.05020893 0.025312496
000180 e3 91 65 bd 47 6d 01 bc 53 c4 a4 3b 99 5b 57 3c
       -0.05604733 -0.007899589 0.0050282865 0.013144397
000190 ed 1c 00 bd c1 c8 a9 bd 9c 22 8e 3d 9a a8 a4 bd
       -0.031277586 -0.08290244 0.06940195 -0.08039971
0001a0 fc f5 ae 3d a4 ed 93 3d 8b 57 41 3e a6 c4 36 3e
       0.085430115 0.07223061 0.18881051 0.17848453
0001b0 d7 4b 82 3e 37 e7 86 3d a6 a9 39 bd e6 f1 79 3d
       0.25448486 0.065870695 -0.045327805 0.061021708
0001c0 4e c7 43 3d 31 3d 0a 3d 60 4c 3b be 31 ee f2 bd
       0.047797494 0.033749763 -0.18290854 -0.11861838
0001d0 42 82 55 3d 90 93 44 be 93 19 63 bd 38 1c a9 bd
       0.052126177 -0.19196916 -0.05544431 -0.082573354
0001e0 6c 30 01 bd 3a 0d 81 3d 97 d1 6f bc c9 43 4d bc
       -0.03154032 0.06301351 -0.014637372 -0.012528368
0001f0 f9 53 2e 3d 1b 16 48 3d e5 7c ca bd d8 62 ec bd
       0.04256055 0.048849206 -0.09887103 -0.115422904
000200 a4 14 d9 bc e1 cf de 3d 08 13 41 3e 34 65 8e bd
       -0.0264991 0.108794935 0.18854916 -0.06952897
000210 ab cb 26 be c2 27 9c bd e7 25 bf 3d 98 79 c7 bc
       -0.1628863 -0.07624771 0.09333401 -0.024349973
000220 6b 7c dc bd e8 8c 11 3e 25 6c 2a 3d 5f 20 7a bc
       -0.10765918 0.14213908 0.04160704 -0.015266507
000230 28 96 b4 bd c9 da 6c 3d ee 7b c2 bd 1c 89 dc 3c
       -0.088177025 0.057825837 -0.09496294 0.026920848
000240 db 3a c8 3b e8 03 0d be 25 24 da 3d 41 93 14 be
       0.0061105317 -0.13771021 0.10651425 -0.14509298
000250 d9 82 3e be 60 0a 3a 3c a0 f9 f1 3d 2c 6d 83 3d
       -0.18604602 0.011355013 0.1181519 0.06417307
000260 1f 4f 4a be a3 71 52 3d b5 32 c8 3d 10 18 af bd
       -0.19756745 0.051377904 0.097752966 -0.085495114
000270 b9 01 f2 3d af 93 93 be ff 37 a5 3c fe be a5 3c
       0.11816735 -0.2882361 0.020168303 0.020232674
000280 c7 fb c7 bc 24 fa 85 bd dd 77 bf bd 55 6b 59 bd
       -0.024412049 -0.06541851 -0.09349034 -0.053080875
000290 91 31 ee 3d ed e4 b3 bd 44 16 20 3e 40 b8 2d bb
       0.11630548 -0.087838985 0.15633494 -0.0026507527
0002a0 00 4b f1 bc 02 22 cc 3d 57 cd 43 be d5 f7 88 3d
       -0.029454708 0.09967424 -0.191213 0.06687895
0002b0 fb 6b 80 bd dc a6 1d bd a2 00 c8 3d d6 a8 9f 3d
       -0.06270596 -0.038489208 0.09765746 0.07795875
0002c0 a6 2f 9d 3d e9 be 83 3d 5a b4 09 3c 8a c2 ff bd
       0.07675104 0.064328976 0.008404816 -0.12488277
0002d0 e0 b5 40 be 1a fb 7d be dd e8 6b bc e3 d1 91 bd
       -0.1881938 -0.24802819 -0.014398781 -0.07120111
0002e0 b0 f1 07 be a0 11 1c 3c 0d b9 eb bc 4a ae 06 3d
       -0.1327579 0.0095256865 -0.028774763 0.03288106
0002f0 12 7a a7 3d 45 eb a8 be 38 ee 22 be 31 f4 d1 bd
       0.0817758 -0.32991996 -0.15911186 -0.10251654

lstm.bias_hh_l1 f4 [192]
000000 f4 c2 42 3b 7c 65 29 be 25 17 5c bd 97 e4 1e be
       0.0029718252 -0.1654262 -0.05373301 -0.15516888
000010 e1 58 1e bc 0c b0 31 bc 4a 4d 71 bd 37 9e a1 3c
       -0.009664745 -0.0108451955 -0.0589116 0.019728763
000020 d9 70 e7 bd 66 31 9f bd 30 a1 fc bd 98 c3 03 3e
       -0.11300821 -0.07773094 -0.123354316 0.12867582
000030 ae f1 2e 3e f5 ce 7f be e6 34 10 be 4c 1f 40 bd
       0.17084381 -0.24981292 -0.14082679 -0.046904847
000040 ae 7c 55 3c 56 cc 5f 3d 2c 87 9b bd 14 d9 7a bd
       0.013030214 0.05463823 -0.07594141 -0.061242178
000050 cb dc 06 3b 13 e7 91 bd 22 5d 31 3e 8d 74 89 bd
       0.002057838 -0.07124152 0.17320684 -0.067116834
000060 1d 92 00 be ce 5a 64 3d 15 e7 6c be 68 e2 56 3e
       -0.12555738 0.05575066 -0.23135026 0.20984805
000070 f2 3b b7 3c df d4 86 ba 19 42 ab 3d bf 47 41 3d
       0.022367451 -0.0010286829 0.083622165 0.047187563
000080 86 00 00 3d 0d a7 c9 bd 68 28 71 bb 9d 87 28 3e
       0.0312505 -0.098463155 -0.0036797766 0.16457982
000090 b4 f2 20 be 7d 47 03 be ed 07 ce 3c f8 47 a3 bc
       -0.15717584 -0.1282024 0.025150264 -0.019931778
0000a0 11 1a 4c bd fc e7 44 bd 82 81 1e 3d 6f 06 e9 bc
       -0.049829546 -0.0480728 0.038697727 -0.02844545
0000b0 81 54 30 bd de 05 6a be 5e f3 77 be 30 c8 f7 bd
       -0.04304934 -0.228538 -0.24213931 -0.120987296
0000c0 3b db 23 be ec 27 c4 bd 88 78 d5 bd 9c 85 3c be
       -0.16001599 -0.09577927 -0.1042338 -0.18410343
0000d0 09 8d b0 3d a1 d2 42 be c8 d4 e2 3d d0 79 d4 3c
       0.0862065 -0.19025661 0.11075741 0.025936991
0000e0 38 df 0e 3d 32 c1 2f 3b 03 aa 11 bd 90 08 f2 3d
       0.034880847 0.0026818034 -0.035562526 0.118180394
0000f0 ab ee b6 3d e8 7e 95 bd 18 05 e2 bd fe 99 96 bd
       0.08932241 -0.07299596 -0.11036128 -0.073535904
000100 a8 df 3d be 50 9c 2a be 2b 48 32 be 3a b8 47 be
       -0.1854235 -0.16661191 -0.17410342 -0.1950387
000110 1d fc 8f bd f2 e2 6f bd 5d 76 65 3c 39 e8 81 be
       -0.07030509 -0.05856604 0.014005271 -0.25372484
000120 35 ea 39 be 67 a2 4c bd 0d 9c 32 bd b9 28 63 3d
       -0.18155749 -0.049959566 -0.043605853 0.055458758
000130 39 e2 2e be b2 b8 07 be f0 8d 5e bd 76 75 7d bd
       -0.17078485 -0.1325405 -0.05433458 -0.061879598
000140 85 7a df bd 33 6f 1d bd d4 c1 81 bd 3e dc f1 bb
       -0.109120406 -0.038436126 -0.06335798 -0.0073809912
000150 31 86 39 3d d8 82 87 39 f9 ec f2 bd a8 e4 04 3d
       0.04529399 0.00025846693 -0.11861605 0.032444626
000160 11 e7 2a be 6a 1c a0 bd fd a7 2e be af 42 06 3d
       -0.16689707 -0.078179196 -0.1705627 0.03277844
000170 7e 70 68 bc 7e 1c 36 be 0c 55 5f bd e5 0b 22 be
       -0.0141869765 -0.17784306 -0.054524466 -0.1582485
000180 a0 8f 2b bd db 03 b3 3c 03 4f eb bd 90 b9 1e bc
       -0.04188502 0.021852424 -0.1148968 -0.009687796
000190 33 5a bd 3d ba 9e 3d bd f4 b3 56 3e ce f3 c9 3d
       0.0924572 -0.04629395 0.20967084 0.09860955
0001a0 ba 60 a6 3d ef 98 48 3e 55 f6 95 3d a2 da 3e 3e
       0.08123918 0.1958959 0.07322375 0.1863809
0001b0 bf 4d 64 3e cb d8 e2 3c b6 f0 3c bd ac 07 26 be
       0.22295283 0.027691266 -0.046127997 -0.16213864
0001c0 9a 7d aa bd 1c 43 29 3e 65 f6 1e 3d f1 ae dc 3d
       -0.08324738 0.16529506 0.0388092 0.10775555
0001d0 ec 41 1e be 64 22 9b bd b7 c8 56 3d 80 9f 17 3e
       -0.15454835 -0.07574919 0.05243751 0.14806938
0001e0 bf 4e 16 be 4b 45 98 3d 7a 31 b4 bd 89 e7 fe 3d
       -0.14678477 0.074350916 -0.087984994 0.124465056
0001f0 c7 a7 9e 3c 80 b3 41 3d 45 e2 b7 3c ae 2c 37 be
       0.019367112 0.047290325 0.02244676 -0.17888138
000200 39 a7 b0 bd 07 7e d8 bc 16 78 3c 3e 6d 64 13 be
       -0.08625645 -0.026427282 0.18405184 -0.14393778
000210 a9 3d a0 3d 7c 80 1b 3e 41 ac 07 be c8 e4 fc 3c
       0.07824261 0.15185732 -0.13249303 0.03087081
000220 8c a1 5e 3c 5c 70 8d 3c 32 ae cf 3d ee 2a 8a 3d
       0.01358832 0.017265491 0.10140647 0.067464694
000230 41 db f8 bb 30 da 1b bc 6e 61 d3 3d fe b6 cb 3d
       -0.0075944965 -0.009512469 0.103213176 0.09947012
000240 20 83 d6 bd 58 c7 07 be 6c 01 bc 3c a2 30 bd bd
       -0.10474229 -0.13259637 0.022949897 -0.092377916
000250 5a e6 45 3d 36 02 ee 3c 3c 75 12 bc 39 f8 c6 3d
       0.048315383 0.029053789 -0.008939084 0.097153135
000260 1b a4 88 bd 46 4d 4f 3d 21 56 c4 3d 1d f9 f5 bc
       -0.06671926 0.050610803 0.0958674 -0.030026013
000270 ee 37 f0 bd 11 ab f3 bd ce 19 1e be ed 7a 59 bd
       -0.11729418 -0.11897863 -0.15439531 -0.053095747
000280 51 b9 e3 bc 2e 4d d3 3d 27 da a3 bc 42 05 1f be
       -0.027798327 0.10317455 -0.020001484 -0.1552935
000290 77 69 bf bd 32 ad 45 3d 49 ee 04 3e 25 36 29 bd
       -0.09346288 0.048260875 0.12981524 -0.041311402
0002a0 ce 86 86 3d e4 37 24 3e e4 4d 2b be 65 36 0d 3d
       0.06568681 0.16036946 -0.16728932 0.034475703
0002b0 ca 31 ab bd 7e ec f0 bd cc f1 4d 3e 7f b5 2e be
       -0.08359106 -0.11763857 0.2011177 -0.17061423
0002c0 0a 02 98 3c 25 36 c4 3d 6e 5b 4e bc a0 63 dd 3d
       0.01855566 0.0958064 -0.012595041 0.108100176
0002d0 3a c9 26 be 23 9a 7e be b0 1f 16 be 08 b7 89 bc
       -0.162877 -0.24863486 -0.14660525 -0.016810909
0002e0 aa 70 c4 bd 98 7a b6 bd 28 49 3b be 0c d9 18 be
       -0.095918015 -0.08910102 -0.18289626 -0.14926547
0002f0 37 bd 18 bd 63 7a bf be ac 45 3b be 29 d5 03 be
       -0.037289824 -0.3739806 -0.18288296 -0.12874283
