cheakpoint/model_epoch200.pth (torch, 117574 bytes, 10 tensors)

lstm.weight_ih_l0 f4 [192, 2]
-0.11557538 0.15283571 -0.27092648 -0.13227995 0.08309966 0.028001843 0.15947917 0.20114893
0.3273163 0.17689618 -0.28864783 0.032087393 0.28474596 0.25833064 0.1685652 0.23583099
0.3668105 0.38447052 -0.14627163 0.1038257 0.14324792 -0.020406378 0.096211866 0.16642419
0.15494278 -0.02844183 0.039859984 -0.09575279 0.3495253 0.08726202 0.40789255 0.26490915
0.0100696 -0.0346572 0.32981548 0.33833075 0.17263901 0.15866856 -0.1560231 -0.18369731
0.006537048 -0.17165984 -0.14823376 0.022693075 0.25796297 0.095165126 0.29941532 0.30367053
0.051949095 0.16645181 0.116438486 0.21936454 -0.024776477 0.20551315 0.11343001 0.17447053
0.10548716 -0.2517412 0.4151637 0.022098387 -0.1611795 -0.11749519 0.112805866 0.05208027
-0.3233139 -0.30161598 -0.3831474 -0.40999153 -0.11895955 0.17665115 0.07200847 0.042452857
0.2167012 0.045845427 -0.10339642 -0.2984223 -0.20162863 -0.286951 0.062434252 0.26511064
-0.25000927 -0.17046857 0.17808425 0.19475013 0.10569887 0.029876297 -0.0958539 -0.23005205
-0.2189557 -0.04499835 0.26656196 0.20196691 0.1901785 0.30515653 0.04215607 -0.025460988
-0.04737683 0.15647762 0.10784175 0.104981676 -0.22417398 -0.080090486 -0.093374506 0.10581705
-0.009691853 0.20725773 -0.14097443 0.11737498 -0.2411544 0.028959902 -0.1318886 0.0026846165
0.20255896 0.31613168 -0.0025013809 -0.013349364 0.2312319 0.20105033 -0.06792802 0.08551775
-0.12548862 0.096575685 0.3229865 -0.07119717 0.21738636 0.25282443 0.005755494 -0.07409262
-0.23686391 -0.22639231 0.051691815 0.052858967 0.030389946 0.0010573579 0.20087782 0.18618046
-0.15640968 -0.1331804 -0.21967773 0.046098657 -0.03350319 0.047696903 0.28791484 0.29734105
0.0849426 0.028584184 0.14279571 0.33973563 -0.1257733 0.15962908 0.17421664 -0.20102142
0.31529602 0.14073054 0.2303791 -0.08769928 0.057486773 -0.051725417 0.1666743 0.32535055
-0.06811641 -0.12716483 0.05067588 0.01674225 0.114102215 0.0738061 -0.18755636 -0.060347367
0.22732632 0.07679381 0.009058081 -0.11937533 0.003394282 -0.20978601 0.13356389 -0.0010580809
-0.03499108 -0.19442692 0.034311756 0.15108527 0.024164211 0.2717357 -0.16051027 -0.18913671
0.11853919 -0.12994327 0.23243305 0.13711397 0.06376686 0.32900807 0.06576678 -0.3609519
0.11765598 -0.37695932 0.13088109 0.29481307 0.15011324 0.3778217 -0.09427078 0.5307676
0.266737 0.33604714 0.025291884 0.26821718 -0.54128164 0.038062196 -0.054069415 0.35046196
0.49890846 0.2860987 0.35886613 0.12381234 -0.037487213 -0.30470967 -0.1279215 -0.42683825
-0.26902032 -0.36397824 -0.35988992 0.035120152 0.1149377 -0.46462393 -0.18835771 -0.34557763
0.39281642 -0.07410709 0.41017002 -0.37360036 0.21014176 0.3161918 0.2696681 0.2156065
-0.23625357 -0.18482551 0.29508922 -0.048053537 -0.20423943 -0.35667962 -0.18462934 -0.35993978
0.3396989 -0.18824705 -0.0890726 -0.37144476 0.1943125 -0.3896754 -0.5227425 0.011291483
-0.24893832 0.084139615 0.4864364 -0.33241954 -0.35213372 -0.14063738 0.0556559 -0.40518287
00000000: c9b2 ecbd f780 1c3e e0b6 8abe 6574 07be
00000010: 2830 aa3d 1f64 e53c 824e 233e fcf9 4d3e
00000020: 0196 a73e 4624 353e a6c9 93be 126e 033d
00000030: 39ca 913e ea43 843e 5b9c 2c3e ae7d 713e
00000040: 96ce bb3e 52d9 c43e 3bc8 15be 92a2 d43d
00000050: 95af 123e 472b a7bc ba0a c53d 1a6b 2a3e
00000060: 52a9 1e3e d7fe e8bc 3944 233d 0a1a c4bd
00000070: fbf4 b23e 6eb6 b23d 4bd7 d03e 2ca2 873e
00000080: f7fa 243c b5f4 0dbd 93dd a83e b039 ad3e
00000090: 48c8 303e 037a 223e 85c4 1fbe 261b 3cbe
000000a0: bc34 d63b 99c7 2fbe 97ca 17be d4e6 b93c
000000b0: b913 843e efe5 c23d f74c 993e b47a 9b3e
000000c0: 93c8 543d 5872 2a3e 4d77 ee3d 19a1 603e
000000d0: 0af8 cabc 0a72 523e fe4d e83d 67a8 323e
000000e0: a709 d83d 39e4 80be 5690 d43e ad07 b53c
000000f0: 3d0c 25be 51a1 f0bd c306 e73d 1f52 553d
00000100: 6689 a5be 696d 9abe e52b c4be 69ea d1be
00000110: 11a1 f3bd 0ae4 343e 2d79 933d 0ce3 2d3d
00000120: ebe6 5d3e 6ac8 3b3d 81c1 d3bd cfca 98be
00000130: bc77 4ebe 3eeb 92be 0fbb 7f3d 95bc 873e
00000140: 3701 80be 508f 2ebe b85b 363e 946c 473e
00000150: a678 d83d 23bf f43c 0d4f c4bd c492 6bbe
00000160: ec35 60be 3150 38bd cf7a 883e 6ad0 4e3e
00000170: 27be 423e 7a3d 9c3e d8ab 2c3d 9093 d0bc
00000180: 350e 42bd ab3b 203e 23dc dc3d a200 d73d
00000190: dd8d 65be 7b06 a4bd 223b bfbd 9cb6 d83d
000001a0: 94ca 1ebc 5f3b 543e 9a5b 10be 4b62 f03d
000001b0: 2ef1 76be 513d ed3c ce0d 07be 64f0 2f3b
000001c0: 9e6b 4f3e 03dc a13e 35ee 23bb 4ab7 5abc
000001d0: 0ec8 6c3e 23e0 4d3e d91d 8bbd ee23 af3d
000001e0: 1780 00be 79c9 c53d 7d5e a53e d2cf 91bd
000001f0: 889a 5e3e 3472 813e 9598 bc3b dfbd 97bd
00000200: 748c 72be 63d3 67be ccba 533d a582 583d
00000210: 56f4 f83c 0b97 8a3a eab2 4d3e 17a6 3e3e
00000220: dc29 20be 7160 08be 33f3 60be f2d1 3c3d
00000230: a43a 09bd d45d 433d 9369 933e 163d 983e
00000240: 63f6 ad3d 6129 ea3c 0a39 123e d4f1 ad3e
00000250: b7ca 00be ce75 233e d965 323e 8fd8 4dbe
00000260: 7b6e a13e ab1b 103e 80e8 6b3e ae9b b3bd
00000270: 4077 6b3d 08de 53bd abac 2a3e 5994 a63e
00000280: 9e80 8bbd 7f37 02be 8391 4f3d 0b27 893c
00000290: 6cae e93d a727 973d c60e 40be cd2e 77bd
000002a0: 3bc8 683e 1346 9d3d 5868 143c 0e7b f4bd
000002b0: 9a72 5e3b 25d2 56be f9c4 083e 4eaf 8aba
000002c0: cf52 0fbd da17 47be 7c8a 0c3d 19b6 1a3e
000002d0: 06f4 c53c f120 8b3e ce5c 24be 0ead 41be
000002e0: adc4 f23d d90f 05be ee02 6e3e 9b67 0c3e
000002f0: 3398 823d bf73 a83e bcb0 863d b0ce b8be
00000300: 9ef5 f03d d000 c1be b105 063e bdf1 963e
00000310: 49b7 193e d971 c13e 0a11 c1bd 63e0 073f
00000320: c191 883e 5f0e ac3e ed30 cf3c c353 893e
00000330: 6f91 0abf 1be7 1b3d e477 5dbd c06f b33e
00000340: ee70 ff3e 877b 923e 4dbd b73e 5391 fd3d
00000350: 318c 19bd e802 9cbe dbfd 02be 8b8a dabe
00000360: 08bd 89be 5b5b babe 7e43 b8be 26da 0f3d
00000370: 7564 eb3d 30e3 edbe d8e0 40be 8def b0be
00000380: 3c1f c93e 75c5 97bd ce01 d23e 8c48 bfbe
00000390: 672f 573e e4e3 a13e f011 8a3e f3c7 5c3e
000003a0: 75ec 71be e642 3dbe ef15 973e c9d3 44bd
000003b0: 2424 51be b69e b6be 790f 3dbe 074a b8be
000003c0: 04ed ad3e d6c3 40be b26b b6bd 022e bebe
000003d0: dbf9 463e 8983 c7be 74d2 05bf eaff 383c
000003e0: b0e9 7ebe 6451 ac3d 310e f93e e532 aabe
000003f0: df4a b4be 3f03 10be 71f7 633d 2174 cfbe

lstm.weight_hh_l0 f4 [192, 48]
-0.067524076 0.27731636 -0.09242169 -0.031202072 -0.029342156 -0.0030335316 0.08484379 0.07300372
-0.057930436 -0.065036915 -0.1666074 -0.033109076 0.01933951 0.13000518 -0.06287495 -0.1447757
0.0028288162 -0.14071837 -0.08572726 0.19037856 -0.05183807 -0.021605637 0.023084156 0.104524784
-0.27020392 -0.021719579 -0.14123677 0.010505856 -0.18672134 -0.21908632 0.061434753 0.027474735
-0.0919076 0.0042427625 0.2743442 0.1262992 -0.020749211 0.23266988 -0.1625975 -0.050396148
0.09506333 -0.21808907 -0.09969271 0.1449844 0.015981179 0.16270222 0.09156535 0.059377883
0.0302436 -0.122946054 -0.03705295 -0.25108054 -0.21677041 -0.12833062 0.42289245 -0.13226892
-0.3442096 -0.17846666 0.6098774 0.2844884 0.27255434 0.4617753 0.44743076 0.30383813
-6.524652e-05 -0.20522577 -0.31125894 -0.2863314 0.25799003 0.039654866 0.26863372 0.2858132
-0.58771366 0.5988084 -0.17108344 0.31368414 0.21583791 -0.29206252 0.2741335 0.24599867
-0.18772313 0.105928265 0.28554 -0.34671184 0.5352106 -0.07909209 0.06404647 -0.11365606
0.12079699 -0.58604 0.19949602 -0.0059948894 -0.03861615 -0.3589914 0.32830545 -0.06711837
0.038870446 -0.06760241 -0.011917125 -0.11259168 -0.075115986 -0.10617133 -0.09270111 -0.32702255
0.024516733 -0.043666225 0.14626397 0.13532238 -0.035452593 0.07674339 0.29375184 0.1731184
0.12439296 -0.09715721 -0.07224989 -0.04211687 -0.16492963 0.09985427 -0.067309044 0.18396261
-0.15871572 0.08919955 -0.1574041 -0.15323235 -0.21805212 0.049555555 -0.009750137 -0.0065069115
0.024620747 0.043681294 -0.040651564 0.036699418 -0.026656985 0.095580496 0.22187524 0.10385099
-0.1568939 -0.09317816 -0.028578399 0.34962898 -0.3151033 -0.38518643 0.16881528 0.30051312
0.15167432 0.60326076 0.1044457 -0.041462425 0.060646504 0.030143695 -0.24312986 -0.12703091
-0.0237437 0.22256559 0.09013184 0.19117677 -0.09738874 -0.12813428 0.11405673 0.009345885
0.38329703 0.19469042 -0.060638636 -0.039715543 -0.102161124 0.34112382 -0.050529685 0.11625396
0.074263625 -0.15650459 -0.026641289 -0.11009367 -0.42984608 0.22716291 -0.114466526 0.16941993
0.24583189 0.112462215 0.15188035 0.1052225 -0.22370468 0.109128624 0.13858183 0.3032437
-0.23192179 0.005100948 0.09255519 0.09846831 -0.10692449 0.0243312 0.060433764 0.4667377
-0.18220651 0.36176762 0.18889731 0.070704974 0.1681223 -0.03213785 0.024377268 0.0012615852
0.12196595 -0.08607845 0.1349882 0.06263731 -0.09365103 0.13450253 0.003239515 -0.13128512
-0.0013204602 -0.24076499 -0.046237208 0.097815305 -0.13815367 0.023705011 0.053955745 -0.12955503
0.01073705 0.09735079 -0.4102078 0.012163382 -0.16756788 -0.12779306 -0.22010383 0.015601682
0.02353017 0.2582427 -0.1725576 0.033179775 0.075061455 0.09515011 -0.02621539 -0.17312814
-0.27032956 -0.016965738 -0.010272146 0.11653477 -0.07308144 0.20784199 -0.19240698 0.11004587
-0.1650134 0.12618926 0.30117303 -0.18394144 -0.034045774 0.0125192655 0.0645865 0.12124018
-0.29185754 -0.09673936 -0.07261657 0.13556752 0.100695595 -0.21531713 -0.082973085 0.058935598
00000000: 104a 8abd 69fc 8d3e 9547 bdbd 7d9b ffbc
00000010: f65e f0bc 37ce 46bb 95c2 ad3d f982 953d
00000020: 7748 6dbd 1332 85bd 219b 2abe 629d 07bd
00000030: e46d 9e3c 1420 053e 95c4 80bd 1540 14be
00000040: a963 393b 7a18 10be c691 afbd 99f2 423e
00000050: 2854 54bd 4efe b0bc fc1a bd3c 1711 d63d
00000060: 2b58 8abe 42ed b1bc 5fa0 10be c120 2c3c
00000070: e133 3fbe 2a58 60be 02a3 7b3d b212 e13c
00000080: 0d3a bcbd df06 8b3b d876 8c3e 9454 013e
00000090: 40fa a9bc 0341 6e3e f67f 26be 316c 4ebd
000000a0: 90b0 c23d be52 5fbe b12b ccbd ca76 143e
000000b0: f6ea 823c 699b 263e 9d86 bb3d 3936 733d
000000c0: 6dc1 f73c 24cb fbbd d6c4 17bd a18d 80be
000000d0: 10f9 5dbe 1a69 03be 5c85 d83e 8171 07be
000000e0: 3e3c b0be f7bf 36be ed20 1c3f 77a8 913e
000000f0: 3e8c 8b3e d06d ec3e a515 e53e ac90 9b3e
00000100: f5d4 88b8 b426 52be 555d 9fbe 079a 92be
00000110: 4517 843e 246d 223d 5c8a 893e 1c56 923e
00000120: 6774 16bf 824b 193f 7f30 2fbe 359b a03e
00000130: 9d04 5d3e 3889 95be 3a5b 8c3e 13e7 7b3e
00000140: 7e3a 40be ebf0 d83d 4d32 923e 3784 b1be
00000150: 9003 093f 09fb a1bd cc2a 833d 82c4 e8bd
00000160: 6a64 f73d b806 16bf af48 4c3e c770 c4bb
00000170: f82b 1ebd b9cd b7be a717 a83e 5b75 89bd
00000180: 9e36 1f3d 2273 8abd 0c40 43bc 7796 e6bd
00000190: 69d6 99bd 5b70 d9bd 14da bdbd 806f a7be
000001a0: 51d7 c83c 5bdb 32bd 39c6 153e f391 0a3e
000001b0: bd36 11bd a32b 9d3d a466 963e f345 313e
000001c0: bcc1 fe3d 5cfa c6bd c0f7 93bd bd82 2cbd
000001d0: 50e3 28be 6580 cc3d 53d9 89bd b260 3c3e
000001e0: 6086 22be 41ae b63d 8a2e 21be f1e8 1cbe
000001f0: 0e49 5fbe c4fa 4a3d 0abf 1fbc ee37 d5bb
00000200: 73b1 c93c 28eb 323d 4182 26bd 2152 163d
00000210: c05f dabc b5bf c33d 4333 633e d4af d43d
00000220: cba8 20be 31d4 bebd 3f1d eabc 9202 b33e
00000230: 3855 a1be 2837 c5be eadd 2c3e dbdc 993e
00000240: 8350 1b3e 4c6f 1a3f a1e7 d53d 81d4 29bd
00000250: 7868 783d e9ef f63c 09f7 78be 6414 02be
00000260: 2682 c2bc 3ce8 633e 0b97 b83d d8c3 433e
00000270: bf73 c7bd a235 03be 9396 e93d 7c1f 193c
00000280: 823f c43e ed5c 473e 3860 78bd c4ac 22bd
00000290: da39 d1bd c8a7 ae3e 37f8 4ebd 8e16 ee3d
000002a0: 8717 983d bd42 20be d53e dabc ca78 e1bd
000002b0: c914 dcbe 659d 683e 6d6d eabd 6b7c 2d3e
000002c0: 5bbb 7b3e 9752 e63d 8686 1b3e e57e d73d
000002d0: d712 65be d47e df3d 65e8 0d3e c242 9b3e
000002e0: e87c 6dbe da25 a73b 938d bd3d c1a9 c93d
000002f0: 3afb dabd 3a52 c73c 6589 773d 3ef8 ee3e
00000300: 5894 3abe 9b39 b93e 4c6e 413e c5cd 903d
00000310: 4128 2c3e faa2 03bd d6b2 c73c c65b a53a
00000320: 49c9 f93d e649 b0bd 593a 0a3e fd47 803d
00000330: 1ccc bfbd 08bb 093e 0b4e 543b 9b6f 06be
00000340: 4b13 adba 198b 76be 3a63 3dbd 6453 c83d
00000350: 2878 0dbe 0331 c23c b300 5d3d 13aa 04be
00000360: 74ea 2f3c da5f c73d c206 d2be ec48 473c
00000370: ea96 2bbe 2fdc 02be e662 61be 329e 7f3c
00000380: 58c2 c03c 6338 843e f1b2 30be 84e7 073d
00000390: d2b9 993d 10de c23d a8c1 d6bc 8148 31be
000003a0: a368 8abe bbfb 8abc 814c 28bc c8a9 ee3d
000003b0: b9ab 95bd 88d4 543e 5606 45be bb5f e13d
000003c0: 46f9 28be c237 013e 5a33 9a3e 255b 3cbe
000003d0: 9573 0bbd 9b1d 4d3c ed45 843d c64c f83d
000003e0: 5a6e 95be 491f c6bd ffb7 94bd 36d2 0a3e
000003f0: 7e39 ce3d 187c 5cbe cbed a9bd 7466 713d

lstm.bias_ih_l0 f4 [192]
0.15695126 -0.24282573 -0.1043165 0.09851233 -0.114041515 -0.2765294 0.16405031 -0.08849172
0.09446296 -0.008862212 -0.18018731 0.014518298 -0.031842165 0.08835579 0.23434024 0.16754852
-0.029872887 0.24331267 0.057320576 -0.14368482 -0.069512315 -0.038000382 0.12928472 0.049168147
0.28566253 0.012379535 -0.16028678 0.26970226 -0.05303496 0.11773759 -0.23228416 0.0183324
-0.24655221 -0.1778143 -0.32178628 -0.06697932 0.102234446 -0.3760212 -0.24038923 0.16741173
-0.06656762 0.23705178 -0.10651974 -0.005512956 -0.2863911 0.10475538 0.10885628 0.10337484
-0.18846786 0.19579905 -0.07204384 -0.13110325 -0.05927557 -0.13759322 -0.00027521758 -0.16730748
-0.042355012 0.018046066 0.17197421 0.057463657 -0.16901003 0.013937726 0.16409701 -0.09572608
-0.16494001 0.20060062 0.020820461 0.32393435 -0.0982129 -0.22188349 0.05700144 -0.12614669
-0.026391739 0.14323673 0.11171579 0.078520834 0.37790343 -0.14311786 0.09493771 0.06253867
-0.09135924 0.056430027 -0.09219612 -0.112662174 0.17904557 -0.15685512 -0.17110933 0.15438692
0.14404033 0.08971351 -0.09829029 -0.28351173 -0.19922993 -0.08397499 -0.09460622 -0.11799241
0.033108562 -0.003993196 -0.101945 -0.07460568 -0.12985545 -0.12591286 0.06619108 -0.050368086
-0.023830406 -0.13674417 -0.0010018991 0.2488847 0.1766553 -0.018520042 -0.0138901295 0.19155723
-0.03836778 -0.114098586 -0.105018325 -0.16414163 0.052903723 -0.0045042112 0.0630807 0.10174681
-0.03964719 0.056134228 0.07302252 0.13252778 0.014054092 0.03415213 0.19301389 0.11382341
-0.053357396 -0.028805356 0.08502381 -0.11411951 0.17058168 -0.009424428 -0.094889216 -0.011319278
-0.06777963 -0.13937213 0.124855 0.059746742 0.033547826 -0.15298465 -0.005078283 0.05780143
-0.02866731 -0.21267593 -0.16795725 0.2017787 -0.12502597 -0.2039309 0.11270687 0.13939002
0.026873754 -0.14231157 -0.0030260764 0.10548302 -0.118493974 0.035812125 0.37413737 0.18513799
-0.09460153 0.39943245 0.040885262 -0.022057848 -0.007456606 -0.045368444 -0.03293753 0.077639915
0.18737166 -0.12708244 0.017994447 0.11582701 0.059844635 0.13708392 -0.14518839 -0.007721564
-0.2612222 -0.26391217 -0.11042491 -0.0018111051 0.08873184 -0.13748716 -0.28601986 0.042983934
-0.22606632 0.12703158 -0.00751782 -0.20327434 -0.26629815 0.026857236 0.0423978 -0.055271406
00000000: d5b7 203e 4fa7 78be e4a3 d5bd d5c0 c93d
00000010: 998e e9bd 4395 8dbe cefc 273e 263b b5bd
00000020: cc75 c13d d032 11bc 0683 38be 28de 6d3c
00000030: ee6c 02bd e1f3 b43d e3f6 6f3e d791 2b3e
00000040: fcb7 f4bc f526 793e fbc8 6a3d 1d22 13be
00000050: 795c 8ebd 4aa6 1bbd 3763 043e 8a64 493d
00000060: 5c42 923e 88d3 4a3c 3822 24be 6a16 8a3e
00000070: 303b 59bd 6820 f13d e6db 6dbe d42d 963c
00000080: 2f78 7cbe f414 36be 2cc1 a4be 742c 89bd
00000090: 4b60 d13d da85 c0be 9828 76be fb6d 2b3e
000000a0: 9b54 88bd b4bd 723e 0527 dabd 07a6 b4bb
000000b0: dba1 92be fd89 d63d 0bf0 de3d 30b6 d33d
000000c0: b8fd 40be 8c7f 483e b98b 93bd ee3f 06be
000000d0: f1ca 72bd 3de5 0cbe 144b 90b9 a752 2bbe
000000e0: 737c 2dbd 58d5 933c 021a 303e 035f 6b3d
000000f0: f710 2dbe 0f5b 643c 0c09 283e 090c c4bd
00000100: 09e6 28be 406a 4d3e ac8f aa3c b9da a53e
00000110: d823 c9bd 6d35 63be 587a 693d 992c 01be
00000120: 7d33 d8bc a6ac 123e 40cb e43d 88cf a03d
00000130: 8f7c c13e 7d8d 12be b46e c23d 4614 803d
00000140: 8e1a bbbd 2c23 673d 52d1 bcbd 6dbb e6bd
00000150: b957 373e a19e 20be 4937 2fbe 9b17 1e3e
00000160: 4f7f 133e b7bb b73d 6b4c c9bd 7328 91be
00000170: ee02 4cbe 14fb abbd e8c0 c1bd 01a6 f1bd
00000180: d89c 073d 5bd9 82bb 8ac8 d0bd ddca 98bd
00000190: d4f8 04be 4def 00be 308f 873d c44e 4ebd
000001a0: fc37 c3bc aa06 0cbe 2852 83ba a1db 7e3e
000001b0: 21e5 343e 58b7 97bc 6d93 63bc 9427 443e
000001c0: 8927 1dbd 85ac e9bd d913 d7bd be14 28be
000001d0: 93b1 583d 1098 93bb 7430 813d a260 d03d
000001e0: 1865 22bd 01ed 653d d58c 953d 5db5 073e
000001f0: 2243 663c 1be3 0b3d 6fa5 453e 3f1c e93d
00000200: 498d 5abd 36f9 ebbc f720 ae3d 7db7 e9bd
00000210: f7ac 2e3e eb68 1abc 4755 c2bd 7e74 39bc
00000220: 0cd0 8abd 91b7 0ebe fab3 ff3d 00b9 743d
00000230: 7269 093d 02a8 1cbe ba67 a6bb 31c1 6c3d
00000240: b5d7 eabc b8c7 59be fcfc 2bbe 139f 4e3e
00000250: cf06 00be 43d3 50be dcd2 e63d 42bc 0e3e
00000260: 5926 dc3c 20ba 11be 2351 46bb 7b07 d83d
00000270: f8ac f2bd bcaf 123d ef8e bf3e d094 3d3e
00000280: 72be c1bd 6982 cc3e 4e77 273d a9b2 b4bc
00000290: 8b56 f4bb 43d4 39bd 81e9 06bd ad01 9f3d
000002a0: 5bde 3f3e e621 02be 1769 933c b636 ed3d
000002b0: a61f 753d ba5f 0c3e 44ac 14be 2c05 fdbb
000002c0: ebbe 85be 7f1f 87be 7526 e2bd 9a62 edba
000002d0: 0ab9 b53d 6fc9 0cbe 3271 92be ec0f 303d
000002e0: ee7d 67be 9114 023e 0c58 f6bb 2627 50be
000002f0: 3b58 88be b503 dc3c 51a9 2d3d 4564 62bd

lstm.bias_hh_l0 f4 [192]
0.08443326 -0.18150124 0.08441914 0.03465503 -0.06783571 -0.25979364 0.23495094 -0.13585758
0.16403012 0.046822824 0.049545646 0.250442 0.09189751 0.14525947 0.13429996 0.2796183
0.02103532 0.2507525 -0.050424013 0.0475199 -0.05332954 -0.22734068 -0.043645438 0.12997748
0.26654604 -0.0038794547 -0.11976221 0.30071488 0.051920537 0.22334568 -0.08651375 -0.078440696
-0.24630965 -0.17826779 -0.2760167 0.05568613 0.13930103 -0.12871173 -0.13005257 0.0531436
-0.29495052 0.22195132 -0.10737788 -0.010512008 -0.16205953 0.25172803 0.04603698 -0.11901004
-0.06902181 -0.03630328 -0.111485474 -0.062275723 -0.1947948 -0.07272487 -0.022821067 -0.08162817
-0.14429168 -0.077608466 0.19818932 -0.10627304 -0.19522332 -0.032167144 0.16499233 -0.0641766
-0.066088416 0.1451868 -0.00904287 0.26805905 -0.11021254 -0.045716535 0.009814292 0.14741027
-0.040442817 0.04071379 0.06902154 -0.11759189 0.26996726 -0.08724651 0.036551096 0.015747244
0.015692627 -0.12527445 0.059458822 -0.14564699 0.13793704 0.031225944 0.02943342 -0.070793085
0.12778236 0.16456233 0.01449005 -0.16760896 -0.031437468 -0.11142085 0.06852714 -0.13013102
0.052221768 0.069394484 -0.15097946 -0.11127174 -0.08349369 0.036046997 0.14372599 -0.09085441
-0.27035826 -0.09504821 0.040865134 -0.020843573 0.04463892 0.12939028 0.030678434 0.028749578
-0.0032390247 0.09617874 -0.12608871 0.005749294 0.15351915 -0.040144015 0.20743115 0.020585092
-0.033719487 -0.07565971 0.0036207233 0.050638285 0.056697067 -0.043091718 -0.017376307 0.045939773
0.06329275 -0.08491021 0.034348343 -0.124378935 -0.06674956 0.021074293 0.10064374 0.039548583
0.008796914 -0.12791815 0.068459004 -0.06790017 -0.016772939 -0.019594073 0.22775412 0.03730529
0.06583697 -0.19026199 -0.04411093 0.025206933 -0.09398577 -0.15656337 0.20356502 -0.08135295
0.23263733 -0.15258723 -0.15100999 0.26608568 0.0068776575 0.013433683 0.29997763 0.14002033
0.027187755 0.1854666 -0.10693667 -0.003932161 0.041258205 0.005026258 0.08205222 -0.004569179
0.114883706 0.022405935 0.12014853 0.06787328 0.21885045 0.15058818 -0.19055699 0.04460345
-0.26624203 -0.07126248 -0.22898829 0.013721842 0.23384747 -0.20182018 -0.24941799 0.1322552
-0.21169384 0.17595887 -0.068810135 -0.021434203 -0.10738536 0.027124783 0.12129348 0.044021506
00000000: 58eb ac3d 76db 39be f1e3 ac3d 6ff2 0d3d
00000010: 73ed 8abd ac03 85be fb96 703e 401e 0bbe
00000020: 83f7 273e 4ac9 3f3d 60f0 4a3d ef39 803e
00000030: c334 bc3d e6be 143e ee85 093e 212a 8f3e
00000040: 4352 ac3c a262 803e 6989 4ebd 3aa4 423d
00000050: 1370 5abd ffcb 68be 8fc5 32bd d118 053e
00000060: b978 883e 733e 7ebb e445 f5bd 4df7 993e
00000070: a1aa 543d bbb4 643e 1f2e b1bd 84a5 a0bd
00000080: 9938 7cbe d58b 36be 1052 8dbe 2417 643d
00000090: eea4 0e3e 02cd 03be 802c 05be 1aad 593d
000000a0: c103 97be 3547 633e efe8 dbbd 8f3a 2cbc
000000b0: eff2 25be 7fe2 803e 4691 3c3d 89bb f3bd
000000c0: 4f5b 8dbd c0b2 14bd 7f52 e4bd d414 7fbd
000000d0: 4a78 47be c7f0 94bd 3ff3 babc ac2c a7bd
000000e0: 33c1 13be 30f1 9ebd 24f2 4a3e aea5 d9bd
000000f0: 9fe8 47be b2c1 03bd c0f3 283e 056f 83bd
00000100: 5d59 87bd d9ab 143e 8c28 14bc 093f 893e
00000110: 1db7 e1bd 4341 3bbd 20cc 203c b8f2 163e
00000120: 5ea7 25bd 81c3 263d 2a5b 8d3d 04d4 f0bd
00000130: 2639 8a3e 4cae b2bd 9ab6 153d 5d00 813c
00000140: d38d 803c f247 00be 188b 733d 7c24 15be
00000150: 5e3f 0d3e 8dcd ff3c 5b1e f13c f7fb 90bd
00000160: 61d9 023e 0783 283e ad67 6d3c afa1 2bbe
00000170: 93c4 00bd 9d30 e4bd f557 8c3d 1141 05be
00000180: 7ee6 553d b21e 8e3d 5c9a 1abe 70e2 e3bd
00000190: bdfe aabd 04a6 133d e82c 133e e011 babd
000001a0: 666c 8abe a3a8 c2bd 3362 273d 24c0 aabc
000001b0: 4dd7 363d e37e 043e 5751 fb3c 3c84 eb3c
000001c0: d145 54bb 5cf9 c43d 661d 01be 9364 bc3b
000001d0: 2034 1d3e 0d6e 24bd d568 543e 11a2 a83c
000001e0: 721d 0abd 7af3 9abd a849 6d3b 176a 4f3d
000001f0: 2f3b 683d f180 30bd c258 8ebc 582b 3c3d
00000200: a19f 813d 67e5 adbd d9b0 0c3d 62ba febd
00000210: feb3 88bd ffa3 ac3c 4e1e ce3d b2fd 213d
00000220: ee20 103c fafc 02be 3c34 8c3d 3f0f 8bbd
00000230: 6767 89bc c083 a0bc 6038 693e 6fcd 183d
00000240: 89d5 863d 0ad4 42be aaad 34bd c57e ce3c
00000250: 9d7b c0bd 2652 20be 5973 503e 609c a6bd
00000260: 7b38 6e3e d43f 1cbe 5da2 1abe 623c 883e
00000270: f95d e13b f318 5c3c ab96 993e 7d61 0f3e
00000280: dbb8 de3c f5ea 3d3e 9d01 dbbd 5bd9 80bb
00000290: 5dfe 283d 4fb3 a43b ff0a a83d 0db9 95bb
000002a0: 2648 eb3d a78c b73c 6f10 f63d 2501 8b3d
000002b0: 551a 603e ca33 1a3e 5f21 43be 1bb2 363d
000002c0: e050 88be 10f2 91bd e87b 6abe 94d1 603c
000002d0: b675 6f3e f3a9 4ebe 6e67 7fbe e86d 073e
000002e0: 45c6 58be 902e 343e 54ec 8cbd c896 afbc
000002f0: dbec dbbd cb34 de3c b768 f83d e54f 343d

lstm.weight_ih_l1 f4 [192, 48]
0.02919213 0.3671376 0.21970361 -0.08193014 0.06553361 0.058839235 -0.17848402 -0.299971
-0.10171005 0.12180915 -0.12721126 0.07649058 -0.38443592 0.05709767 0.07110993 -0.01726493
0.38558966 0.05221038 0.14233713 0.26490372 -0.00048264617 0.29441246 0.12777935 -0.09694457
-0.06316813 -0.076589204 -0.022374766 -0.08341254 -0.11062565 0.05027321 0.037911303 -0.07919164
0.39004454 0.25140098 0.19723952 0.36872813 -0.012456157 0.3460332 0.08555157 0.32291895
-0.23855796 -0.053489383 -0.082785755 0.30918506 -0.14767021 0.109444134 0.11045134 0.3265757
-0.13286382 0.15634568 0.33727708 0.19939837 0.27354774 0.059137154 -0.32678196 0.11664048
0.19359712 -0.030545672 0.008617736 -0.11136208 -0.29447332 -0.11323362 -0.17061645 -0.30245712
-0.013590139 -0.23241378 0.09102864 0.043776195 -0.24286997 0.08128659 -0.32306182 -0.28267187
-0.07417449 -0.23376565 -0.3288159 -0.04166787 0.028510274 0.032751106 -0.059326306 -0.17314212
0.0851974 0.08442265 -0.25149062 0.34886652 -0.14531843 -0.019986039 -0.01631447 -0.20081133
0.016411757 0.30543846 -0.18297116 0.10337281 -0.08310052 0.3287679 -0.37487963 -0.032858767
-0.20082082 0.33655426 0.08529096 0.0266457 0.008834778 0.13328718 0.19302164 0.18641105
0.13157801 -0.24567112 -0.028749399 -0.073124565 0.06776667 -0.06785973 -0.15896705 -0.08787002
-0.07751392 -0.055458404 -0.111953355 0.027513623 0.012085783 0.102433056 0.052994434 -0.11130393
-0.10289746 -0.08394152 -0.2860774 0.0032065834 0.022894572 -0.19666167 -0.18297872 0.060745418
0.044914763 0.30591527 0.010565445 0.06364705 0.11620069 0.15240902 -0.0005820456 -0.122567706
-0.23110949 -0.22388783 -0.13030954 0.092320316 -0.009700445 0.1808883 -0.15764362 -0.0057708747
-0.13965517 0.10915277 0.05677335 -0.14017946 -0.074215375 0.10124271 0.04367027 -0.23600225
-0.0038322422 -0.041431643 0.04887519 -0.093584545 -0.012963637 -0.05285759 0.04731509 -0.07062205
0.13336292 -0.19014749 -0.22095796 0.14020836 0.0015002679 0.23604946 0.10469723 0.03121366
-0.0948466 -0.14241208 -0.11674478 -0.028567458 -0.032738972 0.0317474 0.12004937 -0.10531758
0.14049195 0.16048421 0.013274537 0.009961521 0.08454677 0.04571835 -0.0867144 -0.1610081
-0.08427338 -0.061972514 0.080492064 0.08175034 -0.21400167 0.073884256 -0.1398436 0.18210936
-0.06326567 0.19433501 0.04018126 0.042102292 0.34199744 0.113050275 -0.05079424 0.069350824
0.072507165 -0.13231756 0.1010125 -0.108765185 -0.26684842 0.0039233337 -0.21415946 -0.14829768
0.13364305 -0.1291544 -0.13022806 -0.0050583472 0.10159111 -0.07372536 -0.20626213 -0.13347098
-0.21194841 -0.066382624 -0.16686995 0.015573535 0.16668752 0.078376345 -0.2809221 -0.053926107
-0.0043482766 0.12713297 -0.026076311 0.12066462 -0.054838724 0.055379715 -0.1373899 -0.03236161
-0.18473658 0.007310126 -0.11562379 0.117708504 0.08795645 0.05551595 -0.26101023 0.08127032
-0.1281192 -0.05430063 0.083022706 0.14743552 -0.02902862 0.0109741865 0.21265562 0.16499206
0.05498615 0.043142322 -0.028999623 -0.12428327 -0.19418743 0.029496506 -0.3257968 -0.21512698
00000000: 5524 ef3c 76f9 bb3e fcf9 603e fdca a7bd
00000010: 7c36 863d 6901 713d 84c4 36be cd95 99be
00000020: 5c4d d0bd 1377 f93d ab43 02be 18a7 9c3d
00000030: c9d4 c4be 3fdf 693d 15a2 913d 2f6f 8dbc
00000040: 026c c53e 8dda 553d d3c0 113e 76a1 873e
00000050: ac0b fdb9 3bbd 963e 97d8 023e e08a c6bd
00000060: 4b5e 81bd cdda 9cbd 494b b7bc 32d4 aabd
00000070: b38f e2bd 48eb 4d3d e248 1b3d 3a2f a2bd
00000080: ebb3 c73e a1b7 803e 28f9 493e efc9 bc3e
00000090: e914 4cbc 432b b13e a935 af3d a255 a53e
000000a0: 8a48 74be af17 5bbd 948b a9bd 814d 9e3e
000000b0: dc36 17be 3f24 e03d 5034 e23d ee34 a73e
000000c0: 740d 08be 1519 203e 95af ac3e 162f 4c3e
000000d0: 730e 8c3e cd39 723d f74f a7be 34e1 ee3d
000000e0: 533e 463e eb3a fabc 6831 0d3c cd11 e4bd
000000f0: 35c5 96be 07e7 e7bd 14b6 2ebe a9db 9abe
00000100: 2da9 5ebc e1fd 6dbe 396d ba3d ab4e 333d
00000110: e8b2 78be 9579 a63d 5c68 a5be 5eba 90be
00000120: cce8 97bd 4360 6fbe 8f5a a8be eeab 2abd
00000130: 618e e93c 0626 063d 2400 73bd 2b4c 31be
00000140: f97b ae3d c8e5 ac3d 61c3 80be a29e b23e
00000150: 5bce 14be c3b9 a3bc eca5 85bc 7ca1 4dbe
00000160: f371 863c 6e62 9c3e cb5c 3bbe 20b5 d33d
00000170: 9b30 aabd 4454 a83e 39f0 bfbe ea96 06bd
00000180: f9a3 4dbe d750 ac3e 07ad ae3d 1548 da3c
00000190: bfbf 103c 6f7c 083e 77a7 453e 8ae2 3e3e
000001a0: 63bc 063e 3691 7bbe dc83 ebbc 55c2 95bd
000001b0: 40c9 8a3d 0bfa 8abd 42c8 22be 32f5 b3bd
000001c0: 9ebf 9ebd 5a28 63bd cd47 e5bd 4064 e13c
000001d0: 7303 463c 6cc8 d13d b110 593d 51f3 e3bd
000001e0: e7bb d2bd 88e9 abbd bd78 92be 8b25 523b
000001f0: 668d bb3c ad61 49be c65e 3bbe 30d0 783d
00000200: 8bf8 373d eda0 9c3e b01a 2d3c 6259 823d
00000210: a1fa ed3d 1c11 1c3e 6b94 18ba c704 fbbd
00000220: f7a7 6cbe da42 65be dd6f 05be 6f12 bd3d
00000230: 9eee 1ebc c83a 393e 546d 21be 9b19 bdbb
00000240: c401 0fbe 7d8b df3d 2c8b 683d 348b 0fbe
00000250: 3bfe 97bd 5758 cf3d 99df 323d 93aa 71be
00000260: 5b26 7bbb 3ab4 29bd 5a31 483d 41a9 bfbd
00000270: 6f65 54bc 3381 58bd 78cd 413d 4ba2 90bd
00000280: 4a90 083e 06b6 42be ce42 62be c892 0f3e
00000290: a3a4 c43a f3b6 713e 806b d63d cab3 ff3c
000002a0: ef3e c2bd 79d4 11be e317 efbd 4d06 eabc
000002b0: 4d19 06bd 9009 023d 72dc f53d beb0 d7bd
000002c0: 1fdd 0f3e f955 243e 727d 593c a635 233c
000002d0: db26 ad3d 2a43 3b3d 5297 b1bd 4fdf 24be
000002e0: 8697 acbd e4d6 7dbd 06d9 a43d b96c a73d
000002f0: 4123 5bbe a150 973d 2933 0fbe e07a 3a3e
00000300: 6e91 81bd c2ff 463e 1b95 243d 7473 2c3d
00000310: 4a1a af3e e786 e73d 9f0d 50bd ce07 8e3d
00000320: a37e 943d 417e 07be a4df ce3d 48c0 debd
00000330: 5ba0 88be 4f8f 803b 9e4c 5bbe 59db 17be
00000340: b9d9 083e 0d41 04be 815a 05be 7ec0 a5bb
00000350: 000f d03d 52fd 96bd 6136 53be 9eac 08be
00000360: 0109 59be 9df3 87bd f5df 2abe 2428 7f3c
00000370: 22b0 2a3e c783 a03d 06d5 8fbe 9fe1 5cbd
00000380: fd7b 8ebb 252f 023e fd9d d5bc 031f f73d
00000390: 929e 60bd d7d5 623d f0af 0cbe 9c8d 04bd
000003a0: 962b 3dbe c889 ef3b 2acc ecbd 2811 f13d
000003b0: 8322 b43d b164 633d 22a3 85be 0e71 a63d
000003c0: ae31 03be 566a 5ebd cf07 aa3d 56f9 163e
000003d0: 6ecd edbc 13cd 333c 65c2 593e aef3 283e
000003e0: 2839 613d 01b6 303d 9e90 edbc 3a88 febd
000003f0: 12d9 46be a8a2 f13c d7ce a6be 3f4a 5cbe

lstm.weight_hh_l1 f4 [192, 48]
0.050834537 -0.091398425 -0.026565647 -0.35740364 -0.17593388 0.110848166 -0.037735295 -0.007996502
0.038226996 -0.25059205 -0.09838247 0.12329823 0.19005805 -0.023243628 -0.36197475 0.047988664
-0.06504327 0.07538466 0.12318467 -0.1317582 0.13070194 0.043144878 -0.032900367 -0.09903217
-0.14565735 -0.11570844 -0.13593082 0.0004137923 0.10061817 0.0082508875 0.15252419 -0.031324368
0.020546984 -0.23054439 0.0569297 0.09385459 0.1890757 0.13273476 0.21034762 0.13972154
0.042300813 -0.043885406 -0.0062561613 0.07725503 -0.08456927 -0.2259707 0.15262292 0.033571813
0.059505127 -0.14210524 -0.11314317 -0.08808662 0.027708557 0.18445142 -0.12857972 -0.009588053
0.07853799 0.19910929 0.035547677 0.02433134 0.08786898 -0.059022255 -0.061710384 -0.07000404
-0.1375371 0.059408788 0.1437029 0.13902108 0.090870336 -0.09956533 0.089825235 0.103926405
0.04964668 0.08772608 -0.06009284 0.016165676 0.13176991 -0.14518715 0.02567341 -0.03195739
0.16966337 -0.07260632 -0.08591545 -0.08256835 -0.06373355 0.09994884 0.16424076 -0.106892414
0.13339378 -0.09043746 0.23276378 -0.07651353 0.11736989 -0.07099317 -0.069260925 -0.14679156
-0.09200181 -0.0496226 -0.21164836 -0.046691414 -0.12730266 -0.14975637 0.021525158 -0.06781034
0.050057184 -0.038675774 0.008013484 -0.030097824 -0.009868186 0.09327851 0.01819199 -0.07936769
-0.16861558 -0.11050077 0.015894143 0.22827856 -0.038030554 -0.017503375 -0.06643622 -0.024313925
0.008616218 -0.12882486 -0.073189706 0.027136467 0.22339714 -0.026155338 0.19839047 -0.021558933
0.08501685 0.051377293 0.035305865 -0.09838258 0.14362244 -0.10462099 0.07402893 -0.01792693
-0.02535738 -0.06402577 0.23935759 -0.1977751 0.18159787 -0.114869475 -0.054177407 -0.13468508
0.048103053 0.034331024 0.03286315 -0.29877564 -0.10910432 0.1469186 0.07878821 -0.044505633
-0.021546979 -0.18985635 -0.1712845 0.08770012 0.1268643 -0.091436744 -0.2096101 0.09306573
-0.20103598 0.16789722 0.104586594 -0.16530795 0.04717839 -0.06857893 0.058834083 0.082297295
-0.22783768 0.0028407625 -0.11236953 -0.029868107 -0.035684176 0.13026378 0.05625997 0.12364597
0.10978571 0.117786355 -0.005911263 -0.0077359034 -0.15148866 0.13401194 -0.09803798 -0.11487748
0.02612887 0.045431785 -0.08522714 0.0868772 0.07574823 -0.14710245 0.03152645 -0.034810133
-0.24233977 -0.15214133 -0.009064521 0.036918566 -0.15812886 0.17932016 -0.23831406 -0.11986127
0.081435174 0.32007042 0.09058021 0.047568876 -0.049127672 0.17077632 0.04751609 -0.13279298
0.004344025 -0.2640043 0.0582495 -0.06505082 0.01539135 0.048711363 -0.037499912 0.11677139
0.044040006 0.08381608 -0.079946145 -0.129511 0.13673341 -0.013885281 0.03348227 0.063117035
0.17619081 -0.06189055 0.10999883 0.029222665 0.08016478 -0.119873255 0.009449701 -0.07695545
-0.10234886 -0.40282843 0.07581157 0.03091616 -0.058031578 -0.04487798 0.017984593 0.0076660574
-0.062033568 -0.1848013 -0.25775737 -0.07960424 0.033324417 0.03963833 -0.1584064 0.01967051
0.085460395 -0.04412127 0.06861096 -0.0026840898 0.034132797 0.14824076 -0.04985924 -0.08453597
00000000: e037 503d 192f bbbd 33a0 d9bc 9cfd b6be
00000010: 0328 34be 5d04 e33d 5390 1abd c303 03bc
00000020: e993 1c3d 9a4d 80be c07c c9bd c883 fc3d
00000030: 949e 423e 6c69 bebc c154 b9be c38f 443d
00000040: 6835 85bd 4663 9a3d 3f48 fc3d 9feb 06be
00000050: bbd6 053e afb8 303d 89c2 06bd 61d1 cabd
00000060: 3327 15be 8cf8 ecbd 7331 0bbe 43f2 d839
00000070: e610 ce3d bb2e 073c 4d2f 1c3e fb4d 00bd
00000080: 2652 a83c d413 6cbe 1e2f 693d d636 c03d
00000090: 0f9d 413e 9feb 073e 5e65 573e 2a13 0f3e
000000a0: 9e43 2d3d 2fc1 33bd 7c00 cdbb e337 9e3d
000000b0: a732 adbd dd64 67be 2f49 1c3e 9982 093d
000000c0: a6bb 733d 0984 11be 9bb7 e7bd c266 b4bd
000000d0: 0efd e23c d5e0 3c3e 67aa 03be 3617 1dbc
000000e0: 87d8 a03d 4ee3 4b3e 719a 113d 8552 c73c
000000f0: a7f4 b33d 52c1 71bd 07c4 7cbd 475e 8fbd
00000100: 87d6 0cbe a156 733d da26 133e 8b5b 0e3e
00000110: 3a1a ba3d e8e8 cbbd 4bf6 b73d 5ed7 d43d
00000120: 515a 4b3d bba9 b33d e923 76bd e16d 843c
00000130: b1ee 063e f1ab 14be 0b51 d23c c1e5 02bd
00000140: 3cbc 2d3e 9fb2 94bd 70f4 afbd 9819 a9bd
00000150: bc86 82bd fab1 cc3d bb2e 283e 69ea dabd
00000160: 6198 083e 4637 b9bd a159 6e3e 20b3 9cbd
00000170: a05f f03d de64 91bd acd8 8dbd 8750 16be
00000180: 726b bcbd 1141 4bbd 59ba 58be 7f3f 3fbd
00000190: a15b 02be bc59 19be 8755 b03c 26e0 8abd
000001a0: c308 4d3d 7d6a 1ebd fd4a 033c b68f f6bc
000001b0: 2cae 21bc ce08 bf3d 5e07 953c 878b a2bd
000001c0: 90a9 2cbe 3a4e e2bd 6f34 823c dbc1 693e
000001d0: edc5 1bbd 3d63 8fbc b70f 88bd ff2d c7bc
000001e0: 0a2b 0d3c aaea 03be 7ce4 95bd 4c4d de3c
000001f0: 38c2 643e b843 d6bc df26 4b3e 5c9c b0bc
00000200: 501d ae3d ff70 523d e29c 103d ce7c c9bd
00000210: c311 133e 8843 d6bd 7b9c 973d 7fdb 92bc
00000220: 48ba cfbc f11f 83bd 281a 753e 8e85 4abe
00000230: cbf4 393e b040 ebbd 21e9 5dbd e3ea 09be
00000240: b507 453d b09e 0c3d 839b 063d 1ff9 98be
00000250: 1672 dfbd d471 163e b75b a13d 8a4b 36bd
00000260: 4a83 b0bc b469 42be 3465 2fbe 1f9c b33d
00000270: b7e8 013e 3043 bbbd 08a4 56be 3f99 be3d
00000280: 60dc 4dbe 40ed 2b3e 7f31 d63d 7d46 29be
00000290: 213e 413d 1c73 8cbd 02fc 703d 7c8b a83d
000002a0: 484e 69be 162c 3a3b ff21 e6bd f6ad f4bc
000002b0: 9229 12bd de63 053e db70 663d 193a fd3d
000002c0: 55d7 e03d f939 f13d 45b3 c1bb 767d fdbb
000002d0: d81f 1bbe 6d3a 093e 23c8 c8bd e244 ebbd
000002e0: 360c d63c ae16 3a3d 918b aebd acec b13d
000002f0: e321 9b3d 06a2 16be e121 013d 1295 0ebd
00000300: eb27 78be f0ca 1bbe 5b83 14bc ec37 173d
00000310: 88ec 21be b49f 373e 9a08 74be d379 f5bd
00000320: 7cc7 a63d 45e0 a33e 1e82 b93d 95d7 423d
00000330: 193a 49bd fddf 2e3e 3ba0 423d e2fa 07be
00000340: 5358 8e3b 922b 87be 0797 6e3d 5d39 85bd
00000350: 002c 7c3c 9185 473d 8299 19bd d725 ef3d
00000360: 4b63 343d c4a7 ab3d ceba a3bd 889e 04be
00000370: d803 0c3e 177f 63bc b424 093d 8143 813d
00000380: 5d6b 343e f280 7dbd 1147 e13d 5f64 ef3c
00000390: 6f2d a43d 1c80 f5bd ebd2 1a3c d29a 9dbd
000003a0: 479c d1bd 873f cebe 1943 9b3d e343 fd3c
000003b0: 85b2 6dbd f9d1 37bd 6d54 933c 8d33 fb3b
000003c0: e916 7ebd 8d3c 3dbe c6f8 83be 8c07 a3bd
000003d0: 2f7f 083d cd5b 223d 4a35 22be 0d24 a13c
000003e0: dc05 af3d 81b8 34bd e783 8c3d 8ee7 2fbb
000003f0: d5ce 0b3d 6dcc 173e 3439 4cbd 3221 adbd

lstm.bias_ih_l1 f4 [192]
-0.08463748 -0.00081866886 0.16590604 0.026442647 0.0834893 -0.05467808 0.11196515 0.13287322
-0.014099245 -0.1313945 0.03784224 -0.16655375 0.18870984 0.1784932 0.16255394 0.09179497
0.058052875 -0.138038 0.1350111 -0.031496402 0.027563654 0.113020375 0.20414351 0.22792332
0.16494884 -0.06988481 0.19986352 0.12138975 -0.048652064 0.13037384 0.40228093 0.16699943
-0.07474069 0.19443038 0.12090726 0.19937547 0.03303079 -0.2441533 0.10264598 -0.21119955
0.22085541 -0.071430616 -0.08672156 0.26080436 -0.039463457 0.113127716 0.0202734 -0.026500007
-0.031956263 -0.18989523 -0.068231545 -0.2417203 -0.12515241 0.07477315 -0.09426664 0.029898735
0.023188177 -0.07779249 0.02338384 0.0030327733 -0.024032246 -0.2069653 -0.16755131 0.029896842
-0.047724467 -0.21558163 -0.16326928 -0.07982091 0.09178126 -0.12164181 -0.16829404 -0.032245398
-0.088934995 -0.042050093 -0.11346821 0.015779136 -0.16293608 -0.21684457 -0.07609434 0.12525655
-0.14977327 -0.15871435 -0.025205562 -0.013870906 0.042628407 -0.019334022 -0.1304982 -0.051369216
-0.13677502 0.08276783 0.06260099 -0.09512293 0.11350774 -0.10948925 -0.18267006 -0.1595518
0.11768439 0.05240466 0.07396046 0.028405536 -0.06335299 0.09134334 0.018526498 0.017531093
-0.11835804 0.11399002 -0.20555693 -0.06052043 0.12343207 0.08305939 -0.0133094555 0.06887883
0.051728714 -0.14413045 -0.033107 -0.14821997 0.10304498 -0.025846869 0.101372644 0.2684637
0.04439171 -0.07380549 0.08916939 -0.15207294 0.055061866 -0.019459566 -0.06678139 -0.13961883
-0.13612166 -0.06826426 -0.098549835 0.070180684 -0.17313153 -0.057587326 -0.054282937 -0.1051104
0.007944402 -0.08167074 0.032777473 0.015483485 -0.08702147 0.09257059 -0.04834661 -0.066685095
0.13259879 -0.056737125 0.059637565 0.07787833 0.11832056 0.10926564 -0.034404803 0.044047207
0.021091761 -0.060419213 0.11335351 0.0403202 0.23423456 0.022750195 -0.03817619 0.06947024
-0.096183516 0.11778167 0.09456883 -0.09709831 0.003111515 0.046204925 0.16942745 0.072639525
0.2645791 0.16395888 0.0142335985 -0.013845731 0.0053106854 -0.11018515 0.27385864 0.13255933
0.012478377 0.13087302 -0.0926545 0.17095713 0.11014926 -0.16669957 0.11279018 -0.13719642
-0.010094976 -0.15541178 0.12120803 0.20507424 -0.10315167 0.06375933 -0.048235126 0.013092895
00000000: 6a56 adbd f09b 56ba 46e3 293e 409e d83c
00000010: 70fc aa3d 1ff6 5fbd fc4d e53d eb0f 083e
00000020: 8500 67bc 488c 06be 7700 1b3d 118d 2abe
00000030: 273d 413e ecc6 363e 8a74 263e 00ff bb3d
00000040: dac8 6d3d d559 0dbe 5a40 0a3e 5f02 01bd
00000050: 2ccd e13c 3a77 e73d ff0a 513e bb64 693e
00000060: 59e8 283e c41f 8fbd 06a9 4c3e 309b f83d
00000070: 6347 47bd b880 053e c4f7 cd3e e601 2b3e
00000080: a611 99bd c218 473e 3a9e f73d 1529 4c3e
00000090: 4b4b 073d 5303 7abe 0e38 d23d b244 58be
000000a0: ec27 623e 374a 92bd 139b b1bd 2688 853e
000000b0: 6fa4 21bd 81af e73d 6714 a63c 8b16 d9bc
000000c0: 92e4 02bd e573 42be fbbc 8bbd 8785 77be
000000d0: f427 00be aa22 993d de0e c1bd 31ee f43c
000000e0: 22f5 bd3c ab51 9fbd 788f bf3c 7ec1 463b
000000f0: 46df c4bc b6ee 53be 9292 2bbe 39ea f43c
00000100: bb7a 43bd 6ec1 5cbe 1030 27be 2579 a3bd
00000110: d0f7 bb3d 571f f9bd 4655 2cbe c013 04bd
00000120: 8d23 b6bd b83c 2cbd 0562 e8bd 3f43 813c
00000130: b7d8 26be 810c 5ebe 59d7 9bbd 4143 003e
00000140: 2a5e 19be 0486 22be e57b cebc cc42 63bc
00000150: 209b 2e3d 6262 9ebc 52a1 05be 8768 52bd
00000160: c00e 0cbe 2e82 a93d f334 803d d0cf c2bd
00000170: bf76 e83d e63b e0bd dc0d 3bbe 8c61 23be
00000180: 8304 f13d 45a6 563d 9578 973d bab2 e83c
00000190: 36bf 81bd 3812 bb3d e2c4 973c 5e9d 8f3c
000001a0: b365 f2bd 9973 e93d 847d 52be 45e4 77bd
000001b0: f4c9 fc3d 0b1b aa3d e70f 5abc 5810 8d3d
000001c0: 7de1 533d ef96 13be 359b 07bd fac6 17be
000001d0: 3f09 d33d d0bc d3bc 769c cf3d 1374 893e
000001e0: 15d4 353d 5527 97bd 719e b63d 02b9 1bbe
000001f0: 8d88 613d ab69 9fbc aec4 88bd 3df8 0ebe
00000200: 7a63 0bbe 22ce 8bbd 7fd4 c9bd e4ba 8f3d
00000210: 6449 31be b0e0 6bbd c957 5ebd 1f44 d7bd
00000220: 3d29 023c fd42 a7bd ac41 063d 71ae 7d3c
00000230: 5038 b2bd a695 bd3d 1807 46bd 3292 88bd
00000240: fac7 073e 3065 68bd 8546 743d ad7e 9f3d
00000250: 0d52 f23d aac6 df3d 0dec 0cbd d86a 343d
00000260: a1c8 ac3c 237a 77bd e325 e83d cb26 253d
00000270: 2fdb 6f3e 9e5e ba3c a35e 1cbd 6a46 8e3d
00000280: ddfb c4bd 8437 f13d 4ead c13d 7bdb c6bd
00000290: 8fea 4b3b 6041 3d3d 647e 2d3e 08c4 943d
000002a0: e976 873e d6e4 273e 0a34 693c 34d9 62bc
000002b0: 4205 ae3b c0a8 e1bd 3337 8c3e a2bd 073e
000002c0: 1b72 4c3c 9403 063e a4c1 bdbd 630f 2f3e
000002d0: ef95 e13d 4bb3 2abe 8afe e63d 387d 0cbe
000002e0: 6665 25bc 4424 1fbe ea3b f83d fbfe 513e
000002f0: 2f41 d3bd 4094 823d 3292 45bd 9583 563c

lstm.bias_hh_l1 f4 [192]
0.10705967 -0.042890623 0.075688414 0.28445837 -0.040734064 -0.019640403 0.17775579 0.15489519
-0.11823742 -0.012946337 0.12578352 0.029867819 0.24076073 -0.053731855 0.18559675 0.18097952
0.019578345 -0.11245262 0.31705844 -0.13326022 0.102399215 0.06630001 0.16288553 0.036860645
0.29308164 -0.0027179045 0.0081229275 0.1787526 -0.10242276 -0.09815739 0.32882628 0.08869025
-0.039225794 -0.058083605 0.15961961 -0.02872172 0.037245978 -0.28432924 0.19907384 -0.24996746
0.040435523 0.04612483 0.009164856 0.11599195 -0.08854137 -0.01701872 0.10258678 -0.102533825
-0.21067148 -0.09702046 -0.05620046 0.0011520109 0.102918394 0.04141097 0.05937571 -0.14815854
-0.028221412 -0.097593665 -0.090245955 -0.14036395 0.0021456569 -0.041086093 -0.13783596 -0.10353778
-0.090615205 -0.111097164 -0.12751542 -0.076172344 -0.04530841 -0.27587172 -0.13038996 0.071449414
0.00020674731 -0.14974853 0.11143864 0.033003595 0.04078725 -0.22943684 -0.08745923 0.11639092
-0.06979283 -0.0018136766 0.094328634 -0.09767345 0.0014691824 -0.050736066 -0.20392387 -0.206156
0.03868339 -0.12069192 -0.10055992 -0.15502998 0.055788863 -0.10580675 -0.114490725 0.01736642
-0.06335517 0.11564598 0.002670752 -0.114107504 0.10756124 0.10693763 -0.08015179 0.19298285
-0.15416257 -0.05378537 -0.22489668 -0.110460296 -0.08984274 0.06767183 0.12195935 0.17601697
0.0732305 0.104277946 -0.0839588 0.0032734224 0.115733504 0.055622682 -0.07618 0.2912232
0.020641908 0.12719917 0.08478952 -0.14356369 0.047597997 0.0005078365 -0.04890728 -0.20725808
-0.07160819 0.028578384 -0.21606088 0.0006038214 -0.12490266 -0.08362186 0.032471452 -0.022642344
0.051222 -0.11167894 -0.0226465 -0.059934396 0.014573096 -0.01900879 -0.043839708 -0.11566496
-0.10732102 -0.0061595473 0.15928642 0.21472496 0.17152801 0.07024664 -0.045581184 0.10154012
-0.14940657 0.07234672 0.060618974 -0.0136959795 0.09209986 -0.03263907 0.10168384 -0.08179924
0.0385893 -0.11207056 0.24667488 -0.054041535 0.15555824 0.100830905 -0.012069316 0.15718815
0.2100316 0.079757355 0.20562413 -0.11676684 0.14480864 -0.0051445877 0.33238044 -0.08557058
-0.0013358583 0.17350546 0.12151427 -0.09467341 0.07178376 -0.31971 0.054861877 -0.3384283
0.111322634 -0.1795009 -0.08062295 0.07158018 -0.23011212 0.115858145 0.037853006 -0.12570162
00000000: 1a42 db3d 14ae 2fbd 8702 9b3d 87a4 913e
00000010: c3d8 26bd e9e4 a0bc 9d05 363e d89c 1e3e
00000020: 7626 f2bd e01c 54bc 65cd 003e 5bad f43c
00000030: fb89 763e ef15 5cbd 130d 3e3e b252 393e
00000040: c462 a03c 8f4d e6bd 7c55 a23e 5e75 08be
00000050: aeb6 d13d 4dc8 873d 77cb 263e 30fb 163d
00000060: cc0e 963e df1e 32bb 0716 053c ec0a 373e
00000070: 06c3 d1bd be06 c9bd eb5b a83e 3ca3 b53d
00000080: 3aab 20bd 13e9 6dbd 5373 233e d049 ebbc
00000090: 3d8f 183d 9a93 91be 03da 4b3e 78f7 7fbe
000000a0: b89f 253d 64ed 3c3d 3128 163c 308d ed3d
000000b0: 2e55 b5bd d86a 8bbc 0519 d23d 41fd d1bd
000000c0: 44ba 57be aab2 c6bd 7432 66bd 12ff 963a
000000d0: e1c6 d23d 8d9e 293d f233 733d dfb6 17be
000000e0: 9730 e7bc 30df c7bd dfd2 b8bd 91bb 0fbe
000000f0: 269e 0c3b e449 28bd df24 0dbe 9e0b d4bd
00000100: 7794 b9bd e986 e3bd 6793 02be 3f00 9cbd
00000110: 5095 39bd 0f3f 8dbe f284 05be 1254 923d
00000120: 4fca 5839 ae57 19be f139 e43d c72e 073d
00000130: 8810 273d 7ef1 6abe d31d b3bd 5d5e ee3d
00000140: 8bef 8ebd e3b8 edba 5f2f c13d 0509 c8bd
00000150: 9591 c03a 9fd0 4fbd 6bd1 50be 8f1a 53be
00000160: 7972 1e3d 532d f7bd 5cf2 cdbd 2ec0 1ebe
00000170: dd82 643d 36b1 d8bd 1d7a eabd 0644 8e3c
00000180: 5bc0 81bd cdd7 ec3d c807 2f3b 32b1 e9bd
00000190: 1149 dc3d 1e02 db3d 9f26 a4bd 4c9d 453e
000001a0: cbdc 1dbe 0c4e 5cbd 514b 66be 0239 e2bd
000001b0: 78ff b7bd 8797 8a3d d3c5 f93d cb3d 343e
000001c0: dff9 953d ad8f d53d 97f2 abbd ea86 563b
000001d0: b005 ed3d 9cd4 633d 4304 9cbd 351b 953e
000001e0: 3819 a93c 8040 023e 21a6 ad3d 5c02 13be
000001f0: 1ef6 423d 5520 053a 0053 48bd 763b 54be
00000200: 51a7 92bd 371d ea3c 103f 5dbe c549 1e3a
00000210: f7cc ffbd f041 abbd c900 053d 707c b9bc
00000220: 29ce 513d eeb7 e4bd 2785 b9bc c57d 75bd
00000230: ffc3 6e3c 52b8 9bbc 4491 33bd c0e1 ecbd
00000240: 1fcb dbbd 07d6 c9bb fb1b 233e dce0 5b3e
00000250: 0aa5 2f3e 78dd 8f3d 56b3 3abd 44f4 cf3d
00000260: 09fe 18be 842a 943d 9a4b 783d 1a65 60bc
00000270: da9e bc3d 8cb0 05bd 9e3f d03d 5c86 a7bd
00000280: d00f 1e3d 4085 e5bd 5798 7c3e a85a 5dbd
00000290: a94a 1f3e 6f80 ce3d 61be 45bc eef5 203e
000002a0: 8612 573e d357 a33d 228f 523e 7423 efbd
000002b0: b748 143e ee93 a8bb c52d aa3e a13f afbd
000002c0: f717 afba 6aab 313e 79dc f83d 22e4 c1bd
000002d0: 5d03 933d 07b1 a3be d9b6 603d 7946 adbe
000002e0: 1ffd e33d 15cf 37be a51d a5bd a198 923d
000002f0: 83a2 6bbe 0947 ed3d c10b 1b3d edb7 00be

linear.weight f4 [2, 48]
0.2145049 0.1487519 0.06464997 -0.3035189 0.111774996 -0.046664476 0.08534978 0.14086376
0.03335951 0.08664322 -0.07923272 -0.0074714976 0.2609788 0.14353895 0.13510019 0.17119682
0.1299659 0.13310729 -0.25669408 0.016921323 0.2591135 0.17943054 -0.29254818 0.22073692
-0.2551845 -0.14433165 0.25243574 -0.23879302 -0.16912776 -0.13323438 -0.27208844 0.009737091
-0.08046485 0.10097198 -0.07596325 0.14187038 -0.10161595 -0.006162019 0.011990276 0.083417706
0.3578351 0.15506709 -0.19436799 0.27815783 -0.042363275 -0.23596649 -0.18010361 0.11230414
-0.031409852 0.11330712 0.18579745 0.16214755 0.12984814 0.20846191 0.19522353 0.13220249
-0.22520977 0.12601076 -0.24195874 -0.15978254 -0.041621782 0.1556493 0.1702967 0.10884108
0.09241587 -0.048047375 0.006250852 -0.15936607 -0.021406738 -0.21074672 0.23491652 0.1398411
0.02957575 0.21868622 0.12563035 -0.06674076 -0.08922978 0.19494206 0.07788356 -0.26235464
-0.14552948 0.14844619 -0.2281587 0.23747279 -0.21684553 -0.00083170435 -0.22310512 0.027635397
-0.11802513 0.081456825 -0.10460513 -0.030709714 0.13287559 0.058638256 -0.13151294 -0.21880664
00000000: 2ca7 5b3e 6b52 183e 3467 843d d466 9bbe
00000010: 4aea e43d 4023 3fbd decb ae3d 973e 103e
00000020: fba3 083d 0072 b13d c444 a2bd 77d3 f4bb
00000030: 039f 853e e0fb 123e b457 0a3e 384e 2f3e
00000040: c815 053e 474d 083e 686d 83be 969e 8a3c
00000050: 86aa 843e a4bc 373e e0c8 95be dc08 623e
00000060: 8ba7 82be adcb 13be 423f 813e 2886 74be
00000070: d42f 2dbe 986e 08be 2d4f 8bbe 5288 1f3c
00000080: c1ca a4bd 66ca ce3d 9f92 9bbd 7846 113e
00000090: 061c d0bd c3ea c9bb dd72 443c e7d6 aa3d
000000a0: 2a36 b73e e8c9 1e3e 6708 47be b46a 8e3e
000000b0: 1d85 2dbd 33a1 71be 156d 38be b7ff e53d
000000c0: 9ea7 00bd 900d e83d b041 3e3e 020a 263e
000000d0: e9f6 043e 0a77 553e ade8 473e 1760 073e
000000e0: 649d 66be f708 013e 08c4 77be 099e 23be
000000f0: 9a7b 2abd 8862 1f3e 4262 2e3e 12e8 de3d
00000100: 8844 bd3d 53cd 44bd f2d3 cc3b dc30 23be
00000110: 2f5d afbc fdcd 57be f58d 703e 8132 0f3e
00000120: d848 f23c 48ef 5f3e 3ea5 003e 61af 88bd
00000130: 1abe b6bd e49e 473e 6a81 9f3d 5953 86be
00000140: ae05 15be 4702 183e 6fa2 69be 112c 733e
00000150: c10c 5ebe bc06 5aba ab75 64be a163 e23c
00000160: 29b7 f1bd d6d2 a63d 373b d6bd f092 fbbc
00000170: 8a10 083e ab2e 703d 54ab 06be d90e 60be

linear.bias f4 [2]
0.19432929 0.07235558
00000000: 42fe 463e 2a2f 943d
